government_icfes_dataset/mlartifacts/294710831823527254/18b9bf8e24a4402f9a8c60454201d5b2/artifacts/model/data/model.pth (torch, 399552 bytes, 39 tensors)

weight f4 [4, 4]
00000000: 5188 0c3f 964d 8ebf 30bd 2240 583b e93f
00000010: 81f0 3abf 7266 2b3e 98d9 f23f 09c7 c83f
00000020: 5f08 b63e db2c 35bf 931a 03bf c08e a33b
00000030: b20f 04bf e78d 9bbe 2b6e 733f f062 e73e
0.548955 -1.1117427 2.542797 1.8221235 -0.7302323 0.16738299 1.8972654 1.5685741
0.35553262 -0.7077157 -0.51212424 0.0049913824 -0.5158645 -0.303817 0.9508998 0.4519267

weight f4 [3, 4]
00000000: 98e2 74bc d2d0 d9be 04b5 443d e79a 2b40
00000010: a558 74bf a698 7dbf 4cbd 90bf 9449 57bf
00000020: 724f 973d f09b 613f 674f f83e b09f 453e
-0.014946602 -0.4254213 0.048024192 2.6813295 -0.9544776 -0.9906105 -1.1307769 -0.84096646
0.073882 0.88128567 0.4849808 0.19299197

weight f4 [5, 4]
00000000: 3dc9 15bf cc81 a63f b528 0ebf 6217 12bd
00000010: 5217 853f edde 06c0 9b1b 99bf 32e2 a9bf
00000020: 0346 253e c3b7 9cbe cb05 8e3f 487a c23e
00000030: 9897 113f 68ae c33f e254 d33e 6159 1c3f
00000040: 0248 12bf 5ae5 80bf 5bb5 ea3e 2b55 613f
-0.5851019 1.3008361 -0.55530864 -0.03566683 1.0397742 -2.1073563 -1.196155 -1.3272154
0.16139989 -0.3060895 1.1095518 0.37983918 0.5687194 1.52876 0.41275698 0.6107388
-0.57141125 -1.0069993 0.45841488 0.8802058

weight f4 [7, 4]
00000000: ac3e 1b40 c5b6 a3be dd2c 27be e4d1 523f
00000010: ea78 f2be e61a 3b3e ddba 14be 3bcb 59bf
00000020: 3408 e13e d89e 653d 4f77 713d 75eb a43e
00000030: 7132 9abf 24b3 1dbf ab7b f83f 8aff 9f3e
00000040: 794c 423f 625e 85be 95ea b1bf 5684 afbf
00000050: 4bb7 eebf d89b d9bd 6a22 d53f cc66 3fbe
00000060: d492 813e 8498 aebf e6ec 9dbe 4dbc ebbf
2.4257002 -0.3197538 -0.16325708 0.8235152 -0.47357875 0.1827198 -0.14524408 -0.8507573
0.4395157 0.05605969 0.058951672 0.3221089 -1.2046643 -0.6160147 1.941274 0.31249648
0.7589794 -0.2604857 -1.3899714 -1.3712261 -1.8649687 -0.10625428 1.6651127 -0.18691558
0.25307333 -1.3640294 -0.30844802 -1.841684

weight f4 [7, 4]
00000000: f8a7 7fbf 3a29 1bbf 2b65 3bbe bfd3 a6bd
00000010: 8a6b 7dbe 056e 843f 3b48 ecbe 0a21 0d3f
00000020: 37df 1140 3cdc ad3f 6de4 ac3f 0ab2 12c0
00000030: 39ef 473f 1e81 0040 b1dc 3e3e 1093 30c0
00000040: c7dc 1c3f ebd5 17bf 44ff 683f 5802 12be
00000050: a30e acbf 7a2c c23f ece4 7a3f e11c a0bf
00000060: 1244 8a3f f746 a13f 3d39 6fbf 41af d63f
-0.99865675 -0.6060978 -0.18300311 -0.08145856 -0.24748054 1.0346075 -0.46148857 0.5512854
2.279249 1.3582835 1.350721 -2.2921166 0.780994 2.0078807 0.18638875 -2.758976
0.6127438 -0.5931079 0.91014504 -0.14258707 -1.3441967 1.5169823 0.9800556 -1.2508813
1.0802023 1.2599782 -0.93446714 1.6772233

weight f4 [1025, 4]
00000000: 5d68 b33f 266d afbf fc96 583e 9b0e 8c3d
00000010: 6846 2abd 04aa fc37 c26d 3f3e 63d4 34be
00000020: 697e f0b8 bfc2 cabe 03a5 d73e 2682 153f
00000030: 61cc 163e dfe7 fc3e c57f fd3f 2058 debf
00000040: d9fa 503e d82f 8dbf ae29 ec3f cb78 d5bf
00000050: 314d b8bf 240d 5a3f 192d 5d3f d9f4 4abf
00000060: e66e d53e 343b 7c3f 46a1 ddbf a425 753f
00000070: 1baa 3440 fdcd 3e3f 2c16 36bf e5c2 423f
00000080: d52c 14bf 1c7c f93e cd94 1bbf 59ec fc3f
00000090: 9888 e9bf 4954 04bf 700a 433f 7827 a43f
000000a0: f222 453e d218 0840 1efa 5abf 7cd7 c33f
000000b0: bbbd 423c 2064 c4ba 6609 89bf 27e2 8a3f
000000c0: 3c44 c63e c8fc 3c3f 146a 953e dd74 4a3f
000000d0: 5f7b 8bbf 0716 acbf c0a7 a63f 8c48 ff3e
000000e0: 87ed 113f 0aaf 34bf 30d3 923e 389b 87bd
000000f0: 4648 69bf ddbb 20bf a9bc 15bf 22a8 ef3d
00000100: 85c0 75bf 0df9 19bd a9cd 45be 04fb 4cbf
00000110: d6c5 803e a3c8 fe3e 8370 0c3f 8e3f 963f
00000120: 9af8 48be bd47 993e 7b30 383f d554 0c3f
00000130: 9387 503f e7de 30c0 b621 c53d 893f 12be
00000140: 11cc 973e b651 873f 7b41 9fbf 510f 5b3e
00000150: c63c 983e 43ff 79bf a4e0 1a40 d703 9c3e
00000160: f039 423f 7591 b5bd 6dce cd3f c364 98bf
00000170: 81b2 6bbe 98cf 58bf c161 9cbe 2607 eb3e
00000180: 8de4 aabf 0bac 25bf 4ab0 323f 0e54 fabf
00000190: 8227 27c0 817e 0ac0 d8ee a33f 4c08 113f
000001a0: 3522 1a40 1090 143f 75ac 87bf bf3e 31bf
000001b0: b3e5 de3f 358c 893f c8e4 12bf ecd6 26bf
000001c0: d424 9cbf e075 42bf 5486 ec3f a5c2 433e
000001d0: 8779 b3bf 7a90 1c3f 8a9f 983f 9419 9fbf
000001e0: 5612 df3f 957a fb3f dd7e 813e c996 fe3c
000001f0: ff32 293c 4884 353f cc1e dabd 4b11 0ebf
00000200: 8a29 733f aace 7c3f a22f d1be effa 8f3f
00000210: b0e5 4cbf 45cb 94bf 34e9 c53f ca58 0e40
00000220: a4f1 bf3e 4896 a4be 323c eabe 35b9 31bf
00000230: 53e5 2340 f867 2dc0 8bbf 0dbf 6f57 cc3e
00000240: 7e96 993f 5d13 cbbf 6a19 a43f 1688 2fbf
00000250: 9660 7ebf dc11 513f da90 b5bf bc90 c63f
00000260: 76e5 6ebf b491 25c0 3ff7 d43e b7a7 493f
00000270: 7bab 0240 5709 6ebf edc7 dd3d ef85 223f
00000280: 6431 13bf 6a80 f0be 42d0 183e 41e3 973f
00000290: 1e7d 9fbf 89b7 3c3f ae66 cbbf 3689 313e
000002a0: 85ec b63f ae65 23be 70ac 863f 42cb 7bbe
000002b0: acf1 113f 2fb8 3dbe c6f0 12bd d8b6 6fbf
000002c0: 1781 7e3f 7cac fbbe a28d a4bf 767c 2d40
000002d0: 0ae5 ab3f 41cd ef3f f083 073f 6766 fcbe
000002e0: 067b 7bbf e7a9 f2be cfde be3d 022a e73e
000002f0: fabd 5ebf da74 19c0 e156 b53f 005f 293f
00000300: f058 36bf a477 e4bf c9eb cf3e d21e 013e
00000310: 78eb 51bf 5c99 d9bf 2017 adbe dedc 28bf
00000320: 7e44 dd3f 177f babe 01e9 063f 8ee2 5b3f
00000330: 85d3 b0bd 6915 20be 3cf8 bcbe 078e 923f
00000340: 2c8b 83bc 2481 50bd 6de6 7bbf d48b 3c3f
00000350: 403e e6bd 9df7 63bf a81c 443f e549 42bf
00000360: 078a 22bf 5587 63be 1767 2cbe 42ee 1bbf
00000370: 6a83 d93f 2a38 ecbf b660 d73f 98cd fb3e
00000380: bd93 85be d7be e9be 8546 be3e da94 16bf
00000390: 391c 34bf 7993 0bbf 2f27 17be fda1 7dbd
000003a0: bbc8 2ebf 238c 233f 407a 35bd 6869 1b3b
000003b0: 9996 8abc e50c c93f d505 8d3f 9667 7dbf
000003c0: db03 b5bf 520d f3bf fae5 b23f af21 0dbf
000003d0: bb2a 18bf ad66 8f3e a9fc 5d3e f3b3 14be
000003e0: b53b ebbf 1054 2bc0 4d95 263e da01 2abe
000003f0: ce61 0d40 e626 46c0 8889 5d3f 953c af3e
1.4016224 -1.3705184 0.21151346 0.06838723 -0.04157105 3.011991e-05 0.18694213 -0.17659144
-0.000114676375 -0.39601704 0.4211808 0.58401716 0.14726402 0.49395654 1.9804617 -1.7370644
0.20408191 -1.1030226 1.845022 -1.6677488 -1.4398557 0.851763 0.8639694 -0.7927986
0.4168617 0.98527837 -1.7314842 0.9576056 2.8228824 0.74533063 -0.7112758 0.76078635
-0.5788091 0.487275 -0.60773927 1.9759628 -1.824481 -0.5169111 0.761878 1.2824545
0.19251612 2.126515 -0.855379 1.5300136 0.011886056 -0.0014983453 -1.0705993 1.0850266
0.38723934 0.73823214 0.29182494 0.7908457 -1.0897025 -1.3444222 1.3019943 0.49860036
0.5700306 -0.7057959 0.28676748 -0.066214025 -0.91125906 -0.62786657 -0.58491 0.11701991
-0.95996886 -0.03759103 -0.19316734 -0.8007052 0.25150937 0.4976245 0.5485918 1.1738145
-0.19626084 0.29937544 0.71948975 0.54816943 0.8145687 -2.7636049 0.096255705 -0.14282049
0.29647878 1.0571811 -1.2441858 0.21392561 0.29733866 -0.97655123 2.419961 0.3047168
0.75869656 -0.08865634 1.6078621 -1.190575 -0.23017313 -0.8469176 -0.3054333 0.4590389
-1.3350998 -0.6471564 0.69800246 -1.9556901 -2.6117864 -2.1639712 1.2807264 0.56653285
2.4083378 0.5803232 -1.0599505 -0.6923637 1.7413849 1.0745913 -0.5738034 -0.65171695
-1.2198739 -0.7596111 1.8478494 0.1911722 -1.4021462 0.61157954 1.1923687 -1.2429681
1.7427471 1.9646784 0.25292102 0.03107776 0.0103271 0.7090497 -0.10650405 -0.55495137
0.9498526 0.98752844 -0.40856653 1.1248454 -0.80037975 -1.1624533 1.5461793 2.2241693
0.37489045 -0.32145905 -0.4574905 -0.6942323 2.5608718 -2.7094707 -0.55370396 0.39910457
1.1999052 -1.5865284 1.2820256 -0.68567026 -0.9936613 0.81667876 -1.418483 1.551292
-0.9331888 -2.587018 0.41594884 0.7877154 2.0417163 -0.92983 0.108291484 0.63485616
-0.5749724 -0.46972972 0.14923194 1.1866227 -1.2460058 0.7371755 -1.589071 0.17337498
1.429093 -0.15956756 1.0521374 -0.24589255 0.57009387 -0.18527292 -0.03587415 -0.9363837
0.99415725 -0.49155033 -1.2855723 2.7107215 1.3429272 1.8734514 0.52935696 -0.49296877
-0.98234594 -0.4739525 0.09319841 0.45149237 -0.8700863 -2.397757 1.4167138 0.66160583
-0.7122946 -1.7849011 0.40609577 0.12609413 -0.8199992 -1.6999927 -0.33806705 -0.65962017
1.7286527 -0.36425087 0.52699286 0.8589257 -0.08634094 -0.15633167 -0.36908138 1.1449593
-0.016057573 -0.050904408 -0.98398477 0.7365086 -0.11242342 -0.890497 0.76606226 -0.75894004
-0.63491863 -0.22219594 -0.168362 -0.6091043 1.6993229 -1.845464 1.6826389 0.49180293
-0.26089278 -0.45653412 0.37163177 -0.5882088 -0.70355564 -0.545219 -0.14761041 -0.061922062
-0.6827504 0.63885707 -0.04430604 0.002371395 -0.016917514 1.570706 1.1017405 -0.98986185
-1.4141802 -1.898844 1.3976433 -0.5512952 -0.594402 0.28008023 0.21678413 -0.1452177
-1.8377596 -2.6770058 0.16267891 -0.16602269 2.2090945 -3.0961242 0.8653798 0.34225908

weight f4 [3, 4]
00000000: 296c 6dbf 94c8 aebf bbd4 91bf 047f 183f
00000010: 742a d83d 1a72 823f a5de a23e 417c 633f
00000020: 824d 933f 0a97 1c3d f95c 783e 1e89 7f3f
-0.92743164 -1.3654962 -1.1393045 0.5956881 0.10554972 1.0191071 0.3181049 0.8886147
1.1508029 0.03822998 0.24254216 0.998186

weight f4 [7, 4]
00000000: 53d2 08bf 5df1 26bf ba1e e83e a609 a63e
00000010: 1a4f 51bf 53e5 263f 272e c03e 7ad5 1040
00000020: 953a 143f 8a27 3d3f 0e35 f8be b4f8 f63d
00000030: 46d7 29bf 05ff a7be 40d8 0f3f ee54 853e
00000040: ca6f cfbd 570b 5f3f 94b7 e3bd ea54 db3d
00000050: 37b7 e83e 279a b8bd 29f0 89be 0bf0 f13f
00000060: ebda 2d3e ce0d 983f a24a 053f 8c5d cbbe
-0.5344593 -0.6521204 0.45335943 0.32429236 -0.81761324 0.6519367 0.3753521 2.2630296
0.5790189 0.73888457 -0.48477978 0.12059155 -0.66344106 -0.32811752 0.56189346 0.2604136
-0.10128744 0.8712668 -0.11118999 0.107095554 0.45452282 -0.09013777 -0.2694104 1.890138
0.16978042 1.1879213 0.52067006 -0.39719808

weight f4 [7, 4]
00000000: 452e a2be 6e73 453f 7774 0d3f 0899 e33e
00000010: 6819 a43e cb2d fa3e cd96 193f 3734 2ebf
00000020: 6964 c7bd ece7 a33d 15b5 fcbe 7376 a83d
00000030: 14c3 3bbe 077e 47be 8160 52be 5ac2 abbd
00000040: 0a7e cebe 6321 873c ef2d fa3e d422 9bbd
00000050: d669 b0bd b299 0e3f be10 b03e 57a2 8ebf
00000060: 1441 1d3f cd01 503f 24b4 353e 2238 58bf
-0.31675926 0.77129257 0.55255836 0.4445269 0.32050633 0.48863062 0.5999573 -0.68048424
-0.097359486 0.0800322 -0.49356905 0.082257174 -0.18336135 -0.1948167 -0.20544626 -0.08386679
-0.40330535 0.016495412 0.4886317 -0.07575002 -0.086139366 0.5570327 0.34387773 -1.1143292
0.61427426 0.8125275 0.177445 -0.8446065

weight f4 [3, 4]
00000000: 2c37 afbf 6c32 99bf cb9c 5bbf 8191 d53d
00000010: b01d df3f 23c3 9d3f 3e0c 313f 13c7 443f
00000020: d6a0 a43f a952 8cbf 9717 cb3f 2ebb f8be
-1.3688712 -1.1968513 -0.8578612 0.10428143 1.7430935 1.2325176 0.69159305 0.76866263
1.2861583 -1.0962726 1.5866574 -0.48580307

weight f4 [427, 4]
00000000: e3c2 913e c69d 4ebd 41ca 983d 4541 8abf
00000010: e06d 993f 52af 793e 22a2 a3be 1305 23bf
00000020: 79ee a1bf a044 e03f cdc1 c03e 1824 083f
00000030: 0439 ffbe b6c6 94bf 833d 923f 296d 9ebd
00000040: 3759 1f3f 6374 9abe 4eec d93f cfba bcbd
00000050: 8555 253f 9459 29c0 4774 d7bf 24ec e6bf
00000060: 9e29 f2be a1fd 8dbf c206 80bf b189 81be
00000070: 9175 b8bf 01d3 c9bf fabf a23e b69c e53f
00000080: c1f1 d23f 422d a1bf d009 eb3e e1b5 ccbe
00000090: c985 303f 5da0 16bf 8cd3 143e 658e b6be
000000a0: 6784 d1be b267 fbbe 72ea 2bbe 197c 2bbf
000000b0: cab0 73bf 18c3 a0bf bc97 f7bf 07a0 0f40
000000c0: 70e7 45bf b620 f1bf f47c 873f a710 143f
000000d0: 0980 b4bf 20a2 4b3e c430 aa3e f917 513e
000000e0: 075c b3bf 3e9d dd3d 60ee c03f 5422 863f
000000f0: 455c 5cbe e3da 4c3f dc2d ab3e 42f5 093f
00000100: 5901 a53f b48a aebd e318 7cbf 9f6a 33bf
00000110: 48a1 05c0 dae1 52bd 4fe2 61bf 4bb3 9a3d
00000120: 6b88 18bd 374b 9dbe fb9d f7be 85ba 1340
00000130: 454f 233f 5053 fe3f 6247 803f 206d 153f
00000140: d73b dfbe dac5 c43f bea0 09c0 1230 e93c
00000150: 7af6 5f3f de73 3e3f ed0a 9f3f 029e 1a3f
00000160: a94d fabf 66e5 8abe fd1d a23f e7f4 a13f
00000170: 6a69 553f b2e2 52bf d8d1 b83f bc04 a43e
00000180: 4173 d0bc 5e3d 79be 9cd5 0a3f 0d52 ecbe
00000190: 9c4c 973f f103 63be 23e0 87be 7569 7ebe
000001a0: f69a 043f 90b7 7d3e dc15 4e3f dc64 ae3e
000001b0: 10ae d13c 9ad0 e83f 2964 803f 13bf 0ac0
000001c0: b5d1 e1bf 11da 01bf e01b 9c3f e11f 2f3f
000001d0: aa09 783e e0fb 673e af42 ab3f e98c ac3f
000001e0: 8aef 073e 1f2b 0a3f adbf 3abf 135e 0e3e
000001f0: 6933 71bf 78b6 173d e2cf c83d 1f18 243e
00000200: 3914 61bf 02df 29c0 020e 3540 f875 1b3f
00000210: 095d aa3f 0563 c93e 319b d5be 4dc9 393f
00000220: dd9b 75bb e164 9f3f 0ee8 c63f 4756 e6bf
00000230: 5c2e 2f3e dc23 8e3f 3bcc 4540 b4fd 71bf
00000240: 4756 2040 7e51 3abe edf5 4f3e 8f40 543f
00000250: bf29 f33d dc49 7c3f 2bdf 2cbe 6d34 2b3f
00000260: be65 aa3f 4de7 a8bf 317b 203f a54c 65bd
00000270: fac4 bfbf c639 813f dd33 ac3f f192 9fbf
00000280: 580c 1a3e b9d2 bcbe d1ea 813e 3a1b e43e
00000290: 4c82 80be 0c79 aebf f34e 7bbd 5a29 e8bf
000002a0: 91da b3bf e7bc 20c0 9a8b 1a40 2d92 34bf
000002b0: 9469 cc3d 88d1 933e 7510 213e 7eac 9e3e
000002c0: 1621 a63d 6d1e 693e b7c7 96bd 4c0d 4d3f
000002d0: d34d 14be 408f 83be 9a77 88bd b39e 12bf
000002e0: 3db9 dabf 6f44 db3f 161b a8be 5992 8a3e
000002f0: ec30 3e3f 4de0 52bf 9203 413f 8340 c83d
00000300: 53ac 57bf ff77 343e 3447 113f 74ec 28be
00000310: adc5 83bd 6f19 ec3d 0b41 ffbe 96b2 5e3f
00000320: 4ae3 973c e495 03bf 1ab0 063f 53da 1fbf
00000330: 3410 c3bf fcbd 99bf 0ba7 b23f 5681 253f
00000340: f2bc 793e 0130 133f 6694 673d 09a1 aebf
00000350: 10b2 80bc 0ff5 693e 7b0f 20bf 7b99 9fbe
00000360: 9575 923f 5c61 f8be c403 0dbf b784 bfbf
00000370: 5ad7 2640 b226 4d3f 8238 5d3f f397 7f3d
00000380: 471f 553f 7a7b 39be 2dea d93f a86a c83f
00000390: e643 103f cbf7 26bf 2589 9d3e 0893 59be
000003a0: cd86 343d a978 943f 6672 9a3e a5b9 5c3f
000003b0: 2c92 2840 a1ec 5abf 18e2 d13f f08b 03bf
000003c0: c9f5 103e 6b72 3b3f f849 433f 8176 26be
000003d0: d29f 36bf 4941 b0bd 6f1c 84bf c28f a8bd
000003e0: 0ee7 07bf 64b3 8e3d 3d5a b93f f825 21bf
000003f0: dc1b 893f 283b e33e 0bde 23bf e1e7 a0bf
0.28469 -0.050443433 0.07460452 -1.0801169 1.1986656 0.24383286 -0.31959635 -0.6367962
-1.2650901 1.7520943 0.37647858 0.53180075 -0.49848187 -1.1623142 1.1425022 -0.077356644
0.62245506 -0.3016692 1.702524 -0.092153184 0.6458362 -2.6460924 -1.683236 -1.8040814
-0.47297376 -1.1093026 -1.0002062 -0.25300363 -1.4410878 -1.5767518 0.31787091 1.7938449
1.6480027 -1.2591937 0.45905924 -0.39982513 0.6895414 -0.58838445 0.14533824 -0.35655513
-0.40921327 -0.4910255 -0.16788653 -0.66986233 -0.95191634 -1.2559538 -1.9343181 2.2441423
-0.7730627 -1.8838108 1.0585008 0.5783791 -1.4101573 0.19886065 0.3324033 0.20419301
-1.401246 0.10821007 1.5072746 1.0479226 -0.21519573 0.80021495 0.33433425 0.5388986
1.2891036 -0.08522549 -0.98475474 -0.70084566 -2.0879688 -0.05148492 -0.88235945 0.07553729
-0.037239473 -0.30721447 -0.48362717 2.3082592 0.6379283 1.9869175 1.0021784 0.58369637
-0.43600342 1.537288 -2.150436 0.028465305 0.8748547 0.7439555 1.2425209 0.6039735
-1.955495 -0.27128142 1.2665402 1.2652863 0.83363974 -0.8237716 1.4439039 0.32034862
-0.025445582 -0.24339816 0.5423219 -0.4615635 1.1820254 -0.22169472 -0.2653819 -0.24844916
0.5179895 0.24777055 0.80502105 0.34061325 0.025595695 1.818866 1.0030566 -2.1679122
-1.7642123 -0.5072337 1.2196007 0.6840802 0.24222437 0.22654676 1.3379725 1.3480502
0.1327497 0.5397205 -0.72948724 0.13903074 -0.9421907 0.03703925 0.098052755 0.16024826
-0.8792148 -2.6542363 2.82898 0.6072688 1.3309642 0.39333358 -0.41719964 0.72572786
-0.0037476935 1.2452661 1.5539567 -1.799508 0.17107528 1.1104693 3.0905902 -0.94527745
2.505266 -0.1819515 0.20308657 0.8291101 0.11873197 0.985502 -0.16882007 0.6687687
1.3312299 -1.3195587 0.62687975 -0.055981297 -1.4981987 1.0095756 1.3453327 -1.2466718
0.15043771 -0.3687952 0.25374463 0.44552022 -0.2509941 -1.363069 -0.06135459 -1.813762
-1.4051076 -2.5115297 2.4147706 -0.70535547 0.09981075 0.28870797 0.15728934 0.30990976
0.081117794 0.22765513 -0.07362311 0.80098414 -0.14482813 -0.2569523 -0.06663437 -0.57273406
-1.708778 1.7130259 -0.32833165 0.2706478 0.742934 -0.82373506 0.7539607 0.0977793
-0.8424732 0.176239 0.5674927 -0.1649645 -0.06434188 0.115282886 -0.4985431 0.8699125
0.018540997 -0.5140059 0.5261246 -0.6244251 -1.523932 -1.2011104 1.3957227 0.64650476
0.24388483 0.57495123 0.05653801 -1.3642894 -0.015709907 0.22847389 -0.6252362 -0.31171784
1.1442133 -0.4851178 -0.5508387 -1.4962376 2.606894 0.8013717 0.8641435 0.06240077
0.8325085 -0.18113509 1.702459 1.5657549 0.56353605 -0.6522185 0.30768695 -0.21247494
0.04407387 1.1599323 0.30165404 0.8622077 2.6339216 -0.8551732 1.6397123 -0.513854
0.1415626 0.7322146 0.7628474 -0.16256143 -0.71337616 -0.08606202 -1.0321177 -0.082305446
-0.53086936 0.0696781 1.4480664 -0.6294856 1.0711627 0.4438107 -0.64010686 -1.2570764

weight f4 [1030, 4]
00000000: 7816 f5bf bde6 8a3f 6926 91be 5974 a73e
00000010: c7e7 603f ae01 693f 0286 033f d70f 3d3f
00000020: 7ab5 5c3f b6c7 dc3f 7139 51bf dac1 1640
00000030: c5cc c13f ab6a b3bf 8679 94bf 3b2e 4cbf
00000040: 84b0 a6bf 2f4d 043e 78a6 65bf c0b2 f3bf
00000050: 142f 733f f1f2 1b40 94ef 293f 73c7 cf3f
00000060: 248e 3a3f 6725 74bf 3b22 69bf d3d2 2ebf
00000070: 5bc8 73be 101f 0440 795e cabd ffef 283e
00000080: af3e 0440 64e3 8ebf d809 953f 0cd3 a13e
00000090: 34b3 f53d ca2e 693e 09a0 213f c310 f5be
000000a0: 276c 5c3f 3f74 503f 7008 5abf 6bf4 05c0
000000b0: 986c b2be 56a4 bcbe 0ed6 aebe 1909 efbe
000000c0: 72dc f6be 1b72 d4bf 61a9 55bf a5be 9fbf
000000d0: 34f9 13bf 3bfe 9bbe 065e f4be 9281 863f
000000e0: 9196 ad3f 39a0 c93d 75b4 8a3d 584f d2bf
000000f0: 0ac8 a1be b4b2 2f3e 9ad6 81bf 7dda 703d
00000100: b051 ee3f 6bf4 8bbf 2fee 263f 1e0d 0dc0
00000110: bf60 c43f 7f36 3bbf db27 fd3f 2b09 d73e
00000120: b5b8 45bf 769a 563f 72ce b83e 6c16 02c0
00000130: 5604 afbe 0ff4 f7be 2c18 37c0 a8ee 16bf
00000140: 2820 dbbe 4aea 42bf f32c ce3e 6709 603f
00000150: d790 cdbe 1b15 213f 5d61 3abf 55c2 543f
00000160: 196b 0540 b643 dbbf 7b56 b9bf 2646 ca3d
00000170: 3961 8abf 3a4f ea3e cb69 e3be d9d3 303f
00000180: d937 05bd 38ce 0ebe 8978 b83c 0c6e c5bf
00000190: 7cee 5d3f f4a5 b7bf f1ce 19c0 4a27 1f3c
000001a0: fabd 133f 6bdb 303f 4145 29bf cf5f cfbe
000001b0: 2d10 433e 8b59 a23f a58b 81bf 1428 3bbf
000001c0: 7938 51bf 686c cabf 5f33 73bf 0afa 1abc
000001d0: f033 2fbf 852f 903e cede b4bf 8202 07c0
000001e0: 3930 a9bf ecd6 7f3f a30e 70bf 717a 58be
000001f0: 4301 e6bc 9955 1340 85fe 0140 66eb f93f
00000200: e849 5bbe 0e49 823f 0c15 b53e 66da 7c3e
00000210: f9c0 983f d627 2abf 42e2 423f 2e91 043f
00000220: 960a 803f dae6 a13f ed75 bfbf bed1 073e
00000230: 7457 0f40 7808 58bf cbdd 4f3f 6f21 033f
00000240: 5bcb 5a3e 98ab 66bd 9f9d ca3f b381 7cbf
00000250: 892a e9bd 349e 6a3e 762b ce3c bd94 f9bf
00000260: 87f6 9bbf 601b 94bf 4a87 7ebf ca67 083f
00000270: b28b 48bf 80ab 813f 2042 8f3e 4191 e13e
00000280: 9f83 b1bf 49ba 443f 0bbb 213f 53dc dd3e
00000290: fc51 4ec0 6746 02bf 8e19 47be ae11 c3be
000002a0: cfd8 713e 8db4 fc3f ffb6 35bf e0a3 d1bf
000002b0: 16a4 21bf 080c 383f 3f50 043e a29d 923c
000002c0: 9e45 223f 691a d0bf 611e 2fc0 d772 afbf
000002d0: d161 50bf 7df2 32c0 a9a5 29bf d705 56bf
000002e0: 4ef7 3ebe fccb cf3f 1d7f cabd eca4 8ebe
000002f0: f6c8 8abf 9e7d c9bf ef2e a2be bdb2 fe3e
00000300: bdb1 203f 6011 d1bf a06d 373e 39ef 933e
00000310: 790e b03e ce9e 0a40 97d2 593e 3e56 1540
00000320: f152 7740 f396 b63f 0c9e c03f bbce 683f
00000330: cbbc 1d3f e1ad 2c3f 6fae 20bf 02f2 3d3f
00000340: c8ca 05c0 fa6b a6bf 35f7 0b3f 9104 6d3f
00000350: cc6a e4bf 6ee0 8dbf 6211 233f b531 a13e
00000360: 84f5 0740 99e0 353f f3a6 fd3f 3620 c43f
00000370: 83a5 cebe 17d9 963d c09b a53e 48f8 84bf
00000380: c46a 053e cf6f 543e 6f66 6640 7f3a 563f
00000390: 2013 b0be 3d74 47bf afe6 11c0 6bd6 0bbf
000003a0: 14d9 d4be 48df fb3d 1788 5d3f 8085 56bf
000003b0: 88de febe 0793 863f 96fd 483f 7b3b 913d
000003c0: 94f2 85bd 2afb 833d 1fae 823d b825 98bf
000003d0: dd8f 24bd 880c b6be 1b9e f83e 34ee 9cbf
000003e0: dfe7 17c0 9c46 cabd 5c01 a9be d578 b3bd
000003f0: 4000 d7bf 48ab d1bf 82b7 0abf f3d3 bd3e
-1.9147482 1.0851666 -0.28349617 0.32705954 0.87853664 0.9101819 0.51376355 0.73852295
0.8621441 1.7248447 -0.81728274 2.3555818 1.5140616 -1.4016927 -1.1599586 -0.7975804
-1.3022618 0.12920068 -0.89707136 -1.9038925 0.9499371 2.436703 0.6638119 1.6232742
0.7287314 -0.9536957 -0.91067857 -0.6829044 -0.23806898 2.064396 -0.098813005 0.16497801
2.066326 -1.1163144 1.1643629 0.31606328 0.11997071 0.22771755 0.6313482 -0.4786435
0.8610253 0.8142738 -0.85169125 -2.093043 -0.34848475 -0.36844128 -0.34147686 -0.46686628
-0.4821506 -1.6597322 -0.83461577 -1.2480055 -0.5780213 -0.304674 -0.47727984 1.0508292
1.3561574 0.09845013 0.06772701 -1.6430464 -0.3159793 0.17158014 -1.0143616 0.058802117
1.8618679 -1.0933965 0.6520719 -2.2039256 1.5342025 -0.7313003 1.9777788 0.41999182
-0.77234966 0.8382944 0.36095005 -2.0326185 -0.34182996 -0.4842839 -2.8608503 -0.5895791
-0.4279797 -0.76138747 0.4026867 0.87514347 -0.40149567 0.6292283 -0.72804815 0.8310903
2.0846617 -1.7130039 -1.4479517 0.09876661 -1.081092 0.4576357 -0.4441665 0.69073254
-0.032523964 -0.13945854 0.022518413 -1.5424209 0.86692023 -1.434752 -2.4032557 0.009713957
0.57711756 0.69084805 -0.661213 -0.40502784 0.1904914 1.2683576 -1.0120741 -0.7310803
-0.81726795 -1.5814333 -0.9500026 -0.009459028 -0.68438625 0.28161255 -1.4130495 -2.109528
-1.3217841 0.9993732 -0.93772334 -0.21140458 -0.028076774 2.3020995 2.0311596 1.9524963
-0.21414912 1.0178545 0.3536762 0.24692687 1.193389 -0.66467035 0.7612649 0.51784027
1.000323 1.2648575 -1.4957863 0.13263604 2.2397127 -0.8438792 0.81197804 0.5122289
0.21366636 -0.05631599 1.5829352 -0.98635405 -0.11385066 0.22911912 0.025167208 -1.9498516
-1.2184609 -1.1570854 -0.99425185 0.5328337 -0.7833816 1.0130463 0.27980137 0.44056132
-1.3868293 0.7684675 0.6317603 0.43332157 -3.223754 -0.50888675 -0.19443342 -0.38099426
0.23617862 1.97426 -0.70982355 -1.6378136 -0.63141 0.7189336 0.12921236 0.01789743
0.6338748 -1.625806 -2.7362292 -1.3706921 -0.81399256 -2.7960503 -0.662684 -0.8360266
-0.18649027 1.6234126 -0.09887526 -0.278602 -1.0842578 -1.574146 -0.31676432 0.4974574
0.6277121 -1.6333427 0.17912912 0.2889345 0.34386042 2.1659427 0.2127174 2.3333888
3.8644373 1.4264816 1.5048232 0.90940446 0.616162 0.6745282 -0.62766165 0.741974
-2.0905018 -1.3001702 0.54674083 0.9258509 -1.7845092 -1.1084116 0.636984 0.31483236
2.12436 0.71045834 1.9816574 1.532233 -0.4036065 0.07365625 0.3234539 -1.038827
0.13029009 0.20745777 3.600002 0.8368301 -0.3438959 -0.7791174 -2.2797048 -0.5462405
-0.41571867 0.12298447 0.8653578 -0.83797455 -0.49779153 1.0513619 0.7851194 0.07091423
-0.06540409 0.0644439 0.06380867 -1.1886511 -0.04017626 -0.35556436 0.48558125 -1.2260194
-2.3735273 -0.09876749 -0.3300885 -0.08763281 -1.6796951 -1.6380396 -0.5418626 0.37075767

weight f4 [7, 4]
00000000: a25c 94bf 5d90 f4bd 8b21 46bf 46bd a6bf
00000010: e4cb 6ebf f934 cc3f 2941 eabe e270 2dbf
00000020: a7d9 0b3e 52e5 95bf cea2 68be 4b04 b33d
00000030: 696c 4c3f 42b6 723c 0ea8 123f ab44 c43f
00000040: 3633 9a3e 7f68 e13e 40a2 c8bc 9dd3 f93f
00000050: 8e50 9cbf 7ca7 1d3f 6825 01bf 1999 5ebc
00000060: 4663 4fbd 5481 e03e f3c9 e23d fd5b 0640
-1.1590769 -0.119415976 -0.7739493 -1.3026512 -0.9327986 1.5953666 -0.45752838 -0.6775037
0.13657247 -1.1710608 -0.22718355 0.08741053 0.7985292 0.014813961 0.5728768 1.5333456
0.30117196 0.44025037 -0.02449143 1.9517704 -1.2212083 0.61583686 -0.504477 -0.013586306
-0.050631784 0.4384867 0.11073675 2.0993645

weight f4 [7, 4]
00000000: e107 07c0 50c0 0b40 791f 3fbf e6e6 c83e
00000010: 2243 e03e 5f74 35bf 3b91 a0bf d84a 04c0
00000020: fc4a 663f 6738 5b3f 1cf3 673f bcc4 793f
00000030: 7900 2440 4567 e73e fb9a 923f 5342 d5bf
00000040: 96a7 97bf 3f9b fabd 8850 f23e 2057 323d
00000050: 71e7 52bd 5269 423f eae9 b53e 0cc7 51be
00000060: eb55 2a3e 26f1 47bf aeda e53e 482a 2a3f
-2.109856 2.1836128 -0.746574 0.39238662 0.43801218 -0.70880693 -1.2544321 -2.067068
0.8995817 0.8563294 0.9060533 0.9756582 2.5625288 0.45195976 1.1453546 -1.6660866
-1.1848018 -0.12236642 0.47327065 0.04354012 -0.05149025 0.75941956 0.35530025 -0.20486087
0.16634338 -0.7810234 0.44893402 0.66470766

weight f4 [7, 4]
00000000: 25bc 19be a20a ba3f d5f1 aabe 84f0 4bbe
00000010: 962b 2cbf 5825 7c3f 16f0 1ebf b5b0 9dbd
00000020: 3650 dfbe 2807 16bf 4ee8 8dbf 4656 b8be
00000030: d675 bbbf 6829 83bf 2c88 74bf 4ea8 443f
00000040: 1a18 00be 0da5 79bf 67cf 2e3f f419 7f3e
00000050: b547 eb3e 3ee0 1a3f 4f97 f03f 7f11 78be
00000060: 5d3f 9bbf fbaa abbf 1e45 8ebf 2aa5 153c
-0.15013178 1.4534495 -0.33387628 -0.19915968 -0.67254007 0.9849448 -0.6208509 -0.0769972
-0.43615884 -0.5860467 -1.1086519 -0.3600332 -1.4645336 -1.0247011 -0.9552028 0.7681931
-0.12509194 -0.9751747 0.6828522 0.24912244 0.45953146 0.60498416 1.8796176 -0.24225424
-1.2128712 -1.3411554 -1.1114843 0.009133616

weight f4 [6, 4]
00000000: 60d1 4f40 a3aa fe3f e046 df3f 4baa 49bf
00000010: 843b 473f 5ccc 033f 9f0e 463f cf29 5bbf
00000020: be92 c4bd cb49 59bf f2c0 bdbd efa5 87bf
00000030: 26aa 563e 3064 a7bf 65e1 22c0 a0f3 05bf
00000040: e661 87bf acca b3bf 44d6 22bf 59a0 6cbf
00000050: 4e49 083e 738a 943f d334 733e 411c a73e
3.2471542 1.9895824 1.7443504 -0.7877547 0.7782519 0.514837 0.7736606 -0.8561067
-0.09598301 -0.84878224 -0.09265317 -1.0597514 0.20963344 -1.307745 -2.545007 -0.5232487
-1.0576751 -1.4046226 -0.63608193 -0.9243217 0.13309214 1.1604751 0.2375062 0.32638744

weight f4 [16, 1, 3]
00000000: 92d4 b53e 236c edbe 82a9 83be 656d 22be
00000010: 69f6 2f3f 9259 fa3e 81c3 2f3e f488 91bf
00000020: 31cc 383e 18ba 9cbe 08f7 f3bd ebde 613f
00000030: b505 06bf 3a98 0a3f c0d8 25bd 820e 863c
00000040: 72b2 533d 6de4 1b40 948b 05bf 583c 073f
00000050: 456f 4cbd d2bc 803e cfc1 6abf 1edf 573e
00000060: b839 1a3f 42fe 193f 3eb1 88bd 856a bf3e
00000070: 7fce b03e f215 96be 7529 16bf a166 97be
00000080: ab66 023e 164c 903d 6ddc 0dbf 2bf2 b2be
00000090: 5bcb 3d3f e18a 8fbd 9aab a1be e799 b23e
000000a0: 4efc 15bf 0be3 2e3f 8491 17bf 9222 2d3f
000000b0: ad73 d4bc b21c 0a3f a040 29bf 12a7 8fbe
0.3551374 -0.46371564 -0.25715262 -0.15862043 0.6873537 0.48896462 0.17164423 -1.136992
0.18046643 -0.30610728 -0.11912352 0.8823077 -0.5235246 0.5413853 -0.040489912 0.01636434
0.05168385 2.435817 -0.52166104 0.5282645 -0.049910802 0.25144058 -0.9170198 0.21081206
0.6024432 0.6015359 -0.06674431 0.37385955 0.34532544 -0.29313618 -0.5865701 -0.29570487
0.12734477 0.07045762 -0.5541447 -0.34950384 0.7413842 -0.07008911 -0.31576234 0.34883043
-0.5858811 0.6831519 -0.59206414 0.67630875 -0.025934065 0.53950036 -0.66114235 -0.28057152

bias f4 [16]
00000000: dcf7 b9bc a44a ddbe 924c 833d c980 63be
00000010: c011 453e cc1a 37bf 03bd a43d c22d 413e
00000020: 89e2 e43d 4e87 c13e f53a a8be a488 96be
00000030: 45b3 3bbe 9771 97be 03ae 5a3f 4710 0a3f
-0.022701196 -0.4322101 0.06411089 -0.22217096 0.19245052 -0.71525264 0.080438636 0.18865111
0.11176021 0.37798542 -0.3285748 -0.29401124 -0.18330105 -0.2957885 0.8542177 0.5393109

weight f4 [32, 16, 3]
00000000: f255 983d a3f3 8bbf 5381 993e 3229 e23e
00000010: 9a4a ac3e 001a 1abe 5585 413e 1a1a 8a3e
00000020: 4771 9cbb 3198 343e ac2b 433e 91e7 31be
00000030: 9879 ff3d 9fd3 a93c a2d6 26bf bed6 0d3e
00000040: d279 803d f77b 9d3d 9d06 613e 7246 323e
00000050: 50ff 4abf 0105 9e3c 0ec7 ac3e 7813 30bc
00000060: 3812 02be 69fd 403f b0d0 ce3e aaa8 5fbd
00000070: 110b c23e 3829 a93e 1a7f 333e 3edc 843d
00000080: 0ef7 fcbe 9385 943e d1ab bbbf 07ae 3c3e
00000090: d4e8 9c3d afc9 63be 1c07 1e3e 7b45 c33e
000000a0: 8ad4 8a3e 0bd6 813e 2699 4e3e 6379 a0be
000000b0: d5ef 97be a54f f43d 0f5b 72bf e48a bc3e
000000c0: 05ec 153e bfbb 78bf c912 c7be 6fd1 03bf
000000d0: 1e86 623e 3cac c33e dda1 bd3e e5c1 58bd
000000e0: e384 83be 6578 913d a3bb f1bd 4729 ce3e
000000f0: c86a 09bf fa93 843d c669 813d 45ab 51be
00000100: 0b42 663d abc4 c03e 1e99 14bf 6bbe 0e3d
00000110: 536e 18be 5872 803e 34e3 84be 27af f83d
00000120: 99a5 8cbc d3c9 b43d 11bf 1c3f b541 003e
00000130: 2086 d5be 2e83 5c3e c66b 843e 7471 923e
00000140: 9934 abbe 9817 113f 534e e4bb 8c9f 16bf
00000150: 8488 613e 5360 0bbf 93cd 52be 6900 dcbe
00000160: 7c19 11bf b26d 1f3f 97bd c2be 0bb1 b4bd
00000170: 8963 583e 67bd 923e eb2b 76bf 132a a7be
00000180: 2592 0fbf d37d f23e 3a98 dc3e 1369 f73d
00000190: e307 54bf 8667 28be 587d 6cbd 80be 1c3f
000001a0: d7cb 92bc deee 863d 7648 973e 90e0 9a3e
000001b0: 74fc 073e 7bb0 4fbf 3b84 843d 3a35 98bd
000001c0: e903 31be fcfe 983d 8405 e0bb a9b9 63bf
000001d0: 1db5 a03d 3235 fabb 60ca ae3e a24c e73e
000001e0: dcf5 0e3e ac90 9b3e b153 48bd 2b28 e73d
000001f0: 264e ddbb 61a4 64bc 3ce1 97be 3424 003f
00000200: 9e09 393f 5351 d33d 48f5 293f 980e 553f
00000210: 1317 5fbd 6e70 973e 5137 97be 8ee3 be3e
00000220: 1cde acbd 2504 a03e 1c35 2b3c fff5 7ebf
00000230: 19a8 2f3e 22f7 14bf e087 003f 40f3 d73e
00000240: 4765 533e b34a c739 74f9 9fbe 47de b2be
00000250: 064d 94bc 2f9f 5abe 98ca 77be 54cc b53c
00000260: 3277 28bf 7c96 43bf 8fde d8bd 71e7 d9bd
00000270: 2427 0dbf 6ae4 ef3e c6b8 273c e5d5 0abf
00000280: 6a50 67be 195c 71bd 2e31 19bf fef7 df3e
00000290: ea5f 27be df1b ebbe 83f2 a73d 143d a5be
000002a0: 9e71 4d3e b328 61bf 0025 83be 97cc 9c3e
000002b0: 2c5d 72bf 0af6 a0be 0b25 06bf 68e2 043f
000002c0: a789 bbbe c4a4 a23e 9ef1 403e 4cf4 6abe
000002d0: 4bb9 e73e 120e febe fbdd b5be fab7 06bf
000002e0: d3b3 b4be 91ff 10be 8fbc 39bf efde 8e3e
000002f0: b3f8 d6bd 0b4f 013e 3841 a0bc 765a c7bd
00000300: 3577 843d fd2b 423e 6bf6 c8be 438b 203e
00000310: e44a 10bf db39 91be 7560 ba3d fe02 1e3f
00000320: 17f8 fabe ed6a 6c3d ee15 debe fe4e 71be
00000330: 93a0 0c3e 9e0a f3bd 94aa 88be 8f00 663e
00000340: 7285 bebf 3133 83be 677d 293e c119 de3c
00000350: ce1e eabd c55d 2abe be9f e73e 348b 97be
00000360: fe79 003d b488 903e 8472 40bf 996e 7f3d
00000370: a851 e23e 6efc 6dbf 4a7f 283e f40d 7a3e
00000380: ffac 5b3d f65f 683e 0df2 de3e da44 83bd
00000390: 74d6 eb3e 0501 273e a4be 9ebf 8760 b03d
000003a0: 5aad c3be 2246 0cbf 4b9d 583d 5375 403c
000003b0: 4114 a7be b8a1 c03d 8e3e 203e 742e cebe
000003c0: 4af3 0e3e 3d37 a3bf 3094 253e af35 0cbe
000003d0: b281 563e 9e58 193d d316 d3bd 0cef 0ebf
000003e0: 2268 b23e 39e6 d23d c9a7 823e ff2a 5bbd
000003f0: ed57 a53e 7991 053e f1f1 03be 5aab 4dbe
0.07438268 -1.0933727 0.2998148 0.44172055 0.33650666 -0.1504898 0.18898518 0.2697304
-0.004774246 0.17636181 0.19059628 -0.17373492 0.12474364 0.020730792 -0.65171254 0.13851449
0.062732354 0.0768966 0.21975179 0.17409685 -0.79295826 0.019289495 0.33745617 -0.010746829
-0.12702262 0.75386673 0.4039359 -0.05460421 0.37899068 0.3303926 0.17528954 0.0648732
-0.49407238 0.2900816 -1.4661809 0.18425761 0.07661596 -0.22244905 0.154324 0.38138947
0.2711528 0.25358614 0.20175609 -0.3134261 -0.29675165 0.119292535 -0.94670194 0.36824715
0.14640816 -0.9716148 -0.3888152 -0.51491445 0.22121474 0.38217342 0.37037554 -0.052919287
-0.25687322 0.071030416 -0.11803367 0.40265867 -0.5367856 0.06473537 0.06319003 -0.2047549
0.056215327 0.37650046 -0.5804614 0.034849565 -0.14885835 0.25087237 -0.25954592 0.12142783
-0.017168807 0.088275574 0.61229044 0.12525065 -0.41703892 0.21534416 0.25863475 0.28602183
-0.33438566 0.56676626 -0.006967345 -0.588372 0.22024733 -0.54443854 -0.20586233 -0.42969063
-0.5667951 0.62276757 -0.3803527 -0.08822831 0.2113172 0.28660128 -0.96160764 -0.32649288
-0.56082374 0.4736162 0.4308489 0.12080588 -0.82824534 -0.16445741 -0.057736725 0.6122818
-0.017919464 0.06588529 0.2954747 0.30249453 0.13279897 -0.8112866 0.064705335 -0.07432027
-0.17286648 0.074705094 -0.006836595 -0.8895517 0.078470446 -0.007635736 0.34138775 0.45175654
0.13960975 0.30383813 -0.04890794 0.11286958 -0.006753701 -0.013955207 -0.29664028 0.5005524
0.722803 0.10318246 0.66389894 0.83225393 -0.054465365 0.29577965 -0.2953439 0.37282985
-0.084408015 0.31253162 0.010449674 -0.9959411 0.17153968 -0.58189595 0.5020733 0.42177773
0.20644103 0.00038011893 -0.31245005 -0.3493521 -0.018103134 -0.21349786 -0.24198377 0.022192158
-0.6580688 -0.76401496 -0.10589325 -0.10639847 -0.5513785 0.46853954 0.0102369245 -0.5423263
-0.2258927 -0.05892572 -0.5984067 0.4374389 -0.16345182 -0.459197 0.08200552 -0.3227316
0.20062873 -0.8795273 -0.25614166 0.3062484 -0.9467342 -0.31437713 -0.52400273 0.5190797
-0.36628458 0.3176633 0.1884217 -0.22944754 0.45258555 -0.4962011 -0.3552092 -0.52624476
-0.35293445 -0.14159991 -0.7255334 0.2790446 -0.10496654 0.12627809 -0.019562349 -0.09734051
0.064680494 0.18962093 -0.39250502 0.15678124 -0.56364274 -0.28364453 0.09100429 0.61723316
-0.49017403 0.05771916 -0.43376106 -0.2356529 0.13733129 -0.118672594 -0.2669264 0.2246115
-1.4884474 -0.25624993 0.16551743 0.02711189 -0.11431657 -0.16637333 0.4523906 -0.2959839
0.03136634 0.28229296 -0.75174737 0.062361334 0.44202924 -0.929633 0.16454807 0.24419385
0.05363178 0.22692856 0.43544045 -0.06409617 0.46062052 0.16308983 -1.2401929 0.08612161
-0.38218194 -0.54794514 0.05288438 0.011746722 -0.3263264 0.094058454 0.15648863 -0.40269816
0.13959995 -1.2751232 0.1616981 -0.13692354 0.20947912 0.037438028 -0.10307088 -0.55833507
0.34845072 0.10297818 0.25518635 -0.0535078 0.32293645 0.13043775 -0.12885262 -0.20084897

bias f4 [32]
00000000: 916b d93e a519 ac3e 3447 5a3f d88a d93d
00000010: 9932 633e fdc3 a1bd 05dd f8be 04b7 193e
00000020: a468 89be 45f1 c03e 0444 b63d 276a 3d3e
00000030: 49d6 67bd e70a ff3e ee13 ac3e 0f5a 04bf
00000040: b560 113e 7090 2ebd 7d7c 3ebf 994d 9e3c
00000050: 5ddc 1c3e 4438 94bc 96d7 0b3f 4a80 e1bc
00000060: 6033 6b3e d8c4 d0be 217f d23e 7387 a83e
00000070: d84c dc3d 9822 873e cd5d f9be fcb4 d23e
0.4246488 0.33613315 0.852649 0.106221855 0.2218727 -0.0789871 -0.48606125 0.15011221
-0.26837647 0.37684074 0.08899692 0.18497525 -0.056600843 0.49813005 0.33608955 -0.5169992
0.14197047 -0.042618215 -0.74408704 0.01932411 0.15318437 -0.018093236 0.54625833 -0.027526993
0.22968817 -0.4077518 0.41112617 0.3291584 0.10756844 0.2639358 -0.48704377 0.41153705

weight f4 [16]
00000000: d872 903f d490 8f3f 2253 943f 2cc9 303f
00000010: e69b 893f 1145 3a3f 7cfd 993f a61f 803f
00000020: 44cf 833f c4df 713f 1ec0 733f e2ad 923f
00000030: 3687 613f 3085 603f e017 903f 5ad4 863f
1.1285048 1.1216073 1.158787 0.69056964 1.0750701 0.72761637 1.2030482 1.0009658
1.0297627 0.94482064 0.9521502 1.1459315 0.8809694 0.8770323 1.1257286 1.0533555

bias f4 [16]
00000000: d7fb ffbe 8edc a2be 6971 debe 8e2e 91bd
00000010: 630c c7be dbf5 8abc 4816 edbe f8a4 a5be
00000020: dbd0 04bf 705b 94be 3309 1cbf e92b 4dbf
00000030: 7ba3 d0be 9ec3 8ebe 5fdf b8be 5601 f1be
-0.49996826 -0.31808895 -0.434459 -0.07088958 -0.38876638 -0.016962936 -0.46306062 -0.32352424
-0.5188119 -0.2897601 -0.60951537 -0.80145127 -0.40749726 -0.2788362 -0.3610792 -0.47071332

running_mean f4 [16]
00000000: 4ab0 6abd 2f01 a9be 379b 72bc c8ee 39be
00000010: a926 3f3e 60b7 f2be 2158 963d cfad 113e
00000020: 3d5e 6b3e f80c d93e 474a d1be 89d8 c0be
00000030: d719 15be 7e94 81be 81d7 5c3f 8d38 003f
-0.05729703 -0.33008716 -0.014807514 -0.18157494 0.18667091 -0.4740553 0.07341028 0.14226459
0.22985168 0.42392707 -0.40876982 -0.37665203 -0.14560638 -0.25308603 0.8626633 0.5008629

running_var f4 [16]
00000000: 8f86 ab3e aaec 343f c6f6 8b3f 91a1 3a3f
00000010: 6113 d73e 3932 aa40 f813 d13e bf7b 3b3f
00000020: 8b5e 3a3f de21 983e 0574 d83e 24e3 d93e
00000030: 8750 083f 3a2a 313f 8cb9 193f c605 253f
0.33501098 0.7067362 1.0934684 0.7290278 0.42006972 5.3186307 0.40835547 0.73235697
0.7280051 0.2971334 0.42276016 0.42556107 0.53247875 0.6920506 0.6004875 0.64461935

weight f4 [32]
00000000: 5a1a 683f b400 6b3f f68a 953f 4380 8e3f
00000010: f3d0 b83f 3881 7b3f 417a 5f3f 7e91 973f
00000020: 65c2 963f 9830 993f 366d b23f 9ebe 633f
00000030: 978a 553f ac7d 813f 196c 683f d805 7e3f
00000040: 3d8e 8d3f 4b40 833f 18be 743f e1a2 843f
00000050: d8ba 673f 879d 4e3f 2df4 983f 33d4 a93f
00000060: 1243 7f3f f1be b43f e182 5b3f 66d6 813f
00000070: f854 763f e9b7 823f cc0b a73f d177 713f
0.9066521 0.9179795 1.1683033 1.1132892 1.4438766 0.9824405 0.8729592 1.1841276
1.1778075 1.1967955 1.3939579 0.88962734 0.83414596 1.0116477 0.90789944 0.99227667
1.1059033 1.0253996 0.9560256 1.0362207 0.90519476 0.8070912 1.1949517 1.3267883
0.99711716 1.4120771 0.8574658 1.0143554 0.962234 1.0212375 1.3050475 0.9432345

bias f4 [32]
00000000: b577 c0bc cfbf bcbe 73a0 80be dd0b bcbe
00000010: 7f62 13bf e031 88be eb84 6bbe 3ef3 dcbe
00000020: 2afe a1be 2295 cdbe fdb4 b8be 2a76 00bf
00000030: 972e f0bd a4e3 01bf e730 c2bd ebbd 41be
00000040: 7ded a1be c58a 19bf 2774 adbe 7c49 d6be
00000050: f0aa 233d d8e5 3dbd 5b01 cabe 42e8 38bf
00000060: 7121 77bd 223f d0be c144 62be 6de3 2abf
00000070: dbf2 8abe a3a1 98be 5be6 06bf 552e 45bc
-0.02349458 -0.36865088 -0.25122413 -0.367278 -0.5757217 -0.26600552 -0.22999923 -0.4315433
-0.31639224 -0.40152842 -0.36075583 -0.50180304 -0.11727636 -0.5073798 -0.09481984 -0.18920104
-0.31626502 -0.5997737 -0.3387768 -0.4185294 0.03995794 -0.046361774 -0.3945416 -0.722294
-0.060334627 -0.40673167 -0.2209654 -0.66753274 -0.2713841 -0.2981082 -0.52695245 -0.012034972

running_mean f4 [32]
00000000: 9a4f 493f b8ac 80bf 2922 ad3f 6d3d 5cc0
00000010: e563 f6bf 411b 01be ce77 60bf 6883 06c0
00000020: 1e36 bebf 8ef4 10c0 c4a3 a3bf d189 d1be
00000030: cf6e 2ebe 7d70 17c0 8bd0 78be 2af4 133f
00000040: 71bc 81bf 77a9 6cbf a965 fcbf 4c39 7ebf
00000050: eeca c03f 1a61 0340 28ee fcbf a2a7 23c0
00000060: e253 d53f f8e9 06c0 fca1 4ebf a481 e6be
00000070: dffa 32bf c47d 10bf 3162 cebf ca2b 323e
0.7863709 -1.005271 1.352605 -3.4412491 -1.9249235 -0.12608053 -0.8768281 -2.1017704
-1.4860265 -2.2649264 -1.2784352 -0.40925458 -0.17034458 -2.3662407 -0.24298303 0.5779444
-1.0135633 -0.9244608 -1.9718524 -0.9930618 1.5061929 2.0528016 -1.976018 -2.5571065
1.6666224 -2.1080303 -0.8071592 -0.45020783 -0.6991405 -0.56441903 -1.6123716 0.17399517

running_var f4 [32]
00000000: bc03 1b41 319d 3041 8502 3741 fcd5 6741
00000010: c974 6b41 b7d1 3341 d967 f140 88c2 5341
00000020: f99e 6541 aafe 2941 6cd4 4141 0e7c ff40
00000030: 05fa 1941 c1e7 4041 0746 f140 3a14 fd40
00000040: 958c 5b41 d806 1241 8abe 2141 e2dd 1441
00000050: 0fe4 5941 e7a3 4541 4be5 5541 6577 0a41
00000060: f4b8 2a41 0965 3541 0d92 7141 7a99 cb40
00000070: a384 3b41 e981 cc40 2f58 0d41 68f5 5741
9.688412 11.038377 11.438115 14.489742 14.716012 11.2387 7.5439267 13.234993
14.351312 10.624674 12.114361 7.9838934 9.62354 12.056581 7.5397983 7.908719
13.721822 9.126671 10.109018 9.304171 13.618178 12.352515 13.36848 8.654149
10.670155 11.337167 15.098157 6.362485 11.719882 6.390858 8.834029 13.497414

weight f4 [64, 32, 3]
00000000: 41cb 5abe 3ed7 91be 4f4c 43be 3cee da3c
00000010: 2e8e dbbe f57c 9bbd a9eb a0be 87bd a63e
00000020: 1a30 39be 0ec3 803e 6818 a53e 5b47 c2be
00000030: ff1c 19bf d10b c7bd 90e0 9bbd 363e 01bf
00000040: b7b5 04bf e3fc 6cbd c701 f3be 0475 e63c
00000050: bad0 283e 7068 b8bb 6fd4 ef3c f404 2d3d
00000060: 46c3 3abf 222c 053e a9e8 3cbe cb6e f7be
00000070: e5e9 97bd 95ee 753e 4686 1bbf 18b3 823e
00000080: 34b6 5bbe 92a5 4cbe 7657 473d 17b9 65bf
00000090: 1455 9bbd 80ac 14bf 51d0 5e3c f3c7 1dbe
000000a0: 1253 283e 7e74 afbe 260e a0be 1dd7 953d
000000b0: d55f ae3e ff5b 9ebe fb20 f4bc 203e 1cbe
000000c0: 9845 10be 214a 803c 4f22 743e 75b6 5ebf
000000d0: a834 813e 4b79 7ebe 0e65 76be 1355 1d3e
000000e0: f1ff eebd 8bc6 0abf ec67 bf3e 291b 1fbf
000000f0: 6e56 26bf d024 83be e320 d63d 86b4 27bf
00000100: c830 3cbe 5c0a b93e 8eec babe c6d2 4e3d
00000110: afc2 54be 5c17 df3b f95f 453f 5319 e2be
00000120: 41fe fabe f186 aebe 659f fabd 8272 97be
00000130: 07dc 333e 74a7 c03d 4087 a1be b339 55be
00000140: af68 72bd 5777 a83c 73e1 723e 84e0 c4be
00000150: ec3b 01bf e88d 5abe 0185 8d3e 2b62 48be
00000160: 8fe5 553e 5ad7 ad3e a1a5 0fbf d028 b63d
00000170: b069 bebc 3aab afbe 657d bdbd c8fc f1bd
00000180: 5b3e 0a3e 3efa f53c fc12 14bf fa8c d03d
00000190: a38c 4a3e b83d 0cbf 0ce2 f9bd fd7d 5bbf
000001a0: cb16 ea3d cd3f 98be 0626 9cbe 70ed 28be
000001b0: 6dea a63d efb5 a0bf 1671 4dbd 0dd7 0f3e
000001c0: 4cc4 4f3d 601c ccbe 5033 383e 1f40 82bf
000001d0: 10a6 8bbe dd8c 433e 551a 333f 4d42 ecbe
000001e0: 0589 0a3e 05e6 e33d 1308 0abf 7feb d7bc
000001f0: a6ff 0dbf 940b 1ebf f6d1 b8be 0750 40bf
00000200: 53a1 98be 613e 06bc 072b 893e 7803 95bf
00000210: 418b a53e 0774 273e 9348 27bf 72ce 03be
00000220: 0fb9 803c eec6 c8be 879a f23c 15a5 5bbf
00000230: b028 023e 3620 29be 0eb7 00bf 628c f63d
00000240: c487 d2bd 717d 9a3e 3a36 b43c c2e9 a83d
00000250: 612f a0bf 825e 8abe 9bcc 80be f359 c33e
00000260: 976a f8be e2d6 00bd 5552 0ebf f5eb 58bd
00000270: 7647 203e bbae 98bd 4bf8 1fbf d6db d0bc
00000280: d864 533d 48d0 8ebe 72fd 743e 2588 07bf
00000290: 5bd0 09be 63c8 d83d 6407 3c3d cdc6 eb3e
000002a0: e029 6abd 08ec 0f3d 1685 32bf c65a af3e
000002b0: 51e5 2bbf c01f ddbd 8ced 19be 9483 a63e
000002c0: a53b ffbd 5d60 abbe 49fd abbe 5229 18bf
000002d0: 17af f83d 8311 e43e 6ad7 b4be 8cd6 13bd
000002e0: cfe4 83bf 0387 19bf 6ba5 38be 309f 56bd
000002f0: 3811 083f 1374 49be 103c 013d 424a 17bf
00000300: bfec 343e d6fd b2bd 44b2 213c 4428 02be
00000310: b0b2 a9be 2a0b 05be 6384 52bf d889 2abc
00000320: 8644 9d3e d58a 7f3e 142d eebe d655 88be
00000330: 8d5d 17be 6122 ca3e b833 78be 41bd 673e
00000340: b0c1 f6be bd74 c5be 2503 1dbf c355 07bf
00000350: 3ef1 ff3e 3269 e93e 7cbf 6bbf 6933 0ebf
00000360: 217d b63d 4fa4 47bf 7d39 f1be e253 14bf
00000370: a5c9 d03e 57ac febe ad65 053f b330 183e
00000380: ceb9 993d 6820 e03e fae4 75bf 352d e3bd
00000390: aa53 ad3d 3c5c 55be c557 dbbe 142f 983e
000003a0: 674d e7be 593e b43e c1e3 443d f30f 1bbe
000003b0: b8fa 47be 7955 1cbf 959d 1b3e 89c1 243e
000003c0: 3709 29ba 58f9 b73e 7f2b 26bf d568 d4be
000003d0: c00c 22bd e01d 963e 6c5c 063e cd48 16bf
000003e0: c08c 9e3e 85c4 f1be d8c6 883e cdcd 08bf
000003f0: 444f 1ebe 3e02 24be c019 cf3d 91ba 08bf
-0.21366598 -0.2848453 -0.19072078 0.026724927 -0.42881912 -0.07592193 -0.31429794 0.32566473
-0.18084756 0.25148815 0.32245183 -0.37945065 -0.5980987 -0.09719051 -0.07611191 -0.5048555
-0.51839775 -0.05785836 -0.47462294 0.02813197 0.16485873 -0.0056276843 0.0292761 0.04224105
-0.72954214 0.13005117 -0.18448128 -0.48326716 -0.07417659 0.24016793 -0.6075176 0.25527263
-0.21456224 -0.19985035 0.048667394 -0.8973555 -0.07584587 -0.58075714 0.013599471 -0.15408306
0.16437939 -0.34268564 -0.31260794 0.0731642 0.3405749 -0.30929562 -0.029800883 -0.15258074
-0.14089048 0.015660347 0.23841213 -0.8699716 0.25235486 -0.24850957 -0.24061987 0.15364484
-0.11669911 -0.542092 0.37383974 -0.6215082 -0.6497563 -0.25614023 0.104554914 -0.6550983
-0.18377984 0.36140716 -0.36508602 0.050493978 -0.20777391 0.0068082046 0.7709957 -0.44159946
-0.49022105 -0.34087327 -0.12237433 -0.2957955 0.17564403 0.09406939 -0.315485 -0.20822792
-0.059181865 0.020564718 0.23718815 -0.38452542 -0.5048206 -0.21343195 0.27640536 -0.19568698
0.20888351 0.33953363 -0.56112105 0.08894503 -0.023243755 -0.34310323 -0.09252433 -0.11815792
0.13500349 0.030026551 -0.5784147 0.10183139 0.19780211 -0.54781675 -0.12201318 -0.8573912
0.11430129 -0.29736176 -0.3049776 -0.16496825 0.08150182 -1.2555522 -0.050156675 0.14046879
0.050724313 -0.39865398 0.17988324 -1.0175818 -0.27275133 0.19096704 0.69962054 -0.46144333
0.13528831 0.11127857 -0.5391857 -0.02635741 -0.55468214 -0.61736417 -0.36097687 -0.7512211
-0.2981058 -0.008193583 0.2679064 -1.1641684 0.32332805 0.16352855 -0.65345114 -0.12871721
0.015713243 -0.3921427 0.0296147 -0.8579877 0.12710834 -0.16516194 -0.5027932 0.12038495
-0.102798015 0.3017383 0.021998513 0.08247711 -1.2514459 -0.2702523 -0.25156102 0.38154563
-0.48518822 -0.03145493 -0.5559438 -0.0529594 0.1565226 -0.07455202 -0.6248824 -0.025495451
0.051609844 -0.2789328 0.23924807 -0.52942115 -0.13458388 0.10585096 0.045905486 0.4605011
-0.05716884 0.035137206 -0.69734323 0.34248942 -0.67146784 -0.107970715 -0.15032023 0.3252226
-0.12462548 -0.33471957 -0.3359168 -0.5943805 0.12142771 0.4454461 -0.35320598 -0.03609328
-1.0304202 -0.59971637 -0.18031852 -0.052397907 0.53151274 -0.19673185 0.03155142 -0.59097683
0.17668436 -0.087398216 0.009869162 -0.12710673 -0.3314414 -0.1299254 -0.82233256 -0.010408841
0.30716342 0.24955304 -0.46518767 -0.26627988 -0.1478178 0.39479354 -0.24238479 0.22630788
-0.48194647 -0.38565627 -0.61332923 -0.52865237 0.4998874 0.4558807 -0.92089057 -0.55547196
0.08910585 -0.7798509 -0.47114173 -0.57940495 0.40778843 -0.4974086 0.5210827 0.14862327
0.075061426 0.43774724 -0.96052516 -0.11092607 0.08463223 -0.20835966 -0.428404 0.29723418
-0.4517624 0.35203817 0.048068766 -0.15142803 -0.19529235 -0.6106792 0.15196832 0.16089453
-0.00064482115 0.35932422 -0.6491012 -0.4148623 -0.03956294 0.29319668 0.13121194 -0.58704835
0.3096676 -0.47220245 0.26714206 -0.5343903 -0.15459925 -0.1601648 0.10112333 -0.5340968

bias f4 [64]
00000000: 576a 603d 97de ee3c d431 d7bd 3afd 83be
00000010: 5e2d 993e a6b3 c3bc b7e5 27be 8aab 92bd
00000020: 7f2b 963e 7e3a 1d3b 4b8d f1bd 9065 0c3f
00000030: b0b4 7fbd 4dc3 2a3e bc51 9b3c 3f20 513e
00000040: 7c7c ab3e ce85 013f d101 e1bd ba43 33bd
00000050: a9e9 eebe 6a5b 123e 4f2b 5ebe e775 4b3e
00000060: 5893 3a3e 8951 c9be 5c71 9a3d 6d86 733e
00000070: 1294 443d f5f0 fa3e dda9 2b3e e10c a93d
00000080: 02fe 9abd db40 e63d 916c fe3d deac 723d
00000090: d55a b2be a047 b43e 3756 103e 5070 093e
000000a0: 6392 9bbd bd54 683e 87f5 dbbe 00a6 95bd
000000b0: 7690 f1bd e109 c53e f97c 143f 0c93 dcbc
000000c0: f2f5 fc3d 3a8f 2dbd 3d1b 3dbe b920 6e3e
000000d0: a11b bebc d02e 1b3e e23f 803c 4acf 993e
000000e0: 8fda 4abf 7199 3bbe ad17 8a3e bfdd c03e
000000f0: 1544 d9bd 9bbe 103e 0897 3d3e 4b6f ae3e
0.054788914 0.029158873 -0.10507551 -0.25779134 0.29917425 -0.023889374 -0.16396223 -0.07161625
0.2933006 0.0023991163 -0.117945276 0.5484247 -0.062428176 0.16676064 0.018959872 0.20422457
0.33493412 0.50594795 -0.109866746 -0.04376576 -0.46662644 0.14292684 -0.21696208 0.19869195
0.1822027 -0.3932002 0.07541153 0.23781748 0.047992773 0.4901196 0.16764016 0.082544096
-0.075679794 0.11242839 0.12423051 0.05924689 -0.34834924 0.35210896 0.14095388 0.1342175
-0.075962804 0.22688575 -0.4296076 -0.073070526 -0.11795132 0.384841 0.58003193 -0.026925586
0.12351598 -0.04237292 -0.18467422 0.2325467 -0.023206534 0.15154576 0.015655462 0.30040962
-0.79239744 -0.18320252 0.26971188 0.3766918 -0.10608689 0.1413521 0.18514645 0.34069285

weight f4 [64]
00000000: 1e76 123e 18b5 8f3e 8fdb 813e 4cd7 543e
00000010: f150 5b3e e82a 273e 8cd2 0a3e 9e54 1a3e
00000020: c1f1 8c3e 88f8 993e 2683 253e ecd2 e63d
00000030: 7653 b33e c59e f23d 7355 9b3e d01a ac3e
00000040: 653d f03d 0875 873e 23c2 dc3d e4c3 863e
00000050: 5eb5 e03d 5a9c 763e 8a93 ed3d 9bd5 823e
00000060: dfbf c63d a8ce 503e d8a9 2a3e 8fd7 a23e
00000070: 3b3d 223e 06ae 643e 01a1 083e 7a62 933e
00000080: 56f3 323e 138d 613e 98a4 e53d fcc8 5a3e
00000090: 12aa cd3d 7d09 403e f642 143e ddee 973e
000000a0: c03f 9b3e 5f6a db3d 3af6 8c3e 8559 4e3d
000000b0: ace0 773e 234b 013e 549d 9b3e f902 9a3e
000000c0: 45c9 793e 6801 6a3e a22f 643e 6e20 013e
000000d0: cfb5 103e 3a83 5a3e 82f3 183e b860 7f3e
000000e0: dc37 a33e a634 923e 0a20 133e c560 fa3d
000000f0: 80e2 593e 2f98 f33d ecac 383e ffaf 263e
0.1430287 0.2806785 0.25362822 0.20785254 0.21417595 0.16324961 0.1355688 0.15071341
0.27528194 0.30072427 0.1616331 0.11270699 0.35024613 0.11846689 0.3033863 0.33614206
0.1173046 0.26456475 0.10779216 0.26321328 0.10972093 0.24083081 0.116004065 0.25553593
0.09704565 0.20391333 0.16666353 0.31805083 0.1584367 0.2233201 0.13342668 0.2878607
0.17475638 0.22026472 0.112130344 0.21365732 0.10042204 0.1875362 0.14478669 0.29674426
0.30322075 0.10713648 0.27531606 0.05037834 0.242068 0.12626319 0.3039347 0.30080393
0.24393184 0.22852099 0.22283795 0.12610027 0.14131854 0.21339121 0.14936641 0.24939239
0.31878555 0.28555793 0.1436769 0.122254886 0.21277809 0.11894261 0.18034714 0.16278075

bias f4 [64]
00000000: 7642 00bf 0770 76be 70dc 87be 5136 60be
00000010: 88a2 ecbe 087a 7ebd 9774 a9bb 809d 18bd
00000020: bb1e 97be f68b 57be 3a90 82be 4f14 23bc
00000030: 780d 72be 80e3 cbbe ec6c 22be 93bb 7bbe
00000040: 6539 3abe 0c09 31be 19f5 8ebe 5550 39be
00000050: ba50 fabd 30c3 d5bd 3033 bdbd 9da4 8dbe
00000060: aa20 9bbc e967 65be 4ad9 2bbe 801c 8ebe
00000070: 7a54 dfbe 2126 15be 92fa fabe 8511 83be
00000080: ce34 e1bd 437a 87be eaa3 1cbc c770 6abe
00000090: 2648 0fbf 7cf8 32be b1a8 953c 7495 63be
000000a0: 73ad 72be 9acd d5be df82 99be 7bd8 0abd
000000b0: 8c11 e9bd 7d32 e8bd d720 92be 5a9d 58be
000000c0: 9753 28be b23e f6bd 55c7 29be b8ed aabd
000000d0: a173 49bd d8d8 5abe e773 00bf 9060 53be
000000e0: 0d35 9cbe 3a1d 9abe 043b d0be 8d7b 22bd
000000f0: 358a 90bd 79ed b2be 20b9 b5be 3337 87bd
-0.5010141 -0.24066173 -0.26535368 -0.2189572 -0.46217752 -0.062128097 -0.0051713693 -0.03725958
-0.29515633 -0.21049485 -0.2550066 -0.009953572 -0.2363795 -0.39822006 -0.15861863 -0.24583273
-0.18185957 -0.17288607 -0.2792137 -0.1809705 -0.122224286 -0.1043762 -0.09238279 -0.27664652
-0.018936474 -0.2240292 -0.16782108 -0.2775612 -0.43619138 -0.14565326 -0.49019295 -0.25599304
-0.109964 -0.26460466 -0.0095605645 -0.22894584 -0.55969465 -0.17477602 0.018268915 -0.2222498
-0.23698978 -0.41758424 -0.2998266 -0.033897858 -0.113803 -0.11337755 -0.2854068 -0.21153775
-0.16438137 -0.12023677 -0.16579945 -0.083461225 -0.049182538 -0.21371782 -0.5017685 -0.20642304
-0.30509225 -0.30100423 -0.40670025 -0.03966861 -0.07057611 -0.34946802 -0.35492802 -0.06602325

running_mean f4 [64]
00000000: 90df a6c0 d5c4 e1c0 74f2 9ec0 0518 f8c0
00000010: 0353 1fbe 4d49 9ec0 e8d0 c5bf fc93 5fc0
00000020: 4929 e6c0 a722 d0c0 5196 253f 7f35 d83e
00000030: bd33 d8c0 fb63 c1bf f9f3 e9c0 88f8 bcc0
00000040: 52a5 e23f fb41 dcc0 b377 84c0 a01a bdc0
00000050: d4cf 81c0 c5d9 7fc0 18c9 89c0 7629 b7c0
00000060: a03c a5bf 36b2 96c0 fea8 90c0 4c47 dac0
00000070: 9bce 7fc0 3fbc d6c0 83fe d6c0 75f5 0ec1
00000080: 030d 6ac0 7df9 46c0 7d87 1240 d32b cdc0
00000090: 5df8 b1c0 435d 1ac0 539a acbe 60f5 dfc0
000000a0: 26ba b4c0 5ef9 91c0 e6e8 ddbf 7cad 8ec0
000000b0: 9ce3 9ec0 761f 12c0 aad1 a2c0 7865 eec0
000000c0: af15 f4c0 b05d 32c0 ef51 91c0 2c55 3740
000000d0: 9a8d 7abf e148 adc0 fffc afc0 e96f 6dc0
000000e0: 2932 8ec0 e7aa 4bc0 9d2f 88c0 e0a1 44c0
000000f0: 0eeb 5ac0 66ac a8c0 d8f2 2dc0 32eb c2c0
-5.2147903 -7.0552773 -4.9670963 -7.752932 -0.1555901 -4.946448 -1.5454378 -3.4934072
-7.1925397 -6.50423 0.6468249 0.42228314 -6.7563157 -1.5108637 -7.311032 -5.9053383
1.7706702 -6.8830543 -4.1396117 -5.9095 -4.0566196 -3.9976666 -4.3057976 -5.723811
-1.2909126 -4.7092543 -4.520629 -6.821203 -3.9969852 -6.7104793 -6.7185683 -8.934926
-3.6570442 -3.1089776 2.2895195 -6.4115996 -5.561568 -2.4119422 -0.3371149 -6.998703
-5.647723 -4.5616903 -1.73367 -4.4586773 -4.9652843 -2.2831702 -5.0880938 -7.4498863
-7.627647 -2.7869682 -4.5412517 2.8645735 -0.97872317 -5.4151464 -5.4996333 -3.7099555
-4.443623 -3.182306 -4.255812 -3.07238 -3.4205966 -5.2710447 -2.717947 -6.0912104
