government_icfes_dataset/mlartifacts/294710831823527254/98b13beb2db94000b3a6504f8132d9f3/artifacts/model/data/model.pth (torch, 746816 bytes, 39 tensors)

weight f4 [4, 8]
0	0x3feb624c	1.8389373
1	0xbe8b13f0	-0.2716365
2	0x3fd426a5	1.6574293
3	0x3f3031a8	0.6882577
4	0xbf7c79fc	-0.98623633
5	0xbdfe8017	-0.12426775
6	0xbe7c5079	-0.24640073
7	0xbff756f6	-1.9323413
8	0x3fabefa2	1.3432505
9	0xbe9a75a0	-0.30167866
10	0x3fa10234	1.2578797
11	0x3f23e1ab	0.64016217
12	0xbc54cd8a	-0.012988457
13	0xbe59688b	-0.21231286
14	0xbeb616b2	-0.3556419
15	0xbf88c904	-1.0686345
16	0xbe7aa3c6	-0.24476537
17	0xbf700f0d	-0.93772966
18	0x3e9885b9	0.29789522
19	0x3f4290f6	0.7600244
20	0x3f064c1e	0.52459896
21	0x3f654032	0.8955108
22	0x3f4651fe	0.7746886
23	0x3d21b757	0.039481487
24	0x3e85f295	0.26161638
25	0xbea5c930	-0.32380056
26	0x3f99becd	1.2011353
27	0x3cc7abcb	0.02437391
28	0x3fd59915	1.6687342
29	0x3f0a6390	0.5405817
30	0x3e823a61	0.25435165
31	0xbf4bd4b0	-0.7962141

weight f4 [3, 8]
0	0xbe814e09	-0.2525485
1	0xbf2fe87a	-0.68714106
2	0xbe5c96f1	-0.21541955
3	0x3ef1bec6	0.4721586
4	0xc06f27bd	-3.7368004
5	0xbf972462	-1.1807978
6	0xbf77864a	-0.96689284
7	0x3f65bf72	0.8974525
8	0x3f2fa6f6	0.6861414
9	0xc00169bd	-2.0220788
10	0x3e5ff238	0.21869743
11	0xbfc60116	-1.5469081
12	0x3e25c6d8	0.16189134
13	0x3f9bfbf5	1.2186266
14	0xbf655671	-0.89585024
15	0xbee8bdae	-0.45457214
16	0x3f8783ff	1.0587157
17	0x3ecbb8a7	0.39789316
18	0x3dfe4f6f	0.124174945
19	0xbe4984e3	-0.19679599
20	0x40193f93	2.3945053
21	0x3f8cf5cf	1.1012515
22	0x3f022087	0.5083088
23	0xbf3e7352	-0.74394715

weight f4 [5, 8]
0	0x3cac3f12	0.021026168
1	0x3fb5642f	1.4171199
2	0x40045ee8	2.0682926
3	0x3fe84d71	1.8148633
4	0x3edf2427	0.4358227
5	0xbec03a7a	-0.37544614
6	0xbf8f386a	-1.1189091
7	0x3dd75f09	0.105161734
8	0x3f9f2e8f	1.2436084
9	0xc003d45e	-2.0598369
10	0xbfe9a5b0	-1.8253689
11	0x3ff88196	1.9414546
12	0xbf4b4d0d	-0.79414445
13	0x3fb5f257	1.4214581
14	0x3f29de56	0.6635488
15	0xbf9cdeef	-1.2255534
16	0xbf89eb9c	-1.0775027
17	0xbf2c2ffe	-0.6726073
18	0x3f7cb11e	0.9870776
19	0xbd04396e	-0.03228133
20	0xbe90c965	-0.28278652
21	0xbe861f16	-0.26195592
22	0xbe7f0d23	-0.24907355
23	0xbe9dcef9	-0.3082197
24	0xbec00832	-0.37506253
25	0xbfd7815e	-1.6836355
26	0xbf6ff341	-0.9373055
27	0xbe331c0f	-0.17491172
28	0xbdf8a2b6	-0.1214041
29	0xbdc02f6d	-0.09384046
30	0xbe7099b6	-0.23496136
31	0xbf36f2ff	-0.7146453
32	0xbf9dc459	-1.2325546
33	0x3f2ee740	0.6832161
34	0x3f7c0e01	0.9845887
35	0x40187327	2.3820283
36	0xbf82f143	-1.0229877
37	0x3f47d6e1	0.78062254
38	0xbe3d595f	-0.18491124
39	0x3fdc52e9	1.7212802

weight f4 [7, 8]
0	0xbfdfc885	-1.7483069
1	0xbe08f8d0	-0.13376164
2	0x3ed75f32	0.42064816
3	0xbf67a079	-0.90479237
4	0x3ec80d69	0.3907273
5	0x400a8fa0	2.1650162
6	0xbd89a3c0	-0.06720686
7	0xbe18d072	-0.14923266
8	0xbe84d857	-0.25946304
9	0xbe8a22af	-0.26979586
10	0x3fb6b831	1.4274961
11	0x3d9cf586	0.076640174
12	0x3eee3cbf	0.4653072
13	0x3ee3dc20	0.4450388
14	0x3f5ce9b6	0.86294115
15	0x3fc9fd86	1.5780494
16	0xbe78e2dc	-0.2430529
17	0xbfce1d98	-1.6102781
18	0x3f37f814	0.7186291
19	0x3f79d7c0	0.97594833
20	0x3e4ba40a	0.19886795
21	0xc002631f	-2.0372999
22	0xbf409bdb	-0.75237817
23	0x3fc8b83f	1.5681227
24	0x3e206b0b	0.15665834
25	0xbfbac7bb	-1.4592203
26	0xbf0c4107	-0.54786724
27	0xbe34b319	-0.17646445
28	0x3fa50ccc	1.289453
29	0x3eecc814	0.46246397
30	0xbf978aff	-1.1839293
31	0x3eb02c20	0.34408665
32	0x3e19c096	0.15014872
33	0xbe3dccdb	-0.18535177
34	0xbf373990	-0.7157221
35	0x3f69c002	0.91308606
36	0x3b7f8e98	0.0038994905
37	0xbeb0d824	-0.34539902
38	0xbeb291f7	-0.34876987
39	0xbf415d84	-0.7553332
40	0xbfb0654c	-1.3780913
41	0xbf63ef72	-0.8903724
42	0xbfbe33f2	-1.4859602
43	0x3f1e16d6	0.61753595
44	0x3f02bf78	0.5107341
45	0x3f2055cd	0.6263092
46	0xbe4fcc72	-0.20292833
47	0x3fd2664a	1.6437466
48	0xbef31c03	-0.4748231
49	0x3da94b8f	0.08266365
50	0x3f9cd191	1.2251455
51	0xbf7f9cd2	-0.99848664
52	0x3d7e0299	0.062014196
53	0xbf451bb3	-0.7699539
54	0xbf078d0c	-0.52949595
55	0x3ebb9e6a	0.36644298

weight f4 [7, 8]
0	0x3e4461b0	0.1917789
1	0x3fc5b2d6	1.5445201
2	0x3f203d88	0.6259389
3	0xbf32f13b	-0.6989934
4	0xbda6d358	-0.08145779
5	0xbee45583	-0.4459649
6	0xbea9cd2e	-0.33164352
7	0xc019eaed	-2.4049637
8	0xbf80013a	-1.0000374
9	0x3f04b0be	0.5183219
10	0xbf02b37a	-0.5105511
11	0x3e694ff5	0.22784407
12	0xc003e838	-2.0610485
13	0xbe85e0a0	-0.26147938
14	0x3e15ba92	0.14621952
15	0x3ebde19a	0.37086183
16	0x3f4932b3	0.78592986
17	0x3e4427b2	0.19155768
18	0x3dd18790	0.102309346
19	0xbf48b524	-0.784014
20	0x3db31730	0.08744657
21	0x3dfedc1d	0.12444327
22	0x3f1b3424	0.60626435
23	0x40283b21	2.628609
24	0xbf2a4cfb	-0.6652371
25	0xbf116589	-0.56795555
26	0xbfbb780d	-1.4646012
27	0xbff6d2c4	-1.928307
28	0xbee0649b	-0.43826756
29	0xbf018cad	-0.5060528
30	0xbe41257e	-0.18861958
31	0x4004df97	2.0761468
32	0x3f8d6210	1.1045551
33	0xbfa8e084	-1.3193517
34	0x3d47c648	0.04877308
35	0xc004763b	-2.0697162
36	0xbf9c7c53	-1.2225441
37	0x3f71a5bb	0.9439351
38	0xbf89a7a2	-1.0754282
39	0xbe12dc24	-0.1434179
40	0xbeb2f705	-0.34954086
41	0x3f008185	0.5019763
42	0xbf1a89cd	-0.6036652
43	0x3f1a231c	0.6020982
44	0xbf21bc60	-0.6317806
45	0x4018fd8a	2.3904748
46	0x3b02c1fa	0.0019952045
47	0xbfa907bd	-1.3205487
48	0x3d6a7cb0	0.057247818
49	0x3fb87043	1.440926
50	0x3f316276	0.69290864
51	0xbf32c6e7	-0.6983475
52	0x3ffbec16	1.9681423
53	0xbe876ddc	-0.26451004
54	0x3eea8e41	0.45811656
55	0xbe966dd0	-0.29380655

weight f4 [1025, 8]
0	0x3f8afb9a	1.0858033
1	0x401f094e	2.484943
2	0xbf20c4d0	-0.6280031
3	0x3f28dda0	0.6596317
4	0xbd32756f	-0.043569025
5	0xbf7ae04f	-0.9799852
6	0xbfe18076	-1.7617328
7	0x3f06af2e	0.52611053
8	0x3f853d64	1.040936
9	0x3d3ad0a7	0.045609143
10	0xbe2c55a7	-0.16829549
11	0x3e85c7d0	0.26129007
12	0x3ebdd266	0.37074584
13	0x3f291fe3	0.6606428
14	0x3f0f32dc	0.5593698
15	0xbf1de5c6	-0.6167873
16	0x3f6e73f1	0.9314566
17	0xbee2891e	-0.44245237
18	0x3bfda10f	0.007740147
19	0x3f9b7adb	1.2146868
20	0xbedfce2b	-0.4371198
21	0xbf93be96	-1.1542537
22	0xbe58f2b7	-0.21186338
23	0xbfa09aa7	-1.2547196
24	0x3edfee2a	0.43736392
25	0x3e585931	0.21127774
26	0x3fe35795	1.7761103
27	0x3f14d5af	0.58138555
28	0xbeaace37	-0.33360454
29	0x3f942cbe	1.1576154
30	0x3ea3b09f	0.3197069
31	0xbcfdbc8d	-0.030973697
32	0x3f34df16	0.706529
33	0x3e9eaa3e	0.3098926
34	0x3f5f274e	0.8716935
35	0xbd74241c	-0.05960475
36	0x3f6ce3b8	0.9253497
37	0xbebe80da	-0.3720768
38	0xc0066e5f	-2.1004865
39	0x3ebac39b	0.3647736
40	0xbf63323f	-0.88748544
41	0x3ddea045	0.10870413
42	0xbed3062a	-0.4121564
43	0x3e3b2edc	0.18279594
44	0xbf60f98a	-0.87880766
45	0x3eac4474	0.33645976
46	0x3fd7b753	1.6852821
47	0xbf3114de	-0.69172466
48	0x3f640df3	0.89083785
49	0x3ec3c336	0.38234872
50	0x3e7a84e3	0.24464755
51	0x3f9d7ceb	1.2303747
52	0x3f9f6814	1.2453637
53	0xbfdb7c36	-1.7147281
54	0xbfadf433	-1.3590149
55	0x3ff233b3	1.8922027
56	0x3ea4d349	0.32192448
57	0x3f2b6607	0.66952556
58	0x3e21e097	0.1580833
59	0xbe9320f6	-0.28736085
60	0xbccf31ff	-0.025292395
61	0x3ddeb18b	0.108737074
62	0xbf8e26e6	-1.1105621
63	0xbf73395e	-0.9500941
64	0xc03e4793	-2.9731185
65	0xbed35ca1	-0.41281608
66	0x3f8454ab	1.0338339
67	0xc0061fa8	-2.0956821
68	0xbf59a949	-0.85023934
69	0x3f37dcce	0.71821296
70	0xbea4fb0c	-0.32222784
71	0xbebaa53f	-0.36454198
72	0xbf2f1de1	-0.68404967
73	0x3f4fce56	0.8117422
74	0x3ff93fed	1.9472634
75	0x3eb8cd01	0.36093906
76	0xbe4ce315	-0.200085
77	0xbfd86d6d	-1.6908394
78	0xbf306982	-0.6891099
79	0xbf7f499f	-0.9972171
80	0xbef7c1e0	-0.48390102
81	0xbfd73b0c	-1.6814895
82	0x3e9cda58	0.30635333
83	0x3f513e58	0.81735754
84	0xbed11977	-0.4083974
85	0x3f2393c5	0.63897353
86	0xbf2627c5	-0.64904433
87	0xbf1f64f3	-0.6226341
88	0x3f1e1285	0.6174701
89	0xbf9b13ba	-1.2115395
90	0x3ce1f2db	0.027581623
91	0xbed618bc	-0.41815746
92	0x3dccfe4a	0.10009439
93	0xc0272dd3	-2.612172
94	0xc0062f30	-2.09663
95	0xbea49ea0	-0.3215227
96	0xbebcb7e6	-0.36859053
97	0x3e83cfd4	0.25744498
98	0xbed749a4	-0.4204837
99	0xbe03647c	-0.128313
100	0x3f4ee88c	0.8082359
101	0x3f6dd254	0.9289906
102	0xbfc289f2	-1.5198348
103	0x3d8a334d	0.06748066
104	0x3f0bde81	0.5463639
105	0x3ecb7701	0.3973923
106	0x3f3f4f7d	0.74730664
107	0xbf81fcc6	-1.0155265
108	0xbf11f04b	-0.5700728
109	0x3ee2c25d	0.44288912
110	0xbfae20d7	-1.3603772
111	0x3e5ebc3a	0.2175149
112	0x3fcb518b	1.588426
113	0xbd70c1d6	-0.058778606
114	0x3f327adc	0.6971872
115	0xbfb831ad	-1.439016
116	0x3ebd7a6a	0.37007457
117	0xbf947059	-1.1596786
118	0x3fe4ecfb	1.7884821
119	0xbda180d7	-0.078859024
120	0xbe9ab430	-0.30215597
121	0x3d6af5ef	0.057363447
122	0xbf3c8b7b	-0.7365033
123	0xbfb9c577	-1.4513386
124	0xbfa7b49b	-1.3101991
125	0x3ec09e6b	0.37620863
126	0x3e7933cf	0.2433617
127	0xbf19f4f5	-0.601394
128	0x3bf53f1b	0.0074843294
129	0xbfb4dbfb	-1.4129633
130	0x3f8257b3	1.0183014
131	0xbee7c28a	-0.4526561
132	0x3f7f7483	0.9978716
133	0x3ea52a18	0.32258677
134	0x3ed6fd66	0.41990203
135	0xbd0d1133	-0.03444023
136	0x3e5c5eec	0.21520585
137	0xbf8ec91d	-1.1155125
138	0x3e655335	0.22395022
139	0xbf07798e	-0.5291985
140	0x3f2b8f38	0.6701541
141	0xbffe3d61	-1.9862481
142	0xbf98c3ab	-1.1934713
143	0xbdf46f58	-0.119353
144	0x3fa4f223	1.2886394
145	0xbecc8c01	-0.39950565
146	0xbf315371	-0.69267946
147	0x3f9bb71b	1.2165254
148	0x3e83a886	0.2571451
149	0xc04beace	-3.1862063
150	0x3de1e874	0.11030665
151	0xbff63285	-1.9234167
152	0x3ff79bad	1.9344383
153	0x3f35380c	0.70788646
154	0x3f293d10	0.661088
155	0x3f2c0b54	0.67204785
156	0xbf5c227e	-0.8599013
157	0xbfa38d27	-1.2777451
158	0xbfb33112	-1.399935
159	0x3f6a2717	0.91465896
160	0xbef6e601	-0.48222354
161	0xc002b666	-2.0423827
162	0x3df6a6da	0.12043543
163	0x3f0f4486	0.55963933
164	0x3ebfdab7	0.37471554
165	0xbd2a35e7	-0.04155531
166	0x3f6c9067	0.9240784
167	0xbf0b0e55	-0.54318744
168	0xc0244c7d	-2.5671685
169	0xbfcb9ad9	-1.5906631
170	0xbf6d621a	-0.92727816
171	0xbf1a5365	-0.602835
172	0x3fac4b67	1.3460511
173	0x3ea5e520	0.3240137
174	0x3ea79139	0.32727984
175	0xbf0ff3a5	-0.5623115
176	0xbf5f1b4f	-0.87151045
177	0xc01c0f66	-2.4384398
178	0xbf726001	-0.9467774
179	0x3f9b8ace	1.2151735
180	0x3e1c4fa9	0.15264763
181	0xbf5280ec	-0.8222797
182	0xbf0fcd1e	-0.5617236
183	0x3f4a6e20	0.7907429
184	0xbfa096e9	-1.2546054
185	0x3f102aed	0.563155
186	0xbf5fba7e	-0.8739394
187	0x3fc39792	1.528063
188	0x3f8f8d16	1.1214931
189	0xbd912309	-0.070867606
190	0x3f3eda76	0.74552095
191	0x3f81bced	1.013578
192	0x3e9477d3	0.2899767
193	0xbd37f14e	-0.04490786
194	0xbf8af989	-1.0857402
195	0xbda2db63	-0.07952001
196	0x3f6db060	0.9284725
197	0xbf7d3897	-0.98914474
198	0x3f0338e0	0.5125866
199	0xbf9a8bef	-1.2073954
200	0x404aad90	3.1668434
201	0x3e7ccefb	0.24688332
202	0xc03d138e	-2.9543185
203	0x3f614e70	0.8801031
204	0x3db47b7d	0.08812616
205	0x3f161ca1	0.58637434
206	0x3f645aec	0.89201236
207	0x3ec96cb2	0.3934074
208	0xbf2877c5	-0.65807754
209	0x4000a302	2.0099492
210	0x3e16fa1c	0.14743847
211	0x3f0377d8	0.5135474
212	0x3f735cff	0.95063776
213	0x3dac6ce1	0.084192045
214	0xbf8a92e0	-1.0826073
215	0xbf4b336f	-0.79375356
216	0x3f5b3c63	0.8563902
217	0x3e052bde	0.13005015
218	0xbf109758	-0.5648093
219	0x3fa3abce	1.2786806
220	0x3f012a22	0.50454915
221	0x3f8d0204	1.101624
222	0x3ebbb036	0.36657876
223	0xbb9ec604	-0.0048453826
224	0x401b1cc5	2.423631
225	0x3df4e449	0.119576044
226	0x3fb76ef6	1.4330738
227	0x3dad47d1	0.084609635
228	0x3fbb8dd4	1.4652658
229	0x3f69e939	0.91371495
230	0xbea7e7ab	-0.32793936
231	0xbf0186a1	-0.5059605
232	0xbfb85d0b	-1.4403394
233	0xbd802bff	-0.062583916
234	0xbf3632bf	-0.7117118
235	0xbf4f6e9b	-0.81028146
236	0xbf64f536	-0.8943666
237	0x3ee38b96	0.44442433
238	0x3f1f9d86	0.62349737
239	0x3f771e4e	0.96530616
240	0xbfbb7c7f	-1.4647368
241	0x3d432088	0.047638446
242	0x3f990653	1.1955055
243	0x3ecdc296	0.4018752
244	0xbfba793d	-1.4568249
245	0x3f3dd0ff	0.7414703
246	0x3e48d666	0.19613037
247	0x3f7ac583	0.9795763
248	0xbeb223a4	-0.34792817
249	0xbf79d3a2	-0.9758855
250	0x3f99764b	1.1989225
251	0xbf2e4507	-0.6807408
252	0xbe9cb6bc	-0.30608165
253	0x3e3e8719	0.18606223
254	0xbff7c78b	-1.9357771
255	0xbf47df11	-0.7807475

weight f4 [3, 8]
0	0x3f6fc482	0.9365922
1	0x3ee62db8	0.44956756
2	0xbcddd1b6	-0.027077537
3	0xbf8aa5d3	-1.0831856
4	0xbe124483	-0.14283948
5	0x3fa3660b	1.2765516
6	0xbe32f50c	-0.1747629
7	0xbe874fb6	-0.26428002
8	0xbc96c043	-0.018402224
9	0xbff87d48	-1.9413233
10	0xbfdbc8e7	-1.7170686
11	0x401ba6c6	2.432054
12	0xbf22e238	-0.6362643
13	0xbfd64448	-1.6739588
14	0x3ec194a3	0.37808713
15	0x3e24edfd	0.1610641
16	0xbf7dcedf	-0.99143785
17	0xbf8e0110	-1.1094074
18	0xbfa5ebc3	-1.2962574
19	0x3fa60f94	1.2973504
20	0xbf790fda	-0.9728981
21	0xbfabb74e	-1.3415315
22	0xbef5bc5c	-0.4799527
23	0x3f04e500	0.51911926

weight f4 [7, 8]
0	0x3ef81650	0.48454523
1	0x3f144ef5	0.5793298
2	0x3d5325c2	0.05154968
3	0xbd2d7e6f	-0.042356905
4	0xbecb0aa0	-0.39656544
5	0x3fa74053	1.3066505
6	0xbf4d9a33	-0.80313414
7	0xbf10a8c1	-0.565075
8	0x3f50986d	0.81482583
9	0xbdd56859	-0.10420293
10	0x3e53f1a3	0.20697646
11	0x3e029f61	0.1275611
12	0x3f81a764	1.0129209
13	0x3e972c7d	0.2952613
14	0xbc046612	-0.008080976
15	0x3e38d420	0.1804967
16	0x3d9fbea6	0.07800035
17	0xbfc744d6	-1.5567882
18	0x3e33a528	0.17543471
19	0xbe39cf62	-0.18145517
20	0x3e0c2739	0.13686837
21	0xbf9304d1	-1.1485845
22	0xbd483be4	-0.04888524
23	0xbfb247a9	-1.3928119
24	0xbe87859c	-0.26469123
25	0xbf1cb21a	-0.6120926
26	0xc026209e	-2.5957408
27	0xbf0194b9	-0.5061756
28	0x3e59adb5	0.2125767
29	0xbf64072e	-0.89073455
30	0x3dda146f	0.10648429
31	0xbf41be34	-0.7568085
32	0xbed993f7	-0.424957
33	0x3e4b4650	0.19851041
34	0x3e61bd6b	0.22044913
35	0x3e14b2dd	0.14521356
36	0x40305b05	2.7555554
37	0xbfb01043	-1.3754963
38	0xbe9d6b83	-0.30746087
39	0x3dad9ebb	0.08477541
40	0xbe0ac026	-0.13549861
41	0xbee0d205	-0.43910232
42	0xbfd8bb1d	-1.6932102
43	0x3e2710d2	0.1631501
44	0x3ea4bc6d	0.32175007
45	0x3fb3a443	1.4034504
46	0xbf4ce899	-0.80042416
47	0xbf62dbb8	-0.88616514
48	0x3fefdd0a	1.8739331
49	0x3fa3cb42	1.2796404
50	0x3edb4b6f	0.4283099
51	0xbf5e6baf	-0.8688306
52	0x3c21fa82	0.009886386
53	0xbe3bfa96	-0.1835731
54	0xbf88ab1f	-1.0677222
55	0x3eb9413d	0.36182585

weight f4 [7, 8]
0	0xbea0dcfa	-0.31418592
1	0x3ea14208	0.3149569
2	0xbee4e62d	-0.4470686
3	0xbf1609cf	-0.58608717
4	0xbef05d1d	-0.4694604
5	0xbf6e168b	-0.9300315
6	0xbed1a832	-0.40948635
7	0x3e129a38	0.14316642
8	0xbfbd2f32	-1.4780028
9	0x3c866524	0.01640565
10	0xbf5e3fb4	-0.86815953
11	0x3e2a3601	0.16622163
12	0x3f34bd26	0.7060112
13	0xbf0b0e88	-0.5431905
14	0xbf59805c	-0.84961486
15	0x3feaa744	1.8332295
16	0x3e9a02bd	0.30080214
17	0x3f22f204	0.63650537
18	0xbfb13b5e	-1.3846242
19	0xbf415834	-0.7552521
20	0xbfa7a985	-1.3098608
21	0x3d5e3483	0.054249298
22	0xbd8d9649	-0.0691343
23	0x3f3b99ec	0.7328174
24	0xbf4c4f33	-0.7980835
25	0xbf666c30	-0.9000883
26	0xbe7ab1a9	-0.24481834
27	0x3f227c30	0.63470745
28	0xbea84b34	-0.32869875
29	0x3f28a9d9	0.65884167
30	0xbefc6290	-0.49293947
31	0x3f175b6a	0.5912386
32	0xc0443dab	-3.066264
33	0xbfef17e0	-1.8679161
34	0xbf88ed33	-1.0697387
35	0xbf4dc88b	-0.8038413
36	0xbfa15450	-1.2603855
37	0x3e0bcbf9	0.13652028
38	0x3e7cc6b1	0.2468517
39	0x3e90147c	0.28140628
40	0x3f80dcde	1.0067403
41	0xbe6bf511	-0.23042704
42	0xbd3fa7a7	-0.046790745
43	0xbd11628f	-0.035494383
44	0x3f51cc76	0.8195261
45	0x3e92794e	0.28608173
46	0xbfcc5847	-1.596444
47	0x3f0e7230	0.55642986
48	0xbf858f99	-1.0434448
49	0x3fb4b337	1.4117192
50	0x3f4d7c65	0.80267936
51	0xbe6dc010	-0.23217797
52	0x3eac6e6c	0.33677995
53	0x3f33c364	0.7022002
54	0xbfa2163d	-1.2663037
55	0x3f799c44	0.9750407

weight f4 [3, 8]
0	0xbf4cdad0	-0.8002138
1	0x4002c882	2.043488
2	0xbdab2f39	-0.083586164
3	0x3fafa8ad	1.3723351
4	0xbf03de1d	-0.5151079
5	0xbc573e40	-0.0131374
6	0xbdf102e1	-0.11768127
7	0x3f89ccb7	1.0765599
8	0xbf52d8b0	-0.8236189
9	0xbec41c00	-0.38302612
10	0x3f0c4718	0.5479598
11	0xbf0a40d4	-0.5400517
12	0xbe794465	-0.24342497
13	0x3eb845fd	0.35990897
14	0xbe1b32de	-0.15156123
15	0xbf8b67fb	-1.0891107
16	0x3f5d3fc7	0.8642544
17	0x3f84a1bb	1.0361856
18	0x3f95c378	1.1700277
19	0x3fbd9dde	1.4813802
20	0x3d4b92fe	0.04970073
21	0xbeb5bd20	-0.35495853
22	0x3ea34087	0.31885168
23	0xbf9496ca	-1.1608517

weight f4 [427, 8]
0	0x3f832b39	1.0247566
1	0xbf4ff1c4	-0.8122828
2	0xbf99dc74	-1.2020402
3	0xbdd35191	-0.10318292
4	0xbe1141ec	-0.14185303
5	0x3de91fc5	0.11383013
6	0x3ea4b4d9	0.32169226
7	0x3f71a477	0.9439158
8	0x3f90055c	1.1251636
9	0xbf8acc5e	-1.0843618
10	0xbebc6f6d	-0.3680376
11	0xbf863306	-1.0484321
12	0xbeb29c49	-0.3488486
13	0xc0007fae	-2.007793
14	0x3f8ad0e5	1.0845
15	0x3efb2220	0.49049473
16	0x3fb3e5d7	1.4054517
17	0xbf01b1be	-0.5066184
18	0xbf82bbd3	-1.0213569
19	0x3f2e4fb8	0.6809039
20	0x3fc3af98	1.5287962
21	0xbdd748c7	-0.10511928
22	0xbff0e323	-1.8819317
23	0x3e7ae0a6	0.24499759
24	0x40050034	2.0781374
25	0x3f3c0427	0.73443836
26	0xbf700a38	-0.9376559
27	0x4022e333	2.5451171
28	0xbf03fb67	-0.51555485
29	0xbfc91f19	-1.5712615
30	0x3f2da2d6	0.6782659
31	0x3ff8f107	1.9448556
32	0x3f972600	1.1808472
33	0x3f92554e	1.1432283
34	0x3fac396b	1.3455023
35	0x3aa10003	0.0012283329
36	0x3efb9139	0.49134234
37	0x3eb022ae	0.34401459
38	0x3f3377dc	0.70104766
39	0xbf31a077	-0.69385475
40	0xbe52f3a3	-0.20600753
41	0xbf9d4125	-1.2285506
42	0xbf14af74	-0.5808022
43	0xbc0bc4eb	-0.008530836
44	0x3f9a199d	1.2039067
45	0x3fb63406	1.4234626
46	0x3fb3a2e6	1.4034088
47	0xbff7aadb	-1.9349016
48	0x3ef918bf	0.48651692
49	0xbec1f3a0	-0.37881184
50	0xc0282446	-2.627214
51	0xc0242008	-2.564455
52	0x3f80ae55	1.0053202
53	0x3f980abc	1.1878276
54	0x3f40452e	0.7510556
55	0x3fd7c0c4	1.6855702
56	0xbecc697d	-0.3992423
57	0x3ee0dbfb	0.43917832
58	0x3e507583	0.20357327
59	0x3f969901	1.1765443
60	0xbd5c5e42	-0.05380083
61	0xbb3af089	-0.0028524718
62	0xbfa66dd2	-1.3002264
63	0x3f91f682	1.1403353
64	0x3dd65c1d	0.10466788
65	0x3fbc7194	1.4722161
66	0xbf86501f	-1.0493201
67	0x3fdf076f	1.7424144
68	0xbf11a610	-0.56894016
69	0x3fb3e55f	1.4054374
70	0xbfae9818	-1.3640165
71	0x3e5fe44c	0.21864432
72	0xbf58016e	-0.8437718
73	0x3f3fc3fa	0.7490841
74	0xbe24f755	-0.16109975
75	0x3f6240b3	0.88379973
76	0xbea0f761	-0.31438735
77	0x3f0a9dc6	0.54146993
78	0x3fa60e87	1.2973183
79	0xbe955f71	-0.2917438
80	0xbf49deca	-0.78855574
81	0xc0157531	-2.3352778
82	0xbfc7960f	-1.5592669
83	0xbfa3f374	-1.2808671
84	0xc00672cf	-2.1007574
85	0x3e84e0c5	0.25952736
86	0xbe74589e	-0.2386193
87	0x3fc6dfba	1.5537026
88	0xbe9fb7d4	-0.31194937
89	0xbd607ca2	-0.05480636
90	0xbf8921fe	-1.0713499
91	0xc0178f37	-2.3681161
92	0x3fdc4199	1.7207519
93	0xbf8fc4e1	-1.1231958
94	0xbf63dc0c	-0.8900764
95	0x3f937533	1.1520141
96	0xbf510f96	-0.8166441
97	0x4022ae20	2.5418777
98	0xbec926ca	-0.39287406
99	0xbe439f29	-0.19103684
100	0x3f95585d	1.1667591
101	0xbe87e024	-0.26538193
102	0xbc033bff	-0.00800991
103	0x3f6faed3	0.93626136
104	0x3f638649	0.8887678
105	0x3fa783ec	1.3087134
106	0x3ee06e57	0.43834183
107	0x3eccbb83	0.3998681
108	0x3e04ec53	0.12980776
109	0xbf667d94	-0.90035367
110	0xbfb19d0b	-1.3876051
111	0x3ec56209	0.38551357
112	0xbf464ad7	-0.77457947
113	0xbf79fd90	-0.9765253
114	0x3fd92e4f	1.6967257
115	0x3f4b6c18	0.7946181
116	0x3ed0ff9f	0.40820023
117	0xbf86d154	-1.0532632
118	0xbf515bac	-0.81780505
119	0xbf610211	-0.8789378
120	0x3f1c9b36	0.61174333
121	0x3f626cc1	0.88447195
122	0xbf5fbffe	-0.8740233
123	0xbeeffe2b	-0.46873602
124	0x3f13c57e	0.57723224
125	0x3eb115bd	0.34586897
126	0xbefa1811	-0.48846486
127	0xbf526040	-0.82178116
128	0xbf9dbe14	-1.2323632
129	0xbe206382	-0.15662959
130	0x3eacc13e	0.33741182
131	0xbe8b7100	-0.2723465
132	0x3ed91039	0.4239519
133	0xbe03dd04	-0.1287728
134	0xbefd112e	-0.4942717
135	0x3f571c10	0.84027195
136	0x3f35b2bb	0.70975846
137	0x3f05bc11	0.5224009
138	0xbe8d7cad	-0.27634183
139	0x3f42dead	0.76121026
140	0x3f99884e	1.1994722
141	0xbf30d97f	-0.6908187
142	0xbe9b3c58	-0.30319476
143	0x3f319d1b	0.6938035
144	0xbe05902a	-0.13043275
145	0xbdd01812	-0.10160841
146	0xbf2a4bce	-0.6652192
147	0xbf3c1690	-0.7347193
148	0x3f9009a1	1.1252939
149	0x3f87e678	1.0617208
150	0x3f8d857a	1.1056359
151	0x3b47cbd1	0.0030486474
152	0x3daecbb2	0.085349455
153	0x3e99bcf3	0.3002697
154	0xbf0b7fa2	-0.5449163
155	0xbf0df248	-0.55447817
156	0xbf75ff25	-0.96092445
157	0xbd848276	-0.06470196
158	0x3f57636b	0.84136075
159	0x3e845522	0.258462
160	0x3f047fe4	0.51757646
161	0xbeb3e5ad	-0.35136166
162	0x3fade963	1.3586849
163	0x3f1a1a19	0.6019607
164	0xbdda6888	-0.10664469
165	0xbdac2323	-0.08405139
166	0xbec0ef66	-0.37682647
167	0x3fb31b3e	1.3992689
168	0xbd81e19b	-0.06341859
169	0xbe50dec6	-0.20397481
170	0xbe3db2d4	-0.18525249
171	0xbde72898	-0.112870395
172	0x3e999181	0.29993823
173	0x3fd7be93	1.6855034
174	0xbfb410b1	-1.4067594
175	0x3e24e7fc	0.1610412
176	0x3fe3b7ae	1.779043
177	0x3d004fb0	0.031325996
178	0x3c8c2b66	0.017110538
179	0xbfd70328	-1.6797838
180	0x3eee3a73	0.46528968
181	0xbf4d33f1	-0.8015738
182	0x3f7bcad9	0.98356396
183	0xbedcc692	-0.43120247
184	0x3f027b9e	0.50969875
185	0x3ea07761	0.3134108
186	0x3f3ac302	0.7295381
187	0x3f494389	0.78618675
188	0xbe72bac3	-0.23704056
189	0x3f855d3e	1.041908
190	0x3ec3877f	0.38189313
191	0xbdf42a30	-0.11922109
192	0xbeb1e580	-0.34745407
193	0x3eba5f14	0.36400664
194	0xbf8e8587	-1.1134499
195	0xbfbbfc81	-1.4686433
196	0x3ec62221	0.38697913
197	0xc0270e03	-2.6102302
198	0x3fbf9035	1.4965883
199	0x40202e11	2.5028117
200	0x3f9241e5	1.142636
201	0x3f728732	0.9473754
202	0x3f35a42f	0.7095365
203	0xbfd94ef1	-1.6977216
204	0x3d42a1ea	0.047517695
205	0xbe332496	-0.17494425
206	0xbf726b40	-0.946949
207	0x3f4d5264	0.80203843
208	0x3eff9e00	0.49925232
209	0x3f1c132e	0.60966766
210	0xbe0c299b	-0.13687746
211	0x3ed374e6	0.41300124
212	0x3f8f67cd	1.1203552
213	0x3f27e510	0.65583897
214	0x3e72bdf5	0.23705275
215	0xbe0236d1	-0.12716223
216	0x3eeece18	0.46641612
217	0xbc2c8836	-0.010530522
218	0xbd920fa9	-0.07131893
219	0xbf9e243c	-1.2354808
220	0x40277ab2	2.6168637
221	0x3d4b8f9b	0.0496975
222	0x3d41b56d	0.04729216
223	0xbedf2594	-0.43583357
224	0x40098c21	2.1491778
225	0xbfbf97e4	-1.4968228
226	0x3fddf0bc	1.7339091
227	0xbed82a72	-0.42219883
228	0xbdf69136	-0.120394155
229	0xbf7ce89a	-0.9879242
230	0xbed81742	-0.42205244
231	0xbe5c97cc	-0.21542281
232	0x3de15588	0.11002642
233	0xbf048475	-0.51764613
234	0x4003f8bb	2.0620563
235	0x3efb2f3d	0.49059477
236	0x402c54eb	2.692683
237	0x3f97ab26	1.1849105
238	0xbf099c64	-0.5375426
239	0xbf0a1bb6	-0.53948534
240	0x3f618465	0.88092643
241	0x3f1b0416	0.6055311
242	0xbe8c6da1	-0.2742739
243	0x3f8b1343	1.0865253
244	0xbd851fe4	-0.06500223
245	0x3f6134ed	0.87971383
246	0x3ee7a591	0.45243505
247	0x3f7a62be	0.9780692
248	0xbf5c109d	-0.8596285
249	0x40060c9a	2.0945191
250	0xbf339f1f	-0.70164675
251	0x3eeec71e	0.4663629
252	0xbf11da79	-0.5697399
253	0x3f8182be	1.0118024
254	0xbf9f09f0	-1.2424908
255	0x3be6b47b	0.007040558

weight f4 [1030, 8]
0	0xbf97cf0f	-1.1860064
1	0xbff38e6b	-1.9027838
2	0x3fa465c4	1.2843556
3	0x3f77b793	0.9676449
4	0xbe0b629a	-0.13611832
5	0xbe8477ce	-0.25872654
6	0xbd629b22	-0.055323727
7	0x3fcc9590	1.5983143
8	0xbfbe453b	-1.4864877
9	0xbf5b33da	-0.85625994
10	0xbf6422f6	-0.89115846
11	0x3f381e07	0.7192082
12	0x3f22e078	0.6362376
13	0x3f199c21	0.6000386
14	0x3db57e1b	0.08861943
15	0xbc224df9	-0.009906285
16	0xbe586185	-0.21130951
17	0xbf23c4f9	-0.6397243
18	0xbe3e3396	-0.18574366
19	0xbfc2bde4	-1.52142
20	0xbfd80225	-1.6875654
21	0xbf5c7f17	-0.86131424
22	0x3f3519d1	0.7074252
23	0xc01268f1	-2.287655
24	0xc0198452	-2.3987012
25	0x3d8a896e	0.06764494
26	0x3eccb86f	0.39984462
27	0x3f55d050	0.83520985
28	0xbf1bed4a	-0.6090895
29	0x3f17ffc3	0.59374636
30	0xbebe2324	-0.37136185
31	0x3fa8f36f	1.319929
32	0x3e8bfdb9	0.27342013
33	0xbda79d09	-0.08184249
34	0xbe8e0c3d	-0.27743712
35	0xbecfe42e	-0.40603775
36	0xbcd5fc36	-0.02612124
37	0xbd2f4bd4	-0.042796925
38	0x3f6ead22	0.9323293
39	0xbfa1cc80	-1.2640533
40	0x3d020c11	0.03174979
41	0xbed2511d	-0.4107751
42	0xbe0c6d00	-0.13713455
43	0x3f4e2a28	0.80533075
44	0xbf296f73	-0.66185683
45	0xbc6fb3cc	-0.014630269
46	0x3e1dcee4	0.15410954
47	0x3f3a9202	0.7287904
48	0xbeafcf44	-0.3433782
49	0xbf15ab8a	-0.5846487
50	0x3f81a79b	1.0129274
51	0xbefef083	-0.4979287
52	0xbe9f1c98	-0.31076503
53	0xbfd6559f	-1.674488
54	0x3e0c1c24	0.1368261
55	0x3fd03253	1.6265358
56	0xbe92e751	-0.28692105
57	0xbec90fc2	-0.39269835
58	0x3f8235b6	1.0172641
59	0x3f43ba07	0.7645573
60	0x3f928cf8	1.144927
61	0xbfef651c	-1.8702731
62	0x3d6eff1d	0.058348764
63	0x3f6b9209	0.92019707
64	0x3ea8dfad	0.3298315
65	0xbee15ca4	-0.44015992
66	0xbf55baa4	-0.83487916
67	0x3f6c40cc	0.9228637
68	0x3d246216	0.040132605
69	0xbeeb5e91	-0.45970586
70	0xbe4c6ed1	-0.19964148
71	0x3d8a8060	0.06762767
72	0x3d3be5f7	0.04587361
73	0x3ff71f3c	1.9306407
74	0xbfd0539a	-1.6275513
75	0xbef96284	-0.48707974
76	0x3f90442c	1.1270804
77	0xbf4bd999	-0.796289
78	0xbf1eedf1	-0.6208182
79	0x3f65b2b4	0.89725804
80	0xbeef752f	-0.4676909
81	0x3e9d560e	0.30729717
82	0xbc01cf0e	-0.007922901
83	0xbf35a8a3	-0.70960444
84	0xbfd92ef5	-1.6967455
85	0x3f04bc7e	0.51850116
86	0xbdbe1125	-0.09280614
87	0x3f658c1f	0.8966693
88	0x403a43f3	2.9103973
89	0xbfdade3c	-1.709907
90	0x3f1359b7	0.5755877
91	0x3f83c04f	1.0293063
92	0x3f33cf97	0.7023863
93	0x3f5d1aa5	0.8636878
94	0xbffd8862	-1.9807246
95	0x400519e5	2.0797055
96	0x3f4c1ac9	0.7972837
97	0x3f575a9a	0.8412262
98	0x3eaa3ae6	0.3324806
99	0x400d0498	2.2034054
100	0x3f85cbaa	1.0452778
101	0xbfbdede8	-1.4838228
102	0xbf1e8dae	-0.61934936
103	0x3ecba29b	0.39772496
104	0xbf8b2665	-1.0871092
105	0xbf3de0db	-0.7417123
106	0x3e9e9a78	0.30977225
107	0xbf2e1765	-0.6800445
108	0x3e963425	0.29336658
109	0x3f06a00f	0.5258798
110	0x3f38a0b5	0.7212022
111	0x3f6e0217	0.9297194
112	0x3f89f549	1.077798
113	0x3e3e97f4	0.18612653
114	0x3fd06f05	1.628388
115	0x3f5fd00f	0.8742685
116	0x3f63880a	0.88879454
117	0xbee2995f	-0.44257638
118	0xbf2ce130	-0.6753111
119	0x3ee9ca55	0.4566218
120	0x3f7cc56a	0.9873873
121	0x3fe7cb12	1.8108847
122	0xbf5a86c8	-0.8536191
123	0xbfbb5be6	-1.463742
124	0x3f7adced	0.97993356
125	0xbe45043b	-0.19239895
126	0xbf85ade2	-1.044369
127	0xbf8ac9ea	-1.0842869
128	0x3f633098	0.88746023
129	0xbf9f420f	-1.2442034
130	0xbf8f23bf	-1.1182784
131	0xbf25ca69	-0.6476198
132	0xbf56ef04	-0.8395846
133	0x3fc59fe5	1.5439421
134	0x3f6a0a3a	0.91421854
135	0x3f09ec3e	0.538761
136	0xbebe8928	-0.37214017
137	0x3f856413	1.0421165
138	0xbf329ab5	-0.69767314
139	0x3f6b4340	0.9189949
140	0xbf447468	-0.7674012
141	0x3ec41d74	0.3830372
142	0x3f697b24	0.9120352
143	0xbeacee4a	-0.3377555
144	0x4002560e	2.0365024
145	0x3fb25d89	1.3934795
146	0x3fe2234d	1.7667023
147	0x3fcb8006	1.5898445
148	0xbed15114	-0.4088217
149	0x3f62e22a	0.8862635
150	0xbe074c2c	-0.13212651
151	0xbfc6291d	-1.5481297
152	0xbf3efb18	-0.7460189
153	0xbef67bec	-0.4814142
154	0x3e839f7e	0.2570762
155	0x3f9c4b22	1.2210429
156	0xbf9d1b51	-1.2273961
157	0xbf051fcd	-0.5200165
158	0xbedb0ee6	-0.42784804
159	0x400474f9	2.0696394
160	0xbf9bbeb0	-1.2167568
161	0xbd313580	-0.043263912
162	0xbd84faba	-0.06493135
163	0x3fad5884	1.3542638
164	0x3f06577c	0.5247724
165	0x3f118289	0.56839806
166	0x3f731851	0.9495898
167	0xbe9f4196	-0.31104726
168	0xbe860723	-0.2617732
169	0x3f95412d	1.1660515
170	0xbf906d76	-1.1283405
171	0x3f66bd5e	0.901327
172	0xbee977dc	-0.45599258
173	0xbf5cd3ef	-0.86260885
174	0x3f3622d0	0.7114687
175	0xbec1dd88	-0.37864327
176	0xbf788aeb	-0.9708697
177	0xbfcb8c3b	-1.590217
178	0x3ffc5050	1.971201
179	0x3d53c1be	0.05169844
180	0x3ee5458f	0.44779631
181	0x3fb9d502	1.451813
182	0x3f144c37	0.57928795
183	0xc001752d	-2.0227768
184	0x3f2d3ba0	0.67669106
185	0x3ef16030	0.47143698
186	0xbdd9e4fd	-0.10639379
187	0x3fb43d85	1.4081274
188	0xbf0f1784	-0.55895257
189	0x3eac2438	0.33621383
190	0x3f6bc823	0.9210226
191	0x3ea85fef	0.32885692
192	0xbf55ea83	-0.8356096
193	0x3f403a0b	0.75088567
194	0x3e9f5213	0.31117305
195	0x3ecb027d	0.39650336
196	0xbed63b83	-0.4184228
197	0xbe131569	-0.14363636
198	0x3f014c63	0.5050718
199	0x3ea015b1	0.3126655
200	0x3e69b501	0.22822954
201	0x3fb6ca2c	1.4280448
202	0xbfaf933d	-1.3716809
203	0xbdb3299b	-0.0874817
204	0x3fb00e89	1.3754436
205	0xbf4b7562	-0.79475987
206	0xbf8b42aa	-1.0879719
207	0xbf836e3b	-1.0268015
208	0xbfcdd344	-1.6080098
209	0xbfe7ad6f	-1.8099803
210	0xbeee8eef	-0.46593425
211	0x3f1e99a2	0.61953175
212	0x3db628b6	0.08894484
213	0x3fa78e76	1.3090351
214	0x3f887ed4	1.0663705
215	0xbeeff7b1	-0.4686866
216	0xbf0e0cbf	-0.554882
217	0x3eddbfc3	0.43310365
218	0xbfb0be9f	-1.3808173
219	0x3f0719de	0.52773845
220	0xbf6aea2e	-0.9176358
221	0xbfb7af82	-1.4350436
222	0x3f668a4b	0.9005477
223	0x3ecf1feb	0.4045404
224	0xbf9cc751	-1.2248327
225	0x3fc199d7	1.5125073
226	0xbf8d369b	-1.1032289
227	0x3f4decb5	0.8043931
228	0xbf056799	-0.521112
229	0xbea7bc32	-0.3276077
230	0xbfba7228	-1.4566088
231	0xbfa9103a	-1.3208077
232	0xbfe8ceb5	-1.8188082
233	0x3e31523a	0.17316523
234	0x3d3e21b9	0.04641888
235	0xc00159c7	-2.0211046
236	0x3eea9f61	0.4582472
237	0xbf7efa0c	-0.9960029
238	0xbf2b5b76	-0.66936433
239	0x3e9c927b	0.30580506
240	0xbfc4c627	-1.5372971
241	0x3f0d2765	0.55138236
242	0xbf1e36d5	-0.6180242
243	0xbfb0f583	-1.3824924
244	0xbf8d5d5f	-1.104412
245	0x3c8c0960	0.017094314
246	0xbed3c8b5	-0.41364065
247	0xbfb4082f	-1.4064997
248	0xbe92094c	-0.28522718
249	0xbf73ebe9	-0.95281845
250	0xbea0f94e	-0.31440204
251	0x3d9d4c36	0.07680552
252	0x3ef0e795	0.47051683
253	0xbee242ac	-0.44191492
254	0xbef744c7	-0.4829466
255	0x3e206ca2	0.1566644

weight f4 [7, 8]
0	0x3f75302b	0.95776623
1	0x3f752f8f	0.95775694
2	0xbde6c3eb	-0.11267837
3	0xbde9e0d5	-0.114198364
4	0xc0276890	-2.615757
5	0xbf434518	-0.76277304
6	0xbf1c6f7a	-0.611076
7	0x3ef36508	0.47538018
8	0x3eea67cf	0.45782325
9	0xbf8e5761	-1.1120416
10	0x3d9fb695	0.07798497
11	0x3fb3f415	1.4058863
12	0xbe985fed	-0.29760686
13	0xbf8e7b04	-1.1131291
14	0xbeeea22c	-0.46608102
15	0x3ea0a826	0.31378287
16	0xbf0ac2c5	-0.54203445
17	0x3fa3c31a	1.2793915
18	0x3fd8bcde	1.6932638
19	0x3f23c27d	0.6396864
20	0xbf1a65a5	-0.6031135
21	0xbf50cede	-0.81565654
22	0xbeb1e74f	-0.34746787
23	0xbf21cbbf	-0.63201517
24	0x3fae1fe0	1.3603477
25	0x3ec1473c	0.3774966
26	0x3ef4e82a	0.47833377
27	0xbe4bc41e	-0.19899032
28	0x3ed167ff	0.40899655
29	0x3f6da745	0.9283336
30	0x3e09ab5e	0.13444278
31	0xbf1f3789	-0.62194115
32	0xbf0b0d10	-0.54316807
33	0xbe9c5f98	-0.30541682
34	0x3f7deeec	0.9919269
35	0x3eb96d14	0.36216033
36	0x3e7ab23a	0.2448205
37	0xbe517ab9	-0.20456971
38	0x3fa9def9	1.3271171
39	0x3da730dc	0.08163616
40	0x3fa53c0f	1.2908953
41	0xbf050ed4	-0.5197575
42	0x3ee5c0d4	0.4487368
43	0xbfc0aece	-1.5053346
44	0x3fc91ea6	1.5712478
45	0x3e79c04e	0.24389765
46	0x3f8011da	1.0005448
47	0x3ff3310f	1.8999346
48	0x3faedb3f	1.3660659
49	0xbf66ef25	-0.90208656
50	0x3e912416	0.28347844
51	0xbe89e325	-0.2693111
52	0x3f15c14a	0.5849806
53	0x3ee581e1	0.44825652
54	0xbf890842	-1.0705645
55	0x3fbcde9d	1.4755436

weight f4 [7, 8]
0	0xbef96a5d	-0.4871396
1	0x3f4059ac	0.7513683
2	0x3e81b8b8	0.25336242
3	0x3f43be60	0.76462364
4	0x403a8b15	2.914739
5	0xbf01a1fa	-0.5063778
6	0x3e680f23	0.22662024
7	0x3f6be959	0.92152935
8	0xbdffad1f	-0.12484192
9	0xbf5d094b	-0.86342305
10	0x3f91ef13	1.1401085
11	0x3e9dcab3	0.3081871
12	0x3d916620	0.07099557
13	0x3f96d6c0	1.1784286
14	0x3e675d9d	0.22594304
15	0x3e8afc46	0.27145594
16	0x3f970b32	1.1800292
17	0x3dcfda95	0.10149113
18	0xbf7538de	-0.957899
19	0xbf53fab0	-0.82804394
20	0x3fdb36ab	1.7126058
21	0xbfb7a44e	-1.4347017
22	0x3f3e6f9a	0.7438904
23	0xbf1d6100	-0.61476135
24	0x3f82bc2c	1.0213675
25	0xbd9d61a0	-0.07684636
26	0xbc324e14	-0.010882873
27	0x3da5e5d3	0.08100476
28	0xbdbf5120	-0.09341645
29	0xbfd227dc	-1.6418414
30	0x3f987333	1.1910156
31	0x3d90f15e	0.07077287
32	0x3f1969ac	0.5992687
33	0x3ff9cfb4	1.9516511
34	0xbe99d308	-0.30043817
35	0x3f45136a	0.7698275
36	0xbfb51b38	-1.4148932
37	0x3ea43a7d	0.32075873
38	0xbfbbf2da	-1.4683487
39	0xbf0226a9	-0.5084024
40	0x4004b484	2.0735178
41	0x3fd1c027	1.6386765
42	0x3f3926ef	0.7232503
43	0x3f25d20c	0.6477363
44	0x3f6bc788	0.92101336
45	0xbf6dfc86	-0.92963445
46	0xbe8f8a97	-0.28035423
47	0xbf0f1fb0	-0.55907726
48	0x3fab1b26	1.336766
49	0x3fc16371	1.5108472
50	0xbe1b0d18	-0.15141714
51	0xbcf8182e	-0.030284967
52	0x3f3a649c	0.7280977
53	0x3ff91518	1.9459562
54	0x3e1a6737	0.15078436
55	0x3ef8fe48	0.486315

weight f4 [7, 8]
0	0xbf07ed2c	-0.5309627
1	0xbf22196a	-0.6332003
2	0x3e62c992	0.22147205
3	0xbfc91a62	-1.5711176
4	0xbefbe311	-0.49196675
5	0x3ed204f8	0.41019416
6	0xbf3f5356	-0.74736536
7	0x3f21827e	0.6308974
8	0x3f889582	1.0670626
9	0x3e0c16bd	0.13680549
10	0xbf99d079	-1.2016746
11	0xc0210db0	-2.5164604
12	0xbf6452d9	-0.89188915
13	0x3f4bd532	0.79622185
14	0xbf8db102	-1.1069643
15	0x3f6a1561	0.9143887
16	0xbfdcca05	-1.7249151
17	0x3f5ded4b	0.86690205
18	0x3e730c54	0.23735172
19	0x3f19b076	0.60034883
20	0xbe878326	-0.26467246
21	0xbf588591	-0.84578806
22	0x3d118465	0.035526652
23	0xbf5e86dc	-0.8692453
24	0xbf061416	-0.523744
25	0xbb854d69	-0.004068066
26	0xbf9de961	-1.2336847
27	0x3f22b28c	0.6355369
28	0x3d72d36f	0.05928367
29	0x3d32c68c	0.04364638
30	0x3e86ad78	0.2630422
31	0xbe2f8031	-0.17138745
32	0x3e91053d	0.2832431
33	0x3eac8f80	0.33703232
34	0xbf0f2a03	-0.5592348
35	0xbefeb40c	-0.4974674
36	0x3f70e18a	0.94094145
37	0xbebd9128	-0.37024808
38	0x3d8c1669	0.06840212
39	0x3f13aaf4	0.5768273
40	0x3ff3793b	1.9021372
41	0xbe7f3a11	-0.24924494
42	0x3fb13498	1.3844175
43	0xbe6d08a2	-0.23147824
44	0x3ef0b8a8	0.47015882
45	0xbf9b6eaf	-1.2143153
46	0xbf23f0bd	-0.6403921
47	0x3f6c07c2	0.9219934
48	0x3f1a1cd2	0.60200226
49	0xbf5932dc	-0.8484323
50	0x3f732178	0.94972944
51	0xbf7dba77	-0.9911265
52	0x3e6f3aca	0.2336227
53	0x3eafb152	0.34314972
54	0xbee33ac0	-0.4438076
55	0x3feacda0	1.8344002

weight f4 [6, 8]
0	0x3f2a1515	0.6643842
1	0x40079094	2.1181993
2	0x3fa8006e	1.3125131
3	0x3fe8fd88	1.8202372
4	0x3f8b44bc	1.0880351
5	0x4021a317	2.5255792
6	0x3d840150	0.06445563
7	0xbf4a8c81	-0.7912064
8	0x40191d61	2.3924181
9	0x3f42a2d1	0.7602969
10	0x3f56dc68	0.83930063
11	0xbf7e844b	-0.99420613
12	0x3eae33fd	0.3402404
13	0xbf429e4d	-0.760228
14	0x3f3163a1	0.69292647
15	0xbebcb7d4	-0.36859
16	0xbfe9492b	-1.8225454
17	0x3e6fc525	0.23415048
18	0xbeda5fc8	-0.426512
19	0xbe6d9f82	-0.23205379
20	0x3e0eeea5	0.13958223
21	0xbf30b6de	-0.69029033
22	0x3eafe0df	0.3435125
23	0xbe13cde9	-0.14434017
24	0xbf5bbdb5	-0.85836345
25	0xbe867e09	-0.26268032
26	0xbf818513	-1.0118736
27	0xbfa01744	-1.25071
28	0x3f0c451a	0.5479294
29	0xbfa10f78	-1.2582846
30	0xbf95264c	-1.1652312
31	0x3f9dbc96	1.2323177
32	0xbf0b56ea	-0.54429495
33	0xbf0858fc	-0.5326078
34	0x3d15e839	0.036598418
35	0xbf5553fb	-0.8333127
36	0xbf8e1cc5	-1.110253
37	0x3fbfe288	1.4991007
38	0xbea24b5e	-0.31698126
39	0x3fbc958c	1.4733138
40	0xbfa933af	-1.3218898
41	0xbeea36c7	-0.45744917
42	0x3fb1039c	1.3829226
43	0xbe2c734f	-0.16840862
44	0xbec4478f	-0.38335845
45	0xbef322d1	-0.474875
46	0xbd148cf5	-0.03626724
47	0xbd3511fb	-0.0442066

weight f4 [32, 1, 3]
0	0xbea08908	-0.31354547
1	0x3f2495bf	0.64290994
2	0xbc4374a2	-0.011929663
3	0x3e86a793	0.26299724
4	0x3ba15a60	0.0049241036
5	0xbf417c7d	-0.7558058
6	0x3ea45235	0.3209397
7	0xbeacce8c	-0.33751333
8	0xbe35316d	-0.17694636
9	0x3c6b1ba0	0.014349848
10	0xbda7cc85	-0.08193306
11	0x3fcae04e	1.5849702
12	0xbe0b20ff	-0.13586806
13	0x3f20c8f3	0.62806624
14	0x3ec0d7ff	0.37664792
15	0x3edfc7ca	0.43707114
16	0x3ed893f5	0.42300382
17	0xbe8d4991	-0.2759519
18	0x3eaf422a	0.34230167
19	0xbec11171	-0.3770862
20	0x3f39b3c7	0.72539943
21	0x3ead7ad3	0.3388277
22	0x3f006e50	0.50168324
23	0xbcd269b1	-0.025685163
24	0xbe9fce4a	-0.31212074
25	0x3f0f96b6	0.5608934
26	0xbea7d5cf	-0.3278031
27	0x3c15b5ca	0.00913758
28	0x3f1a44ad	0.6026104
29	0x3f01d242	0.5071145
30	0x3d9edc51	0.07756866
31	0x3f2f5b88	0.6849904
32	0x3f21da88	0.6322408
33	0x3e49ea68	0.19718325
34	0xbf313b18	-0.69230795
35	0x3e19138b	0.14948861
36	0xbf293d1d	-0.66108876
37	0x3f0ba54c	0.545491
38	0x3e8fb087	0.28064367
39	0xbdddaeb1	-0.10824335
40	0x3f169165	0.58815604
41	0x3e5cdaa0	0.21567774
42	0xbe74e226	-0.23914394
43	0x3f6084f0	0.87702847
44	0x3ddfad4c	0.10921726
45	0xbe7ef713	-0.24898939
46	0xbd8e1cc1	-0.06939078
47	0x3f21b47b	0.63166016
48	0x3d6e4cd4	0.058178738
49	0xbf1fba74	-0.6239388
50	0xbf0b9d48	-0.5453687
51	0xbedae24c	-0.42750776
52	0x3ec93bbb	0.39303383
53	0xbd8802d7	-0.06641167
54	0x3ea95d11	0.33078817
55	0xbee0755e	-0.43839544
56	0xbccb75b2	-0.024836395
57	0x3d9c2505	0.076242484
58	0xbf1626ee	-0.5865315
59	0xbef2f2fe	-0.47451013
60	0xbd82b8db	-0.06382915
61	0xbf26f840	-0.6522255
62	0x3e9f8de7	0.3116295
63	0x3d867230	0.06564748
64	0xbf580326	-0.84379804
65	0x3dcd7eeb	0.10033973
66	0xbeaaf9e4	-0.33393776
67	0x3f111d4d	0.56685334
68	0xbca307f9	-0.019901263
69	0x3e90ca5e	0.28279394
70	0x3ec307d2	0.38091904
71	0xbf431ee1	-0.7621899
72	0xbeaa0201	-0.33204654
73	0x3ebc544e	0.3678307
74	0x3c3a7d3a	0.011382395
75	0x3e0ad386	0.13557252
76	0x3eb81f74	0.35961497
77	0x3f0c9468	0.5491395
78	0x3e9c8d3f	0.30576512
79	0x3f310c92	0.69159806
80	0x3e875471	0.2643161
81	0x3e82ab61	0.25521377
82	0xbe77c6de	-0.24196956
83	0x3f069fa3	0.52587336
84	0x3ef4a70f	0.47783706
85	0xbeb41057	-0.35168716
86	0xbda71dc8	-0.08159977
87	0x3e74f223	0.23920493
88	0xbf371891	-0.7152186
89	0x3dd4d669	0.10392458
90	0x3d81d34b	0.06339129
91	0xbb5afaf7	-0.0033413747
92	0x3f9c95af	1.223318
93	0xbe97f03a	-0.29675466
94	0xbf4dcdf9	-0.80392414
95	0x3e881f73	0.26586494

bias f4 [32]
0	0x3e51228e	0.20423338
1	0xbe8cd684	-0.27507412
2	0x3ca9ddae	0.020735588
3	0x3d98962a	0.074505165
4	0xbede39fb	-0.4340361
5	0x3e8cf7a4	0.27532685
6	0x3de247f3	0.110488795
7	0xbe85dec8	-0.2614653
8	0x3d8b6893	0.06807055
9	0x3f590abc	0.84782004
10	0x3e85ae59	0.2610958
11	0x3f1c6a3a	0.6109959
12	0xbdaae0c1	-0.0834365
13	0xbec0f1cc	-0.37684476
14	0xbbd3e6cd	-0.0064667226
15	0x3ee231e2	0.44178683
16	0xbe4c48f2	-0.19949701
17	0xbeb3a905	-0.3508989
18	0xbe6dbf33	-0.23217468
19	0xbf252b4b	-0.64519185
20	0x3dc5e135	0.096620955
21	0x3dbb8657	0.09156483
22	0xbe883e34	-0.26609957
23	0x3eef7909	0.4677203
24	0xbefa1129	-0.48841217
25	0xbf06c3f4	-0.5264275
26	0xbd1c5168	-0.038163573
27	0x3efe72e3	0.49697027
28	0xbf242173	-0.6411354
29	0xbed56707	-0.41680166
30	0xbecacf25	-0.39611164
31	0x3f4b08b5	0.7931016

weight f4 [64, 32, 3]
0	0xbdaa99e8	-0.083301365
1	0x3efb97dd	0.491393
2	0x3e1c33be	0.15254113
3	0xbec597a4	-0.38592255
4	0x3ed014f2	0.4064098
5	0x3dca11ae	0.098666534
6	0xbf061bcd	-0.5238617
7	0x3d6c139c	0.05763589
8	0x3eb939a9	0.36176804
9	0x3f073b47	0.52824825
10	0xbc4c1e0d	-0.012458337
11	0x3bb8eb7d	0.0056433068
12	0x3e8506c8	0.25981736
13	0x3f15bf3f	0.58494943
14	0xbe6fb3c2	-0.23408416
15	0xbe3c70ce	-0.18402407
16	0x3d90e156	0.070742294
17	0x3df49771	0.11942948
18	0x3eed3654	0.46330512
19	0x3ea1fb8e	0.31637233
20	0x3e498006	0.19677743
21	0xbe5e8ea3	-0.21734099
22	0x3f163821	0.58679396
23	0x3e7420a2	0.23840573
24	0x3e52cd5a	0.20586148
25	0x3ea48fc5	0.32140937
26	0x3d62f454	0.05540879
27	0x3eb1f825	0.34759632
28	0x3f042a13	0.516267
29	0xbe9c0df9	-0.3047941
30	0x3e0de75f	0.13857792
31	0x3f26348a	0.6492392
32	0xbe22a06c	-0.15881509
33	0x3e14ed2d	0.145436
34	0xbe3e90d8	-0.18609941
35	0x3e69f0fa	0.22845832
36	0x3dc129f5	0.09431831
37	0x3ed6c8d2	0.4195009
38	0xbe3a608f	-0.18200897
39	0xbe20ccad	-0.15703078
40	0x3eea841b	0.45803913
41	0xbe938fc5	-0.28820625
42	0xbd05bf61	-0.032653216
43	0x3f3893d3	0.7210056
44	0x3e4df350	0.20112348
45	0x3e9b1bc8	0.30294633
46	0xbddab80f	-0.10679638
47	0xbe00fec6	-0.12597188
48	0xbf0103ef	-0.5039663
49	0xbdb5e138	-0.08880848
50	0x3e46213f	0.1934862
51	0x3d6263d8	0.055271
52	0x3dcb530a	0.09927948
53	0x3e8fdf57	0.28100082
54	0xbea35380	-0.31899643
55	0xbdbb3778	-0.09141439
56	0x3e7a428a	0.24439445
57	0xbea8392b	-0.32856116
58	0xbdc236b2	-0.094830886
59	0x3e015ec1	0.12633802
60	0x3eb8e3c6	0.36111277
61	0xbf1a585f	-0.60291094
62	0x3d42c12e	0.04754751
63	0xbd19d7c8	-0.0375593
64	0xbebd5bfc	-0.3698424
65	0x3da801cf	0.0820347
66	0xbc296a82	-0.010340335
67	0x3de121e7	0.109927945
68	0x3da8127a	0.08206649
69	0xbf0e9482	-0.55695355
70	0x3d734b92	0.05939824
71	0x3e3f8ef7	0.1870688
72	0x3d43c098	0.047791094
73	0x3eb1f3a0	0.34756184
74	0x3def571a	0.11686535
75	0x3e4d6e27	0.20061551
76	0x3e81db07	0.25362417
77	0xbdde7184	-0.10861495
78	0x3d950a4e	0.07277356
79	0x3eb5b3ff	0.3548889
80	0xbc8a2610	-0.016863853
81	0x3e832391	0.25613073
82	0x3ec50322	0.38478953
83	0x3e131c46	0.14366254
84	0xbd832f15	-0.064054646
85	0x3db659ae	0.08903824
86	0x3e93c6ab	0.2886251
87	0xbe3d9a8f	-0.1851599
88	0xbd826c56	-0.0636832
89	0x3d91b2c7	0.07114177
90	0x3ea894be	0.3292598
91	0x3e2b1265	0.16706236
92	0xbdfc27ce	-0.1231228
93	0xbd3057a4	-0.04305233
94	0xbee738c1	-0.45160487
95	0xbe0986ec	-0.13430375
96	0xbdc1dbb2	-0.09465732
97	0x3e4fe042	0.20300391
98	0xbd95f5ec	-0.073222965
99	0xbdd52122	-0.1040671
100	0x3ec13558	0.3773601
101	0xbec247cc	-0.37945402
102	0x3e9ff708	0.31243157
103	0xbdc2b18c	-0.09506521
104	0xbdc09f19	-0.094053455
105	0x3e1eee37	0.15520559
106	0xbdac887f	-0.08424472
107	0xbe288250	-0.1645596
108	0xbe8b93e3	-0.27261266
109	0x3e2fd5ac	0.17171353
110	0xbe2e31fc	-0.17011255
111	0x3e96a74b	0.2942451
112	0xbe014d85	-0.12627228
113	0xbd873752	-0.066023484
114	0xbc9abdc4	-0.018889315
115	0xbec9f2e9	-0.39443138
116	0xbd6c2fa1	-0.05766261
117	0x3d9569a3	0.07295539
118	0xbd44b910	-0.04802805
119	0x3dbf72e2	0.09348084
120	0x3e0a4975	0.13504584
121	0xbde60a67	-0.11232453
122	0xbd2a7039	-0.04161093
123	0xbe10ee37	-0.14153372
124	0x3e9a62a0	0.3015337
125	0xbe9d81a1	-0.30762962
126	0xbe7f756d	-0.24947138
127	0x3efab5bd	0.4896678
128	0xbe75c1c6	-0.239997
129	0xbe0aa1c1	-0.13538267
130	0xbf9afe33	-1.2108825
131	0x3ed75e5b	0.42064175
132	0x39439dc5	0.00018655423
133	0x3e95d3ad	0.29263058
134	0x3de16dcd	0.11007271
135	0x3c2880eb	0.010284643
136	0x3dcd78a1	0.10032774
137	0xbd41363b	-0.04717086
138	0x3d96afec	0.07357773
139	0xbd4b4acd	-0.049631882
140	0x3e25a93d	0.1617784
141	0x3dfdb518	0.123880565
142	0xbebee2ee	-0.3728251
143	0x3e86532a	0.26235324
144	0xbf074316	-0.5283674
145	0x3e672fb8	0.22576797
146	0xbdb028d3	-0.086015366
147	0x3e91eb6d	0.28499928
148	0xbd78ecd7	-0.060772743
149	0x3e2953d9	0.16535892
150	0xbda13be0	-0.078727484
151	0xbf0339d3	-0.5126011
152	0x3e8d8f7c	0.27648532
153	0xbe6d4909	-0.23172392
154	0x3e7e76ad	0.24849959
155	0xbd375eaa	-0.044768013
156	0x3c91dcda	0.017805506
157	0xbf864965	-1.0491148
158	0x3ef48c26	0.47763175
159	0x3e30012e	0.1718795
160	0xbf452e9a	-0.77024233
161	0x3ed23109	0.41053036
162	0xbe4c0ea7	-0.19927464
163	0xbd2b3c0f	-0.041805323
164	0x3e38365c	0.17989486
165	0x3dc37cc3	0.09545281
166	0x3ea4a8a2	0.32159907
167	0xbd7b19fe	-0.061304085
168	0x3daae2b0	0.083440185
169	0x3c9cfd78	0.019163832
170	0xba012168	-0.00049259374
171	0x3d35b8c7	0.04436567
172	0x3e75dfc2	0.24011138
173	0xbe842dbc	-0.25816143
174	0xbe69bb7f	-0.2282543
175	0x3e737154	0.237737
176	0xbe5d96ac	-0.21639508
177	0x3e9230ef	0.28552958
178	0xbf4af0e5	-0.79273826
179	0x3ea2905b	0.3175076
180	0x3d0b93c8	0.034076482
181	0xbeef2b0a	-0.46712524
182	0xbe3f0525	-0.18654306
183	0x3d6591a8	0.05604711
184	0xbf643d35	-0.89155895
185	0xbe5c36bc	-0.21505255
186	0x3e45d989	0.19321264
187	0xbeb27f0c	-0.34862554
188	0x3e1e1e06	0.1544114
189	0xbc7e9801	-0.01553917
190	0xbf23d755	-0.64000446
191	0x3e251ae3	0.16123538
192	0x3e435249	0.19074358
193	0xbe20af28	-0.15691817
194	0xbf259ee9	-0.646956
195	0x3e07ec88	0.13273823
196	0xbeb99f1c	-0.36254203
197	0x3ccdc642	0.02511895
198	0xbbba494d	-0.0056850077
199	0xbf015628	-0.5052209
200	0x3e0c5206	0.13703164
201	0xbe74bac5	-0.23899372
202	0x3e4ab0eb	0.19794051
203	0x3e23794d	0.15964241
204	0xbd93fa22	-0.072254434
205	0x3cce27ef	0.025165526
206	0xbf227171	-0.6345435
207	0x3dba9b11	0.09111608
208	0x3cec9ef0	0.028884381
209	0x3e8e79ad	0.27827206
210	0xbdae0a64	-0.084980756
211	0x3e6371dc	0.22211403
212	0x3e958588	0.2920344
213	0x3b7f3d5e	0.003894649
214	0xbd7492e0	-0.059710383
215	0x3f0a7c44	0.54095864
216	0x3e17bfc6	0.1481925
217	0x3b232bd3	0.0024897947
218	0xbedb8a04	-0.42878735
219	0xbe62a741	-0.22134115
220	0x3d23bf86	0.039977573
221	0xbef9af28	-0.48766446
222	0xbe1a1638	-0.15047538
223	0x3e9c0e1a	0.3047951
224	0xbeb9b04d	-0.3626732
225	0xbe04bfa7	-0.12963735
226	0x3e794e2b	0.24346225
227	0x3ef9f58b	0.48820147
228	0x3e5b72c0	0.21430492
229	0x3e66d2cb	0.22541349
230	0xbf139dfc	-0.5766294
231	0xbe7440c1	-0.23852827
232	0x3e65d477	0.2244433
233	0xbeed74e3	-0.4637824
234	0xbd644067	-0.05572548
235	0x3c56185f	0.013067334
236	0xbe8e8f2f	-0.27843615
237	0xbd24a1c0	-0.04019332
238	0x3ead2308	0.3381579
239	0x3d77583a	0.060386874
240	0x3e98001c	0.29687583
241	0xbec36087	-0.38159582
242	0xbe8f76e1	-0.28020385
243	0xbe06fc47	-0.13182174
244	0x3cd5e586	0.026110422
245	0xbf2bb41d	-0.67071706
246	0xbe5aaa48	-0.2135402
247	0xbe0413f4	-0.12898237
248	0x3e95856a	0.2920335
249	0x3e7d542e	0.24739143
250	0xbf179ca6	-0.592234
251	0xbe791c83	-0.24327283
252	0x3daa3797	0.08311384
253	0x3e13b88f	0.14425872
254	0x3d451225	0.048113007
255	0x3e2711da	0.16315404

bias f4 [64]
0	0x3e568976	0.20950875
1	0xbe173710	-0.14767098
2	0x3e59abae	0.21256897
3	0xb9784464	-0.000236766
4	0xbcb6b95f	-0.022305189
5	0x3eb135bc	0.3461131
6	0xbea0e32e	-0.31423324
7	0x3ebdc9d3	0.37068042
8	0xbe81a10d	-0.25318184
9	0xbe85f597	-0.26163933
10	0xbeda03d8	-0.42581058
11	0x3e0f88e9	0.14017071
12	0xbeb69dc6	-0.35667247
13	0xbe2f9e38	-0.171502
14	0xbe25db40	-0.16196918
15	0xbea531ec	-0.3226465
16	0xbe4c250f	-0.19936012
17	0x3e2b106c	0.16705483
18	0x3d545454	0.051838234
19	0x3db880c6	0.090089366
20	0xbdd2230c	-0.10260591
21	0x3ef90525	0.48636737
22	0x3f05d072	0.5227119
23	0x3e4905d8	0.19631135
24	0x3e9c78ad	0.30560818
25	0xbdb22237	-0.08697932
26	0x3d859599	0.06522674
27	0x3e299e3f	0.16564272
28	0xbe4f339f	-0.20234536
29	0x3e200c2e	0.15629646
30	0xbe049736	-0.12948307
31	0x3def4e50	0.11684859
32	0x3e66c9ff	0.22537993
33	0xbee21f97	-0.44164726
34	0x3e01d480	0.12678719
35	0x3e3a311d	0.18182798
36	0x3dbe6ed2	0.09298481
37	0x3c8d3419	0.017236756
38	0xbe9f2bd7	-0.31088135
39	0x3eb47172	0.35242802
40	0xbe8d3dfa	-0.27586347
41	0xbd57c4a8	-0.05267778
42	0xbda9fbc4	-0.082999736
43	0x3d1bd7e1	0.038047675
44	0xbe5dbd0c	-0.21654147
45	0xbcd2f5f9	-0.025752055
46	0x3e8e801d	0.27832118
47	0xbdde3e9a	-0.10851784
48	0xbe26418f	-0.16235946
49	0x3d5902b4	0.052981094
50	0x3d612e80	0.054975986
51	0x3e753a28	0.23947966
52	0x3e1d5705	0.15365227
53	0x3ecdcebc	0.40196788
54	0x3ce6097d	0.028080696
55	0x3e8ab69e	0.2709245
56	0xbeaebb52	-0.3412729
57	0xbda10222	-0.07861735
58	0x3df99970	0.12187469
59	0xbea2ad28	-0.31772733
60	0xbd231bcd	-0.039821435
61	0xbe39b486	-0.1813527
62	0x3d8e1b2f	0.069387786
63	0x3dad6334	0.08466187

weight f4 [32]
0	0x3f90764a	1.1286099
1	0x3f8f8628	1.1212816
2	0x3f833204	1.0249639
3	0x3f826991	1.0188466
4	0x3f8f031d	1.1172825
5	0x3f769dda	0.9633461
6	0x3f3cfca4	0.73823
7	0x3f69db40	0.91350174
8	0x3f8df38d	1.1089951
9	0x3f937168	1.1518984
10	0x3f75d44c	0.96027064
11	0x3f8e3c02	1.1112063
12	0x3f903b28	1.1268053
13	0x3f7744ef	0.9658956
14	0x3f82362c	1.0172782
15	0x3f619205	0.88113433
16	0x3f9eb7ab	1.2399801
17	0x3f7a1799	0.9769226
18	0x3f69b5b3	0.91292876
19	0x3f8534b8	1.0406713
20	0x3f85c409	1.045045
21	0x3f734e05	0.95040923
22	0x3f8e552a	1.111974
23	0x3fa591c1	1.2935106
24	0x3f8cfda2	1.1014903
25	0x3f8df870	1.1091442
26	0x3f4f8c02	0.8107301
27	0x3f3baad5	0.73307544
28	0x3f79a364	0.9751494
29	0x3f8c6863	1.0969356
30	0x3f64c6f3	0.8936607
31	0x3f632bd0	0.8873873

bias f4 [32]
0	0x3e21e33a	0.15809336
1	0xbf060815	-0.5235608
2	0xbeab77cb	-0.33489832
3	0xbd9c045a	-0.076180175
4	0xbede210f	-0.43384597
5	0xbe9903c3	-0.29885682
6	0xbe96a7ad	-0.294248
7	0xbedd6822	-0.4324351
8	0xbdcd563f	-0.10026216
9	0xbee742f2	-0.45168263
10	0xbed9061d	-0.42387477
11	0xbeab6c99	-0.3348129
12	0xbededa33	-0.43525848
13	0xbdb80b0b	-0.08986481
14	0xbe83d54e	-0.25748676
15	0xbe24d51e	-0.16096923
16	0xbef0b20f	-0.47010848
17	0xbe824d15	-0.25449434
18	0xbe360d8c	-0.17778605
19	0xbf06217c	-0.52394843
20	0xbd98e0f9	-0.07464785
21	0xbe31a783	-0.17349057
22	0x3d506bc8	0.05088404
23	0xbec9c82c	-0.39410532
24	0xbe81dd6b	-0.2536424
25	0xbecd0cb4	-0.40048754
26	0xbed6e4cd	-0.41971436
27	0xbe8f2032	-0.2795425
28	0xbe893920	-0.26801395
29	0xbed9e606	-0.42558306
30	0xbd367271	-0.044542734
31	0xbe876f02	-0.2645188

running_mean f4 [32]
0	0x3e5c398e	0.2150633
1	0xbe930b3b	-0.28719506
2	0x3c5ebe1c	0.01359513
3	0x3df5f6ca	0.12009962
4	0xbed015c1	-0.40641597
5	0x3e96f39d	0.29482737
6	0x3e032bf9	0.12809743
7	0xbe70af3b	-0.23504345
8	0x3d84d6af	0.0648626
9	0x3f618ac3	0.8810236
10	0x3e9b47e9	0.303283
11	0x3f19431c	0.59868026
12	0xbda7153d	-0.08158348
13	0xbeb6824d	-0.35646287
14	0x3c9f8a86	0.019475233
15	0x3ee6c0cf	0.45068976
16	0xbe6d4e20	-0.23174334
17	0xbeb4e86f	-0.35333583
18	0xbe71d94f	-0.23618053
19	0xbf2d7eb4	-0.6777146
20	0x3da0d0db	0.07852336
21	0x3d8f2180	0.069888115
22	0xbe857967	-0.26069185
23	0x3eee0c3e	0.46493715
24	0xbef93382	-0.4867211
25	0xbefd9cae	-0.495336
26	0x3b0d0e1a	0.0021523298
27	0x3f0301d2	0.5117465
28	0xbf2346c3	-0.6377985
29	0xbedc8a4f	-0.4307427
30	0xbeb7e171	-0.35914186
31	0x3f443181	0.76638037

running_var f4 [32]
0	0x3ef37680	0.47551346
1	0x3f1ee9e7	0.62075657
2	0x3e6efdbe	0.23338982
3	0x40220b39	2.531935
4	0x3f1814d7	0.594068
5	0x3ee7c324	0.45266068
6	0x3f3d6315	0.7397931
7	0x3ed1292c	0.40851724
8	0x3eebd89a	0.4606369
9	0x3f343504	0.70393395
10	0x3f81289a	1.0090516
11	0x3f007426	0.5017723
12	0x3f40f36d	0.7537144
13	0x3ed95fe8	0.42455983
14	0x3f539473	0.8264839
15	0x3ee4c6de	0.44682974
16	0x3f44bff0	0.76855373
17	0x3e9d0dcf	0.30674598
18	0x3e8d0cb3	0.2754875
19	0x3f227e25	0.6347373
20	0x3efe4f5b	0.49669918
21	0x3f35c730	0.7100706
22	0x3ecaa2c8	0.39577317
23	0x3f3f1d42	0.7465402
24	0x3e63abb3	0.22233467
25	0x3f05f52c	0.5232723
26	0x3f41188a	0.7542807
27	0x3ec32a70	0.38118315
28	0x3ea73bb0	0.32662725
29	0x3f09c2ff	0.53813165
30	0x3fc46e97	1.5346249
31	0x3f508de7	0.81466526
