government_icfes_dataset/mlartifacts/294710831823527254/00363713770c435f85dcfe19438710d9/artifacts/model/data/model.pth (torch, 702656 bytes, 39 tensors)

weight f4 [4, 8]
-0.18863022 -0.7224992 0.22800335 0.5824232 0.45740503 1.5885441 -0.42364582 -2.1052864
0.6276326 0.27813393 0.31069633 2.9537997 1.8486577 0.75638497 -2.590596 -1.4226445
-0.19651678 1.5764135 0.5806033 -0.5738932 -0.111917146 -1.2318596 -0.39856783 -0.39498648
0.06566071 -0.062339947 -0.31032225 -1.623734 0.10318285 -0.45260963 -0.07165456 1.467949
00000000: 4828 41be b5f5 38bf b679 693e b019 153f
00000010: fe30 ea3e 6a55 cb3f 1be8 d8be 03bd 06c0
00000020: 88ac 203f 9267 8e3e 9713 9f3e 0e0b 3d40
00000030: d1a0 ec3f 72a2 413f 53cc 25c0 3719 b6bf
00000040: b23b 49be ebc7 c93f 6ba2 143f aaea 12bf
00000050: d134 e5bd 93ad 9dbf 1511 ccbe ab3b cabe
00000060: 1f79 863d 2c58 7fbd 8fe2 9ebe 84d6 cfbf
00000070: 8851 d33d 73bc e7be a0bf 92bd c1e5 bb3f

weight f4 [3, 8]
-0.74075264 -0.3762194 -0.94942826 -1.8660948 -0.07401124 -0.06727818 0.6241555 -1.7002988
0.91400594 -1.8322384 1.7479223 0.37556538 -0.1621657 0.8416327 0.06965139 0.88534933
1.1118891 1.1097033 1.7339946 0.7199044 -0.2930537 0.03761911 -0.35725754 -2.1750386
00000000: f7a1 3dbf d49f c0be bb0d 73bf 32dc eebf
00000010: 3493 97bd 24c9 89bd a8c8 1f3f 64a3 d9bf
00000020: 4bfc 693f ca86 eabf ebbb df3f 1b4a c03e
00000030: c40e 26be 3e75 573f 63a5 8e3d 41a6 623f
00000040: 6252 8e3f c20a 8e3f 89f3 dd3f a84b 383f
00000050: 220b 96be 7f16 1a3d 76ea b6be d533 0bc0

weight f4 [5, 8]
-0.7672279 1.5936202 0.018962579 -2.9277837 -0.82712597 0.16959594 -2.5809662 -1.7938334
0.60578847 -1.1181889 2.30392 0.31717417 2.1031852 1.2883264 -0.985196 0.17687736
-0.46236974 0.38446218 -0.42554313 0.30353785 -0.97905153 -0.6608962 -0.99458104 1.5397972
-0.31378454 -1.1674991 0.794756 0.2369556 -2.2995973 -2.543855 -0.7447847 -0.35729098
1.8198105 -0.46997797 0.68602765 -0.8693722 -1.6005108 0.16810635 0.40596876 -1.1146152
00000000: 0c69 44bf bffb cb3f 6957 9b3c cf60 3bc0
00000010: 87be 53bf 8faa 2d3e 8d2e 25c0 559c e5bf
00000020: f414 1b3f d020 8fbf 6d73 1340 a764 a23e
00000030: 969a 0640 e1e7 a43f ce35 7cbf 571f 353e
00000040: babb ecbe 3ad8 c43e cae0 d9be 5069 9b3e
00000050: 1fa3 7abf 7e30 29bf dd9c 7ebf 1318 c53f
00000060: 5ea8 a0be 9c70 95bf 2175 4b3f 7da4 723e
00000070: 9a2c 13c0 85ce 22c0 36aa 3ebf d8ee b6be
00000080: 8def e83f f4a0 f0be 829f 2f3f 2d8f 5ebf
00000090: 8add ccbf 1224 2c3e 23db cf3e b6ab 8ebf

weight f4 [7, 8]
-0.9858137 0.3291354 3.2019045 -0.385947 -2.0583436 1.4856775 1.7596824 -1.1745702
-0.54555064 -0.46058348 -3.1053576 2.6071994 0.90101165 -1.5045837 -1.3410712 -0.48223063
-0.8766033 1.9743724 -1.9804928 2.9042459 -0.08989286 -1.407044 -0.77741116 -0.5335684
-0.5350736 0.63188624 -1.028966 -1.3960671 -1.8423406 2.9842868 0.9804067 -0.88295394
0.17788143 -0.04322648 0.3113362 0.19287294 0.43139175 0.68772477 0.10448626 0.6658323
-1.6707361 1.661356 -0.2528576 -0.2784553 -0.31818837 1.3892094 0.675448 -2.5576155
-0.7054382 -1.1341653 -1.6196144 0.7395961 0.9757054 -0.5439671 -1.0471133 1.559595
00000000: 495e 7cbf 6f84 a83e 01ec 4c40 d89a c5be
00000010: e7bb 03c0 ae2a be3f 463d e13f 5158 96bf
00000020: 35a9 0bbf 99d1 ebbe 2ebe 46c0 5bdc 2640
00000030: b3a8 663f 3396 c0bf 39a8 abbf efe6 f6be
00000040: 1369 60bf 3cb8 fc3f ca80 fdbf 2adf 3940
00000050: bf19 b8bd 051a b4bf 6b04 47bf f097 08bf
00000060: 95fa 08bf 4cc3 213f 28b5 83bf 54b2 b2bf
00000070: d1d1 ebbf 8efe 3e40 effb 7a3f 4509 62bf
00000080: 8d26 363e 400e 31bd 7567 9f3e 7c80 453e
00000090: 61df dc3e bb0e 303f e4fc d53d fc73 2a3f
000000a0: aeda d5bf 50a7 d43f 8d76 81be b191 8ebe
000000b0: 96e9 a2be 9dd1 b13f 29ea 2c3f f9af 23c0
000000c0: 9997 34bf 542c 91bf 864f cfbf 2c56 3d3f
000000d0: d4c7 793f 6e41 0bbf cf07 86bf cfa0 c73f

weight f4 [7, 8]
-1.8742701 -1.2868506 -0.429902 0.27894872 1.0966353 0.6474167 -0.42049357 0.21594967
-0.46295923 0.9596021 -8.184328e-05 -0.86867017 1.0770687 0.28959692 -0.8751951 1.0848471
3.3957617 0.8030424 -0.16618547 1.1194948 0.15769303 -3.0483136 -1.9040655 -1.7303698
1.3796676 -1.1794044 -0.043659206 1.5401933 -0.0036043404 -2.9781137 -2.1426837 -1.6205177
0.6102762 -0.1560166 -1.1559731 -0.5152075 0.9796673 0.22691196 -0.15844506 -0.07713241
-0.53332174 -0.21975559 1.5037289 0.548606 0.92434996 1.1952438 -0.76398313 0.81297606
0.40075076 0.12839015 2.3825285 1.4868724 0.6237263 -1.7781186 0.22777165 -2.1474156
00000000: 15e8 efbf 85b7 a4bf 1d1c dcbe 5ed2 8e3e
00000010: 8c5e 8c3f 1abd 253f ef4a d7be e921 5d3e
00000020: fe08 edbe 7ca8 753f 47a3 abb8 2b61 5ebf
00000030: 63dd 893f 0c46 943e c90c 60bf 45dc 8a3f
00000040: 2954 5940 3094 4d3f 862c 2abe 9b4b 8f3f
00000050: 487a 213e 9217 43c0 6bb8 f3bf c27c ddbf
00000060: f398 b03f b9f6 96bf ffd3 32bd 0e25 c53f
00000070: cc36 6cbb 6a99 3ec0 bb21 09c0 206d cfbf
00000080: 103b 1c3f d1c2 1fbe edf6 93bf a4e4 03bf
00000090: 7acb 7a3f 9c5b 683e 6c3f 22be 99f7 9dbd
000000a0: c687 08bf 9c07 61be 307a c03f 7171 0c3f
000000b0: 33a2 6c3f c0fd 983f 6694 43bf 331f 503f
000000c0: 342f cd3e b578 033e 597b 1840 d651 be3f
000000d0: 87ac 1f3f 6499 e3bf f93c 693e 426f 09c0

weight f4 [1025, 8]
-0.06203431 1.5006253 0.6159212 -1.0028436 -0.96187055 0.7435862 0.25197148 -0.015937114
-0.5419554 0.43816546 -0.7696845 2.4171436 -0.7653839 1.0648903 0.6036319 -0.30410793
0.61086637 -0.13709545 0.60760576 0.2960576 0.4386618 1.2458209 0.19762993 -0.12450111
1.127389 -1.1554765 -0.56671786 -2.9474053 1.1496793 1.0034778 -0.193401 -0.17090006
-1.3190358 -0.011418855 -1.6133875 -0.8286687 1.5807525 1.3881844 -0.78788865 -0.7162272
1.2688586 0.73090327 0.15579975 -1.3453178 -0.9910471 -0.63634896 -1.4324646 0.91035885
0.100559644 -0.4504667 -0.89110905 1.6279196 0.6595139 -0.8776011 0.34862375 2.8562863
-1.2660363 0.04467969 -0.98277706 -1.1159445 -0.46443322 -0.8836957 0.017732255 -1.0253793
-0.7959466 -0.8403687 -0.6937155 -1.2174746 1.1959628 -1.5852506 -0.9125079 -1.6216087
-0.34890914 1.0336384 -1.6586782 -1.1445351 1.0922941 1.2410138 0.053112462 -0.50684816
0.26711032 -0.1383751 0.14710878 -0.64315426 0.19061436 0.06191207 0.17418043 0.23793338
0.19644102 0.21596825 0.71350664 0.13637947 -0.37978125 0.7626635 0.82370275 1.0910975
0.28876966 -0.46395382 -1.1711718 -0.34037608 1.1396074 0.3021788 -0.3131792 0.08936776
1.7888279 1.4956359 0.30821738 -0.40718487 0.9419287 0.8462525 1.7811776 -1.1618221
0.096529245 -0.11476393 -0.818641 0.3288335 -1.0787945 -0.25992596 0.83443075 0.49454564
-1.5111661 -0.17120449 0.82142967 -0.8247049 0.12953337 0.18971911 -0.13478953 0.94798213
2.0306182 -0.00027218068 -0.82637763 0.26865754 -0.64028615 1.5521097 -2.0918567 -0.77046347
1.1752298 -0.47371182 0.6117939 -0.6000573 0.8826915 -0.2160757 0.6394877 -0.7382945
0.9092221 -0.4181187 0.98683286 -0.5279652 0.64238197 -0.72473 0.2577351 0.5140202
-2.691382 -2.59422 -1.6404598 1.4919298 -1.3400073 -0.18977259 -1.0250145 1.2635701
0.20368943 0.6504932 0.12797172 -0.186855 -1.5533708 0.6632785 0.046204664 -0.16529925
-0.121149935 0.33630878 0.020010002 0.7012165 2.0782406 -1.3817139 1.8225671 -0.1762083
0.21119167 -0.057720657 0.5703276 1.8763591 0.4660347 -0.2736118 1.110603 -0.23687862
-1.0255306 0.34455127 1.5568194 -0.86232054 0.46379885 0.3042076 0.5957719 0.54667145
0.55785084 -0.64839125 -1.6026428 0.2551993 0.053766925 -0.57432896 -1.6161617 -1.5368056
-1.2584683 -0.8102936 -2.9317327 -2.1887858 0.4431139 2.6331668 -0.60847783 1.2797151
-0.99815917 -1.2223496 0.96717596 1.6400038 0.369297 0.5569986 -0.3783456 -0.03973952
0.5296637 -2.145974 -0.15420458 -0.55122733 0.2939202 0.05183882 -1.1048883 0.7555278
3.0729935 1.7816023 0.6653777 -1.0198134 0.9963774 -1.3787278 0.20607597 2.1000566
1.1914666 -2.1827412 -0.4345925 0.033814322 -1.0863627 0.20975201 -0.17420477 -0.8260668
-1.7936269 -1.168166 0.9497635 -0.5291274 0.79887104 -0.12902062 -1.0415819 -0.44384018
-0.68561846 0.5391597 -0.39404932 0.2286566 1.2702531 0.16906527 -0.13862835 -0.7577651
00000000: b017 7ebd 7d14 c03f 03ad 1d3f 2e5d 80bf
00000010: 263d 76bf aa5b 3e3f 6802 813e 8d8e 82bc
00000020: 97bd 0abf 3957 e03e 0b0a 45bf 7bb2 1a40
00000030: 33f0 43bf 534e 883f 9f87 1a3f 09b4 9bbe
00000040: bd61 1c3f c062 0cbe 0d8c 1b3f dd94 973e
00000050: 4898 e03e 0f77 9f3f 805f 4a3e 70fa febd
00000060: 484e 903f a7e6 93bf 6c14 11bf 4aa2 3cc0
00000070: b128 933f f671 803f e90a 46be 6d00 2fbe
00000080: 2ad6 a8bf 2616 3bbc 7b83 cebf a223 54bf
00000090: 1956 ca3f 07b0 b13f 12b3 49bf aa5a 37bf
000000a0: f569 a23f 7a1c 3b3f f889 1f3e 6033 acbf
000000b0: 43b5 7dbf c4e7 22bf 005b b7bf 470d 693f
000000c0: 37f2 cd3d 92a3 e6be b91f 64bf ab5f d03f
000000d0: e7d5 283f 77aa 60bf d07e b23e 65cd 3640
000000e0: 7a0d a2bf 0d02 373d 4797 7bbf 45d7 8ebf
000000f0: 31ca edbe e239 62bf 3c43 913c a13f 83bf
00000100: 28c3 4bbf 6722 57bf 5797 31bf 35d6 9bbf
00000110: 4f15 993f 7ee9 cabf 1e9a 69bf e090 cfbf
00000120: 38a4 b2be 434e 843f 914f d4bf 2080 92bf
00000130: 4bd0 8b3f 8ad9 9e3f 748c 593d cdc0 01bf
00000140: afc2 883e 34b2 0dbe afa3 163e c2a5 24bf
00000150: 6930 433e 8397 7d3d 5b5c 323e cfa4 733e
00000160: d627 493e c826 5d3e 5fa8 363f 0fa7 0b3e
00000170: b072 c2be ea3d 433f 2fde 523f 15a9 8b3f
00000180: 9ed9 933e 5b8b edbe f5e8 95bf c645 aebe
00000190: a8de 913f 2eb7 9a3e 0659 a0be 7206 b73d
000001a0: 50f8 e43f ff70 bf3f abce 9d3e 897a d0be
000001b0: 3d22 713f 01a4 583f a1fd e33f 96b6 94bf
000001c0: 20b1 c53d 5a09 ebbd 7592 51bf dd5c a83e
000001d0: f015 8abf 0415 85be 419d 553f 1635 fd3e
000001e0: e46d c1bf 3b50 2fbe 3749 523f dc1f 53bf
000001f0: 65a4 043e ba45 423e 4406 0abe f5ae 723f
00000200: a6f5 0140 79b3 8eb9 7c8d 53bf 7b8d 893e
00000210: cbe9 23bf 88ab c63f fbe0 05c0 183d 45bf
00000220: ee6d 963f 5b8a f2be 869e 1c3f 5b9d 19bf
00000230: 12f8 613f f342 5dbe 77b5 233f de00 3dbf
00000240: c8c2 683f a713 d6be 14a1 7c3f ba28 07bf
00000250: 2573 243f e887 39bf dbf5 833e d496 033f
00000260: 9a3f 2cc0 b307 26c0 96fa d1bf 8ef7 be3f
00000270: 5c85 abbf bf53 42be ad33 83bf aabc a13f
00000280: f693 503e b986 263f 050b 033e eb56 3fbe
00000290: dbd4 c6bf 9fcc 293f 1a41 3d3d 3544 29be
000002a0: 751d f8bd aa30 ac3e 04ec a33c ed82 333f
000002b0: e501 0540 00dc b0bf e149 e93f f36f 34be
000002c0: a142 583e 7f6c 6cbd fd00 123f 892c f03f
000002d0: 1a9c ee3e d916 8cbe 3d28 8e3f 4f90 72be
000002e0: 9644 83bf 0669 b03e dc45 c73f 0ac1 5cbf
000002f0: 0b77 ed3e 19c1 9b3e 8284 183f a9f2 0b3f
00000300: 50cf 0e3f f8fc 25bf 6623 cdbf 7ca9 823e
00000310: b53a 5c3d 3907 13bf 63de cebf 0cb6 c4bf
00000320: 7d15 a1bf 676f 4fbf 82a1 3bc0 1115 0cc0
00000330: d3df e23e ce85 2840 34c5 1bbf b4cd a33f
00000340: 5c87 7fbf f475 9cbf d898 773f a5eb d13f
00000350: 7f14 bd3e 7697 0e3f 84b6 c1be e8c5 22bd
00000360: 0a98 073f a357 09c0 cee7 1dbe 3c1d 0dbf
00000370: b57c 963e f154 543d fb6c 8dbf 456a 413f
00000380: edab 4440 8b0b e43f 3156 2a3f 3f89 82bf
00000390: 9712 7f3f 277a b0bf 9405 533e 5467 0640
000003a0: fa81 983f 08b2 0bc0 e882 debe e380 0a3d
000003b0: ef0d 8bbf 3bc9 563e bc62 32be 1d79 53bf
000003c0: 9195 e5bf 7786 95bf b323 733f e574 07bf
000003d0: d082 4c3f fb1d 04be 8e52 85bf 053f e3be
000003e0: b184 2fbf 5f06 0a3f d5c0 c9be f524 6a3e
000003f0: a797 a23f 721f 2d3e 97f4 0dbe e5fc 41bf

weight f4 [3, 8]
0.9835502 -1.8842047 -0.533399 0.15486063 -1.8143488 -1.4538445 -0.19480273 -0.97197497
0.36073267 -1.3984622 -0.36912337 -1.3634231 0.09462229 1.3830074 0.48058334 0.7279376
2.7701075 -0.47638026 1.3126321 -0.19857271 -0.21886492 0.41278148 1.1677552 -0.65686566
00000000: f2c9 7b3f 9f2d f1bf d68c 08bf c993 1e3e
00000010: 953c e8bf 9417 babf 5e7a 47be 5ad3 78bf
00000020: f4b1 b83e cf00 b3bf bdfd bcbe a684 aebf
00000030: 55c9 c13d 6306 b13f 050f f63e 1e5a 3a3f
00000040: 7149 3140 1de8 f3be 5404 a83f a556 4bbe
00000050: 201e 60be 1858 d33e 0179 953f 5928 28bf

weight f4 [7, 8]
-0.6771633 0.5949486 -0.71497697 -0.3479592 -0.4125177 1.4690098 0.15329957 0.44367215
-0.069660194 0.09576276 0.29143065 1.7278236 -0.025208054 0.25409272 0.7843843 0.66701466
-0.2514348 1.3804184 0.34099525 -2.838023 -0.7656712 0.20619224 -1.6800386 -1.1777724
-2.043528 -0.14661866 -1.3383391 -1.6442448 -0.3927081 0.9136641 0.39740992 -1.1975546
0.8073485 1.2110046 -0.29561558 1.222905 -0.97479993 0.5602008 -0.45544788 -0.72003114
0.83292955 1.5299871 0.57768905 0.41375864 -0.9955636 1.437311 -0.10187286 0.6314038
1.4733536 -2.6384783 0.26513195 0.2527657 -0.41572696 1.1430542 1.365683 -0.16410863
00000000: 935a 2dbf 8d4e 183f bb08 37bf b527 b2be
00000010: 8535 d3be 8308 bc3f 90fa 1c3e ff28 e33e
00000020: 01aa 8ebd 441f c43d 6636 953e 5329 dd3f
00000030: 1f81 cebc 7118 823e 69cd 483f 79c1 2a3f
00000040: 10bc 80be 8db1 b03f ee96 ae3e 2ba2 35c0
00000050: 0703 44bf 0f24 533e 810b d7bf 3fc1 96bf
00000060: 2ac9 02c0 3423 16be b24e abbf 9d76 d2bf
00000070: 0911 c9be e4e5 693f 5079 cb3e 7849 99bf
00000080: 64ae 4e3f 3302 9b3f ed5a 97be 2788 9c3f
00000090: 7d8c 79bf 5269 0f3f 7730 e9be f653 38bf
000000a0: df3a 553f 9ed6 c33f 6ee3 133f 2cd8 d33e
000000b0: 42dd 7ebf cff9 b73f b8a2 d0bd aea3 213f
000000c0: da96 bc3f d4dc 28c0 60bf 873e 816a 813e
000000d0: 2ada d4be 9a4f 923f b3ce ae3f 180c 28be

weight f4 [7, 8]
0.045673307 -0.094314806 -0.022428142 0.5968878 -0.676445 -0.2328056 0.14546745 0.26402593
-1.0361325 -0.35281116 -0.08740205 0.27956694 -0.26978657 -1.0468698 -1.2943617 0.17743224
0.6689627 -0.78438675 1.3004165 -0.5281069 0.49471062 0.34638175 0.33284912 -0.03741859
1.1426976 -0.646967 1.0953789 0.45377597 0.32355815 0.16763188 0.4139966 0.27068672
-1.4011574 0.4639592 0.11525327 -1.3003643 0.25594002 0.36778554 0.52809626 0.3073071
-0.21105945 0.3430017 -0.67730546 0.6835739 -0.39924014 -0.12777486 -0.8929395 -0.31523073
-0.8003564 1.7961715 -1.5412983 -1.020337 1.2382137 -2.055372 -0.5849573 0.44765893
00000000: ef13 3b3d 1f28 c1bd 39bb b7bc a4cd 183f
00000010: 802b 2dbf 9764 6ebe 6bf5 143e 682e 873e
00000020: fd9f 84bf aaa3 b4be d9ff b2bd 6623 8f3e
00000030: 7721 8abe d4ff 85bf a5ad a5bf ccb0 353e
00000040: 2441 2b3f 92cd 48bf 0c74 a63f 0432 07bf
00000050: b64a fd3e f358 b13e 336b aa3e 3c44 19bd
00000060: ea43 923f a19f 25bf 6035 8c3f 5355 e83e
00000070: 6aa9 a53e b1a7 2b3e 5df7 d33e 7397 8a3e
00000080: 2059 b3bf 0f8c ed3e e809 ec3d 5672 a6bf
00000090: 920a 833e 634e bc3e 5131 073f 5b57 9d3e
000000a0: f81f 58be eb9d af3e e463 2dbf b3fe 2e3f
000000b0: 3469 ccbe 6ad7 02be af97 64bf ec65 a1be
000000c0: 28e4 4cbf f3e8 e53f 4349 c5bf 679a 82bf
000000d0: c97d 9e3f 378b 03c0 c3bf 15bf 8d33 e53e

weight f4 [3, 8]
-0.14050259 -1.2558945 -0.4059215 0.8553762 0.07810309 1.4586649 0.0625836 0.9997471
1.8069719 0.32054856 0.5914964 0.74702406 -0.39020884 -0.4055364 -1.6163613 -0.8147021
-0.50089085 0.12376398 -1.63939 -2.4265132 0.5588091 -0.538482 -0.3272674 -0.09483297
00000000: e9df 0fbe 27c1 a0bf f1d4 cfbe eff9 5a3f
00000010: 83f4 9f3d 88b5 ba3f d52b 803d 6def 7f3f
00000020: db4a e73f f11e a43e 4f6c 173f f83c 3f3f
00000030: 74c9 c7be 78a2 cfbe ede4 cebf 5190 50bf
00000040: 623a 00bf f877 fd3d 88d7 d1bf fe4b 1bc0
00000050: 1d0e 0f3f f5d9 09bf 988f a7be ca37 c2bd

weight f4 [427, 8]
1.436364 0.9180448 0.8046592 -0.38474405 0.71597016 0.5526839 -1.3132216 -1.5947965
-1.1928666 -0.053024255 -0.767572 -0.70994073 1.6305785 -0.9334975 1.0039299 0.12984677
0.87292093 -1.0256535 1.4988544 0.64226615 -0.80774444 -0.6099589 -0.054896634 -0.81160325
-0.58882 0.58135813 1.0292293 -1.9054432 -0.81644106 0.26441613 0.71088314 -0.7280363
0.23158374 0.030386953 -0.9084801 -0.73092437 -2.6972902 -0.023404604 -1.2039738 -0.56766665
0.8003095 -1.0032573 0.091953196 -0.78481895 -0.5147195 -0.70315844 -0.3157609 -2.3398721
-0.2727634 -0.9665363 0.44854072 -0.3332156 -0.3170375 -1.2049946 -0.29407662 -1.3828763
0.8557697 0.54402655 1.3614268 0.6280202 0.08751872 -0.6305339 -0.70842844 0.69144094
1.1912701 2.3011072 -0.89163035 -1.146677 0.9960871 0.9074209 -0.20372462 0.26310983
-1.2821538 -1.261134 -0.27074763 -1.6540595 0.4463135 1.0022793 -0.23581065 1.2608235
-0.20965376 -0.37365973 0.5338785 0.84908587 0.3025278 0.8278083 1.042313 0.22702779
-0.452378 -0.44066802 0.039335486 0.082562275 -0.42738065 0.03063264 -0.93398553 -0.5552364
0.38809523 -1.5871927 -0.8248698 1.429372 0.9423204 -2.063063 -0.6917184 -0.52865124
0.96585196 -1.1463614 -2.0545816 0.21733935 -0.7210212 -0.45516348 -0.16294916 -0.14265892
3.1163783 0.812737 -1.2973107 -0.13757141 -1.5990548 0.8572106 -0.8672368 0.75412947
-0.27832058 -0.30390808 -0.097894125 -0.015308916 0.16420177 -0.10363216 0.24183705 0.18556386
-0.19568902 0.67817235 -1.1503962 0.8741442 0.49120444 -0.13503794 2.9626498 1.0995711
0.43855414 0.90903795 0.7155943 0.95600843 0.7782947 1.8714054 1.0449085 0.56312853
0.17922056 0.026910547 -0.3252425 2.6171029 0.8593622 -1.9188197 0.3868417 -1.2995844
0.33193272 -0.9483938 1.129262 0.89035743 -1.393545 1.1388942 -0.87503827 -1.0260246
0.12186738 1.6441449 0.02867549 -0.1058071 -0.73383313 0.46941605 0.25718486 0.3968911
1.1571721 -0.35427648 1.5688878 -1.8949795 -0.56864804 1.082978 -0.5594529 -0.6094806
-0.7639508 0.8794838 0.1330362 -1.9694749 -1.8234963 0.39982304 -2.0225878 1.409403
-0.23424986 0.37824628 0.41793323 0.42161265 -2.9828844 -2.3123672 1.6777269 -0.4744133
-0.455936 -0.22216901 -0.3100454 0.63823515 -0.6667084 1.8326603 -0.22918437 -1.6580969
-0.47212952 0.41463083 -1.1342006 -1.4942534 -1.8343706 1.4711875 2.1043901 -0.9168341
-1.3479636 -1.3703573 -0.423974 -0.77973384 1.0816606 0.6321552 -1.7514521 1.4081838
0.6975543 0.29821658 1.3006934 0.5287424 0.10426792 -1.1787539 -0.6182773 1.9519085
1.2456181 -0.38977155 0.7068566 -3.0591502 -0.04485665 0.6920458 1.3834727 1.3790469
-1.9570796 0.71715873 0.37694997 0.14302194 0.8770052 1.6172581 -1.5231891 1.333234
-0.016118761 -0.06157237 -1.6369616 1.2158496 -0.38911384 1.4534147 1.9722233 0.8756875
0.40694115 -1.1726857 -1.3663312 0.3584307 -0.3146189 3.4678185 0.26268163 0.34759474
00000000: c7da b73f fc04 6b3f 25fe 4d3f 2cfd c4be
00000010: d249 373f b17c 0d3f a517 a8bf 4b22 ccbf
00000020: daaf 98bf f62f 59bd 997f 44bf adbe 35bf
00000030: ccb6 d03f b1f9 6ebf c680 803f 8df6 043e
00000040: bf77 5f3f 9d48 83bf 76da bf3f 8e6b 243f
00000050: 57c8 4ebf 4426 1cbf 4bdb 60bd 3bc5 4fbf
00000060: e8bc 16bf e3d3 143f c9bd 833f 90e5 f3bf
00000070: 4802 51bf 8d61 873e 70fc 353f 9660 3abf
00000080: 4a24 6d3e 0fee f83c 2792 68bf dc1d 3bbf
00000090: 67a0 2cc0 03bb bfbc d01b 9abf 9a52 11bf
000000a0: 15e1 4c3f bc6a 80bf f551 bc3d e5e9 48bf
000000b0: a8c4 03bf 3102 34bf 6aab a1be 77c0 15c0
000000c0: a5a7 8bbe ec6e 77bf 21a7 e53e 3c9b aabe
000000d0: bd52 a2be 433d 9abf 3691 96be 1702 b1bf
000000e0: b913 5b3f 5345 0b3f 3c43 ae3f efc5 203f
000000f0: 043d b33d ab6a 21bf 915b 35bf 4602 313f
00000100: 8a7b 983f 5745 1340 e341 64bf 50c6 92bf
00000110: 90ff 7e3f bc4c 683f 309d 50be 55b6 863e
00000120: 9e1d a4bf d76c a1bf 6f9f 8abe 39b8 d3bf
00000130: 3483 e43e b04a 803f 5978 71be aa62 a13f
00000140: 7aaf 56be 5450 bfbe 43ac 083f b15d 593f
00000150: ece4 9a3e 3feb 533f 836a 853f f979 683e
00000160: 179e e7be 3d9f e1be 3f1e 213d 6916 a93d
00000170: a3d1 dabe 4df1 fa3c ad19 6fbf f923 0ebf
00000180: 6bb4 c63e 2129 cbbf ab2a 53bf a9f5 b63f
00000190: e93b 713f 3909 04c0 7514 31bf b055 07bf
000001a0: 1342 773f f8bb 92bf 447e 03c0 358e 5e3e
000001b0: d894 38bf 300b e9be 25dc 26be 2e15 12be
000001c0: be72 4740 880f 503f 470e a6bf 85df 0cbe
000001d0: d4ad ccbf 2772 5b3f 3b03 5ebf a10e 413f
000001e0: 0980 8ebe d799 9bbe b77c c8bd 3fd2 7abc
000001f0: 8224 283e 193d d4bd 22a4 773e 7404 3e3e
00000200: b462 48be b49c 2d3f 2f40 93bf eac7 5f3f
00000210: 267f fb3e 6347 0abe 0e9c 3d40 bfbe 8c3f
00000220: 2b8a e03e b6b6 683f 3031 373f f8bc 743f
00000230: 523e 473f 368a ef3f 90bf 853f 3129 103f
00000240: 9885 373e 8273 dc3c 2f86 a6be 9d7e 2740
00000250: 29ff 5b3f e29b f5bf 1e10 c63e c858 a6bf
00000260: 16f3 a93e f0c9 72bf a88b 903f 77ee 633f
00000270: af5f b2bf 49c7 913f 8202 60bf c654 83bf
00000280: 9b95 f93d 5773 d23f dce8 ea3c 65b1 d8bd
00000290: 7ddc 3bbf 4d57 f03e bcad 833e 4f35 cb3e
000002a0: 371e 943f ba63 b5be 51d1 c83f b08e f2bf
000002b0: eb92 11bf 069f 8a3f 4e38 0fbf ec06 1cbf
000002c0: 4892 43bf da25 613f a43a 083e c117 fcbf
000002d0: 5468 e9bf 9bb5 cc3e 1472 01c0 5167 b43f
000002e0: 32df 6fbe 7fa9 c13e 58fb d53e 9ddd d73e
000002f0: 94e7 3ec0 d3fd 13c0 c1bf d63f 4de6 f2be
00000300: 7270 e9be 4680 63be 45be 9ebe 6163 233f
00000310: 67ad 2abf 9d94 ea3f 4faf 6abe 853c d4bf
00000320: f6ba f1be 7e4a d43e 7c2d 91bf b243 bfbf
00000330: a8cc eabf df4f bc3f 54ae 0640 a4b5 6abf
00000340: 128a acbf de67 afbf 1f13 d9be a39c 47bf
00000350: db73 8a3f ecd4 213f 952f e0bf 5e3f b43f
00000360: eb92 323f d8af 983e 1f7d a63f a95b 073f
00000370: 6b8a d53d 68e1 96bf 6c47 1ebf 23d8 f93f
00000380: 6a70 9f3f 2390 c7be 8ef4 343f 1ec9 43c0
00000390: 9bbb 37bd ea29 313f a215 b13f 9c84 b03f
000003a0: 9681 fabf b797 373f 96ff c03e 5874 123e
000003b0: 6a83 603f 5002 cf3f dcf7 c2bf 69a7 aa3f
000003c0: 7e0b 84bc 4f33 7cbd f587 d1bf f6a0 9b3f
000003d0: ee39 c7be 7e09 ba3f d071 fc3f 0e2d 603f
000003e0: 975a d03e 911a 96bf f1e3 aebf 3b84 b73e
000003f0: ba15 a1be bdf0 5d40 357e 863e f0f7 b13e

weight f4 [1030, 8]
-0.0068625957 0.60588765 0.007772767 -1.387381 -0.42712507 -0.5733799 0.28190178 0.29578784
-1.8348935 -0.0521108 -1.3072671 -0.36178276 -1.7333974 1.2928874 -0.7150512 -0.60645294
0.73071927 -0.72592294 -2.7021003 -1.0793091 -1.8856547 0.6854613 0.47268063 1.6097922
2.0688784 0.22580259 -2.2812078 0.37083915 0.18554498 0.31997767 -0.122963354 -0.39553553
0.90854603 0.6491166 0.76580596 -0.007182211 0.017843442 -0.85887444 -1.2708205 0.77948856
-0.027157886 1.1833347 1.2661952 -1.8993906 -0.56902057 1.6167645 0.43791062 -1.2297221
0.55125606 -0.7604478 -0.47427696 0.29115614 -0.8276126 1.4006096 -0.56014067 -0.08477779
0.24907956 0.40371495 -0.8102749 -1.0955523 0.81031215 -0.6646383 0.7766925 0.3966236
0.63049394 -0.20018843 2.3545613 0.0051269145 2.6161134 -0.48287162 0.22928521 0.30312628
-0.79176694 -0.9289123 1.1580966 -1.0031428 -1.4907746 1.5048581 0.9492483 -1.976651
1.69985 -0.5057602 0.620869 0.13897242 1.5133841 0.25509852 0.104016386 0.5075626
-3.116366 -0.5701404 -0.087216236 -1.0034525 0.23357366 1.195859 -1.3166757 1.5314035
-0.35965335 0.777566 1.2520616 -0.96247554 0.4405491 0.43742296 1.8191191 0.7227196
-0.59232974 -0.6222846 -1.7474164 1.2272897 -1.746847 0.89171094 -1.2915426 -0.12954286
-0.8153726 -0.78910613 -1.0090197 0.24844162 -0.1023692 -2.1888165 -1.6624421 -0.6287668
0.122643724 -1.0145823 0.36536914 -0.9180644 0.61555046 1.5900192 -1.0527946 -2.4993587
0.7212952 -0.027106198 1.9524952 0.019520778 1.4735256 1.6875669 -1.1640676 1.0272888
0.8426284 1.2854187 -0.44315577 0.7705891 1.7384278 1.0414307 0.43006197 -0.36696196
1.2563928 -0.48601386 1.2427553 0.43092674 -1.0588597 0.8605353 -0.27136356 1.2113856
1.3471372 -0.7964056 -0.7918271 -0.26502258 -0.21723084 -0.5892032 -0.8051447 -0.28618526
0.5886643 0.096492566 -1.2602824 0.31852978 0.993325 -0.38163134 2.5097315 0.5760131
0.12439288 0.18822257 0.09379425 0.20843194 -0.5058714 -1.585707 -0.2655197 1.0705082
-0.31695935 0.8979903 0.04475051 -1.005077 -0.49482423 -0.93179995 0.17864417 0.8177287
0.47906324 -2.3690195 -0.37417862 1.2885531 -2.6413498 1.2433605 -0.5804165 -0.95059353
-1.3614404 -2.1711016 0.05921921 -1.0340862 -0.0059874076 1.2551413 -2.2208788 1.446055
0.56179506 0.60511756 -0.5516646 -1.0163097 -0.79044724 -0.65166026 -0.37001187 2.3672953
0.17735453 0.3814483 -1.7660047 -0.20242836 -0.08292172 -0.35641453 1.2125555 0.3584424
-0.52727515 -0.4869467 -0.37569153 -2.1318243 0.24900517 0.77463746 0.9038575 1.5327127
-2.1371608 0.6795435 0.558369 -0.23095585 -1.8043112 -0.7537858 0.7138431 0.86699843
-0.5480452 -0.978853 -0.4045439 1.9816684 0.8168621 0.08255751 2.7038798 0.5039341
1.9318098 -0.45940632 -0.5470882 -1.4337158 -0.35861498 -0.9980841 0.17168553 2.0447533
-0.55598944 0.117686965 -0.8537312 0.603506 -0.29934388 1.2801818 0.5303639 1.086755
00000000: a0df e0bb 741b 1b3f b2b2 fe3b b395 b1bf
00000010: 23b0 dabe 06c9 12bf 6e55 903e 8171 973e
00000020: cadd eabf 2272 55bd 8754 a7bf 973b b9be
00000030: f7df ddbf 567d a53f 980d 37bf 8040 1bbf
00000040: 6b10 3b3f 16d6 39bf 36ef 2cc0 cd26 8abf
00000050: 225d f1bf 647a 2f3f 3203 f23e ac0d ce3f
00000060: 8168 0440 cb38 673e 4fff 11c0 a1de bd3e
00000070: 81ff 3d3e 1dd4 a33e 36d4 fbbd a283 cabe
00000080: 7996 683f 812c 263f dc0b 443f c158 ebbb
00000090: 692c 923c 32df 5bbf 3faa a2bf 908c 473f
000000a0: 377a debc 8377 973f af12 a23f 3b1f f3bf
000000b0: 55ab 11bf 24f2 ce3f d235 e03e 8967 9dbf
000000c0: 1e1f 0d3f b5ac 42bf 6ed4 f2be 6b12 953e
000000d0: 6bde 53bf 2d47 b33f 6165 0fbf fa9f adbd
000000e0: b60e 7f3e bab3 ce3e 2d6e 4fbf 0f3b 8cbf
000000f0: 9e70 4f3f bc25 2abf 52d5 463f 4012 cb3e
00000100: 0d68 213f 32fe 4cbe 22b1 1640 adff a73b
00000110: 676e 2740 f33a f7be bec9 6a3e 5e33 9b3e
00000120: 3db1 4abf 32cd 6dbf 823c 943f fc66 80bf
00000130: b4d1 bebf 319f c03f f001 733f e602 fdbf
00000140: af94 d93f 8079 01bf 45f1 1e3f c94e 0e3e
00000150: 92b6 c13f 469c 823e 8b06 d53d 9fef 013f
00000160: 8a72 47c0 b9f4 11bf 6d9e b2bd 2271 80bf
00000170: ef2d 6f3e e811 993f d488 a8bf 0805 c43f
00000180: 7c24 b8be 910e 473f 8e43 a03f cc64 76bf
00000190: a78f e13e e7f5 df3e e5d8 e83f 2704 393f
000001a0: eca2 17bf 0b4e 1fbf 57ab dfbf d417 9d3f
000001b0: af98 dfbf 2b47 643f 4551 a5bf e2a6 04be
000001c0: 42bc 50bf dc02 4abf 8f27 81bf 7b67 7e3e
000001d0: f1a6 d1bd 9215 0cc0 e7ca d4bf dcf6 20bf
000001e0: a22c fb3d d5dd 81bf aa11 bb3e 4506 6bbf
000001f0: b794 1d3f c085 cb3f f9c1 86bf 7ef5 1fc0
00000200: cda6 383f d10d debc 5deb f93f 0aea 9f3c
00000210: 7d9c bc3f 3102 d83f 2b00 95bf 337e 833f
00000220: 7fb6 573f 9a88 a43f 50e5 e2be 5445 453f
00000230: cd84 de3f 9a4d 853f 1531 dc3e 70e2 bbbe
00000240: 7bd1 a03f cfd6 f8be 9b12 9f3f 6ea2 dc3e
00000250: b788 87bf 0b4c 5c3f 2af0 8abe af0e 9b3f
00000260: fe6e ac3f 3de1 4bbf 2eb5 4abf 0ab1 87be
00000270: c371 5ebe 05d6 16bf f71d 4ebf e086 92be
00000280: b4b2 163f e59d c53d ef50 a1bf 5616 a33e
00000290: 8c4a 7e3f 2f65 c3be 719f 2040 9875 133f
000002a0: b2c1 fe3d 6bbd 403e 3317 c03d 2f6f 553e
000002b0: ca80 01bf 72f8 cabf 33f2 87be 6a06 893f
000002c0: 7f48 a2be b1e2 653f 504c 373d 5da6 80bf
000002d0: 9a59 fdbe 718a 6ebf 7fee 363e ab56 513f
000002e0: c747 f53e 049e 17c0 5794 bfbe 4fef a43f
000002f0: e00b 29c0 7026 9f3f 2d96 14bf 195a 73bf
00000300: ae43 aebf 54f3 0ac0 d88f 723d f05c 84bf
00000310: 0432 c4bb 78a8 a03f e122 0ec0 5518 b93f
00000320: cdd1 0f3f fce8 1a3f e439 0dbf 7016 82bf
00000330: c05a 4abf 35d3 26bf 3272 bdbe c481 1740
00000340: 6d9c 353e 314d c33e 710c e2bf 6149 4fbe
00000350: ddd2 a9bd f77b b6be 0535 9b3f c385 b73e
00000360: 81fb 06bf 1451 f9be a45a c0be cf6f 08c0
00000370: 36fb 7e3e a44e 463f 3563 673f ee2f c43f
00000380: 3ec7 08c0 90f6 2d3f 45f1 0e3f b17f 6cbe
00000390: abf3 e6bf 1bf8 40bf 6cbe 363f 9cf3 5d3f
000003a0: b14c 0cbf 1c96 7abf 6120 cfbe 4fa7 fd3f
000003b0: e01d 513f e913 a93d 5e0c 2d40 d301 013f
000003c0: 8b45 f73f 4e37 ebbe f90d 0cbf 0084 b7bf
000003d0: 629c b7be 7182 7fbf 55ce 2f3e 3ddd 0240
000003e0: 5355 0ebf dd05 f13d 218e 5abf 5f7f 1a3f
000003f0: 9a43 99be ffdc a33f eec5 073f ca1a 8b3f

weight f4 [7, 8]
0.6424956 1.4370786 1.3103964 -1.0320073 2.2970455 0.4563926 0.3265895 0.50061506
0.70115453 0.081096195 0.57608765 -1.049092 1.4989113 0.13428095 -1.1309787 -0.7293307
0.4487659 0.04756941 -0.97083116 0.7889046 -1.3650229 1.0994946 -0.8622912 0.18095025
0.19276258 -0.001183187 0.45264143 0.0073092342 -0.88542044 0.11683777 -1.4268775 0.15102065
0.83701515 -0.45140183 -1.2792108 -1.047284 0.5084383 -0.64356387 -1.2998493 -0.1145616
0.7359403 1.306442 1.5452108 0.9908549 0.2800774 0.8305787 -1.0118306 -1.1591482
0.52753514 -0.6380944 -0.4148958 -2.1456883 -0.26500094 -1.1389511 -0.022822564 -0.34007
00000000: 977a 243f 31f2 b73f 12bb a73f d118 84bf
00000010: cb02 1340 4aac e93e bd36 a73e 4f28 003f
00000020: dd7e 333f c315 a63d 7b7a 133f a648 86bf
00000030: 53dc bf3f f280 093e e9c3 90bf 6bb5 3abf
00000040: a5c4 e53e 24d8 423d 6488 78bf a7f5 493f
00000050: 12b9 aebf 3dbc 8c3f 1ebf 5cbf 064b 393e
00000060: 8e63 453e 2b15 9bba 9ec0 e73e 4d82 ef3b
00000070: eaaa 62bf a448 ef3d eca3 b6bf 28a5 1a3e
00000080: a046 563f 241e e7be 2ebd a3bf 670d 86bf
00000090: 0329 023f 9ac0 24bf 7661 a6bf 469f eabd
000000a0: 9566 3c3f 7e39 a73f 78c9 c53f aba8 7d3f
000000b0: 4e66 8f3e cea0 543f aa83 81bf f85e 94bf
000000c0: 8b0c 073f 285a 23bf 396d d4be f552 09c0
000000d0: 34ae 87be 26c9 91bf 63f6 babc a81d aebe

weight f4 [7, 8]
1.9138794 -0.012515322 2.7978134 -1.2620673 -0.7698152 -0.51328284 0.045366682 -1.1082586
-0.006095364 2.5874958 2.0090837 -0.37027064 0.4439268 -0.7412886 -0.51837 0.5622548
-0.8561578 0.18892668 -0.27749312 -0.54833716 1.1343277 0.07129723 -0.988626 0.46197417
-0.070791446 0.476093 -0.005896345 0.7421755 1.9906396 0.02055678 1.2857357 -0.953958
-0.6633863 0.47218567 0.03955351 -0.13179468 -1.3801275 -0.1924851 -0.3689092 -1.0041518
-1.4227511 -0.8100302 0.4087118 0.22148259 0.8729621 0.39795032 0.1738911 -0.010467241
0.5234023 2.492797 -1.5536643 0.32384142 0.14938146 -0.8822232 -0.57068664 0.8885544
00000000: 00fa f43f 110d 4dbc 600f 3340 6c8b a1bf
00000010: 9c12 45bf 8166 03bf 6ad2 393d 6bdb 8dbf
00000020: 9fbb c7bb 8899 2540 d494 0040 1d94 bdbe
00000030: 604a e33e 17c5 3dbf e5b3 04bf eeef 0f3f
00000040: 282d 5bbf ff75 413e 9413 8ebe d35f 0cbf
00000050: a631 913f 4804 923d 9816 7dbf e187 ec3e
00000060: 1bfb 90bd 76c2 f33e 2036 c1bb 37ff 3d3f
00000070: 47cd fe3f b166 a83c fd92 a43f 9736 74bf
00000080: afd3 29bf 52c2 f13e dc02 223d 2ff5 06be
00000090: 05a8 b0bf d01a 45be abe1 bcbe 0c88 80bf
000000a0: b51c b6bf 245e 4fbf ac42 d13e 55cc 623e
000000b0: 727a 5f3f 25c0 cb3e 8210 323e ca7e 2bbc
000000c0: b1fd 053f fc89 1f40 79de c6bf 8bce a53e
000000d0: 74f7 183e 61d9 61bf 8518 12bf 4d78 633f

weight f4 [7, 8]
0.17712837 1.4478782 0.96531075 -0.054835405 -0.23334005 -0.90663904 0.43556103 0.15579134
0.15596782 -1.1088423 0.3846122 -0.091402434 -1.0281873 0.21226345 -0.2720046 0.6589757
-0.6194187 -0.30563194 0.38016137 0.6725392 1.2339196 1.0188476 0.36937496 0.64520335
0.1412374 -0.1117786 -0.7793076 1.0593361 -0.27237847 0.6558753 0.8384345 0.5943803
-0.4777394 0.29289013 1.0325774 1.2116749 1.1522068 -0.28383002 -0.3626904 0.30449802
1.1909204 -0.91259134 0.398126 0.45664087 0.9008405 -0.28193706 -0.017510727 0.5732092
-0.7701113 0.63948226 -1.1671385 -1.1788288 -1.3274032 0.60450387 -0.54750913 -0.21500166
00000000: 2461 353e 1354 b93f 9b1e 773f 179b 60bd
00000010: b2f0 6ebe 7f19 68bf db01 df3e c487 1f3e
00000020: 07b6 1f3e 8bee 8dbf e4eb c43e 3331 bbbd
00000030: a49b 83bf 975b 593e 3044 8bbe a2b2 283f
00000040: 3992 1ebf ca7b 9cbe 83a4 c23e 872b 2c3f
00000050: 14f1 9d3f 9969 823f b71e bd3e 0c2c 253f
00000060: 89a0 103e 2eec e4bd b480 47bf 5398 873f
00000070: 3175 8bbe 72e7 273f a5a3 563f 4f29 183f
00000080: 429a f4be b2f5 953e 7f2b 843f 2a18 9b3f
00000090: 837b 933f 2b52 91be 8eb2 b9be 2ae7 9b3e
000000a0: 1470 983f 969f 69bf 2cd7 cb3e d5cc e93e
000000b0: 7c9d 663f 0e5a 90be a872 8fbc d7bd 123f
000000c0: 0426 45bf 1cb5 233f cb64 95bf dde3 96bf
000000d0: 59e8 a9bf c4c0 1a3f 8f29 0cbf 6529 5cbe

weight f4 [6, 8]
-0.6522029 -0.4453787 -0.43019336 0.12042359 0.027308974 1.702048 -1.1408502 -0.6032823
-0.3183407 -0.71362656 -0.089238256 1.7650323 0.16325867 0.037706677 0.23335564 -0.46130043
2.5227387 -0.17978786 3.1905208 -0.32906023 -1.1594697 0.53891134 1.3219298 1.2235184
-0.397493 1.8616947 -1.713942 -1.983591 2.1655214 -1.0691777 2.3533337 0.8793659
0.1527085 2.021153 0.86906314 -1.4370875 -1.4328803 0.12222537 -0.1660837 1.604363
0.16171853 0.6641966 -0.09779167 -0.7814486 -0.93237406 -1.2112207 0.36743534 0.20095807
00000000: c5f6 26bf ad08 e4be 4e42 dcbe a5a0 f63d
00000010: 12b7 df3c b5dc d93f 6107 92bf b570 1abf
00000020: 8dfd a2be 3bb0 36bf 8cc2 b6bd 94ec e13f
00000030: 482d 273e 5172 1a3d c8f4 6e3e 922f ecbe
00000040: 8d74 2140 4f1a 38be 7e31 4c40 957a a8be
00000050: 8169 94bf 18f6 093f ff34 a93f 409c 9c3f
00000060: 3484 cbbe 034c ee3f 7462 dbbf 4fe6 fdbf
00000070: e797 0a40 d1da 88bf 059d 1640 201e 613f
00000080: 9e5f 1c3e 925a 0140 ec7a 5e3f 7cf2 b7bf
00000090: 9f68 b7bf 4b51 fa3d d811 2abe c45b cd3f
000000a0: 8b99 253e ca08 2a3f 0047 c8bd 040d 48bf
000000b0: 11b0 6ebf 4809 9bbf 7c20 bc3e f4c7 4d3e

weight f4 [16, 1, 3]
-0.5266201 0.1493721 -0.76342607 -0.92698944 -0.28411508 0.038209774 -0.41740096 0.8797545
-0.00761308 0.034967516 -0.6930561 -0.510037 0.063671656 0.01665988 2.5540824 0.7902806
-0.47941446 -0.26804933 0.25124112 -0.7316973 -0.6012157 0.32663825 -1.007402 0.13699266
-0.046560317 -0.5872829 -0.44428554 0.33606616 -0.8459189 0.09265055 -0.41847384 0.8440979
0.0121054305 -0.2998284 0.8081802 0.50250196 -0.086948104 0.09483279 2.067091 -0.41684055
0.7786128 0.029666467 0.43049815 0.36974886 -0.58144367 0.57963264 -0.48405296 -0.11694795
00000000: 93d0 06bf 00f5 183e e46f 43bf 2e4f 6dbf
00000010: 8877 91be da81 1c3d 94b5 d5be 9737 613f
00000020: 2577 f9bb 193a 0f3d 206c 31bf c991 02bf
00000030: 4966 823d 4d7a 883c 1676 2340 d44f 4a3f
00000040: d075 f5be c33d 89be ada2 803e 8450 3bbf
00000050: 46e9 19bf 213d a73e 8cf2 80bf ce47 0c3e
00000060: 08b6 3ebd 2c58 16bf 6579 e3be dd10 ac3e
00000070: 248e 58bf 92bf bd3d 3442 d6be cd16 583f
00000080: db55 463c 1c83 99be e6e4 4e3f f8a3 003f
00000090: d911 b2bd b237 c23d 384b 0440 206c d5be
000000a0: 2b53 473f 1707 f33c 416a dc3e b94f bd3e
000000b0: 7ed9 14bf ce62 143f cad5 f7be 6882 efbd

bias f4 [16]
0.2605389 0.29611582 0.29891402 -0.33923152 -0.38099778 0.2704267 -0.4718929 -0.042678524
0.2309835 -0.14685099 -0.47343168 0.5418442 -0.104958326 0.14771971 0.74991626 -0.18946008
00000000: 5b65 853e 7e9c 973e 420b 993e c1af adbe
00000010: 2412 c3be 5e75 8a3e f29b f1be adcf 2ebd
00000020: f086 6c3e 1b60 16be a365 f2be 4db6 0a3f
00000030: 64f4 d6bd d643 173e 83fa 3f3f d301 42be

weight f4 [32, 16, 3]
0.31054822 -0.12510289 0.23136413 0.17370595 0.9017477 -0.19242026 -0.02683779 -1.1932048
0.10449334 0.13285951 0.50070304 -0.18730623 0.38305724 0.00920545 -0.574756 -0.29110616
0.95550495 0.042366922 -0.083288014 0.1372096 0.3108807 0.24702957 0.6174948 -0.7393932
0.19541885 0.5429705 -0.20462362 -0.06958891 0.07159846 -0.50614023 0.16466358 -1.2115651
0.161267 0.28249425 -1.0069604 -0.55619437 0.31269234 0.102832094 -0.8012826 -0.10227735
-1.0658606 0.09262545 -0.15494937 0.46803814 0.14738023 -0.409846 0.28908178 0.14450926
1.2121792 0.3447907 0.2949452 1.0426918 0.37556478 0.9252801 -0.029973416 -0.15211909
-0.13161135 0.5076369 0.92035216 0.18468021 0.59450185 -0.5538162 0.075641625 -0.03423659
0.878082 -0.055903617 0.44127905 0.8720364 0.13538247 0.47203758 0.005316008 0.09527441
0.7424085 1.1982814 0.33757633 -0.1478681 0.45219386 0.195633 0.26120427 -0.12269795
-0.04837373 0.4617223 0.1293404 0.19866559 0.41328672 -0.45081574 -0.14454953 0.16826053
-0.22497514 -0.33470485 -0.010265645 0.48667228 -0.42707407 -0.22947955 0.13873586 -0.0044896617
-0.47186628 -0.22122045 0.6226867 -0.6726968 -0.11053344 -0.1064173 0.37578356 -0.6620645
-0.14054403 0.38536045 -0.38988817 0.64537424 -0.3374576 -0.68499666 -1.4138103 -0.105811834
-0.084646165 -0.020951768 -0.12224411 -0.27771038 0.24852535 -0.06574501 -1.1958891 0.013626405
0.3406099 -0.43193904 0.5116035 -0.23198009 -0.7280911 0.092594616 0.19488719 -0.44290826
-0.34765068 0.35861444 -0.80609024 -0.4425563 0.05328651 -0.48364905 -1.1907618 0.25428244
-0.3010512 0.023802549 0.2154164 0.028580677 -0.058671445 -0.34097353 -0.3771792 0.145736
-0.026877439 0.37691572 0.41918772 -0.46628973 0.16260777 -0.06827748 0.07422859 -1.1274436
-0.22196531 -0.23405838 0.047738265 1.1956108 0.09605782 -0.14790982 0.071492866 0.4932759
0.37183747 -0.14551164 -0.073664725 -0.01489662 0.73895663 -0.25456885 -0.10427209 0.22019072
0.003941874 0.21615666 0.42089903 -0.2030961 -0.021089328 0.5477948 0.05892143 -1.2849654
-0.3481377 0.287485 -0.86488295 0.06509226 0.3203521 0.327252 -0.11501154 0.28146058
-1.1707746 -0.31321028 0.87820506 0.3212486 -0.12353633 -0.10062625 0.20742138 0.5078728
0.44336796 0.28771123 0.23069757 0.34014636 0.7718542 0.029800776 -0.06570758 -1.4977453
0.06309955 0.04619124 0.44123042 0.2795065 0.27821875 0.13616295 0.48341656 0.12993789
0.5585143 0.016700804 0.005889704 0.36494246 0.1034121 0.28008124 0.37357238 0.523203
0.092331015 0.6547736 0.35072094 0.5517011 0.0062249363 0.29592854 0.099903435 -1.5141329
0.18019217 -0.16119426 -0.92559975 -0.101895615 0.16101134 0.42294532 0.22731827 -0.14825794
-1.6008707 0.106063806 0.066258475 0.12519154 -0.037617013 0.11404923 -0.21227174 0.70065135
0.76519614 -0.02801189 0.40355837 0.3905923 -0.08059143 0.7518677 0.2668249 -0.43423796
0.22797982 -0.052033633 0.17886877 0.26369128 -0.05659111 -0.22237614 0.23602967 -0.6580752
00000000: 2d00 9f3e f91a 00be b8ea 6c3e f9df 313e
00000010: f0d8 663f d109 45be edda dbbc efba 98bf
00000020: 9b00 d63d 530c 083e 132e 003f 34cd 3fbe
00000030: 1420 c43e 75d2 163c 3623 13bf de0b 95be
00000040: f99b 743f f088 2d3d e892 aabd ac80 0c3e
00000050: c12b 9f3e 52f5 7c3e 2414 1e3f df48 3dbf
00000060: e11b 483e 1d00 0b3f db88 51be a184 8ebd
00000070: 37a2 923d 6892 01bf 929d 283e 9114 9bbf
00000080: 2d23 253e 16a3 903e 14e4 80bf c162 0ebf
00000090: 3619 a03e a299 d23d db20 4dbf ca76 d1bd
000000a0: 1f6e 88bf 69b2 bd3d 0cab 1ebe b2a2 ef3e
000000b0: d8ea 163e 56d7 d1be 8702 943e 3cfa 133e
000000c0: b028 9b3f 6888 b03e 0f03 973e ed76 853f
000000d0: 074a c03e 28df 6c3f cf8a f5bc 1bc5 1bbe
000000e0: 20c5 06be 7ef4 013f 339c 6b3f cf1c 3d3e
000000f0: 4631 183f e6c6 0dbf ffe9 9a3d ab3b 0cbd
00000100: fbc9 603f 31fb 64bd 54ef e13e c73d 5f3f
00000110: b4a1 0a3e e9ae f13e e831 ae3b 3b1f c33d
00000120: 7c0e 3e3f 4961 993f ced6 ac3e bc6a 17be
00000130: f485 e73e 0454 483e 91bc 853e 1049 fbbd
00000140: 8823 46bd de66 ec3e cf71 043e fe6e 4b3e
00000150: 519a d33e 52d1 e6be cb04 14be 7d4c 2c3e
00000160: e25f 66be 6f5e abbe 3c31 28bc 1c2d f93e
00000170: 74a9 dabe b0fc 6abe c610 0e3e 031e 93bb
00000180: 7598 f1be 9d87 62be 6568 1f3f dc35 2cbf
00000190: 5b5f e2bd 50f1 d9bd b466 c03e 0f7d 29bf
000001a0: c6ea 0fbe f74d c53e 6c9f c7be 3f37 253f
000001b0: 3ec7 acbe f15b 2fbf bcf7 b4bf e0b3 d8bd
000001c0: f85a adbd 0ba3 abbc 1f5b fabd 0e30 8ebe
000001d0: 6e7d 7e3e 52a5 86bd e512 99bf 4941 5f3c
000001e0: 6c64 ae3e 1d27 ddbe 72f8 023f 308c 6dbe
000001f0: 2e64 3abf 3fa2 bd3d 8290 473e dfc4 e2be
00000200: 45ff b1be 509c b73e ee5b 4ebf bd96 e2be
00000210: f542 5a3d d9a0 f7be e26a 98bf 4f31 823e
00000220: 6223 9abe 90fd c23c 1e96 5c3e 0622 ea3c
00000230: 7851 70bd 1594 aebe a21d c1be d13b 153e
00000240: 132e dcbc 19fb c03e c69f d63e 87bd eebe
00000250: a782 263e 10d5 8bbd 2905 983d 1250 90bf
00000260: e04a 63be 00ad 6fbe 3389 433d c609 993f
00000270: f6b9 c43d ac75 17be da6a 923d a98e fc3e
00000280: 7b61 be3e 0101 15be 88dd 96bd f410 74bc
00000290: 432c 3d3f d956 82be 9b8c d5bd ad79 613e
000002a0: d62a 813b 2c58 5d3e 1480 d73e 6df8 4fbe
000002b0: 87c3 acbc 483c 0c3f 9957 713d bf79 a4bf
000002c0: 1b3f b2be 3c31 933e f868 5dbf 174f 853d
000002d0: 3105 a43e 938d a73e 2c8b ebbd 9a1b 903e
000002e0: f1db 95bf 195d a0be 0cd2 603f b27a a43e
000002f0: 9e00 fdbd 2315 cebd 4566 543e f403 023f
00000300: 2001 e33e e34e 933e fc3b 6c3e aa27 ae3e
00000310: 3d98 453f c220 f43c b291 86bd 1eb6 bfbf
00000320: 563a 813d 0733 3d3d f4e8 e13e 7a1b 8f3e
00000330: b072 8e3e 4d6e 0b3e 6082 f73e 700e 053e
00000340: cbfa 0e3f 20d0 883c 6bfe c03b bdd9 ba3e
00000350: b9c9 d33d cf66 8f3e e144 bf3e a2f0 053f
00000360: 0b18 bd3d 3e9f 273f b291 b33e 493c 0d3f
00000370: 8dfa cb3b f283 973e 2c9a cc3d 1bcf c1bf
00000380: 4c84 383e 1c10 25be 1bf4 6cbf a6ae d0bd
00000390: 28e0 243e 4a8c d83e 1fc6 683e eed0 17be
000003a0: 55e9 ccbf fb37 d93d 86b2 873d 3632 003e
000003b0: 4c14 1abd a592 e93d c35d 59be e35d 333f
000003c0: e5e3 433f 3179 e5bc 349f ce3e b7fb c73e
000003d0: 1f0d a5bd 677a 403f 469d 883e 7054 debe
000003e0: 8b73 693e 3821 55bd 6029 373e 8b02 873e
000003f0: 14cc 67bd 92b6 63be c3b1 713e 9e77 28bf

bias f4 [32]
0.5729563 0.25267592 0.049315818 -0.2512974 0.15944424 -0.047404535 -0.3751662 0.75846493
-0.90100944 0.45873097 -0.64263535 -0.93427557 -0.50839216 -0.74566966 -0.044800833 -0.15974821
0.53135735 -0.5257091 0.48806903 -0.4678657 0.43137324 0.27417934 -0.36253357 0.3812776
-0.12223622 0.62353545 -0.12183926 -0.17937839 -0.26311913 -0.099268444 0.22265327 0.5755798
00000000: 44ad 123f bd5e 813e 62ff 493d 0eaa 80be
00000010: 5a45 233e 422b 42bd c915 c0be c22a 423f
00000020: 8ea8 66bf c9de ea3e c083 24bf af2c 6fbf
00000030: fd25 02bf 35e4 3ebf 1481 37bd 0995 23be
00000040: 0907 083f df94 06bf 2fe4 f93e 188c efbe
00000050: f4dc dc3e 3c61 8c3e 009e b9be d136 c33e
00000060: fc56 fabd 05a0 1f3f dd86 f9bd f8ae 37be
00000070: 8db7 86be 414d cbbd 38ff 633e 3359 133f

weight f4 [16]
1.128261 0.8495153 1.0751598 1.3158234 0.8860725 1.0644885 1.0211006 1.1060333
1.2487638 1.1076391 1.0390676 1.5109621 0.7433827 1.0320455 1.1293125 1.0647227
00000000: db6a 903f d679 593f d69e 893f e76c a83f
00000010: a6d5 623f 2941 883f 6db3 823f 8092 8d3f
00000020: 7ed7 9f3f 1ec7 8d3f 2b00 853f 3567 c13f
00000030: 544e 3e3f 111a 843f 508d 903f d548 883f

bias f4 [16]
-0.46347404 -0.340673 -0.02426649 -0.8459277 -0.15934843 -0.43580815 -0.40771872 -0.35292476
-0.7417611 -0.28450176 0.06025565 -0.7587364 -0.1150741 0.00037502826 -0.54362553 -0.28253028
00000000: 784c edbe b16c aebe 85ca c6bc b88e 58bf
00000010: 3c2c 23be 3f22 dfbe 82c0 d0be 8eb2 b4be
00000020: 0ee4 3dbf 37aa 91be a1ce 763d 8c3c 42bf
00000030: f8ab ebbd 719f c439 0b2b 0bbf cfa7 90be

running_mean f4 [16]
0.30017024 0.33956936 0.28101283 -0.2957349 -0.4729222 0.26740518 -0.4356863 -0.02565819
0.270189 -0.13458315 -0.48998594 0.5064377 -0.17800136 0.13581465 0.7383412 -0.18911457
00000000: eaaf 993e 09dc ad3e eae0 8f3e 916a 97be
00000010: dc22 f2be 55e9 883e 4612 dfbe 2031 d2bc
00000020: 3656 8a3e 2ad0 09be 70df fabe e7a5 013f
00000030: fd45 36be ff12 0b3e ee03 3d3f 40a7 41be

running_var f4 [16]
0.8744458 1.0348988 0.9300258 0.841848 6.8825674 0.93582004 1.0655055 1.1086212
0.6245315 0.8124711 0.8716258 1.0864185 4.564802 0.76770496 0.69532156 0.5750957
00000000: aedb 5f3f 9077 843f 2c16 6e3f 5a83 573f
00000010: fe3d dc40 e791 6f3f 7c62 883f 4de7 8d3f
00000020: 4ce1 1f3f 1bfe 4f3f de22 5f3f c30f 8b3f
00000030: dc12 9240 5088 443f 9800 323f 7939 133f

weight f4 [32]
1.2722274 1.4488307 1.0015105 1.0166333 1.4356593 1.1513226 1.077956 1.0468992
1.2105936 1.5168043 1.3570645 1.1744412 1.0488845 1.3531138 0.9871256 1.0896398
1.3144141 0.8446091 1.1874042 1.1527742 0.8071496 0.7127607 0.91363347 1.1816629
1.1861019 1.1462771 0.91948277 0.7331334 1.1024517 1.3991742 1.1819462 1.006471
00000000: 59d8 a23f 4973 b93f 7f31 803f 0a21 823f
00000010: afc3 b73f 8a5e 933f 76fa 893f cb00 863f
00000020: bbf4 9a3f a526 c23f 4ab4 ad3f 1754 963f
00000030: d941 863f d532 ad3f 43b4 7c3f 5179 8b3f
00000040: b93e a83f 4d38 583f dcfc 973f 1b8e 933f
00000050: 5ba1 4e3f 7c77 363f e2e3 693f bb40 973f
00000060: 30d2 973f 35b9 923f 3963 6b3f a1ae 3b3f
00000070: 231d 8d3f 2418 b33f 034a 973f 0bd4 803f

bias f4 [32]
-0.63583434 -0.39410496 -0.10206762 -0.20940447 -0.36900425 -0.18268967 -0.30317912 -0.08474222
-0.16666445 -0.42410454 -0.4122339 -0.07170502 -0.21831281 -0.33655986 -0.2513259 -0.39026067
-0.5945308 -0.72576004 -0.39361385 -0.2911001 -0.16457331 -0.723062 -0.2309897 -0.25554055
-0.5603194 -0.5129119 -0.24292634 -0.16168973 -0.29314613 -0.51692903 -0.3671463 -0.18452589
00000000: 0ac6 22bf 20c8 c9be d408 d1bd 206e 56be
00000010: 20ee bcbe 0013 3bbe 4b3a 9bbe 548d adbd
00000020: 16aa 2abe 3b24 d9be 5210 d3be 15da 92bd
00000030: 658d 5fbe 9351 acbe caad 80be 3fd0 c7be
00000040: 2c33 18bf 69cb 39bf c187 c9be 130b 95be
00000050: e885 28be 971a 39bf 9088 6cbe 36d6 82be
00000060: 1871 0fbf 324e 03bf afc1 78be fe91 25be
00000070: 4017 96be 7655 04bf 9afa bbbe 5bf4 3cbe

running_mean f4 [32]
-1.3659811 4.4372497 -4.46328 -1.1232284 0.43984056 2.3713524 -2.0589936 -2.7991874
-3.8309052 0.2948764 0.20216617 0.30507472 -2.8648765 -3.0050945 -1.5956839 -0.8780419
-2.1379626 5.8933845 -2.183653 1.9646552 1.3644661 4.169879 -2.4545093 -0.13539638
-3.1562881 -2.1034172 3.7597742 4.975501 -2.371669 1.5763067 -4.0557685 1.6162454
00000000: 78d8 aebf f3fd 8d40 31d3 8ec0 f3c5 8fbf
00000010: c832 e13e 3dc4 1740 8dc6 03c0 e325 33c0
00000020: 8d2d 75c0 0afa 963e a604 4f3e c132 9c3e
00000030: 235a 37c0 7853 40c0 5f3f ccbf 5bc7 60bf
00000040: 61d4 08c0 9b96 bc40 f9c0 0bc0 d279 fb3f
00000050: d3a6 ae3f a66f 8540 ae16 1dc0 59a5 0abe
00000060: a000 4ac0 639e 06c0 24a0 7040 4e37 9f40
00000070: 6dc9 17c0 6bc4 c93f dbc8 81c0 21e1 ce3f

running_var f4 [32]
20.859365 22.880177 16.561865 19.405077 23.865784 23.025467 27.424427 18.26883
19.569897 15.527842 27.482775 25.88861 23.252691 29.099745 23.5195 21.261782
14.676919 14.804992 29.261581 15.339245 13.398236 17.18675 20.677402 28.668987
15.461463 23.01631 12.400014 18.312557 16.107042 29.772484 29.189095 20.755253
00000000: fbdf a641 9a0a b741 b37e 8441 993d 9b41
00000010: 20ed be41 2834 b841 3a65 db41 9026 9241
00000020: 268f 9c41 0a72 7841 b9dc db41 e01b cf41
00000030: 8305 ba41 47cc e841 f027 bc41 2118 aa41
00000040: a9d4 6a41 3fe1 6c41 b817 ea41 8c6d 7541
00000050: 2d5f 5641 777e 8941 526b a541 165a e541
00000060: 2762 7741 6721 b841 7566 4641 1e80 9241
00000070: 39db 8041 0c2e ee41 4483 e941 c20a a641
