government_icfes_dataset/results_ml/checkpoints/model_regression_20250521_181649.pt (torch, 696683 bytes, 39 tensors)

embeddings.0.weight f4 [4, 8]
0.03134034 -1.6061591 -1.5493959 -1.6994992 -2.5416207 -0.77143186 -2.3396404 -1.0649678
-1.5431944 -0.7018972 -1.2824254 -2.1531 -0.99646825 -1.1461087 1.6261929 -1.7367055
-0.6834056 1.521955 -1.5507008 0.26523316 0.5822535 -0.2347172 0.07667003 0.43781003
-1.4871261 0.47310495 -0.32072073 0.3922625 -0.038475845 -0.15421887 1.0402623 -0.567141
00000000: ba5e 003d 9f96 cdbf 9b52 c6bf 3189 d9bf
00000010: eaa9 22c0 8f7c 45bf abbc 15c0 dd50 88bf
00000020: 6587 c5bf 89af 33bf 8426 a4bf 64cc 09c0
00000030: 8b18 7fbf b1b3 92bf 1727 d03f 5e4c debf
00000040: abf3 2ebf 6ccf c23f 5d7d c6bf a4cc 873e
00000050: 910e 153f b559 70be 2d05 9d3d a328 e03e
00000060: 265a bebf d03a f23e 8235 a4be a1d6 c83e
00000070: d998 1dbd 8deb 1dbe 5127 853f 2730 11bf

embeddings.1.weight f4 [3, 8]
-0.9569005 1.1834497 1.1205516 -0.2015563 -0.056279775 0.9300799 0.85100836 -0.91107255
-1.9444131 0.5781419 -0.54388237 -1.0316508 1.7125572 0.5375507 0.061827894 1.5833956
-0.14217438 -1.2770668 1.6560286 1.5839944 -0.041916948 -0.19658975 -0.356669 0.28374702
00000000: 6ef7 74bf 487b 973f 3c6e 8f3f c664 4ebe
00000010: 9f85 66bd b719 6e3f afdb 593f 0d3c 69bf
00000020: 87e2 f8bf 1c01 143f e03b 0bbf 220d 84bf
00000030: 1335 db3f ec9c 093f 3f3f 7d3d b5ac ca3f
00000040: 2996 11be ed76 a3bf bff8 d33f 54c0 ca3f
00000050: 1bb1 2bbd d34e 49be 529d b6be 4a47 913e

embeddings.2.weight f4 [5, 8]
-0.54789525 -1.51058 1.6394542 2.071937 1.4900403 -1.6834424 -0.8448297 -0.6384625
-0.8790597 -1.1197203 0.9788564 1.240435 0.9391257 -1.4433141 -2.7016087 -0.7776836
0.09994181 2.6129792 -0.24607311 -0.93296707 1.118461 0.5113799 0.032683548 -1.4834006
-0.18004388 -1.3433456 0.97999173 -0.06033056 -0.13808927 1.2345971 0.91816777 -0.28843272
-0.2589717 -1.4889208 2.0303743 0.04624569 0.24004753 -1.3406208 0.4683573 -0.4442914
00000000: dd42 0cbf af5a c1bf a3d9 d13f 9e9a 0440
00000010: a4b9 be3f 0a7b d7bf c246 58bf 4772 23bf
00000020: 0e0a 61bf ff52 8fbf 5596 7a3f 93c6 9e3f
00000030: 8b6a 703f 84be b8bf 28e7 2cc0 4616 47bf
00000040: 4bae cc3d 0d3b 2740 97fa 7bbe eed6 6ebf
00000050: bb29 8f3f cbe9 023f 2fdf 053d 12e0 bdbf
00000060: 6c5d 38be c0f2 abbf bde0 7a3f 2d1d 77bd
00000070: 4667 0dbe 4707 9e3f 0b0d 6b3f 74ad 93be
00000080: f097 84be f594 bebf a7f1 0140 1f6c 3d3d
00000090: 05cf 753e 7699 abbf 87cc ef3e 2a7a e3be

embeddings.3.weight f4 [7, 8]
-0.17963079 0.7939818 0.24888831 0.06734315 0.00021922139 -0.038773563 -0.35031182 -0.074171215
-2.5678303 -1.7656126 -1.6495848 -1.2880718 -0.738822 -0.987219 -0.8603633 -0.63314706
-0.8273579 -0.12704922 -1.0829753 -0.7242384 0.80627936 0.70865405 -0.79159695 -0.67595476
-0.8211066 -0.23384173 -2.6001933 -1.2104136 0.086897366 -0.12911025 0.37504417 0.1567708
-1.4130331 0.05650686 1.3489196 0.7214043 0.25854108 1.9898843 -0.38938257 -0.0041129165
-2.0040638 -1.7240407 0.6004196 0.9966629 -1.5087796 -1.9909936 -1.0687424 0.41857037
1.7363425 -0.030773642 -2.086386 0.62557906 -1.0432326 0.15366125 -0.33196932 1.3455868
00000000: 22f1 37be 6442 4b3f 94dc 7e3e 35eb 893d
00000010: cbde 6539 07d1 1ebd 125c b3be 14e7 97bd
00000020: 5557 24c0 98ff e1bf 9825 d3bf 89df a4bf
00000030: 7023 3dbf 62ba 7cbf c540 5cbf ed15 22bf
00000040: bacd 53bf 3119 02be ef9e 8abf b067 39bf
00000050: 5368 4e3f 5a6a 353f 19a6 4abf 5f0b 2dbf
00000060: 0b34 52bf 3574 6fbe 9169 26c0 d5ee 9abf
00000070: 3ff7 b13d 7a35 04be ca05 c03e 8688 203e
00000080: 45de b4bf bd73 673d 66a9 ac3f f4ad 383f
00000090: 7f5f 843e 87b4 fe3f 275d c7be a5c5 86bb
000000a0: 9542 00c0 5ead dcbf 19b5 193f 4d25 7f3f
000000b0: b11f c1bf e1d8 febf 8dcc 88bf db4e d63e
000000c0: 7940 de3f 0119 fcbc 5987 05c0 f325 203f
000000d0: a588 85bf 6059 1d3e e2f7 a9be 303c ac3f

embeddings.4.weight f4 [7, 8]
-1.3519592 -1.6627316 -1.0880857 0.17614661 -0.0056476207 2.5518205 0.20211843 1.7712532
-2.5110607 -1.2731378 -1.6286875 0.06372287 -0.16491899 -2.7813458 -1.413812 -0.35121748
1.2048141 -0.0136484755 -0.5209555 0.46092996 0.9819313 0.14193456 -0.057019457 -2.6554592
1.1428385 0.19918613 0.82376075 -0.5355125 0.54664993 -0.22834699 -1.5877192 -1.171393
-1.612359 1.0924093 -3.4248319 1.0186226 1.070541 -1.2629404 0.068248026 -1.127234
0.88448036 -0.18285426 -0.07250574 -0.74121445 -0.08819633 -0.22026664 0.1998454 -0.4265317
-0.084289186 0.1836212 -0.69449663 -0.87297356 0.7844248 -0.7805857 0.2844649 1.2041886
00000000: 000d adbf 64d4 d4bf 6446 8bbf c75f 343e
00000010: ad0f b9bb 0751 2340 22f8 4e3e 6db8 e23f
00000020: 38b5 20c0 2ef6 a2bf d578 d0bf 2381 823d
00000030: 86e0 28be 9201 32c0 cbf7 b4bf c7d2 b3be
00000040: 5937 9a3f db9d 5fbc 575d 05bf 03ff eb3e
00000050: da5f 7b3f 4b57 113e 3c8d 69bd 0bf3 29c0
00000060: 8848 923f 73f7 4b3e fce1 523f 5917 09bf
00000070: 40f1 0b3f cbd3 69be 623a cbbf 35f0 95bf
00000080: c861 cebf 11d4 8b3f 7230 5bc0 3a62 823f
00000090: 7d07 893f 08a8 a1bf 9fc5 8b3d 3449 90bf
000000a0: 4e6d 623f 263e 3bbe e47d 94bd 3bc0 3dbf
000000b0: 47a0 b4bd 948d 61be 46a4 4c3e 5d62 dabe
000000c0: cf9f acbd 3207 3c3e 88ca 31bf 327b 5fbf
000000d0: 10d0 483f 77d4 47bf 62a5 913e da22 9a3f

embeddings.5.weight f4 [1025, 8]
0.6090744 -0.48191667 -0.5575951 -1.1470479 -0.8131952 -1.0569932 0.9472454 -1.2419016
1.6225305 0.829996 -1.5323813 -0.16642556 0.72390324 0.34552988 -1.3378973 0.46935457
-1.2343148 -1.6321485 0.34358913 -0.63573444 1.2470343 -0.38638029 -0.29880676 0.9579692
0.32420683 -0.97290653 1.2410903 -0.9190767 0.4002585 1.3704354 -1.2363997 2.4878309
-1.9424495 1.7333666 1.036475 1.2050513 -0.049095158 -0.04680038 -0.35737568 2.0027208
0.76822335 -0.39339924 -0.9366615 -2.2012978 -0.68846935 -0.68346846 0.8483732 -0.16548574
0.008806334 0.16211785 -1.8751068 -0.116272196 -1.3305397 0.7290062 1.1381253 -0.4013977
0.5908795 0.32865667 -0.20706287 -0.41563797 -0.5691455 -1.713284 -2.28596 -1.1899683
-0.53984296 -2.1316257 -0.12444706 -0.32092 0.79124093 -0.030953145 -0.7959139 0.45271906
1.3176684 -0.28551197 1.6280997 0.0880848 0.16067962 -2.361471 -0.78587574 1.5572593
1.5617062 0.93960446 -0.21065545 0.8990545 0.47611102 0.7669491 0.006628462 1.0555396
2.1724374 0.24933414 0.8759254 -0.013110367 1.9521815 0.40475044 0.42206404 1.1783936
0.68436575 0.7979033 -0.13315715 1.4274973 -1.7894617 0.5538491 -0.10985519 -0.17496945
0.3614325 -0.7866758 0.65853035 -2.4816382 0.5627857 0.1937682 -0.45819238 -1.7840171
-1.6786827 2.0120864 0.19552499 0.91147923 -0.80601233 1.2803844 0.08885131 -0.19316202
-0.6441599 1.355481 0.44574246 -1.4821246 0.44463617 0.5568508 1.5204974 -0.06295496
-1.3106569 -1.6194367 -0.63068503 1.1600745 -4.1480203 0.40648723 -0.5611011 1.2582072
-0.7833987 1.6891478 1.9625108 -0.6539046 0.46566415 0.49155816 1.6843672 0.8326421
-0.71459913 0.07920148 1.0717555 -0.11572274 1.5255269 -0.3081389 1.1978389 0.80021226
0.061974596 -1.1973586 0.077544466 -1.9645104 0.80745095 2.237277 0.89089644 -0.717925
-1.4181802 0.7629789 1.4420764 -0.043948997 0.54286 0.6886189 1.2413092 -0.77564687
1.0826058 2.1186655 1.181457 1.4894845 0.27768564 2.1045094 0.41591692 2.5494344
0.026252 0.33479363 1.8482728 0.1588852 0.4984456 -1.5438497 -1.1776526 -0.26137406
-0.95511293 -1.2432523 -0.79100394 1.538355 0.5923501 -0.7770354 -1.0138692 1.6481872
-0.05540038 -0.35374254 -0.5240855 -1.2867383 -1.2683457 -2.7337408 -1.5315996 0.976985
0.059858873 0.19398478 -0.11058294 0.016423412 -0.6856045 2.2855573 0.7961585 -1.5852172
-1.3051578 1.1079645 1.8758465 -1.0827032 1.9783282 -0.2704487 -0.93519497 -1.280909
0.336934 -0.07493535 1.0543224 -1.0286005 -1.6320858 -1.997873 0.07727559 -0.9835634
0.899039 -0.67434204 -0.57225513 -0.48361352 0.0028267489 -0.81909794 -0.52388334 -0.2556364
1.3335496 -0.51680267 -0.40892515 -1.5430381 0.6193724 0.8531648 -0.7050937 1.6741068
-1.5070385 1.8232032 -0.34377623 -1.4434906 -1.0929887 -0.56977427 0.083200574 0.29353273
0.2967568 -0.3159521 0.034829397 -0.70593905 1.0886229 -0.9053013 -2.1350963 1.0680943
00000000: 4dec 1b3f c8bd f6be 8dbe 0ebf 77d2 92bf
00000010: 902d 50bf 8e4b 87bf ad7e 723f a2f6 9ebf
00000020: 14af cf3f 9e7a 543f 1225 c4bf 766b 2abe
00000030: b951 393f 4be9 b03e 3840 abbf 3e4f f03e
00000040: 07fe 9dbf 3eea d0bf eaea af3e 7ebf 22bf
00000050: d29e 9f3f a3d3 c5be 33fd 98be 783d 753f
00000060: 70fe a53e 6710 79bf 0cdc 9e3f 9c48 6bbf
00000070: afee cc3e 6d6a af3f 5842 9ebf 9f38 1f40
00000080: 2fa2 f8bf f5de dd3f 36ab 843f 1f3f 9a3f
00000090: 0118 49bd c1b1 3fbd f2f9 b6be 942c 0040
000000a0: 49aa 443f a06b c9be 0cc9 6fbf 10e2 0cc0
000000b0: 873f 30bf caf7 2ebf fc2e 593f 1875 29be
000000c0: 7148 103c 3902 263e 8003 f0bf 1e20 eebd
000000d0: 204f aabf 26a0 3a3f 17ae 913f 0084 cdbe
000000e0: e143 173f b045 a83e 4a08 54be 80ce d4be
000000f0: 85b3 11bf e44c dbbf 2b4d 12c0 e250 98bf
00000100: 2633 0abf 8e6c 08c0 1ade febd a04f a4be
00000110: c48e 4a3f 7391 fdbc 03c1 4bbf cbca e73e
00000120: 5ca9 a83f a02e 92be 9265 d03f ce65 b43d
00000130: 3389 243e 5722 17c0 272f 49bf 4654 c73f
00000140: fde5 c73f eb89 703f 10b6 57be 7028 663f
00000150: d3c4 f33e c756 443f 9233 d93b ec1b 873f
00000160: 3709 0b40 7351 7f3e a63c 603f ddcc 56bc
00000170: 15e1 f93f 733b cf3e c718 d83e 9ad5 963f
00000180: 9832 2f3f 6443 4c3f 595a 08be 3bb8 b63f
00000190: 150d e5bf 0ec9 0d3f c2fb e0bd 312b 33be
000001a0: ae0d b93e 9663 49bf 7295 283f 29d3 1ec0
000001b0: b912 103f 2c6b 463e 3198 eabe ac5a e4bf
000001c0: 13df d6bf 06c6 0040 b437 483e b456 693f
000001d0: d356 4ebf a3e3 a33f adf7 b53d 44cc 45be
000001e0: aae7 24bf 6780 ad3f 5b38 e43e 42b6 bdbf
000001f0: 5aa7 e33e c68d 0e3f a99f c23f 88ee 80bd
00000200: 9bc3 a7bf b449 cfbf 9374 21bf 527d 943f
00000210: 95bc 84c0 181f d03e 52a4 0fbf ef0c a13f
00000220: d18c 48bf ff35 d83f 8e33 fb3f 4b66 27bf
00000230: 886b ee3e 83ad fb3e 5899 d73f 0828 553f
00000240: f8ef 36bf 6334 a23d 492f 893f 0b00 edbd
00000250: 7744 c33f 62c4 9dbe c952 993f b6da 4c3f
00000260: 13d9 7d3d 0c43 99bf a2cf 9e3d 1475 fbbf
00000270: 1bb5 4e3f 8c2f 0f40 ca11 643f efc9 37bf
00000280: ee86 b5bf 9652 433f f695 b83f dd03 34bd
00000290: dff8 0a3f 5449 303f 38e3 9e3f cb90 46bf
000002a0: d492 8a3f 3798 0740 fc39 973f 6ea7 be3f
000002b0: d02c 8e3e 48b0 0640 10f3 d43e ef29 2340
000002c0: 6f0e d73c 126a ab3e 3494 ec3f cdb2 223e
000002d0: 4334 ff3e de9c c5bf 52bd 96bf d2d2 85be
000002e0: 4882 74bf e422 9fbf 3c7f 4abf d1e8 c43f
000002f0: 42a4 173f cbeb 46bf 77c6 81bf ccf7 d23f
00000300: 82eb 62bd be1d b5be 782a 06bf d7b3 a4bf
00000310: 2759 a2bf 9cf5 2ec0 750b c4bf b01b 7a3f
00000320: 942e 753d f2a3 463e 4f79 e2bd 648a 863c
00000330: c783 2fbf 9246 1240 0bd1 4b3f 66e8 cabf
00000340: 690f a7bf c8d1 8d3f bd1b f03f 0596 8abf
00000350: dc39 fd3f 4178 8abe f068 6fbf d3f4 a3bf
00000360: 9d82 ac3e b477 99bd 09f4 863f 2ea9 83bf
00000370: 30e8 d0bf 4dba ffbf aa42 9e3d d0ca 7bbf
00000380: 6b27 663f aea1 2cbf 507f 12bf 319c f7be
00000390: fa40 393b 67b0 51bf 381d 06bf c6e2 82be
000003a0: c1b1 aa3f 2e4d 04bf a35e d1be 4682 c5bf
000003b0: 318f 1e3f 0269 5a3f 0581 34bf 2249 d63f
000003c0: a3e6 c0bf b95e e93f 7003 b0be 4dc4 b8bf
000003d0: 0ee7 8bbf badc 11bf 1065 aa3d ec49 963e
000003e0: 82f0 973e 79c4 a1be 45a9 0e3d 6cb8 34bf
000003f0: ff57 8b3f d3c1 67bf 6ba5 08c0 50b7 883f

embeddings.6.weight f4 [3, 8]
-0.21745476 -0.35984477 -0.36690566 -1.5684713 0.8654602 -0.95348275 -0.20075385 0.05278377
-0.13412969 0.85125995 1.0843806 -0.74911886 -0.49278674 -0.5214081 1.397813 0.6083962
-1.8582095 -2.283586 0.025193378 -0.82019585 -1.7890724 -0.40968743 0.30972558 -0.45767516
00000000: 76ac 5ebe 933d b8be 0fdb bbbe abc3 c8bf
00000010: cd8e 5d3f 7217 74bf 6b92 4dbe cb33 583d
00000020: 4b59 09be 2cec 593f fccc 8a3f 41c6 3fbf
00000030: 8b4e fcbe 007b 05bf 89eb b23f dabf 1b3f
00000040: cfd9 edbf 4626 12c0 5862 ce3c 5bf8 51bf
00000050: 5300 e5bf 8dc2 d1be 5a94 9e3e 6654 eabe

embeddings.7.weight f4 [7, 8]
0.13779348 0.21577579 -0.016542632 -0.41413444 -0.48911247 0.8517408 1.185789 -0.9350589
-0.71304834 -1.1821753 0.01392992 -0.060283586 0.10852089 2.2620885 0.9920253 -1.288601
2.0836122 -1.2550874 -1.1231028 -0.51114535 0.63229966 0.6635295 -0.014115221 0.15579103
-0.16896723 -0.19264077 1.1036808 -0.3806213 -0.9368831 -2.7006288 -0.22757912 1.0717022
-0.24818417 0.5139376 -1.0418901 -0.47579908 0.07673989 0.44315794 -0.629236 -0.5806251
-0.93053025 -0.0006342744 1.631628 0.5717648 -0.34593526 0.09054078 -0.70529145 1.9475691
-0.881761 -0.27297 -0.59603226 -0.18773818 -1.2808596 0.8734708 0.8360864 -1.7347713
00000000: bc19 0d3e 54f4 5c3e 6a84 87bc 6e09 d4be
00000010: f36c fabe af0b 5a3f efc7 973f 0560 6fbf
00000020: 568a 36bf 8551 97bf 523a 643c eceb 76bd
00000030: 3340 de3d 0fc6 1040 5ff5 7d3f e1f0 a4bf
00000040: e759 0540 b4a6 a0bf d5c1 8fbf 6cda 02bf
00000050: 64de 213f 12dd 293f 8743 67bc af87 1f3e
00000060: bf05 2dbe 9f43 45be 6a45 8d3f cce0 c2be
00000070: 92d7 6fbf 1ad7 2cc0 800a 69be 8a2d 893f
00000080: fe23 7ebe 6a91 033f a85c 85bf f09b f3be
00000090: ce29 9d3d 99e5 e23e 9c15 21bf d9a3 14bf
000000a0: 3b37 6ebf 6f45 26ba 30d9 d03f 2e5f 123f
000000b0: 6d1e b1be 726d b93d fb8d 34bf f249 f93f
000000c0: 17bb 61bf b9c2 8bbe 9295 18bf 703e 40be
000000d0: 35f3 a3bf c89b 5f3f c209 563f fc0c debf

embeddings.8.weight f4 [7, 8]
-0.093522884 -0.22069804 0.41951773 -0.3268848 0.30148894 -0.668394 -1.1337624 1.3330234
0.22707482 -0.23213911 -0.38868135 -0.27917635 1.1438882 1.281765 -1.6004004 0.90053684
-0.086025946 -0.4568016 1.303835 0.16243948 -0.042974673 -0.707318 0.5927942 -0.33274752
0.4282455 0.00964372 -0.39520392 0.23767428 -0.41883048 0.61821747 -0.10556363 0.6992874
-0.21846534 -0.5931234 -0.6397907 1.0931102 -0.84238964 1.2383881 -0.2935369 0.0056412555
-0.94535804 1.0095899 0.31294397 -0.14600101 -0.6813341 0.19534808 -1.4820613 0.7270992
-0.6081281 -1.5168 0.56621814 1.2428966 -1.7358806 -1.7367405 -0.5289941 -0.47973186
00000000: ed88 bfbd abfe 61be 07cb d63e 725d a7be
00000010: c25c 9a3e df1b 2bbf 201f 91bf 83a0 aa3f
00000020: 4d86 683e e0b5 6dbe 3e01 c7be 34f0 8ebe
00000030: ee6a 923f e010 a43f ecd9 ccbf 9589 663f
00000040: 5f2e b0bd e6e1 e9be 11e4 a63f 8956 263e
00000050: 3606 30bd cb12 35bf 5cc1 173f e25d aabe
00000060: ff42 db3e b200 1e3c 2b58 cabe e360 733e
00000070: f370 d6be 8043 1e3f bf31 d8bd 8004 333f
00000080: 61b5 5fbe efd6 17bf 53c9 23bf 09eb 8b3f
00000090: d9a6 57bf 8083 9e3f 784a 96be 48da b83b
000000a0: fc02 72bf 3e3a 813f 313a a03e 4a81 15be
000000b0: e96b 2ebf 5409 483e 2fb4 bdbf 2c23 3a3f
000000c0: 48ae 1bbf 8126 c2bf acf3 103f 3c17 9f3f
000000d0: 5631 debf 834d debf 286c 07bf 6a9f f5be

embeddings.9.weight f4 [3, 8]
-0.9454877 -1.7550038 -0.45010984 0.14361678 -0.93985665 0.8914205 0.12198967 1.7259218
0.58968914 1.3285042 0.26418093 0.54285175 0.756616 0.56307894 -0.3845927 -0.90887165
-0.48529214 1.7117417 -0.53634596 -0.3117232 -0.10837943 -1.2108811 -0.9695225 0.31464076
00000000: 7b0b 72bf f7a3 e0bf cc74 e6be 4710 133e
00000010: 729a 70bf 2234 643f b8d5 f93d 01eb dc3f
00000020: def5 163f 6d0c aa3f b942 873e 55f8 0a3f
00000030: 96b1 413f f125 103f 56e9 c4be d0ab 68bf
00000040: 3678 f8be 5a1a db3f f84d 09bf 2f9a 9fbe
00000050: 09f6 ddbd 27fe 9abf a032 78bf 9818 a13e

embeddings.10.weight f4 [427, 8]
-2.1496925 0.786779 -0.029647568 -1.64612 -1.225825 0.89789987 -1.874237 1.3007497
-0.45002016 -0.14085332 -0.96271574 -0.9681018 -0.66636586 -0.37499613 -0.15089116 0.036475677
-0.41377822 -2.5209527 -0.16465266 0.95371246 0.50597656 0.53958225 -1.4030892 -1.1978456
0.8015173 -0.55132407 1.776283 1.6569347 -1.1402651 -0.9498091 -0.73168 1.1204995
0.2836737 -1.3081944 -1.394892 -1.1908796 -1.0822546 -0.36284274 1.5223306 0.5879094
0.33732435 0.42791176 0.061176427 2.015154 1.2998656 0.75059843 0.1407693 0.54172444
-0.4246994 -1.0425712 0.2132151 -0.57445055 1.9538162 0.20339696 -1.3170738 1.2267089
-0.062394273 0.16768011 -0.18010393 -0.15401302 -0.5939473 0.28212002 -1.511856 0.20781036
1.6383255 0.8026393 0.7107212 1.2419755 -0.8050993 -0.40690818 0.19099611 -0.8517047
0.13701588 -0.03351811 0.761874 -0.25328332 1.2264471 0.27367586 -0.44810534 0.19604172
-0.46887216 -0.20796812 -0.4093911 0.25643736 0.2714563 1.2958868 0.55753624 1.3389294
-0.9866392 0.54547006 -0.8175669 2.9451966 -1.3865532 0.74385744 -0.85070497 0.22356877
1.7159194 1.1179968 1.7577809 -1.2439287 -0.8129342 0.0026407829 -0.1406324 -0.03653539
1.5253035 0.7813177 -2.1896658 -2.0044634 -0.9563075 1.7383825 -0.12229666 -1.6578815
-0.43331933 -0.06173187 0.1539878 0.09440419 -0.7110561 -0.5465515 -0.9394723 2.1003182
-1.0559506 -0.42688644 0.26970136 -0.9004763 -1.5559037 -0.9167918 -0.6227484 0.1818001
-0.18705702 0.14105588 -1.1197907 0.19745934 0.31979248 -0.49036434 0.6315506 -1.4029942
1.3322436 -0.37959382 -1.792457 0.022353714 0.3776084 -0.4893974 -1.032153 1.100739
-1.2902223 -0.80481666 0.8929649 -2.396108 -1.385731 -0.6884484 -0.34201255 -0.776832
-0.769949 0.90636665 0.9880716 0.609686 -3.1620176 -0.13221475 -0.649736 -1.6362791
0.055374853 1.9443725 2.461175 0.6974333 0.09131796 -0.040384274 -0.33189926 1.3665141
-0.7099056 1.0208819 0.73000425 -0.55781025 -0.8800122 0.2169758 -0.1557461 1.5073068
-1.0910739 -1.0394071 2.3458734 1.0921818 1.108114 -1.1906279 1.1081331 1.9560705
-1.3326142 -1.1408957 0.2249206 -2.1466455 0.72160566 -0.5928396 -0.39223424 0.49495614
-0.68498325 -1.025083 -1.0105772 -0.81628823 1.067459 -0.9955731 0.77115685 -0.45606536
0.7742155 -0.8906792 0.5709958 -0.8823101 1.1325996 -0.4848971 1.0044436 -0.00046822272
-0.7851094 0.23640394 0.54467094 1.5451452 -0.27338672 1.1652055 -0.09919718 0.6249636
1.7621607 1.3836359 1.0201901 -2.1029088 -0.010832491 0.60586214 -0.08787644 -1.6116135
0.6274025 -0.29600218 1.7542132 0.62782246 -0.8621185 -0.4935417 -0.6126408 2.9032633
-0.60585535 -0.5494824 -0.3344868 -1.7646577 -1.0383811 0.71192396 -1.5007184 -0.5787051
-0.52390736 -1.4604836 -1.4654067 -0.8182105 1.8813637 -0.6857811 -1.4835782 2.442879
0.74989784 0.51158863 -1.2675188 1.0104355 0.12578739 -0.33340618 -0.42422825 -1.223869
00000000: 9094 09c0 596a 493f 75df f2bc 0fb4 d2bf
00000010: d5e7 9cbf c4dc 653f ffe6 efbf f77e a63f
00000020: 0b69 e6be da3b 10be 8a74 76bf 85d5 77bf
00000030: f496 2abf 7eff bfbe 3683 1abe 8567 153d
00000040: bdda d3be 4a57 21c0 b59a 28be 8026 743f
00000050: ae87 013f 1022 0a3f 6d98 b3bf 0153 99bf
00000060: 3d30 4d3f 9323 0dbf 3e5d e33f 7016 d43f
00000070: 35f4 91bf b026 73bf 614f 3bbf 876c 8f3f
00000080: ae3d 913e ea72 a7bf d28b b2bf be6e 98bf
00000090: 5287 8abf 86c6 b9be bbdb c23f 3b81 163f
000000a0: c7b5 ac3e 4017 db3e 2294 7a3d 48f8 0040
000000b0: ff61 a63f 3827 403f d425 103e 74ae 0a3f
000000c0: 3372 d9be f972 85bf 0f55 5a3e 310f 13bf
000000d0: a616 fa3f 4b47 503e e095 a8bf cc04 9d3f
000000e0: 2391 7fbd 56b4 2b3e 2a6d 38be 97b5 1dbe
000000f0: ee0c 18bf 0972 903e 7f84 c1bf 3dcc 543e
00000100: a6b4 d13f c579 4d3f d3f1 353f 0ef9 9e3f
00000110: fd1a 4ebf 4556 d0be 7c94 433e 5209 5abf
00000120: e44d 0c3e 494a 09bd 2d0a 433f 5aae 81be
00000130: 38fc 9c3f 3e1f 8c3e 106e e5be 29bf 483e
00000140: 0310 f0be 98f5 54be b69b d1be c24b 833e
00000150: 52fc 8a3e 9edf a53f b2ba 0e3f 0a62 ab3f
00000160: 6394 7cbf eda3 0b3f 104c 51bf 1a7e 3c40
00000170: 937a b1bf 716d 3e3f cdc7 59bf 36ef 643e
00000180: 3fa3 db3f 851a 8f3f f7fe e03f 0e39 9fbf
00000190: 751c 50bf fc10 2d3b f101 10be 22a6 15bd
000001a0: 253d c33f 7004 483f 7c23 0cc0 2149 00c0
000001b0: 91d0 74bf 5183 de3f ac76 fabd 7635 d4bf
000001c0: 08dc ddbe 8fda 7cbd faae 1d3e fc56 c13d
000001d0: c607 36bf cdea 0bbf 4281 70bf 9d6b 0640
000001e0: 6429 87bf dc90 dabe 4c16 8a3e 9d85 66bf
000001f0: da27 c7bf deb2 6abf 706c 1fbf ce29 3a3e
00000200: e08b 3fbe f470 103e 4d55 8fbf c832 4a3e
00000210: d7bb a33e 0911 fbbe 4dad 213f 5095 b3bf
00000220: f586 aa3f 1f5a c2be 3b6f e5bf 231f b73c
00000230: e355 c13e 4c92 fabe 971d 84bf 04e5 8c3f
00000240: 0126 a5bf 7708 4ebf 5999 643f d559 19c0
00000250: a25f b1bf 283e 30bf 451c afbe 76de 46bf
00000260: 611b 45bf a507 683f 43f2 7c3f 6214 1c3f
00000270: 7f5e 4ac0 4e63 07be 1955 26bf 9871 d1bf
00000280: bed0 623d 33e1 f83f e483 1d40 fd8a 323f
00000290: e904 bb3d fb69 25bd b3ee a9be efe9 ae3f
000002a0: 60bc 35bf 42ac 823f 8fe1 3a3f a7cc 0ebf
000002b0: 7b48 61bf e72e 5e3e e87b 1fbe 6eef c03f
000002c0: 4fa8 8bbf 4b0b 85bf ca22 1640 9dcc 8b3f
000002d0: aed6 8d3f 7f66 98bf 4ed7 8d3f 8560 fa3f
000002e0: 1a93 aabf df08 92bf 9651 663e a462 09c0
000002f0: 26bb 383f 56c4 17bf edd2 c8be e46a fd3e
00000300: 105b 2fbf eb35 83bf 985a 81bf 44f8 50bf
00000310: 7fa2 883f e1dd 7ebf 896a 453f 6681 e9be
00000320: fd32 463f 8d03 64bf c82c 123f 13df 61bf
00000330: 06f9 903f 6f44 f8be 9c91 803f ca7b f5b9
00000340: eefc 48bf e013 723e 8e6f 0b3f 51c7 c53f
00000350: 58f9 8bbe 7425 953f e427 cbbd 9dfd 1f3f
00000360: 7b8e e13f fb1a b13f 9795 823f 0f96 06c0
00000370: c37a 31bc c819 1b3f 90f8 b3bd 5a49 cebf
00000380: 739d 203f 998d 97be 0f8a e03f f9b8 203f
00000390: ccb3 5cbf 7fb1 fcbe 07d6 1cbf 11cf 3940
000003a0: 5619 1bbf e1aa 0cbf db41 abbe 4ee0 e1bf
000003b0: ace9 84bf a640 363f 8a17 c0bf 0426 14bf
000003c0: cb1e 06bf 20f1 babf 7292 bbbf 3e76 51bf
000003d0: 87d0 f03f 5a8f 2fbf e4e5 bdbf 2158 1c40
000003e0: 4ef9 3f3f 79f7 023f 0e3e a2bf f355 813f
000003f0: 69ce 003e 37b4 aabe 7234 d9be bda7 9cbf

embeddings.11.weight f4 [1030, 8]
-2.4498723 0.74288315 1.0092791 0.42893624 1.2926894 1.4265468 -1.0388304 -0.095661394
0.12634604 -0.053669672 1.2234867 -0.6874194 0.17572054 -0.5155299 0.37103966 2.13501
1.6592801 0.74670124 -0.9083955 0.20251621 0.21273354 -1.3645473 -0.023775727 -1.799753
-1.2924128 2.344246 -0.68690467 1.5888841 -0.033962343 -1.3892788 0.5639916 -1.940518
-0.64190185 0.07714376 -2.6599312 -0.1449634 2.0898936 0.842897 1.1355238 -0.19534278
1.1654946 -0.88088036 0.0027259917 1.6652071 -1.4374746 0.55533177 1.3249923 -0.9567658
0.23291732 -2.138888 2.209171 -0.72750074 -1.7173424 -0.39538196 0.39559656 -0.99423623
-0.23400517 0.15096717 -0.8795552 -0.8250126 0.44752902 -0.12210909 -0.029608915 0.7064771
-0.78784174 1.0342575 -0.07030581 0.7481188 -1.7629952 0.23961018 1.9738483 0.013120207
0.86425036 0.43033734 -1.3346288 -0.48494855 1.3235463 -0.39674252 -0.3779585 -0.38486418
-0.67767626 -1.040833 -0.92122656 -1.6979665 0.06920427 0.7133837 -1.03851 0.0945087
-0.040411614 -0.0725599 -0.4913444 0.62516546 0.6171433 -1.3630008 0.07493916 0.14258021
3.8980167 -0.22374983 -0.94189507 -0.2871194 0.35255387 0.3813817 0.6605257 0.41162676
-1.6913719 -0.355462 0.39177057 -1.3053023 0.76076984 0.6394452 1.6610205 1.9037067
-0.35635155 0.4834813 -0.10645565 -0.0073055304 -1.3846663 1.0095931 -0.57630587 -0.14046557
1.5763044 0.6949346 0.6781072 -0.12678389 -0.14919262 -0.074250005 -0.06659997 -0.98982245
0.66953784 1.0347968 -0.30717897 -1.1011924 0.008335578 -0.87835413 -1.4189857 -0.20236558
0.01589866 -1.705276 -2.8717525 -1.3066635 -0.747775 -0.66141963 -1.334989 0.2769565
0.89077765 1.7395666 0.016934127 0.88176805 0.4845985 0.36198077 0.26533285 -0.23658963
-1.0685086 -1.5155755 1.3559058 2.5876734 0.5424345 0.6204847 0.84555286 -0.9787171
-0.65725285 -0.603824 -0.14216909 -0.8204139 -1.7126043 -0.62282616 -0.46689978 -0.2960133
0.014248605 1.4312577 0.23025669 -0.71741635 -1.4161049 -1.8924634 2.2069643 -0.60961354
-0.34392062 0.9585417 -1.5883327 2.1785462 1.425136 -0.81909996 1.2979982 1.8532915
-0.042832576 1.2639047 0.20099789 0.71051 0.63090354 0.26103842 0.17606953 -1.4674141
0.34447846 0.9160211 1.1362591 0.7027345 0.59171546 -1.0972037 -0.8566904 0.21953344
0.46521038 0.39956975 -1.9829205 0.63724506 -0.34215742 0.31044155 -0.25398964 1.8050262
-1.2506958 1.1064243 0.82002467 -0.36427343 1.0872434 0.33407888 0.8931922 -0.9520208
0.558496 -0.24184832 2.4598339 -1.3868085 0.60553855 -0.3697212 0.58706623 0.64967513
0.8827098 -0.53476155 1.1961474 0.9714552 -0.54600054 -0.074852705 -0.15907197 0.49025714
-1.7884411 0.49283952 -0.41717833 -1.5192739 1.72284 0.74976575 1.0670929 0.5948842
0.588598 -0.5433826 -0.6980301 1.0030528 2.3735504 -0.21543027 0.68991345 2.1226392
1.3123444 0.47584495 0.52047926 0.7916465 0.09190382 0.70205563 -0.43775746 -1.9443086
00000000: b5ca 1cc0 972d 3e3f 0f30 813f 889d db3e
00000010: d976 a53f 1699 b63f 65f8 84bf 1fea c3bd
00000020: db60 013e bbd4 5bbd 369b 9c3f b8fa 2fbf
00000030: 16f0 333e c4f9 03bf e9f8 bd3e 01a4 0840
00000040: 4a63 d43f d027 3f3f 9c8c 68bf 6960 4f3e
00000050: d2d6 593e 7ca9 aebf 50c5 c2bc 4e5e e6bf
00000060: c86d a5bf 2008 1640 fcd8 2fbf 8e60 cb3f
00000070: 191c 0bbd e3d3 b1bf c161 103f e562 f8bf
00000080: ae53 24bf 8cfd 9d3d 503c 2ac0 4971 14be
00000090: d1c0 0540 19c8 573f d858 913f f007 48be
000000a0: ed2e 953f 6081 61bf 8da6 323b 8225 d53f
000000b0: 2bff b7bf 392a 0e3f 5999 a93f 9aee 74bf
000000c0: e181 6e3e 8ae3 08c0 0f63 0d40 7d3d 3abf
000000d0: e0d1 dbbf 816f cabe a28b ca3e 4486 7ebf
000000e0: 0d9f 6fbe 2397 1a3e 882a 61bf 0734 53bf
000000f0: 8622 e53e 5514 fabd 658e f2bc afdb 343f
00000100: ffaf 49bf 8d62 843f 7efc 8fbd b784 3f3f
00000110: d4a9 e1bf 5f5c 753e 10a7 fc3f 23f6 563c
00000120: 833f 5d3f 2d55 dc3e 1ed5 aabf 2d4b f8be
00000130: f769 a93f d621 cbbe c783 c1be eb0c c5be
00000140: 317c 2dbf 043a 85bf 81d5 6bbf f756 d9bf
00000150: f8ba 8d3d 50a0 363f e5ed 84bf c78d c13d
00000160: a686 25bd 499a 94bd 7e91 fbbe d80a 203f
00000170: 1afd 1d3f cf76 aebf b479 993d 8c00 123e
00000180: 1b79 7940 ad1e 65be 0920 71bf 5001 93be
00000190: f181 b43e 7644 c33e 3618 293f bec0 d23e
000001a0: e07e d8bf 1eff b5be 2796 c83e 2514 a7bf
000001b0: d0c1 423f aeb2 233f 529c d43f a9ac f33f
000001c0: b673 b6be dc8a f73e 6b05 dabd 3b63 efbb
000001d0: bf3c b1bf 593a 813f c888 13bf 35d6 0fbe
000001e0: 58c4 c93f 3ce7 313f 6f98 2d3f a3d3 01be
000001f0: f3c5 18be 6310 98bd 9165 88bd 0165 7dbf
00000200: d566 2b3f 3974 843f 9046 9dbe dff3 8cbf
00000210: f391 083c d1db 60bf 53a1 b5bf ec38 4fbe
00000220: e83d 823c 7c46 dabf cbca 37c0 c040 a7bf
00000230: 2f6e 3fbf cc52 29bf ebe0 aabf 3ecd 8d3e
00000240: 010a 643f 1eaa de3f 70b9 8a3c 8dbb 613f
00000250: 4b1d f83e 8b55 b93e b5d9 873e 8d44 72be
00000260: e4c4 88bf 61fe c1bf 528e ad3f 719c 2540
00000270: fddc 0a3f 16d8 1e3f 2776 583f 348d 7abf
00000280: b941 28bf 3694 1abf c694 11be a506 52bf
00000290: 9e36 dbbf 8971 1fbf 7d0d efbe 0e8f 97be
000002a0: fb72 693c 7433 b73f 69c8 6b3e 99a8 37bf
000002b0: ed42 b5bf 3e3c f2bf e73e 0d40 a20f 1cbf
000002c0: 5d16 b0be fd62 753f 7c4e cbbf 4d6d 0b40
000002d0: db6a b63f 89b0 51bf ce24 a63f a838 ed3f
000002e0: 3671 2fbd a1c7 a13f 64d2 4d3e fce3 353f
000002f0: e582 213f d4a6 853e 924b 343e 3ad4 bbbf
00000300: 7b5f b03e 5c80 6a3f f070 913f 68e6 333f
00000310: aa7a 173f 2c71 8cbf 1050 5bbf 60cd 603e
00000320: 0e30 ee3e 6894 cc3e 57d0 fdbf 7e22 233f
00000330: 422f afbe 32f2 9e3e ee0a 82be 190b e73f
00000340: cd16 a0bf 509f 8d3f 23ed 513f 0c82 babe
00000350: cb2a 8b3f 630c ab3e 3ea8 643f a3b7 73bf
00000360: 98f9 0e3f 16a7 77be eb6d 1d40 f182 b1bf
00000370: 9304 1b3f 194c bdbe f949 163f 1c51 263f
00000380: 45f9 613f 22e6 08bf 5c1b 993f 4ab1 783f
00000390: b1c6 0bbf 604c 99bd c3e3 22be fc02 fb3e
000003a0: a3eb e4bf 7655 fc3e 6698 d5be 9177 c2bf
000003b0: 0586 dc3f a6f0 3f3f 8096 883f 554a 183f
000003c0: 5cae 163f 1f1b 0bbf 1ab2 32bf 0964 803f
000003d0: 40e8 1740 c199 5cbe 2b9e 303f 52d9 0740
000003e0: e7fa a73f f3a1 f33e 213e 053f 58a9 4a3f
000003f0: 1238 bc3d ebb9 333f bf21 e0be 1bdf f8bf

embeddings.12.weight f4 [7, 8]
1.8146627 0.8066328 0.065541275 -0.084393464 -0.18571927 -1.2722974 -1.0871842 -1.5013052
-0.19235872 0.62220657 0.3975924 0.20744088 0.48377228 -1.6806244 0.8623224 -0.58078575
-0.24409619 -0.15704392 -0.56359136 -0.83534217 1.0922829 0.6876396 0.13914786 -0.56086284
0.93073064 -0.50497633 -0.47282323 -1.774753 -0.6639162 -3.1202288 0.31968838 2.2789643
0.34190714 -1.075469 -1.2703042 1.0806226 -1.149404 0.029263377 0.08165109 -0.20117697
0.44822773 0.20321754 -0.8743127 0.7189772 1.6925921 1.5716004 -0.28460002 -0.1759966
1.3101455 -0.58742064 -2.4684515 0.7350695 -0.26472545 0.39633462 -0.24149787 -0.0155193675
00000000: de46 e83f 7d7f 4e3f 813a 863d 7bd6 acbd
00000010: 312d 3ebe a4da a2bf da28 8bbf c52a c0bf
00000020: aff9 44be ee48 1f3f 3b91 cb3e 626b 543e
00000030: 00b1 f73e b31e d7bf 29c1 5c3f 60ae 14bf
00000040: 5af4 79be 1fd0 20be 8647 10bf fcd8 55bf
00000050: edcf 8b3f 2609 303f c77c 0e3e b594 0fbf
00000060: 5d44 6e3f 2146 01bf e315 f2be 1b2b e3bf
00000070: 69f6 29bf d4b1 47c0 32ae a33e 8dda 1140
00000080: 740e af3e f8a8 89bf 5499 a2bf d751 8a3f
00000090: ac1f 93bf c0b9 ef3c b038 a73d 5601 4ebe
000000a0: 1b7e e53e 4218 503e f5d2 5fbf e40e 383f
000000b0: dca6 d83f 342a c93f 18b7 91be 7438 34be
000000c0: d9b2 a73f 3361 16bf 1cfb 1dc0 842d 3c3f
000000d0: 188a 87be 5fec ca3e 384b 77be f244 7ebc

embeddings.13.weight f4 [7, 8]
0.18362074 0.25623947 -0.12468629 1.3357306 0.69877267 -2.199171 -0.49129087 0.18508166
0.024915583 1.4385464 0.8567506 0.15292448 -1.2685409 -1.0221305 -0.6310185 -1.7076621
-0.05254391 0.42723927 0.50427973 -0.88621026 -0.52139175 0.4725038 1.3019941 -0.08828864
0.07587139 0.5716818 0.47859442 -1.0818784 0.1162061 0.2821812 -0.2483162 1.6774075
1.5911069 -1.6378089 1.6552346 0.003716289 0.1513978 -1.2339299 -0.43552914 -0.17093539
1.4614357 -1.1856838 -0.4543925 0.30796412 -1.0188736 0.63852924 -1.5786546 0.37711495
1.0032798 -0.12880887 1.6427264 -0.9342394 -0.8747084 -1.0442404 1.3746294 0.112811185
00000000: 1307 3c3e d231 833e 875b ffbd 38f9 aa3f
00000010: c4e2 323f 38bf 0cc0 7a8a fbbe 0c86 3d3e
00000020: c41b cc3c 4a22 b83f 0254 5b3f 3c98 1c3e
00000030: 8c5f a2bf 2cd5 82bf 6e8a 21bf ac94 dabf
00000040: 4838 57bd 1bbf da3e 7a18 013f adde 62bf
00000050: ee79 05bf 05ec f13e bea7 a63f add0 b4bd
00000060: 7662 9b3d bd59 123f 540a f53e fe7a 8abf
00000070: 77fd ed3d 0e7a 903e 9a46 7ebe 4ab5 d63f
00000080: 64a9 cb3f b9a3 d1bf bade d33f fc8c 733b
00000090: 0608 1b3e 6af1 9dbf adfd debe b009 2fbe
000000a0: 5310 bb3f 7dc4 97bf 22a6 e8be 79ad 9d3e
000000b0: 736a 82bf a776 233f 5b11 cabf 3615 c13e
000000c0: 796b 803f 79e6 03be dc44 d23f 502a 6fbf
000000d0: e4ec 5fbf aba9 85bf dbf3 af3f 8d09 e73d

embeddings.14.weight f4 [7, 8]
2.3048074 1.0100868 0.03127278 -0.7901032 0.6839169 0.6443753 1.0699613 0.38764346
-0.2053677 1.0349582 0.119972624 -0.05864609 1.1329517 -0.49870917 -0.20561309 0.7623062
0.73918015 -1.2580779 0.30659485 -0.38158473 0.28698206 0.5037238 -1.0481567 0.4567876
0.15698838 0.1550501 0.37918633 -0.37127993 0.20935616 -0.7297493 0.3493581 0.42190927
-1.461027 -0.017370185 0.15394713 0.6178461 0.7373238 -0.28134084 0.35863099 -0.40250602
-0.82427347 -0.41924864 0.23127668 -0.0024593195 -0.26625338 -0.08214748 0.40853274 0.19648907
-1.0777487 -0.9404025 1.2411286 -1.1382904 1.2799814 -0.23321955 0.79653645 0.9520727
00000000: f781 1340 864a 813f e317 003d 3444 4abf
00000010: 2e15 2f3f c8f5 243f 7ef4 883f 3479 c63e
00000020: e94b 52be 8379 843f 35b4 f53d e236 70bd
00000030: 9004 913f cf56 ffbe 3d8c 52be 8026 433f
00000040: e93a 3d3f b208 a1bf 00fa 9c3e 135f c3be
00000050: 50ef 923e 0bf4 003f 002a 86bf 10e0 e93e
00000060: 90c1 203e 74c5 1e3e b624 c23e 6718 bebe
00000070: 7661 563e dad0 3abf 11df b23e 7e04 d83e
00000080: ef02 bbbf eb4b 8ebc 51a4 1d3e 292b 1e3f
00000090: 41c1 3c3f e80b 90be 7b9e b73e 4515 cebe
000000a0: 9603 53bf c2a7 d6be cbd3 6c3e 892c 21bb
000000b0: 5d52 88be f03c a8bd 342b d13e 6e34 493e
000000c0: abf3 89bf 38be 70bf 4ddd 9e3f 80b3 91bf
000000d0: 6ed6 a33f 1bd1 6ebe d0e9 4b3f 09bb 733f

embeddings.15.weight f4 [6, 8]
-0.6947636 0.7175602 -0.28309593 0.61701614 1.0682808 0.94257 0.7741938 -0.98954546
-0.960362 -0.75598073 -0.113685854 -0.49839273 1.0732384 -0.65337026 0.12788373 -0.7788401
-2.7711082 1.4574422 -1.2367454 -1.1966128 -0.19775003 -1.3577815 -0.11215766 -0.86354196
1.065991 1.1988062 0.51220673 -2.089062 -2.8981562 -0.5621025 -0.7549154 0.8280793
0.8938866 -1.2338912 -1.5833932 -2.0017376 -0.55265045 -1.0804392 1.3831761 -0.6673942
2.2197251 0.29760712 2.1105475 -0.7981481 0.8270057 -0.82601315 -0.5865672 -1.9296622
00000000: 07dc 31bf 06b2 373f f3f1 90be c5f4 1d3f
00000010: 6dbd 883f 444c 713f 9131 463f da52 7dbf
00000020: 49da 75bf f487 41bf 21d4 e8bd 552d ffbe
00000030: e05f 893f 4643 27bf f4f3 023e 1162 47bf
00000040: d659 31c0 778d ba3f ac4d 9ebf 9c2a 99bf
00000050: fc7e 4abe c9cb adbf eab2 e5bd 1611 5dbf
00000060: 6572 883f 7b72 993f fb1f 033f 31b3 05c0
00000070: 647b 39c0 f3e5 0fbf 2342 41bf 01fd 533f
00000080: c1d5 643f 26f0 9dbf a1ac cabf 781c 00c0
00000090: 807a 0dbf d54b 8abf ea0b b13f 59da 2abf
000000a0: fa0f 0e40 f65f 983e 3613 0740 6f53 4cbf
000000b0: a5b6 533f 9975 53bf 4529 16bf 2cff f6bf

conv_layers.0.weight f4 [16, 1, 3]
-0.04804036 -0.060837787 1.8115407 0.5039942 0.57814944 -0.038710777 -0.68730164 0.68736666
-0.028791409 0.62887055 -0.36525658 -0.22666593 0.019145142 -0.00074107974 2.6304567 -0.45116624
0.8545548 0.11686218 -0.37878126 0.81979764 0.028331425 -0.14519937 -0.46477202 -0.44161195
-0.8409021 -0.27150342 -0.08796239 0.36060217 -0.79260164 -0.33937266 0.7272786 0.22342274
-0.44540438 -0.66151434 0.66066605 -0.0007053843 -0.15229675 0.5864256 0.4466185 0.2619267
-0.73891634 0.18152183 -0.9593031 -0.2559978 0.0791211 -0.46299306 -0.65774685 -0.3456676
00000000: f8c5 44bd 0b31 79bd 91e0 e73f c405 013f
00000010: 9a01 143f 318f 1ebd 00f3 2fbf 43f7 2f3f
00000020: f6db ebbc a9fd 203f e902 bbbe 1d1b 68be
00000030: 46d6 9c3c 0545 42ba 6759 2840 43ff e6be
00000040: 1ac4 5a3f 7055 ef3d 9eef c1be 42de 513f
00000050: 4e17 e83c 25af 14be 99f6 edbe f61a e2be
00000060: 5c45 57bf 7f02 8bbe a025 b4bd d9a0 b83e
00000070: f1e7 4abf 41c2 adbe ee2e 3a3f eec8 643e
00000080: 0b0c e4be 0159 29bf 6921 293f 8ae9 38ba
00000090: aef3 1bbe fd1f 163f 2eab e43e 421b 863e
000000a0: 9f29 3dbf dce0 393e e394 75bf 2512 83be
000000b0: 3e0a a23d 6d0d edbe 1962 28bf 58fb b0be

conv_layers.0.bias f4 [16]
-0.30865988 0.41480696 -0.113499835 0.57128376 0.21576437 0.4822257 -0.2018979 0.64469737
1.0061958 0.31588545 -0.17974694 -0.16899545 -0.6026164 -0.46465966 0.74401057 0.00029783556
00000000: ab08 9ebe 9461 d43e 9a72 e8bd a73f 123f
00000010: 56f1 5c3e 49e6 f63e 53be 4ebe e30a 253f
00000020: 06cb 803f bdbb a13e 950f 38be 250d 2dbe
00000030: 1245 1abf dfe7 edbe 7a77 3e3f d026 9c39

conv_layers.1.weight f4 [32, 16, 3]
-0.112672694 -0.79061556 0.073847614 -0.03933317 -0.697836 -0.9419262 -0.06385876 -0.23908463
-0.47675064 0.2365606 0.18664724 -0.810232 -0.1258802 -0.88600534 -0.011740464 0.101377815
-0.053339858 -0.60509115 0.07534911 -0.3628254 -0.49995857 0.7997368 0.45079315 0.18402523
0.45453992 0.3850016 0.12909782 0.325345 0.08894287 -0.013819296 0.10753232 -0.062976666
-0.65918416 -0.17559901 -0.20653267 -0.5336933 -0.14278944 -0.3426258 -0.68356013 0.01594387
-0.060122225 -0.43238938 0.32137796 0.4561572 0.365543 0.67092234 0.3368102 0.32121074
-0.008337312 0.28506932 -0.66365606 -0.14995879 0.26305628 0.29320624 0.18266638 -0.28500584
-0.64478487 0.3836053 -0.25984496 0.21114089 0.16625953 -0.0806347 -1.1091963 0.13926691
0.26420036 -1.0306396 -0.17945734 -0.06690228 -0.19192491 0.21040297 0.15609331 0.650199
-0.2355594 -0.7050775 -0.007673675 -0.286486 -0.04545694 0.4561281 0.15079129 -0.353726
0.60325074 -0.33342868 -0.480268 -0.54786724 0.25731125 0.019690929 -0.7208434 -0.12512277
0.25197324 0.16956337 -0.073627554 -0.61760783 -0.21678196 -0.04707941 -0.33287376 0.73209506
-0.07231887 0.22774626 -0.033633772 0.06867242 0.49079314 -0.28499064 0.14852487 0.44042498
-0.61127573 -0.17773898 -0.41154534 0.17740995 -0.14503427 0.16634907 -0.13099541 0.22717139
0.35592717 -0.90039724 -0.24114333 0.7050118 -1.429159 0.1653054 -0.066414826 -0.02741345
0.105624266 -0.5481237 0.5211786 0.10914772 -0.06946326 0.30420494 -0.09329852 0.29135504
0.1112089 0.27515376 0.19723816 -0.60030544 0.5229518 0.08670584 -1.0906905 -0.3424897
0.29915276 0.13233483 0.49483097 -0.40980387 0.6517783 0.4263472 -0.18980701 0.19523792
0.16267638 0.17411342 -0.14959043 0.023833472 0.26220936 -0.29369253 0.27082705 -1.0319808
0.23162247 -0.5659334 0.28552252 0.31881684 0.054707427 0.22048032 -0.14287779 -0.03345077
-1.3054419 0.2351089 0.13153498 -1.104591 0.25214338 0.1213565 0.21253568 0.30749553
0.16253586 0.6343443 -0.056516528 -0.49528602 0.49859253 0.7668921 -0.34399527 0.8091574
-0.14945363 0.16139174 -0.9690081 0.2222132 -0.08798127 -0.9499872 0.03494156 0.2753484
0.60668796 0.0043367785 -0.0691305 0.6191316 -0.14831708 0.058441162 0.13839574 -0.04524256
-0.3991901 -0.21971011 -0.08405081 -0.36660013 -0.84096134 -0.023814972 -0.2528598 -0.054509964
0.24475554 0.36983183 0.20519437 -0.0350823 0.0732338 0.31264132 -0.109132364 -0.10344629
-0.16164584 0.3978855 -0.30611476 -0.34214768 0.2085051 0.16389155 1.1037171 0.014061953
0.15973613 0.43631816 0.21585697 -0.055507362 1.0668253 -0.96233034 -0.060558327 -0.63506997
0.3467384 -0.015496157 -0.0134867 0.23904236 -0.51617014 -0.1976207 0.0926428 0.17833824
0.5209707 -0.7507369 0.41703358 0.39683896 0.16156319 0.752176 0.5379785 0.02917319
0.16462106 -0.028619383 -0.03119467 0.019685885 0.7550575 0.2852374 0.01680902 0.011033504
-0.81888294 -0.28955948 -0.12427916 0.38367066 0.07547012 0.25396955 0.041657362 -0.011374716
00000000: f1c0 e6bd c865 4abf 6b3d 973d d11b 21bd
00000010: 61a5 32bf 1322 71bf 62c8 82bd 9ad2 74be
00000020: a918 f4be f13c 723e 7420 3f3e 5d6b 4fbf
00000030: bde6 00be 3fd1 62bf 135b 40bc 2c9f cf3d
00000040: e57a 5abd 41e7 1abf a250 9a3d 40c4 b9be
00000050: 92fa ffbe 8dbb 4c3f 5cce e63e 1c71 3c3e
00000060: 75b9 e83e ee1e c53e 3832 043e 9f93 a63e
00000070: ae27 b63d 546a 62bc e839 dc3d e9f9 80bd
00000080: 4bc0 28bf 3ad0 33be 4d7d 53be 20a0 08bf
00000090: 6537 12be a66c afbe ccfd 2ebf b89c 823c
000000a0: b942 76bd 2462 ddbe a78b a43e 708d e93e
000000b0: 7428 bb3e 91c1 2b3f 6372 ac3e bc75 a43e
000000c0: 3999 08bc 9bf4 913e 5de5 29bf cc8e 19be
000000d0: 50af 863e 211f 963e e50c 3b3e 49ec 91be
000000e0: 9f10 25bf ea67 c43e 660a 85be 5135 583e
000000f0: f03f 2a3e ce23 a5bd 25fa 8dbf fc9b 0e3e
00000100: 4545 873e 00ec 83bf aac3 37be 1004 89bd
00000110: f787 44be e073 573e edd6 1f3e 7173 263f
00000120: 7c36 71be f67f 34bf 7473 fbbb 4bae 92be
00000130: 0e31 3abd 9f89 e93e 0869 1a3e 931b b5be
00000140: a46e 1a3f 2ab7 aabe b0e5 f5be 0741 0cbf
00000150: 4dbe 833e df4e a13c 3189 38bf 2f20 00be
00000160: a302 813e 05a2 2d3e 0bca 96bd 8c1b 1ebf
00000170: 17fc 5dbe 57d6 40bd 6e6e aabe 956a 3b3f
00000180: ea1b 94bd 5136 693e 91c3 09bd 20a4 8c3d
00000190: 3d49 fb3e 4bea 91be e716 183e 627f e13e
000001a0: 917c 1cbf 3501 36be 12b6 d2be f4aa 353e
000001b0: dd83 14be 6957 2a3e a923 06be 9e9f 683e
000001c0: 163c b63e 6f80 66bf 47ee 76be a77b 343f
000001d0: afee b6bf d245 293e 7f04 88bd 2c92 e0bc
000001e0: 8951 d83d d651 0cbf f66b 053f d788 df3d
000001f0: c142 8ebd c0c0 9b3e 4b13 bfbd 7d2c 953e
00000200: 7ec1 e33d f4e0 8c3e cdf8 493e 9ead 19bf
00000210: 2be0 053f d592 b13d bf9b 8bbf cf5a afbe
00000220: 8d2a 993e c882 073e 7c5a fd3e d0d1 d1be
00000230: f1da 263f 2e4a da3e c55c 42be 73ec 473e
00000240: a394 263e ca4a 323e 3c2e 19be 6a3e c33c
00000250: 4e40 863e de5e 96be d8a9 8a3e f217 84bf
00000260: 712e 6d3e 03e1 10bf 0230 923e f63b a33e
00000270: e514 603d 98c5 613e 8e4e 12be ad03 09bd
00000280: b818 a7bf 63c0 703e 1bb1 063e 3d63 8dbf
00000290: f018 813e c289 f83d f4a2 593e 0e70 9d3e
000002a0: cd6f 263e 6364 223f e07d 67bd 2196 fdbe
000002b0: 8547 ff3e 0a53 443f 2620 b0be f024 4f3f
000002c0: 5f0a 19be e043 253e ea10 78bf db8b 633e
000002d0: 862f b4bd 5c32 73bf e21e 0f3d 77fa 8c3e
000002e0: e74f 1b3f 891b 8e3b 4b94 8dbd 697f 1e3f
000002f0: 6fe0 17be 0060 6f3d 9db7 0d3e 4350 39bd
00000300: a562 ccbe b0fb 60be d522 acbd 03b3 bbbe
00000310: 3e49 57bf 9e17 c3bc d776 81be d745 5fbd
00000320: 32a1 7a3e 995a bd3e 791e 523e 75b2 0fbd
00000330: 9afb 953d 8612 a03e ca80 dfbd a6db d3bd
00000340: 7d86 25be a6b7 cb3e 13bb 9cbe fb2d afbe
00000350: 5c82 553e 30d3 273e 9a46 8d3f 1b64 663c
00000360: de91 233e 1865 df3e 9c09 5d3e b05b 63bd
00000370: bb8d 883f 485b 76bf 020c 78bd f293 22bf
00000380: b287 b13e 98e3 7dbc 52f7 5cbc 85c7 743e
00000390: ba23 04bf 155d 4abe 82bb bd3d 4d9e 363e
000003a0: 565e 053f 4b30 40bf 6d85 d53e 7a2e cb3e
000003b0: d270 253e 9b8e 403f f5b8 093f 9dfc ee3c
000003c0: 6c92 283e 3273 eabc f78b ffbc 4b44 a13c
000003d0: 734b 413f a30a 923e 12b3 893c dfc5 343c
000003e0: 50a2 51bf 2441 94be 1286 febd 7b70 c43e
000003f0: 1490 9a3d 4c08 823e e9a0 2a3d 045d 3abc

conv_layers.1.bias f4 [32]
0.3260935 -0.694702 0.009096143 0.44731098 0.5916405 0.29443634 0.43469208 -0.74925905
-0.65662163 -0.16791764 -0.3821287 -0.25301707 -0.20354588 0.6785362 -0.5521567 0.14134462
0.21082473 -0.37950435 -0.5493199 -0.24053 -0.48677483 0.41126218 0.3109797 0.3010531
0.092117995 -0.06391194 0.467428 -0.06936544 0.27696905 -0.028247023 0.021584721 0.20687659
00000000: baf5 a63e fed7 31bf fd07 153c f205 e53e
00000010: c075 173f 5cc0 963e f68f de3e 71cf 3fbf
00000020: 5b18 28bf 9af2 2bbe 5fa6 c3be 748b 81be
00000030: 556e 50be 8cb4 2d3f 245a 0dbf a5bc 103e
00000040: 70e2 573e 654e c2be 3ba0 0cbf 7f4d 76be
00000050: 8d3a f9be f590 d23e bb38 9f3e a223 9a3e
00000060: 5ca8 bc3d 43e4 82bd b952 ef3e 780f 8ebd
00000070: e3ce 8d3e 4d66 e7bc 71d2 b03c 75d7 533e

bn_layers.0.weight f4 [16]
0.7553692 0.88591003 0.9724298 1.0091172 0.7490938 0.81263435 0.7433336 1.1000576
1.1069906 1.1732614 0.84122 1.0927399 1.1424193 1.2229029 1.2225027 1.1922859
00000000: e05f 413f 00cb 623f 29f1 783f c12a 813f
00000010: 9cc4 3f3f ce08 503f 1c4b 3e3f b0ce 8c3f
00000020: deb1 8d3f 6e2d 963f 325a 573f e7de 8b3f
00000030: cc3a 923f 1588 9c3f f87a 9c3f d39c 983f

bn_layers.0.bias f4 [16]
-0.164891 -0.6390775 -0.3081573 -0.491059 -0.17160948 0.07708887 -0.07710879 -0.9499806
-0.5765391 -0.50155395 -0.49203584 -0.35815665 -0.555499 -0.42340603 -0.4513792 -0.7817791
00000000: 30d9 28be 959a 23bf cbc6 9dbe 166c fbbe
00000010: 65ba 2fbe c5e0 9d3d 37eb 9dbd ee31 73bf
00000020: 1198 13bf d765 00bf 1fec fbbe 4f60 b7be
00000030: 2f35 0ebf adc8 d8be 2d1b e7be ad22 48bf

bn_layers.0.running_mean f4 [16]
-0.44553056 0.3232177 -0.11329667 0.56676537 0.0038462782 0.4396382 -0.24161708 0.730874
1.1094345 0.37899196 -0.2266092 -0.17145573 -0.6775008 -0.4383937 0.8395942 0.12310787
00000000: 951c e4be ca7c a53e 1608 e8bd 8917 113f
00000010: d711 7c3b 4218 e13e 786a 77be 8f1a 3b3f
00000020: f301 8e3f 3c0b c23e 3e0c 68be 1792 2fbe
00000030: b170 2dbf 2475 e0be a5ef 563f fb1f fc3d

bn_layers.0.running_var f4 [16]
3.1637561 0.6218189 0.82847375 0.52118105 6.7372065 0.8618153 0.7415702 0.47852457
0.81651086 0.83520466 0.7330807 0.76714534 0.57778674 0.57693213 0.9931109 0.8616642
00000000: fb7a 4a40 862f 1f3f db16 543f 1f6c 053f
00000010: 3297 d740 ed9f 5c3f 8bd7 3d3f 2c01 f53e
00000020: db06 513f f9cf 553f 2dab 3b3f a363 443f
00000030: d5e9 133f d3b1 133f 843c 7e3f 0696 5c3f

bn_layers.1.weight f4 [32]
1.4854283 0.7866603 0.6055825 1.2193508 1.107807 1.0352799 0.84648913 1.8127213
0.9470281 0.93360305 0.96242785 1.3948324 1.6172706 1.0375588 0.51410663 1.2556812
0.85327536 1.0847567 1.0184488 1.0838783 1.079568 1.2981572 0.8390772 1.0031732
1.0212512 1.052779 1.1240007 1.4611254 1.1196598 1.0897117 0.91744274 0.9725011
00000000: 8422 be3f 9262 493f 7407 1b3f b013 9c3f
00000010: 9fcc 8d3f 0d84 843f 83b3 583f 4007 e83f
00000020: 6f70 723f 9c00 6f3f ac61 763f de89 b23f
00000030: b902 cf3f bace 843f 7e9c 033f 29ba a03f
00000040: 4170 5a3f 4fd9 8a3f 885c 823f 86bc 8a3f
00000050: 492f 8a3f 042a a63f c3cd 563f fb67 803f
00000060: 5cb8 823f 76c1 863f 41df 8f3f 2806 bb3f
00000070: 0351 8f3f ac7b 8b3f 87dd 6a3f d5f5 783f

bn_layers.1.bias f4 [32]
-0.07145755 -0.26282844 -0.19626352 -0.34747678 0.013062721 -0.34152588 -0.4241861 -0.1164559
-0.20043565 -0.063145384 -0.20724812 -0.08665731 -0.48606348 -0.10794315 -0.46523312 -0.41276768
-0.67695427 -0.15464431 -0.16850363 -0.27217004 -0.2665563 -0.37048745 -0.15558915 -0.29599786
-0.16202343 -0.055706803 -0.47718677 0.12762433 -0.36716485 -0.083465785 -0.31494418 -0.2669339
00000000: 5658 92bd 7391 86be 4ef9 48be 7ae8 b1be
00000010: 0605 563c 7bdc aebe ec2e d9be 6e80 eebd
00000020: 013f 4dbe 5e52 81bd da38 54be 6379 b1bd
00000030: 50dd f8be 4c11 ddbd 0933 eebe 4956 d3be
00000040: e04c 2dbf 145b 1ebe 378c 2cbe df59 8bbe
00000050: 117a 88be 88b0 bdbe c352 1fbe 088d 97be
00000060: 78e9 25be d12c 64bd d351 f4be f4af 023e
00000070: 08fd bbbe 1cf0 aabd 5d40 a1be 8fab 88be

bn_layers.1.running_mean f4 [32]
-1.5783601 -2.9228935 -0.1366113 0.18934128 1.3374747 -2.0828004 1.5203755 0.42374924
-1.2216655 2.2161303 -2.8901715 -0.6289126 -2.597761 1.1915926 3.7311223 2.1139038
1.0877105 0.103793815 -0.9555861 -1.8782088 -1.3381917 -0.2216129 2.924139 0.6828862
-1.8559647 -1.4791608 -1.9487513 -2.4536169 -1.8514285 -2.2193525 1.7212465 -0.56048506
00000000: b407 cabf b010 3bc0 d5e3 0bbe aee2 413e
00000010: 5f32 ab3f 9a4c 05c0 aa9b c23f a9f5 d83e
00000020: 895f 9cbf 14d5 0d40 92f8 38c0 6b00 21bf
00000030: b741 26c0 1b86 983f b5ca 6e40 334a 0740
00000040: 193a 8b3f da91 d43d 4aa1 74bf 2569 f0bf
00000050: de49 abbf 7eee 62be 1825 3b40 a1d1 2e3f
00000060: 4090 edbf 2455 bdbf af70 f9bf 0f08 1dc0
00000070: 9cfb ecbf df09 0ec0 ce51 dc3f f37b 0fbf

bn_layers.1.running_var f4 [32]
15.194306 8.907377 11.0227585 11.743301 11.911292 13.177615 11.137707 14.804847
5.0222526 8.14317 10.937449 10.608008 16.940603 10.178876 6.6504903 13.971815
6.553872 15.396256 10.630673 9.843953 14.62734 13.540294 9.855417 9.002456
10.7231655 12.180727 13.161729 15.918041 11.423713 7.698406 12.372628 10.272765
00000000: e11b 7341 9e84 0e41 385d 3041 90e4 3b41
00000010: a794 3e41 83d7 5241 0c34 3241 a7e0 6c41
00000020: 4bb6 a040 6d4a 0241 cbff 2e41 67ba 2941
00000030: 5b86 8741 addc 2241 d1d0 d440 8e8c 5f41
00000040: 52b9 d140 1157 7641 3d17 2a41 d580 1d41
00000050: 9609 6a41 0ba5 5841 caaf 1d41 0f0a 1041
00000060: 1692 2b41 42e4 4241 7196 5241 4cb0 7e41
00000070: 87c7 3641 5859 f640 49f6 4541 3f5d 2441
