government_icfes_dataset/results_ml/checkpoints/model_classification_20250522_010546.pt (torch, 438511 bytes, 39 tensors)

embeddings.0.weight f4 [4, 4]
-0.7466766 -1.1202213 0.63169265 0.7910402 -0.5775503 0.48643348 -0.096325785 1.5188458
-0.6571445 2.234729 0.1801559 -0.45129588 1.4322515 -0.031511493 -1.1342031 0.32934317
00000000: 3326 3fbf 6963 8fbf 9cb6 213f 9c81 4a3f
00000010: 56da 13bf cf0d f93e 7446 c5bd 8a69 c23f
00000020: 9f3a 28bf cd05 0f40 ca7a 383e 4110 e7be
00000030: 0454 b73f 3212 01bd 912d 91bf ab9f a83e

embeddings.1.weight f4 [3, 4]
-0.4046029 -0.292831 -1.7296214 1.5602494 -0.77759176 1.4562155 -0.062313452 1.1513891
-0.9719258 -0.25330818 1.4852513 -0.3189862
00000000: 1c28 cfbe f2ed 95be 3c64 ddbf 41b6 c73f
00000010: 4110 47bf 4565 ba3f 643c 7fbd b860 933f
00000020: 21d0 78bf 9cb1 81be b71c be3f 2952 a3be

embeddings.2.weight f4 [5, 4]
-0.59177905 -0.8291601 -1.3265818 -0.07707979 -2.4587848 -0.9003376 -0.4818557 1.9989356
-1.2103249 0.6761329 0.7894267 -0.8345652 -0.11621362 0.6484972 0.56697625 -0.49773133
-1.5308156 0.6444651 0.06658875 1.642342
00000000: d57e 17bf d643 54bf 6fcd a9bf 02dc 9dbd
00000010: bb5c 1dc0 867c 66bf cab5 f6be 1fdd ff3f
00000020: edeb 9abf 0c17 2d3f de17 4a3f 11a6 55bf
00000030: 6801 eebd ea03 263f 5b25 113f a4d6 febe
00000040: c4f1 c3bf aafb 243f af5f 883d 4338 d23f

embeddings.3.weight f4 [7, 4]
0.07835407 -0.03703317 0.48382547 -1.0425924 0.2929575 0.6774354 -0.5458645 0.61979276
-0.7143605 -0.18420683 0.25911716 0.487242 -0.5606826 -1.8386415 -0.6403966 0.09018496
1.1519467 0.57244825 1.6183852 1.8887111 1.8147267 -0.6203958 0.11238097 0.4315851
-1.1246372 1.2916166 0.0011949667 1.2666402
00000000: 1978 a03d 18b0 17bd f9b7 f73e ab73 85bf
00000010: 87fe 953e 686c 2d3f c7bd 0bbf bdaa 1e3f
00000020: 54e0 36bf b7a0 3cbe 01ab 843e c977 f93e
00000030: e588 0fbf 9b58 ebbf 08f1 23bf e4b2 b83d
00000040: fd72 933f f88b 123f 3f27 cf3f 49c1 f13f
00000050: f748 e83f 42d2 1ebf fe27 e63d b9f8 dc3e
00000060: 1df4 8fbf b153 a53f 6ea0 9c3a 4421 a23f

embeddings.4.weight f4 [7, 4]
-1.2519042 0.16098605 1.60507 -1.2955298 1.2531565 -1.106143 -0.30162925 -0.68258804
0.8883661 0.60694236 0.71245235 2.2491345 -0.57341194 0.63616914 0.37378055 1.9455948
0.2531417 -0.0052634403 0.09971117 -1.2006139 0.45098007 -0.78057086 0.2624051 0.5713185
0.41585925 2.9298363 1.5846465 -1.1296958
00000000: 663e a0bf 87d9 243e ef72 cd3f ecd3 a5bf
00000010: 6f67 a03f 1896 8dbf 266f 9abe 17be 2ebf
00000020: f66b 633f 9360 1b3f 4763 363f d2f1 0f40
00000030: 20cb 12bf fbdb 223f 2a60 bf3e 4009 f93f
00000040: ca9b 813e f078 acbb 5f35 cc3d b7ad 99bf
00000050: dce6 e63e 7ed3 47bf f659 863e ee41 123f
00000060: 81eb d43e 7082 3b40 b2d5 ca3f df99 90bf

embeddings.5.weight f4 [1025, 4]
1.3088084 -1.9168994 -0.88511086 -0.8547201 1.0349253 -0.7511928 -0.6231496 2.193621
-1.5213954 0.68835187 0.86986524 0.46411678 0.15477563 1.5626149 -0.7770342 -1.5321337
-1.9010036 -0.9250357 0.5075983 -2.3974755 0.55957353 -1.4705937 -1.5108435 0.94377214
1.2403702 -1.6311967 -0.97193766 0.7207694 0.40278316 -0.14989734 -1.0680645 -0.52740216
0.48589984 0.031361118 1.4825301 0.7839069 1.0224389 0.27553356 0.8787717 -1.2262368
0.3171443 0.6483265 0.77994233 1.1908689 0.40523577 -0.02800743 -1.0615422 0.74944973
-0.710074 0.76449496 -1.3928288 0.15636651 -0.3866577 -2.2907982 -0.33106065 1.4045691
-1.4912574 0.3731871 -0.67775637 0.3936628 1.33808 -0.4538057 1.5457058 -0.3711424
-0.95533574 -0.90668744 0.6037814 -0.1526402 0.22814198 -0.07379475 0.019962728 -0.070847735
-1.056572 0.32750294 -0.00029443915 0.20298138 -0.35499296 -2.7924998 -2.0879643 0.6832545
-2.8894365 1.3838681 1.8538414 -0.42215338 -0.5371357 -0.5398546 -1.6081328 0.35133114
-0.09232136 -0.564097 0.7711645 -0.82087773 -0.01620046 1.0146651 -0.046495356 0.9111207
-1.8978227 0.81935227 0.60620064 1.1745821 0.17493735 1.6025448 -2.0110762 -2.2669492
0.4998966 0.27139342 2.0319695 1.7404726 -0.41669562 -0.32310373 1.5005982 -1.0227033
0.9181389 2.516464 -0.50881994 -1.4696028 -0.2963525 -0.97118 1.4440137 -1.1342416
0.17775215 -1.2804761 0.13199085 -2.0132754 -0.5571418 -0.6645188 0.48005757 0.08254158
1.3521961 -0.34730956 0.54481834 1.0840607 0.37190703 -0.072931 -0.60116947 1.4190956
-1.4779383 0.5412553 0.13665323 -0.17258452 -0.25163564 1.118253 -0.6491848 1.3170698
-0.43633565 -1.777576 0.4604392 -1.5943991 -0.18596095 1.3071955 0.7200602 -1.490009
-0.4858901 -1.0359461 0.88456386 -1.3198397 -0.121536195 0.6148564 -1.0141886 1.3663964
1.1182388 -0.510696 0.49853685 -2.0100462 -1.2911973 0.41944164 0.6943669 -1.715152
0.8361139 1.4886662 -1.7590477 0.34694624 1.077599 1.3087902 0.75829595 0.79202676
0.51755136 2.5432394 1.976908 -2.483464 -0.6540077 0.7774696 -3.129841 -1.457747
-0.4976155 2.6897805 -0.29078302 0.9991089 0.6298988 -1.3817382 1.8893582 2.554564
0.454912 -2.663269 0.58911526 -1.7687881 1.4156585 -0.33465484 -1.9714386 -0.32466978
1.9399849 -1.0897709 -0.49944013 0.07563172 -2.3184352 1.5710313 1.1228381 0.852188
-0.7134781 -0.77046394 -0.80287784 -0.95107126 -1.0760514 0.26371187 1.4604819 0.57688916
0.69467324 -0.5172692 0.11079042 -0.6366659 -0.14177348 -1.4972783 -1.0212435 1.9275252
-0.16534406 -0.30990687 -0.46641797 -0.76227194 0.40662703 1.5205847 -0.98650813 -0.69315916
1.4523754 0.60199445 0.9278762 -2.0563436 0.39061365 1.7530681 -1.5489213 -0.13706881
1.4722813 0.44416124 -0.5385097 2.2651718 -0.32016304 -0.811386 -0.36610794 0.16370897
0.9906431 1.4362773 -1.3879236 0.56313634 0.564871 1.6510946 -2.43967 2.01695
00000000: 0987 a73f f65c f5bf a096 62bf f0ce 5abf
00000010: 6f78 843f 2c4e 40bf bb86 1fbf 4964 0c40
00000020: 16bd c2bf d437 303f 7daf 5e3f b7a0 ed3e
00000030: 817d 1e3e c403 c83f b7eb 46bf f51c c4bf
00000040: 1654 f3bf 24cf 6cbf f6f1 013f 3d70 19c0
00000050: 3640 0f3f 6a3c bcbf 5263 c1bf 0d9b 713f
00000060: 73c4 9e3f 0ecb d0bf e8d0 78bf 5884 383f
00000070: 9839 ce3e b07e 19be 56b6 88bf d403 07bf
00000080: ddc7 f83e 8474 003d 8cc3 bd3f 1fae 483f
00000090: 47df 823f bc12 8d3e 2ff7 603f 54f5 9cbf
000000a0: bd60 a23e baf8 253f 4daa 473f 646e 983f
000000b0: 107b cf3e d66f e5bc 9de0 87bf f0db 3f3f
000000c0: 69c7 35bf f1b5 433f 3748 b2bf 8b1e 203e
000000d0: 00f8 c5be 709c 12c0 c880 a9be ecc8 b33f
000000e0: 86e1 bebf 6112 bf3e 7181 2dbf 2c8e c93e
000000f0: 3546 ab3f 3959 e8be b0d9 c53f 6006 bebe
00000100: e290 74bf ab1c 68bf 6b91 1a3f b64d 1cbe
00000110: 0d9e 693e b421 97bd e088 a33c 9e18 91bd
00000120: c03d 87bf 77ae a73e f45e 9ab9 5ada 4f3e
00000130: a3c1 b5be 51b8 32c0 35a1 05c0 c4e9 2e3f
00000140: 87ec 38c0 9722 b13f ad4a ed3f 7d24 d8be
00000150: ba81 09bf e933 0abf 4cd7 cdbf ade1 b33e
00000160: fb12 bdbd a968 10bf 096b 453f 0b25 52bf
00000170: d4b6 84bc 8ce0 813f ea71 3ebd 353f 693f
00000180: dbeb f2bf 12c1 513f f72f 1b3f b558 963f
00000190: c722 333e 3020 cd3f 79b5 00c0 b215 11c0
000001a0: 72f2 ff3e 14f4 8a3e ca0b 0240 cec7 de3f
000001b0: 2159 d5be da6d a5be 9a13 c03f f1e7 82bf
000001c0: 270b 6b3f bf0d 2140 0642 02bf f21b bcbf
000001d0: 84bb 97be 419f 78bf 71d5 b83f d42e 91bf
000001e0: a904 363e a4e6 a3bf 9c28 073e 81d9 00c0
000001f0: d8a0 0ebf e71d 2abf 1bca f53e 8f0b a93d
00000200: c314 ad3f 8fd2 b1be 3779 0b3f 80c2 8a3f
00000210: 996a be3e d95c 95bd 3ee6 19bf eda4 b53f
00000220: 152d bdbf b58f 0a3f d3ee 0b3e ffb9 30be
00000230: 63d6 80be ea22 8f3f fa30 26bf be95 a83f
00000240: 6367 dfbe 9c87 e3bf b0be eb3e 4515 ccbf
00000250: 8c6c 3ebe 2f52 a73f de55 383f 9db8 bebf
00000260: 96c6 f8be e299 84bf c772 623f 82f0 a8bf
00000270: f8e7 f8bd 3b67 1d3f efd0 81bf 14e6 ae3f
00000280: 7322 8f3f f9bc 02bf 3940 ff3e 99a4 00c0
00000290: f445 a5bf 0ec1 d63e 07c2 313f 1a8a dbbf
000002a0: 900b 563f 9d8c be3f 7a28 e1bf f0a2 b13e
000002b0: c4ee 893f 7086 a73f af1f 423f 44c2 4a3f
000002c0: 3f7e 043f 6fc4 2240 520b fd3f 13f1 1ec0
000002d0: 0c6d 27bf 3f08 473f 514f 48c0 7497 babf
000002e0: 75c7 febe 5d25 2c40 83e1 94be 9ac5 7f3f
000002f0: 0c41 213f ccdc b0bf 7dd6 f13f fa7d 2340
00000300: 3aea e83e 0073 2ac0 42d0 163f a667 e2bf
00000310: 4c34 b53f e157 abbe 1a58 fcbf 1e3b a6be
00000320: 6d51 f83f 9d7d 8bbf 9eb6 ffbe cee4 9a3d
00000330: 3e61 14c0 8e17 c93f 29b9 8f3f fe28 5a3f
00000340: 80a6 36bf 203d 45bf 6789 4dbf 6879 73bf
00000350: 0dbc 89bf 3e05 873e 12f1 ba3f 02af 133f
00000360: 1bd6 313f c16b 04bf 16e6 e23d 89fc 22bf
00000370: 112d 11be d1a6 bfbf 1bb8 82bf 25b9 f63f
00000380: f44f 29be 1dac 9ebe 56ce eebe 4124 43bf
00000390: 6b31 d03e 85a2 c23f cc8b 7cbf e172 31bf
000003a0: 70e7 b93f 4f1c 1a3f 4b89 6d3f 229b 03c0
000003b0: 83fe c73e 8964 e03f 0e43 c6bf c45b 0cbe
000003c0: b773 bc3f 1a69 e33e c6db 09bf 93f8 1040
000003d0: 69ec a3be feb6 4fbf 8072 bbbe 53a3 273e
000003e0: c99a 7d3f efd7 b73f 7ba7 b1bf b429 103f
000003f0: 639b 103f 1157 d33f 8e23 1cc0 b515 0140

embeddings.6.weight f4 [3, 4]
1.0473151 0.74663377 1.4611682 -0.47252405 -0.42744404 0.19766338 -0.26534873 -1.2420808
1.079266 -0.15765376 1.0917424 0.46948633
00000000: 6c0e 863f 6423 3f3f 8f07 bb3f acee f1be
00000010: f2d9 dabe 4568 4a3e cadb 87be 81fc 9ebf
00000020: 6325 8a3f fd6f 21be 37be 8b3f 8360 f03e

embeddings.7.weight f4 [7, 4]
-1.1968023 0.5289394 0.239048 0.17300676 -1.8911537 0.72076416 -0.28284594 0.0022923574
-0.84404737 0.63386375 1.3374642 -0.07606842 -0.22728354 -0.40506643 1.1357279 -0.7972563
0.4551583 -0.49700946 0.2231696 -0.17019066 -1.1119926 0.558457 -0.34912995 -1.2457975
-0.7614135 0.7258467 0.90600806 -0.21287687
00000000: d130 99bf 9368 073f 00c9 743e af28 313e
00000010: 5311 f2bf 0084 383f 2fd1 90be 603b 163b
00000020: 7d13 58bf e544 223f 0732 ab3f c3c9 9bbd
00000030: 04bd 68be de64 cfbe 885f 913f fd18 4cbf
00000040: 820a e93e 0678 febe 9286 643e 7646 2ebe
00000050: c655 8ebf 0af7 0e3f 29c1 b2be 4b76 9fbf
00000060: ffeb 42bf 17d1 393f 25f0 673f 65fc 59be

embeddings.8.weight f4 [7, 4]
-1.0392174 1.2572849 0.039897155 0.9234946 0.40659148 0.5664146 -1.1266689 0.9984463
-0.6843219 0.34294203 0.33685917 -0.4768679 -0.6596065 0.033366203 0.3676716 -0.4808615
-0.90191156 0.66611946 0.6789213 -0.026322111 -0.30169308 -1.7125831 0.15607405 -0.8823352
0.42149132 0.85887694 -1.936194 0.64772743
00000000: 1305 85bf b6ee a03f 336b 233d 246a 6c3f
00000010: c22c d03e 8c00 113f b036 90bf 2d9a 7f3f
00000020: b82f 2fbf 1996 af3e ce78 ac3e 0828 f4be
00000030: f9db 28bf 00ab 083d 743f bc3e 7b33 f6be
00000040: ade3 66bf ce86 2a3f c9cd 2d3f 78a1 d7bc
00000050: 8477 9abe ec35 dbbf e0d1 1f3e b8e0 61bf
00000060: b6cd d73e 5cdf 5b3f 34d5 f7bf 77d1 253f

embeddings.9.weight f4 [3, 4]
-1.7186732 0.014639178 1.0182918 1.730298 0.89158434 0.9273939 1.4119253 -1.5834706
-1.6051606 1.0312779 0.99058276 0.857527
00000000: 7cfd dbbf 2ad9 6f3c 6357 823f 687a dd3f
00000010: df3e 643f b069 6d3f f8b9 b43f 2aaf cabf
00000020: e775 cdbf ea00 843f d596 7d3f e486 5b3f

embeddings.10.weight f4 [427, 4]
0.72270495 2.1959684 -0.101578064 -0.71828055 -0.109224565 -0.828852 -0.13029568 -0.41615257
0.43109223 -0.18297218 2.9805715 0.29077366 0.11341576 1.5986863 -0.032648187 0.71823287
0.49240893 0.9836342 0.8136141 1.1124468 -1.2866426 2.6201446 1.7418354 0.52721375
-0.41690224 0.64092135 -0.80801886 0.9243384 0.9251621 -0.24181043 -0.043482803 -0.47628197
0.8341985 -0.29687306 0.96466213 2.1706295 -1.8392646 -1.4150339 -1.6884394 1.0456424
-1.3108526 -1.9272151 0.20056403 0.010304629 -0.58498794 -0.5491291 -0.95707023 -0.61982584
2.1165643 0.08684109 2.7326672 -0.8475612 -0.28565413 -0.14916186 -0.56002766 -0.9461185
-0.096475415 -1.2857308 0.46502784 0.20067792 -0.6606461 -0.3772242 1.4058676 -1.0966921
0.04870794 -1.326419 -1.7257112 0.87881595 0.9799588 -0.44816223 -0.26776713 -1.9826577
1.1947216 0.15584645 -0.80339265 2.5369296 -0.19193487 -0.46109456 -0.15286323 -0.29027683
-0.6029696 1.0737478 -0.5687444 -1.5112121 0.3172466 1.4027389 0.7234467 1.2017564
0.7801329 2.1946697 -0.074734956 1.0963055 -0.8538575 -0.98512816 -0.54360336 -1.8604634
2.2099538 -0.9852806 -1.7377987 1.3124361 0.48042655 -0.3135788 0.7479804 0.36319968
1.2106225 -1.7271345 0.8666514 0.10627986 -0.7732573 0.40756342 1.2630361 -1.3932755
-0.632491 0.57878643 1.6694525 -0.87210596 1.1407905 0.32977754 0.40872166 1.7730635
-0.27778718 -1.8943938 -0.20358261 -0.77713996 -0.87240046 1.123495 -0.107189864 -2.1393938
1.2774748 -1.4619275 1.6231872 -2.8014667 0.3248945 1.0261343 -2.095288 0.07243134
0.643686 2.119813 0.55120105 -1.1301662 1.3845232 -0.46627626 1.7522864 -1.5179827
1.4258747 2.2857823 -0.61520576 0.33039823 1.5229176 0.025303438 -0.068859845 -0.5231576
-0.19426902 1.291736 1.7282826 1.5616714 1.2584229 -1.5220014 1.5054686 -2.3580525
-0.9778054 -0.5379362 1.8185267 -0.52281725 -0.1477827 1.3879013 0.5926259 -1.6271188
1.8727263 2.9973207 0.16775139 1.5296664 0.20021565 -0.4468337 0.9614314 -1.3157429
0.04906934 1.0361462 0.23980197 -0.54666436 1.3214486 -0.30543104 -0.62419254 1.2915556
-0.42465115 0.0031045743 -1.1631529 -0.16112627 2.116715 0.24447742 -0.6949432 -1.0562826
0.5970872 0.5473987 -0.66497076 -0.96285063 0.75035095 0.33345425 -0.6983714 -0.7605434
-1.2292007 -0.36327732 0.004065483 0.57626826 0.18448283 0.69847935 -0.21971828 1.5464878
-2.3606584 0.15733513 1.6328362 -0.9780481 1.8661493 2.5105407 1.0861481 0.3047419
-0.4189345 0.32504076 1.2794803 0.2743004 -0.31635216 -1.3083636 0.80630183 -2.39765
-0.19228733 0.5636294 -0.23248488 0.9172237 -0.9758493 -0.7460163 0.40487087 -0.72341055
0.3505606 -1.0214913 0.06770389 0.37578216 0.43095806 -0.272702 -1.6390768 0.5478044
-0.24930303 -0.038464647 -1.640613 1.8211572 -1.768125 -0.834025 0.20209019 0.3377835
0.18118298 -0.27801862 0.6693901 -0.7144026 0.13018394 0.28036216 -0.19583446 -0.001035152
00000000: 3103 393f bf8a 0c40 2908 d0bd 3ce1 37bf
00000010: 21b1 dfbd a52f 54bf 3b6c 05be f311 d5be
00000020: 1fb8 dc3e 0f5d 3bbe afc1 3e40 49e0 943e
00000030: 8646 e83d c1a1 cc3f 1bba 05bd 1cde 373f
00000040: 061d fc3e 73cf 7b3f 0349 503f a864 8e3f
00000050: b4b0 a4bf 73b0 2740 76f4 de3f 7bf7 063f
00000060: 3674 d5be 6c13 243f 53da 4ebf 71a1 6c3f
00000070: 6cd7 6c3f 279d 77be 061b 32bd 3bdb f3be
00000080: 088e 553f bfff 97be 19f4 763f 98eb 0a40
00000090: 066d ebbf d51f b5bf c81e d8bf 9cd7 853f
000000a0: 05ca a7bf fcae f6bf a860 4d3e bfd4 283c
000000b0: c5c1 15bf ba93 0cbf 8e02 75bf e8ac 1ebf
000000c0: ca75 0740 bed9 b13d 05e4 2e40 c5f9 58bf
000000d0: 4241 92be e3bd 18be f95d 0fbf d234 72bf
000000e0: e794 c5bd d492 a4bf 2118 ee3e 837e 4d3e
000000f0: 1a20 29bf 8823 c1be 78f3 b33f 6860 8cbf
00000100: fa81 473d 19c8 a9bf 1be4 dcbf 15fa 603f
00000110: 94de 7a3f 8575 e5be c618 89be bac7 fdbf
00000120: a3ec 983f 3696 1f3e 24ab 4dbf 0e5d 2240
00000130: 938a 44be 9614 ecbe 2e88 1cbe 2a9f 94be
00000140: 375c 1abf 9170 893f 3c99 11bf 666f c1bf
00000150: 256e a23e f38c b33f ce33 393f 27d3 993f
00000160: cab6 473f 7875 0c40 a40e 99bd bd53 8c3f
00000170: 6896 5abf 5c31 7cbf 9729 0bbf aa23 eebf
00000180: e26f 0d40 593b 7cbf 3070 debf e8fd a73f
00000190: 78fa f53e 678d a0be a57b 3f3f 4ff5 b93e
000001a0: aef5 9a3f be12 ddbf dedc 5d3f 41a9 d93d
000001b0: 31f4 45bf 27ac d03e 2bab a13f da56 b2bf
000001c0: eeea 21bf 592b 143f 9fb0 d53f 5642 5fbf
000001d0: 6c05 923f 9ad8 a83e f743 d13e bff3 e23f
000001e0: 1f3a 8ebe 7f7b f2bf f677 50be a5f2 46bf
000001f0: a355 5fbf afce 8f3f 5c86 dbbd d4eb 08c0
00000200: 4b84 a33f 7120 bbbf 99c4 cf3f 3b4b 33c0
00000210: 9258 a63e 5e58 833f 3319 06c0 e256 943d
00000220: 9bc8 243f 04ab 0740 831b 0d3f 49a9 90bf
00000230: 0e38 b13f c3bb eebe ec4a e03f 424d c2bf
00000240: 1083 b63f 424a 1240 207e 1dbf f529 a93e
00000250: f7ee c23f 2849 cf3c 6406 8dbd a8ed 05bf
00000260: 75ee 46be 9b57 a53f 5d38 dd3f d9e4 c73f
00000270: 0014 a13f f1d0 c2bf 32b3 c03f 55ea 16c0
00000280: 7451 7abf 30b6 09bf 7cc5 e83f 5ad7 05bf
00000290: 5954 17be c0a6 b13f 55b6 173f 6e45 d0bf
000002a0: 7fb5 ef3f 1ad4 3f40 05c7 2b3e 1ccc c33f
000002b0: 5505 4d3e 63c7 e4be 5e20 763f 436a a8bf
000002c0: effc 483d 70a0 843f a68e 753e 32f2 0bbf
000002d0: 3a25 a93f 7561 9cbe 15cb 1fbf b251 a53f
000002e0: e06b d9be 1d76 4b3b 32e2 94bf 49fe 24be
000002f0: 4278 0740 4a58 7a3e cce7 31bf 4534 87bf
00000300: b5da 183f 5222 0c3f 863b 2abf 617d 76bf
00000310: 0017 403f 84ba aa3e 78c8 32bf f9b2 42bf
00000320: 7356 9dbf 7cff b9be be37 853b 5186 133f
00000330: 11e9 3c3e 8bcf 323f d4fd 60be 50f3 c53f
00000340: 0715 17c0 761c 213e c700 d13f 5c61 7abf
00000350: fbdd ee3f b3ac 2040 e706 8b3f 2107 9c3e
00000360: 957e d6be be6b a63e 03c6 a33f 1a71 8c3e
00000370: e9f8 a1be 7578 a7bf cc69 4e3f 1973 19c0
00000380: f8e6 44be 044a 103f 8410 6ebe 2ccf 6a3f
00000390: 42d1 79bf edfa 3ebf 3c4b cf3e 6f31 39bf
000003a0: ae7c b33e 3ac0 82bf 56a8 8a3d 8566 c03e
000003b0: 89a6 dc3e 999f 8bbe 45cd d1bf e93c 0c3f
000003c0: 4b49 7fbe 1b8d 1dbd 9bff d1bf ae1b e93f
000003d0: ec51 e2bf aa82 55bf bbf0 4e3e f5f1 ac3e
000003e0: 0888 393e 7558 8ebe 265d 2b3f 17e3 36bf
000003f0: f04e 053e a18b 8f3e d488 48be f0ad 87ba

embeddings.11.weight f4 [1030, 4]
1.2195348 -0.37247986 -0.8822651 0.7011319 -0.857223 0.37415564 0.13765316 -0.63424027
-0.5328381 -0.6732526 -2.0278733 -0.6684582 -1.4175689 0.64416504 0.012296894 -0.87124187
-0.35590938 -0.9465395 0.611454 -0.6481104 1.2332362 -0.5323044 0.308107 0.938583
-0.70070595 0.18611817 -0.5397873 -1.6406384 -1.0269462 0.3034393 0.020474244 1.3777686
0.2995532 -0.051539022 0.28833744 2.4667668 -0.40577412 -0.42055884 -0.8613038 -0.30463263
-1.0061533 1.3193473 1.0096757 -1.5349528 1.1102395 -0.34330228 2.721025 0.55842865
0.9185907 -0.97624755 0.41448274 0.55961853 -0.07166771 -0.19755979 -1.3216386 -0.7414596
3.6298804 -1.074844 -0.68899596 -0.62560683 1.0258322 0.113114424 -0.6577676 0.49081314
1.413748 1.7014489 0.6624507 -0.8545405 0.78295773 1.262283 -0.34170684 -1.2271769
-1.4443634 0.983615 -0.8173331 1.0907086 -0.77270246 -0.5396193 -0.6254705 -0.0055441544
-0.13725616 1.1992455 -0.8590163 -0.08519338 -0.17235246 0.63554376 0.93512654 1.718883
-0.30141562 0.31459606 -1.0616584 -0.5491807 -0.06737991 -1.7371286 -0.3110488 -1.7708546
0.69037825 -0.36127692 1.8615661 1.3911366 -0.24248251 -0.25168288 -0.29390916 -0.16214491
-1.3365247 1.3922969 0.24218234 0.046292 1.8002033 2.014922 -0.33817878 -0.13172966
0.58175176 -1.43213 0.4915554 0.3778033 0.42114776 0.53238857 2.0529585 -1.0143142
-0.8834124 0.40756872 0.25239506 0.2102169 0.6562383 -1.3235263 0.6417715 -0.78151596
1.9979765 -0.3303869 -1.605632 1.6432403 -0.5019017 1.8598086 0.2602929 1.2104399
-0.34292406 -2.2358217 0.28209755 0.47175166 -1.4970874 -1.1224234 0.45431116 0.35136572
-0.27025375 1.2288252 -0.9651932 -1.0245177 0.9786521 1.0162961 -0.9809655 0.49530149
2.8448863 -0.54255176 -0.6705233 -0.6554383 -1.2796732 0.5138502 0.08520942 -1.6074976
-0.7743164 0.38163075 0.037147984 -0.054846752 0.14048651 0.0478236 0.23347396 0.5782813
-0.4834662 -1.1696591 0.31728944 -1.2111415 -0.2399179 0.46883023 -1.5577438 0.3230764
-0.07402755 -0.08234174 -0.18199128 0.01907182 -1.3825569 -0.31631914 0.122853994 0.19409223
-0.028245913 0.8764738 -0.65820736 1.2217036 -1.0591685 -0.5570932 0.25418007 1.4816964
-1.3674988 -1.6711407 -0.26941016 -0.03721939 -0.3957952 -0.19742516 0.4148107 -1.5775714
0.7950472 -0.600803 0.9143331 -0.9104945 1.0675246 -0.32930678 -1.3620927 0.9195959
-0.9998673 -0.25424463 -0.94350743 -0.5469711 -0.23358119 1.9045776 0.9141235 -0.33121362
1.2470436 -1.7316936 -0.8593529 2.0345495 -1.7264597 -0.18108512 0.33094716 0.3732055
0.30832225 -0.8447516 0.26881415 -0.041475262 -0.56533664 0.17137356 -0.42489862 0.14164436
-0.2170878 1.8157403 -0.5659612 1.1341022 -0.6083932 -0.54055315 -0.36473775 0.19959244
-0.5476099 0.56037575 -1.4620328 -0.013703409 0.80892646 1.5570118 -0.6768296 -0.26014924
-2.3628075 -0.8994071 0.20448461 0.5278557 2.318193 -0.2938283 -0.2962154 -0.06698633
00000000: b719 9c3f aeb5 bebe 20dc 61bf 617d 333f
00000010: f772 5bbf 5491 bf3e f3f4 0c3e 925d 22bf
00000020: 1468 08bf 485a 2cbf adc8 01c0 1420 2bbf
00000030: e672 b5bf 00e8 243f e978 493c b509 5fbf
00000040: c139 b6be 6a50 72bf 4088 1c3f 90ea 25bf
00000050: afda 9d3f 1a45 08bf 33c0 9d3e fa46 703f
00000060: 7761 33bf c395 3e3e 802f 0abf 7000 d2bf
00000070: f972 83bf 655c 9b3e 9ab9 a73c b95a b03f
00000080: 095f 993e 951a 53bd f7a0 933e 82df 1d40
00000090: a0c1 cfbe 7d53 d7be 687e 5cbf cff8 9bbe
000000a0: a2c9 80bf 5fe0 a83f 0e3d 813f 5579 c4bf
000000b0: 541c 8e3f 51c5 afbe 4625 2e40 2ef5 0e3f
000000c0: c328 6b3f 5ceb 79bf 1537 d43e 2943 0f3f
000000d0: 85c6 92bd 1d4d 4abe 742b a9bf 4cd0 3dbf
000000e0: f64f 6840 7d94 89bf 0a62 30bf c527 20bf
000000f0: 784e 833f 89a8 e73d 7563 28bf dc4b fb3e
00000100: b2f5 b43f 14c9 d93f 5e96 293f 2bc3 5abf
00000110: eb6f 483f 7d92 a13f 33f4 aebe 2214 9dbf
00000120: e6e0 b8bf 31ce 7b3f be3c 51bf 579c 8b3f
00000130: d4cf 45bf 7e24 0abf d61e 20bf bdab b5bb
00000140: e18c 0cbe e080 993f 7ee8 5bbf de79 aebd
00000150: 2a7d 30be ffb2 223f 7464 6f3f 5c04 dc3f
00000160: 2653 9abe bc12 a13e 6ce4 87bf 1b97 0cbf
00000170: 7afe 89bd 3b5a debf ca41 9fbe 5dab e2bf
00000180: a1bc 303f 4af9 b8be cc47 ee3f c410 b23f
00000190: 564d 78be 94dc 80be 437b 96be 5109 26be
000001a0: 3e13 abbf c936 b23f a6fe 773e ae9c 3d3d
000001b0: 106d e63f 7bf4 0040 c525 adbe 24e4 06be
000001c0: afed 143f 0950 b7bf 26ad fb3e 6f6f c13e
000001d0: aea0 d73e 9e4a 083f ac63 0340 0cd5 81bf
000001e0: 5127 62bf d9ac d03e ed39 813e 1943 573e
000001f0: 3cff 273f 4f69 a9bf 234b 243f 6e11 48bf
00000200: b2bd ff3f 7928 a9be 5985 cdbf b355 d23f
00000210: a17c 00bf 350e ee3f 1c45 853e b2ef 9a3f
00000220: be93 afbe b417 0fc0 176f 903e 6f89 f13e
00000230: 8fa0 bfbf 92ab 8fbf 799b e83e 35e6 b33e
00000240: b35e 8abe 254a 9d3f e716 77bf 6523 83bf
00000250: f288 7a3f fe15 823f 8e20 7bbf 2898 fd3e
00000260: 9e12 3640 ace4 0abf 6aa7 2bbf ceca 27bf
00000270: 55cc a3bf b08b 033f 4782 ae3d 7bc2 cdbf
00000280: 9939 46bf 1b65 c33e 7c28 183d fda6 60bd
00000290: b2db 0f3e aee2 433d cc13 6f3e 3e0a 143f
000002a0: e288 f7be 64b7 95bf c373 a23e af06 9bbf
000002b0: 0aad 75be 840a f03e 2664 c7bf 456a a53e
000002c0: c29b 97bd c9a2 a8bd ec5b 3abe 813c 9c3c
000002d0: a0f7 b0bf 95f4 a1be e09a fb3d 1dc0 463e
000002e0: f963 e7bc 9660 603f 4780 28bf c960 9c3f
000002f0: d592 87bf a99d 0ebf e423 823e 3aa8 bd3f
00000300: 330a afbf f0e7 d5bf 21f0 89be 5c73 18bd
00000310: aba5 cabe d229 4abe 1162 d43e dced c9bf
00000320: 3788 4b3f 3ace 19bf bc11 6a3f 2b16 69bf
00000330: a5a4 883f e69a a8be 0e59 aebf a36a 6b3f
00000340: 4ef7 7fbf 5a2c 82be b489 71bf 4c06 0cbf
00000350: e82f 6fbe 33c9 f33f ff03 6a3f d594 a9be
00000360: 209f 9f3f 23a8 ddbf 8dfe 5bbf 0f36 0240
00000370: a2fc dcbf 616e 39be e871 a93e cb14 bf3e
00000380: 6adc 9d3e a441 58bf 02a2 893e f7e1 29bd
00000390: e7b9 10bf 8d7c 2f3e 508c d9be 380b 113e
000003a0: 444c 5ebe 2e6a e83f d5e2 10bf 432a 913f
000003b0: a8bf 1bbf b161 0abf e8be babe f661 4c3e
000003c0: 2a30 0cbf c974 0f3f e423 bbbf 4384 60bc
000003d0: ce15 4f3f 2a4c c73f b444 2dbf 4832 85be
000003e0: 3d38 17c0 8b3f 66bf 6a64 513e 8d21 073f
000003f0: 465d 1440 aa70 96be 8ba9 97be 2130 89bd

embeddings.12.weight f4 [7, 4]
-0.64527196 -0.084216736 -1.5928236 0.22649416 0.063885495 -0.7393896 -1.1286973 -0.48010036
1.1182028 -0.22113208 -0.3845611 -0.45770738 0.43335465 0.7882525 0.9192298 -0.32599342
0.47801456 0.25158674 1.1900599 0.37483656 0.7020121 0.5205497 2.9168024 0.4352948
0.049986947 0.38396227 -0.5317514 -0.7543827
00000000: 8b30 25bf d379 acbd a5e1 cbbf 16ee 673e
00000010: 66d6 823d a348 3dbf 2779 90bf b7cf f5be
00000020: 4521 8f3f 7370 62be 31e5 c4be 9f58 eabe
00000030: a9e0 dd3e eaca 493f a552 6b3f 9ce8 a6be
00000040: 53be f43e facf 803e e253 983f 94ea bf3e
00000050: 11b7 333f bf42 053f e4ac 3a40 f6de de3e
00000060: 1dbf 4c3d b496 c43e dc20 08bf 3a1f 41bf

embeddings.13.weight f4 [7, 4]
-2.310893 0.71612316 -1.3029566 0.61901104 -0.727185 -0.36851233 1.5591272 1.2821796
1.0929378 -0.6851883 -1.1023037 0.047154635 1.597725 0.5359215 1.3414078 -0.37961736
-1.1257173 -0.8695799 -0.06684001 0.4712507 1.5382802 0.04987914 -0.81245357 -1.3623606
1.3967773 -2.6596808 -0.470626 -0.124470055
00000000: ace5 13c0 d953 373f 48c7 a6bf 8277 1e3f
00000010: cc28 3abf a6ad bcbe 7b91 c73f 761e a43f
00000020: 63e5 8b3f 8068 2fbf 4a18 8dbf 3825 413d
00000030: 4182 cc3f 2732 093f 40b3 ab3f 355d c2be
00000040: 8117 90bf ca9c 5ebf 6ae3 88bd c647 f13e
00000050: 5ee6 c43f 124e 4c3d f5fc 4fbf d561 aebf
00000060: 99c9 b23f 3638 2ac0 e4f5 f0be 28ea febd

embeddings.14.weight f4 [7, 4]
-1.029657 0.6951298 -0.071560144 0.11414143 1.2437285 0.8448836 0.23741683 0.57359976
-0.075096555 0.46001214 -0.7522724 -1.0071805 -0.17438968 -0.784479 0.9405366 0.78608227
-0.033157337 -0.76535904 0.45166206 -0.07101489 -0.6634386 0.9718988 -0.6628719 0.13173115
-1.873844 1.5479182 -0.5835682 0.7889482
00000000: cdcb 83bf 07f4 313f 208e 92bd fbc2 e93d
00000010: 7f32 9f3f 4b4a 583f 661d 733e 6fd7 123f
00000020: 39cc 99bd b686 eb3e ed94 40bf 4aeb 80bf
00000030: 3593 32be 9ed3 48bf 02c7 703f b03c 493f
00000040: fdcf 07bd 92ee 43bf 4040 e73e 4170 91bd
00000050: 1dd7 29bf 5cce 783f f9b1 29bf 88e4 063e
00000060: 1fda efbf 2f22 c63f ba64 15bf 82f8 493f

embeddings.15.weight f4 [6, 4]
1.3386817 -0.5040315 2.0330875 -0.25904906 -1.2852745 1.0366507 0.22089206 -0.42895097
2.82018 -0.87986845 -0.5701044 -0.20171224 -1.8460722 -1.5118216 -2.0413177 -1.685287
-2.075902 -0.599049 -0.87743914 -1.4813018 0.11974897 2.5952003 0.6389957 0.61613274
00000000: ec59 ab3f 3508 01bf 1b1e 0240 14a2 84be
00000010: e083 a4bf f8b0 843f 8731 623e 769f dbbe
00000020: d47d 3440 0f3f 61bf 5df2 11bf a78d 4ebe
00000030: 184c ecbf 5f83 c1bf f3a4 02c0 7cb7 d7bf
00000040: 94db 04c0 465b 19bf da9f 60bf 4c9b bdbf
00000050: f33e f53d c317 2640 3995 233f e0ba 1d3f

conv_layers.0.weight f4 [32, 1, 3]
0.068198204 0.016268082 1.6732675 0.14436282 -0.35067362 -0.37488586 0.7239101 0.59654707
-0.11095437 -0.3151409 -0.8802511 0.051705718 -0.06258621 -0.64879 0.1378133 0.061100412
-0.042060796 1.8144248 0.5328232 -0.14043547 -0.30183804 -0.07513953 -0.9343374 0.3031806
-0.6110333 -0.03766814 0.39166933 0.03076613 0.14296043 -1.0642636 -0.3635884 0.6222406
0.014618374 -0.31091267 -0.8813715 -0.27374887 0.26002005 -0.7760814 0.09135585 0.43958098
-0.58956647 -0.22664239 -0.18260176 -0.8292099 0.24912533 0.1305783 -0.8829146 0.14971328
0.16593568 0.24205142 -0.5985065 0.10879799 -0.39724514 -0.4741373 -0.3301395 0.44312468
0.20282438 0.48345333 -0.52295506 -0.2394187 -0.39932957 -0.38796481 0.50430995 -0.1970383
0.8680854 0.13326503 -0.61995184 -0.4163374 -0.22177242 -0.3245907 0.5176354 -0.43716824
-0.62113905 0.62550926 0.061059475 -0.19953622 0.45796144 -0.23134114 0.29935035 -0.36958876
-0.19876234 -0.52618825 0.45762706 -0.015700473 0.6700092 -0.4093828 -0.028360639 0.04175933
0.014151437 1.6267458 0.12220156 -0.76132536 0.087476306 0.4669589 0.18380892 -0.29257193
00000000: 80ab 8b3d a444 853c a12d d63f d9d3 133e
00000010: 7e8b b3be 0af1 bfbe 2c52 393f 4fb7 183f
00000020: 0b3c e3bd 265a a1be 2358 61bf 60c9 533d
00000030: 332d 80bd 1a17 26bf ee1e 0d3e 6d44 7a3d
00000040: f147 2cbd 123f e83f 1a67 083f 51ce 0fbe
00000050: 848a 9abe c1e2 99bd bc30 6fbf 7d3a 9b3e
00000060: ae6c 1cbf e849 1abd e288 c83e 4009 fc3c
00000070: 3864 123e ca39 88bf 4228 babe 294b 1f3f
00000080: e881 6f3c f22f 9fbe 90a1 61bf d028 8cbe
00000090: 5921 853e 45ad 46bf c718 bb3d c210 e13e
000000a0: d4ed 16bf f114 68be f5fb 3abe 1a47 54bf
000000b0: b61a 7f3e 51b6 053e b106 62bf 704e 193e
000000c0: 0beb 293e 54dc 773e b937 19bf 7bd1 de3d
000000d0: b763 cbbe 20c2 f2be 0b08 a9be 3de1 e23e
000000e0: 32b1 4f3e 3287 f73e 62e0 05bf 2d2a 75be
000000f0: ed74 ccbe 53a3 c6be 751a 013f 68c4 49be
00000100: d83a 5e3f a176 083e 2ab5 1ebf 2d2a d5be
00000110: 4f18 63be c130 a6be c183 043f 84d4 dfbe
00000120: f802 1fbf 6021 203f 8019 7a3d 3953 4cbe
00000130: ec79 ea3e b1e4 6cbe 7344 993e bd3a bdbe
00000140: 5b88 4bbe 46b4 06bf 184e ea3e 479e 80bc
00000150: b985 2b3f 9f9a d1be 9254 e8bc d50b 2b3d
00000160: 6edb 673c 3539 d03f d044 fa3d 38e6 42bf
00000170: c726 b33d 3d15 ef3e 6838 3c3e fdcb 95be

conv_layers.0.bias f4 [32]
-0.38327444 0.23051088 -0.49137634 -0.18510991 0.092399634 -0.13027726 -0.16552867 -0.5013796
0.031320978 -0.25188422 0.18818228 -0.4654557 0.2659088 -0.28946173 0.13496503 -0.06026483
0.2644701 -0.4688927 0.5265816 0.53334177 -0.19327946 0.12300467 -0.50317043 0.049753193
-0.24132748 0.41526902 0.5245284 0.4735071 0.24826863 0.43406826 0.28086263 0.20273274
00000000: 8c3c c4be 0b0b 6c3e ae95 fbbe 748d 3dbe
00000010: 053c bd3d 6767 05be 5980 29be 6a5a 00bf
00000020: 6d4a 003d f8f6 80be dbb2 403e 3650 eebe
00000030: 3325 883e 5434 94be 4634 0a3e 41d8 76bd
00000040: a068 873e b412 f0be 0dce 063f 1689 083f
00000050: 0deb 45be dfe9 fb3d c7cf 00bf 01ca 4b3d
00000060: 8d1e 77be 249e d43e 7e47 063f 866f f23e
00000070: 223a 7e3e 323e de3e 3acd 8f3e 2c99 4f3e

conv_layers.1.weight f4 [64, 32, 3]
-0.09287004 0.22158064 -0.24689874 0.119306676 -0.28941306 0.2723903 0.25132075 0.06316109
0.30380523 -0.20828108 -0.09021963 0.053535763 0.083065845 0.21600728 -0.120744444 -0.004633336
0.021571662 -0.3081939 0.3244189 -0.3590017 0.6001294 -0.0777041 -0.03538665 -0.04277957
-0.25489017 0.18896484 -0.0919382 0.1444008 0.5482931 0.48221296 -0.005997085 0.19698986
-0.10338696 -0.38712966 -0.4196171 -0.24017425 0.05757738 0.19754839 0.25763395 0.029890414
-0.11586772 0.50835913 -0.061850514 0.13503353 -0.25579724 0.06432346 0.1566555 -0.055737138
0.1234628 0.44945964 -0.017121587 -0.10265294 -0.436166 -0.027532697 0.19573392 0.16719256
-0.33640558 0.3363243 -0.5048884 0.66924465 -0.2508695 0.14961645 -0.14591755 0.14956321
0.36000586 -0.07283759 -0.37093621 -0.4790439 0.68597424 -0.39572227 0.2721818 0.07660346
0.10018607 0.04034836 -0.03100747 0.12913232 0.18439333 -0.06785485 -0.005116159 -0.37731957
0.53220993 0.043269355 0.5840937 -0.124046884 0.09095463 0.011836773 0.4692025 -0.12615582
0.6089257 -0.6045692 0.032748725 0.006415328 0.17433006 0.3035923 -0.03675549 0.45034498
0.053935327 0.2327309 -0.14103828 -0.064710535 0.13650411 -0.15402268 0.26349798 -0.18307927
-0.13443656 0.3578851 -0.56949323 -0.0936924 0.09493411 -1.1777799 0.09593209 -0.007961732
0.07353683 -0.0043816837 0.076890066 0.052828487 0.042333424 0.510594 -1.0969958 -0.14500965
-0.38148707 0.5653572 0.059156716 -0.0649736 -0.043803856 -0.27875316 -0.04368358 0.25992915
0.13713697 0.26877442 -0.32212523 0.077631906 0.007718912 -0.978639 0.18578786 0.1611536
-0.12241789 0.2467052 0.3850765 -0.9345679 -0.18549758 0.18885885 -1.0449929 -0.11800502
0.18656433 0.28408617 -0.06034349 -0.21272586 0.35278553 -0.12714621 -0.12978336 0.24375646
0.1485894 0.003775596 0.18978748 0.14571406 -0.19402114 -0.07762779 0.18779263 0.05079714
-0.08100434 0.07515028 0.03507869 -0.2786719 -0.14331542 0.2130413 -0.13053934 0.17869787
-0.3666122 -0.0066030244 -0.04163117 0.11034652 -0.058652192 0.113904096 0.03331901 -0.030775968
-0.18149391 -0.13082144 0.04966891 0.10489855 -0.055035643 -0.34315437 0.22634652 -0.015965406
-0.103335574 -0.021402985 0.40927166 -1.2130845 0.2417799 0.118838705 -0.032491762 0.07398722
0.1274563 0.08103635 0.2925078 -0.28939348 0.36727908 -0.476313 0.07770149 0.18814547
-0.09869824 -0.29648405 -0.00795231 -0.42398676 -0.07092132 0.3313702 -0.6054267 0.19405921
0.045902792 -0.16496895 -0.04828849 0.14193183 0.31842595 -0.037967417 0.1826834 -0.7005473
-0.2574914 -0.04178283 -0.25025818 -0.43801498 0.004318438 -0.17660464 0.1347123 -0.6135017
0.14371826 -0.2542595 0.070134856 -0.44258 0.097263 0.28518853 -0.49637374 0.34305707
0.12968603 0.10051088 -0.066453844 0.5803999 -0.5404232 0.17707326 0.25900212 -0.68568504
-0.18423048 0.50081795 -0.4143159 -0.30780488 0.07997745 -0.6653131 0.08206263 -0.47015706
0.2796431 -0.03052025 0.012601984 -0.050643973 -0.19263014 0.21839415 -0.41840428 0.14745845
00000000: a632 bebd 09e6 623e 06d3 7cbe 0f57 f43d
00000010: f32d 94be be76 8b3e 1dad 803e 9a5a 813d
00000020: 5c8c 9b3e a347 55be 12c5 b8bd 5148 5b3d
00000030: 6d1e aa3d 0331 5d3e dd48 f7bd 3dd3 97bb
00000040: 0eb7 b03c 97cb 9dbe 3c1a a63e 12cf b7be
00000050: 15a2 193f 5423 9fbd 98f1 10bd a139 2fbd
00000060: f780 82be 0080 413e 184a bcbd cedd 133e
00000070: f05c 0c3f 9ee4 f63e 3283 c4bb b6b7 493e
00000080: 8bbc d3bd dc35 c6be 0dd8 d6be 3df0 75be
00000090: 42d6 6b3d 204a 4a3e 99e8 833e bedc f43c
000000a0: 0e4c edbd d323 023f f756 7dbd 3b46 0a3e
000000b0: dbf7 82be 05bc 833d 4d6a 203e a04c 64bd
000000c0: 11da fc3d 931f e63e 9242 8cbc b43b d2bd
000000d0: 2651 dfbe 408c e1bc 796e 483e 8734 2b3e
000000e0: 5a3d acbe b332 ac3e 5e40 01bf 9e53 2b3f
000000f0: f871 80be 0e35 193e 696b 15be 1927 193e
00000100: b052 b83e e02b 95bd 5aeb bdbe 3e45 f5be
00000110: 029c 2f3f 1c9c cabe 6a5b 8b3e 46e2 9c3d
00000120: 5b2e cd3d 5244 253d 6103 febc 433b 043e
00000130: 9bd1 3c3e 7cf7 8abd 74a5 a7bb 0830 c1be
00000140: e93e 083f 353b 313d 2a87 153f 4b0c febd
00000150: 6c46 ba3d 06ef 413c 4f3b f03e fe2e 01be
00000160: 8ee2 1b3f 0cc5 1abf 8723 063d ac37 d23b
00000170: 9483 323e 7370 9b3e ed8c 16bd 9e93 e63e
00000180: 4aeb 5c3d 0251 6e3e 576c 10be f586 84bd
00000190: bcc7 0b3e 1fb8 1dbe 35e9 863e 2279 3bbe
000001a0: bda9 09be b73c b73e 4fca 11bf cde1 bfbd
000001b0: d16c c23d 7ec1 96bf 0b78 c43d ed71 02bc
000001c0: 7a9a 963d 3a94 8fbb 8a78 9d3d af62 583d
000001d0: d065 2d3d 4ab6 023f 5c6a 8cbf 697d 14be
000001e0: 4652 c3be 40bb 103f 504e 723d e110 85bd
000001f0: ac6b 33bd bcb8 8ebe 8eed 32bd 6f15 853e
00000200: a26d 0c3e cd9c 893e 99ed a4be 7afd 9e3d
00000210: edee fc3b 1688 7abf 2c3f 3e3e 7305 253e
00000220: 3bb6 fabd 4aa0 7c3e bf28 c53e d83f 6fbf
00000230: 14f3 3dbe 3764 413e 54c2 85bf 9eac f1bd
00000240: b80a 3f3e be73 913e bc2a 77bd cfd4 59be
00000250: 4ea0 b43e 9e32 02be eee5 04be 4b9b 793e
00000260: d227 183e fd6f 773b a657 423e 1136 153e
00000270: 7aad 46be 52fb 9ebd b64c 403e a910 503d
00000280: 9ae5 a5bd 64e8 993d acae 0f3d 15ae 8ebe
00000290: 47c1 12be 8027 5a3e 1bac 05be 93fc 363e
000002a0: 98b4 bbbe 2f5e d8bb 7285 2abd 5bfd e13d
000002b0: 483d 70bd 8d46 e93d 8479 083d e21d fcbc
000002c0: 8ad9 39be 0ef6 05be a171 4b3d 0dd5 d63d
000002d0: 0e6d 61bd eeb1 afbe 62c7 673e e2c9 82bc
000002e0: 9aa1 d3bd 5055 afbc 0e8c d13e 5a46 9bbf
000002f0: 2695 773e b561 f33d 1516 05bd 9d86 973d
00000300: e883 023e 63f6 a53d 95c3 953e 622b 94be
00000310: 010c bc3e 4cdf f3be f521 9f3d 35a9 403e
00000320: 4e22 cabd c2cc 97be 684a 02bc cb14 d9be
00000330: 323f 91bd 5ba9 a93e 3ffd 1abf 75b7 463e
00000340: 9104 3c3d 9fed 28be 27ca 45bd 9456 113e
00000350: ba08 a33e b983 1bbd 5b11 3b3e 1157 33bf
00000360: ead5 83be 7924 2bbd d721 80be 8043 e0be
00000370: af81 8d3b d9d7 34be 05f2 093e 730e 1dbf
00000380: e12a 133e 4d2e 82be dda2 8f3d d999 e2be
00000390: d331 c73d 3b04 923e b324 febe 2da5 af3e
000003a0: 6acc 043e a6d8 cd3d f418 88bd 1695 143f
000003b0: 2d59 0abf b152 353e ed9b 843e 0e89 2fbf
000003c0: eaa6 3cbe 9b35 003f 3721 d4be 9a98 9dbe
000003d0: 38cb a33d f651 2abf 7410 a83d 6db8 f0be
000003e0: 612d 8f3e 9a05 fabc 8d78 4e3c 0e70 4fbd
000003f0: d640 45be b7a2 5f3e 1639 d6be 59ff 163e

conv_layers.1.bias f4 [64]
-0.053324696 -0.09684993 0.080405615 -0.06488418 -0.03938813 -0.013051508 0.01731033 0.00092209683
0.03331434 -0.05431261 0.0760243 0.10339001 -0.0741142 0.087529294 0.041000627 -0.08349143
-0.034222733 -0.060486168 0.07827687 0.034904376 -0.012044547 -0.06951588 0.09424449 0.07621299
0.039996486 0.049521517 0.049942803 0.045999732 -0.06621127 -0.035013683 -0.06697214 0.08744462
0.028827172 -0.04489675 0.095537476 -0.071018495 0.09373376 -0.06617294 -0.099115826 -0.045343217
0.060663484 -0.09986561 0.027888529 0.0025930419 -0.05826065 -0.009810686 -0.07578848 -0.023807157
0.05078561 -0.02106995 0.10564352 0.10477348 -0.090158336 -0.06362825 -0.023795241 -0.07079068
0.015190988 0.018830974 -0.039352663 -0.0015292374 -0.03845663 0.08455574 -0.056767225 -0.06811988
00000000: ff6a 5abd 4259 c6bd b3ab a43d ffe1 84bd
00000010: 7355 21bd fed5 55bc 65ce 8d3c dfb8 713a
00000020: 9e74 083d e676 5ebd a1b2 9b3d 24be d33d
00000030: 30c9 97bd 8f42 b33d 46f0 273d 8efd aabd
00000040: 232d 0cbd 58c0 77bd a04f a03d e4f7 0e3d
00000050: 7e56 45bc 575e 8ebd 4103 c13d 8e15 9c3d
00000060: 5bd3 233d 13d7 4a3d d390 4c3d 376a 3c3d
00000070: c699 87bd 826a 0fbd b028 89bd 2a16 b33d
00000080: f626 ec3c a8e5 37bd 27a9 c33d 2572 91bd
00000090: 7cf7 bf3d ae85 87bd 3dfd cabd cfb9 39bd
000000a0: 467a 783d 5786 ccbd 7c76 e43c 06f0 293b
000000b0: b8a2 6ebd 00bd 20bc fe36 9bbd 3a07 c3bc
000000c0: 9204 503d e39a acbc a15b d83d 7a93 d63d
000000d0: efa4 b8bd 874f 82bd 3dee c2bc b4fa 90bd
000000e0: 9fe3 783c 6a43 9a3c 4230 21bd b170 c8ba
000000f0: b384 1dbd 8f2b ad3d c084 68bd 7082 8bbd

bn_layers.0.weight f4 [32]
0.98214304 1.1198763 0.9347809 0.7968319 0.82602334 1.0144343 0.88531953 1.0402006
0.9959763 1.0938393 0.982481 0.6449272 1.0876174 1.088261 0.93391174 0.97245824
1.2191648 1.1289316 0.9983979 0.9628696 0.70459414 1.0913596 0.97091913 0.97865593
1.194857 0.9966443 0.9316142 1.2700231 1.0625172 1.001714 1.0400856 1.0065914
00000000: ba6d 7b3f 1b58 8f3f cd4d 6f3f 2dfd 4b3f
00000010: 4476 533f fcd8 813f 4da4 623f 4b25 853f
00000020: 4ef8 7e3f ed02 8c3f e083 7b3f f319 253f
00000030: 0c37 8b3f 234c 8b3f d714 6f3f 06f3 783f
00000040: 980d 9c3f d580 903f 0197 7f3f 9f7e 763f
00000050: 4860 343f acb1 8b3f 288e 783f 3289 7a3f
00000060: 13f1 983f 1524 7f3f 457e 6e3f 1e90 a23f
00000070: 9000 883f 2a38 803f 8621 853f fdd7 803f

bn_layers.0.bias f4 [32]
-0.16217135 -0.57705563 -0.27433342 -0.4885408 0.01664682 -0.091454215 -0.2419164 -0.13503279
-0.24961387 -0.54739165 0.15648325 -0.55399215 -0.2324787 -0.32916453 0.085827716 -0.19014527
-0.5633705 -0.5527147 -0.2996296 -0.38096943 0.17487442 -0.41138253 -0.7647615 -0.28533858
-0.28742194 -0.15620899 -0.3357788 -0.45761448 -0.31570047 -0.0849077 -0.16669062 -0.31379822
00000000: 3f10 26be ebb9 13bf 6e75 8cbe 0522 fabe
00000010: e95e 883c 594c bbbd efb8 77be 0946 0abe
00000020: c79a 7fbe dc21 0cbf 253d 203e 6ed2 0dbf
00000030: e50e 6ebe 4188 a8be 71c6 af3d 71b5 42be
00000040: 0d39 10bf b67e 0dbf 0d69 99be 6d0e c3be
00000050: 4812 333e bba0 d2be 69c7 43bf e617 92be
00000060: f828 93be 40f5 1fbe 33eb abbe 724c eabe
00000070: 7ea3 a1be 17e4 adbd f2b0 2abe 29aa a0be

bn_layers.0.running_mean f4 [32]
-0.36450332 0.22620519 -0.4891498 -0.18747748 0.092366315 -0.10998245 -0.16787195 -0.5004684
0.03391099 -0.26368007 0.18862262 -0.4711745 0.26599014 -0.2920316 0.13569221 -0.060024783
0.25890407 -0.47511184 0.52868664 0.5311618 -0.18973638 0.12597379 -0.5081759 0.044966184
-0.24128166 0.4130174 0.52257335 0.4726817 0.24928422 0.45239866 0.2807476 0.2012422
00000000: 2ea0 babe 55a2 673e d871 fabe 19fa 3fbe
00000010: 8d2a bd3d 7b3e e1bd a0e6 2bbe b21e 00bf
00000020: 40e6 0a3d 1301 87be 4a26 413e c93d f1be
00000030: dc2f 883e 2a85 95be e6f2 0a3e 8cdc 75bd
00000040: 138f 843e dc41 f3be 0258 073f 38fa 073f
00000050: 414a 42be 46ff 003e d117 02bf 762e 383d
00000060: 8a12 77be 0477 d33e 5ec7 053f 5603 f23e
00000070: 5d44 7f3e cca0 e73e 26be 8f3e 6f12 4e3e

bn_layers.0.running_var f4 [32]
2.4521742 0.2556056 0.7983006 0.7793775 0.38820076 2.8927474 0.35345328 0.849301
0.47607067 1.0064481 0.45064697 0.84507126 0.58758235 0.52191824 0.68887067 0.7137644
0.39191723 0.3546432 0.30651334 0.4983175 0.50634885 0.71687615 0.5327455 0.47326282
0.67491436 0.2562563 0.23569697 0.41679433 0.5317405 2.3224447 0.52485967 0.30496028
00000000: 6cf0 1c40 bdde 823e 6e5d 4c3f 4985 473f
00000010: 40c2 c63e c622 3940 d4f7 b43e ca6b 593f
00000020: 89bf f33e 4bd3 803f 33bb e63e 9756 583f
00000030: cc6b 163f 6f9c 053f d459 303f 44b9 363f
00000040: 60a9 c83e cb93 b53e 51ef 9c3e 7923 ff3e
00000050: 14a0 013f 3285 373f 0262 083f 814f f23e
00000060: 30c7 2c3f 0734 833e 8c5a 713e 1166 d53e
00000070: 2520 083f efa2 1440 345d 063f c123 9c3e

bn_layers.1.weight f4 [64]
0.7183431 1.0610874 1.0346386 0.91822076 0.925189 0.92877895 1.2771373 1.1770126
1.1875789 1.0881339 1.188716 1.0367446 0.9483339 1.3348682 0.92280763 1.1889752
1.079586 1.0708047 1.0332758 1.1403784 1.0897475 1.0321075 0.8020253 0.896739
0.9226678 0.96862406 1.090823 1.1334144 1.094335 1.0821375 1.2183975 0.91707665
0.8613507 1.1210215 0.60254854 0.85171664 0.92502487 1.0963919 0.9302921 1.1929041
1.1476116 0.8396617 0.92398185 0.8564678 1.3208776 1.0157278 1.2174953 1.1704654
1.3852783 0.7747737 0.8717258 1.6499002 0.9929898 1.0208093 1.13557 1.2678854
1.008824 1.0775995 0.97065413 0.6672184 0.9528484 1.087877 1.0221697 0.8556429
00000000: 55e5 373f b6d1 873f 0a6f 843f 8410 6b3f
00000010: 30d9 6c3f 75c4 6d3f 3c79 a33f 59a8 963f
00000020: 9602 983f f947 8b3f d927 983f 0cb4 843f
00000030: 03c6 723f f6dc aa3f 1f3d 6c3f 5730 983f
00000040: e02f 8a3f 2110 893f 6242 843f ebf7 913f
00000050: d97c 8b3f 191c 843f 8851 4d3f b090 653f
00000060: f533 6c3f bff7 773f 17a0 8b3f b913 913f
00000070: 2b13 8c3f 7b83 8a3f 73f4 9b3f 89c5 6a3f
00000080: 7b81 5c3f a27d 8f3f 9f40 1a3f 1a0a 5a3f
00000090: 6ece 6c3f 9256 8c3f a027 6e3f 15b1 983f
000000a0: f0e4 923f 12f4 563f 138a 6c3f 7941 5b3f
000000b0: 8412 a93f 5e03 823f e3d6 9b3f cfd1 953f
000000c0: cd50 b13f 9257 463f 6c29 5f3f ee2f d33f
000000d0: 9434 7e3f e1a9 823f 5c5a 913f 124a a23f
000000e0: 2521 813f c8ee 893f ca7c 783f d3ce 2a3f
000000f0: dfed 733f 8e3f 8b3f 75d6 823f 6a0b 5b3f

bn_layers.1.bias f4 [64]
-0.18690856 -0.24666838 -0.30465233 -0.43392816 -0.10433924 -0.48276338 -0.088750646 -0.42319804
-0.3053566 -0.1217761 -0.17580028 -0.34943274 -0.29574764 -0.37958848 -0.019270547 -0.50258297
-0.17320149 -0.4169298 -0.31233433 -0.37254453 -0.3884688 -0.44731998 -0.21176681 -0.48325872
-0.50749403 -0.19719516 0.14140543 -0.17261514 -0.3074393 -0.39497286 -0.5700082 -0.42419374
-0.35226825 -0.5381294 -0.21489885 -0.17941709 -0.19278435 -0.19057588 -0.040544845 -0.16713446
-0.35206577 -0.25229082 -0.16736229 -0.52875113 -0.52696574 -0.15177003 -0.17832673 -0.2602958
-0.4850278 -0.2447586 -0.23470889 -0.54177314 -0.18912353 -0.3731023 -0.4687211 -0.30892387
-0.44082797 -0.23171182 -0.15107888 -0.077041 -0.34099108 -0.1304897 -0.18141887 -0.20367
00000000: f564 3fbe a396 7cbe 64fb 9bbe d52b debe
00000010: d0af d5bd c32c f7be e6c2 b5bd 6aad d8be
00000020: b357 9cbe bf65 f9bd fd04 34be d9e8 b2be
00000030: 3c6c 97be 6c59 c2be 44dd 9dbc 47a9 00bf
00000040: bb5b 31be d377 d5be 49ea 9fbe 28be bebe
00000050: 62e5 c6be 2007 e5be 66d9 58be b06d f7be
00000060: 21eb 01bf 87ed 49be 96cc 103e 06c2 30be
00000070: af68 9dbe e239 cabe 0fec 11bf ec2f d9be
00000080: 815c b4be d9c2 09bf 720e 5cbe 1db9 37be
00000090: 4369 45be 5326 43be 5a12 26bd 4c25 2bbe
000000a0: f741 b4be 432c 81be 0561 2bbe 3c5c 07bf
000000b0: 3ae7 06bf 9a69 1bbe 489b 36be 7e45 85be
000000c0: 9055 f8be 00a2 7abe 8757 70be a5b1 0abf
000000d0: 99a9 41be 4407 bfbe 36fc efbe 452b 9ebe
000000e0: 34b4 e1be dd45 6dbe 6cb4 1abe acc7 9dbd
000000f0: 6296 aebe 189f 05be dec5 39be de8e 50be

bn_layers.1.running_mean f4 [64]
2.6364155 -2.400467 -2.2277174 -1.1315817 -1.1632116 -4.4483423 -3.8387976 -4.511556
0.20575817 -3.6046317 -4.935881 -1.6317654 2.0400412 -4.0277734 3.9738867 -3.0203903
-1.5327033 1.355553 -1.7117821 -6.557872 -0.8887937 -4.351205 2.1673732 2.77618
-0.90447915 -2.523934 -3.6341758 -2.3365679 -3.4141304 -2.9013615 -5.356193 -2.096833
-4.1623116 -2.1434672 1.7529349 -1.6658864 2.1946428 -5.045144 -2.2809107 -0.17958333
-7.006033 -1.4309099 -2.7474294 0.89786583 -4.3075604 -4.310809 -2.503044 0.37921596
-4.63395 -2.772605 0.9110329 -5.6039543 -0.32334763 -3.019805 -4.225231 -3.0719197
-2.3267806 -3.340175 1.4438556 3.4863513 -0.15230541 -1.6572659 0.14696233 0.6199746
00000000: 08bb 2840 40a1 19c0 ec92 0ec0 abd7 90bf
00000010: 1ee4 94bf d258 8ec0 dcae 75c0 ab5e 90c0
00000020: 45b2 523e 49b2 66c0 bdf2 9dc0 b0dd d0bf
00000030: 0990 0240 85e3 80c0 2954 7e40 134e 41c0
00000040: 9f2f c4bf c382 ad3f ad1b dbbf 16da d1c0
00000050: fc87 63bf 123d 8bc0 3eb6 0a40 efac 3140
00000060: f28b 67bf 2288 21c0 5696 68c0 548a 15c0
00000070: 1d81 5ac0 e8af 39c0 ef65 abc0 8332 06c0
00000080: a831 85c0 912e 09c0 2c60 e03f c43b d5bf
00000090: 0775 0c40 d271 a1c0 71fa 11c0 b1e4 37be
000000a0: 6c31 e0c0 0e28 b7bf e2d5 2fc0 89da 653f
000000b0: 89d7 89c0 26f2 89c0 df31 20c0 9828 c23e
000000c0: 5249 94c0 5c72 31c0 7439 693f 9853 b3c0
000000d0: d28d a5be 7c44 41c0 1835 87c0 559a 44c0
000000e0: f9e9 14c0 6dc5 55c0 43d0 b83f 6120 5f40
000000f0: f3f5 1bbe 4a21 d4bf 4b7d 163e a8b6 1e3f

bn_layers.1.running_var f4 [64]
16.245115 15.66758 14.461349 12.239487 16.257904 13.241436 18.684494 19.060316
14.883687 19.415775 21.008017 8.909682 13.341358 20.7062 14.868886 8.961382
15.2795925 18.064137 14.827318 23.882566 12.460858 20.144497 19.974058 17.44056
13.8033285 15.787469 29.379992 8.8898945 16.108397 14.926201 14.241128 14.025626
14.619137 19.523579 8.595453 14.006678 16.362309 14.79787 15.755152 24.334238
17.01044 12.852049 12.642504 14.131881 21.244787 12.295815 17.590279 11.522385
27.705296 12.660363 15.167389 35.45268 20.07565 18.025932 16.27886 18.157713
18.411438 19.141169 15.5945215 9.920447 11.753548 18.382832 20.582136 12.09786
00000000: fff5 8141 68ae 7a41 af61 6741 f0d4 4341
00000010: 3010 8241 ecdc 5341 d879 9541 877b 9841
00000020: 9523 6e41 8253 9b41 6b10 a841 0f8e 0e41
00000030: 3476 5541 4ca6 a541 f5e6 6d41 d261 0f41
00000040: 3679 7441 5a83 9041 b23c 6d41 7f0f bf41
00000050: ad5f 4741 ee27 a141 dfca 9f41 4486 8b41
00000060: 6fda 5c41 7999 7c41 390a eb41 023d 0e41
00000070: ffdd 8041 b8d1 6e41 a9db 6341 f768 6041
00000080: fce7 6941 4a30 9c41 fa86 0941 5a1b 6041
00000090: 02e6 8241 13c4 6c41 1a15 7c41 85ac c241
000000a0: 6215 8841 fea1 4d41 b247 4a41 2f1c 6241
000000b0: 53f5 a941 a9bb 4441 e4b8 8c41 b05b 3841
000000c0: 72a4 dd41 d990 4a41 a0ad 7241 8bcf 0d42
000000d0: ee9a a041 1c35 9041 1b3b 8241 ff42 9141
000000e0: a04a 9341 1d21 9941 2983 7941 27ba 1e41
000000f0: 880e 3c41 0a10 9341 37a8 a441 d690 4141
