government_icfes_dataset/results_ml/checkpoints/model_classification_20250521_230648.pt (torch, 394351 bytes, 39 tensors)

embeddings.0.weight f4 [4, 4]
00000000: d63c 61bf d53e ac3f de0c 7b3f 6b7b d23f
00000010: 912c 063e b0ee 8f3f ce45 60be db2f 123f
00000020: 3b82 a4be dfb4 c9bf 3606 aabf 1942 85bf
00000030: 7629 9dbf bd16 923e e3a2 a03f f9b4 a0bf
-0.87983453 1.3456675 0.9806651 1.6443914 0.13102938 1.1244717 -0.21901628 0.5710427
-0.32130608 -1.5758322 -1.3283145 -1.0410796 -1.2278278 0.28532973 1.2549709 -1.2555228

embeddings.1.weight f4 [3, 4]
00000000: 6906 0940 b453 943e 20fe 133f 899e a3bf
00000010: a9f0 203f f336 443f aa8a 743f 7cb5 a9be
00000020: 5f29 e13f 13ec fabe b62c 64bf ea52 a2bf
2.1410162 0.2897011 0.5780964 -1.2782756 0.6286722 0.76646346 0.95524085 -0.33146274
1.759075 -0.49008235 -0.89130723 -1.2681553

embeddings.2.weight f4 [5, 4]
00000000: edad 993e 249a 893f ccce fcbe 9b64 a8be
00000010: 4bb1 3ebe 24e2 98bf fea0 46bf d15f cfbf
00000020: 6d53 9f3f 7c91 0f40 2c6d 5abf 5bb7 3cbf
00000030: 228f 0a3f 69aa 573f 5dd5 0b40 142d 523f
00000040: ba6f 18bf f478 46be 4b73 b8bd 1ed1 553f
0.30015507 1.0750165 -0.49376523 -0.32889256 -0.1862232 -1.1944013 -0.77589405 -1.6201116
1.2447335 2.2432547 -0.85322833 -0.7371728 0.54124653 0.842444 2.1848977 0.82100034
-0.5954548 -0.19382077 -0.090063654 0.8352221

embeddings.3.weight f4 [7, 4]
00000000: a586 f8be d729 1f40 4bd0 883f f991 433f
00000010: 0b58 ea3f 38e5 043d 2fa3 c8be 0db2 9dbf
00000020: 9dfd 11bf 6684 323f 65cd f8bf ee88 d23e
00000030: 2346 54bf 175d f63e 1a24 4a3f 62eb 9a3e
00000040: fe51 59bf d857 e1bf 7be6 1b40 0d4c d3bf
00000050: 715a 56be f8b7 c4bf 5480 633f 6d9f 46bd
00000060: 3df6 88be 8314 583f bc89 753f c01c 6dbf
-0.48540226 2.4869287 1.0688566 0.7639461 1.8308119 0.032445163 -0.39187 -1.2319962
-0.5702761 0.69733274 -1.9437681 0.41120094 -0.8291952 0.48117897 0.78961337 0.30257708
-0.84890735 -1.7604933 2.4359424 -1.6507584 -0.20932938 -1.5368643 0.8886769 -0.048491884
-0.26750365 0.844063 0.9591329 -0.92621994

embeddings.4.weight f4 [7, 4]
00000000: bc7c 92bf 8fa4 cc3f e800 c03e 5b6a 6f3f
00000010: 9b16 8d3e a42f 04be c7e1 ac3d 97fa 9bbe
00000020: 19e6 b4bf e3a4 b8bf f714 873e 4145 21c0
00000030: 6857 953f ac36 d4bf fa40 0ec0 c009 a9bf
00000040: 6165 68bd 775f 2fbf 9a14 a9be fe05 663e
00000050: 03b8 703e e9bb 8d3f d914 8b3f 473a c63f
00000060: 5c66 38be d111 3cbf 057c 58bf fe46 bdbe
-1.1444316 1.5987719 0.3750069 0.9352166 0.2755631 -0.12908798 0.08441501 -0.30464622
-1.413272 -1.442532 0.26383182 -2.519852 1.1667299 -1.6579185 -2.2227159 -1.32061
-0.056737307 -0.6850504 -0.3302353 0.22463223 0.23507695 1.1072971 1.0865737 1.5486535
-0.18007797 -0.73464686 -0.8456424 -0.36968225

embeddings.5.weight f4 [1025, 4]
00000000: e1d3 edbf cb0b 3a3c 25a2 15c0 81ef 013f
00000010: da9c 1fc0 caa3 1bbf 2788 aebe 12ec cfbc
00000020: 5350 56bf 2d71 983e 42f8 82be 7eda 0abf
00000030: 1fe7 c13e c9af 2d3f 980f bebf d80c edbe
00000040: 1963 18bf 7f66 333f 0255 143e ce35 253f
00000050: 188f a43d 3ffe 3d3d 6005 7ebf 883c 2d3f
00000060: 8a6e 893e 6bde f2bf 64a3 0fbf 1bc7 da3f
00000070: a87e 2abf 7f45 ae3e 722d 843f 871d 463f
00000080: 1df9 f3bd 2bbf 29bf 8d18 ba3e 526f 193f
00000090: 965d 25bf f134 0dc0 2d52 9d3f b336 2b3f
000000a0: 4a43 2ebe ade6 113f 1e92 de3e ef30 3dbf
000000b0: 8f24 23bf e204 1c3e 71f2 99bf 4a2e fabd
000000c0: 786e abbe 594c b7bf 6428 333f 01eb edbd
000000d0: a1e1 983e 48a0 0740 e505 ad3f 7a51 273f
000000e0: 2fa2 61bf b2fd c9be 5098 8d3e 5638 d13d
000000f0: fd84 fd3d ef15 183f c3ec 24bf 92b6 9d3f
00000100: 8cf2 113f a2ba a33f 813b 56bf fb5f 493f
00000110: d6a3 453f f9aa 82bf 29ad 84bf 066a ecbe
00000120: ed13 05bf fd64 9c3f df34 cfbe 0741 4d3f
00000130: 8f22 49bf 639f a4be 2eac e13f 0107 0740
00000140: 8b13 dabf 4c44 0a3f fdaa 32bf f7a8 8dbf
00000150: 8001 c4be 8ace b5bf 7129 633e 3d3c 6e3e
00000160: 0f70 233f d216 be3e 630b a3be b735 283f
00000170: 2a31 cd3f be4c febe c92e 993e cdf1 f4be
00000180: e7e4 f4be e82c 5b3f 4fb4 4bbf 674f 1f3d
00000190: fe3c 0940 cb6f 16c0 8b46 f63f d21a d73f
000001a0: 15ea c73e 7ce5 203f 7c4d ecbf 63e4 7d3f
000001b0: ad72 8abf bfa4 f2be 3da4 713e 0aca c33f
000001c0: ee41 e7bf 1eba b0bf 0e2e 09c0 e4e4 d4bd
000001d0: c5e2 80be c262 1840 2ae5 dbbf 35d7 d8be
000001e0: c21c 843f a8aa e43f 699c ebbf a993 053e
000001f0: 5b92 c73e 70ac f3be 1cbd bebe 7e12 373f
00000200: 4462 8bbf d64a df3e 10e7 7e3f 5513 abbd
00000210: d1ef d9bf 58ec d23f 8080 ad3e deb8 9bbc
00000220: e93b 20bf 282d 493f 2e3f f83d 12c3 62bf
00000230: 33b4 58bf 5c6e 843e 1134 3640 583b 563f
00000240: 8b7b 04c0 c13b 0ebd 0aad 8f3e 12aa b73f
00000250: a16a 27be b600 8dbf 1372 5d40 170a 05c0
00000260: a284 43be 7a28 2abd 285f ddbe 3ec7 0cbf
00000270: eaf7 983f c5a5 143f db57 c93f 7750 f0bf
00000280: acb9 523e bf65 413f a223 393f b58c 80bf
00000290: 7915 d83f 869c bfbf 3cde 9d3f 0944 ec3f
000002a0: 3275 81be 9259 0dc0 908b 703d 6916 70bf
000002b0: 3cdf 59bf 41e4 0bbf f767 653f 6cea 1ebf
000002c0: add5 0740 3998 4cc0 4260 8b3f 242e a93f
000002d0: 2d44 9f3f 7104 db3f b068 8ebf 7526 abbf
000002e0: 75b6 3b3e 1603 b73f c867 34be 9594 fdbe
000002f0: 4990 c43e 7331 90bf a95d 613f 368f 903f
00000300: 35cb 413f f783 08bf 124a c53f 9ebb e53f
00000310: 1a05 7cbf 47ea 0cbf ede7 a63d 1694 73bf
00000320: e19c 9cbd 3c92 67bf c2f9 20bf f767 c2bf
00000330: 8982 2d3f c643 81be d707 b93f 854d 7bbf
00000340: 450d b63f c541 9abf 92b3 cbbf bdcc fb3e
00000350: 0f41 49bf 4a12 1e3f 0937 7bbf 7576 16bf
00000360: 8a5a 85bf a516 9e3f a4f1 e53f 038e 55bd
00000370: 5144 173f af16 363f 6425 b0be 3d1d f53f
00000380: ecde 22be f1c0 23bf b3e5 1d3f deb6 47bf
00000390: b446 d1bf 6e0b 2f40 9b08 e1be 2db1 c4bf
000003a0: 0001 ecbf 654b 2f3f 73ea d73d b4c1 583f
000003b0: 5f05 23be 5bf6 093e 4eed 903e 28c9 923f
000003c0: caa6 30bf 132f e2be 23c3 87bf d43a 1f3f
000003d0: 7a19 00bf e3ae 183e 4d7a 29bf d787 3ebf
000003e0: fc13 dd3f 4e4f e13f 55ad 7e3f 40e8 863f
000003f0: 8a2c 31c0 30f4 79bf cd11 0e40 b944 0b40
-1.8580285 0.011355351 -2.3380215 0.5075608 -2.4939485 -0.607968 -0.3408825 -0.025381122
-0.83716315 0.29773846 -0.2558003 -0.5423964 0.37871644 0.6784635 -1.4848509 -0.46298862
-0.5952621 0.7007827 0.14485553 0.64535224 0.080351055 0.046385046 -0.9922695 0.6767049
0.26842147 -1.8974127 -0.5610869 1.7092012 -0.6659951 0.34037396 1.0326369 0.77388805
-0.11912749 -0.66307324 0.36346856 0.59935486 -0.64595926 -2.2063563 1.2290703 0.6688034
-0.17017856 0.5699261 0.43470854 -0.7390279 -0.6372766 0.15236238 -1.2027112 -0.1221586
-0.33482718 -1.4320174 0.69983506 -0.11617089 0.2985964 2.1191578 1.3517424 0.653587
-0.881381 -0.39451367 0.27655268 0.10215823 0.12378881 0.5940847 -0.6442377 1.2321341
0.5701072 1.2791331 -0.83684546 0.7866208 0.7720312 -1.0208427 -1.0365344 -0.4617464
-0.5198353 1.2218319 -0.40470025 0.8017735 -0.7856836 -0.32152852 1.763067 2.1098025
-1.7037214 0.5401046 -0.6979216 -1.1067189 -0.38282394 -1.4203656 0.22183777 0.23265167
0.6384286 0.37126786 -0.31844625 0.6570696 1.6030629 -0.49667925 0.29918507 -0.4784073
-0.4783089 0.85615396 -0.79572004 0.038894083 2.1443477 -2.3505733 1.9240278 1.680506
0.39045778 0.62850165 -1.8461146 0.99176615 -1.0816246 -0.47391316 0.23597808 1.5296032
-1.8066995 -1.3806798 -2.143436 -0.1039522 -0.2517301 2.3810277 -1.717931 -0.4235169
1.0321276 1.786458 -1.8407108 0.13044609 0.38978848 -0.47592497 -0.37253654 0.7151259
-1.0889363 0.43611783 0.99571323 -0.08353297 -1.7026311 1.6478376 0.338871 -0.01900905
-0.62591416 0.7858453 0.121214256 -0.88578904 -0.8464996 0.25865448 2.846928 0.836843
-2.0700405 -0.034724955 0.28061706 1.4348776 -0.1634927 -1.1015842 3.4600875 -2.0787408
-0.19093564 -0.041542508 -0.4323666 -0.5499152 1.1950657 0.58065444 1.5729936 -1.8774556
0.2057864 0.7554588 0.72319996 -1.004294 1.6881553 -1.4969642 1.2333446 1.8458263
-0.25284725 -2.208592 0.058726847 -0.93784195 -0.85106254 -0.5464516 0.8961176 -0.6207645
2.1224167 -3.196791 1.088875 1.3217206 1.2442681 1.711073 -1.1125698 -1.3371111
0.1833132 1.4297817 -0.17617714 -0.49527422 0.3839133 -1.1265091 0.8803354 1.1293705
0.75700694 -0.5332636 1.541323 1.7947881 -0.98445284 -0.5504498 0.08149705 -0.95147836
-0.0764711 -0.9045751 -0.628811 -1.5187978 0.67777306 -0.2524702 1.4455518 -0.9816516
1.42228 -1.2051321 -1.5914176 0.4917964 -0.78614897 0.61746657 -0.9813085 -0.587745
-1.0418255 1.235066 1.7964368 -0.052137386 0.5908862 0.7112836 -0.34403527 1.9149548
-0.1590535 -0.6396628 0.6167862 -0.7801341 -1.6349702 2.7350726 -0.43951878 -1.536657
-1.8437805 0.6847442 0.105427645 0.8467057 -0.15920018 0.13472883 0.2830605 1.1467638
-0.690045 -0.4417654 -1.0606426 0.6219914 -0.50038874 0.14910464 -0.6620224 -0.74426025
1.7271724 1.7602327 0.99483234 1.0539627 -2.7683434 -0.97638226 2.2198365 2.1760695

embeddings.6.weight f4 [3, 4]
00000000: 5963 9e3e 4dd6 1c3f aa56 c3bd f36b 483f
00000010: 0ba6 a9bf 266c 8abe c80e 73bf e7bc c6be
00000020: f58c 69bf b030 093c ad31 fdbc 1e0e 94be
0.3093517 0.612645 -0.09538014 0.7828972 -1.3253797 -0.27035636 -0.9494443 -0.38815996
-0.9123071 0.008373424 -0.030907476 -0.2891702

embeddings.7.weight f4 [7, 4]
00000000: 6e3b 76bf ca58 60bf f8af 43be fcfc 7e3f
00000010: b24f 8e3f b8a4 3d3f 25f1 2b3f 87a3 9dbf
00000020: 50de db3f 9a4f 0d3f 3a80 61bc 033b 523f
00000030: 8c19 afbf 4ddc 9e3f a700 803f ce51 f53f
00000040: 5bd4 e73f aa7f a9bf 8153 a0be 07b2 cf3e
00000050: e64e cbbf 0bb8 54bf f444 bcbd 25ff a13e
00000060: 7224 85bf ffb0 503f a26b 9d3d a3aa 0abf
-0.9618443 -0.8763548 -0.19110096 0.99604774 1.1118071 0.74079466 0.6716483 -1.231553
1.7177219 0.5519959 -0.013763482 0.82121295 -1.3679671 1.241098 1.0000199 1.916559
1.8111681 -1.3242085 -0.31313708 0.40565512 -1.5883453 -0.8309333 -0.09192839 0.31639972
-1.0401747 0.81520075 0.07686545 -0.5416662

embeddings.8.weight f4 [7, 4]
00000000: a4cb f4be af55 b1be 0088 86be 3321 d0be
00000010: 0af5 853f fd93 c8bf 04df b93f f5b9 fabe
00000020: 1711 ec3e ffcd 32bf 1c28 17bf ce4e 27be
00000030: df6f 69bf aa84 ddbe 5c97 a33d 5c0b 7bbd
00000040: be0d 653f 1c5e f3bc d48f 75be 8a9d 49bf
00000050: 6bf9 96be a472 b53f d9ae fe3e 41a5 f1be
00000060: ba7f b9bf b6ed 893f 1fd8 653f ba12 3abf
-0.47811615 -0.34635684 -0.26275635 -0.4065033 1.0465405 -1.5670162 1.4521184 -0.4897
0.4610679 -0.69845575 -0.5904558 -0.16338655 -0.91186327 -0.43265277 0.07987854 -0.06129013
0.89474094 -0.02970796 -0.23980647 -0.7875601 -0.29487166 1.417561 0.49742773 -0.4719639
-1.4492104 1.0775669 0.897829 -0.72684824

embeddings.9.weight f4 [3, 4]
00000000: 6251 573f e479 e8be 577a 853f 9efc b23f
00000010: 1127 ebbd 6e22 61bf 3d91 a9bf 87bf 91bf
00000020: 8004 b4bf 9fcf 633f 2747 203d 7a35 16c0
0.84108555 -0.45405495 1.042796 1.3983343 -0.11482061 -0.8794316 -1.3247448 -1.1386575
-1.4063873 0.8898868 0.039130356 -2.347014

embeddings.10.weight f4 [427, 4]
00000000: ac87 29bf 6136 1a3f 3719 8b3f f4b0 c3be
00000010: cfd9 9c3d 7c90 40bd a1c5 c4bd b3ec 94be
00000020: 53e6 17bf bd9a a13f c5a7 2b3d 57d2 dcbf
00000030: d0d1 70be 3a53 843f 66fd 2a40 2e35 b53f
00000040: f9bc 39bf fc94 b43f 08ad b33e 0c35 6dbf
00000050: fe67 70bf cf34 4f3f c283 773e e720 573f
00000060: b21d cb3d 4082 c7be 0a09 51bf 782e c0bf
00000070: 624f 4d3e 7ddd a23f 5e81 453e 7e39 ccbe
00000080: 838a 06c0 79c6 a6be 8e1d 94bf 3023 ae3f
00000090: e2e7 3dbe 64da a1be 3544 ffbe f306 a0bc
000000a0: d95e aebf 3f0c 0340 389c 203f 4c45 e23e
000000b0: 6c83 d43d 289f 2f3f eace 163f 5b1c 6e3f
000000c0: d21c 2340 1eef 1dbf 9a9c 52c0 e53a c73f
000000d0: 798b 76bf ac0a 7b3f 4577 f7be 5fdd e33f
000000e0: e5ec 03c0 a361 8abf 421b cb3e ecd3 34bf
000000f0: 3210 efbe 26e1 863f c0b8 e53f 29dd aabe
00000100: df55 5dbe d8bb 9bbe b5d0 ac3e 2a95 3c3f
00000110: 24bc 5fbf 1fe8 543f 536e f33f 2412 563f
00000120: c574 5a3f 6cb5 41bf 5494 423f e103 76bf
00000130: 5988 623f 9417 643f 73c0 193f 6bcc 3abf
00000140: e8f5 bf3e 2bb2 babf a1f0 08c0 bb8e 5a3e
00000150: a2b1 58bf 85d2 4c3f ad8b 0540 c4be 1e40
00000160: 2b13 b43e 362c 83bd 70f8 0a40 9689 1340
00000170: 721e a4bf 177b 07bf 4e85 cd3c 09d2 a3bf
00000180: d53b 993d 8a1b 57bf f33e 193e fd2d f23e
00000190: 2b7a 3ebf cf2a af3e 2a31 133f 903a 36bf
000001a0: f423 653d 4adb 1ebf 98c6 493d 2af6 eabe
000001b0: 6f60 26bf 1e1a c7bf b344 b03f 6d73 1cc0
000001c0: e22b 5f3f a23e b3bf 742b 4ac0 7375 1bbf
000001d0: 2fdf 87bf 09c2 1d3f 12a4 a5be 67f3 d3bf
000001e0: 084c 8e3d eae9 013f feea 47bf fef5 41bf
000001f0: 780b d73f ad79 393f 2183 c73e 5453 1dbf
00000200: 7741 8dbd 2d53 f03f 1a79 4f40 2acd 2b40
00000210: 581a 8bbf babe e13e 4703 8f3f 50f5 083f
00000220: 54aa 643f ae22 38c0 df4d 6fc0 17cb 34be
00000230: 9c53 4f3d 3ec0 1540 d264 7abe 0660 88bf
00000240: bb8b 6dbf 7925 9abf 6ace 8e3f 10e8 bfbf
00000250: bdcc 7b3e 72f6 0ebf 4901 aabf 52f8 e1be
00000260: 2a2f 913f b51a 04c0 40c2 2c3f 1e76 02c0
00000270: b11d 1e3f f212 c5bf 6b4c c2bf 86d8 f23f
00000280: 3ff2 4440 e3cf 4fbf 95fa 32bf f520 47bf
00000290: deff 91be d432 9c3f 3b0e 04bf 9edb 903f
000002a0: 8482 483f 43c1 a2be a2f7 dc3f 2f7d b5bf
000002b0: ae95 1e40 94cc 51bf 9f8a 0040 0a3e c5bf
000002c0: 4ed7 37be 5fd5 8dbf 9702 a0be 8eda 4b3f
000002d0: fc2a 0dbf 901d 9dbe 239b 86bf 646d ec3e
000002e0: b5a6 80bc 9fea 74bd bf64 5cbf 6cf5 00c0
000002f0: 292f 873f 44b9 a8bf 893f e43f 9fc9 bf3e
00000300: 5ccd c23f cb84 703e 6bc1 10bf 3b45 943e
00000310: d600 bcbc b212 b13e 6085 c7bf c996 123f
00000320: 8bee e1be 21ce d73e ab49 abbe e692 1cbe
00000330: 1b14 2bbf fd12 ae3f e1b5 2840 1508 c33e
00000340: 6acd 383f 606a 80bf 3f9c 7f3f f40b 30bf
00000350: 6402 b3be 023d 6a3f ca82 323f 3968 723f
00000360: 013c 8bbf 96e5 3f3f 840f 62be 9373 ed3e
00000370: bfca ce3e bd41 e53f c796 493e 45ab 633f
00000380: dab5 cfbe 3701 60bc 446c c1be fd93 103f
00000390: 0520 c9be 7969 f9bd ad71 3b3f 9c9f 0640
000003a0: bb3e c0bf 0aa8 c7bf f8f9 e5bf 0b25 343f
000003b0: 4430 3e3f 3f4c bbbd 6f61 a63f 159d 8b3f
000003c0: c6af ef3e 5ccc a3bf 6a08 83be 9321 65be
000003d0: 083f 8bbe 4eb9 50be 44cf 38be eb8a d4be
000003e0: ced9 ca3e 4668 2040 69f7 b33e 8937 933d
000003f0: 3682 a43f dccc 813f ee1e d5bf adfb b7bf
-0.66222644 0.60239226 1.086707 -0.38220942 0.07658731 -0.04701279 -0.09608007 -0.29086837
-0.5933582 1.2625347 0.041908044 -1.7251691 -0.23517537 1.0337899 2.6717162 1.4156854
-0.72553974 1.4107966 0.3509295 -0.9265907 -0.9390868 0.80939955 0.24171355 0.8403458
0.09917773 -0.3896656 -0.8165442 -1.5014181 0.20049813 1.2723843 0.19287631 -0.39887613
-2.102204 -0.32573298 -1.1571519 1.3604488 -0.18545488 -0.3161193 -0.49856725 -0.019534564
-1.3622695 2.0476224 0.6273837 0.44193494 0.10376629 0.6860223 0.58909476 0.93012017
2.548634 -0.6169299 -3.2908082 1.5564848 -0.9630657 0.9806316 -0.48333183 1.7801932
-2.061334 -1.0811046 0.39669234 -0.7063587 -0.46692044 1.053746 1.7947006 -0.33371857
-0.21614788 -0.3041675 0.3375298 0.73665106 -0.87396455 0.8316669 1.9018043 0.8362143
0.85334426 -0.7566745 0.7600758 -0.9609967 0.884893 0.8909848 0.6005928 -0.7296817
0.374923 -1.4585623 -2.1396868 0.2134351 -0.84646046 0.8000873 2.0866501 2.4803934
0.35170874 -0.06404917 2.1714134 2.3052726 -1.2821791 -0.52922195 0.025087979 -1.2798473
0.07482115 -0.84026396 0.1496542 0.4730071 -0.74405164 0.34212348 0.57496893 -0.7118311
0.05594249 -0.6205336 0.04926166 -0.45890933 -0.64990896 -1.5554845 1.3770965 -2.444545
0.87176335 -1.4003489 -3.1589022 -0.6072609 -1.0614985 0.616242 -0.32351738 -1.6558656
0.069480956 0.5074755 -0.78092945 -0.7576598 1.6800375 0.7245129 0.3896723 -0.61455274
-0.06897252 1.8775383 3.2417665 2.6843972 -1.0867414 0.44090825 1.1172875 0.5349932
0.893224 -2.8771167 -3.7391279 -0.17655598 0.050616845 2.3398585 -0.24452522 -1.0654304
-0.92791337 -1.2042686 1.1156743 -1.4992695 0.2458982 -0.55844796 -1.3281642 -0.44134766
1.1342518 -2.06413 0.674839 -2.0384593 0.61764055 -1.5396407 -1.5179571 1.8972328
3.0772855 -0.81176585 -0.6991361 -0.77784663 -0.28515524 1.2203012 -0.51584214 1.1317022
0.7832415 -0.31788072 1.7263072 -1.4178828 2.4778857 -0.81952786 2.0084608 -1.5409558
-0.17953226 -1.1080741 -0.31251976 0.79630363 -0.55143714 -0.30686617 -1.0516094 0.46177208
-0.015704492 -0.059794065 -0.86091226 -2.0149794 1.0561267 -1.3181539 1.7831889 0.37458512
1.5218921 0.23488156 -0.5654513 0.2895907 -0.022949617 0.34584576 -1.5587578 0.5726133
-0.44127306 0.4214945 -0.33454642 -0.15290412 -0.66827554 1.3599545 2.636101 0.38092104
0.72188437 -1.0032463 0.9984779 -0.6876824 -0.3496276 0.9149934 0.6973082 0.9469028
-1.0877687 0.74959695 -0.22076231 0.4637724 0.40389058 1.7910687 0.19686423 0.8893321
-0.4056843 -0.013672165 -0.37777913 0.5647581 -0.3928224 -0.121783204 0.7322033 2.1034918
-1.5019144 -1.5598156 -1.796691 0.70369023 0.742924 -0.09145402 1.2998484 1.0907313
0.46813792 -1.279674 -0.25592357 -0.22376089 -0.27196527 -0.20383188 -0.18047816 -0.41512236
0.39619297 2.5063643 0.35149696 0.07188327 1.2852237 1.0140643 -1.6650064 -1.437368

embeddings.11.weight f4 [1030, 4]
00000000: 901e b73f 497b d43f e69a 553f fc60 f13f
00000010: c588 ddbe 9fb6 3ebf c399 823f 6580 803f
00000020: fdf3 7f3f c3e7 69bf eb7b 69be 8611 99bf
00000030: 94b3 d9bf 91bd 143f d3bc 103f 6741 273f
00000040: b5ca 5a3f c887 a73e 2b83 3a3f 9051 bcbf
00000050: 16dc 2c40 1e4d a8bf 26a6 a23e 311c 683f
00000060: 5dfb 81be 5945 7bbf eb09 4b3f 173d 3b3e
00000070: 6958 3ec0 d692 453f fb63 d5bf 5395 8b3f
00000080: cdb8 0abf a72f 1bbe e60e 3bbd a1f1 033f
00000090: 0ae0 58bd 4764 1dbf a759 0bbf 8020 ab3f
000000a0: 35b9 00bf 4d21 0a40 572b 21be 0801 d03f
000000b0: c11d 3abf 3bad a1be 13c1 a13f 9725 3fbd
000000c0: bcef 0040 9216 cabf fd89 41be f21b 093e
000000d0: d564 20c0 06af fd3e 9b25 943e 6067 1c3f
000000e0: 1f23 adbf c48e fcbf 2b33 e13e 0e56 c83f
000000f0: d337 9abf 3060 08bf 71a5 9dbe 4cf3 7b3c
00000100: 13da 9cbf f3f3 8a3f d618 303f e615 86bf
00000110: ce9d 3c3e 6aaf c2be 991b 5bbf 2e15 7b3f
00000120: 4c9a 873f b329 d8be ed05 873f 4fb8 41be
00000130: 45b4 403f 31bf 25c0 3f4c be3f b6c0 7cc0
00000140: 7fa0 84be 99bd de3d 24d7 58bf e9c8 6dbe
00000150: 9828 553d 1c97 60be 1781 ad3e f317 11c0
00000160: 0a5e d2bf f20e b0bf f8c7 3b3f ec53 a0bd
00000170: d3c8 77bf a0da eebf 5804 acbf 0ca7 6fbf
00000180: 8bba b93e 1b98 a23e 544c c13e 44e4 103f
00000190: c9ea 0b3f c33d 75be 3265 783f e70f 2bc0
000001a0: a8f4 f7bf 0b01 88bf 5027 b3bf d0a3 f13f
000001b0: e30e dabf 27a0 e5bf 03b1 7bbe 7d42 41bf
000001c0: 07e5 b93f d4e6 d0be 9d80 863f bd06 8040
000001d0: c688 afbc 86d9 5b3f 43bb aa3f 174b 00bf
000001e0: 6ab3 223f 227d 783f 8652 03c0 83d9 2440
000001f0: 98fa 21bf f870 513e 1414 e23e cfed 72bf
00000200: 2805 27be 2837 d0be 6bb6 f63f da81 02bf
00000210: a19c ae3e 2397 90bf a00d 613d 61a3 0240
00000220: 6bb7 8cbf 6e85 863e 0b1f b6be 0d12 e93d
00000230: cfe7 603e ae71 993f 595d 50bf 9c27 83bf
00000240: 4097 433f 3d0f 5abf 4e31 993f 9e66 49bf
00000250: fec9 943f a7c7 9d3e 0827 30bf ecc5 10bf
00000260: b1da 223f 5393 b8bf 4550 02c0 15fc fdbf
00000270: 737e 9f3f 4691 20bc 26b9 b2bf 53c4 ac3f
00000280: e3d5 cc3f c586 ab3e 56b9 e53f 4607 b43f
00000290: 811d a33f 9ef9 ef3f f41c 113e 1819 c63f
000002a0: 0002 0340 73e4 a9bf 8414 873f 37a8 9d3f
000002b0: 24c6 e63f ce6c 9e3e 0422 6140 b67d 5c3f
000002c0: 8557 0d40 9100 aebe 0df7 bfbf 0db0 4d40
000002d0: 831d edbf d405 fabf 0913 f63f 0b86 2cc0
000002e0: dc52 d1bf 5355 77bf eea4 93bf 2082 90be
000002f0: f46f 0fc0 8116 193e 477e 24bf cb00 99bf
00000300: 451d 903f efeb 9e3f bf53 7abf a72f eebf
00000310: a298 ccbf bfdd 02bf 6cd6 143e f6b6 883f
00000320: f38f 7ebf e0f1 a1bf dc9f 67bf b45f c7bf
00000330: 9fed 113f 33d5 253f 2fc5 a73d 069a 923e
00000340: 29c1 933e 0530 e23f 4c67 a63f 4ab6 993f
00000350: 0172 febf 8d7d f5bf 4661 94bf cb99 ccbd
00000360: 323e 66bf c88a 353e 7ac4 02bf b360 8cbf
00000370: 6c7d e5bf 1abf a83f ed74 77bf b3b8 ec3f
00000380: 033b f53e 90bc 35be 790a b2bf 0a3e bf3d
00000390: 0ee5 c03f bf45 b03e 354d 49bf feec 1f40
000003a0: f8ff 4b3f 8232 64bf b6d7 15c0 7916 c9bf
000003b0: 0f56 1f3f cc9e b8bf 5124 083f 4d79 983f
000003c0: 3a39 af3f a936 683f 3294 413f 7449 43bf
000003d0: 6e35 72bf fdee 8a3f 4058 44bf 5a45 b73f
000003e0: 380a bb3f 1773 ed3f d4bd a5bf d0a1 dabf
000003f0: 6a7c b4bf 6317 1ec0 cdce f53f 3941 9a3f
1.4306202 1.6600124 0.8343948 1.8857722 -0.4326841 -0.7449741 1.0203174 1.0039183
0.9998167 -0.91369265 -0.22801177 -1.1958473 -1.7007928 0.58101755 0.5653812 0.6533417
0.85465556 0.3272078 0.72856396 -1.4712391 2.700933 -1.3148534 0.31767386 0.90668017
-0.25387087 -0.9815269 0.7931201 0.18285023 -2.9741461 0.7717718 -1.6671137 1.0904945
-0.54188234 -0.15154897 -0.045668505 0.5154057 -0.052948035 -0.61481136 -0.54433674 1.3369293
-0.50282604 2.1582825 -0.15739189 1.6250315 -0.7270165 -0.31577477 1.2637047 -0.046666708
2.0146322 -1.5788138 -0.18900295 0.13389567 -2.5061543 0.49547595 0.2893494 0.6109524
-1.3526343 -1.9731069 0.4398435 1.5651262 -1.2048286 -0.5327177 -0.30790284 0.015377831
-1.2254051 1.0855697 0.68787897 -1.0475433 0.18419573 -0.38024455 -0.85588986 0.9807919
1.0593963 -0.42219314 1.0548683 -0.18917964 0.7527507 -2.5897944 1.4867018 -3.9492621
-0.259037 0.10876007 -0.8470328 -0.23221172 0.052040666 -0.21932644 0.3388755 -2.2670867
-1.6434948 -1.3754561 0.73352003 -0.07828507 -0.9679081 -1.8660469 -1.3438826 -0.9361427
0.36275133 0.31756672 0.37753546 0.56598306 0.5465513 -0.23949341 0.9702941 -2.6728456
-1.9371538 -1.0625318 -1.3996372 1.8878117 -1.7035793 -1.79395 -0.24579243 -0.7549208
1.4523019 -0.40801108 1.0508 4.0008225 -0.021427523 0.8587879 1.3338398 -0.5011458
0.63555014 0.9706594 -2.0519118 2.5757759 -0.63273 0.2045325 0.44155943 -0.9489412
-0.1631056 -0.4066708 1.927442 -0.5097939 0.34103873 -1.1296123 0.054944634 2.0412219
-1.0993475 0.26273674 -0.3557056 0.11380396 0.21963428 1.1987817 -0.8139244 -1.0246463
0.76402664 -0.851795 1.1968172 -0.78672206 1.1624143 0.30816385 -0.68809557 -0.56552005
0.63614947 -1.441996 -2.0361493 -1.9842554 1.2460464 -0.009800261 -1.3962753 1.3497413
1.6002773 0.33501258 1.7947185 1.406472 1.2743379 1.8748052 0.14171201 1.5476408
2.046997 -1.3272842 1.0553136 1.231696 1.8029218 0.30942386 3.5177011 0.8612932
2.2084668 -0.33984807 -1.4997269 3.2138703 -1.8524631 -1.9533029 1.9224559 -2.6956813
-1.6353412 -0.9661457 -1.1534708 -0.28224277 -2.241208 0.14949991 -0.64255184 -1.1953367
1.1258932 1.2415751 -0.97784036 -1.8608292 -1.598408 -0.5111961 0.1453492 1.0680835
-0.994384 -1.2651939 -0.904783 -1.5576081 0.57003206 0.6477844 0.08191907 0.28633136
0.28858307 1.7670904 1.3000274 1.2008755 -1.9878541 -1.917894 -1.1592185 -0.09990271
-0.8993865 0.17728722 -0.5108105 -1.096701 -1.7928901 1.318332 -0.9666279 1.8493866
0.47896585 -0.17747712 -1.3909446 0.09338005 1.5069902 0.34428212 -0.78633434 2.4988399
0.7968745 -0.8913957 -2.341291 -1.5709983 0.6224069 -1.4423461 0.53180414 1.1912018
1.3689339 0.90708405 0.75616753 -0.76283956 -0.9461278 1.0854183 -0.7669716 1.431804
1.4612494 1.8550748 -1.2948556 -1.7080631 -1.4100468 -2.4701774 1.9203736 1.2051154

embeddings.12.weight f4 [7, 4]
00000000: 3bdd 013f f621 e63e 5897 96bd 3593 9cbe
00000010: d799 a63e 26e8 41bf f726 c6bd 87bb afbe
00000020: fc5a fabe 0fd8 cebd 2cf3 21bd dd06 453f
00000030: ec03 9ebf 9ece 4f3f 2d1b 74bf d579 ae3f
00000040: 8de4 abbf a73f b6bf c399 f63f b4cc 08bf
00000050: 666c d5bf 4810 8d3f ac83 f63f 3442 67be
00000060: d933 3dbf 3f8c 0540 00f5 41bf d9d8 163e
0.50728196 0.44947785 -0.07353085 -0.3058106 0.32539245 -0.75744855 -0.09675401 -0.3432276
-0.4889754 -0.10099804 -0.039538547 0.769636 -1.2344947 0.8117465 -0.95353967 1.363093
-1.3429123 -1.4238175 1.9265674 -0.5343735 -1.6673706 1.1020594 1.9258933 -0.22583848
-0.7390724 2.086685 -0.75764465 0.14731158

embeddings.13.weight f4 [7, 4]
00000000: 9e0a 803e 92c8 9f3f 9a4f a5bf 4c8a e6bf
00000010: 660a bebe ac44 a63f 3f00 bdbf 142d f33f
00000020: 0bfc 9e3f 27bd 523f 8912 c4bd 8d2d 2e3c
00000030: 27d3 1e3f 6b00 e3be 0482 283f c74f a8be
00000040: 19f1 b7be ead9 37bf 4c10 b7bf b8b8 683f
00000050: 09ea 563f 80d5 d2bf 682f ee3e ebfc 283f
00000060: 68df fa3d 0866 6c3e f1aa 44bf 4365 3a3c
0.250081 1.2483084 -1.2914917 -1.8010955 -0.37117308 1.2989707 -1.47657 1.8998132
1.2420667 0.82319874 -0.09573848 0.010630977 0.6204094 -0.44336256 0.6582339 -0.32873365
-0.3592613 -0.71816885 -1.4301848 0.9090686 0.8395086 -1.6471405 0.46520543 0.6601092
0.122496426 0.23085797 -0.76823336 0.011376682

embeddings.14.weight f4 [7, 4]
00000000: d29b 28c0 2bbd 37bf 8803 a03f 5250 c9be
00000010: ac86 163f 51de eabe aa68 e2bf 55bc 8c3f
00000020: 3a2e fdbe 961c d6be e26d 0ebf de2e 993e
00000030: d85f d33d 9396 32bf b89b 53bf 049f 20be
00000040: ab6b 17bf 6d62 b8be bc51 863f 633b ae3d
00000050: 3054 1ebe e701 8e3f cefd ddbe 5507 973e
00000060: 314e 653f 1810 193f 3235 0abf 1bff a6bf
-2.6345105 -0.7177302 1.2501078 -0.39319092 0.5879924 -0.4587274 -1.7688191 1.0994974
-0.4944933 -0.41818684 -0.5563642 0.2991857 0.10321015 -0.6976101 -0.8265948 -0.1568566
-0.59148663 -0.36012593 1.0493693 0.08507421 -0.15461802 1.109433 -0.433577 0.2949778
0.89572436 0.5979018 -0.5398742 -1.3046602

embeddings.15.weight f4 [6, 4]
00000000: ef87 a1bf 96f8 85bf 178d f1bf ee96 6ebf
00000010: ac38 93bf ccbc b73f 470f 30bf 0189 c83e
00000020: 062e 7c3e a05e 403f c58b 633f a8c4 373f
00000030: 54e9 a13f 9a47 5b3f e2e6 fd3f 3505 5140
00000040: 603d 3b3f dbc8 673f 0dba a33f 8369 f93f
00000050: 4353 0bbf e742 f3bf 00f5 c03e afe3 b53f
-1.2619609 -1.0466487 -1.8871182 -0.9319905 -1.150167 1.4354491 -0.6877331 0.39167026
0.24626932 0.75144386 0.88885146 0.7178445 1.2649331 0.8565613 1.9836085 3.2659428
0.73140526 0.90540856 1.2791153 1.9485325 -0.5442392 -1.9004792 0.3768692 1.4210109

conv_layers.0.weight f4 [16, 1, 3]
00000000: 4728 b93c 4592 be3d 92ce a33f e347 93be
00000010: 1115 163f a880 943d 58e7 e6be e320 fb3e
00000020: 8693 8ebe 1a29 bfbe 0f3d c5be 44a4 96be
00000030: 9f46 f3bc 5c49 0cbf b823 ccbe 4cb4 babc
00000040: 220e 233e 3f1a 4ebf f35a 623c 6378 90bf
00000050: 827e 7b3e ad86 073d 4287 29bf 42c2 a73e
00000060: d43a 853d cfc1 5dbf 4a75 813e a2e4 d03e
00000070: d8c0 0bbf 2cce 95be b4e1 2b3f 66a4 f93e
00000080: 8b30 7fbe 615f df3e d195 c0be 03c2 36be
00000090: cb94 2a3f b1c9 123e cae9 5abe d4d1 b53c
000000a0: ad84 4bbf 561d 17bf 4ede db3c 91ef 023f
000000b0: 4617 243f 2980 03bf 83b7 0b3f 1d8c fc3d
0.022602214 0.093052424 1.2797415 -0.28765783 0.58625895 0.07251102 -0.45098376 0.49048528
-0.27846926 -0.37336046 -0.38523147 -0.294222 -0.02969676 -0.5479944 -0.39871 -0.02279105
0.1592336 -0.805088 0.013815629 -1.1286739 0.24559978 0.03308742 -0.6622201 0.32765394
0.06505361 -0.86623853 0.25284797 0.40799433 -0.5459113 -0.2925886 0.6714127 0.4875824
-0.24920861 0.43627456 -0.376143 -0.17847447 0.6663329 0.14334752 -0.21378246 0.02219478
-0.7949932 -0.5902914 0.026839402 0.511468 0.6409801 -0.5136743 0.5457689 0.12331412

conv_layers.0.bias f4 [16]
00000000: 8d9e 973d fb79 9c3e 2127 633e c2bf 01bf
00000010: 147e a9bd 931a d1be b9cf f9be 8753 c5bd
00000020: 87c3 f7be 7982 e1bd e58e b2be b257 133d
00000030: 6828 323d 0094 61bd 8cf9 0abf 2d34 a6be
0.07403288 0.30561814 0.22182895 -0.50683224 -0.082760006 -0.40840587 -0.48791292 -0.09635072
-0.48391363 -0.11011214 -0.34874645 0.035972305 0.043495566 -0.055072784 -0.5428703 -0.32461682

conv_layers.1.weight f4 [32, 16, 3]
00000000: f211 34bd b647 9f3e 2b7b 903e 4966 25bc
00000010: f152 e73e 54ed 1b3e df88 6f3e b92d c6bd
00000020: e6cd 343d 25b7 e7bb acec 05bf baef 3f3d
00000030: a757 723e 46cf 27bf 85f5 04be a46c ba3e
00000040: 9726 0f3e cc48 f7bc aa74 633e 074e 26bf
00000050: f7ff c3be db4e c73c 1a60 80be 8153 91be
00000060: b509 083e fbe4 32bf 5b0d a5be a063 413e
00000070: be56 21bf 1f65 fa3d 3588 d9bd 52b4 db3e
00000080: c5b7 37be eb5c 2c3e 2d1e 52bf 7e8b 6b3e
00000090: c99a cbbc 0133 2f3e 0be0 f3bd 501f de3e
000000a0: a7bd 19bf 4bf8 71bc fd48 64be 9e0d f83e
000000b0: 85b1 e53e a1e9 5abb 1635 263d e6da 3abe
000000c0: 0026 dabd 7270 33bf 7e7b d4bc d691 6b3d
000000d0: 81a1 293d 7c5d 57be 4dcf 4ebd a975 a6bd
000000e0: 69e6 40be 7e0f aa3d 9759 0a3d 4891 d5be
000000f0: f55d a0bd d58e 98bc 16b0 21bf 63ae b2bc
00000100: 5f0b 57be cf73 4b3d 3143 f83c 25cf 20bd
00000110: 5a0a c4be 7476 353c ce4c b5bd 5b9c 82be
00000120: 203f a5bc 40d3 30be 3aa6 cabe bf37 693e
00000130: 751d 18be 1b7a bebe 0780 30bb 1489 893b
00000140: 3143 9abf 24d6 adbd 9f93 eabd 6787 76be
00000150: 80f3 3d3d 9e00 52bc 027d b4bf 43b4 45bd
00000160: 0c23 083e 651c eebe 6fd3 073e d6cd 42bf
00000170: 57ff 56be d0b7 ab3d 7d10 f5be 73c8 99bf
00000180: 39b3 883e ff50 983e ba6d 05be 740e a33e
00000190: fbe2 993e 4a8a 98be c594 a2bd 7c45 7dbe
000001a0: ca23 f9bb 5fad afbd ea2f 41be 67b7 503d
000001b0: f232 25be 281d 8ebd 6c91 a83c 1d26 823e
000001c0: a3d9 803e 5427 0ebe 0789 27bd 3c41 36bf
000001d0: 51c4 823e 7dd1 42bd 1a30 6dbf 726e ac3e
000001e0: 2715 84be 5800 7ebf 3651 3a3e e0de 053e
000001f0: 3250 debe e22a ea3d 4e14 893e 335b f53e
00000200: d63f 723e 6d6b a5bc c57d bdbe 724a 50bc
00000210: 4262 813e 7100 373e d959 923e 59f5 80be
00000220: 872b 623c 2168 123d 3dfc 683e a143 103f
00000230: 66c7 15bf 8a77 aabe dcb7 2a3e 977e c0bd
00000240: aac3 d63d 2c84 64bf 5e0f adbd 0e05 fdbd
00000250: 406f 5dbd 7483 18bf 78e8 13bd d909 7c3d
00000260: 494b 64be fc6b 7b3e 0aaf 9dbd 9ab1 0e3e
00000270: 961b 6c3e ce5b 663d f9f1 c43b 5dab 83be
00000280: 31a5 aabe 782b 1bbd 8374 b2bd aa21 19bd
00000290: f538 18be 08c0 37bd 450a 463c 46ae c0bd
000002a0: b0fc bcbc 5655 1c3d ebfb 3abe d6b2 1a3e
000002b0: 492d 673e a8c8 aebe 28ca 13be 03af 393d
000002c0: 5283 82bf 2085 003e 729b 353d a747 0bbf
000002d0: 60a6 21bd 5eaf 203e 498f a9bf 5037 3a3e
000002e0: da7e 073f 37b0 9a3d 0ec9 f63d ed86 92bf
000002f0: 34dd 75be f71d 853d b42f 06bf aa62 9bbf
00000300: f466 a1be 7b6c a8be 1b73 47bf 5ba3 eebd
00000310: 3256 cbbe 41bf acbe 71b8 8cbe c7ad 603d
00000320: e7d5 b53e ffd5 03bf dfe7 6a3e 0fe0 8b3c
00000330: ab58 f7be be09 7abd 74e9 f03d bd09 093e
00000340: 23a6 6bbe ceb2 c33e bb27 f33d 7d85 ec3d
00000350: 6ab6 09be 8047 1ebe a3f4 35be 29c2 66be
00000360: d8a6 f2bd 422f 8ebe 240a dfbe 8811 23be
00000370: 64ef 3dbd 59ae 523e 9425 9dbe eaee 4fbf
00000380: 3d68 02bf e725 e2bd c8b4 ac3d 5a72 8b3c
00000390: bcd3 0bbe 2b88 f1be 4a71 53be 8191 d53d
000003a0: 4de5 c83c 5422 fa3d f519 9cbe f9cf 4ebf
000003b0: 6037 24bf e4f1 b9bd 9ea8 53bf 1dce 19bf
000003c0: c669 3dbe 5be2 01be fead f63c cd9e e7bd
000003d0: c43a af3d 5a14 5bbf f1b2 813b da62 4d3e
000003e0: dae3 01bf 68eb d73d 5e9a 22bf b4f1 cb3c
000003f0: 6a84 a03d 8c7d 60bf f39a 1e3e 3bcf 02be
-0.043962426 0.311094 0.2821897 -0.010095187 0.45180467 0.15227252 0.23392056 -0.0967669
0.044141673 -0.007071393 -0.5231426 0.04685948 0.23666249 -0.6555065 -0.12984283 0.3641101
0.13979565 -0.03018608 0.22212473 -0.6496281 -0.38281223 0.024329593 -0.2507332 -0.2838402
0.13284953 -0.69880646 -0.32236752 0.1888566 -0.63022983 0.122263186 -0.106216826 0.4291101
-0.17941196 0.1683232 -0.82077295 0.23002431 -0.02485408 0.171093 -0.11907967 0.43383265
-0.6005501 -0.01476867 -0.22293468 0.4844789 0.44862 -0.0033403414 0.04057797 -0.18247566
-0.10651779 -0.7009345 -0.025937792 0.057512127 0.041413788 -0.21031755 -0.050490666 -0.08127911
-0.18837894 0.08303736 0.033776846 -0.41712403 -0.07830421 -0.018622795 -0.6315931 -0.02181167
-0.21000431 0.04967099 0.030305477 -0.03926005 -0.38289148 0.011075605 -0.0885254 -0.25509915
-0.020171702 -0.17268085 -0.39579946 0.22775172 -0.14854987 -0.37202534 -0.002693178 0.004197249
-1.2051755 -0.0848811 -0.11453938 -0.2407509 0.046374798 -0.01281753 -1.4100649 -0.048267614
0.1329462 -0.46506038 0.1326425 -0.7609533 -0.20995842 0.08384669 -0.47864142 -1.2014297
0.26699236 0.29749295 -0.13030139 0.31846964 0.30055985 -0.29793006 -0.07938532 -0.24733537
-0.0076031433 -0.0857799 -0.18865934 0.050956156 -0.16132715 -0.06939155 0.020577155 0.25419703
0.25166044 -0.1388219 -0.040902164 -0.7119329 0.25540403 -0.047563065 -0.9265152 0.33678013
-0.25797388 -0.99219275 0.18195042 0.13073301 -0.4342056 0.114339605 0.26773304 0.47921142
0.23657164 -0.020192826 -0.37010017 -0.012713062 0.25270277 0.17871262 0.28584173 -0.25187185
0.013804323 0.035743836 0.22752471 0.56353194 -0.5850738 -0.33294326 0.166717 -0.09399145
0.10486539 -0.8926418 -0.08450197 -0.1235448 -0.054061174 -0.5957558 -0.03611037 0.06153283
-0.22294344 0.24552912 -0.07699402 0.13934937 0.23057398 0.056239896 0.0060102907 -0.25716677
-0.33329156 -0.037883252 -0.08713629 -0.03738562 -0.14865477 -0.04486087 0.012087409 -0.0940824
-0.02306971 0.03816732 -0.18260162 0.15107283 0.22575869 -0.34137464 -0.14432585 0.04533292
-1.0196326 0.12550783 0.044337697 -0.5440621 -0.03946531 0.15691897 -1.3246852 0.18185163
0.52927935 0.075531416 0.12050067 -1.1447426 -0.24010164 0.06499856 -0.5241654 -1.2139485
-0.3152386 -0.32895264 -0.7791001 -0.11652251 -0.397142 -0.33739665 -0.27484468 0.054853227
0.35514757 -0.5149841 0.22940014 0.017074613 -0.48309836 -0.061044447 0.11763278 0.13382621
-0.23012595 0.38222355 0.11872812 0.11548898 -0.13448492 -0.15456963 -0.17769103 -0.22535004
-0.11848229 -0.2777043 -0.43562424 -0.15924656 -0.04637088 0.20574321 -0.30692732 -0.8122393
-0.50940305 -0.110423855 0.08432919 0.0170223 -0.13654989 -0.471742 -0.20648685 0.10428143
0.024523402 0.12213579 -0.30488554 -0.8078609 -0.64146996 -0.0907934 -0.82679164 -0.6008013
-0.1849738 -0.12684004 0.030112263 -0.11309586 0.085561305 -0.8557793 0.003958099 0.2005724
-0.507383 0.10542947 -0.63516796 0.024895526 0.07837756 -0.8769157 0.15488796 -0.12774365

conv_layers.1.bias f4 [32]
00000000: e9c5 ffbc 7812 b8bd 77a0 6ebd fe28 823d
00000010: e8e0 a2bc cc34 043d 8bfc 713d 706f 133d
00000020: c36c d7bd a731 d63d 0644 833d f7bb e1bd
00000030: 4864 0cbe d71d 2f3d e56c 0c3e 12ab 9abc
00000040: ceae 283c 65ac e0bc 2f50 4f3d cb20 65bd
00000050: 4502 18be f470 f23d f881 e4bd 6923 f73d
00000060: a167 033e 61ae 173d 80cf efbc e9ba 0d3e
00000070: 0012 32bd 9511 f03c a77e 6f3d 38a6 3bbd
-0.0312223 -0.08987898 -0.0582585 0.06355475 -0.019882634 0.032276914 0.059078734 0.035994947
-0.105187915 0.10458689 0.06409459 -0.110221796 -0.1371013 0.042753067 0.13713415 -0.0188804
0.010295583 -0.027425954 0.05061358 -0.055939477 -0.14844616 0.1183795 -0.11157602 0.12067301
0.128325 0.037031535 -0.029273748 0.13840832 -0.043474197 0.029305259 0.058470394 -0.045812815

bn_layers.0.weight f4 [16]
00000000: ee14 343f 3b94 533f 9b04 5f3f 8e84 8b3f
00000010: 3948 9e3f 9a8b 8b3f 80fc 7e3f e943 793f
00000020: 2b1b 723f 66bc 6a3f 27f3 413f fca8 523f
00000030: bf6b 4c3f 9f36 883f 97c0 663f cfcd 833f
0.70344436 0.82648057 0.871164 1.0899827 1.2365791 1.0901978 0.99604034 0.9736925
0.94572705 0.91693723 0.75761646 0.822891 0.7985191 1.0641669 0.9013762 1.0297183

bn_layers.0.bias f4 [16]
00000000: 5828 19be 091e 9cbe 9a74 babe 7983 5abf
00000010: 291e 3cbf 48eb 29bf 282b 0bbe 3d55 12be
00000020: bce4 59be bb4c adbe b1fc 90be edd1 9bbe
00000030: b0a0 b9be 5533 0bbf cfab 3cbf 5c63 61bf
-0.14956796 -0.30491665 -0.36417085 -0.8535686 -0.7348352 -0.66374636 -0.13590682 -0.14290328
-0.21278661 -0.33847603 -0.28317788 -0.30433598 -0.36255407 -0.543752 -0.7369966 -0.88042235

bn_layers.0.running_mean f4 [16]
00000000: d10b 39bb 20fa 903e ee94 6f3e c7d7 e3be
00000010: 4adc d0bc c9d6 bebe 2e4d debe 0fc7 9bbd
00000020: 6523 e6be 0a5f afbd bd3d cfbe 8417 2d3d
00000030: 999c dd3b dca8 bf3c 5823 1cbf 2fd4 aabe
-0.0028235803 0.2831583 0.23396656 -0.44500563 -0.025495667 -0.37273243 -0.43418258 -0.07606327
-0.4494888 -0.08563049 -0.4047679 0.042258754 0.0067630527 0.023395948 -0.6099143 -0.33365008

bn_layers.0.running_var f4 [16]
00000000: 7011 c93f e139 c63e 3cff e23e 8bcb cb3e
00000010: b88e f13e 41d0 1d3f 4e07 9c3f 114e f63e
00000020: 837c 3b3f ca5a 003f dd25 3a3f 2e06 a53e
00000030: 401f f53e d0ed 7e3f 3c99 303f ad9c 013f
1.5708447 0.38716033 0.44335353 0.39803728 0.47179198 0.61645895 1.2189729 0.48106435
0.73236865 0.50138533 0.72714025 0.32231277 0.47875404 0.99581623 0.6898382 0.50629693

bn_layers.1.weight f4 [32]
00000000: 8f6a 9e3f e456 933f da94 813f f71e ae3f
00000010: e350 7a3f 1767 b13f cd0f 643f 146b 893f
00000020: 3a7a 9d3f 10fb 6f3f 6150 9d3f 862c 333f
00000030: 41fd b53f e70b 483f af1b e33e 248d 573f
00000040: c66e 693f 8caa 873f 33cf 753f 3dd1 7a3f
00000050: 6c7c 513f 7cc8 813f b066 683f 009f 8a3f
00000060: d259 7b3f 3bf4 a53f 4714 803f c6ce 963f
00000070: caa9 323f 83b1 713f 5ef1 983f ad62 8b3f
1.2376269 1.1510892 1.0123551 1.36032 0.97779673 1.3859586 0.8908661 1.0735803
1.2302926 0.93742466 1.2290155 0.6998981 1.4217912 0.7814316 0.44357058 0.8419974
0.9118465 1.0598922 0.96019286 0.9797552 0.8183048 1.0139308 0.9078169 1.0829773
0.9818393 1.2965158 1.0006188 1.1781852 0.6979033 0.94411486 1.194866 1.0889488

bn_layers.1.bias f4 [32]
00000000: 86e7 d9be 19b5 01bf 50d2 08bf 1e93 04bf
00000010: 3d7c c4be f965 37bf 792b 8fbd cf4c 03bf
00000020: b2fd 90be 7d38 7abe 48f7 c1be b59a 413e
00000030: 6e64 1cbe 1e0f 11be bc13 41bd e902 f4bc
00000040: 92e5 8dbe 6e40 a9be 9fcc 76be 68d0 5dbe
00000050: e234 8bbe b9b2 09bf 5d4e 6fbe 2592 85be
00000060: 22be 1ebe bb2e 17bf 36d3 d4bc 3b45 44be
00000070: fd66 81bd b2ce 1abe 4d42 f7be 6548 0dbf
-0.4255945 -0.5066696 -0.5344591 -0.51786983 -0.38376036 -0.7163997 -0.069907136 -0.51289076
-0.28318554 -0.24435611 -0.37883973 0.18906672 -0.15272686 -0.14165923 -0.04713796 -0.029786544
-0.2771421 -0.33056968 -0.24101494 -0.21661532 -0.27188784 -0.53788334 -0.23369737 -0.26088062
-0.15502217 -0.5905568 -0.02597962 -0.19167034 -0.063184716 -0.1511791 -0.4829277 -0.5518859

bn_layers.1.running_mean f4 [32]
00000000: 3813 87bf c50b 4fc0 3b96 64bf a35f 06c0
00000010: 2a75 39c0 0258 c9bf 7802 803f 394a d3be
00000020: c3ac 14c0 e10a 9cbf ce57 2abf 3809 4f3f
00000030: 78b1 a3bf c504 6c3f 8e4a 7e3f ed60 693f
00000040: 2985 4b3d 5e43 9dbf 707b 0a3f 30fc bc3d
00000050: 82c8 4e3d 0a88 60c0 3760 a3bf b658 3ebf
00000060: bdf1 493f 123c 92bf dab9 8f3e d10b 18c0
00000070: 47e3 2c3f 5601 6140 3e09 f4bf afb5 4cbf
-1.055274 -3.2350934 -0.89291734 -2.0995872 -2.8977761 -1.5729983 1.0000753 -0.41267565
-2.3230445 -1.219082 -0.6654023 0.8087344 -1.2788534 0.9219478 0.9933251 0.9116352
0.04968754 -1.2286184 0.540946 0.092277884 0.050484188 -3.5083032 -1.2763737 -0.7435411
0.7888449 -1.1424582 0.2807148 -2.3757212 0.675343 3.5157065 -1.906532 -0.7996473

bn_layers.1.running_var f4 [32]
00000000: 36d0 ac40 f34b c840 552b 9440 820a e840
00000010: 83a3 8440 b33f a340 4c59 6740 41d1 4240
00000020: 69cd eb40 c978 8540 31a8 6d40 ee29 8740
00000030: 2b9b c540 60c0 4e40 15d3 0440 fb23 a040
00000040: 8c22 8d40 a66d 6a40 f6c8 8140 12d7 4940
00000050: 7271 5440 1b92 e440 1fe2 5640 b803 9340
00000060: cfb7 a240 289f 8140 c376 b040 4b9d ac40
00000070: 1505 1640 df2d 7140 e3c9 f440 edb1 8a40
5.4004164 6.259271 4.6302896 7.2512827 4.14496 5.101526 3.6148252 3.0440218
7.3688245 4.1709943 3.7133906 4.2238684 6.1751914 3.2304916 2.0753834 5.004392
4.410467 3.6629424 4.0557814 3.1537519 3.3194242 7.142835 3.3575513 4.594204
5.0849376 4.0506783 5.5144973 5.394201 2.3440602 3.7684247 7.6496444 4.3342195

final_conv.weight f4 [64, 32, 3]
00000000: e18e 4abf 6930 303e f292 c3be b046 083e
00000010: 3e6c aebd efef 323d 2a6d 1dbf a975 a1be
00000020: 3371 393d c237 a93d 9065 cbbc 147d ea3d
00000030: aebd c53e 3587 5dbe 9242 073f 5a9e ddbe
00000040: 6969 00bf f0a1 903e cd43 653c 460e 8e3d
00000050: 3d1c e8bd 2fde 04be 03ec 773e 03ee 6ebe
00000060: 5941 0abf 9698 423e 3792 9fbd 547e a5be
00000070: e068 c7be 6678 723e afd3 09bf ba51 76bc
00000080: 70a5 0ebd e254 083d 023e 0d3e 0a5e 6b3c
00000090: 88c5 61bd 75eb d03d b06d 81bd 3768 073d
000000a0: f8be 54bf 376f 513e 422f efbc d46e a83e
000000b0: f7ca adbb d445 fabc fdc1 923b 918c 723d
000000c0: 5261 953e d4a3 a33e d602 9d3b 2166 29bf
000000d0: 4ab3 adbc 69bb cd3e 5cc1 2dbf 9c01 f03b
000000e0: 5829 6f3e 16a5 d2be 88e1 7abe aed0 94be
000000f0: 86cd febe e6c5 23be 4b28 5d3e d777 8c3e
00000100: 5ac2 2dbe 96f4 4e3d e726 093b 54ba d9be
00000110: b017 cc3d 30a4 e3be 4ab9 373e fbd5 9fbe
00000120: 72f9 bfbd 6a4a 43bf 8be9 213e d36f babe
00000130: 0b33 cd3e 4165 85be e9f3 68be ec26 82bf
00000140: 9df6 13be 5e24 33be 5bad 4c3e 0594 a93d
00000150: 7c12 c8be 6b70 593d fe84 efbd 6536 0fbe
00000160: 4800 6a3e b647 4abe 4870 36bf 47be b53e
00000170: e37b d7be 7ca8 cabe e6ba 23bd 6059 083e
00000180: 2fb8 973e 26c4 a0bc 170c 253e 4f23 4c3e
00000190: 67e0 1b3e 05c9 48bf 3a27 21bd 183e efbd
000001a0: 5c6d d63d 891e 84bd 0b82 173f 3c62 37bf
000001b0: 825d 693e a1f1 5c3e 5ecf 96be 305f f3bd
000001c0: 1ff4 d4b9 e76c 013f ff32 29bf 812d 353e
000001d0: 4ce1 a9be cd2c a3bc 7e50 483e 7e8c 4f3e
000001e0: f6b7 55bd acd8 1a3c cc6b 023f f729 45be
000001f0: 063d 993e 3e4e 79bf f1d1 0e3e 1dc1 22be
00000200: 5f49 933e 8640 70be 6233 c03d 8422 7cbc
00000210: c91f 04bf 4e91 743d 32eb 6ebf 86d4 82bd
00000220: b0f1 253d ab94 04bf 891a 85be 4e5f ac3d
00000230: 8ac0 a03d d5bd 08bf c2b5 ad3b 0b14 8ebd
00000240: 20e4 d6be 173b 813e 1b65 e53d 50fd ca3e
00000250: 6968 a73e f62e 95be ea15 28be 356f 083e
00000260: e5ba 3c3e 9234 d6bd 0972 4abe e51a 70be
00000270: f3cb 3dbf 1099 e1bd 7727 b1be 9cd2 033f
00000280: bae6 c0be 7171 7e3e 7808 0abb fc09 053d
00000290: 7f94 19bf 0e97 5bbe dcac 9ebe 9dd0 963e
000002a0: 4186 6ebe e41f 183d 0071 6abf ce10 f5be
000002b0: c2e7 923e 275e db3e 5b21 f2bd 946f a5be
000002c0: 7459 2ebf c7a9 8a3d 18c6 88be 2756 adbd
000002d0: ac42 273e 73ec 8d3e d9cf 7bbd 703a 54bc
000002e0: 5068 b4bd 66d6 f1bc 64e4 c93d a247 a13b
000002f0: 0306 d33e 61a9 3c3e 1b8d 52bd d993 483e
00000300: d125 6dbb e2f9 b3be 7cdc a0bd 335b 66be
00000310: d76d b4be 4e7c 6c3e ed4d 71be 682f 84be
00000320: 7485 efbd 2ff6 dfbe d69c 15bf c974 483e
00000330: ab5e c4be 6d55 7abd bde7 f93e 8d5b b4be
00000340: da8d 61be 8b2b 923d 95e2 0cbb 936d b2be
00000350: 6ebb 93bc cdd5 a33d 3446 123f 020d d33d
00000360: ffc8 d13d bdd9 0ebf cc8f 833e 19d0 5c3b
00000370: 219f 0ebf 1579 4f3d 3b5e 12be 185d 4dbc
00000380: d75f df3d 4b96 45be 80ce 51bf 6614 fd3d
00000390: 53f6 d2be f1bf 0fbf 1f27 413d 2462 783e
000003a0: f3a1 17bf fe6b 473e 238f 2dbe 4746 e63d
000003b0: 43e2 1fbe 5398 a13d 7a05 e7be 5e19 973e
000003c0: 5bef 1abf cebf 4bbf fa5c 10be 1312 b33e
000003d0: ff0e cabd fc28 b33d 7858 71bd 380f 613d
000003e0: ae45 ad3c db36 733e 9e45 023d 67ca 83bd
000003f0: ca88 d73e eb11 88be 9791 1fbe 83b8 83be
-0.79124266 0.17205967 -0.38198048 0.13308215 -0.08516739 0.04368585 -0.61494696 -0.3153508
0.04527397 0.08262588 -0.024828702 0.11449638 0.38621277 -0.21633609 0.52835953 -0.43284875
-0.50160843 0.28248549 0.013993216 0.06936316 -0.11333511 -0.12975381 0.24211125 -0.23332982
-0.5400596 0.1900352 -0.0779156 -0.32322943 -0.389472 0.23678741 -0.5383863 -0.015034134
-0.034825742 0.033284076 0.13793185 0.014365682 -0.05512002 0.1020116 -0.06319749 0.03305837
-0.83103895 0.20452581 -0.029197339 0.32897055 -0.0053037363 -0.030550875 0.0044786916 0.059216086
0.29175812 0.31960928 0.004791598 -0.6617146 -0.021203656 0.40182045 -0.6787317 0.0073244106
0.23355615 -0.41141576 -0.24500096 -0.2906546 -0.49766177 -0.15993461 0.21597402 0.2743518
-0.1696867 0.050526224 0.0020927729 -0.4252497 0.099654555 -0.44461203 0.17941776 -0.31217942
-0.0937375 -0.7628542 0.15811746 -0.3641344 0.40078005 -0.26053813 -0.22749294 -1.0168128
-0.14449544 -0.17494342 0.19988005 0.082801856 -0.39076602 0.053085726 -0.11695288 -0.13985594
0.2285167 -0.19753918 -0.7126508 0.35496733 -0.42086706 -0.39581668 -0.039973162 0.13315344
0.29632708 -0.01962478 0.16117893 0.19935344 0.15222321 -0.7843173 -0.03934405 -0.11681765
0.104700774 -0.064511366 0.59182805 -0.7163427 0.22789577 0.21576549 -0.29455084 -0.1188339
-0.00040617675 0.50556797 -0.6609344 0.1769314 -0.331797 -0.019918824 0.19561955 0.20268437
-0.052177392 0.009451073 0.50945735 -0.1925429 0.2992937 -0.97385013 0.13947274 -0.1589398
0.28766915 -0.23462114 0.093848005 -0.015389089 -0.51611 0.059708886 -0.9332763 -0.06388192
0.040513694 -0.5178935 -0.25996807 0.084166154 0.07849224 -0.5341466 0.0053012082 -0.06937417
-0.4197092 0.25240394 0.11200925 0.39646387 0.32696846 -0.2913739 -0.1641461 0.13323672
0.1843067 -0.10459246 -0.19770063 -0.2344776 -0.74139327 -0.110155225 -0.34600422 0.5149324
-0.3767603 0.24847962 -0.0021062177 0.032480225 -0.5999221 -0.21444342 -0.30991256 0.29456034
-0.23293401 0.03713979 -0.91578674 -0.47864383 0.28692442 0.4284527 -0.11822768 -0.3231169
-0.68105245 0.06770664 -0.26713634 -0.08463698 0.16334027 0.2771946 -0.061477516 -0.012953386
-0.088089585 -0.029521178 0.09858015 0.0049218694 0.41215524 0.18423988 -0.0514041 0.1958765
-0.003618587 -0.35151583 -0.07854554 -0.22495727 -0.3524005 0.23094293 -0.23564883 -0.25817418
-0.11695376 -0.4374251 -0.5844244 0.195758 -0.38353476 -0.061116625 0.48809615 -0.35226098
-0.22026768 0.071372114 -0.0021497358 -0.34849223 -0.01803371 0.07999764 0.5713837 0.103052154
0.10243415 -0.5580099 0.25695646 0.0033693372 -0.5571156 0.050652582 -0.14293759 -0.012534402
0.10906952 -0.19295613 -0.8195572 0.12357406 -0.41203555 -0.56152254 0.04715645 0.24256188
-0.5923149 0.1947479 -0.16949134 0.11243873 -0.15613656 0.07890382 -0.45121366 0.2951154
-0.6052148 -0.79589546 -0.14097968 0.34974727 -0.098661415 0.087480515 -0.05892226 0.054946154
0.02115139 0.23751394 0.031804673 -0.064350896 0.4209655 -0.2657617 -0.15582882 -0.2572671

final_conv.bias f4 [64]
00000000: bfad b13d 4ae0 9f3d 9759 853d 5432 5bbd
00000010: aedb 1ebc 8d21 263d d059 82bd a283 89bd
00000020: c34a a2bb 1186 afbd 9438 c1bd 390f 763d
00000030: 6e32 853d 5743 9ebc 9755 383d 46c9 f83c
00000040: c5da b1bd b291 593d 8b04 8e3c 2399 053d
00000050: 40bf 84bd 46f4 c83b 7258 abbd 8e55 103c
00000060: f949 b63d 6425 1d3c f1ed c93d 9399 223d
00000070: 8d62 a2bd 3d3a acbc d418 b1bd e4f2 3bbd
00000080: b4c1 bb3c 8a47 fd3c 7436 a8bd 6cc8 363b
00000090: 5679 083d e07b d33d f00f 98ba 994c 3c3d
000000a0: f1fd 9a3c 47ca 8ebb a4bc 9e3d 2ae8 c63d
000000b0: 4b83 67bb c923 d3bd e501 013d d8e3 653d
000000c0: 7c45 213a 0fd2 a6bd 4642 b83d a7b3 a13b
000000d0: 7ac7 40bc 1a12 cc3d 9ec5 1ebc c5cc 21bd
000000e0: 2b4e 10bd 0ed8 c4bc 9110 8cbb 8212 8ebc
000000f0: e21a 9fbd abb0 e7bb f640 c2bb 5fcb efbc
0.086757176 0.078064516 0.065112285 -0.053514794 -0.00969593 0.04055934 -0.063647866 -0.0671456
-0.00495276 -0.08570493 -0.094346195 0.06007311 0.06503759 -0.01931922 0.0450035 0.030369412
-0.08684305 0.05311746 0.01733615 0.032616746 -0.064817905 0.0061326353 -0.08366479 0.00880946
0.08900828 0.009591434 0.09859837 0.03969724 -0.07928953 -0.021023864 -0.08647314 -0.045885935
0.022919513 0.030917902 -0.08213511 0.0027890457 0.03331884 0.10326362 -0.001160143 0.045971487
0.018919917 -0.0043576094 0.07750824 0.097122505 -0.003532606 -0.1030956 0.031495947 0.05612549
0.00061520166 -0.08145534 0.08997016 0.0049347463 -0.011766309 0.0996439 -0.00969067 -0.039501924
-0.035230797 -0.024028804 -0.004274436 -0.01734281 -0.07768799 -0.007070621 -0.005928154 -0.02927178

final_bn.weight f4 [64]
00000000: d0ac cb3e fb87 bc3e fe27 aa3e d653 d43e
00000010: 5528 e63e cb89 213f 6726 003f ecef fe3e
00000020: 316c ad3e dcae d73e bf9e 9d3e 53fc f03e
00000030: 3d66 b73e 6398 913e a64e d13e 9342 e43e
00000040: bcf9 f83e 1004 c53e 3285 b53e f066 c43e
00000050: fae8 e83e 064c c13e 0b8e f43e 7c71 d13e
00000060: ae6c e43e 606d a33e 68e2 e13e 3f6f ac3e
00000070: 091b e53e 5e54 a83e 9316 f03e 63d7 d53e
00000080: f21e b13e b8db b53e fe87 ad3e 120e 243f
00000090: e1af fc3e ae96 e43e 27a1 a73e e320 db3e
000000a0: 52f5 d03e 8b0f f73e 33db b33e 53a7 1a3f
000000b0: 5eb2 9d3e 16e3 d03e 2e3b b93e 3405 d83e
000000c0: 10b6 e13e 7dce 943e 3d37 ba3e 4523 f23e
000000d0: 8e2e b13e 5479 ca3e 6038 ed3e af56 043f
000000e0: 1411 e73e e3a0 d03e 934a de3e 159c af3e
000000f0: 246c b03e e2d8 d63e ac41 cf3e f1c8 c93e
0.39780283 0.36822495 0.33233637 0.41470212 0.44952646 0.6310088 0.500586 0.4979242
0.33871606 0.42125595 0.30785176 0.47067508 0.3582019 0.28436574 0.40880316 0.44582042
0.48628032 0.38479662 0.35453182 0.38359785 0.45490247 0.37753314 0.4776462 0.40906894
0.44614166 0.31919384 0.44118047 0.33678624 0.4474719 0.32876867 0.46892223 0.4176589
0.34593922 0.35519195 0.33892816 0.6408397 0.49352935 0.4464621 0.32740137 0.42798528
0.40812165 0.48254046 0.35128173 0.60411566 0.30800146 0.40798253 0.36177963 0.4219147
0.44084215 0.29063788 0.36370268 0.47292534 0.3460583 0.3954569 0.46332073 0.5169477
0.45130217 0.40747747 0.4341627 0.3429877 0.34457505 0.41962343 0.4047979 0.3941112

final_bn.bias f4 [64]
00000000: d873 c7be b1fa 0ebe 0633 38bf 7ed1 98be
00000010: 23db b3be 6c60 a5be 653a a9be 9975 a5be
00000020: 3a02 b6be 386c 84be bdad 84be deff debe
00000030: e4c0 03bf 562d 02bf 1d0d eebe 6a49 8fbe
00000040: f5cc f5be b5a1 03bf 6602 05bf 37c8 a9be
00000050: 508b 08bf 51b6 31bf 54c4 bdbe 2e37 bebe
00000060: 0e8d c2be b80f 3bbf eada 89be 05f2 b9be
00000070: 0be5 aabe bde6 75be 07bb c7be f02b 11bf
00000080: 8b3b 38be a922 20bf 0a9e 23be 68e1 12bf
00000090: 1520 c0be 6bfa e8be 4070 7abe ad94 babe
000000a0: 5643 f9be 1614 96be c9e8 c8be e095 d9be
000000b0: 28bb 1ebf 3cfc b7be 18d1 cbbe ce80 eebe
000000c0: 4cab adbe a96a 74be 3148 12bf 47b0 a7be
000000d0: aecb 30bf 1ede c1be 4a8b b1be 9bb9 81be
000000e0: 3868 dbbe d29d 98be ab4c b2be c204 80be
000000f0: 77b3 e6be e976 dbbe 78fb d2be 21b5 63be
-0.3895557 -0.13962819 -0.71952856 -0.2984733 -0.35128126 -0.32300127 -0.33052364 -0.32316282
-0.35548574 -0.25863814 -0.25913802 -0.43554586 -0.514662 -0.5085043 -0.4649438 -0.27985698
-0.48007932 -0.5141862 -0.51956785 -0.33160564 -0.53337574 -0.6941882 -0.3706385 -0.37151474
-0.3799824 -0.7307086 -0.2692483 -0.3631746 -0.3337787 -0.24013801 -0.39009878 -0.5670767
-0.17991464 -0.6255289 -0.15978256 -0.5737519 -0.37524477 -0.45503554 -0.24456882 -0.36441556
-0.48684186 -0.293122 -0.392401 -0.42497158 -0.6200433 -0.35934627 -0.39807963 -0.46582645
-0.33919752 -0.23868813 -0.57141405 -0.32751676 -0.6906079 -0.37864774 -0.34676582 -0.25336918
-0.4285295 -0.29807907 -0.34824118 -0.2500363 -0.45058796 -0.4286416 -0.4120748 -0.22237064

final_bn.running_mean f4 [64]
00000000: d3e6 8cc0 db76 4ac0 9be5 79c0 16ed 60c0
00000010: 406f 82c0 01e6 34c0 4698 b0c0 c0e1 6dc0
00000020: 94fa 00c0 5e1b 63c0 51e2 febf e8d8 bbc0
00000030: d195 e3bf 43ef 90bf b2a6 87c0 70b0 afc0
00000040: a0d9 a5c0 dff8 9ac0 f22f 7b3f 7490 acc0
00000050: b98b 88c0 272f 7bc0 75e2 03c1 555a 92c0
00000060: 1e55 9bc0 ec39 e8bf 7cce 7ac0 49a3 223e
00000070: c57f 76c0 0160 63c0 af17 4bc0 39e0 1fc0
00000080: 7b36 a0c0 ccef cfc0 88b2 d1c0 9b65 acc0
00000090: 44cf 9dc0 406a 85c0 c1b5 30c0 96e3 7ac0
000000a0: f05f a5c0 7634 74c0 9c51 98bf 54df d3c0
000000b0: 9959 1bc0 9a4a b4c0 349e 16c0 a6ed c9bf
000000c0: 0c6f ddc0 dbee 44c0 a30e 913e 7c51 7cc0
000000d0: d6c6 20c0 b8db 56c0 cc69 e5c0 2ca8 9ec0
000000e0: fa09 a3c0 cc71 2ec0 95b9 f9bf 57d4 e5bf
000000f0: 0f16 9bc0 7c24 82c0 12f5 a5c0 d884 84c0
-4.403177 -3.1635044 -3.904639 -3.5144706 -4.0760803 -2.8265383 -5.518588 -3.7169037
-2.015294 -3.5485454 -1.9912816 -5.870228 -1.7780095 -1.1323017 -4.2390985 -5.490288
-5.1828156 -4.84288 0.98120034 -5.3926334 -4.267056 -3.924753 -8.242787 -4.573527
-4.8541403 -1.8142676 -3.9188528 0.15882601 -3.8515484 -3.5527346 -3.1733205 -2.4980605
-5.0066504 -6.498022 -6.5530434 -5.387403 -4.931551 -4.16922 -2.7610934 -3.9201407
-5.167961 -3.815702 -1.1899905 -6.6210117 -2.4273436 -5.6341066 -2.353406 -1.577565
-6.9198055 -3.0770786 0.2833148 -3.9424734 -2.512136 -3.3571606 -7.1691647 -4.958029
-5.094968 -2.7256956 -1.950976 -1.7955426 -4.8464427 -4.0669537 -5.186166 -4.1412163
