government_icfes_dataset/results_ml/checkpoints/model_regression_20250521_212844.pt (torch, 740843 bytes, 39 tensors)

embeddings.0.weight f4 [4, 8]
00000000: b1b9 7c3e 6905 373f 176b 9bbe d6dc 193f
00000010: f5a8 15bf 4c31 d6bd 94ff 50bf ebf8 b6ba
00000020: 42ff 6e3d a368 5bbf ec21 0c3e 90e5 dd3e
00000030: 3d90 953f 669a b23c 3533 93be f97d 03bf
00000040: 1e07 c2bf c5b9 fe3f 77b3 fa3f f2d6 01bf
00000050: c3b9 80c0 392d e7bf 75c1 32bc cb84 2140
00000060: 3c58 f53e f11b bb3e 53dc f23d e6c4 8dbf
00000070: 30de a03f 4484 38bf 7011 bc3f a590 2bbf
0.2468021 0.7149263 -0.3035514 0.60102594 -0.5846093 -0.104586214 -0.8163998 -0.0013959681
0.0583489 -0.8570654 0.13684815 0.43339205 1.1684643 0.021802139 -0.28750005 -0.51364094
-1.5158422 1.9900442 1.9586018 -0.50718606 -4.022676 -1.8060676 -0.010910382 2.52373
0.4791888 0.36544755 0.1185843 -1.1075714 1.2567806 -0.7207682 1.4692822 -0.67017585

embeddings.1.weight f4 [3, 8]
00000000: bfcf 863f 7582 e83e 6ff3 433f 0a45 f43f
00000010: 7ebe cc3f 8755 c4be 97e9 a7be 465f 233f
00000020: f365 cf3f 4275 1940 da76 a7be da26 88bf
00000030: a9b4 6c40 3f68 803f ba17 c93f 4110 0dc0
00000040: e55e fa3e e441 b6be 8eb4 54c0 4f81 bb3e
00000050: 3e6d a63e 3a22 0940 4091 8340 e723 733f
1.0532149 0.4541203 0.76543325 1.9083569 1.5995634 -0.38346502 -0.32795402 0.6381725
1.6202987 2.3977818 -0.32707864 -1.0636857 3.6985266 1.0031813 1.5710366 -2.204117
0.48900524 -0.35597146 -3.3235202 0.36622092 0.3250522 2.142714 4.1114807 0.9497666

embeddings.2.weight f4 [5, 8]
00000000: d0db 0cc0 0215 b4bf 6959 903e 0d03 f83f
00000010: ba87 42c0 6788 5240 459d 343f 51a0 f53f
00000020: 7442 e1be 349e b6be 6952 c7bf cb8e aabe
00000030: 0f5e 31bf 0afc a6bf 654b 42c0 837d b7be
00000040: 3272 873f 9221 62bf 73d9 2d3f a64e 4f3e
00000050: eefe 6a3d 3547 1cbe f38b 4abd 8638 2e3f
00000060: 9e23 573f 6d01 aebf 5ccc cbbe bdc2 3abc
00000070: 8512 c43e 0e61 753f 7f63 0cbe b478 5ebf
00000080: 9ba4 b23e db16 953e a88b d2be f2ab 5cbf
00000090: 647e c03f c01e 2fbf fc00 363f 2bc0 563f
-2.2009163 -1.4068911 0.28193215 1.9375931 -3.039534 3.2895753 0.70552474 1.918955
-0.43996012 -0.35667574 -1.5572025 -0.33312067 -0.6928415 -1.3045666 -3.0358517 -0.35837945
1.0581725 -0.88332474 0.67909926 0.20244846 0.057372026 -0.15261538 -0.049449872 0.68055
0.8403872 -1.3594185 -0.3980435 -0.011398968 0.3829538 0.9585122 -0.1370983 -0.8690293
0.3489121 0.29119 -0.41122174 -0.8619987 1.5038571 -0.68406296 0.7109525 0.83886975

embeddings.3.weight f4 [7, 8]
00000000: 0ffd 993f 9d0f 8abf 3d23 0d3d 61a5 1ebe
00000010: 6915 cebf 561d 66bf 0465 5fbf 7022 a03f
00000020: 58a9 e73e 7540 51bf 0e58 fe3f 9f66 373f
00000030: 77b9 9e3f 52ee 43bf 6858 87be b2e3 483e
00000040: 1f61 813f 0c16 89bf 102b 1040 dc4d 19bf
00000050: 2490 8d3f 5042 e93d dcfa 33c0 3204 8b3f
00000060: b69b 8b3f 5140 9abf b420 1f3d 44f5 1cbf
00000070: 8a81 aabf e426 693f 159b b5bf edbd d2be
00000080: c69b 043f ab8e a53f 8228 46be 7ff4 e53f
00000090: d83d 75be 2cba e23e 396a bb3f 4c9f a73f
000000a0: c72b a13f 2432 6cbf 4c0a c9be 9393 c1bf
000000b0: 564d d2bf 29cf 94be 36f5 903e f4a4 eebd
000000c0: f85b d73f 81da 613f 66ce c7bf 21a6 48bf
000000d0: 138f 00bf 1f29 ef3d fe0a 273e 5505 433f
1.2030352 -1.0786015 0.034457434 -0.15492775 -1.6100284 -0.89888513 -0.8726351 1.251051
0.45246387 -0.8173898 1.9870622 0.7164096 1.2400349 -0.7653552 -0.26434636 0.19618109
1.0107764 -1.0709853 2.2526283 -0.5988443 1.1059613 0.11389601 -2.8121862 1.0860655
1.0906894 -1.2050878 0.038849548 -0.61311746 -1.3320782 0.9107497 -1.4187952 -0.41160527
0.5180019 1.2934164 -0.1935139 1.7965239 -0.23949373 0.44282663 1.4641792 1.3095489
1.2591485 -0.9226401 -0.39265668 -1.5123161 -1.6429851 -0.290643 0.2831208 -0.11652556
1.6824942 0.88224036 -1.5609863 -0.7837849 -0.50218314 0.11677765 0.16312787 0.7618001

embeddings.4.weight f4 [7, 8]
00000000: 09da 3ebe ea47 a13f 0838 0bbf e9dd 09c0
00000010: 364c cd3d dbd5 e2bf 7fff 12be 3fea 473e
00000020: 21ce fdbc 83cb 0d3f b304 a1bf f5b7 4f3f
00000030: 37fe af3f a07c 23be 415d 57be c6ec dfbf
00000040: defb c2be 0a2f c5bf b82b 9bbe 2522 543e
00000050: 3e15 943f c29c 633f e97a b93e b93d d73f
00000060: 8128 1bbf f953 b1bf a8b7 1fbe 54e9 923e
00000070: 0544 a63f d79b 853f 86a3 48bd 1010 bf3f
00000080: cd03 1bbe 75cd 1b3e 2b4f ffbe 6350 6e3f
00000090: 06d6 21be 6cbf 52bf 8d2d acbf ee2b 643e
000000a0: ea57 0fbf 1f05 9bbe 108e af3f daa2 f03f
000000b0: fa46 093e a049 63bf f240 903e 26cd f53f
000000c0: 1962 dfbf 8c5e c03d 3637 183f 7367 d93f
000000d0: 25fd 673f 0225 16bf ec3e 0b3f bc00 0fbf
-0.18637861 1.2600071 -0.5438237 -2.1541693 0.10024302 -1.7721514 -0.14355277 0.19522952
-0.030982079 0.5538866 -1.2579559 0.8114007 1.3749455 -0.1596551 -0.21031667 -1.7494133
-0.38082784 -1.540498 -0.30306792 0.2071615 1.1568983 0.8891107 0.36226586 1.6815711
-0.6060868 -1.3853751 -0.15597403 0.2869364 1.2989508 1.0438184 -0.048984073 1.4926777
-0.15138169 0.15215094 -0.49865088 0.9309141 -0.158043 -0.82323337 -1.3451401 0.22282383
-0.5599352 -0.30277345 1.3715229 1.8799698 0.13405982 -0.8878422 0.2817455 1.9203231
-1.7451812 0.093930334 0.59459245 1.6984695 0.9062064 -0.5865022 0.54392886 -0.55860496

embeddings.5.weight f4 [1025, 8]
00000000: 3159 a5be 6872 f5bf c185 513f 5bdb 69be
00000010: dac0 043f ee68 fbbf 187d 7f3f 7fc6 3e3f
00000020: 01e1 36be 8140 a23f 7536 523e ae35 6dbe
00000030: 4445 643c adcd 733f 2cbc b53f 5e36 d03e
00000040: e16f 92bf 3f86 3fbf 3f12 92bf e30d f93e
00000050: 71fe 9cbf 52f1 07be affc f8bf 9550 bebe
00000060: 2e74 e53f 4d9c 81be d8ef dcbf 6c28 103f
00000070: b86a ecbe 0e05 c03e bc87 6fbf 69d2 453f
00000080: 14cb 153f 9034 aebf 2ee4 2bbe 9733 693e
00000090: 6568 c93f 75cd 50bf 161c f93e e3e3 6abe
000000a0: 2c85 2d3e 51cd 09c0 ce07 5c3d b872 abbe
000000b0: e50d 313e 7dfd 84bf 70f6 f33c 5050 493f
000000c0: 372d 503f b547 15c0 99ac eebe df33 533f
000000d0: d912 fe3e bd6b 6f3f 20b1 91bf 0b4d 263f
000000e0: 0216 7c3f 8cf0 f7bf 796c abbf f23d f53f
000000f0: aa3b e13e 33c5 a4be 63ad b6be 3b91 cebe
00000100: 3f6a 1abf 7737 c2bf 668a 21bf 9807 07bf
00000110: acd7 503e acc0 70bf 1a6f 68be 8623 373d
00000120: 1f64 f0bf bd0f 743f 45b8 36bf fcfa 28bf
00000130: bfb7 033f 32e1 393f 9300 8f3f c9ed 02bf
00000140: 4ef0 35bf 1783 4fbf c320 31bf bd63 84bf
00000150: 00ac 0ac0 8681 023f 6196 85be afd8 98bd
00000160: df33 18c0 5dc7 bcbf 9906 42bf 945b 82bf
00000170: 7371 b7bf 1df1 073f a636 3640 3a35 a5be
00000180: 2def 883e b52f f4be 70f7 44bf 8239 403f
00000190: dee6 e0be 1756 a13e b7c4 3abf 7d11 f5bf
000001a0: b10d f0bf 08de d33e fbdf 2140 ab2c 723f
000001b0: 70c9 113e 2460 073f 2dbe 94be ae4c 8fbe
000001c0: caba d13f 5145 c0bd 7c62 e83e 5e39 04c0
000001d0: f743 bb3d 2167 cabf 41f9 69bf fcfb 77bf
000001e0: fdb1 8bbf 4408 4abe 90e6 973e ec05 a43e
000001f0: ec20 c13d 3076 0b3f d1a7 59be a1e6 77bf
00000200: c9bf b2bd 3ae0 cebe ba70 fcbf 44a3 b23f
00000210: ab78 debf 747d 71bf ef18 74be fe99 5abe
00000220: 6303 d33c d46b dcbf d507 98bf 500a a53f
00000230: cb9b 03c0 8097 a4bf ace4 b6bf b338 afbf
00000240: 21cc 8abd 8b64 883e 8cf2 7d3e 9105 873f
00000250: 5d30 1440 b255 933f b8ba c1bf 873c ea3f
00000260: ed12 b0bf d7e0 303e 0448 0a40 e2c7 5bbe
00000270: d9c8 79bf 9524 aabe 94c5 253f 22e9 a13f
00000280: f786 c1bf e829 63bf 8bef ecbf fa83 703e
00000290: fa67 f33f 4ea6 1dbf 8f4b c8bf 25b5 393f
000002a0: 5234 44bf f9db f5bf b1f2 b0bf 93aa 2a3f
000002b0: 7c65 c6be 118c cd3f 5499 5ebf 9c3b 023f
000002c0: 7da5 3dbf ea38 05bf a1c6 a4bf d8bc 8a3e
000002d0: fb41 01bf 567d 0dc0 2951 1940 9248 0fbf
000002e0: d72f d9bd d06c dd3e 9b59 aebe ffea 40bf
000002f0: 49ce 08c0 43d7 e63e e57b 30bf 0323 003f
00000300: 2414 d83e c112 843c a01c d13e 006f 643e
00000310: 3709 11c0 81d6 fdbf 87fa 47bf f86d 113e
00000320: 9ade f83f ed84 953f 2c5a 53bf 6451 513f
00000330: 2a3b 2cbf 4e44 183f 20c4 113f 1d45 9f3f
00000340: d107 ef3e c938 c13e cfbe 17bf 734b c9be
00000350: ffd7 3cbd 8b18 0840 e325 d73f a94e e23f
00000360: 37ff 59be d5c7 b93f c087 3c3e 6c95 ebbc
00000370: ccb9 81be fb1c 213e 0da0 043f 983f 443f
00000380: 26c1 e0bf f068 943d 6ff3 003f 2d2a 503d
00000390: ad77 12c0 46f4 ec3e d15a d63f c29f 073e
000003a0: cb09 e9bf d691 c03e 5373 1ac0 c40d 833e
000003b0: 7314 493f 2b81 b3bf 5e5e 2dbf 69c8 883f
000003c0: ec94 1d3f 19c2 7d3f a3c0 2abf d8b6 e1bf
000003d0: dd1e ea3e c3b6 883f cd8e 933f a455 a73d
000003e0: 762a 35bf da10 20bf 808e a93e b1d8 333d
000003f0: 928e af3e 302d 8a3d 0849 1bc0 60c0 bebe
-0.3229461 -1.9175539 0.8184472 -0.22837584 0.5185677 -1.9641397 0.9980025 0.7452163
-0.1785927 1.2675935 0.20528586 -0.23165008 0.01393253 0.9523571 1.419805 0.4066648
-1.1440393 -0.7481422 -1.1411818 0.48643407 -1.2265149 -0.1327565 -1.9452113 -0.37170854
1.792608 -0.2531456 -1.7260695 0.5631168 -0.4617517 0.37503856 -0.9356649 0.77274185
0.58513 -1.3609791 -0.16786262 0.22773586 1.5734984 -0.815635 0.4865424 -0.22938494
0.16945332 -2.1531565 0.05371838 -0.3348596 0.17290457 -1.0389858 0.029780596 0.7863817
0.8131899 -2.3325016 -0.46616057 0.82501024 0.49623755 0.9352377 -1.1382179 0.6496131
0.9847108 -1.9370284 -1.3392478 1.9159529 0.43990833 -0.321817 -0.3567916 -0.40345177
-0.6031837 -1.5173177 -0.63101804 -0.5274596 0.20394772 -0.94043994 -0.22698632 0.044711612
-1.8780555 0.95336515 -0.71374923 -0.6600797 0.5145225 0.72609246 1.117205 -0.5114408
-0.710698 -0.810594 -0.69190615 -1.0342938 -2.166748 0.5097889 -0.26091293 -0.07463204
-2.378166 -1.4748341 -0.7579132 -1.0184197 -1.4331497 0.53102285 2.8470855 -0.3226717
0.26744977 -0.47692648 -0.7694006 0.7508775 -0.43926138 0.31510994 -0.72956413 -1.9145962
-1.8754178 0.41380334 2.5292957 0.9459941 0.14236999 0.52881074 -0.29051343 -0.2798819
1.6385128 -0.09388221 0.45387638 -2.0660014 0.09143823 -1.5812722 -0.91395956 -0.9686887
-1.0913693 -0.19729716 0.29668093 0.32035768 0.094301075 0.54477215 -0.21255423 -0.96836287
-0.08727986 -0.40405446 -1.9721901 1.3956075 -1.7380575 -0.9433205 -0.23837636 -0.21347806
0.02575845 -1.7220407 -1.187739 1.2893772 -2.0563838 -1.2858734 -1.4288535 -1.3689178
-0.06777216 0.26639208 0.24799556 1.0548574 2.3154519 1.1510527 -1.5135107 1.8299721
-1.3755776 0.1727327 2.1606455 -0.21462968 -0.97572094 -0.33231035 0.64754605 1.2649271
-1.5119313 -0.8873582 -1.8510603 0.23487845 1.9016106 -0.61581886 -1.5648059 0.7254203
-0.76642334 -1.9207755 -1.3824064 0.66666526 -0.387493 1.605837 -0.8695271 0.50872207
-0.7408064 -0.5203997 -1.2873117 0.270972 -0.50491303 -2.210775 2.3955786 -0.5597011
-0.10604828 0.4324708 -0.3405274 -0.75358576 -2.1375906 0.45086107 -0.6893905 0.50053424
0.42202866 0.016122224 0.40842152 0.22307968 -2.2661874 -1.9831086 -0.7811665 0.14202106
1.9442933 1.1681191 -0.82559466 0.8176482 -0.6727778 0.59479225 0.5693989 1.2442967
0.4668565 0.37738636 -0.59275526 -0.39315376 -0.046104427 2.126498 1.6808437 1.7680255
-0.21288763 1.4514109 0.1841116 -0.028757773 -0.25337064 0.15733711 0.5180672 0.76659536
-1.7558944 0.07246578 0.5037145 0.050821472 -2.2885544 0.46280116 1.6746465 0.13244537
-1.8206114 0.37611264 -2.4132888 0.2559644 0.7854683 -1.4023794 -0.6772212 1.068616
0.6155536 0.99124295 -0.6670019 -1.7633924 0.45726672 1.0680774 1.1527954 0.081706315
-0.70767915 -0.62525713 0.3311653 0.043907825 0.3428846 0.067469 -2.4263325 -0.37256145

embeddings.6.weight f4 [3, 8]
00000000: fee7 3bbc cabd 8a3f afc7 6cbf cebc 54bf
00000010: 96d0 b23f 5edf 0fbf 5312 c53c 733c 8d3e
00000020: ce71 0abf 61f2 58be 3f1d 3abf d73f 863e
00000030: 8b74 ed3e 4b65 6b3f 827e a8bf d938 72be
00000040: d7ed 88be b514 ba3e 0c00 5f3f b4af b33e
00000050: eb28 f9be 3c5e 05bf 3482 0b3e 88e5 b5be
-0.0114688855 1.0839169 -0.92492193 -0.83100593 1.3969905 -0.56200206 0.02405659 0.27585182
-0.540799 -0.2118621 -0.72700876 0.2622058 0.46377978 0.91951436 -1.3163607 -0.23654498
-0.26743957 0.36343923 0.87109447 0.35094988 -0.4866403 -0.52096915 0.13623887 -0.3552668

embeddings.7.weight f4 [7, 8]
00000000: ed00 abbc 4d34 cabe 31c8 85be 0baf 82bf
00000010: 1036 143f 7db6 513f 5a8c 3a3e 34cf 97bf
00000020: ec26 8a3f f37f 453f fc4f 24bf 96bf 113f
00000030: 44cb 93bf 0585 3d3f 4ac6 b73f 9420 d63d
00000040: e48e 7b3e 3c8d 4ebf 199e 00bf 40d2 ffbe
00000050: ffe5 69bf a07f 583f d751 98bd ed3c 52be
00000060: cc39 d93e 92bd b9bf c060 00bf abde 9abf
00000070: efee c03f 7841 823e 8d37 253f c1f7 0a3e
00000080: 247c 203f d245 d7be e63a 95bf aafc 2c3f
00000090: 182c fd3e 6de3 d73e d064 b5bf 7e44 2e3f
000000a0: 92b3 8fbf 1def a0bd 8756 253f 96cc e5be
000000b0: ea29 ab3f c556 eabf 312e 7e3e e9bb 7fbf
000000c0: ce89 743f 5637 cabf d940 02be e280 413c
000000d0: 6ee6 2c3f 5920 5d3e 21e6 ffbd 6514 f43d
-0.020874465 -0.39493027 -0.26129296 -1.0209669 0.5789499 0.8191908 0.18217602 -1.1860108
1.0793128 0.7714836 -0.64184546 0.5693296 -1.1546407 0.74031097 1.4357388 0.104554325
0.24566227 -0.80684257 -0.5024124 -0.49965096 -0.9136657 0.8456974 -0.07437485 -0.20531054
0.42426908 -1.4510977 -0.5014763 -1.2099203 1.5072917 0.25440574 0.6453789 0.13571073
0.62689424 -0.42045456 -1.1658599 0.67573035 0.49447703 0.421657 -1.417139 0.6807326
-1.1226676 -0.07858107 0.64585155 -0.4488265 1.3372166 -1.830773 0.24822308 -0.99896103
0.95522773 -1.5798137 -0.1272005 0.011810513 0.6753911 0.21594371 -0.124950655 0.119179524

embeddings.8.weight f4 [7, 8]
00000000: c427 753e e7f1 d1be 380c abbf 80da 9c3e
00000010: 0f7d 88bf 85c4 4abc 4de5 d1be 882a 983e
00000020: 912c b6bd 5480 c1be 28a7 6ebf 9bf7 3c3e
00000030: 761b 4fbf 1768 78bf d5ec 0bbf cf3b e9be
00000040: 402e b8bf d718 1d3f 28ab 40be 3efc d9be
00000050: e1d5 cabf 82ab acbe b7a6 833f cad7 cabe
00000060: 3553 d13d 5a29 053f f438 963e 8911 89bf
00000070: 4a6a f6bd 78af edbe 04d9 103f 1217 fcbe
00000080: d2e1 35bd e535 39be d758 61be aaf6 64bf
00000090: 7314 6fbf 9c5c 253f fc40 eebe 200c 303e
000000a0: ee3c a1bf c910 0d3f 250c 8b3f f84e 04bf
000000b0: 7703 373f 0547 87bf 6468 b8be 9974 193e
000000c0: f56c da3e 4c38 8d3e a321 e83d a4ba bbbf
000000d0: d0d1 62be 81a2 9bbf a6ea c1bf 4183 85be
0.2394095 -0.4100487 -1.3363104 0.30635452 -1.0663165 -0.0123759555 -0.40995255 0.2971995
-0.08895219 -0.3779322 -0.9322381 0.18453829 -0.8090128 -0.9703383 -0.5465825 -0.45553443
-1.4389114 0.6136603 -0.18815291 -0.42575258 -1.5846521 -0.337246 1.0285252 -0.3961776
0.102209486 0.5201622 0.29340327 -1.0708476 -0.12031992 -0.46422935 0.5658114 -0.4923635
-0.044404812 -0.18086965 -0.22006546 -0.8943888 -0.9339058 0.64594436 -0.46533954 0.17192125
-1.2596719 0.5510374 1.0863081 -0.51682997 0.7148966 -1.0568548 -0.36017144 0.14985885
0.42661253 0.27582014 0.11334541 -1.4666333 -0.2215035 -1.2158967 -1.5149734 -0.260767

embeddings.9.weight f4 [3, 8]
00000000: 3854 5d3e 6b98 4d3e 33e2 293f 9425 c83f
00000010: a596 013f 325a 9a3f dc1d 60bf cea3 b23f
00000020: 92a0 d53f 679d e3be 6dc7 31bf 15fd cabf
00000030: 9180 663e df59 9bbf 47e1 5fbe c043 e1bd
00000040: 40bf 203f a19c 2cbf 86e3 6cbf b04b 213f
00000050: 442a c9bf deba 0abf cfc0 1a3f 7427 993e
0.21614158 0.20077674 0.6636078 1.5636468 0.5062049 1.2058775 -0.8754556 1.3956239
1.6689627 -0.44456026 -0.69444925 -1.5858485 0.22509982 -1.2136801 -0.2186328 -0.109992504
0.62791824 -0.67426497 -0.92534673 0.63006115 -1.5716023 -0.54191387 0.6045045 0.29912913

embeddings.10.weight f4 [427, 8]
00000000: bb1d df3d 4270 933f 7fe1 82bf 4e79 a2be
00000010: 536c a03f 3ba6 11c0 ee3a 883f ddff d8bb
00000020: 818a a13e 5fbd ee3c e940 f83e fc76 983e
00000030: 10d1 19bf 4ecc 2f3e 8111 e5be d431 023f
00000040: 2917 603f 5fde 2840 ce31 bcbf a112 68bf
00000050: a83e c8bf 795f 583f de77 b73e 405b 983e
00000060: 033e 293e 221a bcbf 0569 3b3f f97b 56bf
00000070: 38f9 f8bf 2470 923f 6e13 d2bd 446b 053e
00000080: 8931 a83f 10a7 95bf 57d4 3b3f 70c1 aebe
00000090: de66 f13f 7357 f7bf 83c3 a7bf e509 dc3c
000000a0: 1525 453e f929 64bd 6842 703e a2e8 0d3f
000000b0: 9cae f23c 862a 20bd e96c 903f c8dc 71bf
000000c0: 194e 403f 0b6f 2d3f 98b7 61be 74b8 cc3e
000000d0: 213c 86bf f9aa 4b3d 7f27 51be ec6c 96bf
000000e0: d13d 29bf 5c47 9f3e 34dc 0f3f 45ca 99be
000000f0: 55c7 3dbf c0e6 d63e fb33 d33f 08f8 9bbf
00000100: 77a7 30c0 9c95 e4bf 121b c63d f48c 993f
00000110: 3885 97bf ceb7 cb3f c984 0bc0 8f84 a8be
00000120: 0b18 793e 73b2 253f 6e7b 113f fa64 1dbe
00000130: 24d6 2b3f f1c3 5e3f b00a d53e a154 8b3f
00000140: c057 1d3e c162 103f 63b6 5a3f 8d0b 913f
00000150: 6342 863f 103d 153f faea 7e3f 5c50 8d3f
00000160: ae5c 473f dc97 da3e f8dd f0be aa5e 4b3f
00000170: 5c10 813e 9979 54bf f0c1 c33e c866 16bf
00000180: 1dcd b2bf e7a3 25c0 9186 f0bd be0d 0bbe
00000190: b926 8c3e 949c 3bbf 6435 ba3f 1675 cbbf
000001a0: b5b9 03c0 b28b 95bf bed5 083f 225f c13c
000001b0: 636d a0be 462b 383f 9cb7 2bbf f58b 9bbf
000001c0: e67b 0ec0 0f3e 19bf 6ad5 a2be eb92 39bf
000001d0: 2447 81bf 5b16 d13f cb32 163e 0762 81bf
000001e0: e1c9 14bf 87ca 4bbe 98c1 d6bf e5c4 dd3e
000001f0: 35a3 19bf 8161 703f a316 94be 10f8 a8be
00000200: 0732 3cbe 4928 583f 9755 053f 01d2 823f
00000210: 63a3 51bf 7299 dcbd f37b 9dbf d495 2e3f
00000220: edd0 88bf 1e04 0740 ad3d fabe 9061 1e3f
00000230: 60bd 1abf ff78 093f 9480 8d3f e6d7 20bf
00000240: 1bd1 80bf fa4d 203f f647 0fbf 28d9 c03e
00000250: bfe8 8b3f 5ddb 2040 2498 49bf d216 f1be
00000260: f624 f53e 7d53 07bf e776 fcbf 2dcc 69bf
00000270: 37b7 6cbf 25d7 b53f fdd3 d63f d2d9 4abf
00000280: 3f66 ab3e b5e1 c4bf 9597 a5bf 3ae3 533e
00000290: 1dd5 a3be 8721 023e 2c25 0bbf 99cc 0cc0
000002a0: 208a 8dbf 01b6 0640 150b 6f3f e9bb a43f
000002b0: 0338 e33f 4a3d 17c0 154c 15c0 cf1c e23f
000002c0: 5bec 6dbf 7d73 1740 8df3 513e 86f3 b03e
000002d0: 766e d5bf f5d0 e6bf ce2b cd3f f0ac 003f
000002e0: 061a b33f 4d95 c73f 7737 68bf b9d0 19be
000002f0: 2d75 db3e c000 0e40 ca4b 42bf 4924 ef3f
00000300: eb2e 24be 3866 c63e dcc2 7f3f 8cfe a5bd
00000310: bb36 3abe 3588 a53f 9209 a13f e846 ce3f
00000320: 549f 073f 545c 39bf a5f8 303e cf70 3fbf
00000330: d019 48bf 6c70 3c3f 9673 6e3d dba7 c43f
00000340: 12c6 3d3f 24b8 253f 81f2 33bf aaae 143f
00000350: 37d0 e33f 4d9c c23f 5c2d f83f abfc 0abf
00000360: 1410 653f 0a5e 84bf e624 10bf 718b 64bf
00000370: 6bc6 a13e a6ed e63f 3cc6 883f 2c02 f5bf
00000380: dc18 92bf e10d b1be e2d3 cfbf 9f68 4abf
00000390: 310d 7cbb b415 4cbe 7ac6 22c0 42c4 fb3f
000003a0: 385d 3e3f be72 f73f ff4c 2f3f 6121 eb3c
000003b0: 3d82 e2bf 86c8 b33e 187b 3c3d 2492 3c3f
000003c0: aa53 b3bf ffc6 803f 1254 bfbf 7184 133e
000003d0: 16a8 09c0 d255 8fbe 7fe0 4dbe 1bd2 d83d
000003e0: 44ac bf3e 1eb4 f3be 2012 b93e a6f3 9ebe
000003f0: 70fc 60bf bbae 75bf a91c ad3f 1c0f 3a3f
0.108943425 1.1518633 -1.0225066 -0.31733173 1.2533058 -2.275771 1.0642984 -0.006622298
0.31550983 0.029143034 0.48487023 0.29778278 -0.6008463 0.1716778 -0.44739917 0.5085728
0.8753534 2.6385725 -1.4702699 -0.90653425 -1.5644121 0.8452068 0.3583364 0.29757118
0.16527562 -1.4695475 0.7320712 -0.8378292 -1.9451056 1.1440473 -0.10257612 0.130292
1.3140117 -1.1691608 0.7337088 -0.34131956 1.8859518 -1.9323562 -1.310654 0.026860187
0.19252427 -0.05570409 0.23462832 0.55433095 0.029624276 -0.039103054 1.1283237 -0.9447751
0.7511917 0.67747563 -0.22042692 0.39984477 -1.04871 0.0497236 -0.20425223 -1.175199
-0.6610995 0.3110913 0.5619538 -0.30037132 -0.7413228 0.41972923 1.6500238 -1.2185068
-2.7602212 -1.7858157 0.09673132 1.199614 -1.183753 1.5915468 -2.1799796 -0.32913634
0.24325578 0.64725417 0.56828964 -0.15370551 0.6712363 0.8701773 0.41609716 1.0885202
0.15365505 0.56400687 0.8543455 1.133165 1.048901 0.582963 0.99577296 1.1040149
0.7787579 0.42693985 -0.4704435 0.7944132 0.25207794 -0.82998043 0.382339 -0.5875058
-1.3968846 -2.5881288 -0.117444165 -0.13579461 0.27373293 -0.73285794 1.4547544 -1.5895107
-2.0582097 -1.1683257 0.53451145 0.023604933 -0.31333455 0.7194103 -0.6707704 -1.2152086
-2.2263122 -0.5986032 -0.31803447 -0.72489804 -1.0099835 1.6334947 0.14667813 -1.010804
-0.5812054 -0.19901477 -1.677783 0.4331428 -0.6001466 0.9389878 -0.2892352 -0.33001757
-0.18378459 0.8443647 0.52083725 1.0220338 -0.81889933 -0.10771455 -1.2303451 0.6819737
-1.0688759 2.1096263 -0.4887518 0.6186762 -0.60445213 0.5370025 1.1054864 -0.62829435
-1.0063814 0.6261898 -0.5596918 0.37665677 1.0930403 2.5133889 -0.78747773 -0.47087723
0.4787976 -0.5286177 -1.9723786 -0.9132717 -0.92467064 1.4206282 1.6783444 -0.7923862
0.33476445 -1.538138 -1.2936884 0.20692149 -0.3199853 0.12708102 -0.54353595 -2.1999876
-1.1057777 2.1048586 0.93376285 1.2869846 1.7751468 -2.3631158 -2.3327687 1.7665042
-0.92938775 2.3664238 0.20503063 0.34560794 -1.6674335 -1.8032519 1.6028993 0.5026388
1.3992317 1.5592438 -0.9070963 -0.15021028 0.42862836 2.2187958 -0.75896895 1.8682948
-0.16033523 0.38749862 0.99906707 -0.081051916 -0.1818494 1.2932192 1.2581046 1.6115389
0.5297749 -0.72406507 0.1728235 -0.7478151 -0.78164387 0.7360904 0.0582157 1.5363725
0.74130356 0.647341 -0.70291907 0.58079016 1.7797917 1.5203949 1.9388843 -0.5429179
0.8947766 -1.0341198 -0.563063 -0.8927527 0.31596693 1.8041275 1.0685496 -1.9141288
-1.1413836 -0.345809 -1.6236537 -0.7906589 -0.003846001 -0.19930154 -2.543364 1.9669268
0.7436099 1.9331892 0.6847686 0.02870244 -1.7695996 0.35113925 0.04601583 0.7366049
-1.4009907 1.0060729 -1.4947531 0.14405991 -2.1508842 -0.27995163 -0.2010517 0.105869494
0.37436116 -0.47598356 0.3614664 -0.31045264 -0.8788519 -0.9596974 1.3524371 0.72679305

embeddings.11.weight f4 [1030, 8]
00000000: 5550 1f3f 717f 7fbf 0200 b4bf a6de 893f
00000010: 88ce c7bf 4fda 983e a1d4 b0be 48ee ecbe
00000020: b21b 543f be0a 593f 69ed 973f d120 1dbf
00000030: 8b09 efbf 89aa 9fbf e30d 393f 2c25 1340
00000040: 5773 b03f aa4d 083f aadc 41bf 79b8 7a3f
00000050: 818a 89bf af3a 523f d989 17c0 56b8 3b3e
00000060: ecd1 b3bf 3e37 5dbf 0ef9 e43e 8e1a 103f
00000070: 6945 3b3f f958 32bf a0b6 b0bf 8fae a8bf
00000080: 7b36 5a3e 38bf 52be 579a 07bd 9463 9cbe
00000090: 6243 86bf ef88 76bf edd7 33bf 8b1d 603f
000000a0: 754d a8bf 31bb 6e3e 0c81 babe 906a 4abf
000000b0: 60b8 e43f eeb0 14bf 5994 a63d 6726 c63e
000000c0: d010 2fbf e727 f23e fe38 0b3d c000 49c0
000000d0: 43bd a2bf e1bb 94bf e2d2 d43f 4a52 57bf
000000e0: e6b8 003f 59aa c53f d832 2f3f e35a fcbe
000000f0: 88a1 2d3f 1ebe b23e 085e afbe f3ab 68bf
00000100: 5dbb d43e 1cbf bdbe 7ba3 623f 3d77 a73f
00000110: 74ed 663d 7654 98bd 8833 38c0 6d0f e9bf
00000120: 3aea ffbe 94c6 863f ea80 5cbf faa2 0140
00000130: 4a8d a33f f381 a2bf 5d64 cbbf f2f8 923f
00000140: edf1 983f de4e 0bbf 93a5 e33d dd7e 0e3f
00000150: 46d1 8cbd 9414 06bf bff2 793d 141c 743f
00000160: 9a82 8bbf e04f 323c e1c7 f23d f1e1 053f
00000170: 4e31 db3f 2d9e 0dbf 5c52 4f3e 050f aabe
00000180: 0533 833d 3728 a73f c60c a4bf 7c05 46bf
00000190: a781 93be 6a92 83be 4cf9 3b3f ed9a 0a3f
000001a0: 9824 0abf 3fb7 523f 3825 be3f d5c3 43bf
000001b0: 7086 7abe 7b0f 2bbe 5e69 5bbe f4fb bdbe
000001c0: 3b4e 8a3e 0909 1cbe f973 b33d 549a 5fbf
000001d0: 445e de3e a08e f1bf bfe6 8dbd a648 c7bf
000001e0: 7b7f 8cbe c99d 52c0 1748 05c0 accf 88be
000001f0: 2aa9 b83f 3ac8 383f 21ad 413e 7a22 e53f
00000200: 33dc 6abf d2cd ff3d 5733 313f c919 4c3f
00000210: 665c ba3f 075b c93f 2fe6 1bbe a4a5 b6be
00000220: 9e68 d83e a8e5 723d 6c9e 7c3f a052 4140
00000230: 75d5 963f 5888 753f 6347 163f 6081 46bf
00000240: 934e 66be 21fb 81bf 8866 9abf cd04 76bf
00000250: 8a53 a73f 558f 3dbd 1f9d 813e 0e8c 0440
00000260: 0662 01c0 f027 c9be 821a bdbe 645a 1540
00000270: dbf1 13c0 6ce4 513f 8b01 d0bf a077 0b3f
00000280: f84e a53d 4bf0 89bf 4692 23bf dcbf 7fbc
00000290: fdd2 f4be 4034 aabc ca6f cb3e 46d0 a73e
000002a0: aedf ed3e acac 313f 82f5 18bf 6aba 743f
000002b0: d319 5a3f ceae 673f d245 8fbf d670 56bf
000002c0: 7a76 8b3f 80ba b9be 6543 23c0 1d3f bc3f
000002d0: b650 753f 3f04 013f fe40 dbbf 6241 4bbd
000002e0: 8ca8 3cbf 8056 94bd 394d 83bf ae51 31bd
000002f0: b5f9 74bf 9519 75bf 9063 1bc0 4051 b8bf
00000300: 0558 cdbf c8fe b13c 5a18 94bf cb7d d3be
00000310: 5472 a23e 0691 c43f 7a63 ad3f 4825 893f
00000320: 7ec5 d5be 2643 de3d 3406 a93e 7fe9 993e
00000330: a42d 303f 1a1f fbbf b42f 3bbf 52ab 67be
00000340: 84f3 40bf faeb 933f 4a8a b7be 747e 5cbf
00000350: facd 97bf 3d07 85bf 770e 43be 4bc6 94bf
00000360: 359c 7bbf bb72 b4be 2699 61bf 0563 cf3e
00000370: 6467 c6be 1aad 273f e232 8ebf 59c1 e4bf
00000380: e610 efbf aea8 833f bc1a 78bf 78fb 313f
00000390: 1c29 643f bf92 bd3f 8d07 d8bf 8a07 36bf
000003a0: 8f66 9abe e3ec d03e 7b4f edbf 4834 3f3e
000003b0: 90f4 83bf c5fc f7bf eef6 e1be 0c18 b23e
000003c0: e295 98be 8012 2e3f bf67 2b3c 67c0 933e
000003d0: 3656 d2bc 66db d0bf 9a4e 9dbe 0c8d 203f
000003e0: c6b8 0340 03af 413f 41c8 273b ee84 993f
000003f0: da2b 9c3d 705e 82bf 8061 85bf 0494 0e3f
0.6223195 -0.99803835 -1.4062502 1.0771072 -1.5609903 0.29854056 -0.34537223 -0.46275544
0.8285476 0.84782016 1.1869327 -0.613782 -1.8674787 -1.2473918 0.72286814 2.2991438
1.3785199 0.53243506 -0.7572733 0.9793773 -1.0745393 0.82120794 -2.3677886 0.18332037
-1.4048438 -0.8641242 0.44721264 0.5629052 0.73152786 -0.6966701 -1.3805733 -1.3178271
0.21309845 -0.20580757 -0.033106174 -0.30544722 -1.0489314 -0.96302694 -0.7025135 0.8754508
-1.3148638 0.23313595 -0.3642658 -0.7906885 1.7868767 -0.58082473 0.08133764 0.38701174
-0.6838503 0.47296068 0.0339899 -3.1406708 -1.2714008 -1.1619836 1.6626856 -0.8410994
0.5028213 1.5442611 0.68436956 -0.4928809 0.678246 0.34910673 -0.34251428 -0.90887374
0.41549197 -0.37059867 0.885307 1.3083264 0.056378797 -0.07437985 -2.8781452 -1.8207833
-0.49983388 1.0529351 -0.8613421 2.0255723 1.2777493 -1.2695907 -1.5890003 1.1482222
1.194883 -0.54417217 0.11115565 0.5566233 -0.06875853 -0.5237515 0.061022516 0.95355344
-1.0899231 0.0108833015 0.1185453 0.52297884 1.7124422 -0.5531948 0.20246261 -0.33214584
0.064062156 1.3059148 -1.2816398 -0.7735212 -0.28809854 -0.25697643 0.7342727 0.5414265
-0.5396209 0.8231086 1.4855108 -0.7647069 -0.24465346 -0.16705124 -0.21426913 -0.37106287
0.2701281 -0.15237822 0.087623544 -0.8734486 0.43431294 -1.8871651 -0.06928777 -1.5569046
-0.2744101 -3.2908804 -2.082525 -0.2672094 1.4426625 0.7218052 0.189137 1.7901146
-0.9174225 0.12490429 0.69218963 0.79726845 1.4559448 1.5730904 -0.15224527 -0.3567325
0.42267317 0.05930105 0.9867923 3.020668 1.1783892 0.9591117 0.5870268 -0.7754116
-0.22490911 -1.0154763 -1.206254 -0.96101075 1.3072369 -0.04627927 0.25315186 2.0710483
-2.0216079 -0.39288282 -0.36934286 2.333642 -2.3116367 0.8198917 -1.6250471 0.5447941
0.08071703 -1.0776457 -0.6389507 -0.015609708 -0.4781722 -0.020776868 0.39733726 0.32776088
0.46459717 0.694041 -0.59749615 0.95596945 0.85195655 0.90501106 -1.1193182 -0.83765924
1.0895531 -0.362751 -2.5509884 1.4706761 0.9582628 0.50397104 -1.7129209 -0.0496229
-0.7369468 -0.07243061 -1.0257941 -0.043290786 -0.9569352 -0.9574216 -2.4279518 -1.4399796
-1.6042486 0.021727934 -1.1569932 -0.4130691 0.3172785 1.5356758 1.3545983 1.0714502
-0.41752237 0.10852651 0.33012545 0.30060956 0.6881964 -1.9618866 -0.73119664 -0.22623947
-0.75371575 1.1556389 -0.35847694 -0.8613045 -1.1859734 -1.0392834 -0.19048487 -1.1623014
-0.9828523 -0.35243782 -0.8812431 0.40505233 -0.38750756 0.6549851 -1.1109278 -1.7871505
-1.8677032 1.0285852 -0.96915793 0.69524336 0.8912523 1.4810408 -1.6877304 -0.71105254
-0.3015637 0.4080573 -1.853988 0.18672287 -1.030901 -1.9374014 -0.44133705 0.3478397
-0.29801852 0.6799698 0.010461747 0.2885773 -0.025675874 -1.6316955 -0.3072403 0.6271522
2.0581527 0.7565767 0.0025601538 1.1993692 0.076255515 -1.018507 -1.042038 0.55694604

embeddings.12.weight f4 [7, 8]
00000000: c363 783f 89bc 69bf 1b98 0d3f 0be3 37bf
00000010: abd8 c33f 188f 07bf d0e1 563f 827f 88bf
00000020: 12d3 87bf 3274 f43d 4b39 51be b108 903e
00000030: 6679 3abe 3db8 563d 5f6c 673f cd6a 4bbf
00000040: 8831 a6bf 71e3 cbbe b61c 873f f54d e43e
00000050: 3be1 a0bf f4a5 883e 1011 973d 0540 32bf
00000060: 4172 ccbe 607c 2dbe c427 be3f eda6 82bd
00000070: 9b6a d8be d9de 70bf e660 363f 5e52 9f3e
00000080: 284b 333d 0695 213f 60d5 873d 2892 5c3f
00000090: c471 c3bf 6992 cfbc 3c18 0dbe fd1d 813f
000000a0: de87 ebbe 4859 bbbf 139c 1540 d60f 20bf
000000b0: ac71 72bf fb92 bbbf 3f42 db3f 793a 833f
000000c0: 5e4c fb3c 7670 8d3f a9dc 60bf 77a9 4f3f
000000d0: c9ed dabd bae0 8ebf e5f3 aa3c 222e 183f
0.97027224 -0.91303307 0.5531022 -0.71830815 1.5300497 -0.5295272 0.8393831 -1.0663912
-1.0611289 0.11936225 -0.20432012 0.2813163 -0.18210372 0.052421797 0.90399736 -0.7945984
-1.2983866 -0.39821962 1.0555637 0.44590726 -1.2568735 0.26689112 0.07376301 -0.69628936
-0.3993092 -0.16941977 1.4855886 -0.06379495 -0.42268834 -0.9409004 0.71241605 0.3111753
0.043772846 0.63118017 0.06632495 0.86160517 -1.5269094 -0.025338368 -0.13778776 1.0087277
-0.46002096 -1.4636621 2.337651 -0.62524164 -0.947047 -1.465423 1.7129592 1.025222
0.030676063 1.1049945 -0.878367 0.8111796 -0.10689885 -1.1162331 0.020868251 0.59445393

embeddings.13.weight f4 [7, 8]
00000000: 9519 a4bf 71e4 b03c f8cc d6be 8e61 2c3f
00000010: b541 d2bf 2999 5e3f b396 d5bf d494 acbf
00000020: b86d cebf d198 2fbf d963 053f 0680 b23d
00000030: e7c0 f43e 0cc6 1f3e 148b 90bf bbbe bdbe
00000040: 661c bf3f f4a6 eb3e d831 1a3f 2adf 4bbf
00000050: aa42 e1be 9f1a 3c3f 757c a23f 7343 50be
00000060: bbc1 1e3f 9fdb fc3f 53cc 0d40 24f2 a43e
00000070: 8c86 c03e c22c 0f3f 4562 be3f f43d 6f3f
00000080: 1e76 3cbe b56c 1c3d db90 78bf 4624 ccbe
00000090: b85c 9f3e 02fe af3f e022 efbf 3456 fd3e
000000a0: e39b 5c3e 4ac9 edbe 8efb b4bd 5c74 fc3e
000000b0: e9bf 0c3e 554a a3bf 1af0 903d a76a be3f
000000c0: 0fbc cfbe 27d9 333f d60e 443e e3f9 a8bf
000000d0: f034 41c0 1812 a1bf 436e 763f 7804 ad3f
-1.2820307 0.021593304 -0.41953254 0.67336357 -1.6426302 0.86952454 -1.6686615 -1.3482919
-1.6127234 -0.68592554 0.5210548 0.08715825 0.47803423 0.15602893 -1.1292443 -0.37059578
1.4930542 0.46025813 0.60232306 -0.79637396 -0.43996173 0.7347812 1.2694231 -0.2033823
0.6201436 1.9754523 2.215596 0.3221599 0.3760265 0.5592767 1.487374 0.9345391
-0.18404433 0.03818961 -0.9709603 -0.39871424 0.31125426 1.3749392 -1.8682518 0.4947983
0.21543841 -0.46442634 -0.08837043 0.49307525 0.13745083 -1.2757059 0.07077046 1.4876298
-0.40573165 0.70253223 0.19146284 -1.3201259 -3.018856 -1.2583647 0.96261996 1.3516989

embeddings.14.weight f4 [7, 8]
00000000: 3cf9 1fbf a021 7c3c b124 e13e 0009 36bf
00000010: 4663 1340 86d2 3abe 1df8 48bf d9fe 283e
00000020: abb1 ad3f 550f 19be 7cea 98bf 839b 7e3c
00000030: 1aea 653f 998f 36bf 07a1 89be 79fe d0be
00000040: faab 9f3f 2caa 0fbf ad3a afbe 6dc2 1dbf
00000050: 0e5b b1be e2d5 c43e 1ead 623f eddd 8bbe
00000060: 254b 613c 8071 84be 2346 0d3f 58de 83bf
00000070: a661 9ebe 7c94 f93d 1d7a 81bf 120c 313f
00000080: 8be7 80bf 53e1 603f 43cd a7bd 7823 19be
00000090: 1459 a5be 06dd d23f 37fa abbe 38d1 603e
000000a0: 7a6e 24bd fffc 02bf 2f0f 4e3b da0f 993f
000000b0: 934e 65bf 88c1 513e 64f4 8b3f 132c 06be
000000c0: 5e6e 0bc0 a187 65be 11a1 543f 2036 26bc
000000d0: e13b a43f ef2d 62bd f013 653e ad00 2e3f
-0.62489676 0.015388876 0.43973306 -0.7110748 2.3029342 -0.18244371 -0.7850359 0.16503467
1.3569845 -0.14947255 -1.1946559 0.015540007 0.89810336 -0.7131286 -0.26880667 -0.40819147
1.2474358 -0.56119037 -0.34224454 -0.61624795 -0.34639782 0.3844443 0.88545406 -0.27317753
0.013750826 -0.25867844 0.55185145 -1.0302229 -0.30933875 0.12186524 -1.0115391 0.6915904
-1.0070661 0.8784382 -0.081934474 -0.14954937 -0.32294524 1.6473701 -0.33589336 0.2195481
-0.04014442 -0.5116729 0.0031442156 1.1957963 -0.8957302 0.20483983 1.0933957 -0.1310275
-2.1786113 -0.2241502 0.8305827 -0.01014474 1.2830774 -0.055219587 0.22370887 0.6796978

embeddings.15.weight f4 [6, 8]
00000000: 02b3 3240 8ea2 99be 2d8f 1540 363a 48be
00000010: 97dc 92bf cc71 86bf 8ba9 6bbf fd07 a2bf
00000020: 4f77 a13f 1ca7 3f3f 6c02 243f d6a2 2dbe
00000030: 202c 253f 7dc6 ffbe a030 a13e 8910 18bf
00000040: 24a0 e6bb 1610 28be 5008 b5bf e01d 9e3f
00000050: 292f d23e 4c84 773e 134e da3f b351 9a3e
00000060: b2c0 39bf 550a 5abf dd73 33c0 ddaa b0be
00000070: 5125 21bd fc5f 843f 052f 983f 4146 1040
00000080: 7322 5dbe 79cd 14bf 2335 aebf 8945 e7bd
00000090: d795 a73e da10 cd3f c15a 4e3f 55e5 ab3f
000000a0: 32c8 673e 007f 093e 9d9f 95bf 8b36 93bc
000000b0: 8602 dcbe f812 e53d 0831 fbbb cf54 6b3f
2.7921758 -0.30006832 2.3368638 -0.19553456 -1.1473569 -1.0503478 -0.9205558 -1.2658688
1.2614535 0.74864364 0.64066195 -0.16956648 0.64520454 -0.49956122 0.3148241 -0.5940023
-0.007038133 -0.16412386 -1.4143162 1.2352867 0.41051605 0.24171561 1.7055076 0.30140457
-0.72559655 -0.85172015 -2.8039467 -0.34505358 -0.03934223 1.0341792 1.1889349 2.254288
-0.21595173 -0.58126026 -1.3609966 -0.1129256 0.32731506 1.6020768 0.8060723 1.3429362
0.22634962 0.13427353 -1.1689335 -0.017970344 -0.42970675 0.111852586 -0.007665757 0.9192628

conv_layers.0.weight f4 [32, 1, 3]
00000000: f872 f0be 31d6 c0be 4469 e5be a103 05bf
00000010: 0b54 dbbe bf60 b0be d42e b3be 325e 45be
00000020: b14d 6d3f c3b0 0d3f 6e8f 553f d17a 52bc
00000030: fa1a 00bc 7e17 883e 92ba 68bf d03a 3fbe
00000040: 4ab6 6c3f 10eb 1f3f 0971 9c3e 6301 a1bf
00000050: f466 923e e878 893e cd62 a1bf 7ece 0b3e
00000060: 6f86 253f 39c6 0fbf b4a6 86bc 4a92 fcbe
00000070: 00e0 873f 61b8 253e ec62 a33c 4ae3 0d3f
00000080: 1f0e 0d3f 569b dabe 5e4a 05bf a3ba c63e
00000090: 6b9c cfbe 5815 603f be72 f93b 3269 43bf
000000a0: 359e 2f3f 16e7 f9bd f586 ac3e 3283 93bf
000000b0: 8191 cf3d 7416 393f 2166 f8be cc12 e63e
000000c0: fe03 0a3f 215e 3a3f fd20 d23d e45c be3e
000000d0: bacd 83bd 8f45 5e3f f029 8d3e 572f b7bf
000000e0: e9c9 363e ee11 a93e 836f 513e e0a3 58bf
000000f0: 1e78 753f 83d2 05bf 0e88 c1bd 9062 473e
00000100: 1309 8ebf d712 b63e 476d 56bd f909 cbbd
00000110: 58e8 6440 323a a43d a756 40bf 3e9d e5be
00000120: f0dd ddbe fe03 633f 9876 c53c 59a9 e7be
00000130: bd38 0dbf 40cd 87be d3f6 0f3f 7747 39bf
00000140: dfc4 bfbe 302a dbbe d46a 5a3f 1edf 913d
00000150: f061 9e3e a99d 15bf 503c 19bf c32c 7f3f
00000160: 7b34 32bd cb2b d2be 566a 39be 3499 1d3f
00000170: d722 f33e bc5f 9bbf 9a57 853e 1be3 2fbe
-0.46962714 -0.37663415 -0.44806874 -0.5195866 -0.42837557 -0.3444881 -0.34996665 -0.19274214
0.9269667 0.5534784 0.8342198 -0.0128466645 -0.007818932 0.26580423 -0.90909684 -0.18674779
0.9246565 0.6246805 0.3055499 -1.2578548 0.28594172 0.26850057 -1.2608277 0.1365299
0.64658254 -0.5616184 -0.016436912 -0.4933036 1.0615234 0.16183616 0.01994463 0.5542494
0.5509967 -0.42696637 -0.520666 0.38814268 -0.40549025 0.8753257 0.0076125553 -0.7633239
0.6860078 -0.12202279 0.33696714 -1.1524413 0.101351745 0.72299886 -0.48515418 0.44936216
0.5391234 0.7279988 0.10260198 0.37180245 -0.064357236 0.8682489 0.27571058 -1.4311322
0.1785046 0.33021492 0.20452695 -0.84625053 0.9588641 -0.5227434 -0.094497785 0.19471192
-1.1096519 0.3556125 -0.05235031 -0.099140115 3.5766811 0.080189124 -0.7513222 -0.4484653
-0.43333387 0.88677967 0.024104401 -0.4524639 -0.551647 -0.2652378 0.56236 -0.7237467
-0.37454888 -0.42805624 0.85319257 0.07122634 0.30934095 -0.58443695 -0.59857655 0.99677676
-0.04350708 -0.41049036 -0.1810697 0.61561894 0.47487518 -1.2138591 0.26043397 -0.17176478

conv_layers.0.bias f4 [32]
00000000: 501a 553e 00dc 0bbf 2d15 9fbe 2be4 033f
00000010: 7717 623f 99ac 843d d4a0 cd3e 46fc d2be
00000020: ac48 25bf ae3f 933e ec4e f0be 25f2 0ebf
00000030: b10f f23c 9236 0f3f d1b3 1b3f d846 a1bd
00000040: db39 5e3e ab9e 713e c1cf edbc 94e8 4abb
00000050: de08 fcbd 1295 80be bdf1 90be 34bb 893f
00000060: 5be0 003d 9517 413f 908c 60be 85ac c63e
00000070: b574 f6be 64e0 893e a714 a9be f3df f4bd
0.20810819 -0.5463257 -0.31070843 0.5152003 0.88317055 0.06478233 0.40161765 -0.41208094
-0.64564013 0.2875952 -0.46935213 -0.55838233 0.029548498 0.5594264 0.60821253 -0.078748405
0.21701758 0.23595683 -0.029029729 -0.0030961381 -0.12306379 -0.25113732 -0.28309432 1.0760255
0.031463962 0.7542661 -0.2192862 0.38803497 -0.48135915 0.2692901 -0.3302357 -0.119567774

conv_layers.1.weight f4 [64, 32, 3]
00000000: b6de 103e 3fe4 463e b6fa 81be 15cf 883e
00000010: 6c99 113f cafb 343e 8898 ba3e e00d a4be
00000020: cd9a 5ebf bb62 75be fbe0 f53e e6c8 b1bf
00000030: 6376 153f 552b dd3e 02a4 103e 80c0 433d
00000040: c975 19bf e5f2 1ebf d797 e13e 36eb bcbe
00000050: d31d 46bf 8248 b73e 601b c3bd e8af 77bf
00000060: 8476 03bd efcc 3dbd 0249 8ebf 8272 1a3e
00000070: 4afa d3be baba 48be 996a dc3e 0d73 5dbe
00000080: b017 87bf ed83 373f fa8f 363f 2df4 75bf
00000090: 41c3 16be fc65 a13e f9de 46be 037f 423d
000000a0: fefc 9d3d 5421 bbbe c37c 033e b04f 58be
000000b0: e3e1 76bf bd08 4bbf 5282 76bd 438a debe
000000c0: 6056 203e b720 0a3f 1895 babf 5a34 0b3f
000000d0: 1327 2cbf e32a 823e 2573 283e f4c7 c2bc
000000e0: 6ff1 88bf a2c2 273e 3026 ef3c 509e f6bd
000000f0: 8756 2fbe bc5a 603e 48a5 c0bf c5f8 e63d
00000100: b8c4 04be 070d 85bf d007 d8bc a018 e5bf
00000110: 579f 2bbf 2083 0e3f 5178 c1bd 4fc7 04be
00000120: a227 7cbe d713 d83e d128 26bd 6a66 2c3e
00000130: f11d f03d fa50 eb3e 87b0 fa3c 20d7 263f
00000140: d6af d0bd 513d 9e3d 7bfd 743d f330 7ebe
00000150: 1947 1b3f 0f68 fdbd d9de ba3e cd1e 943d
00000160: 905d 4c3e 54b7 f9bf f04f f13e 1294 5bbf
00000170: afd0 1dbf bdba 9cbe db78 693e 9970 8d3e
00000180: 82ea e7be 2193 573e 48d0 913f 535a 76bf
00000190: 5384 8f3e 0345 673f 9fb8 69bd e324 f73c
000001a0: 6678 373e 973b f23e a064 993e 74d7 dbbb
000001b0: 0c53 af3c 550c e73e 942f b13d f15d f53e
000001c0: 4b2b 41bf 9359 393e 5fd2 d23e 6f36 993e
000001d0: 0a17 9cbe faf7 b73e 2eff a63e 3a8a 94bd
000001e0: c743 b13e 3fe8 f03e 3158 1abd bbe2 663f
000001f0: 3a0e 9bbf cf58 8c3d 72cb 033e da73 79be
00000200: eaa7 e5bc 9d3f d73d 04d9 133e afaa 0ebf
00000210: 717f 443f 9876 9dbf e992 b43d 1a74 de3e
00000220: e872 64bf 2abc 89bd 008e 8a3e 796d c03d
00000230: f717 d4bc f5c2 4f3f dde0 3f3e 65ff d63e
00000240: 7abf b43c 82bb 433f 6720 33be 3258 803f
00000250: f298 59be 6f36 773f 8565 12be 67c0 ba3e
00000260: 5011 29be 0501 e0bd a51d 1f3f 010c 55bf
00000270: 0647 f83d 6c11 163f ef15 1cbc 624a bf3e
00000280: 3b64 333f 3c0f 9fbe 8d88 913c b338 eebe
00000290: f4df a23e dc86 e5be d734 4d3f 8cff 5b3f
000002a0: 3a76 4f3f 990b 88bf dcf9 c2bc 7a79 30bf
000002b0: ec11 013e af56 7f3f 1e77 4cbe 42f2 093f
000002c0: c2a6 083e 3a47 fa3e 1f7c c1bf 5d6a 303e
000002d0: 4a1a 89bc 8896 0d3f aee1 453e 6bf1 8b3e
000002e0: 9051 323f 162b 2fbd 449b e93e e25d 42bf
000002f0: 5a6a c43e 8f5b 56be 71b5 0fbe 8c3f 4bbd
00000300: 35bb 69be c8c3 21bf f725 d93e 57a9 e1be
00000310: 18c8 e9be 61f9 5e3e bff3 633e e4bb 81bf
00000320: eedc 6ebe 1b73 d63e 81af f53e 1af1 4bbf
00000330: 0169 73bf b1b2 a53e 5ab2 e6be dc1b 053f
00000340: 4335 d7be f018 c5bd 9c36 21be 12d4 d8be
00000350: ebb5 bbbd cbcb 7c3e b2f7 c93d fd7d 8abe
00000360: 2dab e3be 9924 323f 9f58 9ebe a5f4 4e3f
00000370: 65d4 50bf f02a 4c3e 35f0 423f 2e64 e1bd
00000380: 2693 d3bc 0e50 e63d e2a8 54bd 0ece fbbe
00000390: 8feb 76be cb5b dbbe 5b66 fb3e c027 993e
000003a0: 7660 82bf fcf1 3e3e 8c14 84be 86c9 ff3c
000003b0: db70 fbbc 626f dd3e 48da 2e3e 8825 013d
000003c0: 58da 0c3f ff24 2e3f fd8d 00be d368 543f
000003d0: cad3 11be cbc7 f4bd b20f 45be 0494 6abe
000003e0: 659e 3e3e 23ef bbbf a0ea 773f 8107 d0bf
000003f0: 222a 81be 81a4 243f 3cf4 3cbe 76f0 063e
0.14147457 0.19423006 -0.2538659 0.2672049 0.5687473 0.17674175 0.36444497 -0.32041836
-0.8695496 -0.23963444 0.4802321 -1.3889434 0.5838377 0.43197122 0.14125064 0.047791004
-0.5994535 -0.6208938 0.44061157 -0.36898202 -0.7738926 0.35797507 -0.09526706 -0.96752787
-0.032095447 -0.046338018 -1.111603 0.15082744 -0.41401893 -0.1960248 0.43050078 -0.2162592
-1.0554104 0.7168568 0.7131344 -0.9607571 -0.14722921 0.3152312 -0.19420995 0.04748441
0.0771427 -0.36548865 0.12840562 -0.21124148 -0.96438426 -0.7931021 -0.060182877 -0.4346486
0.1565795 0.5395617 -1.457675 0.5437676 -0.6724712 0.25423345 0.16450174 -0.023776986
-1.069868 0.1638284 0.029193014 -0.120419145 -0.17122851 0.21909612 -1.505044 0.11277918
-0.12965667 -1.0394601 -0.026370913 -1.789814 -0.6704001 0.5566883 -0.09446777 -0.12966655
-0.24624494 0.42202637 -0.04056627 0.16835943 0.11724461 0.45960218 0.030601753 0.65172005
-0.10189788 0.07726539 0.05981205 -0.2482336 0.6065536 -0.12373363 0.36498144 0.07232437
0.19957566 -1.9509072 0.471313 -0.8577281 -0.6164655 -0.3061122 0.22800009 0.27624968
-0.45296103 0.21052219 1.1391687 -0.96231574 0.28030643 0.9033968 -0.057060834 0.030168956
0.17917022 0.47311088 0.29959583 -0.0067090336 0.021401905 0.45126596 0.08651653 0.47923234
-0.75456685 0.18100576 0.41176125 0.29924342 -0.30486327 0.3593138 0.32616562 -0.07252927
0.34622023 0.4705219 -0.037681762 0.90189713 -1.2113717 0.068528764 0.12870577 -0.243606
-0.02803417 0.1051018 0.14438254 -0.5572919 0.7675696 -1.2301817 0.088170834 0.43447953
-0.89237833 -0.067253426 0.27061462 0.0939588 -0.025890334 0.81156856 0.18738122 0.41991726
0.02206396 0.7645799 -0.1749283 1.0026915 -0.2124975 0.96567434 -0.14296539 0.36474916
-0.1651051 -0.109376945 0.6215461 -0.8322144 0.12122922 0.58620334 -0.009526714 0.37361437
0.70074815 -0.3106631 0.017765308 -0.46527633 0.31811488 -0.44829452 0.8015875 0.8593681
0.81039774 -1.0628539 -0.023800783 -0.6893536 0.12604493 0.99741644 -0.19967315 0.5388528
0.13344863 0.48882467 -1.5116004 0.17228074 -0.016736168 0.5530782 0.19324371 0.27332625
0.69655704 -0.0427657 0.4562627 -0.75924504 0.3836239 -0.20933364 -0.14034058 -0.04962115
-0.2282532 -0.63189363 0.42411777 -0.4407451 -0.45660472 0.21774818 0.2226095 -1.0135465
-0.23326465 0.41884694 0.4798546 -0.79664767 -0.950821 0.32362893 -0.45057946 0.51995635
-0.42032823 -0.09623897 -0.15743488 -0.42349297 -0.091655575 0.24687116 0.09861697 -0.27049246
-0.44466534 0.69587094 -0.30926988 0.8084205 -0.8157409 0.19938254 0.76147777 -0.11005436
-0.025827002 0.11245738 -0.05191887 -0.49180645 -0.24113296 -0.4284347 0.4910153 0.2991314
-1.0185688 0.18646997 -0.25796926 0.031224024 -0.030693462 0.4324904 0.17075455 0.031529933
0.55020666 0.680252 -0.12554164 0.8297245 -0.14240947 -0.1195217 -0.19244269 -0.22908026
0.1861511 -1.4682354 0.96842384 -1.625229 -0.25227457 0.64313513 -0.18452543 0.13177666

conv_layers.1.bias f4 [64]
00000000: 2d35 03be e0de 0cbf a198 853e b851 80be
00000010: b5b7 0dbf e781 b6be 46d4 94be a045 453e
00000020: 2761 aabe fd1d 40bf 5a0e febe d9e3 583e
00000030: 47eb 513f 24c7 423e c89f 1e3e 0e50 133d
00000040: b106 d03d 284c a63d 1074 bb3d 130d 99bb
00000050: bf9e aabe a253 a23e 0dd3 34bd 42cd 51bc
00000060: f210 14bf f682 283e 5d5a e43e ca6a df3b
00000070: 642a 43bf cfc2 2c3e 4b99 273f 589e ac3e
00000080: e21d 313d bc36 963e 93df 78be a4ce b63c
00000090: 8113 2bbd cbbe 48bc 2f10 6fbc b83b 7cbd
000000a0: 135a 78be 8729 1e3f ab2b 1abe f9d1 8a3e
000000b0: 5647 b23e 1a87 f0be 6b19 90be 2802 fa3d
000000c0: 8f3a 32bf f876 2a3f 3578 363f bbb9 a23d
000000d0: ca5f e8bc 709b 083e ed25 23be 1efd 6dbe
000000e0: 026c 50be c889 2a3e 6256 3abe 42d3 9fbd
000000f0: e575 6f3e 1bc3 373e 528e f2bd c8e5 0d3f
-0.12813254 -0.5502758 0.2609301 -0.25062346 -0.5535844 -0.35645983 -0.29068202 0.19264841
-0.33277246 -0.7504576 -0.49620324 0.21180667 0.8199963 0.19021279 0.15490639 0.035965018
0.10157526 0.081199944 0.091529965 -0.004670748 -0.3332424 0.31704432 -0.044146586 -0.012805285
-0.57838356 0.16456208 0.44600192 0.00681815 -0.7623656 0.16871189 0.6546828 0.33714557
0.04324139 0.29338634 -0.24304037 0.02231533 -0.041766647 -0.01225252 -0.014591261 -0.06158039
-0.2425311 0.61782116 -0.1505572 0.2711332 0.3482005 -0.46978074 -0.28144392 0.122074425
-0.69620603 0.6658778 0.7127717 0.079455815 -0.028365988 0.13340545 -0.15932436 -0.23241088
-0.20353702 0.16654122 -0.18197015 -0.07803966 0.23384817 0.1794552 -0.11843552 0.55428743

bn_layers.0.weight f4 [32]
00000000: b3a4 803f 3a32 913f 09e0 553f 1416 7b3f
00000010: 56df b93f a1df a13f 8fd0 9a3f 29c8 ac3f
00000020: 6fb1 543f 5d68 6e3f 5a7f a73f d6f7 893f
00000030: 01c4 623f 0839 a93f 3d5c 723f febe 593f
00000040: d225 933f 2db1 833f 788d 943f e89b a33f
00000050: f882 5a3f 62ef 8d3f ba68 7a3f 72b8 bb3f
00000060: 4b07 6f3f 78a2 a23f e523 853f 2fac 5a3f
00000070: b78e 7f3f 51f8 803f a35a a43f afef 9e3f
1.0050262 1.1343453 0.83544976 0.98080564 1.4521282 1.2646371 1.2094897 1.3498584
0.8308324 0.93127996 1.308574 1.0778759 0.8858033 1.322053 0.94671994 0.85057056
1.1495917 1.0288445 1.1605673 1.2781954 0.8535609 1.1088679 0.9781605 1.4665663
0.93370503 1.2705832 1.0401579 0.8541898 0.9982714 1.007578 1.284016 1.2416896

bn_layers.0.bias f4 [32]
00000000: 90b0 4cbf fb55 6bbf ec80 0bbd 6748 c7be
00000010: 86fe 1cbf 2450 d0be 54af babe 1320 a7be
00000020: 94d4 ecbd f234 e43d 8dd3 1dbf b08a 0cbf
00000030: 25af b33d 7ecb c6be 5b6e 7abe a79c 8ebe
00000040: 4347 f2be 5ad9 57bf 3a45 13be 4a94 c1be
00000050: e33f 82bd b490 a3be b8d1 06bd 0f12 5abf
00000060: 5f99 a73d 1cb5 8ebf 4a8a 7ebe e140 a83d
00000070: 7c0e eabe 3d73 85be dd72 edbe bc24 23bf
-0.79956913 -0.9192807 -0.034058496 -0.38922426 -0.6132587 -0.40686142 -0.3646189 -0.32641658
-0.115639836 0.11142911 -0.61650926 -0.5489912 0.087736405 -0.38827127 -0.2445616 -0.2785389
-0.47319993 -0.8431603 -0.14381877 -0.37808448 -0.06359842 -0.31946337 -0.032914847 -0.85183805
0.0818355 -1.114902 -0.2485744 0.082155 -0.45714176 -0.26064482 -0.46376696 -0.6372793

bn_layers.0.running_mean f4 [32]
00000000: a998 413e 85f6 0fbf c88c 97be 0139 073f
00000010: dc3e 5f3f c68b a73d 74dd c93e 8ee0 d7be
00000020: 953c 25bf 5e53 983e 1509 e7be a4ff 0fbf
00000030: d8c3 103d b079 0e3f acd2 193f d40a 89bd
00000040: 06b1 6b3e e0ac 813e 1650 1ebd 73b8 6dbc
00000050: 4689 fbbd 68ae 81be f31f 61be d210 883f
00000060: 7ea5 0f3d b141 3d3f cab8 69be 17ce ca3e
00000070: fe0b fdbe 400d 8a3e d355 a1be e706 0abe
0.18905891 -0.56235534 -0.29599595 0.52821356 0.8720529 0.081809565 0.39426768 -0.4216351
-0.64545566 0.29751104 -0.45124117 -0.5624945 0.03534302 0.5565443 0.60087085 -0.066915184
0.23016748 0.25327206 -0.038650595 -0.014509308 -0.12282042 -0.25328374 -0.21984844 1.0630133
0.035069935 0.7392836 -0.22824398 0.3961036 -0.49423212 0.26963234 -0.3151079 -0.13479196

bn_layers.0.running_var f4 [32]
00000000: 8fdd 4a3f b674 4f3f 991f ac3f ce95 b43f
00000010: 25ed 903f ff6f e33f ecd2 0b40 9991 0840
00000020: c2de 673f 2b0b e53f be4d 5d3f aff8 503f
00000030: 4952 953f 396f a53f 387e e93f c29c 913f
00000040: 2179 973f 71c0 913f 9f35 2f40 e333 923f
00000050: 7a89 c13f fcf4 dc3f cb1a 8641 f39b 893f
00000060: 7f9c 9c3f 8a9d 543f 2e97 a43f e547 943f
00000070: 8737 8c3f 467c c73f 67f1 613f ba38 fe3f
0.7924432 0.8103746 1.3447143 1.4108217 1.1322371 1.7768553 2.1847486 2.1338866
0.90574276 1.7894033 0.8644675 0.8162946 1.1665736 1.2924567 1.8241644 1.1375964
1.1833841 1.1386853 2.7376478 1.1422085 1.512008 1.7262263 16.763083 1.0750717
1.2235259 0.83052886 1.2858636 1.158444 1.0954446 1.55848 0.88258976 1.9861062

bn_layers.1.weight f4 [64]
00000000: d92e b83f c79c 903f ab6b 993f bd14 813f
00000010: 51e6 8e3f 1394 8e3f dc78 ac3f cd7f c43f
00000020: c6d2 7c3f cef2 9b3f ef55 953f fef7 953f
00000030: 00fc 943f 3753 833f fcc6 753f 4388 873f
00000040: 3345 5d3f dba2 903f d1b1 a83f f539 bc3f
00000050: d571 873f 7c99 993f c62f 893f b911 2a3f
00000060: 457f 463f 22d2 803f 9050 cc3f ed38 7c3f
00000070: 047d 7b3f 5437 9a3f 55c8 8d3f 8db7 983f
00000080: 3008 863f 2d4a bb3f bb40 8e3f f236 a53f
00000090: 54e1 4a3f 14ff 963f fcfb 943f 192e 973f
000000a0: 9982 6a3f 1b93 9a3f 88d4 933f 742f a63f
000000b0: 16cf 913f 9449 6f3f f559 7f3f e807 6d3f
000000c0: 1e0a 8b3f 2295 943f 6710 933f 63f5 5c3f
000000d0: bde5 c33f be96 613f 8d98 8e3f fa62 8d3f
000000e0: 04df 933f 4a1c b13f 5ec6 ad3f c4a0 c23f
000000f0: 73ca 443f 4791 c03f 9927 953f 430b 843f
1.4389297 1.1297845 1.1985983 1.0084454 1.1164037 1.1138939 1.3474383 1.5351502
0.98759115 1.2183473 1.166685 1.1716306 1.1639404 1.025977 0.9600675 1.0588459
0.86433715 1.12997 1.3179265 1.4705187 1.0581614 1.1999965 1.0717704 0.6643329
0.7753795 1.0064127 1.5962086 0.9852436 0.98237634 1.2048135 1.1076761 1.1931015
1.0471249 1.4632012 1.1113504 1.2907393 0.79250073 1.1796594 1.16394 1.1810943
0.91605526 1.2076143 1.1549234 1.2983232 1.1391323 0.93471646 0.9974664 0.9259019
1.0862463 1.1608012 1.1489381 0.8631193 1.5304486 0.8812064 1.1140305 1.104583
1.1552434 1.3836758 1.3576162 1.5205312 0.76871413 1.5044335 1.1652709 1.0315937

bn_layers.1.bias f4 [64]
00000000: 7e2d 27bf 3b1f 11bf fe7d cebe 7664 e2be
00000010: a777 efbe 02c2 e9be 8cc5 bfbe a7c7 34bf
00000020: 00a0 8dbe 397d dabd 14fb b7be 9150 9abe
00000030: 8979 87be c560 93be eecd c7be 6be8 3ebe
00000040: c28f 8ebd 6f3d 27bf 1372 f1be 51c5 5bbf
00000050: 119c 05bd 328a 83be 3469 00bf 5ae3 cdbe
00000060: a56f 26bd 71c2 66be d987 42bf 8839 dabe
00000070: a5db f9be 2ec8 91be d77e 94be b115 05bf
00000080: 447d dabe 4ec5 63be 605d 05be 59d6 72be
00000090: 07fe 123d 4877 80be f64f abbe f33d b1be
000000a0: d224 11bf df57 f7be 75bc eebd 79bd 8f3d
000000b0: e7b3 fbbe 6d8f c8be b14f c8be b89f 97be
000000c0: af87 63be b40f dcbe 2bd4 26bf 3c51 3dbe
000000d0: 32dc 61bf b8bb 8ebe fae0 81be 22e4 fbbe
000000e0: 7fdb 42be ace7 f7be de51 ffbe 26e7 f4be
000000f0: 3f23 14be 5991 3fbf c5b9 a4bd bc78 b9bd
-0.6530379 -0.5668828 -0.403305 -0.4421727 -0.46770975 -0.4565583 -0.37455404 -0.70617145
-0.27661133 -0.106684156 -0.35933745 -0.30139592 -0.2645991 -0.28784767 -0.390243 -0.18643348
-0.069610134 -0.65328115 -0.47157344 -0.85847956 -0.03261954 -0.25691372 -0.5016053 -0.40212518
-0.040633816 -0.22535111 -0.7598854 -0.42622018 -0.48800388 -0.28473037 -0.2900302 -0.51986223
-0.42673695 -0.22243235 -0.13023901 -0.2371458 0.03588679 -0.25091004 -0.33459443 -0.34617576
-0.5669681 -0.48309228 -0.11657039 0.07018561 -0.49160692 -0.39171925 -0.391233 -0.29614043
-0.22219728 -0.4298073 -0.6516749 -0.1848802 -0.88226616 -0.27877593 -0.25366956 -0.4919749
-0.19029044 -0.4841894 -0.49867147 -0.47832602 -0.1446657 -0.7483116 -0.08043245 -0.090562314

bn_layers.1.running_mean f4 [64]
00000000: 9528 f9c0 37b0 3640 9749 21c0 2f71 4fc0
00000010: 4b1d 99c0 e35e adbf 156d eec0 de1b 79c0
00000020: f79e 57c0 1c68 44c0 44cf 85c0 c138 9d3e
00000030: 2c75 01c0 f4df e9c0 1562 3f3f 0e97 48c0
00000040: 61ac 1a40 2510 da40 89e4 3fc0 6226 1141
00000050: 8ea4 87c0 f101 1a41 542a 12c1 4f30 fb3e
00000060: 66fc a9c0 e0c0 82c0 6076 6c41 809a 4e41
00000070: 4103 d4c0 61a2 03c0 77e7 b4c0 786f 53c0
00000080: 4f63 5a41 1b46 2bbf 5e4b 863f 032b 0fc0
00000090: b0da 8dbd e0de 8cbe 22f9 abc0 4046 2f41
000000a0: c372 10c1 1a27 e540 7ef5 b13f 6467 c640
000000b0: 18e6 83c0 be97 b53f 4ca5 40bf 080e 43c0
000000c0: e35d 10c0 d024 0cc0 1d33 ae3f c2ff 693f
000000d0: 1343 3841 16d5 74bf 6571 233e 3faa 05c1
000000e0: 20f0 b23e d636 23c1 24b7 19c1 1636 9440
000000f0: 6d79 0540 c16e 09c1 5b8f 04c1 5acf 3240
-7.786204 2.8545053 -2.5201166 -3.2412832 -4.784826 -1.3544582 -7.4508157 -3.8923259
-3.3690774 -3.0688543 -4.181551 0.30707362 -2.0227766 -7.308588 0.74759036 -3.1342196
2.4167712 6.814471 -2.9983237 9.071871 -4.2388372 9.625474 -9.135334 0.49060294
-5.3120604 -4.0860443 14.7789 12.91272 -6.625397 -2.0567858 -5.653255 -3.3036785
13.649245 -0.6690385 1.049175 -2.2370002 -0.06926477 -0.2751379 -5.3741617 10.954651
-9.028018 7.161023 1.3903043 6.200121 -4.1218376 1.4186933 -0.75252223 -3.0477314
-2.2557304 -2.1897469 1.3609349 0.9140588 11.516376 -0.95637643 0.15961225 -8.354064
0.34948826 -10.200888 -9.607212 4.6316023 2.0855362 -8.58954 -8.284999 2.7939057
