government_icfes_dataset/results_ml/checkpoints/model_classification_20250522_104001.pt (torch, 741039 bytes, 39 tensors)

embeddings.0.weight f4 [4, 8]
00000000: 1f71 bb3f ccb2 2ac0 c813 1e3f 0734 b1be
00000010: 327b 743f a32d a9bf 5b21 29bf d469 d7bf
00000020: 9309 033c eaca ca3f d0b7 7cbf e0e8 0f40
00000030: aed7 09bf 1b67 06bf 7723 02c0 3946 eb3f
00000040: 1f3c bc3c 0a26 91bf a9e1 7cbf b19f c5be
00000050: 057c 843f 69b5 0d3f 06f6 16be d791 83be
00000060: 616d 413f 7c91 b93f 6a72 03bf 68c0 1fbd
00000070: b677 643f 53ab 87be e2c0 a63f 36f3 bf3e
1.4643897 -2.667163 0.61748934 -0.34610006 0.9550048 -1.3217052 -0.6606652 -1.6829171
0.007997888 1.5843174 -0.98717976 2.2485886 -0.53844726 -0.52501076 -2.0334146 1.8380805
0.022977887 -1.1339734 -0.9878183 -0.38598397 1.0350348 0.55354935 -0.14742288 -0.25697204
0.75557524 1.4497523 -0.51346457 -0.039001852 0.89245164 -0.26497898 1.3027613 0.37490243

embeddings.1.weight f4 [3, 8]
00000000: 2dc1 60be 8aee 863e df2f 11bf 5fd5 8d3f
00000010: 9735 583f 1ddf f3be 0441 373f d5fb 24c0
00000020: a53e 35bf f331 fb3f 884d df3f 11a7 ea3e
00000030: d901 ef3f b60c 0e40 651b b2bf 2fd4 513e
00000040: 7df0 3e3e c1ed ba3f 9ebe 593c dc10 8d3f
00000050: 0085 223f 37b2 453f 3299 93bf 2e32 5ebf
-0.2194869 0.26353866 -0.5671367 1.1080741 0.8445677 -0.4763116 0.7158358 -2.5778706
-0.7079871 1.9624618 1.7445536 0.45830587 1.8672439 2.2195258 -1.391461 0.20491098
0.18646426 1.4603807 0.013290076 1.102077 0.6348419 0.7722506 -1.1531126 -0.8679532

embeddings.2.weight f4 [5, 8]
00000000: abc1 a5be 0c8a 97be 706c d7be 1d52 29bf
00000010: 1653 91bf a65b c2bf e0a6 303f 66e1 793f
00000020: b1bd 1040 5d25 c3bf 128d 26be 3773 afbf
00000030: 7eb0 5940 7186 28bf 026f 703e d73a 66bf
00000040: fbfe 5b3f c863 7a3f ec46 3e3f e33f 903e
00000050: d0ea 74bf 0027 2ebe 1da8 0abe 560f 3a3f
00000060: b476 9cbf c788 063d baa5 27be d457 c03e
00000070: 1553 b8bf b216 b8bb c17f 033f 5182 cc3e
00000080: 0c07 8dbf 7d72 c63f edf1 a43c 5633 0040
00000090: 219f 1e3f 083e c9be 94d5 fabd 5c6c ce3f
-0.3237432 -0.2959751 -0.4207492 -0.6614092 -1.1353481 -1.5184219 0.6900463 0.97609556
2.2615778 -1.5245777 -0.16264752 -1.3707036 3.4013972 -0.6583014 0.23479846 -0.8993353
0.85935944 0.97808504 0.7432697 0.28173742 -0.95670795 -0.17007065 -0.13540693 0.7267965
-1.2223725 0.032845285 -0.16371813 0.37567008 -1.4400355 -0.00561794 0.5136681 0.39943174
-1.1017776 1.5503689 0.02013489 2.0031333 0.6196156 -0.3930514 -0.12247768 1.6126819

embeddings.3.weight f4 [7, 8]
00000000: fece 74bf a3c3 efbe 1015 c03f b7a9 a23f
00000010: 63fd 9c3e 14bb 1c3f b452 d1bf d9cd a43d
00000020: d1fc 07bf f1ec 0c3f effe 9abe b4e3 9f3f
00000030: 87f9 12c0 1574 c5be ceff 043f 308a b43f
00000040: a21b dfbe 5aa0 c9be a1fd 2b3f a736 94be
00000050: e4c0 01c0 0703 443e 00d7 05be c331 64bf
00000060: e0e2 f6bd 14fe f5be b3a4 8dbe 6945 f8bc
00000070: 3b2b 1b3f af97 e8bf ed52 6e3f b829 cc3e
00000080: 8d2a 0fbf ce52 08bf 7eea 2bbf 9376 95bf
00000090: fc95 15c0 7660 a73f 07de 0d3f 7a43 5dbf
000000a0: a250 d3bf 1d84 29bf ef1f c9bf 89aa 6b3e
000000b0: 6145 603e 9229 d5bc f4fb 3ebf c61d 183f
000000c0: ca93 9cbf 94d7 453f edb2 9a3f 1edd 00be
000000d0: 684c 583f a24e b6be 30a6 be3e 7803 89bf
-0.95628345 -0.46828946 1.5006428 1.2708043 0.3066207 0.6122296 -1.6353364 0.08047075
-0.5312014 0.55049044 -0.30272624 1.2491364 -2.29648 -0.38565126 0.51952827 1.4104671
-0.4357577 -0.3938015 0.6718388 -0.28947946 -2.027398 0.1914178 -0.13070297 -0.8913843
-0.12054992 -0.4804541 -0.27664718 -0.030306535 0.6061284 -1.817129 0.93095285 0.3987558
-0.559243 -0.5325135 -0.6715468 -1.1676811 -2.3372793 1.3076313 0.5541691 -0.86431086
-1.6508982 -0.66217214 -1.571287 0.23014273 0.21901466 -0.026020799 -0.746032 0.5942043
-1.2232602 0.7728207 1.2085854 -0.1258435 0.84491587 -0.35606867 0.37236166 -1.0704184

embeddings.4.weight f4 [7, 8]
00000000: 26f7 0e3f eadd d4be b943 783f f1a7 0140
00000010: f423 cdbe 7fcc 94be ff24 c7bf 6af5 be3f
00000020: c6cc c03e d55e 42bf af3d dcbe 79bd edbe
00000030: 5242 6dbf e521 913f b81d cc3f b8b8 bcbf
00000040: 9472 ddbf 9bc4 953f 1a81 0e3f 3d24 4d3f
00000050: b9b8 28bf a3ff 30bf 2fa0 3abf f1aa a5bf
00000060: 282a 0e3d dada a73e a2b9 d63e 571d 8fbd
00000070: 329a 483e d42c 70bf edca 6dbf 7285 96bf
00000080: 1031 d1bd 626f 8e3f 3b10 353e e7fc 2cbf
00000090: 6510 d13f 53e4 2d3e 4b25 fc3e 9823 243f
000000a0: 54c0 15bc b682 303d a7b3 943f d153 ecbf
000000b0: 1b81 183f b0b9 a2bf ffb2 c13f 5e9d c93e
000000c0: 8141 3c3e b80d d53f eee0 db3f d596 1cbe
000000d0: b2f9 aebe c4f8 b2bf 0a2b 85be d43a 50bf
0.5584587 -0.41575557 0.96978337 2.0258753 -0.40066493 -0.29062268 -1.5558165 1.4918644
0.3765623 -0.7592595 -0.4301581 -0.4643362 -0.9267932 1.1338469 1.594657 -1.4743872
-1.7300591 1.1700624 0.55665743 0.8013342 -0.65906864 -0.6914007 -0.7290067 -1.2942792
0.034708172 0.32784158 0.41938502 -0.06988018 0.19590071 -0.938184 -0.92887765 -1.1759474
-0.10214436 1.1127741 0.17681973 -0.675734 1.6333128 0.1698163 0.49247202 0.6411681
-0.009140093 0.043093406 1.1617326 -1.8463079 0.59572 -1.2712917 1.513275 0.39377874
0.18384363 1.6644812 1.7178018 -0.15291913 -0.34174877 -1.3982167 -0.260094 -0.81339765

embeddings.5.weight f4 [1025, 8]
00000000: d17e f3bd 9a84 c2bc 3445 f8be 8263 01c0
00000010: a52c ab3f 066c 8bbf 1b22 e2be 6168 87bf
00000020: a799 4fbf f369 813f 40e0 4a40 ec8d b33f
00000030: bde1 12bf 100c c6be b242 05be b670 5b3e
00000040: fa16 32bf 743f 72bf 0be3 c7be ada9 0f3e
00000050: c44f 3fbf 2160 903b 1b4e 06c0 cf58 72bf
00000060: 7cef 2c3f 075e ae3f 175c 5fbf ca7e f43f
00000070: 7384 0a40 53bc b93f 7d73 843f be5b c83d
00000080: 16fc 9fbe 2b5d 14bf 7959 fabf a498 b0bf
00000090: 8149 c53f f105 4fbe 85e8 a43f bda0 15bf
000000a0: 1015 10be 4466 723f 101a 2b3f 851e 99bf
000000b0: 928a 0540 6d5e 81be c7c2 d23a 01ad 9a3e
000000c0: 6270 b1bf 48e5 3a3f f71f bf3e ca03 ae3f
000000d0: 4e94 7c3f 8d22 fbbf 6550 e23e e852 543f
000000e0: 3405 31bf f1f9 36bf 40fc 363f 7cf0 adbe
000000f0: 7d6c 793e 522d bb3f 6fbd 913f 7fc7 493e
00000100: 4316 9cbe 7eca bdbe 0c7b 9b3f abd0 a93c
00000110: 6f64 cebf d16c 38bf 76a8 963f a304 d13e
00000120: 46ea e63e 23b0 dd3f 7bdc 0abf 69b7 8bbf
00000130: b1a9 573e acb2 9d3f fc4d 553f d190 87bf
00000140: 0acc 07c0 e9db cabe 2758 90be 9c6e 1c3e
00000150: 3000 8f3f 3916 9abf d76b 10bf b923 4ebe
00000160: f7a7 623f c267 99bf a60a 8a3e b915 3e3e
00000170: 3e73 33bf 9516 52bf a332 403f 6d1a f9bf
00000180: 143f ad3d e92a 97bf e264 813e e60c 6ebf
00000190: 6fc3 33be 5b6b c93f 5dbe 1b3e b3bc 13bf
000001a0: 212b 29bf 43c3 b0bd b671 3c3f 9d45 0fbf
000001b0: 046e a3bf 417a ddbf 713f 0d3f cc4d 91bd
000001c0: d4f4 b8bf 0575 15bf 6265 dfbe 56a1 a0bf
000001d0: 0478 3abf 570a 483e 896a 94be 01d0 463e
000001e0: 53cb ed3f f5eb 2cbf 691d b6bf a79e 0fbf
000001f0: 81ec 3c3f 90ea 3d3f d452 053e eb4e da3e
00000200: 4bba 9dbd fb80 b9be efb3 9bbf 35a1 39bf
00000210: 5936 18bf 8f77 43bf 6dac 483f eb41 823f
00000220: 62a6 883f 9deb c0bf 5c54 a3bf 8890 de3f
00000230: c644 d5bf 1c4b e5bf 4803 e4be c734 ebbf
00000240: a350 d8be 53f5 e33e adee 31bf c4c9 d3be
00000250: d980 55bf 6a0a 83bf e86f 3bbf 7eab 0940
00000260: fc47 05bf be86 62c0 1b1a 27c0 a5bd 013f
00000270: 4493 1440 f18f b03f f181 2a3d 54ce ad3c
00000280: 6f70 643e 79f5 743d 31c8 5c3f e567 d33d
00000290: deaa cabf 104c bbbe 8665 16bf 1783 25bf
000002a0: 4e6f cc3f 9d61 693f 1cf5 8f3f b343 2dc0
000002b0: 55e6 dc3e ebec 1f40 e960 0fc0 28ae 813f
000002c0: 0a8b 4abf c1be 9d3d d60d 5c3e 957c 5b3f
000002d0: 7534 913f 7848 f53f 6362 5a3f 2eae 53be
000002e0: 1f57 cebf 5532 a0be 94c5 e6be 3454 83bf
000002f0: fd50 9b3f 947e 90bf 5285 8f3d e33e 393f
00000300: a0cb 8abf 6d86 63bd b196 82bf 711b 6ebf
00000310: f0e1 a7bf 68fe c1bf 9850 6dbf 04f2 a7bf
00000320: 3806 1b40 7ef8 1040 4ae8 6c40 f989 ab3e
00000330: a962 2140 bac0 0b40 9020 173f 725f ce3e
00000340: 2750 8d3f 4424 1140 f285 4abf f990 7e3f
00000350: 1a02 0340 b539 3c3f 163a 2b3f bc57 f23e
00000360: 8796 833f a1ba e1bf ab89 45bf 0cdf fcbd
00000370: 72f4 ffbf f27c 03c0 d7ba 9b3f 2990 b3be
00000380: 7175 ac3e fd2a da3d 6272 d13f dd98 24c0
00000390: f496 4bbe 0ca5 63bf df24 813f 68f1 623f
000003a0: 4da8 88bf 05af 6ebf fcea d6bf 936f 87bf
000003b0: 54c4 5f3f 1ead 33bf edf7 61bf a036 5c3f
000003c0: 0467 0ebf 3271 e63f 6552 e33f b431 db3e
000003d0: ae41 0540 a095 543f 94f5 033f 95f8 dc3e
000003e0: aacc 8f3d 3554 743e 3472 53bf 4ea3 c0bd
000003f0: 4821 fbbf 4f4b a3be 19f2 293e e61c dd3f
-0.11889423 -0.02374487 -0.48490298 -2.0216985 1.3373 -1.0892341 -0.44166645 -1.0578729
-0.8109383 1.0110458 3.1699371 1.4027686 -0.573757 -0.38681078 -0.13013723 0.21429715
-0.6956631 -0.9462807 -0.39040408 0.1402957 -0.7473109 0.0044059907 -2.0985172 -0.9466676
0.67552924 1.3622445 -0.8724989 1.9101193 2.164334 1.4510597 1.0347744 0.097831234
-0.31247014 -0.57954663 -1.9558555 -1.3796582 1.5413057 -0.2021711 1.2883459 -0.5844839
-0.14070535 0.94687295 0.66836643 -1.1962439 2.0865827 -0.25267354 0.0016079777 0.30210117
-1.3862422 0.73006105 0.37329075 1.3594906 0.98663795 -1.9619919 0.4420196 0.82939005
-0.69148564 -0.7147513 0.7147865 -0.33972538 0.24357791 1.4623206 1.1385936 0.19705008
-0.30485734 -0.37068552 1.2146926 0.020729383 -1.61244 -0.7204104 1.177016 0.4082385
0.4510061 1.7319378 -0.54242676 -1.0915347 0.21060826 1.2320151 0.8332212 -1.059107
-2.1218286 -0.39620903 -0.28192255 0.15276569 1.1171932 -1.2038032 -0.5641455 -0.20130815
0.88537544 -1.1984789 0.2696125 0.18562974 -0.7009772 -0.8206571 0.75077266 -1.946119
0.08459297 -1.180997 0.2527228 -0.9298843 -0.17555021 1.5735887 0.15209337 -0.5770981
-0.66081434 -0.08630993 0.7361101 -0.55965596 -1.2767949 -1.7302934 0.5517493 -0.07094917
-1.4449716 -0.5838168 -0.43632036 -1.2549236 -0.7283938 0.19535194 -0.2898753 0.19415285
1.8577675 -0.6754754 -1.4227725 -0.5610146 0.73798376 0.7418604 0.13019878 0.42638335
-0.07701548 -0.36231217 -1.2164286 -0.7251161 -0.5945793 -0.76354307 0.783881 1.0176367
1.0675776 -1.5071903 -1.276012 1.7387857 -1.6661613 -1.7913547 -0.44533753 -1.8375481
-0.4224902 0.44523105 -0.69504815 -0.41364872 -0.8339973 -1.0237553 -0.7321763 2.151092
-0.52062964 -3.539474 -2.6109684 0.5068 2.3214884 1.3793927 0.041627828 0.021216549
0.22308515 0.059804413 0.8624297 0.10322551 -1.5833395 -0.3658147 -0.5874866 -0.6465315
1.5971467 0.9116457 1.1246676 -2.707257 0.4314448 2.4988353 -2.24029 1.0131273
-0.79118407 0.07702399 0.21489653 0.8573697 1.1344134 1.9162741 0.85306376 -0.20671913
-1.6120337 -0.312884 -0.45072615 -1.0260072 1.2134091 -1.1288629 0.07007851 0.7236158
-1.0843391 -0.05554812 -1.0202237 -0.9301062 -1.3115826 -1.5155764 -0.927011 -1.3120732
2.4222546 2.2651668 3.7016778 0.33503702 2.5216467 2.183638 0.5903406 0.40307194
1.1040086 2.2678385 -0.79110634 0.9943996 2.0470033 0.73525554 0.6688551 0.4733256
1.0280312 -1.763508 -0.7716319 -0.1234723 -1.9996474 -2.054501 1.2166394 -0.35070923
0.3368335 0.106527306 1.6363032 -2.57183 -0.19881803 -0.88923717 1.0089377 0.88649607
-1.0676361 -0.9323581 -1.6790462 -1.0580925 0.8740895 -0.7018603 -0.8826893 0.8602085
-0.5562594 1.8003294 1.775952 0.42811358 2.0821338 0.8304081 0.515466 0.43158403
0.070214584 0.23860247 -0.82596135 -0.09406148 -1.9619532 -0.31893393 0.16596259 1.7274444

embeddings.6.weight f4 [3, 8]
00000000: 7caf c3be 926a 463e 85a7 0240 b605 433f
00000010: 6579 383f 2091 34bf c8d6 6fbf 5b13 e73d
00000020: 05cb c4be b231 6fbf 4dd7 243f b777 27bf
00000030: 93ff cabd ccd5 0440 06c0 e5be 474c 40bf
00000040: eaa7 f4be 6a9a 78bf 8dc4 083f dee5 96be
00000050: 6594 023f 9ea5 64be 20d2 ad3c c145 b8be
-0.3821982 0.19376591 2.0414746 0.7618059 0.72060233 -0.70533943 -0.93687105 0.11282989
-0.38436142 -0.93435204 0.6439102 -0.65417045 -0.09912028 2.0755491 -0.44873065 -0.7511639
-0.47784358 -0.9711062 0.5342491 -0.2947225 0.5100768 -0.22328803 0.02121836 -0.35990718

embeddings.7.weight f4 [7, 8]
00000000: 4ea1 273f 25a0 09bf d863 873e 33b1 453e
00000010: 7b21 853f ac0f 3fbe a98b dfbf 49d1 af3d
00000020: b278 3d3f 2a7b 1cbe b7db a63d 1336 d6be
00000030: 1481 0bbf 6815 8bbf 7879 70bd b585 97bf
00000040: 5c0d b5bf 3b92 c2bf f4ee e9be f6cd b53e
00000050: 1f62 3d3f 3aad 8bbf e3f8 3a3f 3217 6d3f
00000060: 6f8b fbbf 1128 11be 5b46 21bf 6e5e e63e
00000070: 0736 41bf 404c 1f40 bd1f 143f 11ea bfbd
00000080: da46 26bc a014 3fbe 369c e83f afa8 2cbf
00000090: 4d8e 68bf eb35 9c3f 88e9 d1be 63c9 82bf
000000a0: c1f3 3a3e d9b1 3d3f ce38 503f df9a a0bf
000000b0: ab94 0dbf dabf 1e3e d803 f7bf b8ef 8fbf
000000c0: 8f84 813f ab60 ef3e 924e 47be 1d33 383f
000000d0: bba1 a1bf c85c d83f 9aef b53e 67bf 6b3f
0.65480506 -0.53759986 0.26443362 0.19305877 1.0400842 -0.18658322 -1.7464496 0.0858484
0.7401229 -0.15281358 0.08147376 -0.4183813 -0.5449383 -1.0865908 -0.05870959 -1.1837679
-1.4144702 -1.5200876 -0.4569012 0.35508698 0.73977846 -1.091224 0.7303602 0.9261352
-1.9651927 -0.1417544 -0.6299798 0.4499392 -0.75473064 2.489029 0.5786093 -0.093708165
-0.010148728 -0.18660212 1.8172672 -0.6744489 -0.90842134 1.2203954 -0.40998483 -1.0217708
0.18257047 0.740995 0.8133668 -1.2547263 -0.55304974 0.15502873 -1.9298048 -1.1245031
1.0118579 0.4675344 -0.19463566 0.7195299 -1.2627481 1.6903315 0.35534364 0.9208893

embeddings.8.weight f4 [7, 8]
00000000: 5527 bdbd a7d0 05c0 ad55 81be e972 8bbf
00000010: 0878 963f f571 5e3f 9a9d df3e 1cff 86bf
00000020: 2196 23bf 2940 733f 49af 49bf 3429 c93b
00000030: 94df babd dad4 e5bc 7f36 45c0 7994 b4bd
00000040: 7d13 dc3e 3991 a0bd 4656 1ebf 3b5a 34bf
00000050: 9d76 363f 977c b53e 2558 f2bf 5b1f cb3e
00000060: d2ea 423f c2b9 c0be 370b c53e df3c 62bf
00000070: 1fa6 0ebf 36a9 1c3e ede1 b83e 6202 efbe
00000080: 6491 59bf 0fba 15bd 927a 6ebf b652 ae3e
00000090: ca97 acbe f664 fc3e 9f1a bb3e 8ecb 22bf
000000a0: 380f a2bf 6085 20bf ed1b 6f3d 6f91 dd3e
000000b0: fad1 5b3f edfc 563f e38a 5fbe 80ab 21bf
000000c0: a921 95bf 1167 e8be 50aa 1fbe 8af4 fe3f
000000d0: 6e5f 1b3f ef2c 77be 4bed 06c0 e8e0 63bf
-0.092360176 -2.0908601 -0.25260678 -1.0894443 1.1755381 0.86892635 0.43674928 -1.0546603
-0.63900954 0.95019776 -0.7878309 0.006138945 -0.091246754 -0.028055597 -3.0814512 -0.088173814
0.42983618 -0.07840199 -0.6185039 -0.7045018 0.7127474 0.35446617 -1.893315 0.3967236
0.7613956 -0.37641722 0.3848512 -0.8837413 -0.5572223 0.15298924 0.36109868 -0.46681505
-0.84987473 -0.036554392 -0.9315578 0.34047478 -0.33709556 0.49295777 0.36543748 -0.6359185
-1.2660894 -0.62703514 0.05837624 0.4327502 0.85867274 0.83979684 -0.21830325 -0.63152313
-1.1650897 -0.45391133 -0.15592313 1.9918377 0.6069249 -0.24138235 -2.1082332 -0.89015055

embeddings.9.weight f4 [3, 8]
00000000: 39a2 9abf e376 843c e41b 843e 5968 503f
00000010: f251 d3be dfa9 06bf 284c 9cbf 0107 9abf
00000020: 69ee 0a3f 2ee1 253f 7a52 9e3f ecc2 b4bf
00000030: beb5 d93e 6230 af3f be9f f6be 0916 163f
00000040: f7dc ae3f 6ef8 203f 7ae4 f9bf 2879 e4bf
00000050: c9be 98bf 4bb0 9fbf 7854 d4be f0a8 e0be
-1.2080756 0.01616997 0.2580253 0.8140922 -0.41273457 -0.5260295 -1.2210741 -1.2033387
0.54270035 0.6479672 1.236892 -1.4121985 0.4252147 1.368664 -0.4816875 0.5862737
1.3661183 0.62879074 -1.952285 -1.7849474 -1.1933223 -1.2475675 -0.41470695 -0.4387889

embeddings.10.weight f4 [427, 8]
00000000: 731e d43d 3b31 90bf 5ec9 dbbe 760c 703f
00000010: b5d3 423f a63d 673f 44cf 213e 8065 853f
00000020: f7bd 063d 752c 94bf 7bc9 9a3f d7f8 3bbf
00000030: 8bcf 53bf 74aa 433e 6a1f ef3f a8a6 dcbe
00000040: 7dac 04c0 0775 843e 9bc2 203f 71a7 0f40
00000050: 334e aabf be8e 683f 0cea 9d3f c7bb 723f
00000060: df1b 643f ed9e 5a3f 0c17 c8bf 4a4f 2940
00000070: 295b 4bbf d406 a53f 8926 88bf 5abf 453f
00000080: 1c71 7c3e 3ba9 91be 9613 bb3f 1674 933f
00000090: d5ca 5dbd cb5b 0a3e 8a9d 09be 353d b23e
000000a0: 1428 933e 2328 9fbf 3dee a8bd 4116 8bbf
000000b0: e393 23bf b283 bcbf 69d2 9fbf 8d21 4f3f
000000c0: cbcb 6b3f 07d5 b13e b63d 26bd 7a8e 38bf
000000d0: e308 02be d2c0 8abf 4ebd b83e 454c 5abf
000000e0: 92b7 62bb 9cda ca3f be4a fc3f ad17 953e
000000f0: e398 be3f e0c9 043f 9453 b0bd b9fd 9d3e
00000100: e21f d6be 23bf 4bbf ede8 e3bf 6eef 463f
00000110: 6536 413f 8e55 adbe e668 823f aa0d 0740
00000120: 37fb f23f 8555 43bf a717 cb3d eaca 87bd
00000130: 5a07 29be c70c d43d acb7 50c0 37d4 4940
00000140: 2786 353f 8713 2fc0 e569 c0bf 96fe 8fbf
00000150: 133e 0cbf b7b6 bf3e e6a0 06c0 6caf 1140
00000160: ff26 483f 1ef6 ac3d 5b92 8e3f ed57 863d
00000170: c1d5 563f 29ed 29bf 9d9a 8b3e 6304 02c0
00000180: 5d57 12c0 fd24 51bf 1689 10c0 cadf 4840
00000190: 4702 93bf 02f6 a73f 1dd5 233e 5679 5e3f
000001a0: 4911 bfbf 4cc4 27bf f9f6 25bf e6bf 1240
000001b0: 9b48 cf3e 8379 063f 734a c7be 36e7 7a3f
000001c0: e1e2 a3be 259d ca3e 119d 973c b438 bfbf
000001d0: dc8b 833f fe34 103e 18ea 523b c7b2 d23e
000001e0: 2b66 b5bf 6d2f d4be 38af 5dbe e83b cdbf
000001f0: 5cc1 2dbf 61eb d2bf 4849 15bf 0c77 44bf
00000200: e0bb 29bf 04c4 c5be a2ce d2be e531 abbf
00000210: 8e60 69bf f9d8 37c0 6dd7 75be 9a9f 03bf
00000220: bd3d c63d 9f8c 9d3e 98a6 1ec0 70bf b23e
00000230: 2df9 853f 2600 743d de02 c13f ce53 d53e
00000240: d609 afbf 7fc9 a23e 51b6 1abf f595 9f3f
00000250: 5f82 dfbf b38b 993e 8324 b2bf f101 03bf
00000260: dafc e63e 4983 2dbf e05b a23e a5da 213f
00000270: 06dc 33bf 2a22 363f 6d9b 873d 11bc 65bf
00000280: 4bba c3be d46b 783e f391 523f 7d09 1fbf
00000290: ae64 693f ec0d 3ebf 57be 6a3f 786a 87bf
000002a0: 143d 50be caf3 f53a 382e 4d3f 3e66 923f
000002b0: fef7 e4be 3603 9b3f e250 d43e 7ac1 f23d
000002c0: 4ee5 953e 77b0 4e3e 7c78 473f 8ff8 c23f
000002d0: 8b9b c7bf 9e02 873f 0286 d73f 40d3 c23e
000002e0: 6f40 b93e 6df1 c3bf ad78 e13d 41d6 e63e
000002f0: f822 eabe faed 49be 66e0 053f d27b f0be
00000300: 3fb3 7b3f 122a 21bf b042 bbbe 12b0 a0bf
00000310: 05d9 90bf 0d10 12c0 7cf4 16c0 b0da 03c0
00000320: 11fa e23e 65ab 6fbf afc4 163f a45b f0be
00000330: f60e 0d40 9e64 e2be dd79 c13f e6fb 9bbf
00000340: 7331 803f 66cb d33e de55 41bf 4f77 173f
00000350: 5ff5 2b3d 8c34 a7bf 7585 c7bc ea70 98bf
00000360: 6892 ec3f 747c 92b9 aedf 3c3c 4655 0e40
00000370: cf36 47bf 9d17 7d3f 4a82 ca3f 0386 223d
00000380: c455 c23c b4c6 513e 3cb0 c2be 67cb 60bd
00000390: 880c a13f 8e1b 1dbf 1dc4 3f3f 64aa 18bf
000003a0: 5b27 6abf 55b4 babf aad7 18be 8f34 c1be
000003b0: 357e 84bf de66 efbe af0c 1b3f 8596 d03e
000003c0: f75e f63e ac30 a53f 96e7 57bf 71df bd3e
000003d0: 204e 2c3e 23a6 acbf 1d53 a2bf 68bb 4f3e
000003e0: 12db a5bd 6b5b 753e c908 8fbf 6f98 1e3e
000003f0: 2ffc c33f db84 adbe accf 4d3f b1dc 3d3f
0.1035737 -1.1265024 -0.42927068 0.93769014 0.7610429 0.90328443 0.15801722 1.04216
0.03289601 -1.1576067 1.2092737 -0.73426574 -0.8273856 0.19107991 1.8681462 -0.430959
-2.0730278 0.25870535 0.62796944 2.2445948 -1.3305115 0.9084281 1.233705 0.94817775
0.8910503 0.8539875 -1.5632033 2.6454644 -0.79435974 1.2892709 -1.063676 0.77245104
0.24652523 -0.28449425 1.4615352 1.1519802 -0.054148514 0.13511579 -0.13439003 0.34812322
0.28741515 -1.2434124 -0.08248565 -1.0866166 -0.6389753 -1.472769 -1.2486087 0.8091057
0.9210784 0.3473284 -0.040586196 -0.720924 -0.12698703 -1.0840094 0.36081928 -0.8527263
-0.003459428 1.5847964 1.971031 0.29119626 1.4890407 0.51870537 -0.08609691 0.30857638
-0.418212 -0.79588526 -1.7805458 0.7770909 0.75473624 -0.33854336 1.0188262 2.110209
1.8982915 -0.7630237 0.09916621 -0.066305 -0.1650671 0.103539996 -3.2612104 3.1535776
0.70907825 -2.7355669 -1.5032316 -1.1249568 -0.5478222 0.37444088 -2.1035705 2.276332
0.78184503 0.08445381 1.1138414 0.06559739 0.8391991 -0.663775 0.27266398 -2.0315177
-2.2865822 -0.81697065 -2.258367 3.138659 -1.148507 1.3121951 0.15999265 0.86903894
-1.492715 -0.655339 -0.64829975 2.2929626 0.4048508 0.5252916 -0.38923988 0.9800905
-0.32009032 0.39573017 0.018507512 -1.493918 1.0277057 0.14082715 0.0032182988 0.4115202
-1.4171804 -0.41442433 -0.21648872 -1.6033907 -0.6787317 -1.6478082 -0.58314943 -0.7674415
-0.663023 -0.3862611 -0.41173273 -1.3374602 -0.91162956 -2.872618 -0.2400796 -0.5141541
0.096797444 0.30771348 -2.478918 0.3491168 1.0466667 0.059570454 1.5079 0.416655
-1.3674877 0.31794354 -0.6043444 1.2467638 -1.7461661 0.29989395 -1.3917392 -0.5117484
0.45114785 -0.6777845 0.3171072 0.6322425 -0.70257604 0.7114588 0.06621442 -0.8974009
-0.38228068 0.24259883 0.8225395 -0.6212385 0.9116925 -0.74239993 0.91696686 -1.0579367
-0.203358 0.0018764671 0.8014865 1.1437452 -0.44720453 1.2110355 0.4146796 0.11853309
0.29276508 0.20184503 0.7791822 1.5232104 -1.5594343 1.0547674 1.6837771 0.38051796
0.3618197 -1.5308052 0.11009345 0.45085338 -0.45729804 -0.19719687 0.5229553 -0.46969467
0.9832038 -0.6295482 -0.36574316 -1.2553732 -1.1316229 -2.2822297 -2.3586721 -2.0602226
0.4433141 -0.936209 0.58893865 -0.46944916 2.2040381 -0.4421739 1.5115315 -1.2186248
1.0015091 0.41366118 -0.7552165 0.59166425 0.04198205 -1.3062911 -0.02435563 -1.1909459
1.848218 -0.00027940015 0.011527939 2.2239547 -0.77818006 0.98864156 1.5821011 0.039678585
0.023722537 0.20485955 -0.3802508 -0.05488148 1.2581949 -0.6137017 0.7490862 -0.59634995
-0.914663 -1.4586283 -0.1492602 -0.37735412 -1.0351015 -0.4675817 0.6056623 0.40739837
0.48119327 1.2905478 -0.8433775 0.37084535 0.16826677 -1.3488201 -1.2681614 0.20286334
-0.08098425 0.23960654 -1.1174556 0.15487836 1.5311335 -0.33890423 0.8039501 0.74164873

embeddings.11.weight f4 [1030, 8]
00000000: cd0e 9c3f f56c 7b3f 8a55 9c3f 6ce3 403f
00000010: b9f3 4bbf ab6d 623f 6fab 473e 594a 04bf
00000020: fc5c 64bf 1a71 003f de28 8f3f a6a4 32bf
00000030: 306b 8b3f d5fd 0c40 67a2 b13d 2bd6 36c0
00000040: f020 e5bf 5d7f 1a3f a158 413e f972 11bf
00000050: dfba b5bf 7e25 383f 96cb 01bf 168c 23c0
00000060: 35c6 cb3d ef3d 843f cd84 bc3c 11ea 413f
00000070: 8c98 f13d 4f27 9a3e de73 d9bf d5f9 05c0
00000080: 3d21 b3bd 3993 f83e 3206 103f 7175 873f
00000090: f50d eebf 656c a13f 3332 65bf f0be 403f
000000a0: 785b c53f e149 55bf 643f d03f e737 3abf
000000b0: 4cb6 203f 27f1 bf3f 70e7 be3f bf2e 07bd
000000c0: 27c4 2c3f 4893 f0be bfb8 eebf 1cde 373d
000000d0: 06dd 413e 4988 b53f 58aa bfbf eb6f 6fbe
000000e0: 6353 813f 1aed 03bf 440a 9dbf 6a47 94bf
000000f0: a602 393f 9066 d1bf a0f1 22bf a75d 1d3f
00000100: be01 413f d6bc d7bf 2617 49bf 5375 913e
00000110: 9418 ac3f 8f5a 89bf b232 e3bf 0972 45bf
00000120: ef88 6c3e 46b2 f43d bb2e 133f e577 c2be
00000130: 2fc3 2ac0 e80d a03e 3bd2 fa3e 6d0f 3bbf
00000140: 12a9 9dbf 2502 353f bfc0 c13f 0cd5 513d
00000150: 1a6f 1840 c0e7 06bf abf7 ce3f 8281 493d
00000160: 2fe3 cdbf e7ac 8e3f 3971 32be f906 0e40
00000170: 737d b4bf 98d5 843e ab92 e13f 8178 043e
00000180: d90c 313e 2516 2f3e 963c 82be add7 6bbf
00000190: 8523 98bf 638b 4f3e e7e4 f3bf c109 113e
000001a0: 2aa9 e6bc f121 b93f 53d1 813f 093b 3740
000001b0: 193a 93bf f2dd 3f3f bfc4 9f3f 33e5 e33f
000001c0: edeb a03f edaa 5a3f d7ae c1bf 179b 3640
000001d0: 21c2 36bf 4c80 e83f a864 323f 9d67 59bf
000001e0: 6e4e a33e d1e4 1c3f 786d 3b3f 09a1 cebf
000001f0: f797 75bf dcae a93e 0a99 5a3e e1f8 3fbe
00000200: 773f bdbf 83f9 9f3f 9413 133f 9754 3f3f
00000210: 84bf 673f 4aa5 b1be 7179 5b3f a263 5c3f
00000220: ad5a 4f3f 46a4 95be f708 48c0 6c2f 0f3f
00000230: 4844 a23f 8c53 84bf 2191 8cbf 51b5 11bf
00000240: c531 8abe 8044 a5bf 01c1 1c40 c878 4a3f
00000250: f63c ad3f 38b0 663f f7df ec3e 2d41 003d
00000260: aeb1 8a3f 79c6 3f3f 7224 af3f b333 a73e
00000270: 12f0 d13f 6bbb 58be 4d94 0740 2acb cd3f
00000280: 2570 003f 461a 18bc 7536 e23e ac92 c4bf
00000290: 8264 94bf 8120 a2bf 9611 78bd 0f89 0f3e
000002a0: dfcf 433c aeee 3ebe 0b9f 46bf 3143 a7bf
000002b0: cbf3 113f f18c 113f fc77 b03e 176b 573f
000002c0: 5290 073f 4aec 87be ab0f 6e3f 0cfc 29bf
000002d0: f122 3a3f fb53 393e 49ad acbf b4f3 b23f
000002e0: 7da8 9abf a2f8 14c0 0733 933e eb34 1840
000002f0: 4cb7 1b3f 6b8a a13f 2480 6d3f 0ab2 883f
00000300: 4709 1d3f 3955 b2bf e99d 1f3e 6cdc febe
00000310: 64ee 9f3f d7a5 2bbe 800c 9d3e d23f 073f
00000320: 8fa6 8f3f a782 1040 382c d03f 9b29 1dc0
00000330: 2763 c23f 444a 2340 83f6 d2bf 1a08 5040
00000340: 09f3 fb3e d12b 093f 7059 8b3f 5b0f 4cbf
00000350: f37f e7bd 4c24 2c3e 6998 cd3f 299c 48c0
00000360: 2ad3 813f 297e 993f 46d3 cdbf aafe e6bf
00000370: 1d8e c03f 065c dfbd 2b76 e83f a281 ae3f
00000380: 13ec 84be 3c20 d13e 34e4 ed3e f6f8 35bd
00000390: 5028 da3e 139c 18bf 34e9 2c3f 9383 2abf
000003a0: e512 c73f 7b57 46bf 9679 3e3f da05 513f
000003b0: 5488 af3f 996f 38bf fd24 eb3f e27c cbbe
000003c0: 9366 5a3f feb2 e4be 52f5 90be 30b5 02c0
000003d0: 489a b2bf 2ea2 853f 4b36 0c40 da96 463f
000003e0: 5dc2 cd3f 78ff f9be b537 e9bf d756 a1bd
000003f0: 8c03 f03f aa68 ca3c 305e 74bd c70f 193f
1.2192017 0.9821313 1.2213604 0.7534702 -0.79668766 0.8844859 0.1949899 -0.51675946
-0.8920438 0.5017258 1.1184347 -0.69782484 1.0892086 2.2029927 0.08673554 -2.8568218
-1.7900677 0.6035059 0.18881465 -0.5681606 -1.4197654 0.7193221 -0.5070127 -2.5554252
0.09949914 1.0331401 0.023012543 0.7574778 0.11796674 0.30108115 -1.6988485 -2.0933735
-0.08746574 0.48549822 0.56259453 1.0582715 -1.8598009 1.2611204 -0.8952972 0.7529135
1.5418539 -0.83315855 1.6269345 -0.7274155 0.6277816 1.4995469 1.4914379 -0.033003565
0.67486805 -0.46987367 -1.865013 0.044889554 0.1893197 1.4182216 -1.497386 -0.23382537
1.0103573 -0.51533663 -1.2268758 -1.1584294 0.72269666 -1.6359425 -0.6364994 0.6147103
0.75393283 -1.6854503 -0.78550947 0.28409824 1.3445001 -1.0730761 -1.7749846 -0.7712713
0.23099111 0.119480655 0.5749318 -0.37982097 -2.668163 0.3126061 0.48988518 -0.7307041
-1.2317221 0.707064 1.5136946 0.051228568 2.381781 -0.5269737 1.6169332 0.049195774
-1.6084956 1.1146516 -0.17426004 2.2191756 -1.4100784 0.2594421 1.7622885 0.12936594
0.17290057 0.17098291 -0.25436848 -0.9212597 -1.188584 0.20268016 -1.905423 0.14163877
-0.028156836 1.4463483 1.0142006 2.8629782 -1.1502105 0.74948037 1.2481917 1.7804321
1.2571999 0.8541706 -1.5131482 2.853216 -0.7138997 1.8164153 0.6968484 -0.84923726
0.31895775 0.61286646 0.7321391 -1.6142894 -0.95935005 0.3314122 0.21347442 -0.18747284
-1.4784993 1.249802 0.5745175 0.7473845 0.90526605 -0.34696418 0.8573218 0.8608953
0.80997735 -0.29226893 -3.1255472 0.55931735 1.2677088 -1.0337996 -1.098179 -0.5691729
-0.26991096 -1.291153 2.44928 0.7909055 1.3534229 0.9011264 0.46264622 0.031312156
1.0835474 0.7491222 1.3682997 0.3265663 1.6401389 -0.21165244 2.1184266 1.6077626
0.5017112 -0.009283608 0.44182172 -1.5357261 -1.1593173 -1.266617 -0.060563646 0.14017127
0.011951416 -0.18645737 -0.7758643 -1.306738 0.57012624 0.56855685 0.3446654 0.8414778
0.5295459 -0.26547462 0.9299266 -0.6640022 0.72709566 0.18098442 -1.3490382 1.3980622
-1.2082669 -2.3276753 0.28749868 2.3782299 0.60826564 1.2620367 0.9277365 1.0679333
0.6134228 -1.3932258 0.15587582 -0.49777544 1.2494626 -0.16762482 0.306736 0.5283176
1.1222705 2.2579744 1.6263494 -2.4556644 1.5186509 2.5514078 -1.648148 3.2504945
0.4920886 0.53582484 1.0886669 -0.7971093 -0.11303701 0.16810721 1.6062137 -3.1345313
1.0142567 1.1991626 -1.60801 -1.8046467 1.504337 -0.10906224 1.8161062 1.3633311
-0.2596136 0.40844905 0.46463168 -0.04442688 0.4260888 -0.5961315 0.6754334 -0.66607016
1.5552641 -0.77477235 0.74404275 0.81649554 1.3713479 -0.72045285 1.8370663 -0.39743716
0.85312766 -0.4466781 -0.28312165 -2.0423088 -1.3953333 1.0440118 2.1908138 0.7757393
1.607494 -0.4882772 -1.8220125 -0.078778915 1.8751082 0.02470811 -0.059660137 0.597897

embeddings.12.weight f4 [7, 8]
00000000: 291a acbf 2015 35be 9d56 333f 1df2 14bf
00000010: 2f00 40be f529 70bf 5371 01c0 1c60 67bf
00000020: 04b3 a9bd 87a7 453f a6d0 cabf 534a 09bf
00000030: 3612 1fbf 13cd d9bf 1044 3ebf ddf9 603f
00000040: 1fa4 9abe 85ec 7bbf eb52 293f 401f a0be
00000050: ec67 dbbf edee ccbe 337e 9a3e 7e72 7a3f
00000060: 1db8 953d 282f a83e 8cdc 5abf 70e0 5fbf
00000070: b3fa a03f cae5 02bf c1ef 4e3f 37c3 843f
00000080: b1b1 153f bd99 ba3f 109d b6be c3c7 10bf
00000090: e174 7c3f 9fe9 3c3f e948 79be 194a 453e
000000a0: 30a4 db3e 02b0 84bf 97c1 19c0 78c1 093f
000000b0: cdeb 74bf 189f c53c 3b9d 4c3f 7f01 c03f
000000c0: e8d9 a23f d723 0340 c33f 77bf bb9f b23d
000000d0: f337 4e3f 0162 883f dfda c6be b156 013e
-1.3445483 -0.1768384 0.70054036 -0.58181936 -0.1875007 -0.9381402 -2.0225418 -0.90381026
-0.08286098 0.7720875 -1.5844924 -0.53629035 -0.6213716 -1.7015709 -0.74322605 0.8788126
-0.3020334 -0.98407775 0.6614215 -0.31273842 -1.714109 -0.40026036 0.30174407 0.9783095
0.073105074 0.32848477 -0.8549278 -0.8745184 1.2576507 -0.5113188 0.80834585 1.0372075
0.5847426 1.4578167 -0.35666704 -0.5655481 0.98615843 0.7379398 -0.2434422 0.19266547
0.42898703 -1.0366213 -2.4024408 0.53810835 -0.95672303 0.024123713 0.79927415 1.5000457
1.272275 2.0490625 -0.9658167 0.087218724 0.8055412 1.0654908 -0.3883886 0.12630726

embeddings.13.weight f4 [7, 8]
00000000: e123 24bf 4d56 4b3f 81c8 b6bf 6a19 2fbf
00000010: c38c 163f 654f 403f af16 57bf ed8e 433f
00000020: 622e 203d 1646 2340 4954 3dbf d06a 1ebf
00000030: fd5b dfbf 771e 78be c59a 3c3f 75d8 c2bf
00000040: 9c8b d8be 23ce 24bf 51df 38be c91c 16bf
00000050: cd1c d03b 778c 00bf 71e7 c23c 9b9a e5bf
00000060: 71e9 0740 7e59 9ebf f6a0 22be ffb9 093f
00000070: fb57 f93d 5411 7c3f e17a 0a3f e771 f5bf
00000080: cb7b 6cbd 2b9f f03e 9191 61bd 6cfc 17bf
00000090: 24e2 debf 4ba8 093f 8e14 083e a4d2 d1be
000000a0: 41b1 f0be 4e64 e5be a626 adbf bfe7 da3e
000000b0: 9fa8 453f 9088 0b3d 7d69 94be 13f9 21bf
000000c0: b361 053e 9e56 6e3e 3bc7 7f3e c8a2 cc3d
000000d0: bc1b 073f d412 c2bf 3e87 a63f 5232 88bf
-0.64117247 0.7942856 -1.4279939 -0.68398154 0.58808535 0.75121146 -0.8401899 0.7638996
0.039106734 2.5511527 -0.73956734 -0.6188173 -1.7449948 -0.24230371 0.7367366 -1.5222307
-0.42294014 -0.6437704 -0.18053938 -0.5863767 0.0063510896 -0.5021433 0.023792 -1.7937807
2.1236231 -1.2371061 -0.15881714 0.5379943 0.12174984 0.9846394 0.5409375 -1.9175385
-0.057735246 0.46996436 -0.055070464 -0.5936954 -1.7412763 0.5377242 0.13289091 -0.4098102
-0.47010234 -0.4480309 -1.352742 0.42754933 0.7721042 0.034065783 -0.2898673 -0.6327068
0.1302555 0.2327523 0.24978344 0.099919856 0.52776694 -1.5161996 1.3010023 -1.0640357

embeddings.14.weight f4 [7, 8]
00000000: ef39 4d40 8177 1fbf b581 1ebf 4faa dcbf
00000010: fe0d b0be ed2b 7abf d075 313f af6d 1a3f
00000020: 6937 85bd 9a58 21bf 2a16 8f3e f15b c4bf
00000030: 29a5 6b3f fecb 30bf 1b57 5cbf d68b 143f
00000040: f1fb 83bf ccf6 1cbf 8446 83bd 890b abbe
00000050: 881e 2bbe 2617 2bbd 6292 503e 3efd ab3f
00000060: 3fdc 1a3e 74fe fcbe bd48 36be c845 79be
00000070: f168 19bf 8223 b73d ab0f b13f 5278 a7be
00000080: 1a01 bc3f 7a97 28bf bbae 3fbf 75e9 af3e
00000090: 0148 603e 9378 98be f6db cd3d 11a4 e83d
000000a0: e667 4f3f 8d3f 0b40 c8bc 48bf eab6 8f3d
000000b0: 3c42 3abe 7031 913f 61eb e3be 9c28 f03e
000000c0: e18a ef3d 2b8d a13e efc2 a83f 3975 f2be
000000d0: 7b13 373f 7c5a 31bf 74db 8d3e 366f 033f
3.206661 -0.62291723 -0.6191667 -1.7239474 -0.34385675 -0.97723275 0.6932039 0.60323614
-0.06504709 -0.6302582 0.27946597 -1.5340558 0.9204889 -0.6906127 -0.8607041 0.5802587
-1.0311261 -0.6131408 -0.06409934 -0.33407238 -0.16710865 -0.041770123 0.2036834 1.3436658
0.1512308 -0.49412882 -0.17801185 -0.24343026 -0.5992575 0.089423195 1.3832906 -0.32708985
1.4687836 -0.65856135 -0.7487599 0.343578 0.21902467 -0.2977949 0.1005172 0.11359418
0.8101791 2.1757538 -0.7841306 0.0701731 -0.18189329 1.1343212 -0.44515517 0.46905982
0.11696411 0.31553015 1.3184489 -0.4735506 0.715141 -0.69278693 0.27706492 0.5134157

embeddings.15.weight f4 [6, 8]
00000000: 7611 bfbf 5ce5 653f 6a17 843f eacc 383f
00000010: 1e97 653c d56d 0bbf 2fd5 fbbe 8b3b acbf
00000020: 09ce b5bf a4b3 923e 8991 aabe 95d6 46be
00000030: d3bf 033b b7b5 913e 0c89 623f 07ae 363e
00000040: a354 41bf b147 6bbf 1685 b1be db27 90bf
00000050: 2805 69bf 5a48 413d 4aa4 83bf cc3d 0d3f
00000060: 3f82 313f fc51 d1bf 9a78 dfbf dd30 e6bf
00000070: 1e3d 673f 0f48 c63f 1535 c1bf 0ad2 0340
00000080: 150a f0bd 705b e0bc b880 13bf 61b2 3740
00000090: 4703 88bf cfd0 913f 05cd d93f f40b c33f
000000a0: 0db2 1abf 22c9 393f 3146 4a3e 8dff d63e
000000b0: 5db4 aa3e 6eb7 97bf fbda b13f 3cf8 633e
-1.4927204 0.898031 1.0319645 0.72187674 0.01401308 -0.54464465 -0.49186084 -1.3455671
-1.4203502 0.2865268 -0.3331416 -0.19417794 0.002010335 0.2845895 0.88490367 0.17839824
-0.7551977 -0.9190627 -0.3467185 -1.1262163 -0.9102349 0.04718814 -1.0284512 0.5517242
0.69339365 -1.6353145 -1.745868 -1.7983662 0.9032763 1.549074 -1.5094324 2.0596948
-0.11720673 -0.02738735 -0.57618284 2.8702624 -1.0626 1.1391848 1.7015692 1.5238023
-0.60427934 0.7257253 0.19753338 0.41991845 0.3334073 -1.1852853 1.3894953 0.22262663

conv_layers.0.weight f4 [32, 1, 3]
00000000: 90ad cebb 7f2a 4b3e f084 8dbf 41b1 b9be
00000010: 3cc6 2c3f 54dd 763d dbe6 0b3f e425 2f3f
00000020: 7f20 98be 6ebe 0abf e5ca 11bf 99a4 6f3e
00000030: ffad eabd 4def 353f 0134 dc3e efbb 05bd
00000040: b6a0 133f 53f0 d33e 113c 38bd 6705 cf3e
00000050: 803f 20bf 6f86 a43e d617 6dbf 5e40 233e
00000060: 143e d1be 381d 5a3f 5e57 e73d cf25 bf3e
00000070: 0817 83bf 3fbb 6c3e ba51 803d ad58 0b3e
00000080: 6a3e c1bf 84e1 a13d d8fe ef3e 6865 023f
00000090: dafe dc3e 2bfa db3d 72e1 1bbf 1bb0 443a
000000a0: 31fb 3abf 0746 0ebf cdf1 32be 670a 553f
000000b0: d902 fe3e 3b0f 3b3e 19c8 6ebf 7d9d 393e
000000c0: e839 dc3e e208 c73e 0c06 4fbe 4009 753d
000000d0: 39a4 cfbe 5a1f 08bf a888 b63c b187 2bbf
000000e0: 6964 16bf 0809 303e 6e6c 1fbf c442 d1be
000000f0: 2dc5 6fbe b74b 47be 5c75 653f c70c 1c3f
00000100: 820b e2be d600 33bd ea9e 7d3e 478c 17bf
00000110: 1e55 0abf be52 383e 3a13 41bf fe23 473e
00000120: d37a 15bf e00b 2b3f f72c 6cbd 4c25 e03e
00000130: 9327 f3be 966d f23e ebfc 1f3f dd08 f4be
00000140: 2942 b1bd e355 24bf fd92 023f 42f2 10bd
00000150: 4ac5 de3e f91f fdbe 5b22 efbe a169 303f
00000160: d67b d93e bfc5 61be ec02 94be 6c4f d7be
00000170: 1952 0dbf 6f96 dc3e 75c4 9a3d 5f25 40bf
-0.0063073114 0.1984043 -1.1056194 -0.36268046 0.6748998 0.06026967 0.5464913 0.6841719
-0.29712293 -0.5419682 -0.5695022 0.23402633 -0.11458968 0.7106827 0.43008426 -0.03264993
0.576671 0.4139429 -0.04497916 0.4043381 -0.62596893 0.32133815 -0.92614496 0.15942523
-0.40867674 0.85200834 0.11295961 0.37333533 -1.0241404 0.23118304 0.06265588 0.13608046
-1.5097172 0.07904342 0.46874118 0.50935984 0.43163186 0.10741075 -0.6089088 0.00075030484
-0.7303954 -0.55575603 -0.17475052 0.83219 0.49611548 0.18267529 -0.93274075 0.18126483
0.4301293 0.38873965 -0.2021715 0.059823275 -0.4055498 -0.5317284 0.02228196 -0.67003924
-0.58746964 0.17190945 -0.62274826 -0.4087125 -0.2341506 -0.19462477 0.896322 0.60956997
-0.44149405 -0.04370197 0.24767652 -0.5919842 -0.5403613 0.18000314 -0.7541996 0.19447324
-0.5839054 0.66814995 -0.05766007 0.43778455 -0.4749113 0.47349232 0.624953 -0.47663012
-0.08655197 -0.6419355 0.51005536 -0.035387285 0.43509895 -0.49438456 -0.467059 0.68911177
0.42477292 -0.2204809 -0.2890848 -0.42052782 -0.55203396 0.43083522 0.075570025 -0.75057024

conv_layers.0.bias f4 [32]
00000000: 05b8 b9be 080c 0e3f a493 0dbf 8722 34be
00000010: 3f5b efbc d860 54bc d165 933d cf9b ef3e
00000020: 6a18 59be 5ab5 9e3e b2f8 d6bd 1c33 04be
00000030: f6c5 e4be 25e8 d33e 15fa 6b3c e84a cc3e
00000040: 4937 6a3e 252c bbbe 975e 8bbe 5a7a 8f3e
00000050: 2fdd 673e a6e7 df3e c870 a93e 6f5a 76be
00000060: 42de 07bf 2751 e23e 15f9 f0be de68 14bf
00000070: 99af 34be 1376 bc3c 7365 e93d eb73 8bbe
-0.36273208 0.5548711 -0.55303407 -0.17591296 -0.029218314 -0.0129625425 0.07197154 0.4679856
-0.2120072 0.30997735 -0.104966536 -0.12910122 -0.44682282 0.4138805 0.014402886 0.399009
0.22872652 -0.36557117 -0.27220604 0.28023034 0.22642969 0.4373142 0.33093858 -0.24057935
-0.53073514 0.4420254 -0.47065035 -0.57972515 -0.1764511 0.02300552 0.11396303 -0.27236876

conv_layers.1.weight f4 [64, 32, 3]
00000000: a9d5 b5be ce47 a43e 0709 d03e f332 5abd
00000010: 6a7c 70bf c3b4 863e f2ad 883e 7ac9 ac3e
00000020: 6889 713d 4630 0cbe 0c93 183f 66eb 8e3e
00000030: 2880 5cbe e37d c0be e4d3 913e 8adc a53d
00000040: caa6 a8be c8fa 843e f1d9 c63d 2569 35bd
00000050: 7bed 1d3e 884f 8dbe f85d 213f 6cc8 0bbf
00000060: 36e8 0fbe d8a6 6dbf 77e8 723d 64c0 083e
00000070: 984b d53e 24af b7be 6328 ccbe 6bb7 de3e
00000080: 9bdf 203f 756c 20be b0b5 09be 3dd7 92bd
00000090: ea6c 9ebe 450b 0b3f fe6e 2e3f 391f c7be
000000a0: 2727 b33e c174 d63e 91fd 2bbd 8236 14bf
000000b0: 48b9 8a3e 82df 023e 87fd 2e3f 27ba f3be
000000c0: d54d 893e a1b1 2cbb 1062 2d3e 721e 5cbe
000000d0: a0f3 d43e 83f4 413c d75a dcbd 8547 ea3e
000000e0: bcaa 183f d354 09bf 4cd6 c73e 4bb6 c73e
000000f0: 1f77 a03e 2ed9 aa3e ad03 dfbd 0671 373e
00000100: 621f a1bc df2d 9f3e f96d 8cbe dd5a 273e
00000110: 207a e53e d02f 8abd 859c 9f3e 32ed 84be
00000120: 0b92 bd3e 2e19 2dbf 2c79 5e3e 2b39 243f
00000130: 7699 c33e 27ab d5bc 1fb7 693e a00e 953e
00000140: 2614 783e 1c47 b03d de7a 45bf 7dca 153f
00000150: b645 2cbe a191 f93e 38bc 033f 86d3 913d
00000160: 88e4 863e 5103 fc3d 9b89 9cbe 489c b93e
00000170: 6374 3b3f d00b 46bf 58f4 e53e 3f5e 063f
00000180: 3e41 ff3e 8775 11bf 6e91 323e fafd 4b3c
00000190: eaf6 54bf 468f 943e d91b 8f3e 0ba4 883e
000001a0: 9715 24bf 3165 8e3d cd2a 033f d629 87be
000001b0: c298 1e3e 72b3 a5bf ab18 c6be bc1b 073e
000001c0: 77e2 9ebf 4325 f4be a864 0d3f 432c 79be
000001d0: 30f7 43bb b5e7 6b3d ef7f 023e 0445 693e
000001e0: 73d0 63bd 7d60 5cbf cc04 70be 336b e63e
000001f0: 39dd f53e 4ae8 6d3d 0790 d13e f6f9 bdbe
00000200: 0a94 c33e 80a3 d83d 2e2c 4bbf 66e3 a8be
00000210: 51dc da3d abf1 173e b33f 75be f9f0 3ebe
00000220: bc00 23be 4f73 133e b0c7 983e 6847 b0bf
00000230: a9c9 3abe aa88 8c3d e6ae 073f d183 aa3e
00000240: b55f 4a3e ac91 503e 039a 8abf b554 32be
00000250: ac29 55be 5ddb fa3e 2f12 513d 1a3b b9be
00000260: 6dbf cc3e fff5 77bd 3191 57be b413 bc3d
00000270: d01c 483e 96e4 bb3e 8849 37bf 5860 88be
00000280: b689 113e 4d80 ee3e 3057 abbe 2c32 f43d
00000290: 3d83 773e dd78 983e 834f 6c3e 7236 c73b
000002a0: 2f82 fb3c 22b5 febe 2fb3 8cbc 3dff a63e
000002b0: 5b15 fbbc d9a4 97bd cf76 18be c49c b23d
000002c0: 76fa 133f 5952 423e 43c2 edbe 0f55 eabd
000002d0: d60a d1be 228f 0f3f 0b56 a1bd 8b54 393e
000002e0: 6a59 893e 8cac 5bbf 155d 0fbe ebb3 cd3d
000002f0: 187c 973e 6ef7 303e 91c3 7e3e 05e0 3f3e
00000300: bf19 6fbe 9231 c73e 2834 e6bd 505b 003f
00000310: 2e07 00be 76cb 763e 941d fabe 684c 4f3d
00000320: 2dae 0e3e 8780 0fbf d1f9 e7be 3b5e 8c3e
00000330: c0cd 023f 3a4e 41bf e2cb c33e 7637 433e
00000340: ccaf 77bf 78ca 923e ee35 b33e 880d e83e
00000350: 0034 9a3e f173 1dbf dbc2 293e 2960 8f3d
00000360: 91ee 213f 0fea fcbe fda6 ea3e 80b7 44bf
00000370: ae92 f7bd 45e7 94bd 1324 a2be 2b82 463e
00000380: 2e66 3bbe 3cf1 763e a23b 45bf d5ff 973e
00000390: b79a 093e aeb7 1ebd 4b6c f8be ba4f ecbd
000003a0: e300 97be e4df 2ebe 8d06 033f a688 12bf
000003b0: 5ffa ea3e b861 2dbf 84b3 21be 9f29 dfbd
000003c0: 3b81 e03d 74c7 10be 1a44 f4bb 3e88 16be
000003d0: a730 913d ea5e a4bb 20d4 a53d c281 c63d
000003e0: c882 ff3d 443a 7a3e 2fcf c33b b965 b53d
000003f0: 00d0 5ebc d367 10bf 7b35 a33e 7d6d fcbe
-0.35514572 0.32086033 0.40631887 -0.053271245 -0.9393984 0.26309785 0.2669521 0.33747464
0.05896893 -0.1369029 0.59599376 0.2791397 -0.21533263 -0.37596044 0.28481972 0.08098705
-0.3293975 0.2597258 0.09709538 -0.044289727 0.15422623 -0.2759974 0.6303401 -0.54602695
-0.14053425 -0.9283271 0.059303727 0.13354641 0.41659236 -0.3587581 -0.39874563 0.43499312
0.62841195 -0.15666373 -0.13448215 -0.0716996 -0.3094247 0.5431407 0.6813811 -0.38891008
0.34990808 0.4188595 -0.041989867 -0.5789567 0.27094483 0.12780574 0.683556 -0.4760296
0.26817194 -0.0026350992 0.16931939 -0.21495989 0.4159212 0.011838081 -0.10759514 0.4575769
0.5963552 -0.53645056 0.39030683 0.39006266 0.31340882 0.3336882 -0.10889373 0.17914209
-0.019668285 0.31089684 -0.27427652 0.16343255 0.44819736 -0.06747401 0.31174102 -0.25962216
0.37025484 -0.67616546 0.21725911 0.6414973 0.3820302 -0.026082588 0.22823761 0.2911272
0.24226436 0.08607313 -0.77140605 0.585121 -0.16823468 0.4874392 0.51459074 0.07120423
0.2634623 0.1230532 -0.30573735 0.36252046 0.7322447 -0.77361774 0.44912982 0.5248756
0.49854463 -0.5681996 0.1743829 0.012450689 -0.8318926 0.2901556 0.27950934 0.26687655
-0.64095443 0.069528945 0.51237184 -0.26399106 0.1548796 -1.2945387 -0.38690695 0.13194174
-1.2412862 -0.47684678 0.55231714 -0.24333291 -0.0029901974 0.05759402 0.12744115 0.22780234
-0.055618715 -0.8608473 -0.2343933 0.45003662 0.48020342 0.058082856 0.40930197 -0.37104768
0.38198882 0.1057806 -0.7936429 -0.3298599 0.10686553 0.14838283 -0.2395008 -0.18646611
-0.15918249 0.14399455 0.2983985 -1.3771791 -0.1824099 0.06862004 0.5300125 0.33303693
0.19763072 0.2036807 -1.0828251 -0.17415126 -0.20816678 0.48995486 0.05104273 -0.36177903
0.39989796 -0.060537335 -0.2105148 0.091834456 0.19542241 0.36697835 -0.71596575 -0.26636004
0.14212689 0.4658226 -0.33464956 0.11923632 0.24171157 0.2977971 0.23077206 0.0060794884
0.030701725 -0.49747568 -0.017175285 0.32616606 -0.030649832 -0.07404489 -0.14889072 0.08721307
0.5780405 0.18976726 -0.46437272 -0.11442005 -0.4082858 0.5607778 -0.078777395 0.18098657
0.2682603 -0.8581016 -0.14000352 0.10044082 0.29586864 0.17281887 0.2487929 0.187378
-0.23349665 0.38905007 -0.11240417 0.5013933 -0.12502739 0.24101052 -0.4885069 0.050609976
0.1393363 -0.5605549 -0.45307782 0.27415642 0.510952 -0.7550999 0.38241488 0.19064125
-0.9675262 0.28670096 0.35002083 0.45322824 0.30117798 -0.6150504 0.16578238 0.07000763
0.6325465 -0.49397323 0.45830527 -0.768425 -0.12088524 -0.07270674 -0.31668147 0.19385593
-0.18300697 0.24115461 -0.7704412 0.29687372 0.13437925 -0.03874939 -0.4852012 -0.11538644
-0.29492864 -0.17077595 0.5118187 -0.5723976 0.45894143 -0.6772723 -0.15791136 -0.108966105
0.10962149 -0.14138585 -0.0074544074 -0.1470041 0.07089358 -0.0050161975 0.080971 0.09692718
0.124761164 0.24436289 0.005975626 0.08857293 -0.013599396 -0.56408423 0.3187674 -0.49302283

conv_layers.1.bias f4 [64]
00000000: 4ea9 47bd ccd0 953d 4340 aebd f344 65bd
00000010: 3ffc be3c 9b2f 563d 323f ed3b 4c5c 973d
00000020: a641 a13d a75c 723d c102 ed3c faf4 a5bd
00000030: 47c5 013d 61b5 393d fb2e ac3d 267b 43bd
00000040: 252a 5cbd dff6 46bd 0405 7f3c 1b36 ce3c
00000050: 1ce4 703d 9168 a9bb 5d29 7c3d 2f38 923c
00000060: 9842 993d 5e21 9b3d 3b73 65bd 7f15 9f3d
00000070: bfcd 373d b178 8e3d 13a0 a63d 8839 03bd
00000080: 8b79 4b3d 9574 2d3d 0319 a13d 2660 453d
00000090: 14c1 c6bd ced1 0abb 3ac4 f1bc 3100 3abd
000000a0: 0b88 aebc 96d0 793d e829 a7bd 2e27 c7bd
000000b0: 783d bbba eaac 5e3d cb6c b33d db5c 6abd
000000c0: 7be9 dc3b 2287 783c d083 c6bd 9f2e 96bc
000000d0: 17ee 963d 5e64 c6bd 7f7e 773d c9ef 52bb
000000e0: afba bfbd 3620 953d 89e4 3c3c 9f8c f73c
000000f0: 9c03 473a 7493 0b3d 91f4 983c 82cd 093d
-0.048745446 0.073152155 -0.08508351 -0.05597396 0.02331364 0.052291494 0.0072401995 0.07390651
0.078738496 0.05917039 0.028931977 -0.08103366 0.03168228 0.045338992 0.08407398 -0.047724865
-0.05375113 -0.04857528 0.015565161 0.025172284 0.058811292 -0.005169936 0.061562885 0.017849056
0.07483405 0.07574724 -0.056018095 0.07767772 0.04487395 0.06956614 0.081360005 -0.032037288
0.04967646 0.04234751 0.07866099 0.048187397 -0.097047955 -0.0021182182 -0.029512513 -0.04541034
-0.021305105 0.06098994 -0.0816229 -0.0972427 -0.0014285287 0.054364122 0.08760985 -0.05721746
0.0067417 0.015168937 -0.0969311 -0.018332778 0.07369631 -0.09687112 0.06042337 -0.003218638
-0.09361779 0.072815344 0.011529096 0.03021842 0.00075917854 0.03407617 0.018671306 0.033643253

bn_layers.0.weight f4 [32]
00000000: acd0 af3f 38fa 643f 3c70 383f 3c18 a13f
00000010: 1865 8b3f c54b 8c3f 2b9b 923f 628b 923f
00000020: 886a 643f 678e 6c3f dc69 973f d07c 8b3f
00000030: 7543 6e3f 888c 8b3f 6138 843f 541e 853f
00000040: 0201 3d3f f5ec 933f bbc1 8f3f 68c1 6b3f
00000050: e0f9 3a3f ff63 513f 7b9c 863f 76ea 823f
00000060: c4fd 933f 5e55 3e3f f087 613f b569 a13f
00000070: 0919 803f 20a1 5e3f a3a0 7e3f 2f7a 7d3f
1.3735557 0.89444304 0.72046256 1.2585521 1.0890226 1.0960623 1.1453604 1.1448786
0.89225054 0.9240479 1.1829181 1.0897465 0.9307168 1.0902262 1.0329705 1.039988
0.7382966 1.1556689 1.1230997 0.9209199 0.7303753 0.81793207 1.0516504 1.0227802
1.1561818 0.7434901 0.8809805 1.2610384 1.000764 0.8696461 0.9946386 0.9901456

bn_layers.0.bias f4 [32]
00000000: ac48 46bf 7c08 b43d ff86 71be 8785 b3be
00000010: a6f0 b4be e27a 2fbf 31bb 0cbf 9c40 b8be
00000020: 3ed6 963d 456c 4cbe f5b1 55bf 67bf 5bbf
00000030: fec8 d9be 4803 0bbf 2937 f2be 29d0 8dbe
00000040: 633f 9fbe 93bc 1fbf 3c27 04bf ad7f f0be
00000050: a8af 8ebd 3e1c 1abe 9ed5 9fbe 5a80 77be
00000060: a79b 91be 0588 16bd ac7b e1be 1364 f4be
00000070: bd10 51bd e5b7 b5be 2f90 46bf 227c 35bf
-0.7745464 0.08790681 -0.23586653 -0.3506281 -0.3533985 -0.6854688 -0.5497313 -0.35986793
0.07365082 -0.19963177 -0.83474666 -0.8583893 -0.42536157 -0.5430188 -0.4730771 -0.27697876
-0.31103048 -0.62397116 -0.51622367 -0.4697241 -0.069670975 -0.15049836 -0.31217664 -0.24170056
-0.28439066 -0.036750812 -0.44039667 -0.477326 -0.051041353 -0.35491863 -0.77563757 -0.70892537

bn_layers.0.running_mean f4 [32]
00000000: 3a74 95be fcec 063f b726 1fbf 866d e4bd
00000010: dd8f d9bd 8a11 afbd 6442 bf3d 5a0a 003f
00000020: 70b0 81be 4d1e ae3e 2506 52bb 5cef 55be
00000030: b275 e1be 9ac8 023f 9c1b 94bd 4a9b e13e
00000040: 6a96 3b3e c33a 99be f160 37be 5d97 b03e
00000050: 1e22 423e a517 db3e f4d0 cb3e a64e 5abe
00000060: 033d 08bf a715 d13e 5940 f3be a33c 11bf
00000070: b3a2 0bbe 3ffb 30bd 2527 563e 7027 81be
-0.29190236 0.5270536 -0.6216845 -0.111537024 -0.10623143 -0.08548267 0.09338835 0.50015795
-0.25329924 0.34007493 -0.003204712 -0.2089209 -0.44035107 0.51087344 -0.072318286 0.4406379
0.18319097 -0.29927644 -0.17908074 0.3449048 0.18958327 0.42791477 0.39807856 -0.21319064
-0.53218096 0.40836832 -0.4751003 -0.5673315 -0.13636284 -0.043208357 0.2091337 -0.252254

bn_layers.0.running_var f4 [32]
00000000: 6378 8a3f c8d0 013f 7f65 403f 5731 173f
00000010: 6b43 1d3f 5098 e13e 13a0 f23e cb3d 573f
00000020: 90bd 473f 4127 873f 5e07 fe3f ec69 d73e
00000030: 279d 013f 8bee 3b3f 11de 583f b306 4d3f
00000040: 8321 aa3e 8cda c93e d86f 313f 64ff 023f
00000050: 81e7 473f 7338 f93e 5079 1e3f 1968 0b3f
00000060: cc07 2c3f 521e 083f 8fa7 093f baa9 123f
00000070: d073 133f 30cf 1e3f 1edd f63e 65cb 2b3f
1.0817989 0.507092 0.7515487 0.5905966 0.61430997 0.44061518 0.47387752 0.84078664
0.78023624 1.0558854 1.9845998 0.42073 0.5063042 0.7341086 0.84713846 0.8008835
0.33228692 0.3942455 0.69311285 0.51170945 0.7808762 0.4867588 0.6190386 0.54455715
0.671994 0.53171265 0.537713 0.5729023 0.5759859 0.62034893 0.48215574 0.6710723

bn_layers.1.weight f4 [64]
00000000: 8249 7f3f 7a49 a53f 2329 3a3f 0cf7 8f3f
00000010: c72a 8a3f a9ce 683f a10c 8e3f 93d9 a23f
00000020: 5dac 433f 95ed 803f ce86 613f 53b0 b23f
00000030: a309 843f 71de 8f3f 0681 8e3f 46fc 3f3f
00000040: e4c7 aa3f 0204 973f d343 813f bb2c 963f
00000050: 157e 9d3f 3817 853f 8a1e 673f 36cd a73f
00000060: ebd6 513f c0f5 853f cfb2 903f db55 903f
00000070: ba88 843f 7643 853f 54fa a43f e34c 833f
00000080: 45ce 6d3f 0072 a33f 19c2 833f 1822 643f
00000090: a5ed 9d3f 3167 9b3f 5b07 b23f 6c28 783f
000000a0: cc28 a53f dd67 913f e13b 413f 56f6 9d3f
000000b0: a31f 933f 942e 933f 0f07 9d3f 8cc5 5d3f
000000c0: 6583 543f 0576 933f 054d 7b3f 9847 913f
000000d0: a514 9b3f 0e2d b63f 2c95 b03f 2fb6 8e3f
000000e0: 7d93 7e3f 414f 633f 16e5 5d3f 3213 313f
000000f0: e0d4 8c3f 0a65 493f 2d77 443f fd54 8d3f
0.9972154 1.2913048 0.7271902 1.1247268 1.0794305 0.9094034 1.1097604 1.2722648
0.7643488 1.0072504 0.8809632 1.396006 1.0315441 1.1239759 1.1133125 0.74994314
1.3342252 1.1798098 1.0098823 1.1732401 1.2304102 1.0397711 0.90280974 1.31095
0.81968564 1.0465622 1.1304568 1.1276201 1.0354226 1.0411212 1.2888894 1.0257839
0.9289287 1.2769165 1.0293609 0.8911452 1.2338148 1.2140867 1.3908495 0.9693668
1.2903075 1.1359822 0.7548199 1.2340801 1.149403 1.149859 1.2267779 0.8662956
0.8301299 1.1520392 0.981644 1.1349974 1.2115675 1.42325 1.3795524 1.1149348
0.994438 0.88792807 0.8667768 0.69169915 1.1002464 0.786698 0.7674435 1.1041561

bn_layers.1.bias f4 [64]
00000000: c475 f3bd a7b1 e1be 8203 d6bd efa1 aebe
00000010: 543b b0be d523 9cbe b568 55be d1c4 52bf
00000020: 633f c1be de41 c3be e867 e1be 0e17 cdbe
00000030: 7ea2 bebe 2b19 7bbd 8f90 59be 9c37 96be
00000040: 1a12 3ebf d9a3 39bf 632a 6ebe 45b7 dcbe
00000050: 0cac bdbe cf3c 0dbf d91f e6be 9e49 01bf
00000060: 0227 cfbd a2f5 e9be 2ade c7be 9554 d6be
00000070: f4f5 51be 1577 83be 39df a8be 2702 dfbe
00000080: 40c1 c0be 6d76 81be 7b85 12be 07f8 99be
00000090: 0ebc 01bf b06e e4be 8b36 16bf 2260 c4be
000000a0: 8d96 9cbe eb8f 83be e9df e3be c676 c8be
000000b0: 03ad d4be 66dc debe 5591 a7be 2111 ffbe
000000c0: cbbe babe 788e 82be ab37 00be 2923 0dbf
000000d0: c900 42be 7866 80be 8750 9ebe b897 30be
000000e0: 7f21 28bf 6cda b3be 0062 09be 1caf 16be
000000f0: 9318 f8be ae33 22bf 7d75 f7be 1ef4 c73d
-0.118876964 -0.4408085 -0.10449888 -0.3410792 -0.34420264 -0.30496088 -0.20840724 -0.8233157
-0.37743673 -0.3813619 -0.44024587 -0.40056652 -0.37233347 -0.0613033 -0.21246551 -0.29339302
-0.7424637 -0.72515637 -0.23258357 -0.43108574 -0.37045324 -0.5517091 -0.44946173 -0.50502956
-0.10114862 -0.45695215 -0.39036685 -0.41861406 -0.2050398 -0.2567679 -0.32982805 -0.4355633
-0.37647438 -0.25285664 -0.14308731 -0.30072042 -0.50677574 -0.44615698 -0.58676976 -0.38354594
-0.3058361 -0.25695738 -0.44506767 -0.39153117 -0.41538247 -0.43527526 -0.32728067 -0.49817756
-0.36473688 -0.2549932 -0.12521236 -0.55131775 -0.18945612 -0.25078177 -0.30920812 -0.17245376
-0.6567611 -0.3512758 -0.1341629 -0.14715236 -0.4845625 -0.63360107 -0.48331824 0.097633585

bn_layers.1.running_mean f4 [64]
00000000: 3d4b 3940 9f8a b2bf 330f 64bf 0fc5 a0c0
00000010: d21d 1340 234b a0c0 dea4 41c0 9dcb d8c0
00000020: f062 e23f d0c6 d9bf c52d 83c0 e738 dcc0
00000030: b034 55c0 a43b d9be 3c1a 10c0 2b2a 5ec0
00000040: 447d ccc0 7138 a5c0 a3c3 b4c0 0bd5 b8bf
00000050: 6489 91c0 bef4 25c0 e283 9e40 d93b 77c0
00000060: c580 0abf 5008 2cc0 a50c 48c0 2ccc 45c0
00000070: bb1c b3c0 75b3 7cc0 d8ee 85c0 7ff1 39c0
00000080: 244c 41c0 6fd5 e43e 6fb9 83be dba4 3040
00000090: 6fb1 9dc0 0b09 99c0 4556 f2c0 3952 dfbf
000000a0: 287b 59c0 ac6b 30c0 fee6 bb3f c967 6ac0
000000b0: 8b3d a9c0 c373 0bc1 770a a0c0 3c24 82c0
000000c0: 0ac6 963f e031 bac0 5d7b 85bf 7bfe 79bf
000000d0: 6b86 66c0 e5cc a9bf 4a7d 27c0 d5e9 9cbf
000000e0: c3f8 2cbf 89b4 bbc0 ba40 9bbf 02ef fcbe
000000f0: e484 cfc0 e6a6 bb3f cb74 f13e e4fd 1840
2.8952172 -1.3948554 -0.8908569 -5.024055 2.298695 -5.009172 -3.0256877 -6.774855
1.7686443 -1.7013798 -4.099337 -6.881946 -3.3313408 -0.42428315 -2.2516012 -3.4713237
-6.390291 -5.16314 -5.6488814 -1.4440016 -4.5480213 -2.5930629 4.953599 -3.8630278
-0.54102737 -2.6880074 -3.1257718 -3.0905867 -5.597257 -3.9484532 -4.1854057 -2.9053648
-3.0202723 0.44694087 -0.25727412 2.760062 -4.9279094 -4.782354 -7.573031 -1.7446967
-3.3981419 -2.7565718 1.4679868 -3.6625845 -5.2887626 -8.715762 -5.0012774 -4.066923
1.1779187 -5.8185883 -1.0428272 -0.9765393 -3.6019542 -1.3265654 -2.617022 -1.225886
-0.6756708 -5.865788 -1.2129128 -0.49401098 -6.484972 1.4660308 0.47159418 2.3904963
