government_icfes_dataset/mlartifacts/956201576569699187/cbfeea7ffe5746c8813348421b30983f/artifacts/model/data/model.pth (torch, 443968 bytes, 39 tensors)

weight f4 [4, 4]
00000000: 77b3 0bc0 501a 993e 958e e4bf 21c1 c43f
00000010: 461f 673f 4a29 94bf a95d 7f3f 73b2 babf
00000020: f8fa ab3e 04b7 b43d b993 ebbe 0a80 6cbd
00000030: 7ffd 4fbf db6c 8f3f 39d6 473f d6c3 263d
-2.1828287 0.29902887 -1.7856013 1.5371438 0.90282094 -1.15751 0.9975229 -1.4585708
0.3358991 0.0882397 -0.4601114 -0.057739295 -0.8124618 1.1205095 0.7806125 0.040714107

weight f4 [3, 4]
00000000: c13a d83f 399e 9cbf e25d 94bf 5011 c3be
00000010: 2db1 11bf 3f82 ecbe 90a5 1dc0 4ed3 13be
00000020: cafc 883f 6851 283e aeb6 9d3f ca78 333e
1.689293 -1.2235786 -1.1591151 -0.38099146 -0.56910974 -0.4619312 -2.4632301 -0.14436075
1.0702145 0.16437304 1.2321374 0.17526546

weight f4 [5, 4]
00000000: fd18 983e 6b48 043f 4671 80bf 99e0 ba3d
00000010: f98e c93e 665f 8b3f 31d7 dabf bd59 a9bf
00000020: 3c63 1dbe aed3 93bf be1e 143f c13e 803d
00000030: f9af d1be b239 5dbf 332d 14bf a437 fa3e
00000040: c0b9 97bf 2eeb 123e a6c7 fd3e ec5a 003f
0.29706565 0.51673 -1.0034568 0.0912487 0.39366892 1.0888488 -1.7096921 -1.3230511
-0.15369886 -1.1548975 0.5785941 0.06261969 -0.4095457 -0.8641616 -0.5788147 0.48870575
-1.1853561 0.14347526 0.49566382 0.50138736

weight f4 [7, 4]
00000000: a8af 91bf 0a11 5e3d 7b6a a93e 2dab d4be
00000010: 1751 283d cab6 53bf 5ea2 84bf 90d7 13bf
00000020: 7a86 033e c532 57be f6fa d43e c90c 08bf
00000030: 1bba 543f e44a 14bf 0d11 02bf e9d4 a63f
00000040: a19d c03f f144 3c3f 8026 0a3f 4c5f 9a3d
00000050: fcbc d2be a56e b4bf 2c2f a2bf 74d5 193d
00000060: b31d 97bf 1c33 c2be 0e42 ba3f fff7 04bf
-1.1381731 0.05421547 0.3308905 -0.41536847 0.04109296 -0.8270079 -1.036205 -0.577508
0.12844267 -0.21015461 0.41597718 -0.5314451 0.83096474 -0.57926774 -0.5080727 1.3033725
1.5048105 0.73542696 0.53964996 0.07537708 -0.4115981 -1.4096266 -1.2670646 0.03755708
-1.1805938 -0.37929618 1.4551408 -0.5194091

weight f4 [7, 4]
00000000: 521c 1ec0 06fe 7cbf 326d fd3e 3116 913e
00000010: 6693 f2be b66c 58be 01a2 e1bf 025e 16bd
00000020: 65c2 fb3f e031 6c3f 4f89 cabd e871 cebf
00000030: 4ce9 7f3f 064b 033e d8e5 753f 9be6 af3f
00000040: 9cd6 9ebf 0c68 133f e2aa 5f3e 16c1 15bf
00000050: fb51 e23e 8880 2c3f eb64 023f 626b 4340
00000060: 205b 0ac0 1fcb 2cbf fe8c f1bf 4396 66be
-2.4704785 -0.9882511 0.49497372 0.28337243 -0.4737808 -0.2113522 -1.7627565 -0.036710747
1.96687 0.92263603 -0.09889471 -1.6128511 0.9996536 0.12821588 0.9605384 1.374225
-1.2409244 0.5758064 0.2184253 -0.5849775 0.4420317 0.67383623 0.5093524 3.0534291
-2.1618118 -0.6749744 -1.8871152 -0.22518258

weight f4 [1025, 4]
00000000: 7d32 24bf 20a5 923e 7926 173f 6821 183f
00000010: c203 983e d66f 3ebf 9f18 a6bf be82 773f
00000020: 3153 59bf 1110 053f 88f2 8abf d2b1 01bf
00000030: 9bc0 74be b0c1 febe 93a8 823d 2bf1 3d3f
00000040: 860b 5ebe 3545 ea3f 7942 873c 6ce4 4a3f
00000050: 4e39 ce3f 5e83 943f 5071 c0bf c0e4 57be
00000060: c2ff ac3e 319c 98bf 1520 1f3e c1c5 343f
00000070: f3e8 25bf 7bd4 533f 5b6c a6bf 2328 06c0
00000080: 9b85 9ebf b8e1 c73e c098 e1be 83e9 0c3f
00000090: 7038 a7bf 9825 ee3f 3a5f 9cbc 25e8 08be
000000a0: 09f6 853f b2d4 55bf 0c7a 9d3f e8e0 d33f
000000b0: e248 3c3f 2ea0 d13f 0a2b 65bf 5bcf 9fbe
000000c0: 9560 94bf f2e4 703e 0c8f 33be 3c0f 283f
000000d0: ce3e 883f 66dd b83f 814e 643f f5f0 6f3f
000000e0: 1c14 093e 6915 bc3f 60f2 3abf ce6b 4c3e
000000f0: 69dd e6bd a4c7 69bf 0289 cd3e 289f 4fbf
00000100: 10bf 073f f451 42bf 2bd7 2b3f 0742 c2be
00000110: a1f7 ad3f b204 993f bc16 89bf 9014 e03e
00000120: dc73 a4bf 7a7b 563f c115 62bf 1f27 0140
00000130: 1210 8cbe 76c3 12be e723 123f dcda 983f
00000140: c67e d8bf a271 803f ffc0 ffbd 1c9d 3bbf
00000150: cb02 fcbb d84a 3ebf 3160 cbbf 940a 86bf
00000160: 23b3 8e3e 4fb2 25bf d9a2 7d3f abf0 b13e
00000170: e4ba 21bf cbd7 bdbf 74a4 e2be 642b 643f
00000180: 2efc 13bf b167 1a3f 6d0d 98bf 91f0 c53e
00000190: 6de2 a03e a1b1 7c3e d9d3 1f3e d77c cc3e
000001a0: 4728 f93e 7e02 9b3f 14f8 0d40 12bb 1ebd
000001b0: 443d b0be c1bc e9be 9e30 63be 2543 3c3f
000001c0: 9287 07bf 5f4c 43bf e838 0fbf 9f2f e93f
000001d0: 7fcf d83e e324 cf3e f7d7 763f 7afa 063f
000001e0: 50f4 06c0 d679 e2bf bd9d a1be 7202 f13e
000001f0: ca8a e3bf 3e0e d53e 6293 8dbf d371 3d3e
00000200: 4469 3dbf 7a5e 6fbf bee5 42bf e01c 223f
00000210: 15d2 00bb e814 71be cb80 0f3f 40df 09bf
00000220: a527 bd3f 8fbd 1540 5142 98bf ae24 b9be
00000230: 34b0 4fbf 5e47 e8be dafa b6bd 3c2f 8d3f
00000240: 81a0 3e3e f53e 273f 89c2 51bf 5a9e 9e3e
00000250: 7a49 7c3f 8ad2 953e ac5e 99bd 9c93 8e3d
00000260: d95a abbf 7729 8dbf 2be3 f4be 3fe9 b8bf
00000270: 6129 1c3f 1a0e d63d c9b8 ca3f 9d78 b63e
00000280: 203f a13d 3d0a f33d c91d 833d 9d1a 31bf
00000290: 9e8c a43e db75 643e 9d6d 653e 0268 253f
000002a0: 17ea fc3e 9ac0 633f 622c 6d3f e280 a63d
000002b0: f3fe 96bf e026 adbf 761b 573e 0335 3040
000002c0: 1cf3 423e 0cfa 903e 2753 1e3f 92b6 ac3f
000002d0: 493b 34bd 9ac7 cbbd 20b1 96be a732 95bd
000002e0: 52e5 b2be 3425 d5bf b247 5abe 6ff5 373f
000002f0: abd4 943f 90c9 483f cab9 f4bd e5c5 e73f
00000300: fe8a 9c3e 9045 a83d ccbf c8be 368a 6a3e
00000310: 6f1a c63e 7d9e 903f 4aea f03e 8217 11c0
00000320: fa1a 8ebf ebdf 4bbe 2d14 3c40 0c08 603f
00000330: 83cf 94bf 255b ad3f beb3 b9bf 95a5 8b3e
00000340: 5bdd 6d3f aefe 023f a45b 983f 2edb f7bf
00000350: 2691 ce3f f608 d3bd bc7e 82bf de0c bd3f
00000360: ba3d b5bf 6c09 0f3e e113 583f c221 9bbf
00000370: afce 8a3d 639c ac3d 9812 cb3d 7f16 163f
00000380: deb1 cb3e 5511 8d3f e44c 62bf 1dd3 383e
00000390: 9912 fbbe 673c 5ebf ad3e 8abf fc2b 73bf
000003a0: dce8 8dbd a161 983e a143 643f 86cd 93bf
000003b0: 8cc7 adbe 9ffb 89bf f793 43bd 46ce c23e
000003c0: 2052 343f 9b7d 0240 faed 233f b917 4cbf
000003d0: 4887 0240 1737 4ebf a93b c4be 4612 5cbf
000003e0: 6c09 f3be 748f a7be 8485 cd3e fc52 6e3f
000003f0: 4378 3c3e 90e3 923e f8ef f03e 639d 6f3f
-0.6413954 0.28641605 0.5904308 0.59425974 0.29690367 -0.743894 -1.2976264 0.9668387
-0.84892565 0.5197764 -1.0855265 -0.5066196 -0.23901598 -0.49757147 0.06379809 0.7419612
-0.21684083 1.830237 0.016511189 0.79254794 1.6111238 1.160259 -1.503458 -0.21083355
0.33788878 -1.1922666 0.15539582 0.7061425 -0.6480858 0.82746094 -1.3001817 -2.0961998
-1.2384523 0.39039397 -0.44061852 0.5504381 -1.3064098 1.8605223 -0.019088376 -0.13369806
1.0465709 -0.8352767 1.2302871 1.6553011 0.7354871 1.6377008 -0.895188 -0.31212887
-1.1591974 0.23524836 -0.17535037 0.65648246 1.0644166 1.4442565 0.8918229 0.93727046
0.13386577 1.4694034 -0.73026085 0.19962999 -0.112726994 -0.9132025 0.4014359 -0.8110223
0.53025913 -0.759063 0.67125195 -0.37941 1.3591195 1.1954558 -1.0710063 0.43765688
-1.2847857 0.8378216 -0.88314444 2.0180128 -0.2735601 -0.14332375 0.5708603 1.194179
-1.6913688 1.0034678 -0.12487983 -0.73286605 -0.0076907626 -0.7433295 -1.588873 -1.0471978
0.27871045 -0.647252 0.9907661 0.34753928 -0.631758 -1.483148 -0.44266093 0.8912871
-0.5780667 0.6031447 -1.1879097 0.386601 0.3142275 0.24677135 0.15608157 0.39938995
0.48663542 1.2110136 2.2182665 -0.038752623 -0.34421742 -0.4565182 -0.22186515 0.73539954
-0.5294124 -0.7628841 -0.5594621 1.8217658 0.42345807 0.4045783 0.96423286 0.52725947
-2.1086617 -1.7693431 -0.31565657 0.47072178 -1.777673 0.41612428 -1.1060603 0.18500452
-0.7398875 -0.93503535 -0.7613181 0.6332531 -0.0019656469 -0.23543131 0.560559 -0.5385628
1.4777724 2.3396947 -1.1895238 -0.36160797 -0.8112824 -0.4536695 -0.08934565 1.103004
0.18615915 0.6533044 -0.8193746 0.30980188 0.98549616 0.2926219 -0.0748876 0.06961748
-1.33871 -1.1028279 -0.47829565 -1.4446181 0.6100064 0.104519084 1.5837642 0.35638896
0.07873368 0.11867187 0.064021654 -0.69181234 0.32138532 0.22310583 0.22405095 0.6461183
0.49397346 0.8896576 0.9264585 0.08130051 -1.1796554 -1.3527489 0.2100657 2.7532356
0.19038051 0.2831577 0.6184563 1.3493216 -0.04400185 -0.0995018 -0.2943201 -0.07285052
-0.34940583 -1.6651978 -0.21316412 0.71858877 1.1627401 0.7843256 -0.11949499 1.8107268
0.30574793 0.08216393 -0.3920883 0.22904286 0.38692042 1.1298367 0.47053748 -2.2670598
-1.1101983 -0.19909637 2.9387314 0.8751228 -1.1625828 1.354344 -1.4507978 0.27274767
0.92915887 0.5116986 1.1902966 -1.9363763 1.6138046 -0.103044435 -1.0194926 1.4769552
-1.4159462 0.13968438 0.8440533 -1.2119677 0.06777703 0.08428266 0.09915656 0.58628076
0.3978414 1.1020914 -0.88398576 0.18049283 -0.49037626 -0.86810917 -1.0800377 -0.9498899
-0.0692918 0.29761985 0.89165694 -1.1547096 -0.33941305 -1.0779914 -0.047748532 0.38048
0.7043781 2.0389163 0.64035 -0.797237 2.039507 -0.8055281 -0.38326767 -0.85965383
-0.47468126 -0.32726634 0.40140927 0.93095374 0.18405251 0.2868924 0.47058082 0.9359953

weight f4 [3, 4]
00000000: 49c8 1b3d a88b 2dbd 63d9 88be 8d13 6dbf
00000010: a5d8 c33f 05ba c2be eb83 2dbe 2015 10be
00000020: c7b7 55bf 51d4 01bf 77b2 0cc0 c814 b3bf
0.038032804 -0.042369515 -0.26728353 -0.9260796 1.530049 -0.38032547 -0.16944854 -0.14070559
-0.83483547 -0.50714594 -2.1983926 -1.3990717

weight f4 [7, 4]
00000000: 50a9 aabf 3f9d b8bf d3a3 8bbe 7e8f bebf
00000010: d378 123f 57d4 91bf fa5b c73f 77e4 61bf
00000020: 091e 203f 1951 9bbe 1022 8f3e 3031 3cbf
00000030: 0b90 ae3f 7b4e 963f 8704 593f 3bc6 7fbf
00000040: cffb 923f 66b7 3abf cba3 2fbf c151 033e
00000050: fb7e a4be d226 9abf 7a19 b53e 838d 853f
00000060: a876 723f 21c1 ca3f d12e 61bf dd04 cebe
-1.333292 -1.4422988 -0.27273425 -1.488754 0.57215613 -1.1392926 1.5574944 -0.88239235
0.6254583 -0.3033531 0.27955675 -0.73512554 1.3637708 1.17427 0.84772533 -0.9991185
1.1483096 -0.72936094 -0.68609303 0.12824155 -0.32128128 -1.2043097 0.35371 1.0433811
0.94712305 1.5840188 -0.8796206 -0.40238085

weight f4 [7, 4]
00000000: ef51 04be 53af b9be 744f da3e 4ab2 43bf
00000010: 9724 923f 1b95 2f3e 6c23 533e f79f ea3e
00000020: f08f e2bf 4f4e 363f 4b62 9c3f 61e9 1d3f
00000030: 713a 903f a8bd 8cbe 1d96 8bbf 1123 243f
00000040: 57d3 5f3f 1e37 89bf a22d 4e3f 44ac 2c3d
00000050: 1ff2 883f 74bb 08bd f496 d03d 29a1 763f
00000060: 9cf4 843f 216e ad3e 0427 97bf 9c1c ee3e
-0.1292188 -0.36266574 0.42638743 -0.7644392 1.1417416 0.17146723 0.20618981 0.45825168
-1.7700176 0.7121324 1.2217497 0.6168423 1.1267835 -0.27488446 -1.0905186 0.6411601
0.87431854 -1.0719945 0.8053838 0.042156473 1.069889 -0.033381894 0.10185042 0.9633966
1.0387149 0.33873084 -1.1808782 0.46506202

weight f4 [3, 4]
00000000: e8da b4bf 672e 60bf 1200 b0bf cc7d 693f
00000010: 8617 ac3f 4753 753f 9015 1dbf db90 54bf
00000020: 48fe 843e 32fd 323f 1fbb 2e3f 51fb 233f
-1.4129305 -0.87570804 -1.3750021 0.91207576 1.3444679 0.95830196 -0.61361027 -0.8303353
0.2597525 0.69917595 0.68254274 0.64055353

weight f4 [427, 4]
00000000: d08e 753f a013 c93f f5ea c1be bcd4 173e
00000010: 6567 a8bf 9bdf b73f d8bb 2e3e ef16 893e
00000020: 174f cdbe c7d9 bd3e fe10 f4bd 86b5 583f
00000030: db02 c63f 90ca 8f3f 22ec 9ebf b0a1 4dbf
00000040: 4b48 bf3f a11c 05c0 768e d03e 105d 6c3f
00000050: e7d8 75bf d1d4 06c0 ef33 7abe 11aa dd3f
00000060: e797 62bf 1b70 f03f 818e 4ebf 617e 463f
00000070: 8214 4abe 641b 96bd 303d 2840 2299 9f3f
00000080: d5f5 4abf 2e1d bd3f 74ea 183f 1462 69bf
00000090: 4194 6cbf 6b62 7140 91d2 37c0 1170 3c3d
000000a0: 7bd0 c6bf af2f 07bf 7de0 e93f be11 693f
000000b0: 0df2 173f 512e 76be 4cae b03f db9c 12be
000000c0: ab67 83bf 54a5 ffbe 5951 653f 6a1f 95bd
000000d0: 093a 17bf 2df5 11bf 3414 f53e cf62 dcbd
000000e0: 6a8f 143e 1890 4b3e 0e43 4abf 1332 153f
000000f0: ed96 2ebf b0ad 8abe 1888 5c3f 4542 a0be
00000100: 03f7 5b3e acb3 183f 0806 013d 8de8 c3be
00000110: 371d fdbc 2fba 22bf cd62 6bbf e5a0 1640
00000120: 77dc 393f b96c d8bf ceb7 cb3c ac19 cabf
00000130: 19e2 a6bd bf9f 3c3f 2a18 fcbe 5cc2 883e
00000140: cdb6 02bf 583a 07bf 6cca 1a3f 2fc5 823f
00000150: be7d 83bf 0a1a 45bf 54b0 933d dd15 ecbe
00000160: 7a47 d13f 36ae 7e3f bc7c 49bf 9bbc 3dbf
00000170: a540 9dbf c4d2 a03f b53b 98be 2fbd 323f
00000180: 16f5 21bf 08c2 20be ca9b 75c0 492d 963f
00000190: 6046 803f 1d75 2dbe 5162 203f 1d8d aabf
000001a0: 1d0c 7bbf ace2 413f cd90 a93f d2c3 b13f
000001b0: 3d80 a03c 0c81 1fbf b4d3 78be 23e6 06be
000001c0: 6990 2540 e626 8ebe 1de5 9dbe cb6d 7b3e
000001d0: cea8 0240 3e9c b23e 75ea cbbe ccd8 993f
000001e0: 73e5 98be 655a 373f dba2 a3bb 76a0 9d3e
000001f0: 5343 bebe b27c 423f c87a 85be bf85 183e
00000200: aac1 ce3f 174d a9bf 49f9 6fbf c931 bdbd
00000210: ba0a 7a3f de21 f43e 084b 94be c86d bcbe
00000220: 5520 90bf d720 ffbe ad11 893e 2602 05bf
00000230: 1e65 3a40 e191 753e cf55 22bf 777d 11bf
00000240: 7e3f f4bf b99a e7be 348a bf3f f992 4f3f
00000250: 6fb4 0b40 22bf 0bc0 aec7 563f bbfe 6cbe
00000260: 2732 273f 69e3 353f 213a 5fbf f56f 5dbf
00000270: 2218 57be 8f6a 02bf a699 29bf 8114 0bbf
00000280: d372 7dbe e1d5 9e3f 8a55 9abf 6df6 103f
00000290: 0a8e 5a3f d811 6f3f 831d f4be b30d 4a3e
000002a0: 6dd2 62bd d8a3 fb3d 5484 be3f a1e7 01bf
000002b0: 9ec4 3e3c 5306 0b3f 7106 9f3e ae6c a7bf
000002c0: ddeb ae3d fb45 4bbf d4eb 203f 1671 04bf
000002d0: 2c12 243f bb08 903e 47cc 88be 65d9 6a3f
000002e0: 7140 16c0 6063 993f dbf1 08be e39d 303f
000002f0: 05fc 413e 25f1 cfbf 8130 cfbf 1a5a 94be
00000300: 830a 3f3f e062 b53e 4ad5 69be 3b85 22be
00000310: 1cbf acbd 3195 833e 6ff5 cebf 46e9 f13c
00000320: 3014 97be c0c7 a5bf 747c 15bf ef08 993f
00000330: de9a 03bf b259 b6bf f105 5e3f 15c3 a43e
00000340: e46f a93f 0dd4 1c3d 07ae 87bf ea66 a6be
00000350: 2fb1 a93f 8c9d 8c3f 2f8d dfbe f191 703e
00000360: b8f6 c53b 6d50 b3bf fb18 b13f f66d ebbe
00000370: d555 973f c5c3 e6bd 5dd4 46bd e247 f0bd
00000380: 863a bd3d 3166 2e3e 4ebf c1be f001 bf3e
00000390: 4075 043f 77c9 bb3e 271b 75bf 5ec5 e7bf
000003a0: 6bb3 1e3f facb adbf a26b 35bd d52d 823e
000003b0: 072e 23bf 5a9c 163d e73e 033f 795b ddbe
000003c0: 9026 bcbf 0495 88be ac57 7ebf 3db0 f33e
000003d0: 0961 e7bf 1cc1 103f b3df 59bf 1264 743f
000003e0: 4cdf 0fbd 0879 603f f98c 903e e971 d9bf
000003f0: 502f 2b3f a8b9 afbe fc77 a1bd 6f39 e0bd
0.9592104 1.5709114 -0.3787457 0.14827245 -1.3156554 1.4365114 0.17063844 0.2677531
-0.40099403 0.37080213 -0.119173035 0.8465198 1.5469621 1.1233692 -1.2415812 -0.8032484
1.4943937 -2.0798724 0.4073369 0.923295 -0.9603409 -2.1067393 -0.24433874 1.7317525
-0.88513035 1.8784212 -0.80686194 0.7753659 -0.19734386 -0.07329443 2.6287346 1.2468607
-0.7928136 1.477453 0.5973275 -0.9116528 -0.9241372 3.771632 -2.872227 0.046005312
-1.5532373 -0.52807134 1.8271633 0.910427 0.59353715 -0.24041106 1.3803191 -0.14317648
-1.0266012 -0.49930823 0.8957725 -0.072813824 -0.5907293 -0.57014734 0.47866976 -0.10761034
0.14507833 0.19879186 -0.7900857 0.5827953 -0.68199044 -0.27085638 0.8614516 -0.3130056
0.21480946 0.5964916 0.031499892 -0.3826336 -0.03089772 -0.63565344 -0.91947633 2.3535702
0.7260203 -1.690818 0.024867918 -1.5789084 -0.081485935 0.73681253 -0.49237186 0.26710784
-0.5106018 -0.528234 0.6046512 1.0216426 -1.0272748 -0.7699286 0.07211366 -0.4611043
1.6349938 0.99484575 -0.78705955 -0.74115914 -1.2285353 1.256432 -0.29733053 0.6981992
-0.63264596 -0.15699017 -3.8376336 1.173257 1.0021477 -0.16939206 0.6265002 -1.3324314
-0.9806536 0.757365 1.3247315 1.3887885 0.019592399 -0.62306285 -0.24299508 -0.13173728
2.586939 -0.27764052 -0.30838862 0.24553601 2.041553 0.34884828 -0.39827314 1.2019286
-0.29862556 0.71622306 -0.004993779 0.30786484 -0.3716074 0.7597152 -0.26070237 0.1489477
1.6152852 -1.3226651 -0.93739754 -0.092380114 0.9767262 0.4768209 -0.28963494 -0.36802506
-1.1259867 -0.49829742 0.26771298 -0.51956403 2.9124217 0.2398143 -0.63412184 -0.5683207
-1.9081876 -0.45235232 1.4964051 0.8108364 2.1828878 -2.1835408 0.8389844 -0.23144047
0.653109 0.71050125 -0.8719807 -0.8649896 -0.210053 -0.50943846 -0.66250074 -0.5432816
-0.24750833 1.2409021 -1.2057354 0.56626016 0.85372984 0.933866 -0.47678766 0.19731788
-0.05537646 0.1228711 1.4884133 -0.5074406 0.011643557 0.54306525 0.31059602 -1.3080041
0.08541081 -0.79403657 0.62859845 -0.51735055 0.6409023 0.2813166 -0.2671835 0.9173797
-2.3476832 1.1983452 -0.1337351 0.68990916 0.18943794 -1.6245466 -1.6186677 -0.28974992
0.74625415 0.35426998 -0.2283527 -0.15871136 -0.08434889 0.25699762 -1.616865 0.029530179
-0.2950759 -1.2951584 -0.58393025 1.1955851 -0.51408184 -1.4246123 0.86727816 0.32180086
1.3237271 0.038288165 -1.0599984 -0.32500392 1.3257197 1.098558 -0.43662402 0.23493172
0.006041374 -1.4008919 1.3835748 -0.4598233 1.1823069 -0.11267809 -0.04854237 -0.117324606
0.09239678 0.1703117 -0.37841266 0.37306166 0.5174141 0.36677143 -0.95744556 -1.8107107
0.6199252 -1.3577874 -0.0442921 0.25425592 -0.6374211 0.036770202 0.51267856 -0.4323385
-1.4699268 -0.2667619 -0.99352527 0.47595397 -1.8076488 0.5654466 -0.8510696 0.95465195
-0.035125062 0.8768468 0.28232554 -1.6987888 0.6686907 -0.34321332 -0.07884213 -0.109484546

weight f4 [1030, 4]
00000000: 4086 29bf 5720 d8bf 8f2b fcbe b144 2c3e
00000010: c1dd 1fbf bce3 7b3e 4e98 943e b114 10be
00000020: fabc 0840 a9d2 573e ba02 153f 0c91 f63e
00000030: 9f6a e9bd 9ea7 b2bf 4b8b 03bf a00b fdbd
00000040: 15a1 2b3f 5c93 a0be 2471 493f 90b2 bebf
00000050: a7fb 3abf 2c08 cf3f dd63 d23e 476a 9abe
00000060: 8c52 c63f ad3d 4240 8822 0cbd aa07 853f
00000070: aa0f 233e 853c 9b3e 69d4 973e f895 193f
00000080: ab7d f13f da64 a03f 9834 32bf f132 aebe
00000090: eb82 2f3f cfb5 63bd 2df3 9f3f 105f 84bc
000000a0: f1d3 d93f 5e21 1f3e 3c9e a8bd b200 e83e
000000b0: 1d12 8f3f 3977 4b3f 5ee6 8bbf 0ef3 9ebe
000000c0: 777b f63e 619b 63be 6348 183f 58ad b4bf
000000d0: 6de7 553e f2f3 283e ecd8 cbbf d19e 5d3f
000000e0: 0372 aabe e4ed 963e 4333 bf3f d5dd 01be
000000f0: c88c 4cbe 9de0 99be afb8 d93e af01 babf
00000100: 55e4 34bf f1f0 babf 0c92 383f 7f30 373f
00000110: 6b82 d73f 68bb 3e3f 99cd a83f f423 14bf
00000120: 2eac 7abf 7c07 87bf 1918 e9be 88a4 ec3d
00000130: c96d 393e c167 203f d73e 673f 9d50 753f
00000140: e63d 0cbf 07a8 c93e 37a2 87bf 7318 ce3e
00000150: a373 1dbe 2520 09bf 7ccf 72bf 2ab8 0440
00000160: 2f4d c4bc 5c2b 44bf a1db b4be df23 873f
00000170: 8d7c b7bf 8ba5 ec3f 867d c5bf 96ef 90bf
00000180: 94dc e1be 9671 42bf 3d7d 003e d4ce d4bf
00000190: 47b8 7ebd d8f0 9fbe 94c5 59bf 9592 61bf
000001a0: 55e5 a13e 68fb 593f 64d6 16c0 8941 4a3e
000001b0: 5114 ae3f 0724 123d 3e23 03bf 394c 413f
000001c0: c353 923e 2797 25c0 3e37 30bf f7a3 bebe
000001d0: dca2 94bf f49f dbbf d773 773f 9091 9bbf
000001e0: 1f6b 0ec0 e800 6dbe 7b9c 133f bee9 e33c
000001f0: 3d0a 13be a2eb 4b3e d27b fcbf 3190 713f
00000200: f633 4fbf fe35 52be 8bda c0bd cd68 91be
00000210: 5f96 ecbe c948 843f 0bc3 323e 642b 6dbe
00000220: 9b6f f13d eef3 31bf 2266 1340 bcdf 0fbe
00000230: 68ff 353c cad8 8c3e c92f a73f b5cd 8d3f
00000240: 7999 f73e 50eb d33e f881 e43d de50 50be
00000250: ffa5 023f fe7e a93f b3eb aa3f 4859 10bf
00000260: 6378 ee3d 3ff3 053f bd3a 01bf e085 33bf
00000270: 2f2d 393e dd20 50bf 1a0b 9bbf aa20 4bbd
00000280: 8ab3 7cbf e280 04c0 0185 ee3d 0b02 14c0
00000290: 5314 583f e064 8f3f f663 5ebf 51bf e43f
000002a0: df43 7ebf 3769 83bf a806 163f 8549 ee3d
000002b0: ca37 23be fed5 65bf ddf7 813f 7738 b13e
000002c0: 3be1 4cbf 2032 e9be 664a e23e ae25 893f
000002d0: 9a57 d7bf 9134 0ac0 e662 41bf 57b9 07bf
000002e0: b077 b8bc 6968 acbf 3b90 813f 4350 70bf
000002f0: 9a3e 603e 9401 f13c 5c55 92bf 56d5 4b3f
00000300: 1eab 9cbf 62a9 36bf dc3a 2bbd 385b ddbd
00000310: 1673 6f3f 3663 91bf 1157 cabe b73b 77be
00000320: 577e bebc b4ea d73f 643c ee3e 96e2 88bf
00000330: 6a39 dbbf 3bf3 1b3d 7e35 0cbf 5f9e 53bf
00000340: e15b 04bf bc21 273e 42a0 c7be e6f3 c43f
00000350: d857 a1be 0927 66bf b433 11bf 67e2 89bf
00000360: bdf5 933f 2487 a43f a484 803c f815 e7bd
00000370: 4c3d c43e bdde ae3e 0f07 2dbf d060 ae3e
00000380: 411c 863f e394 953f 431a 963f ba53 95bf
00000390: a797 2d3f 3c6a cb3e 3eb2 66be 0080 fd3f
000003a0: c06c 973e 52af c0be 92d3 813f 8a36 183f
000003b0: e6b1 2b3e ffd9 44bf f473 03bf 4515 07bf
000003c0: f44a 9abf 2726 e8be c0b4 513e b3ae 043f
000003d0: a171 c53d 94d0 9fbf 7c69 5cbf 7e1c 863f
000003e0: 99ff 53bf f3f9 ab3e 51b8 1240 b6ee 863e
000003f0: 68ce d1bd 41ee 993e 607d 8b3f d700 e63f
-0.66220474 -1.6884869 -0.49251983 0.16823079 -0.62447745 0.24598593 0.2902245 -0.14070393
2.1365342 0.21076454 0.58207285 0.48157537 -0.113972895 -1.3957403 -0.5138442 -0.12355733
0.67042667 -0.31362426 0.78688264 -1.4898243 -0.7304024 1.6174369 0.41091815 -0.30159208
1.5493941 3.0350144 -0.03421262 1.0392964 0.15923944 0.3031961 0.29654244 0.5999446
1.8866476 1.2530777 -0.696115 -0.3402324 0.6855914 -0.055593308 1.2496086 -0.01615861
1.7017804 0.15540072 -0.08233306 0.4531303 1.1177403 0.79478794 -1.0929677 -0.3104481
0.4814107 -0.22227241 0.59485453 -1.41154 0.20889063 0.16499308 -1.5925574 0.8657046
-0.3329011 0.2947837 1.4937519 -0.12682278 -0.19975579 -0.3005418 0.42523715 -1.4531764
-0.7066091 -1.460478 0.7209785 0.71558374 1.6836675 0.7450471 1.3187743 -0.5786736
-0.97918975 -1.0549159 -0.45526198 0.11554819 0.18108286 0.62658316 0.9033026 0.9582613
-0.5478195 0.39386007 -1.0596379 0.40253028 -0.15376143 -0.53564674 -0.94847846 2.0737405
-0.023962585 -0.7662866 -0.35323814 1.0557822 -1.4334885 1.848802 -1.5428932 -1.1323116
-0.441136 -0.7595457 0.12547775 -1.6625619 -0.06218746 -0.31238437 -0.85067105 -0.8811429
0.3162028 0.8514924 -2.3568354 0.19751562 1.359995 0.03567889 -0.5122565 0.7550693
0.2857953 -2.5873506 -0.6883429 -0.3723447 -1.1612201 -1.7158189 0.9666113 -1.2153797
-2.2252882 -0.23144877 0.57660645 0.027821418 -0.14359374 0.19914106 -1.9725287 0.94360644
-0.8093866 -0.20528409 -0.09416684 -0.2840027 -0.46208474 1.0334712 0.17457215 -0.23161083
0.11788865 -0.6951283 2.3031087 -0.14050192 0.011108257 0.27509147 1.3061458 1.1078402
0.48359278 0.41390467 0.11157602 -0.20343348 0.5103454 1.324188 1.335318 -0.5638623
0.11644056 0.5232429 -0.5048025 -0.7012615 0.18083642 -0.81300145 -1.2112763 -0.049591698
-0.98711455 -2.0703664 0.11646462 -2.3126247 0.8440601 1.120266 -0.8687128 1.7870885
-0.99322313 -1.0266484 0.58603907 0.116351165 -0.1593925 -0.8977965 1.0153767 0.34613392
-0.80031174 -0.45546055 0.44197387 1.0714624 -1.6823609 -2.1594584 -0.7554153 -0.5301718
-0.022518009 -1.3469363 1.0122141 -0.9387247 0.2189888 0.029419698 -1.14323 0.796224
-1.2239721 -0.7135221 -0.04180418 -0.10808414 0.9353498 -1.1358402 -0.3951955 -0.24143873
-0.023253603 1.6868501 0.4653045 -1.0694149 -1.7126896 0.03807376 -0.5476912 -0.8266353
-0.51702696 0.16321462 -0.38989455 1.5386932 -0.31512332 -0.8990331 -0.5671952 -1.0772218
1.1559368 1.2853742 0.015688248 -0.11283487 0.38328016 0.3415431 -0.67588896 0.34058237
1.0477372 1.1686062 1.1726764 -1.1666176 0.6780953 0.39729488 -0.22528931 1.9804688
0.29575157 -0.3763376 1.0142691 0.5945822 0.16767082 -0.76895136 -0.51348805 -0.5276683
-1.2054124 -0.45341608 0.20479107 0.5182907 0.096408136 -1.2485528 -0.86098456 1.0477445
-0.82811886 0.33589134 2.2924998 0.26353997 -0.10244447 0.30064586 1.0897636 1.7969006

weight f4 [7, 4]
00000000: 9a8f 2f3f a5b7 bbbf 60db f8be 2b1d 8abf
00000010: 8509 06bf a782 cdbe 2695 49bf 2038 7dbe
00000020: acd0 4fbf bc62 47bf 9c90 3e3e 6115 053f
00000030: c0ea 00c0 fc62 bdbe b4bf db3e 27bd 8cbd
00000040: ad2d 343f e890 a83e 27cf a03f 442e cb3f
00000050: 137f a23f d4b4 0a40 ded3 8b3e 692e 4ebf
00000060: 97c5 71bd fd7a 48bf 7f0c b33f ddf8 373f
0.68578494 -1.4665419 -0.4860487 -1.0790151 -0.52358276 -0.40138742 -0.7874321 -0.24728441
-0.81177783 -0.7788503 0.18609852 0.51985747 -2.014328 -0.36989582 0.42919695 -0.068720154
0.70382196 0.32923055 1.2563218 1.5873494 1.269503 2.1672869 0.2731008 -0.80539566
-0.059026327 -0.78312665 1.3988189 0.7186411

weight f4 [7, 4]
00000000: 8a5b 753f eb45 69bf 4b06 64bf 102f cf3f
00000010: f9d6 283f b387 40bf 3263 0fbf 797f 87bf
00000020: aa83 9abe 9953 403e dbfc a23f 1c10 753f
00000030: a288 a83f 4399 e83f a57c 4a3f dc1a 273e
00000040: 45c3 903f 9fe6 c7bd 2069 0ebf d58a b13f
00000050: 6c32 0d3f 243e a5bf 1edf 173f 7345 5a3f
00000060: 3cd3 fdbd 0b75 5dbf 5403 433e f9e8 a6bf
0.958428 -0.9112231 -0.890721 1.6186237 0.6595302 -0.7520706 -0.56010735 -1.0585777
-0.30178577 0.1878189 1.2733415 0.95727706 1.3166697 1.8171772 0.7909644 0.1631884
1.1309592 -0.09760784 -0.5562916 1.3870493 0.5515506 -1.2909589 0.59324825 0.8526222
-0.123938054 -0.8650672 0.19044238 -1.3039848

weight f4 [7, 4]
00000000: 0471 8cbf 4c06 f33d b23f 8bbf dc09 bdbf
00000010: 5108 8ebe a4c7 ccbe 13be f2bf 538d 6ebe
00000020: 1909 15bf 2717 693e d91f 0b3f cc22 903f
00000030: da89 f6bd 230e 6fbe b735 5f3f f68e 003f
00000040: 2ad6 62bf a1f1 913f 081d 543f eaa5 d3be
00000050: 27ba 49bf 9ffc 86bf f0dd b83f d25c 843e
00000060: 55ee 22bf fb71 f8be 8ce7 c63f 59b9 0cbf
-1.097199 0.118664354 -1.0878813 -1.4768634 -0.2774072 -0.39996064 -1.8964256 -0.23296098
-0.58217007 0.22762738 0.5434547 1.1260619 -0.12038012 -0.23345236 0.8719134 0.5021814
-0.8860804 1.1401864 0.828568 -0.4133752 -0.7879967 -1.0545844 1.444273 0.25852066
-0.63644916 -0.4852446 1.5539412 -0.5497032

weight f4 [6, 4]
00000000: 25a5 903f a0d9 1e3f 9c0c a93e 31b7 463e
00000010: 7bdc 39bf 7af4 9fbf d38e 8cbf 0c1f 633e
00000020: 9c89 89bf 7404 8a3f a3a0 86bf 493d 0940
00000030: 37e4 4ec0 c917 0740 6dbe d3bf a47e e13f
00000040: 04f7 073f 0664 19c0 a3dd 0d40 a234 a8bf
00000050: 7914 4e3f 9a5b e2bf 94ba 96bf 9fb8 49be
1.1300398 0.6205082 0.33017433 0.1940582 -0.7260205 -1.2496483 -1.0981086 0.22179812
-1.074512 1.0782609 -1.0517772 2.1443655 -3.2326791 2.1108267 -1.6542488 1.7616773
0.5311129 -2.39673 2.2166526 -1.3141062 0.8049999 -1.7684205 -1.1775689 -0.19699334

weight f4 [32, 1, 3]
00000000: 4fca 48bf 9684 4ebe 805d 90bd b1ef 383f
00000010: 2d07 0dbe 0d5c 8fbd ab92 923d 5cbe 69bf
00000020: 23c2 193e cae3 503e 5081 27bf bb0a c63e
00000030: 10e4 e13e df36 04bf 463d 85be edc0 433e
00000040: 5aab 293e 27c6 b6be 2ab4 6d3e 2112 21bf
00000050: 3e86 a63d 6862 4bbe b956 b7be 464e f13d
00000060: 2372 313d 22a3 c13e 1fca 3fbf 4343 663e
00000070: 30aa 1bbf 3d64 cc3d 854c ab3c fb01 febe
00000080: 5e27 d4be 89c5 ddbe 1d18 873e 965c dfbe
00000090: 090d 3e3d e437 b4be b39d b4be 0ecc 0d3f
000000a0: 8ce3 2cbc 46b3 0ebf e371 293e 2864 02bf
000000b0: 44a8 073d 150a bc3e 19f3 5cbf 6e28 373e
000000c0: 9ec4 d33e 02b8 2e3f 5ccc d23d e611 edbe
000000d0: 8ab1 093f 4894 273e 9e37 563e 86ed e7be
000000e0: 1ae4 d33e 2dd4 b03e 133c 91bd dcae 28bf
000000f0: cd2e 36bd 93ab a73e 1445 963e 3caf 2abe
00000100: 6be1 c1be 1006 19bf 83a7 e03d c0fe f2be
00000110: b57a 363e 06e1 babd 49d7 59bc adf8 8b3f
00000120: c4ad ca3e e780 dabe c71c d9be 091b 8abe
00000130: 9feb febd aa9a 603f 66d3 98be 28e5 363e
00000140: 6d7b 8abe 0894 74be 6a25 66bf 63bb 6c3e
00000150: 741d 173e 9cac 86bf b7e1 ce3e f8cb bebe
00000160: cbeb 233f 5f32 6b3d 37d0 30be 052e 3cbf
00000170: 9af7 a53e 7825 4bbe 34c4 073f afca 97be
-0.784337 -0.20167765 -0.07049084 0.7224074 -0.13772269 -0.06999979 0.07156881 -0.9130609
0.15015464 0.20399395 -0.6543169 0.38680062 0.4411931 -0.51646227 -0.2602331 0.19116564
0.16569272 -0.35698053 0.23213258 -0.6291829 0.081310734 -0.19861758 -0.35808352 0.117825076
0.04332174 0.37819773 -0.7491779 0.22486596 -0.6080656 0.099800564 0.02091051 -0.49610886
-0.41436285 -0.4331477 0.26385584 -0.43625325 0.04639915 -0.3519889 -0.35276565 0.5538949
-0.010552298 -0.557423 0.1654735 -0.50934076 0.033119455 0.36726442 -0.8630844 0.17886516
0.41360945 0.68249524 0.10292885 -0.46302718 0.5378653 0.16365159 0.20919654 -0.45298404
0.41384965 0.34536877 -0.070915364 -0.65891814 -0.044478226 0.32748088 0.29349577 -0.16668409
-0.37867293 -0.59774876 0.1096945 -0.47459984 0.17820247 -0.09124951 -0.013295957 1.0935265
0.39585698 -0.4267647 -0.42404768 -0.2697375 -0.12447285 0.87736 -0.29848784 0.17860854
-0.2704729 -0.23884594 -0.8990084 0.23118357 0.14757329 -1.0521426 0.40406582 -0.3726499
0.64031667 0.057421084 -0.17266928 -0.7350772 0.32415468 -0.19838512 0.5303376 -0.29646823

bias f4 [32]
00000000: d7c9 503d f69b d73e d9ec e0be a123 27bd
00000010: 712c c43e dcce f93e f739 0a3e 264d 053e
00000020: 6222 1f3e c804 b8be 64ef a4bc 5a1c 243d
00000030: c0b3 91be 6682 273e ce1b efbe aec2 dcbe
00000040: d4c0 5dbe 192c 353d 9646 f4be 3518 073f
00000050: 1a92 05bf 74db bf3e 65d1 5b3d 7d21 e13e
00000060: e90a 013f 6229 143e 2723 853e f591 f3be
00000070: 7fd7 9dbc e160 79be d51d 0abe f2ce bdbe
0.05097374 0.42111176 -0.439307 -0.040805463 0.38315156 0.48790634 0.13498674 0.13017711
0.1554046 -0.35941148 -0.020133682 0.0400661 -0.2845745 0.16358337 -0.467009 -0.4311728
-0.2165559 0.044231508 -0.47710103 0.5277131 -0.5217606 0.37472117 0.05366649 0.43970862
0.5040727 0.14468911 0.26003382 -0.47572294 -0.019267796 -0.24353363 -0.13487943 -0.3707195

weight f4 [64, 32, 3]
00000000: 3fbe 9f3e a266 143e 0d6d 1bbe 8850 2bbe
00000010: c61f f5be 9ae8 d1bd b706 31bd 0139 a73d
00000020: 496f 323e 6f4b 40bd e61f 08bf 51c8 9c3d
00000030: 6fbb 133e 8513 773c eb81 91be 739a c8be
00000040: 6668 adbe ba87 8d3e 10d1 0f3e 892f 9cbe
00000050: e8b1 f0bc bc5e 873d eedd 243e 305b 833e
00000060: d4c4 5ebd 13a9 98be 86dc a63e 6ad6 8f3d
00000070: 0cb4 44be f9f2 18be b26c 933e 516b 603e
00000080: 44b4 e5be 1d38 dbbc 806b 78bd dc11 673d
00000090: 811f 373e 1ecc 233d f6e0 01bf c6d0 eebd
000000a0: 0ff8 f3bd 90f0 80be af71 3a3d c3ad a6be
000000b0: 01ec 273d a342 6a3e 894b c0be aca4 f13c
000000c0: d8b6 0bbf 0407 96bd f2dd 873e ec8a 00be
000000d0: 823c 86be 04eb 373d e497 16bd de92 11bf
000000e0: 1b8c 193e 5c37 f0bd 0fa4 30be 6abf 9ebd
000000f0: d97d 03bf 589b 4b3e caa0 e4bc 53a3 8a3e
00000100: 87ac a53d 4c9f 16be 4cc7 243e 2107 cdbe
00000110: 75ff 723e 82c6 5ebe 7e99 c0be c897 ec3d
00000120: ab0c 4bbe 29e9 b73c 40c9 97be dc31 3fbd
00000130: 86ad 5ebe 6a5c 993d e4e8 66bd 6dbd 87be
00000140: 69c9 2e3d 3ff6 21bd be35 ea3c 688b 2cba
00000150: a530 c1bd 8a43 80bd c03b 223e 6fb4 91be
00000160: 4c3d 7bbd 3ef0 d03d e1dd 16bb 8014 1bbd
00000170: 3594 2e3d 59fc 09bf ac2d fcbe f2b7 d23e
00000180: 08b2 b83d dce7 973d 2b5f 21be 9f34 b33d
00000190: ae88 56bd 0f95 c33e 7ac3 823e a60d 07be
000001a0: 37b3 403e 057a ac3d 4e7f b53c d0d8 a53d
000001b0: 9197 f73d a749 06bf bea5 8f3e 1f66 c4be
000001c0: a3b4 23bd 22bc 17be 2150 27bc 2a2f 763d
000001d0: b587 df3d e04a e9bb 0a96 aebb 1431 3cbd
000001e0: 11cf 6cbe cc6c 663e f42e ddbe 8e0d c83c
000001f0: da6e 15be 048a 073f cbf1 cd3b 62ed 48bf
00000200: d7ff 34bd dd54 4f3e 4751 5f3e fb2b a7be
00000210: d66b 8ebd cd58 48bf 57cf dabd f8e3 063c
00000220: 5e9a d5be efbb 1d3e eb24 cc3d 7ae3 66be
00000230: 27a2 b13e f427 5e3d c2a3 7bbd d259 843d
00000240: 0b2c 8cbd 2265 633d 318d 583e ae3f abbc
00000250: f29b 073e 036d edbe 11b5 a53e 46d1 d63c
00000260: 604f b0bc 9adc 5c3e 7a8e 2cbf 7b72 a93d
00000270: 96cd 96be 4b7a f13d 4157 45bd 7d06 e33d
00000280: c89d bdbe c291 7ebe dca2 1a3e 5560 bcbd
00000290: 38fc e7bc ee29 81be 63ab 623e 3fb6 8f3d
000002a0: ae8b 0dbb 3604 50bf fab1 893e c145 60be
000002b0: c52c d23d 5238 2a3e 91d5 c43c 84b1 033e
000002c0: 458c 96be eba7 b13d 71d4 f53c d683 df3c
000002d0: af5b bb3b 6a2b 29be 3c03 8cbd df4e 423d
000002e0: 3756 043e f88a 9ebe 1622 93bd 49f4 6bbe
000002f0: 853a 833b 738d 50bc 3859 8a3c a89e 9dbe
00000300: 6cdd a4be 0cd2 1bbf 278e 533e c3c2 9abd
00000310: 3879 683e bd29 f7bd cce4 24bd 2cba 6e3e
00000320: f0cb 9b3c d821 91be 2d41 53bc 1f22 103e
00000330: cbee 8cbd ffe4 bc3e 454f 52be 8c9a ccbe
00000340: e115 e63e 619f bbbd 4a99 17be afdf a43e
00000350: 6752 d6bd 110d 56bd b808 1ebe b029 a8bd
00000360: 327a e8be 92ed aa3e 5a33 a63e 2c6b debd
00000370: 363e 8d3e 8cc5 063e 26a3 193e 14d3 8e3e
00000380: 4997 383e 2552 57be 334b 6fbe 364f a53e
00000390: aa19 673e afa7 9ebe f590 9c3e cc23 a9be
000003a0: 85a0 023e a0cb aabe 413e 5ebe 3379 4c3d
000003b0: ea41 ebbc 1fe0 83be 64d0 893e d2e5 ef3b
000003c0: 72b7 873a f07f 463e de64 373d a939 183e
000003d0: 6a7a 55be 1751 203e bd54 e5bd 1811 753d
000003e0: a34f 783e a669 00be 23d5 0cbe 01d9 1a3e
000003f0: 63a9 fb3d a79f 9bbe a49a 233e f551 e9bc
0.31199834 0.14492276 -0.15178318 -0.16729939 -0.47875804 -0.10249443 -0.043219294 0.081651695
0.17425264 -0.04694694 -0.53173673 0.07655395 0.14426969 0.015080337 -0.28419432 -0.39180335
-0.33868712 0.27642614 0.14044595 -0.30505016 -0.029381707 0.06609866 0.16100284 0.25655508
-0.05438693 -0.29816493 0.3259012 0.07023318 -0.19209307 -0.14936437 0.28793865 0.21915938
-0.44864094 -0.026760155 -0.060649395 0.056413516 0.17883112 0.039989583 -0.5073389 -0.11660914
-0.11912548 -0.25183535 0.045518573 -0.32554445 0.040996555 0.22876982 -0.3755763 0.029497467
-0.5457587 -0.07325557 0.26536518 -0.12552994 -0.2621804 0.044901863 -0.036765948 -0.56864727
0.14994852 -0.11729309 -0.17250083 -0.07751353 -0.51363903 0.19883478 -0.027908701 0.27077731
0.080895476 -0.14709204 0.1609165 -0.400445 0.23730262 -0.21755412 -0.37617105 0.115523875
-0.19829051 0.022450047 -0.2964573 -0.04667841 -0.21745881 0.0748833 -0.056374446 -0.26511708
0.04267255 -0.03954148 0.02859008 -0.00065820524 -0.09433106 -0.06262882 0.15843105 -0.28457972
-0.061337754 0.102020726 -0.0023020434 -0.037861347 0.04262181 -0.53900677 -0.49253595 0.41155964
0.09018332 0.074172705 -0.1575896 0.08750271 -0.05237644 0.3819966 0.25539762 -0.131888
0.18818365 0.08421711 0.02215543 0.08097994 0.12089456 -0.52456135 0.2805614 -0.38359162
-0.03996719 -0.1481786 -0.010211975 0.060103573 0.10914556 -0.0071195215 -0.0053279446 -0.045945242
-0.23125865 0.2250244 -0.43199885 0.024420526 -0.14593068 0.5294497 0.0062849275 -0.7848722
-0.0441893 0.20247217 0.21808349 -0.32650742 -0.06954162 -0.782605 -0.10684078 0.008233063
-0.41719335 0.15403722 0.09967979 -0.22547713 0.34694025 0.05423732 -0.06143547 0.06462444
-0.06844338 0.05551637 0.2114761 -0.020904388 0.13243082 -0.46372232 0.32364705 0.026222836
-0.021522224 0.21568528 -0.674049 0.082737885 -0.29453725 0.11790904 -0.048178915 0.11085222
-0.3703444 -0.2486029 0.15101188 -0.091980614 -0.02831851 -0.25227302 0.22135691 0.070171826
-0.0021598148 -0.81256425 0.26893598 -0.21901609 0.10262445 0.16623047 0.024027618 0.12860686
-0.29403892 0.08674606 0.030008527 0.027284544 0.0057177166 -0.16520467 -0.068365544 0.0474385
0.12923513 -0.309654 -0.07184236 -0.23042406 0.004004779 -0.012729037 0.016888246 -0.30785108
-0.3220018 -0.6086738 0.20659696 -0.07556679 0.22702491 -0.12068508 -0.04025726 0.23313206
0.019018143 -0.28346133 -0.012893957 0.14075516 -0.06881484 0.3689346 -0.20538051 -0.3996166
0.44938567 -0.091612585 -0.14804569 0.32201907 -0.10464936 -0.052258555 -0.15433013 -0.08211076
-0.45405728 0.33384377 0.32461053 -0.10860285 0.27586526 0.13161296 0.15003642 0.27895415
0.1802646 -0.2102743 -0.2336853 0.32286996 0.22568384 -0.30987307 0.30579343 -0.33035123
0.12756546 -0.3335848 -0.21703435 0.049920272 -0.028717954 -0.25756928 0.26916802 0.007321098
0.0010354354 0.19384742 0.04477393 0.14865746 -0.20847479 0.15655933 -0.11197803 0.059830755
0.24249129 -0.12540302 -0.1375318 0.15121843 0.12288167 -0.30395243 0.1597696 -0.028481463

bias f4 [64]
00000000: ce4e 983d 15bc 89bd 3676 22bc ca68 93bd
00000010: d837 69bd d505 3cbc fed8 bd3d 3f82 95bd
00000020: 71d5 23bd 2326 bbbd 94e9 dcbc c676 5a3c
00000030: 50c0 96bd 4fc2 5d3d 10ec c83d 6eed 81bd
00000040: 066b 18bb 7ae3 c4bd 32b2 fc3c 6171 04bd
00000050: f20c 3fbc 183f c53b ae31 99bd 37fc c73b
00000060: faa0 99bb f079 b5bd bb8c 21bd 4473 d93c
00000070: 8ee1 5e3c 00f1 67bd f139 ccbd d2bb ca3d
00000080: d168 c43d a95b 0a3d 850f a63b 9a05 0abd
00000090: b483 e43c cfce 04bc 466b c1bd fc78 4dbd
000000a0: 2117 0939 3a04 073d 2371 813d e02c d33d
000000b0: 627b 663d e01d 683d abbc 93bd dd72 18bd
000000c0: e576 d03d a9dc b2bd 0516 743d 5a4e b2bd
000000d0: 58c7 093d 4227 34bd faf8 9b3c 1ab1 c53d
000000e0: 716b d3bd 6a82 ddbc 8fbc 4fbd ef35 aebd
000000f0: a82d ec3c 9c29 1e3d c555 303d fec0 ba3d
0.07436906 -0.06725327 -0.009915879 -0.07197721 -0.056938022 -0.011476 0.092699036 -0.07300233
-0.039998475 -0.091381334 -0.026966847 0.013333982 -0.073608994 0.054140385 0.0981065 -0.06344114
-0.002325715 -0.096137 0.030846689 -0.03233469 -0.011660801 0.0060194843 -0.07480179 0.0061030644
-0.0046883794 -0.08861148 -0.03944085 0.02654422 0.013603581 -0.05662632 -0.09971989 0.09899105
0.09590305 0.03377882 0.005067768 -0.03369675 0.027894832 -0.008105948 -0.09444289 -0.050164208
0.00013073954 0.032963015 0.06320407 0.103112936 0.05627001 0.056669116 -0.0721372 -0.037218917
0.10178927 -0.08733494 0.059591312 -0.087063506 0.033637375 -0.04398275 0.01903962 0.0965292
-0.10323227 -0.027039725 -0.050716933 -0.08506381 0.028830364 0.0386139 0.043050546 0.091188416

weight f4 [32]
00000000: cf58 843f 9c9b 943f 0b28 593f 3b82 7d3f
00000010: a2d0 8a3f 8ed3 9a3f 0803 7b3f 50f2 413f
00000020: c1a0 9a3f 9c25 7a3f 19c5 973f 56e5 8a3f
00000030: ee50 903f 3d27 923f d538 7e3f ae4b 7f3f
00000040: 38e3 553f 08bd 853f e817 543f 191c 9d3f
00000050: fcf3 883f d39b 623f 3338 583f 3005 823f
00000060: 9cfc 613f 16a0 663f 085c 783f a3eb 6d3f
00000070: 9c45 673f ac56 8a3f b4df 573f 7a55 953f
1.0339602 1.1609988 0.84826726 0.9902684 1.084492 1.2095811 0.980515 0.75760365
1.2080308 0.9771364 1.1857024 1.0851238 1.1274698 1.1418225 0.9930547 0.99724853
0.83549833 1.0448313 0.8284898 1.22742 1.0699458 0.8851902 0.84460753 1.0157833
0.88276076 0.9008802 0.9701543 0.9293768 0.9034059 1.08077 0.8432572 1.166671

bias f4 [32]
00000000: 47de 1abe b259 a5bd 7119 fbbd 854e 3bbd
00000010: 49e8 5fbe a196 b5be aecc f8bc 76ff ebbe
00000020: d254 18bf 4e54 993c 4669 e6be 27f1 7dbe
00000030: 6b37 bcbe 3049 bebe 5a31 1b3d e9e5 0fbb
00000040: f64a 03bf 789e 223d 1bab 38be 4ef6 92be
00000050: 0db2 12bf 0c7b 8bbe 8407 b9bb 1515 f4bd
00000060: 965d a9bd 855d 81bd 46f8 5dbe 5c62 9ebe
00000070: fa6f 193e 104e 973d 876b 53be 1d3d 4fbe
-0.15123855 -0.08073749 -0.12260712 -0.04572918 -0.21865954 -0.35466483 -0.030371036 -0.4609334
-0.59504426 0.018716957 -0.45002192 -0.24799024 -0.3676103 -0.37165213 0.037888862 -0.0021957105
-0.51286256 0.03970191 -0.18034022 -0.2870354 -0.57302934 -0.27242315 -0.005646648 -0.119180836
-0.08269803 -0.063166656 -0.2167674 -0.30934417 0.14984122 0.07387936 -0.20646487 -0.20238157

running_mean f4 [32]
00000000: 187e 8f3d 54c8 d23e ac0a dabe ae5a 1cbd
00000010: 42fd c63e 0836 f93e 908d 103e 2df8 0d3e
00000020: 4c4d 223e ec37 b5be c1f7 a4bb e975 4a3d
00000030: 6008 8cbe 1aa1 253e fc1d ecbe d650 d9be
00000040: 5818 74be 81aa 233d 4610 f5be 3737 083f
00000050: 37fd 07bf 427a c93e 01c5 6c3d 53fa d93e
00000060: 71d5 023f 847b 0e3e b14c 883e d483 eabe
00000070: 4858 08bc 4666 7fbe 5379 fbbd 2bd2 bebe
0.07006472 0.41168463 -0.42586267 -0.038172416 0.38865095 0.48674035 0.14116502 0.13864203
0.15849799 -0.35394228 -0.0050344174 0.049428854 -0.2735014 0.16174737 -0.46116626 -0.42444485
-0.23837411 0.039957527 -0.47863978 0.5320925 -0.5312075 0.39351088 0.057805065 0.42573795
0.51106936 0.13914305 0.2662101 -0.45803702 -0.008321829 -0.24941358 -0.12279 -0.3726972

running_var f4 [32]
00000000: d0cc 0c3f 84f8 dc3e e33c 313f 18e1 f73e
00000010: 80f5 d43e 2df5 163e 3d5d b83e acaf 183e
00000020: d532 0c3f b943 ad3e 9d87 b43e f0e0 b73e
00000030: 0563 563e 886a f33e fc1d 693e 3cbf 373f
00000040: 9205 0e3f 1be7 d43e f908 a83e 1b08 de3e
00000050: 821a 273e e58a e83e e3cd 583e ea7b 753f
00000060: 51b2 d13e 8fe4 2a3f c92a 1f3e a93a 3f3f
00000070: 16a1 823f e853 df3e 3433 0a3f 5f2f a43e
0.5500002 0.43158352 0.6923353 0.4841392 0.41593552 0.14741965 0.36008635 0.14910764
0.54765064 0.3384073 0.35259715 0.359138 0.2093621 0.47542214 0.22765344 0.71776175
0.5547725 0.4158257 0.32819346 0.4336556 0.16318706 0.45418468 0.2117229 0.958922
0.40956357 0.66755 0.15543665 0.74698883 1.020541 0.43618703 0.5398438 0.3206739

weight f4 [64]
00000000: 55d7 903f df27 673f a86c 723f af33 933f
00000010: 2b1e 823f 6d12 873f 9c2b 703f e670 903f
00000020: 55f7 823f 80fc 6b3f c04d 9a3f 98ca 0f3f
00000030: 684d 223f 6b33 903f a98f 463f 9ac7 8c3f
00000040: 2040 233f 3a6d a23f 2bef 973f cc77 cd3f
00000050: 6183 503f d2cd 5d3f 35ae 1b3f 49ee 9f3f
00000060: cfcf 7e3f e6ea 693f 7f55 763f 4fce 943f
00000070: 4cf5 823f 311f 6d3f c4c6 5a3f c379 373f
00000080: 338c 773f b597 833f 23ae 9e3f 7930 573f
00000090: eafa 853f 9cd6 b23f b887 943f 22cf ab3f
000000a0: 0246 9f3f 10f6 993f d203 923f 3337 7c3f
000000b0: 0ac3 223f 147d 933f eaab 403f 52f1 883f
000000c0: 8907 7c3f 6590 a33f 0379 753f 2eda 933f
000000d0: 337c 9d3f ef67 8f3f 074e 4d3f 1934 9b3f
000000e0: 9942 953f 8eb8 5d3f 6f0d 813f 619d 933f
000000f0: 4073 bb3f 67d3 923f 2f2b 603f d290 823f
1.1315714 0.90295213 0.94697046 1.1500148 1.0165457 1.0552498 0.9381654 1.1284454
1.023173 0.9218216 1.2054977 0.5616851 0.6339936 1.1265692 0.7756296 1.0998414
0.6376972 1.2689583 1.1869863 1.6052184 0.8145047 0.8664218 0.60812694 1.2494594
0.9953584 0.9137405 0.96224207 1.162546 1.0231109 0.9262572 0.8545954 0.7167017
0.966983 1.0280672 1.2396892 0.8405834 1.0467198 1.3971744 1.1603918 1.3422587
1.244324 1.2028217 1.1407416 0.9852173 0.63578856 1.1522546 0.7526232 1.0698645
0.98449 1.2778441 0.95887774 1.1550958 1.2303528 1.1203593 0.80197185 1.2125274
1.1660949 0.86609733 1.0082225 1.1532403 1.4644547 1.1470765 0.8756589 1.0200446

bias f4 [64]
00000000: aa63 3abe 2e4d 8e3c 6ad5 f1be 9b7a 283c
00000010: 88a1 11be a22e d63d 00cb 083d 9056 10be
00000020: 79eb 733d 4f49 c8be cda0 84bd 42c7 0ebd
00000030: c82b 89be 888b 8fbe 80d3 f9be 62f1 a0bd
00000040: 7937 c6be 89ec 23be b865 0abe 1265 7bbe
00000050: f588 81be c3d4 1d3d ddd6 28be c70e d7be
00000060: ac91 aabd 2cd3 7dbd 7c93 a4be bdf1 c6bc
00000070: d2e9 1cbe 9108 fc3d a4f9 e4be 5190 adbd
00000080: e623 90bd c045 d73c 8a39 91be 1e1b 78bd
00000090: b663 f1bd 8d7d 9fbd dc50 9dbe f526 fdbe
000000a0: 581d 33bd ea9e fcbd c8c9 84be ca62 00bf
000000b0: dfce 96bd 3691 33be 4155 0cbd 1a0a f5bd
000000c0: 25e4 81be 31ee fd3c 18d8 9fbe aa65 cabd
000000d0: 0120 33be 4144 b8bd dd83 99be ba41 52be
000000e0: 4f32 e4bd a08f febb 8a8e a9be 4fc2 d5be
000000f0: 5915 40be 7808 a9be da1d c0be 254a 88bd
-0.18202081 0.017370787 -0.47233135 0.010283138 -0.14221776 0.10458113 0.03339672 -0.14095521
0.059550736 -0.3911843 -0.06475983 -0.034857996 -0.26791215 -0.2803614 -0.48794174 -0.0785854
-0.38714197 -0.160082 -0.13515365 -0.24550274 -0.25299802 0.038532984 -0.16488214 -0.42003462
-0.08328566 -0.061968967 -0.32143772 -0.024285192 -0.1532357 0.123063214 -0.4472171 -0.08474792
-0.07038097 0.026278377 -0.2836421 -0.060572736 -0.117865965 -0.07787619 -0.30725753 -0.49443784
-0.043729156 -0.12334998 -0.25935197 -0.5015074 -0.07363676 -0.17535862 -0.034260992 -0.11964817
-0.25369373 0.030997368 -0.31219554 -0.09882672 -0.17492677 -0.089973934 -0.29983416 -0.20532885
-0.11142408 -0.0077685863 -0.3311656 -0.41749808 -0.18758143 -0.33014274 -0.37522775 -0.06654767

running_mean f4 [64]
00000000: e255 81c0 19c4 e1bf 2c57 8c3e a42c 92c0
00000010: 64fb de3d a802 d4bf 8322 bc3e 07fe 32bf
00000020: 8458 75bf 3005 c9bd b952 afc0 2ec1 07c0
00000030: 5fae c53f d170 5ac0 db38 f83f 62f1 b4c0
00000040: 40a4 a940 7a73 a0c0 9838 9ebf 2d9b 93c0
00000050: fc3b 0440 9119 ec3e d3b1 f33e 656c aec0
00000060: 6b31 d73f 5f15 b6bf 87e1 80c0 93f4 96c0
00000070: 884a 39c0 c101 05c0 f5e0 38c0 d7ab c83f
00000080: 0c88 aebf 888f 03c0 cd94 e0c0 582b 8e3d
00000090: e1f4 6fc0 2102 dcc0 2681 08c0 286b e6c0
000000a0: c06c a3c0 248b a3c0 501f c1c0 4c11 94c0
000000b0: c250 9740 6124 cac0 80e4 20c0 5f59 9bc0
000000c0: fe40 0c3f f601 abc0 9af2 04c0 31f4 9ec0
000000d0: 5c53 cec0 d080 9dbf 37e7 3dc0 f2a8 27c0
000000e0: 6c80 94c0 1092 3740 a0d0 0cc0 f85e 6bc0
000000f0: 9b2a 93c0 cbbe 09c0 4429 e63f c391 a4c0
-4.0417337 -1.7637969 0.27410257 -4.5679493 0.10887793 -1.6563311 0.3674508 -0.69918865
-0.9583819 -0.098154426 -5.478848 -2.1211658 1.5443839 -3.4131358 1.9392351 -5.6544657
5.3013 -5.0140963 -1.2361021 -4.6126924 2.0661612 0.46113256 0.47596607 -5.4507318
1.6811956 -1.4225272 -4.02753 -4.7173553 -2.895174 -2.078232 -2.8887303 1.5677441
-1.3635268 -2.0556355 -7.018164 0.06941861 -3.7493212 -6.87526 -2.1328826 -7.2005806
-5.107025 -5.110735 -6.0350723 -4.6271114 4.728608 -6.316941 -2.5139465 -4.8546596
0.5478667 -5.3439894 -2.0773072 -4.9673085 -6.4476757 -1.2304935 -2.9672372 -2.6196866
-4.6406765 2.86829 -2.2002335 -3.6776714 -4.598951 -2.15227 1.7981343 -5.142793

running_var f4 [64]
00000000: f990 2641 256e 4d41 a3c2 0d41 36e1 1d41
00000010: 83b6 ca40 8a92 eb40 1f14 3d41 4acd 0941
00000020: 1edd 4a41 d477 ed40 63b2 7e41 d783 0e41
00000030: c129 d340 d187 3e41 3222 3241 0171 b541
00000040: 6b1d 5941 955e b341 b5f6 1b41 3600 8f41
00000050: 01a6 0a41 3a5d 3441 ba37 3241 e4d2 3641
00000060: bf4d 2641 1eb0 1741 a563 8c41 bea8 ac41
00000070: a5f2 5041 3c6b 6b41 6d4d f040 d4e6 2941
00000080: 8587 0b41 eb66 2341 d108 9441 07f9 2941
00000090: 0e92 8e41 8ce3 d241 d77f d540 7aa8 ac41
000000a0: 2f6c 4a41 eeea a641 984f 6f41 3d1c 7f41
000000b0: e2b2 3041 1d60 c741 d3a6 3f41 471f 2c41
000000c0: 5616 3641 5bee 3341 799e 1041 05d3 8e41
000000d0: 0c15 a741 de16 ef40 5779 2b41 3528 9a41
000000e0: f29b 6641 1404 1c41 d0c6 0f41 196e 9341
000000f0: b850 7d41 964f 7841 93b1 0141 1e3c 8741
10.410394 12.839391 8.860019 9.867483 6.3347793 7.361638 11.817412 8.612619
12.678984 7.4208775 15.918551 8.907187 6.598847 11.908158 11.133348 22.680178
13.569682 22.421183 9.747731 17.875103 8.665528 11.27276 11.138605 11.426487
10.393981 9.480497 17.548655 21.582394 13.059239 14.71368 7.5094514 10.6188545
8.720586 10.212626 18.504305 10.623298 17.821316 26.361107 6.6718554 21.582264
12.651412 20.864712 14.956932 15.944394 11.043673 24.92193 11.978229 10.757636
11.380453 11.245692 9.03869 17.853037 20.885277 7.4715414 10.717124 19.269632
14.413073 9.750996 8.986038 18.428759 15.832207 15.51943 8.105853 16.904354
