government_icfes_dataset/mlartifacts/956201576569699187/85a614d4f28049b59ce07b06920ee69d/artifacts/model/data/model.pth (torch, 747072 bytes, 39 tensors)

weight f4 [4, 8]
000000 13 6e 97 bf 41 f7 74 bb cf 82 31 3f 68 37 f2 bf
       -1.1830467 -0.003737882 0.69340223 -1.8923159
000010 88 38 20 3e 16 e1 86 bf 0b 9f 0a 3f 56 5f 5d 3f
       0.15646565 -1.0537441 0.5414893 0.86473596
000020 2a 05 a1 be 47 42 43 3f f1 6a 52 bf b0 d5 c4 bf
       -0.31449252 0.76273006 -0.8219443 -1.5377712
000030 91 5f ba 3e aa a5 fc 3e d6 d7 77 bf 81 29 af 3f
       0.36401036 0.49345142 -0.96813715 1.3684541
000040 59 22 32 3e 56 b3 8b be c7 59 88 bf eb c7 1a be
       0.17395915 -0.2728526 -1.0652398 -0.15115325
000050 c4 c8 1c bf fc d1 0c bf f4 28 0b bf bd d9 81 bf
       -0.61243844 -0.5500791 -0.54359365 -1.0144573
000060 02 74 12 3f c3 24 b1 be 63 3e 6e 3f 53 52 06 be
       0.57208264 -0.3459836 0.93063945 -0.13117342
000070 9f f8 09 bf 96 c1 20 3f dc 02 0b 3f c2 c7 c8 bd
       -0.5389499 0.6279539 0.5430124 -0.09803726

weight f4 [3, 8]
000000 78 48 71 bf 08 a4 86 3f b4 6a 95 3e be 21 5a be
       -0.94251204 1.0518808 0.2918297 -0.21301934
000010 cd b7 dc 3f 5d ea 74 bf 85 bf 40 3f 8a 3f d4 be
       1.7243592 -0.9567011 0.75292236 -0.41454726
000020 84 2f 86 bd 2b af 85 3f e5 8f 08 3e 0c d9 a9 3f
       -0.06552032 1.0444082 0.13336141 1.3269362
000030 2f 9c 09 3f 9a 43 84 be 0c c8 26 c0 45 4a e8 3e
       0.5375394 -0.25832826 -2.60596 0.45369163
000040 e8 2f 96 3f f0 ea cb be 56 f1 88 3f 4c 4b b7 3d
       1.173337 -0.3982768 1.069865 0.089499086
000050 01 84 a2 3f b8 25 76 3f d7 0f 6c bf 54 14 0d bd
       1.2696534 0.96151304 -0.9221167 -0.034443215

weight f4 [5, 8]
000000 ca ee 35 be b8 b6 83 bf a9 94 97 bf a5 b3 b5 3d
       -0.17766872 -1.0290136 -1.1842242 0.08872155
000010 86 81 f9 3e 5c a6 b3 3f 6a 53 70 be 71 af 7a 3f
       0.4873163 1.4035144 -0.2346932 0.9792395
000020 1d c2 7d bd c8 26 29 be 2d 14 18 be 8f f3 8e be
       -0.0619527 -0.165187 -0.14851446 -0.27920195
000030 54 5f 40 bf 19 a7 8a 3e 12 1e 7b 3e 89 70 5f bf
       -0.7514546 0.2708061 0.2452319 -0.8728109
000040 c7 e3 92 bf d2 e3 27 3f 5b 19 3c 3f 09 50 89 3f
       -1.1475762 0.65582 0.7347619 1.072755
000050 29 bb 4f bf a3 b5 dc be 36 52 8c bf db 1b 80 bf
       -0.8114496 -0.43107328 -1.0962589 -1.0008501
000060 26 3b 80 3f ee 02 8d bf 1c 06 8b 3f ac d0 84 be
       1.0018051 -1.1016519 1.086124 -0.25940454
000070 0a f7 80 3f 6e 71 29 3e cb e4 b0 be aa df 81 3f
       1.007539 0.16547176 -0.34549555 1.0146382
000080 43 40 16 be b6 1d 0e c0 05 82 4c 3f 57 8c 30 3f
       -0.14672951 -2.2205634 0.79885894 0.6896414
000090 58 96 6b 3f 33 50 8c bf d7 f8 2c be 50 06 86 3e
       0.9202628 -1.0961975 -0.168918 0.2617669

weight f4 [7, 8]
000000 09 b8 35 3f 76 6a 48 be 73 b0 a0 3d 9f 23 66 3f
       0.7098394 -0.19571862 0.07846155 0.89898103
000010 d1 81 7a 3f 6f 2d 8e bf 1a cd 54 3f 61 5d 64 3e
       0.97854334 -1.1107615 0.8312546 0.22301246
000020 51 40 d8 bf db 84 33 3f ad 31 8c 3d 54 2c 3a bf
       -1.6894628 0.70124596 0.068454124 -0.7272389
000030 05 d1 12 bf 52 58 c3 3e 09 a8 9a 3f 13 85 3f 3f
       -0.5735019 0.3815332 1.208253 0.7481243
000040 fe c1 4f 3e 16 b0 98 bf 0a 51 d2 be 0e 30 43 3e
       0.20288846 -1.1928737 -0.41077453 0.190613
000050 f6 29 95 bf df 88 b5 bf 21 d6 03 3e 3a 64 8a bf
       -1.165343 -1.4182395 0.12874652 -1.0811837
000060 4b 60 7a be 9e 23 35 3e e2 c3 ad 3e 2f 72 c5 3e
       -0.24450795 0.17689368 0.3393851 0.38563678
000070 21 48 6c 3f fb 1e a2 3f 1c e2 29 40 89 66 81 3f
       0.9229756 1.2665704 2.6544256 1.0109416
000080 5b d0 8b bf 6a b9 07 40 10 ba 05 bf 54 c3 03 3e
       -1.092296 2.1206918 -0.52237034 0.1286748
000090 46 6f 86 bf df 5d 74 bf cb 48 f9 3e c3 4a 66 bf
       -1.0502708 -0.95455736 0.4868835 -0.8995783
0000a0 99 ee 8a 3d ab 4e d5 3f 87 7a 45 3e 28 1a 89 3e
       0.0678379 1.6664633 0.19285022 0.26777768
0000b0 62 b1 11 40 03 5a d2 be d2 fa ee be 32 42 24 bf
       2.2764516 -0.41084298 -0.46675736 -0.64163506
0000c0 b0 f2 5f bf c8 00 a3 3e a3 0f 7c bf 24 0d f9 bd
       -0.87479687 0.31836534 -0.9846136 -0.121607095
0000d0 50 1b 02 c0 9c e7 6b bf 71 3c 96 be 6a 07 44 be
       -2.032917 -0.9215028 -0.29342988 -0.19143453

weight f4 [7, 8]
000000 f5 b1 42 3f 1b aa 7a be 35 fc e1 bf ed 86 1d bf
       0.7605279 -0.24478953 -1.7655092 -0.61534005
000010 0f c4 f0 be 32 66 c6 be 43 c8 d4 3d 8e 5a 9b be
       -0.4702458 -0.38749844 0.103897594 -0.30342525
000020 d7 89 44 bf cc fd 8a 3f 04 5a ae 3e 64 53 c3 be
       -0.76772827 1.0858703 0.3405305 -0.3814956
000030 5b 08 76 bf 2f 37 60 3d 64 be 8d bf 92 df 8a 3e
       -0.961065 0.054740127 -1.1073728 0.27123696
000040 26 08 b2 bf 53 73 9e bf 32 c4 a0 3f 36 69 21 3e
       -1.3908737 -1.2378944 1.2559874 0.15762791
000050 d2 d8 ad bf f2 97 9d 3e d7 89 be bf ba c2 0c c0
       -1.3581793 0.30779988 -1.4885815 -2.1993852
000060 2d 33 d5 bf 77 6b 91 bf 67 74 59 bf cd 8d 0a 40
       -1.6656243 -1.1360921 -0.8494324 2.1649048
000070 ee 45 c4 bf f1 c6 58 3e bf 32 c2 bf 31 3d d8 3f
       -1.5333841 0.2116964 -1.5171736 1.6893674
000080 0d b1 67 3e 3f 48 36 3f 7b 53 9b 3f 41 6f 0b 3f
       0.22626133 0.7120399 1.2134851 0.54466635
000090 96 ae bb bf 84 3a 81 bf ba 13 9f 3c 3f c5 11 3f
       -1.4662654 -1.0095983 0.019418586 0.569416
0000a0 3e fc 03 bf 96 e6 39 bf 72 63 7d 3f 8b 87 71 3f
       -0.51556766 -0.7261747 0.98979867 0.9434745
0000b0 65 2a eb be 7e 53 11 3f 7f a1 e3 3e 59 21 b1 3e
       -0.45930782 0.56768024 0.4445915 0.34595755
0000c0 f4 13 71 be ad 23 99 bf 24 07 21 be 28 a7 9f 3e
       -0.23542768 -1.1964012 -0.1572538 0.31182218
0000d0 38 3b 1e 3d 76 5c d2 3f ac 39 53 3f 47 a6 66 3f
       0.038630694 1.6434467 0.82509875 0.9009747

weight f4 [1025, 8]
000000 19 30 41 3f 7f ed 2b 3f c5 aa 66 3f c4 5b a2 3f
       0.75464016 0.67159265 0.90104324 1.2684255
000010 83 d4 fd 3e 8a 94 c3 be cc d8 30 bf de ff cb 3f
       0.49576196 -0.38199264 -0.69080806 1.593746
000020 5c 96 fc 3f e6 2e 23 be a9 7c a3 bf 10 7a f1 3f
       1.9733386 -0.15935859 -1.2772418 1.8865376
000030 05 cb 15 bf 76 43 59 bf a7 e1 34 bf 57 7d 96 bf
       -0.5851291 -0.8486856 -0.7065682 -1.1757001
000040 59 89 03 3f 6c 0e 90 3f 5a 9a d9 3e 5e 7d 90 3e
       0.5138145 1.1254401 0.42500573 0.28220648
000050 37 a6 de be cd fa 8b be 44 ba 8d be b8 cd b5 3b
       -0.43486187 -0.27339783 -0.27681172 0.005548205
000060 3f 4b 12 3f b4 8e b1 bf 70 1e 09 bf f9 1a e1 3f
       0.57146066 -1.3871675 -0.5356207 1.7586356
000070 ef 5d 74 3f 58 7c 89 bf 03 cd 7f bf 92 61 c5 bf
       0.9545583 -1.0741072 -0.999222 -1.5420401
000080 3a a9 b9 3d a4 6b f0 3e 3d f5 a2 bf f3 62 ba bf
       0.090654805 0.46957123 -1.2731091 -1.4561447
000090 c2 d9 4c 3f ea ae b0 bf b1 0e 0b bf e5 82 a2 3d
       0.8001977 -1.380338 -0.5431929 0.079351224
0000a0 56 a1 9b bf 30 49 c8 bf d7 e0 0c 3e 3c 1d 14 bf
       -1.2158611 -1.5647335 0.13757645 -0.5785711
0000b0 c6 fa b4 be 91 48 45 3f e0 b7 87 bf ae 13 d1 3f
       -0.35347575 0.7706385 -1.0602989 1.6334131
0000c0 68 89 54 3f 83 e9 82 3e f3 62 d4 be 98 50 db be
       0.83022165 0.2556878 -0.41481742 -0.42834926
0000d0 4e fc 9b 3f 49 15 21 3f 10 3a 9b bf 2a d4 b6 3f
       1.2186372 0.62923104 -1.2127094 1.4283497
0000e0 b2 3f 03 bf 42 72 b7 3e 1d c6 c5 bf 47 04 81 3f
       -0.51269066 0.3582936 -1.5451084 1.007943
0000f0 26 ee c3 3f 34 d7 1d bf 92 fe d0 bf 01 a5 b1 bd
       1.5307052 -0.616565 -1.6327689 -0.0867405
000100 96 fe 03 bd 79 d7 8f 3f dd c5 42 be 6a 46 0c bf
       -0.032225214 1.1237632 -0.19020791 -0.54794943
000110 09 50 2e be f9 47 24 be 00 c7 a8 3f 41 17 26 bf
       -0.17022718 -0.1604308 1.318573 -0.6487923
000120 f8 a0 6f 3f 99 4a 50 3f ac a8 18 3e fd 69 4d bf
       0.93604994 0.81363827 0.14908093 -0.8023985
000130 8e 02 d6 bf dd 62 50 bf 84 59 3d 3f 08 f8 b6 be
       -1.671953 -0.81400853 0.73964715 -0.35736108
000140 e7 f5 ee bf b0 b9 a8 3d a3 15 4e 3f b5 54 58 bd
       -1.8668793 0.08238542 0.80501765 -0.052815158
000150 93 91 28 bf 46 e5 1e 3e 15 fe 75 bf 3c 5f a8 bf
       -0.6584713 0.15517148 -0.96090823 -1.3154063
000160 f6 b0 b5 bf cd dc 2c 3f 78 f4 53 3e 96 78 6e bf
       -1.4194629 0.67524415 0.20698726 -0.9315275
000170 8f dd b5 be 73 b2 9d be b1 45 c6 bf cd b6 8b 3e
       -0.35520598 -0.30800208 -1.5490018 0.27287903
000180 da 9b 6d 3f b8 ed f2 be 07 5d a6 bf 32 9d aa bf
       0.92815936 -0.4744699 -1.299714 -1.3329222
000190 b4 05 4f be 88 2c 25 3f 2e 5d ca 3f 31 c7 4b bd
       -0.2021702 0.64521074 1.5809686 -0.04975051
0001a0 37 c9 59 bf 3a 58 9b be 67 7e 34 3b 67 46 94 bf
       -0.85072654 -0.3034075 0.0027541162 -1.1583985
0001b0 c1 d4 f4 3e 0d f0 ed 3e d3 08 7e be 34 ac c6 3f
       0.47818568 0.46472207 -0.24808054 1.5521302
0001c0 50 0b ec 3d 28 87 ae bf ab 41 81 bf f3 4d 2d be
       0.11525595 -1.3634996 -1.0098165 -0.16924267
0001d0 6e 98 13 3f f8 a8 bd bf 33 71 ac be f9 5a d8 bf
       0.57654464 -1.481719 -0.33680114 -1.6902763
0001e0 46 38 9a 3f 4f 74 b0 bd 46 43 ae 3f 88 d2 10 c0
       1.2048423 -0.08615934 1.361428 -2.2628498
0001f0 7d c0 63 3e 3f 9d 3a bf 9d 9d ee bd 9b 47 1c be
       0.22241397 -0.7289619 -0.11651156 -0.1526169
000200 00 fc 0f bf 2b 39 b6 be e2 22 2c bf d9 b0 be 3d
       -0.56243896 -0.3559049 -0.67240727 0.09311075
000210 48 34 be 3f 93 3b 15 3e a8 a0 94 bf cd 9d bc bf
       1.4859705 0.14573507 -1.1611528 -1.4735657
000220 98 12 07 bc 81 72 85 3e 3e 22 ed bd 85 56 fd 3d
       -0.008244179 0.26063922 -0.11578797 0.12370018
000230 00 0e 0c be d8 54 d9 bd 3b 05 30 bf 32 00 a5 3f
       -0.13677216 -0.10611886 -0.6875798 1.2890685
000240 db fa 3e bd db b6 d0 3e 91 87 d4 3e fd a9 df be
       -0.046625953 0.40764508 0.4150968 -0.43684378
000250 73 ca 9a 3d f3 c5 be 3d 0e 23 90 3f ff 10 d0 be
       0.075581454 0.093150996 1.1260698 -0.40637967
000260 52 ff 6c bf c3 95 f8 3f bc da 0f c0 bf 86 67 bf
       -0.9257709 1.9420704 -2.2477255 -0.9043998
000270 65 92 b8 3f 14 a5 36 40 08 50 a2 bf ba 44 e8 3f
       1.4419676 2.8538256 -1.2680674 1.8145974
000280 5b 3c ec 3e 44 72 26 3f 78 cd 5d 3f fc d4 5d bf
       0.46139798 0.65018106 0.86641645 -0.86653113
000290 2a d7 3a 3e 49 8d d7 bd 7d b0 5c 3e fe e5 77 3e
       0.18246141 -0.10524995 0.215517 0.24208829
0002a0 dc 9b fb bf d8 01 96 bf 6d 93 37 c0 ed cf 4e 3d
       -1.965694 -1.1719313 -2.8683732 0.050491262
0002b0 05 0b 4a bf 2b 7b 13 3f ee d5 e1 bd 7a f5 aa 3f
       -0.78923064 0.57609814 -0.11027132 1.3356164
0002c0 a4 8a 8d 3f ed a4 09 3c dc ef 8f be 59 5a 47 bf
       1.1057935 0.008401138 -0.28112686 -0.77872235
0002d0 c2 2d d8 3e 4c f0 25 3f e4 e3 3c 40 bb a3 26 bf
       0.4222241 0.6481979 2.9514093 -0.6509358
0002e0 a6 1d 12 be 67 66 56 bf fb 66 b4 be a0 77 9f 3f
       -0.14269122 -0.83750004 -0.35234818 1.2458382
0002f0 cb dc 55 be b2 95 b7 3f b7 18 9b 3f 8c 3d 82 bf
       -0.20885007 1.4342558 1.2116917 -1.0175033
000300 67 54 22 bf 56 44 b5 bd 25 7b 80 be 17 8e 21 3f
       -0.6341004 -0.08850925 -0.25093952 0.63107437
000310 4b 17 2b 3f 93 b3 9d be ea 69 af 3d 48 a6 86 bd
       0.6683242 -0.30801067 0.085651234 -0.065746844
000320 34 e2 d9 be 29 44 f7 3f d0 12 19 40 e6 bf e4 3f
       -0.42555392 1.9317676 2.3917732 1.7871063
000330 29 80 ee bd f6 d3 11 3f bb 67 97 bf f6 2f da 3f
       -0.11645538 0.5696405 -1.1828531 1.7045887
000340 6c a1 b5 bf d2 e1 d2 bf 46 82 41 bf 02 66 36 3f
       -1.4189887 -1.6475165 -0.75589406 0.712494
000350 39 0e 29 3f c0 de 9d 3f 37 25 e1 bf 83 ba e1 3f
       0.6603733 1.2333603 -1.7589482 1.7635044
000360 3a 3a 7a 3e 97 c7 a1 bd fc 52 67 3f 40 2a aa 3f
       0.24436274 -0.07899397 0.90361 1.3294144
000370 6d 25 74 bf d1 57 50 bf f9 c6 77 3f 34 ce 3e 3e
       -0.9536961 -0.81384 0.96787983 0.18633348
000380 81 80 bb 3f ce ed e1 3f f7 db 42 bf 09 f3 65 3f
       1.4648591 1.7650697 -0.7611689 0.8982397
000390 48 76 e2 bf d8 0b 01 40 fd ae 2c bf 9e 1f 01 c0
       -1.7692347 2.016348 -0.6745451 -2.0175548
0003a0 52 44 72 3e ea 18 b0 bf 48 21 82 bf a9 ef 2e 3f
       0.23658875 -1.3757603 -1.0166407 0.6833444
0003b0 75 f8 ca be fe 31 d6 3e 31 86 25 3f 00 c1 23 bf
       -0.39642683 0.41835016 0.64657885 -0.6396637
0003c0 12 a8 59 bf 4d 98 64 bf d0 0f 7e 3f 43 f9 ba 3f
       -0.8502208 -0.8929489 0.9924288 1.4607319
0003d0 a7 2b 5a 3f 5c cd 47 c0 54 36 fa 3f 92 0f 20 bf
       0.8522286 -3.1219091 1.954783 -0.6252376
0003e0 ce 25 c1 3f d2 98 ad 3e 62 dc 1e bf 1b b1 fe 3e
       1.5089662 0.33905655 -0.6205503 0.49744496
0003f0 ef 71 0a 40 dc 9d 18 3f 72 b8 9f be fd 5e 76 bf
       2.163204 0.59615874 -0.31195408 -0.9623869

weight f4 [3, 8]
000000 6a 4f 9c bf 3d 99 b6 be 96 73 e1 3f a8 93 2c bf
       -1.2211735 -0.35663787 1.7613399 -0.67412806
000010 ea 38 53 3e a6 ab ad 3e 99 64 87 3f a9 7a c3 be
       0.2062718 0.3392002 1.0577575 -0.3817952
000020 a9 76 55 bf 06 6c 1e be ed d3 33 be 0a 4a 41 be
       -0.83384186 -0.15470895 -0.17561312 -0.188759
000030 c6 91 7e 3e 59 00 8f 3d 55 c3 03 3d 49 6a 89 bf
       0.24860296 0.06982488 0.032168705 -1.0735561
000040 97 22 98 3f 25 b5 b7 bf bb 9b 60 bf ec dc f9 3f
       1.1885556 -1.4352156 -0.87737626 1.9520545
000050 e4 1f 7d be 96 1b 69 3f bb 49 2b bf e5 63 86 bf
       -0.24719197 0.9105772 -0.6690938 -1.0499235

weight f4 [7, 8]
000000 46 77 7e 3f 79 64 8b 3f 99 d3 34 3f ec 02 90 3e
       0.99400747 1.0890037 0.7063537 0.2812723
000010 95 7e d6 3e 00 52 61 3f cc 71 8f bf e3 24 4b bf
       0.4189345 0.8801575 -1.1206603 -0.7935316
000020 44 26 aa 3f 36 3e 8f be 95 1d cc bf b0 81 88 be
       1.3292928 -0.2797715 -1.5946528 -0.26661444
000030 fd e2 e3 be 43 98 12 40 57 01 47 3e 07 33 7c 3f
       -0.44509116 2.2905433 0.19434105 0.9851536
000040 43 c0 c5 3f ba db 34 bf 01 4a 7a 3d 36 c7 89 3f
       1.5449299 -0.70647776 0.061105732 1.0763919
000050 db 4a 39 bf ae 50 22 3f aa 9b 1b 3f 78 5b 83 3f
       -0.72379845 0.6340436 0.607844 1.0262289
000060 66 82 05 40 00 6e b1 3e c7 de 72 bd 3e 1c 8a 3c
       2.086084 0.34654236 -0.05929449 0.01685917
000070 9d aa 2c 3f 9e 58 c9 3f d4 fb 03 bf 26 61 08 3f
       0.67447835 1.5730169 -0.51556134 0.53273237
000080 d1 eb 23 3f 42 4c 6e 3e eb 34 e9 3e 0b f2 b4 3f
       0.640317 0.23271278 0.45548186 1.4136366
000090 70 e6 5a bf 58 75 60 3f c8 3b e4 bf 3d 54 c6 3c
       -0.8550787 0.8767905 -1.7830744 0.02421009
0000a0 28 8d 9f bf 5b 6f 73 3e 5c 19 1b 3f ee d5 54 3f
       -1.2464952 0.23772947 0.6058557 0.8313893
0000b0 53 92 a0 be 9a 39 96 bf 5d e9 d8 3f e3 74 d3 be
       -0.31361637 -1.1736329 1.6946217 -0.41300115
0000c0 ec 80 0a 3d 66 b1 4f 3f 0a 2b af 3e 07 9a 26 40
       0.033814356 0.81130064 0.34212524 2.603151
0000d0 93 bb 42 3f dd cd d7 3e ed ec d6 3f cc 94 a9 3f
       0.76067466 0.4214925 1.6791054 1.3248534

weight f4 [7, 8]
000000 78 e1 59 3f 9c c9 4b 3f e2 c7 08 40 67 c1 0b 3e
       0.85109663 0.79604506 2.1371999 0.13647996
000010 f1 d5 81 3e b7 a9 af be 84 30 43 bf 64 2e dc 3f
       0.25358537 -0.3430917 -0.76245904 1.7201657
000020 5f 80 60 bf 8f 7c 8a 3f 3b 4f 3b 3f 13 62 44 3d
       -0.8769588 1.0819262 0.7316777 0.047945093
000030 ef 47 81 bd b3 9e 81 3f 30 57 9d 3f a5 9b 2b 3f
       -0.06312548 1.0126556 1.2292233 0.6703437
000040 2d 2b 11 3e 5e 4e cb be 01 01 d7 3d 89 12 ce bf
       0.14176627 -0.39708227 0.10498238 -1.6099406
000050 2b 94 8e 3f 12 8e d0 3e a4 5c ec 3f df d9 1c bf
       1.1138967 0.4073339 1.8465772 -0.61269945
000060 ba 45 aa 3f b1 ce 61 3f b8 67 31 3f 02 33 1d 3f
       1.3302529 0.8820601 0.6929889 0.61405957
000070 13 40 b2 bf 9d b8 d3 3f f0 b2 96 3f 41 9c 81 bf
       -1.3925804 1.6540715 1.1773357 -1.012581
000080 04 25 5e be cf 17 76 3f b0 47 2b 3f d5 fb 86 bf
       -0.21693808 0.9613008 0.6690626 -1.0545603
000090 02 9b 93 3f 33 fb 2b bf c0 68 94 3f 7d fe 22 bf
       1.153168 -0.67180175 1.1594467 -0.6366957
0000a0 c1 aa 69 3f 6f ec cb 3f f4 08 98 3f dc b1 c3 3d
       0.91276175 1.5931529 1.1877732 0.09555408
0000b0 ab 63 0a be 1b 9a 16 bf b5 a7 4a 3f b0 47 b6 3f
       -0.13514583 -0.58828896 0.7916215 1.4240627
0000c0 c3 48 55 be 20 ab bb 3d 4a e1 aa 3e 74 a6 10 40
       -0.20828538 0.09163499 0.33375007 2.2601595
0000d0 a9 08 71 3e 53 69 52 be e2 6a 2f 3f 89 85 f0 3e
       0.2353846 -0.2054799 0.68522465 0.4697688

weight f4 [3, 8]
000000 af 46 b5 3d 6f 3a dc 3e 62 fb f8 3e 9d c0 51 bf
       0.088513725 0.4301333 0.4862929 -0.8193453
000010 ec c2 88 3d eb 16 c1 bd 90 4d 07 bd 68 84 77 be
       0.066778034 -0.094281994 -0.033032954 -0.24171603
000020 53 80 87 be 81 dc 24 40 af eb ae bf f5 ce ad 3f
       -0.2646509 2.5759585 -1.3665675 1.3578783
000030 a0 f4 e9 be 94 28 c6 bf c7 ee a7 3e 9e d6 78 bf
       -0.45694447 -1.5481133 0.3279936 -0.9720248
000040 ce fd 58 3f 0d f3 b7 bf 52 19 11 40 b4 c2 e9 be
       0.84762275 -1.4371048 2.2671704 -0.4565636
000050 73 3b 24 3e 11 41 47 bf 1d 57 f0 bd a4 7e 32 3f
       0.16038303 -0.7783366 -0.117353655 0.6972449

weight f4 [427, 8]
000000 3b 6a ca bf 25 9f 0c be 06 bb 36 be b4 6a c5 be
       -1.5813669 -0.13732584 -0.17844781 -0.3855797
000010 a2 55 70 bf 53 93 9d be 0a 34 d2 bf 3f 10 a9 3f
       -0.93880665 -0.30776462 -1.6422131 1.3208083
000020 7a 94 7d 3f 37 33 d2 3e 25 6e 4e 3e 3e df 72 bf
       0.9905468 0.410547 0.20159204 -0.9487189
000030 c4 d9 e8 bf 96 49 97 3f e9 78 59 3e 1f 36 a1 3e
       -1.8191457 1.1819332 0.2123753 0.31486604
000040 b2 6c e7 3d f8 6b a0 3e 60 9c 5d bf 49 16 bb be
       0.11300029 0.31332374 -0.86566734 -0.3654044
000050 32 53 8f be 74 3a 12 3f 0a 13 74 3f 9c 32 de bf
       -0.2799316 0.5712044 0.9534155 -1.7359195
000060 b1 cc 04 be ca cf 15 be cb 33 26 3d 1d d3 00 40
       -0.12968709 -0.14630046 0.040576737 2.0128853
000070 b5 47 7e bf 9a a0 a6 3f 1f b8 12 bf 49 69 bb bf
       -0.99328166 1.3017762 -0.57312196 -1.4641505
000080 7f 03 c8 3e 92 9b f7 bf 85 ca 8b 3f 31 e2 ce 3f
       0.39065167 -1.9344351 1.0921179 1.6162778
000090 ff 10 fb bf 7c 72 71 be 62 1b 3b bf 80 e3 d7 bf
       -1.9614562 -0.23578829 -0.7308866 -1.6866302
0000a0 6d 66 c2 bf 77 20 08 3f d3 a8 72 bf 23 2f 20 3f
       -1.5187508 0.5317454 -0.94788855 0.62571925
0000b0 1d f8 84 3f 3f af 0f bf 84 2c 8c 3f 94 c3 58 3f
       1.0388218 -0.5612678 1.0951085 0.8467343
0000c0 3c 8e 40 be 55 37 44 bf 96 8b f2 3f 3b f7 dd bf
       -0.18804258 -0.7664693 1.8948848 -1.7341074
0000d0 5b 2d cc 3f 03 93 91 3f 15 13 67 be 88 3e c5 3d
       1.5951341 1.137299 -0.22565873 0.096310675
0000e0 92 61 43 bf 78 35 32 bf a5 13 b6 be 0e b1 11 3f
       -0.76320755 -0.69612837 -0.35561863 0.5691079
0000f0 2a c5 88 bf 3b 36 32 bf e6 b2 8c 3f f4 15 6e 3f
       -1.068517 -0.69614 1.0992095 0.9300225
000100 ad 94 58 3c aa f3 62 3e 18 55 3f be 86 b8 92 3e
       0.013219041 0.22163263 -0.18684804 0.28656405
000110 1c 3f 0d 40 7a 8d 0c c0 04 a0 19 c0 61 f0 82 bf
       2.206977 -2.196135 -2.4003916 -1.0229608
000120 7c 5d 29 bf 15 a4 fb bf cb 18 1b 3f 20 4d c4 bf
       -0.6615827 -1.9659449 0.60584706 -1.5336037
000130 04 4e a7 bf c2 58 f5 3c f2 46 71 3f 84 f5 2d 3f
       -1.3070683 0.02994955 0.9424888 0.6795275
000140 ec cd 9c 3f a8 b0 54 bf c6 53 7a bf 40 73 34 bf
       1.2250342 -0.83082056 -0.9778408 -0.7048836
000150 05 d8 06 40 6b 97 2d bf 48 ce 30 3e 05 cd 33 3f
       2.1069348 -0.6780917 0.1726619 0.7023471
000160 37 1c 42 bf 95 63 8b 3f 0c 81 42 3f 25 da dc bf
       -0.758243 1.0889765 0.7597816 -1.7254072
000170 5c 46 66 bd a3 6f 81 3c 9c ea d3 3d 6f e3 a5 3e
       -0.056219444 0.015800303 0.103474826 0.3240008
000180 29 99 be bd 96 9d 4b bd d2 57 78 be aa 62 c4 bf
       -0.09306557 -0.049710833 -0.24252251 -1.534261
000190 75 ea b5 3e 45 bf 2d 3f a6 8f 80 3f e1 8a 9d bf
       0.3553044 0.6786998 1.0043838 -1.2308007
0001a0 d3 cc 82 bf 7c 18 a0 be b2 17 bb 3e 82 62 52 3f
       -1.0218757 -0.3126868 0.36541516 0.8218156
0001b0 fc 70 b1 3f d6 89 7a bf 1a 40 04 c0 c5 2d 9b 3e
       1.3862605 -0.9786657 -2.0664124 0.30308357
0001c0 1c d0 bf 3f 04 f7 1e c0 89 ea cb 3f 09 76 97 bf
       1.4985385 -2.4838266 1.593095 -1.1832896
0001d0 96 7f 61 3f 13 fa e9 3f e9 98 da bc 6e fa db bf
       0.88085306 1.8279442 -0.026684241 -1.71858
0001e0 4f f0 a8 3f 06 d9 f2 3e 52 92 21 3e e2 22 d0 3f
       1.3198336 0.474312 0.15778473 1.6260645
0001f0 28 2b 4d bd ff 83 9a bd ad 6a 08 c0 70 cc c9 be
       -0.050089985 -0.075447075 -2.131511 -0.39413786
000200 dd cf 7c 3f c9 69 6d 3f 60 84 2d bf 3a 37 1c 3f
       0.98754674 0.9273954 -0.67780113 0.6102177
000210 ec 93 2e bf 66 f6 59 3e 82 2d 45 3f 2d 5f c4 3d
       -0.6819446 0.212854 0.77022564 0.09588466
000220 b6 64 9c bf b0 b1 0f 3f 9c 09 08 3f 35 de 8d be
       -1.2218235 0.56130505 0.5313966 -0.27708593
000230 ae 84 27 3f e7 53 05 40 b3 8f 82 3f b2 22 3d bf
       0.6543683 2.083246 1.0200104 -0.73881066
000240 bb 87 7e 3f 01 5f c8 bf da 4e cd 3e 74 91 32 bf
       0.9942586 -1.5653993 0.4009922 -0.69753194
000250 0c 67 80 bf 7d de 90 3d 75 c6 bc 3f 66 06 af 3e
       -1.0031447 0.07073686 1.4748064 0.3418457
000260 a9 72 90 3d b7 6b 49 bf b9 f4 ab bf a2 66 01 bf
       0.0705312 -0.78679985 -1.3434058 -0.5054723
000270 7f 18 63 bf 46 60 16 3f fa 87 22 bf 12 45 f5 be
       -0.88709253 0.5874065 -0.63488734 -0.4790426
000280 ed 28 d5 3d 9b cb 11 bf 1b 2b be 3f 52 40 1a bf
       0.104081966 -0.569513 1.4856905 -0.60254395
000290 d8 0c 82 bf f3 a7 91 3f b1 ca 51 3f 9b b5 d1 bf
       -1.016017 1.1379379 0.8194991 -1.6383547
0002a0 14 47 83 be 03 2b aa be 77 c6 f2 be 62 99 2e bf
       -0.25640166 -0.3323594 -0.47417042 -0.68202794
0002b0 f7 b0 cb bd 70 29 94 bf ba 47 e0 bd 8c a8 b2 3f
       -0.09945863 -1.1575146 -0.10951181 1.3957686
0002c0 14 43 89 bf 6e f2 1f 3d 1e 9f 8a 3d 48 30 08 3e
       -1.0723596 0.03904956 0.067686304 0.13299668
0002d0 fb c9 9d bf 7f 62 db 3f 80 22 58 bf b1 30 68 bf
       -1.2327265 1.7139434 -0.8442764 -0.906993
0002e0 26 55 49 3f 8e ee da 3e 37 46 0f 3f cb 3a 0b bf
       0.7864555 0.42760128 0.55966514 -0.54386586
0002f0 94 a6 32 3f 08 fc 3d 3f 73 e2 17 be 70 0b b0 bf
       0.6978543 0.74212694 -0.14832477 -1.375349
000300 07 f8 e5 bf 5e 8e c9 3f 9d 4a 90 bf c1 95 83 bf
       -1.7966317 1.5746572 -1.127277 -1.0280076
000310 c4 54 a9 bf 26 6b 57 3f 0d b1 bc bf f3 c5 7d 3e
       -1.3228993 0.8414787 -1.4741532 0.24782543
000320 ad db 8d bf 7f f5 d7 3f 78 17 47 bf 82 77 85 bf
       -1.1082665 1.6871794 -0.77770185 -1.0427096
000330 7d b1 38 3f fe 80 dd 3f 2e d1 06 40 f6 87 ab be
       0.72145826 1.730499 2.1065173 -0.33502167
000340 7b e1 c7 3e 55 8d 84 3e 5b 65 b0 bf ab 7f c3 3f
       0.39039215 0.25889078 -1.3780931 1.5273336
000350 f1 13 4a bf b6 5e fa 3e 4d 73 42 3f d4 8d 02 40
       -0.7893668 0.48900384 0.75957185 2.0399065
000360 47 04 08 be ab 7b b3 be 4f 30 2b 40 3a 49 92 3f
       -0.13282882 -0.3505529 2.6748235 1.1428597
000370 9b 73 ce 3f f4 38 bc 3f 46 52 8a bf 60 35 eb bf
       1.612903 1.4704881 -1.0806358 -1.8375664
000380 6b dc e4 be c3 f7 25 bf 03 db 92 bf f7 c3 67 3f
       -0.44699416 -0.6483118 -1.1473087 0.90533394
000390 5e 99 d5 3f d1 9a 43 c0 e2 d6 b8 3f f3 c6 e2 3f
       1.6687429 -3.0563242 1.4440577 1.7716964
0003a0 ee 88 b9 be 62 6c dc 3f 68 08 47 3f 48 15 7f 3e
       -0.36237282 1.7220576 0.777472 0.24910462
0003b0 16 cb 36 be 69 d7 f6 be fa 81 bd bf 6f 43 a6 3f
       -0.17850909 -0.4821122 -1.4805291 1.2989329
0003c0 2c 05 79 bf a1 4d 1c 3f 71 50 eb be 27 91 6c 3f
       -0.97273517 0.6105595 -0.4595981 0.92408985
0003d0 05 cc d0 bb c2 8a 80 3c 40 f7 7f bf c6 53 20 bf
       -0.0063719773 0.015691165 -0.9998665 -0.6262783
0003e0 e0 c9 1d 3d 0e 47 18 40 ab 9a d4 be 49 13 a5 be
       0.0385226 2.3793368 -0.41524252 -0.32241276
0003f0 fe 8d 42 3d 35 c9 b0 3f e4 ee ae bf 00 75 e2 3c
       0.047498696 1.3811404 -1.3666654 0.02764368

weight f4 [1030, 8]
000000 30 a3 24 3e 6a f4 cf bf f0 1d 84 bf 07 cd c4 3f
       0.16077876 -1.6246464 -1.0321636 1.5375069
000010 f9 ef c0 be 7a fb 6d 3f 9b a4 8f 3e 17 96 11 3f
       -0.37683085 0.9296185 0.28055272 0.56869644
000020 12 ab db 3f eb df 6d 3f 42 9e 03 bf 34 ed 96 3f
       1.7161582 0.92919797 -0.5141336 1.1791139
000030 8c 61 e1 3e c5 2e dd 3f 41 70 06 c0 26 52 95 3d
       0.44019735 1.7279898 -2.1006014 0.07291059
000040 5c c1 35 3f 89 d7 0e bf fe fe c1 3e 49 ec e7 be
       0.7099817 -0.5579763 0.37889856 -0.4529746
000050 f5 38 05 40 2f c1 53 3f 0d bd 68 bd f6 bc ac bf
       2.0816014 0.8271665 -0.056820918 -1.3495166
000060 e9 6f a0 be 42 73 f3 bf e2 e0 9f 3f 25 70 c6 3f
       -0.3133538 -1.9019549 1.2490504 1.5502974
000070 74 3e b3 3f b9 52 06 40 a9 c5 98 3e bc ba c9 3f
       1.4003434 2.098799 0.29838303 1.5760112
000080 2c 06 2d bf 5e 82 b8 3f 1c 2c d1 be 18 fd a9 be
       -0.6758754 1.4414785 -0.40853965 -0.33200908
000090 bb 35 20 bf ef 11 c8 bf f3 3d be bf 10 5d 17 bf
       -0.62581986 -1.5630473 -1.4862655 -0.5912638
0000a0 8c 22 e9 be ce 5e 83 3f 9a 6a fd 3f 73 3c 36 3e
       -0.4553417 1.0263307 1.9798157 0.17796497
0000b0 2d 60 d8 3e 5f d7 42 be 32 c4 ca bf 75 66 61 bf
       0.42260876 -0.1902747 -1.5841124 -0.8804696
0000c0 26 5e a8 3e a1 0d 7d 3f bf dd 84 bf b0 7b e0 3f
       0.3288433 0.9884892 -1.0380172 1.7537746
0000d0 5e 69 47 3f 7a eb c0 3f fd 4d 2e 3f 57 3d 80 bf
       0.7789515 1.5071862 0.6808775 -1.001872
0000e0 e7 e1 15 be 52 cc 7b bf 11 3e f3 bf ad 65 d9 3f
       -0.14636956 -0.98358643 -1.9003316 1.6984154
0000f0 47 56 e1 3d c4 14 07 3f 11 5e d4 bd 5c 5b 42 3f
       0.11002784 0.5276606 -0.10369504 0.75920653
000100 49 43 e1 be 49 55 2e 3e 98 1f a5 be 05 72 28 bf
       -0.43996647 0.17024721 -0.32250667 -0.6579898
000110 c0 9b 23 3f d0 02 9b bf 6f 7e 4b 3f 49 6b a8 bf
       0.6390953 -1.2110233 0.794898 -1.3157741
000120 95 b4 aa 3f ea 4c 2c 40 b1 af 98 bc d1 8e 8f 3d
       1.3336359 2.6921945 -0.018638464 0.07009662
000130 dd c8 d5 3f 58 e6 c7 be f4 ae 88 3f 3d 8b 5e bf
       1.6701924 -0.39042926 1.0678391 -0.8693121
000140 76 32 cc bf 12 4e 52 3f e6 cf a4 3f 56 1f d8 bf
       -1.59529 0.82150376 1.2875946 -1.6884563
000150 9b b2 30 bf 4e cd 5d 3f c0 53 82 3f 3f 62 94 3e
       -0.6902253 0.86641395 1.0181808 0.28981206
000160 c9 2e 43 bf b0 4c 4a bf 78 8b b7 bd 64 12 75 bd
       -0.76243263 -0.79023266 -0.089621484 -0.05983199
000170 c5 7e cc 3b e9 94 8e bf ab 00 8c be ef a3 bf be
       0.006240698 -1.1139194 -0.2734426 -0.3742976
000180 ba 3e 34 be 0f 26 14 40 77 52 da bf 9d cd 78 bd
       -0.17602053 2.314823 -1.7056416 -0.060742963
000190 cd 40 f2 3f 3b a7 8c 3e eb 72 24 3e a6 f6 60 3f
       1.8926026 0.27471337 0.16059463 0.87876356
0001a0 f5 7b 6e be 04 d8 08 40 5e a6 0b 3f 64 82 b0 3e
       -0.23289473 2.1381845 0.5455073 0.3447448
0001b0 6e e5 43 bf 47 48 ee 3f bf 3e 83 bf 9a bb 99 bf
       -0.76521957 1.8615807 -1.0253524 -1.2010376
0001c0 cf c4 46 bf 4d e0 c3 3f cd 38 32 bf 6a b0 43 bf
       -0.77644056 1.5302826 -0.6961792 -0.7644106
0001d0 37 9b 27 3e 96 27 b5 be 25 24 f2 bf 84 56 8b 3f
       0.16367804 -0.35381764 -1.891728 1.0885777
0001e0 b8 52 f7 3e 6d e9 3f 3f 17 9a 1e 3f e3 0c 82 bf
       0.48305297 0.74965554 0.6195387 -1.0160183
0001f0 85 55 e6 3f 6e 7c af 3f 6b 3f 26 3f be b0 94 3f
       1.7994848 1.3709848 0.6494052 1.1616437
000200 86 06 82 3f eb c6 81 bf ab 2c 02 c0 d0 3e ce 3f
       1.0158241 -1.013883 -2.0339763 1.6112919
000210 54 0f e2 bf 1f c9 bb 3f 0b 65 c5 bf 31 f7 de bd
       -1.7660928 1.4670752 -1.5421461 -0.10886992
000220 7f fc 29 be 8e 4b 82 be 82 3c 62 3d 6c 59 56 bf
       -0.16600226 -0.2544827 0.055233486 -0.83730197
000230 9b a8 20 be 95 76 08 bf 05 fa 2f 3f 6f b3 2c 3e
       -0.15689318 -0.5330594 0.68740875 0.16865323
000240 ad 67 ab bf 89 19 46 bf 52 ae 3d 3f 23 ea f3 be
       -1.3391014 -0.77382714 0.74094117 -0.4763957
000250 3f 5d f4 3f 6c 90 f8 be 68 53 3f bd de 6a 89 bf
       1.9090956 -0.48547685 -0.0467104 -1.0735738
000260 49 c8 b5 3e ad b6 f6 bf 02 49 63 bf 96 f0 21 3f
       0.35504368 -1.9274498 -0.88783276 0.6325773
000270 b8 71 14 c0 13 5b cf bf b7 d9 cc 3f ff 09 ac be
       -2.3194408 -1.6199669 1.6003941 -0.33601376
000280 91 24 24 bf 02 89 eb 3e 2d 4f 2f 3f 70 31 b9 3e
       -0.64118296 0.46002966 0.6848019 0.3617053
000290 16 f7 bb bf 0d f4 aa bf e5 1d 07 bf 11 7e a5 bf
       -1.468478 -1.3355728 -0.5277999 -1.2929097
0002a0 80 05 3b 40 5f fc 7f 3f 0e 56 0c bf b8 c7 de be
       2.9222107 0.9999446 -0.5481881 -0.43511748
0002b0 d3 3c 10 3f 77 94 71 be 1b 45 93 bf 6b 38 99 3f
       0.5634281 -0.23591791 -1.1505464 1.1970342
0002c0 46 1e 11 40 7d c2 ae 3e f5 c6 91 be ff 5b 09 c0
       2.2674727 0.34132758 -0.28472105 -2.14624
0002d0 d7 71 d0 3e 9d f3 aa 3f 2f 1d 1a be 30 ba 44 3f
       0.40711853 1.3355595 -0.15050195 0.768466
0002e0 cc fc 43 bf 1e ac 98 3e 64 4d 72 3e eb ac ed bd
       -0.7655761 0.29818815 0.23662335 -0.11605247
0002f0 84 2a b6 be bc 46 36 3f a6 a7 67 3f 2b 49 ae 3e
       -0.35579312 0.7120168 0.90490186 0.34040198
000300 d3 ee 5e 3e 43 f3 10 3f 9a 6f 43 c0 ec c0 0f bf
       0.21770792 0.5662119 -3.0536866 -0.5615375
000310 b1 0b de be 19 8d 73 be c2 83 96 3f 40 23 f1 3f
       -0.43368295 -0.23784293 1.1758959 1.8838882
000320 90 cf ec bf fb 41 00 40 b6 b4 8a 3e 89 45 41 bd
       -1.8500843 2.0040271 0.27090997 -0.047185455
000330 73 0e 1e 40 0e b9 e6 3f 60 ad 9b be b9 de 33 40
       2.469632 1.8025224 -0.30405712 2.810469
000340 bb 94 eb 3f b4 71 0c c0 92 06 f2 bf 45 db a4 3f
       1.8404764 -2.19444 -1.8908255 1.2879416
000350 1b 2e 83 bf 0f a8 23 bf 74 a4 cc 3e 0a f7 8f bf
       -1.0248445 -0.6392831 0.39969218 -1.1247265
000360 89 28 32 40 49 97 0c 3f b7 a6 1b bd b8 c4 8d 3f
       2.783724 0.5491834 -0.03800079 1.1075659
000370 3d bc 64 bf 00 49 27 bf c1 12 02 3f c8 f2 8b bf
       -0.8934973 -0.65345764 0.50809866 -1.0933466
000380 de 09 49 bf e9 e4 11 bf 1d 27 b6 3f fd 25 51 3e
       -0.7853068 -0.56989914 1.4230686 0.20424648
000390 a6 7c 60 be a3 64 36 bf f5 c4 12 bf f3 e3 a4 3f
       -0.2192255 -0.7124731 -0.5733178 1.2882065
0003a0 ac da b9 3f 5e 74 b7 3f e8 21 95 3e d2 c9 27 3f
       1.4519858 1.4332387 0.2912743 0.6554233
0003b0 3c a4 ca 3f bb 6d c3 be 2b 71 18 c0 68 74 85 3f
       1.583137 -0.38169655 -2.3819072 1.0426149
0003c0 f4 52 3f c0 e1 53 74 3e b9 52 15 bf 13 d2 68 3e
       -2.989438 0.23860122 -0.5832935 0.22736387
0003d0 fd e1 6b 3f f4 c6 ec be 12 03 e1 bf 07 a1 59 bf
       0.92141706 -0.4624554 -1.7579062 -0.85011333
0003e0 53 ab b3 bd dd 2c 0d 3e 90 b8 fd bd ac 11 20 3f
       -0.08772912 0.13786645 -0.12388718 0.62526965
0003f0 4b fe 79 bf e9 8b 19 c0 aa 4c d2 bd cc ce ca be
       -0.97653645 -2.3991644 -0.10268529 -0.39610898

weight f4 [7, 8]
000000 24 87 89 3f fa 89 3e 3e d8 23 9b 3e 90 49 2c 3f
       1.0744367 0.18607321 0.30300784 0.6729975
000010 29 86 8d 3f 25 01 9a bf 06 87 39 bf 3a c9 25 be
       1.1056567 -1.2031599 -0.72471654 -0.16190043
000020 3b 4c 18 bf 43 8e 73 be ca 64 ab 3e de 32 4e 3f
       -0.5949132 -0.23784737 0.33475333 0.8054637
000030 cf c4 7c 3e 1e 52 31 bf 18 f7 3f bf a3 76 ef 3e
       0.24684452 -0.69265926 -0.7498641 0.467702
000040 1b 41 8e be 58 34 25 bf d0 d1 bd 3e ce c4 d1 3e
       -0.27784047 -0.64532995 0.37074137 0.40970463
000050 ed fe e6 3e 9d 57 48 bf 8e 69 c0 be f2 4d 96 3f
       0.45116368 -0.7825869 -0.37580532 1.1742537
000060 92 3b 59 3f 6b d7 42 bf ce 31 cf 3d 06 e3 2d 3c
       0.8485652 -0.7610995 0.10116921 0.010613209
000070 3a ec 3f bf 9f e7 d0 3f 55 44 0d 3e 7b 0b 28 3d
       -0.7496983 1.6320685 0.13795598 0.041026574
000080 dc 11 93 3e 49 e1 3d bf d9 13 f6 be 05 f6 0f bf
       0.28724563 -0.7417188 -0.48062018 -0.5623477
000090 ca 85 91 bf df be 8b 3f 48 28 1d 3f c4 7f 0c bf
       -1.1368954 1.0917624 0.6138959 -0.54882455
0000a0 e0 fb 8c bf bd 3d ab 3f fd 46 be bf de c0 33 40
       -1.1014366 1.3378216 -1.4865414 2.8086467
0000b0 f9 50 47 3f 47 e0 d1 bd c7 4e fe bf e6 f1 a4 be
       0.7785793 -0.10247856 -1.9867791 -0.32215804
0000c0 83 51 bb bf dd 39 1d bf 2e e9 d3 3e 2b aa 1f bf
       -1.463425 -0.6141642 0.4138884 -0.6236903
0000d0 5f 4a 9a 3e e0 cc a4 3e 63 46 be 3e 81 64 b0 3f
       0.30134866 0.32187557 0.37163076 1.3780671

weight f4 [7, 8]
000000 97 4f f1 be d7 4f c1 3f 88 d4 86 bf 22 8c bc bf
       -0.47131035 1.510249 -1.0533609 -1.4730265
000010 85 83 85 3e 43 07 03 3e 66 33 15 bf 98 69 eb bf
       0.26076904 0.12795739 -0.5828155 -1.83916
000020 b5 a4 e0 3d 6c 61 a6 3f 58 f8 7f bf 54 13 06 bf
       0.109689154 1.2998481 -0.9998832 -0.5237324
000030 cc fa ad bf a0 f4 e3 bf 92 13 dc 3e 83 58 39 3f
       -1.3592162 -1.7809029 0.4298368 0.72400683
000040 1f e6 a9 3e 73 82 68 bf 9f 61 9f 3e ce 22 b5 be
       0.3318338 -0.9082405 0.31129166 -0.35378116
000050 7f c3 1a bf 18 bd 2c bf 63 01 9c be 61 1a 4a bf
       -0.60454553 -0.67476034 -0.30469808 -0.789465
000060 e0 c1 a5 3f 10 62 4b bf 23 ea 2e bf b7 d6 24 3f
       1.2949791 -0.79446507 -0.68326014 0.6439013
000070 69 2a 09 bd 54 7d 22 3f de 4b 21 3f 4c af f5 3e
       -0.03348771 0.63472486 0.6300639 0.47985303
000080 a0 2f 19 bf e7 dd 49 3f a5 e1 e9 3e 37 fd 1a 3e
       -0.59838295 0.7885422 0.45679966 0.15135656
000090 e9 53 67 3f 64 f1 29 40 15 60 a5 be 08 9c 24 bf
       0.9036241 2.6553583 -0.32299867 -0.64300585
0000a0 2b a2 a7 bf 05 ab 15 3f a2 82 a7 3f a5 20 1d 40
       -1.3096365 0.5846408 1.3086741 2.4551175
0000b0 1a 42 67 3f f0 4b b7 be 69 85 7d 3c c2 23 b2 be
       0.9033524 -0.35800123 0.015473702 -0.34792906
0000c0 02 cd 21 bf f0 99 f0 3f 16 b1 d4 bf cd 30 1a be
       -0.6320344 1.8796978 -1.6616542 -0.15057679
0000d0 2c 34 1a bf a2 81 8f 3f 88 38 07 3f 1b a8 e6 be
       -0.6023586 1.1211436 0.52820635 -0.4505013

weight f4 [7, 8]
000000 aa 47 53 bf 83 a2 38 3f 1c 6b 02 40 90 62 a9 3e
       -0.82531226 0.72122973 2.0377874 0.3308301
000010 14 8d 6b 3e 97 96 15 be ba b4 15 c0 08 54 10 be
       0.23003036 -0.14608227 -2.3391557 -0.14094555
000020 32 0c 43 3f c1 2c 0d 3f d1 9a 35 bf 2f ff 4f bf
       0.76190484 0.55146414 -0.70939356 -0.81248754
000030 f7 9e 0d c0 84 fd b9 be b4 97 4a 3e 93 b3 06 3f
       -2.2128274 -0.3632623 0.19784433 0.5261776
000040 3f df 92 bf 81 0c 94 bf 0f 8e ad 3d dd aa a0 bd
       -1.1474379 -1.1566316 0.08474361 -0.078450896
000050 5d b9 88 bf 03 43 97 3e 0d 19 5e 3f 0b 18 96 3d
       -1.0681568 0.29543313 0.86756974 0.073288046
000060 9c 0f 97 bf 90 7b d2 be 82 0a 85 bb c3 07 0d bf
       -1.1801639 -0.41109896 -0.0040600905 -0.5508997
000070 1b e4 09 bf 53 31 64 3f ed e6 35 bf 60 0a a0 3e
       -0.53863686 0.8913776 -0.7105549 0.31257915
000080 fb 2f 26 3f c4 21 38 3c b1 52 34 be fd 21 ef 3e
       0.6491696 0.011238519 -0.1760967 0.46705619
000090 cd 13 df be 63 46 e4 3d 2a 23 9c bf 67 f1 37 bf
       -0.43569794 0.11146238 -1.2198231 -0.71852726
0000a0 77 b3 ec bd 02 a2 22 bc ac 0a ca 3f 2a 1b 24 3f
       -0.11557668 -0.009926321 1.5784507 0.6410395
0000b0 71 cf 61 bf 67 e0 ac 3f 3a 4a 1d 3f 0a 28 fc be
       -0.88207155 1.3505982 0.61441386 -0.49249297
0000c0 25 dc 94 3e ae 39 06 c0 94 b7 d5 be 9f bf 67 be
       0.29074207 -2.0972705 -0.41741621 -0.22631691
0000d0 db 87 ff bc 95 e8 75 be 00 31 62 40 e4 ec 63 3f
       -0.03119271 -0.24014504 3.5342407 0.8903334

weight f4 [6, 8]
000000 29 12 09 3e 13 39 0e 3e 83 e9 01 c0 5f fc f8 3a
       0.13385834 0.1388896 -2.0298774 0.0018996111
000010 af 03 01 be 18 38 d4 bb 8f e3 b7 3e 9a 34 ce 3d
       -0.12599061 -0.0064764135 0.359158 0.10068627
000020 23 5e a8 3d 77 4f a8 3e 8d 6d fb be 9c 6e b3 3e
       0.0822108 0.32873127 -0.49107018 0.35045326
000030 70 df 2f bf b6 ad 45 bf 1a df a6 3f 6b fb b9 3f
       -0.68700314 -0.77218187 1.3036835 1.4529852
000040 00 cc 4f bf dd 2e fd be b0 86 d3 3f dd 71 1c 40
       -0.81170654 -0.49449816 1.6525478 2.4444497
000050 d4 76 18 3e b7 b6 88 3f 84 1b a5 be 95 61 1f 40
       0.1488908 1.068076 -0.32247555 2.490331
000060 cf 8a c0 bf 06 82 33 bf 2b 2b 06 40 a1 7e a9 bf
       -1.5042361 -0.70120275 2.0963848 -1.3241769
000070 e8 f8 1e c0 33 d9 c8 3f a6 b7 92 bf 58 41 ef 3f
       -2.483942 1.5691284 -1.1462295 1.8691816
000080 e8 7a 4f 3f 98 10 11 40 b4 18 4e be 86 c6 bf bf
       0.81046915 2.2666378 -0.20126611 -1.498246
000090 c7 9d 97 3f 2d 6b eb bf b9 5f 67 3f 6e 90 da 3f
       1.1845025 -1.8392082 0.90380436 1.7075326
0000a0 53 dc 93 be ee e1 77 3e 86 b2 ec 3f af 2e 92 bf
       -0.28879032 0.24207279 1.8491981 -1.1420497
0000b0 d7 c9 2d bf 9a 9c 45 bf 4d 25 ee 3e 03 2c c1 3f
       -0.6788611 -0.7719208 0.46512833 1.5091556

weight f4 [32, 1, 3]
000000 de 8f 34 3e 70 06 2b bf 58 15 14 3e 3b fe 05 bf
       0.17633006 -0.668067 0.14461267 -0.5234105
000010 ec 52 36 bf 10 02 73 3e 71 c9 cc 3e 40 0d 07 3e
       -0.7122028 0.23731256 0.39997438 0.13188648
000020 52 3c fd be 43 7d 81 3d c2 d4 4f bf d5 61 54 3e
       -0.49460083 0.0632272 -0.8118402 0.20740445
000030 a7 16 12 bf 67 d5 eb 3e b3 b5 8a ba 14 43 e8 be
       -0.57065815 0.4606125 -0.0010582715 -0.45363677
000040 b6 d3 f1 3e d8 68 34 bd f4 b8 70 bd 8c 36 37 bc
       0.47231835 -0.0440453 -0.058770135 -0.011182439
000050 79 14 97 3f 31 c0 9c be 97 2c 19 bf 70 14 3a 3e
       1.1803123 -0.3061538 -0.59833664 0.18171859
000060 99 78 04 bd d3 a9 03 3d 5c 53 b9 3f be 13 c2 3e
       -0.032341573 0.03214438 1.4478564 0.37905687
000070 7e ef b4 be f6 c5 85 be fd 0c cb 3e 86 c5 9e 3e
       -0.35338968 -0.26127595 0.39658347 0.31010073
000080 79 7a a5 bd e9 ab b5 3e ab 7c 08 bf 35 20 86 be
       -0.080800004 0.3548272 -0.5331523 -0.26196447
000090 33 c6 92 be c8 a5 11 3f ad 66 80 3b 3a 46 48 be
       -0.2866684 0.5689359 0.00391849 -0.1955804
0000a0 09 15 be 3e 44 cd 0c bf a1 eb 66 3d 9e bd 08 3f
       0.37125424 -0.5500071 0.056377057 0.5341433
0000b0 b7 dc 09 3f 79 ed bc 3e ee d2 0c bd e6 07 f5 3e
       0.5385241 0.36899927 -0.034380846 0.4785759
0000c0 93 29 14 bf e7 da 64 be 3c b6 2c 3d 8f 0d 7a be
       -0.5787594 -0.2234913 0.04216598 -0.24419235
0000d0 0e e0 5d be 1c 31 60 3f 14 a9 90 3d 08 47 40 bf
       -0.21667501 0.87574935 0.07063499 -0.75108385
0000e0 01 07 03 3e 07 8d 58 3e cb 1c 48 3e c5 62 c4 be
       0.1279564 0.21147548 0.19542234 -0.38356605
0000f0 95 c6 a0 3d 73 1e af be 4a 0b a1 be 59 e2 19 3e
       0.078503765 -0.34202918 -0.31453925 0.15027751
000100 e9 a9 f4 be 24 f8 1d 3e b4 d0 04 bf 3f ae b8 3e
       -0.4778588 0.1542669 -0.51880956 0.3607044
000110 0a c9 32 3d ce 59 2c bf d2 d9 03 3f a3 45 fa 3c
       0.043648757 -0.6732453 0.5150424 0.030550784
000120 1e a8 cd 3e c1 53 18 bf 15 85 5f 3c 37 8c e6 3d
       0.40167326 -0.595028 0.013642569 0.112572126
000130 6b ab 0a 3e 73 fd 00 bf c2 3e f8 be 43 59 ab 3e
       0.13541953 -0.5038673 -0.4848538 0.3346654
000140 29 94 0a bf 71 87 eb be e4 b8 a7 be 00 c8 9c 3c
       -0.54132324 -0.4600177 -0.32758248 0.019138336
000150 89 78 44 be 85 86 f3 3e d2 4e 4b 3d 11 36 d7 3e
       -0.19186606 0.47563568 0.049635716 0.42033437
000160 a9 3c e6 be bb 29 77 bc 1e fc 67 be 3d dd fd 3e
       -0.44968155 -0.015085633 -0.22654769 0.49582854
000170 12 66 a2 3e 66 d7 85 3e 54 aa a5 be 18 e3 b3 be
       0.31718498 0.26140898 -0.32356513 -0.35134196

bias f4 [32]
000000 03 b1 ab 3e 4d bd 81 bd 85 c6 bd be b1 98 17 bf
       0.33533487 -0.063349344 -0.3706552 -0.59217364
000010 e8 18 09 bf 5f 28 d7 be b5 f6 9c 3e 43 a0 32 be
       -0.5355363 -0.42022988 0.30656973 -0.17443947
000020 95 0d 42 3e 7a f2 14 be d5 65 35 bd d8 73 9b 3d
       0.18950494 -0.14545622 -0.044286568 0.07590455
000030 71 6c a2 bc 96 b5 ac bd 1b b2 cc 3e de fa 8c bc
       -0.0198271 -0.08433072 0.39979634 -0.017209467
000040 c1 9f cf be 8e 3b 63 3e 36 ba d9 be 01 f6 21 be
       -0.4055157 0.22190687 -0.4252488 -0.158165
000050 75 5e 0f 3f 61 e0 c5 3e 88 96 9f 3d dc 6e d4 3e
       0.56003505 0.3864775 0.077923834 0.4149083
000060 78 52 1d bf 47 67 d2 bd 6a d5 be be 57 ac fb 3e
       -0.6145396 -0.10273605 -0.37272197 0.49154922
000070 45 0a 2e be c9 1a b1 be 2e fb 93 3e 9c c3 0d 3f
       -0.16996105 -0.34590748 0.28902572 0.553766

weight f4 [64, 32, 3]
000000 64 4d 8b be 03 2a 44 be 2e 91 cc 3d a4 29 50 be
       -0.27207482 -0.19156651 0.09988628 -0.20328385
000010 b6 2a 9e bd 31 d1 84 be d9 ec 3d 3e 9e 16 6a bb
       -0.0772299 -0.2594085 0.18547381 -0.0035719047
000020 d2 4d a8 3e 3b 6d 8a be 16 a9 16 b9 f9 78 e9 bb
       0.32871872 -0.2703646 -0.00014368104 -0.007125017
000030 42 32 68 3e 5e 64 42 3e ae 43 e0 be dd 2d 26 3d
       0.22675422 0.189836 -0.43801636 0.040571082
000040 ba be 13 3d 01 eb e6 be 88 5f 06 3e 14 49 00 3f
       0.036070563 -0.4510117 0.1312238 0.5011151
000050 09 31 81 3e af ea 9e be a6 8e 0a be 5d a6 5b bd
       0.25232723 -0.31038424 -0.13530979 -0.053625453
000060 e7 5c 77 3e fa b4 1d 3e ab b5 0e bc bd 92 3f 3d
       0.24156533 0.15401068 -0.008710305 0.0467708
000070 64 4c b9 be 25 55 ed bd 39 43 31 3e cc f1 09 3e
       -0.36191094 -0.11588506 0.173108 0.13471144
000080 f4 0b cc 3e 7a 7c 41 be 4e 3f 9c be 50 11 c1 bd
       0.3985287 -0.1889514 -0.30517048 -0.0942713
000090 8a fa b1 bc 4a c9 a6 3e 64 82 74 be e4 53 e3 bb
       -0.021725912 0.32575446 -0.23877865 -0.006937491
0000a0 2f 3d 4a 3e ae f4 2d be a5 45 ca bb 2f 02 e2 3e
       0.19749902 -0.16987869 -0.006172853 0.4414229
0000b0 b4 b5 28 be 78 12 50 3e 34 ec a4 3e 72 ec 8a 3e
       -0.16475564 0.20319545 0.3221146 0.27133518
0000c0 12 59 6e 3d 41 6d 61 be f0 dc d4 bc 0f f6 d2 3c
       0.058190413 -0.22014333 -0.025984257 0.025752096
0000d0 f2 3e a0 3e d7 04 1a 3e 3c 31 87 bd 7b 4c 43 bc
       0.31298023 0.15040909 -0.066011876 -0.01192009
0000e0 9d dc 06 3c 05 3b e0 bd 7b ea b9 3e 1e 92 76 3e
       0.008231309 -0.10948757 0.36311707 0.24079177
0000f0 0f 5b 00 be 5f 61 c6 be 3e 9d 17 be f6 75 cd 3d
       -0.12534736 -0.38746163 -0.14806077 0.10032265
000100 af 26 ae bd d8 14 46 3e a6 55 aa 3e 68 80 af 3d
       -0.08503472 0.19343889 0.3326847 0.085694134
000110 07 3c 38 bf 90 99 21 3e c4 ac 08 3e 8c 42 1a bf
       -0.71966594 0.15781236 0.13347155 -0.6025779
000120 61 d2 f5 3d d1 ac c0 bd 1c 2a cf 3e 3e 89 3f 3e
       0.12003017 -0.09407962 0.40461814 0.18704697
000130 70 01 a5 3d 90 35 33 3d 4d c0 d2 bd 91 6b 20 3d
       0.08056915 0.043752253 -0.10290585 0.039165083
000140 50 4e 31 be 0f 36 53 be f2 5b 5a bd c5 28 54 3c
       -0.1731503 -0.2062609 -0.053310342 0.012949173
000150 aa ae e7 3d 0b aa 3f 3e ae 4d 89 be 94 8a 19 bd
       0.113126114 0.1871721 -0.26817077 -0.037485674
000160 12 e3 de be 24 ab a2 3e 10 23 8d 3e e2 f5 cb bc
       -0.43532616 0.31771195 0.27565813 -0.02489752
000170 2a d0 bc be 25 ec 69 3d cb fb b7 be 50 14 cb bc
       -0.36877567 0.05710997 -0.3593429 -0.02478996
000180 93 25 5b 3e 7b 66 36 3d 03 2c a1 be 84 ac 28 be
       0.21401052 0.044531327 -0.3147889 -0.1647206
000190 32 b0 43 3e 05 26 fe be 38 b2 22 3e 21 b7 dd 3d
       0.19110182 -0.49638382 0.15888298 0.10825945
0001a0 c8 ac 94 3d b9 c1 21 3c 58 37 29 3e e4 f1 a4 be
       0.07259518 0.009872847 0.16525018 -0.32215798
0001b0 52 65 96 3c bd 63 1a bf 2b b9 0d 3e 5a e3 97 3d
       0.01835886 -0.6030844 0.13840167 0.07416411
0001c0 12 1f d4 be 2e a9 4f 3d fa 2e 4c 3e ab 97 44 bb
       -0.41429955 0.05069845 0.19939795 -0.0029997628
0001d0 5d 4b b8 be 60 cd 94 bc 70 1a 2e 3e bc a9 94 be
       -0.35994998 -0.018164337 0.17002273 -0.29035747
0001e0 61 bd 9f 3d 8b 96 d3 3c 2c 78 9d be 32 9c 10 be
       0.07799793 0.02582862 -0.30755746 -0.14122084
0001f0 68 92 d0 3e 0e 7c 4a 3e 99 5b 1a 3e a6 8f 45 3e
       0.407367 0.19773886 0.15074004 0.19293079
000200 a2 f4 e6 be 4b df 0b be 78 b6 70 3e a0 b0 e1 3d
       -0.45108515 -0.13659398 0.23507106 0.11020017
000210 c4 6f 0e 3d ea 2c 2d bf b5 a2 85 3e e5 fb c6 bd
       0.034774557 -0.6764666 0.26100698 -0.09716014
000220 13 88 99 be 57 00 15 3e fc bc 78 3e 63 cf e4 be
       -0.2998663 0.14550911 0.24290842 -0.44689474
000230 73 dc 3c be af 42 d1 3d a2 3a cf 3c 1a d4 33 3e
       -0.1844347 0.10217797 0.025296513 0.17561379
000240 7d cc f9 bd c9 96 6f 3e b3 f8 3b be 1d c5 be 3d
       -0.12197206 0.23397364 -0.1835659 0.0931494
000250 95 27 13 3e 1e fa 1a bf 29 db 29 3e 0b 87 8e 3e
       0.14370568 -0.605379 0.16587509 0.27837405
000260 5b 1e 03 bf 35 6b 0e 3d 82 58 28 3c 38 1d 8d bd
       -0.51218194 0.03477021 0.010275008 -0.06890339
000270 3d 66 0d 3c f3 58 f7 3d 49 fc 37 3e 9b 99 f0 3c
       0.008630333 0.120775126 0.17967333 0.02937012
000280 ab e9 24 3e 9c 7f d5 bd 7f 1f 6c 3e 1f 8a 75 be
       0.16104762 -0.1042473 0.2305889 -0.2397847
000290 03 37 49 3d b8 0c 2d bd 2c cf b9 be 0c 2b 1a 3e
       0.04912473 -0.042248458 -0.36290872 0.15055484
0002a0 23 cb 31 be 67 53 d6 bd 1e 49 17 bc 85 7b 49 3d
       -0.17362647 -0.104651265 -0.009233741 0.049190063
0002b0 96 95 71 be 91 ac 33 bd 68 8e d3 bc 1b 6d f6 be
       -0.23592219 -0.043865744 -0.02582474 -0.48130116
0002c0 33 c7 f5 3e cd a7 5b 3d c1 5e ba 3e d2 21 48 be
       0.4800354 0.053626824 0.36400416 -0.19544151
0002d0 25 7b 31 3d a5 19 0d bf bd 25 90 3e e1 db 9c 3d
       0.04333033 -0.55117255 0.28153792 0.07659126
0002e0 c0 da ef 3d c5 68 ae 3e 18 05 3b 3e 67 8d 89 be
       0.11711645 0.34064308 0.18263662 -0.26865694
0002f0 ca 12 5f be c7 df 69 bd 9a f2 66 3d 89 9d 43 3d
       -0.21784511 -0.057098176 0.056383707 0.04775766
000300 d9 83 36 be 9b 97 26 3e 40 8a 2d bf b1 66 0c bd
       -0.17823733 0.1626877 -0.6778908 -0.03427762
000310 b8 c5 63 3e e5 38 a6 bd 43 0c 0a bd 5c a5 17 be
       0.22243392 -0.081163205 -0.0337031 -0.14809173
000320 2d ef 59 bc 93 1e 8a bd d1 4c d0 3d d9 70 c9 be
       -0.013301653 -0.06744113 0.101709016 -0.39343908
000330 93 2e 70 be f0 64 c0 3c 2d 67 99 bd 47 1f ae 3b
       -0.23455267 0.02348563 -0.07490382 0.005313787
000340 52 eb d4 bc cb 1d 09 be 1a e7 c1 be a3 6a 96 3d
       -0.025991116 -0.13390271 -0.3787163 0.07344558
000350 b7 1a 2a bd 5a 2c ba bd b4 32 6e 3e 9d 86 24 be
       -0.041529384 -0.09090491 0.23261529 -0.16066976
000360 ff 5d 89 be 58 21 97 3d e6 ed 72 be 6a 24 f6 bd
       -0.26829526 0.07379407 -0.23723564 -0.12018664
000370 fd 21 50 3e 8b ac 20 bf eb 89 65 be ea bf af be
       0.20325466 -0.6276328 -0.22415893 -0.34326106
000380 f3 2d fd 3c 7b 29 33 3e a0 43 6b 3e 5b 76 70 be
       0.0309057 0.17496292 0.22975016 -0.23482649
000390 df 7e 01 be ac a4 a0 3d fc 3f 54 bd 5a 56 51 3e
       -0.12646054 0.07843909 -0.051818833 0.20443097
0003a0 d9 19 52 3e 1a 0f ef bd b1 6d 83 be 99 2a 33 be
       0.20517673 -0.11672802 -0.25669625 -0.17496718
0003b0 7f 77 1b be 7b d9 c4 be d1 b9 63 bd b1 bf b7 3d
       -0.15182303 -0.38447174 -0.05559713 0.08972109
0003c0 bb 9f f5 bd 86 f0 5e 3e 4d 0a 14 3d aa ab a3 be
       -0.11993357 0.2177144 0.036142636 -0.31966907
0003d0 25 3e f8 bd 13 bd d7 bc bf f8 40 be 60 15 07 3e
       -0.12121228 -0.026335275 -0.18844889 0.13191748
0003e0 91 2f 21 bf 3a df 8b 3c a7 6b 83 3c ee 27 7c bc
       -0.62963206 0.017074216 0.016042544 -0.015390379
0003f0 fb 17 86 3e 5c bf b5 3e e0 6c ca be 6f a6 fe bd
       0.2619017 0.35497558 -0.3953619 -0.124340884

bias f4 [64]
000000 25 e6 c5 bd 24 5d 77 bd 9a b2 89 bd f5 4d f3 ba
       -0.09663037 -0.06039156 -0.06723519 -0.0018562662
000010 65 43 8f 3d b4 d2 4b 3d 1f 96 38 bd 3b e9 96 3a
       0.06995276 0.04976149 -0.04506504 0.00115136
000020 b4 f7 cb 3d e3 6d a6 bd 3d 66 18 bd e0 b8 cb 3c
       0.09959355 -0.08126428 -0.037206877 0.024868429
000030 74 d7 bc bd bd 27 60 3d a9 9c 58 3d 74 a9 55 3d
       -0.09220782 0.054725397 0.052883778 0.052163556
000040 00 9c bf bd 6f 32 94 bc be 29 a0 3c 72 1e bf bc
       -0.093559265 -0.018090455 0.019551154 -0.023329947
000050 56 72 10 bd 9f 57 17 3d 88 de 8c 3b 38 fb ba bd
       -0.03526529 0.036948796 0.0042989887 -0.091299474
000060 0f 54 59 bd fd 98 55 bc ce da 68 bc 22 1f 7b 3c
       -0.05305868 -0.0130369635 -0.014212323 0.015327247
000070 67 7d 92 bd 6f 5b 97 3d 8d a7 b1 bd af d7 55 bd
       -0.07152825 0.073904864 -0.08674536 -0.052207645
000080 3f f3 78 bd 64 77 9d bc 92 85 8b bd a1 80 ba bd
       -0.060778853 -0.019221969 -0.06812586 -0.09106565
000090 f7 12 f9 bc 50 83 ff bc 25 51 82 bd d6 ce 69 bd
       -0.030404551 -0.031190544 -0.06363133 -0.05708202
0000a0 25 99 16 3d 6d 4c 9c bd ac c1 94 3d 8f 56 9a bd
       0.036767144 -0.076317646 0.072635025 -0.07536041
0000b0 47 60 1e bb 20 0f a5 3d dc cb 2d 3d 9d d4 9b bc
       -0.0024166272 0.080595255 0.042430744 -0.01902228
0000c0 af ac a2 bd 27 7f 65 bd 0f 8e b4 bd ae da 8b bd
       -0.07943093 -0.056029465 -0.08816158 -0.06828819
0000d0 5e 4c 3c 3d 7d 88 a7 bd f0 76 f6 bc cf df ba bd
       0.045971267 -0.0818033 -0.03008601 -0.09124719
0000e0 a8 89 c7 3d a2 64 b9 bd 12 c7 b8 3d 1f de 87 3d
       0.09743053 -0.09052397 0.09022345 0.06634163
0000f0 c8 f1 16 3d 37 97 b4 bc 27 18 73 3a f3 05 da 3c
       0.036851674 -0.022044761 0.00092733133 0.026614165

weight f4 [32]
000000 3b d5 8e 3f 09 5e 5c 3f 1a 5e 8b 3f 92 72 81 3f
       1.1158823 0.86080986 1.0888093 1.0113089
000010 f2 e5 a1 3f 19 38 98 3f 0c 1a 6e 3f 41 cc 68 3f
       1.2648299 1.189212 0.93008494 0.90936667
000020 30 71 6f 3f 60 1b 91 3f 6e 47 4d 3f 5d 9d 8a 3f
       0.93532085 1.1336479 0.8018712 1.0829273
000030 8e d4 79 3f e6 11 8d 3f 09 9e 73 3f 1f 69 23 3f
       0.9758996 1.1021087 0.9516302 0.6383228
000040 65 4c 57 3f 46 a2 4e 3f 6c 1b 74 3f 46 be 78 3f
       0.84100944 0.8071636 0.9535434 0.97165334
000050 44 07 92 3f e2 46 7c 3f 7e 15 8c 3f e4 b4 88 3f
       1.1408467 0.9854566 1.0944059 1.0680203
000060 1d 87 86 3f ad 44 8c 3f a4 b3 90 3f 31 ae 7a 3f
       1.0509983 1.0958458 1.1304822 0.97922045
000070 ea d9 63 3f cf f5 7a 3f 57 11 7b 3f b2 35 70 3f
       0.89004385 0.98031324 0.98073334 0.9383193

bias f4 [32]
000000 8d ab 59 be 59 fe 8c be 40 68 c9 be 84 0c 4f be
       -0.21256848 -0.27537802 -0.3933735 -0.20219618
000010 81 21 8f be 95 87 92 be ce 61 75 bd b4 42 b3 be
       -0.2795525 -0.28619066 -0.059907727 -0.35011828
000020 61 11 c4 bd 7b 25 8d be 60 36 72 be 6d 27 62 be
       -0.09573627 -0.27567658 -0.23653555 -0.22085352
000030 53 54 ac 3d f2 3c 03 bf fe ce 0e bf 2d 1e f0 be
       0.08414521 -0.5126487 -0.55784595 -0.46898022
000040 3a 54 94 be 54 d9 9b bc 3f 77 1d be 27 c4 68 be
       -0.2897051 -0.019024529 -0.1537752 -0.22731076
000050 15 5c 13 bf 13 8d b6 bd 72 a6 ce be e9 ff da be
       -0.5756238 -0.089136265 -0.40361363 -0.4277337
000060 91 58 29 be b3 ff dd be 3e 2f c2 be fa 76 fe be
       -0.16537692 -0.43359146 -0.37926668 -0.49700147
000070 a8 81 04 3d b0 f8 40 be d9 e5 a5 be 4a e0 4a be
       0.032350212 -0.18844867 -0.32401922 -0.19812122
