government_icfes_dataset/mlartifacts/956201576569699187/f962c68f8ade4979b9951ac3aa4db647/artifacts/model/data/model.pth (torch, 702912 bytes, 39 tensors)

weight f4 [4, 8]
0	0xbf2e346b	-0.68048733
1	0x3e6ad221	0.2293172
2	0x3efd623a	0.49489003
3	0x3e71543f	0.23567294
4	0x3f0e69be	0.556301
5	0xbea0eb51	-0.31429532
6	0x3eac2a50	0.33626032
7	0xbed1f6ab	-0.41008505
8	0xbe3138fc	-0.17306894
9	0xbfad8e63	-1.3559078
10	0xbe865f5d	-0.2624463
11	0x3ebed311	0.37270406
12	0x3f267e75	0.6503671
13	0xbed8e9ae	-0.42365783
14	0xbf33f5ee	-0.70297134
15	0xbfb50687	-1.4142617
16	0x4002a6b0	2.0414238
17	0xc0043c12	-2.0661664
18	0x3fbf91f4	1.4966416
19	0x3f08638d	0.532769
20	0xbf772823	-0.9654562
21	0xbf50d2aa	-0.8157145
22	0xbf64e98e	-0.89418876
23	0x3fc84ca6	1.5648391
24	0xbcf66dd9	-0.030081676
25	0x3f2356ab	0.6380412
26	0xbf1f34c6	-0.621899
27	0xc0234b52	-2.5514722
28	0x3ece3b6f	0.4027972
29	0x3f28a8fe	0.6588286
30	0xc00b9c7e	-2.1814265
31	0x3e4adece	0.19811556

weight f4 [3, 8]
0	0x3f1b7a4e	0.607335
1	0x3f5e439b	0.8682191
2	0x3c8d3666	0.017237853
3	0x3fb50aa0	1.4143867
4	0xbe5fe22b	-0.2186362
5	0xbebecce7	-0.37265703
6	0xbfaebdda	-1.3651688
7	0x3f87c2d2	1.060633
8	0xbf5a7203	-0.8533022
9	0x3fc3b81b	1.529056
10	0xbf6569ec	-0.8961475
11	0x3f8c18c3	1.0945057
12	0x3f95987f	1.1687163
13	0x3f8d1178	1.1020956
14	0x3ef56c25	0.4793407
15	0x3fc7a35f	1.5596732
16	0xbf7fad52	-0.9987384
17	0xbe134754	-0.14382678
18	0xbe783353	-0.24238329
19	0xbedf578a	-0.43621475
20	0xbfb6eb5e	-1.4290578
21	0x3f2fe8cc	0.68714595
22	0xbf173dcd	-0.59078676
23	0xbee5527d	-0.44789496

weight f4 [5, 8]
0	0xbf0f6460	-0.56012535
1	0x3ffed027	1.9907273
2	0xbed2ecba	-0.41196233
3	0x3ee6e7ba	0.45098668
4	0xbeefe186	-0.46851748
5	0x3f678cae	0.90449035
6	0xbf95a89d	-1.1692082
7	0x3f29ce3b	0.6633031
8	0xbe32d175	-0.17462714
9	0x3e83734e	0.25673908
10	0xbf0ed71f	-0.55797
11	0xc02f150c	-2.7356596
12	0x3f5b2477	0.85602516
13	0xbf901881	-1.1257478
14	0xbf6bb874	-0.9207833
15	0x3f9b3c1b	1.2127718
16	0xbf1f4aa8	-0.6222329
17	0xbe02828f	-0.12745117
18	0x3f8d8eca	1.1059201
19	0x3f8d79ff	1.1052855
20	0x3e299f22	0.1656461
21	0x3f981d97	1.188403
22	0x4005d0aa	2.0908608
23	0x3f2925bf	0.6607322
24	0xbf3c44ed	-0.7354267
25	0xbf7f2b11	-0.9967509
26	0x3f50d48c	0.8157432
27	0x3f1d2149	0.61378914
28	0xbf50ef73	-0.8161537
29	0x3f28d1ec	0.65945315
30	0xbebd0913	-0.36920986
31	0xbdcfed69	-0.10152704
32	0xbd7263f1	-0.059177343
33	0x3f09167d	0.5354994
34	0xbead852d	-0.33890668
35	0x3ff8a318	1.9424772
36	0xbeb50926	-0.35358542
37	0x3f8190ac	1.0122275
38	0x3fa7f19f	1.3120612
39	0x3f61284a	0.879521

weight f4 [7, 8]
0	0x3fe6a332	1.8018553
1	0xbe1a8b87	-0.15092288
2	0x3d05f64b	0.032705586
3	0x4013af50	2.3075752
4	0x3f803103	1.0014957
5	0xbf3964e3	-0.72419566
6	0xbf539951	-0.8265582
7	0xbeff3228	-0.49842954
8	0x3fe75560	1.8072929
9	0xbf5c15c8	-0.85970736
10	0xbf697335	-0.91191417
11	0x3f0755ee	0.52865493
12	0x3fbb4dba	1.4633095
13	0x3cc1534b	0.023599287
14	0xbd180658	-0.037115425
15	0x3ffe6daa	1.9877217
16	0xbeb56c03	-0.3543397
17	0xbf7056f0	-0.93882656
18	0xbdff08c3	-0.12452843
19	0x3f468b77	0.77556556
20	0xbf87b8a7	-1.0603226
21	0x3fa11c8c	1.2586837
22	0xbf546a72	-0.8297492
23	0x3f285dde	0.6576823
24	0xbee3c1ea	-0.44483882
25	0x3fc68b9a	1.5511353
26	0x3fd12404	1.6339116
27	0xbd94bb38	-0.07262272
28	0x3fdb806f	1.714857
29	0xbe13bacc	-0.14426726
30	0xbf274400	-0.65338135
31	0xbe02b1a6	-0.1276308
32	0xbb21d65f	-0.0024694426
33	0xbec1aaf4	-0.3782574
34	0xbeb50365	-0.35354152
35	0xbe569411	-0.2095492
36	0xbf82123a	-1.0161812
37	0x3ce39e00	0.027785301
38	0xbf7a3b57	-0.97746795
39	0x3e9b5bdd	0.30343524
40	0x3ff6aa2f	1.9270686
41	0xbf6c3f43	-0.9228403
42	0x3febf154	1.8433022
43	0xbfa1dfaf	-1.2646388
44	0x3f6b3fa1	0.91893965
45	0x3eb3b2ad	0.35097256
46	0x3e94d371	0.29067567
47	0x3ea4097d	0.3203849
48	0xbe2ac7f7	-0.16677843
49	0xbdecafed	-0.11556993
50	0xbe8eca06	-0.27888507
51	0x3dd8d4a2	0.105874315
52	0x3f3e032e	0.742236
53	0x3f332a7c	0.699867
54	0x3efeb9ad	0.49751034
55	0x3f914f21	1.1352273

weight f4 [7, 8]
0	0xbea43b78	-0.3207662
1	0xbf9bb900	-1.2165833
2	0x40437dda	3.0545564
3	0x3f17eb29	0.593432
4	0x3f95174c	1.1647735
5	0x3f7446fd	0.9542082
6	0x3ec4a26e	0.38405174
7	0x3fa9f281	1.3277131
8	0xbffcd386	-1.9752052
9	0xbdbce898	-0.09224051
10	0x3f59735b	0.84941643
11	0x3f8b91f6	1.0903919
12	0xbdba0a91	-0.09084047
13	0x3e156b8d	0.14591809
14	0x3f083960	0.5321255
15	0x3ec4af6a	0.3841508
16	0x3e23e792	0.16006306
17	0xbf1c8747	-0.61143917
18	0x3e58e421	0.21180774
19	0xbec30f9e	-0.38097852
20	0xbf418c45	-0.7560466
21	0x3fc1e169	1.5146915
22	0xbf03c44b	-0.51471394
23	0xbf42a0d9	-0.76026684
24	0xbec2936d	-0.38003102
25	0xbf1ae62b	-0.6050746
26	0xbea7518d	-0.32679406
27	0xbf759fe5	-0.95947105
28	0x3f099728	0.5374627
29	0xbf72578a	-0.94664824
30	0x3f0ba3ca	0.545468
31	0xbf8dc5e7	-1.107602
32	0x403c7b51	2.9450266
33	0x3fa0312e	1.2515008
34	0xbfc41c65	-1.5321165
35	0xbf3eb5e5	-0.744963
36	0xbf3af85e	-0.7303523
37	0xbee29d67	-0.44260713
38	0xbd6dd20e	-0.058061652
39	0xbea5ffe1	-0.32421783
40	0x3fab3726	1.3376205
41	0x3ff40f1a	1.9067109
42	0x3fdfcbaa	1.7484028
43	0xbef4d784	-0.47820675
44	0xbfafb4ca	-1.3727047
45	0xbf4fce8c	-0.8117454
46	0x3f491326	0.78544843
47	0x3f805fd2	1.0029242
48	0x3e6e3252	0.23261383
49	0x3fd8f12f	1.6948603
50	0xbebfd73b	-0.37468895
51	0x3f018a51	0.5060168
52	0xbf943233	-1.157782
53	0xbf9ebb1a	-1.2400849
54	0xbfaf82d9	-1.3711807
55	0x3ec15297	0.37758324

weight f4 [1025, 8]
0	0xbe13542d	-0.1438758
1	0x3e6d1867	0.2315384
2	0xbf2c8ad7	-0.6739935
3	0x3f4c9deb	0.79928464
4	0xbf0e1b26	-0.55510175
5	0xbb4bee44	-0.003111736
6	0xbfab9649	-1.3405238
7	0x3eefc7f8	0.46832252
8	0xbdae9e76	-0.08526318
9	0x3f2eda94	0.68302274
10	0xc04361d4	-3.052846
11	0x3f44ccd1	0.76875025
12	0xbfcc0d2e	-1.5941522
13	0xbfb2a9db	-1.3958086
14	0xbe515584	-0.20442778
15	0x3f66f6ad	0.9022015
16	0x3b863dcb	0.0040967218
17	0xbd778d6d	-0.06043761
18	0xbe853b4b	-0.260218
19	0xbe165fae	-0.14684936
20	0xbf1300f3	-0.57423323
21	0xbe31d853	-0.17367677
22	0x3f2ff57c	0.68733954
23	0xbf90ecd7	-1.1322278
24	0x3ffef180	1.991745
25	0x3e2b62dd	0.16736932
26	0xbf7971fb	-0.97439545
27	0xbf68f19e	-0.9099368
28	0x3fd3dbb8	1.6551428
29	0xbf6e260f	-0.9302682
30	0xc008cf45	-2.1376507
31	0xbec916a3	-0.39275083
32	0x3f1c6aa2	0.6110021
33	0xbf8bb072	-1.0913222
34	0xbf454ac8	-0.7706723
35	0x401deeb3	2.467694
36	0xbe8d8545	-0.2764074
37	0xbec7cc7b	-0.39023194
38	0xbea57375	-0.3231465
39	0xc00b5c0a	-2.1774926
40	0xbeffa6c6	-0.49931926
41	0x40099e00	2.1502686
42	0xbf13fbe9	-0.5780626
43	0x3fc886e5	1.5666167
44	0xbf805782	-1.0026705
45	0x3f112b51	0.5670672
46	0x400fc59c	2.246436
47	0x3ee77042	0.45202833
48	0xbf7539ef	-0.95791525
49	0xbf429907	-0.7601475
50	0x3f1d2392	0.613824
51	0x3e42cc78	0.19023311
52	0x3df1a933	0.1179985
53	0xc0189498	-2.3840694
54	0x3e076a0c	0.13224047
55	0xbf53c948	-0.82729006
56	0x3f87822c	1.05866
57	0x3ec37f5f	0.38183114
58	0x3f9c9db9	1.2235633
59	0x3f4305a0	0.7618046
60	0x3f3f1334	0.74638677
61	0xbeefb9fe	-0.46821588
62	0x3dced9fc	0.10100171
63	0x3ee80700	0.4531784
64	0x3fbea94c	1.4895415
65	0x3f97fd85	1.1874243
66	0xbdcab7a0	-0.09898305
67	0x3f03ce74	0.514869
68	0x3d140d87	0.036145713
69	0xbf268dac	-0.65059924
70	0xbf39c1d4	-0.72561383
71	0x3f1ac1f6	0.6045221
72	0x3fa69707	1.301484
73	0x3dc03d1e	0.09386657
74	0xbf80e5eb	-1.0070165
75	0xbf925f08	-1.1435251
76	0xbf194ab5	-0.5987962
77	0xbf4a01e6	-0.78909147
78	0xbe965bf7	-0.2936704
79	0x3f4c5b44	0.7982676
80	0x3f19099f	0.59780306
81	0x3fa3fc26	1.2811325
82	0xbe6a8616	-0.22902712
83	0xbe784f51	-0.24249007
84	0xbe15e685	-0.14638717
85	0xbf158fc3	-0.5842249
86	0xbf6da6ff	-0.9283294
87	0x3f6ee0d1	0.9331179
88	0xbc196bfd	-0.009364125
89	0x3fd37ee1	1.6523095
90	0xbd99bd62	-0.07506825
91	0xbe63e58d	-0.22255535
92	0xbe84dd7b	-0.25950226
93	0xbdfc162d	-0.12308917
94	0xbd068f98	-0.032851785
95	0xbf8cf68d	-1.1012741
96	0xbfaab4a7	-1.3336381
97	0x3ec6d13b	0.38831505
98	0xbf19c1ca	-0.60061324
99	0x3f71d2fd	0.9446257
100	0x3f66134c	0.89873195
101	0x3ef4eaa4	0.47835267
102	0x3faff6ff	1.3747252
103	0xc04b0242	-3.1720128
104	0xbfbdb387	-1.4820412
105	0x3f974219	1.1817046
106	0x3fbca08d	1.4736496
107	0xbe9b57cc	-0.3034042
108	0x3f8c4d6b	1.0961126
109	0x3e8e0e03	0.27745065
110	0xbf8d3c6e	-1.1034067
111	0x3ee0a544	0.43876088
112	0xbeb2ecb1	-0.34946206
113	0x3f4f8f1b	0.81077737
114	0xbf2d36e6	-0.67661893
115	0x3f878524	1.0587506
116	0x3f331a2e	0.6996182
117	0x3ebbcb60	0.366786
118	0x3fb0dbdc	1.3817096
119	0x3edb60f2	0.428474
120	0xbeda629b	-0.42653355
121	0xbfd6a8d5	-1.6770273
122	0x3fab2bce	1.3372743
123	0x3f763ee2	0.961897
124	0x3f8c7407	1.0972909
125	0xbfbfe39d	-1.4991337
126	0xbf4ddd02	-0.80415356
127	0x3f8adbad	1.084829
128	0x3e50d8d6	0.20395216
129	0x3fde42c2	1.7364123
130	0x3f92c96f	1.1467723
131	0x3f738b12	0.9513408
132	0x3fd1b257	1.638255
133	0xbf6b2794	-0.91857266
134	0x3db0431b	0.08606549
135	0x3ef89e46	0.48558253
136	0x3f48966d	0.7835453
137	0x3e8da82e	0.27667373
138	0x3f124b2f	0.5714597
139	0x3f3f283c	0.7467077
140	0x3fdc73fd	1.7222897
141	0xbd8ec088	-0.06970316
142	0xbee238b1	-0.44183877
143	0x3fd459b2	1.6589873
144	0x3f52ab1e	0.82292354
145	0x3f7dbf7d	0.9912031
146	0x3eaa80de	0.33301443
147	0x3e2d712b	0.16937701
148	0xbf1c487f	-0.6104812
149	0xbe9c75a2	-0.30558497
150	0xbf65aae0	-0.8971386
151	0xbfa190d1	-1.262232
152	0xbf419c26	-0.7562889
153	0xbf48be49	-0.7841535
154	0xbfabdc5c	-1.3426623
155	0x4050b286	3.2608962
156	0xbf81f05f	-1.015148
157	0xc02b9d6b	-2.681483
158	0x3f2517e0	0.64489555
159	0x3f0fb26c	0.56131625
160	0x3f830772	1.0236647
161	0x3f92bab1	1.1463224
162	0x3e3440f9	0.1760291
163	0x3d4a274f	0.049353894
164	0x3f2eefa6	0.68334424
165	0xbfa6bc11	-1.3026143
166	0x3e061791	0.13094927
167	0x3d50d419	0.050983522
168	0xbf130d66	-0.5744232
169	0xbfe85e2e	-1.8153741
170	0x3fbe64a1	1.487446
171	0xbef6e757	-0.48223373
172	0x3fa82c8f	1.3138598
173	0xbfb61f12	-1.4228232
174	0x3f8a9569	1.0826846
175	0x3dc19817	0.09452837
176	0x3f1357f2	0.5755607
177	0xbe7e3fb4	-0.24828988
178	0x3ef92583	0.48661432
179	0xbeed8c4c	-0.463961
180	0x3f45aab6	0.7721361
181	0xbf585d06	-0.8451694
182	0x3f8482cf	1.035242
183	0x3f9d0531	1.2267209
184	0x3f0530b9	0.5202747
185	0x3e2e085e	0.1699538
186	0xbe62019e	-0.2207093
187	0xc03a5cde	-2.9119182
188	0xbe804047	-0.2504904
189	0x3f2c860e	0.6739205
190	0x3fabfa6b	1.3435796
191	0x3fa28cff	1.2699279
192	0xbea128bc	-0.3147639
193	0xbf1dbeb5	-0.6161912
194	0xbeab03cc	-0.33401334
195	0xbd11b8d7	-0.035576668
196	0x3f02a3de	0.5103129
197	0x3e8813f8	0.26577735
198	0x402586d9	2.5863554
199	0x40083ec3	2.1288307
200	0xbf52311d	-0.8210619
201	0x40052433	2.0803344
202	0xbfcbb4b2	-1.5914519
203	0xc01e883b	-2.4770648
204	0x3fe5d239	1.795478
205	0xbfea7e8a	-1.8319867
206	0x3e425c2f	0.18980478
207	0x3e48795a	0.19577542
208	0x3e6fdd3b	0.23424236
209	0xc02e3302	-2.7218633
210	0x3f619431	0.8811675
211	0xbfc3a8dc	-1.5285907
212	0x3f20abab	0.62761945
213	0xbfcc3022	-1.5952189
214	0x3fa85d9e	1.315357
215	0xbf4ffe3c	-0.81247306
216	0xbf1d93b6	-0.61553514
217	0xbf2ea1a5	-0.682154
218	0x400b386f	2.1753194
219	0x3f641adc	0.89103484
220	0xbe02a9fe	-0.1276016
221	0x3f0aee22	0.5426961
222	0x3f98c54c	1.193521
223	0x3e48b98b	0.19602029
224	0xbfbded9e	-1.483814
225	0xbf3af0c7	-0.7302365
226	0x3fbd5be9	1.4793674
227	0x3d2c0eb3	0.042006206
228	0xc0010142	-2.0157018
229	0xbfed1abc	-1.8523784
230	0xbee3f6ed	-0.44524327
231	0xbea3cca6	-0.31992072
232	0x3b8a9e27	0.004230279
233	0xc001da7d	-2.0289605
234	0xbed28778	-0.4111898
235	0xbf0b50c3	-0.5442011
236	0x3e78eb29	0.24308456
237	0xbf2ecd1b	-0.68281716
238	0xbf78e9cb	-0.9723174
239	0xbf1d90f6	-0.6154932
240	0x3faa6b63	1.3314022
241	0xbfae8e25	-1.3637129
242	0x3fc4ace7	1.5365266
243	0xbed6b3bc	-0.41934
244	0x3f47c21f	0.7803058
245	0xbed942fd	-0.4243392
246	0x3fb40640	1.4064407
247	0xbee7d226	-0.45277518
248	0x3f57b0fc	0.8425443
249	0x3f158013	0.5839855
250	0x3ea361bc	0.31910503
251	0xbecbdab4	-0.39815295
252	0x3d13b073	0.036056947
253	0xbfb90d41	-1.445717
254	0x3dd746ae	0.10511528
255	0xbfc9ded5	-1.5771128

weight f4 [3, 8]
0	0xbfb049cc	-1.3772521
1	0x3ea3ee9e	0.32017988
2	0xbfa67812	-1.3005393
3	0xbe309b4a	-0.17246738
4	0x3fec885f	1.8479117
5	0x3eb3d38d	0.35122338
6	0x3e4c3bd1	0.19944693
7	0xbf961614	-1.1725488
8	0xbec84d6d	-0.3912157
9	0x3f039c43	0.5141031
10	0x3e30977f	0.17245291
11	0xbf3e42a4	-0.74320436
12	0xbf804d80	-1.0023651
13	0x3f48f406	0.7849735
14	0xbf29eafa	-0.6637417
15	0xbfbae9e4	-1.4602628
16	0xc0216a84	-2.5221262
17	0x3cac6e55	0.021048704
18	0x3f846267	1.034253
19	0x3ea450e4	0.32092965
20	0xbe0707e5	-0.13186605
21	0xbe9e670e	-0.30938
22	0xbe859f0a	-0.260979
23	0xc02f2835	-2.736829

weight f4 [7, 8]
0	0xbe9fe5f9	-0.31230143
1	0x3e3caad2	0.18424538
2	0x4041068d	3.0160248
3	0x3f354407	0.70806926
4	0xbf4f513a	-0.80983317
5	0x3e6297eb	0.22128265
6	0x3e696689	0.2279302
7	0x3d113e65	0.035459895
8	0xbdffeb0c	-0.124960035
9	0x3cc6ba90	0.024258882
10	0xbf0db7c0	-0.55358505
11	0xbf49b538	-0.7879214
12	0xbeb7b725	-0.35881916
13	0x3eb56405	0.3542787
14	0x3ed7523e	0.42054933
15	0x3f9ac993	1.2092766
16	0x3e83488a	0.2564128
17	0xc00806bd	-2.1254113
18	0xbf9be887	-1.2180337
19	0x3ee75429	0.45181397
20	0xbebff64a	-0.3749259
21	0x3f93f916	1.156039
22	0xbfaea6b8	-1.3644629
23	0xbfaa8f72	-1.3325026
24	0xbfd7b6cb	-1.6852659
25	0xbf80850e	-1.0040605
26	0xbffcee4a	-1.976022
27	0x3fc806a9	1.5627033
28	0x3ff03725	1.8766829
29	0xbf106927	-0.5641045
30	0xbfb11a3a	-1.3836129
31	0x3f9955dd	1.1979328
32	0xc00f05bd	-2.2347252
33	0xbeba42ef	-0.3637919
34	0x3eae1939	0.34003618
35	0xbfa066f8	-1.2531424
36	0xbef27bc5	-0.47360054
37	0xbf02646c	-0.5093448
38	0x3fe8004f	1.8125094
39	0xbf072e06	-0.528046
40	0xbf57b9d7	-0.84267944
41	0xbf4b8b08	-0.7950902
42	0x3f2e85c4	0.6817286
43	0x3e9f4d09	0.3111346
44	0x3f797400	0.97442627
45	0xbf88ffa0	-1.070301
46	0x3f3bd489	0.7337118
47	0x3f382a48	0.71939516
48	0xbde6c584	-0.11268142
49	0x3f043b9c	0.51653457
50	0xbe86f5a1	-0.26359275
51	0xbea0abfa	-0.31381208
52	0x3f8a160f	1.0787982
53	0x3dfffb12	0.1249906
54	0x3f8e22a2	1.1104319
55	0xbf9ae5bd	-1.210136

weight f4 [7, 8]
0	0x3ff877f1	1.9411603
1	0x3fa44754	1.2834268
2	0xbed3b714	-0.41350615
3	0x3eea1054	0.45715582
4	0x3f7824e4	0.9693129
5	0x3f647452	0.8923999
6	0xbec1db55	-0.3786265
7	0x3dd898e9	0.1057604
8	0x3fa269de	1.2688558
9	0x3d678765	0.056525607
10	0xbf3b654f	-0.7320146
11	0x401d6ecc	2.4598875
12	0xbdb72b77	-0.08943837
13	0x3f35018a	0.70705473
14	0x3ebe1c64	0.37131035
15	0x3f6ab3e5	0.9168075
16	0xbf80a736	-1.0051029
17	0xbef0ecc2	-0.47055632
18	0xbeb0baf6	-0.3451764
19	0xbf3b8c33	-0.732608
20	0x3ea38e67	0.31944582
21	0xbeafe429	-0.3435376
22	0xbfc43fce	-1.5331972
23	0xbf1b4565	-0.6065276
24	0x3f7a6437	0.97809166
25	0xbc8ef1a3	-0.017449206
26	0xbd221446	-0.039570116
27	0x4011b440	2.2766266
28	0xbfe1387b	-1.7595361
29	0x3fd44dc8	1.6586237
30	0x3eaa1986	0.33222598
31	0x3c8d3d3c	0.017241113
32	0xbf87f202	-1.062073
33	0xbf776720	-0.9664173
34	0x3d7a79a9	0.06115118
35	0xbd88d4f0	-0.066812396
36	0x3f4e8452	0.80670655
37	0x3ed48d7b	0.4151419
38	0xbe6d41d1	-0.23169638
39	0x3f62f78d	0.8865898
40	0xbf7ad4d8	-0.97981024
41	0x3ec1a420	0.3782053
42	0x3ff7af73	1.9350418
43	0x3f0a27ba	0.5396687
44	0x3eabe2a3	0.33571348
45	0xbf10d247	-0.5657086
46	0xbf46f59f	-0.7771854
47	0xbea3740c	-0.31924474
48	0xbfcc3cf7	-1.5956105
49	0xbe010adb	-0.12601797
50	0x3f65924c	0.89676356
51	0x3f9753c6	1.1822441
52	0x3eead7c8	0.45867753
53	0x3f9baec6	1.2162712
54	0xbff170ce	-1.886255
55	0xbe881415	-0.2657782

weight f4 [3, 8]
0	0xbda29ee7	-0.079404645
1	0x3e55aeb3	0.20867424
2	0xbedfb325	-0.43691364
3	0xbfb8f9ef	-1.4451274
4	0xbf61024a	-0.8789412
5	0x3fb675b0	1.4254665
6	0x3cdfe716	0.02733187
7	0xbe93e662	-0.28886706
8	0xbfc2f15d	-1.5229908
9	0x3eafa005	0.34301773
10	0x3ed0b41b	0.4076241
11	0xbddd0d2c	-0.10793528
12	0x3e50e23d	0.20398803
13	0xbf43c578	-0.7647319
14	0xbe4a44ec	-0.19752854
15	0xbf6df3b4	-0.92949986
16	0xbfa53eac	-1.2909751
17	0xbf15799a	-0.58388674
18	0xbeae48bf	-0.34039876
19	0xbda2ff65	-0.07958869
20	0x3e3dd499	0.18538131
21	0x3fd7df8a	1.6865094
22	0x3f133560	0.5750332
23	0x3ea00e12	0.31260735

weight f4 [427, 8]
0	0x3fb19244	1.3872762
1	0x3eae6b8a	0.3406642
2	0x3f142cfd	0.57881147
3	0x3dd7b4d0	0.10532534
4	0x3f8bce21	1.092228
5	0xbec41ffa	-0.38305646
6	0xbf524165	-0.82131034
7	0xbfbf29a3	-1.4934582
8	0xbf4d36a4	-0.801615
9	0x3ed0e5dd	0.40800372
10	0x3f97f4d1	1.1871587
11	0xbfad5a72	-1.3543227
12	0xbef5a8d5	-0.4798037
13	0x3e8d13ac	0.2755407
14	0xbfdbc191	-1.7168447
15	0x3ff08d79	1.8793174
16	0x3fdcf273	1.726149
17	0xbe71fbf3	-0.23631267
18	0xbcc58386	-0.024110567
19	0x3f130e8a	0.5744406
20	0x3f174ab5	0.5909837
21	0x3eeffa77	0.46870777
22	0x3f487fde	0.7832011
23	0x3eb0abee	0.34506172
24	0xbef365cb	-0.475386
25	0xbfaeba12	-1.3650534
26	0xbfdf77d0	-1.7458439
27	0x3f3c15a1	0.73470503
28	0x3f73f2eb	0.9529254
29	0x3f4ae5c4	0.79256845
30	0xbf2d5cff	-0.67720026
31	0xbf0b1310	-0.5432596
32	0x401308cc	2.297412
33	0x3de0d896	0.109788105
34	0x3eb7f459	0.3592861
35	0xbf9bc114	-1.2168298
36	0x3f754025	0.95801
37	0x4014c5b8	2.3245678
38	0x3fbbcc27	1.4671677
39	0x402ad8a3	2.6694725
40	0x3fac3f55	1.3456827
41	0x3fc69f2b	1.5517324
42	0xbf97b495	-1.1851984
43	0x3fae2c4f	1.3607272
44	0x3f861bde	1.0477254
45	0x3db452ba	0.08804841
46	0xbf980359	-1.1876022
47	0x3f3f6eb5	0.747783
48	0x3f9a9de0	1.207943
49	0x3e94652b	0.28983435
50	0x3f00fe26	0.503878
51	0xbd9b0dc0	-0.07570982
52	0x3f8c117b	1.0942835
53	0xbdac81b2	-0.08423175
54	0xbf86ab4a	-1.0521023
55	0x3fea57b3	1.8308014
56	0xbfa624e6	-1.298001
57	0xbf0b80b9	-0.5449329
58	0xbfc670ff	-1.5503234
59	0x3f20a030	0.62744427
60	0xbe8db883	-0.27679834
61	0xbfe608f4	-1.7971482
62	0x3eb2c677	0.34917042
63	0x3e87ebc1	0.26547053
64	0x3fceb569	1.6149112
65	0xbf78ce03	-0.9718935
66	0xbf4f7456	-0.8103689
67	0xbc434d0c	-0.011920225
68	0x3fa54aee	1.2913492
69	0xbf43c04c	-0.76465297
70	0xbe7ed5f6	-0.24886307
71	0x3ed177ed	0.4091181
72	0xbec22ed1	-0.37926343
73	0xbf62f25c	-0.8865106
74	0x3eb28650	0.34868097
75	0xc0612b20	-3.5182571
76	0xbf1a83a0	-0.60357094
77	0xc0221696	-2.5326285
78	0xbfb1f473	-1.3902725
79	0x403d641e	2.9592357
80	0x3faaafac	1.3334861
81	0x3f1bd608	0.6087346
82	0xbfa44362	-1.2833064
83	0xbff6ab09	-1.9270946
84	0x3e38ad6f	0.1803491
85	0x3f92a6b8	1.1457129
86	0x3f14325f	0.5788936
87	0xbecbee6a	-0.39830333
88	0x3f9689ef	1.1760844
89	0x3f916f4c	1.136209
90	0x3cd9e99d	0.026600653
91	0x3f430ace	0.7618836
92	0x3f8647a6	1.0490615
93	0xbfcbf932	-1.5935423
94	0xbf97a3f8	-1.1846914
95	0x3f739fa2	0.95165455
96	0xbed92ad2	-0.42415482
97	0xbd6f7dc0	-0.058469534
98	0x3ea1ba58	0.31587481
99	0x3e7bca02	0.24588779
100	0xbf41f2df	-0.75761217
101	0xbf032442	-0.512272
102	0x3e48e142	0.19617179
103	0xbede569e	-0.4342546
104	0xbeaa4a9c	-0.33260047
105	0xbe995c5a	-0.2995327
106	0x3c803922	0.015652243
107	0xbedc7fb6	-0.43066186
108	0x3f067327	0.5251946
109	0x3f1ac8f0	0.60462856
110	0x3f4afba1	0.79290205
111	0x3e609108	0.21930325
112	0x4019cf17	2.4032648
113	0x3f840f71	1.0317212
114	0xbe295bcd	-0.16538925
115	0xbf204e22	-0.6261922
116	0x3ff91764	1.9460263
117	0x3f24cf80	0.6437912
118	0x3f2a9b30	0.6664305
119	0xbe6dfb30	-0.23240352
120	0xbf25e03b	-0.64795274
121	0x3ee5108a	0.4473918
122	0xbf186ac8	-0.59537935
123	0xbf5aa900	-0.85414124
124	0xbf98a360	-1.1924858
125	0xbf467aca	-0.7753111
126	0xc03f5570	-2.9895897
127	0xc0057c7b	-2.0857227
128	0x3f2c6e36	0.6735567
129	0xbf9dedd8	-1.2338209
130	0x3f757e1e	0.95895565
131	0x3f37d193	0.7180416
132	0xbf854666	-1.0412109
133	0x3f854290	1.0410938
134	0xbf34af33	-0.7057983
135	0x3ecae27a	0.39625913
136	0xbf0b1116	-0.54322946
137	0xbcb8d07e	-0.022560354
138	0xbe889226	-0.26674002
139	0xbfb18411	-1.3868428
140	0xbf1e91e6	-0.61941373
141	0x3f2aaac5	0.66666824
142	0x3f69c868	0.9132142
143	0xc0065fa0	-2.0995865
144	0xbe75f301	-0.2401848
145	0x3f5af476	0.8552927
146	0x3f2d6f04	0.6774752
147	0xbf83d30e	-1.0298784
148	0xbef0e4ea	-0.47049648
149	0x3f4f3858	0.8094535
150	0x3f50bd7e	0.8153914
151	0x3f3f7990	0.74794865
152	0xc0189b24	-2.384469
153	0x3ef83c00	0.48483276
154	0xbc6910f8	-0.014225237
155	0xbf8ba639	-1.0910102
156	0xc00f0c80	-2.235138
157	0x3e620887	0.22073565
158	0x3f57ab0d	0.8424538
159	0xbe1d0bcf	-0.15336536
160	0xbf325ae4	-0.6966994
161	0xbf84d5a9	-1.0377704
162	0x3f086764	0.5328276
163	0x3ec41913	0.3830038
164	0x3e73a6c6	0.23794088
165	0x3f6f9b3f	0.9359626
166	0xbebfc69c	-0.37456214
167	0x3f245010	0.64184666
168	0xbfe34656	-1.775584
169	0x3f16fc96	0.58979166
170	0x3ef05c07	0.4694521
171	0x3d510baa	0.051036514
172	0x3ed2bbdc	0.4115895
173	0x3eb73cb2	0.35788494
174	0x3f116e87	0.56809276
175	0x3e0e06c0	0.13869762
176	0xc012ca15	-2.293584
177	0x3f85921e	1.0435216
178	0x3e8b27ed	0.27178898
179	0x3ee26f7c	0.4422568
180	0x3bf8db9a	0.007594538
181	0x3f2067bb	0.6265828
182	0x3f2f8af1	0.6857138
183	0xbed926d4	-0.42412436
184	0xbe18648c	-0.14882106
185	0xbfc5f547	-1.5465478
186	0xbeae7c83	-0.3407937
187	0xbf84a8cd	-1.0364014
188	0xbeb4c573	-0.35306892
189	0x3eb10958	0.3457744
190	0x3d638b6f	0.055552896
191	0x3f47a16c	0.77980685
192	0x3e3938e7	0.18088113
193	0xbfe9360d	-1.821962
194	0x3f5d978c	0.8655937
195	0xbeb65051	-0.35608152
196	0x3e85ea7b	0.26155457
197	0xc0433bd0	-3.0505257
198	0x4004ed1c	2.076972
199	0x3ee52b1c	0.44759452
200	0xbf3df433	-0.74200743
201	0xbe0b16bd	-0.13582893
202	0xbfae131b	-1.359958
203	0x3f573304	0.8406222
204	0xbf0480d3	-0.5175907
205	0x3f930123	1.1484722
206	0x3eb10d5c	0.34580505
207	0xbe350423	-0.1767736
208	0xbe32b439	-0.17451562
209	0x40064593	2.0979965
210	0xbe2df79c	-0.16988987
211	0xbf8f2f5a	-1.1186326
212	0x3f067210	0.52517796
213	0xbf246add	-0.6422556
214	0x3ec35790	0.38152742
215	0xc0004b30	-2.004589
216	0x4009d056	2.1533408
217	0x3d56b062	0.052414306
218	0x3d933ffd	0.07189939
219	0xbd5ac4e1	-0.053410415
220	0xbeddb16f	-0.43299434
221	0xbe015e24	-0.12633568
222	0x3e5ae762	0.21377328
223	0x3f1f62ac	0.62259936
224	0xbe271a24	-0.16318566
225	0xbf09b8a8	-0.5379739
226	0xbf1efb52	-0.62102234
227	0xbee3c9fd	-0.44490042
228	0x3f1bfc99	0.6093231
229	0xbd12a5bb	-0.035802584
230	0xbf1b702d	-0.6071804
231	0xbf84446f	-1.0333384
232	0x3fa57d22	1.2928813
233	0xbfaafabb	-1.3357767
234	0xc012e638	-2.2953014
235	0x3d73a6cb	0.059485238
236	0x3fdafff2	1.7109358
237	0x3ec0c34d	0.37649003
238	0xbf460a53	-0.77359504
239	0x3f36f50d	0.7146767
240	0xbd96b8f6	-0.07359497
241	0x3fbf30b6	1.493674
242	0xbf81ad31	-1.0130979
243	0xbf57a6f2	-0.84239113
244	0x3f8453d0	1.0338078
245	0x3ebc4c29	0.36776856
246	0xbfb9e217	-1.4522122
247	0xbee7ac68	-0.45248723
248	0xbf05d986	-0.5228504
249	0xbe2c0e9b	-0.16802447
250	0x3f3ba603	0.7330019
251	0xbf5e3275	-0.8679574
252	0xbf64c86e	-0.8936833
253	0xbf7490a0	-0.9553318
254	0xbfdd7ce8	-1.7303743
255	0x3d29c0a3	0.04144348

weight f4 [1030, 8]
0	0x3ea31b1b	0.31856617
1	0xbd82b628	-0.063824
2	0x3ea48e82	0.32139975
3	0x3f8fc4fe	1.1231992
4	0xbf10a268	-0.5649781
5	0x3f88d22a	1.0689137
6	0xbf9a50f3	-1.2055954
7	0x3f9f8526	1.2462509
8	0x4007a107	2.1192033
9	0xbe394bcd	-0.18095322
10	0xc02855e5	-2.6302426
11	0xbf88d057	-1.068858
12	0x3f030fdd	0.5119608
13	0x3f45a096	0.7719816
14	0x3dfefda8	0.12450725
15	0xbf8e45f5	-1.1115099
16	0xbec63bcc	-0.38717496
17	0x3f9ef2e0	1.241787
18	0x3ede943e	0.43472475
19	0x3f39035f	0.7227077
20	0x3c34ed92	0.011042969
21	0x3e94e507	0.29080984
22	0xc00753a7	-2.1144807
23	0x3c26828a	0.010162959
24	0x3e8c1184	0.27357113
25	0x3e34a8b9	0.17642488
26	0xbeafce32	-0.34337002
27	0xbfb47e31	-1.410101
28	0xbf00e836	-0.50354326
29	0xbf0ef82b	-0.55847424
30	0x400b2669	2.1742194
31	0xbe8477a5	-0.25872532
32	0xbe0d41dd	-0.13794656
33	0xbd8fa9fe	-0.07014845
34	0xbf69b816	-0.9129652
35	0xbeee8c92	-0.46591622
36	0xbe818965	-0.25300136
37	0x3f51eac4	0.8199885
38	0xbe6c7a1e	-0.23093459
39	0xbfdf1e25	-1.7431074
40	0xbf3fedc9	-0.74972206
41	0xbf9c89ad	-1.2229515
42	0xbf6fbb2d	-0.9364498
43	0xbf688e95	-0.9084256
44	0xbf813a7d	-1.0095974
45	0xbfb58895	-1.4182307
46	0x3fb82bc3	1.4388355
47	0x3f24d9bf	0.64394754
48	0xbf87ec33	-1.0618957
49	0x3f4d7870	0.802619
50	0xbfc1ceaa	-1.5141194
51	0xbf8f222c	-1.1182303
52	0x400bab3c	2.1823263
53	0xbfdb8496	-1.7149837
54	0xbec162ee	-0.3777079
55	0xbf5679f9	-0.83779866
56	0x3d9f946a	0.077919796
57	0xbfa2d2e5	-1.272061
58	0xbf30293f	-0.68812937
59	0xbdfa515f	-0.122225516
60	0xbf9c1a86	-1.2195594
61	0x3f3bd442	0.73370755
62	0x402caf90	2.6982155
63	0xbf2aa3dc	-0.6665628
64	0xbfe1c69a	-1.7638733
65	0xbe00add7	-0.12566315
66	0x3a75c665	0.00093755714
67	0x3ef36fff	0.47546384
68	0xbebb2d26	-0.36557883
69	0x3f75b6fc	0.95982337
70	0xbe7f933f	-0.24958514
71	0x3e5860be	0.21130654
72	0xbeb3ac5a	-0.3509243
73	0x3f42155f	0.7581386
74	0x3f03dcb0	0.5150862
75	0xbe0b7a5c	-0.13620895
76	0xbf1e1be8	-0.6176133
77	0x4008790a	2.1323876
78	0xbea5cb39	-0.3238161
79	0x3f21c131	0.6318541
80	0x3e6b172a	0.22958055
81	0x3fe8aae3	1.817715
82	0x3e7e8a96	0.24857554
83	0x3ec6c01e	0.3881845
84	0xbe126029	-0.14294495
85	0xbd836584	-0.06415847
86	0x3fcec3b3	1.6153473
87	0xc010b3d5	-2.260976
88	0xbe0506cc	-0.12990874
89	0x3eb07ef5	0.3447186
90	0xc00fef8f	-2.2489965
91	0x3bf09b88	0.0073427595
92	0xbde6b327	-0.11264639
93	0xbe518403	-0.20460515
94	0x3e749bf6	0.2388762
95	0xbdf138af	-0.1177839
96	0xbe63efde	-0.22259471
97	0xbfeb0650	-1.8361301
98	0xbf841ebc	-1.0321879
99	0x3f2b2970	0.66860104
100	0x3f0677cb	0.5252654
101	0xbeec6649	-0.46171787
102	0xbdea7f47	-0.114500575
103	0x400c2bc3	2.190171
104	0x3ecbea5f	0.39827248
105	0x3e960e2c	0.29307687
106	0xbe449272	-0.1919649
107	0xbfa7e1a6	-1.3115737
108	0xbf760b99	-0.96111447
109	0x3f9172b3	1.1363128
110	0x3fa3d686	1.2799842
111	0xbf36f1be	-0.7146262
112	0xbe1c877f	-0.15286063
113	0x3f3a7ea0	0.72849464
114	0xbfc7c417	-1.5606717
115	0xc00a5523	-2.1614463
116	0x3d79a5dc	0.06094919
117	0x3f46261d	0.77401906
118	0x3ef0dc77	0.470432
119	0xbf8b0271	-1.086012
120	0x3f8043e0	1.0020714
121	0x3eea8fae	0.45812744
122	0x4012d6fe	2.294372
123	0xbda7574a	-0.08170946
124	0x3da66d93	0.081263684
125	0x3faa45b6	1.3302524
126	0x3e9bf360	0.30459118
127	0xbe9b3ef6	-0.30321473
128	0xbed8cb6f	-0.42342708
129	0xbecff561	-0.40616897
130	0xbf917318	-1.1363249
131	0xbe556915	-0.20840867
132	0x3fce272e	1.6105707
133	0xbee89815	-0.4542853
134	0x4025c185	2.5899365
135	0x3f89cfbd	1.0766522
136	0x4012076e	2.2817035
137	0x3e504634	0.2033928
138	0xbf6e9f8f	-0.9321222
139	0xc0109ac3	-2.259446
140	0x3f74a188	0.9555898
141	0x3f254a1a	0.64566195
142	0x3dd0f9f4	0.10203925
143	0xba642857	-0.0008703521
144	0xbef93ef2	-0.48680836
145	0x3fbebe06	1.490174
146	0x3f9f4813	1.244387
147	0x3f8b7765	1.0895811
148	0x3f887da7	1.0663346
149	0x3f807a21	1.0037271
150	0xbe3c3d6a	-0.18382803
151	0xc008ae2f	-2.1356313
152	0xbe9cf2d1	-0.30654004
153	0x3edcd5e3	0.43131933
154	0xbe3ab5de	-0.1823344
155	0x3f382524	0.7193167
156	0xbeaeb400	-0.34121704
157	0x4052cd02	3.2937627
158	0xbf5576dc	-0.8338449
159	0x401d1831	2.4546015
160	0x3fc16b72	1.5110915
161	0x3e4d1c20	0.2003026
162	0x3e6cff5f	0.23144291
163	0x3e39214f	0.18079112
164	0x3f992f7f	1.196762
165	0x3ffecde6	1.9906585
166	0xbef3b5bb	-0.47599587
167	0xbf937424	-1.1519818
168	0x3eb5fec3	0.3554593
169	0x3fd1485a	1.6350205
170	0xc003c85f	-2.0591047
171	0x3f4a6c35	0.7907136
172	0xbf1d7f50	-0.6152239
173	0xbfaa8bba	-1.3323891
174	0x3fd5397c	1.6658168
175	0x3fa21073	1.266127
176	0x3fc1d03c	1.5141673
177	0x4011f10f	2.280338
178	0xbf2341a8	-0.6377206
179	0x3f27d858	0.6556449
180	0xbf06c591	-0.5264521
181	0xbf29e897	-0.6637053
182	0x4008fcae	2.1404223
183	0xbda69264	-0.081333905
184	0xc00f6dd0	-2.2410774
185	0x3d7826d9	0.060583923
186	0xbe4ab502	-0.19795612
187	0x3e847321	0.25869086
188	0x3f4b5559	0.79427105
189	0x3f39de86	0.7260517
190	0x3def7a5f	0.11693262
191	0x3efdab21	0.49544623
192	0xbd9eaa80	-0.07747364
193	0x3f5a6b4b	0.85319966
194	0x3fa6b6f4	1.3024583
195	0x3e8a6cd9	0.2703617
196	0x3f318dae	0.6935681
197	0x3e9d610a	0.30738097
198	0xbe33f909	-0.17575468
199	0xbf4660ec	-0.7749164
200	0xbf8b91a6	-1.0903823
201	0x3e1c4cbb	0.15263645
202	0xbf48dea5	-0.7846473
203	0x3f686c73	0.9079048
204	0x400ee6d2	2.2328382
205	0xc00c47ff	-2.1918943
206	0xbf9f8ef4	-1.2465501
207	0x400f6ad9	2.2408965
208	0x3e3c8740	0.18410969
209	0x3ff8d434	1.9439759
210	0xbfda64f6	-1.7062061
211	0x3f0541a5	0.5205329
212	0xbfcf23fb	-1.6182855
213	0x3f635093	0.8879482
214	0xbfb739dc	-1.4314532
215	0xbf395e33	-0.7240936
216	0x3faba6af	1.3410243
217	0x4016c3c7	2.3556993
218	0xbf1d0a3e	-0.61343753
219	0x3fe82f2a	1.8139393
220	0x3efa6294	0.48903334
221	0xbf398e4e	-0.72482765
222	0x3f8cc1a1	1.0996591
223	0x3f2a12ba	0.66434824
224	0x3e4dd5f1	0.20101143
225	0xbf11546d	-0.5676945
226	0x3eebe5f7	0.46073887
227	0x3f968fce	1.1762636
228	0xc01e0d1b	-2.46955
229	0x3f38bba9	0.72161347
230	0x3eb825bc	0.3596629
231	0x3ff5abbd	1.9193035
232	0x3ba009ff	0.004884004
233	0xbf4bc0cf	-0.7959108
234	0x3fc63b54	1.5486856
235	0x3e9e412b	0.30909094
236	0x3ff65488	1.9244547
237	0xbe08241c	-0.13295025
238	0x3fa9821b	1.324283
239	0x3fbde5be	1.4835737
240	0xbe98cc45	-0.29843345
241	0xbe6684bf	-0.22511576
242	0x3f3ccdf4	0.7375176
243	0xbeb355ac	-0.350263
244	0x3fc76322	1.5577128
245	0xbf964d7d	-1.1742398
246	0xbf315ac8	-0.69279146
247	0x4010b136	2.260816
248	0x3fa0ae2a	1.2553151
249	0xbf0edce6	-0.55805814
250	0x3faa523e	1.3306348
251	0x40044334	2.0666018
252	0xbea65850	-0.32489252
253	0x3f254145	0.6455272
254	0xbf88569f	-1.0651435
255	0xbe7b8e60	-0.2456603

weight f4 [7, 8]
0	0x3e559f2d	0.20861502
1	0x3f8f2eeb	1.1186193
2	0x3f800d72	1.0004103
3	0xbf837ddc	-1.0272784
4	0xbf691e53	-0.91061896
5	0xbf5cc5f5	-0.8623956
6	0xc00aae8d	-2.1669037
7	0x3df2c793	0.11854472
8	0x3d57f2b0	0.05272168
9	0xbf47f410	-0.78106785
10	0x3f7d3f64	0.9892485
11	0xbf34385f	-0.70398515
12	0xbf045dd8	-0.51705694
13	0xbfc0b0d0	-1.5053959
14	0x3e763a6f	0.24045728
15	0xbe8c2966	-0.27375335
16	0xbf41403d	-0.75488645
17	0xbe468ed1	-0.19390418
18	0x3da1b42c	0.07895693
19	0xbe6b4370	-0.22974944
20	0x3fce1f7f	1.6103362
21	0x3e48cfcd	0.1961052
22	0x3f5ac930	0.8546324
23	0xbf3cb854	-0.7371876
24	0xbef22064	-0.47290337
25	0x3e3b790d	0.18307896
26	0xbfa0ac33	-1.2552551
27	0x3eee11cc	0.46497953
28	0x3ea0104c	0.31262434
29	0xbf05120f	-0.5198068
30	0xbe217d96	-0.15770563
31	0x3f2d3939	0.6766544
32	0xbe5fd551	-0.21858718
33	0xbfd1db55	-1.639506
34	0x3ecc5696	0.3990981
35	0x3f14a556	0.5806478
36	0x3f19b38c	0.6003959
37	0x3f78375d	0.9695948
38	0x3f77a1bf	0.9673118
39	0x3f3dba05	0.7411197
40	0xbe7b9709	-0.24569334
41	0x3f943c99	1.1580993
42	0x3ebef671	0.37297395
43	0xbf1c08c6	-0.6095089
44	0xbf57a4ba	-0.8423573
45	0xbf8c5b3d	-1.0965344
46	0x3e6c0ba0	0.2305131
47	0xbf153970	-0.5829077
48	0xbf8d0f78	-1.1020346
49	0x3fa72950	1.3059483
50	0x3f0112e3	0.50419444
51	0xbb374035	-0.0027961854
52	0x3ff8e6a0	1.9445381
53	0xbfa842bb	-1.3145365
54	0xbf4ed372	-0.8079139
55	0xbf347d5b	-0.7050378

weight f4 [7, 8]
0	0x3edd97c7	0.4327986
1	0xbedfda59	-0.43721274
2	0xbf46594d	-0.7748001
3	0xbf8270a3	-1.0190624
4	0x3e5653fa	0.20930472
5	0x3f14f722	0.58189595
6	0x3f229810	0.6351328
7	0xbeb39528	-0.35074735
8	0x3f17df46	0.59325063
9	0xbfc0e638	-1.5070257
10	0xbf8f5294	-1.1197076
11	0xbfc7d9c6	-1.5613334
12	0xbfc5e9b6	-1.5461948
13	0xbebe45ad	-0.37162533
14	0x3f2eafa4	0.68236756
15	0x3f91d5f9	1.1393424
16	0xbf4f96fc	-0.8108976
17	0xbf9917a6	-1.1960342
18	0x3efdab1d	0.49544612
19	0x3ee14ba6	0.44003028
20	0xbfab5895	-1.3386408
21	0x3f1edf64	0.6205962
22	0x3e9f9518	0.31168437
23	0xc0109a8e	-2.2594333
24	0xbdbc5f61	-0.091978796
25	0x3e7840cd	0.2424347
26	0xc04243aa	-3.03538
27	0x3f934911	1.1506673
28	0xbf6ce6fe	-0.92539966
29	0x3f0697d7	0.5257544
30	0x3eb425a3	0.35184965
31	0x3f803651	1.0016576
32	0xbf8241ca	-1.0176327
33	0xbf3074c2	-0.6892816
34	0xbf1dcec2	-0.6164361
35	0x3f4125b4	0.75448155
36	0x3f72bebb	0.9482228
37	0xbf136926	-0.5758232
38	0x3ec8217b	0.39088044
39	0x3f103941	0.5633736
40	0x3f7c7740	0.9861946
41	0xbf1eadd1	-0.6198397
42	0x3f23d069	0.63989884
43	0x3e936774	0.28789866
44	0x3fcee041	1.6162187
45	0x3ec794e1	0.38980773
46	0x3f098ea4	0.5373328
47	0xbfb43d86	-1.4081275
48	0xbee66346	-0.44997615
49	0x3cbf37d6	0.023342054
50	0x3fb602cd	1.4219605
51	0xbea97b3f	-0.33101842
52	0xbf3e5565	-0.7434905
53	0xbe79d846	-0.24398908
54	0xbf6ff412	-0.93731797
55	0x3f5539f0	0.8329153

weight f4 [7, 8]
0	0xbe8f5e79	-0.28001764
1	0x3e833eda	0.2563389
2	0x3eb53ff8	0.35400367
3	0x3ecd5597	0.40104362
4	0x3edf3e30	0.43602133
5	0xbf56db32	-0.83928216
6	0xbec9ed12	-0.39438683
7	0x3e85f453	0.26162967
8	0xbf448413	-0.7676403
9	0xbf9349c4	-1.1506886
10	0xbf5398c9	-0.82655007
11	0xbf0f4e15	-0.5597852
12	0x3f4a7134	0.79078984
13	0xbfa6e3fe	-1.3038328
14	0xbf1eb3d1	-0.6199313
15	0x3f2ef66e	0.6834477
16	0xbfd6298e	-1.6731431
17	0x3fddaec9	1.7318965
18	0xbf2066ea	-0.62657034
19	0xbe5f205f	-0.21789692
20	0xbf778048	-0.96680117
21	0x3f772779	0.96544605
22	0x3eaebd6b	0.3412889
23	0xbf469145	-0.77565414
24	0xbe85b17f	-0.2611198
25	0x3e5ea1d4	0.2174142
26	0xbfc79161	-1.5591241
27	0x3f4fae3c	0.81125236
28	0xbf5ca6d3	-0.86192054
29	0xbfc1e209	-1.5147105
30	0x3e9a2b04	0.30110943
31	0xbf23e4e2	-0.6402112
32	0x3e9ddb5f	0.3083143
33	0x3f5efe85	0.87107116
34	0xbf60ba47	-0.87784237
35	0x3ecb2187	0.39674017
36	0x39a7e6d0	0.0003202469
37	0xbe01ccca	-0.12675777
38	0x3fcad9f5	1.5847765
39	0x3f251bff	0.64495844
40	0xbeb9ad1d	-0.36264887
41	0x3f99d435	1.2017885
42	0x3eaaa3fd	0.33328238
43	0xbf710e0f	-0.94162077
44	0x3eae35e6	0.34025496
45	0x3edaff4e	0.42772907
46	0xbe9dfb50	-0.308558
47	0xbf32713f	-0.6970405
48	0xbf756a13	-0.9586498
49	0x3fb8853f	1.4415663
50	0x3f0e14bd	0.55500394
51	0xbe03ae98	-0.12859571
52	0x3f948266	1.1602294
53	0x3fdfe51c	1.7491794
54	0xbf2dfa13	-0.6795971
55	0xbe60e71e	-0.21963164

weight f4 [6, 8]
0	0xbe96ecbf	-0.29477498
1	0xbf20827a	-0.6269909
2	0xbf4bade4	-0.7956221
3	0xbd9e7346	-0.077368304
4	0x3fd1dbb5	1.6395174
5	0x4001eec0	2.0301971
6	0xbffcddc2	-1.9755175
7	0x3f5eac45	0.8698161
8	0xbf6d74f8	-0.92756605
9	0xbf5094c6	-0.8147701
10	0xbe49ec8f	-0.19719146
11	0xbe0f7e4d	-0.14013024
12	0xbf80e7d1	-1.0070745
13	0x3f3709fb	0.71499604
14	0x3f6057c5	0.87633926
15	0x3f238070	0.63867855
16	0x3f75095b	0.957174
17	0xbeb5e475	-0.3552586
18	0x3fdbf434	1.71839
19	0x3f0e94d1	0.55695826
20	0x3f1e0753	0.61729926
21	0xbeb93c64	-0.36178887
22	0x3df5b9fe	0.11998366
23	0xbf52ad7f	-0.82295984
24	0xbf08b964	-0.53407884
25	0xc0383d28	-2.8787327
26	0x3f9d33bf	1.2281417
27	0x4003dc34	2.0603151
28	0x3e6b3de4	0.22972828
29	0xbd8a63ad	-0.06757293
30	0xbf0436d4	-0.5164616
31	0xbf7bc52c	-0.98347735
32	0x3e034d12	0.12822369
33	0xbfababa1	-1.3411752
34	0x3fe2ab28	1.7708483
35	0x3fcead9a	1.6146729
36	0x3fc71d6a	1.5555851
37	0xbd744746	-0.059638284
38	0xbe8b00ef	-0.2714915
39	0xbf419535	-0.75618297
40	0xbf13653b	-0.5757634
41	0x3f563583	0.836754
42	0x3f5f2de3	0.8717939
43	0x3fa5bb16	1.2947719
44	0xbea02852	-0.31280762
45	0xbfb535f9	-1.4157096
46	0x3fc52e11	1.5404683
47	0x3fab76a8	1.3395586

weight f4 [16, 1, 3]
0	0xbe777867	-0.24167024
1	0xbd727047	-0.059189107
2	0x3efd9941	0.49530986
3	0xbe1dfa78	-0.15427577
4	0x3e258fcd	0.16168137
5	0xbf25321f	-0.64529604
6	0xbe6d0ab6	-0.23148617
7	0xbf18bb1c	-0.59660506
8	0x3e8410a6	0.25793952
9	0x3ef6a929	0.48175934
10	0xbe9e62f5	-0.30934873
11	0xbe34dc5e	-0.17662188
12	0x3ec54eb5	0.3853661
13	0xbf003da9	-0.50094086
14	0x3d6fad16	0.058514677
15	0x3f23fb67	0.64055485
16	0xbf0692d7	-0.5256781
17	0x3cbb8aee	0.022893395
18	0x3e16ed23	0.14738898
19	0x3d9f6028	0.07782012
20	0xbf6ef92f	-0.93348974
21	0xbf060d5b	-0.5236413
22	0x3f226c38	0.6344638
23	0x3d209794	0.039207056
24	0x3ef93c56	0.48678845
25	0xbf01bad7	-0.5067572
26	0xbe41a635	-0.18911059
27	0xbee3f66d	-0.44523945
28	0x3efe556f	0.49674556
29	0x3d0406d1	0.032233063
30	0x3ec50cf0	0.38486433
31	0xbf0110c0	-0.50416183
32	0xbe773f1e	-0.24145171
33	0xbf1f2f19	-0.6218124
34	0x3da237ff	0.07920837
35	0xbe4c49ac	-0.19949979
36	0xbf250a16	-0.64468515
37	0x3f002e5b	0.5007073
38	0x3e268c4b	0.16264455
39	0x3e04de91	0.12975527
40	0x3e5b5871	0.21420456
41	0xbf2380c5	-0.6386836
42	0x3d8b04d6	0.06788032
43	0xbd8c401e	-0.06848167
44	0x3f3bb209	0.73318535
45	0xbef102b2	-0.4707237
46	0x3f171756	0.5901998
47	0x3c1c8afd	0.009554622

bias f4 [16]
0	0xbec3536e	-0.3814959
1	0x3db402ff	0.08789634
2	0x3eb49b93	0.35274944
3	0xbec779f0	-0.38960218
4	0xbdae26ea	-0.08503516
5	0xbd0999c2	-0.0335939
6	0x3cf691bc	0.030098788
7	0x3d81dbea	0.063407734
8	0xbe882754	-0.26592505
9	0xbf14d618	-0.5813918
10	0xbe887744	-0.26653492
11	0xbeeda12a	-0.4641202
12	0xbee1f8a7	-0.4413502
13	0xbdcb2f1f	-0.09921097
14	0xbc589c3d	-0.013220844
15	0x3e93c6dc	0.28862655

weight f4 [32, 16, 3]
0	0xbe879c52	-0.2648645
1	0x3ea577b5	0.32317892
2	0xbe888497	-0.26663658
3	0xbe0a8d16	-0.13530383
4	0xbdf64bd1	-0.120261796
5	0x3ea9eef3	0.33190116
6	0xbdf88ec8	-0.12136608
7	0xbeda5eeb	-0.42650542
8	0xbd58dd7e	-0.052945606
9	0x3ddbde9d	0.107358195
10	0xbcf724fc	-0.030169003
11	0xbd28fc04	-0.041255966
12	0x3dc23383	0.09482481
13	0xbf458c5d	-0.771673
14	0x3bce548d	0.0062967003
15	0xbc999c42	-0.018751267
16	0xbf24e7a4	-0.64415956
17	0x3e053957	0.13010155
18	0xbe52de53	-0.20592622
19	0x3e4f938e	0.20271131
20	0x3ebab9fc	0.3647002
21	0x3d9fb917	0.07798975
22	0x3b48ed8f	0.0030659174
23	0x3e8227ac	0.25420892
24	0x3d9a1ffb	0.07525631
25	0xbf033f7e	-0.51268756
26	0xbdd1e2d5	-0.10248343
27	0xbdf6158b	-0.12015828
28	0xbcefba4d	-0.02926364
29	0x3d81cdb3	0.06338062
30	0xbda77115	-0.081758656
31	0xbef94c1b	-0.48690876
32	0xbbdc7197	-0.006727408
33	0x3e614cd5	0.22001965
34	0xbf1540ac	-0.58301806
35	0x3ee6dee5	0.4509193
36	0xbe8e485d	-0.27789584
37	0x3e97ff7c	0.29687107
38	0xbeb17e1c	-0.34666526
39	0xbdcaf4c4	-0.099099666
40	0x3e89662d	0.26835766
41	0x3eb475a9	0.35246018
42	0x3ec819d0	0.39082193
43	0xbc86402f	-0.016388027
44	0x3ec88eb4	0.39171374
45	0x3c90318f	0.017601756
46	0x3e8506c4	0.25981724
47	0xbd95d669	-0.07316286
48	0xbc581eda	-0.013190949
49	0x3e57673d	0.21035476
50	0xbe8ccb91	-0.2749906
51	0xbe95d59f	-0.29264542
52	0x3e58e501	0.21181108
53	0xbf02c6b5	-0.5108445
54	0x3d678fe5	0.056533713
55	0xbeb6d7d2	-0.35711533
56	0x3d0c99ee	0.034326486
57	0x3e7a817a	0.24463454
58	0xbe9ab327	-0.30214807
59	0x3d6caae5	0.057780165
60	0xbe09dc44	-0.13462931
61	0xbeca2439	-0.3948076
62	0x3e48eda2	0.196219
63	0x3c34b2ab	0.011028926
64	0xbf300aa6	-0.6876625
65	0x3cf04ea5	0.029334376
66	0xbe519a6d	-0.20469065
67	0x3eb0f8bb	0.34564766
68	0xbf592c15	-0.8483289
69	0x3d8704e8	0.06592733
70	0x3ecd418e	0.40089077
71	0xbda26603	-0.079296134
72	0x3ba33171	0.004980259
73	0xbee01b28	-0.4377072
74	0x3e9e0e5a	0.30870324
75	0x3e78e37f	0.24305533
76	0x3cb8afdb	0.022544792
77	0xbcc23bec	-0.023710214
78	0xbc7fd51a	-0.015614772
79	0xbebd6c1f	-0.36996552
80	0x3e8284f8	0.25492072
81	0x3ead934a	0.33901435
82	0xbe1dd439	-0.15412988
83	0x3d62bbd8	0.055354923
84	0x3e11003c	0.14160246
85	0x3e9ad6c4	0.30241978
86	0x3c029a68	0.007971384
87	0xbe102281	-0.14075662
88	0x3e536e3f	0.20647524
89	0xbf4c3802	-0.7977296
90	0xbdd57b0e	-0.104238614
91	0xbe00337d	-0.12519641
92	0x3e152b92	0.14567402
93	0x3e9d98c9	0.30780628
94	0x3e980590	0.29691744
95	0xbe5e8573	-0.21730594
96	0x3e823e94	0.25438368
97	0x3d08f85b	0.033439975
98	0xbdd6e054	-0.10492006
99	0x3bff367a	0.0077884765
100	0xbc0b7115	-0.008510848
101	0x3e39f0c0	0.18158245
102	0x3ee1abc1	0.4407635
103	0x3e7d653a	0.24745646
104	0xbb0bf3ae	-0.0021354961
105	0xbdfa6118	-0.122255504
106	0x3edc7939	0.43061236
107	0x3e829abf	0.25508687
108	0xbe55f792	-0.20895222
109	0x3eecd664	0.46257317
110	0xbd828352	-0.063727036
111	0xbef5c5d1	-0.48002484
112	0x3e77c968	0.24197924
113	0x3e8f9f70	0.2805133
114	0x3dd0aeca	0.10189588
115	0x3ec5f874	0.38666117
116	0x3e7b76b4	0.24557
117	0x3e0d2886	0.1378499
118	0x3d583a7c	0.05279015
119	0x3e899c20	0.26876926
120	0xbebfc07b	-0.37451538
121	0x3e9fab1f	0.31185243
122	0x3edde19f	0.43336198
123	0x3d875bf9	0.06609339
124	0xbe0cfb30	-0.13767695
125	0x3e822d82	0.25425345
126	0xbedf22b1	-0.43581155
127	0x3f188549	0.59578377
128	0xbe7ecef4	-0.24883634
129	0xbb1d3985	-0.0023990583
130	0xbd5aa511	-0.053380076
131	0x3e881948	0.26581788
132	0x3e6c6ebd	0.23089118
133	0xbd8ff0d7	-0.070283584
134	0x3ebbc4c7	0.36673567
135	0x3c35196e	0.011053426
136	0x3e348b69	0.17631306
137	0xbcb725e6	-0.022356939
138	0x3e9e01ab	0.30860648
139	0x3ea8708f	0.32898375
140	0xbdf6acab	-0.120446526
141	0x3e3bc612	0.18337277
142	0xbe6a509d	-0.22882314
143	0x3dd3bb1b	0.10338422
144	0xbea6d50d	-0.3258442
145	0x3e24e930	0.16104579
146	0xbe380d24	-0.17973763
147	0x3e80bf7d	0.25146094
148	0xbf949ae4	-1.1609769
149	0x3e226748	0.15859711
150	0xbd4816e8	-0.04884997
151	0x3dbe486e	0.092911586
152	0xbe152108	-0.14563382
153	0xbddddb41	-0.10832835
154	0x3c3a68a3	0.011377486
155	0x3e1490ae	0.14508316
156	0xbd74e8d5	-0.05979236
157	0xbdcb47d7	-0.09925812
158	0xbd8021fc	-0.06256482
159	0xbd1b6a99	-0.037943456
160	0xbe488e84	-0.19585615
161	0xbe359f9d	-0.17736669
162	0x3ce9bdff	0.02853298
163	0xbeb1513f	-0.34632298
164	0xbd97ff96	-0.07421796
165	0x3a57875e	0.00082217704
166	0xbed60f44	-0.41808522
167	0x3d194d1f	0.037427064
168	0xbe86113d	-0.26185027
169	0x3f13e729	0.577746
170	0x3de1244e	0.10993253
171	0xbd8dd7c3	-0.06925919
172	0xbf27c31d	-0.65532094
173	0x3a565dcf	0.0008177431
174	0x3d713bdd	0.05889498
175	0x3ee893e2	0.45425326
176	0x3caec27c	0.021332972
177	0x3e9bd52a	0.3043607
178	0xbd1e4997	-0.0386444
179	0xbd005643	-0.031332266
180	0xbdf803a4	-0.121100694
181	0xbc1e229c	-0.009651806
182	0x3bbf2fce	0.005834556
183	0x3e25cdc4	0.16191775
184	0xbf38166d	-0.7190922
185	0x3e3ec157	0.18628441
186	0xbea70a99	-0.32625273
187	0xbe0311a6	-0.12799701
188	0xbddcd88c	-0.107834905
189	0xbdde7694	-0.10862461
190	0xbf0dc6db	-0.55381554
191	0x3cd41595	0.025889197
192	0x3d1e788c	0.03868918
193	0xbd75b1c0	-0.05998397
194	0x3e85f79b	0.2616547
195	0xbe0a08a2	-0.13479856
196	0x3e695664	0.22786862
197	0xbed9d72a	-0.4254697
198	0xbe88727f	-0.26649854
199	0x3d42b162	0.047532447
200	0x3f093398	0.5359435
201	0xbd94cee7	-0.07266026
202	0xbec71e8b	-0.3889049
203	0x3e9642f6	0.29347962
204	0x3d38af8e	0.045089297
205	0xbe2ec3f0	-0.17066932
206	0x3daeb868	0.085312665
207	0xbe1d9a68	-0.15390933
208	0xbe5c5e8b	-0.2152044
209	0x3b9adf00	0.0047262907
210	0xbdc47b58	-0.095938385
211	0xbc4275e6	-0.0118689295
212	0xbda7b5a6	-0.081889436
213	0x3c34ca8a	0.011034617
214	0x3cdaff9f	0.026733218
215	0xbf5e7748	-0.8690076
216	0x3c924c37	0.017858608
217	0xbf277bdf	-0.6542339
218	0x3ea6003c	0.32422054
219	0xbe025e6f	-0.12731336
220	0xbdbb30b6	-0.0914015
221	0xbf633361	-0.88750273
222	0x3d5e1f6f	0.054229196
223	0xbed8dd99	-0.42356566
224	0x3e4a773a	0.19772044
225	0xbd954c1c	-0.07289907
226	0x3e252a22	0.16129354
227	0xbe29a898	-0.1656822
228	0x3d42f350	0.047595322
229	0xba98e650	-0.0011665318
230	0xbdd2240b	-0.10260781
231	0x3d33e7a0	0.043922067
232	0x3d50d1a6	0.050981186
233	0xbe7730c2	-0.24139693
234	0xbcde323a	-0.02712356
235	0x3dba5c2c	0.09099612
236	0x3df85cce	0.12127076
237	0x3de1017b	0.109866105
238	0xbe188599	-0.14894713
239	0xbf572a3b	-0.84048814
240	0x3d27efc0	0.041000128
241	0x3e0576b5	0.13033564
242	0x3eae761e	0.3407449
243	0x3eb22592	0.3479429
244	0x3e2aa25b	0.16663496
245	0x3ce798a8	0.028271034
246	0x3e3aa510	0.18227029
247	0x3e22605c	0.1585707
248	0x3d50f0f0	0.051011026
249	0x3d8d3f79	0.06896872
250	0x3e05fe41	0.13085271
251	0x3f0f600a	0.5600592
252	0xbe13b4aa	-0.14424387
253	0x3e2b16c4	0.16707903
254	0x3d68babc	0.05681871
255	0xbdc7a59a	-0.09748383

bias f4 [32]
0	0xbbc2f65a	-0.0059497776
1	0x3cb73498	0.022363946
2	0xbd900170	-0.07031524
3	0x3e15c354	0.14625293
4	0xbdc5ff99	-0.09667892
5	0x3d912e27	0.07088881
6	0x3dfc2c21	0.123131044
7	0xbde4daf8	-0.111745775
8	0x3e09e18a	0.13464943
9	0xbdf5fe0f	-0.120113485
10	0xbdc0ab36	-0.09407656
11	0xbd0bdb2c	-0.034144565
12	0x3d775668	0.060385138
13	0x3dffc52a	0.12488778
14	0xbdd7ba38	-0.10533565
15	0xbd9e9a22	-0.07744242
16	0xbdef4297	-0.11682623
17	0xbdf2d605	-0.11857227
18	0xbdebfdeb	-0.115230404
19	0x3c63dca2	0.013907583
20	0x3daae05c	0.083435744
21	0xbe001727	-0.12508832
22	0xbc9ed254	-0.019387402
23	0xbdb84e3b	-0.08999296
24	0x3dda072b	0.106458984
25	0x3da58897	0.08082693
26	0xbe0c054a	-0.13673893
27	0xbdd12181	-0.102114685
28	0x3d8ff0ae	0.07028328
29	0x3cbfd6c2	0.023417834
30	0x3d8d3093	0.068940304
31	0xbdd410a3	-0.10354736

weight f4 [16]
0	0x3f26fa08	0.6522527
1	0x3f82f5e3	1.0231289
2	0x3f7fa858	0.9986625
3	0x3f4504b0	0.7696028
4	0x3f8075ae	1.0035913
5	0x3f7a0a24	0.97671723
6	0x3f96d6d4	1.178431
7	0x3f908e56	1.1293437
8	0x3f6cfd51	0.9257403
9	0x3f9a6474	1.2061906
10	0x3f819080	1.0122223
11	0x3f512a02	0.81704724
12	0x3f631e08	0.887177
13	0x3f94a475	1.1612688
14	0x3f3a8958	0.7286582
15	0x3f958ab7	1.1682957

bias f4 [16]
0	0xbde59099	-0.112092204
1	0xbf090a62	-0.5353147
2	0xbecc8d86	-0.39951724
3	0xbeba750f	-0.36417434
4	0xbdd84b9f	-0.105612986
5	0xbe82006f	-0.25390956
6	0xbf288e9a	-0.6584259
7	0xbea2fa64	-0.31831658
8	0xbe87ee0c	-0.26548803
9	0xbe8aebb1	-0.27132943
10	0xbe15f4d1	-0.14644171
11	0xbec41bdb	-0.38302502
12	0xbe905501	-0.28189853
13	0xbf1c3731	-0.61021715
14	0xbe33dec5	-0.17565449
15	0xbe83058b	-0.25590166

running_mean f4 [16]
0	0xbec855b4	-0.39127886
1	0x3de28f56	0.110624954
2	0x3eba59e8	0.36396718
3	0xbec60789	-0.38677624
4	0xbdac53a0	-0.08414388
5	0xbd158f76	-0.036513768
6	0x3d686d76	0.056745015
7	0x3d74c957	0.059762325
8	0xbe84bae9	-0.2592385
9	0xbf15bc86	-0.5849079
10	0xbe829e18	-0.2551124
11	0xbee35ebf	-0.44408223
12	0xbee33607	-0.44377157
13	0xbdafe470	-0.08588493
14	0xbd1bc0ed	-0.038025785
15	0x3e920d2d	0.28525677

running_var f4 [16]
0	0x3e902cc3	0.2815915
1	0x3ee2e7ae	0.44317383
2	0x3ee5d1a3	0.44886503
3	0x3ead8e63	0.33897695
4	0x3ec855c6	0.3912794
5	0x3f29dba6	0.6635078
6	0x3f537eff	0.82615656
7	0x3f272aab	0.6529948
8	0x3f00b6c6	0.5027889
9	0x3edbc9aa	0.42927295
10	0x3ede6733	0.4343811
11	0x3ed2255f	0.41044137
12	0x3f291fbf	0.66064066
13	0x3edfe18c	0.43726766
14	0x3f01f83c	0.507694
15	0x3f0ccb07	0.54997295

weight f4 [32]
0	0x3f791650	0.9729967
1	0x3f8ef66f	1.1168956
2	0x3f50cf87	0.8156666
3	0x3f81f679	1.0153342
4	0x3f9355ba	1.1510537
5	0x3f688fe5	0.90844566
6	0x3f5be9e1	0.85903746
7	0x3f7f616f	0.99758047
8	0x3f8096cc	1.004602
9	0x3fb85b1d	1.4402806
10	0x3f94181e	1.156986
11	0x3f8dc916	1.1076992
12	0x3f833a77	1.0252217
13	0x3f895c92	1.0731375
14	0x3f8deced	1.1087929
15	0x3f6a0002	0.9140626
16	0x3f6642f5	0.8994592
17	0x3f5edbc4	0.87054086
18	0x3f8b2449	1.0870448
19	0x3f6732e0	0.90312004
20	0x3f94bd2a	1.1620228
21	0x3f8e27b2	1.1105864
22	0x3f9b5c1e	1.2137487
23	0x3f7b249c	0.98102736
24	0x3f93ee3c	1.1557078
25	0x3f679106	0.90455663
26	0x3f6655f0	0.8997488
27	0x3f9c9639	1.2233344
28	0x3f91233e	1.133888
29	0x3f8aac7c	1.0833888
30	0x3f7a4ed3	0.97776526
31	0x3f8ccd73	1.1000198

bias f4 [32]
0	0xbec2ef60	-0.38073254
1	0xbd713cb3	-0.058895778
2	0xbde5c3b5	-0.11218969
3	0xbeeff419	-0.4686592
4	0xbf0473d6	-0.5173925
5	0x3e08912b	0.13336627
6	0xbdaa18d6	-0.08305518
7	0xbcdfaeac	-0.02730497
8	0xbe6d48a0	-0.23172235
9	0xbef02ea6	-0.4691059
10	0xbecf6dc9	-0.40513447
11	0xbea0e06a	-0.31421214
12	0xbea0626c	-0.3132509
13	0xbe7962c9	-0.2435409
14	0xbec73a6b	-0.38911757
15	0xbde1089d	-0.10987971
16	0x3db1b7b5	0.086776175
17	0xbe411536	-0.18855748
18	0xbd919ee3	-0.07110383
19	0x3cc190b3	0.023628568
20	0xbe081494	-0.132891
21	0xbe028a87	-0.12748156
22	0xbe8b3f0c	-0.27196538
23	0x3d0807c5	0.033210535
24	0xbe936e9e	-0.28795332
25	0xbd6bdd05	-0.057583828
26	0xbeb45540	-0.3522129
27	0x3cf3e7ba	0.029773582
28	0xbd47c574	-0.04877229
29	0xbe7dec20	-0.24797106
30	0xbeb9a39f	-0.36257645
31	0xbeb7c151	-0.35889676

running_mean f4 [32]
0	0xbf5306f5	-0.8243249
1	0xbf21d173	-0.6321022
2	0x400125f8	2.0179424
3	0xbfdee1e6	-1.7412689
4	0xc01b7eee	-2.4296222
5	0x4083a637	4.11404
6	0x403b8fda	2.930655
7	0x3fb30cce	1.3988283
8	0xbf6837ae	-0.9070996
9	0xc04776bd	-3.1166222
10	0xc04472f6	-3.0695167
11	0xbf9ed731	-1.2409421
12	0xbf4dbad0	-0.8036318
13	0xbf52b583	-0.82308215
14	0xc01dba8a	-2.4645104
15	0x3e17d94f	0.1482899
16	0x3f939bd0	1.1531925
17	0x3d49f7f2	0.049308725
18	0x3f01ef10	0.50755405
19	0x3f8544c5	1.0411612
20	0xbf217599	-0.63070065
21	0xbf82dadd	-1.0223042
22	0xbfc09a88	-1.5047159
23	0x3dd5ce5d	0.10439751
24	0xbedfa78a	-0.4368251
25	0x407fb6c9	3.9955313
26	0xc02526b7	-2.580488
27	0xbe0a0933	-0.13480072
28	0xbf4f308d	-0.8093346
29	0xbf77de8f	-0.9682397
30	0xbf6f7f65	-0.93553764
31	0xbbe87618	-0.007094156

running_var f4 [32]
0	0x4055cac7	3.3405015
1	0x407aa37b	3.916228
2	0x40a7a89c	5.239332
3	0x4063f63d	3.5619042
4	0x40ac8ba8	5.392048
5	0x40a902ce	5.2815924
6	0x40586ec6	3.381761
7	0x4049a238	3.150526
8	0x40c1e4b7	6.0591693
9	0x40bebda3	5.960649
10	0x4110d042	9.050844
11	0x40934cc5	4.6031213
12	0x408be11f	4.3712306
13	0x40951cab	4.6597495
14	0x40b1ac31	5.5522695
15	0x406fdd4f	3.7478826
16	0x40584be3	3.3796318
17	0x4096671e	4.7000875
18	0x40a76fd1	5.2323995
19	0x4099bcf9	4.804318
20	0x4086c7f7	4.21191
21	0x40af687a	5.4815035
22	0x40a4eb9b	5.1537604
23	0x4087ad44	4.2399006
24	0x4069ad64	3.651208
25	0x408df37e	4.435973
26	0x4099df1b	4.8084846
27	0x40da2e8c	6.818182
28	0x40f898d3	7.7686553
29	0x40918003	4.5468764
30	0x40466b85	3.1003125
31	0x40adab84	5.427187
