government_icfes_dataset/mlartifacts/294710831823527254/241eee22ca9c4f1288d7467c4cf08d03/artifacts/model/data/model.pth (torch, 443712 bytes, 39 tensors)

weight f4 [4, 4]
1.9915401 3.0630746 -1.6390595 0.31782266 1.5607545 0.62810916 2.4326541 -1.3449947
-0.93657917 -0.6061238 -0.45527846 -0.24631374 -2.0166748 -0.16920365 0.78839594 -1.997081
00000000: c9ea fe3f 6a09 4440 b4cc d1bf a7b9 a23e
00000010: cec6 c73f c3cb 203f 9bb0 1b40 c928 acbf
00000020: a7c3 6fbf ee2a 1bbf 421a e9be ab39 7cbe
00000030: 3311 01c0 b943 2dbe 51d4 493f 5aa0 ffbf

weight f4 [3, 4]
2.2569644 2.2354167 -1.9686276 0.21586232 -2.0376186 -0.15742311 -0.22019745 1.5625241
-0.40800008 0.064858936 -1.1933167 -0.1947767
00000000: 1b72 1040 1111 0f40 fdfb fbbf 030b 5d3e
00000010: 5868 02c0 8633 21be 717b 61be ca00 c83f
00000020: 63e5 d0be c3d4 843d 9abe 98bf 8b73 47be

weight f4 [5, 4]
0.25162947 0.54734576 0.76132756 0.026351951 1.2078604 2.3095107 3.690808 2.1765091
-1.0748211 0.6550735 0.34965503 -0.0013261341 0.18812704 0.18963294 -0.9501949 0.42039505
2.4543266 -1.1421976 -0.9041486 -2.019394
00000000: 94d5 803e da1e 0c3f 5de6 423f 0ce0 d73c
00000010: 2b9b 9a3f 06cf 1340 3336 6c40 ed4b 0b40
00000020: bd93 89bf e6b2 273f fc05 b33e add1 adba
00000030: 60a4 403e 232f 423e f93f 73bf 053e d73e
00000040: b013 1d40 8833 92bf 4876 67bf c03d 01c0

weight f4 [7, 4]
-0.98096186 1.0691189 -1.1824414 -0.65301543 0.8697917 -1.0631117 1.3013505 0.12129273
1.6449492 1.0400884 0.1419988 -0.7384864 -0.76424384 0.28032342 -1.0559555 -0.42152095
1.7567735 0.8315979 0.578384 0.7129114 0.3151248 -0.6496567 -2.018894 -0.029858442
2.0147083 0.059078384 -1.6907223 0.113898136
00000000: 5120 7bbf e3d8 883f 3d5a 97bf 052c 27bf
00000010: abaa 5e3f 0b14 88bf a792 a63f 5368 f83d
00000020: b28d d23f 9e21 853f 2268 113e 720d 3dbf
00000030: 7ca5 43bf 8d86 8f3e 8d29 87bf 98d1 d7be
00000040: f4dd e03f 9ae3 543f f910 143f 5d81 363f
00000050: 0a58 a13e e74f 26bf 8f35 01c0 b199 f4bc
00000060: fbf0 0040 2dfc 713d 9769 d8bf 6d43 e93d

weight f4 [7, 4]
2.141322 1.5120662 1.6941742 -0.26020625 0.33038744 0.468648 0.5280519 0.5501972
-0.068466544 -2.6807165 -0.9711726 -0.3682003 -2.4807954 -1.6767311 -0.7761835 -0.63776356
0.18245314 0.025711443 -0.019367198 1.322145 0.29159915 1.7434775 -0.045421965 -0.23346329
0.9885218 0.06507862 -0.03691799 -2.7029877
00000000: 6b0b 0940 638b c13f b3da d83f c139 85be
00000010: 8b28 a93e a1f2 ef3e 692e 073f b9d9 0c3f
00000020: 3038 8cbd dc90 2bc0 c49e 78bf c084 bcbe
00000030: 5ac5 1ec0 209f d6bf f6b3 46bf 7944 23bf
00000040: ffd4 3a3e cea0 d23c f5a7 9ebc 0c3c a93f
00000050: 7c4c 953e 452a df3f 620c 3abd 0011 6fbe
00000060: c40f 7d3f f147 853d 5137 17bd c0fd 2cc0

weight f4 [1025, 4]
0.8095326 -0.5053499 -1.1826861 -2.5905492 1.0247298 1.0801464 -0.20753033 0.8609503
-0.99344814 -0.6898791 -0.29124063 -0.36958045 -1.0279483 -0.014894986 -0.4950288 -2.3822205
0.15932208 -0.010156675 -0.62626797 -0.314219 0.16902289 -1.4866607 -0.5866299 1.2437491
-0.14817062 -0.33961168 1.2149618 -0.10999944 1.5324093 1.9686009 1.393807 0.5166695
0.21883912 -0.6144529 -1.266279 -0.010322447 0.6546896 -1.2828485 0.7861106 1.7047725
-0.6065995 -0.77362907 0.29617348 2.553405 0.92909026 0.27830994 1.050208 1.462573
-0.43365416 0.17185162 0.123928465 0.600094 0.23943773 0.5274055 1.3195653 0.47952664
-0.8685591 -0.65249306 0.52660763 0.2132749 1.0054746 0.7870069 1.8657439 0.5779226
-1.065302 1.0526857 0.5335012 1.4221163 3.1754434 -0.3556776 -1.1299938 3.3674066
2.5133245 -0.041978598 3.552703 0.04257563 -0.25418565 -3.79123 2.088346 -0.3920068
-1.0390592 -0.7919399 0.46457753 -1.3795288 0.48628673 0.0671291 1.1674035 0.9288637
0.022077065 0.41033685 1.0134437 -1.6991737 1.5789582 -1.1708349 -0.020277862 -0.9927878
1.1590704 -1.7133765 -0.1420572 -1.1812932 0.55968446 1.454423 1.4056113 -1.8888209
0.7467568 0.71036696 -0.3027047 -1.4197693 1.9606099 0.9696114 0.25017345 -0.85726684
-1.8261548 1.3615249 0.93008727 0.2543017 1.4041536 0.58768606 -1.9831921 0.16525802
-2.0798156 -1.3583453 0.44820035 0.973278 -0.4070555 0.77478915 1.89932 -0.37861887
-1.7730376 0.13357869 0.61338997 -0.5596745 0.6429904 0.04111514 1.781211 0.2212255
1.4678091 1.6368629 -1.0389222 2.5771549 -0.28242058 0.023426887 -0.4787922 -1.6729178
-0.23153275 -0.59232306 0.25930417 -1.1352887 1.2857966 -1.1901513 -0.8506639 -0.15103063
0.25276065 -0.18409182 0.72728306 -0.9438185 -0.25518033 0.22955167 -0.54636765 0.16088042
1.2587656 0.061404414 -1.5830901 -0.6417254 0.08422565 -0.06366595 -1.1603109 -0.9871178
1.3049159 -0.23398423 -0.20601934 -2.3166547 2.2551148 -0.5442353 -0.2468636 0.96377677
1.7030163 -3.9462247 1.2817588 0.8848197 0.14592163 0.1501562 0.509378 -0.6576774
0.34630674 -0.95325375 -2.449905 -0.70434785 0.15744385 0.40957996 0.67073226 -1.4674836
1.0939704 -2.9257882 -0.07678854 0.755097 2.0098538 0.22933349 0.12139639 0.009672446
-1.9438006 -1.7595627 -0.039016508 -0.30877057 1.4197971 -0.059750464 2.4786205 2.7075322
2.6977074 0.89258873 1.10846 -0.43489164 -1.3060764 1.442307 1.5363219 0.26537362
1.2152859 0.037380733 -1.5295339 0.8728235 0.11667443 -0.48961014 -0.49627018 -2.4986157
-1.9758029 0.8451585 -1.2420233 0.3644825 0.85313714 0.31413424 0.14949816 -0.5156786
-1.0086107 1.3746667 0.09525224 1.2397937 -2.382174 2.3930628 1.6095343 -0.2886217
-0.5344309 0.55776745 -2.5577798 -0.40905297 3.548695 0.009432318 -1.1477696 0.23500203
1.7317398 2.0454738 0.018126966 -0.9639385 0.68544745 1.5817157 0.74806535 -4.062451
00000000: 873d 4f3f 9c5e 01bf 4262 97bf 8fcb 25c0
00000010: 592a 833f 3d42 8a3f d582 54be 3d67 5c3f
00000020: 9e52 7ebf eb9b 30bf 7e1d 95be a639 bdbe
00000030: cf93 83bf 190a 74bc 6a74 fdbe 4d76 18c0
00000040: 5425 233e 2f68 26bc 1953 20bf 50e1 a0be
00000050: 5614 2d3e e64a bebf 612d 16bf 2c33 9f3f
00000060: 0aba 17be 95e1 adbe de83 9b3f 6347 e1bd
00000070: fd25 c43f 1dfb fb3f 4568 b23f 7444 043f
00000080: 5d17 603e c94c 1dbf 6e15 a2bf 7b1f 29bc
00000090: bd99 273f 6134 a4bf 8b3e 493f fc35 da3f
000000a0: 1b4a 1bbf 8e0c 46bf 0da4 973e fd6a 2340
000000b0: dcd8 6d3f a47e 8e3e 376d 863f 9835 bb3f
000000c0: eb07 debe dff9 2f3e 35ce fd3d c39f 193f
000000d0: 2a2f 753e 0c04 073f 84e7 a83f 8484 f53e
000000e0: e459 5ebf c909 27bf c2cf 063f bc64 5a3e
000000f0: 64b3 803f 4979 493f b2d0 ee3f bcf2 133f
00000100: d15b 88bf 68be 863f 8993 083f e807 b63f
00000110: 773a 4b40 601b b6be a3a3 90bf 9783 5740
00000120: 4fda 2040 c0f1 2bbd 7c5f 6340 c963 2e3d
00000130: 9f24 82be 83a3 72c0 76a7 0540 1eb5 c8be
00000140: e4ff 84bf 93bc 4abf 1bdd ed3e 6694 b0bf
00000150: 93fa f83e fb7a 893d 7a6d 953f 03ca 6d3f
00000160: f6da b43c ac17 d23e 86b8 813f 867e d9bf
00000170: 4d1b ca3f ebdd 95bf c21d a6bc 5727 7ebf
00000180: 6b5c 943f ec4f dbbf 7177 11be 9e34 97bf
00000190: 7b47 0f3f 882a ba3f 12eb b33f e2c4 f1bf
000001a0: 742b 3f3f 9cda 353f 1cfc 9abe 00bb b5bf
000001b0: 44f5 fa3f 7438 783f bc16 803e d775 5bbf
000001c0: 71bf e9bf 7346 ae3f 331a 6e3f d533 823e
000001d0: 4ebb b33f 9872 163f 3dd9 fdbf 6639 293e
000001e0: b31b 05c0 42de adbf 847a e53e bf28 793f
000001f0: 9469 d0be 9558 463f eb1c f33f 55da c1be
00000200: e5f2 e2bf dac8 083e 2007 1d3f d446 0fbf
00000210: 059b 243f 5968 283d b9fe e33f f088 623e
00000220: 2be1 bb3f b984 d13f 67fb 84bf 1bf0 2440
00000230: 6e99 90be bee9 bf3c 4024 f5be 2c22 d6bf
00000240: ec16 6dbe 7ca2 17bf 84c3 843e 2451 91bf
00000250: fc94 a43f e156 98bf 1cc5 59bf c6a7 1abe
00000260: d869 813e 9182 3cbe 392f 3a3f 179e 71bf
00000270: ffa6 82be 980f 6b3e c0de 0bbf d6bd 243e
00000280: 3b1f a13f 3283 7b3d b2a2 cabf 1e48 24bf
00000290: 7f7e ac3d 4b63 82bd 1185 94bf c1b3 7cbf
000002a0: 7c07 a73f 9099 6fbe bcf6 52be 1244 14c0
000002b0: cd53 1040 0153 0bbf d0c9 7cbe 13ba 763f
000002c0: 70fc d93f f28e 7cc0 ac10 a43f 8b83 623f
000002d0: 7b6c 153e 8cc2 193e 9966 023f 8c5d 28bf
000002e0: 1e4f b13e 7008 74bf 3ecb 1cc0 2450 34bf
000002f0: f638 213e 77b4 d13e 1cb5 2b3f 81d6 bbbf
00000300: 3907 8c3f 1d40 3bc0 4f43 9dbd 094e 413f
00000310: 72a1 0040 66d6 6a3e ac9e f83d 2e79 1e3c
00000320: 75ce f8bf 5a39 e1bf c6cf 1fbd 2d17 9ebe
00000330: e9bb b53f e7bc 74bd b8a1 1e40 3548 2d40
00000340: 3da7 2c40 b280 643f 04e2 8d3f 1eaa debe
00000350: 832d a7bf 849d b83f 32a6 c43f 0ddf 873e
00000360: 7d8e 9b3f 8a1c 193d c4c7 c3bf 5c71 5f3f
00000370: 01f3 ee3d 2eae fabe 2017 febe 52e9 1fc0
00000380: 1ce7 fcbf 4f5c 583f 9ffa 9ebf 739d ba3e
00000390: 3267 5a3f 34d6 a03e 0c16 193e 8303 04bf
000003a0: 281a 81bf 14f5 af3f 9b13 c33d 8fb1 9e3f
000003b0: 8a75 18c0 f127 1940 3805 ce3f 39c6 93be
000003c0: 77d0 08bf d9c9 0e3f aab2 23c0 646f d1be
000003d0: d21d 6340 028a 1a3c 1dea 92bf 5fa4 703e
000003e0: a6a9 dd3f 0be9 0240 017f 943c acc4 76bf
000003f0: 7c79 2f3f a975 ca3f 3681 3f3f 99ff 81c0

weight f4 [3, 4]
-0.22996093 -0.14723772 0.92584264 -0.17717776 2.3173437 1.9478147 0.09978229 0.363767
0.36550125 0.49750623 -0.5883886 0.6759897
00000000: e17a 6bbe 7cc5 16be 0604 6d3f 166e 35be
00000010: 5c4f 1440 fe51 f93f a85a cc3d ab3f ba3e
00000020: fb22 bb3e 23b9 fe3e a3a0 16bf a90d 2d3f

weight f4 [7, 4]
0.117579445 0.18782882 -0.9205082 -1.0848433 1.4983933 -0.598275 0.51897717 0.38664874
-1.3611398 -0.97990197 -0.6528194 0.2596964 -0.32671213 -1.1358265 -0.13738398 -0.74114406
-0.5870324 1.13819 -0.45780212 -0.49187845 0.7421732 0.06849774 -0.33201167 -1.0821587
1.8483317 0.39183226 2.5294924 -0.7936057
00000000: 7ecd f03d 3356 403e 6da6 6bbf 25dc 8abf
00000010: 5acb bf3f 8d28 19bf b0db 043f d3f6 c53e
00000020: d439 aebf dbda 7abf 2c1f 27bf edf6 843e
00000030: d046 a7be c362 91bf 63ae 0cbe 9ebb 3dbf
00000040: c147 16bf 36b0 913f 0a65 eabe 7ed7 fbbe
00000050: 10ff 3d3f 8b48 8c3d 6ffd a9be 2d84 8abf
00000060: 2296 ec3f 3d9e c83e 34e3 2140 be29 4bbf

weight f4 [7, 4]
-0.7000591 -0.14219944 1.0026014 0.01784446 -1.3630106 -0.545405 0.4076929 1.0238055
0.006501478 -0.5122668 0.22452755 0.33938006 -0.081395335 -0.61371243 -0.16689302 0.09242687
-0.31276265 0.19452862 1.0800588 0.21404275 -0.34335095 0.2599988 0.57115227 0.52276134
-0.8314218 -0.44902107 0.85597825 -0.014385937
00000000: 1337 33bf bb9c 11be 3e55 803f 8c2e 923c
00000010: 2277 aebf a99f 0bbf 20bd d03e 0f0c 833f
00000020: 5a0a d53b eb23 03bf 8dea 653e 39c3 ad3e
00000030: 99b2 a6bd 421c 1dbf 01e6 2abe 4c4a bd3d
00000040: 6d22 a0be 8332 473e 5e3f 8a3f 062e 5b3e
00000050: b2cb afbe 901e 853e 0937 123f b0d3 053f
00000060: 0fd8 54bf 17e6 e5be 6421 5b3f feb2 6bbc

weight f4 [3, 4]
3.326223 2.746804 2.0006196 1.8764323 -0.3653757 -0.88870335 -0.11165276 0.16997486
-0.1689444 0.8652036 -1.1039768 -2.6665668
00000000: d6e0 5440 a3cb 2f40 270a 0040 ef2e f03f
00000010: 8612 bbbe 1082 63bf 34aa e4bd e40d 2e3e
00000020: c3ff 2cbe fc7d 5d3f 1d4f 8dbf 08a9 2ac0

weight f4 [427, 4]
1.6184901 -2.2925303 1.1395696 1.3810824 -0.24124688 0.6126489 1.7711546 -0.112093925
1.9465756 -0.59861046 -0.04691839 -1.0474067 0.7101427 0.028256005 0.6144327 0.8967066
2.0365036 0.8177067 0.7577481 0.18096326 -0.4956383 0.19350013 -0.92707235 -2.5272048
0.17371775 2.4901514 -0.5967519 -1.0179244 -1.2890328 0.032912593 -1.3024547 -0.4097749
2.005547 -1.9874883 1.1099843 -0.17949978 -1.1382188 -0.068418995 0.116936706 -3.932783
1.0574285 2.64824 3.3232813 3.953337 0.08250468 -0.101016864 0.8371773 0.4285697
-0.94782573 -0.5294543 -0.075356446 0.16760851 -0.7270105 -0.5657877 0.033788487 -0.508645
-0.12883857 0.20581669 -0.08603554 -0.25828892 0.56864685 -0.82153463 0.9886961 0.20119153
-1.0358094 0.17304125 1.9414179 -0.662663 1.0054296 0.30022082 0.56358594 -0.25484756
-1.5746152 0.976434 1.7067716 1.923159 0.31870455 2.1561246 -0.45048395 -0.77231365
-0.5077642 -0.6177309 -0.7969337 -0.49604887 -2.0244315 1.391394 0.73948264 0.28715274
-2.7780886 0.009590282 0.77884793 0.43877155 -0.87723696 -0.19276439 1.1973263 1.369583
-1.1829724 -0.889016 -2.7227917 0.19309287 -1.0247397 -0.43657476 -1.7437947 -0.6901066
-0.30838013 0.86831754 2.198082 -0.6155468 -1.0731225 0.6251356 0.096236266 0.70147043
-1.0338267 0.100897245 -0.023612844 0.73875374 -0.7529956 -1.598344 1.4850867 2.3018272
0.093263276 -1.5218661 0.6359025 -1.104684 0.5259201 0.010155824 0.3849783 -0.054848015
-0.85607326 -0.5123771 -0.024218705 0.33435813 1.5690986 0.06800654 -1.497778 0.576306
0.8403098 -0.4106067 -0.20612104 0.051155597 0.31628022 -0.31371254 -0.32795662 0.33180988
-0.8481285 -0.66562086 -0.21308373 0.19789429 0.4654803 -2.1661289 -3.9011343 -0.81049156
0.5836414 -0.40290737 -1.0117168 0.35376972 -1.5656643 -0.076679096 0.5677574 1.2378082
1.1537552 0.6180525 0.334872 -0.94372666 -0.92807597 0.8103857 -0.67274356 0.41356552
0.06637793 -0.13284144 0.22652481 0.46283317 -1.0221136 0.4646102 0.41001812 0.09645456
-0.61437255 -0.10165302 -0.7510277 -1.1186239 -0.06994489 1.5531259 -0.7394492 0.85466146
-0.31327567 0.95750356 0.71389854 -0.9949357 -1.134658 -1.3734176 0.46737805 0.28244206
0.09821222 0.23237552 -0.87546235 0.43793026 0.5721727 1.6906456 -1.9203601 -1.434263
0.0054216823 -0.3326731 0.8593293 -1.5141155 2.019189 -0.44754702 -0.32219082 -0.42595524
-2.2510889 0.23394907 -0.56445533 -0.5574193 0.05082381 0.31303543 1.0776349 -0.08447612
-0.39663404 0.8336524 -0.4667529 1.1421199 0.063549384 -0.7780432 -0.48308098 0.2753318
-0.99367344 -1.5142251 -0.2209293 -2.376201 1.6036395 1.1628467 1.9652362 1.3003331
0.087396294 -0.55567545 -1.0742811 -1.3080084 0.70678663 -0.565189 -0.39757618 0.50555927
1.4195964 0.6351169 0.6680021 1.1727395 0.441715 1.7273054 1.9467678 -1.4432433
0.031069687 0.5581744 -1.6574612 -0.102698006 -1.2038546 0.37628973 -0.77319175 -1.2360407
00000000: af2a cf3f d1b8 12c0 6bdd 913f 4fc7 b03f
00000010: 6c09 77be 8fd6 1c3f 32b5 e23f 8091 e5bd
00000020: 6429 f93f 893e 19bf 7f2d 40bd 6c11 86bf
00000030: e9cb 353f 2379 e73c 764b 1d3f 908e 653f
00000040: 1356 0240 3a55 513f c8fb 413f 6f4e 393e
00000050: 4ec4 fdbe e624 463e 9d54 6dbf b9bd 21c0
00000060: 11e3 313e a45e 1f40 bcc4 18bf 594b 82bf
00000070: 07ff a4bf 5bcf 063d d6b6 a6bf 04ce d1be
00000080: e25a 0040 0466 febf f713 8e3f cace 37be
00000090: 27b1 91bf 421f 8cbd 837c ef3d b7b2 7bc0
000000a0: d159 873f c47c 2940 a4b0 5440 7903 7d40
000000b0: 37f8 a83d eee1 cebd 4051 563f 7d6d db3e
000000c0: b5a4 72bf 518a 07bf 7b54 9abd 91a1 2b3e
000000d0: 5c1d 3abf 76d7 10bf cc65 0a3d 8f36 02bf
000000e0: 42ee 03be 9cc1 523e 6733 b0bd 723e 84be
000000f0: d792 113f 1850 52bf 301b 7d3f 2705 4e3e
00000100: 6795 84bf ba31 313e 6280 f83f 48a4 29bf
00000110: ebb1 803f 8bb6 993e 2b47 103f 617b 82be
00000120: fe8c c9bf 94f7 793f 7e77 da3f 132a f63f
00000130: 3e2d a33e f2fd 0940 d5a5 e6be 59b6 45bf
00000140: d6fc 01bf 9d23 1ebf d903 4cbf 1efa fdbe
00000150: 4990 01c0 3319 b23f bc4e 3d3f af05 933e
00000160: 34cc 31c0 8f20 1d3c 9462 473f aaa6 e03e
00000170: 9a92 60bf 0764 45be fd41 993f 7f4e af3f
00000180: a46b 97bf 8d96 63bf 3842 2ec0 23ba 453e
00000190: ac2a 83bf ba86 dfbe aa34 dfbf d3aa 30bf
000001a0: 00e4 9dbe 0f4a 5e3f 60ad 0c40 7a94 1dbf
000001b0: 145c 89bf e308 203f 8517 c53d 9193 333f
000001c0: 6f54 84bf 37a3 ce3d b96f c1bc f71e 3d3f
000001d0: 52c4 40bf 8996 ccbf 5217 be3f 2351 1340
000001e0: d100 bf3d 82cc c2bf 82ca 223f 4966 8dbf
000001f0: b3a2 063f 9d64 263c e01b c53e 50a8 60bd
00000200: 9e27 5bbf 252b 03bf 4e66 c6bc fd30 ab3e
00000210: 39d8 c83f 0347 8b3d 31b7 bfbf ca88 133f
00000220: 8b1e 573f 0b3b d2be 6511 53be 8888 513d
00000230: 7bef a13e ee9e a0be eee9 a7be fce2 a93e
00000240: f31e 59bf 2166 2abf 9f32 5abe cda4 4a3e
00000250: 6f53 ee3e dba1 0ac0 2fac 79c0 607c 4fbf
00000260: 8669 153f e049 cebe f07f 81bf 4e21 b53e
00000270: b067 c8bf ee09 9dbd 8d58 113f 8070 9e3f
00000280: 40ae 933f b038 1e3f 5874 ab3e 1298 71bf
00000290: 6396 6dbf 7075 4f3f ec38 2cbf dcbe d33e
000002a0: 27f1 873d 9607 08be 1ff6 673e 78f8 ec3e
000002b0: 9ed4 82bf 63e1 ed3e e5ed d13e f889 c53d
000002c0: 8547 1dbf 752f d0bd 5a43 40bf 112f 8fbf
000002d0: 443f 8fbd d4cc c63f 8b4c 3dbf 18cb 5a3f
000002e0: ab65 a0be f41e 753f 0ec2 363f 1bb4 7ebf
000002f0: 793c 91bf 26cc afbf 2d4c ef3e 3f9c 903e
00000300: 7d23 c93d d9f3 6d3e 4d1e 60bf 6538 e03e
00000310: e979 123f 1367 d83f 5cce f5bf ee95 b7bf
00000320: 5ea8 b13b 2154 aabe 01fd 5b3f 89ce c1bf
00000330: 643a 0140 e224 e5be 32f6 a4be ce16 dabe
00000340: d711 10c0 5890 6f3e 2580 10bf 08b3 0ebf
00000350: a12c 503d 2e46 a03e f1ef 893f d101 adbd
00000360: 9e13 cbbe 3e6a 553f 3cfa eebe fc30 923f
00000370: 2e26 823d d72d 47bf 6456 f7be 4af8 8c3e
00000380: 6261 7ebf 21d2 c1bf 4a3b 62be ad13 18c0
00000390: 0f44 cd3f 29d8 943f dc8c fb3f 5171 a63f
000003a0: d4fc b23d bf40 0ebf 0b82 89bf d26c a7bf
000003b0: f8ef 343f 3ab0 10bf 1b8f cbbe 556c 013f
000003c0: 56b5 b53f 0597 223f 3002 2b3f 541c 963f
000003d0: 7828 e23e 5818 dd3f b02f f93f 32bc b8bf
000003e0: db85 fe3c 84e4 0e3f b027 d4bf 5553 d2bd
000003f0: e817 9abf 0ca9 c03e e5ef 45bf 9536 9ebf

weight f4 [1030, 4]
-0.03156377 0.55220443 0.09522151 -0.061134744 -0.18556876 -0.91661507 -0.20813116 -0.9971617
-2.075796 -1.4348333 0.18153574 -0.5676545 -0.14020684 1.4738473 0.45772693 -0.7116689
0.5186329 0.21406218 0.6634421 1.1575165 -0.82106656 0.41121727 1.3486505 -0.3518935
-0.52794665 -1.2865598 -0.74473757 -0.6462994 0.92587 0.48626745 -1.0098097 0.8122763
-0.99688077 1.4011896 -0.9863967 1.181268 -1.1202657 -0.41781417 0.8761008 -0.046841096
0.6132158 -2.006401 -0.2196484 0.38574257 0.56345594 -1.9025401 0.90197563 0.7692027
-2.015202 0.24058671 -0.15972082 -0.8390106 0.15106258 1.4744375 0.016035225 -0.68197656
-0.8934772 -0.54961246 -0.4708439 -1.1365718 4.052278 -0.33813924 -0.44822466 -0.16439393
-1.9164356 0.91378075 1.3127592 1.9352188 -2.8791604 -2.0547128 -1.4890668 -0.51602525
1.2217414 -1.5499268 -2.28077 -2.2109337 0.7130132 0.22920203 1.8568709 -1.1100758
-1.3474772 -0.95466197 -0.5985939 -0.76075083 -1.1513939 0.018105283 -0.6122933 0.9267898
-0.5514888 -0.04245698 2.2814047 0.44824022 0.2538186 -1.3672689 -2.130647 -0.2781179
1.4736474 -1.326426 -0.58432096 -0.16434127 0.72942454 0.6405373 1.6009815 -0.22376215
-1.104839 -0.38469496 0.302843 0.55670327 1.692244 -0.84899825 0.7356828 0.01350481
-0.0011973269 0.71475357 1.2777234 -0.8537816 -0.2247113 0.37335408 -0.92355007 -0.99103963
-0.08344655 0.27765602 1.6457791 -0.08662959 2.0402882 -0.121080235 -2.6219354 1.6777407
-0.87501687 -1.83712 -0.551302 1.1583575 -0.3398491 -0.97035193 1.1642513 -1.5491755
-0.23510846 -0.14617556 0.8384721 0.81902975 -0.49895355 -0.23479618 -0.58321685 0.16122212
-0.729717 -0.95895565 -0.43515033 -0.6324054 2.3468058 0.05754764 0.38771304 -1.3116983
0.5997243 0.54832757 0.81398594 0.001833577 0.59131175 -0.3852836 0.7823902 -0.3579557
0.50087047 0.4695215 0.11070895 0.14613025 0.18930443 0.2286091 0.2921752 0.80206
-2.6439247 0.014521867 0.018336698 -1.1656528 1.6169063 -0.82718503 -0.25899464 -0.07630647
0.21250302 0.8269621 1.8374809 -1.2013543 0.29121053 0.62152696 1.6738236 -0.62517214
-0.1611485 -1.8685961 1.057922 -0.53848755 -0.19410741 -0.20579846 -0.084044546 0.3154984
-0.41891372 -0.38427934 0.682585 -0.18166295 -1.0348736 -2.3780956 1.6215659 1.1556334
-2.3795676 -1.4627172 2.128985 0.08703838 -0.5949363 2.7122536 -3.0145411 1.9557811
1.2941892 0.6006282 1.5708891 1.3637233 -0.7553611 -0.15843888 0.66155714 -0.5620879
-1.3391734 1.15028 -0.15178159 2.912146 1.2344298 0.66318816 1.7055168 0.09462222
0.07976078 -0.07786359 2.0026178 3.6659186 0.41515037 0.46020323 0.62521946 0.3130531
1.3369923 2.1523788 -0.41567203 0.9316942 -1.0801536 1.6176816 0.9004016 -0.25998244
-1.3085095 -0.761814 -0.54761374 1.9496982 -0.43629143 -1.050031 -0.5465414 -0.27751458
0.33509493 -0.29057145 0.8951813 -0.16549866 -0.10282283 0.3713019 2.590301 -1.273956
00000000: 0349 01bd 455d 0d3f 7f03 c33d 6d68 7abd
00000010: bd05 3ebe 49a7 6abf 5620 55be fd45 7fbf
00000020: d7d9 04c0 9ea8 b7bf 81e4 393e ce51 11bf
00000030: 6292 0fbe 07a7 bc3f 2f5b ea3e ef2f 36bf
00000040: 20c5 043f 1e33 5b3e 57d7 293f 8029 943f
00000050: 6b31 52bf 128b d23e 94a0 ac3f 632b b4be
00000060: 8327 07bf fead a4bf 1fa7 3ebf e173 25bf
00000070: d105 6d3f 0cf8 f83e 7241 81bf 57f1 4f3f
00000080: 9433 7fbf 2e5a b33f 7e84 7cbf ca33 973f
00000090: de64 8fbf bdeb d5be 2448 603f 73dc 3fbd
000000a0: b6fb 1c3f e068 00c0 83eb 60be 0d80 c53e
000000b0: a63e 103f 6f86 f3bf e0e7 663f 78ea 443f
000000c0: 12f9 00c0 5d5c 763e db8d 23be 66c9 56bf
000000d0: 26b0 1a3e 5eba bc3f 4e5c 833c 0496 2ebf
000000e0: ecba 64bf 67b3 0cbf 7412 f1be 2f7b 91bf
000000f0: 43ac 8140 9620 adbe b47d e5be e256 28be
00000100: c34d f5bf 89ed 693f 7e08 a83f 40b5 f73f
00000110: 2a44 38c0 6a80 03c0 be99 bebf 3b1a 04bf
00000120: 0662 9c3f 0064 c6bf 23f8 11c0 f07f 0dc0
00000130: 0888 363f f0b3 6a3e f2ad ed3f f716 8ebf
00000140: 227a acbf ba64 74bf 733d 19bf 91c0 42bf
00000150: e060 93bf 8851 943c 41bf 1cbf 1942 6d3f
00000160: 5f2e 0dbf 5fe7 2dbd 8902 1240 be7f e53e
00000170: 83f4 813e ab02 afbf 855c 08c0 7865 8ebe
00000180: 7aa0 bc3f 54c8 a9bf 0f96 15bf 1449 28be
00000190: 91bb 3a3f 41fa 233f f6ec cc3f e821 65be
000001a0: 5d6b 8dbf bdf6 c4be 3d0e 9b3e 1b84 0e3f
000001b0: 749b d83f f357 59bf b555 3c3f 4743 5d3c
000001c0: a0ef 9cba 17fa 363f 718c a33f 6e91 5abf
000001d0: b81a 66be 4428 bf3e c76d 6cbf c6b4 7dbf
000001e0: 06e6 aabd ee28 8e3e e4a8 d23f db6a b1bd
000001f0: 1594 0240 eaf8 f7bd cacd 27c0 35c0 d63f
00000200: 1b01 60bf c026 ebbf 2122 0dbf 0f45 943f
00000210: b400 aebe fc68 78bf 3006 953f 624b c6bf
00000220: 46c0 70be 0caf 15be 1ca6 563f efab 513f
00000230: d776 ffbe 696e 70be b34d 15bf 6917 253e
00000240: bcce 3abf 1e7e 75bf 06cc debe 52e5 21bf
00000250: 1132 1640 13b7 6b3d 5382 c63e bbe5 a7bf
00000260: 8887 193f 325f 0c3f 6261 503f a254 f03a
00000270: 3560 173f e443 c5be b94a 483f f845 b7be
00000280: 0c39 003f 1f65 f03e 60bb e23d 2ba3 153e
00000290: 05d9 413e 8118 6a3e fd97 953e ce53 4d3f
000002a0: 1036 29c0 20ed 6d3c d836 963c 1c34 95bf
000002b0: c9f6 ce3f 66c2 53bf f29a 84be 9146 9cbd
000002c0: 649a 593e cab3 533f 9332 eb3f fac5 99bf
000002d0: 8c19 953e 641c 1f3f da3f d63f 480b 20bf
000002e0: 1d04 25be 282e efbf fd69 873f 52da 09bf
000002f0: 18c4 46be d5bc 52be 8c1f acbd 0289 a13e
00000300: dc7b d6be 43c0 c4be e4bd 2e3f da05 3abe
00000310: bd76 84bf b832 18c0 798f cf3f cceb 933f
00000320: d64a 18c0 513a bbbf 4a41 0840 2e41 b23d
00000330: bf4d 18bf 9095 2d40 3eee 40c0 0957 fa3f
00000340: fea7 a53f c5c2 193f e512 c93f 7c8e ae3f
00000350: 585f 41bf cd3d 22be cf5b 293f fee4 0fbf
00000360: 096a abbf 603c 933f a26c 1bbe 9a60 3a40
00000370: cc01 9e3f b3c6 293f 604e da3f 4bc9 c13d
00000380: 9f59 a33d f276 9fbd e42a 0040 699e 6a40
00000390: 978e d43e c29f eb3e 620e 203f 7f48 a03e
000003a0: 9022 ab3f 93c0 0940 f7d2 d4be 8383 6e3f
000003b0: 7942 8abf 3110 cf3f b880 663f 6b1c 85be
000003c0: 3d7d a7bf 3e06 43bf 6a30 0cbf b68f f93f
000003d0: 9761 dfbe 6a67 86bf 23ea 0bbf 6416 8ebe
000003e0: 9091 ab3e c8c5 94be 9a2a 653f 7b78 29be
000003f0: c794 d2bd 481b be3e 7ec7 2540 fd10 a3bf

weight f4 [7, 4]
-0.1701833 -0.31984535 0.5159591 -0.74161154 -0.7394823 -0.17231503 0.65048814 -0.415477
0.3805546 -0.5976588 0.44098982 -0.8443658 0.80925345 0.043067202 0.6049151 -0.41756442
0.5103064 0.89824045 0.5933408 -0.15109047 -0.44163385 -0.67465824 -0.36384404 1.4853611
-0.08020701 -0.013795861 0.7236171 0.26424026
00000000: 8844 2ebe c5c2 a3be e515 043f 41da 3dbf
00000010: b64e 3dbf 5a73 30be 6486 263f 67b9 d4be
00000020: 0dd8 c23e 2b00 19bf 6bc9 e13e 5b28 58bf
00000030: 3c2b 4f3f 3c67 303d b7db 1a3f 01cb d5be
00000040: 71a3 023f 16f3 653f 2fe5 173f 76b7 1abe
00000050: d51d e2be 67b6 2cbf c449 babe 5020 be3f
00000060: 9343 a4bd 0908 62bc f83e 393f 804a 873e

weight f4 [7, 4]
-1.812701 -0.35266417 -0.2362417 -0.6293252 -0.46550176 -0.18599424 0.22705954 -1.3268709
0.4490618 0.9794098 -0.5897363 0.8357875 0.82754606 0.91200125 1.8589076 -0.3220538
-0.68065095 -0.37109733 0.48217848 0.62129897 -0.81310993 0.430727 0.7664002 0.45649472
-0.8602858 -1.2453789 -0.31036636 1.8946314
00000000: 9606 e8bf 6690 b4be 58e9 71be 751b 21bf
00000010: 3f56 eebe 4675 3ebe 4c82 683e e8d6 a9bf
00000020: 6eeb e53e 9aba 7a3f f5f8 16bf 2bf6 553f
00000030: 0fda 533f ea78 693f aff0 ed3f 3ce4 a4be
00000040: 243f 2ebf 7800 bebe 19e0 f63e 730d 1f3f
00000050: f927 50bf 4088 dc3e ce32 443f adb9 e93e
00000060: b13b 5cbf 9368 9fbf 57e8 9ebe 4883 f23f

weight f4 [7, 4]
1.7269098 -0.7542375 1.0001516 -0.9727156 0.7646797 0.8018098 0.2606818 -0.543857
-0.22276816 -0.5692333 -0.27471533 -0.19513187 0.71178955 -0.3129503 0.38627833 -0.54607224
-0.38088328 -0.6175163 0.42116687 -0.5990898 -0.84655887 -0.11614321 0.67040205 -0.61559963
-0.94469726 -0.06659445 0.50295657 -0.8121068
00000000: 610b dd3f b515 41bf f804 803f e403 79bf
00000010: 0cc2 433f 6843 4d3f 1678 853e 363a 0bbf
00000020: 561d 64be 46b9 11bf 7da7 8cbe a6d0 47be
00000030: d737 363f 063b a0be 46c6 c53e 64cb 0bbf
00000040: 2203 c3be 8c15 1ebf 2fa3 d73e f35d 19bf
00000050: 15b8 58bf 7edc edbd 789f 2b3f f097 1dbf
00000060: aed7 71bf ac62 88bd c3c1 003f 3be6 4fbf

weight f4 [6, 4]
0.32933965 1.5105827 2.3446972 -0.833675 -0.18167202 0.6184597 -1.0959573 -0.9294746
-1.3855453 -1.1754744 -1.124272 -0.8394176 2.1926143 -1.9783946 -0.7413518 0.11828811
0.6106006 -1.7058259 -0.8944432 -0.55475765 0.6206892 1.1760994 0.6998712 0.38102305
00000000: 359f a83e c65a c13f 850f 1640 ba6b 55bf
00000010: 3b08 3abe 6053 1e3f 5448 8cbf 0cf2 6dbf
00000020: 8c59 b1bf f275 96bf 25e8 8fbf 12e4 56bf
00000030: cb53 0c40 093c fdbf 3bc9 3dbf 0941 f23d
00000040: 5250 1c3f 8158 dabf 3bfa 64bf 9904 0ebf
00000050: 7de5 1e3f 6d8a 963f c22a 333f 7415 c33e

weight f4 [32, 1, 3]
-0.78939885 -0.48746762 0.70802057 -0.56507754 1.229755 -0.005366776 -0.23138219 1.0496469
0.60481334 0.5820633 -0.23312847 0.9107024 -0.012580359 -0.9077238 -0.609438 0.70461535
-0.9258968 -0.35304916 0.8955571 0.0076388903 -0.6254754 0.8101779 0.6663798 -0.2895335
0.032308172 0.1931032 -2.5240183 -0.037265375 0.52001935 -1.456738 0.6299989 -0.6817547
-0.74879974 -0.91050446 0.78712344 -0.09264193 0.040911287 -0.9132802 -0.627504 0.56562304
-0.36415902 0.90174496 0.69594693 -0.009453686 0.93806255 -0.03484071 0.79723567 0.75560486
0.8574498 -0.8295135 -0.124296986 0.3190335 -1.4437419 0.2907207 0.69724905 -0.7772791
-0.5133892 0.021960698 -1.2995756 0.7487045 -0.8668607 0.92788917 0.004958482 -0.021637613
0.8584755 0.7412856 0.40746585 -1.3379954 0.2142946 -0.68114895 1.0035709 0.11294388
0.43321994 0.3329978 -1.0726006 0.8811266 0.78657085 -0.14857031 0.01902237 -0.020146413
3.2253342 -0.05645746 -0.123471506 3.7260752 -0.16329636 -0.12246657 3.79197 0.051116187
0.81470865 0.6516756 0.4512547 -1.7250067 0.21233152 -0.40442887 1.2091887 0.50019205
00000000: 0b16 4abf 5b95 f9be d640 353f eca8 10bf
00000010: 9d68 9d3f c8db afbb 74ef 6cbe d45a 863f
00000020: 0cd5 1a3f 1a02 153f 3bb9 6ebe cb23 693f
00000030: da1d 4ebc 9660 68bf 2104 1cbf ac61 343f
00000040: 9307 6dbf dcc2 b4be 3b43 653f a84f fa3b
00000050: 281f 20bf d267 4f3f de97 2a3f bc3d 94be
00000060: 9355 043d d8bc 453e 8489 21c0 94a3 18bd
00000070: fd1f 053f 6476 babf 9c47 213f 7a87 2ebf
00000080: 57b1 3fbf d216 69bf ec80 493f 0dbb bdbd
00000090: 9892 273d bbcc 69bf 1aa4 20bf accc 103f
000000a0: 0d73 babe c2d8 663f 9429 323f a2e3 1abc
000000b0: de24 703f 22b5 0ebd a317 4c3f 526f 413f
000000c0: d581 5b3f ff5a 54bf 6b8f febd 5c58 a33e
000000d0: 89cc b8bf 58d9 943e ea7e 323f c3fb 46bf
000000e0: 7a6d 03bf ece6 b33c 7e58 a6bf 19ab 3f3f
000000f0: 95ea 5dbf 258a 6d3f c37a a23b 5d41 b1bc
00000100: 0dc5 5b3f e5c4 3d3f 5d9f d03e 6f43 abbf
00000110: 0b70 5b3e c75f 2ebf 0375 803f 1f4f e73d
00000120: 01cf dd3e b07e aa3e fa4a 89bf 8391 613f
00000130: b55c 493f d122 18be cdd4 9b3c 170a a5bc
00000140: e06b 4e40 f03f 67bd a1de fcbd 0478 6e40
00000150: 2937 27be c1cf fabd a3af 7240 355f 513d
00000160: bf90 503f 36d4 263f db0a e73e 05cd dcbf
00000170: 6f6d 593e 4d11 cfbe b2c6 9a3f 960c 003f

bias f4 [32]
-0.23574193 -0.48185623 -1.1821167 0.823558 -1.5734025 0.31920278 0.10258831 -0.34908018
-0.9379475 -0.18229632 -0.71644986 -0.16062218 0.15963897 0.83363676 0.29386806 -0.33135757
0.60165405 1.4047343 1.8828061 0.722633 -0.5749212 -0.2354543 -0.40270102 -0.43672895
1.0347655 0.0646144 0.71258336 1.2264452 1.2213652 -1.2433974 -0.007843113 -1.1846254
00000000: 5566 71be dcb5 f6be 9a4f 97bf b2d4 523f
00000010: 4165 c9bf 8c6e a33e d219 d23d a3ba b2be
00000020: 541d 70bf e3ab 3abe 4269 37bf 247a 24be
00000030: 6678 233e 3869 553f e075 963e b3a7 a9be
00000040: 0006 1a3f 55ce b33f caff f03f 7afe 383f
00000050: 092e 13bf ef1a 71be d42e cebe f09a dfbe
00000060: 3273 843f 8e54 843d dd6b 363f 28fc 9c3f
00000070: b255 9c3f a527 9fbf 6680 00bc cea1 97bf

weight f4 [64, 32, 3]
0.38563055 0.097368315 0.70783347 -0.045001123 0.118672825 -1.8501334 -0.21749076 -0.29655662
-1.7460679 -0.2541109 0.33816385 0.022032376 -0.2096683 -2.1135714 -0.07130753 -0.15256204
-1.460717 0.81265587 -0.23764864 0.5075854 0.5158501 0.40428135 -0.109315544 -0.5045049
-0.057203103 0.48965743 -2.6116176 0.022091072 0.42027628 -3.016428 0.0048562502 -1.7688335
1.4097509 -0.023644138 -0.08578787 -0.8707226 0.090261236 -2.4691055 0.13468874 -0.19566193
0.43075708 0.12478079 0.4722447 0.2515002 0.6111684 -0.10606028 -0.37455058 -1.720311
-0.22950414 -1.3149792 0.7285613 -0.3923328 0.9542048 -0.058282502 -0.10030658 -1.1998955
1.1344724 -0.72229356 0.7418727 0.2864238 0.24066374 0.32590264 -0.8447092 0.19054238
-0.05358512 -2.0802023 -0.45077547 0.43139392 0.21306245 0.01509159 -0.4164132 -0.14404158
-0.46300226 0.31351388 0.41936812 0.17607772 0.078113586 -0.19776437 0.050858866 0.5448341
0.8742152 -0.03326634 0.112849474 0.602238 0.3524696 0.099198215 0.5246458 0.04234144
-0.10880336 -2.2555227 -0.009567946 0.26243693 -0.069270864 0.026546998 -0.014040397 -2.4573612
0.16020145 -0.09224808 -0.14025423 0.13709334 -2.1911104 -0.30873698 0.31575733 -2.0950704
-0.3989481 0.7267922 -1.369533 1.9600168 0.5079823 -0.29554495 0.80934685 0.22314519
0.08004537 0.42081395 0.01238245 0.28867075 -1.4318938 0.46705818 1.0710061 -1.4673358
0.8537656 -0.5317457 0.090152845 0.10095596 -1.1856915 -0.1579809 -0.09063989 0.572623
0.12607239 0.41063955 -1.4480479 -0.9196159 0.4689409 -0.04092272 0.605928 0.31200188
-1.6221006 2.39557 0.14432232 -1.9299287 1.627347 0.28117594 -1.4358715 0.09610683
0.10140391 -0.03558967 0.52152175 0.0998747 0.17813665 0.20040035 -0.3847422 0.6414298
-0.19508426 0.19834253 0.2401594 0.09085609 0.2867742 -1.717585 -0.6080164 0.03386691
-1.6208491 0.08102656 0.15565026 0.33883712 0.52763015 0.26458913 -1.8479439 -1.4319954
-0.06670404 0.07012365 -0.16355824 0.12348715 0.45661464 -1.7542847 0.27694795 0.13768816
0.10174239 0.29068324 -0.4608501 0.08428999 -0.09604351 0.47713152 0.4055439 -0.075618625
-1.7554014 -0.15185481 -0.015179108 -0.05056285 0.35371435 -0.119721875 -1.7437229 -0.5567927
-0.5419738 0.9319699 -0.8144146 0.3289099 -1.7287742 0.2944057 0.64488554 -1.545932
0.7759047 0.9281517 -0.15351759 0.3494432 -0.9640283 -0.50080895 -0.21621478 -0.07913033
0.53713673 0.6189289 0.7358667 1.1483387 0.09754695 1.4275577 0.28320268 0.24129897
0.1454044 -0.6234457 0.78162414 0.8604018 -0.75053835 0.2580957 0.05678839 0.7389361
0.21717718 0.1343184 -1.5534153 0.71416795 -0.9027366 -0.07739286 0.20669974 1.6764777
-0.2921142 0.42605045 1.1727746 -0.3763147 0.07442301 0.37368256 -1.3564208 0.25616562
-0.086486064 0.8468925 0.6799029 0.14415249 0.040146105 -0.30044317 -0.32996756 0.49508455
0.19813485 -0.22069171 -0.04998449 -0.25334874 0.21843624 -1.1829387 0.2271027 0.6708268
00000000: 5e71 c53e 0a69 c73d 9334 353f 1953 38bd
00000010: bd0a f33d 2cd1 ecbf e6b5 5ebe 45d6 97be
00000020: 277f dfbf d31a 82be d023 ad3e 3e7d b43c
00000030: 49b3 56be c144 07c0 af09 92bd 3939 1cbe
00000040: c6f8 babf 370a 503f 2a5a 73be 1ef1 013f
00000050: c10e 043f f7fd ce3e d4e0 dfbd 3c27 01bf
00000060: cd4d 6abd 61b4 fa3e be24 27c0 56f8 b43c
00000070: 742e d73e 280d 41c0 2e21 9f3b 2369 e2bf
00000080: b872 b43f 5ab1 c1bc 8db1 afbd ade7 5ebf
00000090: e2da b83d d305 1ec0 d8eb 093e 9a5b 48be
000000a0: 318c dc3e 128d ff3d 0fca f13e a2c4 803e
000000b0: 8875 1c3f 2236 d9bd 18c5 bfbe 2733 dcbf
000000c0: 2203 6bbe 3d51 a8bf fe82 3a3f d8df c8be
000000d0: c446 743f a2b9 6ebd 896d cdbd 2d96 99bf
000000e0: 6436 913f 3be8 38bf 5feb 3d3f 24a6 923e
000000f0: 8e70 763e b6dc a63e dd3e 58bf 8b1d 433e
00000100: 127c 5bbd 0922 05c0 0bcc e6be aadf dc3e
00000110: 0b2d 5a3e b742 773c 1c34 d5be a37f 13be
00000120: a20e edbe e484 a03e 6bb7 d63e b84d 343e
00000130: 04fa 9f3d be82 4abe 6351 503d 3f7a 0b3f
00000140: 91cc 5f3f 4942 08bd a01d e73d 452c 1a3f
00000150: e576 b43e 6f28 cb3d 304f 063f 386e 2d3d
00000160: 4cd4 debd 7c5a 10c0 e0c2 1cbc 225e 863e
00000170: e2dd 8dbd 1779 d93c b109 66bc 6845 1dc0
00000180: d90b 243e 90ec bcbd ce9e 0fbe 3262 0c3e
00000190: 273b 0cc0 c612 9ebe f2aa a13e a215 06c0
000001a0: ed42 ccbe 0e0f 3a3f db4c afbf d5e1 fa3f
000001b0: 210b 023f ab51 97be 5b31 4f3f 2c80 643e
000001c0: d4ee a33d ed74 d73e c2df 4a3c a7cc 933e
000001d0: 4c48 b7bf 4022 ef3e ba16 893f a9d1 bbbf
000001e0: 6290 5a3f 7c20 08bf 0ea2 b83d 00c2 ce3d
000001f0: bdc4 97bf bfc5 21be 68a1 b9bd 6c97 123f
00000200: 1f19 013e 593f d23e a259 b9bf f36b 6bbf
00000210: 0619 f03e 959e 27bd 191e 1b3f b6be 9f3e
00000220: fea0 cfbf 0551 1940 3bc9 133e e707 f7bf
00000230: e84c d03f 4bf6 8f3e a3ca b7bf a8d3 c43d
00000240: daac cf3d 79c6 11bd 7382 053f 1b8b cc3d
00000250: 7469 363e c035 4d3e eefc c4be be34 243f
00000260: 2bc4 47be 4e1a 4b3e 59ec 753e c212 ba3d
00000270: 11d4 923e d3d9 dbbf f6a6 1bbf 07b8 0a3d
00000280: fc77 cfbf 41f1 a53d c862 1f3e 0f7c ad3e
00000290: c512 073f 3a78 873e 6d89 ecbf a04b b7bf
000002a0: 219c 88bd fd9c 8f3d d07b 27be d5e6 fc3d
000002b0: 65c9 e93e 678c e0bf 1fcc 8d3e 20fe 0c3e
000002c0: 505e d03d 6fd4 943e 8bf4 ebbe 3ba0 ac3d
000002d0: 76b2 c4bd 954a f43e 73a3 cf3e f0dd 9abd
000002e0: feb0 e0bf d47f 1bbe cbb1 78bc fe1a 4fbd
000002f0: 0c1a b53e be30 f5bd 5032 dfbf f789 0ebf
00000300: ccbe 0abf 9495 6e3f 7a7d 50bf e166 a83e
00000310: 7948 ddbf 58bc 963e 3817 253f 1ae1 c5bf
00000320: b1a1 463f 5a9b 6d3f b733 1dbe 38ea b23e
00000330: 8fca 76bf 0435 00bf 6867 5dbe 150f a2bd
00000340: cb81 093f 2072 1e3f c361 3c3f c3fc 923f
00000350: b2c6 c73d 36ba b63f f1ff 903e 1417 773e
00000360: e4e4 143e 239a 1fbf 8518 483f 4b43 5c3f
00000370: 4823 40bf 1f25 843e f19a 683d eb2a 3d3f
00000380: b263 5e3e c38a 093e 50d6 c6bf b6d3 363f
00000390: bf19 67bf 2680 9ebd 19a9 533e d296 d63f
000003a0: fe8f 95be 4923 da3e 7a1d 963f 52ac c0be
000003b0: 176b 983d 5253 bf3e 329f adbf 2428 833e
000003c0: 9b1f b1bd f2cd 583f 1e0e 2e3f b69c 133e
000003d0: 3e70 243d b0d3 99be 82f1 a8be b97b fd3e
000003e0: dde3 4a3e 02fd 61be 89bc 4cbd edb6 81be
000003f0: c0ad 5f3e 896a 97bf 9c8d 683e 4ebb 2b3f

bias f4 [64]
-0.078333125 0.772445 0.2427385 0.13981046 0.9678544 -0.7256188 0.10902077 0.17588373
-0.15745555 0.57231313 -0.050420452 0.43389454 -0.11026063 -0.12796573 0.06768525 -0.43543187
-0.24713655 -0.14160241 0.5980982 0.15142293 -0.24039866 -0.056382567 0.08197837 0.09487311
0.24897091 -0.17263374 -0.10092665 0.21024093 0.062136497 -0.38349706 0.46822998 -0.63729274
-0.019065903 0.0438272 0.30072153 0.23484492 0.16549313 0.8153543 -0.076088876 -0.2769038
-0.19399528 -0.53117245 -0.5924067 0.23672867 0.723435 -0.2506423 0.18504012 -0.6841088
0.3385849 0.024524627 0.050915387 -0.73287684 0.74767286 0.11769037 -0.37726468 0.3209929
-0.71990854 0.8808984 0.13219774 -0.12184302 -0.076832555 0.1181349 0.41729864 0.7984084
00000000: 1e6d a0bd f5be 453f 7190 783e 792a 0f3e
00000010: 4ec5 773f 27c2 39bf 4846 df3d dd1a 343e
00000020: 073c 21be 1d83 123f ad85 4ebd 6d27 de3e
00000030: 53d0 e1bd 7309 03be 909e 8a3d edf0 debe
00000040: 5d11 7dbe 3900 11be f71c 193f 9d0e 1b3e
00000050: 112b 76be 68f1 66bd 47e4 a73d d54c c23d
00000060: 3bf2 7e3e e6c6 30be a2b2 cebd 6649 573e
00000070: d782 7e3d ba59 c4be d7bb ef3e 9e25 23bf
00000080: 1930 9cbc 2684 333d 2cf8 993e 307b 703e
00000090: 0877 293e 0fbb 503f 7cd4 9bbd 56c6 8dbe
000000a0: b3a6 46be ebfa 07bf f7a7 17bf 0069 723e
000000b0: 0933 393f 3054 80be 287b 3d3e c121 2fbf
000000c0: 005b ad3e dfe7 c83c a78c 503d d19d 3bbf
000000d0: 7d67 3f3f a607 f13d d628 c1be 2e59 a43e
000000e0: ed4b 38bf 8f82 613f d85e 073e d588 f9bd
000000f0: 635a 9dbd b6f0 f13d 2ba8 d53e 7e64 4c3f

weight f4 [32]
0.742868 0.9185883 1.0233945 1.0321642 1.7319974 0.919914 0.8537854 1.0241112
1.4742975 1.380515 1.065146 1.4273785 1.8793837 0.92110866 0.96233284 1.170286
1.0730705 1.207731 0.99130154 1.4149879 1.3285626 1.2330441 1.1505274 1.3099298
1.0262065 0.89567965 0.81894135 0.8249667 0.78562176 1.1643043 1.2737974 1.0772688
00000000: 992c 3e3f 9a28 6b3f 97fe 823f f51d 843f
00000010: 17b2 dd3f 7c7f 6b3f ae91 5a3f 1316 833f
00000020: c8b5 bc3f b7b4 b03f b456 883f 57b4 b63f
00000030: a58f f03f c7cd 6b3f 725b 763f efcb 953f
00000040: 605a 893f ee96 9a3f f0c5 7d3f 531e b53f
00000050: 570e aa3f 64d4 9d3f 7b44 933f c8ab a73f
00000060: bc5a 833f 434b 653f 24a6 513f 0531 533f
00000070: 821e 493f ec07 953f cb0b a33f f2e3 893f

bias f4 [32]
0.008422316 0.08135903 -0.21159716 -0.8822143 -1.1646358 -0.35241327 -0.3100786 -0.8778257
-1.0673791 -0.97852594 -0.8151115 -0.55409056 -1.2725734 -1.0016451 -1.0341784 -0.47936174
-0.26118898 -0.46012446 -0.15815854 -1.213938 -0.3781573 -0.46705496 -0.40506628 -0.8532496
-0.5246313 -0.458018 -0.0070577366 -0.00635786 -0.0054802885 -0.54709417 -0.56584007 -0.015611389
00000000: c1fd 093c 909f a63d edac 58be ccd8 61bf
00000010: c912 95bf 836f b4be 9fc2 9ebe 2fb9 60bf
00000020: e19f 88bf ad80 7abf 26ab 50bf e1d8 0dbf
00000030: afe3 a2bf e835 80bf f55f 84bf e76e f5be
00000040: 90ba 85be 6f95 ebbe 50f4 21be 5262 9bbf
00000050: d59d c1be d421 efbe d964 cfbe 916e 5abf
00000060: 3d4e 06bf 5681 eabe 9644 e7bb 9855 d0bb
00000070: fe93 b3bb 5d0e 0cbf e5da 10bf e9c6 7fbc

running_mean f4 [32]
-0.28035632 -0.42374092 -1.0575027 0.9346766 -1.7104349 0.26880613 0.124840565 -0.24602795
-1.1459689 -0.272077 -0.78724337 -0.1794291 0.028725524 0.93124557 0.43703827 -0.19723828
0.59174734 1.3307983 1.8294111 0.6776595 -0.5654867 -0.0951498 -0.4644367 -0.39733005
1.002143 0.19268993 1.005059 1.5464231 1.5383548 -1.1096721 -0.100344025 -1.0696614
00000000: dd8a 8fbe 92f4 d8be 405c 87bf f746 6f3f
00000010: 88ef dabf f5a0 893e 69ac ff3d c0ee 7bbe
00000020: 1caf 92bf ad4d 8bbe c888 49bf 43bc 37be
00000030: ca51 eb3c 1c66 6e3f 7bc3 df3e d5f8 49be
00000040: c17c 173f 9957 aa3f 252a ea3f 187b 2d3f
00000050: bdc3 10bf e6dd c2bd a6ca edbe d86e cbbe
00000060: 3946 803f 8250 453e c6a5 803f 31f1 c53f
00000070: cfe8 c43f bc09 8ebf 2b81 cdbd aaea 88bf

running_var f4 [32]
1.2319307 1.5635555 1.688443 1.2286285 1.4740443 1.288625 1.0422746 1.2925392
6.195036 2.073012 1.3402423 1.1517899 1.4861593 1.1842378 1.5570861 1.4752988
1.1608081 1.9637843 1.2065502 1.8536581 1.2828624 1.5791072 1.7074662 1.2376249
1.2289261 1.6615105 10.432276 13.684745 14.100173 1.3751267 2.8172352 1.9120973
00000000: e8af 9d3f 9622 c83f e61e d83f b343 9d3f
00000010: 7cad bc3f aaf1 a43f 4169 853f ed71 a53f
00000020: bc3d c640 3bac 0440 0f8d ab3f da6d 933f
00000030: 783a be3f 1b95 973f 994e c73f 97d6 bc3f
00000040: 5c95 943f 495d fb3f 3d70 9a3f ab44 ed3f
00000050: d634 a43f 2f20 ca3f 418e da3f 7e6a 9e3f
00000060: 734d 9d3f 60ac d43f 9aea 2641 b7f4 5a41
00000070: 4f9a 6141 2704 b03f 954d 3440 9bbf f43f

weight f4 [64]
1.2851678 1.7175835 1.0395468 1.0144513 0.935314 0.8443471 1.6099671 0.8062459
0.9436101 0.9110962 1.2043833 1.5284262 1.0238676 1.1812062 0.93112564 1.7217276
1.7530466 1.2479044 1.3294426 1.1261027 1.7480166 1.0230801 1.4759628 1.5418341
1.3667525 1.2268083 1.1161487 0.97823167 1.6110878 1.1808916 1.3422146 1.7297999
1.3724397 1.3554132 1.4444678 1.2717249 1.0275054 1.1720798 1.6884956 0.9804946
1.2961972 1.1425405 1.1784903 1.504428 0.9903861 0.9968798 0.9969478 0.9220547
0.7932944 0.7590095 1.3272359 1.6260194 1.0433671 1.1146272 1.0919116 0.84666276
0.90929145 1.6377997 0.8897969 1.0397077 1.5317242 1.6763737 1.2475812 1.7075502
00000000: 6180 a43f c7d9 db3f df0f 853f 8ad9 813f
00000010: bd70 6f3f 2227 583f 6713 ce3f 2266 4e3f
00000020: 6e90 713f 9a3d 693f 3b29 9a3f 78a3 c33f
00000030: 180e 833f c431 973f 405e 6e3f 9261 dc3f
00000040: d563 e03f 55bb 9f3f 2d2b aa3f 2224 903f
00000050: 02bf df3f 4af4 823f 59ec bc3f d25a c53f
00000060: bff1 ae3f 0e08 9d3f f6dd 8e3f 646d 7a3f
00000070: 2038 ce3f 7527 973f b0cd ab3f 156a dd3f
00000080: 1bac af3f 2e7e ad3f 52e4 b83f e2c7 a23f
00000090: 4c85 833f b606 963f a020 d83f b201 7b3f
000000a0: cae9 a53f c43e 923f c5d8 963f 1991 c03f
000000b0: f289 7d3f 8433 7f3f f937 7f3f c70b 6c3f
000000c0: 5815 4b3f 724e 423f dee2 a93f 6721 d03f
000000d0: 0e8d 853f 1bac 8e3f c2c3 8b3f e4be 583f
000000e0: 53c7 683f 6ca3 d13f bbc9 633f 2415 853f
000000f0: 8a0f c43f 6a93 d63f beb0 9f3f 0191 da3f

bias f4 [64]
-0.8869937 -0.5140718 -0.806047 -0.15236373 -0.49572015 -0.1324547 -1.2073861 -0.4210807
-0.5960823 -1.5172852 -0.2140765 -0.8057673 -0.48455587 -0.7683714 -0.634832 -0.82363206
-0.60737723 -0.58605075 -1.0860103 -0.45080367 -0.42527446 -0.36904758 -0.7679577 -0.73119897
-0.51954556 -0.3608217 -0.39542517 -0.36437196 -0.714711 -0.61284083 -0.5288027 -0.96392477
-0.6482925 -0.83849967 -0.79524225 -0.5282981 -0.6584906 -0.257832 -0.91793025 -0.20344545
-0.9252141 -0.59475005 -0.82174605 -1.3258975 -0.57941604 -0.6305354 -0.94461334 -0.08503793
-0.10353622 -0.13777359 -0.5848511 -0.6821195 -0.6648999 -0.3640852 -0.850743 -0.49720988
-0.19451354 -0.7714447 -0.53493106 -0.21895394 -0.5961989 -0.63925356 -0.76791346 -0.7379642
00000000: 0512 63bf 369a 03bf 1959 4ebf 3d05 1cbe
00000010: 08cf fdbe 34a2 07be a18b 9abf e497 d7be
00000020: da98 18bf 6736 c2bf df36 5bbe c446 4ebf
00000030: b517 f8be fdb3 44bf 5a84 22bf 8dd9 52bf
00000040: 137d 1bbf 6c07 16bf 6302 8bbf bdcf e6be
00000050: 93bd d9be cef3 bcbe e098 44bf db2f 3bbf
00000060: f000 05bf 9fbd b8be 2b75 cabe f68e babe
00000070: 4df7 36bf 23e3 1cbf 9d5f 07bf c6c3 76bf
00000080: 7ff6 25bf eaa7 56bf ff94 4bbf 8b3e 07bf
00000090: d792 28bf 8e02 84be 7afd 6abf 0154 50be
000000a0: d5da 6cbf 8a41 18bf f35d 52bf 02b7 a9bf
000000b0: 9c54 14bf c56a 21bf 2ed2 71bf 5e28 aebd
000000c0: cc0a d4bd 8514 0dbe cdb8 15bf 629f 2ebf
000000d0: e136 2abf 6069 babe 4bca 59bf 4b92 febe
000000e0: 8f2e 47be 667d 45bf 3ef1 08bf 7635 60be
000000f0: 7ea0 18bf 1fa6 23bf fa95 44bf 39eb 3cbf

running_mean f4 [64]
-7.761475 -6.259193 1.7136623 -6.707928 2.3792267 -3.8491623 -0.34901512 -1.5752896
15.555582 -2.267478 -13.80094 -9.779246 -3.152146 -7.1882 3.038689 -9.829639
-9.080359 -2.6834373 -1.5364866 -2.734877 -6.8744392 -6.581201 -6.6591587 -7.794637
-6.7933373 -5.8930483 2.119029 0.29042745 -11.292482 -3.8265855 -5.510578 -11.143168
-11.316429 -5.9912047 -5.363259 -12.895869 -7.916777 -1.2283173 -13.972749 -6.9342036
-6.710506 -6.7831106 4.0699954 -2.104276 -1.1799937 -2.8429027 -2.6938877 -3.348172
-5.403611 -5.705662 -10.259329 -13.090629 0.2883484 -2.9255702 -6.1614985 -0.88025445
0.78359157 -8.671003 -2.6014664 -8.027933 -2.6302533 -9.302577 -9.533814 -12.277548
00000000: 015e f8c0 4f4b c8c0 4959 db3f 59a7 d6c0
00000010: 4045 1840 ad58 76c0 1cb2 b2be 17a3 c9bf
00000020: aae3 7841 5c1e 11c0 a6d0 5cc1 cb77 1cc1
00000030: c3bc 49c0 bc05 e6c0 e179 4240 3446 1dc1
00000040: 2749 11c1 70bd 2bc0 98ab c4bf 3a08 2fc0
00000050: 68fb dbc0 3399 d2c0 d417 d5c0 ab6d f9c0
00000060: 0563 d9c0 da93 bcc0 2c9e 0740 e8b2 943e
00000070: 02ae 34c1 c7e6 74c0 a856 b0c0 6b4a 32c1
00000080: 1810 35c1 f3b7 bfc0 d19f abc0 7b55 4ec1
00000090: 3d56 fdc0 8039 9dbf 6190 5fc1 ffe4 ddc0
000000a0: 77bc d6c0 3e0f d9c0 673d 8240 75ac 06c0
000000b0: 090a 97bf 1ef2 35c0 a868 2cc0 7348 56c0
000000c0: 62ea acc0 c894 b6c0 3626 24c1 3773 51c1
000000d0: 67a2 933e 8b3c 3bc0 ff2a c5c0 5b58 61bf
000000e0: 7599 483f 6ebc 0ac1 6d7e 26c0 6a72 00c1
000000f0: 1256 28c0 5bd7 14c1 818a 18c1 d670 44c1

running_var f4 [64]
116.64977 176.9908 118.6602 166.49533 155.0119 122.05077 139.4765 132.96704
152.36746 110.13719 124.73768 166.82098 125.01084 127.435425 85.74406 178.5009
111.6037 139.61584 99.104004 56.527 258.5187 126.70937 95.09737 119.25953
116.6829 128.95024 181.19048 107.43537 215.26952 112.094925 142.76309 122.630775
196.37328 71.774 152.40634 128.40941 103.87127 119.525406 217.95131 152.3702
136.74304 91.25394 143.63612 135.22014 90.73793 101.67971 103.24618 112.770905
128.82259 107.77178 201.54773 236.64796 73.75627 149.46997 167.4088 65.901245
89.485886 201.54361 93.62042 163.23813 143.85309 210.2095 144.87207 246.46146
00000000: af4c e942 a5fd 3043 0652 ed42 ce7e 2643
00000010: 0c03 1b43 ff19 f442 fc79 0b43 90f7 0443
00000020: 125e 1843 3e46 dc42 b179 f942 2cd2 2643
00000030: 8d05 fa42 f0de fe42 f57c ab42 3b80 3243
00000040: 1835 df42 a89d 0b43 4035 c642 a61b 6242
00000050: 6542 8143 336b fd42 da31 be42 e184 ee42
00000060: a55d e942 43f3 0043 c330 3543 e9de d642
00000070: ff44 5743 9a30 e042 5ac3 0e43 f542 f542
00000080: 8f5f 4443 4a8c 8f42 0668 1843 cf68 0043
00000090: 17be cf42 020d ef42 89f3 5943 c55e 1843
000000a0: 38be 0843 0482 b642 d9a2 0f43 5b38 0743
000000b0: d279 b542 035c cb42 0b7e ce42 b48a e142
000000c0: 95d2 0043 278b d742 388c 4943 e1a5 6c43
000000d0: 3683 9342 5078 1543 a768 2743 70cd 8342
000000e0: c6f8 b242 2a8b 4943 a83d bb42 f63c 2343
000000f0: 64da 0f43 a235 5243 40df 1043 2276 7643
