government_icfes_dataset/mlartifacts/294710831823527254/33986f44d03b439abb4568b7085a72cf/artifacts/model_regression_20250521_140743.pt (torch, 394155 bytes, 39 tensors)

embeddings.0.weight f4 [4, 4]
0.38440138 -0.2580072 0.06680711 -0.26555932 -0.6682912 -0.43305066 -1.0618311 -0.03380769
-1.225803 2.7611618 -2.4914982 -1.8151137 0.48051038 -0.93723315 -0.39788637 0.10503585
00000000: 42d0 c43e 8519 84be 2bd2 883d 64f7 87be
00000010: 2215 2bbf d1b8 ddbe 15ea 87bf ef79 0abd
00000020: 1de7 9cbf e0b6 3040 b574 1fc0 a555 e8bf
00000030: 7505 f63e 83ee 6fbf c3b7 cbbe 091d d73d

embeddings.1.weight f4 [3, 4]
1.3580974 0.2034389 0.19589958 0.68621004 0.17297144 2.431224 -0.041796938 1.7867473
-1.0112293 0.25849044 -2.389208 0.94280803
00000000: 23d6 ad3f 4952 503e e699 483e 76ab 2f3f
00000010: 6d1f 313e 2d99 1b40 4433 2bbd 23b4 e43f
00000020: f66f 81bf dc58 843e c9e8 18c0 de5b 713f

embeddings.2.weight f4 [5, 4]
-0.5112781 -0.76144 -0.7262605 -0.79826146 -1.5647359 -0.33922264 -1.2188331 -1.0813713
-0.43284482 0.4251189 0.7525387 -1.2118309 -0.048719067 0.928257 -0.11573083 -1.2328181
0.081546105 -0.84838307 -2.5107007 -1.9269829
00000000: 1fe3 02bf bbed 42bf 35ec 39bf dd5a 4cbf
00000010: 4449 c8bf 97ae adbe b902 9cbf 606a 8abf
00000020: d69d ddbe 2fa9 d93e 60a6 403f 461d 9bbf
00000030: a58d 47bd 40a2 6d3f 4904 edbd fccc 9dbf
00000040: a501 a73d a22f 59bf 52af 20c0 60a7 f6bf

embeddings.3.weight f4 [7, 4]
1.1911994 -0.78393346 -1.0383812 -0.55046654 -0.956473 1.7520266 0.17608488 0.2602374
1.479312 -0.46717137 -0.61083513 1.9411588 -1.9959309 0.08487646 -0.37212867 0.15887909
0.7630037 1.0183855 1.1184188 1.0753691 -2.3223326 0.8816472 0.008635118 0.6331159
0.14992268 -1.7262691 -1.1602496 0.35840335
00000000: 3979 983f ddaf 48bf ade9 84bf 60eb 0cbf
00000010: 6adb 74bf 6842 e03f 984f 343e d63d 853e
00000020: 185a bd3f 1631 efbe b15f 1cbf e477 f83f
00000030: aa7a ffbf b6d3 ad3d a687 bebe 33b1 223e
00000040: 3654 433f 755a 823f 5928 8f3f b2a5 893f
00000050: 19a1 14c0 a2b3 613f 4f7a 0d3c e213 223f
00000060: 5585 193e 63f6 dcbf 0f83 94bf a580 b73e

embeddings.4.weight f4 [7, 4]
1.3279737 0.005136502 1.0351809 0.9892941 0.0075996136 0.52180594 -1.4459147 1.345346
-1.4934266 3.9255905 -0.9208149 -1.367842 3.8442607 -2.1315916 -1.425945 -0.99831146
0.49949476 0.008305668 -2.3209429 0.8461468 1.3179487 -0.45726985 0.28610787 -1.1633064
0.932356 0.80126435 -0.463886 0.5694365
00000000: 0bfb a93f 1a50 a83b cf80 843f 6142 7d3f
00000010: 2e06 f93b 1395 053f bc13 b9bf 4c34 ac3f
00000020: 9a28 bfbf e03c 7b40 86ba 6bbf 7215 afbf
00000030: 5e08 7640 ff6b 08c0 5e85 b6bf 5791 7fbf
00000040: c7bd ff3e 7f14 083c 548a 14c0 149d 583f
00000050: 8bb2 a83f 461f eabe bb7c 923e 39e7 94bf
00000060: e2ae 6e3f a91f 4d3f 7782 edbe 97c6 113f

embeddings.5.weight f4 [1025, 4]
-0.99207115 -0.65344673 -0.54176545 1.3947141 0.24683104 -1.0111265 -0.87351835 -0.633333
1.3477397 0.65806115 -0.27116817 0.45027357 -0.27715665 1.5066794 -1.2804258 -0.5397081
-0.94215107 -0.39500594 1.8230261 1.1936518 1.6043078 -1.1304042 -0.15236829 0.23611194
0.5753851 0.3156563 0.14524606 0.15812543 0.18725897 -0.97253746 0.15209642 0.3604911
-1.2563468 -2.3690114 -0.20284696 2.102685 -0.56939274 0.3170384 2.4420593 0.21096268
-2.0487716 -0.62063897 -0.621333 0.5721344 -0.22948143 -0.21224417 0.6170894 -1.0604329
-0.37584957 -0.9123448 0.15810424 1.8828237 1.2780447 -1.3903799 -1.137294 0.20265183
0.2797244 0.83389497 1.2377305 -0.709676 1.3599026 -0.15575927 -0.30300507 -0.012716776
0.10721991 0.70525444 1.2118874 0.48605084 -2.403098 -0.44836196 1.1541046 1.0582701
-0.5590703 -0.16960672 0.30567616 -0.3578898 -0.5571848 -1.117065 -0.4804827 -1.1297307
1.9053631 0.9640728 0.69966346 0.106300995 -1.3844231 -0.37704623 0.2338159 1.374277
-0.5325156 0.78810054 -1.2343775 -0.15366715 -0.03729368 -0.39747778 -0.41846967 0.828758
0.13084427 -1.1387306 0.758182 0.65368706 -1.7618618 2.3821926 -0.9942562 -0.71113694
0.0084235445 1.5012177 -1.8389434 0.48377687 1.0908787 0.24714267 1.1771141 -2.1710753
-0.12974986 1.1763358 -0.37533084 -0.89448977 1.1934948 -0.5393356 -0.7063712 1.060637
2.1167583 -0.6485775 -0.65711564 0.41600564 -0.4494805 -0.8513059 0.31911328 -0.48435253
-1.1607256 -1.513833 -0.1785293 -0.07741282 1.5129653 -1.4106573 -0.49267647 -0.43091404
1.2805969 0.14147961 -0.10051345 0.44068164 -1.0706142 -1.3930829 1.6097857 0.055472914
-0.6101655 -0.7524812 -1.1123729 -1.1032465 -1.5306355 0.08149994 0.93531007 -0.29367915
-0.5184843 2.7683392 -0.7276711 -0.48923734 -0.5535554 -0.43819973 -0.60955477 -0.7884168
-0.2782399 2.1081882 0.040150616 0.8091 -0.85926825 1.6389296 -1.2535663 0.6789966
-0.06449838 -0.27082866 -0.11729791 -0.07398673 0.24120519 0.7331196 -0.8557037 -0.9907953
-2.0300395 0.52308875 2.5206194 -2.0123088 -1.2497872 0.16462936 -0.4041054 2.2228384
-0.39362386 -0.42414382 1.4785923 0.17959304 1.268066 -0.9215468 3.2135775 -0.32821178
1.3005654 -1.9489087 0.8559253 1.0855123 1.2619009 0.05794817 -1.5573359 -1.98619
0.26497808 0.8510567 -0.15116036 -0.021441553 -3.0023997 -0.9392405 0.39905712 0.20230329
-0.67136306 -1.4154571 0.4771147 0.09291926 0.9771419 1.4754633 1.051347 -0.045762096
0.96816224 0.5772551 1.1485617 0.37886345 -1.1050332 2.2057228 0.39265817 -1.3327656
0.6999049 -0.17546758 0.1164806 0.79772687 -0.3776991 1.1402409 -1.6197567 -1.4881035
1.7505168 -0.59508777 0.29163918 0.5100876 1.2211845 0.46889615 -2.6573343 -0.2534303
0.6191589 -0.060153592 0.7496756 -1.2941676 -0.007873584 -0.29730123 -0.35377356 0.60014474
1.9770794 -1.2518463 0.03310571 0.14705445 3.1374416 -1.3768108 1.3584875 -1.5359919
00000000: 60f8 7dbf 4948 27bf 24b1 0abf fe85 b23f
00000010: 47c1 7c3e 986c 81bf e69e 5fbf 1d22 22bf
00000020: bc82 ac3f b276 283f 8ed6 8abe 428a e63e
00000030: 7ae7 8dbe dfda c03f fee4 a3bf 4f2a 0abf
00000040: d030 71bf 383e cabe eb58 e93f 95c9 983f
00000050: f559 cd3f 16b1 90bf 6f06 1cbe 54c7 713e
00000060: 704c 133f b49d a13e 62bb 143e a2eb 213e
00000070: d1c0 3f3e 37f8 78bf 2abf 1b3e 4a92 b83e
00000080: f9cf a0bf e29d 17c0 1db7 4fbe 6492 0640
00000090: b9c3 11bf db52 a23e b34a 1c40 9a06 583e
000000a0: 131f 03c0 32e2 1ebf ae0f 1fbf 6677 123f
000000b0: 2efd 6abe 8956 59be 92f9 1d3f 44bc 87bf
000000c0: 5b6f c0be 6e8f 69bf 14e6 213e 5e00 f13f
000000d0: f896 a33f f8f7 b1bf da92 91bf f683 4f3e
000000e0: 0938 8f3e 247a 553f f46d 9e3f 54ad 35bf
000000f0: 4a11 ae3f 5c7f 1fbe 7b23 9bbe 065a 50bc
00000100: 1d96 db3d 8e8b 343f 201f 9b3f a8db f83e
00000110: 5ccc 19c0 b38f e5be b3b9 933f 6575 873f
00000120: 3b1f 0fbf 62ad 2dbe 9681 9c3e 553d b7be
00000130: aaa3 0ebf fcfb 8ebf d401 f6be 049b 90bf
00000140: f0e2 f33f 7acd 763f 251d 333f 56b4 d93d
00000150: c734 b1bf 340c c1be 6f6d 6f3e 4fe8 af3f
00000160: f152 08bf f5c0 493f 1500 9ebf ec5a 1dbe
00000170: 42c1 18bd 3582 cbbe a841 d6be 7c29 543f
00000180: 0afc 053e edc1 91bf 3718 423f 0958 273f
00000190: b084 e1bf d875 1840 9387 7ebf 120d 36bf
000001a0: e802 0a3c e727 c03f 7f62 ebbf 9ab1 f73e
000001b0: eaa1 8b3f f812 7d3e adab 963f e6f2 0ac0
000001c0: 26dd 04be 2c92 963f 5d2b c0be 48fd 64bf
000001d0: 70c4 983f e611 0abf bed4 34bf f4c2 873f
000001e0: f878 0740 2d09 26bf bb38 28bf b1fe d43e
000001f0: 4f22 e6be 2fef 59bf d162 a33e 0efd f7be
00000200: a892 94bf 48c5 c1bf 63d0 36be 9d8a 9ebd
00000210: d9a8 c13f 6b90 b4bf 1740 fcbe c4a0 dcbe
00000220: 99ea a33f 08e0 103e ffd9 cdbd 06a1 e13e
00000230: e309 89bf 8a50 b2bf 750d ce3f 9137 633d
00000240: ce33 1cbf 9ca2 40bf 3c62 8ebf 2e37 8dbf
00000250: ddeb c3bf 71e9 a63d 7b70 6f3f 1d5d 96be
00000260: 63bb 04bf 782c 3140 a748 3abf 517d fabe
00000270: cfb5 0dbf b75b e0be c80b 1cbf afd5 49bf
00000280: 7675 8ebe 8eec 0640 f974 243d 2d21 4f3f
00000290: 01f9 5bbf 72c8 d13f dc74 a0bf b9d2 2d3f
000002a0: ba17 84bd 0eaa 8abe e339 f0bd 5b86 97bd
000002b0: 7efe 763e baad 3b3f 660f 5bbf c3a4 7dbf
000002c0: 2bec 01c0 25e9 053f d451 2140 abc9 00c0
000002d0: 07f9 9fbf 9994 283e e7e6 cebe fc42 0e40
000002e0: 1189 c9be 6129 d9be 8342 bd3f 3de7 373e
000002f0: fd4f a23f 7eea 6bbf 41ab 4d40 600b a8be
00000300: ed78 a63f d775 f9bf ec1d 5b3f 11f2 8a3f
00000310: f885 a13f 0f5b 6d3d c856 c7bf 793b febf
00000320: 35ab 873e dade 593f c8c9 1abe 32a6 afbc
00000330: 5127 40c0 1172 70bf 3751 cc3e 9828 4f3e
00000340: 73de 2bbf b32d b5bf 6148 f43e 744c be3d
00000350: f925 7a3f fbdb bc3f 8a92 863f 0971 3bbd
00000360: 7bd9 773f fdc6 133f 1204 933f 64fa c13e
00000370: ba71 8dbf 902a 0d40 7e0a c93e 1098 aabf
00000380: f82c 333f c6ad 33be 618d ee3d d437 4c3f
00000390: c761 c1be 6af3 913f 3054 cfbf 2d7a bebf
000003a0: ef10 e03f ac57 18bf bb51 953e 1a95 023f
000003b0: c64f 9c3f 2813 f03e c411 2ac0 9ec1 81be
000003c0: 3381 1e3f 9d63 76bd bdea 3f3f 49a7 a5bf
000003d0: 3400 01bc de37 98be cf21 b5be 16a3 193f
000003e0: f010 fd3f 803c a0bf da99 073d 7195 163e
000003f0: d8cb 4840 563b b0bf ebe2 ad3f 629b c4bf

embeddings.6.weight f4 [3, 4]
-1.0803183 -0.25883633 1.3642215 -1.227185 -0.22756605 0.5236737 0.6429375 0.63826126
-1.2648968 0.067442976 -0.7105886 1.0458378
00000000: df47 8abf 3286 84be cf9e ae3f 6614 9dbf
00000010: 1307 69be 7b0f 063f 8d97 243f 1765 233f
00000020: 23e8 a1bf 8b1f 8a3d 22e9 35bf 03de 853f

embeddings.7.weight f4 [7, 4]
-0.16827503 0.21789676 0.75934374 0.21672642 1.0236324 0.0538012 1.149105 1.3559592
0.2054801 -1.1350724 -1.1140924 0.4000641 1.5670874 0.33066392 -0.2516618 -0.34824893
-0.017113132 0.18729912 -1.5035784 0.012886392 -0.9680856 1.0750786 0.43968055 -0.3938463
0.4607739 0.5484259 -0.09988671 0.34567344
00000000: 4a50 2cbe 5420 5f3e 5a64 423f 88ed 5d3e
00000010: 6306 833f a65e 5c3d df15 933f 1290 ad3f
00000020: 6069 523e 0d4a 91bf 949a 8ebf 34d5 cc3e
00000030: 5296 c83f c84c a93e d1d9 80be af4d b2be
00000040: d730 8cbc 57cb 3f3e 4275 c0bf 7221 533c
00000050: 75d4 77bf 2d9c 893f cf1d e13e 39a6 c9be
00000060: 8eea eb3e a465 0c3f 6791 ccbd 1cfc b03e

embeddings.8.weight f4 [7, 4]
1.2844716 0.45686916 0.3105272 0.029044777 -0.41064852 -0.19913277 -0.020742984 1.4520277
0.24042752 -1.5417237 -0.060197413 -0.31532648 0.6632444 -1.0310652 0.74813807 0.08863562
-0.035058975 -1.4335688 0.8297849 0.04538506 -0.8643364 0.09136156 -1.1421361 -0.28576446
1.1637257 0.9347869 0.18050371 0.5306963
00000000: 9169 a43f c1ea e93e 6cfd 9e3e 50ef ed3c
00000010: 8640 d2be 76e9 4bbe 31ed a9bc 0bdc b93f
00000020: a232 763e 3457 c5bf 9091 76bd 7972 a1be
00000030: 63ca 293f f2f9 83bf fa85 3f3f 9886 b53d
00000040: 009a 0fbd 2f7f b7bf c96c 543f afe5 393d
00000050: 2645 5dbf c51b bb3d 8431 92bf b84f 92be
00000060: f7f4 943f 324e 6f3f f7d5 383e b6db 073f

embeddings.9.weight f4 [3, 4]
-0.77409524 -1.7945424 -2.206843 0.33154824 -0.316956 1.0084959 0.15008318 0.0016964021
-0.20530465 1.9466783 -0.68089306 0.90720975
00000000: 1b2b 46bf 91b3 e5bf ea3c 0dc0 b1c0 a93e
00000010: 0f48 a2be 6516 813f 68af 193e cf59 de3a
00000020: 623b 52be c12c f93f 024f 2ebf e63e 683f

embeddings.10.weight f4 [427, 4]
-1.7223674 -1.0852226 -0.5334705 0.8079955 1.2369568 1.4473239 0.44306538 1.1867467
-0.3311718 -0.6871475 -1.476861 0.24542616 0.41273353 -0.3215333 -0.580818 -0.9924187
1.0574642 -0.5032281 -1.4035434 -0.40959334 0.7497789 1.1395911 0.21222359 0.26074353
0.8349159 -0.40349072 0.7090488 1.1594442 1.7536446 0.20593286 -0.7164414 1.046526
2.205361 1.4453728 1.1011539 -0.40201244 0.29861113 1.0893723 0.53566766 0.18862075
0.47028917 -0.4210644 1.041521 0.22574191 -1.0764167 0.4872406 -0.58790815 0.5345961
0.2250045 1.5563937 -0.96184707 -1.4479861 0.046682652 1.0403595 -1.9767456 -1.1423831
0.0650714 1.7603729 -0.3312036 -0.020677578 0.6226483 -0.48431844 0.22282508 0.25277632
0.31168303 -1.0813043 0.85565275 0.17769958 0.2621865 0.6171714 -0.8688745 -0.1933449
-1.4190979 0.3810403 0.46410745 -1.7920476 0.49346676 -1.0400413 0.34195432 1.6929638
3.0489538 0.46417227 1.1699672 2.1899629 -0.011444818 0.47894233 -0.9441013 -2.278789
-0.25402933 0.33118275 -0.46101984 1.5640756 -1.1940032 -0.94989127 0.6968281 -0.952439
1.1737144 -0.6888935 3.0496082 -2.3001137 -0.48642913 -0.67566633 0.24750377 0.27868295
0.8004895 1.2969068 0.74307674 1.1216688 -1.2485611 1.4447303 -0.86769795 -1.312291
0.33227965 0.976879 -0.9173908 -1.2117152 -1.9129933 -1.8630449 1.3423561 0.3906894
0.8539858 0.6162867 0.90652764 1.1268872 0.6173405 0.16441914 0.33655772 -0.17381626
-1.7747369 -1.5863414 1.6426908 0.7437356 1.0790246 1.3107114 -1.389227 -0.9966346
-1.0341578 -1.2073394 -1.0337433 1.9599949 1.9856764 -0.36312565 1.5650921 -0.6515135
-0.24130464 0.26190266 0.0020624287 -2.289559 1.1813526 0.6386364 -0.6950555 0.825885
0.4175704 0.21181655 1.7055856 -0.46041462 2.0297058 0.3800947 -1.7166373 -1.2136804
-0.7264566 0.0140363965 -0.7734239 0.6402638 -1.6171938 0.09911937 0.7958567 -0.90102094
-0.09667284 -0.22191918 0.025135148 -0.31537467 2.0062056 -1.6032395 -2.447034 0.30038735
0.18879165 -0.70818996 0.07927209 -0.7551466 0.71927625 0.52236354 -0.35494736 0.39285263
-0.782268 -0.4476443 0.22468153 0.09163038 -0.4103094 -1.3780006 -0.8163421 -0.25313136
1.3961887 0.37913916 1.3088826 -2.0926642 0.15951777 -3.2609963 -0.10090912 0.9127271
-1.0865945 0.585434 0.3564302 -0.19980809 1.4041921 1.5785942 -1.7250724 -0.19746642
-0.47795233 -1.3136595 -0.09677894 0.5023872 -0.5454475 -0.10154344 -0.6226535 -0.3252025
-1.0929137 0.2520185 0.9119022 -0.02405886 -0.12667531 0.07449574 0.0118265115 -0.04787476
0.56068915 -0.8946691 -0.4897463 0.5324708 1.2549477 -0.123707175 1.3219479 0.107285425
-0.7359969 1.7097847 0.35459164 -1.0821366 -1.0313141 0.2878159 -1.2024757 -0.5923835
0.4609071 -0.9297717 1.444135 -0.5663552 0.21980043 -0.22060423 -0.07265427 -0.55537266
-0.850262 0.16180822 -1.0202208 0.31283116 1.0350947 1.7095135 -0.7159865 0.72967917
00000000: 8976 dcbf 93e8 8abf 8691 08bf cbd8 4e3f
00000010: 9a54 9e3f e941 b93f 77d9 e23e 51e7 973f
00000020: 5a8f a9be e6e8 2fbf c809 bdbf ff50 7b3e
00000030: cf51 d33e 03a0 a4be 7db0 14bf 270f 7ebf
00000040: fd5a 873f 8fd3 00bf 4fa7 b3bf 38b6 d1be
00000050: 83f1 3f3f 1fde 913f 2451 593e 2d80 853e
00000060: 0cbd 553f 5696 cebe 3984 353f ab68 943f
00000070: 6d77 e03f 10e0 523e b468 37bf 90f4 853f
00000080: a224 0d40 fa01 b93f 9cf2 8c3f 93d4 cdbe
00000090: 8fe3 983e 8d70 8b3f 8421 093f cc25 413e
000000a0: bec9 f03e c195 d7be 8f50 853f e328 673e
000000b0: 06c8 89bf 9a77 f93e 2681 16bf 4adb 083f
000000c0: 9467 663e e937 c73f 9c3b 76bf 9c57 b9bf
000000d0: 4f36 3f3d 802a 853f 0006 fdbf 9c39 92bf
000000e0: 2744 853d e653 e13f 8593 a9be 0664 a9bc
000000f0: e165 1f3f 96f8 f7be 422c 643e e66b 813e
00000100: eb94 9f3e 2e68 8abf 0f0c 5b3f e1f6 353e
00000110: 4f3d 863e f2fe 1d3f 8f6e 5ebf 35fc 45be
00000120: 00a5 b5bf b717 c33e 7e9f ed3e d161 e5bf
00000130: ada7 fc3e 1320 85bf a314 af3e 0ab3 d83f
00000140: 0f22 4340 fda7 ed3e 7cc1 953f 5a28 0c40
00000150: 0c83 3bbc ee37 f53e 9fb0 71bf aed7 11c0
00000160: 2210 82be c990 a93e cb0a ecbe a133 c83f
00000170: 19d5 98bf 132c 73bf 5463 323f 0bd3 73bf
00000180: 463c 963f 535b 30bf c82c 4340 1035 13c0
00000190: 3d0d f9be 78f8 2cbf a171 7d3e 88af 8e3e
000001a0: e1ec 4c3f 0b01 a63f 473a 3e3f d892 8f3f
000001b0: dad0 9fbf ecec b83f 7421 5ebf 27f9 a7bf
000001c0: 8f20 aa3e be14 7a3f 20da 6abf 7c19 9bbf
000001d0: f7dc f4bf 4178 eebf 53d2 ab3f 7108 c83e
000001e0: d09e 5a3f f7c4 1d3f 3212 683f d73d 903f
000001f0: 070a 1e3f 7e5d 283e 4b51 ac3e e4fc 31be
00000200: 942a e3bf 3c0d cbbf b143 d23f 7565 3e3f
00000210: 7a1d 8a3f 64c5 a73f 31d2 b1bf 7223 7fbf
00000220: 485f 84bf 198a 9abf b351 84bf 1de1 fa3f
00000230: a52a fe3f 9beb b9be f054 c83f 97c9 26bf
00000240: 9018 77be 1b18 863e d029 073b 2288 12c0
00000250: 9036 973f ad7d 233f 28ef 31bf 336d 533f
00000260: cacb d53e 70e6 583e a150 da3f 77bb ebbe
00000270: b3e6 0140 c69b c23e c5ba dbbf e159 9bbf
00000280: 0ff9 39bf eaf8 653c 1cff 45bf 54e8 233f
00000290: 3500 cfbf 19ff ca3d 44bd 4b3f 4fa9 66bf
000002a0: 69fc c5bd c83e 63be 3ae8 cd3c ca78 a1be
000002b0: ac65 0040 f436 cdbf 349c 1cc0 5fcc 993e
000002c0: 9952 413e f04b 35bf 6859 a23d 4a51 41bf
000002d0: 7d22 383f 9eb9 053f a9bb b5be fb23 c93e
000002e0: b742 48bf a231 e5be ea12 663e b5a8 bb3d
000002f0: 1314 d2be 5362 b0bf ccfb 50bf 6f9a 81be
00000300: 50b6 b23f 871e c23e 7789 a73f 36ee 05c0
00000310: a058 233e 2ab4 50c0 71a9 cebd 7ca8 693f
00000320: 8715 8bbf 01df 153f 057e b63e 7e9a 4cbe
00000330: 91bc b33f 600f ca3f 2ccf dcbf a334 4abe
00000340: 2bb6 f4be ff25 a8bf 0934 c6bd 739c 003f
00000350: 73a2 0bbf 02f6 cfbd 3866 1fbf f180 a6be
00000360: 99e4 8bbf 9208 813e 6c72 693f 1617 c5bc
00000370: 2cb7 01be 3991 983d fcc3 413c 5318 44bd
00000380: 5389 0f3f 0909 65bf 07c0 fabe 0250 083f
00000390: 20a2 a03f 305a fdbd 9735 a93f 76b8 db3d
000003a0: 4b6a 3cbf 3ada da3f 098d b53e 7483 8abf
000003b0: 1a02 84bf 9b5c 933e b9ea 99bf 72a6 17bf
000003c0: 04fc eb3e 8505 6ebf 6ad9 b83f a8fc 10bf
000003d0: 5d13 613e 13e6 61be c3cb 94bd e72c 0ebf
000003e0: c5aa 59bf 0eb1 253e 9896 82bf 682b a03e
000003f0: fc7d 843f 57d1 da3f e44a 37bf 41cc 3a3f

embeddings.11.weight f4 [1030, 4]
-0.43816143 -1.5670255 0.4174298 -1.2259954 0.9457898 1.6824466 0.069394566 -0.034005284
-0.03510751 0.30645725 -0.42327258 0.056814842 -0.3283472 0.8795995 -1.2530593 0.32934168
-2.147597 0.5103336 1.1017816 -0.3492576 -0.41151878 -1.478667 0.7294256 -0.6872118
0.43461794 -0.71980023 -0.17341097 -0.35494143 -0.8684037 -0.1536863 -1.7979751 -0.3290931
0.3577152 0.56856227 1.0414649 0.17519096 0.4735465 -0.8266997 -0.963755 -0.8179107
-1.1550251 0.15066884 1.276829 0.34944886 1.1439204 1.1613458 0.096116714 0.2855865
0.6822748 0.6394351 -0.47388563 -0.96292835 -1.2089766 -1.0724641 1.58647 1.4991522
1.311404 0.64885145 0.3416199 0.39430794 -0.021139726 -1.0300612 0.20316854 -1.1400807
0.5497823 1.3724844 0.23033616 0.13790914 1.166473 0.15545252 1.0880862 -2.146775
0.95489925 -0.80966055 -0.39025256 0.40267316 -1.6876472 -0.052062117 -1.7049743 1.6488302
-1.277564 -1.3331827 0.42825606 0.8368359 -0.014464215 -0.4263876 -0.9300059 0.48562962
0.0036868663 -1.1763355 0.70469826 0.2556349 0.04358174 -0.4150468 0.52187985 0.38471082
-1.5586116 -0.4939209 -1.060187 0.09266212 -1.6199604 1.9870384 0.0701541 -0.01819707
0.050222013 0.94894683 0.41722944 -0.7857808 1.0996484 -0.9633672 -0.39690658 -0.023791237
1.4191989 -1.1208323 -1.0406457 0.17840931 -0.101854645 -0.06350318 -0.14865035 0.07871231
-0.07590854 0.10714627 -0.30596343 2.2558458 1.1354223 1.446749 1.313269 -0.73314416
-0.14026326 -0.45671427 0.1811693 -1.2736259 0.10957947 0.37281993 1.0688401 1.689629
-0.30340332 -0.94502527 -1.7155384 -0.83560497 0.1540692 0.43389827 -0.05749804 -0.026750585
0.20435365 0.84529376 -2.131511 -0.24599534 0.8102256 -0.62670213 1.7040869 1.3622212
-0.33096883 -0.4375238 -1.6507328 0.21756086 -1.666951 0.43922424 1.8011461 -1.0089998
-0.35727465 -0.5986941 0.848101 0.2442454 2.6460207 -0.09933046 0.04235885 -1.0029616
-2.8317618 -1.9671367 0.94481426 1.0509794 -0.74506724 -0.3669422 1.1775779 0.4574192
-0.12154613 -0.076218806 -0.030986516 -0.10133248 -0.87427354 2.1846719 1.0224934 -0.63098645
-0.29114056 1.0433359 0.26249626 -0.011426291 -0.32787183 1.1291218 -2.051657 -0.49818555
-0.49908134 -1.4364972 -0.5277318 1.7173251 1.3145299 1.8053141 -0.446612 0.88504016
0.99121106 0.9988536 0.28923976 -0.15188798 -1.6537148 -1.7295253 -1.0806451 -0.16460173
0.18359043 1.7952663 0.95458114 -0.37239125 0.48725432 0.5248798 0.54069513 -1.1596379
-0.27443293 0.5658459 -0.42321023 1.2490411 0.03099416 -0.19388197 2.8817217 -1.6221353
-0.07590526 0.8014573 -0.17422727 0.15692496 -1.7194202 -1.4633291 -0.6372515 -0.29663992
0.5505865 -1.3898097 0.041832954 1.1837279 -0.5235571 -0.22649576 -0.77682614 1.4609083
-0.13739765 -0.09354538 0.91315717 -1.3788773 1.7402799 0.4646953 1.0225261 -1.1912885
0.07320542 0.4312849 -0.66505444 -1.823521 2.3427382 0.05141223 -0.6703294 -0.7209578
00000000: b256 e0be 4b94 c8bf 5cb9 d53e 6bed 9cbf
00000010: 481f 723f 695a d73f bd1e 8e3d 2049 0bbd
00000020: e4cc 0fbd f7e7 9c3e 2fb7 d8be aeb6 683d
00000030: 201d a8be 6f2d 613f 3f64 a0bf 799f a83e
00000040: 3b72 09c0 39a5 023f 2e07 8d3f e4d1 b2be
00000050: 97b2 d2be f644 bdbf a3bb 3a3f 1ded 2fbf
00000060: 3e86 de3e d444 38bf a592 31be e2ba b5be
00000070: b44f 5ebf f15f 1dbe 0c24 e6bf e47e a8be
00000080: 7226 b73e 4c8d 113f b94e 853f 4265 333e
00000090: b074 f23e 97a2 53bf a6b8 76bf 9862 51bf
000000a0: ddd7 93bf ef48 1a3e 226f a33f f6ea b23e
000000b0: fc6b 923f fba6 943f d7d8 c43d 6538 923e
000000c0: 90a9 2e3f 05b2 233f 23a1 f2be 7982 76bf
000000d0: bfbf 9abf 8146 89bf 7311 cb3f 38e4 bf3f
000000e0: 16dc a73f 211b 263f cee8 ae3e bbe2 c93e
000000f0: 382d adbc 0cd9 83bf 6a0b 503e 2aee 91bf
00000100: 88be 0c3f 92ad af3f 3edd 6b3e 0e38 0d3e
00000110: fd4e 953f f22e 1f3e 6946 8b3f c364 09c0
00000120: 4774 743f ea45 4fbf 2fcf c7be 2d2b ce3e
00000130: d304 d8bf 163f 55bd 993c dabf de0c d33f
00000140: 3887 a3bf bba5 aabf 6144 db3e e13a 563f
00000150: 51fb 6cbc 7a4f dabe de14 6ebf 72a4 f83e
00000160: 5a9f 713b 2992 96bf 1b67 343f 94e2 823e
00000170: c482 323d 0481 d4be eb99 053f d1f8 c43e
00000180: 9680 c7bf 33e3 fcbe 35b4 87bf a3c5 bd3d
00000190: dd5a cfbf 4657 fe3f f4ac 8f3d 0612 95bc
000001a0: 99b5 4d3d 2eee 723f 199f d53e ee28 49bf
000001b0: 47c1 8c3f 3c9f 76bf 5737 cbbe d7e5 c2bc
000001c0: 4fa8 b53f 6f77 8fbf e133 85bf eeb0 363e
000001d0: 2b99 d0bd f50d 82bd cc37 18be eb33 a13d
000001e0: f075 9bbd 816f db3d 3da7 9cbe c75f 1040
000001f0: 8555 913f 122f b93f 3319 a83f 56af 3bbf
00000200: 2ca1 0fbe 74d6 e9be 7284 393e 2c06 a3bf
00000210: 336b e03d 41e2 be3e c1cf 883f c345 d83f
00000220: ae57 9bbe 2ded 71bf c396 dbbf 35ea 55bf
00000230: 51c4 1d3e ea27 de3e 1183 6bbd 0b24 dbbc
00000240: 1542 513e 2c65 583f ad6a 08c0 34e6 7bbe
00000250: f26a 4f3f 8d6f 20bf 851f da3f 445d ae3f
00000260: bf74 a9be 1f03 e0be 364b d3bf 46c8 5e3e
00000270: a65e d5bf 00e2 e03e f58b e63f e826 81bf
00000280: b4ec b6be 0444 19bf 261d 593f 771b 7a3e
00000290: 6758 2940 c56d cbbd 7980 2d3d 0c61 80bf
000002a0: 963b 35c0 23cb fbbf 59df 713f 7e86 863f
000002b0: babc 3ebf d9df bbbe dfba 963f d932 ea3e
000002c0: 2ded f8bd 9b18 9cbd 6fd7 fdbc 6787 cfbd
000002d0: 64d0 5fbf aad1 0b40 10e1 823f 5488 21bf
000002e0: 6010 95be 088c 853f e965 863e 5735 3bbc
000002f0: d1de a7be 1087 903f 594e 03c0 2d12 ffbe
00000300: 9787 ffbe 24df b7bf 6e19 07bf 4fd1 db3f
00000310: 8442 a83f 8814 e73f 54aa e4be fe91 623f
00000320: 02c0 7d3f dfb4 7f3f 3c17 943e 8688 1bbe
00000330: edac d3bf 1661 ddbf 9452 8abf 5b8d 28be
00000340: 21ff 3b3e 49cb e53f 6e5f 743f 11aa bebe
00000350: 6679 f93e 865e 063f ff6a 0a3f 046f 94bf
00000360: 7982 8cbe 47db 103f 03af d8be 94e0 9f3f
00000370: 77e7 fd3c ff88 46be 216e 3840 21a2 cfbf
00000380: 3874 9bbd 4e2c 4d3f a268 32be f0b0 203e
00000390: f615 dcbf 5e4e bbbf ea22 23bf 30e1 97be
000003a0: 3df3 0c3f 49e5 b1bf 0859 2b3d 6584 973f
000003b0: d707 06bf 81ee 67be 14de 46bf 0bff ba3f
000003c0: f8b1 0cbe b894 bfbd abc4 693f 0d7f b0bf
000003d0: 7ec1 de3f 8bec ed3e 23e2 823f 247c 98bf
000003e0: b9ec 953d 60d1 dc3e 0241 2abf 2369 e9bf
000003f0: 6cef 1540 a195 523d b59a 2bbf b190 38bf

embeddings.12.weight f4 [7, 4]
0.7712505 -0.24307968 -0.20878424 1.4462845 0.12124562 1.2237158 -0.32255697 0.32473028
-1.0564231 0.48145637 -0.04132029 0.3946478 -0.98343027 0.34387603 -0.10430117 -0.3379508
-0.57646066 0.3388574 -0.17073134 -0.615364 0.16809502 1.3122212 0.4231008 -1.3261443
-0.09685937 -1.0940051 -0.3396631 -0.12622447
00000000: ac70 453f e1e9 78be 89cb 55be da1f b93f
00000010: a04f f83d b8a2 9c3f 3026 a5be 0c43 a63e
00000020: df38 87bf 7381 f63e 773f 29bd 470f ca3e
00000030: 16c2 7bbf 8510 b03e da9b d5bd e307 adbe
00000040: ed92 13bf b87e ad3e 32d4 2ebe 7f88 1dbf
00000050: 1a21 2c3e ddf6 a73f aba0 d83e 19bf a9bf
00000060: 355e c6bd 5c08 8cbf 52e8 adbe fd40 01be

embeddings.13.weight f4 [7, 4]
0.81508464 -1.0727665 -0.06391479 -1.6421266 1.1629956 -0.343129 0.08576254 -1.5463719
-0.53866774 -0.63411814 -0.47104242 0.5801237 0.45096958 -0.7899387 0.67206055 1.3981024
-0.6623375 1.644906 -0.12847191 0.4247346 -1.2211189 -0.35203356 -0.9417515 0.7087131
-0.13435054 0.68663853 0.58447015 -2.6077445
00000000: 63a9 503f 6a50 89bf c2e5 82bd 3431 d2bf
00000010: 0add 943f 9bae afbe 45a4 af3d 84ef c5bf
00000020: 21e6 09bf 9155 22bf 792c f1be fd82 143f
00000030: 7ce5 e63e 6c39 4abf 290c 2c3f 05f5 b23f
00000040: f38e 29bf 488c d23f 248e 03be d076 d93e
00000050: a04d 9cbf be3d b4be a016 71bf 396e 353f
00000060: 3093 09be 8bc7 2f3f d69f 153f 49e5 26c0

embeddings.14.weight f4 [7, 4]
-0.1389443 0.4360583 -0.18280536 0.8019385 0.39521572 0.5742638 0.22237992 0.12482498
0.95029706 -0.2995553 0.60263854 -0.68914187 0.33796018 0.8807576 0.35344297 -0.80802214
1.6191989 -0.6820455 0.4793911 0.16566424 -0.27652037 -0.69624907 0.029328588 -0.30418804
-1.2406523 -1.2745334 1.0496745 -1.7067858
00000000: 6a47 0ebe 0943 df3e 5431 3bbe d74b 4d3f
00000010: b759 ca3e f402 133f 90b7 633e 3da4 ff3d
00000020: ab46 733f 505f 99be 8546 1a3f 9a6b 30bf
00000030: 1e09 ad3e 5479 613f 7af6 b43e 8ada 4ebf
00000040: e941 cf3f 899a 2ebf c072 f53e e3a3 293e
00000050: 1494 8dbe 613d 32bf 8242 f03c 89be 9bbe
00000060: b2cd 9ebf e923 a3bf bc5b 863f f577 dabf

embeddings.15.weight f4 [6, 4]
-1.461054 -1.9309868 -1.6999999 -1.4790257 2.488072 -0.57574415 -0.8582911 -0.84480226
-0.33920017 1.4434519 1.0884067 -0.80678016 1.3595674 1.3056514 1.7163881 2.359959
0.648251 1.0306456 1.0731264 0.3660015 -0.79390407 -0.3351046 -0.19801544 -0.7542819
00000000: d103 bbbf 932a f7bf 9999 d9bf b750 bdbf
00000010: 923c 1f40 f863 13bf f7b8 5bbf f644 58bf
00000020: a5ab adbe 08c3 b83f e950 8b3f 2589 4ebf
00000030: 4e06 ae3f 961f a73f 9bb2 db3f 9109 1740
00000040: c7f3 253f 32ec 833f 355c 893f 8c64 bb3e
00000050: 4c3d 4bbf d592 abbe 8fc4 4abe 9e18 41bf

conv_layers.0.weight f4 [16, 1, 3]
0.6198619 -0.5372208 -0.1308621 0.3763368 -0.829963 0.42517287 -0.029888745 0.35781017
-0.8619106 -0.48647675 0.5100017 -0.043876056 0.7834664 -0.31266424 -0.4001697 -0.45867535
-0.62254363 -0.41875213 -0.19270556 -0.47073102 -0.38925695 -0.49303433 0.6603579 -0.17307189
-0.48884538 -0.69787747 -0.26593637 -0.24808113 1.0791475 0.400064 -0.21511942 -0.1655857
0.8434429 0.41632152 -0.5253527 0.027394524 0.56480914 0.45092523 -0.10667098 -0.36981493
-0.5349219 -0.36187562 -0.392043 -0.61784345 -0.32643312 0.62593687 -0.44499105 -0.4660027
00000000: 45af 1e3f 4d87 09bf b700 06be 38af c03e
00000010: 7578 54bf 42b0 d93e 3ed9 f4bc e532 b73e
00000020: 2ca6 5cbf 7b13 f9be 798f 023f 61b7 33bd
00000030: 4191 483f 8715 a0be 0be3 ccbe 7fd7 eabe
00000040: 055f 1fbf ae66 d6be 9b54 45be a803 f1be
00000050: b04c c7be ff6e fcbe 370d 293f c239 31be
00000060: f149 fabe 19a8 32bf d028 88be fb08 7ebe
00000070: 8121 8a3f 30d5 cc3e 4448 5cbe 4c8f 29be
00000080: e0eb 573f 1828 d53e 847d 06bf 7b6a e03c
00000090: 5597 103f acdf e63e 5176 dabd 6258 bdbe
000000a0: a4f0 08bf c347 b9be dcb9 c8be fd2a 1ebf
000000b0: 3e22 a7be 663d 203f ded5 e3be e897 eebe

conv_layers.0.bias f4 [16]
0.5896317 0.36513206 0.5662861 -1.0358881 0.24566494 -0.5713554 -0.27567196 -0.2320654
0.83425266 0.3348622 -0.28039134 -0.049578924 0.009433702 -0.012277766 0.18768135 0.7410658
00000000: 1af2 163f 97f2 ba3e 20f8 103f fb97 84bf
00000010: 978f 7b3e 5944 12bf e024 8dbe 8da2 6dbe
00000020: 9591 553f 0f73 ab3e 748f 8fbe 4513 4bbd
00000030: d08f 1a3c af28 49bc 8a2f 403e 7db6 3d3f

conv_layers.1.weight f4 [32, 16, 3]
-0.258452 -0.23299265 0.20872559 -0.07344592 0.43318978 0.18535537 0.07350676 0.8151386
-0.89321995 0.18235151 0.27832142 -0.78643036 0.104800396 0.013998069 0.6371557 -0.11089952
-0.52717876 0.009999009 -0.2582561 -0.72584826 0.3367068 0.10169306 0.2439912 -0.93554986
-0.09597419 -0.39378035 0.07075178 0.24232967 -0.03167796 -1.1174645 0.023475481 0.16740677
-0.23408163 -0.1697375 -0.056861643 0.5304312 -0.16652523 0.20455231 -0.26792124 -0.20888455
-0.5514748 0.1967639 -0.16642673 -0.596405 0.1502345 0.18289362 -0.04097075 0.58564717
0.018326063 -1.1997626 0.20889582 -0.32608286 -0.07006997 0.2763917 0.0033274305 0.5593078
-0.20419496 -0.13674773 0.158494 -0.5534028 0.07527226 -0.99596757 0.16664636 0.104549214
-0.62514263 -0.011835514 0.009962121 -0.72535044 0.16639441 0.031502053 0.41078997 -0.517077
-0.07746389 -0.7092092 -0.046689015 -0.10159403 0.68990004 -0.55819786 -0.41704816 0.4076257
0.20227176 -0.19424152 -0.43533045 0.38068643 0.039219677 0.25784424 0.52257127 -0.20812339
-0.5817473 0.14470825 0.05317089 -0.903062 0.10537513 0.2984946 -0.73582274 0.12648554
-0.49576622 0.1872446 -0.3493851 -0.44867983 -0.009614936 -0.08622189 -0.0009143148 0.111083396
0.64284 -0.13784064 -0.27739444 -0.38908708 -0.30932662 -0.08206231 0.11319107 -0.5263486
0.10349143 0.6547595 -0.56026477 0.09662056 0.47816768 -0.3159947 -0.008167504 -0.5510607
-0.42448077 0.21493424 0.5718199 0.3287054 -0.49281332 -0.41159162 -0.2049125 -0.86484015
-0.07538952 -0.5062003 0.3482659 -0.38979694 0.80839574 -0.035618685 -0.4609832 -0.025537174
0.24479358 0.4821209 -0.17088261 0.22253023 0.48416868 -0.45204917 -0.42297244 0.100161254
0.06366969 -0.23138884 -0.17111993 0.4861702 -0.46595216 -0.09976222 -0.032996558 -0.9403507
0.07685164 0.64356214 -0.61177164 -0.3276258 -0.11598538 0.3346974 0.08321516 0.11463271
-0.093308285 -0.06344638 0.27873078 -0.08055586 0.002306126 0.6761031 -0.89488333 -0.44085285
0.26342586 0.02600301 -0.22435763 0.81150305 -0.2490632 -0.39753833 0.84358144 -0.365274
-0.5047135 0.6217659 0.008736595 0.06294225 -0.04406505 0.34481168 -0.25190458 0.19805448
0.01446873 -0.06492694 0.23667517 0.18618517 -0.29637343 0.18147136 -0.009391467 -0.36002806
0.0045912857 0.17568426 -0.08764264 0.22173737 0.053306375 0.25602043 0.39280218 0.38808012
-0.22900088 0.30871442 -0.403498 0.21289791 0.081713885 0.2845163 -0.58687955 0.4214102
0.89392644 0.5322556 0.31148303 0.78227305 0.50239 0.04877224 -0.3814362 0.1652198
0.6808958 0.88883513 0.35409522 -0.47401404 -0.40056607 0.038018085 0.0981284 -0.07236292
0.2555012 0.22406778 0.11785894 0.045340776 -0.8631528 -0.3024351 -0.40646866 0.20006417
1.230407 0.4238825 0.21317887 0.7886872 0.3036791 0.06889127 0.27931243 -0.43787363
0.007635996 0.23518923 0.425771 0.04860888 -0.16716827 -0.0028577375 0.47137854 -0.13020517
-0.006251708 -0.11320041 -0.57486147 0.34523162 -0.27536672 0.30873302 -0.03486119 0.39604333
00000000: d253 84be a095 6ebe 29bc 553e d16a 96bd
00000010: 0dcb dd3e cccd 3d3e b68a 963d ecac 503f
00000020: 10aa 64bf 5bba 3a3e 2580 8e3e 8053 49bf
00000030: 97a1 d63d 2858 653c a31c 233f 4a1f e3bd
00000040: 30f5 06bf e2d2 233c 253a 84be 31d1 39bf
00000050: d564 ac3e 7344 d03d d4d8 793e 3280 6fbf
00000060: 1e8e c4bd 949d c9be 4fe6 903d 4525 783e
00000070: c0c0 01bd 1409 8fbf a74f c03c ae6c 2b3e
00000080: 18b3 6fbe abcf 2dbe c1e7 68bd 57ca 073f
00000090: 9785 2abe 2976 513e f92c 89be d5e5 55be
000000a0: 742d 0dbf 7a7c 493e c56b 2abe 00ae 18bf
000000b0: 13d7 193e 7748 3b3e f2d0 27bd f9ec 153f
000000c0: 8a20 963c d291 99bf c9e8 553e 55f4 a6be
000000d0: d880 8fbd 3783 8d3e 0511 5a3b cc2e 0f3f
000000e0: 7c18 51be 9907 0cbe 404c 223e ceab 0dbf
000000f0: 5828 9a3d bbf7 7ebf 58a5 2a3e e61d d63d
00000100: 5909 20bf bee9 41bc 2a38 233c 91b0 39bf
00000110: 4c63 2a3e 4c08 013d 1053 d23e 295f 04bf
00000120: 63a5 9ebd bc8e 35bf fb3c 3fbd 8810 d0bd
00000130: 4a9d 303f 0ee6 0ebf 5687 d5be 51b4 d03e
00000140: 5420 4f3e 40e7 46be a2e3 debe 55e9 c23e
00000150: d0a4 203d 2904 843e 3bc7 053f 4c1e 55be
00000160: 64ed 14bf 662e 143e b8c9 593d 122f 67bf
00000170: ebce d73d 49d4 983e e15e 3cbf 6d85 013e
00000180: 12d5 fdbe 0cbd 3f3e 9be2 b2be 5db9 e5be
00000190: f787 1dbc 1a95 b0bd a1ae 6fba b17f e33d
000001a0: 2a91 243f 1926 0dbe a506 8ebe 6c36 c7be
000001b0: 0f60 9ebe 4910 a8bd b8d0 e73d c8be 06bf
000001c0: 51f3 d33d 529e 273f 836d 0fbf 00e1 c53d
000001d0: 65d2 f43e 0fca a1be ffd0 05bc 5012 0dbf
000001e0: 8b55 d9be b917 5c3e ca62 123f 134c a83e
000001f0: 0752 fcbe 23bc d2be 95d4 51be 2a66 5dbf
00000200: d265 9abd 5896 01bf e84f b23e 7793 c7be
00000210: 06f3 4e3f e6e4 11bd fd05 ecbe 5633 d1bc
00000220: 2bab 7a3e 8dd8 f63e dafb 2ebe f7de 633e
00000230: f5e4 f73e fd72 e7be d88f d8be 5821 cd3d
00000240: 4165 823d 32f1 6cbe 103a 2fbe 4deb f83e
00000250: 4891 eebe 2350 ccbd 6627 07bd d3ba 70bf
00000260: 6564 9d3d 7dc0 243f 119d 1cbf 92be a7be
00000270: be89 edbd 755d ab3e b66c aa3d 8ec4 ea3d
00000280: 6a18 bfbd 2df0 81bd cdb5 8e3e 79fa a4bd
00000290: 6022 173b 1815 2d3f 1317 65bf 77b7 e1be
000002a0: c1df 863e 4404 d53c 02be 65be aabe 4f3f
000002b0: 6c0a 7fbe 258a cbbe f4f4 573f 3205 bbbe
000002c0: e734 01bf 0d2c 1f3f ef23 0f3c dee7 803d
000002d0: 8e7d 34bd 288b b03e a3f9 80be cbce 4a3e
000002e0: 410e 6d3c 6af8 84bd fa5a 723e 53a7 3e3e
000002f0: 42be 97be a1d3 393e abde 19bc 9955 b8be
00000300: 7f72 963b 93e6 333e fc7d b3bd 1f0f 633e
00000310: c957 5a3d 1c15 833e 5e1d c93e 70b2 c63e
00000320: 357f 6abe d10f 9e3e 4a97 cebe e901 5a3e
00000330: 9c59 a73d 1fac 913e bd3d 16bf 14c3 d73e
00000340: 5dd8 643f e741 083f b47a 9f3e 0c43 483f
00000350: a29c 003f 66c5 473d 9b4b c3be 612f 293e
00000360: 304f 2e3f b38a 633f f84b b53e f8b1 f2be
00000370: ff16 cdbe dab8 1b3d 8bf7 c83d 0333 94bd
00000380: 0ed1 823e 0672 653e 0760 f13d 40b7 393d
00000390: 95f7 5cbf c6d8 9abe a91c d0be 9fdd 4c3e
000003a0: fa7d 9d3f 2107 d93e 904b 5a3e 68e7 493f
000003b0: d47b 9b3e de16 8d3d 0a02 8f3e f930 e0be
000003c0: 6137 fa3b 72d5 703e a8fe d93e 1b1a 473d
000003d0: 292e 2bbe e148 3bbb 8758 f13e 8154 05be
000003e0: 21db ccbb 9ed5 e7bd 1f2a 13bf 33c2 b03e
000003f0: defc 8cbe 4112 9e3e 9bca 0ebd 31c6 ca3e

conv_layers.1.bias f4 [32]
-0.2832287 -0.09511583 0.071046576 -0.18882419 0.013927977 -0.47979423 0.28117123 -0.3487706
-0.3844277 0.13043047 -0.031204633 -0.027734535 0.09388277 0.4154651 0.5418605 0.09589278
-0.21050893 0.21436255 0.26456803 -0.39517033 -0.19121477 -0.3553613 -0.09353063 -0.4469864
-0.23732223 0.021675466 -0.5177345 0.19055155 -0.6072644 0.017560532 -0.09133184 -0.104582556
00000000: 5a03 91be 17cc c2bd de80 913d 215b 41be
00000010: 2b32 643c 97a7 f5be adf5 8f3e 0f92 b2be
00000020: b5d3 c4be 918f 053e dca0 ffbc 8933 e3bc
00000030: 9c45 c03d d7b7 d43e 5fb7 0a3f 6f63 c43d
00000040: a78f 57be db81 5b3e 7675 873e c453 cabe
00000050: cecd 43be ebf1 b5be fd8c bfbd 67db e4be
00000060: 9904 73be bf90 b13c 408a 04bf f21f 433e
00000070: ae75 1bbf 1bdb 8f3c 300c bbbd 612f d6bd

bn_layers.0.weight f4 [16]
0.9956712 0.9788241 1.2605934 1.1246134 0.9606708 1.058511 0.9993945 1.1248078
0.99313015 1.1138381 0.8539524 0.827148 0.9269498 0.88769263 1.0308738 0.9938551
00000000: 4fe4 7e3f 3794 7a3f 205b a13f 55f3 8f3f
00000010: 86ee 753f 4a7d 873f 51d8 7f3f b4f9 8f3f
00000020: c73d 7e3f 3f92 8e3f a09c 5a3f f9bf 533f
00000030: 954c 6d3f d33f 633f acf3 833f 4a6d 7e3f

bn_layers.0.bias f4 [16]
-0.26236343 -0.24055089 -0.62223285 -0.33016628 -0.49803734 -0.59352005 -0.40958872 -0.32494476
-0.7078844 -0.6419549 -0.09013428 -0.08387563 -0.46781406 -0.6579922 -0.5915661 -0.5801962
00000000: 8054 86be f952 76be a74a 1fbf 8e0b a9be
00000010: c0fe febe eef0 17bf 9db5 d1be 295f a6be
00000020: e937 35bf 2857 24bf 5298 b8bd fcc6 abbd
00000030: 5385 efbe 2d72 28bf e070 17bf bd87 14bf

bn_layers.0.running_mean f4 [16]
0.59621483 0.37354648 0.62304306 -1.0314289 0.23439984 -0.39306325 -0.15309572 -0.23678397
1.0102035 0.18740365 -0.33088586 -0.037479233 -0.10307349 0.13768704 0.34645274 0.772656
00000000: 89a1 183f 7c41 bf3e c07f 1f3f dd05 84bf
00000010: 8306 703e 963f c9be 20c5 1cbe 7f77 72be
00000020: 594e 813f bee6 3f3e df69 a9be d383 19bd
00000030: 3218 d3bd d5fd 0c3e 4162 b13e c9cc 453f

bn_layers.0.running_var f4 [16]
0.766132 1.1969283 0.9922918 0.57544196 0.9120381 0.8750072 0.46043736 0.8326323
0.89096063 1.5263702 0.8398176 0.5168506 0.57267076 0.62661254 0.72197634 0.8443019
00000000: 3a21 443f f234 993f d606 7e3f 2a50 133f
00000010: 547b 693f 7900 603f 72be eb3e 6427 553f
00000020: ff15 643f 1960 c33f 49fe 563f 5250 043f
00000030: 8d9a 123f ae69 203f 71d3 383f 2b24 583f

bn_layers.1.weight f4 [32]
1.2107785 1.1600237 0.8163609 1.0704278 1.3044136 1.1802434 1.0031432 1.269931
1.3362187 1.0476729 0.85941255 1.0808002 0.89099157 1.380403 1.0116841 0.7309322
1.1280203 1.132175 1.2488866 1.2458528 1.0465521 0.80301034 1.2255633 0.8322129
1.1877749 1.1671532 1.2351661 0.8026408 1.0963072 0.95543 1.3858539 1.0766698
00000000: cafa 9a3f a87b 943f 07fd 503f c703 893f
00000010: 06f7 a63f 3712 973f ff66 803f 198d a23f
00000020: 3709 ab3f 251a 863f 7602 5c3f a957 8a3f
00000030: 0618 643f 0cb1 b03f dd7e 813f 5f1e 3b3f
00000040: f862 903f 1ceb 903f 84db 9f3f 1b78 9f3f
00000050: 6bf5 853f 1692 4d3f 42df 9c3f e80b 553f
00000060: 0209 983f 4765 953f ec19 9e3f de79 4d3f
00000070: cb53 8c3f 0f97 743f a963 b13f 51d0 893f

bn_layers.1.bias f4 [32]
-0.22672296 -0.35846984 -0.07811692 -0.27343565 -0.57732534 0.06862616 0.19912143 -0.61491656
-0.3920433 -0.07420569 -0.18602039 0.020373916 -0.16033012 -0.60342765 -0.28416318 -0.16811435
-0.30737576 -0.5017563 -0.29171726 -0.2886562 -0.6834242 -0.37660524 -0.4907094 0.010479201
-0.109005876 -0.38676286 -0.34721595 -0.043055177 -0.027859459 -0.14636259 -0.2981603 -0.25506553
00000000: 102a 68be 5c89 b7be c4fb 9fbd c2ff 8bbe
00000010: 98cb 13bf df8b 8c3d 7de6 4b3e 2c6b 1dbf
00000020: e6b9 c8be 27f9 97bd 217c 3ebe 33e7 a63c
00000030: 942d 24be 3c7a 1abf d67d 91be 2b26 2cbe
00000040: 5b60 9dbe 1a73 00bf f75b 95be bfca 93be
00000050: e3f4 2ebf 67d2 c0be 433e fbbe f4b0 2b3c
00000060: 793e dfbd c805 c6be 4ac6 b1be a05a 30bd
00000070: 8539 e4bc 13e0 15be 78a8 98be f397 82be

bn_layers.1.running_mean f4 [32]
-1.0579362 -1.7445563 -1.9474431 -0.6861397 2.3795297 -0.33800635 1.0577359 -3.2815125
-1.5880721 -0.3788859 1.4218422 0.5703155 1.1586295 4.4674497 1.9343094 0.9414944
-2.2359731 -1.934312 -1.9666561 -0.57545865 1.0749786 0.08950009 -2.9366152 -0.44236404
0.9200376 -0.91798466 -2.1161382 -0.36986715 -1.4146179 -0.31431305 -1.8024068 -0.04742155
00000000: 746a 87bf 9f4d dfbf d145 f9bf daa6 2fbf
00000010: 374a 1840 2b0f adbe e463 873f 4d04 52c0
00000020: f245 cbbf 55fd c1be edfe b53f 3200 123f
00000030: f94d 943f 59f5 8e40 7397 f73f c705 713f
00000040: 2f1a 0fc0 8997 f7bf 63bb fbbf 4251 13bf
00000050: e698 893f d34b b73d 81f1 3bc0 8a7d e2be
00000060: 9687 6b3f 0b01 6bbf cf6e 07c0 3a5f bdbe
00000070: 3312 b5bf a4ed a0be 44b5 e6bf 193d 42bd

bn_layers.1.running_var f4 [32]
12.082321 18.509157 9.628754 11.613893 18.6801 12.717788 9.068575 14.472044
12.969999 12.066158 9.393667 12.975214 12.77544 20.790709 11.629354 9.866608
13.801935 15.959527 15.3146305 9.803685 10.339483 6.2778406 13.830395 7.408177
10.795106 12.487141 14.345021 10.286975 11.641264 11.461345 14.354692 12.078254
00000000: 3051 4141 c112 9441 600f 1a41 81d2 3941
00000010: d870 9541 0f7c 4b41 e218 1141 7e8d 6741
00000020: 1e85 4f41 fc0e 4141 764c 1641 7a9a 4f41
00000030: 3468 4c41 5f53 a641 d511 3a41 a0dd 1d41
00000040: bad4 5c41 395a 7f41 ba08 7541 e5db 1c41
00000050: 866e 2541 12e4 c840 4c49 5d41 c90f ed40
00000060: c1b8 2c41 54cb 4741 3585 6541 7397 2441
00000070: 9e42 3a41 ab61 3741 d2ac 6541 8740 4141

final_conv.weight f4 [64, 32, 3]
-0.16014147 -0.1688624 0.012875449 0.09728771 0.010496647 0.035050526 -0.07466627 0.017194325
-0.03938469 -0.07789944 -0.040935542 -0.07134432 -0.48635215 0.12503229 -0.0665937 -0.3525771
0.05455923 0.106652476 -0.68970305 0.07025063 -0.055433072 0.18411237 -0.09594465 -0.23419783
-0.094324864 -0.041141428 -0.18391171 -0.3660743 0.025714178 -0.045133013 -0.3501303 0.21493399
-0.17961635 -0.23787579 -0.23900339 -0.050329175 -0.6382299 -0.15053484 0.030070849 -0.79592323
-0.25204816 0.11604322 -0.28644243 -0.10913337 0.1582749 -0.14928854 -0.37371254 0.04943416
0.12086896 -0.031666894 -0.18597244 0.119481005 -0.4480716 -0.31854513 -0.16730091 0.116486676
-0.06351754 -0.46074507 0.11173055 -0.2383626 -0.1519414 -0.012725623 0.006514416 -0.13248736
-0.091195755 -0.09318238 0.39163116 -0.08678102 -0.16272964 -0.4296864 0.09641479 -0.12154861
-0.58488554 0.16140673 0.1313107 -0.083526775 -0.37027273 -0.010653342 0.15906364 -0.07071459
-0.15773496 -0.534995 0.11770674 0.10868944 -0.23501447 -0.10186481 -0.20723543 -0.18616845
0.015571142 0.06865085 -0.44991627 -0.025580933 -0.27918306 -0.07158824 0.049105316 -0.089582786
-0.1995625 -0.6812674 0.12736286 -0.31163335 -0.101798624 0.05579698 0.00872611 0.0812919
-0.5127334 -0.33344203 0.060609896 0.11306839 0.0955451 -0.020535903 -0.66333324 0.4678681
-0.21392347 -0.43556437 0.09284888 0.056331918 -0.79678476 0.42073107 -0.13158229 1.0934882
-0.49005085 -0.1425842 0.30410206 0.076383345 0.6082948 -0.88468283 -0.23774098 0.4686149
-0.9585563 -0.26454613 -0.32511225 -0.120933376 0.1910846 0.17844552 -0.5357583 0.19892687
-0.066001 -0.63349986 -0.20883973 -0.39323327 -0.60288745 0.5465848 -0.16042447 -0.65694654
0.3859336 -0.3310589 -0.95546573 0.41879693 0.09064832 0.2221808 -0.36757675 -0.27394915
-0.3536307 -0.61705214 0.2478741 -0.16097327 -0.09830723 -0.53787494 -0.31182426 -0.107372314
0.00048962556 -0.9901465 0.15903209 0.19932191 0.68168193 -0.18359402 0.08436236 -0.7038509
0.052400224 -0.1252079 -0.725588 -0.20243256 -0.20033517 -0.21115166 -0.573872 0.20477714
-0.4651081 -0.004389739 0.375918 -0.9925919 0.49009788 -0.054429535 -1.1750741 0.16631393
-0.13733494 -0.99576485 -0.13822007 -0.008521699 -0.65122694 -0.09750128 -0.15685758 -0.62691927
0.28073898 -0.12663057 0.13430049 -0.15821086 0.124139845 0.14859869 -0.59368783 -0.3377171
0.134833 0.20950606 0.17461362 0.080892526 -0.9807096 -0.35215685 -0.23959753 -0.7522275
-0.1387624 -0.26814047 -0.7036794 0.23955208 -0.66399956 -0.2044508 0.11999101 -0.39477518
0.004676657 -0.14171891 0.2987314 -0.68144524 -0.31111613 0.29133093 -0.16913846 0.25957572
0.39752388 0.38163176 -0.028363524 0.3494889 -0.39977103 0.10383839 -0.091907695 -0.570329
-0.116877906 0.16490132 0.38240767 -0.21811292 0.49453118 0.028588574 -0.16131084 -0.03868802
-0.6175152 -0.2422308 -0.011314758 0.34791574 -0.031038802 -0.5196741 -0.1789816 -0.29003206
0.23014176 -0.14794989 -0.12891153 0.25151354 0.024193209 0.07580262 0.06888343 0.21240047
00000000: 20fc 23be 44ea 2cbe 8cf3 523c c73e c73d
00000010: 21fa 2b3c 2491 0f3d a1ea 98bd 1ddb 8c3c
00000020: d751 21bd be89 9fbd 07ac 27bd f91c 92bd
00000030: 2603 f9be 7708 003e 4762 88bd fc84 b4be
00000040: 8079 5f3d 9d6c da3d 6190 30bf 90df 8f3d
00000050: ca0d 63bd f487 3c3e a17e c4bd 8ed1 6fbe
00000060: 652d c1bd ea83 28bd 5a53 3cbe 176e bbbe
00000070: 8aa6 d23c 65dd 38bd 4744 b3be a817 5c3e
00000080: 59ed 37be b695 73be 4ebd 74be f725 4ebd
00000090: 0963 23bf ce25 1abe 2457 f63c a0c1 4bbf
000000a0: 750c 81be 11a8 ed3d 95a8 92be 5181 dfbd
000000b0: d112 223e 18df 18be 4057 bfbe 797b 4a3d
000000c0: 258a f73d 25b5 01bd 8f6f 3ebe 75b2 f43d
000000d0: a469 e5be 5918 a3be ee50 2bbe 9190 ee3d
000000e0: 7c15 82bd c7e6 ebbe fdd2 e43d 5315 74be
000000f0: 8796 1bbe 227f 50bc e276 d53b c4aa 07be
00000100: d7c4 babd 67d6 bebd e183 c83e 3fba b1bd
00000110: 99a2 26be dbff dbbe 1e75 c53d 7aee f8bd
00000120: 0fbb 15bf ce47 253e 5076 063e 1610 abbd
00000130: 6394 bdbe 5b8b 2ebc 94e1 223e d0d2 90bd
00000140: 4685 21be 6ff5 08bf 3b10 f13d 9298 de3d
00000150: a2a7 70be 7f9e d0bd 8635 54be f1a2 3ebe
00000160: 1a1e 7f3c d198 8c3d 6d5b e6be 1b8f d1bc
00000170: 15f1 8ebe db9c 92bd a822 493d 2e77 b7bd
00000180: 1d5a 4cbe 8a67 2ebf 696b 023e 688e 9fbe
00000190: cc7b d0bd 608b 643d f5f7 0e3c 5e7c a63d
000001a0: 7f42 03bf eab8 aabe 1542 783d 6690 e73d
000001b0: 26ad c33d e93a a8bc 35d0 29bf 688c ef3e
000001c0: c10e 5bbe 4b02 dfbe 8e27 be3d 4cbc 663d
000001d0: 16fa 4bbf 106a d73e 82bd 06be 6cf7 8b3f
000001e0: f2e7 fabe 9801 12be 44b3 9b3e df6e 9c3d
000001f0: 35b9 1b3f 937a 62bf 5f72 73be 4bee ef3e
00000200: f263 75bf 9772 87be 1d75 a6be ebab f7bd
00000210: aeab 433e 6cba 363e 7527 09bf 7cb3 4b3e
00000220: 882b 87bd 0c2d 22bf 15da 55be df55 c9be
00000230: d556 1abf fbec 0b3f 5046 24be a62d 28bf
00000240: 1799 c53e 8d80 a9be 6799 74bf 8d6c d63e
00000250: d4a5 b93d 5d83 633e 0533 bcbe 1043 8cbe
00000260: 150f b5be 21f7 1dbf b5d2 7d3e 2dd6 24be
00000270: 4d55 c9bd 2cb2 09bf 6ea7 9fbe 04e6 dbbd
00000280: 375a 003a 3e7a 7dbf 4fd9 223e 0b1b 4c3e
00000290: b582 2e3f 1200 3cbe 2cc6 ac3d 932f 34bf
000002a0: 9ea1 563d 8036 00be 23c0 39bf 7b4a 4fbe
000002b0: aa24 4dbe 2438 58be 47e9 12bf 19b1 513e
000002c0: a622 eebe cdd7 8fbb 5378 c03e 811a 7ebf
000002d0: 1cee fa3e 81f1 5ebd d468 96bf 334e 2a3e
000002e0: 88a1 0cbe 72ea 7ebf 9089 0dbe 999e 0bbc
000002f0: cfb6 26bf c0ae c7bd 469f 20be c87d 20bf
00000300: 05bd 8f3e 72ab 01be 1186 093e 0702 22be
00000310: 083d fe3d 412a 183e edfb 17bf 41e9 acbe
00000320: a911 0a3e c288 563e eacd 323e fbaa a53d
00000330: c90f 7bbf e74d b4be 0e59 75be fb91 40bf
00000340: bb17 0ebe b549 89be 5524 34bf 244d 753e
00000350: e0fb 29bf 8d5b 51be d9bd f53d f91f cabe
00000360: a43e 993b c31e 11be 52f3 983e 3273 2ebf
00000370: 9d4a 9fbe 5429 953e a232 2dbe 1ce7 843e
00000380: 4088 cb3e 3d65 c33e 9f5a e8bc 36f0 b23e
00000390: caae ccbe 39a9 d43d 1a3a bcbd 1501 12bf
000003a0: af5d efbd e4db 283e f0ca c33e fe58 5fbe
000003b0: 3133 fd3e 9632 ea3c ab2e 25be 5477 1ebd
000003c0: 7a15 1ebf 5a0b 78be 8961 39bc 0322 b23e
000003d0: 1645 febc 5d09 05bf f446 37be 157f 94be
000003e0: 48aa 6b3e 2d80 17be 6201 04be 62c6 803e
000003f0: d630 c63c 673e 9b3d c112 8d3d 827f 593e

final_conv.bias f4 [64]
-0.018515171 -0.20991883 0.20471802 -0.519333 0.1563527 0.13761182 -0.094061024 0.26651973
0.03448479 0.38849238 0.30437037 0.4607074 0.049853187 0.0060648005 0.1353908 0.5339223
0.28346092 0.30928904 0.06595862 0.64172107 0.46157673 0.34827846 0.69423926 -0.030615283
-0.18791568 -0.4088039 0.22454593 0.05886913 -0.1593724 -0.13427247 0.22284661 0.3470597
0.028823385 0.34550324 -0.032270007 0.1531413 0.2110584 -0.19320343 -0.6949485 0.2519192
0.11701808 0.15989724 -0.24465108 -0.10985854 0.10903102 0.40957934 -0.33699298 0.6645824
0.017906616 -0.21408968 0.5428649 -0.07871832 -0.22837296 -0.3820706 0.18406303 0.42745388
0.20028935 0.22815119 -0.07238867 -0.0018575471 -0.13047066 -0.30913407 -0.400681 0.08240505
00000000: 21ad 97bc f6f4 56be 9aa1 513e 02f3 04bf
00000010: ec1a 203e 1dea 0c3e 11a3 c0bd 4675 883e
00000020: ec3f 0d3d 79e8 c63e 6fd6 9b3e d7e1 eb3e
00000030: db32 4c3d 3cbb c63b e3a3 0a3e 22af 083f
00000040: ca21 913e 225b 9e3e 5015 873d d547 243f
00000050: c953 ec3e 8e51 b23e aab9 313f e7cc fabc
00000060: f86c 40be bf4e d1be 5eef 653e c220 713d
00000070: 8532 23be b97e 09be e731 643e cfb1 b13e
00000080: 051f ec3c cde5 b03e 8e2d 04bd 13d1 1c3e
00000090: b11f 583e 1fd7 45be 25e8 31bf 8efb 803e
000000a0: 2da7 ef3d 1abc 233e d085 7abe 84fd e0bd
000000b0: a84b df3d 62b4 d13e 588a acbe 1222 2a3f
000000c0: e5b0 923c 533a 5bbe 32f9 0a3f 1237 a1bd
000000d0: 9ada 69be c29e c3be 057b 3c3e 3cdb da3e
000000e0: a718 4d3e 77a0 693e 8340 94bd f078 f3ba
000000f0: 1a9a 05be d246 9ebe 0f26 cdbe fbc3 a83d

final_bn.weight f4 [64]
0.27507496 0.32429782 0.11884558 0.16219482 0.19632284 0.12208847 0.0784592 0.22094832
0.37310848 0.29984754 0.2890519 0.1251829 0.15306285 0.1733216 0.27387938 0.24208693
0.21545082 0.27754468 0.13013953 0.1696221 0.13679658 0.17685711 0.2214274 0.2481842
0.23032936 0.15146928 0.18085928 0.24486193 0.32463998 0.31312054 0.17694081 0.3309272
0.16884387 0.15167405 0.32673672 0.39221877 0.1768681 0.24964127 0.1746767 0.25437605
0.14690642 0.20725112 0.1166099 0.13573904 0.14236842 0.35507354 0.34513822 0.26275387
0.076693244 0.27760705 0.28324592 0.13687767 0.24733083 0.24796247 0.19097158 0.17243816
0.23559417 0.09665194 0.2562828 0.23218362 0.18114017 0.3559698 0.22179298 0.17546515
00000000: a0d6 8c3e 5d0a a63e 5065 f33d 6616 263e
00000010: db08 493e 8509 fa3d 38af a03d 4740 623e
00000020: 1308 bf3e 9e85 993e 9cfe 933e f22f 003e
00000030: 82bc 1c3e 387b 313e eb39 8c3e a3e5 773e
00000040: 249f 5c3e 561a 8e3e 4c43 053e 6ab1 2d3e
00000050: 6714 0c3e 081a 353e ddbd 623e 0024 7e3e
00000060: 76db 6b3e c31a 1b3e 2d33 393e 16bd 7a3e
00000070: 3637 a63e 5651 a03e f92f 353e 4a6f a93e
00000080: 68e5 2c3e 7150 1b3e 094a a73e e6d0 c83e
00000090: e91c 353e f6a1 7f3e 73de 323e 943d 823e
000000a0: a36e 163e a339 543e 2cd1 ee3d 2dff 0a3e
000000b0: 07c9 113e 33cc b53e f5b5 b03e ad87 863e
000000c0: 5911 9d3d 8322 8e3e 9c05 913e a929 0c3e
000000d0: 4b44 7d3e e0e9 7d3e 0e8e 433e a193 303e
000000e0: 993f 713e 74f1 c53d 8037 833e 8bc1 6d3e
000000f0: cf7c 393e ac41 b63e b31d 633e 23ad 333e

final_bn.bias f4 [64]
-0.49542722 -0.1919332 -0.4358344 -0.31809345 -0.008751315 -0.3676053 -0.29291007 -0.5434227
-0.23498139 -0.1500475 -0.26632246 -0.026104618 -0.44764617 -0.40765768 -0.105317235 -0.12916456
-0.16880931 -0.42514464 -0.3571673 -0.339412 -0.13732576 -0.48009154 -0.2192247 -0.19399466
-0.16234517 -0.0902193 -0.48015308 -0.14461906 -0.29192597 -0.23839661 -0.12934415 -0.16436867
-0.47226575 -0.044883583 -0.3461883 -0.29158595 -0.1224442 -0.1943789 -0.09377798 -0.22510472
-0.066178605 -0.1264769 -0.3337639 -0.44683495 -0.50930136 -0.23619896 -0.17133817 -0.12701355
-0.106285065 -0.27138776 -0.1535581 -0.37014493 -0.11459479 -0.15054499 -0.3244338 -0.37814713
-0.17120005 -0.47494227 -0.12798171 -0.48943198 -0.15263963 -0.14543565 -0.09163464 -0.42518705
00000000: a3a8 fdbe 238a 44be b025 dfbe 25dd a2be
00000010: ad61 0fbc c336 bcbe 4ff8 95be c01d 0bbf
00000020: f69e 70be 0da6 19be 6b5b 88be 5ad9 d5bc
00000030: e131 e5be 82b8 d0be 90b0 d7bd b743 04be
00000040: 59dc 2cbe 8fac d9be a2de b6be 69c7 adbe
00000050: 209f 0cbe 8fce f5be 717c 60be 89a6 46be
00000060: d03d 26be e5c4 b8bd a0d6 f5be 0517 14be
00000070: 5277 95be 3e1e 74be cb72 04be 4350 28be
00000080: d1cc f1be d9d7 37bd 983f b1be c14a 95be
00000090: 06c4 fabd 430b 47be ab0e c0bd da81 66be
000000a0: a688 87bd 2983 01be 1ae3 aabe 8dc7 e4be
000000b0: 9361 02bf 24de 71be 4673 2fbe d70f 02be
000000c0: fcab d9bd 56f3 8abe 563e 1dbe a383 bdbe
000000d0: acb0 eabd 7728 1abe 301c a6be 809c c1be
000000e0: 114f 2fbe a22b f3be a30d 03be d496 fabe
000000f0: 904d 1cbe 15ed 14be f1aa bbbd 1eb2 d9be

final_bn.running_mean f4 [64]
-5.360274 -7.225356 -5.2495127 1.800065 -2.858354 -6.476982 -5.43963 -3.8375907
-8.766318 -10.628689 -6.2631116 -3.1048408 -6.681399 -2.5834455 -5.530878 -5.7045474
-7.3982677 -5.8153653 -7.7485557 -4.8185015 1.3009262 -3.0615535 -4.176512 -8.459529
-5.4394584 -5.830941 -5.2743683 -9.797021 -8.250461 -4.5038195 -7.988998 -9.067095
-4.744564 -5.9516616 -4.5592537 -6.6727757 -6.276845 -7.1374974 -4.2167983 -9.431827
-3.4819615 -4.6563454 -6.166435 3.000981 -5.626498 -5.8152676 -8.204831 -9.023763
-2.044963 -6.2620697 -8.279449 -9.696278 -7.376243 -5.7869883 -3.8407245 -3.6497016
-5.581032 -1.2298458 -9.890643 -4.585448 -6.614476 -10.235917 -5.2917004 -3.472652
00000000: 5d87 abc0 1e36 e7c0 02fc a7c0 8868 e63f
00000010: 46ef 36c0 7043 cfc0 7311 aec0 169b 75c0
00000020: d742 0cc1 1c0f 2ac1 696b c8c0 b6b5 46c0
00000030: 05ce d5c0 2c57 25c0 f4fc b0c0 a78b b6c0
00000040: 9cbe ecc0 7917 bac0 2bf4 f7c0 2a31 9ac0
00000050: c084 a63f 7ef0 43c0 fca5 85c0 3b5a 07c1
00000060: 0b10 aec0 1297 bac0 a0c7 a8c0 99c0 1cc1
00000070: e301 04c1 4a1f 90c0 dfa5 ffc0 d212 11c1
00000080: 78d3 97c0 0374 bec0 68e5 91c0 6187 d5c0
00000090: eadb c8c0 6166 e4c0 03f0 86c0 c3e8 16c1
000000a0: 75d8 5ec0 c800 95c0 6f53 c5c0 1310 4040
000000b0: 460c b4c0 ac16 bac0 fd46 03c1 5561 10c1
000000c0: ace0 02c0 e062 c8c0 a078 04c1 f423 1bc1
000000d0: 2f0a ecc0 022f b9c0 6ece 75c0 b694 69c0
000000e0: d097 b2c0 966b 9dbf 1340 1ec1 fdbb 92c0
000000f0: caa9 d3c0 51c6 23c1 9c55 a9c0 ee3f 5ec0
