government_icfes_dataset/mlartifacts/956201576569699187/181a4b16279d4f5a994f48e78495bec1/artifacts/model/data/model.pth (torch, 399808 bytes, 39 tensors)

weight f4 [4, 4]
00000000: b432 89be 3633 ca3f a880 b63f 897e 7ebf
00000010: 73da b93f 61c0 913d fe4b b3be ffbe d7bf
00000020: a0ef 09c0 1322 2ebf 0179 c03e a8e5 433f
00000030: 3ed0 c3be 4aeb 6fbe d922 93bf 2390 1bbd
-0.26796496 1.5796878 1.4258013 -0.9941183 1.451979 0.071167715 -0.35018915 -1.6855162
-2.1552505 -0.68020743 0.3759232 0.765223 -0.38244814 -0.234296 -1.149501 -0.037979256

weight f4 [3, 4]
00000000: 4cd7 8e3f f242 1cbd 6abb 7c3f 7d06 f1bf
00000010: 8555 fd3f 87b1 04bf 0b79 9f3f 1289 3b3f
00000020: df5a 243f 31cb 4fbf 9a28 4cbe 70d6 ae3f
1.1159453 -0.03814978 0.9872347 -1.8830105 1.9791723 -0.51833385 1.2458814 0.7325603
0.6420116 -0.8116942 -0.19937363 1.3659191

weight f4 [5, 4]
00000000: 0853 c8bc 659d 1fbf 3636 403f 2680 f63c
00000010: ee11 f53f 5791 10bf 5094 103f 9ad6 893f
00000020: 1df5 28bf 9e42 1cbf 57b8 0b3f 27bb 3cbf
00000030: b06b 48bf 0af2 8cbd 4bdc 863f f7c6 adbe
00000040: 4b38 2ebf a5b5 233f 3e0e cebf fa9e 2fbf
-0.024453655 -0.6234954 0.7508272 0.030090403 1.9146097 -0.5647177 0.56476307 1.0768616
-0.65999013 -0.6103915 0.54578155 -0.7372307 -0.7828932 -0.06882103 1.0535978 -0.3394086
-0.68054646 0.6394904 -1.6098096 -0.68601954

weight f4 [7, 4]
00000000: 4800 d7bf fdbc cabf 4049 dabe 1be8 ea3e
00000010: a3c1 c1bc 5dad 48bf 7487 51bd 0ece 0d3f
00000020: 1f3a 10be 7562 b03f 91fc d1be 4795 adbf
00000030: d443 1cbf d808 1cbf e1af 1ac0 e754 3bbf
00000040: 1aae de3f 8387 4ebe ff58 063f 1647 20c0
00000050: 8bf3 11c0 6f50 f73d c0a9 d4be 04d4 b0be
00000060: f2ff 41bf 418f cd3f 856a 5d3e 9ab6 06be
-1.6796961 -1.5838925 -0.4263401 0.45880207 -0.023651903 -0.7838953 -0.05115457 0.5539254
-0.14084671 1.3780047 -0.41013005 -1.3561181 -0.61041 -0.60950994 -2.4169848 -0.73176426
1.7396882 -0.20168881 0.5247955 -2.5043387 -2.2804897 0.12075888 -0.4153576 -0.34536755
-0.75781167 1.6059343 0.21622665 -0.13155594

weight f4 [7, 4]
00000000: 1634 2ac0 4617 1bbf 6db8 da3f 4b3c d83f
00000010: c09e a5bf ac71 adbf 0f50 fcbe 7ba2 863f
00000020: 79b8 b13f 8bba 9f3f 801b 8d3f d4a4 15c0
00000030: 13df f03d 69f0 bc3f b4ef f73e fa7e 2cc0
00000040: 6a26 ecbf 3d16 10be f646 143d f79c cc3d
00000050: 51da a73f db89 9b3f 1d2b d3bd 507f 743f
00000060: 791a b13e 3ffa dc3e a3c6 933f 0f40 cfbf
-2.659429 -0.6058239 1.7087532 1.68934 -1.2939072 -1.3550315 -0.4927983 1.0518335
1.3884422 1.2478803 1.1024017 -2.3381853 0.11761298 1.4760867 0.48425066 -2.69525
-1.8449223 -0.14070983 0.036200486 0.09990876 1.31135 1.2151445 -0.103109576 0.95506763
0.3459051 0.43159673 1.1544994 -1.6191424

weight f4 [1025, 4]
00000000: 430f d3bf 286d 673f f1a9 3bbf aa03 9abe
00000010: 910f 13bf 2f4b 42bf 8107 e53d f2c4 483f
00000020: 5f07 acbe 8c70 f33e 3420 e8be 5585 673f
00000030: 9a62 b93e cda4 debf bc88 4abe 0e4c 5abe
00000040: 3ef3 533e fd22 77bf ec93 82bf bc34 c7bf
00000050: bf6c 8a3f 1b7e b1bf 54fc 9c3f 9987 113f
00000060: 3b3e a83e 38e2 ea3e fcd5 e03d 641c 483f
00000070: 783a 843e 0f85 f53f 3fcd 3dbf 2387 fcbf
00000080: 26a5 96bf e88b 193f 17c0 91bf 314c 53bf
00000090: af31 8abf 3529 abbe d3ad ddbf 2f65 223f
000000a0: 08ee 993e 7bc2 44bf c434 4abd 2567 f43f
000000b0: 512b ab3f a41e 60be 618d c93c 500f 923f
000000c0: f714 4c3f 7b61 d1bc 346e 7b3d be94 0a40
000000d0: 5dc3 41bf d633 033e f0ba 0d3f c1f9 093f
000000e0: 5c01 67bf fe6a 8abf 2c22 393f 6791 233e
000000f0: 973a 0bc0 edb8 14bf c99d b9bf 65c7 d4bf
00000100: d8a7 1b3f c427 a73d d47a a53f 555c 863e
00000110: 6448 febe c1ea c63f b51f 183f d48e f3bf
00000120: 3c19 acbf 702e 9d3f db46 b8bf b6d0 9e3f
00000130: 2127 813f 6412 d8bf ccd0 74bf 149e 853d
00000140: 4df1 57be 4299 853f ee19 dbbb 5629 be3f
00000150: 9443 233f 1cb8 d3be 897e 0640 43df 76be
00000160: b1ba 06bf b9a8 0140 e6fc 793f 38b3 9bbd
00000170: bfff 333f 61ef 4fbf e862 e8bd 11e5 7e3f
00000180: 8aff 77bf 1120 85bd fd3f 803e ffcb cabf
00000190: 4b09 e43e 6bee c8bf c142 b0bf ff7c 0ebe
000001a0: 6fcf 8c3f defc 3bbf a199 a03c 2851 91bd
000001b0: 1091 863e fcbf 033f 861e df3e 5642 c8be
000001c0: 9988 a13f 3a67 efbe 6143 79bf 5620 973e
000001d0: 931e 1b3e a70f be3f 27e0 9d3f dc88 cabe
000001e0: e69a bfbe 8880 ba3d ab57 c03e bd42 23bf
000001f0: ab4b b0bf 3ee5 dcbe 9cd5 65be f444 61bf
00000200: a156 65be aa54 74bf 0e89 823f 7cec 81bf
00000210: 9b62 ebbe 3ea4 1cc0 f256 1d3e 9b15 fcbf
00000220: 3f8b 983f 7347 8d3e 9cb2 d03e 0279 e63f
00000230: a742 cdbf 2cfc 833f c864 98be 25c4 243f
00000240: cb6e 34bf 0091 603f 1045 88bf 00b6 403f
00000250: 4f05 6c3f 767a 1dc0 855b 703f a831 463e
00000260: c896 55be 4377 66bd 3c72 6abd fb72 943f
00000270: eeaa 2bbf 2be2 6ebf 8240 c7be 0bb5 e0be
00000280: 9a43 61be 0fb8 86bf 5da9 103f ac57 bebe
00000290: f0df 883f a73f c9bf 18a3 bb3e a9e0 5d3c
000002a0: 367c 13bf c2b1 b63f 6b9d 1640 4be6 05bf
000002b0: 391a 0ebf 8f0a 6c3f 9f0d babf 57fd d3bf
000002c0: 08d1 eebf 0c8f c03f 3bb2 cabe 41be 323f
000002d0: 3a44 36bf fe3e ddbe e70d 26c0 9e91 743f
000002e0: e6ab 1c40 07b3 11bf 62aa a63f 8a6b 363f
000002f0: 0a1d 1dc0 8152 183e 8e60 3ebe 2bc3 a5be
00000300: d7e1 b93f 1d8d 3fbf fff2 c2bf 9594 cfbf
00000310: 85c2 733f d8c8 43bf 8db6 92be 458c 5ebf
00000320: 2660 e93f 862d 18bf 2575 653d eb1a 253e
00000330: fc92 013f e521 b33f 07f4 af3f 593a 1fbd
00000340: c9f7 cbbf b639 b13c 1ee6 35bf b314 d03f
00000350: 416c 2b3e 7475 46be 1805 203f 473a 6abe
00000360: 406a 85bf 458c f5be 68a8 87bf 81d9 e6bf
00000370: bd9c a4bf eeb1 89bf b8f3 6dbe 07fc b43e
00000380: ba90 2940 2f34 973f cc0a 913f 3bbb 99be
00000390: 4245 23c0 9550 1dc0 e405 27bf 7396 27bf
000003a0: 29f8 17bf 8bf4 1e3e b24b 103f 801d dd3c
000003b0: 4e29 d83e 47cd 18c0 ecd6 b7bf 0a0e 4abf
000003c0: ef2e 00c0 cda1 ec3f c18f ba3f 5b71 8cbe
000003d0: a161 0540 8d4c 04bf 869c 023f 27d5 233f
000003e0: 5b44 c1bf 1bee a73d 1e4f 01bf 242a 0640
000003f0: 507b b3bf 8344 32bf 523b aebf e57f 913c
-1.6489033 0.90400934 -0.73306185 -0.3008092 -0.5744563 -0.7589597 0.11183072 0.78425515
-0.33599374 0.47546804 -0.4533707 0.90437824 0.3620804 -1.7394043 -0.19778723 -0.21318075
0.20698258 -0.9653776 -1.0201392 -1.5562968 1.0814437 -1.3866609 1.2264504 0.5684753
0.32859978 0.45875716 0.10978314 0.7816832 0.25825858 1.9181231 -0.74141306 -1.972874
-1.1769149 0.59979105 -1.1386746 -0.82538134 -1.0796412 -0.33429876 -1.7318672 0.63435644
0.30064416 -0.76859254 -0.049366727 1.9093977 1.3372594 -0.21886688 0.024603548 1.1410923
0.7971949 -0.025559178 0.061384395 2.1653285 -0.75688726 0.12812743 0.5536337 0.5389672
-0.9023645 -1.0813901 0.7231777 0.15973435 -2.175451 -0.58094674 -1.4501277 -1.662335
0.60802984 0.081618816 1.2928109 0.2624232 -0.49664605 1.5540391 0.5942338 -1.9027963
-1.3445201 1.2279797 -1.4396623 1.2407444 1.0090066 -1.6880612 -0.956311 0.06524292
-0.21088143 1.0437396 -0.0066864407 1.4856365 0.6377499 -0.41351402 2.101473 -0.24108605
-0.5262862 2.025923 0.9765152 -0.07602543 0.7031211 -0.8122464 -0.1134699 0.9956828
-0.96874297 -0.06500257 0.2504882 -1.5843505 0.4453834 -1.5697759 -1.3770372 -0.1391487
1.1000804 -0.7343272 0.019604506 -0.070955575 0.2628255 0.5146482 0.43577975 -0.3911311
1.2619811 -0.46758443 -0.9736844 0.29516858 0.15148382 1.4848527 1.2334031 -0.3955754
-0.37422866 0.09106547 0.37566885 -0.6377371 -1.3773092 -0.43143648 -0.22444767 -0.8799584
-0.22396328 -0.9544169 1.0198076 -1.0150294 -0.45973668 -2.4475245 0.15365198 -1.9694093
1.1917495 0.27593574 0.40761268 1.8005679 -1.6035966 1.0311332 -0.2976439 0.6436179
-0.70481557 0.8772125 -1.0646076 0.7527771 0.921956 -2.4605994 0.9388965 0.1935488
-0.208583 -0.05626608 -0.05723785 1.1597589 -0.67057693 -0.93313855 -0.38916403 -0.43888125
-0.21998444 -1.052492 0.5650843 -0.37176263 1.069334 -1.572255 0.36647868 0.013542333
-0.57611406 1.4272997 2.353358 -0.52304524 -0.5550876 0.9220361 -1.4535407 -1.6561688
-1.8657541 1.5043654 -0.39589104 0.69821554 -0.71197855 -0.43212122 -2.5945985 0.95534694
2.4479918 -0.569138 1.3020747 0.7125784 -2.4548974 0.14875223 -0.1859152 -0.32375464
1.4522046 -0.74824697 -1.5230407 -1.6217219 0.9521869 -0.7647834 -0.286549 -0.86932784
1.8232467 -0.59444463 0.05601992 0.1612355 0.50614905 1.3994719 1.3746346 -0.038874004
-1.5934993 0.021633964 -0.71054256 1.6256317 0.16740514 -0.19380742 0.6250777 -0.22873794
-1.042305 -0.4795858 -1.0598269 -1.8035127 -1.2860333 -1.0757425 -0.23237503 0.35348532
2.6494584 1.18128 1.133142 -0.30025658 -2.5511022 -2.4580433 -0.65243363 -0.6546394
-0.5936304 0.15522973 0.563655 0.026991606 0.42219013 -2.3875291 -1.4362464 -0.7892767
-2.0028646 1.8486878 1.457512 -0.27430233 2.0840838 -0.5167931 0.51020086 0.6399712
-1.5098985 0.08199712 -0.5051135 2.096322 -1.4022007 -0.6963579 -1.3611853 0.01776118

weight f4 [3, 4]
00000000: 5c47 cfbf 8b61 38bf 6552 c5be b2e8 3fbf
00000010: bfb9 5d3f 62ca 2abf ddf6 803e 6260 013f
00000020: 73ab 07be 7dec 0e3f 322c bc3e 73e5 8ebf
-1.6193652 -0.7202384 -0.38539425 -0.7496444 0.8661155 -0.6671506 0.25188342 0.50537694
-0.13248996 0.558296 0.36752468 -1.1163772

weight f4 [7, 4]
00000000: 816d 7d3f cd4e 06c0 8598 f7be ac8d 183e
00000010: 27d0 9c3e 2eb0 e2bf 6ba2 94bf c146 ecbe
00000020: 0415 0d3f a29a d03e 19e7 f1bf d1ef e5be
00000030: 6bc7 90be d122 82be cce4 7fbc b91b 3f3f
00000040: d983 8ebf c7da 0040 081c 033f d872 ee3e
00000050: 474b 11be cdd3 bc3f 4502 033f 72bd 4f3e
00000060: 08c4 023e 979a c93e 1ef1 9bbe 6604 93bc
0.98995215 -2.0985596 -0.4835855 0.14897794 0.30627558 -1.7710016 -1.1612066 -0.4614773
0.5511019 0.40742975 -1.889865 -0.44909528 -0.28277144 -0.25417188 -0.015618514 0.74651676
-1.1133987 2.013353 0.5121465 0.46571994 -0.14188872 1.4752136 0.5117534 0.20287111
0.12770092 0.39375755 -0.30457395 -0.017946433

weight f4 [7, 4]
00000000: 0bfb abbf 24d8 193f c257 a73e 2eb3 71be
00000010: ccc9 ed3f d623 2d3e c053 42c0 0ef6 29c0
00000020: cd84 0a3f 029e 3fbf c1b0 0c3e 655c 1fbf
00000030: 6d34 aabe 4f1f 9cbe a1c7 473f 4910 15bf
00000040: a1b0 993e 019c 6c3e d8b9 83bf c14e 203f
00000050: 6d02 0cbe 3e1b a1be a49f 39bf d787 a63f
00000060: 479c b5bf 2a8f 55bf 207b 63bf cf85 cdbe
-1.3435987 0.6009543 0.3268414 -0.23603508 1.8577209 0.16908202 -3.0363617 -2.655643
0.5410889 -0.74850476 0.13739301 -0.6225036 -0.33243123 -0.30492637 0.78038985 -0.58227974
0.3001757 0.23106386 -1.029109 0.6262017 -0.136728 -0.31466097 -0.7250922 1.3010205
-1.4188317 -0.83421576 -0.8885975 -0.4014115

weight f4 [3, 4]
00000000: be9e ffbf b9d1 dd3f 7c63 cfbf 5a46 34bf
00000010: 09fc ac3f cd03 cf3f 1c1a 8e3f de60 413f
00000020: dbc5 963f 23e1 a0bf 9520 de3f 2c43 123f
-1.9970319 1.7329627 -1.6202235 -0.7041985 1.3514415 1.6173035 1.1101718 0.7553843
1.1779131 -1.2568706 1.7353693 0.57133746

weight f4 [427, 4]
00000000: de1a 1740 d401 893f 25b9 01c0 b74b 613f
00000010: d72a 52bf 8e94 4d3f ffd3 c2be 56fb b3bf
00000020: 765b aabf 3c48 6f3d c87d 86bf 9e18 8a3e
00000030: 3be5 293f 2f39 e7bf bfd1 2540 8c04 fdbf
00000040: 48f2 90be 14ca 2f3f f8ed 753e 0dbc d2bf
00000050: d3a4 7d3f 10c0 cc3d c107 9d3f 723c 77bf
00000060: 9cd5 d03f 3e78 253e 6acf 833f fc30 1fbf
00000070: d2d3 9abf fca6 503f 0dda 2cbf e9a1 623f
00000080: a48b cebf 7e8d 1d3e a3d0 533f 39b5 5c3f
00000090: 5237 ebbe 36cd 823f 4fd1 953f 112f b6be
000000a0: f612 933d 9f66 063f 6651 043f 112b 8b3c
000000b0: 5613 02bf ef84 b93f a408 1c3f 4e6e 2f40
000000c0: 3484 34c0 52fb 82bf ed12 2a40 3e34 9c3f
000000d0: cd64 99bf 7ba5 903f 340a 0d3e 874d cf3f
000000e0: a0b7 88bf 4980 f3be 25d3 32be 3bdc 48c0
000000f0: 1659 c3bf 0c42 e8be 4533 ba3e 622a 03bf
00000100: e5f2 0c40 dc1d 2d3f 35c0 17be e7d1 0f3b
00000110: ecd6 573f 2b7c ccbe 06fd bc3f 69ac 8e3e
00000120: 98c3 0e3f a88b 733e 8428 a7bf 9e09 883f
00000130: 9f87 94bd 9301 57bf d629 0640 af99 d3bf
00000140: 0ead d1be e719 39c0 7334 80be eba6 11bf
00000150: b601 ac3d 32b6 cf3e db97 20c0 1688 c03f
00000160: e4e4 8b3f 6a03 8dbf 5c56 5abf 89a5 0740
00000170: c5ce d93e e8c0 0e40 015c dc3f dc56 09bd
00000180: d899 d53e bc2c 25bf 7e4e 1dbf c5ed 28bd
00000190: eb03 5b3e 9176 5abd 981e 443f 5384 7bbe
000001a0: 271e 233f c5c4 94bf 9949 a1be 1f18 85bd
000001b0: f037 e43f 15bf c0bf df2a 8bbf f2c1 d93f
000001c0: 8462 c4bf 2284 0ebf d202 0340 3ee4 b5bf
000001d0: fe80 3c40 3089 d8bf fb1c 39be 3b86 8ebf
000001e0: 8101 43be 6690 453f e372 553e 85ca 3e3f
000001f0: 9f79 a53d c701 403d c886 0540 aaef 523f
00000200: 43cb 4dbf f952 43bf b293 dd3f 8178 23c0
00000210: 33e1 673f 8f7d 0cbf d69d 5f3f 2707 a5bf
00000220: 8e44 663e fafc 5dbf dadf 1640 8108 643f
00000230: b7c0 31c0 dc89 83c0 b4c3 bf3f 21c1 13c0
00000240: 5b97 ddbf e741 083f b6fc 55bf b87c 563f
00000250: f060 eb3c ecd9 14bf b5ed 80be d684 47bf
00000260: 5ca0 5f3f 477e 2c3f ed08 f1bf ca02 d03f
00000270: 19e5 4e3f 97d2 e73c 554f 2fc0 8e47 1940
00000280: 4526 db3f f348 23bd bd0b 37bf 5836 913f
00000290: 798a 0e3f 7438 1a3f 9a16 cabf 6331 b13e
000002a0: 341f 93bf 6263 d3be 02de c8bf cbf2 d63f
000002b0: 02dd c13f b586 763e a9f9 1640 e18f 323e
000002c0: 5fd1 33be 7008 f0be 37fe 40bf dec3 0dbf
000002d0: f4a7 60bf 1250 783f 040e 873d 0f53 bc3f
000002e0: d5f2 d23f 507f ec3f 1780 30c0 d8e9 e6bf
000002f0: be0a 1dbf 0083 b5bf fc61 e63e 81f7 7bbf
00000300: bb60 e7bd 575a 8dbf 20ee 66be 4f0f 023f
00000310: 3633 403f bc4b cdbe b3f0 49be 43ac c1bd
00000320: e98c e2be a6e4 313f 6eb2 113f be38 65bd
00000330: ff4d f03d b892 ff3c 44f9 813f cdb4 4c3f
00000340: 1ae3 afbf 81a0 89bd e8ab 61bf 8f56 ae3e
00000350: b1d8 1d3e 6e4e a63f 8e3e 0ac0 1785 a9be
00000360: 05fc e53d 6585 0340 8176 983e b867 673e
00000370: e6b0 c0bf 1f2a 28bf a580 e2bf 8703 5dbe
00000380: 270b fa3d 816c 03bf 462f cdbd f9e9 a53f
00000390: 0554 9bbe cd55 01be bb51 583f 29c5 90bf
000003a0: 310a 4a3e f149 8d3f d888 9f3f 3d14 773e
000003b0: 8db8 b3bf a233 81bf 3ac9 f13f b6dd dfbf
000003c0: 47c9 a53f a189 a23f e3a7 00bf 6c2b 463f
000003d0: 2a87 22bf 8a8d 893f 8f4a 6bbe 19c2 a73e
000003e0: 41c3 c6be 90ec afbe 05c6 e23f ab9c 06be
000003f0: 7a43 95bf 5de9 ddbf edc1 4e3f 9cca 823f
2.3610148 1.0703683 -2.0269253 0.88006157 -0.8209662 0.803048 -0.38052365 -1.4061077
-1.3309162 0.058418497 -1.0507135 0.26971906 0.663654 -1.8064326 2.590927 -1.9767013
-0.28309846 0.6866772 0.24016559 -1.6463639 0.99079627 0.099975705 1.2267991 -0.9657661
1.6315188 0.1615915 1.0297673 -0.6218412 -1.2095892 0.815048 -0.6752022 0.88528305
-1.6136365 0.15386006 0.8274023 0.86214024 -0.45940644 1.0218875 1.1704501 -0.35582784
0.07181351 0.5250034 0.51686704 0.01698831 -0.50810754 1.4493693 0.60950685 2.7411075
-2.820569 -1.0232947 2.6574051 1.2203443 -1.1983887 1.1300501 0.13773423 1.6195534
-1.0681038 -0.4755881 -0.17463358 -3.1384418 -1.5261562 -0.4536289 0.3636724 -0.51236546
2.202325 0.67623687 -0.14819415 0.002194518 0.8431232 -0.39938483 1.4764717 0.27865914
0.557672 0.23783743 -1.3059239 1.0627935 -0.0725243 -0.8398678 2.0963035 -1.6531276
-0.40952343 -2.892206 -0.25040016 -0.5689532 0.08398764 0.40568691 -2.5092685 1.504153
1.0929227 -1.1016667 -0.85288024 2.1194785 0.42540565 2.230524 1.7215577 -0.0335301
0.41718936 -0.64521384 -0.61447895 -0.04124238 0.21388213 -0.05333573 0.7660918 -0.24562196
0.63717884 -1.1622549 -0.31501463 -0.06498741 1.7829571 -1.5058314 -1.0872458 1.7012312
-1.5342565 -0.5567037 2.0470471 -1.4210279 2.945373 -1.6916866 -0.18077461 -1.1134714
-0.19043542 0.7717346 0.20844607 0.7452777 0.08079838 0.046876695 2.0863514 0.8239695
-0.8038828 -0.7629848 1.7310698 -2.55423 0.90578 -0.5487909 0.87350214 -1.2892808
0.22487089 -0.86714137 2.3574128 0.89075476 -2.7773874 -4.1105785 1.4981599 -2.3086627
-1.7311815 0.5322556 -0.8358873 0.83784056 0.028732747 -0.5814502 -0.25181356 -0.77937067
0.87354064 0.67380184 -1.8830849 1.6250851 0.80818325 0.02829866 -2.739217 2.3949924
1.7121054 -0.03986449 -0.71502286 1.1344709 0.5568004 0.6024239 -1.5788147 0.34607992
-1.1493897 -0.4128676 -1.5692751 1.6792845 1.5145571 0.24074824 2.358988 0.17437698
-0.17560337 -0.46881437 -0.753879 -0.55376995 -0.87756276 0.9699718 0.0659447 1.4712847
1.6480356 1.8476353 -2.757818 -1.8040113 -0.61344516 -1.4180603 0.4499663 -0.98424536
-0.11297747 -1.1043195 -0.22551775 0.5080461 0.7507814 -0.40096843 -0.19720726 -0.094566844
-0.4424813 0.69489515 0.5691289 -0.055962317 0.117336266 0.03119789 1.0154195 0.7996338
-1.3741181 -0.06720067 -0.88152933 0.34050414 0.15414692 1.2992685 -2.160068 -0.33109352
0.112297095 2.0550168 0.2977791 0.2259816 -1.5053985 -0.6568927 -1.7695509 -0.21583377
0.122091584 -0.5133744 -0.10018782 1.2962028 -0.3033754 -0.12630387 0.8449971 -1.1310169
0.1973045 1.103819 1.2463636 0.24128814 -1.4040695 -1.0093882 1.8889534 -1.7489536
1.295205 1.2698251 -0.50256175 0.77410007 -0.63487494 1.0746319 -0.2297766 0.32765272
-0.38820842 -0.3436017 1.7716681 -0.13145702 -1.1661217 -1.7336842 0.8076466 1.0218081

weight f4 [1030, 4]
00000000: 3568 d7bf 1d18 003f dca4 bfbe 8906 b13f
00000010: 7934 c1bf e243 7c3f 1a43 09c0 7e98 c63e
00000020: 48a9 25bf 2208 b7bf 6ff2 cabf 296f e5bf
00000030: 5086 05be ecd5 dfbf d315 5a3f 9480 b33f
00000040: 3ff2 7d3d f192 10bd 7716 bbbe e61c 723f
00000050: 94ff e03e a48a 053f 4ffe fb3e 252a 543e
00000060: 18e0 2c3f e8f1 b93f 5658 a73f 911f 5bbe
00000070: 78c9 193f 4042 84bf b7b1 293f a927 3fbf
00000080: 62ca 88bf 0d38 a1be 6f7a 973f db47 bebe
00000090: b331 21bd de0f 873e a95b 4abe 6161 923d
000000a0: 4389 98bc 1d70 a6bd cd10 13be 8dc8 f93d
000000b0: afb8 1abf 44c0 20be 5ac3 70bf 1f29 dcbf
000000c0: 8c0f 403f 365c cd3e 8363 16bf 85a6 d23e
000000d0: 9063 bd3f e9ee 2a40 7fc6 463e 6b3d 8c3e
000000e0: 0c07 28bf 46d0 97bf 6209 b9be bf7b 243f
000000f0: 7bc6 503e 266f 1c3d b1be af3f e9e3 1f3f
00000100: 2e2b 5b3d ef4b 6b3f 2c6b 51bf c079 89bf
00000110: 7cb5 1dbf c2ce b53e 053b fabe c332 dcbe
00000120: 713f 0f3f 9f5e 3cbf 1b4b 5f3f fab2 52bf
00000130: 6854 08bf 8321 1b40 ce85 cb3f d12b 593f
00000140: 26ae ae3f ed9c 4ac0 b4d5 ef3d 4bef 2bbf
00000150: b06b 55be fe8c 753e 8000 503e fc26 e1bf
00000160: 77b4 c7be 87ab fe3e 6844 df3e b7fb 7c3f
00000170: 1e8f 183e 9e4a 3cbf 3aae 0940 29ab 8e3e
00000180: 42e5 b8bd 8739 14bf 050b 953f a072 68bf
00000190: ccf3 f83e e174 4dbc 1bd8 8dbe 9214 abbd
000001a0: 56bc 053e e103 e93f 10af 4e3e 9df7 82bd
000001b0: 68ba 293f 4018 a43f efd4 be3f 4ade b23f
000001c0: 9502 083f 8b78 acbe 5093 89be 7689 32be
000001d0: 4b86 e4be af6d 623f 5178 ed3f 61a9 c43f
000001e0: 9ab1 873f d1c8 3f3e 1abe 093f a77d 253f
000001f0: 0fed 8ebf 2271 e7bf 7cb2 273f 3f19 6abf
00000200: 52d3 0bc0 4743 c03e 38ad 723e fb90 93be
00000210: d9e2 9c3f e9e4 32be 3e00 e83f 231a 08bf
00000220: a5f3 9fbe 3539 8a3f ab2b 7fbd e7a3 8c3f
00000230: 5213 a3bf ad32 c7bf 62f3 413f 734d 90be
00000240: e2ef 273f 14cb 4dbf c30f 3140 194a c83f
00000250: e2c8 c8bf 568f 0cbf 1589 913f d0c0 00bf
00000260: 0994 473f 58b5 ac3f 537f 603e 4a11 4abf
00000270: e381 1b3f 1c37 d5bf 92c1 30bf be46 2d3f
00000280: 0e92 dd3e c85f ae3f d074 783f f95e a33e
00000290: 702e 1f40 2404 b33f 78f9 673f 6c59 bcbe
000002a0: 03d4 883f 3aea 643e abec 91be 90e2 20bf
000002b0: 5e49 d7bf 6d2d 453f a829 793e ecb3 32bf
000002c0: 8b00 9d3d ee21 913f 9281 b03f a0a1 1e40
000002d0: 2018 d53f 9d83 383d 4903 4640 9c6c c5bd
000002e0: 015d 0fbe f455 97be a597 8a3e 9f74 f03e
000002f0: 9ae2 d73f 059f f03f 420d e93e 17c3 ee3e
00000300: 0664 b83f b8d4 ab3f 79ee 2c3e d8ba a8bf
00000310: 0d38 583f f01e e8be 37f1 053f 5ccb e6bd
00000320: d2d8 553e d358 9fbf 8c8c 33bf b64a 9bbf
00000330: 8a81 c23e b6b0 01be 948f 373e 1cca b6bf
00000340: a945 2c3f c363 483e b60e 1bbf 12c3 823f
00000350: aa80 b53f a853 163d 43b7 a4bf 088f 9cbf
00000360: 1367 acbf f6e5 713e 93a8 afbf 4906 c73e
00000370: ac11 d03f 0b98 1640 1af9 b63f 966d a33f
00000380: 1282 01be 3462 9b3f 7b3d 08bf 6986 5a3f
00000390: 1997 5cbf da76 b33f 82c5 943f 2932 793f
000003a0: d292 5f3e 406a bdbf eccb 6f3e 5ede a53f
000003b0: ef19 0340 9e8d c13e e4c0 f2be 5ca6 c4be
000003c0: 86f5 2ebf 72c1 24bf fbdd c93f ec37 883f
000003d0: d676 09bf 87ab 113f 6a9e 0fc0 d72d 9fbe
000003e0: 6126 c83f b23b 403e 1788 a63f 0689 263f
000003f0: 58c9 1f40 95de 713f e95d 0040 c043 33bd
-1.6828676 0.50036794 -0.37430465 1.3830119 -1.5094138 0.9854108 -2.1447206 0.38788217
-0.6471143 -1.4299357 -1.5855235 -1.7924548 -0.13039517 -1.7487159 0.8518955 1.4023614
0.061998602 -0.035296384 -0.36540577 0.94575346 0.4394499 0.52164674 0.4921746 0.20719202
0.6752944 1.4526949 1.3073833 -0.2139876 0.6007304 -1.0332718 0.66286796 -0.7466989
-1.0686762 -0.31488076 1.1834239 -0.37164196 -0.039354037 0.26379293 -0.19761528 0.0714748
-0.018620139 -0.08126853 -0.14361878 0.12196455 -0.60438055 -0.15698344 -0.9404808 -1.7200049
0.7502372 0.40109414 -0.5874559 0.4114267 1.4796009 2.670832 0.19411658 0.27390608
-0.6563575 -1.1860435 -0.3613997 0.6425132 0.20388214 0.038191937 1.3730069 0.6245714
0.053507976 0.9191274 -0.81804156 -1.074028 -0.6160505 0.35509306 -0.48873153 -0.43007478
0.5595618 -0.7358188 0.87223977 -0.82304347 -0.53253794 2.4239204 1.5900209 0.84832484
1.3646896 -3.165828 0.117106825 -0.6716201 -0.20841861 0.23979566 0.2031269 -1.7590022
-0.3900487 0.4974024 0.43606877 0.98821586 0.14898345 -0.73551357 2.151259 0.2786496
-0.090281025 -0.5790028 1.1643988 -0.90799904 0.48623502 -0.012540073 -0.27703938 -0.08353533
0.13060126 1.8204309 0.20183969 -0.06394885 0.6630006 1.28199 1.4908732 1.3974087
0.5312894 -0.33685717 -0.26870203 -0.1743525 -0.44633707 0.88448614 1.8552343 1.536419
1.0601075 0.18728949 0.53805697 0.64644855 -1.1166095 -1.80814 0.6550672 -0.9144477
-2.184773 0.3755133 0.2369889 -0.2882155 1.2256728 -0.17470135 1.8125074 -0.5316488
-0.31240574 1.0798708 -0.062297504 1.0987519 -1.2740271 -1.556234 0.75762 -0.2818409
0.6560041 -0.80388 2.766587 1.5647613 -1.5686305 -0.54906213 1.1369959 -0.5029421
0.7796026 1.3492842 0.2192357 -0.7893263 0.60745066 -1.6657443 -0.69045365 0.6768607
0.43275493 1.362298 0.9705324 0.31908396 2.4872093 1.3985639 0.90615034 -0.36786973
1.0689701 0.22354975 -0.28500876 -0.62845707 -1.6819265 0.7702244 0.24332297 -0.6980579
0.07666119 1.133848 1.3789542 2.4786148 1.6647987 0.04504739 3.0939505 -0.09639856
-0.14000322 -0.29557765 0.2706882 0.46963975 1.6866028 1.8798529 0.45517927 0.46633217
1.4405525 1.3424292 0.16887845 -1.318202 0.84460527 -0.45336103 0.5232119 -0.112692565
0.20883492 -1.2448982 -0.7013633 -1.2132175 0.37989455 -0.12665066 0.17925864 -1.4280429
0.6729379 0.19569306 -0.6056932 1.0215781 1.417989 0.036700875 -1.2868427 -1.223115
-1.3468956 0.2362288 -1.372332 0.38871983 1.6255393 2.35303 1.429477 1.2767818
-0.12647274 1.2139344 -0.5321881 0.85361344 -0.86168057 1.4020646 1.1622775 0.97342163
0.21833351 -1.479805 0.23417634 1.2958486 2.0484579 0.37803358 -0.4741279 -0.38408172
-0.6834339 -0.64357674 1.5770868 1.0642066 -0.53696954 0.56902355 -2.2440438 -0.3108966
1.5636712 0.18772772 1.3010281 0.6505283 2.496664 0.9448026 2.0057318 -0.043765783

weight f4 [7, 4]
00000000: 3c04 a3be 5abb 12bf aef9 70bc 25cf 553f
00000010: 95e1 c63e e0a0 9f3f e3fe 4b3e cb29 8dbf
00000020: e844 f2be d928 8c3f 45dc ab3f 8f89 17bf
00000030: 9014 783f ddc8 9cbe d343 aebf ec3f a6bf
00000040: 30c4 6e3e b804 c2bf 1587 c7bf 81c7 82bf
00000050: 5f75 13c0 f0ad b1bd 45a1 f2bd d173 9f3f
00000060: 21a6 313e c582 3ebe 6528 7cbf 9a23 81bf
-0.31839168 -0.57317126 -0.014707966 0.835192 0.3884398 1.247097 0.1992145 -1.1028379
-0.47318196 1.0949966 1.3426596 -0.5919427 0.96906376 -0.30621997 -1.3614448 -1.2988257
0.23317027 -1.515769 -1.5588099 -1.0217134 -2.3040388 -0.08675754 -0.11847166 1.2457219
0.1734853 -0.18604572 -0.9849914 -1.008899

weight f4 [7, 4]
00000000: ba48 33be ee95 ebbd 35f9 34be 2fe8 69be
00000010: b1ca 0f3f f6e8 393f d807 0dbf 6ac0 8d3f
00000020: c633 273e 774a 0740 6829 93bf 8423 8cbf
00000030: ac6d 87be b145 35bf 2934 b4be caf9 20c0
00000040: 510c 2fbe c7a5 3ebf 041d a3be 4a8e ee3e
00000050: c199 1dbf 9c60 d03f 9895 d7be 6f4c 34bc
00000060: 4107 b33e f1e4 d8be f15f c03f 8fda 6bbe
-0.17508212 -0.11503206 -0.1767319 -0.22842477 0.5616866 0.72621095 -0.55090094 1.1074345
0.16328344 2.11392 -1.1497011 -1.0948339 -0.2645086 -0.70809466 -0.35196045 -2.515246
-0.17094542 -0.74471706 -0.31858075 0.46592933 -0.61562735 1.6279483 -0.42106318 -0.011004551
0.34966472 -0.42362168 1.5029279 -0.23032592

weight f4 [7, 4]
00000000: 699a 26bf b4e4 993f 7a84 803f e0b6 8abf
00000010: 32aa 133d 63cf a0bf c3f0 95bf 02ea 42be
00000020: 2571 043f 9cd5 17be ec6e efbe 99fe 8b3e
00000030: e7b2 b6be 2654 613e cdd1 07be c275 443e
00000040: 2627 9abf bf03 033f 1efd 433f 8f76 fdbe
00000050: 21b7 3e3f 9d6f cfbe 61cd 853e a230 1abf
00000060: e85a 213f b75e c93f 044a 633e 03c4 fbbe
-0.6507936 1.202292 1.0040429 -1.0837059 0.036050983 -1.2563289 -1.17141 -0.1903458
0.51735145 -0.1482758 -0.46764314 0.2734268 -0.35683367 0.22004756 -0.13263626 0.19185546
-1.2043197 0.5117759 0.765581 -0.49504516 0.7449818 -0.40514842 0.26133254 -0.6023046
0.63029337 1.573203 0.22196203 -0.49172983

weight f4 [6, 4]
00000000: 123a 1b40 1d2f af3f 65ae 9a3f 0043 ac3f
00000010: 4830 aebe 86c7 383e be50 a73e 55ef 9e3e
00000020: 7779 84be f396 a8bf fcad d8bf 836a 51bf
00000030: e8e1 3ebe 82d2 4dc0 861b f3bd 071a 10c0
00000040: 5473 0ec0 9075 e2bf 9c54 af3e fc1b 98bf
00000050: 05b0 0b3f 705d c7bf 309c 883f b584 fa3b
2.4254193 1.3686253 1.2084471 1.3457947 -0.3402121 0.18044862 0.3267879 0.3104197
-0.2587392 -1.3171066 -1.6928096 -0.8180315 -0.18640864 -3.2159734 -0.11870484 -2.2515886
-2.225789 -1.7692127 0.3424424 -1.188354 0.5456546 -1.557539 1.0672665 0.0076452144

weight f4 [16, 1, 3]
00000000: b091 abbc 5183 163f 9e58 133f f7b2 c83e
00000010: c5ec dcbe 2abd a5be 228a d93e 61df d03e
00000020: 5c4e 97be 1e07 ca3d 1bdf 40bf a1d9 6a3e
00000030: d4f9 11bf c4a7 eb3e 2b0a ab3c 392c ae3e
00000040: 5382 e1be ae57 fa3e 2d02 193d 3798 88bf
00000050: 0a34 223e daef eabe f89c eb3e 9067 da3d
00000060: 1e69 853d 2de2 4bbf d0fa a83e ea64 5b3c
00000070: 10b9 923d 4b55 65bf 62b2 af3e 2d7b ac3d
00000080: 9475 1ebf c82a 7fbe 4d7a d73c 94f8 4bbf
00000090: aeb2 0dbf ea4e 073f eeb6 2ebc ac15 1cbd
000000a0: 6c84 1e3f cb1c 183f c890 b13e da55 dfbe
000000b0: 3782 77be 3b90 9c3e 0664 22bf b20f d2be
-0.020943493 0.5879412 0.57557094 0.3919904 -0.4314939 -0.32370883 0.424882 0.40795425
-0.2955197 0.09864639 -0.7534043 0.22934581 -0.5702183 0.46026433 0.020878872 0.34018114
-0.44044742 0.4889502 0.03735559 -1.0671452 0.15840164 -0.45886117 0.46018195 0.10664284
0.0651419 -0.7964199 0.33003855 0.013390759 0.07164204 -0.8958327 0.34315783 0.084219314
-0.6189816 -0.24918664 0.026303435 -0.79676175 -0.5535077 0.5285479 -0.010663731 -0.038106605
0.6192081 0.59418935 0.34680772 -0.43620187 -0.24170767 0.3057879 -0.63433874 -0.410276

bias f4 [16]
00000000: 3a88 c33e e87e 9f3e cec1 0dbe fa8e 94be
00000010: d65a d9bd 9669 ca3e e84d a43d db10 bc3e
00000020: d4c7 b43e 4ee7 b73e 6db9 81be a3f9 eb3e
00000030: d967 b6be 6246 c13e fcae 15bf 8223 293f
0.3818987 0.3115151 -0.13843462 -0.29015332 -0.10613029 0.3953368 0.08022672 0.3673161
0.35308707 0.3591866 -0.2533678 0.46088895 -0.35626104 0.3774901 -0.5847013 0.66069806

weight f4 [32, 16, 3]
00000000: 1bb8 693e 4306 c6be 0a6c 913e e157 11bf
00000010: 08ec 843e e19b 7e3e e902 aabd c494 9c3e
00000020: ed70 49bd 97a9 343e 83c7 0e3f 72fb ed3c
00000030: 0200 e539 cadc 2abf eaca 113d 931a 153e
00000040: 6303 e73e f61f 8f3e b551 6fbd 6a4a c93e
00000050: 25ce fc3d 7765 533e bbe5 6abf 1907 733d
00000060: 0910 213e aa76 303f fb0a f13d 8e43 853e
00000070: 47c7 6b3d 9633 163f f860 b6be 853c a83e
00000080: a76a 0d3e f835 833e 5b9c eabd 80d7 0c3f
00000090: 81fc 5d3d 7b48 42bf 47c6 a93e 8c5f 313c
000000a0: 1f09 cebe 79d9 633d 3304 c1bd d976 013f
000000b0: d5b9 913e eb29 67be c912 023f 7d20 6e3b
000000c0: b53d 87be 7cd3 8a3e 145f aabe f2da 85bb
000000d0: 22b0 6bbf 7c9c 9a3e 39ab db3d 6483 cd3e
000000e0: 6ad3 e73d b7d9 833d d45b 043e 8e4f 1d3e
000000f0: 439d 313e a473 463e 9039 25bf d2f4 833e
00000100: e5be 913d 3cb3 083f 1d1f bfbe 7c0a 1e3e
00000110: c39a 9b3d 38db 403d eb64 8c3e ddc5 39bf
00000120: 80a4 f6ba 9689 2d3e c7ce 2e3d af7f 593e
00000130: 2d89 da3c a0c8 3abe 9d70 9ebd 1cd1 a03e
00000140: e062 33be 4308 b03d 223b 26bd 270f a8be
00000150: aa07 bbbd 5c0c f23e 9043 4fbf fa0c 16be
00000160: eb59 cc3e cd7b a9be e330 a1bc 2830 65bf
00000170: 2e91 093e c983 8fbd 70a2 56bf 498e 653e
00000180: d8cd 563d 4558 4a3f 0b98 373e c7f6 93bc
00000190: 5b84 aebc 1fc6 c23c d7cc 9e3d 7e5f 21be
000001a0: acfd 383f e266 a6bd aa04 e1be 7337 9ebe
000001b0: ed1d 163f 7330 90be 62fa 57bd 5318 133f
000001c0: 5c3b 36bd f9e1 87be 040e 853d 6d3a fbbe
000001d0: cf27 fcbd 92bc bd3e 4941 18be 894e 6bbe
000001e0: 3f3f 853d 7e37 ebbe 89cc c6bd 93f3 b4be
000001f0: c625 2dbf 877c fb3e 08da c8be 7065 01bf
00000200: b0c1 423e bac1 e8be fd32 0abf e3ab 84be
00000210: 33b9 913e 130c 43be 72eb cfbd 7278 c93e
00000220: c4d7 fc3e a99d 823e db41 1d3e 6e51 3abe
00000230: 8d2e 02be fae9 0b3e 7b6a efbd caf0 ab3d
00000240: e9c9 133f f8e3 cabe 3340 9ebe f9ce 6ebd
00000250: df1a 943e 70b7 0cbd 5a22 2cbe e564 603e
00000260: 024d 14bf fb4b 77be f49f 58be 4658 48bd
00000270: d361 413e 174d 09bf fff0 8739 1e11 a93d
00000280: 34e2 d8be a5ed a4be 8a9d e8bd 0bb8 efbd
00000290: 1d7d c3bd 8c56 f33e 41f8 fcbe 905d 02be
000002a0: c1de eabe 75c9 e8be bba8 97be df09 41be
000002b0: 5503 08be efe9 4a3f 07aa cbbb c20e 903e
000002c0: 1ca3 3abe 2a5a 05bf b455 89be 97ee d83e
000002d0: a045 903e ad8c d6be c0f2 943d ef56 3e3f
000002e0: c69a 22be 9c86 58be 825e 163e 74b0 283e
000002f0: 595c 85be 0e70 2fbd 2711 cdbd a825 2dbe
00000300: 9f6e b3be 0b33 063d 7087 353d be99 af3e
00000310: 219f fdbe 5f17 123e b479 ed3d aef0 54bd
00000320: f33b e7be dffe 813e 7223 cabe 10f5 e3bd
00000330: 34a0 87be 6949 923e 38d6 49be ba67 89bd
00000340: 8049 81be 042c a83d de11 cfbc 0f26 a1be
00000350: 1465 49be 5838 11bf 80fc a23e 89ea ad3d
00000360: 637c c13e 90a1 97be 4bb8 40be f686 f53d
00000370: 0212 12be 1d6c 7abf 95f6 0d3f 40f6 483e
00000380: d0e7 8abf f5cd 39bd ce61 d5be e48a 2fbf
00000390: ef2c 07bf ee79 1e3e 3b89 9ebc 5464 f5be
000003a0: 41a4 de3d f9cd 0a3e 835c 633e 23c6 9abe
000003b0: 4fa9 b3bd 83f1 223e de78 edbe 584d f33d
000003c0: 3dcf 5f3e 61cd 233f ce2d cebe 08d9 1d3e
000003d0: 5bec debe b84b ba3e 8c8d 2b3d 2833 223f
000003e0: d19e 043e 038a 343e 5280 7abe bcca c4bc
000003f0: e697 c83e 253f 3c3e a563 90be e2e2 933d
0.22824137 -0.38676652 0.2840274 -0.5677472 0.25961328 0.2486415 -0.08301336 0.3058225
-0.04917996 0.17642818 0.5577318 0.029050563 0.0004367829 -0.6674315 0.035593905 0.14560919
0.4511977 0.27954072 -0.05842753 0.39314586 0.123440064 0.20644175 -0.9175679 0.05933294
0.15728773 0.68931067 0.117696725 0.26028103 0.057563093 0.58672464 -0.35620856 0.32858673
0.13810216 0.25627112 -0.11455604 0.55016327 0.054195885 -0.75891846 0.33159086 0.010826003
-0.40241334 0.05562732 -0.09424629 0.5057197 0.2846209 -0.22574584 0.50809914 0.0036335282
-0.26414266 0.27114475 -0.33275664 -0.004084938 -0.9206563 0.30197513 0.107260175 0.40139306
0.11319621 0.0643801 0.12925655 0.15362379 0.17345147 0.19380051 -0.6454096 0.2577272
0.07116488 0.5339849 -0.37328425 0.15433687 0.07597878 0.047084063 0.27420744 -0.7256754
-0.0018817335 0.16947016 0.042677667 0.21240114 0.026676739 -0.18240595 -0.07736323 0.31409538
-0.17518187 0.08595326 -0.040583737 -0.3282406 -0.09132321 0.47275054 -0.8096247 -0.14653388
0.39912352 -0.33102265 -0.019676631 -0.89526606 0.13434288 -0.07007558 -0.8384161 0.22417559
0.0524424 0.7904094 0.17929094 -0.018062009 -0.021303346 0.023776112 0.07753914 -0.15759084
0.7226207 -0.08125092 -0.4394887 -0.3090168 0.58639413 -0.28161964 -0.052729018 0.5745899
-0.044490203 -0.2653959 0.06496814 -0.49068013 -0.123122804 0.3705793 -0.14868654 -0.22979178
0.06506204 -0.45940775 -0.09706981 -0.35342082 -0.6763576 0.49118444 -0.39228845 -0.50545406
0.19019198 -0.45460302 -0.5398405 -0.2591239 0.28461608 -0.19047575 -0.101523295 0.39349705
0.49383366 0.2551091 0.15357153 -0.18195125 -0.1271307 0.13663474 -0.116902314 0.08395536
0.57729965 -0.3962705 -0.30908355 -0.058302853 0.2892675 -0.034354627 -0.16809979 0.21913488
-0.57930005 -0.24150078 -0.21154767 -0.04891231 0.18884973 -0.53633255 0.00025928763 0.08255218
-0.4236008 -0.32212558 -0.11358173 -0.11705025 -0.09545348 0.47526968 -0.49408153 -0.12731004
-0.45873073 -0.454662 -0.2962092 -0.18851422 -0.13282521 0.79263204 -0.006215337 0.2813626
-0.18226284 -0.52090704 -0.268232 0.4236953 0.2817812 -0.41904202 0.072728634 0.743514
-0.15879354 -0.211451 0.1468449 0.16473562 -0.26047018 -0.042831473 -0.10013037 -0.16908896
-0.35045335 0.032763522 0.044318616 0.34296983 -0.49535468 0.14266728 0.11595479 -0.051987343
-0.45162925 0.25389764 -0.39480168 -0.11130726 -0.26489413 0.28571633 -0.19710624 -0.067092374
-0.2525139 0.0821152 -0.025277074 -0.3147435 -0.19667464 -0.567266 0.31833267 0.08492
0.37790212 -0.2961545 -0.18820302 0.119886324 -0.14264682 -0.9782122 0.5545438 0.19625187
-1.0851994 -0.04536243 -0.41676182 -0.68571305 -0.5280294 0.154762 -0.019352546 -0.47928107
0.10871173 0.13555135 0.22203259 -0.3022929 -0.087725274 0.15912442 -0.46381277 0.118799865
0.21856399 0.6398526 -0.4026932 0.15414822 -0.435397 0.36385894 0.041883036 0.6335931
0.12951209 0.17630772 -0.24463013 -0.024022453 0.3917839 0.18383463 -0.28201023 0.07221009

bias f4 [32]
00000000: 6822 03be 130f 80bc da51 b4bd 2fc7 d3bd
00000010: f57c 3bbd 2fe9 ae3d 942b debd e35d 4d3d
00000020: e624 e33c 1842 be3d 1be2 7bbd 57d3 b0bd
00000030: b90b 4fbd 0ce3 f4bd c37c e03d 46fd 133c
00000040: f3b6 c7bd 4e86 c23d 77fc 1cbd fa0e 363d
00000050: 18d4 143e ce76 de3d ea0f 85bd 43cd c6bd
00000060: c8b6 bc3d 313f aebd ba98 3fbd 655e f83d
00000070: 849c 00bd e396 85bd 2a4f 6ebd 56c0 313d
-0.12806094 -0.015632188 -0.088046744 -0.10340726 -0.045773465 0.0854057 -0.108481556 0.050138365
0.027727555 0.0928995 -0.061494928 -0.0863406 -0.05054829 -0.11957368 0.109612964 0.009032553
-0.09751692 0.09498273 -0.038326707 0.044447877 0.14534032 0.10862504 -0.06497176 -0.09707119
0.0921455 -0.085081466 -0.04677651 0.12127379 -0.031399265 -0.0652292 -0.058180965 0.043396316

weight f4 [16]
00000000: e0f3 773f 157e 893f 4245 713f 91af 773f
00000010: 9a51 763f 4187 413f 6d0e 643f 60a1 963f
00000020: 6fc1 733f f060 993f fd91 6b3f 1e13 6d3f
00000030: aa9a 883f 8d2b 833f e22a 833f 06f2 873f
0.968565 1.0741602 0.94246304 0.9675227 0.96218264 0.75597006 0.8908451 1.1767998
0.9521703 1.1982708 0.92019635 0.92607296 1.06722 1.0247666 1.0247462 1.0620735

bias f4 [16]
00000000: e25c 36bf 0a9a 5cbe cb5c 0cbf 9925 21be
00000010: eaa4 bcbe 600d 43be f888 34be 9181 b7be
00000020: 6d0c edbc 4420 24bf e5ac 29bf 2592 cbbe
00000030: 0467 80be bd69 2abf dd67 afbe 787e dabe
-0.7123548 -0.21543136 -0.5482909 -0.15736999 -0.3684457 -0.19048071 -0.17630374 -0.3584104
-0.02893659 -0.64111733 -0.6627944 -0.39759937 -0.25078595 -0.66567594 -0.3425893 -0.42674613

running_mean f4 [16]
00000000: c248 c73e 20de 9c3e 11f2 16be f929 91be
00000010: e446 d6bd 40f9 ce3e 716c b23d 1f64 bd3e
00000020: f866 b93e 88a2 af3e e15d 88be c8f7 e43e
00000030: df3a b6be 4271 c53e eacf 16bf c688 273f
0.38922697 0.30638218 -0.14740779 -0.28352335 -0.1046274 0.40424538 0.0871209 0.3699045
0.3621137 0.3430369 -0.26634124 0.44720292 -0.3559179 0.3856297 -0.58911 0.65443075

running_var f4 [16]
00000000: 433b 463f 05df e53e 1aba e93e 1426 1c3f
00000010: 28cb 013f 0679 fe3e a4ce 973f 583f d53e
00000020: a8b1 373f 1bc1 4d3f 6c8f ff3e e607 373f
00000030: abc1 0c3f d837 573f a4fc bd3e 869c 333f
0.77434176 0.44896713 0.45649797 0.609956 0.50700617 0.4970171 1.1859937 0.4164989
0.71755457 0.8037278 0.4991411 0.7149643 0.54983014 0.84069586 0.37106812 0.7016071

weight f4 [32]
00000000: ebbd 843f 76b8 a23f cf77 7f3f a666 c03f
00000010: f566 913f 49e8 733f 3ba0 783f 5349 853f
00000020: c676 583f 4ad2 8f3f 5106 b43f ac34 803f
00000030: 5b55 533f 6edb 813f 5d6a 903f 1d10 863f
00000040: 6c86 a33f e7c6 873f 2b84 8a3f 77b6 923f
00000050: 6793 693f 370b 833f 7d59 923f 6eab 673f
00000060: cd96 863f aa29 7d3f a36a 4c3f 0a2b a33f
00000070: c571 8d3f 61ff 6d3f 22f9 4f3f 0a36 bf3f
1.0370458 1.2712543 0.9979219 1.5031326 1.1359545 0.95276314 0.9711949 1.0413002
0.84556234 1.123605 1.4064428 1.0016074 0.8255212 1.014509 1.128246 1.0473667
1.2775397 1.0607575 1.0821584 1.1461934 0.91240543 1.0237797 1.143356 0.90495956
1.0514771 0.988917 0.79850215 1.274751 1.1050345 0.929678 0.8123952 1.4938366

bias f4 [32]
00000000: f44c fabd 72eb 91be e5b6 46be 4dc3 08be
00000010: 410e 98be 3cbb 85bc 7dec 08be 01c1 23be
00000020: d9c6 bdbe 204e 92be 0202 67be 55b9 66be
00000030: eda0 d3be 438e a0be a61d 8fbd b5c9 d7bd
00000040: 878a 8abe 468c 1ebe 78c2 69be 3186 8dbe
00000050: 91a5 ccbe 98d2 9cbe bed0 b9be ef84 d7be
00000060: 8379 67be d314 6cbe a495 a3bd b3fa 04bf
00000070: 9fe3 8cbe eafe 70be 1a1a 28be 572b dabe
-0.12221709 -0.28499943 -0.19405706 -0.13355751 -0.29698375 -0.016324632 -0.13371463 -0.15991594
-0.3706577 -0.2857523 -0.2255936 -0.22531636 -0.41333714 -0.31358537 -0.06988077 -0.105365194
-0.27058813 -0.15483198 -0.2282809 -0.27641442 -0.39970067 -0.3062942 -0.3629207 -0.42093608
-0.22604947 -0.23054819 -0.07987526 -0.51945037 -0.2751741 -0.23534742 -0.16416207 -0.4261119

running_mean f4 [32]
00000000: d515 d63f df5e 82bf 252d 92bf 22be edbf
00000010: 6062 13c0 6aa3 753f 60d0 4ebf 6e52 383f
00000020: 1d31 1640 ec23 a13d 59a4 01c0 ba00 8bbf
00000030: a41b 01c0 82dd b13e a131 afbf f97b 33c0
00000040: 3c9e b3bf cb4e 17c0 36ee b4bf f103 2fc0
00000050: 501e 61c0 62da 68c0 aff1 9dbf 21ce b8bf
00000060: 8987 07c0 ceed f4bf 0b44 bf3e 8118 87bf
00000070: 4a00 a8bf bff9 1c40 bf48 b6bf 0a76 f3bf
1.6725413 -1.0185202 -1.1420027 -1.8573649 -2.3028793 0.95952475 -0.80786705 0.7200078
2.3467476 0.0786818 -2.025656 -1.0859597 -2.017312 0.3473931 -1.368702 -2.8044417
-1.4032664 -2.3641841 -1.4135196 -2.7346156 -3.5174751 -3.638329 -1.2339381 -1.4437906
-2.1176474 -1.9135072 0.373566 -1.0554353 -1.3125088 2.4527433 -1.424095 -1.9020398

running_var f4 [32]
00000000: c32a ff40 c054 0041 b62b 0641 b3ee dc40
00000010: 59f8 df40 c98c d540 1c70 fe40 363f f240
00000020: 1bd1 c440 696f 0841 eadc d740 b2e6 e940
00000030: 5757 3f41 c4a8 d240 9015 d840 c147 f540
00000040: bc07 cb40 e65f e640 52b4 ab40 95b1 0f41
00000050: 43a3 3c41 0621 1341 3b23 ae40 55a6 1441
00000060: 942a 1341 3c14 0441 ee13 ab40 71e3 d840
00000070: 5988 0741 3809 f240 3355 c840 dd9b e340
7.97397 8.020691 8.385672 6.904138 6.999066 6.6734357 7.951185 7.570216
6.1505256 8.5272 6.745717 7.309411 11.958823 6.5831013 6.752632 7.665009
6.344694 7.1992064 5.3657618 8.980855 11.789859 9.195562 5.4418006 9.290608
9.197895 8.25494 5.346183 6.777764 8.470788 7.5636253 6.2604003 7.1127763

weight f4 [64, 32, 3]
00000000: 000c 5ebf 7640 913d 46c5 82be a4be f5be
00000010: b8b6 bb3d 382b 3a3e 4c4a 643d 2e45 2a3e
00000020: ef39 263f 47ab dabe 2262 9ebe a366 e83e
00000030: 36aa ed3d 81fc ffbd cf99 53bb 16cd 63bf
00000040: f4c5 a43e 183a b33d 0bf5 a8bf b19d 17be
00000050: a184 04bd ecaf b7be f20b 453e c815 5dbe
00000060: 50b6 153e bfef 01bc c298 ce3e 9132 d93d
00000070: 12f0 07bf 0bbf eebc 03bf 2cbf 964d 2e3c
00000080: 48aa 5e3e 1c3d 3e3e 935c bdbe e688 7b3d
00000090: 96cf 603d 4551 7c3e a497 9ebd 8f17 9ebd
000000a0: 619a b13d 8a64 b2be aa2b 533e 429a 56bf
000000b0: 76e5 3c3d a56e a9be 21cf b43c 2ee1 203e
000000c0: 21c9 983c 65af 0abe 7b1b 833e 4922 a4be
000000d0: 0f4c 27bf 1f95 0ebf c2d2 33bf 2579 41be
000000e0: cd27 063d 263f aebc 8c4b abbe c172 f73e
000000f0: c9e2 60be 841e 033e 1311 9f3d 5306 88bb
00000100: 4bb6 e1bc 17f1 fe3e aa0a 04be fe31 e6be
00000110: 01f4 4cbf 4ddc fabc 4c7d db3e 870f 2d3c
00000120: 0660 60be 2639 b83e da84 973e 4c85 04bf
00000130: 4c55 2b3e 8ce0 bc3d c350 acbd c763 cb3e
00000140: 29d6 b13d f58d b6be 88d5 68bd 7c39 a83e
00000150: 189e 2ebd 4eb8 bebe 31dc 2b3e bc65 8b3e
00000160: 94cb efbd a346 fdbd 28cd 1abd 1692 233e
00000170: 3072 b2bb 88d0 d6be cccc 18bf ab8b 8e3d
00000180: 987a 743e 8360 a6bd 2652 4f3e c67f 45bb
00000190: 68fe d2bc 58fd b0be efdc f6bd 482c 1bbf
000001a0: aa96 1fbf 4d9f ab3d 6cfe 98be 0ad0 60bf
000001b0: 5c45 a83e 3b15 b4be 4f89 753e 99cb 0d3c
000001c0: 9ac9 23be c2f4 debe 3f15 64bd ed72 a7bd
000001d0: e576 8fbf a0c5 333e e31e 9d3b 28df da3d
000001e0: 908d 553e 26f8 93be 2d37 91be 1693 3f3e
000001f0: ca17 ddbe 8acc ad3e 6f23 bebb 866e 7b3e
00000200: e409 4d3c fe27 d53d 5957 f83b 5014 823d
00000210: 3c6c 40ba 6c92 0dbe a888 17bf f9f2 a8be
00000220: 25d7 873d 219e 27bf 7feb 873c 5d00 203e
00000230: a66f c83c 08e2 113c 86bb 48bd e965 0bbe
00000240: 5c20 8abe 6c6b 8dbf 5c7d db3e a137 33bd
00000250: 6ea6 2c3e 3a0b 413e 2ca3 d23d 6733 30be
00000260: ad02 9cbe be0a 063f a7f1 a9be 70ad 513e
00000270: d3d6 e0bd 2b0c aabe 0538 03bf 1f99 573e
00000280: f5e5 8abf dab9 edbd e66c 16be a07f cc3d
00000290: 63d1 983e fe37 bfbd 3c1c 41bf 3c5f 10bf
000002a0: bf61 13bf 5664 a8be 27e3 9abe fd8f bdbd
000002b0: c7f5 12bf ebca 2cbf 6ad0 a13d f4f1 a8bf
000002c0: 74cd e23b 5bc2 293d 9130 c0bd 7e60 8abd
000002d0: 2ff7 4d38 e771 9cbe 0a1e e43d 61cb b53e
000002e0: d6a9 51be 9ac2 14be d791 6d3d 6bc0 41bf
000002f0: 9946 053e 5d34 22be 23e9 d63e a9a5 4c3d
00000300: 7a7a 8fbd 0fec 223e 4d73 983d 8b2b 36be
00000310: 47b0 e9bd 6405 94bf 7ef9 0ebe a49a d33d
00000320: 363d 16bc fd3a 31be 67d7 26ba 5d56 fabe
00000330: b6a6 91be cfb8 103e 7218 ddbe b393 9c3e
00000340: 46e3 8b3e 7160 1fbf 98f7 573c 5335 7a3d
00000350: 4a2b 83bf 5286 113d 201f d0bc 24ca 75bd
00000360: f46f 6abd 4607 b63e 7497 0cbe 103b 65be
00000370: 467a 113e 4845 ce3e 88e8 dd3c e327 91be
00000380: 3b63 aabe fa91 5bbe 856e 003f 59da d2be
00000390: af2b ffbe a3ec 2fbd 3fec 1fbf bf30 1fbe
000003a0: f6bf a3be 2ad5 d2bd 4e37 1cbe bf78 753e
000003b0: 0438 c93e 63e9 59be 457c b03d cf27 7ebf
000003c0: c12d 153e 1a2a b43d 0701 57bf 53b5 b0bd
000003d0: d7c6 1abe c3c6 43bd 186f 743e 2cbf 9f3e
000003e0: 1cb6 04bf 5c04 be3e 71cc d33e 8b9c 12bf
000003f0: 6afb 4abe 532f 4f3c 35a2 67bf b0dc 96bc
-0.8673706 0.07092373 -0.25541133 -0.4799701 0.0916571 0.18180549 0.055734918 0.16627952
0.6493215 -0.427088 -0.30934244 0.45390806 0.11604731 -0.12499333 -0.0032287722 -0.8898481
0.32182276 0.08751315 -1.3199781 -0.14806248 -0.032353047 -0.35876405 0.19242838 -0.2159034
0.14620328 -0.007930695 0.4035092 0.10605348 -0.53100693 -0.02914383 -0.6747896 0.010638615
0.21744645 0.18577999 -0.3698469 0.061409853 0.05488547 0.24640377 -0.07743767 -0.07719337
0.086720236 -0.3484233 0.20622125 -0.8382913 0.04611727 -0.33092228 0.022071423 0.15710899
0.018650593 -0.1354347 0.25606903 -0.32057407 -0.6535043 -0.5569629 -0.70243466 -0.18893869
0.0327528 -0.021270346 -0.33456075 0.48329738 -0.21961512 0.1280461 0.077669285 -0.0041511445
-0.027552744 0.49793312 -0.12894693 -0.44960016 -0.8005982 -0.030622626 0.4286903 0.010562784
-0.2191163 0.359811 0.29593545 -0.51765895 0.16731757 0.092225164 -0.084138416 0.39724562
0.08683426 -0.3565518 -0.056844264 0.32856357 -0.04263124 -0.37249988 0.16783215 0.27226055
-0.11708751 -0.123669885 -0.03779331 0.15973696 -0.005445741 -0.41955972 -0.59687495 0.06960233
0.23874891 -0.08123877 0.20246181 -0.0030135973 -0.025756076 -0.34568286 -0.120538585 -0.6061444
-0.6233927 0.083799936 -0.29881608 -0.8781744 0.32865417 -0.35172448 0.2397816 0.0086544985
-0.15994874 -0.4354611 -0.055684324 -0.08176217 -1.1208159 0.17555857 0.0047949417 0.10687095
0.20854783 -0.2890026 -0.28362408 0.18708453 -0.43182212 0.33945113 -0.005802564 0.2455388
0.012514565 0.104080185 0.007578772 0.063515306 -0.0007340347 -0.13825387 -0.59192896 -0.32997873
0.066328324 -0.6547566 0.016591785 0.15625139 0.0244673 0.008903988 -0.04900696 -0.13613094
-0.26977813 -1.1048408 0.4286908 -0.043754224 0.16860363 0.18851939 0.10285029 -0.17207108
-0.3047079 0.5236014 -0.3319218 0.20476317 -0.109784745 -0.33212408 -0.51257354 0.21054505
-1.0851427 -0.11607714 -0.14689979 0.0998528 0.2984725 -0.093368515 -0.7543371 -0.56395316
-0.57571024 -0.3288905 -0.30251428 -0.09255979 -0.57406276 -0.6749713 0.0790108 -1.3198838
0.0069214646 0.041445117 -0.09384263 -0.06756686 4.9106016e-05 -0.3055565 0.11138542 0.35506728
-0.20474944 -0.1452736 0.05800041 -0.7568423 0.13015212 -0.15840288 0.41974744 0.049962673
-0.070057824 0.15910362 0.07443867 -0.17790048 -0.11410575 -1.1564145 -0.13962361 0.1033223
-0.009169867 -0.17307658 -0.0006364495 -0.48894015 -0.28447503 0.14132999 -0.43182713 0.30581436
0.27321833 -0.6225653 0.01318159 0.06108601 -1.0247586 0.03552849 -0.025405467 -0.06000723
-0.057235673 0.35552424 -0.1372965 -0.22385812 0.142068 0.40287232 0.027088419 -0.28350744
-0.33278832 -0.21442404 0.5016864 -0.4118221 -0.49838015 -0.042950284 -0.6246986 -0.15545939
-0.31982392 -0.10294564 -0.15255472 0.23971842 0.3930055 -0.21280436 0.086174525 -0.99279493
0.14568235 0.08797093 -0.8398594 -0.08628335 -0.15114914 -0.047796976 0.23870504 0.3120054
-0.51840377 0.371127 0.41366914 -0.57270116 -0.1982247 0.01264556 -0.90481883 -0.018415779

bias f4 [64]
00000000: 0618 15bd 7a8e 24bd 61f7 3d3d 2216 ae3d
00000010: 466f dd3d f117 04bb fed8 c7bd 0d4c 55bc
00000020: 93d5 403d d662 ecbc c33f e83d cdd0 c4bd
00000030: 573c d1bd 5673 2b3c a35a 31bd 92f3 d73c
00000040: 7e4d 483d 3479 aebd 4319 e13d f4e6 023d
00000050: e9f6 92bd ec0e 4bbd 152a 33bc 8af2 08bd
00000060: 7e92 aebd f8e4 f93c 708a 93bd b655 cf3c
00000070: bb5e 85bd 341a 7b3d 8502 aebd 7595 5abd
00000080: 37fc f33c 882e 43bc 913f ab3d 9a72 d13c
00000090: 5ddf 92bd b0d0 57bd 5362 07bd e985 2ebd
000000a0: a6c2 4d3d 4418 a13d 1036 b2bd c86c 2f3d
000000b0: 3575 a0bb d0f2 d5bd 8bce a2ba 33d2 21bd
000000c0: adb4 68bd 10ba a8bd b7df a83d a6d2 b3bd
000000d0: 1be9 6f3d e70c ad3c d320 22bd dc26 7fbc
000000e0: 485f 0e3d 82ad babc 3c49 04bc cca4 ccbc
000000f0: e826 07bd dbbe c2ba 9031 6a3d 8895 cfbd
-0.036399864 -0.04017494 0.046378497 0.08500315 0.10812239 -0.0020155872 -0.09758185 -0.01301862
0.04707868 -0.028855722 0.113402866 -0.09610138 -0.10216587 0.01046451 -0.04329933 0.02636126
0.048902027 -0.085192114 0.109911464 0.031958535 -0.071760006 -0.049574777 -0.010935326 -0.03343443
-0.08524035 0.030504689 -0.07204139 0.025309425 -0.06512209 0.061304286 -0.08496574 -0.05336519
0.029783351 -0.011912949 0.08361734 0.025567342 -0.071715094 -0.052689254 -0.033052754 -0.042608175
0.05023446 0.078659564 -0.08701718 0.04282835 -0.0048967847 -0.104467034 -0.0012421174 -0.039507102
-0.05681293 -0.082386136 0.08245795 -0.087804124 0.058571916 0.021124316 -0.039582085 -0.01557323
0.034758836 -0.022787813 -0.008074101 -0.024980925 -0.03299609 -0.0014857905 0.057176173 -0.10135943

weight f4 [64]
00000000: 6e6b ad3e 51ba 843e dd1a f43e a6b6 d13e
00000010: 0961 e93e a55c e63e 2728 fc3e 16fb da3e
00000020: 7c07 b23e 0aa2 9b3e f52d 953e faf0 c03e
00000030: fce1 be3e fb1a b83e 6a44 aa3e 5936 f83e
00000040: f3a2 3d3e 68e0 b83e ddc2 b93e c970 e23e
00000050: 1107 0e3f da4e f43e 8f86 833e 0e16 933e
00000060: 7175 063f 96dd c93e 9eda c93e a6dc d93e
00000070: 3df8 063f 7862 0c3f ed44 b63e 46e5 dd3e
00000080: f6a1 083f 7f0a f23e 06bd 0a3f 3724 c53e
00000090: bb2f 003f b851 e43e d454 d83e 1a30 183f
000000a0: c3d7 d23e c356 bb3e 48a9 8e3e 73ea f53e
000000b0: 4fe2 a13e 0d89 ed3e ff32 233e f3c4 ed3e
000000c0: 56ce c33e 2c9f bd3e 81e6 d43e e7cd ce3e
000000d0: dcf2 da3e 2a95 bb3e cdf6 d73e 4409 cb3e
000000e0: 25ea cb3e 566d a93e d2ab c53e a0c4 e63e
000000f0: d908 d43e 0d78 b93e 0e72 a83e 6853 cf3e
0.33871025 0.25923398 0.47676745 0.40959662 0.45581844 0.44992557 0.49249384 0.42769688
0.34771335 0.30397063 0.29136625 0.3768385 0.37281787 0.35958084 0.3325532 0.48478964
0.18519191 0.36108708 0.3628148 0.44226673 0.5547953 0.4771641 0.25688598 0.28727764
0.5252295 0.3942687 0.39424604 0.42551154 0.5272253 0.5483775 0.3559946 0.43338984
0.5337213 0.47273633 0.54194677 0.38504192 0.5007283 0.44593596 0.4225222 0.594484
0.41180238 0.3658963 0.27863526 0.48030433 0.31617972 0.46393624 0.15937422 0.46439323
0.3824336 0.370355 0.4158211 0.40391466 0.42763412 0.3663724 0.42180482 0.39655507
0.39827076 0.3309123 0.3860765 0.45071888 0.41413 0.36224404 0.32899517 0.4049332

bias f4 [64]
00000000: 90b0 94be d5b8 d8be 7beb e4be 98a6 afbe
00000010: bd8f 0abf 1f86 06bf 75ee b2be 9110 1cbf
00000020: 42f5 92be fb7c f1be 1b94 edbe 99c7 77be
00000030: ca29 13bf 8cba 3bbe d6a4 9abe 698d b3be
00000040: c6a5 30bf 8604 c0be cfa6 1cbf e369 afbe
00000050: 4a9a 09bf 6e51 f4be ab17 6ebe 7dbe 14bf
00000060: 7317 d0be 3481 39bf 6326 59be da93 cfbe
00000070: 9f0a f9be e2f8 b1be 9245 04bf 8e38 9dbe
00000080: 47ed d3be 7ee6 09bf 43c0 f4be 0475 a1be
00000090: 0df5 f0be 43e0 abbe 7d19 adbe 6072 f6be
000000a0: bf4d b4be 9e11 12bf 5c14 d9be 3c46 a9be
000000b0: 05be 3fbf d872 c4be a608 3bbf 3e52 0ebf
000000c0: 7956 22bf 650a 7ebe 6f42 2dbf 7dde b4be
000000d0: c905 c0be c87d c0be e2e0 80be 7016 e9be
000000e0: a1b5 05bf f325 b9be 97dc 4cbe ae12 13bf
000000f0: 698d e7be e7c5 01bf c47e 8fbe 2d94 b4be
-0.29040956 -0.42328516 -0.44710907 -0.34306788 -0.5412558 -0.525484 -0.34947553 -0.6096278
-0.28702742 -0.47165665 -0.46402058 -0.24197234 -0.5748564 -0.1833288 -0.30203885 -0.35068825
-0.6900295 -0.3750345 -0.6119203 -0.34260473 -0.5375105 -0.47718376 -0.23251216 -0.5810316
-0.4064289 -0.72462773 -0.2120605 -0.4054249 -0.48640916 -0.34760195 -0.51668656 -0.3070721
-0.41391966 -0.5386733 -0.47802934 -0.31534588 -0.4706196 -0.33569536 -0.3380851 -0.48134136
-0.35215566 -0.5705813 -0.42398345 -0.33061397 -0.7489932 -0.3836887 -0.7306007 -0.5559424
-0.63413197 -0.24808653 -0.67679495 -0.35325995 -0.37504414 -0.37595963 -0.25171572 -0.4552493
-0.5223027 -0.36161765 -0.20006023 -0.5745038 -0.45225075 -0.506926 -0.28026402 -0.352693

running_mean f4 [64]
00000000: dca3 a1c0 a0f9 c1c0 8df5 d4c0 2a66 a6c0
00000010: 466d 8ac0 6a9c c9c0 fd53 a6c0 8c20 a0bf
00000020: e2f6 9ac0 6ec4 f6c0 74b0 94c0 0e1f 91c0
00000030: 48fe 473d 28b0 2bc0 cff4 fcbf 331f e5c0
00000040: b029 89c0 942c 0bc0 9645 6ec0 4ad7 1bc1
00000050: 0624 a1c0 2d27 91c0 f4e8 80c0 98fe 91be
00000060: 4a00 e8c0 140f acc0 5ef1 9cc0 6d81 0ec1
00000070: 2fd7 b7c0 5ab7 efc0 6c62 f5bd a112 22c0
00000080: ccc5 83c0 bd44 09c1 759d d5c0 fe70 aec0
00000090: c01d fec0 d454 9dc0 d6fc 22c0 c3d9 dec0
000000a0: 6363 6ac0 3fa9 a1c0 e269 9ac0 005b b7c0
000000b0: a86b 533f 684a f7bf a530 99c0 60b7 d1c0
000000c0: 9b6a b9c0 8e42 f1c0 8197 d7c0 58cf c0c0
000000d0: e524 e2c0 74b5 5cc0 8da5 d4c0 65a1 e5c0
000000e0: f03d 15c0 df1d 88bf 0799 10c0 f262 a3c0
000000f0: a3d8 b1c0 99e5 b9c0 2f6c b0c0 5dbe bdc0
-5.0512524 -6.061722 -6.6549745 -5.199971 -4.325839 -6.3003435 -5.1977525 -1.2509933
-4.842637 -7.711478 -4.6465397 -4.535041 0.048826486 -2.6826267 -1.976221 -7.1600585
-4.286339 -2.1745958 -3.7229972 -9.740061 -5.0356474 -4.536032 -4.0284367 -0.28514552
-7.2500353 -5.3768406 -4.904464 -8.906598 -5.7450175 -7.491132 -0.11981663 -2.532387
-4.117895 -8.579282 -6.675471 -5.451293 -7.9411316 -4.916605 -2.546682 -6.9640822
-3.662316 -5.05191 -4.825425 -5.7298584 0.82586145 -1.9319582 -4.787188 -6.5536346
-5.7942634 -7.5393744 -6.737244 -6.0253105 -7.0670037 -3.448575 -6.645209 -7.1759515
-2.3319054 -1.0634116 -2.25934 -5.1058283 -5.557695 -5.809277 -5.513206 -5.9294877
