government_icfes_dataset/mlartifacts/294710831823527254/e3c3b37d7ccb4809927b5c815c11f044/artifacts/model/data/model.pth (torch, 399552 bytes, 39 tensors)

weight f4 [4, 4]
00000000: 755a b7bd dc60 10c0 71c1 a4bf 1aa6 12bf
00000010: 6f07 853f c9fb 67bf 31d0 493f 0164 17c0
00000020: 0442 a33f 0772 823f 4050 0a3f 42e5 a83f
00000030: 4d42 d8be f9af 85bf 31fb 393f 5775 6cbf
-0.089528 -2.2559118 -1.2871534 -0.572847 1.0392894 -0.9061857 0.788333 -2.3654788
1.2754521 1.0191048 0.540287 1.3194964 -0.42238083 -1.0444328 0.7264891 -0.92366546

weight f4 [3, 4]
00000000: 1b17 46bf 5dd4 a3bf 384e 833f e589 0ebf
00000010: ea08 bcbe 73ed bebf 2016 08be 3ab1 10be
00000020: 1320 143f 03c0 d83e 3a62 3abf 2fc7 47bf
-0.77379006 -1.2799183 1.0258245 -0.5567916 -0.3672555 -1.4916214 -0.1328969 -0.14130107
0.5786144 0.42333993 -0.7280613 -0.78038305

weight f4 [5, 4]
00000000: 4c5b d73d 7587 433f 4086 0e3f 8c29 7fbd
00000010: 62b8 f83f c652 c73f c944 9f3f df74 733f
00000020: 00e9 35bf 309e 133e dd10 00bf 8a6c 91be
00000030: ef45 e63d 559a 72be 9ef9 97be 5f0b 2ebf
00000040: c3fe 20bf 655e e5bf 846e 8dbf 8e74 663f
0.1051546 0.76378566 0.556736 -0.06229548 1.9431269 1.5572135 1.2442867 0.95100206
-0.71058655 0.14415812 -0.5002573 -0.2840312 0.112438075 -0.23691685 -0.2968263 -0.679861
-0.62888736 -1.7919432 -1.1049352 0.900216

weight f4 [7, 4]
00000000: 23cc 69bd 1838 5ebe cfe5 923f 99a7 bc3e
00000010: bb2d 5f3f aff4 5b3e ecb2 97bf 4845 7bbe
00000020: 0a68 4b3f 3fd5 00be d591 aebf fd42 a7be
00000030: 2e5d 2abe 3703 1b3f a52b 473c b06d 14bf
00000040: 34e5 13c0 ed78 0c3d f097 debe 0f88 b0be
00000050: cfcb 2e3f 5270 59be 5e08 a03f de17 1a3f
00000060: f376 b1bf 608f 39bf 4dd0 80bf 8968 8b3f
-0.057079446 -0.21701086 1.1476382 0.36846617 0.87179154 0.21480058 -1.1851478 -0.24538147
0.79455626 -0.12581347 -1.3638254 -0.32668296 -0.16637108 0.6055178 0.012156402 -0.5797987
-2.3108644 0.03429501 -0.43475294 -0.34478804 0.6827974 -0.21234253 1.2502553 0.6019267
-1.3864425 -0.724844 -1.0063568 1.0891277

weight f4 [7, 4]
00000000: 728f 883f 7e06 173e 09cb 2abc 877b cdbe
00000010: 44dc 0ebf 8a59 a8bf d901 213e 70a0 f8be
00000020: 238f a13e ef2f 3a40 39b4 23c0 7e6b a8bf
00000030: f4b4 5c3f 8c8e 0740 7ade 09c0 26dc 0ec0
00000040: 7207 d83e aaf4 aabf c933 653f 2681 4cbe
00000050: 1d59 59bf 81b3 a33e 011c fbbe ed2b 80bf
00000060: 4048 05bf bd94 fcbd 6f7a f8bc 0181 9c3f
1.0668776 0.1474857 -0.010424384 -0.40133306 -0.5580485 -1.3152325 0.15723361 -0.48559904
0.31554517 2.9091756 -2.557875 -1.3157804 0.8621361 2.1180754 -2.154204 -2.2321868
0.4219318 -1.3355916 0.8953214 -0.19971141 -0.849016 0.31972888 -0.49044803 -1.0013405
-0.5206337 -0.12333057 -0.030331818 1.2226869

weight f4 [1025, 4]
00000000: b7de c9bf 0aee a13e c107 a0bf dd88 343f
00000010: 10f5 83bf 97a7 d4be a1ae c63f ad32 f13e
00000020: b5e7 9a3e a726 91bf fa51 59bf 2821 13c0
00000030: 684d e83f 265c 3e3f d4b8 b83f 4985 adbf
00000040: 6283 7abd d01e 9abf dc39 7abe 9566 86be
00000050: 70eb 0040 8125 c2bf a2a9 71bf 08b8 8cbf
00000060: b588 febf ba29 123d e183 683e 540c 4bbf
00000070: 3d0c d73e 7437 12bf 5fab 04bf 3fac c1bf
00000080: a369 df3e 922a 88bf 0b4c c8be 9919 1cc0
00000090: 240b 81bf dbd5 a63e 627d a4bf 3bee 2abf
000000a0: ce73 e6bd 024f 393e eb4e 3b3e 95d0 de3e
000000b0: 2278 d03f b92e 8cbd 8e99 0a3f a22c 2e3f
000000c0: 301a 71be 6165 203f 849a 8c3e 79fd cebe
000000d0: 0d96 adbf ab30 e5bf fc52 83bf 6e5c 59bf
000000e0: c2a7 723e 4fbd c93b 4fc7 38bf bea4 08c0
000000f0: 79ce 9abe 1f09 8a3e b188 1a3f 94cf 14c0
00000100: 1298 703e 2514 633e 1bb5 22bf 7e61 a9be
00000110: aba2 61be 9b08 f7bd 5518 34be f787 e63e
00000120: edcc e23e 8c32 823d 4109 313f 38bd c53e
00000130: fab5 3740 0858 943e 0306 d6bf b136 763e
00000140: 5606 e1bd 0dc3 81bf 8d19 2cbe bc60 e83e
00000150: 3a2f 133f 124a b2bd 1b09 7ebf 9a08 643f
00000160: 6db1 2840 3970 d6bf 53b9 56bf a40f c93f
00000170: 1397 2f3f 9122 063c fba9 0fbf cab5 ba3e
00000180: 7047 953e 8898 0c3f 1624 bd3d 946f 2d3f
00000190: dfbe 4a40 e9df 8ebf b781 1b3f 3b11 7bbf
000001a0: ef1d 18bf 6013 d7be 9f84 0d40 f685 603f
000001b0: 9044 ef3f df45 83bf 6979 cbbf bdc2 a13f
000001c0: 74fb 92bf fc56 46bf f9fb fcbf c51d 893f
000001d0: b599 873e ef54 0840 caef 95bf 6556 80bf
000001e0: e85a 82bf ffaf bf3f fb6e 5abf 90b2 2abf
000001f0: 0308 e13e dbe2 3ebe 9d3f 82be 791d f5be
00000200: 7a49 ac3f c88d 01c0 2e34 0dc0 508c 04c0
00000210: afef d8bf af54 1bbf 98b5 2240 8b0c 463f
00000220: aa63 38bf cd52 083f b77b c63f 633b 9f3f
00000230: ee6b 96bf 732d 123f a83e d4bf f844 adbe
00000240: 16a8 5abc 60cf 6e3f ec7e 09c0 8e77 bebd
00000250: c57c 0440 213c 743f ef53 953f ce4d 9dbd
00000260: 9efb 44bf 60f4 9ebf 5247 c93f 323e ab3f
00000270: ad11 8cbf e536 33bf 22d6 eb3f 883e a53f
00000280: dc42 8ebf 533e 4fbe 9f67 cdbf b104 e5bf
00000290: 2c38 56bf 686a 8a3f b6a9 b1bf 83ae 063e
000002a0: a248 613f e439 2e3f 6d68 92be 7f3b 983f
000002b0: 5908 8c3f a90e 083e f300 23c0 5d72 96bf
000002c0: c651 e2bf 7c8a 2ac0 738a 1b40 b32a c33f
000002d0: 286c 38bf 4476 afbf 39c2 963f cff4 5ebf
000002e0: 2b37 96bd 75a1 91bf 0e83 3dbf 5bf5 473f
000002f0: 63a9 e13f 9430 b7bf 8b47 0fbf 4656 ca3f
00000300: 141f 0040 a089 923e 9f86 febf 6528 9f3f
00000310: 3b4d d9bf e311 733e fefb 6ebd 60e0 643f
00000320: 2b96 823e bfbe 363d 19d6 803e 5c30 7e3e
00000330: 7397 ab3f 3dd7 173f a874 8a3f eb1e 033f
00000340: 7d58 ac3c 2e09 9ebf c1ce f13e 3fd7 4f3e
00000350: d67f b2bf 52bd a3bf 4f31 ec3f a264 d13f
00000360: 8c7e d53e 8721 b13e 5977 f13e d5f3 8e3e
00000370: 47ec 43c0 cf71 bd3e 7fac 383f 44e9 51bf
00000380: 446e 943e 7169 243e 88c4 96bd b5b5 b73e
00000390: 6b4a adbf 888d 9bbf fe3f d9bf 4387 0140
000003a0: d773 d53e cbb7 f9bd 0e30 14bf 7f95 09bf
000003b0: 88f6 0fc0 1c16 a2bf e33f 043d e312 fb3f
000003c0: f472 b7bd 2bb5 02bf 1320 1140 338c 263e
000003d0: 0cd3 883f a61d d33f 691f e5bf 880c f2bf
000003e0: f9d9 73be dc87 d13f e0a5 f8bf 530a a53f
000003f0: fcc1 c03f 928e 00c0 ef37 afbf 511c 1040
-1.5771092 0.31626922 -1.2502366 0.70521337 -1.0309162 -0.4153411 1.5522043 0.47108975
0.30254903 -1.1339921 -0.8489071 -2.2988987 1.8148623 0.7435936 1.4431405 -1.35563
-0.061160453 -1.2040653 -0.24436134 -0.2625014 2.01437 -1.5167695 -0.94399464 -1.0993662
-1.988547 0.035684325 0.22706558 -0.79315686 0.42001525 -0.57115865 -0.5182399 -1.513069
0.43635282 -1.0637991 -0.39120516 -2.4390624 -1.0081525 0.32585034 -1.2850764 -0.6676976
-0.11252557 0.18096545 0.18291824 0.4351851 1.6286662 -0.06844849 0.54140556 0.68036854
-0.23545146 0.6265469 0.27461636 -0.4042776 -1.3561417 -1.7905477 -1.02597 -0.8490666
0.23696807 0.0061566005 -0.7217912 -2.135055 -0.3023565 0.26960084 0.60364825 -2.3251696
0.2349551 0.22175653 -0.63557595 -0.33082193 -0.22034709 -0.12062188 -0.17587407 0.45025608
0.4429697 0.06357297 0.69154745 0.38620925 2.870482 0.28973413 -1.6720585 0.240443
-0.109875366 -1.013765 -0.16806622 0.45386302 0.57493937 -0.08705534 -0.99232644 0.89075625
2.6358292 -1.6752998 -0.8387653 1.5707898 0.68589896 0.008186952 -0.56118745 0.3646682
0.29156065 0.54920244 0.092353985 0.6774838 3.1678998 -1.1162082 0.60744804 -0.98073167
-0.59420675 -0.4200697 2.2112195 0.8770441 1.8692799 -1.0255698 -1.5896426 1.2637554
-1.1482987 -0.7747648 -1.9764396 1.071221 0.26484457 2.130184 -1.1713803 -1.0026366
-1.0183992 1.4975585 -0.8532559 -0.66678715 0.43951425 -0.18641226 -0.25439158 -0.47874048
1.3459923 -2.0242786 -2.2063098 -2.071064 -1.6948146 -0.6067609 2.5423336 0.7736289
-0.72027075 0.53251344 1.5506505 1.2439998 -1.1751688 0.571006 -1.6581621 -0.3384168
-0.013345739 0.9328518 -2.1483717 -0.09300147 2.0701153 0.9540425 1.166624 -0.07680856
-0.7694644 -1.2418327 1.572489 1.3378356 -1.0942894 -0.7000564 1.8424723 1.2909708
-1.1114154 -0.20238619 -1.6047248 -1.7892057 -0.8367946 1.0813723 -1.3879917 0.13152508
0.88001454 0.68057084 -0.28595296 1.1893157 1.0940048 0.13286842 -2.546933 -1.1753651
-1.7681205 -2.6647024 2.4303253 1.5247406 -0.72040033 -1.3707967 1.1778022 -0.870923
-0.07334741 -1.1377398 -0.740281 0.7810876 1.7629818 -1.43117 -0.5596854 1.5807579
2.0018969 0.28620625 -1.9884833 1.2434202 -1.6976694 0.23737292 -0.058345787 0.8940487
0.25505194 0.044615503 0.25163344 0.24823135 1.3405594 0.593128 1.0816851 0.5121905
0.021038288 -1.2346551 0.47228053 0.20296954 -1.3945262 -1.2792151 1.8452548 1.6358836
0.4169811 0.34595892 0.47161368 0.27920404 -3.0612962 0.37000892 0.7213821 -0.8199656
0.28990376 0.16055848 -0.07361704 0.3588082 -1.3538336 -1.2152567 -1.6972654 2.0238807
0.4168994 -0.12193259 -0.57885826 -0.5374374 -2.249422 -1.2662997 0.03228749 1.9615139
-0.089574724 -0.5105769 2.2675827 0.1626442 1.0689406 1.6493423 -1.7900211 -1.8910074
-0.23813619 1.6369586 -1.9425621 1.2893776 1.5059199 -2.0087018 -1.3688945 2.2517283

weight f4 [3, 4]
00000000: 32a9 d23f 92ec d33f 5aae 69be cffb abbf
00000010: 431f 20bf a377 0c3f 0cfc 1a3f 14de 753e
00000020: 233a 003f f8f4 20bf 39c5 e0be 273d d7bf
1.6457884 1.655657 -0.22820416 -1.3436221 -0.625477 0.5487005 0.60540843 0.24010497
0.5008871 -0.6287379 -0.4390047 -1.6815537

weight f4 [7, 4]
00000000: 6556 29be 0510 a13e 2a90 99bf fa5a 153f
00000010: 1445 433f 6b63 9c3f 7614 d53f ed6d a83f
00000020: b200 163e b7b5 dfbf bf16 23bf 6bd3 683e
00000030: d079 3dbf 7c6e 953e c655 cdbe 874f 8abf
00000040: 4c57 dabe 8de6 72bf 9216 0dbf c394 c63d
00000050: 63d5 073e 448f 5fbf 2e77 ac3e 3e27 2abf
00000060: 7d0f c43d 3669 d53f 1f60 c93f a080 96bf
-0.16536863 0.31457534 -1.199712 0.58341944 0.7627728 1.221784 1.6646869 1.3158547
0.14648703 -1.747733 -0.6370658 0.227369 -0.74013996 0.29185855 -0.40104502 -1.080552
-0.42644727 -0.9488304 -0.55112565 0.09696343 0.13264994 -0.8732798 0.33684677 -0.6646613
0.09573267 1.6672733 1.5732459 -1.1758003

weight f4 [7, 4]
00000000: 847d 1e3f 21e1 b2be 71b5 883f 3a12 923e
00000010: 21de 553f 7583 4e3d a6ca 4dbe dc09 18bf
00000020: 6de6 1fbf 2d87 35bf 344a 36bf 1dca df3c
00000030: 0ce5 11bf 1deb 1cbf a76d 783c 5e3c 1ebd
00000040: 17b3 3cbf bc64 bf3e 52f6 a5bd d923 923e
00000050: c42c 383e e65a 54bd 412a 8fbf 530f afbd
00000060: bcb6 2fbe c6af 9fbe b862 8a3e c062 123c
0.6191027 -0.34937385 1.0680372 0.2852953 0.83542067 0.050418336 -0.20096835 -0.59390044
-0.62460977 -0.70909387 -0.71206975 0.027318055 -0.5699012 -0.61296254 0.015162862 -0.03863179
-0.7371077 0.37381542 -0.081036225 0.28542975 0.17985827 -0.0518445 -1.118477 -0.08547845
-0.17159551 -0.31188792 0.2702844 0.008934677

weight f4 [3, 4]
00000000: 4a72 2340 3390 00c0 28ff 86bf 3cef dfbf
00000010: 19b4 153e c104 863e 8e20 4dbe fd22 9d3e
00000020: 7d48 653d e3bd 8dbe b3d5 c5be 6c92 833d
2.5538507 -2.0088012 -1.0546618 -1.7494884 0.14619483 0.26175502 -0.2003195 0.30690756
0.055977333 -0.27683935 -0.38639602 0.06424412

weight f4 [427, 4]
00000000: 13cf a5bf 096e db3f 51e0 593f b7c9 a1bd
00000010: a4d4 283e 4260 0a3f e4b8 56be ffb8 cabf
00000020: d653 ecbf 0f85 ed3f 48d3 083f 4be8 983f
00000030: 04ea 1abf fbfe ff3d 1922 0f40 778c ac3f
00000040: cf38 463f 51dd 6ebf f01a 64bf b525 96bf
00000050: 26ab a3be 8e78 c43e 9654 103f 6529 123f
00000060: 7b90 003e eb7a 503f 5edb 15bf a825 3fbf
00000070: 7714 913f c06d a33f bb7c 503f bd0c 23bf
00000080: d5dd b5bf b0ae d83f aaf0 053f a858 8c3b
00000090: 70d4 cdbd 828f e93e 48e6 f1be d4dc 553f
000000a0: 1a74 4abf 2979 793e 83e2 55c0 7f80 0ec0
000000b0: 8e32 b33f 8df9 b4bf 6b23 66c0 546f 22bf
000000c0: 05be 1ac0 297d a8bf 5d88 0940 6f94 bb3f
000000d0: 2833 00bf 9311 73bf 02ca ec3f e7fe 1ebf
000000e0: fbb1 c93f 083b 6ebe 8072 33be 3ba9 9c3d
000000f0: 925c debe bf21 0fbf c7a1 eabf fe5a b7bf
00000100: 51e4 eb3e 8760 8a3e a7a5 4d3e c3b3 35be
00000110: 8ff0 06bf 2b5e 18bf ae95 90bf cf03 a63f
00000120: cf06 00bf 2c41 4f3f 477c 80bf 1563 1a3f
00000130: fae2 3e40 11bc 1dbf f7a1 aebf 9d0a a9bf
00000140: 9443 0140 2c13 a53d ee8c 20bf 3d77 ad3f
00000150: f66b 0b40 ecd6 64bf 54db b9bf 2769 943f
00000160: 4ba5 9dbf 6087 0840 bbe5 893f 518c c4bf
00000170: d160 503f 6588 0e3f 401e 8e3d d744 2f3e
00000180: 29be 38be 2d42 d4be d48e 763e 4797 4cbf
00000190: 97ca 9cbe 6eaf 843d 69b6 953f 7694 bd3e
000001a0: b38e 6abe 75ed 7fbd f378 d8be 5b8b 2abf
000001b0: 50a4 9f3e 9721 09c0 3224 233d 5d9b d23f
000001c0: 8c59 c93f f832 c93f 9e5a 55be 4cfd a5bf
000001d0: 0f0a 143f a2d5 7ebf 8747 7fbd 79a9 b63f
000001e0: ae08 f3be 7aa4 17be fbd3 363e 8088 3abe
000001f0: b69d e8be 854c 383e 516a df3f 39ce 2540
00000200: 6867 5540 f978 f1bf 5ed9 e7bf 6b69 5040
00000210: d861 10bf a572 0dbf ad96 90bf 79b9 c3be
00000220: 8f8c efbf 470d 4940 8c5f 9cbf 70cc 5d3f
00000230: 82fb 1240 35de 1ac0 f7b9 9d3f 26a7 633f
00000240: 8c52 c5bf 3e1c 0940 dd83 ed3f 16cd 91bf
00000250: a89a 85bf 5862 2ebf 9619 47be bf05 bfbd
00000260: db80 853f a417 3cbf f0b2 f53f 5322 0040
00000270: 563b 5fc0 a0c1 1e40 8b83 b63f 134f fd3f
00000280: 6605 3d3d 0adf 693f f39d 95be 7ac8 823f
00000290: dfb8 503e 58eb cb3e 1bf4 41bb 5c5e 2ebf
000002a0: 1759 7bbe 2339 21bf d0ce 8cbf 061f 4a40
000002b0: e532 0140 3d71 59bf 07d9 b03f 2594 6e3f
000002c0: 0364 fbbe f6c8 debe 15e7 d3be 6fa7 773c
000002d0: 2c74 95be 806b 5c3e 1507 04bf d2d0 57be
000002e0: 973f 60be 01f4 93bf 19ba 6f3f 9e43 643e
000002f0: 6a0b bcbd c2d3 f13e 3c04 85bf 583f be3f
00000300: 1cd0 7ebf 1727 00c0 c67a 7fbe 7000 90bf
00000310: 108d a6bf 2ac7 d8bc a919 0a3f 514f 3a3e
00000320: bc68 dbbe f341 b4be 564d a8be 889c b4bd
00000330: 2813 6b40 390c a5be 84d6 a2bf 8916 2e3f
00000340: 2f4b cd3f 5ac2 d4be 74bb 95bf 8671 a93f
00000350: 335e 84be d0a4 46bf b442 74bf 6084 b7bd
00000360: 7d9a 69be bcaf 273e 989f e7be af98 63bf
00000370: de82 813f cc60 ba3f c015 0d40 70f0 91bf
00000380: 9cdc d7be 0f37 02be ca6c 72bf 92c3 09bd
00000390: e62c ca3f 4799 61bf 4978 31bf 0629 553f
000003a0: 416a b43f bdca aa3f aa26 1fbf a3b9 a83f
000003b0: 74aa b6be b0f7 babf 19ab 2640 5c61 033d
000003c0: 3924 8e3f c0d4 023f 678a 6bbf 9c92 58bf
000003d0: 06a2 f83d 9f2a afbe 1d0c 3f3e 4e4f 9c3e
000003e0: 1193 c73f 8d11 fabf 28a9 0440 6908 53bf
000003f0: ba93 b73e 3967 35be 3d7d 523f 34d7 753f
-1.2953819 1.7142955 0.85107905 -0.07899802 0.16487366 0.5405313 -0.20968968 -1.5837706
-1.8463085 1.8556231 0.5344739 1.194589 -0.6051333 0.124998055 2.2364562 1.3480366
0.77430433 -0.9330645 -0.89103603 -1.1730257 -0.31966513 0.38373226 0.5637907 0.57094413
0.12555115 0.8143756 -0.5853785 -0.74666834 1.133437 1.2767868 0.81440324 -0.6369131
-1.4208323 1.692831 0.5232035 0.0042830296 -0.10050285 0.456173 -0.47246003 0.8354008
-0.79083407 0.24362625 -3.3419502 -2.2265928 1.3999803 -1.4138657 -3.5959117 -0.63451123
-2.4178479 -1.3163196 2.148948 1.4654673 -0.5007806 -0.9494869 1.8499148 -0.621077
1.575744 -0.23264706 -0.17524147 0.07649466 -0.4343 -0.5591087 -1.833062 -1.4324644
0.4607263 0.2702677 0.20082723 -0.17744355 -0.52710813 -0.5951869 -1.1295679 1.2969912
-0.5001039 0.8095882 -1.0037926 0.6030744 2.9826035 -0.6161509 -1.3643178 -1.3206364
2.0197496 0.08060297 -0.6271504 1.3552014 2.1784644 -0.89390445 -1.4520059 1.159459
-1.2316068 2.1332626 1.0773233 -1.5355321 0.8139773 0.5567687 0.069393635 0.17116104
-0.1804129 -0.41456738 0.24077922 -0.7991833 -0.30623314 0.06478773 1.1696292 0.3702733
-0.22905998 -0.062482316 -0.42279777 -0.6661889 0.31180048 -2.1426752 0.03982944 1.6453663
1.5730453 1.571868 -0.20835349 -1.2967925 0.5782785 -0.9954473 -0.062324073 1.4270469
-0.4746756 -0.14808837 0.17854302 -0.18216133 -0.45432824 0.1799794 1.745432 2.5907118
3.3344364 -1.8865043 -1.811321 3.2564342 -0.563993 -0.5525306 -1.1295983 -0.38227442
-1.871477 3.1414354 -1.2216659 0.8664007 2.2966008 -2.4198124 1.2322377 0.88926923
-1.5415816 2.1423488 1.8555866 -1.1390712 -1.0437822 -0.6811881 -0.19443354 -0.09327268
1.0429949 -0.7347357 1.9195232 2.002095 -3.4879966 2.480568 1.4258894 1.9789757
0.046147726 0.91355956 -0.29222068 1.021743 0.20383023 0.3982799 -0.002959496 -0.6811273
-0.24545704 -0.6297781 -1.1000614 3.1581435 2.0187314 -0.8493841 1.3816231 0.931948
-0.4909974 -0.43512696 -0.4138724 0.015115603 -0.29190195 0.21525383 -0.51573306 -0.21075752
-0.21899258 -1.1558839 0.9364334 0.22291419 -0.091818646 0.4723187 -1.0391917 1.4863081
-0.995363 -2.0023859 -0.24949178 -1.1250134 -1.3011799 -0.026462156 0.53945404 0.1819432
-0.42853343 -0.35206565 -0.32871503 -0.088189185 3.6730442 -0.32235888 -1.2721715 0.68003136
1.6038569 -0.41554528 -1.1697831 1.323777 -0.25853118 -0.77595234 -0.9541428 -0.089607954
-0.22812839 0.16375631 -0.45238948 -0.8890485 1.0118062 1.456079 2.2044525 -1.1401501
-0.421605 -0.12716316 -0.9469725 -0.033633776 1.5794952 -0.8812451 -0.69324166 0.8326572
1.4094926 1.3343121 -0.6216837 1.3181652 -0.3567692 -1.4606838 2.604193 0.03207527
1.1104804 0.5110588 -0.9200806 -0.8459871 0.121402785 -0.34212205 0.18656965 0.30529255
1.5591756 -1.9536606 2.0728245 -0.8243471 0.35854894 -0.17715158 0.8222235 0.960315

weight f4 [1030, 4]
00000000: 2633 1fbf 1519 cf3f 0d08 86be eccd e1be
00000010: 96aa a5be a30e 21bf 8027 20bd 998b 3e3f
00000020: 56e5 f7bf f3ae 94be b801 2dc0 9c8e 833f
00000030: e571 81bf ecf9 e53f 71f3 c93d 1dae 023c
00000040: 2ca5 18bf d036 c53f fc66 f9be ea29 893f
00000050: a9af 423f 587b 8bbf 91e9 103f e090 333f
00000060: d52a b13f aaa7 f53f 336f ecbe e0e6 84bf
00000070: fc64 c43f 04eb 39bf 3763 3fbe c4b4 733f
00000080: af1b 91bf 1952 a5bf c8ea 73be fbd4 67bf
00000090: 7d27 613f c023 363e 3b0e a93e 17c8 28bf
000000a0: 0e78 a6bd 7836 c83f bd07 3f3f 6868 0ac0
000000b0: 1d8b 5ac0 152a 813f 6349 5a3f 84c8 253f
000000c0: 03c1 71bf a148 f03d 06f2 953f 4f4f 14be
000000d0: 1fb2 1dbf 2ebd ffbe 2bd8 b2bf 4e7c 483f
000000e0: 300c c9bf da86 0bbe f5b8 41bf f7f2 74bf
000000f0: e342 bf3f 1734 a43f 93ec 9d3c 8097 aabe
00000100: 105c 733e b529 d53c 1933 dbbd eeab fdbe
00000110: 5382 36c0 9621 d9be 5c61 99bf 67e8 98bf
00000120: 67c5 90bf c931 0ec0 7efb 58bf 6af7 a5bd
00000130: e9fa dfbe 921a 193e 5e22 4c3e 5769 cc3e
00000140: 8b6e 673f 0cb1 8fbf a30d b0be b07a 7ebf
00000150: 485c 90bd 9d45 a5be 35f2 b73f af22 21bf
00000160: 8f52 ad3f 1957 af3f 1579 b3bf 6958 c6be
00000170: 5968 86bf 5ca2 e23f fbf7 13bf 1d65 fbbf
00000180: ae88 e1be 965e 31bf 478f 97bf 3cf3 70bf
00000190: d28f f53e 2a5c c8be 94d2 353e cd05 943e
000001a0: 4218 333e 09db 81be 797d edbe 2c4e 3bbf
000001b0: 7d93 93bf b8e1 473f 5825 1e3f 32b3 27c0
000001c0: 361f ab3f 83c0 62bd 11b2 08bf 5313 34be
000001d0: 8b0f 2cc0 7945 333f c17d 1cbf 4161 543d
000001e0: 5338 fc3e 24a8 a3bf 45df 4e3d e54c f23e
000001f0: 4fff 15bf 9bf0 7dbe 9ae1 383e 93d4 bbbf
00000200: 3839 5dbf d843 f43f 2225 dc3f 226e 553f
00000210: a7a2 e33d b2fe e23d c7e0 cdbf f986 d13f
00000220: fed0 d0bf 16cd 1c3f 985a bc3e 8ad6 973f
00000230: 4afd 3abf 9e15 b13d 3717 3dbd 7a37 a0bf
00000240: 92ff 8dbf 806d a43f 0ec0 f9bf 7e4a c73f
00000250: 68a1 57be 6618 843f f27a 20bf 9d83 39bf
00000260: 1fa3 11be 1555 f93e 1edd 333f a956 88bf
00000270: 5e88 053f 3b71 663e d097 e9be f033 083f
00000280: 8514 ff3e 3581 3fbd 8822 793f 6925 613f
00000290: 5b2f 89bf ed6d 14bf b1cb c03e a444 e2be
000002a0: 5016 68bd d962 0640 1a3b d53f 747c c03f
000002b0: 809b 663e 932e 1840 a47f 6fbe 55dd f33f
000002c0: 1ab7 a13f 61ae cebf 2e5b 343f a6fd 9b3e
000002d0: 98a0 843f fe85 d63d 1f67 02bf 8f83 943d
000002e0: 9cf4 02c0 a76c 91bf e17c b1bd c3c5 5abf
000002f0: 5a02 a4bf 6146 8f3f a6e6 0fbf 301a 313f
00000300: d742 ad3f bc13 5cbf 6ac4 cebe 916a 52bf
00000310: a407 e53f d663 093c cd4c 14bf a45b c5bf
00000320: 8fbb 90bf 28e4 fb3f cf5d 0fc0 3dc7 fabe
00000330: cb4b b13e 8498 febf 75db ecbf 86ab e3bf
00000340: f2a3 d0bb 17b4 573f a283 a1bf 9e47 febf
00000350: 9701 c1bf 9bd3 80bf c886 20c0 cea7 aebd
00000360: 774e 7bbe a7a1 32bf baed 9f3e c3d7 1a40
00000370: f96c 57bf 9317 c13f e698 863f e50e 03bf
00000380: a2b4 a43f d8a0 be3f cd1f 8d3f dce6 b03f
00000390: 5737 6abf 9352 ab3f 0176 4a3f c16a ddbf
000003a0: 0b6b 9a3f 32a5 2cbf 9050 813e 0804 7fbf
000003b0: e939 183f 2116 673e 55c2 32bf 8ded 6b3f
000003c0: cd91 7ebf 73fe e5bf 70fa e3be 0791 e03e
000003d0: 4d5c 1b3f eaf5 8f3e 8fe2 55bf c4a5 72bf
000003e0: 8a9b a23f 89ab 6f3c ca9f 113f fcb6 30bf
000003f0: 449e 9f3f a3ad 99bf 0908 e13e a795 b63d
-0.6218742 1.617953 -0.26178017 -0.44102418 -0.3235671 -0.6291296 -0.03910017 0.7443176
-1.9366863 -0.29039726 -2.70323 1.0277896 -1.0112883 1.7966895 0.09860886 0.007976082
-0.5962703 1.5407352 -0.48711383 1.0715916 0.76049286 -1.0897017 0.56606394 0.70142937
1.3841196 1.9191792 -0.46178588 -1.0382957 1.5343318 -0.7262423 -0.18690191 0.951977
-1.1336573 -1.2915679 -0.2382003 -0.9055936 0.8795088 0.17787075 0.3301867 -0.6593031
-0.08128367 1.5641623 0.7462118 -2.1626225 -3.4147408 1.0090967 0.8526823 0.6475909
-0.9443514 0.11732603 1.1714485 -0.14483379 -0.61599916 -0.4994902 -1.3972219 0.78314674
-1.5706844 -0.1362566 -0.7567285 -0.95683235 1.4942287 1.2828397 0.019277846 -0.3331871
0.23765588 0.026020864 -0.107031055 -0.49545234 -2.8517044 -0.42408437 -1.1982837 -1.1945924
-1.1310242 -2.2217886 -0.84758747 -0.08103831 -0.43746117 0.14951542 0.19934985 0.39924118
0.9040305 -1.1225905 -0.34385404 -0.99405956 -0.07048851 -0.32279673 1.4370791 -0.6294355
1.354082 1.3698455 -1.4021326 -0.38739327 -1.0500594 1.7705798 -0.57800263 -1.9640232
-0.4404959 -0.6928495 -1.18406 -0.94121146 0.4796129 -0.39132816 0.1775611 0.28910676
0.17489722 -0.25362423 -0.4638479 -0.73166156 -1.1529385 0.78078794 0.6177573 -2.6203122
1.33689 -0.055359375 -0.5339671 -0.17585497 -2.6884487 0.7002788 -0.61129385 0.05185056
0.49261722 -1.2785687 0.050505895 0.4732429 -0.58592695 -0.24798815 0.1805481 -1.4674248
-0.86415434 1.9083204 1.7198832 0.83371174 0.11115008 0.110837355 -1.6084222 1.6369315
-1.6313779 0.61250436 0.36787868 1.1862347 -0.7304274 0.08646701 -0.046164718 -1.251693
-1.1093619 1.2845917 -1.9511735 1.5569608 -0.21057665 1.0319946 -0.626876 -0.7246645
-0.14222382 0.48697725 0.70259273 -1.0651447 0.52161205 0.22504131 -0.45623636 0.5320425
0.49820343 -0.04675408 0.97318316 0.8794771 -1.0717577 -0.57980233 0.37655404 -0.44192994
-0.056661904 2.0997832 1.6658661 1.503798 0.22520256 2.3778427 -0.23388535 1.905192
1.2634003 -1.6146966 0.7045163 0.30466956 1.0361509 0.10474776 -0.509386 0.07251655
-2.0461798 -1.1361283 -0.08666397 -0.8545801 -1.2813218 1.1193353 -0.56211317 0.69180584
1.3536023 -0.8596761 -0.40384227 -0.8219386 1.7892957 0.008385619 -0.5792969 -1.5418591
-1.1307238 1.9679003 -2.2401006 -0.48980132 0.34628138 -1.9890294 -1.8504473 -1.778672
-0.0063672 0.8425917 -1.2618296 -1.9865606 -1.507861 -1.0064577 -2.5082264 -0.085281
-0.2454165 -0.6977791 0.31236058 2.419419 -0.84150654 1.5085319 1.0515411 -0.511946
1.2867625 1.4892836 1.102533 1.3820453 -0.9149069 1.3384575 0.7908631 -1.7298204
1.2063917 -0.6743957 0.25256777 -0.99615526 0.59463364 0.22567035 -0.6982778 0.9215935
-0.99441224 -1.7968277 -0.44527006 0.43860647 0.60687715 0.28117305 -0.83548826 -0.9478419
1.2703717 0.0146282995 0.56884444 -0.6902921 1.2470174 -1.2006115 0.43951443 0.08915263

weight f4 [7, 4]
00000000: b440 823d a1a0 cfbe 569a 0240 976a 8c3f
00000010: 32ab 5d3f 61b4 6fbe 7037 c23f 7a1f 0a3e
00000020: 1c16 b2be 8c34 1c3f a6fd 73bf 4262 3d3f
00000030: a169 073e aea6 1a3e 6beb f0be 2b90 e23e
00000040: eba8 fd3d 1b8d 5cbd c6f2 963b c4f2 01be
00000050: ddb0 03bf 3b1e 0740 9909 8e3f 6ed4 a33f
00000060: 9616 2e3e 8416 83be 78a0 d3bd 4b82 f9bc
0.063599974 -0.40552238 2.04067 1.0970029 0.8658935 -0.23408653 1.5173168 0.1348857
-0.34782493 0.6101768 -0.9530891 0.73978055 0.13223888 0.15102646 -0.4705461 0.44250616
0.12385734 -0.053845506 0.0046065776 -0.12690264 -0.51441747 2.1112201 1.1096679 1.2799203
0.17000803 -0.25603116 -0.10333341 -0.030457636

weight f4 [7, 4]
00000000: 5567 17bf a1ce 6cbf ad76 8abf 614c 0bbf
00000010: b713 94bf 2f5e dcbe 7ba3 0e3f 9de4 38bf
00000020: 8af9 f43e 6db3 933f 6ba7 2c3f 73b7 d8bd
00000030: d994 373f 7ad0 cb3f 2c72 bd3f 6742 5a3f
00000040: 3174 ec3d 6baa 3c3f 8e55 8ebe 4466 66bf
00000050: 6de8 f93e 3a5f 02bf 4412 a33e 5775 4a3f
00000060: 7426 dabe e4f6 2e3f 5ca5 c2bf 736d d53f
-0.5914205 -0.9250279 -1.0817467 -0.5441342 -1.1568516 -0.43040606 0.557182 -0.72223836
0.47846633 1.1539131 0.6744296 -0.10581865 0.717115 1.5922997 1.4800467 0.8525757
0.11545599 0.7369754 -0.27799648 -0.89999795 0.4881014 -0.50926554 0.31849873 0.79085296
-0.42607462 0.68345475 -1.5206714 1.6674026

weight f4 [7, 4]
00000000: d713 abbf c6c3 2dbf da1f 89bd ecec 143f
00000010: 0059 8b3f 66ee 263e 6fa8 f33d 5096 343e
00000020: a334 d13e f3f0 c63f 932e cdbe 55b9 723f
00000030: ca54 873f 8cab 9b3f 3db4 4dbf f150 763f
00000040: 277e 1dbf 1cfe a83f 8c7a 64bf 0375 943e
00000050: f972 0ebf 8373 5a3f c170 47bf 84d3 873e
00000060: 0c25 ad3f d492 0fbf dc04 79be ba0e e73e
-1.336543 -0.6787685 -0.06695528 0.58174014 1.0886536 0.1630188 0.118973605 0.17635465
0.4086047 1.5542282 -0.40074596 0.94814044 1.057275 1.2161727 -0.80353147 0.96217257
-0.6152062 1.3202548 -0.8924949 0.28995523 -0.55644184 0.85332507 -0.77906424 0.2652856
1.3526931 -0.56083417 -0.2431826 0.45128423

weight f4 [6, 4]
00000000: 455d f63f b80f 1cc0 fbe7 dcbf ed4b 97bf
00000010: f748 e6bf d6b1 75bf 00b9 9abe 986f 8fbe
00000020: a411 dc3e 10c4 32be b3cf 59be 7f30 393e
00000030: 67d7 eb3f 1457 b13f 368d 1540 d927 2c40
00000040: abdb 843f ac13 993f 659e 533f 7d9a 673f
00000050: 3957 973f 6ce8 cebf 7288 7d3e 5b00 f83e
1.9247214 -2.4384594 -1.7258295 -1.1820046 -1.7991017 -0.9597448 -0.3021927 -0.28014827
0.4298221 -0.17457604 -0.21270637 0.18084906 1.842511 1.3854699 2.3367438 2.689932
1.0379537 1.1959128 0.82663566 0.90470105 1.1823493 -1.616468 0.24759081 0.4843777

weight f4 [16, 1, 3]
00000000: 3e13 55be 78ec 693f 0ed8 0a3f 006f 03bf
00000010: 5cb2 33bf a674 f5be 4e77 bbbe 68fa 1abf
00000020: 7e05 9ebe 01db c6be 8f82 20bf 3145 03bf
00000030: e345 6d3e aff3 49bf 518d e7be 1ffa ad3e
00000040: f0c3 e23e 036c 4fbf e1ba 01bf d4dd 173f
00000050: 525e dfbd c6ee 7d3e 2032 70bf 5463 c63e
00000060: c3a0 2b3f 0753 2ebf e5b0 acbd 5fca 38bc
00000070: f6fc 9fbd fd85 3040 a240 213f f8c1 1b3f
00000080: bb39 e0bc 1a9c c0be 4172 57bf e670 123f
00000090: 0fec 3ebf 268e 173f fbb5 043e 1db2 fdbd
000000a0: cedb 463f 6e09 093f f260 3dbd b385 dd3e
000000b0: ab98 a1bf 4040 2d3f 323f 01bf 646b 4abe
-0.20808122 0.9137645 0.54235923 -0.5134125 -0.7019403 -0.47940558 -0.3661446 -0.6053834
-0.30863565 -0.38838962 -0.62699217 -0.5127745 0.23171191 -0.78887457 -0.45225003 0.3397989
0.44290113 -0.8102419 -0.5067578 0.5932286 -0.10906662 0.24798116 -0.93826485 0.38747656
0.6704218 -0.6809544 -0.084321775 -0.011278718 -0.0781192 2.758178 0.62989247 0.6084285
-0.027371278 -0.37619096 -0.8415871 0.5720352 -0.74578947 0.59201276 0.12960045 -0.12387488
0.77679145 0.53530014 -0.046235032 0.43266067 -1.2624716 0.6767616 -0.50487053 -0.19767529

bias f4 [16]
00000000: 704d eb3e bb81 2dbf d0ba 543f 9ae1 413f
00000010: e5f7 403e d59b bcbe 9a70 cebd acb5 b0be
00000020: ab3f 94be 3f9b cfbc c4ef 183e 0b6a b1be
00000030: 79bd 1dbe 31f8 a63f 6250 c1be d63b 4b3e
0.45957518 -0.6777608 0.83097553 0.75734866 0.18844564 -0.3683764 -0.10080071 -0.34513605
-0.28954825 -0.025342582 0.14935213 -0.34651217 -0.1540431 1.3044492 -0.3775664 0.19847044

weight f4 [32, 16, 3]
00000000: 1c83 01bf a6ec 8f3c 1173 673e 1456 863f
00000010: b8ca 85bf 64d5 333e c265 883f 249f 90bf
00000020: 37d1 cb3d 27aa 8f3f c80d a2bf 82c8 153e
00000030: c375 d03e 0167 15bf 19e8 203e 66ab e5be
00000040: 4380 b0bd 1020 b33e 7bf5 53bf 0f4d f63d
00000050: aa99 bb3e 5d38 ec3e 0bfd 55be 6aab afbe
00000060: d641 153e ba09 23bf 6ccc 9dbd c313 3bbe
00000070: 3186 cabe b8a6 193f 8f14 3c3e 14d7 9fbb
00000080: 823f 31bc 472d 213f b7cc 0cbf 6f70 8ebe
00000090: 497c bdbe e204 3b3e 9d64 a5be d251 e2be
000000a0: 3ab1 2dbd 24eb a63b cf29 6dbe 5447 de3d
000000b0: 0cff 5b3f cba3 c33e 996c d9be 1b88 2abe
000000c0: daaa 7d3e 7785 323e f7df c4bf 6d2a fd3d
000000d0: 9722 14bf edcf ef3d 9e9f 113e fe71 f9be
000000e0: 294d ccbb 94f1 fe3d ae6e 0ebf 7126 5cbe
000000f0: 34a9 84be 57d2 dcbe 7bdf 823e 3935 f2be
00000100: 94bf c03e 1b8b a43e a9ac 533e 0a56 173d
00000110: 584a 91bf c1fd d5be f23b 893e 3c99 113f
00000120: addc 27be 3809 2fbf 1fde ca3e dc68 ad3c
00000130: c691 2e3f f6ad 2b3f 1283 8abe a1a6 3f3e
00000140: 2db2 9b3b 410d dcbb 26e1 7d3e 0aa3 013f
00000150: 1d1c f6bd fbee 1d3f 4306 78bf 4bba d9bd
00000160: 507d 993e eecf e3bf 4a5a dabc 33d5 ad3e
00000170: 7f17 d7bf 1c01 5dbd 1f99 4fbf 8b25 033f
00000180: 9a72 0bbf 5a7b 183d 5d85 da3e 2c30 3f3f
00000190: 4f3e 6f3f 92bf adbe 5c28 203f 0ba9 663f
000001a0: bce0 603d d1e8 553f e467 263f 55c4 b6bd
000001b0: 9e41 a73e 4869 353f 567f c83e 2cbd 9cbe
000001c0: 81b1 93be ecd7 dfbe 8243 733e 098b b1be
000001d0: 6e63 aa3e 8f93 b93e e133 0ebd 2db8 9abe
000001e0: 702a 603e 9ac5 17be 97d0 cf3d d62b 1abf
000001f0: efac b9bd b6b8 8cbf 3a82 30bf c2e6 9ebf
00000200: af56 98be 92cb 323e aec1 bd3f 32c8 39be
00000210: 661c 03bf d269 d73e e68e 0e3f 786f 60bf
00000220: 9ddf c6bb 5a72 a73d 5caf 853e ff44 cc3e
00000230: 15b2 dabe c7eb 093e 7af5 6dbe 3fae bd3e
00000240: 637f 0c3c ad22 e5be 241e d1be eba6 2c3e
00000250: 2f8e 363d db54 0bbf 9b97 0bbc 5e7b fd3b
00000260: 768d f9be ebd8 ae3e eb1a 243d 3801 f6be
00000270: f7d4 173f b817 10bf 23cc 2fbf 3290 c53c
00000280: 00c6 0c3f cf72 29bf a4e8 9e3e a64e 56bd
00000290: 756b adbe a623 333f 6f7b d4be 1922 4bbf
000002a0: 0eee db3e 0ed7 143e 6486 cfbe 6deb 373e
000002b0: 86f1 90bf b93b debe d375 7d3e 54f3 f13d
000002c0: d5cb c9bf e62c f13e 432d a33d 23db c6bf
000002d0: 7b15 fa3e 2b56 87be 0175 98bf f825 753e
000002e0: 88a0 4fbf 3bca 17bf 2562 bf3e 52c3 10bf
000002f0: 8fac 5d3e 67dd 3a3e 0349 da3e 8034 12bf
00000300: 7965 fd3c 8d37 6abf 3b03 ff3c 5300 4fbd
00000310: f65d 4abe 5ed5 c53e e2a4 52be 8a6a 663e
00000320: e4cc f03d c598 0fbe 066a 3c3e 67c0 ec3d
00000330: a9d6 8d3d ca3c f93e d5e8 edbe 18d9 0bbe
00000340: edd4 6a3f 4f66 e4be f302 73be 49cc e43d
00000350: 00c2 1fbd ef2d 57be 61f7 8c3f 9d85 3cbf
00000360: fbf1 7ebe 8ffa 153f 50df 23bf 1072 f73e
00000370: 981a aebf 764c 69be 5814 0f3c 2a7c a93e
00000380: 3f06 55bf 1d80 e0bd f4ed 913e 0503 62be
00000390: 6147 183e 8ccc 32bf 4e0a 113e 6b13 913e
000003a0: c5d1 8abf 0423 463e db9e 05bf 9007 633f
000003b0: 76c6 4b3d 32cf 673c 1659 253f c035 0abf
000003c0: d49a aabe 0a62 53bf 74be eabe 7b10 143e
000003d0: 40e2 093f 496e c23e f232 abbd 079b 483f
000003e0: 0a1f f13e ec2b ddbe 5b25 963f 2f01 223e
000003f0: d8e3 05bf 9513 3ebe fcd3 7c3f 298a 03be
-0.5059068 0.017568897 0.22602488 1.0495019 -1.045249 0.17561871 1.0656054 -1.1298566
0.09952014 1.1223801 -1.2660456 0.14627269 0.40714845 -0.58360296 0.15713538 -0.4485733
-0.08618214 0.349854 -0.8279645 0.120264165 0.36640674 0.46136752 -0.2089731 -0.34310466
0.14575896 -0.63686717 -0.07705006 -0.18269257 -0.39555505 0.6002002 0.18367217 -0.004877934
-0.010818364 0.6295971 -0.5499987 -0.27820155 -0.37008885 0.18263581 -0.32303324 -0.4420305
-0.042405345 0.005093949 -0.2316048 0.108534485 0.85936046 0.38210902 -0.42465666 -0.16653483
0.24772206 0.17433725 -1.5380849 0.12361608 -0.5786528 0.117095806 0.14221045 -0.48719782
-0.006234784 0.12448421 -0.55637634 -0.21499039 -0.25910342 -0.43129227 0.25561127 -0.4730623
0.37646163 0.3213738 0.20671333 0.036947288 -1.1350813 -0.4179516 0.26803547 0.5687444
-0.16392775 -0.6837344 0.3962259 0.021168165 0.6819118 0.6706232 -0.27053124 0.18715908
0.004751465 -0.006715447 0.24792919 0.506394 -0.12017081 0.6169278 -0.96884555 -0.10631236
0.29978418 -1.779783 -0.026654381 0.3395172 -1.6804045 -0.053956136 -0.8109302 0.5122916
-0.54471743 0.037227012 0.42679873 0.7468288 0.9345445 -0.3393522 0.62561584 0.9010169
0.054901823 0.83558375 0.65002275 -0.08924166 0.3266725 0.7086377 0.3915965 -0.30613077
-0.28846362 -0.43719423 0.23756221 -0.34676388 0.33278984 0.3624539 -0.034717444 -0.3021864
0.21891189 -0.14821473 0.10147207 -0.6022314 -0.090661876 -1.0993869 -0.6894871 -1.2414172
-0.29753634 0.17460468 1.4824731 -0.18142775 -0.5121521 0.42072922 0.55686796 -0.8767009
-0.0060691372 0.08176108 0.2611035 0.3989639 -0.4271399 0.13468848 -0.23238173 0.37047002
0.008575293 -0.44753018 -0.40843308 0.16860549 0.04456919 -0.54426354 -0.008520032 0.007735654
-0.4874074 0.3414987 0.040064733 -0.48047805 0.59309334 -0.5628619 -0.6867086 0.02411661
0.54989624 -0.6619081 0.31036866 -0.0523211 -0.33871046 0.6997627 -0.41500422 -0.79348904
0.4295506 0.14535162 -0.4053222 0.17960902 -1.1323707 -0.4340494 0.24751978 0.11813989
-1.576533 0.47104567 0.07967617 -1.5535625 0.48844513 -0.26432928 -1.1910707 0.23940265
-0.81104326 -0.59292954 0.37379566 -0.56548035 0.21647857 0.18248521 0.4263383 -0.5711136
0.030932175 -0.91491014 0.03112947 -0.05053742 -0.19762406 0.3863935 -0.2057071 0.22501579
0.1175783 -0.1402312 0.1839982 0.11560135 0.06925709 0.4867919 -0.464667 -0.13657033
0.9173115 -0.44609305 -0.23731594 0.11171777 -0.039003372 -0.21013616 1.1012994 -0.7364138
-0.24896996 0.5858545 -0.6401262 0.4832921 -1.3601866 -0.22783074 0.008732878 0.33102542
-0.83212656 -0.10961936 0.28501856 -0.22071464 0.14870979 -0.69843364 0.14164087 0.28335127
-1.0845267 0.19349295 -0.5219552 0.88683414 0.049749814 0.01414852 0.6458906 -0.53988266
-0.3332125 -0.8257147 -0.4584843 0.14459412 0.53860855 0.37974766 -0.083593264 0.7836155
0.47093993 -0.43197572 1.173015 0.15820764 -0.52300787 -0.18562157 0.9876096 -0.12845673

bias f4 [32]
00000000: eae0 09bf e60c 20be 7f18 b63e a753 113f
00000010: b9d0 87be 42dd 953e 38a0 8b3e 59b6 0cbe
00000020: e58e a93e 60fc d93e 8cc3 093f 1b0e 8d3e
00000030: 652f 9f3e 4d34 51bf aab9 1bbf 3fad 17be
00000040: f4e2 79be d854 b13e 2f47 0b3f 76ac a8be
00000050: d9b4 5b3f 6176 11bf eeeb c7bd fcc1 e03e
00000060: 2ce0 133e 962b 403e 0e06 51be 1e1f b63d
00000070: 5aaa 43bf 1fce babe 8030 23bf 8394 babe
-0.53858817 -0.1562992 0.35565564 0.5676827 -0.2652643 0.2927037 0.27270675 -0.13741435
0.33116832 0.4257536 0.53814006 0.27549824 0.31090847 -0.8172043 -0.60830176 -0.14812182
-0.24402982 0.34635043 0.5440549 -0.32944077 0.85822827 -0.56821257 -0.09761797 0.43897998
0.14440984 0.18766627 -0.20412466 0.08892654 -0.7643181 -0.36485383 -0.6374588 -0.3644143

weight f4 [16]
00000000: 64b7 6c3f 458a 813f 371e 793f e7af 8f3f
00000010: 441f 8f3f aceb 5f3f 0e28 733f f2c2 763f
00000020: 82dc 6d3f 31a4 2f3f 10f1 533f be3d 8d3f
00000030: 3b82 933f b782 833f 7c40 a53f 9446 6e3f
0.9246733 1.0120322 0.9731173 1.1225556 1.1181417 0.8746898 0.94982994 0.9639121
0.92914593 0.6860991 0.8278971 1.1034467 1.1524118 1.0274266 1.2910304 0.93076444

bias f4 [16]
00000000: 0f50 d3be 74a4 51bf 7ba0 5fbf ebe9 9ebf
00000010: 3750 16bf 9c5a bebe 9a5f c1be 2025 c6be
00000020: db8f a0be b83c 02be 6634 21bf 8e89 23bf
00000030: c72a 69bf f825 02bf 360b 5abf 2a56 c2be
-0.41272017 -0.8189156 -0.8735425 -1.2415136 -0.5871615 -0.37178504 -0.3776825 -0.387002
-0.31359753 -0.12718475 -0.6297058 -0.63881767 -0.910809 -0.50839186 -0.85173357 -0.37956363

running_mean f4 [16]
00000000: 7ebd d93e 1a48 23bf 5dd6 5b3f a1c0 4b3f
00000010: 1738 5b3e 402a b7be d131 c4bd f43b b0be
00000020: 3a70 92be 88e3 e2bd 6aae 013e ed40 aebe
00000030: 630b 1cbe 2502 a33f f0c2 b1be e8e0 4f3e
0.42527384 -0.63781893 0.8587397 0.79590803 0.21408115 -0.35774422 -0.09579814 -0.3442074
-0.28601247 -0.110785544 0.1266419 -0.3403391 -0.15238719 1.273503 -0.34719038 0.20300639

running_var f4 [16]
00000000: 928c 8e3f ec92 873f acc2 223f 236e 5d3f
00000010: fd50 523f f2f0 4a3f 124b f23e 3c6e 583f
00000020: f9b9 393f d7f9 d540 b107 453f b8ca 7f3f
00000030: 9469 3b3f 1881 613f 32e2 b93f 47f8 1a3f
1.1136649 1.0591712 0.63578296 0.8649618 0.8215483 0.79273903 0.473229 0.84543204
0.72549397 6.686748 0.7696486 0.999187 0.73207974 0.88087606 1.4522154 0.6053509

weight f4 [32]
00000000: 6e3f 833f c918 863f bdc4 5a3f 6bd4 c13f
00000010: 5eb2 a73f 61f8 733f a91a 9b3f e4e6 c23f
00000020: 8b94 903f c8ac c23f 9cc3 a03f df32 6e3f
00000030: c58f 573f 35ee 8a3f 95b6 a33f 9d05 9d3f
00000040: 6430 af3f 6db6 823f 5432 553f fb79 8d3f
00000050: 6876 8d3f ac25 bd3f 0b24 893f 26eb 6d3f
00000060: 057c 843f ac87 ae3f 34ff 793f 6794 883f
00000070: 0a0e 993f 4c70 b23f ee26 a83f e107 ac3f
1.0253732 1.0476314 0.8545645 1.514295 1.3101308 0.9530087 1.2117511 1.5226712
1.1295332 1.5208979 1.2559695 0.93046373 0.8420375 1.0853945 1.2790095 1.2267338
1.3686643 1.0211922 0.8327992 1.105285 1.105176 1.4777122 1.0714124 0.92936933
1.0350348 1.3635154 0.97655034 1.0670289 1.1957409 1.394052 1.313688 1.3439904

bias f4 [32]
00000000: 8566 06bf ac47 ecbe 3976 683e 61b9 f4be
00000010: cbec 80bd e3d7 bfbd 2183 cfbe 2e89 00bf
00000020: 4d3f 8bbe 8fd5 bfbf 6f72 9b3e 650c 15be
00000030: 8739 4d3e c20e 8fbe 053f dcbe f7e0 edbe
00000040: 734d bcbe e3b0 d8be 4e9f 093e 721b b1be
00000050: 49a6 e4be 45a1 6fbe fa08 67be cd53 8ebe
00000060: b2c6 f7bb bfd1 eabe 5c37 d0be bfca 3b3c
00000070: ac5e b5be a19d e2be 128b a1be 9b8b 953e
-0.5250018 -0.4614843 0.22701348 -0.47797683 -0.06295165 -0.09367349 -0.4052973 -0.5020932
-0.27196732 -1.4987048 0.30360743 -0.1455551 0.20041476 -0.27940947 -0.4301683 -0.46460697
-0.3677784 -0.42322454 0.13439676 -0.34591252 -0.44658116 -0.23401363 -0.22562018 -0.2779831
-0.007561528 -0.4586315 -0.40667236 0.011461913 -0.3542379 -0.44260886 -0.31551415 0.29208073

running_mean f4 [32]
00000000: fef6 97bf 4072 c2bf 16ee 403f c32e debf
00000010: 9958 81bf dc33 cb3e 2bba 05c0 03cf b23e
00000020: a767 73bd f40c 3540 fd9d 3340 e9cb f03f
00000030: 402e e03f ed94 85bf e789 edbf 5827 e8bf
00000040: 84e7 42bf 9072 9dbf e73b bf3f 83cf c8bf
00000050: 1b5c 04bd ff8b a6bf 4168 31bf a695 cc3d
00000060: e3ca 4e3f 4a90 2dc0 adbb c43f eaa3 073f
00000070: 4a3c 8b3f 4782 4dc0 6c9f 05c0 0d85 153f
-1.1872251 -1.5191116 0.7536329 -1.735802 -1.0105163 0.39688003 -2.0894878 0.34923562
-0.059425022 2.8289156 2.8065178 1.8812228 1.7514114 -1.0436074 -1.855771 -1.8137007
-0.76134515 -1.2300587 1.4940156 -1.5688328 -0.0323144 -1.3011473 -0.69299704 0.09989481
0.8077833 -2.7119317 1.5369774 0.5298449 1.0877774 -3.2110765 -2.0878553 0.58406144

running_var f4 [32]
00000000: 1ba5 2241 6aab 2841 297d 4a41 64f5 7541
00000010: a6e4 8441 a6d2 ee40 338f 5341 30d3 1e41
00000020: 4b27 2941 d8af 9f41 1098 8341 2818 8341
00000030: de84 5141 927a 3241 2951 5e41 4848 3641
00000040: 7ac9 3341 24bf 4441 3d7b 7841 6f6a 2941
00000050: 9ccf 4f41 28a2 6b41 7b10 0141 e364 5941
00000060: a302 8e41 88f3 6c41 a838 e040 14d1 3641
00000070: 734a 1941 a692 7941 88ca 4441 e7ea 5b41
10.165309 10.541849 12.655557 15.37241 16.611645 7.463214 13.222461 9.926559
10.572093 19.960861 16.44925 16.386795 13.094938 11.154924 13.8948145 11.392647
11.236689 12.296665 15.530087 10.588485 12.988186 14.727089 8.066524 13.587131
17.751287 14.809456 7.006916 11.426044 9.580676 15.598303 12.299446 13.744849

weight f4 [64, 32, 3]
00000000: eb88 51be 26e5 7a3e 0d42 b1bf cea6 e93d
00000010: ed74 9b3d ff08 c13e ac90 babe 8910 eb3c
00000020: eef0 103f b043 de3d 09a8 4cbf eb22 73bf
00000030: 8e8a 1c3e b770 4bbf 2410 463e 2758 5bbe
00000040: 6127 023f 0aad a53e 3a7d bf3d 4052 c0be
00000050: ecee c1bf 4f6e 33bf 4bec cabe d1f2 873e
00000060: 2b12 d93e 355e 943e 05d4 933e a610 29bf
00000070: 1dad 70be 215b 563e 8485 a7bd faf5 3dbf
00000080: ece4 c73e 9456 943e 36d5 453f 4604 b7be
00000090: 4fd8 39bf c098 413e 4c06 dc3e 5ee1 5ebf
000000a0: 9061 1f3d 8686 363f 24d2 933e 0d77 853e
000000b0: 4ff7 7abe d98f c9be 1220 523e 9745 963f
000000c0: 4b4b 7c3e e0f3 6e3e 5aa6 08bf 61b4 9abe
000000d0: 3cb5 2fbe 24c8 bebf 4772 4f3e a1b5 203f
000000e0: 8088 d3bc fb23 403f 5c6a fcbe f864 92be
000000f0: 8fed fcbe 241f eb3e 1bff 4ebf f95c cabe
00000100: 1faf bfbe d1e1 623f d182 90bd 1b5a 4bbe
00000110: 0216 85be f9ce 623d 2d32 dbbe b4f9 09c0
00000120: 0c0f 87be d22a f8be 5811 113f 5790 2abc
00000130: 067c 06bf 69e1 d7bf 709e 51be a264 123d
00000140: f464 073f 5426 3c3e 9d83 703e 49fb 17bf
00000150: e43e debe cbe3 b2be 6e4c 0f3f c22a 1cbf
00000160: fcd5 56be 4547 5dbf af93 b8be 393f 5cbe
00000170: 3152 143f d7a5 9f3e 296f 50bf 934d b2bd
00000180: e015 b4bd 84cc b0bf 0354 7cbf 200e 0a3f
00000190: 81b9 74bf a949 823e 2ca3 ac3e ba4a 8f3d
000001a0: c5c9 aabd 212d bd3d 0c8d 93be 0aae b3bf
000001b0: b522 c4be 3c06 393e 65aa cabe ce57 53be
000001c0: 997f f93e c509 67be 11d2 70bf 1f36 2ebf
000001d0: 1b5a 76bf 6547 503e 6477 55be d6da 0cbf
000001e0: 921c 053f 43c1 35be 40fb b83e a6ac e23d
000001f0: 76cd 8abe 4a8d e7be a683 253f fa27 813e
00000200: 83d2 9ebe fd42 b33e 4ed2 5a3e 6d1b d53d
00000210: a360 863e 47bc b4bc c3fc c6be 495f cf3c
00000220: 9c90 9ebf aaf8 a53d 9a17 d03e 1594 ffbe
00000230: e2e7 963e bb24 253d bb74 f6be 1681 2f3f
00000240: 312c 0dbf b4a6 403f c0ef 053e f4a4 e33e
00000250: e0a8 febf 88f4 25bc 73bc 28be 3d51 053f
00000260: a38c 8cbb 7c60 813e ecee 01bf 39c2 5e3f
00000270: 87f5 253f b9e1 37bf f31f b63e d449 d33d
00000280: 359f 173e b3f0 11be 6546 033f 5d05 d83b
00000290: 99c2 e3be 6117 003f a473 2dbf 3fbb ce3d
000002a0: 4b3e e5bd b722 acbe 6a15 a23e 0516 013f
000002b0: 0f32 c6bf 6849 46bf d429 d13e e4d7 173f
000002c0: 3d61 123f ce81 d8be d37e 9d3e c15d ec3d
000002d0: b846 8c3d 0274 843e c3ea 983d b4dc a6bd
000002e0: d626 41c0 e028 02bf 42b7 d73e 9ac4 713f
000002f0: eafa 5abf a6bf b83e 9b90 64be 1167 383e
00000300: aecf 443d f740 db3d 8448 583e 7121 a43d
00000310: 7c91 ad3d 5c70 703e c6d7 9abb 0e7e 89bd
00000320: 118c 35bd 7e8e 063e bad8 a5bb 22d4 9dbe
00000330: b548 733e 5133 b1be 25f5 83bf 465a 87be
00000340: 01e4 9dbe 5387 16bf 0350 88be 094e c2bd
00000350: 4d01 983e bbe5 363e bf59 e03d 4a9f 5dbf
00000360: d33a 5cbd 5e8f 6e3d 6174 f4bd 835e 95bd
00000370: 04dc ff3c 9171 eebe 686c 84bd 29c0 0abf
00000380: 85bb 43bf 95b8 2dbb 6586 9bbe 3f50 3cbe
00000390: 373c 7b3e 32e8 903c f55f c3be fae0 0b3e
000003a0: 7084 31bc 6305 a33d 1321 a7be f21d 2dbe
000003b0: aafe 433e 066d 3e3e db9e 713e 1dbe df3d
000003c0: cb8d 303d aa36 f3be fba5 78be da2e 6bbe
000003d0: 50be f53e 9c62 ccbd 28c7 c43d d00e a5bc
000003e0: 04ea e9bd 5003 68be a3fb 79be 2a09 553e
000003f0: 6de7 093d 842f 63be 3fe0 f13d c3b8 07be
-0.20462386 0.24501476 -1.3848282 0.114087686 0.07590661 0.37702176 -0.364385 0.028694408
0.5661763 0.10852754 -0.799439 -0.94975156 0.1528723 -0.79468864 0.19342095 -0.21420346
0.5084134 0.3235858 0.09350057 -0.37562752 -1.5151038 -0.7009019 -0.39633402 0.26552442
0.42396674 0.28978124 0.28872696 -0.6604103 -0.23503537 0.209332 -0.08179763 -0.74203455
0.3904184 0.28972304 0.7727846 -0.35745448 -0.72595686 0.18905926 0.42973554 -0.87062633
0.038911402 0.71299016 0.28871262 0.2606739 -0.24508403 -0.3936756 0.20520046 1.1739987
0.24638097 0.23335218 -0.5337883 -0.30215743 -0.17158979 -1.4904828 0.20258437 0.62777144
-0.025821924 0.750549 -0.49299896 -0.28592658 -0.49399993 0.45922196 -0.8085801 -0.39524058
-0.37438294 0.8862582 -0.07056201 -0.19858591 -0.25993353 0.055373166 -0.4281172 -2.1558657
-0.26378667 -0.4847017 0.5666709 -0.01041039 -0.52532995 -1.6865665 -0.20470595 0.035740502
0.5288842 0.18373996 0.23487706 -0.59367806 -0.43407357 -0.34939417 0.55976 -0.61002743
-0.20980066 -0.86436874 -0.36050174 -0.21508493 0.57937914 0.31181213 -0.81419617 -0.08706202
-0.08793235 -1.3812413 -0.9856569 0.53927803 -0.95595556 0.25446823 0.3371824 0.06996675
-0.08339266 0.09237123 -0.28818548 -1.4037488 -0.3830773 0.18068784 -0.39583126 -0.20638964
0.48730162 -0.2256232 -0.94070536 -0.6805133 -0.9623124 0.20339735 -0.20846325 -0.5502142
0.5199672 -0.17749505 0.3612919 0.11068086 -0.2710988 -0.45224983 0.64654005 0.25225812
-0.31019983 0.35012046 0.21369287 0.10405622 0.26245603 -0.022062434 -0.38864717 0.02531399
-1.2387881 0.081040695 0.40643007 -0.49917665 0.29473788 0.040318232 -0.48135933 0.68556345
-0.55145556 0.7525437 0.13079739 0.44461787 -1.9895287 -0.010129102 -0.16478138 0.52077085
-0.004289226 0.25268924 -0.5075519 0.8701511 0.6482777 -0.718288 0.3557125 0.10316816
0.14806826 -0.14251976 0.5127929 0.006592436 -0.44484404 0.50035673 -0.6775458 0.10094308
-0.11193522 -0.33620235 0.31656963 0.50424224 -1.5484027 -0.7745576 0.40852225 0.593138
0.57179624 -0.42286533 0.30760822 0.1154132 0.06849426 0.25869757 0.07466652 -0.081475645
-3.0179954 -0.5084362 0.42132002 0.94440615 -0.85539114 0.36083716 -0.22320788 0.18008067
0.04804962 0.107057504 0.21121413 0.08014191 0.084750146 0.23480362 -0.004725429 -0.06713496
-0.04432303 0.13140294 -0.005061236 -0.30825907 0.23758204 -0.34609464 -1.0309187 -0.2643606
-0.30838016 -0.5880024 -0.26623544 -0.0948754 0.29688492 0.17861073 0.10954618 -0.8657118
-0.053767037 0.058242194 -0.1193626 -0.07293417 0.031232841 -0.4657102 -0.06465989 -0.54199463
-0.7645801 -0.0026507725 -0.30375972 -0.18389986 0.24534689 0.017688844 -0.38159147 0.1366004
-0.010834798 0.07960012 -0.3264242 -0.16905954 0.19140115 0.18596277 0.23595755 0.10924933
0.043103974 -0.47502643 -0.24282067 -0.22967091 0.4799676 -0.09979746 0.096082985 -0.020148665
-0.11421588 -0.22657514 -0.24412398 0.20804277 0.03366797 -0.22186095 0.1181035 -0.13254075

bias f4 [64]
00000000: 9381 983b 17d3 733d cfb2 be3e 1297 633c
00000010: 4e54 1abe aec7 f63e 43ef 26bd 8cd1 b33e
00000020: 14b8 803f 8990 a63e 45f8 e53e 4107 fd3e
00000030: 092e 36be b7dc 64bc 3f06 d0be 2007 7e3e
00000040: 723e 73bb 3097 243d a316 8e3d 9edd 563e
00000050: 879d 253f b5ee e5be 6446 54bd 0b58 553f
00000060: b049 a63e 570e 67bf 5b92 493e 57c6 6f3d
00000070: 1f0b 313d 7852 95be fcf0 07be 33f2 da3d
00000080: 41c6 a13d bc34 e7be 2f3c d53d bf37 b9be
00000090: 4e34 3dbf a2da 403f 8958 8bbf 7fc8 253e
000000a0: 59d4 37bd 2b8d 94bd bc93 dd3c b1d4 683e
000000b0: 6070 0fbe a539 2d3e 736b 313e 1808 3b3d
000000c0: 60ea cbbe 84f2 3d3e 4477 d63d 1e96 403e
000000d0: 074b 6c3e 0998 273f 0b1c b03e ed3c 1e3f
000000e0: f5c0 84be f85f 4f3f 3a31 e93e 5967 a33e
000000f0: 1b5a 333f 1c8e b83e 9cf0 793e b726 9e3e
0.0046541183 0.059527483 0.37245795 0.013890998 -0.15071222 0.4819922 -0.04075552 0.3512081
1.0056176 0.32532147 0.44915977 0.49419597 -0.17790999 -0.013968638 -0.40629765 0.24807405
-0.0037116078 0.040183246 0.06937911 0.20982978 0.6469349 -0.44908682 -0.051824942 0.8333747
0.32478094 -0.90256256 0.19684736 0.05853876 0.043223497 -0.2916448 -0.13275522 0.10690727
0.07899142 -0.4515742 0.1041187 -0.36175343 -0.73907936 0.7533361 -1.0886394 0.16189764
-0.044880245 -0.07253488 0.027047984 0.22737385 -0.14007711 0.16916521 0.17326145 0.045662016
-0.3982725 0.18549544 0.10471967 0.18807265 0.23075496 0.6546636 0.34396395 0.61811715
-0.25928465 0.8100581 0.4554537 0.31914786 0.70059365 0.3604592 0.24408191 0.30888912

weight f4 [64]
00000000: 26bb ca3d 6038 263e 8185 423e dd2b f53d
00000010: b8e7 1e3e 6b9d 233e f289 113e f276 073e
00000020: 66fe 503e 31fc 073e 030e 803e 6142 4d3e
00000030: 12f5 7c3e 0a47 4c3e 6c87 d83d 5dd5 9e3e
00000040: e016 aa3c 263e 0e3e 3d3b a53d bdab de3c
00000050: f709 4c3e 7d3e da3d ee20 e73d 56eb 973d
00000060: 9efe 5e3e 9b18 993e e1cc 5b3e 8e1b 693e
00000070: c3a8 063e d5ff 9c3e 0bf3 d43d 3c63 1f3e
00000080: 487b 5e3e 552f e33d 9a8b 2d3e 2c3d a33c
00000090: 1b6e 023e 96ff 553e 178f 323e ba9a 823e
000000a0: cc65 1b3e 13fe 243e a35e 1d3e f0c6 ff3d
000000b0: 209a 153e f92b 1d3e c93e b93d 6850 443e
000000c0: 0512 2d3e 4be5 b63e e73e 243e 35f5 353e
000000d0: 301f 4e3c 228f b33e fc7f 303e 1e72 a73e
000000e0: a52d 2f3e 50bd 3b3e 2ce0 143e 4503 613d
000000f0: a5c1 6d3e 6e92 703e b1ca dc3d 4bc0 1d3e
0.09898977 0.16232443 0.1899624 0.11971257 0.15518081 0.15978019 0.14212778 0.13228968
0.20409545 0.13279797 0.2501069 0.20044853 0.24702862 0.19948974 0.10572705 0.31022158
0.02076286 0.13890895 0.080679394 0.0271815 0.19925676 0.1065645 0.11285578 0.07417934
0.21776816 0.29901585 0.21464874 0.22764418 0.13150315 0.30663934 0.10397919 0.15565199
0.21726716 0.11093012 0.16947785 0.01992663 0.12737314 0.2089828 0.17437397 0.25508672
0.15175551 0.16112547 0.15368132 0.12489116 0.14609575 0.15348805 0.090451784 0.19171298
0.16901405 0.35721812 0.1603962 0.1776932 0.012580678 0.3507014 0.17236322 0.32704252
0.17107256 0.18333936 0.1453864 0.05493476 0.23218401 0.23493358 0.10780848 0.15405385

bias f4 [64]
00000000: 03a1 eabd 9518 56be 6de7 bbbe 147f 9dbe
00000010: 3176 8abc 445a c0be 101f b2be acf2 c6be
00000020: 99a1 0dbe f085 aabe 728b 98be 1db8 c0bd
00000030: 9055 22be a802 adbc 009b 80bd 8335 5dbe
00000040: d2d1 46be c22d 89be c795 4bbe 93cf 7fbe
00000050: 3a4d 16be 57a4 70bc c94f 60be 2d83 a9be
00000060: 833c d5bd 8d5b d3bd 6b61 38be 926d 2dbe
00000070: a12d cbbd 14eb 10be 6243 b4be fa17 a0be
00000080: c142 32be 42db 1cbe f965 c0be 6342 f2bd
00000090: 31cf 34bd 246c 80bd 8e76 edbd 3fee d0be
000000a0: bc04 e9be f4b2 b2be 72ab 93be 6509 65be
000000b0: b548 aebe bca0 19bb 33a2 b5be 05f8 bebe
000000c0: dd59 afbe f403 6fbe 44ff 03bd 4360 bfbe
000000d0: 1451 4bbe fa1e acbe 934a b0be 45c9 3bbe
000000e0: 2c5d abbe eec4 0dbe 3176 51bd 3ba0 84be
000000f0: c816 52be 80ff a1bd 190f b2be 3f74 08bd
-0.11456492 -0.20907815 -0.367 -0.30761015 -0.016902061 -0.37568867 -0.34789324 -0.3885702
-0.13831176 -0.3330531 -0.29793888 -0.09410117 -0.15852952 -0.02111943 -0.06279564 -0.21602444
-0.19415978 -0.26792723 -0.19881354 -0.24981527 -0.14677897 -0.014687619 -0.21905436 -0.33107892
-0.10411932 -0.10320196 -0.18005912 -0.16936329 -0.099208124 -0.14152175 -0.3520766 -0.31268293
-0.17408277 -0.15318015 -0.375778 -0.118290685 -0.044142906 -0.06270626 -0.11594878 -0.40806767
-0.45511425 -0.34902155 -0.2884174 -0.22366865 -0.34039846 -0.0023441752 -0.3547531 -0.372986
-0.34248248 -0.23341352 -0.032225862 -0.3737813 -0.19855148 -0.33617383 -0.34431896 -0.18338497
-0.33469522 -0.13844654 -0.051138107 -0.25903496 -0.20516503 -0.07910061 -0.34777144 -0.033313986

running_mean f4 [64]
00000000: 6c62 a5c0 1405 46c0 23dd c4c0 1c97 b0c0
00000010: 71a0 ebc0 509c cfc0 e824 d2c0 6268 28c1
00000020: f963 fdc0 bfa2 f3c0 53e5 73c0 b09b 3dc1
00000030: 0fa8 34c1 22bc 27c1 a848 f240 0c21 37c1
00000040: 6edd a5c0 f8f6 bcc0 15af fec0 b5df b3c0
00000050: 04b2 2dc0 9eb0 24c0 b9ab 96c0 c2a5 ecc0
00000060: 59b1 c5c0 8731 40c1 c83b 23c0 84bd d2c0
00000070: 0e72 64c1 ae06 53c1 e790 9fc0 8a76 d8c0
00000080: 7379 2ac1 7cf3 04c0 90d6 bbc0 d7ab a2c0
00000090: 7adf 26c1 d2a7 19c1 5c31 4ec0 c698 2ec1
000000a0: 9ce5 f2c0 a3aa cac0 c252 1cc1 a68d f8c0
000000b0: 9429 bfc0 06a6 66c0 90ec 87c0 8702 f5c0
000000c0: f49d 13c1 7486 34c1 e690 84c0 4d3c 82c0
000000d0: e22d 8dc0 6dca c0c0 e62a 06c1 d5e1 26c1
000000e0: d63a 8ac0 8e1a fec0 68fa a0c0 a531 ecc0
000000f0: dd2f 26c1 a1f3 2dc1 81fd c5c0 c32a 8bc0
-5.1682644 -3.09406 -6.151994 -5.518446 -7.363335 -6.487831 -6.567005 -10.525484
-7.9184537 -7.6136165 -3.8108718 -11.85051 -11.29103 -10.483431 7.571369 -11.445568
-5.18328 -5.9051476 -7.9588723 -5.621058 -2.7139902 -2.5732799 -4.708462 -7.395234
-6.177899 -12.012092 -2.5505238 -6.585634 -14.277845 -13.189131 -4.9864383 -6.76447
-10.654651 -2.077361 -5.8699417 -5.0834765 -10.42956 -9.603472 -3.2217627 -10.912298
-7.5905285 -6.3333297 -9.770205 -7.767291 -5.9738255 -3.6038833 -4.2476273 -7.6565585
-9.226063 -11.282825 -4.142688 -4.069861 -4.411851 -6.02471 -8.385473 -10.430135
-4.319682 -7.9407415 -5.030567 -7.38106 -10.386685 -10.87198 -6.1871953 -4.34897
