government_icfes_dataset/checkpoints/model_regression_20250521_154219.pt (torch, 438315 bytes, 39 tensors)

embeddings.0.weight f4 [4, 4]
0	0xbe34e8ac	-0.17666882
1	0x400b1f9a	2.1738038
2	0x3f2f9fe5	0.68603355
3	0x40201077	2.501005
4	0x4034e447	2.826433
5	0x3f1f52dc	0.6223581
6	0x405532d6	3.3312278
7	0xbf2d8b79	-0.67790943
8	0xbe8c3fb8	-0.27392364
9	0xbe5d0a73	-0.21586017
10	0xbe7e6146	-0.24841794
11	0xbec96abd	-0.39339247
12	0xbfeea9a7	-1.8645524
13	0xbfbad952	-1.4597571
14	0x3eed1d18	0.4631126
15	0xbfb08570	-1.3790722

embeddings.1.weight f4 [3, 4]
0	0x3ecb8920	0.39753056
1	0xbf332485	-0.699776
2	0xbf3ef627	-0.7459435
3	0xbe252856	-0.16128668
4	0x3f8383c9	1.0274593
5	0xbe878280	-0.2646675
6	0xbf59eed3	-0.8513004
7	0xbd5a46a1	-0.053290013
8	0xbef7d336	-0.4840333
9	0xbe174558	-0.14772546
10	0xc01c27ea	-2.4399362
11	0xbf8d38ba	-1.1032937

embeddings.2.weight f4 [5, 4]
0	0xbe78f5e4	-0.2431255
1	0xbe0c6948	-0.13712037
2	0xbe02d9e5	-0.12778433
3	0xbe7ac934	-0.24490815
4	0xc040361e	-3.003303
5	0xbfc59290	-1.5435352
6	0xbe73c480	-0.23805428
7	0xbf1e1629	-0.61752564
8	0x3ea6afc9	0.32555988
9	0x3e986a2d	0.29768506
10	0x3d9eba40	0.07750368
11	0xbf3802f2	-0.71879494
12	0xbe8cf214	-0.2752844
13	0xbe54cda1	-0.20781566
14	0xbf82c22c	-1.0215507
15	0xbf86ac5a	-1.0521348
16	0xbe981706	-0.29705065
17	0xbe82c744	-0.25542653
18	0x3f2d001a	0.6757828
19	0xc03ad7b2	-2.919415

embeddings.3.weight f4 [7, 4]
0	0xbeb9dffe	-0.36303705
1	0x3f3da692	0.7408229
2	0xbeb567e4	-0.35430825
3	0xbef7be1e	-0.48387235
4	0x3e3ac3f4	0.18238813
5	0x401d7108	2.4600239
6	0x3ee7fc71	0.45309785
7	0x3f955286	1.1665809
8	0x3fa6c1c8	1.3027887
9	0xbf13397c	-0.5750959
10	0xbfe5558d	-1.7916733
11	0xbf93e306	-1.1553657
12	0xbe61eaeb	-0.2206227
13	0x3f35992c	0.70936847
14	0x3ed05ce5	0.40695873
15	0x3d56d5d2	0.05245001
16	0xbf9b1268	-1.2114992
17	0x401dfa5c	2.4684057
18	0xbf6dba22	-0.9286214
19	0x3fbb5352	1.4634802
20	0xbf3612d3	-0.71122473
21	0x3f3a24c4	0.7271235
22	0x3f49fbbd	0.7889975
23	0x3eb61895	0.3556563
24	0x3f3f82c8	0.7480893
25	0x3ea7c0c7	0.32764265
26	0xbe6b12c8	-0.22956383
27	0xbeeae90e	-0.45880932

embeddings.4.weight f4 [7, 4]
0	0x3fdd713f	1.7300185
1	0xbf9ab048	-1.2085047
2	0xbef7e700	-0.48418427
3	0x3d9e5c0e	0.07732402
4	0x3f88df4a	1.0693142
5	0x3ea064ec	0.31326997
6	0xbeed2944	-0.46320546
7	0xbf863e16	-1.0487697
8	0xbeea253a	-0.45731527
9	0x3ed0e15d	0.4079694
10	0x3fc5c253	1.5449928
11	0x405af80d	3.4213898
12	0xbde53090	-0.11190903
13	0x3ef8a6ef	0.4856486
14	0x4033554a	2.8020806
15	0x4012f8d9	2.2964385
16	0xbe4381a5	-0.19092424
17	0x3dffcc37	0.12490123
18	0x3f7e7201	0.99392706
19	0xbee498e1	-0.44647887
20	0xbeca014e	-0.3945412
21	0xbe67c8b6	-0.22635159
22	0x3dba0f04	0.09084895
23	0xbf71ba7b	-0.9442517
24	0x3f0501a7	0.51955646
25	0xbdb41371	-0.08792771
26	0x3e5b6d9c	0.21428531
27	0xbf3030ec	-0.6882465

embeddings.5.weight f4 [1025, 4]
0	0xbedd60a8	-0.43237805
1	0x3eed2900	0.46320343
2	0x4001f407	2.0305192
3	0xbf374d2e	-0.7160214
4	0xc0158b34	-2.3366213
5	0x3fee1e76	1.8603046
6	0x3ff3ff66	1.9062316
7	0x3fe14b1f	1.760105
8	0xbb97beb2	-0.004630887
9	0xbe36693b	-0.1781358
10	0xbefba72d	-0.49150982
11	0x3e3124a9	0.17299141
12	0x3f6889e9	0.90835434
13	0x3f46c01b	0.7763688
14	0x3fc97e68	1.5741701
15	0x3fbf0450	1.4923191
16	0x3fc4b955	1.5369059
17	0x3f6c4fc1	0.92309195
18	0x3f8c26fa	1.0949395
19	0x3f9d3b58	1.2283735
20	0xbf19a4b7	-0.6001696
21	0xc01f5012	-2.489262
22	0xbe9968e9	-0.29962853
23	0x3f8f788d	1.1208664
24	0xbfc5b6b1	-1.5446378
25	0x3ca6899d	0.020329291
26	0xbc923e62	-0.017852012
27	0x3d6cf0c5	0.057846803
28	0x3f697e3b	0.9120824
29	0x3d3f2b7f	0.04667234
30	0xbead135b	-0.3380383
31	0xbee21f6d	-0.441646
32	0xbf53e9bf	-0.82778543
33	0xbf73f15e	-0.9529017
34	0xbeef06bd	-0.46684828
35	0xbdc31072	-0.09524621
36	0xbf79fea5	-0.9765418
37	0x3f5cfef1	0.8632651
38	0x3f1ab787	0.6043629
39	0xbeda402a	-0.42627078
40	0xbf5116df	-0.81675524
41	0xbf046c11	-0.51727396
42	0xbec1e905	-0.37873092
43	0x3f6eb8dd	0.9325083
44	0x3f1e4598	0.6182494
45	0xc0046a42	-2.0689855
46	0xbf086de4	-0.5329268
47	0x3f891885	1.0710608
48	0xbfab9b2a	-1.3406727
49	0x3f7c0ae8	0.9845414
50	0x3fa24f1c	1.2680392
51	0x3f12c654	0.57333875
52	0x3ddc4d37	0.10756915
53	0x400ddbfd	2.216552
54	0xbcb98d3c	-0.022650354
55	0xbe62f4ce	-0.22163698
56	0xc009f18e	-2.1553683
57	0xbfa2ca67	-1.2718018
58	0xbed9ba0a	-0.4252475
59	0x3eaf7498	0.3426864
60	0x3f266fde	0.65014446
61	0xbf2f7e47	-0.6855206
62	0xc0169615	-2.3529103
63	0xbeaf1d15	-0.34201875
64	0x3eac34db	0.33634076
65	0x3eb32225	0.34986988
66	0x3f914386	1.1348732
67	0x3f713280	0.9421768
68	0xbec6d1f6	-0.38832062
69	0xbeaca8ba	-0.33722478
70	0xbfa4eddb	-1.2885088
71	0x3f33d970	0.7025366
72	0xbee6cfa5	-0.45080295
73	0xbf34d22f	-0.70633215
74	0xbfaed129	-1.3657581
75	0x3eb3b04a	0.35095435
76	0xbfa8fb58	-1.3201704
77	0x401aa3b0	2.4162407
78	0xbe0645e9	-0.13112606
79	0xc02356a3	-2.552163
80	0xbf169898	-0.5882659
81	0x3e941028	0.28918576
82	0x3dd78aab	0.10524496
83	0x3fcbbb36	1.5916507
84	0xbf748121	-0.95509535
85	0x3d9aee0b	0.07564934
86	0x3f15f4cc	0.58576655
87	0x3eaeaeb6	0.3411767
88	0xbeedae0d	-0.46421853
89	0x3fd90d8b	1.6957258
90	0xbed52ddb	-0.41636547
91	0xbfcab0be	-1.5835187
92	0xbe998d83	-0.29990777
93	0x3f013ab2	0.50480187
94	0xbdef331c	-0.1167967
95	0xbf5917ee	-0.8480214
96	0xbfab6411	-1.3389913
97	0xbf1a1b5c	-0.60198
98	0xbf1cf225	-0.61306983
99	0x3f939447	1.1529626
100	0x401a799e	2.413673
101	0x4012b590	2.2923317
102	0x3fddccb9	1.7328101
103	0xbf9a8670	-1.2072277
104	0x3f69b3ea	0.9129015
105	0x3f64be81	0.89353186
106	0xbdd91cbe	-0.10601185
107	0xbd038400	-0.032108307
108	0xbfc50863	-1.5393184
109	0x3ffa5532	1.955725
110	0x4005e2b6	2.0919623
111	0xbf213566	-0.62972105
112	0x4041b117	3.0264337
113	0xbd1e93fc	-0.038715348
114	0x4024eac9	2.5768301
115	0x3bd3f7ab	0.0064687333
116	0x3e81a5c6	0.25321788
117	0xbf0421d1	-0.516141
118	0x3f4f8085	0.8105548
119	0xbea39036	-0.31945962
120	0xbf9d4c74	-1.2288957
121	0x3f5763e0	0.8413677
122	0x3ed71d44	0.42014515
123	0xbe53b0db	-0.20672934
124	0xbe64ce0c	-0.22344226
125	0xbf8f83e2	-1.1212122
126	0x3f7bf94d	0.9842728
127	0xbf1b3af0	-0.60636806
128	0xbc85c961	-0.016331377
129	0x3e58e7c5	0.21182163
130	0x3ee65a03	0.44990548
131	0x3e90e485	0.28299347
132	0x3f08309e	0.53199184
133	0x3faa862e	1.3322198
134	0xbf089d9b	-0.53365487
135	0xbfd9f141	-1.702675
136	0x3e1bf8e9	0.1523167
137	0x3d980387	0.07422548
138	0xbf7954d2	-0.9739505
139	0x3f7574b7	0.9588122
140	0xbe79d231	-0.24396588
141	0x3fb55314	1.4165978
142	0x4014ab36	2.32295
143	0xbe620200	-0.22071075
144	0x3f80101b	1.0004915
145	0xbf215a4b	-0.630284
146	0xbf9d5417	-1.2291287
147	0xbf5ea883	-0.8697588
148	0x3f2ebed5	0.68259937
149	0xbf743ca4	-0.9540503
150	0xbe7bcf57	-0.24590813
151	0x3f62c0e3	0.8857557
152	0x3eaad4cb	0.33365473
153	0x402235d2	2.534535
154	0x3da2c1cf	0.07947122
155	0xbf071124	-0.5276053
156	0xbf024c0e	-0.508973
157	0x3e498039	0.1967782
158	0x3daa4c26	0.083153054
159	0xbec1f530	-0.37882376
160	0xbfabfbe8	-1.3436251
161	0x3f99237d	1.1963955
162	0xbf7698b4	-0.96326756
163	0x3ed2fda9	0.41209152
164	0x3fce6629	1.6124927
165	0x3e6f783c	0.2338571
166	0xc0053f12	-2.0819745
167	0xbf91ccb7	-1.1390599
168	0xbf460b04	-0.7736056
169	0xbd0d81d3	-0.03454764
170	0xbf19324c	-0.5984237
171	0x3f62b0b8	0.885509
172	0xbfbcd0ee	-1.475126
173	0x3f18976d	0.5960606
174	0x3e2f2cf7	0.17106996
175	0xbe02dedd	-0.12780328
176	0xbfb19db0	-1.3876247
177	0x3fd942ef	1.6973552
178	0x3fea4bbc	1.8304362
179	0xbf644f7b	-0.8918378
180	0x3f73bdcd	0.9521149
181	0xbfab8d16	-1.3402431
182	0x400135b8	2.0189037
183	0xbf8522e9	-1.0401279
184	0xbe01aded	-0.12664004
185	0x3e54efec	0.20794648
186	0xbf38d25a	-0.7219597
187	0xbff7d1fa	-1.9360955
188	0xbe2cd562	-0.16878274
189	0xc01b677a	-2.4281907
190	0xbee9e525	-0.45682636
191	0x3fc6b6b6	1.5524509
192	0xbfb46fee	-1.4096658
193	0x3f46872a	0.77549994
194	0xbee533e7	-0.4476616
195	0xbf992b2e	-1.1966302
196	0x3f2b9d50	0.67036915
197	0x3e3c1ea7	0.18371068
198	0xc01a20ce	-2.4082522
199	0x3fb87d58	1.4413252
200	0xbff0719c	-1.8784671
201	0xbf776265	-0.96634513
202	0xbe869fc7	-0.26293775
203	0xbf4a0fff	-0.7893066
204	0x3f053dd9	0.520475
205	0xbea8b993	-0.32954082
206	0xbeaf8a96	-0.3428542
207	0x3e2bd208	0.1677934
208	0x3f2ecce8	0.6828141
209	0x3e549f34	0.20763856
210	0x3d5fbedd	0.05462538
211	0xbe7c8e3c	-0.24663633
212	0x3ebf50de	0.37366384
213	0xbe87f697	-0.2655532
214	0x3e82802d	0.25488415
215	0xbd9129c5	-0.07088045
216	0xbe2dc3d5	-0.16969235
217	0xbe7756c2	-0.24154189
218	0x3eb14d12	0.34629112
219	0x3f5b64ea	0.8570086
220	0x4029490b	2.6450832
221	0x3ee9fed1	0.45702222
222	0x3fbbca49	1.4671108
223	0xbff1db0c	-1.8894973
224	0xbe21a959	-0.15787257
225	0xbe66a954	-0.22525531
226	0xbf9330c7	-1.1499261
227	0x3f67d1e7	0.9055466
228	0x3ec2fb40	0.38082314
229	0x3fd98e0b	1.6996473
230	0x3fad7a1b	1.3552889
231	0xbf20cd32	-0.62813103
232	0xbfc3cae4	-1.5296292
233	0xbf72fd17	-0.94917434
234	0x3dc10931	0.09425581
235	0xbe91636a	-0.2839616
236	0x40464e49	3.0985281
237	0x40002205	2.0020764
238	0xbf1b651e	-0.6070117
239	0x3d600501	0.054692272
240	0x3f479419	0.77960354
241	0xbf901c48	-1.1258631
242	0xbf9aa518	-1.2081633
243	0xbf71915f	-0.94362444
244	0xc0242556	-2.5647788
245	0xbed0313a	-0.40662557
246	0xbe520d37	-0.20512854
247	0x3ed03581	0.4066582
248	0xbf26e525	-0.65193397
249	0xbfbc0a1c	-1.4690585
250	0x40006bbd	2.0065758
251	0x3f37c40c	0.7178352
252	0xbf24a126	-0.64308393
253	0xc00cc13c	-2.199294
254	0x407f7157	3.9912927
255	0x3f8a891a	1.082309

embeddings.6.weight f4 [3, 4]
0	0x3ed96f21	0.42467597
1	0xbd42b66f	-0.047537263
2	0x3d08d291	0.033403937
3	0xbf8e79c4	-1.113091
4	0xbfb558c9	-1.416772
5	0xbf6830f1	-0.9069968
6	0xbf2fe579	-0.6870952
7	0x3ebc8762	0.3682204
8	0xbe620b79	-0.22074689
9	0xc0055736	-2.083448
10	0x3f0e3748	0.555531
11	0xbe884f1a	-0.2662285

embeddings.7.weight f4 [7, 4]
0	0x3f88f791	1.0700551
1	0x3f22c488	0.6358113
2	0x3f153821	0.5828877
3	0xbef04237	-0.46925518
4	0xbe8ced40	-0.27524757
5	0x3e0b24ed	0.13588305
6	0x3ef052d8	0.46938205
7	0x3ed61962	0.4181624
8	0x3d6e2da0	0.05814898
9	0xbfc6908b	-1.5512861
10	0xbec9fd67	-0.39451143
11	0x3edf88bb	0.43659005
12	0xbf3e7b5c	-0.7440698
13	0xbe966d73	-0.29380378
14	0x3ef358d5	0.4752871
15	0xbf94ba83	-1.1619419
16	0x3f8d6795	1.1047236
17	0xbf127acb	-0.5721862
18	0x3f8accf7	1.08438
19	0x3ee00604	0.4375459
20	0x3f528181	0.8222886
21	0xbf0f70ff	-0.56031793
22	0x3d3d434e	0.046206765
23	0xbf9fe3e4	-1.2491422
24	0x3fdfb43e	1.747688
25	0xbf4147e4	-0.7550032
26	0xbf49a13a	-0.7876164
27	0xba330ec9	-0.0006830511

embeddings.8.weight f4 [7, 4]
0	0x3e7bc763	0.24587779
1	0xbd1cc258	-0.03827128
2	0xbf23e211	-0.64016825
3	0x3f3f8885	0.7481769
4	0x3f11a1bf	0.5688743
5	0xbec6e2be	-0.38844866
6	0xbf884227	-1.0645188
7	0xbe2d3559	-0.16914882
8	0x3df397aa	0.11894162
9	0x3f0c8fb5	0.5490678
10	0x3f4abed4	0.7919743
11	0x3e5f1c97	0.2178825
12	0x3f1e363e	0.61801517
13	0xbf1a7240	-0.6033058
14	0x3f159eb9	0.58445317
15	0xbeede7b1	-0.4646583
16	0xbee03498	-0.43790126
17	0x3e7470e0	0.23871183
18	0x3f063e93	0.5243923
19	0x3eced391	0.40395787
20	0xbeaeb0c8	-0.34119248
21	0x3d341321	0.043963555
22	0xbdcb618e	-0.099307165
23	0x3f38ee42	0.7223855
24	0x3fd436dc	1.6579242
25	0x3f66d0cd	0.90162355
26	0x40152c46	2.3308272
27	0xbdcadb1e	-0.099050745

embeddings.9.weight f4 [3, 4]
0	0xc006d789	-2.1069052
1	0xbfcbf896	-1.5935237
2	0x3f83347c	1.0250392
3	0xbec9b1cd	-0.39393464
4	0x3f448d49	0.76778084
5	0x3fb053c8	1.3775568
6	0x3f210471	0.628974
7	0x3f90dbc7	1.1317071
8	0x3e244d2f	0.16045068
9	0x3fc49eda	1.5360978
10	0x3e799e17	0.24376713
11	0xbe998874	-0.29986918

embeddings.10.weight f4 [427, 4]
0	0x3f3cce8c	0.73752666
1	0xc002f9bf	-2.0464933
2	0xbf053584	-0.52034783
3	0xbf5e25dd	-0.86776525
4	0x3f1ab72a	0.60435736
5	0x3f76e010	0.9643564
6	0x3edb804a	0.42871314
7	0x3f76af5a	0.96361315
8	0x40373cab	2.8630779
9	0x3ffcd640	1.9752884
10	0xbf8d2c87	-1.1029214
11	0xbfe0fdd1	-1.7577459
12	0x3e9521be	0.29127306
13	0x3e7c9bd3	0.24668817
14	0xbdc436b5	-0.09580747
15	0x4046e1d9	3.1075346
16	0xbe9d4e63	-0.30723867
17	0x3e6c282a	0.23062196
18	0xbff4a6fe	-1.9113462
19	0x3d864be6	0.06557445
20	0x3eb9d16e	0.36292595
21	0xbf1a30e3	-0.60230845
22	0x3f28bf33	0.65916747
23	0xbf3520f3	-0.707534
24	0xbe13ee3d	-0.1444635
25	0xbe5aabb4	-0.21354562
26	0x3f72ed6c	0.9489353
27	0xbe8eaf84	-0.27868283
28	0x3e51bd9d	0.20482488
29	0xbd8c3f21	-0.068479784
30	0xbfa29425	-1.270146
31	0xbfbded13	-1.4837974
32	0x3f772c86	0.9655231
33	0x3fb7e27f	1.4365996
34	0xbf6cdccd	-0.92524415
35	0xbf8b17be	-1.086662
36	0xbd8c2661	-0.06843258
37	0x3d8cb117	0.06869715
38	0xbf229419	-0.6350723
39	0x3f710566	0.9414886
40	0x3efa02db	0.48830304
41	0xbeec2bad	-0.46127072
42	0xbd3f4351	-0.046695057
43	0xbe4f8b82	-0.20268062
44	0xbf4b6583	-0.7945177
45	0xbe7d2c91	-0.24724032
46	0x3f183296	0.5945219
47	0xbf9bddd0	-1.2177067
48	0x3f6d2475	0.92633754
49	0x3f9f4bf3	1.2445053
50	0x3ef1af4c	0.47204053
51	0xc0187ed8	-2.382742
52	0xbfa8b6d3	-1.3180794
53	0x3f99a908	1.2004709
54	0x3f62cc30	0.88592815
55	0x3e274468	0.16334689
56	0xbf8c369d	-1.0954167
57	0xc01547a3	-2.3324974
58	0x3fe7ac77	1.8099507
59	0xbdf6cb4f	-0.12050497
60	0xbea176d5	-0.31535974
61	0xbf12d64d	-0.5735825
62	0x3f2489f7	0.6427302
63	0xbf56eab7	-0.83951896
64	0x3e68512d	0.22687216
65	0x3f3996eb	0.7249591
66	0xbf355c72	-0.70844185
67	0x3f0d6879	0.5523754
68	0x3ed8d870	0.4235263
69	0x3f932801	1.1496583
70	0xbfa21bcf	-1.2664737
71	0xbdfd1640	-0.123577595
72	0x3f63381b	0.88757485
73	0x3eaed98d	0.34150353
74	0xbee779d7	-0.45210144
75	0xbfbd6bff	-1.4798583
76	0x3e42afb0	0.19012332
77	0x3f68fd7d	0.9101179
78	0xbf00bf17	-0.5029158
79	0x3ee67ab4	0.4501549
80	0xbfa2ecad	-1.2728478
81	0xbf0b6251	-0.54446894
82	0xbfe4a50d	-1.786287
83	0x3f7fe28d	0.99955064
84	0x3fa08607	1.2540902
85	0x3f3252fd	0.6965788
86	0x3fbb8330	1.464941
87	0xbfd06611	-1.6281148
88	0xbfd1da25	-1.6394697
89	0x3fa74ee3	1.3070949
90	0x3f528bf4	0.822448
91	0xbf6a3343	-0.9148447
92	0x3ddc0319	0.10742778
93	0x3fab273d	1.337135
94	0xbe546c4c	-0.20744437
95	0x3e11b371	0.14228608
96	0x3dbe09bd	0.09279201
97	0xbd2bf303	-0.0419798
98	0xbf2b69a0	-0.66958046
99	0xbea4971d	-0.3214654
100	0x3ef4ab5b	0.47786984
101	0xbeb5f6ec	-0.3553995
102	0x3fdba364	1.7159238
103	0x3e9ee4c3	0.31033906
104	0x3e968b6b	0.29403242
105	0x3f5dd398	0.8665099
106	0xbe000b28	-0.12504256
107	0x3eb72226	0.3576824
108	0xbfac7c84	-1.3475499
109	0x3fd3d530	1.6549435
110	0x3f2a08f5	0.6641992
111	0x3df0e9ed	0.11763368
112	0xbf7e6518	-0.99373007
113	0x3f553c0f	0.8329477
114	0xbf377a9d	-0.7167147
115	0xbe5d8528	-0.21632826
116	0x3ff6fc56	1.9295757
117	0x3e13bef3	0.1442831
118	0x3dae705e	0.08517526
119	0x3e9494c3	0.29019746
120	0x3f10dfa8	0.5659127
121	0xbf8fa6c9	-1.1222774
122	0xbf1a5aed	-0.6029499
123	0xbfc275fb	-1.5192255
124	0x3f8bda6b	1.0926031
125	0x3d5e86d8	0.054327816
126	0x4004e60c	2.076541
127	0xbf7fc428	-0.99908686
128	0xbf9f210e	-1.2431962
129	0xc00b4f0f	-2.1767004
130	0xbf8c050b	-1.0939039
131	0x40858378	4.1722984
132	0x3e2813a4	0.16413742
133	0xbfe1901d	-1.7622105
134	0xbf0077b4	-0.5018265
135	0x3fb17776	1.3864582
136	0xbf0000b2	-0.5000106
137	0x4058c3a8	3.386942
138	0x3f8da73c	1.1066661
139	0xbfc00515	-1.5001551
140	0xc0212689	-2.517977
141	0xbf261c3c	-0.6488683
142	0xbfca4fef	-1.5805644
143	0x3f743fa0	0.95409584
144	0xbff8b0b8	-1.942893
145	0x3d44f223	0.048082482
146	0x3e6e5b23	0.23276953
147	0x404c3609	3.190798
148	0x3d78bd24	0.060727254
149	0x3e865ef8	0.2624433
150	0xb9ae348e	-0.00033227023
151	0x3da478d4	0.08030859
152	0xbf86a9b0	-1.0520535
153	0x3fe65cbb	1.7997049
154	0xbe08b324	-0.13349587
155	0xbf966ba2	-1.1751597
156	0x3edf8202	0.43653876
157	0xc025c75e	-2.5902934
158	0xbf418828	-0.7559838
159	0x40269e06	2.603395
160	0xbed1f06c	-0.4100374
161	0x3ec4b883	0.3842202
162	0xbdf48429	-0.1193927
163	0xbf44a84e	-0.7681931
164	0xbeef8a93	-0.4678541
165	0xbdfc3a43	-0.123158
166	0x40035785	2.0522168
167	0x3d97c71f	0.07411026
168	0x40052e05	2.0809338
169	0xc018592d	-2.3804429
170	0x3e4e0d19	0.20122184
171	0x3f94ddcd	1.1630188
172	0xbf99dfad	-1.2021385
173	0xbe218023	-0.15771537
174	0x3e094457	0.13404976
175	0x3fe209e4	1.7659268
176	0x3e8978b6	0.26849908
177	0x3e8102d2	0.25197464
178	0x3f967c62	1.1756709
179	0xbdd66438	-0.10468334
180	0xbf163f7b	-0.58690614
181	0xbe56dc0c	-0.20982379
182	0x3f78981c	0.971071
183	0xbf7f68a9	-0.99769074
184	0xbe944003	-0.28955087
185	0x3f9a479b	1.2053102
186	0xbebf958a	-0.37418777
187	0x3fa213af	1.2662257
188	0x3ef599dc	0.47968948
189	0x3fc86617	1.5656155
190	0x3f221bc8	0.6332364
191	0xbf0603e3	-0.5234968
192	0xbed62c88	-0.4183085
193	0x3faae4c3	1.3351063
194	0xbf3f0793	-0.7462093
195	0x3f341817	0.7034926
196	0xbf9d3112	-1.22806
197	0xbe804711	-0.2505422
198	0x3fa611f7	1.2974232
199	0xbfaf7b4d	-1.3709503
200	0xbdd7f585	-0.10544876
201	0x3ec34556	0.38138837
202	0x3f913a9f	1.1346015
203	0x3e853401	0.26016238
204	0x403d5a58	2.9586391
205	0xc00bec30	-2.1862907
206	0x405e5e42	3.474503
207	0xbf648684	-0.89267755
208	0xbfaa10eb	-1.3286413
209	0x3ea2913d	0.31751433
210	0x3e0c6802	0.13711551
211	0x3fc01675	1.5006853
212	0xbf2c1906	-0.6722568
213	0x3fab2eef	1.3373698
214	0x3fbf0062	1.4921992
215	0x3d96c21c	0.07361242
216	0xbf32eaa7	-0.698893
217	0xbf06eb9c	-0.5270326
218	0x3eb4e38c	0.35329854
219	0xbf8a04b0	-1.078268
220	0xbf41d104	-0.7570956
221	0xbf3ef284	-0.745888
222	0x40108fd0	2.2587776
223	0x3f723a3a	0.94620097
224	0xbfaf5019	-1.3696319
225	0xbf15c6de	-0.5850657
226	0x3e93448f	0.28763244
227	0xbe8c276f	-0.27373835
228	0xbe471c82	-0.19444469
229	0xbf0330d4	-0.5124638
230	0x3f7eef87	0.9958424
231	0xbf870757	-1.0549115
232	0x3f8ab290	1.0835743
233	0xbf075440	-0.5286293
234	0xbd45f429	-0.048328552
235	0xbf9c3ac7	-1.2205437
236	0x3ea58db9	0.32334688
237	0xbf9bec48	-1.2181482
238	0x3f239a30	0.63907146
239	0x3f44c8c8	0.7686887
240	0xbf83de61	-1.030224
241	0x3f495cd5	0.78657275
242	0x3e6053d1	0.21906973
243	0x3f0a0d4f	0.5392656
244	0x3edb6bbc	0.42855632
245	0x3f24db57	0.64397186
246	0x3f6d6767	0.92735904
247	0x3f5487c2	0.8301965
248	0xbf8c5371	-1.0962964
249	0x3f55c169	0.83498245
250	0x3f5bce4a	0.8586165
251	0xbefb8fb7	-0.49133083
252	0xbfc4fd7b	-1.5389856
253	0xbfb2f5b7	-1.3981236
254	0xbf8d0329	-1.1016589
255	0x3f213a3f	0.629795

embeddings.11.weight f4 [1030, 4]
0	0xbf003cbe	-0.50092685
1	0xc0011e88	-2.0174885
2	0x3f1367c5	0.57580215
3	0xbe744809	-0.23855604
4	0xbd058436	-0.03259679
5	0xbec2f8ae	-0.38080353
6	0xbfc62686	-1.5480506
7	0x3f4d5917	0.80214065
8	0x3e91fd74	0.28513682
9	0x3f60b6ad	0.8777874
10	0x3f1d2a56	0.61392725
11	0xbe2a9b6a	-0.16660848
12	0xbfab1d7d	-1.3368374
13	0x3fb13538	1.3844366
14	0x3fb0bf85	1.3808447
15	0xbf525d3f	-0.8217353
16	0xbf068f81	-0.5256272
17	0x3fa08d61	1.2543145
18	0xbf772ce2	-0.9655286
19	0xbfa3da97	-1.2801083
20	0xbfdc5324	-1.7212873
21	0x3f31f4b8	0.69514036
22	0x3f48cd8d	0.78438646
23	0xbeedd058	-0.46448016
24	0x3e3ab529	0.1823317
25	0x3faeb3d8	1.3648634
26	0xbe9f809b	-0.31152806
27	0xbfbd7581	-1.4801484
28	0x3e54e6c0	0.20791149
29	0x3e9cd5bb	0.30631813
30	0xbf35f7a3	-0.7108099
31	0xc0247f28	-2.570261
32	0xbe613b32	-0.21995237
33	0xbdca00f9	-0.09863467
34	0xc029c014	-2.6523485
35	0x3f81e124	1.0146832
36	0x3f57a054	0.84229016
37	0x3f9ade7d	1.2099148
38	0x3f43335c	0.76250243
39	0xbf311861	-0.69177824
40	0x3fa63dfa	1.2987664
41	0x3ec982cc	0.39357603
42	0xbdd5a4dc	-0.10431835
43	0xbeae9f14	-0.34105742
44	0x3ebc788f	0.3681073
45	0xbed1eace	-0.40999454
46	0xbf534881	-0.8253251
47	0xbe248e87	-0.16069995
48	0xbc401ce6	-0.01172564
49	0x3f07c3cb	0.5303313
50	0x3f26c276	0.65140474
51	0xbec4c06a	-0.3842805
52	0xbf927475	-1.144179
53	0xbf129e27	-0.5727257
54	0xbf89f8fa	-1.0779107
55	0x3fa20882	1.2658846
56	0xbf775b2a	-0.9662348
57	0xbf8b26cc	-1.0871215
58	0x3e93b53a	0.28849202
59	0xbfed69ca	-1.8547909
60	0xbedabbb5	-0.42721334
61	0x3fa33f53	1.27537
62	0x3ee7305f	0.45154092
63	0xbcbe7e27	-0.023253514
64	0xbe71732b	-0.2357909
65	0xbf96d4b1	-1.1783658
66	0xbf8faa16	-1.1223781
67	0xbf698309	-0.9121557
68	0xbd190997	-0.03736266
69	0xbcad623c	-0.021165006
70	0xbf2e998e	-0.68203056
71	0xbeeefb3d	-0.46676055
72	0x3e9143b9	0.2837198
73	0xbda74519	-0.08167476
74	0xbee3ed2a	-0.4451688
75	0xbf312295	-0.69193393
76	0x40398962	2.8990102
77	0xc00b56af	-2.1771657
78	0xbeaae5b5	-0.33378378
79	0x3dd776a3	0.10520675
80	0x3f0620dc	0.5239389
81	0x3ed4ed4d	0.41587296
82	0xbeb01b55	-0.34395853
83	0xbfb26e89	-1.3939983
84	0xbf318ea2	-0.69358265
85	0x3fc5945b	1.54359
86	0x3faff390	1.3746204
87	0x3f0d32c5	0.55155593
88	0x3f74def2	0.9565269
89	0x3eb0446f	0.3442721
90	0x3fdd13bf	1.7271651
91	0x3f74b534	0.95588994
92	0xbf877668	-1.058301
93	0xbef09185	-0.46986023
94	0xbd25068d	-0.04028945
95	0x3dbd7b33	0.09252014
96	0xbfadb578	-1.3571005
97	0x3ee7a063	0.45239553
98	0xbeeb1e8b	-0.4592174
99	0xbe2d199a	-0.16904297
100	0x3fe49650	1.7858372
101	0x402858fb	2.630431
102	0xbf210b0b	-0.62907475
103	0x3f9bf79c	1.2184939
104	0xbf367f3b	-0.7128789
105	0xbef60d4c	-0.4805702
106	0x3fe03e4f	1.7519015
107	0xc040f682	-3.0150456
108	0x3f01b3d5	0.50665027
109	0x3ef92c5b	0.48666653
110	0xbeddb52e	-0.43302292
111	0x3ef4063f	0.47661015
112	0xbf67becc	-0.9052551
113	0x3f92d34f	1.1470736
114	0xbfbb9f9a	-1.4658082
115	0x3e7d6581	0.24745752
116	0x3e91933e	0.2843265
117	0x3ea18417	0.3154609
118	0x3fd81b7d	1.6883389
119	0xbe0ed568	-0.13948596
120	0x3e53d831	0.20687939
121	0x3f6f2c5d	0.9342707
122	0x40151f76	2.3300452
123	0xc0057330	-2.0851555
124	0xbecd5034	-0.40100253
125	0x3de002ec	0.10938057
126	0xbf826e7c	-1.0189967
127	0xbfad0856	-1.3518169
128	0xbfd5906c	-1.6684699
129	0xbf62171b	-0.88316506
130	0x3f1bde8b	0.6088645
131	0xbf93dacd	-1.1551148
132	0xbf97ae10	-1.1849995
133	0x3f268553	0.65047187
134	0xbe125fbb	-0.14294331
135	0x3e825627	0.25456354
136	0xbf66b4c0	-0.9011955
137	0xbf8c7da4	-1.0975842
138	0xbf8bc02e	-1.0918024
139	0x400dd448	2.2160816
140	0xbf1db1b7	-0.61599296
141	0x402c571d	2.692817
142	0x3e866e09	0.26255825
143	0xbf0189cd	-0.5060089
144	0xc0399948	-2.8999805
145	0x3ee48c44	0.44638264
146	0x3f9e9f1e	1.2392309
147	0xbca5f771	-0.02025959
148	0x3fc74825	1.5568892
149	0xbf850a52	-1.0393775
150	0x3e80b301	0.2513657
151	0xbd873721	-0.06602312
152	0x3fdc41dc	1.7207599
153	0x3fb3f1d2	1.4058173
154	0xbfb0226d	-1.3760506
155	0xbdce75b0	-0.10081041
156	0xbe869699	-0.26286772
157	0x3fe09a07	1.7547005
158	0xbf791f7d	-0.9731367
159	0x400941e9	2.1446478
160	0xbf83113e	-1.0239637
161	0x3f0abfad	0.54198724
162	0xbfce6992	-1.6125968
163	0x3fe7a223	1.8096355
164	0xc0036d17	-2.0535333
165	0x3e993054	0.29919684
166	0x3f976e21	1.1830484
167	0x3fbc3fe2	1.4706995
168	0x3f78a5e6	0.9712814
169	0xbe8e6303	-0.27809915
170	0xbf136049	-0.57568794
171	0x3dde2c1f	0.10848259
172	0xbfc99324	-1.5748029
173	0xbf71c2d9	-0.9443794
174	0x3f2198a9	0.63123566
175	0x3d820286	0.063481376
176	0x40500b20	3.250679
177	0x40116e01	2.272339
178	0x40072078	2.1113567
179	0xbfd28c82	-1.644913
180	0xbfa9cc82	-1.3265536
181	0x3f948054	1.1601663
182	0x4026ab66	2.6042113
183	0x3eae107e	0.33996958
184	0xbfabe0a7	-1.3427933
185	0x3f1817ea	0.5941149
186	0x3dc64725	0.096815385
187	0xbf34b9aa	-0.705958
188	0x3fbd20e7	1.4775666
189	0x402fe12b	2.7481182
190	0xbed5444a	-0.41653663
191	0x3dbbb25e	0.0916488
192	0x3e4feb47	0.20304595
193	0x403f276e	2.9867816
194	0xbe5e865a	-0.21730939
195	0xc0032368	-2.049036
196	0xbcdc99fa	-0.02692889
197	0x3f4e3a35	0.80557567
198	0x3f4103f8	0.7539668
199	0xbe5817f0	-0.21102881
200	0xbf24b03a	-0.643314
201	0x3eb31e46	0.34984034
202	0x3d57c5db	0.052678924
203	0xbe4da3bc	-0.20081991
204	0xbc4022f0	-0.01172708
205	0x3baf62ca	0.0053523527
206	0xbeabfef6	-0.33592957
207	0x3d0a21ea	0.03372375
208	0x3e23d3db	0.15998785
209	0x3f005e2d	0.501437
210	0xbec93291	-0.39296392
211	0x3f108cf3	0.5646507
212	0x3f408ffa	0.7521969
213	0xbf7dfab2	-0.99210656
214	0x3f3e917a	0.7444073
215	0x3e75c97c	0.24002641
216	0x3eea361f	0.45744416
217	0xbe4dbf8c	-0.200926
218	0xbf14ccf5	-0.5812524
219	0xbec593c3	-0.38589296
220	0x3f461c32	0.7738677
221	0xbf707599	-0.9392944
222	0xbfe03b6b	-1.7518133
223	0x3fd1d220	1.639225
224	0x3cf6b855	0.030117193
225	0xbcd1017e	-0.025513407
226	0xbd40a9eb	-0.047037046
227	0x3dbb0afb	0.09132954
228	0x3f290d70	0.6603613
229	0xbff702ac	-1.929769
230	0x3e3fedcc	0.18743056
231	0x3fb1c9e4	1.3889737
232	0xbf89c160	-1.0762138
233	0xbfb276fc	-1.3942561
234	0xbfde9e7c	-1.7392116
235	0x3f7ae8d0	0.98011494
236	0xbf2d96ca	-0.6780821
237	0x3fce4f22	1.61179
238	0x3ed41165	0.4141952
239	0x3f15bdf0	0.58492947
240	0x3f2ca8a3	0.6744482
241	0x3ff5f5b8	1.9215612
242	0x3e4e95c0	0.20174313
243	0xbeee486e	-0.46539634
244	0x3da34a09	0.079731055
245	0xbe0a4d59	-0.13506068
246	0xbfa61f6f	-1.2978343
247	0x3f7fee33	0.9997284
248	0xbfd9baf6	-1.7010181
249	0xbdda717f	-0.10666179
250	0x3fb60b46	1.422219
251	0xc011996c	-2.2749891
252	0x402f05da	2.7347322
253	0xc02d9241	-2.7120516
254	0xbf62ce48	-0.8859601
255	0x3fea7a84	1.8318639

embeddings.12.weight f4 [7, 4]
0	0x3f06dfe5	0.52685386
1	0xbef32869	-0.47491768
2	0x3e770997	0.24124752
3	0x3eca9fa0	0.3957491
4	0xbedf96f1	-0.43669847
5	0xbf75648e	-0.9585656
6	0x3e70b535	0.23506625
7	0x3dd8a1d3	0.105777405
8	0xbf108254	-0.56448865
9	0x3dfaf7c2	0.12254287
10	0xbf1e3b98	-0.6180968
11	0xbf03fa31	-0.51553637
12	0xbf96f5b6	-1.1793735
13	0x3f0619f0	0.5238333
14	0x3f59c0dd	0.8505991
15	0xbf03ec7d	-0.5153273
16	0xbf4f20df	-0.8090953
17	0x3f275558	0.653646
18	0xbfc19f7a	-1.5126793
19	0x3fc2d25c	1.5220447
20	0x3f04b17f	0.5183334
21	0xbf82e3e5	-1.0225798
22	0x3f909a2f	1.1297053
23	0xbfe78450	-1.8087254
24	0x3fbd08de	1.4768331
25	0xbf6abf81	-0.9169846
26	0xbf803cde	-1.0018575
27	0x3f2f0ea5	0.6838172

embeddings.13.weight f4 [7, 4]
0	0xbe9bfea8	-0.30467725
1	0xbdc72f9b	-0.09725877
2	0x403858f3	2.880429
3	0x3f7bddd1	0.9838534
4	0xbf2d407a	-0.6767651
5	0x3f1e4867	0.6182923
6	0xbf482148	-0.78175783
7	0xbf96eac3	-1.1790394
8	0x3fa820e0	1.3135033
9	0xbe57eeda	-0.21087208
10	0x3e7c05a8	0.24611533
11	0x3ee0b274	0.4388615
12	0x3fea2eaa	1.8295491
13	0x3ee0877a	0.4385336
14	0xbdbd4924	-0.09242466
15	0xbe169698	-0.14705884
16	0xbfbed070	-1.490736
17	0x3f0f39b9	0.5594745
18	0x3f9eddd3	1.2411445
19	0xbea5be45	-0.32371727
20	0x3f21bcd4	0.63178754
21	0x3f82cb35	1.0218264
22	0xbf1a4a7b	-0.602699
23	0x3f5f5a7c	0.87247443
24	0x3f4f01da	0.808622
25	0xbfe16d21	-1.7611428
26	0x3daff876	0.08592312
27	0x3f642bd3	0.8912937

embeddings.14.weight f4 [7, 4]
0	0x3d81c186	0.0633574
1	0x3ff43361	1.907818
2	0xbd4bbc21	-0.04973996
3	0x3ee4ccde	0.4468755
4	0xbf2b782e	-0.66980255
5	0xbea3a249	-0.3195975
6	0x3f4adeb9	0.792461
7	0x3e2b5a79	0.16733731
8	0x3e3669ac	0.17813748
9	0x3e93cdfe	0.28868097
10	0xbdca058c	-0.09864339
11	0xbf848259	-1.0352279
12	0xbf28413a	-0.6572453
13	0xbea04db7	-0.31309292
14	0xbe0476ee	-0.12935993
15	0xbf25d7e0	-0.64782524
16	0x3e5ee49e	0.21766898
17	0x3f56b0d9	0.838636
18	0x3ed1166b	0.40837416
19	0xbf85c767	-1.0451478
20	0x3f6cf778	0.9256511
21	0x3e2ff01c	0.17181438
22	0x3f35fe4f	0.7109117
23	0xbf550cac	-0.8322246
24	0x3e8846f0	0.2661662
25	0xbeaf1f2a	-0.34203464
26	0x3ef3ee11	0.47642568
27	0xc00c78b4	-2.1948671

embeddings.15.weight f4 [6, 4]
0	0xbeaa8cf6	-0.3331067
1	0xc007485a	-2.113791
2	0x3ed44011	0.4145513
3	0x401e11a5	2.469827
4	0xbe10d934	-0.14145356
5	0x3fd4f41f	1.6637
6	0x3eced026	0.4039318
7	0x3fbdc582	1.48259
8	0x400f705b	2.2412326
9	0x3f593cc8	0.8485837
10	0x3f0d1ece	0.5512513
11	0x3e5282fe	0.20557782
12	0x402206f4	2.5316744
13	0x3cef8d8a	0.029242296
14	0xc006c0e4	-2.105523
15	0xbfd7b93f	-1.6853408
16	0xbfe0d2ff	-1.7564391
17	0xbf3fdc0c	-0.7494514
18	0xbe1e9ba5	-0.15489061
19	0xbf1bb0a9	-0.60816437
20	0x3ef920f7	0.48657963
21	0xbf43d029	-0.764895
22	0xbf80fc27	-1.0076951
23	0xbf670432	-0.90240777

conv_layers.0.weight f4 [32, 1, 3]
0	0xbf0f6709	-0.56016594
1	0x3f79b58b	0.9754264
2	0xbe89b6aa	-0.26897174
3	0xbd000e4d	-0.03126364
4	0xbd699994	-0.05703123
5	0x40893d93	4.2887664
6	0xbf8e94b2	-1.1139128
7	0xbe754bfe	-0.2395477
8	0x3e9ceb93	0.3064848
9	0x3ebdc6ab	0.37065634
10	0xbf906704	-1.1281438
11	0x3e5cd7bb	0.2156667
12	0xbef8c3f0	-0.48586988
13	0x3f7093a9	0.9397531
14	0x3e8d3cb9	0.2758539
15	0x3ec4d6c4	0.38445103
16	0xbf8d77bc	-1.1052165
17	0x3e6f473b	0.23367016
18	0xbf1c2016	-0.6098646
19	0x3f0bce45	0.5461162
20	0x3decb3ba	0.115577176
21	0xbf0d2e53	-0.5514881
22	0xbf2093e7	-0.6272568
23	0x3eadeaa1	0.3396807
24	0xbf241a9f	-0.6410312
25	0x3f37ee54	0.71848035
26	0x3bfc8a53	0.007706919
27	0x3f2d65a5	0.6773322
28	0x3f24b2e2	0.64335454
29	0xbe10ee9d	-0.14153524
30	0xbedcb271	-0.4310489
31	0x3f37a06b	0.71729153
32	0x3ea65212	0.3248449
33	0xbe19bcaf	-0.15013383
34	0x3f4306a5	0.76182014
35	0x3f11fb15	0.57023746
36	0x3eb757e0	0.3580923
37	0x3eec19a6	0.46113318
38	0xbf67b5dd	-0.90511876
39	0x3f4535a5	0.7703498
40	0xbf215e37	-0.63034385
41	0xbe6c0e64	-0.23052365
42	0x3c159cb8	0.009131603
43	0xba6ad0b8	-0.0008957493
44	0x4023c92b	2.5591533
45	0x3f1a2792	0.6021663
46	0x3f2c2fd0	0.67260456
47	0xbe05042c	-0.12989873
48	0xbf06fe31	-0.52731615
49	0x3f4af84a	0.7928511
50	0x3d4d3266	0.05009689
51	0x3eb5fcdb	0.35544476
52	0xbf9a2b97	-1.2044553
53	0x3e042c02	0.12907413
54	0x3efcbd55	0.493632
55	0xbf81f4c6	-1.0152824
56	0x3d26ca03	0.040719997
57	0x3f22811d	0.6347826
58	0x3f2899f5	0.6585992
59	0xbf05d072	-0.5227119
60	0x3ebcc7b0	0.368711
61	0xbf7b61bc	-0.98196006
62	0xbe3c201f	-0.18371628
63	0x3c6a7579	0.014310234
64	0x3e2196ec	0.15780228
65	0x406e2603	3.72107
66	0x3cb864de	0.022509035
67	0xbb060e94	-0.0020455467
68	0x40732e37	3.7996957
69	0xbe2ed88d	-0.17074795
70	0x3eca40c2	0.3950253
71	0xbf429665	-0.76010734
72	0x3f11be49	0.5693098
73	0xbf5737d2	-0.8406955
74	0x3cc086f4	0.02350185
75	0x3d2269bf	0.03965163
76	0x3e35ffc6	0.17773351
77	0xbf82eb4c	-1.0228057
78	0x3e0f8012	0.14013699
79	0xbf4890d6	-0.78346
80	0xbf52d02f	-0.8234891
81	0x3f158a66	0.58414304
82	0xbf173f9e	-0.5908145
83	0xbf1d24fb	-0.6138455
84	0xbf70df4f	-0.9409074
85	0x3cc976e2	0.02459282
86	0x3ecfcbad	0.4058508
87	0x3f2e9718	0.681993
88	0xbf0ed6b1	-0.55796343
89	0xbc185b7d	-0.009299156
90	0xbef20a15	-0.47273317
91	0x3f69e6bd	0.91367704
92	0x3d2541f4	0.0403461
93	0xbef4fa02	-0.4784699
94	0xbc9a9d7d	-0.018873924
95	0x3f4bff4f	0.79686445

conv_layers.0.bias f4 [32]
0	0x3eb27fa6	0.34863013
1	0x3fa5285f	1.2902945
2	0xbdc02abd	-0.09383152
3	0x3e950b45	0.2911016
4	0xbd2f3d1c	-0.042782888
5	0x3e1f8d05	0.15581138
6	0x3e319944	0.17343622
7	0xbeba2404	-0.36355603
8	0xbf1f5423	-0.6223776
9	0x3ee9f7d7	0.456969
10	0x3e8b0657	0.27153274
11	0xbf052deb	-0.5202319
12	0x3e140e68	0.1445862
13	0x3e3ae6bb	0.18252079
14	0xbef56a90	-0.47932863
15	0xbf081e46	-0.53171194
16	0xbd347d98	-0.044065088
17	0x3ebe0846	0.37115687
18	0xbf6f4076	-0.93457735
19	0x3e8fc2e7	0.28078386
20	0xbf362b0c	-0.71159434
21	0x3f262e52	0.6491443
22	0x3edcf2a4	0.4315387
23	0xbf3b1e55	-0.7309316
24	0xbf1d9688	-0.6155782
25	0x3e6a0c8e	0.22856352
26	0xbeac6a86	-0.3367502
27	0xbe5a3eb3	-0.2131298
28	0x3d27faab	0.04101054
29	0xbf384dcb	-0.719937
30	0x3f47d0d3	0.78053015
31	0x3e409c3a	0.18809596

conv_layers.1.weight f4 [64, 32, 3]
0	0xbe53e9c8	-0.20694649
1	0xbe1a76d6	-0.15084395
2	0xbe2a6503	-0.16640095
3	0xbea1280f	-0.31475875
4	0xbcee20bd	-0.029068345
5	0xbee45887	-0.4459879
6	0xbebfc1f9	-0.37452677
7	0x3e87104e	0.26379627
8	0x3f32444d	0.6963547
9	0xbdf9426c	-0.12170872
10	0x3d1aba18	0.03777513
11	0x3f02a090	0.5102625
12	0xbe441078	-0.19146907
13	0xbf0b6673	-0.544532
14	0xbf73586c	-0.95056796
15	0xbd633750	-0.055472672
16	0xbe8d3fdc	-0.27587783
17	0x3f287a4c	0.6581161
18	0xbe4554d4	-0.1927064
19	0xbfb1249c	-1.3839297
20	0xbf037332	-0.5134765
21	0xbeb608c5	-0.35553566
22	0x3e52746b	0.20552222
23	0x3fa8857b	1.3165735
24	0xbe767284	-0.24067122
25	0xbf323647	-0.6961407
26	0xbf3a65db	-0.7281167
27	0xbfa1bfb1	-1.2636625
28	0xbf0d381f	-0.5516376
29	0xbe11e2c4	-0.1424666
30	0xbf03109e	-0.5119723
31	0xbe881b48	-0.26583314
32	0xbf3dd748	-0.7415662
33	0xbea32fa4	-0.31872284
34	0xbd8d6bf8	-0.06905359
35	0xbf3e2033	-0.7426788
36	0xbef15df4	-0.47141993
37	0xbd9cd942	-0.07658626
38	0x3f448df0	0.7677908
39	0xbeddb2dd	-0.43300524
40	0x3e9021ab	0.28150687
41	0x3edcf4b7	0.43155453
42	0xbebb188b	-0.36542162
43	0x3cfadfb5	0.03062425
44	0xbe46af2c	-0.1940276
45	0xbfafbdf4	-1.3729844
46	0xbe95cab6	-0.2925622
47	0xbe9b573b	-0.3033999
48	0xbe61fda2	-0.2206941
49	0xbf4c09ad	-0.79702264
50	0xbf4243a5	-0.7588447
51	0xbdbf9221	-0.09354044
52	0x3d8626d1	0.065503724
53	0x3f1b594c	0.6068313
54	0xbf02c8a6	-0.51087415
55	0x3d451060	0.04811132
56	0x3ea1a8b2	0.31574017
57	0xbf5b6d50	-0.8571367
58	0x3d9d9a79	0.07695479
59	0x3eb49015	0.35266176
60	0x3e89d8a8	0.26923108
61	0x3f2d64ad	0.67731744
62	0x3f2d84ca	0.67780745
63	0xbca7df0d	-0.020492101
64	0xbecfc5f7	-0.40580723
65	0xbf2ac1a1	-0.66701704
66	0xbe03098a	-0.12796608
67	0xbe147f7c	-0.14501756
68	0xbd78e51e	-0.06076538
69	0x3ebf8637	0.37407085
70	0xbe68c0fd	-0.22729869
71	0x3f1acc4a	0.6046797
72	0xbc8d8d4e	-0.017279293
73	0x3d3ab6a8	0.04558435
74	0x3ea4e57c	0.32206333
75	0x3d87e992	0.06636347
76	0xbe9839d1	-0.2973161
77	0x3f52f2bd	0.8240164
78	0xbf288c1b	-0.65838784
79	0xbda8e3ea	-0.08246596
80	0x3f102d65	0.56319267
81	0x3d13bb3b	0.03606723
82	0x3ed501d4	0.41602957
83	0x3eedd0cd	0.46448365
84	0xbd6db90f	-0.058037814
85	0xbee63ff1	-0.44970658
86	0x3ef5db59	0.4801891
87	0xbec14a9a	-0.3775223
88	0xbf3cf6bf	-0.73814005
89	0x3d853ee1	0.06506134
90	0x3941a712	0.00018468153
91	0xbf5b1ec4	-0.8559382
92	0xbf0de45f	-0.5542659
93	0xbdc4362d	-0.09580646
94	0xbeca086e	-0.39459556
95	0x3e2561c4	0.16150576
96	0xbe1b9bdc	-0.15196174
97	0x3c698eff	0.014255284
98	0x3d80335e	0.062597975
99	0xbd95b4ec	-0.07309899
100	0x3f6bb6a3	0.92075557
101	0x3e88044a	0.26565772
102	0x3dc417d4	0.09574857
103	0x3f4a5df1	0.79049593
104	0x3ec5fb17	0.3866813
105	0x3f00a89c	0.5025728
106	0xbed7751f	-0.42081544
107	0x3e8a88ca	0.27057487
108	0xbe6e5ac6	-0.23276815
109	0x3da6a6b9	0.081372686
110	0x3f27ea43	0.6559183
111	0x3eaa9062	0.3331328
112	0xbe9f2621	-0.31083778
113	0x3eed5a49	0.46357945
114	0x3db10ff4	0.08645621
115	0x3f0e3361	0.5554715
116	0x3eb1c40a	0.34719878
117	0x3eac359a	0.33634645
118	0x3d1674e8	0.036732584
119	0xbec213fb	-0.3790587
120	0xbefe839f	-0.49709794
121	0x3ed7d18f	0.42152068
122	0x3e928fe6	0.2862541
123	0xbf5fae14	-0.87375
124	0x3e1817a4	0.14852768
125	0x3f09c7f0	0.53820705
126	0xbebf3826	-0.37347525
127	0x3f4f1593	0.80892295
128	0xbc4b539a	-0.012410069
129	0xbddc7b2f	-0.10765683
130	0x3f0a3a70	0.5399542
131	0xbea16ffb	-0.31530747
132	0xbe9dc1e8	-0.30812
133	0xbe820e9e	-0.25401777
134	0x3ebccd06	0.3687517
135	0x3eaeaa0a	0.34114105
136	0xbfac0916	-1.3440273
137	0x3f172270	0.5903692
138	0xbeb12e00	-0.34605408
139	0x3e7a6290	0.24451661
140	0x3f0a2b83	0.53972644
141	0xbedbf8cf	-0.42963263
142	0x3eb19b1a	0.34688646
143	0x3f43cc3f	0.7648353
144	0xbe8bbcdb	-0.27292523
145	0x3e4e1913	0.20126753
146	0x3ed12c57	0.4085414
147	0x3f1d938d	0.6155327
148	0xbeaf2e54	-0.34215033
149	0x3ed4fbca	0.4159835
150	0x3e357026	0.17718562
151	0xbf428822	-0.7598897
152	0x3eadebec	0.33969057
153	0xbf190a47	-0.59781307
154	0x3edc72dc	0.4305638
155	0x3f30d727	0.69078296
156	0x3ec89df1	0.39183
157	0xbf718da8	-0.94356775
158	0x3f006158	0.50148535
159	0xbed3630f	-0.41286513
160	0x3ed261d5	0.41090265
161	0x3e45d9d6	0.19321379
162	0xbf347c5c	-0.7050226
163	0x3f3097ad	0.6898144
164	0xbcd63460	-0.026148021
165	0x3e919ed9	0.28441504
166	0x3cc173b8	0.02361475
167	0x3f657204	0.896271
168	0x3ce05178	0.027382597
169	0xbf7c6401	-0.98590094
170	0x3f01b8de	0.5067271
171	0x3e1163e9	0.14198269
172	0x3e6783ab	0.22608821
173	0x3f17b2d9	0.59257275
174	0x3f6d00f3	0.92579573
175	0xbec4908c	-0.3839153
176	0x3f064541	0.52449423
177	0x3e9c01c4	0.30470097
178	0xbf80b037	-1.0053777
179	0x3f61e9cc	0.8824737
180	0xbe8c3727	-0.27385828
181	0x3e98dcc1	0.29855922
182	0x3f055a56	0.52090967
183	0xbf821459	-1.016246
184	0xbf437f6b	-0.763663
185	0x3f8d5045	1.1040121
186	0xbf1206d4	-0.5704167
187	0x3f2a1ee0	0.6645336
188	0xbd906b1e	-0.07051681
189	0x3db184c6	0.08667903
190	0x3dd42d37	0.103601865
191	0xbca3a580	-0.019976377
192	0xbf16d323	-0.5891592
193	0x3e20bfec	0.15698212
194	0x3f4342e9	0.7627397
195	0x3e15ddaf	0.14635347
196	0xbf985177	-1.1899861
197	0xbecb72f0	-0.39736128
198	0x3e3c1268	0.18366396
199	0xbef641cb	-0.4809707
200	0x3d1d8a23	0.038461816
201	0xbf00907d	-0.5022047
202	0xbe160346	-0.14649686
203	0xbdc6a66d	-0.09699712
204	0xbf6683c4	-0.9004481
205	0xbe2e97f1	-0.17050149
206	0x3e74c69d	0.2390389
207	0xbe8cbeb7	-0.27489254
208	0xbf0bd85b	-0.5462701
209	0x3e46718c	0.19379252
210	0xbeb16d57	-0.34653732
211	0xbfa47dc0	-1.2850876
212	0x3d016c68	0.031597525
213	0xbe5298b9	-0.20566072
214	0x3c29b1ad	0.010357303
215	0x3d74e1b3	0.059785556
216	0xbf878d81	-1.0590059
217	0xbe528aea	-0.20560804
218	0x3d6eb7c1	0.05828071
219	0xbf162bfe	-0.58660877
220	0xbea2a237	-0.31764385
221	0xbf3cd81f	-0.73767275
222	0xbfabcc62	-1.3421748
223	0xbd3ee8f9	-0.0466089
224	0xbf6ee8a9	-0.9332376
225	0xbf5a0ff8	-0.85180616
226	0xbe19f5ec	-0.15035218
227	0xbeca8fd1	-0.39562848
228	0xbf0903ca	-0.53521407
229	0x3dede9ef	0.11616885
230	0x3ef9eb4d	0.48812333
231	0xbd98647b	-0.0744104
232	0xbe1adf4f	-0.15124248
233	0x3e78601e	0.24255416
234	0xbddc9bff	-0.107719414
235	0xbf91e9a6	-1.1399429
236	0xbf199e4d	-0.6000717
237	0xbebbfe71	-0.3671756
238	0x3dde6c6f	0.10860526
239	0xbeee3c81	-0.46530536
240	0xbf18b6d9	-0.59654003
241	0xbe858541	-0.26078227
242	0x3e09fb89	0.1347486
243	0xbefa3074	-0.48865092
244	0x3a88fd26	0.0010451421
245	0xbdb1bde7	-0.08678799
246	0xbe5c41d7	-0.21509491
247	0x3d7dc5d0	0.061956227
248	0xbdb0cfa5	-0.08633355
249	0xbe291356	-0.16511282
250	0x3eaa06f5	0.33208433
251	0xbe38c751	-0.18044783
252	0x3e93f54c	0.28898084
253	0x3e697016	0.22796664
254	0x3ede526a	0.43422252
255	0x3e68d9a8	0.2273928

conv_layers.1.bias f4 [64]
0	0x3ecb0fdb	0.39660534
1	0x3d5fc9c8	0.054635793
2	0xbdd2abc4	-0.10286668
3	0xbdcdd941	-0.100512035
4	0xbee7c8e6	-0.4527046
5	0x3e39c0f5	0.18140014
6	0x3cc9e239	0.024644004
7	0xbead2350	-0.33816004
8	0x3ea159c7	0.31513807
9	0xbeb740ae	-0.35791534
10	0xbdc647ee	-0.09681688
11	0x3e2b5aab	0.16733806
12	0xbe209e1c	-0.15685314
13	0xbdefd8dd	-0.11711285
14	0x3e995be9	0.29952934
15	0x3dbab9fa	0.091175035
16	0x3c352ab7	0.011057547
17	0x3e41f45b	0.1894087
18	0x3e8c29fb	0.2737578
19	0xbed31de6	-0.41233748
20	0x3f4e5ad2	0.8060733
21	0xbe808fda	-0.2510975
22	0xbecef8a8	-0.40424085
23	0x3dc4eae4	0.09615114
24	0xbee7829b	-0.45216832
25	0x3e25d4e3	0.16194491
26	0xbe07295b	-0.1319937
27	0x3ceb04e2	0.028688852
28	0xbddcb28c	-0.107762426
29	0xbeb207b8	-0.34771514
30	0xbe9727ce	-0.29522556
31	0x3d8602a7	0.06543475
32	0x3c619488	0.013768323
33	0x3ea8d5ad	0.32975522
34	0xbe90f6b1	-0.2831321
35	0x3dcab857	0.09898441
36	0xbe9b735c	-0.3036145
37	0x3eed009a	0.4628952
38	0x3dd8e926	0.105913445
39	0x3e952b93	0.29134807
40	0xbe543c56	-0.20726141
41	0xbe78c037	-0.24292074
42	0x3d41033c	0.047122225
43	0xbe91b826	-0.28460807
44	0x3d68b91f	0.05681717
45	0x3e1115d9	0.1416849
46	0x3eda056c	0.42582262
47	0xbf089ce5	-0.533644
48	0xbe18d9bb	-0.14926808
49	0xbf00ea0e	-0.5035714
50	0x3e8074da	0.2508915
51	0xbea88f7d	-0.32921973
52	0x3f4e0754	0.8047993
53	0x3d89fba7	0.06737452
54	0x3df01ee6	0.117246434
55	0xbea7c4d1	-0.32767347
56	0xbeaed04b	-0.3414329
57	0xbea6f695	-0.32610002
58	0x3f20c5f5	0.6280206
59	0xbd9646ca	-0.07337721
60	0x3f4f15c5	0.8089259
61	0x3da8f893	0.08250537
62	0xbda0cdaa	-0.07851727
63	0xbd8c3e51	-0.068478234

bn_layers.0.weight f4 [32]
0	0x3f7e1a2d	0.9925869
1	0x3f5c3dfd	0.86032087
2	0x3f5c9c1a	0.8617569
3	0x3f91e9c2	1.1399462
4	0x3f80275f	1.0012015
5	0x3f999972	1.1999953
6	0x3f992a4c	1.1966033
7	0x3f80b8a8	1.0056353
8	0x3fa1088e	1.2580736
9	0x3f9000fd	1.1250302
10	0x3fbad249	1.4595424
11	0x3fbb6b1b	1.4642061
12	0x3f96d3a8	1.1783342
13	0x3f84d4e2	1.0377467
14	0x3f7890b0	0.97095776
15	0x3f696add	0.91178685
16	0x3f65eed8	0.8981757
17	0x3fa9e1d1	1.3272039
18	0x3f923e4a	1.1425259
19	0x3f8bbfcd	1.0917908
20	0x3fa5a5d3	1.294123
21	0x3f4d02ad	0.8008221
22	0x3f317ce0	0.6933117
23	0x3fb78682	1.4337924
24	0x3f979ef5	1.1845385
25	0x3fb32876	1.3996723
26	0x3f9341a8	1.1504412
27	0x3f957c1c	1.16785
28	0x3f84f926	1.0388534
29	0x3f810ff2	1.0082991
30	0x3f95a47f	1.1690825
31	0x3f6e9f41	0.9321175

bn_layers.0.bias f4 [32]
0	0x3e021865	0.12704618
1	0xbe1f4d63	-0.15556864
2	0xbee0f0b0	-0.4393363
3	0xbeb0a278	-0.34498954
4	0x3e319612	0.17342404
5	0xbe9f9b8e	-0.31173366
6	0xbf4d5822	-0.80212605
7	0xbf0f2051	-0.55908686
8	0xbebcc4c5	-0.36868873
9	0xbf1ca1d6	-0.6118444
10	0xbf53e43a	-0.8277012
11	0xbf3780fd	-0.71681195
12	0xbf40a8bb	-0.7525746
13	0xbeea0e32	-0.45713955
14	0xbd01f44f	-0.03172713
15	0xbee68db2	-0.4502998
16	0x3d4dacef	0.05021375
17	0xbe49d056	-0.1970838
18	0xbe5780ae	-0.21045181
19	0xbeb270e3	-0.3485175
20	0xbf7abfb9	-0.97948796
21	0xbdbe9186	-0.093051
22	0xbe280461	-0.1640792
23	0xbf5b71a3	-0.8572027
24	0xbe48e1bd	-0.19617362
25	0xbf59859a	-0.84969485
26	0xbed2c831	-0.4116836
27	0xbe9604a5	-0.29300418
28	0xbe812df0	-0.2523036
29	0xbf07fec0	-0.5312309
30	0x3e1f1034	0.15533525
31	0xbeb3d179	-0.35120752

bn_layers.0.running_mean f4 [32]
0	0x3eaf8be4	0.34286416
1	0x3f99d14b	1.2016996
2	0xbd91a324	-0.07111195
3	0x3e9af62c	0.3026594
4	0xbd73c3e1	-0.059512977
5	0x3e2c0f6a	0.16802755
6	0x3e2e4d45	0.17021663
7	0xbeb0b104	-0.34510052
8	0xbf208b00	-0.627121
9	0x3eda8f35	0.42687383
10	0x3e83f2a3	0.25771055
11	0xbf0b7a55	-0.5448354
12	0x3e14611e	0.14490172
13	0x3e3b772e	0.18307182
14	0xbf082d88	-0.53194475
15	0xbf0f1712	-0.5589458
16	0xbd58a699	-0.052893255
17	0x3ec7796b	0.38959822
18	0xbf6cd53e	-0.9251288
19	0x3e85e3e7	0.26150438
20	0xbf317cc0	-0.6933098
21	0x3f10c6d1	0.5655337
22	0x3eb3651a	0.35038072
23	0xbf388e9d	-0.7209261
24	0xbf1c4829	-0.6104761
25	0x3e7cf14a	0.2470142
26	0xbe9c231b	-0.30495533
27	0xbe4893ae	-0.19587585
28	0x3d52b4c9	0.05144194
29	0xbf391ab6	-0.7230638
30	0x3f4576d2	0.7713443
31	0x3e3c393c	0.18381208

bn_layers.0.running_var f4 [32]
0	0x3f7d416a	0.9892794
1	0x4185080e	16.628933
2	0x3fa4614c	1.2842193
3	0x3f923302	1.1421816
4	0x3f82d4e6	1.0221221
5	0x3f8d3a2a	1.1033375
6	0x3f096088	0.5366292
7	0x3f4448d8	0.7667365
8	0x3f351803	0.70739764
9	0x3f67014c	0.90236354
10	0x3f33d63e	0.7024878
11	0x3f6ed284	0.9328997
12	0x3f772f30	0.9655638
13	0x3f561d79	0.8363872
14	0x40be176e	5.94036
15	0x3f57646d	0.8413761
16	0x3f36e6a6	0.7144569
17	0x3fa4f3a5	1.2886854
18	0x3f809aa4	1.0047193
19	0x3f81714b	1.0112699
20	0x3f796abf	0.97428507
21	0x414c4ce0	12.768768
22	0x4151b3c1	13.106385
23	0x3f183a67	0.59464115
24	0x3f4ad324	0.79228425
25	0x3f6ccdd8	0.9250159
26	0x3fabcc76	1.3421772
27	0x3f747fc7	0.9550747
28	0x3f6c9297	0.9241118
29	0x3f17c4ea	0.5928484
30	0x3f58c57f	0.84676355
31	0x3f436231	0.76321703

bn_layers.1.weight f4 [64]
0	0x3fc19120	1.5122414
1	0x3f5d7862	0.86511815
2	0x3fd8519a	1.6899903
3	0x3f90ffe7	1.1328095
4	0x3fad2de1	1.3529626
5	0x3fa2bbef	1.2713603
6	0x3f7837c4	0.9696009
7	0x3f8ba7d3	1.0910591
8	0x3f7e18e9	0.9925676
9	0x3f7caa79	0.9869762
10	0x3f7dcc2e	0.9913968
11	0x3f5e46fb	0.8682706
12	0x3fafba6d	1.3728768
13	0x3f7004cb	0.93757313
14	0x3fa1244f	1.2589206
15	0x3fd34dab	1.6508077
16	0x3f8cf8b9	1.1013404
17	0x3fa0eea0	1.2572823
18	0x3fe2c0ed	1.7715126
19	0x3f61f307	0.88261455
20	0x3f8ff8a9	1.124776
21	0x3f7376d1	0.95103174
22	0x3f71c1a4	0.944361
23	0x3f5027d9	0.813108
24	0x3f86a0be	1.0517805
25	0x3fac4065	1.3457152
26	0x3f60f1d0	0.87868977
27	0x3f99f583	1.2028049
28	0x3fab7989	1.3396465
29	0x3fa77ae1	1.3084375
30	0x3f929667	1.1452149
31	0x3fc1484e	1.5100191
32	0x3f29259f	0.6607303
33	0x3f586bd4	0.8453953
34	0x3f9d6004	1.2294927
35	0x3f1a46e8	0.60264444
36	0x3f80d5c8	1.0065241
37	0x3f7893c0	0.9710045
38	0x3f80456e	1.0021188
39	0x3f8c28d1	1.0949956
40	0x3f2bb0bc	0.6706655
41	0x3ff63969	1.923627
42	0x3fcd849a	1.6056092
43	0x3f34b3d1	0.7058688
44	0x3f699341	0.91240317
45	0x3f87f7df	1.0622519
46	0x3f77a03c	0.96728873
47	0x3fb1ef5a	1.3901169
48	0x3f0783c3	0.5293543
49	0x3f889d3b	1.0672983
50	0x3fcc7deb	1.5975927
51	0x3f981b9d	1.1883427
52	0x3f7a3b14	0.97746396
53	0x3f90ff36	1.1327884
54	0x3fa3b041	1.2788163
55	0x3fa5968e	1.2936571
56	0x3fc18d8a	1.5121319
57	0x3fa05c43	1.2528156
58	0x3f4d2ff9	0.80151325
59	0x3f9071bf	1.1284713
60	0x3fd3caad	1.6546227
61	0x3f6bc3d8	0.9209571
62	0x3f86b06d	1.0522591
63	0x3f92d96d	1.1472603

bn_layers.1.bias f4 [64]
0	0xbf64478e	-0.89171684
1	0xbd6750ed	-0.05647366
2	0xbf3892ff	-0.720993
3	0xbef04aa3	-0.46931943
4	0xbf25c187	-0.64748424
5	0xbeb12ff3	-0.34606895
6	0xbf18f31d	-0.5974596
7	0xbe409b35	-0.18809207
8	0xbf067be5	-0.525328
9	0xbe78d4c1	-0.24299909
10	0xbe052d13	-0.13005476
11	0xbecf2dda	-0.4046467
12	0xbea15929	-0.31513336
13	0xbd0e84c4	-0.034794584
14	0xbe7716be	-0.24129769
15	0xbf84badc	-1.0369525
16	0xbeeb5f9d	-0.45971385
17	0xbf19e6c5	-0.6011775
18	0xbf325016	-0.6965345
19	0xbeb8de76	-0.36107224
20	0xbf339daf	-0.7016248
21	0x3cb939c5	0.022610554
22	0x3d9fc486	0.07801156
23	0xbe5517b9	-0.2080983
24	0xbe502f4d	-0.20330544
25	0xbf2fa769	-0.6861482
26	0xbe697e3b	-0.2280206
27	0xbf231e53	-0.63718146
28	0xbe99147d	-0.29898444
29	0xbea62e4a	-0.3245719
30	0xbf0bb6d1	-0.5457583
31	0xbeff762e	-0.4989485
32	0xbdbd471e	-0.0924208
33	0xbe118b25	-0.14213236
34	0xbf105e8b	-0.5639426
35	0xbe2a75c2	-0.16646484
36	0xbf2bf53c	-0.6717107
37	0xbf00b539	-0.50276524
38	0xbed87b30	-0.42281485
39	0xbeb5fd8b	-0.35545
40	0xbf3b1e09	-0.73092705
41	0xbf8fc5ae	-1.1232202
42	0xbf28e398	-0.6597228
43	0xbf2afab2	-0.6678878
44	0xbefae6b6	-0.49004143
45	0xbe9f5785	-0.3112146
46	0xbe5c68bc	-0.21524328
47	0xbf4d921b	-0.80301064
48	0xbd358d7b	-0.04432438
49	0xbe0137f5	-0.12619002
50	0xbf0e4a06	-0.555817
51	0xbeaf01c3	-0.34181032
52	0xbe9ae41f	-0.30252168
53	0xbd2e67cb	-0.042579453
54	0xbf3294e4	-0.6975844
55	0xbeea7268	-0.4579041
56	0xbf42524c	-0.75906825
57	0xbe8558d7	-0.26044342
58	0xbe8ef36c	-0.2792009
59	0xbf1dfabc	-0.61710715
60	0xbf0a19e9	-0.53945786
61	0xbe89597f	-0.26826093
62	0xbeeee8c1	-0.46661952
63	0xbdbb8aeb	-0.09157356

bn_layers.1.running_mean f4 [64]
0	0xc0cf5371	-6.4789357
1	0x40963587	4.694034
2	0xc1172255	-9.445882
3	0xc02f2729	-2.7367651
4	0xc0c9732d	-6.2953095
5	0xc061d077	-3.5283487
6	0x4036b4c7	2.8547838
7	0xc098420d	-4.758063
8	0xc13e0e62	-11.878511
9	0x40741c38	3.8142223
10	0x3dcc2351	0.099676736
11	0xc0851af8	-4.159542
12	0xc0fe9ca7	-7.9566226
13	0x3fbaf6c9	1.4606563
14	0x3d96aa6e	0.07356726
15	0xc109044a	-8.563547
16	0xc007b321	-2.1203082
17	0xc14ec623	-12.923373
18	0xc111bd5f	-9.108733
19	0xc01be00e	-2.4355502
20	0xc091da1a	-4.5578737
21	0x3f83992c	1.0281119
22	0x3f46ddfe	0.77682483
23	0xbfa94209	-1.3223277
24	0xc080734a	-4.0140734
25	0xc135e5cc	-11.368603
26	0xc021d503	-2.5286262
27	0xc10b7528	-8.716103
28	0xc14b458b	-12.704478
29	0xc084050d	-4.1256166
30	0xc0b52d41	-5.661774
31	0xc10db112	-8.85573
32	0x400cb951	2.1988108
33	0x3ee5b08f	0.44861266
34	0xc0971f06	-4.722537
35	0x40df3c0b	6.9760795
36	0xc0a41f45	-5.128817
37	0xc02d08e4	-2.7036676
38	0x3fbad8f6	1.4597461
39	0xc0383034	-2.877942
40	0x406723c7	3.6115587
41	0xc11a95fa	-9.661615
42	0xc11632a4	-9.387363
43	0x402bbb93	2.6833236
44	0x3fba514a	1.4556057
45	0xbf827bee	-1.019407
46	0x402d3e4d	2.7069275
47	0xc0de16bc	-6.940275
48	0x406dee10	3.7176552
49	0xc03860fa	-2.880919
50	0xc14c7ce8	-12.780495
51	0xc04c62fa	-3.193541
52	0x40646046	3.568376
53	0xc113e587	-9.243537
54	0xbfb5bab0	-1.4197598
55	0xc0e3be18	-7.116955
56	0xc0ec0720	-7.3758698
57	0xc079d57f	-3.9036558
58	0x3e9eb156	0.30994672
59	0xc02ae31f	-2.6701124
60	0xc0df57ed	-6.979483
61	0xc00691f2	-2.1026578
62	0xbf92e90c	-1.147737
63	0xc00a3b89	-2.1598837

bn_layers.1.running_var f4 [64]
0	0x428692f3	67.28701
1	0x42c209a5	97.01884
2	0x42745d86	61.09133
3	0x42923898	73.110535
4	0x428fdcc7	71.931206
5	0x429a38ad	77.110695
6	0x41ffeea4	31.991524
7	0x42afffa6	87.99931
8	0x42cb8905	101.76762
9	0x42aa8369	85.25666
10	0x42682320	58.0343
11	0x427ec1a0	63.689087
12	0x42bd0ef0	94.529175
13	0x42ad894a	86.76814
14	0x42ab098d	85.518654
15	0x4276ef56	61.733727
16	0x42b7e275	91.9423
17	0x430b687f	139.40819
18	0x42b54849	90.64118
19	0x429fee43	79.965355
20	0x42733cc7	60.809353
21	0x42c96ab0	100.708374
22	0x42d2eaac	105.45834
23	0x41fdeb31	31.73984
24	0x42a45c39	82.18012
25	0x42b63ea0	91.122314
26	0x428eabca	71.335526
27	0x42a5a31c	82.81857
28	0x42da04ed	109.00962
29	0x4283156a	65.541824
30	0x42574212	53.81452
31	0x42879f88	67.811584
32	0x4291ba65	72.86405
33	0x42b127c6	88.57768
34	0x429e2e16	79.09001
35	0x427b7521	62.864384
36	0x4217aec9	37.92069
37	0x42af77d0	87.73401
38	0x429de532	78.94765
39	0x4256e09b	53.71934
40	0x42b58231	90.75428
41	0x42a98b60	84.77222
42	0x429c1da9	78.05793
43	0x420bd6e0	34.95984
44	0x427b3e29	62.810703
45	0x42308583	44.130383
46	0x42b917f2	92.54677
47	0x429dc443	78.88332
48	0x425b2e35	54.795124
49	0x428a5d79	69.18256
50	0x42d475ee	106.23033
51	0x42a8a97f	84.33105
52	0x42121d40	36.528564
53	0x4282ed64	65.46365
54	0x4297515e	75.65892
55	0x4268cf52	58.20246
56	0x4276e607	61.724636
57	0x42a39476	81.78996
58	0x4274672a	61.100746
59	0x426797d6	57.898277
60	0x42c011a3	96.03445
61	0x42a7505f	83.656975
62	0x42a5ea92	82.958145
63	0x42b0b318	88.34979
