government_icfes_dataset/checkpoints/model_classification_20250522_082737.pt (torch, 696879 bytes, 39 tensors)

embeddings.0.weight f4 [4, 8]
-1.0157084 1.7489958 -0.07383519 -1.4823543 0.68441373 0.5898264 -0.11303224 1.6445663
1.266315 2.0364304 -1.1277549 -0.26282367 1.1590707 1.2262188 -0.075150385 0.65902096
-0.16417034 0.19430733 -1.2854773 0.57374585 0.016187878 -0.06268691 -0.8710902 -0.7083817
0.821552 -1.0322613 0.25351393 0.17437904 -1.1772045 1.738452 -1.3338256 -0.2135915
00000000: bc02 82bf 18df df3f e736 97bd c9bd bdbf
00000010: bd35 2f3f ddfe 163f 727d e7bd 2681 d23f
00000020: 9c16 a23f e054 0240 465a 90bf d390 86be
00000030: 6e5c 943f bdf4 9c3f 72e8 99bd 99b5 283f
00000040: 451c 28be 80f8 463e 858a a4bf 02e1 123f
00000050: 719c 843c ff61 80bd c4ff 5ebf 8158 35bf
00000060: 3b51 523f 2321 84bf 94cc 813e 6b90 323e
00000070: a3ae 96bf 9885 de3f ccba aabf bbb7 5abe

embeddings.1.weight f4 [3, 8]
0.49912488 -0.25801 -2.3142393 0.10649363 2.5704691 -0.40994433 1.3802141 0.46603703
1.5469162 -0.6321246 -0.23160025 -0.39924398 -1.8724465 -0.3731137 0.022214742 0.7058912
0.41618428 0.49436983 -0.8973825 -0.020703109 1.4311644 -0.13115211 0.083152376 -0.2996798
00000000: 4c8d ff3e e319 84be 7f1c 14c0 5519 da3d
00000010: 9182 2440 39e4 d1be dbaa b03f 689c ee3e
00000020: 5a01 c63f ebd2 21bf 9e28 6dbe b569 ccbe
00000030: 54ac efbf c208 bfbe b1fb b53c 49b5 343f
00000040: 1b16 d53e 0b1e fd3e dcba 65bf 9199 a9bc
00000050: 6530 b73f bd4c 06be cb4b aa3d a16f 99be

embeddings.2.weight f4 [5, 8]
0.11937978 0.21177596 0.6738929 -0.59965694 1.3455806 0.58585256 0.6841215 -1.0610527
-0.71421665 -0.6783958 -0.15699083 -0.5017702 0.062033426 0.5687703 1.6998606 0.90936613
0.02855108 -1.808036 1.4434572 -0.3265228 -0.50913703 0.028085304 -0.32552934 0.09932734
1.7014534 -0.57430977 0.60911924 -1.1495221 0.21858613 -0.2625106 -0.015676629 -0.72329825
0.4818497 0.35084265 1.6000373 -1.4160928 -1.7098272 0.8797675 0.2164018 -1.4625182
00000000: 637d f43d ccdb 583e 3f84 2c3f 1e83 19bf
00000010: fc3b ac3f 6ffa 153f 9622 2f3f 93d0 87bf
00000020: e7d6 36bf 59ab 2dbf 34c2 20be 0374 00bf
00000030: c316 7e3d ee9a 113f 0895 d93f 38cc 683f
00000040: f4e3 e93c b96d e7bf 35c3 b83f ff2d a7be
00000050: ce56 02bf 2713 e63c c8ab a6be 226c cb3d
00000060: 3ac9 d93f f705 13bf 3def 1b3f 8a23 93bf
00000070: 0bd5 5f3e ca67 86be 466c 80bc 132a 39bf
00000080: 01b5 f63e a6a1 b33e 06ce cc3f 8742 b5bf
00000090: 9edb dabf 7138 613f 6f98 5d3e cc33 bbbf

embeddings.3.weight f4 [7, 8]
-0.6445996 -0.08497053 -0.16614902 0.63474447 -0.08794396 -0.1107291 -0.4538892 1.5155109
-0.16720669 -0.7207713 0.24078432 0.29482892 0.714139 1.0733391 -0.35097224 -0.29091662
-1.1819516 -0.4280606 0.2791959 0.39109245 -0.19452186 -0.4189424 -0.018704738 -0.21241741
0.49584648 1.2205709 -1.7278041 -1.1963573 0.89552575 2.1785216 -0.52344066 0.6718257
-0.656682 -1.2295103 -1.2395425 -1.710111 -0.2107821 -0.23991176 0.059346154 1.371044
0.18511039 -0.7191442 2.3473763 0.13745102 1.1880481 -0.6469275 1.2462637 0.17670542
-2.646255 -1.2277975 -0.7703844 0.31736776 0.6973049 0.23121934 -0.26874173 -0.85818547
00000000: 7b04 25bf 0705 aebd f822 2abe 9d7e 223f
00000010: f71b b4bd f0c5 e2bd 2a64 e8be 43fc c13f
00000020: 3b38 2bbe 7884 38bf 2a90 763e d1f3 963e
00000030: d0d1 363f 2d63 893f a2b2 b3be 06f3 94be
00000040: 314a 97bf c22a dbbe c4f2 8e3e 453d c83e
00000050: bd30 47be 9e7f d6be ae3a 99bc f383 59be
00000060: 97df fd3e ab3b 9c3f af28 ddbf 3c22 99bf
00000070: 2d41 653f e66c 0b40 3500 06bf c5fc 2b3f
00000080: 501c 28bf 9860 9dbf 54a9 9ebf ebe4 dabf
00000090: 43d7 57be 6eab 75be f414 733d 5f7e af3f
000000a0: 948d 3d3e d619 38bf 6a3b 1640 f6bf 0c3e
000000b0: f611 983f 0a9d 25bf 9285 9f3f 44f2 343e
000000c0: 3e5c 29c0 7828 9dbf e937 45bf 077e a23e
000000d0: 9382 323f c3c4 6c3e 8498 89be 0bb2 5bbf

embeddings.4.weight f4 [7, 8]
-1.0096827 0.42340642 -0.16910145 1.7070498 -0.18686958 0.6757671 1.1288259 -1.2705495
-1.1100887 -0.803401 0.61364496 0.56852514 0.8711783 -0.55095345 -0.14758854 0.9489704
0.7719765 -0.43069953 0.1160163 -1.6064761 -1.7480484 -2.5180097 -0.78841233 -1.2194041
-0.9957584 -0.18802583 -0.0015607324 -2.1487916 0.81328475 -0.6098247 -2.6378236 0.20040832
-0.058369204 0.7314074 0.5901645 -0.63326377 0.5120616 1.1997913 1.094865 -0.0129336575
-0.6022807 -0.9056401 0.45979166 0.20932823 -0.4222898 -0.16280188 -0.46015012 0.3176063
-1.0995088 -2.3753679 -1.5626627 0.8818815 -0.4097036 2.5028656 0.20491253 0.9159045
00000000: 483d 81bf bac8 d83e ee28 2dbe 9c80 da3f
00000010: bd5a 3fbe 13ff 2c3f 5e7d 903f 5ea1 a2bf
00000020: 6317 8ebf b0ab 4dbf d617 1d3f dd8a 113f
00000030: 8b05 5f3f 490b 0dbf 7321 17be b9ef 723f
00000040: 40a0 453f a684 dcbe f499 ed3d 02a1 cdbf
00000050: 0dc0 dfbf 1227 21c0 64d5 49bf 6f15 9cbf
00000060: 06ea 7ebf d889 40be 7d91 ccba cd85 09c0
00000070: 6e33 503f 791d 1cbf 1ad2 28c0 d737 4d3e
00000080: 8c14 6fbd 843d 3b3f 0515 173f 931d 22bf
00000090: 7816 033f c392 993f 8924 8c3f b1e7 53bc
000000a0: 112f 1abf 08d8 67bf d069 eb3e 245a 563e
000000b0: 5e36 d8be 89b5 26be cc98 ebbe 4b9d a23e
000000c0: b4bc 8cbf 0706 18c0 5505 c8bf fcc2 613f
000000d0: acc4 d1be f32e 2040 97d4 513e b878 6a3f

embeddings.5.weight f4 [1025, 8]
-1.1396483 -0.5414239 0.49458355 1.1848578 -0.99340624 0.686973 -0.8602449 0.41179425
0.99602413 -2.0980372 -0.94259155 -0.04210672 -0.21160807 -1.1253008 -0.032485273 -1.0295471
0.7684983 0.22956829 0.59131235 -1.4138806 -0.15063511 0.45835373 1.6927996 1.2756717
-0.22089426 0.8779036 2.0879905 -0.6720093 -1.8557171 -0.3147203 -0.815535 -0.88797164
-0.5909915 -1.5805739 -1.3941879 -1.2378675 -0.42830655 -0.019279836 -0.29744554 0.33922747
-1.0931686 2.3015175 0.49641952 0.40488404 -0.57948506 1.7280711 0.890927 0.21864103
0.37654963 0.57932454 -1.3808132 0.7285941 -0.73630494 -2.4839714 0.22828758 -0.6491666
-0.35724223 -0.7672402 1.293382 0.8073581 -0.48359147 -1.0431424 -0.18408872 1.1544721
0.9614082 0.24721564 -1.2544932 1.0015758 0.20387988 1.3445116 1.8017154 -0.35141882
-0.5421741 0.61154795 1.0946698 1.1243621 -0.15413019 -0.7391234 1.5175911 0.4797664
0.938006 0.5765689 -0.7181871 -1.209606 -1.7635136 -0.84980947 1.3711399 0.15720302
0.7457129 -0.4720847 -0.53572375 -1.4605044 -0.35349903 -0.38264215 -0.14588296 0.07728336
0.097382925 -1.2287414 0.472308 -0.7368271 -0.26144338 2.33184 0.8084888 -0.4556531
0.2747036 -1.4212801 -0.27584085 0.30227402 -0.63968897 -0.93391 -0.75665843 -0.8683814
3.1830144 -0.6228765 -0.1827917 -0.68006223 0.2151126 0.3958366 -2.0286093 0.37968624
-0.17746615 1.3760865 -0.7633159 0.112382285 -1.223459 -0.19362871 0.31900504 -1.0887688
0.22592697 -2.7829072 0.79795945 1.0983714 1.1288121 0.8430044 0.55473447 1.0126592
0.8651762 1.8985244 -0.6059704 2.787361 -0.6279672 0.60101277 1.8446462 -0.5526629
0.98976415 0.06130426 -1.6909643 -0.76884705 0.17507292 0.36748144 -0.56895727 -0.7324561
-1.9208429 1.8960509 -0.16175163 0.24336413 -2.2282803 -1.3944696 -1.5589917 -0.79947764
1.0560484 0.42275304 -0.61466897 1.2661804 -1.0113186 1.1350801 0.45110846 0.43246016
-1.254424 -0.7009474 -0.11063336 1.5772693 0.73337346 -0.38716483 -0.1293475 0.37512788
0.6537701 1.1539057 -0.89265436 -1.1829245 -1.5130507 -1.7171752 -0.5440748 -1.9897544
-1.391996 -2.4636717 -0.8384422 1.5649998 0.34352192 0.770572 -0.31754464 2.0242963
-0.07711185 -0.43269014 -0.036541376 1.9297593 0.4086156 -0.23311055 0.061708305 -0.5978927
-0.5224007 2.2282977 1.1323855 -3.242633 0.27378348 -0.9647829 -1.2369231 -0.26196998
-0.48479417 -0.6625034 0.8386378 0.10760954 -1.3293496 -0.5411515 -0.5710786 -0.7616404
-2.4471424 -1.2458704 1.6006513 0.8067258 -0.22039475 -0.14643137 -0.3688496 -0.52545357
1.4049344 2.161931 -1.5244485 -1.3871138 -2.1285627 -0.9040473 -1.2768751 -0.8306779
0.7032319 2.1538136 0.20905584 0.9492921 -1.3618932 0.14116469 -0.5416404 1.2459455
0.8937132 -0.70538545 0.82892424 -2.3907797 0.51210934 -0.85077876 -1.9778539 -1.5451015
-0.22796667 1.3666431 -0.7431747 0.4042904 1.3623941 -0.43284672 0.1794659 -0.5530796
00000000: ffdf 91bf c29a 0abf 0e3a fd3e 6ca9 973f
00000010: df4f 7ebf 76dd 2f3f 0339 5cbf b2d6 d23e
00000020: 70fb 7e3f 3e46 06c0 ae4d 71bf 1978 2cbd
00000030: c9af 58be db09 90bf 470f 05bd 33c8 83bf
00000040: 4ebc 443f f313 6b3e 3f60 173f 0afa b4bf
00000050: 1740 1abe 57ad ea3e a8ad d83f 3649 a33f
00000060: 1b32 62be 4abe 603f a3a1 0540 cd08 2cbf
00000070: 2388 edbf 0523 a1be e7c6 50bf 1c52 63bf
00000080: 384b 17bf 3f50 cabf c074 b2bf 7172 9ebf
00000090: ff4a dbbe bff0 9dbc c84a 98be 39af ad3e
000000a0: f3ec 8bbf 104c 1340 b32a fe3e f64c cf3e
000000b0: 2259 14bf 6f31 dd3f cb13 643f 6fe3 5f3e
000000c0: 1dcb c03e 9d4e 143f 7dbe b0bf 2585 3a3f
000000d0: 7b7e 3cbf 63f9 1ec0 38c4 693e c82f 26bf
000000e0: 74e8 b6be db69 44bf 8b8d a53f 05af 4e3f
000000f0: 4d99 f7be b185 85bf c181 3cbe bec5 933f
00000100: d91e 763f 1926 7d3e 3c93 a0bf a333 803f
00000110: e3c5 503e f518 ac3f 9c9e e63f 2bed b3be
00000120: eccb 0abf 688e 1c3f 241e 8c3f 19eb 8f3f
00000130: 4ed4 1dbe 3137 3dbf 6d40 c23f f1a3 f53e
00000140: 2921 703f 059a 133f 1cdb 37bf 5fd4 9abf
00000150: d0ba e1bf 1d8d 59bf 8381 af3f d4f9 203e
00000160: 0ae7 3e3f 16b5 f1be 3125 09bf cff1 babf
00000170: d3fd b4be ace9 c3be 5862 15be bd46 9e3d
00000180: b370 c73d 6647 9dbf 5bd2 f13e b3a0 3cbf
00000190: e8db 85be de3c 1540 1ff9 4e3f 5d4b e9be
000001a0: f3a5 8c3e 82ec b5bf 033b 8dbe a9c3 9a3e
000001b0: a8c2 23bf ba14 6fbf 5eb4 41bf 3e4e 5ebf
000001c0: 82b6 4b40 d674 1fbf bf2d 3bbe 8f18 2ebf
000001d0: 7a46 5c3e 18ab ca3e bcd4 01c0 3c66 c23e
000001e0: b0b9 35be 9a23 b03f ac68 43bf af28 e63d
000001f0: 4e9a 9cbf 9b46 46be a154 a33e c75c 8bbf
00000200: 6659 673e 271b 32c0 1247 4c3f 6f97 8c3f
00000210: ea7c 903f 23cf 573f 1403 0e3f d19e 813f
00000220: 307c 5d3f d902 f33f e020 1bbf 1f64 3240
00000230: 75c2 20bf f9db 193f 5e1d ec3f 517b 0dbf
00000240: 2f61 7d3f 2d1a 7b3d 8571 d8bf 29d3 44bf
00000250: 5146 333e 8726 bc3e 2fa7 11bf 3e82 3bbf
00000260: 2ede f5bf ccb1 f23f 38a2 25be 7234 793e
00000270: 259c 0ec0 fb7d b2bf 0a8d c7bf 91aa 4cbf
00000280: 982c 873f 1673 d83e f25a 1dbf 3312 a23f
00000290: e372 81bf 4e4a 913f b0f7 e63e 6b6b dd3e
000002a0: f790 a0bf 4a71 33bf be93 e2bd f6e3 c93f
000002b0: 5dbe 3b3f 783a c6be ac73 04be c310 c03e
000002c0: 7a5d 273f 2fb3 933f ff84 64bf 126a 97bf
000002d0: a5ab c1bf 66cc dbbf 7c48 0bbf 46b0 febf
000002e0: ed2c b2bf ccac 1dc0 26a4 56bf ea51 c83f
000002f0: 1be2 af3e 3544 453f 3695 a2be 128e 0140
00000300: d1ec 9dbd 9089 ddbe 69ac 15bd 5a02 f73f
00000310: 1036 d13e 88b4 6ebe d9c1 7c3d 7f0f 19bf
00000320: 0dbc 05bf 6e9c 0e40 02f2 903f 4d87 4fc0
00000330: 592d 8c3e 03fc 76bf 7f53 9ebf ee20 86be
00000340: f136 f8be d399 29bf f8b0 563f 6462 dc3d
00000350: 2128 aabf e888 0abf 3532 12bf defa 42bf
00000360: fb9d 1cc0 ae78 9fbf 24e2 cc3f 9585 4e3f
00000370: 29af 61be 1bf2 15be dbd9 bcbe 2084 06bf
00000380: e4d4 b33f 145d 0a40 2121 c3bf f28c b1bf
00000390: 5f3a 08c0 a56f 67bf a570 a3bf 4fa7 54bf
000003a0: 0107 343f 15d8 0940 bc12 563e cf04 733f
000003b0: 8452 aebf 7a8d 103e f2a8 0abf 247b 9f3f
000003c0: 63ca 643f 2494 34bf 6134 543f 8902 19c0
000003d0: 9919 033f a3cc 59bf 512a fdbf e3c5 c5bf
000003e0: 1870 69be 29ee ae3f b240 3ebf 27ff ce3e
000003f0: ee62 ae3f 169e ddbe e9c5 373e a096 0dbf

embeddings.6.weight f4 [3, 8]
-0.30271477 0.31075537 0.11103657 -0.7830034 1.1297385 -0.33744603 -1.0814376 -0.6520747
-0.08897179 -0.8844871 0.35841742 0.6766384 0.63775444 -0.32796943 0.8450258 -1.0045762
0.1453386 -1.2818769 0.047256235 0.062851794 0.041694738 -0.35604027 -0.69899625 -0.017065264
00000000: 6efd 9abe 541b 9f3e 2467 e33d e972 48bf
00000010: 459b 903f bac5 acbe 8c6c 8abf 5eee 26bf
00000020: d836 b6bd bf6d 62bf 7d82 b73e 2d38 2d3f
00000030: e043 233f 9ceb a7be 9c53 583f f495 80bf
00000040: a4d3 143e 8b14 a4bf c18f 413d 71b8 803d
00000050: 1ac8 2a3d e94a b6be 6bf1 32bf 74cc 8bbc

embeddings.7.weight f4 [7, 8]
0.02828165 -0.071172915 1.0803274 0.29583645 0.54621303 -1.114785 0.11874588 -0.5178347
2.1550844 1.1567999 1.1259023 0.44195244 1.0631648 1.4595375 -0.08776022 0.5471715
1.235436 -0.30360293 0.4178408 1.6093699 -0.30903247 0.67747283 0.5015425 -0.26677692
-0.12912695 -1.463158 -1.5133878 0.5948205 0.8905945 0.9275904 1.2347826 -0.17196207
1.952483 0.35220438 0.70020413 -0.1614874 0.9559481 -0.3915372 -0.87213224 0.39517304
-0.3807439 -0.23535393 0.8993491 1.7104646 0.059942957 -1.2738538 0.83802843 -1.102274
-0.28526944 -0.61346924 -0.8228095 -0.46810615 0.48656154 1.5872387 -0.101126835 0.76227313
00000000: ebae e73c 1bc3 91bd 2b48 8a3f e077 973e
00000010: 9ed4 0b3f 46b1 8ebf 0a31 f33d d190 04bf
00000020: e7ec 0940 0512 943f 911d 903f 9747 e23e
00000030: c915 883f 20d2 ba3f a1bb b3bd 6e13 0c3f
00000040: c422 9e3f d871 9bbe 3bef d53e d5ff cd3f
00000050: 8139 9ebe dc6e 2d3f 1765 003f fc96 88be
00000060: db39 04be c348 bbbf b1b6 c1bf 2846 183f
00000070: 00fe 633f 9176 6d3f 5b0d 9e3f d316 30be
00000080: f7ea f93f 2254 b43e 9440 333f f45c 25be
00000090: 04b9 743f 9077 c8be 0f44 5fbf 1f54 ca3e
000000a0: ddf0 c2be 9f00 71be be3b 663f 81f0 da3f
000000b0: bf86 753d a40d a3bf 0889 563f 5017 8dbf
000000c0: d60e 92be 520c 1dbf a5a3 52bf 9cab efbe
000000d0: 981e f93e a32a cb3f 961b cfbd 5524 433f

embeddings.8.weight f4 [7, 8]
0.35590813 -0.07138859 -0.8650067 -0.67576295 0.07130801 0.044321984 1.4253315 -0.7498804
-0.10131319 -0.22489294 -0.3780784 -0.64720446 0.8318732 -1.1482472 1.340979 0.83424276
-0.034436 0.4790742 -0.22614133 -0.26658008 -0.07424708 0.07938408 -0.03364309 0.0023349412
-0.20798732 1.2654263 -1.5772527 1.371131 -0.112241454 -0.16020672 -0.22172198 0.31068078
1.5925958 0.5196383 1.460612 0.69603854 0.3817672 -0.760643 -0.06095087 -0.42292202
0.5879347 0.482028 -0.28464848 -1.3833622 -0.5912657 -0.68923855 -0.5145992 -0.8302353
-0.15812078 0.8487193 1.5361708 -0.054867435 -0.013152561 0.10416965 0.7955701 -0.67597705
00000000: 9739 b63e 2e34 92bd 1471 5dbf cdfe 2cbf
00000010: ef09 923d f88a 353d 4371 b63f 29f8 3fbf
00000020: 4a7d cfbd 564a 66be 7e93 c1be 31af 25bf
00000030: a4f5 543f c4f9 92bf 33a5 ab3f ef90 553f
00000040: c30c 0dbd 3749 f53e 9891 67be 2f7d 88be
00000050: da0e 98bd 1f94 a23d 56cd 09bd d005 193b
00000060: a1fa 54be 7df9 a13f 6be3 c9bf 3881 af3f
00000070: d9de e5bd 3b0d 24be 160b 63be 8d11 9f3e
00000080: 2eda cb3f 0407 053f 56f5 ba3f 952f 323f
00000090: fe76 c33e 80b9 42bf 9fa7 79bd 3c89 d8be
000000a0: e382 163f 60cc f63e 72bd 91be 0312 b1bf
000000b0: 305d 17bf f071 30bf c6bc 03bf 4d8a 54bf
000000c0: 6aea 21be ab45 593f 3fa1 c43f adbc 60bd
000000d0: d77d 57bc e656 d53d 7baa 4b3f d50c 2dbf

embeddings.9.weight f4 [3, 8]
-0.16568872 1.2886775 0.54614294 0.41205674 0.49444345 -0.44637743 -0.0685077 -0.83397007
-1.2259283 -0.6425371 -1.8921378 -0.7350021 0.8839421 -1.2436537 -0.4233297 1.0640657
1.0559909 1.7955965 -1.6407708 -0.22743529 -1.2378219 -1.9327393 -2.190557 -0.5688884
00000000: 4eaa 29be 62f3 a43f 06d0 0b3f 1af9 d23e
00000010: b127 fd3e 958b e4be c44d 8cbd 107f 55bf
00000020: 38eb 9cbf 507d 24bf 9231 f2bf 1929 3cbf
00000030: 084a 623f 0b30 9fbf acbe d8be 4e33 883f
00000040: b62a 873f 1bd6 e53f c704 d2bf cce4 68be
00000050: f370 9ebf 0064 f7bf 1632 0cc0 aca2 11bf

embeddings.10.weight f4 [427, 8]
-0.39041218 -0.63480717 -1.1198783 0.907188 0.021437123 -0.3554093 -0.7839834 0.91683143
-0.27300254 -0.4859574 0.40009078 -0.21507858 -1.0377198 -0.055342197 0.7013166 0.52089125
1.419304 -1.3031919 -0.7092324 -1.0329714 1.2074618 0.23435001 1.5799326 1.1291226
0.21537004 -1.5069523 0.36565918 0.90678275 0.4537661 -0.40849993 -0.9828798 1.8246092
0.033155795 -1.5427281 0.13343246 0.24227196 -1.5868323 1.9132762 -0.30388063 -0.37071472
0.3474124 -1.1756839 1.566682 0.24003883 0.058887985 0.06952425 -0.79628533 -0.85306704
0.95894337 1.4739958 1.4196792 1.0883476 -1.3617083 0.57615405 0.04376062 0.050213322
-0.5037239 -0.30126488 -0.3742349 0.12440539 1.4709193 0.99851435 -2.2971559 -0.3916384
0.49398118 -1.4689661 0.47032198 0.22863285 0.33149338 -1.1907744 -0.26600367 0.5432611
1.8196815 1.613356 1.4857597 -2.9108727 -0.8842935 -0.58962953 -0.5999428 0.093375236
1.7699363 0.50379366 -0.5293361 -3.0507553 -2.4025893 -0.13573615 -2.1045752 -0.85679877
-0.08457309 -0.6975615 0.57141423 0.068008184 -0.75881845 -0.12979327 0.9840889 1.9764975
-0.9462192 0.7617257 -1.2798193 -1.0540271 -0.26582 0.08584167 -0.88906735 1.8398038
-0.8974396 -1.8670082 -1.6497838 0.8959026 0.13949412 -0.22297584 0.28203738 -0.51254094
-0.40200904 -0.70624745 -0.06133132 -0.06256331 0.05483154 0.21538158 1.7606746 0.79182583
-0.8433743 1.4928427 -0.44854915 1.3337808 -0.57117295 0.96258646 0.9774067 0.6215477
0.5781029 0.24528752 -0.39755008 1.2285486 1.204214 -1.0128416 0.63723457 -1.1145577
-0.3049478 -2.4281418 0.010098668 -0.5968746 -1.4193763 0.1286441 0.24735937 0.3260606
-0.087111056 0.11972691 1.0115229 -0.61636215 -1.2830274 0.5889391 -1.4787301 -0.6375629
-1.1218767 -0.9776172 -1.3561511 0.18427937 -0.47843122 -0.95378965 0.8315635 0.65945303
-1.6770525 0.5990391 -0.29807314 -1.2875481 0.54451716 1.4629887 -0.69276875 -1.0635562
-0.1730359 -1.223253 0.63376236 -1.0828586 0.26809 0.1859948 0.21338779 2.2809632
-0.9920698 -1.0262209 1.4941434 -0.94229054 -0.2546843 1.3096105 -0.8059569 -1.1520342
-0.689876 1.5116174 1.6909617 1.6683828 1.4781185 0.65703505 -0.0067564836 1.2456914
0.5388768 0.7946544 -1.1546828 -3.2328227 1.8670204 -2.4001613 -1.2600559 -0.72883636
0.15911739 -1.5704991 -1.0815183 -0.5527972 0.90785134 -0.28810996 1.265679 0.23145548
-0.06527162 1.3436065 -1.4602041 1.5451585 -0.6688314 0.2753752 1.1072295 0.32332397
-2.3920002 -0.09145079 -1.0234197 -1.6072221 0.323925 1.2185615 -0.49097666 -1.5844845
1.0740287 -1.8003128 0.5502613 -0.032022387 -0.71687824 0.39363128 2.0162032 -1.0430723
-0.6901004 -0.42298466 1.2544664 0.4922694 0.34215552 0.5616612 -0.44094473 -2.0134645
0.4035477 -1.3691733 0.12131165 1.7695612 -1.5634481 -0.7844753 0.24985461 -0.7057099
-0.87080383 1.2491031 -1.7583319 0.39540076 -0.9200157 0.62454015 0.15691803 -0.8037156
00000000: 1be4 c7be b982 22bf 2c58 8fbf 793d 683f
00000010: e89c af3c 35f8 b5be 23b3 48bf 77b5 6a3f
00000020: fdc6 8bbe 69cf f8be b3d8 cc3e 8f3d 5cbe
00000030: 01d4 84bf 80ae 62bd 7c89 333f 2159 053f
00000040: c1ab b53f fece a6bf 4190 35bf 6838 84bf
00000050: 1c8e 9a3f 73f9 6f3e 3b3b ca3f 1787 903f
00000060: f789 5c3e d0e3 c0bf ae37 bb3e ea22 683f
00000070: 0854 e83e e726 d1be 039e 7bbf cb8c e93f
00000080: 5fce 073d 1d78 c5bf 85a2 083e 2416 783e
00000090: 521d cbbf 3ce6 f43f 3e96 9bbe 52ce bdbe
000000a0: 0ae0 b13e cf7c 96bf 0989 c83f bdcc 753e
000000b0: 8734 713d bb62 8e3d 5bd9 4bbf 9a62 5abf
000000c0: 507d 753f e5ab bc3f 0cb8 b53f f94e 8b3f
000000d0: 754c aebf d57e 133f 563e 333d 7cac 4d3d
000000e0: 0df4 00bf 643f 9abe b89b bfbe 41c8 fe3d
000000f0: 1547 bc3f a39e 7f3f 9a04 13c0 d484 c8be
00000100: 1aeb fc3e 1507 bcbf 0bce f03e bb1e 6a3e
00000110: 80b9 a93e 4c6b 98bf a231 88be 2913 0b3f
00000120: 53eb e83f 7382 ce3f 602d be3f bd4b 3ac0
00000130: 0f61 62bf f6f1 16bf da95 19bf 843b bf3d
00000140: 468d e23f 9ff8 003f 9282 07bf 933f 43c0
00000150: 06c4 19c0 6bfe 0abe 5cb1 06c0 2a57 5bbf
00000160: a834 adbd 6493 32bf 3448 123f e047 8b3d
00000170: ed41 42bf 87e8 04be 40ed 7b3f dffd fc3f
00000180: 6c3b 72bf 7500 433f 1ed1 a3bf 5cea 86bf
00000190: 8f19 88be c2cd af3d eb99 63bf b17e eb3f
000001a0: 9abe 65bf 20fa eebf 1e2c d3bf df59 653f
000001b0: 8cd7 0e3e c753 64be 3467 903e e235 03bf
000001c0: 21d4 cdbe a2cc 34bf 8d36 7bbd 3121 80bd
000001d0: 0997 603d fd8c 5c3e c95d e13f 19b5 4a3f
000001e0: 61e7 57bf 7815 bf3f 3ca8 e5be 54b9 aa3f
000001f0: 6438 12bf 116c 763f 5337 7a3f c01d 1f3f
00000200: 8dfe 133f a72c 7b3e af8b cbbe 1541 9d3f
00000210: af23 9a3f cba4 81bf ce21 233f d4a9 8ebf
00000220: 1e22 9cbe ad66 1bc0 e274 253c c6cc 18bf
00000230: 1fae b5bf 47bb 033e c64b 7d3e 6af1 a63e
00000240: 4867 b2bd 6233 f53d 9579 813f e9c9 1dbf
00000250: 3e3a a4bf b6c4 163f 0747 bdbf 5237 23bf
00000260: a899 8fbf 1f45 7abf 5c96 adbf bbb3 3c3e
00000270: f0f4 f4be 8f2b 74bf 58e1 543f ead1 283f
00000280: a8a9 d6bf a05a 193f 0b9d 98be 60ce a4bf
00000290: 7a65 0b3f 3743 bb3f 4b59 31bf 9c22 88bf
000002a0: 5330 31be 8e93 9cbf 403e 223f 1c9b 8abf
000002b0: 1843 893e 6c75 3e3e 5482 5a3e 4dfb 1140
000002c0: 49f8 7dbf 355b 83bf 1740 bf3f f439 71bf
000002d0: fb65 82be 51a1 a73f 3153 4ebf db75 93bf
000002e0: b79b 30bf ae7c c13f 6f71 d83f 918d d53f
000002f0: fd32 bd3f 7333 283f 7e65 ddbb d172 9f3f
00000300: d4f3 093f 796e 4b3f a5cc 93bf 91e6 4ec0
00000310: 86fa ee3f 3e9c 19c0 8349 a1bf 0595 3abf
00000320: abef 223e 1d06 c9bf 316f 8abf 1e84 0dbf
00000330: f268 683f 2683 93be c501 a23f aa02 6d3e
00000340: 21ad 85bd 4cfb ab3f f8e7 babf c1c7 c53f
00000350: 8938 2bbf fafd 8c3e b2b9 8d3f b88a a53e
00000360: 8816 19c0 8d4a bbbd 6bff 82bf 74b9 cdbf
00000370: 7fd9 a53e d3f9 9b3f 4b61 fbbe 63d0 cabf
00000380: c679 893f a670 e6bf eddd 0c3f e829 03bd
00000390: 5585 37bf 0a8a c93e 7909 0140 6583 85bf
000003a0: 6baa 30bf 7291 d8be 5b92 a03f bc0a fc3e
000003b0: 022f af3e 07c9 0f3f 82c3 e1be 9adc 00c0
000003c0: ce9d ce3e 1241 afbf 3e72 f83d fb80 e23f
000003d0: 111f c8bf 60d3 48bf e3d9 7f3e 67a9 34bf
000003e0: 00ed 5ebf 9ce2 9f3f 0511 e1bf f871 ca3e
000003f0: 2686 6bbf dde1 1f3f 1faf 203e 4ec0 4dbf

embeddings.11.weight f4 [1030, 8]
0.17544737 1.6256026 0.056822166 -2.050515 0.64249575 1.6706295 -0.38052925 1.3253996
-0.87849975 1.5784858 1.7508079 -1.2844155 -0.6734626 -1.2849836 0.5139094 1.5156074
0.08327621 0.34569645 -1.5874792 -0.29243124 -0.10178125 -0.6058625 -1.1158055 1.684999
-0.24174164 -0.06594858 -0.37697375 2.1825078 0.2196643 0.36602074 -1.9025197 0.1538357
-1.40255 -0.6212562 1.383676 1.3526199 1.0755862 0.9243752 -0.22875375 -2.5490482
2.945629 1.1749154 0.56386286 -0.26854154 1.6311108 0.5584187 -2.2310686 -0.17828102
0.58931357 -1.6404932 -2.0490825 0.47522438 0.7801585 -2.0048988 1.8107154 -0.5530293
-0.21141487 0.02246189 -0.29726148 -0.74621135 -1.1058519 0.67762256 -1.0130396 0.1729899
-0.101662055 0.46461886 -0.17184557 -0.21469906 -0.57640815 -0.45615295 0.40213755 0.8209898
1.3926115 2.0021832 0.88881385 0.9734372 -0.06642993 -0.2525864 -0.09276531 0.023082374
0.28383207 2.3475785 1.7193438 -0.5929749 -0.7608194 -0.72655135 -1.1667061 -1.1325451
-2.0001173 0.48341492 -0.57748455 -0.8263001 0.94348645 -0.19063805 -0.2149446 1.3111839
3.0607266 -0.24085031 -0.05350201 -1.2444441 0.04666359 0.8631942 1.0573072 1.8890966
0.4477417 -0.40567255 0.6253592 -2.3616838 0.49318695 0.005089293 1.9982337 1.941297
-0.0881427 -0.08053865 -1.2215452 0.9002462 0.5026304 -2.0223126 1.47283 -0.5494787
-0.7719976 0.695159 1.3990574 -0.64533603 -0.5361411 -0.14911851 0.7870272 -0.6579679
-1.6575615 1.715737 0.60387456 -0.68469197 0.32287887 -0.56555754 0.34664276 0.10475065
-1.0916759 -0.06603518 0.9479866 -0.5137698 -0.68892926 -0.3727811 0.1655045 -0.3698667
1.8308718 -0.5664529 -0.47802377 -0.4056865 -0.07737876 -0.8287684 -1.4147836 1.7117637
-0.6354619 2.1474235 3.1903934 0.53912574 2.179287 -0.66067815 -2.3118455 1.1033735
0.6304341 -1.0269551 -0.12979811 0.20051213 1.2498517 -0.96653634 0.6289717 0.20624475
1.4161601 0.52868265 -1.3388573 0.4167571 -1.2217686 0.4944083 1.941103 0.95925176
0.15423128 0.41189796 0.43972868 0.48970386 -1.2393147 2.0001984 0.40461844 -1.6232896
-1.3185155 -0.549089 -0.08352942 -0.25934163 0.66929024 1.3353395 0.050315592 -0.034211516
0.63955295 -0.55830556 0.16320454 0.9746266 0.5445893 -0.72884923 -0.057284676 0.2518701
1.3673819 0.13673575 1.7612208 1.2014025 3.0707026 -2.7086742 -1.6774995 0.60003215
0.9917037 -1.6056459 -0.3546614 1.6261544 1.4658978 -0.3110604 0.78918535 0.2895163
1.4095699 0.10040126 0.87110597 0.5651388 -1.1333364 1.6302758 0.4406784 -1.9431629
2.0236013 -1.5060023 0.95118797 0.95884216 0.24588913 0.3553983 0.6724654 -1.2271104
-1.1867003 -0.39372256 -0.6376165 -0.12550272 2.305875 1.2939731 -0.2778975 2.4056783
2.372936 -2.699544 -0.33409217 -1.3638347 0.014109339 -1.657218 0.7603504 -0.511429
-0.2743346 -0.7734436 0.618189 0.2088172 0.23486018 1.4312035 -0.16378209 -0.59887826
00000000: 7aa8 333e bf13 d03f 5cbe 683d a33b 03c0
00000010: 9a7a 243f 30d7 d53f bbd4 c2be b2a6 a93f
00000020: 5ce5 60bf d30b ca3f 791a e03f ba67 a4bf
00000030: 0c68 2cbf 587a a4bf 918f 033f 6cff c13f
00000040: b88c aa3d 20ff b03e 8532 cbbf 8cb9 95be
00000050: b072 d0bd ce19 1bbf b7d2 8ebf 0cae d73f
00000060: 1f8b 77be 0d10 87bd b402 c1be 35ae 0b40
00000070: aeef 603e 1267 bb3e c485 f3bf 1b87 1d3e
00000080: c286 b3bf a50a 1fbf 4c1c b13f a622 ad3f
00000090: cfac 893f daa3 6c3f 6c3e 6abe 9b23 23c0
000000a0: 2f85 3c40 a163 963f 5159 103f 477e 89be
000000b0: 3dc8 d03f 87f4 0e3f d4c9 0ec0 4d8f 36be
000000c0: 41dd 163f aefb d1bf 2b24 03c0 9c50 f33e
000000d0: 78b8 473f 4350 00c0 86c5 e73f 5493 0dbf
000000e0: 247d 58be ff01 b83c a832 98be b507 3fbf
000000f0: 8e8c 8dbf ac78 2d3f 48ab 81bf 4424 313e
00000100: 3234 d0bd 86e2 ed3e 49f8 2fbe 12da 5bbe
00000110: 7c8f 13bf e18c e9be f9e4 cd3e 632c 523f
00000120: 1841 b23f c523 0040 4e89 633f 2e33 793f
00000130: 6a0c 88bd 0153 81be bdfb bdbd 3f17 bd3c
00000140: 7052 913e ba3e 1640 7513 dc3f 34cd 17bf
00000150: 0fc5 42bf 45ff 39bf a056 95bf 3df7 90bf
00000160: ec01 00c0 2982 f73e 07d6 13bf 6788 53bf
00000170: 5488 713f 9f36 43be 701a 5cbe e0d4 a73f
00000180: f2e2 4340 77a1 76be ec24 5bbd f249 9fbf
00000190: 5222 3f3d 4cfa 5c3f d855 873f ebcd f13f
000001a0: 663e e53e 50b4 cfbe 8a17 203f d425 17c0
000001b0: 0083 fc3e 15c4 a63b 1fc6 ff3f 6c7c f83f
000001c0: 2984 b4bd 73f1 a4bd 985b 9cbf 8976 663f
000001d0: 63ac 003f 926d 01c0 b285 bc3f a3aa 0cbf
000001e0: a2a1 45bf f1f5 313f 5014 b33f be34 25bf
000001f0: 8b40 09bf 86b2 18be 9d7a 493f 9670 28bf
00000200: fa2a d4bf 459d db3f 8697 1a3f f947 2fbf
00000210: 6150 a53e 61c8 10bf 297b b13e 8287 d63d
00000220: 09bc 8bbf 743d 87bd 40af 723f 6b86 03bf
00000230: ab5d 30bf 2add bebe 037a 293e 2b5f bdbe
00000240: 025a ea3f 0f03 11bf 88bf f4be 24b6 cfbe
00000250: c178 9ebd 2a2a 54bf a117 b5bf 131b db3f
00000260: a2ad 22bf 636f 0940 682f 4c40 2504 0a3f
00000270: 7079 0b40 3422 29bf 47f5 13c0 583b 8d3f
00000280: 2164 213f 4473 83bf cce9 04be 0d53 4d3e
00000290: 24fb 9f3f ed6e 77bf 4a04 213f d331 533e
000002a0: bc44 b53f bf57 073f ad5f abbf 3061 d53e
000002b0: ea62 9cbf 1623 fd3e 1076 f83f 8691 753f
000002c0: ceee 1d3e 4ae4 d23e 1e24 e13e 77ba fa3e
000002d0: dda1 9ebf 4003 0040 262a cf3e f4c7 cfbf
000002e0: 1ec5 a8bf 1991 0cbf 7911 abbd 6dc8 84be
000002f0: 9b56 2b3f 68ec aa3f b917 4e3d 6021 0cbd
00000300: beb9 233f 1ded 0ebf 171f 273e 2181 793f
00000310: 346a 0b3f dd95 3abf 56a3 6abd 1ef5 803e
00000320: 5f06 af3f 7504 0c3e af6f e13f 8fc7 993f
00000330: 6486 4440 eb5a 2dc0 4eb8 d6bf b59b 193f
00000340: 4be0 7d3f ce85 cdbf 2e96 b5be d425 d03f
00000350: 8aa2 bb3f 4f43 9fbe 0d08 4a3f 7b3b 943e
00000360: c96c b43f 2d9f cd3d cd00 5f3f f0ac 103f
00000370: 2b11 91bf e1ac d03f 99a0 e13e 90b9 f8bf
00000380: af82 0140 afc4 c0bf 0e81 733f ae76 753f
00000390: 5cca 7b3e c4f6 b53e b126 2c3f f411 9dbf
000003a0: cce5 97bf 0196 c9be d63a 23bf c983 00be
000003b0: 7593 1340 e9a0 a53f 9548 8ebe a2f6 1940
000003c0: 2fde 1740 54c5 2cc0 210e abbe 2392 aebf
000003d0: db2a 673c b81f d4bf 53a6 423f 03ed 02bf
000003e0: 9675 8cbe 6600 46bf a241 1e3f 2dd4 553e
000003f0: 307f 703e ad31 b73f 7eb6 27be 1650 19bf

embeddings.12.weight f4 [7, 8]
-0.9996235 0.65000194 0.2859819 0.3829223 0.48697317 -1.5357372 -0.61668926 0.17710511
-0.8779642 0.65784705 -0.012373819 0.66530955 0.40174615 -0.002969916 -1.0135925 -0.31057817
-0.3261073 0.36066544 -0.7745316 -1.1790321 -0.24392946 -0.21766931 -0.12618792 -0.47180888
-0.7474019 0.9830856 -1.1038792 0.48052105 0.5254703 1.419508 0.32204214 -0.39146242
-2.1406112 -0.4083851 -1.3023458 -0.3654572 1.0125161 0.7198316 -1.0876518 -0.64564294
-0.35099754 -0.67692345 -0.33125407 -1.4273556 -0.56182724 -1.6910667 1.3588111 1.2199255
1.7010787 -1.709543 -0.78877044 0.03925337 -0.19400497 -1.303689 -1.5270385 0.9837471
00000000: 53e7 7fbf 8766 263f 386c 923e 640e c43e
00000010: 8c54 f93e 0993 c4bf 59df 1dbf 0b5b 353e
00000020: 43c2 60bf aa68 283f 8fbb 4abc ba51 2a3f
00000030: acb1 cd3e eca2 42bb 66bd 81bf 1a04 9fbe
00000040: 89f7 a6be 24a9 b83e b447 46bf 86ea 96bf
00000050: a5c8 79be b4e4 5ebe 6837 01be ef90 f1be
00000060: bb55 3fbf 7fab 7b3f ea4b 8dbf db06 f63e
00000070: 3985 063f 70b2 b53f b5e2 a43e c36d c8be
00000080: c6ff 08c0 da17 d1be 44b3 a6bf 351d bbbe
00000090: 219a 813f e246 383f 2d38 8bbf db48 25bf
000000a0: f3b5 b3be db4a 2dbf 229a a9be 97b3 b6bf
000000b0: e9d3 0fbf e074 d8bf 86ed ad3f 8526 9c3f
000000c0: f2bc d93f 4ed2 dabf dcec 49bf 24c8 203d
000000d0: 3da9 46be 48df a6bf ff75 c3bf dad6 7b3f

embeddings.13.weight f4 [7, 8]
0.4896791 -1.2826943 -1.7835261 -0.99500525 -0.96943444 0.07381783 1.175829 -1.6746415
-0.46628532 -0.26780826 -0.9883577 -0.4572488 -0.8099533 -0.9334496 0.96052545 0.84251106
0.778473 1.8385046 -0.45800218 0.42002404 -0.47253832 0.931056 1.4059836 -0.6930403
-0.47824752 1.4261332 0.2798719 -0.09382334 1.150486 0.2166576 0.3829063 2.3211505
-1.2384782 1.0387036 -0.76150817 -0.40991628 -0.033488568 -1.4797109 0.051367376 -0.45312148
0.23643003 0.06623231 -1.620972 1.8265849 -0.7359767 0.4010636 0.20543803 0.31948444
2.1955495 0.94675493 0.7627227 -0.9924121 1.7091686 0.5635696 -0.37294084 -0.32818267
00000000: 38b7 fa3e 542f a4bf 954a e4bf aab8 7ebf
00000010: db2c 78bf cd2d 973d 9181 963f a75a d6bf
00000020: f3bc eebe 2a1e 89be 0305 7dbf 841c eabe
00000030: 1959 4fbf 8ef6 6ebf ffe4 753f ceae 573f
00000040: 024a 473f 1e54 eb3f 437f eabe 640d d73e
00000050: 8bf0 f1be b059 6e3f 45f7 b33f 176b 31bf
00000060: dcdc f4be 888b b63f 5f4b 8f3e 7426 c0bd
00000070: 2043 933f 7ddb 5d3e 4b0c c43e bb8d 1440
00000080: 7486 9ebf 3df4 843f 33f2 42bf 8ce0 d1be
00000090: 4f2b 09bd 2b67 bdbf 9966 523d 8aff e7be
000000a0: b71a 723e cea4 873d 037c cfbf 89cd e93f
000000b0: f868 3cbf 3558 cd3e 595e 523e 7793 a33e
000000c0: e283 0c40 885e 723f cb41 433f b80e 7ebf
000000d0: 09c6 da3f 1946 103f 1af2 bebe 8f07 a8be

embeddings.14.weight f4 [7, 8]
0.21808393 -0.46011463 1.0099639 -1.7368917 -0.1454366 -1.9043161 -0.26318237 1.2409426
-0.67340446 0.42368147 -0.4288683 -0.5450984 0.6621621 -0.5107685 -0.91050524 0.70888555
1.3157274 -1.1241313 1.6869988 -0.16143528 -0.17871062 -0.122217484 0.60563576 0.572992
-0.22144133 -1.3852131 -1.3286798 0.43387702 1.1804436 -0.0685126 0.6618426 0.5742134
-0.0847517 -0.11406002 -0.08423781 -0.14508303 -0.17199315 -0.50207394 -0.64339733 0.9433157
-0.8969564 0.25335684 0.2843259 -0.120461054 -0.24850461 -0.45566177 -0.4355 0.9424435
0.4623813 -0.4487402 -0.3803259 -0.94377935 0.6993709 0.27705318 1.4091814 0.7733683
00000000: 6551 5f3e 2594 ebbe 7f46 813f 7852 debf
00000010: 55ed 14be a1c0 f3bf d7bf 86be 35d7 9e3f
00000020: 3c64 2cbf c7ec d83e a094 dbbe 928b 0bbf
00000030: 7583 293f b9c1 02bf df16 69bf 8679 353f
00000040: c169 a83f 89e3 8fbf 94ef d73f 4a4f 25be
00000050: ebff 36be 294d fabd f20a 1b3f 9baf 123f
00000060: 84c1 62be aa4e b1bf 2e12 aabf 2125 de3e
00000070: c718 973f 5650 8cbd 846e 293f a6ff 123f
00000080: 4d92 adbd 4d98 e9bd df84 acbd a590 14be
00000090: f91e 30be eb87 00bf b0b5 24bf 237d 713f
000000a0: ef9e 65bf fdb7 813e 2a93 913e 49b4 f6bd
000000b0: fe77 7ebe 804c e9be dbf9 debe fa43 713f
000000c0: 3ebd ec3e 47c1 e5be 14ba c2be 869b 71bf
000000d0: f909 333f ead9 8d3e 0e60 b43f 77fb 453f

embeddings.15.weight f4 [6, 8]
1.3151243 -1.8734096 -0.33969554 1.8953583 1.0766902 0.2716809 -0.18089773 0.7371496
0.70420265 1.5870031 0.60491306 0.17176335 -0.6221726 -0.5377643 -0.6438364 -0.5603093
0.057845272 -0.12827651 0.6267647 -0.13278043 1.1095552 -0.7021627 -2.3729856 -0.79225636
-1.4106048 0.23371543 -2.254909 -0.55911255 -2.6620097 -0.5424527 -2.8021154 -0.9346292
-1.8653286 -0.14919114 -0.69586277 -1.190219 -1.6841905 -1.6522905 -0.0088258665 -1.0680394
0.8577143 -0.014389153 -1.2602721 0.5277522 0.12745717 0.62417144 0.44746855 -0.50734335
00000000: fe55 a83f e3cb efbf 93ec adbe 1a9b f23f
00000010: fcd0 893f c219 8b3e 413d 39be d6b5 3c3f
00000020: a046 343f eb22 cb3f 95db 1a3f bbe2 2f3e
00000030: b446 1fbf ecaa 09bf 76d2 24bf 6e70 0fbf
00000040: 2aef 6c3d eb5a 03be a773 203f 98f7 07be
00000050: e805 8e3f efc0 33bf ffde 17c0 50d1 4abf
00000060: b38e b4bf 1953 6f3e 6e50 10c0 0022 0fbf
00000070: 5e5e 2ac0 2ede 0abf dc55 33c0 dc43 6fbf
00000080: 16c3 eebf 90c5 18be 1024 32bf 1959 98bf
00000090: 8e93 d7bf 417e d3bf 5e9a 10bc 84b5 88bf
000000a0: 2a93 5b3f 7bc0 6bbc 9950 a1bf c51a 073f
000000b0: 2284 023e b3c9 1f3f 991a e53e 41e1 01bf

conv_layers.0.weight f4 [16, 1, 3]
0.18985005 -0.63476384 -0.54555225 -0.11478866 0.61706114 0.37851638 0.30389208 -0.761797
0.17720686 -0.21450657 -0.46754396 -0.43888226 -0.524029 0.5690607 0.0440448 0.3429038
-0.98515594 0.06368074 0.33244446 0.22022319 -0.4529182 -0.43588617 0.5880225 0.0691206
-0.3393463 0.35515338 -0.711631 -0.20432939 -0.07576739 0.8694061 -0.26908576 0.57392645
0.059866417 0.17917956 0.2392221 -0.737238 0.13705605 -0.39788374 -0.4852515 0.47974262
-0.33383408 -0.08978958 0.12520619 0.5893701 0.662679 0.1310231 0.08172157 -1.0827771
00000000: 0d68 423e e27f 22bf 50a9 0bbf 5116 ebbd
00000010: b8f7 1d3f e6cc c13e be97 9b3e 2105 43bf
00000020: b775 353e 9ca7 5bbe ec61 efbe 2db5 e0be
00000030: c426 06bf f6ad 113f 5268 343d 1691 af3e
00000040: 2e33 7cbf 0c6b 823d 2936 aa3e 3082 613e
00000050: e5e4 e7be 792c dfbe a488 163f 1a8f 8d3d
00000060: ccbe adbe aad6 b53e 732d 36bf b93b 51be
00000070: ef2b 9bbd 6691 5e3f 9cc5 89be d8ec 123f
00000080: 7d36 753d d97a 373e a3f6 743e a1bb 3cbf
00000090: 6c58 0c3e 6bb7 cbbe e272 f8be d3a0 f53e
000000a0: 4dec aabe 99e3 b7bd 0d36 003e f5e0 163f
000000b0: 55a5 293f eb2a 063e a35d a73d 7198 8abf

conv_layers.0.bias f4 [16]
0.040339354 -0.40077198 0.50754446 -0.5663109 -0.45175192 -0.08034092 0.008346164 -0.13370551
-0.036805425 -0.2669055 -0.25296295 -0.15383813 -0.20772965 -0.051973492 -0.047885753 0.010879729
00000000: e13a 253d fc31 cdbe 6fee 013f c0f9 10bf
00000010: 074c e7be c889 a4bd 59be 083c 19ea 08be
00000020: 49c1 16bd d6a7 88be 5c84 81be be87 1dbe
00000030: 15b7 54be 28e2 54bd da23 44bd e440 323c

conv_layers.1.weight f4 [32, 16, 3]
-0.29734728 -0.095821 -0.075154364 0.12536442 -0.23392867 -0.10991254 -0.6437418 -0.32516605
-0.26938915 -0.13565862 -0.35880548 0.3254887 0.12291636 -0.082032345 -0.17419918 -0.22034515
-0.5486272 -0.17749768 -0.17381753 0.008028927 0.2289727 -0.00823337 -0.122295834 -0.09785643
-0.7234891 -0.4637511 0.36641875 -0.032756794 -0.2674308 -0.43026108 0.18160307 -0.19904275
0.069781505 -0.57055044 0.004789275 0.41559923 -0.13011925 -0.056413457 0.28214878 -0.043690633
-0.27581382 -0.22622149 0.07493991 -0.12199798 0.24779263 -0.7155369 -0.066686906 0.39971378
0.00031788283 -0.72465295 -0.13067386 0.15072921 0.3444127 -0.36997184 -0.014515939 -0.15778589
0.42563516 -0.13939343 -0.7117584 -0.27245647 -0.13402703 0.060329657 -0.56568235 -0.23378858
-0.18258627 0.22939019 -0.015942635 0.18431468 0.21157949 0.20033073 0.16638407 -0.21888931
0.1667022 0.0115232505 -0.44539088 -0.28339237 0.34406766 0.038115203 0.047945786 0.13465522
-0.22795884 0.07809166 0.22083013 -0.0011282049 0.0039239144 -0.6552182 -0.29616624 0.018434178
-0.7951439 0.16950713 -0.2159696 0.65989846 -0.12798639 0.16693892 0.023667011 -0.3881429
-0.44887823 0.074725285 0.23661768 -0.02343104 0.042231124 0.06313788 -0.28623253 0.28739843
0.27740756 -0.6429674 -0.0682159 0.12516408 -0.3812557 0.26504704 0.11684913 -0.42285097
0.2961086 0.16259041 0.67909336 0.091631554 0.5694189 -0.025138414 0.10440118 0.43726745
-0.54630864 0.32161605 0.32602778 -0.27926353 0.019240132 0.29836932 -0.03592425 -0.12348448
0.15338075 -0.13823862 -0.03559717 0.17892398 -0.5908762 -0.14324264 -0.0126390895 0.19635443
-0.24968007 0.34569123 0.42747158 0.27837107 -0.08220878 -0.39531627 -0.03839375 -0.22801746
-0.23114266 -0.15855119 -0.21385041 0.3102482 -0.40784127 0.13936056 -0.020603092 -0.3023342
-0.010828103 -0.4144435 -0.25909388 -0.39856556 0.33312768 -0.071077935 0.113753706 -0.008695773
-0.5352932 -0.08062618 0.06516224 0.20847198 -1.0206044 0.22370245 -0.28116155 0.14675432
0.049007427 -0.09022242 0.12790947 -0.026989967 -0.22447547 -0.35691595 0.08932348 -0.06177386
0.29052 -0.1410222 -0.062160954 -0.8798243 -0.22331862 -0.09582052 -0.18018498 -0.17495632
-0.20254546 -0.27909404 0.17573676 -0.19106172 -0.6008624 -0.41204897 -0.007549202 -0.8207381
-0.01718423 -0.45581752 -0.044778123 -0.21743488 0.3478044 -0.47261217 -0.04755313 -0.06910231
0.22679362 -0.019694729 -0.29943708 -0.025033783 -0.04568368 0.30978218 -0.55781 0.10569019
-0.056499198 0.081714705 0.021158332 0.22664814 -0.013587676 -0.10341807 0.18799616 -0.68653095
-0.046309482 -0.06233239 -0.5800169 -0.35848498 0.40272254 -0.04069439 0.07989951 0.20972562
-0.59881455 0.1266701 0.02766081 -0.5106845 0.1409385 -0.39761043 0.05478294 0.05991335
-0.7558501 0.3947225 -0.20733178 0.5120573 0.101088084 0.14849052 -0.078876846 -0.58455205
-0.8343839 -0.09452297 -0.0395109 0.24053134 0.18953097 0.020884661 -0.16476117 -0.11116178
0.14749347 -1.0306569 -0.63488233 0.13756019 0.12270433 0.2425949 -0.23501407 -0.13243857
00000000: e73d 98be cd3d c4bd 88ea 99bd 885f 003e
00000010: ff8a 6fbe d319 e1bd 43cc 24bf 2a7c a6be
00000020: 60ed 89be 18ea 0abe 5ab5 b7be 74a6 a63e
00000030: 93bb fb3d 9300 a8bd 4561 32be 29a2 61be
00000040: d572 0cbf f4c1 35be 39fd 31be c38b 033c
00000050: d277 6a3e 42e5 06bc 3d76 fabd f468 c8bd
00000060: 9536 39bf c970 edbe 3d9b bb3e fd2b 06bd
00000070: b1ec 88be 2e4b dcbe 28f6 393e ddd1 4bbe
00000080: 9be9 8e3d 980f 12bf 5aef 9c3b 6cc9 d43e
00000090: fb3d 05be cc11 67bd ce75 903e f3f4 32bd
000000a0: 7837 8dbe 9ba6 67be 187a 993d 14da f9bd
000000b0: 5abd 7d3e 6d2d 37bf 2593 88bd 49a7 cc3e
000000c0: 83a9 a639 db82 39bf 5ecf 05be c258 1a3e
000000d0: dd56 b03e f36c bdbe 43d4 6dbc a092 21be
000000e0: daec d93e 27bd 0ebe cc35 36bf 6a7f 8bbe
000000f0: 623e 09be 3b1c 773d 8fd0 10bf 4666 6fbe
00000100: e5f7 3abe 43e5 6a3e 219a 82bc fdbc 3c3e
00000110: 4ba8 583e 8023 4d3e 9660 2a3e 8524 60be
00000120: fbb3 2a3e 04cc 3c3c 460a e4be ce18 91be
00000130: a329 b03e b01e 1c3d cd62 443d 0fe3 093e
00000140: 0b6e 69be 85ee 9f3d 4b21 623e 46e0 93ba
00000150: 2e94 803b 61bc 27bf 1aa3 97be 4603 973c
00000160: 8d8e 4bbf 4793 2d3e 2327 5dbe 1bef 283f
00000170: dd0e 03be 09f2 2a3e 52e1 c13c abba c6be
00000180: 5ed3 e5be 9209 993d e84b 723e 74f2 bfbc
00000190: 8bfa 2c3d 6f4e 813d 128d 92be e325 933e
000001a0: 5d08 8e3e 8399 24bf c7b4 8bbd 032b 003e
000001b0: f233 c3be 3fb4 873e 994e ef3d ec7f d8be
000001c0: 8c9b 973e 1a7e 263e 10d9 2d3f 53a9 bb3d
000001d0: 70c5 113f 13ef cdbc 49d0 d53d 85e1 df3e
000001e0: e2da 0bbf dcaa a43e 1ded a63e a1fb 8ebe
000001f0: 7b9d 9d3c ddc3 983e 4e25 13bd 6ee5 fcbd
00000200: d80f 1d3e 6d8e 0dbe 57ce 11bd d937 373e
00000210: aa43 17bf 33ae 12be 2f14 4fbc 2311 493e
00000220: 22ac 7fbe 71fe b03e 8edd da3e a786 8e3e
00000230: 145d a8bd e566 cabe c442 1dbd 697d 69be
00000240: a9b0 6cbe 3e5b 22be 9afb 5abe dad8 9e3e
00000250: 92d0 d0be 89b4 0e3e d1c7 a8bc 8ccb 9abe
00000260: 5b68 31bc f031 d4be f4a7 84be c910 ccbe
00000270: b68f aa3e 4f91 91bd b4f7 e83d b778 0ebc
00000280: fa08 09bf 571f a5bd c873 853d ae79 553e
00000290: 2aa3 82bf 4112 653e 68f4 8fbe c446 163e
000002a0: 03bc 483d 88c6 b8bd b3fa 023e 101a ddbc
000002b0: e6dc 65be b0bd b6be 3bef b63d 9606 7dbd
000002c0: 0abf 943e 2068 10be 7c9c 7ebd 2a3c 61bf
000002d0: a3ad 64be 8c3d c4bd 6982 38be c027 33be
000002e0: 1468 4fbe 6ae5 8ebe 56f4 333e afa5 43be
000002f0: 1ed2 19bf 15f8 d2be 4c5f f7bb e41b 52bf
00000300: f1c5 8cbc ea60 e9be 4469 37bd 40a7 5ebe
00000310: 6b13 b23e 39fa f1be 12c7 42bd 8385 8dbd
00000320: 963c 683e d756 a1bc d14f 99be a613 cdbc
00000330: cf1e 3bbd c59b 9e3e a3cc 0ebf 1974 d83d
00000340: b46b 67bd 0a5a a73d 3d54 ad3c 7316 683e
00000350: d89e 5ebc dacc d3bd 1182 403e 7ec0 2fbf
00000360: 03af 3dbd 4050 7fbd fd7b 14bf 588b b7be
00000370: a631 ce3e 29af 26bd 5ba2 a33d 50c2 563e
00000380: e94b 19bf cfb5 013e ec98 e23c 38bc 02bf
00000390: 2f52 103e 9893 cbbe 1364 603d b367 753d
000003a0: 647f 41bf 1119 ca3e c84e 54be 3016 033f
000003b0: 4507 cf3d e60d 183e 2f8a a1bd 34a5 15bf
000003c0: 2f9a 55bf 4295 c1bd 2ed6 21bd d94d 763e
000003d0: 6814 423e 4f16 ab3c 27b7 28be caa8 e3bd
000003e0: 8708 173e 91ec 83bf a687 22bf 94dc 0c3e
000003f0: 684c fb3d cc6a 783e 87a7 70be fa9d 07be

conv_layers.1.bias f4 [32]
0.02048241 0.049736373 -0.06525915 0.10083907 0.1194633 -0.10811379 0.11556322 -0.06632116
-0.043723024 -0.062090375 0.027055023 0.108769715 -0.029799532 -0.05392984 0.047278874 -0.09284051
0.14742334 0.006331267 -0.09060474 -0.0984217 0.13996892 -0.11245902 0.13983712 -0.079765625
-0.055297952 0.13823028 0.023545513 0.07440649 0.022253873 0.08292341 -0.14476499 -0.11733589
00000000: baca a73c 5eb8 4b3d 97a6 85bd b784 ce3d
00000010: 2da9 f43d c36a ddbd 69ac ec3d 63d3 87bd
00000020: ea16 33bd 7a52 7ebd 7fa2 dd3c a8c2 de3d
00000030: 261e f4bc 89e5 5cbd 7ea7 413d 2a23 bebd
00000040: 25f6 163e 8476 cf3b fa8e b9bd 5191 c9bd
00000050: 0354 0f3e ea50 e6bd 7631 0f3e 295c a3bd
00000060: 1b80 62bd 3d8c 0d3e 85e2 c03c 6e62 983d
00000070: c14d b63c c0d3 a93d 463d 14be cd4d f0bd

bn_layers.0.weight f4 [16]
1.0796899 1.0280263 0.9351251 0.85626364 1.0660573 0.9704983 1.0147562 1.1025088
0.9113823 0.8782362 0.7775617 1.1017128 0.91276306 0.96201307 1.0044614 1.0287021
00000000: 4733 8a3f 5e96 833f 5c64 6f3f 1834 5b3f
00000010: 9174 883f 9472 783f 88e3 813f 021f 8d3f
00000020: 5a50 693f 16d4 603f 490e 473f ed04 8d3f
00000030: d7aa 693f 7d46 763f 3192 803f 83ac 833f

bn_layers.0.bias f4 [16]
-0.68630874 -0.4580294 -0.37161738 -0.4338723 -0.3164696 -0.36777285 -0.4176788 -0.23091634
-0.52448094 -0.15492883 0.13611758 -0.50643444 -0.3099138 -0.35359782 -0.58202726 -0.81707233
00000000: eeb1 2fbf d482 eabe a244 bebe 8324 debe
00000010: 4e08 a2be b94c bcbe ffd9 d5be 5575 6cbe
00000020: 6244 06bf aaa5 1ebe 6862 0b3e b0a5 01bf
00000030: 06ad 9ebe c60a b5be bdff 14bf a72b 51bf

bn_layers.0.running_mean f4 [16]
0.009952388 -0.37304822 0.49883658 -0.6008992 -0.448708 -0.09762889 0.010885887 -0.12732178
-0.058944505 -0.24677111 -0.2409812 -0.16447075 -0.23051515 -0.051287405 -0.005062804 -0.017596977
00000000: 570f 233c 2d00 bfbe 8267 ff3e 88d4 19bf
00000010: 0ebd e5be a8f1 c7bd b85a 323c a460 02be
00000020: cb6f 71bd 91b1 7cbe c7c3 76be 056b 28be
00000030: 2a0c 6cbe be12 52bd e1e5 a5bb 8927 90bc

bn_layers.0.running_var f4 [16]
0.5717577 0.41680932 0.5388021 0.35274005 0.45913956 0.83952683 0.28259185 0.41393977
0.56751364 0.61890787 0.31205487 0.48838642 0.32019967 0.26750776 0.61993814 0.9218616
00000000: b65e 123f 0868 d53e efee 093f 589a b43e
00000010: 5714 eb3e 3beb 563f e1af 903e eaef d33e
00000020: 9348 113f bf70 1e3f a8c5 9f3e c90d fa3e
00000030: 36f1 a33e c7f6 883e 44b4 1e3f 1fff 6b3f

bn_layers.1.weight f4 [32]
1.2660491 1.320446 0.7582174 1.1458532 1.1199661 1.1486404 1.0383791 1.0948431
1.1840932 0.95204926 1.2963018 1.0240108 1.071317 1.0922805 1.4962177 1.1239897
1.2209139 0.9468926 1.2365413 1.0403982 0.83512825 0.82004195 1.0370396 0.7625525
0.7985293 0.8297604 1.0050898 0.8362303 0.8276781 1.1804142 0.9252647 1.0939335
00000000: e60d a23f 6004 a93f 891a 423f 51ab 923f
00000010: 0d5b 8f3f a606 933f 9be9 843f d223 8c3f
00000020: 5e90 973f 80b9 733f 38ed a53f c912 833f
00000030: ea20 893f d9cf 8b3f 1084 bf3f e5de 8f3f
00000040: e846 9c3f 8e67 723f fc46 9e3f c52b 853f
00000050: f7ca 553f 45ee 513f b7bd 843f a436 433f
00000060: 6b6c 4c3f 2d6b 543f c8a6 803f 3013 563f
00000070: b6e2 533f d017 973f 26de 6c3f 0306 8c3f

bn_layers.1.bias f4 [32]
-0.18057972 -0.38120824 -0.3157323 -0.21037722 -0.2800413 -0.2264567 -0.24505344 -0.45147517
-0.2865718 -0.28382397 -0.5577428 -0.3386698 -0.48492396 -0.11334878 -0.18074657 -0.39489356
-0.26849386 -0.21384482 -0.086262986 -0.2537458 -0.12955245 -0.47081974 -0.30274352 -0.41397768
-0.46143538 -0.23771825 -0.36704603 -0.52573824 -0.41874194 -0.30379608 0.047925435 -0.2773755
00000000: e4e9 38be ba2d c3be aaa7 a1be 206d 57be
00000010: 9361 8fbe 44e4 67be 4aef 7abe c127 e7be
00000020: 8ab9 92be 6051 91be 3bc8 0ebf 2166 adbe
00000030: f447 f8be 6823 e8bd a115 39be 7d2f cabe
00000040: 0778 89be 23fa 5abe a6aa b0bd f8ea 81be
00000050: 66a9 04be 490f f1be 3301 9bbe e2f4 d3be
00000060: 4241 ecbe 6a6c 73be 75ed bbbe c896 06bf
00000070: 5865 d6be 298b 9bbe 764d 443d 2904 8ebe

bn_layers.1.running_mean f4 [32]
-2.2425356 -1.0037984 0.66285855 -2.221408 -1.2917372 -0.8835204 -0.97259915 -1.3151804
-2.0845692 -3.4212878 -2.1265051 -0.59904855 -0.8358854 -0.2104299 -3.8338122 -4.366669
-1.707039 -2.425665 0.650613 -1.296207 0.78622514 0.06239109 -1.1684585 -1.8968761
1.6110694 0.6176018 0.21244524 -1.2588274 -0.8388465 -1.0500139 0.4679796 -1.7312284
00000000: b485 0fc0 777c 80bf 19b1 293f 8c2b 0ec0
00000010: a557 a5bf 652e 62bf 42fc 78bf d557 a8bf
00000020: 9569 05c0 61f6 5ac0 a918 08c0 3f5b 19bf
00000030: 96fc 55bf f07a 57be 2e5d 75c0 c1bb 8bc0
00000040: 4180 dabf 183e 1bc0 938e 263f 1cea a5bf
00000050: 0d46 493f cd8d 7f3d 0c90 95bf d6cc f2bf
00000060: 8637 ce3f 271b 1e3f 3f8b 593e 4221 a1bf
00000070: a5be 56bf db66 86bf 069b ef3e e498 ddbf

bn_layers.1.running_var f4 [32]
4.972301 5.0866637 2.7805681 5.355649 6.2706604 6.016506 3.8086505 4.663716
5.1848187 6.644951 5.9556255 5.2567196 5.7462854 4.6483216 6.525975 6.595824
5.892132 5.244622 4.9131007 5.5088925 5.6188645 4.9809575 6.057902 3.257684
5.171381 4.1449823 6.3365912 3.182952 3.8731673 5.9493613 4.3766155 5.585832
00000000: 171d 9f40 f3c5 a240 d4f4 3140 7a61 ab40
00000010: 40a9 c840 3887 c040 eec0 7340 293d 9540
00000020: 09ea a540 70a3 d440 7c94 be40 0c37 a840
00000030: 92e1 b740 0dbf 9440 cad4 d040 fd10 d340
00000040: 588c bc40 f2d3 a740 1f38 9d40 d948 b040
00000050: bdcd b340 0164 9f40 55da c140 e57d 5040
00000060: f47b a540 b2a3 8440 5bc5 ca40 7cb5 4b40
00000070: f9e1 7740 2b61 be40 3c0d 8c40 23bf b240
