government_icfes_dataset/checkpoints/model_classification_20250522_000640.pt (torch, 394351 bytes, 39 tensors)

embeddings.0.weight f4 [4, 4]
00000000: 3b09 00be 4597 3ac0 92e8 ee3f 88fb 2d3f
00000010: 85f3 493e 616b dd3f 98d9 09c0 a53f 623f
00000020: 3ad7 65be 72c1 4abe 57aa 4fbe 1f03 90be
00000030: ea9e 17bf e651 bebf 41ae c6bf 640b 6bbe
-0.12503521 -2.9154828 1.8664725 0.6796193 0.19721802 1.7298394 -2.1539059 0.88378364
-0.22445384 -0.19800356 -0.20279823 -0.2812738 -0.5922686 -1.4868743 -1.5521928 -0.22953564

embeddings.1.weight f4 [3, 4]
00000000: 8ef3 c6be 9ac5 b6bf 8c01 c23f 232e a4be
00000010: 5e5e 0a40 1465 0ac0 4cb4 41bf 7260 b3bf
00000020: d304 40bf b090 393f 8a86 293f 263b 97bc
-0.38857692 -1.4279053 1.5156722 -0.3206645 2.1620097 -2.1624193 -0.75665736 -1.4013808
-0.7500736 0.724864 0.66220915 -0.018460821

embeddings.2.weight f4 [5, 4]
00000000: 6200 7cbf c0a0 0abe bd3d f2bf 405b 95bf
00000010: d829 b93c 0286 32c0 569b e5bf ca28 43bf
00000020: cae7 583d 3ae6 613f 74db 3ebe 4993 cebf
00000030: 8ec9 143e d317 643f 76ae 07bf 440e 683e
00000040: 401e 8fbd 042a 8f3e 13be 52bf ba94 5dbf
-0.98438084 -0.13537884 -1.8925091 -1.1668472 0.02260296 -2.7894292 -1.793803 -0.76234114
0.052955426 0.8824192 -0.18638402 -1.6138698 0.14530012 0.8909885 -0.5300058 0.22661692
-0.069881916 0.27961743 -0.8232128 -0.86555064

embeddings.3.weight f4 [7, 4]
00000000: d5cd b33e 54ab dbbd 79a3 9ebe aeec 663e
00000010: e8c6 85bf ba55 5ebf 81bf 343f 07f9 93bf
00000020: 4990 3c3f 56c5 c2bf eb80 363f 9f04 e53e
00000030: 7d9a fbbe 179b 823e 4d43 95bd febe d63e
00000040: 55c2 743f 22ef 03c0 bedd 2c3f 2ce9 46c0
00000050: bb90 643c 2996 053f 13b0 a8be 3891 343e
00000060: b5cc f03e eecc 4d3f 2486 6c3d 8944 f53f
0.35117975 -0.107260376 -0.30984095 0.22551224 -1.0451326 -0.8684956 0.7060471 -1.1560372
0.7365766 -1.5216472 0.71290463 0.44730088 -0.49141303 0.2550895 -0.07288227 0.4194259
0.9560903 -2.0614705 0.6752585 -3.1079817 0.013950522 0.5218225 -0.32946834 0.17633522
0.4703118 0.8039082 0.057745114 1.916154

embeddings.4.weight f4 [7, 4]
00000000: 7f96 6cbf 4eb6 04bf 76d6 72be f4fa 1fbf
00000010: ab48 bdbf c1cf 0c3f 0d23 95bf 089d 77bd
00000020: c435 f7be 9ba7 0cc0 b78d f93f f53a 2bc0
00000030: 13a7 0b3f 51da ecbf 1e0a 1140 af4c d63f
00000040: 6bf1 82bf 6ff1 d43e f0db 69bf c591 0a3f
00000050: 154a 14c0 f054 abbf 4acd efbf 660e bfbf
00000060: b96d d73f 2918 273e d77a 85bf 42f6 673e
-0.9241714 -0.51840675 -0.23714623 -0.624923 -1.4787802 0.5500451 -1.1651322 -0.06045249
-0.48283207 -2.1977298 1.9496373 -2.6754735 0.5455181 -1.8504125 2.2662425 1.6742152
-1.0229925 0.4159045 -0.91351223 0.54128677 -2.3170216 -1.3385296 -1.8734524 -1.4926269
1.683036 0.1631781 -1.0428113 0.22652534

embeddings.5.weight f4 [1025, 4]
00000000: 8b10 243f a552 babf d8c0 87be f923 c3be
00000010: 357c 0fc0 33e9 863f 2be6 e43f 256f d3bf
00000020: a0d6 62be 0c5f 0dbf abc3 7abf 2b48 53bf
00000030: c8fc 2ebf e23d a53f 9de7 71bf 6d0d 1e40
00000040: 4388 83bf de98 3e3f f701 16c0 107f 1bc0
00000050: 1678 0a40 b036 8cbf 8f1a 55bf 6c86 223f
00000060: d2da 663f 4833 40bf 6c60 a53f 4af9 c7be
00000070: 217a 80bf 564b 9dbd 7965 f8bb 7e07 c43f
00000080: 0b5c a13e 5f10 9a3f 5373 023f dffe 26bf
00000090: 48d6 23bf 2c0a 28bf 9372 bbbe 84af b7be
000000a0: 8d1f 793e 5c8d 053d d80b f83e a51f 553f
000000b0: c0d2 d43d feb8 973f 42b7 d33e 50f9 dc3d
000000c0: 639c 02bf 444f 303f ce9b 75be 1608 ac3e
000000d0: 75bd 1d3d f442 4f3f 8f5c 1140 ab72 1540
000000e0: 1f4a 6a3e b388 6a3e 20f5 d7bf 0214 d0bf
000000f0: c833 4b3f b5bc 35c0 447f cdbf 34a7 96bc
00000100: 9853 7e3f 4fdd 44be 665b dfbe 4126 0f3f
00000110: 299a b0be 89f4 f1be 2417 fdbe c48c a5be
00000120: 1665 f53e c252 eebe 04d0 59be 872b bd3d
00000130: 0887 3040 bea4 2a40 1f81 04c0 2301 523f
00000140: d292 313f 8fda 193f 4736 c83e fa6f 82bf
00000150: 2eaa 99bf 5434 14bf 3e9e 963c def0 0cc0
00000160: cb5d 70bf 0fda 5b3f fd03 f73f 447d e7bf
00000170: bc9a fd3e a581 413f 7ae3 173e bfaf 33bd
00000180: 7f34 72be fbe9 8dbd 5c1a 54bd e12f 1a3e
00000190: 733a 40c0 f85d ca3e b9d2 a440 05ce c33f
000001a0: 5740 aebf 9d65 693f afb5 acbf 23d8 6b3f
000001b0: 947b acbf 58e1 d33e 0ceb c83f d99a 0f3b
000001c0: 3a9c 1b40 1fda d5bf a4a0 9a3e 99cc d7bf
000001d0: 0629 9dbf f1e2 5dc0 15ec f8bf 7c74 9ebd
000001e0: bd39 b03f cb2e 4fc0 16d6 943e 4877 ab3f
000001f0: 3de8 013f db33 0e3f 5397 e23d dcee 38bf
00000200: 01ec 953e 6a48 c9be 4948 17bf dad1 0dbf
00000210: da3f 7e3f 9253 fe3e 667d 12bf c222 25bf
00000220: 031c 1c3f a40d ebbe ca13 1e3f 65c1 ed3b
00000230: f9d5 00bf 5c65 4e3f 40e6 c1bf 375a 153f
00000240: d8b1 84be 9a63 db3f 3ea5 8ebe 4940 0ec0
00000250: 98f0 293f 2929 b03f 42a4 adbf 87a7 893e
00000260: 438b 7e3e 7014 c1bf 52da 6f3f 93e0 0540
00000270: 4eed a2bd d5c3 323f 7b6a 30c0 41ed 91bf
00000280: c67f 76bf 4a44 533f 6093 4940 ad73 3e3f
00000290: cca4 583f 2e6e bcbf 9d7b 2fc0 67ab b03f
000002a0: fd6c c23f 47de bd3f 0c23 27bf 39be 913f
000002b0: e252 bfbf a654 653f 8831 50be d4cf 06bf
000002c0: 93f8 40c0 bef4 4e40 54fc 1fc0 b408 3440
000002d0: db16 4540 4a44 15c0 04bf 1040 ba28 70bf
000002e0: 5247 4cbe d999 343d e0a1 1cbf 5e86 b1bf
000002f0: 12c4 6740 cc52 473f 42ff f7be 2d90 03c0
00000300: 46d9 a13f 9256 3ebf 6768 2640 fb9e abbf
00000310: 59c3 d13e 6b90 743f 3eeb 453e 08bc c6bd
00000320: 98cc e53d 7e13 01be bd50 1b3e 04d7 0e3f
00000330: 673f 1dbf 421d 57bd 6882 133e 2553 0abf
00000340: d90e 453f be4f 073e 4c19 76be 6b8c 6fbe
00000350: b901 013f 9c87 053f 5e55 8e3f a34f b63f
00000360: 640f 353f 2349 4fbf f909 7bbe d985 57bf
00000370: ce07 0840 3b5c 85bf 789c 2540 716e 0c3f
00000380: 9404 82be 7b63 403d b426 673d ce00 d13d
00000390: e4f3 2340 ea74 d2bf 3c4e fa3f 8ba1 dfbf
000003a0: 57fa 01be aa1b 0b40 9ca8 853f 42b0 043f
000003b0: 827b 26bf 17dd a13f c82f 993d 7000 da3f
000003c0: 07c6 11be 2078 d9bb 2cf4 4a3d 6d38 1140
000003d0: a208 58be 25c2 413e e775 e13f 3163 0cbf
000003e0: fc7f c9bf 4702 48c0 2402 863f 398c 7cbf
000003f0: 7360 7740 e8fb 4140 b89b fbbf 2149 35c0
0.6408774 -1.4556471 -0.26514316 -0.38113382 -2.241956 1.0539917 1.7882742 -1.6518294
-0.22152185 -0.55223155 -0.97954816 -0.82531995 -0.68354464 1.290951 -0.9449404 2.4695694
-1.0275959 0.74452007 -2.34387 -2.4296303 2.1635795 -1.0954189 -0.8324365 0.6348636
0.90177643 -0.7507825 1.2920051 -0.3905738 -1.0037271 -0.07680385 -0.007580456 1.5314786
0.31515536 1.2036246 0.5095722 -0.6523265 -0.6399884 -0.6564052 -0.3661085 -0.35876095
0.24328442 0.032605514 0.48446536 0.8325141 0.1039176 1.185333 0.41350752 0.1078974
-0.5101988 0.6887095 -0.23985216 0.3359992 0.03851076 0.8096154 2.2712743 2.3351238
0.22879837 0.22903709 -1.6871681 -1.6256106 0.79375887 -2.8396428 -1.6054463 -0.018390276
0.99346304 -0.19225048 -0.4362442 0.55917746 -0.34492615 -0.47256878 -0.49431717 -0.32333958
0.47928685 -0.46547514 -0.21270758 0.09236818 2.7582417 2.666305 -2.070381 0.82032984
0.69364655 0.6009912 0.3910391 -1.0190423 -1.200506 -0.57892346 0.018386003 -2.2022014
-0.93893117 0.85879606 1.9298092 -1.8085103 0.49532115 0.75588447 0.14832869 -0.043868776
-0.23652838 -0.06929394 -0.05178295 0.15057327 -3.0035675 0.39524817 5.150723 1.5297247
-1.3613385 0.91170675 -1.3492945 0.92126673 -1.3475213 0.4138286 1.5696731 0.0021912365
2.4314103 -1.670719 0.30200684 -1.6859313 -1.2278144 -3.4669764 -1.9447047 -0.077370614
1.376762 -3.237231 0.29069585 1.3395777 0.5074499 0.55547875 0.11064019 -0.7223947
0.2928162 -0.3931306 -0.59094673 -0.55398333 0.9931618 0.49673134 -0.5722259 -0.6450616
0.6098024 -0.45908844 0.61748946 0.0072557204 -0.50326496 0.8062341 -1.5148392 0.5834078
-0.25916934 1.7139771 -0.27860445 -2.2226737 0.6638274 1.3762561 -1.3565753 0.26885626
0.24857812 -1.5084362 0.93692505 2.091832 -0.079554185 0.69830066 -2.756499 -1.1400529
-0.96288717 0.82526076 3.14962 0.7439526 0.8462646 -1.4721124 -2.7419198 1.3802308
1.518951 1.4833459 -0.6528785 1.1386176 -1.4947169 0.8958229 -0.20331395 -0.5266087
-3.0151718 3.2336879 -2.499776 2.8130312 3.07952 -2.332293 2.2616587 -0.93812144
-0.19949082 0.044092033 -0.611845 -1.3869131 3.6213422 0.77860713 -0.48436934 -2.0556748
1.2644432 -0.74350846 2.6001222 -1.3407892 0.4096935 0.95532864 0.19328019 -0.09703833
0.11220664 -0.12605092 0.15167518 0.5579684 -0.6142487 -0.052518137 0.14405215 -0.5403312
0.7697578 0.13214013 -0.24033087 -0.23393409 0.50393254 0.5216005 1.1119802 1.4243053
0.7072661 -0.8097097 -0.24515523 -0.8418861 2.1254764 -1.0418772 2.587675 0.5485602
-0.25394118 0.046969872 0.056433395 0.102052316 2.561761 -1.6441929 1.9555125 -1.7471174
-0.12693153 2.1735635 1.044208 0.5183145 -0.6503221 1.2645596 0.07479817 1.7031384
-0.14235698 -0.0066366345 0.049549267 2.269069 -0.21097043 0.18921717 1.7614106 -0.54838854
-1.5742183 -3.125139 1.0469403 -0.9865146 3.8652618 3.0310001 -1.9656897 -2.8325884

embeddings.6.weight f4 [3, 4]
00000000: 50db ab3f d910 41be 0e0a 12c0 6652 43be
00000010: 63da a3be c438 433f 6cf3 09bb f51a 313f
00000020: a48a b1bf cd7a 983e 31ee 1140 4fe5 d73e
1.3426304 -0.18854083 -2.2818637 -0.19074401 -0.32002553 0.7625849 -0.0021049632 0.6918176
-1.3870435 0.2978119 2.280163 0.42167136

embeddings.7.weight f4 [7, 4]
00000000: e7e6 6bbf 30ef c73e d722 6dbd d922 a73e
00000010: c531 8abe c8f6 313f 0404 ff3f c991 0840
00000020: 6915 d03f eb3f f1be 6837 52bf b129 66bf
00000030: 9a5a 80bf 0eec bf3e 58c0 90bf 86a1 36bf
00000040: 6636 99be 9a58 273f 60d1 44bf 82ff 3e3f
00000050: 37a7 efbe 3a1a 653e 0154 2f3e f1c9 50bf
00000060: cf3d 5e3e 6d81 923f 72d6 69bf af49 133f
-0.92149204 0.39049673 -0.057894554 0.32643774 -0.26991096 0.69517183 1.99231 2.133898
1.6256534 -0.47119078 -0.82115793 -0.89907366 -1.0027649 0.37484783 -1.1308699 -0.71340215
-0.29924315 0.6536957 -0.7688198 0.74608624 -0.46807262 0.22373286 0.17121889 -0.8155814
0.21703266 1.1445748 -0.9134284 0.5753431

embeddings.8.weight f4 [7, 4]
00000000: 2f7b 99be 69b0 e5be abbe bbbe af89 813f
00000010: c081 ad3f 4b17 833f 989b b0bf a611 0bbf
00000020: 506f f9be a75c 503f 28fa d9bd d369 98be
00000030: 44db c0bf e8de c23e 1dd3 183f 09fe f4be
00000040: 1462 5dbe 0ca1 4c3f 0de7 f6be 8e9d 65be
00000050: 3fb2 193f c7a6 303f 247c 65bf c3b8 29bf
00000060: 5147 cebf 7d43 91bf ece9 46bf caec 1fbf
-0.29976794 -0.44861153 -0.36668906 1.0120143 1.3555222 1.0241483 -1.3797483 -0.54323804
-0.48717737 0.81391376 -0.10643417 -0.29768237 -1.5066915 0.3806069 0.59697133 -0.47850063
-0.21619445 0.7993324 -0.48223153 -0.22423384 0.60037607 0.6900448 -0.8964255 -0.6629755
-1.6115514 -1.1348721 -0.77700686 -0.62470686

embeddings.9.weight f4 [3, 4]
00000000: e14c 0a40 b0c1 aabf 71e0 ad3f 8230 a8be
00000010: d52e 3ebe 6515 17be cd45 bdbe d288 b1be
00000020: 2953 183e 6f1e 2740 d4f8 ba3f acc4 333f
2.1609423 -1.3340359 1.3584119 -0.3284951 -0.18572553 -0.14754255 -0.36967316 -0.34674698
0.14875473 2.6112325 1.4607186 0.7022197

embeddings.10.weight f4 [427, 4]
00000000: 9c39 ee3e f54a 35bf b6ae 55bf caa3 13bf
00000010: 42a6 52bf a2f1 0ac0 207a 8d3e 9f65 763f
00000020: 10a4 10c0 7f0a 173e a2a1 acbe 994b b2be
00000030: 6e1f 82bf 8d1a d9be 1ee7 9fbe be3f 9d3d
00000040: 6e2d db3f 67e9 46bf 2caa cbbf 751b 83be
00000050: 105e 0abe cddd 64be 65f5 02c0 d777 bf3f
00000060: e1db 003e 0a10 f0bf 2000 ba3f d5d6 afbf
00000070: 174a ed3f 81b4 86bf bdd9 9d3e 6dad 2d3e
00000080: 07a2 7a3f 9aa0 afbd cdf3 243e 9c47 933e
00000090: ef47 1240 d545 5140 3601 1c40 85dc 15c0
000000a0: feb4 b6bc f00b 0bc0 bd66 973f 14c4 b13f
000000b0: e86f 75bf bed5 96bf df69 08bf 6185 a53f
000000c0: b735 e73f c2fd 96bf e82d 3dbf a76f 64be
000000d0: e9a4 d43e 2d29 09bf 2fa9 94be c3fc bcbf
000000e0: 4e8c 283b 3fc6 3abf 3312 afbf 45fd ca3f
000000f0: dac3 61bf 5355 3b3f 0f64 883f bd06 43bf
00000100: 4039 46be 8b26 813f 2aab dbbf 0c49 88bf
00000110: 5381 bf3f a5de 8e3e 81e5 f13f 8e99 c33d
00000120: befb 723f 69f1 b1bf 2a50 a7bf f20b 3d3f
00000130: 728c 63bf c588 6fbe ccca 603f ea3e e7be
00000140: 00cf 33bf 739c b43e a21b 13bf 3987 f1be
00000150: f68d 9cbf 70be 22bf 143c cb3d e9f1 4d3f
00000160: 898e 823f 64c2 25bf 4056 25be 5eec 263f
00000170: 6401 88bf 24c9 bdbf c4a5 f6be 24a6 6bbd
00000180: df5e 38bf 2d02 af3f f1b3 c73f d15f 0fc0
00000190: f09c 85be 1d37 7b3f 55bf d4bf c990 1b3e
000001a0: 45dd a1be 5fc7 263f 002d afbf ecb1 123f
000001b0: f1b8 91bf 612f d0be f963 e2be 590d a7be
000001c0: 9ef5 77bf c57d 233f c2d8 74bd 6391 003e
000001d0: 361f 7c3e 7b10 3bbf 5527 a3be 7540 c2bf
000001e0: 0937 793f 6cc2 f73d 9ca7 4c3f 211b 8abf
000001f0: a691 62bf ea9e 70bf a241 66bf 0065 2cbf
00000200: a86f 56c0 3139 b13f 5877 49be d1c2 37bd
00000210: 7282 303f e1d6 4fbf 9060 ffbe 42ce a9be
00000220: ea1f 933f 326b 3fbf f04d 56bf 3d7a 1abf
00000230: 5f88 2ec0 daa9 473f d060 49bf 7213 08bf
00000240: e19b 76bf e37a 5bbe ed4a 2fbe 4486 abbe
00000250: 8727 553f 8a8f e23f a72c f43f cec1 3e40
00000260: dde9 1dc0 561f bd3e 527b 85bc 73d7 23bf
00000270: eff5 04c0 98b8 063d 3a45 59be a1a4 2c3d
00000280: f250 813f 3bae 92bf 07df a03f 808a 90bf
00000290: 5428 04bf e066 aa3e fa94 803e 968d d9be
000002a0: 0d72 fdbf 00f1 a4be 39da a7be 45c9 62be
000002b0: 4f94 aebf ab07 9a3f 8f55 fbbe 57fa 263d
000002c0: fb77 b0bf e6f4 a43f 9246 0fbe 8b3d 4c3f
000002d0: 941b c7be 32aa d7bf 4ab3 d53f c049 cabf
000002e0: 8b73 6ebf b5dc 33bf 1dd8 a53e d66f 7bbf
000002f0: d75f 4ebf a191 6bbf 21b7 3cbf 803b 56bf
00000300: 08ea 22be 0fe1 1c3f 4430 dabf e435 003f
00000310: e50e 963f 803f acbf 8597 0dbf 72dc 3c3f
00000320: ee7f c8bc 21dd 7bbf be82 b23f 73bb bc3d
00000330: 32c7 3e3f 9fc1 f4be b3ad c1be b7d3 46be
00000340: 4214 563f c240 423e 866b 9a3d a930 5ebf
00000350: b34a 073e 3c22 94bf 4c2e fabf ac43 6d3f
00000360: 29cd c93f 8504 fb3f 25d2 f33e 9c12 fc3e
00000370: d71d 56bf c594 e9bc 1c87 ff3c ec10 5a3e
00000380: 2961 ecbd b097 a3bd 7282 93bf 10d4 1c3f
00000390: f9d5 0ebf 010c 81be 116b 473e 9c4e 67bf
000003a0: 90eb 7f3e 90d6 7d3f 7693 223f a443 2e3d
000003b0: 8dbf 2dc0 7788 8b3e f918 a63e f0b9 43bf
000003c0: eb38 90bd f433 c2be 974f 07be 7708 f53f
000003d0: a12e 5840 e4ed de3f 41d5 8cbf 445f 0b40
000003e0: a993 90bf 8614 10bc 25e7 4fbe ae88 bd3d
000003f0: e7e9 033f 31b0 64be 96ea cd3e 0245 583f
0.46528327 -0.708175 -0.8346971 -0.576718 -0.8228494 -2.170998 0.27632236 0.9624881
-2.2600136 0.14750098 -0.33717066 -0.348233 -1.0165842 -0.4240307 -0.31231016 0.076781735
1.7123239 -0.77699894 -1.5911307 -0.25606886 -0.13512444 -0.22350235 -2.0462277 1.4958447
0.12583877 -1.8754895 1.4531288 -1.3737437 1.8538235 -1.0523835 0.30830184 0.16960688
0.97903484 -0.08575554 0.16108628 0.2876557 2.2856405 3.2698872 2.437574 -2.3415844
-0.0223031 -2.1726036 1.1828228 1.3887963 -0.9587388 -1.1783979 -0.53286546 1.2931329
1.8063267 -1.1796191 -0.7389817 -0.22308217 0.41532066 -0.53578454 -0.29035327 -1.4764637
0.0025718394 -0.7295875 -1.3677429 1.5858542 -0.8818947 0.7317707 1.0655535 -0.76182157
-0.19357777 1.0089887 -1.716161 -1.0647292 1.4961342 0.2790424 1.8898164 0.095507726
0.9491538 -1.3901798 -1.3071339 0.7384635 -0.8888618 -0.23392017 0.87809443 -0.45165187
-0.7023773 0.3527561 -0.5746404 -0.4717348 -1.2230823 -0.63571835 0.09923568 0.8044725
1.0199748 -0.6474974 -0.16146183 0.6520442 -1.0625424 -1.4827008 -0.48173344 -0.05753149
-0.7201976 1.3672539 1.5601789 -2.2402232 -0.26096296 0.9813097 -1.662089 0.1519195
-0.31614128 0.65147966 -1.3685608 0.5730274 -1.1384565 -0.40661147 -0.44216898 -0.3262737
-0.9685916 0.63863784 -0.05977703 0.1255546 0.24621281 -0.7307202 -0.31865945 -1.5175921
0.973496 0.1209763 0.7994325 -1.0789529 -0.8850349 -0.93992484 -0.899439 -0.67341614
-3.350565 1.3845578 -0.19674432 -0.044863526 0.68949044 -0.81187254 -0.4987836 -0.33165175
1.1494114 -0.7477294 -0.83712673 -0.6034277 -2.7270734 0.7799355 -0.7866335 -0.5315467
-0.963316 -0.21433596 -0.17118426 -0.33500874 0.8326344 1.7700055 1.9076127 2.980579
-2.467399 0.3693797 -0.016294155 -0.64000624 -2.0775106 0.032890886 -0.21217814 0.04214919
1.0102828 -1.1459421 1.2568063 -1.1292267 -0.51624036 0.33281612 0.2511366 -0.42490834
-1.980043 -0.32215118 -0.32783678 -0.2214709 -1.363901 1.203359 -0.49088714 0.040766086
-1.3786615 1.2887237 -0.13991764 0.7978141 -0.38888228 -1.6848814 1.669534 -1.5803757
-0.93145055 -0.7025865 0.32391444 -0.98217523 -0.8061499 -0.9201909 -0.7371693 -0.8368454
-0.15909588 0.6128091 -1.704598 0.5008223 1.1723295 -1.3456879 -0.55309325 0.7377387
-0.024475064 -0.9838429 1.3946149 0.092154406 0.745227 -0.4780397 -0.37827834 -0.194167
0.8362466 0.18970016 0.0754004 -0.86793 0.13212089 -1.1572948 -1.9545379 0.92681384
1.5765735 1.9610754 0.47621265 0.49232948 -0.8363928 -0.028513322 0.031192355 0.21295518
-0.11541969 -0.079879165 -1.1524184 0.6126108 -0.55795246 -0.2520447 0.19474436 -0.90354323
0.24992204 0.9915552 0.6350626 0.042544976 -2.7148163 0.27252552 0.32440928 -0.76455593
-0.07042106 -0.37930262 -0.13213955 1.9143208 3.377846 1.7416348 -1.100258 2.1776896
-1.1295062 -0.008793956 -0.20303018 0.09254585 0.5152878 -0.22332837 0.40218037 0.844803

embeddings.11.weight f4 [1030, 4]
00000000: b783 d2bd 0d34 d4be ee04 90bf d0dd 00bf
00000010: 23d6 143e 25d5 9c3d 440d fa3d b583 59bd
00000020: 9f79 8d3f 82e9 9bbe 4644 d23e a023 2abc
00000030: dfb9 8fbf f32c 98be ebe5 2c3f e4ee 403e
00000040: aaa6 543e a5df 0b40 f736 2fbf dba7 1ebf
00000050: ed42 b9be e1c7 4abf aed8 e7bd e701 bcbc
00000060: 96ce 883e 9acf b4bf c91c 76be bee0 57be
00000070: 57ee edbd d6c3 7bbf e9a2 61bf eef9 05bf
00000080: 6a09 ce3f 1911 8d3f 49b3 a6bf eff6 a0bf
00000090: ce1e eabe 7193 22bf 4fcf 3cbd f720 433d
000000a0: cb14 32bf eed1 25bf 45fa a2bd de25 a0be
000000b0: 9a47 bdbd e475 f63f 4cf7 963e ff10 a93e
000000c0: d416 20bf d49e 4b3e 80f5 dfbd 96a7 a53d
000000d0: 8b2d 1e3e 94fe 983c 6ba4 be3d b7b1 2ebe
000000e0: 6dbd df3e 8c77 c43d 8755 273e c68d 483d
000000f0: 07c7 de3f 70b2 d83e e01b df3e c419 0fbf
00000100: ccb6 64be 9d47 b43f cfb4 2a3e d93f 70bf
00000110: f5cf 2abf ea5b 963f 69c0 e53d d3b9 36be
00000120: 897e 9fbf 1b1f a53f 137f 96bf 99ce c73e
00000130: 23e3 0ebd ff9e 893d d4a2 cabd ce69 8cbe
00000140: de0e 6e3f c2f5 c33e 1efe debf b9a7 623e
00000150: 0d99 00be a9ab 423f 1e1d 95be 3c7a 5e3c
00000160: b491 05bd ea57 873e 0ea6 033f 0759 7e3f
00000170: 39a1 a3bf 3706 483f 71ef 76bf 8c67 5e3f
00000180: 2cca a53f e2d3 ea3f 8bb9 37bf edcd c03f
00000190: ec89 27be 6dc3 45be 6cc6 92be 97f7 debe
000001a0: db13 debd b913 a9be d306 0fbe 7949 af3d
000001b0: 7d0f bdbe 7f6a 70be 96a0 16be aaef d4bf
000001c0: 85b9 42bf 0f4d 5b3d 27e6 bd3e 2871 c5bf
000001d0: a274 a63f af1d 8a3f 9d90 8d3f 0d7b 893f
000001e0: 58f0 75be 2266 04bf 47b5 a9be a255 53be
000001f0: 7bc9 05c0 b989 963f ef0f 283d 5ef1 cb3e
00000200: f5d2 06bf 589f 41bf 18b0 85bf 39b3 d93e
00000210: eff1 47bf d181 5dbf 5efe 6fbf c3f5 ba3e
00000220: b34f 02c0 4aaf c13f d007 12bf 21e9 8b3f
00000230: b436 b63b 4032 b43d bc82 99bd 99db 80bf
00000240: f091 89bd e513 80be 1b95 9fbe 0dba d9bf
00000250: cf52 c8bf ac06 44be e86c 723d 9b92 a93e
00000260: 8bea 83be 35fc 9bbe 88f2 2e3e aadf 263f
00000270: 5ae0 0fc0 6c2c 813f 151f 4fbf 3394 b4be
00000280: 1ce2 a4bf a022 83be 24f3 51bf e46b 153f
00000290: c107 24bf 49e0 b3be 15e5 ebbe 46dd 4cbe
000002a0: 25ad 00bc aa2f 693f 8834 693f cb16 203f
000002b0: a9c9 d2bf bccd 9c3f 00da 5abf 14f3 8d3e
000002c0: b49a 06bf 800e a9be 061c d2bd 893a c8bd
000002d0: 4a49 eebc 145c 20bc f97a e4bd f221 82be
000002e0: f136 9fbd e82b dc3d d550 a63d 7932 343d
000002f0: 7c05 203f f9c6 9f3f ea0d a33f d1ad 233f
00000300: 0e3c 94be 6cc5 1cbd 46e0 e73c df19 26be
00000310: 0115 213f 7509 5d3f 43c6 913c deaa 4cc0
00000320: 063e 0bbf 417b e63f 1f78 773d 44da 58be
00000330: 5dbf 013d edbe 3d40 3486 9ebe 2bb1 d23e
00000340: 36bb db3e f2a4 b53b ac04 963e 4170 c73b
00000350: 7050 dd3e ce88 4a3f f54c 713f a1f7 6fbe
00000360: 1904 3dc0 413a 513e 3df6 3bbf 0c83 a9bf
00000370: 8e28 30be 75dd 2b3d 2830 04be 451f d83d
00000380: f227 bfbe 8e8d 64bf ade2 5fbf 1ef6 2bbf
00000390: e3be debe 3a96 8cbf 01aa d9bf 9552 d3bf
000003a0: 6dd0 22bf 34d7 d73f 36c7 39bf 034c 1f3f
000003b0: 8374 6a3e 7d04 ac3e 5213 c63d e8dc 23be
000003c0: 78ee c8be 3e10 3abe c472 b5bd 63eb 41bf
000003d0: 8219 463d d970 ea3f fdcf dfbf f2ed d13e
000003e0: 9803 843e ff70 3a3f 76e2 d63e d631 dfba
000003f0: b27d 2dbd f88d edbc aa9f 96be e969 58be
-0.10279029 -0.41445962 -1.1251504 -0.5033846 0.14534812 0.076578416 0.122095615 -0.05310412
1.1052741 -0.3045159 0.41067713 -0.01038447 -1.1228598 -0.29721794 0.67538327 0.1884113
0.20766702 2.1855252 -0.68443245 -0.6197488 -0.36183873 -0.7921124 -0.11320625 -0.022950126
0.26720113 -1.4125855 -0.24034418 -0.21081826 -0.11617725 -0.98345697 -0.88139206 -0.5233449
1.6096623 1.1020843 -1.3023463 -1.2575358 -0.45726627 -0.6350623 -0.046096142 0.04763886
-0.6956298 -0.6477345 -0.079578914 -0.3127889 -0.092421725 1.9254727 0.29485548 0.3302078
-0.6253483 0.19884807 -0.10935497 0.08088605 0.15447061 0.01867608 0.09308704 -0.1705998
0.43699208 0.09593114 0.1634122 0.04896333 1.7404488 0.42323637 0.43575954 -0.5589869
-0.22335356 1.4084355 0.16670536 -0.93847424 -0.6672357 1.17468 0.1121834 -0.17844324
-1.246049 1.2900118 -1.175753 0.3902481 -0.034884583 0.06719779 -0.09894338 -0.27424473
0.92991436 0.38273436 -1.74213 0.22134294 -0.12558384 0.7604318 -0.29123777 0.013578948
-0.032609656 0.2643426 0.51425254 0.99354595 -1.2783576 0.78134483 -0.9645911 0.8687675
1.2952323 1.8345912 -0.7176749 1.5062844 -0.16361207 -0.1931283 -0.2866701 -0.4354827
-0.10843631 -0.3302286 -0.13967447 0.08558936 -0.3692588 -0.23478125 -0.14709696 -1.663564
-0.7606433 0.053540286 0.37089655 -1.5425158 1.3004344 1.0790309 1.1059757 1.0740677
-0.24017465 -0.5171834 -0.33146116 -0.20638135 -2.0904224 1.176078 0.04103082 0.39832586
-0.52665645 -0.75633764 -1.0444365 0.4251955 -0.78103536 -0.8652621 -0.9374751 0.36515626
-2.0361145 1.5131619 -0.5704317 1.093052 0.0055607203 0.08798647 -0.07495639 -1.0067016
-0.067172885 -0.25015178 -0.31168446 -1.7009903 -1.5650271 -0.1914317 0.059185892 0.33119664
-0.2576488 -0.30465856 0.17084706 0.65185034 -2.2480683 1.0091681 -0.809068 -0.35269317
-1.2881503 -0.25612354 -0.8201163 0.58367753 -0.6407433 -0.35132053 -0.46073213 -0.20006284
-0.007853781 0.91088355 0.9109578 0.6253478 -1.6467792 1.2250285 -0.8548889 0.27724516
-0.5257981 -0.33018875 -0.10259251 -0.0977679 -0.029087681 -0.009787578 -0.11156268 -0.25416523
-0.07774151 0.10750562 0.08120886 0.043993447 0.6250837 1.2482597 1.2738621 0.639371
-0.28952068 -0.038274214 0.028305184 -0.16220807 0.62922674 0.86342555 0.017794734 -3.197929
-0.54391515 1.8006364 0.06041729 -0.21177012 0.03167664 2.9647782 -0.30961764 0.41150793
0.42916268 0.0055433447 0.2930044 0.0060863798 0.4322543 0.79115 0.9425805 -0.23434307
-2.953375 0.20432378 -0.73422605 -1.3243117 -0.1720297 0.041959245 -0.12908995 0.10552839
-0.37335163 -0.89278495 -0.87455255 -0.6717242 -0.4350501 -1.0983346 -1.7005006 -1.6509577
-0.6359928 1.686255 -0.72569597 0.6222536 0.22896008 0.33597174 0.09671654 -0.16002238
-0.39244437 -0.18170258 -0.088597804 -0.75749797 0.04836417 1.8315688 -1.7485348 0.4100185
0.25783992 0.7282867 0.4196965 -0.0017028402 -0.0423562 -0.02899836 -0.2941869 -0.21134152

embeddings.12.weight f4 [7, 4]
00000000: 956c f53f fb8f 84bd 192a c43e a737 683c
00000010: b7aa a8be 9b3e 56bf a372 8a3f 276d 4b3e
00000020: fc9e 73be 0351 9c3f 63dd 1bbf 7bb2 bebe
00000030: e421 87be 8692 93bf 0e3f 7dbe e94a d7bd
00000040: ff9b f6bc 4d5e 1bbf a9ff 573f 0124 abbe
00000050: caad a23e 4939 8b3e 86dc 54c0 79f0 b5be
00000060: 0c27 323f 14b6 7d3f c387 813f 17f3 09bf
1.9173762 -0.064727746 0.38313368 0.014173425 -0.32942745 -0.8368928 1.0816234 0.19865857
-0.23791116 1.2212223 -0.60884684 -0.37245545 -0.26393044 -1.152909 -0.24731085 -0.10512335
-0.030103682 -0.60690767 0.8437448 -0.33425906 0.31773216 0.27192143 -3.3259597 -0.3553503
0.6959083 0.99105954 1.0119556 -0.5388655

embeddings.13.weight f4 [7, 4]
00000000: 0b3d 163f 32cc 2bc0 bc0b 09c0 f289 70bd
00000010: f4a1 ba3e e576 ccbe 532d 23bf 0b46 fdbf
00000020: cd20 91bf f69f 34bc ed75 f83e 8a57 9f3f
00000030: e9d0 5b3f 2f82 bf3e b3c7 8a3f 11b5 a83f
00000040: 26d2 a9bf 21ff e7be 64c6 a9bf 9126 173e
00000050: 4b31 0fbf 9d24 a43f c64b c63d 1a36 a9be
00000060: 0125 afbf 69ab b53e 0d03 923f 1bfb 12bf
0.58686894 -2.684338 -2.1413412 -0.058725305 0.36451685 -0.3993446 -0.63741034 -1.9787
-1.1338135 -0.011024466 0.4852747 1.244859 0.85865647 0.3740401 1.0842193 1.3180257
-1.3267257 -0.45311835 -1.3263669 0.14760806 -0.5593459 1.2823673 0.096824214 -0.3304909
-1.3683168 0.35482338 1.1407181 -0.57414407

embeddings.14.weight f4 [7, 4]
00000000: d9ca d3bf f77c e63f 95ff 95bf 93f2 88be
00000010: 3518 13bf 4b61 00be 6ce7 a7bf 2845 823e
00000020: ac0d 17bf 16c0 cebe 23c5 fe3e a9b2 923f
00000030: 6eb0 efbe 9c7c f4bd 8e0b 083f 8f1f 413f
00000040: 79b6 8f3f 8613 c3bd e45c f43d 4288 45bf
00000050: 76f2 fdbb 19ca 6ebf 0dbd 5abf 9720 0bbf
00000060: b005 a1bf 1962 abbd 0a3e 923f 71ef 1a3f
-1.6546279 1.8006886 -1.1718622 -0.2674757 -0.5745881 -0.12537114 -1.3117499 0.25443387
-0.59005237 -0.40380925 0.49759778 1.1460773 -0.46814293 -0.1193783 0.5314263 0.7543878
1.1227561 -0.09525208 0.1193178 -0.7716104 -0.007749851 -0.93277127 -0.8544472 -0.54346603
-1.2579861 -0.0836832 1.1425183 0.6052161

embeddings.15.weight f4 [6, 4]
00000000: 8b47 1040 853f 4fbe eac2 ff3f 9f70 69bf
00000010: 8e1d 20c0 1452 363f ef1e 07be 572a 83be
00000020: f51b 53bf 27d5 c43d 6fdb 7abd 7be3 843d
00000030: 6522 f6bd 7f37 c8bd 77eb f5be efd3 9ebe
00000040: 5979 09bf 7fcc d0be 362c 08bf 01ef 08bf
00000050: 2287 033e b0f6 303f 47f4 47be c4fb 083f
2.2543666 -0.20239075 1.9981358 -0.9118747 -2.5018039 0.7121899 -0.13195394 -0.2561824
-0.82464534 0.09610968 -0.061244424 0.06488701 -0.12018279 -0.0977621 -0.48031208 -0.31021068
-0.53700787 -0.40781018 -0.5319246 -0.5348969 0.12844518 0.69126415 -0.19526778 0.53509164

conv_layers.0.weight f4 [16, 1, 3]
00000000: 2032 323d e9fd 053f fdd0 003f 4f58 8a3e
00000010: 4bfa d83e 7091 3ebf ce0a b8bd 3fed 353f
00000020: 28f0 f53e 33c9 89bc 5ce8 db3c bbf3 5040
00000030: 1824 debe 9ac7 023f 8046 2a3d 1b7d 2bbe
00000040: dc01 6abf 27cd d23e f527 1fbf 8dbd 293f
00000050: 790e 4dbc dafd e4be 1cab 093f 7221 183d
00000060: 1372 d43d 83d4 be3d 10e0 b6bf f72a 3abf
00000070: e7eb 10bf 7190 f3bd 2edd 193f 798e 7cbf
00000080: ea92 a33d 540d 19bf 61f1 053f 8867 4a3d
00000090: d432 b93c 8810 4ebd b999 2840 7d9b 14bf
000000a0: ff05 1c3f 5595 783b d440 d53e 46c7 19bf
000000b0: a198 71be 4c50 b8bc 99ff a5bf b37b 3c3e
0.043504834 0.5234056 0.5031889 0.270205 0.42378458 -0.7444067 -0.08986436 0.71065134
0.48034787 -0.016819572 0.026844196 3.2648761 -0.43386912 0.5108582 0.04157114 -0.16746943
-0.9140909 0.41172144 -0.62170345 0.66304857 -0.012515658 -0.44724923 0.5377672 0.03714127
0.103733204 0.09317877 -1.4287128 -0.7272181 -0.5660996 -0.118927844 0.6010312 -0.98654896
0.07987006 -0.5978596 0.5232144 0.04941514 0.022607245 -0.050308734 2.6343825 -0.58049756
0.6094665 0.0037930806 0.41651022 -0.6006969 -0.2359338 -0.022499226 -1.2968627 0.18406563

conv_layers.0.bias f4 [16]
00000000: 5304 99bd 28e8 edbe b728 f8ba aa49 033e
00000010: 6cae 8bbe ce8b 833d 6226 a5bd 01d7 9b3e
00000020: 7129 93be 4569 ce3e 8335 3bbe 8635 31be
00000030: 88bf e1be 948f 19be c3d7 713e fccd 9bbe
-0.07471528 -0.46466184 -0.0018933032 0.1282107 -0.2728151 0.0642315 -0.080639616 0.30437472
-0.28742555 0.4031469 -0.18282132 -0.17305574 -0.4409144 -0.14996177 0.23617463 -0.3043059

conv_layers.1.weight f4 [32, 16, 3]
00000000: 13ed 9b3e f0fb 5d3f 588b 15be e5f7 003d
00000010: 6857 ec3e 12fb 033f 9856 1f3f 1f9f 3d3f
00000020: adae 1fbc 6fba 5d3e ebd4 873e 9dbe b7bd
00000030: a075 043e 07f3 553e 0313 823d b685 89be
00000040: 0e11 eabd 9988 603e ccea ec3e d6c3 1b3e
00000050: 7a98 a23d fbe3 943e dacd 323e a9d3 a53e
00000060: 51b1 e3ba 89c1 b53e 1e1c b2bc c6fe ddbe
00000070: e341 16bf 94d0 ac3d 1a6f 97bd 5109 b6be
00000080: 2c90 1f3f 300b b13e cd5d 613e 5728 9c3e
00000090: 68b8 213f 16d2 343e 96a7 093e 3924 ab3e
000000a0: 1e6d fe3e 4ae6 773e 1de7 b9be b932 9f3e
000000b0: 9dae 5f3e f7ca a4be 0b7c 72be 632e 413f
000000c0: cbde 423e 9ce9 ed3e 9a06 49bf 9614 023f
000000d0: b87c da3e 27a5 ddbc 016a af3e 613d 59be
000000e0: 12b5 4fbe d097 38be 315a 87bd 0a84 2f3d
000000f0: db09 1f3f 0af0 243f ae9c 0cbe e7c4 f7be
00000100: 49f3 693e 0e66 3e3e 8973 b13e 7d41 d93e
00000110: b783 80be f36c 303f 42e6 a03e e280 403d
00000120: f0c6 013f 0534 cc3d 8080 06bf 012b e3be
00000130: e81a d53e 3028 4c3d cf71 d03e e368 39be
00000140: cc7e ad3d 532f 01be 96fd 583f 2580 fabd
00000150: 24e5 e4bd 006b 033e 79e1 e0bd aa1f 9b3e
00000160: 6f0a 2c3f 7ff6 34be f55c 983e 00aa 85bd
00000170: 4102 4a3e eb94 cabd 6521 ba3d 9571 9d3e
00000180: 8ecb 23bf b7f5 d53d 060c a73c 8dd0 ce3e
00000190: 67bc 95be 075a a1be ba7e 53bf ab40 893e
000001a0: 78f4 323e 61a2 06be 419d 88bd e508 ea3e
000001b0: eade 6ebf fb72 c93e 37cf 17be 259b 8c3e
000001c0: 45dd 7fbe fe19 45be babc 73bf 78e3 223e
000001d0: 9700 e4bc 08c9 60bf 2874 0d3e da36 bd3d
000001e0: 9db0 973e 5385 5ebe aa0b 02bf a88d 053e
000001f0: 0ee1 adbe cd3c 9dbd 824b 3d3d a52f 19bf
00000200: f913 883c e0fd b2bf 4bdc 583e 4922 05be
00000210: 72fb 87be a4b9 9ebd b15a b3bd dc28 93bf
00000220: dbf1 4c3e f78e 90bb 19e7 543e d301 54bf
00000230: af3e ce3e d550 7f3e 7307 ffbd 9c25 8b3d
00000240: 9dae b23e a128 88be d1ec c5bd fc72 883e
00000250: 6dc5 4e3e 4996 8cbd e522 843d 0607 27bf
00000260: 9668 38bd 3a27 b93e 2be4 e93e 6cf0 e0bd
00000270: f50d c03e a772 7bbf 22ca 693e 45b6 14be
00000280: 4ead fb3e 771f 45be d1bb 993e 43c7 3cbf
00000290: 03ff 903e 5e19 313e f40b 27bf 1567 543e
000002a0: efed 26bd 6994 67be fa7f 1c3f 0bbd a0be
000002b0: bd2b f23e 9c9b d0bd 325b 11be e792 d03e
000002c0: 3338 a33d ccdd 863e 61a7 35bf 2901 5b3e
000002d0: cb35 9a3e 4eae f33d 654e 583d 7ddb cb3d
000002e0: 3d6f 30bf cf28 5b3e 8d1e 09bf 0a3b 413f
000002f0: da5f c13e bd48 dbbe 8722 c43e c45a da3e
00000300: 8f1a 603d 9c54 3abe eab8 943c 5f5b d7be
00000310: 7ead f4be 6eba 083e 311d fd3d 3b69 73be
00000320: c742 993d 543d 12be fbc9 35be 5fb7 55be
00000330: c8e6 153e e6af d3be 4b4c 2abe dd03 bc3e
00000340: cf1d 7abf c4d1 9ebe 7330 8e3e 25b7 a5be
00000350: 2207 523d ac0b 433d f34c ccbc 7718 45be
00000360: 3144 49bf 4376 6abe 0334 c43e 5ac0 5a3f
00000370: e725 a2bf fb12 8cbe c2dd e43d c508 57bf
00000380: 82fe ffbe a893 8d3e aaec d8be a3dd f0be
00000390: 9b51 b4be 5b6e cbbd 14ef 443e dca0 9e3d
000003a0: 85ae b7be 396a 6dbe e0ec 463e 2cd7 09bf
000003b0: fb55 d8be 4236 d53e 37b2 35bf 2a5f 3abf
000003c0: f7ed fabe d62f fc3e 7350 6b3e a644 2d3e
000003d0: 1e0a ec3d 11c2 f7bc a328 14bf a5c8 3e3e
000003e0: 3794 293e faa0 10be 4d36 6f3d 32c6 91bd
000003f0: 2dcc 72bf 9da9 2a3e cdaa 26bd ee71 6c3e
0.3045431 0.8671255 -0.14603937 0.03148641 0.46160436 0.5155498 0.62241507 0.74070925
-0.009746236 0.2165315 0.2652963 -0.089719035 0.12935495 0.20893489 0.063512824 -0.26859826
-0.11429034 0.21927108 0.46272886 0.15211424 0.07939239 0.29080185 0.17461339 0.32388046
-0.001737157 0.35499218 -0.021741923 -0.4335844 -0.58694285 0.084382206 -0.07394238 -0.35553983
0.62329364 0.34578848 0.22008438 0.30499527 0.63172007 0.17658266 0.13442835 0.33426073
0.49692625 0.24208942 -0.36309138 0.31093386 0.21843953 -0.321861 -0.23680131 0.75461406
0.19030301 0.46467292 -0.785257 0.5081266 0.42673278 -0.02705629 0.34260562 -0.2121482
-0.20283917 -0.18026662 -0.066089995 0.04285053 0.62124413 0.6442877 -0.13731644 -0.48392412
0.22846712 0.18593618 0.3465846 0.42432776 -0.2510049 0.68916243 0.31425673 0.046997912
0.5069418 0.099708594 -0.52539825 -0.44368747 0.4162209 0.049843013 0.4071183 -0.18106417
0.0847145 -0.12615709 0.8476194 -0.12231473 -0.111765176 0.12833786 -0.109805055 0.30297595
0.6720342 -0.17672156 0.2975842 -0.065265656 0.19727422 -0.09891685 0.09088401 0.3075072
-0.63982475 0.10447257 0.020391475 0.40393487 -0.29245302 -0.31513998 -0.82615244 0.2680715
0.1747607 -0.1314788 -0.06670619 0.4570991 -0.9330889 0.39345536 -0.1482514 0.27462116
-0.24986751 -0.19248196 -0.9520985 0.15907085 -0.027832313 -0.8780675 0.13813841 0.09238978
0.29626933 -0.21730547 -0.5079905 0.13042319 -0.33960766 -0.076776125 0.046214588 -0.59838325
0.016611086 -1.3983727 0.21177785 -0.1300136 -0.26559025 -0.07750252 -0.087575324 -1.1496844
0.20014136 -0.004411574 0.20791282 -0.82815284 0.402822 0.24933179 -0.12452593 0.06794283
0.34898844 -0.26593497 -0.0966431 0.26650226 0.201925 -0.06864602 0.06451968 -0.6524509
-0.045021616 0.3616274 0.4568189 -0.10983357 0.37510648 -0.9822182 0.22831014 -0.14522655
0.49155658 -0.19250284 0.30026105 -0.7374155 0.28319559 0.17294833 -0.65252614 0.20742448
-0.040754255 -0.22615208 0.61132777 -0.31394228 0.47298995 -0.1018593 -0.14194945 0.40737078
0.079697035 0.26341093 -0.70958525 0.21387161 0.30119166 0.1189848 0.052809138 0.099539734
-0.68919736 0.21402286 -0.5356224 0.7548071 0.3776844 -0.42828932 0.38307592 0.42647374
0.05471283 -0.18196338 0.01815458 -0.42061898 -0.47788614 0.13352367 0.123590834 -0.23770611
0.0748344 -0.14281207 -0.1775283 -0.20870732 0.14638817 -0.41345137 -0.16630666 0.36721697
-0.97701734 -0.31019413 0.2777134 -0.3236629 0.051276334 0.047618553 -0.024939036 -0.19247614
-0.78619677 -0.22896676 0.38320932 0.85449755 -1.2667817 -0.2735823 0.111751094 -0.83997756
-0.49998862 0.27651715 -0.4236806 -0.47044095 -0.3521851 -0.09933158 0.19231826 0.07745525
-0.35875335 -0.23185052 0.19426298 -0.5384395 -0.42253098 0.41642958 -0.7097506 -0.7280146
-0.49009678 0.49255246 0.22979908 0.16920719 0.11525367 -0.030243905 -0.57874507 0.18631227
0.16560446 -0.14123908 0.058401395 -0.07117881 -0.948428 0.16666265 -0.040690232 0.23090336

conv_layers.1.bias f4 [32]
00000000: 63fb bdbd e31b ebbb d56b 4b3c 447d acbd
00000010: d3fc b5ba 3429 083e 2487 5fbc ab6b 843d
00000020: c7f4 8fbc f109 a8bb daf3 e53d d7cc f73d
00000030: 8e65 b0bd 1f26 0a3c e949 08be 6f41 073e
00000040: 641f 513d 6b62 5cbd c8e9 07bd 5fe1 99bd
00000050: 208c bc3c 580a 9ebd e35d e53c 42bd 0fbe
00000060: 150a a2bd 3f94 943d 9c14 ee3d b6b8 c93d
00000070: df69 453d 0a58 babc 22cc 4fbd 910f a73d
-0.09276464 -0.007174955 0.012415846 -0.0842233 -0.0013884552 0.13296968 -0.01364306 0.064658485
-0.017572774 -0.0051281382 0.112281516 0.12099617 -0.0861312 0.00843194 -0.13309444 0.13208555
0.051055327 -0.053804796 -0.033181936 -0.07513689 0.023016036 -0.07716817 0.02799887 -0.1403704
-0.07912079 0.07254838 0.11625025 0.09849684 0.04819667 -0.022747058 -0.050731786 0.08157266

bn_layers.0.weight f4 [16]
00000000: 5ad6 733f 4644 8a3f 03c4 8a3f 0ebd 6a3f
00000010: 2c7b 853f 68e4 393f 66f4 713f 6a87 7d3f
00000020: df87 943f d8d4 753f adf8 6f3f 87fd 863f
00000030: d833 6e3f d69c 7d3f b896 863f 99b1 743f
0.9524895 1.0802085 1.0841068 0.91694725 1.0428214 0.72614145 0.9451355 0.9903475
1.1603965 0.960279 0.93738824 1.054612 0.9304786 0.9906744 1.0514746 0.9558349

bn_layers.0.bias f4 [16]
00000000: 0805 55bf 46be 03bf 8ace 25bf 05f5 47be
00000010: 215d 63be 4a7e c0be 6a6c a7be aa07 4dbe
00000020: 7645 33bf cac6 5ebf 6075 4dbe e7ba b4be
00000030: c870 38be 5bc3 acbe aef6 e6be 9955 28bf
-0.832108 -0.5146221 -0.6476828 -0.19527061 -0.22203495 -0.3759635 -0.326999 -0.20022455
-0.70027864 -0.8702208 -0.20064306 -0.35298845 -0.18011773 -0.33742794 -0.45110077 -0.6575561

bn_layers.0.running_mean f4 [16]
00000000: 10d0 01be 7a76 edbe b886 64bd a758 e1bc
00000010: 93bd 8ebe e3d2 c93d 4baa a8bd 568d 983e
00000020: 74ff 6abe d961 f23e bde2 2bbe c361 30be
00000030: 0f7f 10bf 4053 1bbe 7f48 833e 710f 7dbe
-0.12677026 -0.46379453 -0.05579254 -0.027508093 -0.2787901 0.098546766 -0.08235606 0.2979533
-0.2294901 0.47340277 -0.16785713 -0.17224793 -0.56443876 -0.15168476 0.25641248 -0.24712922

bn_layers.0.running_var f4 [16]
00000000: 686d dd3e ba9d 373f 9d9c 1c3f 9316 1941
00000010: ab64 de3e 7217 743f 5f78 503f 75b4 f23e
00000020: 766f ec3f f151 353f a954 aa3f dff0 1b3f
00000030: cb66 c940 a1d5 313f 4bc5 063f b441 ca3f
0.43247533 0.71725047 0.6117647 9.568011 0.4343618 0.95348275 0.8143367 0.47403303
1.8471515 0.7082816 1.3307086 0.60914415 6.293798 0.69466597 0.52644795 1.5801301

bn_layers.1.weight f4 [32]
00000000: cd84 1b3f 94a7 4f3f 1d35 8a3f 21e1 813f
00000010: 669b 9f3f 8755 603f d6d9 c53f f864 b23f
00000020: 36fe 173f ff15 533f 82b7 2d3f 9dee a93f
00000030: e4f4 353f 4f51 b93f 717b 903f 2830 893f
00000040: e37e 9e3f 0c70 523f 0ac2 0d3f f66b a73f
00000050: 913c 263f 8704 b13f e777 b13f ffe0 a33f
00000060: 96a6 3e3f f9cb 3b3f 41c4 943f 9a93 773f
00000070: 5b7f 513f 914b 943f 04a4 be3f e970 023f
0.6074951 0.8111508 1.0797459 1.0146829 1.2469299 0.87630504 1.5457103 1.3937063
0.5937227 0.8245544 0.67858136 1.3275944 0.710768 1.4477938 1.1287671 1.0717821
1.2382473 0.8220222 0.55374205 1.3079822 0.64936167 1.3829507 1.3864716 1.2803038
0.7447294 0.7335811 1.1622392 0.967096 0.81834954 1.1585561 1.4893804 0.5095354

bn_layers.1.bias f4 [32]
00000000: c856 fcbd 3496 a5bc f6fb 10bf f5ab b1be
00000010: 9287 71be 5939 e4be bd10 11bf 1b1b 41bf
00000020: 1367 93bd 05e0 8bbe 2744 96be bda5 2fbf
00000030: 2ccf 6ebe 90ca 2cbf b690 14bf 62cd 00bf
00000040: 3253 1ebf 6951 59be f636 c33d 3030 44bf
00000050: f649 d8bd 0ca1 b8be f69b 28bf 510f 26bf
00000060: 27d8 57bd 85cf 1b3d a01c bebe a52f b1be
00000070: efbb ddbe 864b dbbe 5ecb 0abf 2569 a0bd
-0.1232124 -0.020213224 -0.5663446 -0.34701505 -0.23586872 -0.44575003 -0.56666166 -0.75431985
-0.07197394 -0.2731935 -0.2934887 -0.6861227 -0.23321217 -0.67496586 -0.5803331 -0.5031339
-0.61845696 -0.21222462 0.09531967 -0.7663603 -0.10560982 -0.3606037 -0.6586298 -0.6486712
-0.052696373 0.038039703 -0.37131214 -0.34606662 -0.43307444 -0.42831057 -0.54216564 -0.07832555

bn_layers.1.running_mean f4 [32]
00000000: 14dd 6640 35f4 2c40 670c 43c0 e9ba be3e
00000010: fce7 54c0 de1b 9fbf 2218 83c0 9782 83c0
00000020: 11dc 3940 8502 16c0 db17 0c40 6626 66c0
00000030: 84d5 2d40 b014 7bc0 7049 b3be 4ef2 b6bf
00000040: 1ede 12c0 713d 7d3f b102 d23f 90a4 52c0
00000050: f872 f83e d84b 97c0 c504 fabf 5573 7bc0
00000060: 3dda a93e c6ce a53f 2672 32c0 2444 f6bf
00000070: 542a 3dbf 897f 4fc0 4b04 9dc0 9b33 f23f
3.6072435 2.7024052 -3.047632 0.37251976 -3.3266592 -1.2430379 -4.096696 -4.109691
2.9040568 -2.3439038 2.188956 -3.5960937 2.716157 -3.9231377 -0.35016966 -1.4292696
-2.294807 0.9892188 1.6407071 -3.291294 0.48525214 -4.7280083 -1.9532706 -3.9289143
0.33174315 1.2953727 -2.788217 -1.9239545 -0.7389271 -3.2421591 -4.906774 1.8921999

bn_layers.1.running_var f4 [32]
00000000: d904 1e41 d5b2 0841 eb29 8741 333d 1641
00000010: 21d8 4441 ff76 4241 ba24 8341 6e10 9b41
00000020: 141f dd40 2f80 5141 a166 cf40 6e1b 4e41
00000030: 4115 c840 ff86 8141 265b 0c41 fcba 0841
00000040: de84 3b41 282d f540 dcdc 0e41 05bc 6341
00000050: 8a21 e440 c03b 8e41 fb0a 2741 17d6 7b41
00000060: 750d aa40 5702 d940 ff8d 2b41 b983 fa40
00000070: 2e7c c340 b4a9 8941 aa2f 9b41 e13c 9c40
9.8761835 8.54366 16.895468 9.389941 12.302766 12.154052 16.392933 19.383022
6.9100437 13.093795 6.481278 12.881697 6.2525945 16.190916 8.772253 8.5456505
11.719938 7.661762 8.928921 14.233403 7.129094 17.779175 10.440181 15.739768
5.3141427 6.7815356 10.722167 7.8285794 6.1089087 17.207863 19.398273 4.8824315

final_conv.weight f4 [64, 32, 3]
00000000: 81e7 893e fee2 953d 41fd a4be 627a 75bd
00000010: 6c7f 82bc aeab c5be 1d72 c73d 9afa 673e
00000020: 1cc8 9ebd 1ae8 a63d 53f1 58bf d70f dcbe
00000030: ce23 49be ebdd 0f3e 1d50 aebe 3a8e 163e
00000040: 6753 e13d e4b6 b7bd 4ce6 8f3e ebc6 ab3e
00000050: 44f7 babe e650 3d3d ea2d 61be 7f69 6c3e
00000060: 0226 88be eaab 3ebe e060 76be 0035 e33e
00000070: 84c4 403d b07c 1e3e 4531 183e 5013 6fbf
00000080: 0c8f bebe 3b35 9cbd e9dc 31bf 14ba ca3e
00000090: 863b f4be 7485 d7be a562 b0bd 0310 8e3e
000000a0: fd91 f8be 69ab 9abe a38e 873e 1d2a 1ebf
000000b0: d20a e5bd 7cc6 e8bb 64f3 333f d8c3 96bf
000000c0: cc15 983e e4d0 003f c2c0 76bf f946 07bd
000000d0: 0efe 07bf 17d2 bdbe 1677 c4bd a678 a3be
000000e0: a88e 66be b4e1 09bf 30d8 21bf 73e5 743e
000000f0: 40a3 eb3d 52fe 953c c6f2 6cbe 2148 04be
00000100: a028 a13d 8057 04bf 86bb 0cbd e128 073f
00000110: 8b5a 5ebf dccd f63d 525b c0be acce 293e
00000120: c3d1 823d 4210 c63e 088e 3abf 81d0 65be
00000130: 6e75 7a3e 4583 39bf d6f1 9f3e c3eb 113d
00000140: 033a 27bf 5ce5 81be f169 8fbf ad83 883e
00000150: db4f 62be 57ca 55be 954a b2be 7ec8 59be
00000160: ebbf cbbd a5a1 c23d 7943 96be a3e8 bb3d
00000170: a945 a63e 220f 98be 9c19 a5be 5a9e cfbd
00000180: 6711 c4bd 6594 c8bd c466 52be 2198 4bbf
00000190: 3d37 593e 2d32 d13d 341a 983e 910f 3dbe
000001a0: 99aa 813e 33b8 a33e 7cb7 543e cb53 edbe
000001b0: a7c6 153d e844 d2bf f3dc 9a3c b294 ce3d
000001c0: 9a6b 17be 0c95 d33e 16ea 713e c8f2 31bf
000001d0: c419 a5be 19b3 f73c e0d5 05bf d260 923e
000001e0: 0df2 c5be 992d 633b 045a 993d 93a9 803d
000001f0: efbf 44bf eeb2 0f3e 25a1 e4be 2d1f 343e
00000200: 0d3e aebe ecc1 09be 6559 14be 1144 803e
00000210: 6e46 57bf 006e 3a3b 8927 d13e 47a7 44be
00000220: 4676 383e f161 1abd 4d51 503e e816 8d3e
00000230: 5d6b a6be cdd4 17bf 1663 693e 730a e63d
00000240: 74dc d3be 699a 63be 97b9 1dbe 54cb adbe
00000250: 1dca 2f3c c9f8 023e dcd4 c43e c06d ad3e
00000260: 9142 94be 8009 26be 67c3 b1bd 67c1 0bbf
00000270: 8612 cbbe dfd0 bc3d a4bd 3abe eabf 4a3d
00000280: 5fc1 babf 9668 9dbe 9d53 8b3e 76fe a4bc
00000290: 2e59 29bc b911 0fbe c1f2 60bf 06b3 c63d
000002a0: 7c42 d6be 0a92 d5bc f2c5 9e3e 9abb 59bf
000002b0: d596 ec3c 1f0a 9e3e 1973 4a3d c774 9cbf
000002c0: 67cd 32be 147f 9bbe 9979 24be 41b2 423e
000002d0: 55f1 71bf 532d 923d 35d0 033e b572 54bf
000002e0: 5083 ef3e f7e4 943e 13b4 e93d defa 89bf
000002f0: 3f0b aa3d bfd6 1ebd 2694 0ebe 92c6 a13e
00000300: 3980 873e 679e 053e 8ae0 6fbf 2aad 853e
00000310: 83cd 79bc 7c0d 9bbe 4160 07bf 85ff 1bbf
00000320: 3530 1bbe abf0 73be 1a3f a63e 9f7f 65be
00000330: 8d59 913e fcd4 8ebd c21c a0bd f2cb 09bf
00000340: 896e a3be 9fa6 69bf 402b b5be ea5a 72bd
00000350: b0e5 c13e bbdd 2bbe fad3 32bd 51f3 593e
00000360: 1098 343c 0f66 633d fe2d aabe e4c8 f9bd
00000370: f64f babd 6ba4 92bd e211 c83e d933 3a3e
00000380: f29e 0cbf fc4c 303e 1d23 383e 7ae3 a63e
00000390: 15c9 933e 0af8 a2bc 458f 10bf 87af 81be
000003a0: b30b 913e 1dcd bd3e 658b adbd b3db 25be
000003b0: 4c93 2e3e 0542 393d be8d 373e 19c6 69bf
000003c0: 7173 2bbe 99b5 23be 0bd5 0fbf be88 01be
000003d0: 200b 123f 0845 d0be dc40 4bbc 97ea bc3e
000003e0: b026 863e 9341 44be bc69 2bbe 5749 113f
000003f0: 5c49 f5be a2f9 2c3e 88c2 ffbe b723 ea3c
0.26934436 0.07318686 -0.32224467 -0.059931166 -0.0159299 -0.38607544 0.09738562 0.2265419
-0.077530116 0.081497386 -0.8474323 -0.42980835 -0.19642565 0.14049499 -0.34045497 0.14702693
0.11002236 -0.089704305 0.2810539 0.335502 -0.36516774 0.04621973 -0.21990171 0.23087119
-0.26591498 -0.18620268 -0.24060392 0.44376373 0.047062412 0.15477252 0.14862545 -0.93388844
-0.3721851 -0.076273404 -0.6947771 0.3959509 -0.47701663 -0.42094004 -0.08612565 0.2774659
-0.4854888 -0.302089 0.2647601 -0.6178301 -0.111837044 -0.0071037393 0.7029326 -1.1778517
0.2970413 0.5031874 -0.96387875 -0.03302667 -0.5312203 -0.37074348 -0.09593026 -0.31927985
-0.22515357 -0.5386002 -0.632205 0.23915653 0.11505747 0.018309746 -0.23139486 -0.1291814
0.07869077 -0.51696014 -0.034358524 0.5279675 -0.8685691 0.12050983 -0.37569672 0.16582745
0.06387665 0.3868428 -0.7287297 -0.22442819 0.24458858 -0.72465926 0.31239194 0.03562523
-0.65322894 -0.253703 -1.1204206 0.2666296 -0.22100775 -0.20877968 -0.34822527 -0.21267888
-0.09948715 0.095034875 -0.29348353 0.09175231 0.3247502 -0.29699045 -0.322461 -0.10137625
-0.09573632 -0.09793929 -0.20547014 -0.79529005 0.21212478 0.102146484 0.2970749 -0.1846297
0.25325468 0.3197647 0.20773119 -0.4635299 0.036566403 -1.6427279 0.018904185 0.10086955
-0.1478714 0.4132465 0.23624453 -0.6951108 -0.3224622 0.030236768 -0.5227947 0.28589493
-0.38661233 0.003466463 0.07487872 0.06282344 -0.7685537 0.140331 -0.44654194 0.17590018
-0.34031716 -0.13452882 -0.14487226 0.2505193 -0.8409184 0.0028446913 0.40850475 -0.19204436
0.18013868 -0.03769106 0.20343514 0.2755654 -0.32503787 -0.59309083 0.22791705 0.11232462
-0.4137913 -0.22226872 -0.15402828 -0.3394419 0.01072934 0.12790217 0.3844365 0.33872795
-0.28957036 -0.16214561 -0.08679848 -0.54591984 -0.3966257 0.092195265 -0.18236405 0.04949943
-1.4590262 -0.30743855 0.2721223 -0.020140868 -0.0103362035 -0.13971604 -0.87870413 0.09702115
-0.418476 -0.026070613 0.31010395 -0.8505188 0.028880516 0.30867097 0.049426172 -1.2223138
-0.17461167 -0.3037039 -0.16062011 0.19013311 -0.9450887 0.07137551 0.12872393 -0.8298753
0.4677987 0.29080936 0.114112996 -1.0779684 0.08302926 -0.038779017 -0.13923702 0.3159681
0.26465014 0.13048707 -0.93701994 0.26108676 -0.015246752 -0.30283725 -0.52881247 -0.60936767
-0.15155108 -0.23822276 0.32470018 -0.22411965 0.28388634 -0.06974217 -0.07817985 -0.5382682
-0.3192027 -0.9126987 -0.3538456 -0.059168734 0.3787055 -0.16783802 -0.043659188 0.21284224
0.011022583 0.055517253 -0.33238214 -0.1219652 -0.090972826 -0.071602665 0.39076144 0.18183841
-0.5493003 0.17216867 0.17982145 0.32595426 0.2886435 -0.019893665 -0.5646861 -0.2532923
0.28329238 0.37070552 -0.08473853 -0.1619709 0.17048377 0.045228977 0.17925164 -0.913179
-0.16743256 -0.15987243 -0.5618445 -0.12649819 0.57048225 -0.40677667 -0.0124056 0.36897728
0.2620139 -0.1916564 -0.16739553 0.5675253 -0.4790753 0.16892102 -0.49953103 0.028581483

final_conv.bias f4 [64]
00000000: be51 c23d b4ba efbc 756b a0bd 5766 b83d
00000010: 2c39 da3d b556 47bd 5952 413d 6ce4 bdbd
00000020: 35bb 9e3c 5d7a 853d e65a c13d bb5a b4bd
00000030: 86f6 2dbd 6a38 843d 1e6c b8bd 7bc7 8dbd
00000040: 6b1e 763d aa61 a53c 0040 b23d d89d 9e3d
00000050: 9916 e0bb bf7d 1c3d 28d3 b7bd c8ba 13bd
00000060: d291 cb3d 4141 943d 34e1 5b3d 66ca 64bd
00000070: 33cc c5bd 5aa8 50bd 151a 6ebd d55f f5ba
00000080: 6355 703b b9e3 bebd 59cd 84bd d162 9dbd
00000090: 4fe4 863d 4e72 71bd 3d39 32bd 82fa 973b
000000a0: aeeb 0f3d 2a49 45bd e184 bb3d 7797 d13d
000000b0: 2b1a 28bd 1461 493c 5a5f 81bd 37e4 273d
000000c0: 78d1 51bd 34e0 0a3d ebe9 48bb 20db ab3d
000000d0: 79c9 0ebd e2a9 8fbc 7a38 b6bd 60fd c03b
000000e0: 853f c1bc 5e30 b3bd a6e1 25bc 4d10 debc
000000f0: 819c 863d 7115 9d3d d9a9 c7bc 9c98 35bc
0.09488247 -0.029263832 -0.07832996 0.09003895 0.10655436 -0.048666675 0.047197673 -0.09272084
0.019376377 0.065174796 0.094411656 -0.08806368 -0.04247143 0.06456073 -0.09004997 -0.069228135
0.060087603 0.020188171 0.08703613 0.0774495 -0.0068386314 0.03820586 -0.08975822 -0.0360668
0.099399224 0.07239009 0.053681567 -0.055857085 -0.096580885 -0.050941803 -0.058130343 -0.0018720577
0.0036671988 -0.093207784 -0.064844795 -0.07684863 0.06586515 -0.0589469 -0.043511618 0.004638017
0.03513687 -0.048165478 0.09156204 0.10233968 -0.04104058 0.012291212 -0.06317015 0.040989127
-0.051225156 0.033905223 -0.0030657004 0.08391404 -0.034860108 -0.017537061 -0.08897491 0.0058895797
-0.023589859 -0.0874946 -0.0101246 -0.027107382 0.065728195 0.07670105 -0.024372982 -0.011083748

final_bn.weight f4 [64]
00000000: 6fdf fe3e f468 9b3e f7c2 b53e 9237 c43e
00000010: 35ae 153f d6e1 a23e 8be6 cc3e 6e34 953e
00000020: 179e 043f e3eb f43e 1dc1 bb3e 690f bc3e
00000030: cb51 9b3e a652 a93e c3cb 223e 1297 a23e
00000040: d6b7 b43e a87a d43e 97d7 8d3e 347c d03e
00000050: d4d3 913e d20d cf3e c176 cd3e 395c cf3e
00000060: a138 e23e 6012 c23e 15ad c33e 698e f53e
00000070: 7b7b ac3e 8f87 b43e 42a0 c93e 4982 bd3e
00000080: 0d01 043f 8dcb ca3e 0384 d33e 3a3e eb3e
00000090: 925f fc3e 18e0 c83e a731 af3e 8529 963e
000000a0: dff0 fe3e 65f7 a63e 83f6 ba3e ef94 ba3e
000000b0: 156a 9a3e 5a3b a63e 1097 8c3e 57e3 9d3e
000000c0: 6e9a bc3e 4caf ca3e 314d 893e 3731 a93e
000000d0: b86a ef3e 0c76 dc3e a63d 383e 84e3 173f
000000e0: 4b4e f93e 34d3 973e 0a69 ab3e 1486 cc3e
000000f0: 134a d73e 5abe 043f 74e2 023f 760b ac3e
0.4977984 0.3035351 0.3550031 0.38323647 0.58468944 0.31812924 0.4001964 0.29141563
0.51803726 0.47836217 0.3667077 0.36730507 0.3033584 0.33070868 0.15898041 0.31755883
0.35296506 0.4149983 0.27703544 0.4071976 0.28481925 0.40440232 0.40129665 0.40500048
0.4418383 0.37904644 0.3821799 0.47960213 0.33687958 0.35259673 0.3938008 0.37013462
0.51564103 0.39608422 0.41311654 0.45945913 0.49291664 0.3923347 0.3421757 0.29328552
0.49793145 0.32610622 0.365162 0.36441752 0.3015906 0.32467157 0.27459002 0.3083751
0.3683657 0.39586866 0.26816705 0.3304536 0.46761107 0.43058813 0.17992267 0.59331536
0.48692545 0.29653323 0.33478576 0.39946043 0.42048702 0.51852953 0.5112679 0.33602494

final_bn.bias f4 [64]
00000000: 53f3 f2be d5d7 ebbd 2e6e c9be e94a 12bf
00000010: 86fe 0abf 4e68 58be 1cf9 1fbf 386c ddbd
00000020: 5c27 8bbe 2a97 d8be ac86 49be 9b60 dfbe
00000030: 1228 11be 8238 ddbe 13e7 19bf 1266 ddbe
00000040: 4ce2 01bf 975b cebe 23ba 87be 4d9a 73be
00000050: 218e 31be 7ec0 52be f40a 73be 6ce3 56be
00000060: 7ea1 b4be 428e 9dbe e7a7 dbbe 4013 10bf
00000070: b560 8dbe 595f 5ebe 8b97 10bf 0dc3 dbbe
00000080: a863 0abf cff5 1cbe 9c39 9ebe d613 8fbe
00000090: ce39 06bf 18a1 0fbf 3e9c ebbe d059 9dbd
000000a0: 580c 01bf d95a 4cbe 87ba efbe c111 22bf
000000b0: b256 aebe 18fb 99be 38a2 e5bd f9ca 4cbf
000000c0: 4a9e 47bf def8 15bf 74fc 99be 6049 bdbd
000000d0: 0d13 b0be bf20 65be bb5e 52be 9198 2fbf
000000e0: 5cbe 10bf 22d8 ccbe 8cfa a6be 1c4d 9cbe
000000f0: d78f 10bf b3e9 f2be 10c5 3cbe 04b2 c0be
-0.47451267 -0.11515776 -0.39341873 -0.57145554 -0.5429462 -0.21133539 -0.62489486 -0.10811657
-0.27178466 -0.4230283 -0.1968028 -0.43628392 -0.14175442 -0.43207175 -0.60118216 -0.43241936
-0.50735927 -0.40304253 -0.265092 -0.2378933 -0.17339374 -0.20581242 -0.23734647 -0.20985192
-0.3527946 -0.30772597 -0.42901537 -0.56279373 -0.27612844 -0.2171606 -0.56481236 -0.4292225
-0.54058313 -0.15328144 -0.30903327 -0.2794482 -0.5243195 -0.56105185 -0.4601764 -0.07683146
-0.5040946 -0.1995653 -0.46821997 -0.6330834 -0.34050518 -0.30074382 -0.112125814 -0.7999721
-0.77975905 -0.58582866 -0.3007542 -0.09242511 -0.34389535 -0.22375773 -0.2054395 -0.6859217
-0.56540465 -0.40008646 -0.32613027 -0.3052758 -0.5646948 -0.47443923 -0.18434548 -0.37635815

final_bn.running_mean f4 [64]
00000000: 0681 8cc0 67eb 96c0 b189 41c0 83cc b5c0
00000010: 7e86 80c0 eba5 85c0 9444 9fc0 d1f3 91c0
00000020: 5c29 14c0 d132 aebf 6e67 98c0 bc23 91c0
00000030: 770e 91c0 d822 2dc0 7c12 8bc0 58dd 13c0
00000040: a2ae 91c0 94ca 74c0 dca2 c6be 1c98 90be
00000050: 5cc0 62c0 fcbe 70c0 7ca7 4dc0 2b4f 4bc0
00000060: 283d a4bf 6fa3 e3bf dab7 a7bf ee73 c0c0
00000070: e1f0 1fc0 aece 16c0 33e8 52bf fa10 89c0
00000080: 749b b2c0 f63f 31c0 8ecd 92c0 60d0 94c0
00000090: 7127 88c0 4155 a3c0 4143 3dc0 4bfc 89c0
000000a0: 69eb bcc0 fd85 c5bf 876f 81c0 d218 18c0
000000b0: 9d33 d6bd bd74 17c0 f168 d8bf ff5d 94be
000000c0: 94b1 a13e f18f 15c0 4192 57c0 e2b4 9dc0
000000d0: 950e 72c0 0057 d2c0 c03f 09c0 65d2 afc0
000000e0: 2dbd 48c0 1005 27c0 0d7e 0fc0 9109 c8c0
000000f0: f6fc f0bf a24c bbc0 2387 b9c0 8383 9fc0
-4.39075 -4.7162356 -3.024029 -5.681215 -4.0164175 -4.1765037 -4.9771214 -4.5610127
-2.3150244 -1.3609258 -4.7626257 -4.535612 -4.5330157 -2.7052517 -4.3460064 -2.3103848
-4.5525675 -3.8248644 -0.38796127 -0.2824105 -3.5429907 -3.7616568 -3.2133474 -3.176707
-1.2831163 -1.7784251 -1.3102982 -6.0141516 -2.499077 -2.3563647 -0.8238556 -4.2833223
-5.581476 -2.7695289 -4.587592 -4.6504364 -4.2548146 -5.104157 -2.9572299 -4.3120475
-5.9037366 -1.5431515 -4.044864 -2.376515 -0.10459063 -2.3665001 -1.6907026 -0.28977963
0.31580794 -2.3369105 -3.3683016 -4.9283304 -3.78214 -6.57312 -2.144516 -5.494433
-3.1365464 -2.609684 -2.2420685 -6.251168 -1.8827198 -5.8531046 -5.797746 -4.9848037
