government_icfes_dataset/mlartifacts/294710831823527254/c8495d2fdf924144aa252f90269d10ea/artifacts/model/data/model.pth (torch, 443712 bytes, 39 tensors)

weight f4 [4, 4]
0	0xbf096750	-0.5367327
1	0xbf18f2c0	-0.5974541
2	0xbf63bbfd	-0.8895872
3	0xbee30a9d	-0.44344035
4	0xbedd740f	-0.43252608
5	0x3f3e323d	0.7429541
6	0x3f6b3487	0.91877025
7	0x3f53d973	0.82753676
8	0xc028ffb4	-2.6406069
9	0x403faf1b	2.9950626
10	0x405693d7	3.3527734
11	0xbffce03c	-1.9755931
12	0x3f8bde8a	1.0927289
13	0xbe628315	-0.22120316
14	0xbd3cb0fa	-0.046067216
15	0x3f7152ca	0.9426695

weight f4 [3, 4]
0	0x3f2d45ee	0.6768483
1	0xbe56b550	-0.20967603
2	0x3f16a804	0.5885012
3	0x3f4302b8	0.76176023
4	0x3f8f223a	1.118232
5	0x3e694ca3	0.22783141
6	0x3ee61b25	0.44942585
7	0xbd6d99fe	-0.058008187
8	0x3d4351e8	0.047685534
9	0xbda4c3e6	-0.08045177
10	0xbe3940f5	-0.18091185
11	0xbfa57df9	-1.2929069

weight f4 [5, 4]
0	0xbed5988d	-0.4171795
1	0xbf377aaf	-0.71671575
2	0xbda5ff7f	-0.08105373
3	0x3f740421	0.953188
4	0x3dcc6b85	0.09981445
5	0x40000155	2.0000813
6	0x3f8ec7fb	1.1154779
7	0xbf80120b	-1.0005506
8	0xbd943e91	-0.07238496
9	0xbf640eca	-0.89085066
10	0xbe320454	-0.17384464
11	0xbf70e42f	-0.9409818
12	0xbf9ff156	-1.2495525
13	0x3ec92f3b	0.39293846
14	0x3e0d323c	0.13788694
15	0x3f36eaad	0.71451837
16	0xbf7de95f	-0.9918422
17	0xbf673c41	-0.90326315
18	0x3f869681	1.051468
19	0x3f58ddd8	0.84713507

weight f4 [7, 4]
0	0x3f1eb620	0.6199665
1	0xbf5b00b3	-0.8554794
2	0xbfa4d6af	-1.2878016
3	0x3fc8e0b4	1.5693574
4	0x3fc17b31	1.511572
5	0x3fb1173f	1.3835219
6	0x3f7e3271	0.9929572
7	0xbf2501d1	-0.64455897
8	0x3f59339e	0.84844387
9	0xbf1550a7	-0.5832619
10	0x3f27eb5e	0.65593517
11	0x3e9e267e	0.30888742
12	0x3c43faba	0.011961633
13	0xbfbcf5f6	-1.4762561
14	0x3efea9dc	0.49738967
15	0xbfb76ea1	-1.4330636
16	0x3f8a599f	1.08086
17	0xbf0a4597	-0.54012436
18	0x401c2ac7	2.440111
19	0xbbd48d70	-0.006486587
20	0x3fb92659	1.4464828
21	0xbf968469	-1.1759158
22	0xc0190f03	-2.3915412
23	0xbdd66481	-0.10468388
24	0x3f9e5a4d	1.2371308
25	0xbf948afc	-1.1604915
26	0x3eb7c54e	0.3589272
27	0x3ef5829b	0.47951207

weight f4 [7, 4]
0	0x3ec3a4df	0.38211724
1	0x3d057d9e	0.0325905
2	0x3ec833fe	0.39102167
3	0xbd56e8b0	-0.052468
4	0x3f2f3937	0.6844668
5	0xbe0a20cc	-0.13489074
6	0xbfb9021a	-1.4453766
7	0xbf209b29	-0.62736756
8	0xbf0e8ab3	-0.5568039
9	0xbf501f94	-0.81298184
10	0xc0691201	-3.6417239
11	0x3fc6a379	1.5518638
12	0xbfd133ad	-1.6343895
13	0xbffce1b6	-1.9756382
14	0x3f8fde12	1.1239645
15	0xc02b1bb6	-2.6735663
16	0x3fb24e2f	1.393011
17	0xbe2cd957	-0.16879784
18	0xbfba794a	-1.4568264
19	0xbe774b0e	-0.24149725
20	0xbf1ba249	-0.607945
21	0xbf1bd960	-0.6087856
22	0x3f4d700b	0.8024909
23	0x3db29dd2	0.08721508
24	0xbfad4dbc	-1.3539348
25	0xbf50ce30	-0.8156462
26	0x3fdc051a	1.7189057
27	0xbde23e99	-0.11047096

weight f4 [1025, 4]
0	0x3f58d636	0.8470186
1	0xbfb00664	-1.375195
2	0xbf6d7fe2	-0.9277326
3	0x3f32aa2a	0.697909
4	0xbf10c2e4	-0.5654738
5	0x3e4934e0	0.19649076
6	0x3f5a3ad6	0.85246027
7	0xc00d99de	-2.2125163
8	0xbd5f532f	-0.05452269
9	0x3e779ef0	0.24181724
10	0xbebd3f2b	-0.36962256
11	0x3f4cb5cf	0.7996492
12	0xc039c229	-2.9024756
13	0x3efa254c	0.4885658
14	0x3f692657	0.91074127
15	0x3f6ef3ed	0.9334095
16	0xbe80706c	-0.2508577
17	0x3ff795fa	1.9342644
18	0x4010b1d9	2.260855
19	0xbef95681	-0.4869881
20	0x3f330d53	0.69942206
21	0xbeed43cf	-0.46340796
22	0xbeb75dad	-0.35813656
23	0x3fc58838	1.5432196
24	0xbf9ed833	-1.2409729
25	0xbfb4a695	-1.4113337
26	0xbe8656b3	-0.2623802
27	0x3f667d58	0.9003501
28	0x3f92bc87	1.1463784
29	0x3e23cdde	0.15996501
30	0xbf2fe016	-0.68701303
31	0x3f7738f8	0.965713
32	0xbe53bc1b	-0.20677225
33	0xbe31dae6	-0.1736866
34	0x3ed4d6a1	0.4157
35	0x3f1b4be6	0.60662687
36	0x3fa2d5cb	1.2721494
37	0x3e9504cb	0.2910522
38	0xbd3c80a1	-0.046021108
39	0x3de6e63e	0.11274384
40	0x3e948a7d	0.29011908
41	0x3f4d67a9	0.802363
42	0x3faeb409	1.3648692
43	0x3ea5db35	0.32393804
44	0xbed5b4c6	-0.41739482
45	0x3ec95e53	0.39329776
46	0xbf81fc92	-1.0155203
47	0x3f71b85a	0.94421923
48	0xbf43342c	-0.7625148
49	0xbe88a483	-0.26688012
50	0xbeb0a86f	-0.34503505
51	0x4013ed96	2.311376
52	0xbca58d8a	-0.020209093
53	0xc0053bcb	-2.0817745
54	0xbfc7d3bb	-1.561149
55	0x3e59aae0	0.2125659
56	0x3fb58535	1.4181277
57	0x3d82a9c4	0.063800365
58	0x3f9ca269	1.2237064
59	0x3f1d18b6	0.6136583
60	0xbf1f149d	-0.6214083
61	0xbe698cc3	-0.22807603
62	0x3ee4ef12	0.44713646
63	0x3e212c6e	0.15739605
64	0x3e7df4a3	0.24800353
65	0x3f9e86a5	1.238484
66	0xbec9cbe6	-0.39413375
67	0xbd6142d9	-0.05499539
68	0xbeab0029	-0.3339856
69	0xbf0d3219	-0.5515457
70	0x3efb2889	0.49054363
71	0xbe412df9	-0.18865193
72	0x3f04bd9f	0.5185184
73	0x3f45bd2d	0.77241784
74	0xbe76a9c5	-0.240882
75	0x3f1874b7	0.5955309
76	0x40015857	2.0210168
77	0x4005193a	2.0796647
78	0x4012c000	2.2929688
79	0xc003e384	-2.0607615
80	0x3f2f7609	0.6853948
81	0x3da46a04	0.080280334
82	0x3e51eab5	0.2049969
83	0x3e9cbe41	0.30613902
84	0x3fb3737a	1.4019616
85	0x3ea24495	0.3169295
86	0x3d80ec7b	0.06295105
87	0x3e18f990	0.1493895
88	0x3fa52698	1.2902403
89	0xbe8a15b4	-0.26969683
90	0xbdcc62c9	-0.09979779
91	0x3f100db5	0.56270915
92	0x3e4c51ff	0.19953154
93	0x3fa5f1d6	1.2964427
94	0xbf55216c	-0.8325412
95	0xbf08b669	-0.53403336
96	0xbfd36f36	-1.6518314
97	0xbe1b3d3a	-0.15160075
98	0x3f2191d9	0.6311317
99	0x3f657030	0.8962431
100	0xbfe532cf	-1.790613
101	0xbf83b658	-1.0290022
102	0xbeda899e	-0.4268312
103	0x3fc73cdc	1.5565448
104	0xbfa79e62	-1.309521
105	0x3f1c7f32	0.61131585
106	0x3f3f58a6	0.7474464
107	0x3fe5bf20	1.7948952
108	0x3fc4ebf0	1.5384502
109	0x3f3511ef	0.7073049
110	0x3ed78227	0.42091486
111	0xbfcfb518	-1.622714
112	0x3fde465b	1.7365221
113	0xbfa307d5	-1.2736765
114	0xbec2195a	-0.37909967
115	0x3fe867f3	1.8156723
116	0xbf9f9745	-1.2468039
117	0x3d8fb0da	0.07016154
118	0xbf07c440	-0.5303383
119	0xbfd50321	-1.664158
120	0x3f162651	0.58652216
121	0x3f085da9	0.53267914
122	0xbf94cfec	-1.1625953
123	0xbffddd3c	-1.983314
124	0x3c680ae6	0.014162755
125	0xbeea98b1	-0.4581962
126	0x3e8cd251	0.2750421
127	0xbf7eae64	-0.9948485
128	0xbf3a751f	-0.7283496
129	0x3d189771	0.0372538
130	0xbf06c0f7	-0.5263819
131	0x400331f8	2.0499249
132	0x3e848634	0.2588364
133	0x3fbf9473	1.4967178
134	0xbf0e616d	-0.5561741
135	0xbfe4257b	-1.7823938
136	0xbf464fc0	-0.7746544
137	0x3f3276f2	0.69712746
138	0xbf2a45ea	-0.6651293
139	0x3f1e4712	0.61827195
140	0x3f30e846	0.6910442
141	0xbfebdfe8	-1.8427706
142	0x3ce0b042	0.027427796
143	0xc0255261	-2.583153
144	0xbf15d9e2	-0.5853559
145	0x3f7c9728	0.98668146
146	0xbfdc900c	-1.723146
147	0xbe7dc42e	-0.24781868
148	0xbff90b89	-1.9456645
149	0x3fefc30a	1.8731396
150	0x3f42e14c	0.76125026
151	0x3ee09ef2	0.43871266
152	0xbf7e871c	-0.9942491
153	0x3f748ea3	0.95530146
154	0x3fad53b3	1.3541168
155	0xbff3c23c	-1.9043651
156	0xc00428c9	-2.0649893
157	0x3e88cfba	0.26720983
158	0xbe67c51a	-0.22633782
159	0x3fea3906	1.8298652
160	0xbf479949	-0.7796827
161	0x3f70093d	0.93764096
162	0x3f26c5b2	0.6514541
163	0xbfc98cc2	-1.5746081
164	0x3fb54a5b	1.4163316
165	0xbf3d68aa	-0.7398783
166	0x3f46542e	0.774722
167	0x3db73305	0.08945278
168	0xbe2fa48f	-0.17152618
169	0x3e2df937	0.16989599
170	0xbf407421	-0.751772
171	0xbf042803	-0.51623553
172	0x3f526551	0.82185847
173	0x3f9b59d1	1.2136785
174	0x3e76b0ef	0.24090932
175	0x3d280804	0.04102327
176	0x3f8bd2fd	1.0923764
177	0xbfbebc8d	-1.4901291
178	0xbffaa936	-1.9582889
179	0xbff2710d	-1.894075
180	0xc00e968d	-2.227939
181	0xbfe56390	-1.7921009
182	0x3f32305c	0.6960504
183	0x3fbc67a3	1.4719127
184	0xbe497d99	-0.19676818
185	0x3f1c15e4	0.609709
186	0xbf55e4b2	-0.83552086
187	0x3f3f2360	0.7466335
188	0x3eb6fff3	0.3574215
189	0xbfc4c412	-1.5372336
190	0xbe122a73	-0.14274006
191	0x3f8cd985	1.1003882
192	0x3f688e93	0.9084255
193	0x3fd31dd8	1.6493483
194	0x3eeaba0a	0.45845062
195	0xbf83c02f	-1.0293025
196	0xbe89cba9	-0.26913193
197	0x3fa0a4c5	1.2550284
198	0x402eb5aa	2.729838
199	0xbec24848	-0.3794577
200	0x3f112c07	0.56707805
201	0xbdad2ca7	-0.084557824
202	0x3f10fc20	0.5663471
203	0x3ddb96ec	0.107221454
204	0x3e9f046d	0.31058064
205	0xbe312478	-0.17299068
206	0x3f174f11	0.5910502
207	0xbf014459	-0.50494915
208	0xbe288b57	-0.16459404
209	0xbf80d1f1	-1.0064069
210	0xbf956d35	-1.1673952
211	0x3fb65ff4	1.4248033
212	0xbf3a9898	-0.7288909
213	0xbf0df58e	-0.5545281
214	0x3e98da31	0.29853967
215	0x3faf335e	1.3687551
216	0x3e4c43ec	0.19947785
217	0x3ebd3771	0.3695636
218	0xbee1df12	-0.44115502
219	0x3f93466a	1.1505864
220	0x3feeec0f	1.8665789
221	0xc00147c4	-2.0200052
222	0xbfb3be37	-1.4042424
223	0xbfc63cd9	-1.5487319
224	0xbe70e69a	-0.23525468
225	0xbf222685	-0.63340026
226	0x3ee328bd	0.44367018
227	0xbf65bd19	-0.89741665
228	0x3f34c751	0.7061663
229	0xbfb3fa41	-1.4060746
230	0x3fecc8cb	1.8498777
231	0x3ef5dc88	0.48019814
232	0x3f644795	0.89171726
233	0x3f084081	0.53223425
234	0xbfaacd74	-1.3343949
235	0x3e620dbc	0.22075552
236	0xbeaafe39	-0.33397081
237	0x3fec5507	1.8463448
238	0xbfb3e37d	-1.4053799
239	0xbee31864	-0.44354546
240	0x3fa76af9	1.307952
241	0xbe329148	-0.17438233
242	0xbe1f90c1	-0.15582563
243	0x3dac562c	0.084148735
244	0xbede2f9f	-0.43395707
245	0xbf080ea6	-0.5314735
246	0xbf1fd629	-0.6243616
247	0x3f9b6640	1.2140579
248	0x3f1dcc03	0.6163942
249	0xbfe15a77	-1.7605733
250	0x3fce3f75	1.6113116
251	0x3dd855fd	0.10563276
252	0x3fa871e0	1.3159752
253	0xc00267b4	-2.0375795
254	0xbfb3f202	-1.405823
255	0x3dbba0f5	0.091615595

weight f4 [3, 4]
0	0xbfb472b3	-1.4097503
1	0xbe2d3e43	-0.16918282
2	0xc004f2b6	-2.077314
3	0x3efea7fc	0.49737537
4	0x3fa72a26	1.3059738
5	0xbfba50f2	-1.4555953
6	0xbf399184	-0.72487664
7	0x3debcfa4	0.11514214
8	0x3f662568	0.8990083
9	0xbf88abcd	-1.067743
10	0x3f1c1ab9	0.60978276
11	0x3f89d28a	1.0767376

weight f4 [7, 4]
0	0x3f0e4e8c	0.55588603
1	0x3fefb60f	1.8727435
2	0xbe6f61aa	-0.233771
3	0x3f141190	0.578393
4	0x3f4e4f21	0.8058949
5	0x3e1cadee	0.15300724
6	0x3fb574ce	1.4176271
7	0xbd6e2276	-0.058138333
8	0x3dcc081b	0.099624835
9	0xbe92755e	-0.2860517
10	0xbf3c6e63	-0.73605937
11	0xbe26eec4	-0.1630202
12	0xbdf9aa8e	-0.12190734
13	0x3db4347b	0.08799072
14	0x3e9415eb	0.28922972
15	0x3fadc57e	1.3575895
16	0xbf060001	-0.52343756
17	0x3f5b2f5f	0.8561916
18	0x3ff5338d	1.9156357
19	0x3f999aff	1.2000426
20	0x3ed156b7	0.4088647
21	0xbf2a926e	-0.66629684
22	0x3e7ed6e0	0.24886656
23	0xbea6667f	-0.32500073
24	0xbe0b5769	-0.13607563
25	0x3eb0b862	0.34515673
26	0xbf938a45	-1.1526572
27	0x3edbe616	0.4294898

weight f4 [7, 4]
0	0x3e055a0b	0.1302263
1	0x3edcd029	0.43127564
2	0xbf2f5f9f	-0.6850528
3	0x3f0617e5	0.5238021
4	0xbeb06f35	-0.34459844
5	0xbe7c1547	-0.24617492
6	0x3eaed5f4	0.34147608
7	0xbf82533e	-1.0181653
8	0xbfaa7da2	-1.331959
9	0x3e4e890d	0.20169468
10	0x3f7ab681	0.9793473
11	0x3fbc04c2	1.4688952
12	0xbf3ef6c5	-0.7459529
13	0xbe3da057	-0.18518196
14	0xbf83b6e5	-1.029019
15	0xbf2b9aff	-0.6703338
16	0xbf042edd	-0.5163401
17	0x3f079ffe	0.52978504
18	0xbf067804	-0.5252688
19	0x3fb55b41	1.4168473
20	0xbedbd748	-0.42937684
21	0xbe24938a	-0.16071907
22	0xbfadfdb5	-1.359305
23	0x3e60afe7	0.21942101
24	0xbfb1b74b	-1.3884062
25	0xbfa75177	-1.3071736
26	0xbec50c84	-0.3848611
27	0x3f4e9f79	0.80712086

weight f4 [3, 4]
0	0x3f907c6e	1.1287973
1	0xc0070010	-2.1093788
2	0xbfd5cb5a	-1.6702683
3	0xbfd03807	-1.6267098
4	0x3e01d764	0.12679821
5	0x3ee37db1	0.44431832
6	0x3e7e0d9b	0.24809878
7	0x3cdf7c7c	0.027281038
8	0x3f642eb3	0.8913376
9	0xbf866880	-1.0500641
10	0xbf1e1348	-0.6174817
11	0xbe8b6975	-0.27228895

weight f4 [427, 4]
0	0xbf00ba14	-0.5028393
1	0x3f9416df	1.156948
2	0x3f274875	0.65344936
3	0x3f83d1ca	1.0298398
4	0xbdd6b5c2	-0.10483886
5	0xbe32ffad	-0.17480345
6	0xbfb0ea6f	-1.3821543
7	0xbed5ccf2	-0.41757923
8	0xbfacdbbd	-1.3504559
9	0x3fe3d944	1.7800679
10	0xbfedc90f	-1.8576983
11	0x3f14aba1	0.58074385
12	0x3f8131b1	1.009329
13	0xbd8c2d90	-0.06844628
14	0x3fd07758	1.6286421
15	0xbf911b16	-1.1336391
16	0x3f729289	0.94754845
17	0xbf33dc45	-0.7025798
18	0x3eb2225f	0.34791848
19	0xbf5749e5	-0.8409713
20	0xbeb2e0af	-0.34937045
21	0xbf4fdcc7	-0.81196254
22	0x3f97427c	1.1817164
23	0x3f551300	0.83232117
24	0x3fe11e8f	1.7587451
25	0x3eff3b73	0.49850044
26	0x3ee9b48b	0.45645556
27	0xbe457719	-0.19283713
28	0x3f9829c1	1.1887742
29	0x3f4b257d	0.7935408
30	0xbee043c3	-0.43801698
31	0x3ef5c1ac	0.47999322
32	0xbe1926a5	-0.14956148
33	0xbe4e7839	-0.20163049
34	0x3f8901d2	1.070368
35	0xbecedff3	-0.40405235
36	0xbd5aa0d5	-0.053376038
37	0xbdcf69a3	-0.101275705
38	0xbf84a348	-1.036233
39	0x3f48542d	0.7825344
40	0x3ec0ac85	0.37631622
41	0xbe7699a8	-0.24082053
42	0x3e467d2a	0.19383684
43	0xbf172a28	-0.590487
44	0x3efa258a	0.48856765
45	0x3f09f60e	0.53891075
46	0xbe80820a	-0.25099212
47	0x3df934b3	0.12168255
48	0xc016b808	-2.3549824
49	0x401a66ea	2.4125314
50	0x3f9511bc	1.1646037
51	0xbf2f3ca9	-0.68451935
52	0xbf935548	-1.1510401
53	0x3f41d920	0.7572193
54	0x3f188228	0.595736
55	0xbedfdc5e	-0.43722814
56	0xbfb24d2c	-1.3929801
57	0xbfc94c20	-1.5726357
58	0x3f8b9e98	1.0907774
59	0x3fc7d2d2	1.5611212
60	0x3f68dd2c	0.9096248
61	0xbd59ad23	-0.05314363
62	0x3f6254c4	0.8841059
63	0xbe1324a4	-0.14369446
64	0x3f1719d3	0.5902378
65	0xbf003224	-0.5007651
66	0xbdac979b	-0.08427354
67	0x3fefd412	1.8736594
68	0xbea8847a	-0.32913572
69	0x3fb8e89a	1.4445984
70	0xbf12d363	-0.573538
71	0x3f35640d	0.7085579
72	0x3f998128	1.199254
73	0x3f50dcab	0.8158671
74	0xbfe8e96f	-1.8196238
75	0x3f8b3e0d	1.0878311
76	0xbf034ee2	-0.5129224
77	0xbfa89383	-1.3170017
78	0x3f643e99	0.89158016
79	0xbfbca21f	-1.4736975
80	0x3f56d80b	0.83923405
81	0x3e82e923	0.25568494
82	0x3fc3981d	1.5280796
83	0xbf0568db	-0.5211312
84	0xbfdaea07	-1.710267
85	0x3dbbdbda	0.09172793
86	0xbf326769	-0.6968904
87	0x3e870458	0.26370502
88	0x3e97da51	0.2965875
89	0x3f9db951	1.2322179
90	0xbffe593e	-1.9870985
91	0xc0064d72	-2.098477
92	0x3f5d0a7c	0.8634412
93	0x3fa00ad5	1.2503306
94	0x3f312986	0.69203985
95	0xbf189d4b	-0.5961501
96	0xbf309a02	-0.68985
97	0xbf4998d8	-0.78748846
98	0xbf8740ab	-1.056661
99	0xbf6431e9	-0.89138657
100	0xbf8d6fbb	-1.1049722
101	0x3fa888c0	1.3166733
102	0xbe889c2b	-0.26681647
103	0xbd2633e6	-0.040576838
104	0x3e2258e6	0.15854225
105	0xbecd5c8d	-0.40109673
106	0xbf79c1f4	-0.97561574
107	0x3e93efde	0.28893942
108	0xbfc7280e	-1.5559099
109	0xbf6969ef	-0.91177267
110	0xbef5c7d5	-0.48004022
111	0x3f3e29cb	0.7428252
112	0x3fe05097	1.7524594
113	0xbfbad6bb	-1.459678
114	0xbf9497ba	-1.1608803
115	0xbebc5113	-0.36780605
116	0xc0040126	-2.06257
117	0xbf0dc8ce	-0.5538453
118	0xbf69467e	-0.9112319
119	0xbf4a58d8	-0.79041815
120	0x3f3417f3	0.70349044
121	0x3fcf33ea	1.6187718
122	0xbe63961d	-0.22225232
123	0xbeee8895	-0.4658858
124	0x3f54241a	0.82867587
125	0xbf9300cf	-1.1484622
126	0xbfb92ca3	-1.4466747
127	0x3f2d6513	0.6773235
128	0x3fbad5fd	1.4596554
129	0xbec0ebb7	-0.37679836
130	0xbf38cf6f	-0.7219152
131	0xc0365452	-2.8488965
132	0x3f45a630	0.77206707
133	0xbe5028b4	-0.20328027
134	0xbe887506	-0.26651782
135	0xbeab4bcc	-0.33456266
136	0x3f6205c9	0.8829008
137	0x3fbc8f49	1.4731227
138	0xbfb9eb2a	-1.4524891
139	0x3da14641	0.07874728
140	0xbf03b8b7	-0.5145373
141	0x3ef1f550	0.4725747
142	0xbfa199e5	-1.262509
143	0xbfd7f5e2	-1.6871912
144	0x3fab69fd	1.339172
145	0xbf502dcb	-0.81319875
146	0x3f9423b6	1.1573398
147	0xbfc615f0	-1.5475445
148	0x3fd7fbb9	1.6873695
149	0xbde3c207	-0.11120992
150	0x3fdeb77d	1.7399746
151	0x3fe70076	1.8047016
152	0x3feda31f	1.8565406
153	0x3efebd1d	0.49753657
154	0x3f2325b0	0.6372938
155	0xbf91aa3e	-1.1380079
156	0x3fa0d368	1.2564516
157	0x3ed9e12c	0.42554605
158	0x3fd09151	1.6294347
159	0xc030ee32	-2.7645383
160	0xbe7f4bbe	-0.24931237
161	0x3f13a44d	0.5767258
162	0x3f5d848b	0.8653037
163	0xbed7bd47	-0.42136595
164	0xbf0bd6ee	-0.5462483
165	0xbd952d3a	-0.07284017
166	0xbf6ec9d6	-0.9327673
167	0x3e57d983	0.21079068
168	0x3ff415a9	1.906911
169	0xbf5b7c79	-0.85736805
170	0x3b336549	0.0027373603
171	0x3ed8be69	0.4233277
172	0xbff5ce00	-1.9203491
173	0x3f5cb140	0.8620796
174	0x3f88af9b	1.067859
175	0x3f2c9b6d	0.6742466
176	0x3e85f4df	0.26163384
177	0xbfbba1e4	-1.465878
178	0xbf0a92de	-0.5413035
179	0xbf56ebe2	-0.8395368
180	0x3ec07269	0.37587288
181	0x3f051f32	0.52000725
182	0x3e1f4cac	0.15556592
183	0xbee3eff6	-0.44519013
184	0x3ef62b30	0.48079824
185	0x3e3dd27a	0.18537322
186	0x3e2cb97d	0.16867633
187	0x3f5d0181	0.8633042
188	0xbfe02d02	-1.7513735
189	0xbe535f68	-0.20641863
190	0x3f83924f	1.0279025
191	0x3f3f76eb	0.7479083
192	0xbe5c2597	-0.21498714
193	0x3ef25bf6	0.47335786
194	0x3e6264ee	0.22108814
195	0xbfb79d30	-1.4344845
196	0xbc9f5d75	-0.019453743
197	0xc0018c23	-2.0241783
198	0xbff1907f	-1.8872222
199	0xbfb846b1	-1.4396573
200	0xbedeb0f4	-0.4349438
201	0x3eabe7a2	0.3357516
202	0x3ef97372	0.4872089
203	0xbe3331d0	-0.1749947
204	0x3ec90611	0.3926244
205	0xbfcab60d	-1.5836807
206	0xbf1582a7	-0.58402485
207	0xbdb57739	-0.088606305
208	0x3f9d5c65	1.2293822
209	0x3f6ddc65	0.9291442
210	0xbfc5074f	-1.5392855
211	0x3e7ca628	0.24672759
212	0xbe5365f0	-0.20644355
213	0xbf7234bd	-0.9461172
214	0xbfd06a54	-1.6282449
215	0x3f64510f	0.89186186
216	0x3d7c8aa7	0.061655667
217	0x3ec8ef9a	0.392453
218	0x3f3fd725	0.7493766
219	0x3e526deb	0.20549743
220	0xbef02da3	-0.46909818
221	0xbf0accb8	-0.54218626
222	0x4051374c	3.269
223	0xbe1631d1	-0.14667441
224	0xbf3bb49b	-0.7332246
225	0xbe5ffead	-0.21874495
226	0xbca7a676	-0.020465117
227	0xbf240210	-0.6406565
228	0xbe186099	-0.14880599
229	0xbf8eb47f	-1.1148833
230	0xbfcc9190	-1.5981922
231	0x3f3e8810	0.74426365
232	0x3f883c3f	1.0643386
233	0x3c19b0cd	0.0093805315
234	0x3f1249ce	0.57143867
235	0x3d7f9d78	0.062406033
236	0x3fb15126	1.385289
237	0xbf9d35e3	-1.228207
238	0x3e5fdea2	0.21862271
239	0xbff00875	-1.8752581
240	0xbf9211ff	-1.1411742
241	0xbf7055b6	-0.93880785
242	0xbb9cbc31	-0.0047831764
243	0x3f8dfffd	1.1093746
244	0xbff0c73d	-1.8810803
245	0x3f896e56	1.0736797
246	0xbea6ad5c	-0.32554138
247	0x3f10da3d	0.56583005
248	0x3f361845	0.7113078
249	0x3f3e9c2d	0.74457055
250	0x3f80d83f	1.0065993
251	0xbf9e19c7	-1.2351617
252	0x401ef44c	2.4836607
253	0x3f65b0a4	0.8972266
254	0xbf1fc5fe	-0.6241149
255	0xbf65eb31	-0.89812

weight f4 [1030, 4]
0	0xbf22456a	-0.6338717
1	0xbedcb542	-0.4310704
2	0xbfae31b8	-1.3608923
3	0xbe0351a2	-0.12824109
4	0xbfb68c5a	-1.4261582
5	0xbf58f449	-0.8474775
6	0x3fb6812b	1.4258169
7	0xbfb62c23	-1.423222
8	0x3efad137	0.48987743
9	0xbde07d39	-0.10961384
10	0x3f98081c	1.1877475
11	0x3f96bc7e	1.1776273
12	0x3f83d484	1.029923
13	0x3e1244a0	0.14283991
14	0xbe93cb91	-0.28866246
15	0x3f6985d7	0.9121985
16	0xbe3b9c9e	-0.18321463
17	0xbf2e8e9e	-0.68186367
18	0xc0021d8e	-2.0330539
19	0xbf541ef5	-0.82859737
20	0x3fafe14c	1.374063
21	0xbe4435d6	-0.19161162
22	0x3f32ea4d	0.69888765
23	0x3f81269c	1.0089908
24	0x3f3b9f86	0.7329029
25	0x3d4379b3	0.047723483
26	0xbde8ee97	-0.113736324
27	0x3e52764a	0.20552936
28	0x3f284f12	0.6574565
29	0xbf5d0598	-0.8633666
30	0xbf3eeb31	-0.74577624
31	0x3f83739b	1.0269655
32	0x3f0d1eba	0.5512501
33	0x3f390a7f	0.7228164
34	0xbf30bedd	-0.69041234
35	0x3f2f6923	0.685198
36	0x3c1ca5c0	0.009561002
37	0xbfecb996	-1.8494136
38	0x3f841915	1.0320154
39	0x3fe290ac	1.77004
40	0x4002d8ee	2.0444903
41	0xbe9f785e	-0.3114652
42	0x3f52f76e	0.824088
43	0xbe9dd640	-0.30827522
44	0xbe941073	-0.289188
45	0xbe620400	-0.22071838
46	0xbf927ca6	-1.144429
47	0x3f972c7e	1.1810453
48	0xbd96755b	-0.073466025
49	0xbf617b5e	-0.8807887
50	0xbfa585da	-1.2931473
51	0x3f392d92	0.7233516
52	0xbef75e8a	-0.48314315
53	0x3f2480ef	0.6425924
54	0x3f4e1248	0.80496645
55	0x3f09d598	0.53841543
56	0x3f1aee8f	0.6052026
57	0xbf22ee7f	-0.63645166
58	0xbf9eff98	-1.2421751
59	0x3f2a89b6	0.6661638
60	0xbfb9072e	-1.4455316
61	0x3dbdf6b0	0.092755675
62	0xbf713048	-0.94214296
63	0x3f11e9ee	0.56997573
64	0xbfde0599	-1.7345458
65	0xbf0119cb	-0.5042998
66	0xc0145eae	-2.3182788
67	0xbf0095c7	-0.5022854
68	0xbe8199a6	-0.25312537
69	0xbd7ec91c	-0.06220351
70	0x3e8d42a8	0.27589917
71	0xbe5c1d7d	-0.21495624
72	0x3fbc8914	1.4729333
73	0x3fe83876	1.814223
74	0x3f26100b	0.6486823
75	0x3df40ca0	0.119164705
76	0xbdd859bb	-0.1056399
77	0x3f81fefa	1.0155938
78	0xbf5bbe0c	-0.85836864
79	0x3f94ff70	1.1640453
80	0xbfc78542	-1.5587542
81	0x3ea2e492	0.3181501
82	0xbe954548	-0.2915442
83	0xbd96a0b0	-0.073548675
84	0xbfaf154e	-1.3678377
85	0x3fb7ca0d	1.4358536
86	0xbfae9d7d	-1.3641812
87	0x40114cb4	2.2703066
88	0xbfa7b72f	-1.3102778
89	0xbf323a63	-0.6962034
90	0x3f5ec07d	0.87012464
91	0x3e48068d	0.19533749
92	0x3f60103d	0.8752478
93	0x3f139f1c	0.57664657
94	0x3f11ee2e	0.5700406
95	0x3eca5415	0.39517274
96	0x3e4831da	0.19550267
97	0x3feaf5c4	1.8356252
98	0x3e387acb	0.18015592
99	0x3f6cfc26	0.9257225
100	0xbf05ff29	-0.5234247
101	0xbfcef4c1	-1.6168443
102	0x3f9b4e36	1.2133243
103	0x3f1a7721	0.60338026
104	0xbfd296a6	-1.6452224
105	0x3f1defca	0.61694014
106	0xbf88b79c	-1.0681033
107	0x3df4905b	0.11941596
108	0x3ebd2949	0.3694556
109	0x400e2fe4	2.221673
110	0xbfa3264c	-1.2746062
111	0x3f60a8ef	0.8775777
112	0xbd18bfad	-0.03729217
113	0x3f022319	0.50834805
114	0xbf094f24	-0.53636384
115	0xbf0563cb	-0.52105397
116	0xbed53401	-0.41641238
117	0xbfeb3c53	-1.8377784
118	0xbf02ab9c	-0.51043105
119	0x3f46b099	0.77613217
120	0xbfee4f9a	-1.8618042
121	0x3b0518e0	0.0020309016
122	0x3f1cc619	0.61239773
123	0xbf814a26	-1.0100753
124	0x3d898be0	0.06716132
125	0xbe760a59	-0.24027385
126	0xbf20b331	-0.62773424
127	0x3f91175c	1.1335254
128	0xbfb2e484	-1.3975987
129	0xbcacd478	-0.021097407
130	0x3a91ad19	0.0011114209
131	0x3e244f1d	0.16045804
132	0x3e050b18	0.12992513
133	0xbd658afb	-0.056040745
134	0x3f7ba67d	0.98300916
135	0x3fa622b3	1.2979339
136	0x3f669351	0.90068537
137	0xbf8bfe09	-1.09369
138	0xbf63d1ab	-0.889918
139	0xbfacbad6	-1.3494518
140	0xbe9ad460	-0.30240154
141	0x3e9c8d2f	0.30576465
142	0xbfa26264	-1.2686276
143	0xbf1c5564	-0.61067796
144	0x3fa21d40	1.2665176
145	0x3de10b95	0.10988537
146	0xbf0df6c8	-0.55454683
147	0xc0024bf7	-2.0358865
148	0xbf218931	-0.6309996
149	0x3e957568	0.29191136
150	0xbf850ddb	-1.0394853
151	0x3faa1d30	1.3290157
152	0xbeeb8443	-0.45999345
153	0x3f882449	1.0636073
154	0xbfa5bd42	-1.2948382
155	0x3eb3f186	0.35145205
156	0x3fbc2922	1.4700053
157	0x3dd2bc32	0.10289802
158	0xbef3040a	-0.4746402
159	0x3f91caf8	1.1390066
160	0x3f954264	1.1660886
161	0x3f9e6615	1.2374903
162	0xbe3f6c1f	-0.18693589
163	0xbff6c4cb	-1.9278806
164	0x3dd89828	0.105758965
165	0x3f0b1e1c	0.5434282
166	0x3f9ff04f	1.2495211
167	0xbf306e31	-0.6891814
168	0xbf8cca6d	-1.0999275
169	0xbf3b025c	-0.73050475
170	0xbe265762	-0.16244271
171	0x3f0d9e72	0.55319893
172	0x3fc55207	1.5415658
173	0xbd53f61f	-0.05174839
174	0x3efb939e	0.4913606
175	0xbf11762e	-0.5682095
176	0x3d679391	0.056537215
177	0x3f8a5dd4	1.0809884
178	0xbfa1a889	-1.2629558
179	0x3e1acbb9	0.15116777
180	0x3fec7c60	1.8475456
181	0xbe1f6713	-0.15566663
182	0xbfe9b729	-1.8259021
183	0x3ef2d88b	0.47430834
184	0x3f842f71	1.0326978
185	0xbece9da8	-0.40354657
186	0x3f04041e	0.5156878
187	0xbf971e2f	-1.1806086
188	0x3f089520	0.53352547
189	0xbf9d40a3	-1.228535
190	0xbf35ad79	-0.70967823
191	0x3d1ca804	0.03824617
192	0x3eceb77b	0.4037436
193	0xbfd33b8a	-1.6502545
194	0x3d533190	0.05156094
195	0xbe66903d	-0.2251596
196	0xbe9a2598	-0.30106807
197	0xbeb5401c	-0.35400474
198	0x3fce225a	1.6104233
199	0x3f140007	0.5781254
200	0x3ea2a3fd	0.31765738
201	0x3cb3956e	0.02192184
202	0xbe093b37	-0.13401495
203	0x3cf0a29b	0.029374411
204	0xbe03ed22	-0.12883428
205	0xbe5961cc	-0.21228713
206	0xbf26cf18	-0.6515975
207	0x3fe2ca9d	1.7718083
208	0x3f986626	1.1906173
209	0xbfa6903f	-1.301277
210	0x3d13719e	0.035997026
211	0xbf957bc1	-1.1678392
212	0xbf78dad9	-0.97208935
213	0x3fbba41f	1.4659461
214	0xbeec90a7	-0.4620411
215	0xbf7b2454	-0.9810231
216	0xbf4c709e	-0.7985934
217	0x3ee653e5	0.4498588
218	0x3dd94561	0.10608936
219	0xbe8f94cb	-0.28043208
220	0xbfe1dd52	-1.7645667
221	0x3e9d0d99	0.30674437
222	0x3f1ff98b	0.6249015
223	0xbf44896e	-0.767722
224	0x3fcd6439	1.604621
225	0xbeaada08	-0.3336947
226	0x3f3b4198	0.73146963
227	0x3bf32b1f	0.007420912
228	0x3f23ac82	0.639351
229	0xbfb9af81	-1.4506685
230	0xbde95fcb	-0.11395224
231	0xbe2f434c	-0.17115515
232	0x3f725932	0.9466735
233	0xbf1d816f	-0.61525625
234	0xbe2057e5	-0.15658529
235	0x3e4e7705	0.2016259
236	0xbe3d40a7	-0.18481694
237	0xbf83bc7f	-1.02919
238	0xbfa6a078	-1.3017721
239	0xc01ba9ac	-2.432231
240	0xbedf5793	-0.436215
241	0xbe0e10a3	-0.13873534
242	0x3d37beaf	0.044859584
243	0xbfa5c9a2	-1.2952158
244	0xbe39c2c1	-0.18140699
245	0xbebb5e85	-0.3659555
246	0xbff02b57	-1.8763226
247	0xbfa41d38	-1.2821417
248	0x3e6b00de	0.2294955
249	0x3d551fbc	0.052032217
250	0x3f46b934	0.7762635
251	0xbfc2a1c0	-1.5205612
252	0xbfed4d74	-1.8539262
253	0x3f7fb2fd	0.9988249
254	0x3f6911a6	0.91042554
255	0x3ebca656	0.36845654

weight f4 [7, 4]
0	0x3eb80b2e	0.3594603
1	0xbf585852	-0.84509766
2	0xbf04aec4	-0.5182917
3	0x3f696968	0.9117646
4	0xbdb0df47	-0.08636337
5	0xbf55443c	-0.8330724
6	0xbf0d32ed	-0.5515583
7	0x3f3c1287	0.7346577
8	0xbf0cefa6	-0.55053174
9	0xbf6c6c45	-0.92352706
10	0xbeb2ad31	-0.3489776
11	0x3f74e275	0.95658046
12	0xbe43542e	-0.19075081
13	0x3e99aadd	0.3001317
14	0x3eff1271	0.49818757
15	0xbee8f0a0	-0.45496082
16	0x3e959c86	0.2922098
17	0x3eb560a9	0.35425308
18	0x3ec54de7	0.38535997
19	0xbdccb0f6	-0.0999469
20	0xc008ac40	-2.1355133
21	0xbfa862ce	-1.3155153
22	0x3fa03300	1.2515564
23	0xbe9a74f8	-0.30167365
24	0x3f81b002	1.0131838
25	0x3d01416f	0.031556543
26	0x3fcd47e2	1.6037562
27	0xbf061be8	-0.5238633

weight f4 [7, 4]
0	0x3f857d47	1.0428857
1	0x3f30b568	0.69026804
2	0xbe17a537	-0.14809118
3	0xbf5dc8dd	-0.8663462
4	0xbd5ddbe1	-0.05416477
5	0xbf1eb34d	-0.6199234
6	0x3f795e1a	0.9740921
7	0xbe1b9084	-0.15191847
8	0xbed7b965	-0.42133632
9	0x3ecb9c31	0.39767602
10	0xbef7f916	-0.48432225
11	0x3fa85301	1.3150331
12	0x3f7854e8	0.97004557
13	0xbe3c95f1	-0.18416573
14	0xbfb81ccf	-1.4383792
15	0x3f49fb1e	0.788988
16	0xbead1299	-0.3380325
17	0x3e6c4c6f	0.23076032
18	0x3f7a09f6	0.9767145
19	0xbf769dbb	-0.9633443
20	0x3f1754e5	0.59113914
21	0xbf26d4e9	-0.65168625
22	0x3eae4392	0.34035927
23	0x3f96d4c8	1.1783686
24	0x3ea1f77c	0.31634128
25	0x3fcca8a9	1.5988971
26	0xbfd1fe7e	-1.640579
27	0xbf05d171	-0.5227271

weight f4 [7, 4]
0	0xbe6c4357	-0.23072563
1	0xbf915b46	-1.135598
2	0xbdc3e562	-0.09565236
3	0xbf8ae26f	-1.0850352
4	0x3f8468a2	1.0344431
5	0x3db2efdf	0.08737158
6	0x3f01e092	0.5073329
7	0x3f8360e9	1.026395
8	0xbee02204	-0.43775952
9	0x3ef059c8	0.46943498
10	0xbd8ee0ab	-0.06976446
11	0xbe5ff9ca	-0.2187263
12	0x3f4e7515	0.80647403
13	0xbe902f70	-0.28161192
14	0xbee07940	-0.43842506
15	0xbd813c5f	-0.06310343
16	0x3e5eefb1	0.21771123
17	0x3f6f76ad	0.9354046
18	0xbea7faad	-0.32808438
19	0xbd747c5f	-0.059688922
20	0xbed3e55b	-0.41385922
21	0x3f160f94	0.5861752
22	0xbf05eaf3	-0.5231163
23	0xbde96188	-0.11395556
24	0xbec7cf77	-0.3902547
25	0xbf777b06	-0.96672094
26	0x3d8fc07f	0.070191376
27	0x3f7cc893	0.9874355

weight f4 [6, 4]
0	0x3f9ad7c5	1.2097098
1	0x3e02fb50	0.1279118
2	0xbdb24f8b	-0.08706578
3	0xbeaaabc4	-0.33334172
4	0xbe3588f0	-0.17728019
5	0xbfc47b32	-1.5350096
6	0x3d0b4730	0.034003437
7	0xbf33017c	-0.6992414
8	0x3ed806c9	0.42192677
9	0xbf950a29	-1.1643726
10	0xbfdc9d4d	-1.7235504
11	0x3fa955e3	1.3229336
12	0xbfc3c21a	-1.529361
13	0xc056ef0a	-3.3583398
14	0x3f037113	0.5134441
15	0x4007430e	2.1134677
16	0xbfce6186	-1.6123512
17	0xbfb0b07c	-1.3803859
18	0x3ee095b7	0.43864223
19	0x401eafa8	2.4794712
20	0x3fe94445	1.8223959
21	0xbfaba33e	-1.3409193
22	0xbe78f1d5	-0.24311002
23	0xbf0219c3	-0.5082056

weight f4 [32, 1, 3]
0	0x3eebf880	0.46088028
1	0xbee595f7	-0.44840977
2	0x3e760fce	0.24029467
3	0x3e87c1e1	0.26515105
4	0xbf28d4d9	-0.6594978
5	0x3c74fc44	0.014952723
6	0x3eece82f	0.46270892
7	0x3f0162e5	0.50541526
8	0xbdb43c65	-0.08800582
9	0xbea5c823	-0.32379255
10	0x3f0b8168	0.54494333
11	0x3e19677e	0.14980885
12	0x3f8a16f3	1.0788254
13	0x3d3a014c	0.045411393
14	0xbe0e2a32	-0.13883284
15	0x3e8f368d	0.27971306
16	0xbedad0a8	-0.42737317
17	0x3e8de19d	0.27711192
18	0xbeafa9ba	-0.3430918
19	0x3eb37b23	0.35054883
20	0x3d77e612	0.060522147
21	0x3e058b79	0.13041486
22	0xbf739523	-0.9514944
23	0x3d43528f	0.047686156
24	0x3f63f965	0.8905242
25	0xbdcbd846	-0.0995336
26	0xbe4783b9	-0.19483842
27	0xbcf69d1c	-0.030104212
28	0x3ea66181	0.32496265
29	0xbf43e2d9	-0.7651802
30	0x3e8ea8a6	0.27863044
31	0x3ea68c5b	0.32528958
32	0xbe03c869	-0.12869419
33	0x3dfc7d15	0.12328545
34	0xbf217b96	-0.630792
35	0xbef78c4c	-0.48349226
36	0x3edf992c	0.43671548
37	0xbe27d539	-0.16389932
38	0xbe86d6a1	-0.26335624
39	0xbec6ffa6	-0.3886692
40	0x3f244ee0	0.64182854
41	0x3d98c12e	0.07458721
42	0xbe8a9b25	-0.2707149
43	0x3f253283	0.645302
44	0xbe138127	-0.14404736
45	0x3ee3cd0f	0.44492385
46	0xbf06acf6	-0.5260767
47	0xbec608e3	-0.38678655
48	0xbea53a48	-0.32271028
49	0xbcc86181	-0.024460556
50	0x3f13aab5	0.57682353
51	0xbec5cfd1	-0.38635114
52	0xbf08db7b	-0.534599
53	0xbeba5733	-0.36394653
54	0xbe9f5a0b	-0.31123385
55	0xbefe9ea8	-0.4973042
56	0xbebf4ea4	-0.37364686
57	0xbd5154db	-0.051106315
58	0xbea61ef6	-0.32445496
59	0xbeaf6388	-0.34255624
60	0xbf1f5e18	-0.6225295
61	0x3f122b48	0.5709729
62	0xbeb99f69	-0.36254433
63	0xbebf7596	-0.37394398
64	0x3ef8f860	0.48626995
65	0x3ec283f0	0.37991285
66	0x3da20974	0.07911959
67	0xbf94b14b	-1.1616606
68	0x3e3dcf01	0.18535997
69	0xbdf75846	-0.12077384
70	0x3dc1bddc	0.09460041
71	0xbf95b75e	-1.1696584
72	0x3e945adc	0.2897557
73	0xbf14f3f6	-0.58184755
74	0xbe90588c	-0.28192556
75	0xbf0969ab	-0.5367686
76	0xbb835263	-0.004007624
77	0x3f37d3e8	0.7180772
78	0xbdaad560	-0.08341479
79	0xbc89de38	-0.016829595
80	0x3fccba5c	1.5994372
81	0xbeb8be16	-0.36082524
82	0xbcb1ea4a	-0.021718163
83	0x3ef8d9c7	0.4860365
84	0x3d386dce	0.045026593
85	0xbf039ace	-0.5140809
86	0xbec5837d	-0.3857688
87	0x3df8dade	0.121511206
88	0xbf68fa99	-0.9100738
89	0x3de4395d	0.11143754
90	0xbeaaeea7	-0.33385202
91	0xbf2ae63e	-0.6675757
92	0x3e8cd1d8	0.27503848
93	0x3ec38511	0.3818746
94	0x3e80768d	0.25090447
95	0xbf3ba9e1	-0.7330609

bias f4 [32]
0	0x3e0575cd	0.13033219
1	0xbe80b29d	-0.2513627
2	0x3e64efe8	0.22357142
3	0xbf2356a7	-0.63804096
4	0x3efc14ad	0.49234524
5	0x3e9074ea	0.28214198
6	0x3df4691c	0.119341105
7	0x3f0ca35a	0.54936755
8	0xbec65027	-0.38733026
9	0xbe506ffa	-0.20355216
10	0xbe1c5202	-0.15265658
11	0xbe698eff	-0.22808455
12	0xbdcca628	-0.09992629
13	0x3f01f01b	0.50756997
14	0x3f1ca9d3	0.6119663
15	0xbf8f5d49	-1.1200343
16	0xbf3c1645	-0.7347148
17	0x3e5a7ac3	0.21335892
18	0x3f09cd66	0.5382904
19	0x3bc9f882	0.0061636576
20	0xbefcc155	-0.4936625
21	0x3f233872	0.63758004
22	0x3eb969b5	0.3621346
23	0xbdb4202f	-0.08795201
24	0xbebc396a	-0.36762553
25	0xbe24ff68	-0.16113055
26	0xbdd6ed7e	-0.10494517
27	0xbe03575c	-0.12826294
28	0x3f2ca3ec	0.67437625
29	0xbd7510a9	-0.05983034
30	0x3ca63e20	0.020293295
31	0x3f63d357	0.88994354

weight f4 [64, 32, 3]
0	0x3ddc9650	0.10770857
1	0x3e19e586	0.15028962
2	0x3e9fbbfc	0.31198108
3	0xbeb39f90	-0.35082674
4	0x3d4037ed	0.046928335
5	0x3d237df7	0.03991505
6	0x3e00a0d0	0.12561345
7	0x3db03173	0.08603182
8	0x3f20f3f4	0.6287224
9	0x3c4b8868	0.0124226585
10	0x3e6bb2f2	0.23017481
11	0xbed78150	-0.42090845
12	0xbe2442b3	-0.16041069
13	0x3d5cf971	0.053948823
14	0x3e5bee49	0.21477617
15	0x3c290f87	0.010318643
16	0x3e6327a2	0.22183087
17	0x3eb6b57c	0.35685337
18	0x3e287f12	0.16454723
19	0x3f05e764	0.523062
20	0xbf08c2a5	-0.53422004
21	0xbea5e0c9	-0.3239806
22	0xbd05e8b8	-0.03269264
23	0x3e87a4ec	0.26493013
24	0x3dfa9603	0.12235644
25	0xbd66a95a	-0.05631385
26	0x3d5cee51	0.053938214
27	0xbebe00f4	-0.37110102
28	0x3d571e06	0.052518867
29	0x3e5b2462	0.21400598
30	0x3d9d053a	0.076670125
31	0xbde1ef85	-0.11032013
32	0x3f1a58d9	0.6029182
33	0xbe923ae7	-0.28560564
34	0xbc2bf1ec	-0.01049469
35	0xbe24cac0	-0.16092968
36	0xbe1592cb	-0.14606778
37	0xbe46d841	-0.19418432
38	0x3e7f273d	0.24917312
39	0x3d8c979d	0.068648554
40	0x3d888700	0.06666374
41	0xbe9c292d	-0.30500165
42	0x3e1eaa1b	0.15494578
43	0x3cefd491	0.029276164
44	0xbb2e9b5e	-0.00266429
45	0xbe14b43b	-0.14521877
46	0xbd50607a	-0.050873257
47	0x3e5563ca	0.20838848
48	0xbdf6da29	-0.120533295
49	0x3d620ae9	0.055186186
50	0x3c6c4065	0.01441965
51	0xbede5aaf	-0.4342856
52	0x3e430bed	0.19047518
53	0xbee69a30	-0.4503951
54	0xbeaceed7	-0.3377597
55	0x3e2a2d97	0.16618954
56	0xbf2c82b2	-0.67386925
57	0xbe8537bf	-0.26019093
58	0xbe395b9a	-0.1810135
59	0xbedbbe96	-0.42918843
60	0xbdf41b44	-0.11919263
61	0x3dc55029	0.0963443
62	0xbe6cf2af	-0.23139451
63	0x3e154b72	0.14579561
64	0x3ec8e1ee	0.3923487
65	0xbf4e87ca	-0.8067595
66	0xbe62e1b9	-0.22156419
67	0xbdff7c25	-0.124748506
68	0x3ed998ce	0.42499393
69	0xbf1d727e	-0.61502826
70	0xbf07c7a4	-0.53039
71	0xbed66ce3	-0.4187995
72	0xbecdb25f	-0.4017515
73	0x3e1dca78	0.15409267
74	0x3c871bbf	0.016492723
75	0xbd565e6f	-0.052336153
76	0x3de39722	0.11112811
77	0xbe8ec5d8	-0.27885318
78	0x3c1a986a	0.009435752
79	0x3e6e6396	0.23280177
80	0x3e4b996a	0.19882742
81	0xbdb44d88	-0.088038504
82	0x3e4ab63a	0.19796076
83	0x3d90b986	0.07066636
84	0xbe3b49d8	-0.18289888
85	0xbe0c5e38	-0.13707817
86	0xbe9bb838	-0.30413985
87	0xbe24972e	-0.16073295
88	0x3cba8c37	0.022771938
89	0x3e002d20	0.12517214
90	0xbe7c9411	-0.24665858
91	0xbd86f979	-0.06590552
92	0x3ef977e2	0.48724276
93	0xbe2162b8	-0.15760314
94	0xbe1041eb	-0.14087646
95	0x3f637c8f	0.88861936
96	0x3db44ef0	0.08804119
97	0xbd3b6af9	-0.045756314
98	0xbeb12876	-0.34601182
99	0xbc43f791	-0.01196088
100	0x3de562a2	0.11200453
101	0xbf45b900	-0.7723541
102	0xbd13cb0d	-0.036082316
103	0xbd3d89af	-0.046273883
104	0xbf1d6620	-0.61483955
105	0xbe0670e8	-0.13129008
106	0x3c01e93a	0.007929141
107	0x3ce683e9	0.028139072
108	0xbe2813a2	-0.1641374
109	0x3e363ede	0.1779742
110	0xbf936c87	-1.1517495
111	0xbd8a94a2	-0.06766631
112	0xbcd891c1	-0.026436688
113	0xbf056e8e	-0.5212182
114	0x3bc57f9b	0.0060271746
115	0xbdbc3d40	-0.0919137
116	0xbee4615b	-0.44605526
117	0xbdd39c65	-0.10332564
118	0x3c40cf3c	0.0117681585
119	0xbf16f6d4	-0.5897038
120	0xbe37e7a5	-0.17959459
121	0x3c04a9e0	0.008097142
122	0xbf9715ce	-1.1803529
123	0x3d78b43c	0.06071876
124	0x3e838313	0.2568594
125	0x3e04d5d3	0.12972192
126	0xbda9627d	-0.08270738
127	0x3e2ad07f	0.16681097
128	0xbf20cd11	-0.62812907
129	0xbe01127c	-0.12604707
130	0x3db815a6	0.08988504
131	0xbee40814	-0.44537413
132	0xbe48d260	-0.19611502
133	0x3e3fd599	0.18733825
134	0xbf344e36	-0.7043184
135	0x3d6c1b37	0.05764314
136	0xbc51b156	-0.012798628
137	0x3d0b59f5	0.034021337
138	0x3e177527	0.14790784
139	0xbcd0206b	-0.025406083
140	0xbf2d7f52	-0.677724
141	0xbe201ec3	-0.15636735
142	0x3e53414b	0.20630376
143	0xbe8f8791	-0.28033116
144	0xbea80310	-0.32814837
145	0xbe50514c	-0.20343512
146	0x3e154590	0.14577317
147	0x3e12c323	0.14332251
148	0x3eb3da69	0.3512757
149	0xbd4641ca	-0.048402585
150	0x3df39fe5	0.11895732
151	0x3efdc8cf	0.49567267
152	0x3b537d3d	0.0032270693
153	0x3e454041	0.19262792
154	0x3ea7a365	0.32741848
155	0xbf0aa9ef	-0.5416555
156	0x3de05722	0.10954119
157	0xbdd6bafa	-0.10484882
158	0xbe7fd715	-0.24984391
159	0x3dfbf438	0.123024404
160	0xbd8e84dc	-0.06958935
161	0xbe8ede32	-0.27903897
162	0xbe436115	-0.19080003
163	0x3e93654d	0.28788224
164	0xbf181a65	-0.59415275
165	0x3d8a66e7	0.06757908
166	0x3dd8ce7b	0.10586258
167	0xbda56794	-0.080763966
168	0x3ce71283	0.02820707
169	0x3e80f529	0.25187042
170	0xbd7b019b	-0.061280828
171	0xbbd553f0	-0.0065102503
172	0xbd5a3124	-0.05326952
173	0x3dd18554	0.102305084
174	0x3d8019ca	0.06254919
175	0xbf7c0f62	-0.9846097
176	0xbd36b3dc	-0.04460512
177	0xbd302fcd	-0.043014336
178	0xbe63bce4	-0.22240025
179	0x3d091fed	0.033477712
180	0x3c6890ca	0.014194677
181	0x3e84d0ea	0.2594064
182	0xbf0d769b	-0.552591
183	0xbd36ccc3	-0.04462887
184	0x3e97a3f9	0.2961729
185	0xbf0d7a48	-0.5526471
186	0x3d7e8d37	0.06214639
187	0x3e14d3e6	0.14533958
188	0xbea51b48	-0.32247376
189	0xbdb4083e	-0.087906346
190	0x3e8d522f	0.27601764
191	0xbd3de137	-0.04635736
192	0x3ea988ed	0.3311228
193	0x3e9158b8	0.28388
194	0xbf319975	-0.6937478
195	0x3ecbd33b	0.39809594
196	0x3da894f3	0.08231535
197	0xbe965de4	-0.29368508
198	0xbe06f507	-0.13179408
199	0xbc57aa37	-0.013163141
200	0xbee1796c	-0.4403795
201	0x3e7165d0	0.23573995
202	0x3d11d0c0	0.03559947
203	0xbce1f0f6	-0.02758072
204	0x3d9b0cbb	0.075707875
205	0x3e9dbd7c	0.30808628
206	0xbedf6d61	-0.43638137
207	0x3dbe39af	0.09288346
208	0x3e899ce3	0.26877508
209	0xbf0272f8	-0.5095668
210	0x3e107a65	0.1410919
211	0xbe0d8a5b	-0.1382231
212	0xbed20e93	-0.41026744
213	0xbdb17451	-0.08664764
214	0xbdc83134	-0.0977501
215	0xbedc8a23	-0.4307414
216	0xbe28834d	-0.16456337
217	0x3e820465	0.25393978
218	0xbea61b76	-0.32442826
219	0x3e4af25c	0.19819015
220	0xbc8d9fb0	-0.017288059
221	0xbe0ac9db	-0.13553564
222	0xbd16378d	-0.03667407
223	0xbe190853	-0.14944582
224	0xbf17cbf3	-0.59295577
225	0xbba6219d	-0.005069925
226	0xbe8a7dbd	-0.27049056
227	0xbe845bdd	-0.25851336
228	0xbdfa1041	-0.122101314
229	0x3eb1dea5	0.34740177
230	0xbeea5c7f	-0.45773694
231	0x3d31f480	0.043446064
232	0x3ea93095	0.33044878
233	0xbc3769ba	-0.011194641
234	0x3e50fd95	0.20409234
235	0x3e754123	0.23950629
236	0xbda5bbd2	-0.080924645
237	0xbeaa768e	-0.33293575
238	0x3e2619dd	0.16220804
239	0xbebef87e	-0.3729896
240	0x3e1dc56d	0.15407343
241	0xbee8615e	-0.45386785
242	0x3db0913f	0.086214535
243	0x3e87383d	0.26410094
244	0xbdcb8020	-0.09936547
245	0xbedd6751	-0.43242887
246	0xbdae204b	-0.08502253
247	0xbd332c64	-0.043743506
248	0xbf3e8f14	-0.7443707
249	0x3df307b0	0.11866701
250	0xbdf56daf	-0.11983811
251	0xbed18c07	-0.40927145
252	0x3f0fd62a	0.56186163
253	0x3e5a6e87	0.21331225
254	0x3c88c698	0.01669626
255	0x3e7ff258	0.2499479

bias f4 [64]
0	0xbe0877e3	-0.13326983
1	0x3bc82963	0.0061084493
2	0xbd6a8cb4	-0.05726309
3	0xbea7f626	-0.32804984
4	0x3ee19b06	0.44063586
5	0x3efde430	0.49588156
6	0x3c6abc26	0.014327085
7	0xbe2aebc4	-0.166915
8	0xbe0f88b0	-0.14016986
9	0x3e58e9ce	0.2118294
10	0xbe0544f7	-0.13014589
11	0x3d3a04c8	0.045414716
12	0x3d477d0d	0.048703242
13	0x3e060e80	0.13091469
14	0xbd4b81bb	-0.049684267
15	0x3def8ff5	0.116973795
16	0xbdff20cd	-0.12457428
17	0xbcb4e2a5	-0.022080729
18	0x3e9db88a	0.30804855
19	0xbe06c0be	-0.13159463
20	0x3dd3a787	0.10334688
21	0x3f058bc4	0.5216639
22	0xbe35e1ea	-0.1776196
23	0xbe2dcefa	-0.16973487
24	0xbee6a75e	-0.45049566
25	0xbc980529	-0.018557148
26	0x3e4cc358	0.19996393
27	0xbe3975cb	-0.1811134
28	0xbea5280a	-0.3225711
29	0x3d33e867	0.043922808
30	0xbd39a7a5	-0.045325894
31	0x3ed3962b	0.41325507
32	0x3e48ce4f	0.1960995
33	0xbe7ed56d	-0.24886103
34	0x3e377ead	0.17919417
35	0x3d0ed157	0.03486761
36	0x3e31d5b0	0.17366672
37	0xbe1d3596	-0.15352473
38	0x3e514706	0.2043725
39	0xbe6f6ab5	-0.23380549
40	0xbefff772	-0.49993473
41	0xbd5713ba	-0.052509047
42	0xbec27ef6	-0.37987489
43	0xbf10709a	-0.56421816
44	0x3ee81930	0.45331717
45	0x3ec9e9a3	0.39436063
46	0x3e0bcc9c	0.13652271
47	0x3d76eb17	0.060282793
48	0xbd0e6bea	-0.034770884
49	0x3ead936d	0.3390154
50	0x3e4d7643	0.20064645
51	0xbeee7707	-0.46575186
52	0x3dbbf96e	0.09178434
53	0xbd8f08b7	-0.06984084
54	0x3dabb305	0.08383755
55	0x3e98b7cb	0.29827723
56	0xbd963153	-0.073336266
57	0x3edfd609	0.43717983
58	0xbe9dd8e7	-0.30829546
59	0x3e018a9d	0.12650533
60	0xbe8bb30e	-0.27285045
61	0xbd6cdeab	-0.05782954
62	0x3e016985	0.12637909
63	0x3e7e3075	0.24823172

weight f4 [32]
0	0x3f5d1d72	0.86373055
1	0x3f79a9ec	0.97524905
2	0x3f4d681c	0.80236983
3	0x3f6e35db	0.93050927
4	0x3f3b16ea	0.7308184
5	0x3f826f90	1.0190296
6	0x3f939c90	1.1532154
7	0x3f839e42	1.0282671
8	0x3f45cde8	0.77267313
9	0x3f925249	1.1431361
10	0x3f596e35	0.8493379
11	0x3f61b131	0.88161
12	0x3f6ad4e7	0.91731113
13	0x3f59ef4b	0.8513076
14	0x3f53d96c	0.82753634
15	0x3f760941	0.9610787
16	0x3f86e5c6	1.0538871
17	0x3f8cacfb	1.099029
18	0x3f70876e	0.9395665
19	0x3f99557d	1.1979214
20	0x3f79c51b	0.97566384
21	0x3f9e55e2	1.2369959
22	0x3f755077	0.95825905
23	0x3f798e77	0.9748301
24	0x3f86dcd2	1.0536139
25	0x3f88d72d	1.0690666
26	0x3f517bea	0.818297
27	0x3f66a834	0.9010041
28	0x3f88dcf6	1.0692432
29	0x3f7ce78d	0.9879082
30	0x3f4540db	0.77052087
31	0x3f8994f0	1.0748577

bias f4 [32]
0	0xbe4877f1	-0.19577004
1	0xbe1581ba	-0.14600268
2	0xbeb32080	-0.34985733
3	0x3e1149f2	0.14188364
4	0xbe2fe3fa	-0.1717681
5	0xbf0575ed	-0.52133065
6	0xbf48c089	-0.78418785
7	0xbe4a71ec	-0.1977002
8	0xbe762513	-0.2403758
9	0xbf236fef	-0.6384267
10	0xbe945185	-0.28968444
11	0xbeea8540	-0.45804787
12	0xbe97ff0a	-0.29686767
13	0x3d83ff4e	0.0644518
14	0xbe649827	-0.22323667
15	0xbe2d57b9	-0.16927995
16	0xbe73e22c	-0.23816746
17	0xbf2d7b04	-0.6776583
18	0xbf23bb09	-0.6395727
19	0xbf20aad4	-0.62760663
20	0xbe97edac	-0.29673517
21	0xbf35c3b7	-0.7100176
22	0xbe205c16	-0.15660128
23	0xbebf6fc1	-0.3738995
24	0xbef73dd7	-0.48289368
25	0xbec0f8f0	-0.37689924
26	0xbda19307	-0.07889371
27	0xbe8908e1	-0.26764587
28	0xbf2087c0	-0.6270714
29	0xbe91f8c6	-0.28510112
30	0xbeaf2c24	-0.34213364
31	0xbf46fb6d	-0.77727395

running_mean f4 [32]
0	0x3e03cab7	0.12870298
1	0xbe73070c	-0.23733157
2	0x3e3c3c19	0.183823
3	0xbf267b03	-0.6503145
4	0x3ee4847d	0.4463233
5	0x3e91a74c	0.2844795
6	0x3df4e660	0.11958003
7	0x3f154425	0.58307105
8	0xbed68142	-0.4189549
9	0xbe528545	-0.20558651
10	0xbe34760a	-0.17623153
11	0xbe4ebf65	-0.20190199
12	0xbde1cc06	-0.110252425
13	0x3efe18dc	0.4962834
14	0x3f18e062	0.5971738
15	0xbf8e4bf9	-1.1116935
16	0xbf3adf84	-0.7299731
17	0x3e82e6c0	0.25566673
18	0x3f12e053	0.5737354
19	0x3cd77982	0.026303057
20	0xbef935ac	-0.4867376
21	0x3f201070	0.6252508
22	0x3ecf04b5	0.4043328
23	0xbd90bf72	-0.07067765
24	0xbeb46d56	-0.35239667
25	0xbe16a25e	-0.14710376
26	0xbdf7882c	-0.120865196
27	0xbdf34ee6	-0.11880283
28	0x3f32c0a7	0.69825214
29	0xbceef82d	-0.029171074
30	0x3d7ae433	0.061252784
31	0x3f600115	0.8750165

running_var f4 [32]
0	0x3ef283dc	0.47366226
1	0x3f0d3c85	0.5517047
2	0x3f0cccfd	0.5500029
3	0x3ef57036	0.47937173
4	0x3facac56	1.3490093
5	0x3eaceecd	0.3377594
6	0x3e8b03ac	0.2715124
7	0x3f830079	1.0234519
8	0x3f7713ce	0.96514595
9	0x3f36132b	0.71123
10	0x3e6ec956	0.23318991
11	0x3f3c0b3b	0.73454636
12	0x3eaf688d	0.34259453
13	0x3f214cd3	0.6300785
14	0x3f0b24a8	0.5435281
15	0x3f3ad35b	0.7297875
16	0x3f03b011	0.5144053
17	0x3f1ae8d1	0.605115
18	0x3f03f0c7	0.5153927
19	0x3e7b49da	0.24539891
20	0x3f56dba5	0.839289
21	0x3f1bbca9	0.6083475
22	0x3fc3fc35	1.5311342
23	0x3fb462ce	1.4092653
24	0x3f1344a8	0.57526636
25	0x3f767d6a	0.96285117
26	0x402e0208	2.718874
27	0x3ee0d0a2	0.43909174
28	0x3eef2574	0.46708262
29	0x3f70c6f2	0.94053566
30	0x3f399d52	0.72505677
31	0x3f5d610f	0.86476225

weight f4 [64]
0	0x3f764b15	0.96208316
1	0x3f9954ca	1.1979
2	0x3f96c102	1.1777651
3	0x3fab9e22	1.3407633
4	0x3f783649	0.9695783
5	0x3f460ddb	0.7736489
6	0x3f8abd7f	1.083908
7	0x3f5a712a	0.85328925
8	0x3f637d27	0.8886284
9	0x3f5776c7	0.84165615
10	0x3fa04f10	1.2524128
11	0x3f878bac	1.05895
12	0x3f73aec3	0.9518854
13	0x3f5bdab2	0.8588058
14	0x3f966787	1.1750344
15	0x3f91ec78	1.140029
16	0x3f903f3e	1.12693
17	0x3f77e819	0.9683853
18	0x3f44ce21	0.7687703
19	0x3f93bf07	1.1542672
20	0x3f5d1814	0.86364865
21	0x3f7c337f	0.98516077
22	0x3f897478	1.0738668
23	0x3f6b1745	0.9183238
24	0x3f336276	0.70072114
25	0x3f931291	1.1490041
26	0x3fa7098c	1.3049788
27	0x3fa2b013	1.2709984
28	0x3f9614a6	1.1725051
29	0x3f5bbefb	0.8583829
30	0x3f956820	1.1672401
31	0x3fad998a	1.3562481
32	0x3fb5e528	1.4210558
33	0x3f82c138	1.0215216
34	0x3f4b5e44	0.7944071
35	0x3f5d958a	0.86556304
36	0x3f923d70	1.1424999
37	0x3f9fbd88	1.2479715
38	0x3f5d9bfb	0.8656613
39	0x3f722c92	0.9459926
40	0x3f84a74d	1.0363556
41	0x3f28b90f	0.65907377
42	0x3f7e6186	0.9936756
43	0x3f4c21ad	0.79738885
44	0x3fa12c34	1.2591615
45	0x3f830dc7	1.023858
46	0x3f717cab	0.94330853
47	0x3f5d5cbd	0.8646963
48	0x3f6f34a7	0.93439716
49	0x3f4c5d40	0.7982979
50	0x3f8afa4d	1.0857636
51	0x3f9fb201	1.2476197
52	0x3f86c535	1.0528933
53	0x3f563a94	0.83683133
54	0x3f70c011	0.9404307
55	0x3f789a5d	0.9711054
56	0x3f4ce09e	0.8003024
57	0x3f641c65	0.89105827
58	0x3f778e15	0.96701175
59	0x3f5eadaf	0.8698377
60	0x3f38442e	0.71979034
61	0x3f77cdf9	0.96798664
62	0x3f48f944	0.7850535
63	0x3f777241	0.9665871

bias f4 [64]
0	0xbf2619cf	-0.6488313
1	0xbeea2378	-0.45730186
2	0xbe8f8bb6	-0.28036278
3	0xbeff37c8	-0.49847245
4	0xbeb0ed15	-0.3455588
5	0xbea728ed	-0.3264841
6	0xbe92a0cc	-0.28638303
7	0xbf0b1613	-0.5433056
8	0xbe81f32f	-0.25380847
9	0xbf29313e	-0.6609076
10	0xbdd81b20	-0.10552049
11	0xbed13bf8	-0.40866065
12	0xbe3834e1	-0.17988922
13	0xbe9334ce	-0.28751224
14	0xbec20c02	-0.37899786
15	0xbeb3cc0f	-0.35116622
16	0xbec65301	-0.38735202
17	0xbdb3531c	-0.08756086
18	0xbeccc4b1	-0.39993814
19	0xbe1e2ece	-0.15447542
20	0xbea3b3c1	-0.3197308
21	0xbf04b9aa	-0.518458
22	0xbec93be1	-0.39303496
23	0xbea5ef29	-0.32409027
24	0xbef123cf	-0.47097632
25	0xbf04ee13	-0.5192577
26	0xbf0ca418	-0.5493789
27	0xbebad4bd	-0.3649043
28	0xbe0d7141	-0.13812734
29	0xbe0af55a	-0.13570157
30	0xbe9f3ec0	-0.31102562
31	0xbeccc569	-0.39994362
32	0xbeb76cab	-0.35825095
33	0xbea3983a	-0.31952077
34	0xbef46dbb	-0.47739968
35	0xbe62243b	-0.22084133
36	0xbe78117e	-0.24225423
37	0xbe9dc8de	-0.30817312
38	0xbd17e103	-0.037079822
39	0xbe4dc458	-0.2009443
40	0xbec4006d	-0.38281575
41	0xbe8fdab0	-0.28096533
42	0xbe928907	-0.2862017
43	0xbe8fa92d	-0.28058758
44	0xbed1acf0	-0.40952253
45	0xbe867d28	-0.26267362
46	0xbddaa94c	-0.10676822
47	0xbf315787	-0.6927418
48	0xbef2ec1a	-0.47445756
49	0xbd5e7369	-0.054309282
50	0xbf0470c7	-0.51734585
51	0xbec19ecd	-0.37816468
52	0xbee37d76	-0.44431657
53	0xbea00439	-0.31253222
54	0xbe7f8c26	-0.24955806
55	0xbeb8b781	-0.36077502
56	0xbede172e	-0.4337706
57	0xbea3e24a	-0.32008582
58	0xbe2ea8b8	-0.17056549
59	0xbf318052	-0.69336426
60	0xbed7b2fd	-0.42128745
61	0xbf009e9e	-0.5024203
62	0xbf179c2a	-0.5922266
63	0xbe080042	-0.13281348

running_mean f4 [64]
0	0xbf58d033	-0.84692687
1	0xc06cf673	-3.702542
2	0xbfef877a	-1.8713219
3	0xc002f7e9	-2.0463812
4	0xc028a009	-2.6347678
5	0xbf390eac	-0.7228801
6	0x402ae948	2.6704884
7	0x400e944c	2.2278013
8	0x403a223a	2.908339
9	0xc052709b	-3.288123
10	0x401993b8	2.399641
11	0xc08f3dae	-4.4762793
12	0xbf8a1aef	-1.078947
13	0xbfbbe7db	-1.4680132
14	0xc0302fc7	-2.752916
15	0xbfa5094a	-1.289346
16	0xc0a22b3b	-5.067777
17	0x3fec4c11	1.8460714
18	0xc0626578	-3.5374432
19	0xbf479e4d	-0.7797592
20	0xbfff8d29	-1.9964954
21	0xc03bb83c	-2.9331198
22	0xbe76c420	-0.24098253
23	0xc029513a	-2.6455827
24	0x405cb917	3.448797
25	0x40bde4c0	5.9341736
26	0x408fc83a	4.4931917
27	0xc05105df	-3.2659833
28	0xc0892cf2	-4.2867365
29	0xc008d9f2	-2.1383023
30	0xbe46c831	-0.19412304
31	0xc06c0c67	-3.688257
32	0xc07df19b	-3.9678714
33	0xc0235331	-2.5519526
34	0xbf983ed3	-1.1894172
35	0x3ef96204	0.48707592
36	0xbf615ff5	-0.88037044
37	0xc01c615c	-2.4434423
38	0x3eb638db	0.35590252
39	0x40102bb9	2.2526686
40	0x405678eb	3.3511302
41	0xbd45a639	-0.048254225
42	0xc02a2035	-2.6582158
43	0xbf2320ff	-0.63722223
44	0xb80db2c2	-3.37835e-05
45	0x3f93d918	1.1550627
46	0xc085ea1a	-4.184827
47	0x402f2b7d	2.7370293
48	0x3fdaff5d	1.7109181
49	0xbfa77067	-1.3081177
50	0xc0530904	-3.2974253
51	0xc084479c	-4.1337414
52	0x3f8b1678	1.0866232
53	0x4098cde0	4.775131
54	0xc0502d79	-3.2527754
55	0xc0944cb7	-4.6343646
56	0xc021005e	-2.5156474
57	0xc02eb63f	-2.7298734
58	0xbd26690e	-0.04062753
59	0x408153d5	4.0414834
60	0xc03871a4	-2.881936
61	0xbff1e638	-1.8898382
62	0xbf9c4c48	-1.2210779
63	0xc0978e07	-4.7360873

running_var f4 [64]
0	0x417e2431	15.883836
1	0x41d6327d	26.774652
2	0x41bdf548	23.744766
3	0x416e479f	14.892486
4	0x414c6e3b	12.776912
5	0x40fbf637	7.8738055
6	0x413badbf	11.7299185
7	0x417f674b	15.962718
8	0x41837800	16.433594
9	0x41390f0a	11.566172
10	0x418c5a8c	17.544212
11	0x41a7d403	20.978521
12	0x418e0dd1	17.756746
13	0x4119aa69	9.604104
14	0x4160bb35	14.045705
15	0x411a858d	9.657605
16	0x41bd3f9e	23.656063
17	0x4181b065	16.21113
18	0x4140d669	12.052346
19	0x41a79bb4	20.951027
20	0x40bdd08d	5.931708
21	0x4190dc6c	18.107628
22	0x4106351f	8.387969
23	0x4170ad23	15.04227
24	0x412e2fef	10.886703
25	0x41b740c3	22.906622
26	0x41cd1e1f	25.639708
27	0x4185fe78	16.749252
28	0x41cfc1e4	25.969673
29	0x4184c747	16.597303
30	0x41b151d5	22.164957
31	0x420a6610	34.59967
32	0x42039bcb	32.90214
33	0x41a17132	20.180271
34	0x417aae9a	15.667627
35	0x41374912	11.455339
36	0x41cd1219	25.633837
37	0x41ca8dfa	25.319324
38	0x41ab70a0	21.429993
39	0x413b2370	11.696152
40	0x414f8789	12.97059
41	0x414b6d70	12.714218
42	0x4140e7c4	12.056583
43	0x40b3ecf9	5.6226773
44	0x415a32f3	13.637439
45	0x4165b27a	14.356073
46	0x41f3081c	30.37896
47	0x41819392	16.197056
48	0x4179fd1f	15.624297
49	0x412c7930	10.779587
50	0x41173cf1	9.452378
51	0x415b4b54	13.705891
52	0x4195423d	18.657343
53	0x418284d1	16.314852
54	0x41a779cc	20.934471
55	0x41615cbf	14.085143
56	0x414aa745	12.665837
57	0x4186500f	16.789091
58	0x418e08c1	17.754274
59	0x4182600c	16.296898
60	0x413384eb	11.219951
61	0x40d1abef	6.552238
62	0x418919ce	17.1376
63	0x41665cb3	14.397632
