government_icfes_dataset/mlartifacts/956201576569699187/fcf91818d4aa488a8667afd8555be3af/artifacts/model/data/model.pth (torch, 443968 bytes, 39 tensors)

weight f4 [4, 4]
000000 59 cf ae bf bb a0 0c bf 98 31 87 be 0a 2a 90 bf
       -1.3657027 -0.54932755 -0.26405025 -1.1262829
000010 3c 2b 3b 3d e6 a3 53 bf 58 54 06 c0 c5 7b 67 bf
       0.04569553 -0.82671964 -2.098898 -0.9042323
000020 55 2a b5 be ab e9 76 bd 20 d1 df 3f 6b 0e cb 3f
       -0.3538386 -0.060281437 1.7485695 1.5863775
000030 22 2d b3 bf 7c e3 06 bf 6b 1e d7 bf 9b 6c 04 3d
       -1.3998148 -0.52690864 -1.6806158 0.032330137

weight f4 [3, 4]
000000 88 2d b6 3f 85 92 ff 3f d3 27 0a bf ae a7 e7 bf
       1.4232645 1.9966589 -0.53967017 -1.8098047
000010 2d cd 36 bf da f8 8a 3f 59 dc 4f bf 6a 3a a7 3f
       -0.71406823 1.0857193 -0.811956 1.3064702
000020 48 cc a9 bc db 36 58 bf 51 cd 2c 3f ca fb 5c be
       -0.020727292 -0.844587 0.6750079 -0.21580425

weight f4 [5, 4]
000000 5d 0d a2 bf 4e 93 70 be d7 1b 9c 3f 7c ec 2e bf
       -1.2660328 -0.23493692 1.2195996 -0.68329597
000010 63 2b dc bd dc b1 fc 3e 2f f8 99 3f 2d d6 80 3f
       -0.10750463 0.49354446 1.2028865 1.0065361
000020 38 0c dd 3b 54 62 b8 bf c9 4a c0 be 3c bf d1 be
       0.0067458414 -1.4405007 -0.37557057 -0.40966213
000030 8d 63 b8 bf 4a 1d 62 bf 84 49 5d bd 50 c3 dc 3d
       -1.440538 -0.8832594 -0.054025188 0.107794404
000040 b6 ec 8e 3f 40 a6 04 c0 50 c6 40 bf dc 6f 50 bd
       1.1165988 -2.072647 -0.753026 -0.050887927

weight f4 [7, 4]
000000 89 d4 01 40 5f f7 b6 be b1 99 95 3f c9 4b b3 3e
       2.028597 -0.35735604 1.1687528 0.35018757
000010 e3 d3 7a be 3e 1d c6 bf e7 36 3c bf e9 93 78 3f
       -0.24494891 -1.5477674 -0.73521274 0.97100693
000020 78 ad 9b bd ce d7 71 3f 43 24 e4 be e4 33 f7 be
       -0.07601446 0.94469917 -0.44558915 -0.48281777
000030 67 d8 09 40 e4 1c a8 bf 96 ee 67 3e cb 12 e6 3e
       2.1538332 -1.3133817 0.22649607 0.44936213
000040 f8 38 56 3e 04 01 87 3f f0 3a 89 be 97 54 c5 bf
       0.2092017 1.0547185 -0.26802778 -1.541644
000050 ab 04 e1 3f 4d b8 97 bf d0 f7 be 3f c8 11 c0 3e
       1.757955 -1.1853119 1.4919376 0.37513566
000060 47 17 06 bf 10 b5 fa bf 46 08 99 3d be b1 d4 3f
       -0.5237927 -1.9586506 0.07472281 1.6616743

weight f4 [7, 4]
000000 0e 9f e4 3d ff 60 4d be 7f bd 43 3d e7 63 86 bd
       0.1116315 -0.20056532 0.04778814 -0.065620236
000010 9f 09 1c 40 f5 0d 92 3e d2 41 89 3f d9 bb b1 be
       2.4380872 0.28526273 1.0723212 -0.3471363
000020 f7 9c 99 bf 44 9d 40 3e 57 c2 46 c0 61 76 ed 3f
       -1.2001027 0.18809992 -3.1056116 1.8551751
000030 fc 78 6a bf 0f 3f fd 3e fa 06 33 c0 5c ec b2 3f
       -0.9159086 0.49462172 -2.7973008 1.3978381
000040 7d 2c 49 3f 35 39 45 bf 56 72 96 ba de c8 a7 3f
       0.7858351 -0.77040416 -0.0011478167 1.3108175
000050 ba eb 98 3f e6 95 55 bf c0 49 c5 3e 5b 04 64 bf
       1.1946938 -0.8343185 0.3853283 -0.89069146
000060 fc fe a4 3c 08 d8 af 3f 12 36 31 3f 1d 9d e0 bd
       0.020141117 1.3737803 0.6922313 -0.10967467

weight f4 [1025, 4]
000000 4e a9 fe 3f 1d 0a 70 3f ab 33 88 bd ed d5 c5 bf
       1.9895418 0.9376543 -0.0665048 -1.545591
000010 53 af a6 bf 4a 7a ab be 2e 62 10 be a6 bf da bd
       -1.3022255 -0.33491737 -0.14099953 -0.10681085
000020 93 6a 89 bf df 71 8c 3f 71 83 12 c0 26 ea e2 3f
       -1.0735649 1.0972251 -2.2892725 1.7727706
000030 dd 90 11 bf 9a bd 30 bc 56 76 4d be f7 a0 d3 be
       -0.5686167 -0.010787392 -0.20064673 -0.41333744
000040 da f2 7d be 8e 32 f6 bb a3 9d 20 be 9a 77 9e bd
       -0.24799672 -0.007513351 -0.15685134 -0.07737656
000050 59 22 d4 3f bb 8b df bf 81 6c 90 3e 08 4c dc 3c
       1.6572982 -1.7464517 0.28207782 0.026891723
000060 2f 2f 06 40 42 d9 07 3f 96 8d 53 3f 36 5d 10 be
       2.0966299 0.53065884 0.8263792 -0.14098057
000070 33 e6 68 3f ad b2 88 3f af d7 93 3e 51 9a e1 3f
       0.90976256 1.0679528 0.2887549 1.7625219
000080 ad d1 87 be 91 00 c9 3d 01 4a c6 3f 0c ff 54 3f
       -0.26527157 0.09814561 1.5491334 0.8320167
000090 8c 5d d5 bd e7 1c 2f bf a8 e8 1e 3f c2 c2 9d 3f
       -0.10418233 -0.68403476 0.62073755 1.232506
0000a0 30 25 3d bf 3b 9c ba be f3 f7 dc 3f 55 2a 8f 3f
       -0.7388487 -0.3644732 1.7263168 1.1184794
0000b0 55 fe 3d be 19 48 7c 3e 4f a4 f3 3e 5f 84 05 40
       -0.18554051 0.24636878 0.47586295 2.0862043
0000c0 1d d1 a7 bf 57 5c a8 be 69 0d a7 bf 55 08 b2 bf
       -1.3110691 -0.3288295 -1.3050967 -1.3908793
0000d0 c7 9a 01 bf 96 34 16 c0 03 50 1d 3f 57 78 47 bf
       -0.50626796 -2.3469596 0.61450213 -0.77918
0000e0 ad 02 55 3f 51 48 5d bf 70 1f ac 3f 5f 0c 46 bf
       0.8320721 -0.8643847 1.3447094 -0.77362627
0000f0 2c 75 cd be e1 0f 12 3e fc 8a f9 3d b7 bd 37 3f
       -0.40128458 0.1426387 0.12184712 0.71773857
000100 32 ed 3a 3e fa bb 5c be 3d 16 a8 3f 8d 5c 5b 3c
       0.18254545 -0.21556082 1.3131787 0.013388765
000110 77 a1 f4 3f 5f d2 57 3e e3 d0 4f 3f 8a b4 05 40
       1.9111775 0.21076344 0.8117811 2.0891442
000120 e5 78 da be fe 53 76 bf 71 37 80 3d 5f f0 ae bf
       -0.4267036 -0.9622191 0.062605746 -1.3667105
000130 37 17 2b c0 2d 8c 41 40 cb 8b 11 3f 84 4e 92 bf
       -2.673292 3.0241807 0.5685393 -1.1430211
000140 dc 86 81 bf 6d a8 92 bf ce 15 35 bd f6 11 6b 3e
       -1.0119281 -1.145765 -0.044210248 0.2295607
000150 1f f1 bd 3f 75 18 bc bf 82 25 79 3f 7c 2e 8c be
       1.4839209 -1.4694964 0.9732286 -0.27379215
000160 73 03 b1 3f 0e f8 03 3f 83 31 7d 3f 48 d7 13 bf
       1.3829178 0.51550376 0.98903674 -0.5775037
000170 bf 2f 5f bc c6 08 d2 3e 06 25 b0 3e 2b c3 28 bf
       -0.013622223 0.4102232 0.34403247 -0.659228
000180 0e 99 43 be f9 20 6e bd 17 f5 fd bf fc 44 62 3f
       -0.19101354 -0.058136914 -1.984042 0.8838651
000190 6c 76 35 c0 95 46 1b 40 3d 19 5d 3f ea b9 22 bf
       -2.835353 2.426183 0.86366636 -0.6356493
0001a0 c5 43 5e 40 9c c3 1d c0 42 95 1a 3f 9d 18 13 bf
       3.4728863 -2.465064 0.60384 -0.5745943
0001b0 f0 2b 13 c0 ca 28 a5 bf 9e 3e 37 3f 86 5b 24 3e
       -2.2995567 -1.2903073 0.7157992 0.16050538
0001c0 68 2d 22 c0 4f 60 bf bf 89 ea d0 3e 64 52 09 40
       -2.5340214 -1.4951266 0.40803936 2.1456537
0001d0 19 61 79 bf fd e0 e2 3f 57 e7 0f be a0 5b 37 3e
       -0.97413784 1.7724911 -0.14053093 0.17906046
0001e0 52 ba 52 bf c5 54 42 c0 1a 4f 78 be a2 fc 0e bf
       -0.8231555 -3.036424 -0.24248925 -0.5585424
0001f0 25 99 4d be 78 c4 80 3f 39 d7 ac 3f 3a c0 ce bf
       -0.20077951 1.0059958 1.3503181 -1.6152413
000200 3a a3 07 3f ee fe 50 3f 24 54 a7 3f 70 23 83 bf
       0.5298344 0.8163899 1.3072553 -1.024519
000210 e9 61 e7 3f fa 6d 6e bf d2 ec 56 3d 56 79 09 3f
       1.8076755 -0.9313656 0.052471943 0.5370077
000220 36 36 c1 3e 39 8a 80 3f 6e 5f f3 3f be d8 ac bf
       0.37736672 1.0042182 1.9013498 -1.3503644
000230 df 4b a0 be 62 a7 3e 3f 15 b5 fc be ab cc 01 c0
       -0.31307885 0.74474156 -0.49356905 -2.028117
000240 05 25 88 3e 37 e8 13 bf b4 e8 04 3f 64 aa 01 bf
       0.26590744 -0.57776207 0.51917577 -0.5065062
000250 79 0f 21 be a2 7b e5 3e 5a 20 10 3f ea 5c 02 bd
       -0.15728559 0.44820887 0.56299365 -0.03182689
000260 28 23 dc bd ae b8 16 3d d3 04 b2 be 7c 7e 47 bf
       -0.10748893 0.036797218 -0.34769306 -0.77927375
000270 ba 5d c9 bf 15 48 08 c0 3f b1 ce bc 74 7c 16 bf
       -1.5731728 -2.1293995 -0.025231002 -0.5878365
000280 66 ea 94 bc f1 c4 a9 3f 70 25 92 3e 46 0f 84 3f
       -0.018178176 1.3263227 0.28544188 1.0317161
000290 a9 14 ca bf 59 5d 36 40 24 8e 16 3f 2f a7 06 be
       -1.5787555 2.8494475 0.5881064 -0.13149713
0002a0 95 77 c4 bf 39 3b 00 bf 6a eb b1 3e 0b 94 07 3e
       -1.5348994 -0.50090367 0.3474992 0.13240068
0002b0 1d ff 84 bf 5a 6f 9b 3f ec 73 84 3f cf b0 e3 3e
       -1.0390354 1.2143357 1.0347877 0.44470832
0002c0 07 d4 13 c0 18 1a 12 3e 7e 0d 05 be 31 dc fd be
       -2.3098161 0.14267766 -0.12993428 -0.49582055
0002d0 16 54 30 c0 f9 eb ae 3f ae 48 55 3e eb 11 c8 be
       -2.7551322 1.3665763 0.20828506 -0.3907617
0002e0 d2 dc d1 3e 15 9d d5 be 74 c0 23 40 3e 9a ff be
       0.40988785 -0.41721407 2.5586214 -0.49922365
0002f0 af 3d c5 bf da 1b 6f bd 32 9e 42 be bc 85 02 bf
       -1.5409449 -0.05837617 -0.19005659 -0.5098531
000300 09 ae 8a bf 23 82 0c 40 1a cf 04 be 7f 07 17 c0
       -1.0834361 2.195443 -0.12969628 -2.3598325
000310 0d 0e 5a 3f e1 39 3f be ba fc 63 be e3 25 82 3f
       0.8517769 -0.18674423 -0.22264376 1.0167812
000320 4e ad d7 be 7f 2e 56 bf cd 41 02 c0 25 01 a0 bd
       -0.42124408 -0.836647 -2.0352662 -0.07812718
000330 d1 d2 35 3e 50 a3 9f 3f 36 ae 0c 40 5c 3c 4d 3f
       0.17756201 1.2471714 2.198133 0.80170226
000340 41 c7 a5 3e 7b a5 bf be e3 ce db bd 1a 26 a6 3f
       0.3237858 -0.3743094 -0.1073282 1.2980378
000350 8d 21 7e 3f f8 00 da 3f f1 49 91 3f b5 f9 52 bf
       0.99269944 1.7031546 1.135069 -0.8241227
000360 1c cc 68 be e3 51 93 be 4e 15 8a bf 1f 10 7a 3f
       -0.22734112 -0.28773412 -1.0787752 0.9768085
000370 f5 76 bb bf df 80 37 40 3e 9b 30 3f ab cf ee 3e
       -1.4645678 2.8672407 0.6898688 0.46642813
000380 69 18 1c be 59 84 31 bf 47 a7 e6 3f 29 b1 f6 bf
       -0.15243687 -0.6934257 1.8019799 -1.9272815
000390 ea 31 87 3f 79 c7 84 bf 9f f7 e1 be ee 0f 3c bf
       1.0562108 -1.0373374 -0.44134232 -0.73461807
0003a0 02 71 a3 bf e8 cf 17 be 13 73 60 3f f9 b2 cb 3e
       -1.2768862 -0.14825404 0.8767559 0.39784983
0003b0 e8 b0 13 40 9c 9e 7b bf 26 5b 09 bf 05 eb 02 bf
       2.3076725 -0.98288894 -0.53654706 -0.5113986
0003c0 8d c2 91 bf 48 9d 94 bf b2 46 51 3d 7c 9d 6a be
       -1.1387497 -1.1610498 0.05109281 -0.22911638
0003d0 f9 42 06 bf 56 2f d0 3f fa 2b c8 bf 78 9a aa 3e
       -0.5244594 1.6264446 -1.563842 0.33320975
0003e0 7b 12 5e 3f c5 2b 05 c0 b4 72 38 3f f8 7c be 3f
       0.8674695 -2.0807965 0.72050023 1.4881887
0003f0 c3 bb 2a c0 6f 92 2d 40 80 b0 a2 3f 3d 2d 39 be
       -2.66771 2.7120626 1.2710114 -0.18083663

weight f4 [3, 4]
000000 14 5a 84 3e 66 01 ab 3f cc 11 e1 bf 66 9c 41 bc
       0.25849974 1.3359802 -1.7583556 -0.011817073
000010 98 68 44 bf 60 1f 3e bf eb c3 bd be d8 02 c1 3e
       -0.767221 -0.74266624 -0.37063536 0.37697482
000020 b5 09 6a bf 18 8a aa bd 16 13 28 bf 3b ea 05 3f
       -0.9142106 -0.083271205 -0.6565412 0.5231053

weight f4 [7, 4]
000000 96 62 ab bf 2b e3 89 3f b9 e4 c9 bc 00 02 49 be
       -1.3389461 1.0772451 -0.024645196 -0.19629669
000010 36 e0 57 bf 72 e5 ce bf db b7 e4 bf bc fd a1 bf
       -0.84326494 -1.6163771 -1.7868608 -1.2655559
000020 a4 9a 4f 3f 3f 7f 90 3d c3 e2 ec 3e 86 14 14 bf
       0.8109534 0.0705552 0.46266755 -0.57843816
000030 2e 47 36 3f 67 d2 c7 3e b5 23 98 bd 31 5e d8 3e
       0.7120236 0.39027712 -0.074286856 0.42259362
000040 5e 70 8c 3e 29 b7 f7 3d 1e c6 07 bf d9 6b 64 bf
       0.2742948 0.12095482 -0.5303668 -0.8922706
000050 10 01 11 3f c0 da 94 be 1f 76 c7 bf bd 12 0f 3f
       0.56642246 -0.29073143 -1.5582923 0.5588797
000060 ef a5 2b bf f6 92 a3 bf 28 c2 62 3f e5 ed 7f 3e
       -0.6705007 -1.2779224 0.8857751 0.24993093

weight f4 [7, 4]
000000 49 b4 b9 3e 7a 1e 07 bf d9 54 0a bf 78 3b fd 3e
       0.3627036 -0.5278088 -0.5403572 0.49459434
000010 3e 56 17 c0 9f 39 b6 bf e0 7f be be 1f 84 1e be
       -2.3646388 -1.4236335 -0.37206936 -0.15480088
000020 93 73 c8 bf 8a 8c 7c 3e fa b0 44 be 22 3d 7d 3f
       -1.566027 0.24662986 -0.19208136 0.98921406
000030 5a b9 33 bf e3 69 a3 3f 39 1a 1c bf 03 dd 9b 3f
       -0.702047 1.2766689 -0.6097751 1.2176822
000040 05 8d a0 bf e9 dd 14 be 85 34 93 3f 26 c8 bc 3d
       -1.2543036 -0.14537777 1.1500403 0.09217863
000050 de 88 95 3f f5 55 52 bf 68 05 99 bf 48 f7 05 bf
       1.1682394 -0.8216241 -1.1954775 -0.52330446
000060 1a e2 87 3f 67 73 95 be 11 56 05 3f 4d fe 8f 3f
       1.0615876 -0.29189608 0.5208445 1.1249481

weight f4 [3, 4]
000000 3f a6 ad bf 32 6f 7a bd 9f d3 88 bf dc 49 bd bd
       -1.3566359 -0.0611412 -1.0689582 -0.09242603
000010 da 9e 5e 3f c0 56 6f 3f 34 2f c4 3f 1b 73 e0 3f
       0.8696114 0.93491745 1.5326905 1.7535127
000020 d8 4e b0 3e 94 07 c9 be f6 42 36 3f 23 dd 0c 3e
       0.34435153 -0.39263594 0.71195924 0.13756232

weight f4 [427, 4]
000000 a6 55 a9 3f 93 d6 5f bf 40 ee 99 3f fa 37 4b 3f
       1.3229263 -0.8743679 1.2025833 0.7938229
000010 84 e9 14 bf 8e 43 80 be 92 64 4e 3f d8 fd 89 bf
       -0.58168817 -0.2505154 0.8062221 -1.0780592
000020 19 5f cb 3c 38 df 95 bf af 7c e3 3f ff a3 f3 3f
       0.02482562 -1.1708746 1.7772425 1.9034423
000030 82 f9 d6 3e f1 12 05 bf 34 ea bf 3f 5c e6 35 c0
       0.41987234 -0.5198203 1.4993348 -2.842185
000040 24 93 80 be ca 2f 88 bd 10 b8 b9 3f 14 3a 90 bf
       -0.2511226 -0.0664974 1.4509296 -1.1267724
000050 fb fc 96 bf ee a5 72 3f d0 3a bb be d7 f0 23 bf
       -1.1795954 0.9478444 -0.36568308 -0.6403937
000060 82 7f 7b bd d1 6f 3b be 41 9a 66 3e ff 64 18 be
       -0.061400898 -0.18304373 0.2251978 -0.14882277
000070 2e 0b 10 c0 75 27 d0 3f 42 4b 79 3f c7 dd b5 bd
       -2.2506824 1.6262041 0.9738046 -0.08880191
000080 49 39 c9 3f 60 90 18 40 d3 fd 10 3d fd 5a ab be
       1.5720607 2.383812 0.035398316 -0.33467856
000090 f9 f8 10 3e 2f 26 1f 3e 78 98 04 3f c3 e2 16 bf
       0.14157476 0.1554191 0.5179515 -0.5893976
0000a0 df 6c ea bd f7 ae 35 bf 90 f2 d0 be c3 e0 61 bf
       -0.11446547 -0.709701 -0.4081006 -0.88233584
0000b0 f5 0f be be 64 77 a1 bf 22 a5 ac bf f5 4c 18 3f
       -0.3712155 -1.261456 -1.3487895 0.5949243
0000c0 c1 d6 72 3f 12 fd 01 3d 65 0f 31 bf 10 f7 6f 40
       0.9485894 0.031735487 -0.69164115 3.7494545
0000d0 b8 2e 20 c0 9c 3b 3e 3f ef 93 b3 be 26 8c 48 bf
       -2.5028515 0.74309707 -0.35073802 -0.7833885
0000e0 f2 72 32 bf 13 ca 36 3f 98 e6 54 c0 5a 11 46 3e
       -0.6970664 0.7140209 -3.3265743 0.19342557
0000f0 8e b4 37 bf 9d 36 09 3f f8 4d 59 3e a1 b6 e3 3e
       -0.7175988 0.5359896 0.21221149 0.44475272
000100 9b f9 38 be 8a f6 39 3e 1d 6f 67 bd 63 e7 31 bf
       -0.18063967 0.18160453 -0.05650245 -0.69493693
000110 42 5d af bd 6f d6 a6 bf 61 61 fa be aa 79 62 3f
       -0.085627094 -1.303419 -0.4890242 0.88466895
000120 90 50 34 bf b8 61 3d 3f 70 a3 b9 be e5 30 a5 3f
       -0.7043543 0.7397723 -0.36257505 1.2905546
000130 1b 66 2f bf a1 d6 59 be 14 57 4c 3f 78 2b f1 be
       -0.68515176 -0.2127328 0.7982037 -0.47103477
000140 dc 17 c6 bf 9d e8 34 bf 22 68 cc bf 0e 72 da 3f
       -1.5476031 -0.7066744 -1.5969279 1.7066057
000150 fa 38 ce bf 9c 26 20 bf 1c 1c 28 40 34 e3 1e 3f
       -1.6111138 -0.62558913 2.6267157 0.62065434
000160 9e 21 7f 3e 90 00 97 3f 22 02 17 40 c1 2b 30 c0
       0.24915168 1.1797047 2.3595052 -2.7526705
000170 bb 9a 44 3f 16 0b ce 3f 8b d0 b2 3f 5d a1 95 bf
       0.767986 1.6097133 1.3969892 -1.1689869
000180 f6 54 a4 be 93 18 96 3e 84 c3 82 3f ca 8b dd be
       -0.3209607 0.29315624 1.0215917 -0.43270713
000190 aa 15 4b bf 95 28 ff 3e df 69 4f bf 66 35 d2 3f
       -0.7932993 0.4983565 -0.8102092 1.6422546
0001a0 73 70 38 bf e2 c1 c3 bf 12 37 f1 3f 1a af 20 bf
       -0.72046584 -1.5293543 1.8844931 -0.62767184
0001b0 da ab 67 be f1 c0 2e 3e ec 99 ac bf 00 3a 71 bf
       -0.2262415 0.17065789 -1.3484473 -0.94229126
0001c0 1e 1f 4b 3f fb 20 b6 be 75 4f 2e 40 09 54 db bf
       0.79344356 -0.35572037 2.7235997 -1.713502
0001d0 36 60 48 3f ed f4 f0 3f ee 2f 31 bf 01 40 2f bf
       0.78271806 1.8824745 -0.6921376 -0.6845704
0001e0 04 45 b9 bf b9 eb 86 3f 1e e0 68 bf c1 ac 8a bf
       -1.4474187 1.0540687 -0.90966976 -1.083397
0001f0 78 82 4c 3e 33 90 95 bf ba 13 96 3f 7a c1 e5 3f
       0.19971645 -1.1684631 1.172477 1.7949669
000200 3a 08 8d 3f e5 c0 5e 3f 20 82 77 40 49 de 6d c0
       1.1018136 0.87013084 3.8673172 -3.7166922
000210 ca c5 d2 3d 48 9c b7 bf 7c a1 ba be 98 4f e2 be
       0.102916315 -1.4344568 -0.36451328 -0.4420135
000220 c2 88 49 be ba f1 02 c0 c6 a4 cb 3f c0 97 ac 3f
       -0.19681075 -2.0460038 1.590966 1.348381
000230 f9 37 54 3f 2f 17 1a 40 8f 09 1f c0 bd d4 2b bf
       0.8289791 2.407665 -2.4849584 -0.6712149
000240 03 ce 00 bf 75 0f 15 bf cc a0 0d 40 fd f7 08 40
       -0.5031435 -0.5822671 2.2129393 2.140136
000250 f2 94 78 3e ab 19 a7 3d 4b 90 31 bf 30 82 24 3e
       0.24275568 0.08159193 -0.693608 0.16065288
000260 3c 0b a6 be b1 7b f0 3f 0a 0a 29 c0 3f 5b 67 bd
       -0.32430446 1.8787748 -2.6412377 -0.056483503
000270 b3 44 48 bf 39 d9 6b c0 22 46 6d 3f a7 5c 9c 3f
       -0.78229827 -3.6851332 0.9268514 1.2215775
000280 7b a0 6d 3f d1 05 94 bd 8a 57 22 bf 15 0f e7 3e
       0.92823 -0.07227672 -0.63414824 0.45128694
000290 fc 59 43 3d f4 fd 0c bf c1 af 79 3f a6 0e 2e 3f
       0.047693238 -0.55075 0.97533804 0.679911
0002a0 da b4 5f 3f 46 40 61 bf f7 a0 ae be a5 ac a1 3f
       0.8738533 -0.879887 -0.3410718 1.2630812
0002b0 e9 93 18 3f 9e 2a ec bf af 2d 58 ba 1a 3a 8a 3e
       0.59600693 -1.8450506 -0.00082465535 0.26997453
0002c0 07 0a ef 3e e0 73 c5 be 84 2e 43 bf 36 3e e2 3d
       0.46687338 -0.38564968 -0.7624285 0.11047022
0002d0 8d d9 5e bf 65 69 a9 be 9b f7 8a bf 64 fc c3 3e
       -0.87050706 -0.33088222 -1.0856813 0.38278496
0002e0 31 25 fb 3e ca 72 8c bf 9d f9 48 3f 00 3d c6 bf
       0.49051812 -1.0972531 0.7850588 -1.5487366
0002f0 08 ca 71 bf e5 ea 33 bf 5f 48 fa 3d ac bd 00 40
       -0.944489 -0.70280296 0.12220835 2.0115767
000300 f0 5e 8b 3e e7 1f 4b 3f 40 1a bd 3e 79 c3 d8 bc
       0.2722087 0.79345554 0.3693409 -0.026460396
000310 a4 23 b7 3f 07 89 84 bf d6 b2 f6 3e 60 f3 8e bf
       1.4307752 -1.0354317 0.48183316 -1.1168022
000320 d1 2c 39 bf 84 83 88 3f c8 11 88 3e 69 05 95 3e
       -0.7233401 1.0665135 0.26576066 0.2910569
000330 ba 91 0a 3e 44 5d 17 3f f4 ac 8a 3f fc 45 14 c0
       0.13532153 0.5912669 1.0834031 -2.3167715
000340 75 5d 4b 3f 08 f5 81 bf 08 56 8c 3f bc f4 b3 bf
       0.7943948 -1.0152903 1.0963755 -1.4059062
000350 67 56 09 3f f1 94 98 be bd b9 88 be 18 91 be be
       0.53647465 -0.29801133 -0.26704207 -0.37220073
000360 e3 6f e4 3f e2 b5 8e be 03 bd ff be c2 73 19 bf
       1.7846645 -0.2787314 -0.49948892 -0.5994226
000370 36 f9 46 be 73 b7 64 bf 1f d6 ca bf 39 2c fa 3e
       -0.19431004 -0.8934242 -1.5846595 0.48861864
000380 61 4e 4b 3f 08 ee 00 3e e5 a2 04 bf 4a b2 23 3f
       0.7941647 0.12590802 -0.5181106 0.6394392
000390 1a fe 6f bf af 06 be 3e e0 4d cd 3e 54 79 3d be
       -0.93747103 0.37114474 0.40098476 -0.18503314
0003a0 b4 b1 74 bf a3 af 9e 3d 49 11 78 bf d7 0a 80 3e
       -0.95583653 0.07748344 -0.96901375 0.2500827
0003b0 c4 71 72 3d 20 02 0e c0 24 83 ad 3c 2c c0 12 40
       0.059190527 -2.2188797 0.021180697 2.2929792
0003c0 b2 c8 3c bf b7 a0 85 3f dd 4b db be dc 78 09 3e
       -0.73743737 1.0439671 -0.42831317 0.1342501
0003d0 21 2d 45 3e 5d 93 04 bf 00 08 8b 3e 8f 60 64 bf
       0.19255497 -0.5178736 0.2715454 -0.89209837
0003e0 10 13 0a 3f 56 b8 70 bf ff d5 b0 3f af 81 91 3f
       0.5393534 -0.94031274 1.3815306 1.1367701
0003f0 5a de 22 3f 0a 3a 47 be 8a 17 32 3f 11 cd 11 3f
       0.6362053 -0.19455734 0.6956717 0.5695353

weight f4 [1030, 4]
000000 5b 6d c2 3f a8 60 79 bf 01 02 d4 bf 6c 93 00 3f
       1.5189623 -0.9741311 -1.6563112 0.5022495
000010 8e ec a0 bf a5 41 f3 3f 74 98 b0 3f 67 3b 76 3f
       -1.2572191 1.9004408 1.3796525 0.9618439
000020 62 6d c4 3c 15 ab 03 bf 97 ab b7 3f 46 d0 42 3e
       0.023977939 -0.51432925 1.434924 0.19024763
000030 86 4d 5d bf 99 c1 ef 3f 20 6d d7 bf 60 1d a7 bf
       -0.86446416 1.8730956 -1.6830177 -1.305584
000040 c2 9b 8b 3f 4b cd d4 3f 7f 8a fd 3f 35 72 70 bf
       1.0906909 1.662515 1.9807891 -0.93924266
000050 97 3b 86 3d a9 74 54 3f 35 b5 24 c0 21 80 2c bf
       0.065543346 0.8299051 -2.57356 -0.6738301
000060 7c f6 5e 3f 51 a6 af 3f 81 92 fc bf 18 91 ba bf
       0.87094855 1.3722631 -1.973221 -1.4575529
000070 e5 35 7c 3f 6e af 03 c0 a2 85 0b be 06 04 0e 3e
       0.98519737 -2.0575824 -0.13625196 0.13868722
000080 a3 9b b0 bf cd 13 89 3f e0 59 25 bf d3 49 47 3e
       -1.3797497 1.0709168 -0.64590263 0.19461755
000090 ce 43 6a bf 27 85 ab 3f f8 0a e8 3e 57 26 32 3f
       -0.9150971 1.340001 0.45320868 0.6958975
0000a0 4a 7f 6d 3f 68 d4 b0 bf ab 17 4f 3c de 8b b9 bf
       0.9277235 -1.3814821 0.01263992 -1.4495809
0000b0 1a b1 97 bf 12 98 92 be a0 b8 b5 3f 81 ef 04 3e
       -1.1850922 -0.28631645 1.4196968 0.12981988
0000c0 67 f2 ad 3e 92 8a 4e 3f 79 9c c0 3f 26 da eb be
       0.33974 0.8068019 1.5047752 -0.46064872
0000d0 ec f2 ac 3e 7a fc 02 c0 38 3b ec 3f 48 f6 1b 3f
       0.33779085 -2.04666 1.8455572 0.6092267
0000e0 b4 82 ea be e7 eb e8 3f a5 cd 6a 3f 10 5f 7a bf
       -0.45802844 1.8196992 0.9172004 -0.97801304
0000f0 0e b8 c8 bf fc 71 b7 3f c8 24 38 3f 45 93 5c 3e
       -1.5681169 1.433166 0.71931124 0.21540554
000100 bc 91 f5 bf 8a 97 cd bf b9 26 50 be 63 2b 8c bf
       -1.91851 -1.6061871 -0.20327272 -1.095074
000110 c7 99 16 bf f7 50 93 bf e4 66 c2 3e 5a 0f 95 bf
       -0.58828396 -1.1509084 0.37969124 -1.164531
000120 b3 55 d4 3e 37 77 ae bf 36 47 86 3f 6b 49 8d 3f
       0.41471633 -1.3630131 1.0490482 1.103803
000130 69 dc 1f 3f 3f 56 ea 3f cd 22 0e 40 2f 99 0a c0
       0.62445694 1.830757 2.220874 -2.1655996
000140 bc 61 c3 bf be 9e 29 bf a0 2b a5 be 4c c4 7f be
       -1.5264201 -0.66257846 -0.32259846 -0.24977225
000150 c2 10 bf 3e 0a c3 c5 be df a0 fa bf 97 f1 c1 3f
       0.37317473 -0.38625365 -1.9580344 1.5151852
000160 6e f4 d9 3e 27 62 d2 3e d0 58 e5 3f cb 7c c6 bf
       0.42569298 0.4109051 1.7917728 -1.5506834
000170 f9 ae 24 3e 2a 43 50 3f ca 49 16 3f 02 36 77 3f
       0.16082372 0.81352484 0.58706343 0.96566784
000180 7f 7d 1e bf 3b da 91 3e b0 90 f9 bd e7 46 21 bf
       -0.6191024 0.2848681 -0.121858 -0.62998813
000190 d6 4e cc bf 53 a0 25 c0 76 e4 14 40 5f 0a 0a 40
       -1.5961559 -2.5879104 2.3264441 2.156883
0001a0 3b af 06 bf 4f 5f 4b 3f 0b 77 16 c0 e2 43 ad bf
       -0.5261113 0.79442304 -2.3510158 -1.3536341
0001b0 2d e1 ec 3e 31 c8 9b 3f cf e8 09 40 ad a4 21 3f
       0.46265545 1.2170469 2.1548345 0.631419
0001c0 62 49 9f 3f ef 40 ea 3f ae 8d 3b 3f 98 1d 82 bf
       1.244427 1.8301066 0.7326306 -1.0165281
0001d0 02 d3 46 be 4f a1 c9 3f 73 88 24 3f 07 d1 c4 3f
       -0.1941643 1.5752352 0.64270705 1.537629
0001e0 63 e8 0d c0 f9 a7 e7 bf 6c 8e 0a bf ad a4 3e 40
       -2.2173088 -1.8098136 -0.5412357 2.978801
0001f0 32 40 ca be 68 29 88 3f 43 77 69 3e 32 0a 5e bf
       -0.39502102 1.0637636 0.22799401 -0.86734307
000200 b9 8f ee 3c 2a b6 85 bf f1 cb 17 3f 28 65 a3 3f
       0.029121267 -1.0446217 0.59295565 1.2765245
000210 68 0c d4 3e 58 2e 3c 3f 50 36 2b 40 22 9d 8a bf
       0.41415715 0.73508215 2.67519 -1.0829203
000220 63 bc 96 3f 17 1b fb bf 7b 78 0c bf e8 46 94 bf
       1.1776241 -1.9617642 -0.5487134 -1.1584139
000230 cc 98 0f 3d 0d 4e cd 3f a2 a3 b4 bf 2c 3e 98 bf
       0.035057828 1.6039444 -1.4112437 -1.1893973
000240 8a 20 7f 3f 48 62 3f 40 ea 1e c2 3f 04 30 c9 3f
       0.99659026 2.9903736 1.5165684 1.5717778
000250 2a 37 37 be 85 aa 8e 3f 81 f2 29 bf fe 1e b9 bd
       -0.17892137 1.1145788 -0.66385657 -0.090391144
000260 f7 64 a3 bf 3f 4f bf bf 79 19 23 3f 11 6d 14 3f
       -1.2765187 -1.4946059 0.63710743 0.5797892
000270 3d 12 c2 3e 2c e0 1c 3e 55 74 61 3f 9d 73 7f 3f
       0.3790454 0.1531989 0.88068134 0.99785787
000280 f9 c2 b3 3f 72 a1 17 40 2d 21 02 bf c0 98 cf bf
       1.4043876 2.3692288 -0.5083187 -1.6218491
000290 3f 75 a0 3f 66 45 16 40 55 75 eb 3f 41 fd 93 3f
       1.2535781 2.3479857 1.8395182 1.1561662
0002a0 02 c3 d8 bf 58 eb b7 bf e3 11 cc 3f 6d f4 d2 3f
       -1.6934512 -1.4368696 1.5942959 1.6480843
0002b0 5f 64 0b bf bc 82 8e be 9e 83 67 3f 20 2a 6b bf
       -0.5445003 -0.27834117 0.90435207 -0.9186115
0002c0 f0 8b 96 3f e4 e1 9b 3f 17 07 85 3e 09 7d 96 c0
       1.1761456 1.2178311 0.25981972 -4.702763
0002d0 e7 57 1b c0 3c 4e 07 40 10 f9 2f c0 ff 36 04 c0
       -2.4272401 2.11415 -2.7495766 -2.0658567
0002e0 9e 44 2d bd d9 dc ea 3d be 79 9f 3f 58 0c 7d bf
       -0.042301767 0.114679046 1.2459028 -0.9884696
0002f0 e8 73 42 bd 40 1d 9d 3e 2a 7b 13 c0 77 ba 05 c0
       -0.047473818 0.30686378 -2.3043923 -2.089506
000300 e9 ff 1a 3f 4c 1a 02 c0 f3 d3 17 c0 b5 99 d2 3f
       0.6054674 -2.032855 -2.3723114 1.6453158
000310 f7 a5 8e bc c8 b1 94 3f 83 26 8c bd 94 16 4c 3f
       -0.017413123 1.1616755 -0.06843283 0.7972195
000320 18 29 80 bf 7d 20 1a bf 91 21 e5 be 7e b6 74 be
       -1.0012541 -0.60205823 -0.44752172 -0.2389774
000330 79 6e 82 3f b6 44 c3 be 52 7f 29 bf df b0 b1 bf
       1.0189964 -0.3813836 -0.662099 -1.3882102
000340 70 54 8b bf 1f 18 c7 bf 49 5d 9b 3f cb a7 11 3f
       -1.0885143 -1.5554236 1.2137843 0.56896657
000350 60 a0 25 3f 56 3e e8 3e f5 0c f1 be b4 51 fd 3f
       0.6469784 0.4536006 -0.47080198 1.9790559
000360 47 84 86 3f a0 bb 0e bf bc 3d 63 3e 61 5c bb bf
       1.0509118 -0.55755043 0.22191519 -1.4637567
000370 d8 65 9f 3f a0 7b 14 40 92 9e 54 c0 aa 09 ba bf
       1.2452955 2.3200455 -3.3221784 -1.4534199
000380 d9 8e 81 bf 0a af 48 3f 37 7e 7b bf 23 86 a7 3d
       -1.0121719 0.7839209 -0.98239464 0.081798814
000390 06 9f 69 3f 6c 55 17 40 87 6b 29 40 b5 44 c3 3f
       0.91258276 2.3645887 2.647188 1.5255343
0003a0 7a 57 2e bf c2 6b 28 3f 75 41 06 c0 46 8d 01 c0
       -0.6810223 0.65789425 -2.0977452 -2.0242476
0003b0 f8 78 89 bf 94 d2 4c bf 09 eb e4 3f ca 64 9c 3f
       -1.0740042 -0.80008817 1.7884227 1.2218258
0003c0 81 e0 3e 3f 4b 71 56 3f 8b 87 c6 3f 95 1f 81 3e
       0.74561316 0.8376662 1.5510114 0.25219408
0003d0 28 74 55 bf 53 9f 18 bf cd 2a 96 3e 68 a1 6e 3f
       -0.83380365 -0.5961811 0.2932953 0.93215036
0003e0 8f 82 83 40 09 fa 90 3f a8 3f 18 40 ad bd 99 3f
       4.1096873 1.1326305 2.3788853 1.201101
0003f0 88 e8 68 c0 2f 26 a3 3f 22 38 93 3f d9 f9 7a 40
       -3.6391926 1.2746028 1.1501505 3.9214995

weight f4 [7, 4]
000000 0b b2 77 bf 9c 1e c1 3e 1b 0f a3 bf 9d 66 57 be
       -0.96756047 0.37718666 -1.2738985 -0.21035238
000010 ca db df be f8 fe 07 bf 09 dc 30 3f 60 06 f9 be
       -0.43722373 -0.53123426 0.69085747 -0.48637676
000020 ae 59 0b bf f4 f0 96 be 71 d0 44 3f 61 b6 50 bf
       -0.54433715 -0.29480708 0.76880556 -0.8152829
000030 f8 4a d1 3d de 99 85 3f 48 7b 9e be 9e b4 0c bf
       0.10219377 1.0437582 -0.3095343 -0.549631
000040 39 91 a0 3f 3a 56 6e bf 98 52 33 bf 89 3b f0 bf
       1.2544318 -0.9310032 -0.70047903 -1.8768169
000050 49 f3 b9 3d 0c 7c 2e 3f 4c d9 af 3f 6a 23 9c 3f
       0.09079606 0.6815803 1.3738189 1.2198308
000060 88 40 69 3e 07 ba 62 bf fb 6b fb 3c 55 0a 95 3f
       0.22778523 -0.88565105 0.030691138 1.1643778

weight f4 [7, 4]
000000 4e f8 7e bf 44 82 10 bf 3f 82 f4 bd 90 2e 22 bf
       -0.9959763 -0.5644877 -0.11938905 -0.633523
000010 fe 3a a6 be 2f 83 c8 3e d9 36 1a bf 33 31 b3 3f
       -0.32466882 0.39162585 -0.6023994 1.399939
000020 a9 30 87 bf 23 a7 f6 bf b8 b6 8f bd 94 9d 6b 3f
       -1.0561725 -1.9269756 -0.07017273 0.9203732
000030 df bc 0a 3f 13 f6 c3 3f c9 78 f8 3e 61 33 8c bf
       0.54194444 1.5309471 0.48529652 -1.095318
000040 e7 73 04 3f 88 ad d6 be 56 49 17 bf 03 7c fe be
       0.5173935 -0.4192927 -0.59096277 -0.49703988
000050 45 48 20 bf 16 27 db bf c5 74 88 3e a1 e8 d0 bc
       -0.62610275 -1.7121303 0.26651588 -0.025501551
000060 58 31 df 3d c1 dd e5 bf 16 39 a9 3e 7d f5 9c be
       0.108980834 -1.7958299 0.33051366 -0.30656043

weight f4 [7, 4]
000000 aa eb 82 3e 0e f6 1d 3f c7 dd cd bf 95 eb 11 be
       0.25570422 0.61703575 -1.6083306 -0.14250024
000010 87 a7 85 bf ee 79 85 bf 3d 58 d1 bf 93 b0 21 bf
       -1.044175 -1.0427835 -1.6355053 -0.63160056
000020 7d 25 14 bf 80 12 0e bf bf 5b 29 3f 8f e4 b7 3e
       -0.578697 -0.5549698 0.6615562 0.35916564
000030 42 4a c6 bf 56 04 31 3e cc ec 0f be 05 0a 4a 3e
       -1.5491412 0.1728681 -0.14055175 0.19730385
000040 1a 3e b9 3f e0 8b 16 3e d7 0b 02 3f 1d f6 89 bf
       1.4472077 0.14701796 0.50799316 -1.0778233
000050 6e d4 a6 3f 99 ad d4 bc 47 a7 e2 3d fc 28 60 bf
       1.3033578 -0.025961684 0.11067062 -0.8756254
000060 59 49 ac be 24 f2 0e 3f dc 93 b8 3f 33 03 6f be
       -0.3364971 0.5583823 1.4420123 -0.23341064

weight f4 [6, 4]
000000 ac b3 70 3f b3 61 9f 3f ab 0a 1d 40 0b b9 a5 3f
       0.9402416 1.245169 2.4537761 1.2947096
000010 37 e7 c7 3d 62 73 ae 3d eb 7a ae bf f0 62 42 3f
       0.097608976 0.08518101 -1.3631262 0.75932217
000020 c9 38 bb bf 00 75 16 bf 75 10 9c bf 75 0a d8 be
       -1.4626704 -0.5877228 -1.2192522 -0.42195478
000030 4d 06 eb bf de 2a 42 c0 90 16 0b c0 4b b2 b4 bf
       -1.8361298 -3.0338664 -2.173252 -1.4116911
000040 64 59 07 bf 03 e9 d3 bf 97 bc a2 bf 5a 4a b4 bf
       -0.52870774 -1.6555485 -1.2713803 -1.408519
000050 73 10 a9 bf 22 29 8a bf b9 8f ed be d0 b5 62 bf
       -1.3208145 -1.0793803 -0.46398714 -0.88558674

weight f4 [32, 1, 3]
000000 6f ab db bc 65 a0 3e bf 46 52 46 bf a8 80 09 3f
       -0.026815144 -0.7446349 -0.7746929 0.5371194
000010 fa 7e 9c bd ee c7 07 bf 7f 7e d2 3e 00 0e 08 3f
       -0.07641406 -0.53039443 0.41112134 0.5314636
000020 03 32 5e bf ec f2 b9 be d8 d6 26 bf 3d 04 8f 3e
       -0.8679506 -0.36318147 -0.65171576 0.2793292
000030 e8 d8 09 3f 7f fa 24 3f b8 e7 f6 be 91 06 29 3f
       0.538466 0.64444727 -0.48223662 0.66025645
000040 34 d8 05 3f f7 fb 67 bd 3d 97 0f bf 29 d0 e7 3e
       0.52283025 -0.056636777 -0.56090146 0.45276
000050 39 91 4d bc 11 73 0e bf bf 9a 32 3f d8 aa 8d bd
       -0.012546831 -0.5564433 0.69767374 -0.069173515
000060 a0 ad bc be 79 11 f1 3e 5c b5 80 3e 07 10 9b 3e
       -0.36851215 0.47083643 0.25138366 0.30285665
000070 b5 fb 81 bf 9a 04 65 3e 90 a2 00 3f 65 a5 12 bf
       -1.015494 0.22365037 0.5024805 -0.5728362
000080 dd 22 74 3d d0 ab ab 3e 63 c6 3f bf a7 ce 9f 3d
       0.05960356 0.3352952 -0.7491209 0.07803088
000090 73 df 96 3d cd 18 2e bf b9 33 a3 3e 2b 4a fb 3a
       0.07366838 -0.68006593 0.318754 0.0019171884
0000a0 19 6e 92 bd 63 c2 0d 40 3f 6b bd be eb 86 5f 3f
       -0.07149906 2.2149894 -0.36995885 0.87315243
0000b0 43 84 a1 3c e2 3b 11 3f 44 bb 15 bf 05 69 56 be
       0.019716388 0.56732 -0.5848887 -0.209385
0000c0 25 b2 46 be 08 b6 42 bf 5a c1 ad 3e e5 08 a6 3e
       -0.19403894 -0.7605901 0.33936578 0.3242866
0000d0 c6 ae 3d bf 56 ad fe 3d 9e 16 13 3e b6 ac 10 bf
       -0.7409481 0.12435405 0.14364097 -0.56513536
0000e0 81 2b f7 be f9 27 84 3e f9 41 f3 3d e6 26 3c bf
       -0.48275378 0.25811747 0.11877818 -0.73496854
0000f0 5e 9d 13 bf 0f 55 82 be 86 c8 d9 3e 4c c1 89 3e
       -0.57662 -0.2545552 0.425358 0.26905286
000100 aa f0 aa be 62 a6 02 bf 41 3d f5 3d 44 7c cb be
       -0.33386737 -0.5103513 0.11974574 -0.39743245
000110 a8 aa e5 be 87 8a 90 3e 4b 4c 4d bf 91 d4 47 3d
       -0.44856763 0.28230688 -0.8019454 0.048786703
000120 f1 00 46 3e 55 85 5a bf d3 a9 9f 3e e6 64 35 bd
       0.19336297 -0.853597 0.31184253 -0.044285677
000130 62 1e 1f 3e 0d dc ad bf aa c9 ab 3c 3b 74 03 3f
       0.15538934 -1.3582779 0.020970184 0.5134923
000140 7a 4e af 3e 5d ac 71 3f 54 b6 0d 3e 38 d8 94 be
       0.3423956 0.9440363 0.13839084 -0.29071212
000150 fa d6 06 bf 86 90 be 3e 7b 08 f6 be 15 5b 26 3f
       -0.5267178 0.37219638 -0.48053345 0.6498273
000160 31 29 0b bf c2 2e b4 bd 17 ae 7c bd 15 a1 06 3f
       -0.5435973 -0.08797981 -0.061689463 0.5258954
000170 73 e3 bf 3e 7d 4d b2 be 65 39 49 3f 47 d9 26 3d
       0.37478217 -0.34824744 0.786032 0.040734556

bias f4 [32]
000000 b2 10 d2 bd b3 e7 f9 be 36 b6 19 be 0b 27 f5 3e
       -0.10257091 -0.48809585 -0.15010914 0.4788135
000010 9f df 6f 3d 4d 0f 0b 3f 3d 64 93 3e ee be 14 bf
       0.05856287 0.5432022 0.28787413 -0.58103836
000020 05 27 7f be 52 17 b9 be 5a 80 8f be 5f f0 55 be
       -0.24917229 -0.36150604 -0.28027612 -0.20892476
000030 2e 4e 16 bf 29 32 86 bd cf b7 d0 be ab b6 15 be
       -0.5871304 -0.06552536 -0.40765235 -0.14620464
000040 80 70 ee 3e 37 3a 2d be d5 32 11 bf 12 49 e5 3e
       0.46570206 -0.16916738 -0.5671819 0.4478231
000050 24 b7 4e 3d 8d 8a 14 3f e7 ac f0 3e 25 d4 88 bc
       0.050467625 0.5802391 0.47006914 -0.01670272
000060 c1 53 18 3e a1 1e 98 3e d4 12 80 bd d0 60 19 3e
       0.148757 0.29710868 -0.06253591 0.14978337
000070 77 15 11 3e ce 80 ae be da 9c a2 bd 5d a9 e8 be
       0.14168344 -0.34082645 -0.07940073 -0.45441714

weight f4 [64, 32, 3]
000000 d8 32 bb be 64 ad 10 bc 0b 0f c8 bd 7d 80 50 3e
       -0.36562228 -0.008830402 -0.09768494 0.20361514
000010 ca ef a6 3c 93 01 97 be 0b dc 90 be 8a 55 98 3f
       0.020378012 -0.2949339 -0.2829288 1.1901104
000020 1a 4c 90 be a1 fd 92 bd bd 14 ee bc 13 ae e5 be
       -0.2818306 -0.07177282 -0.029062623 -0.4485937
000030 9c f9 3c be 1d 66 2e 3f bb d3 06 bf 6e 63 8f 3e
       -0.18454593 0.6812456 -0.52666825 0.28005546
000040 c5 dc b5 3e 06 65 ee be 8a 6f 48 be 2b 01 c3 bd
       0.35519996 -0.4656145 -0.19573799 -0.09521707
000050 99 9e a4 3e d2 85 7d 3e 26 01 4e bc cb 40 8f 3c
       0.3215225 0.2475808 -0.012573516 0.01748695
000060 d9 6d 2a 3f ef 19 ca be eb 9b a6 3e d3 00 6a 3e
       0.66573864 -0.3947291 0.3254083 0.22851877
000070 11 db f7 3e 2e db 44 bf a4 97 70 3e e1 7f a5 3e
       0.48409322 -0.7689694 0.23495346 0.32324126
000080 4d 58 55 bf e7 a7 9c bd 20 17 d6 3e af 66 d7 be
       -0.8333786 -0.07649212 0.41814518 -0.4207053
000090 28 2a d1 bd 1c 5c 0e 3f 7e 72 b2 be d3 fa 5b be
       -0.10213119 0.556093 -0.34852976 -0.214824
0000a0 9b 36 47 be 1f bd c0 bb 62 fd ad be ec dd b3 3e
       -0.19454424 -0.00588192 -0.33982378 0.3513025
0000b0 85 f6 2b 3d 7b 7b 05 3f 4a f2 c3 3e 4b cf 24 bf
       0.041983146 0.5214154 0.3827079 -0.64378804
0000c0 49 f8 89 be 6c ae 5d 3f a3 f7 0f bf 7f cb 52 3e
       -0.2694724 0.8659427 -0.5623724 0.2058544
0000d0 2b e6 fe 3e 5d 1d 12 bf c6 ec da be c0 1c 78 3e
       0.4978498 -0.57076055 -0.4275877 0.24229717
0000e0 2e 8d 8c be 84 0a ff be dd 6c e0 3e 9e bb ca be
       -0.27451462 -0.4981271 0.43833056 -0.39596266
0000f0 90 8b 24 be 29 26 54 bf 68 dd 10 be b0 3b 53 3d
       -0.16068864 -0.8287073 -0.1414696 0.051570594
000100 dc b8 aa 3c 45 78 aa be 31 a6 25 3e be 78 b7 be
       0.020840101 -0.33294883 0.16176678 -0.35834306
000110 bf 16 fc be c9 7c 34 3f b7 4e c0 3e 7a 1c 22 be
       -0.49236104 0.7050291 0.37560055 -0.15831175
000120 65 22 bb be 26 75 99 3e cf 51 a2 be 11 14 8c bf
       -0.36549678 0.2997219 -0.3170304 -1.0943624
000130 b6 9d 3d 3e f0 a3 7e 3d f9 7f aa 3e 53 56 b0 be
       0.18517193 0.06216806 0.3330076 -0.3444086
000140 46 a0 ba bd e7 b4 81 3e 77 e1 4e 3e e7 30 12 bf
       -0.09112601 0.2533333 0.20203196 -0.5710587
000150 68 da fd be 86 2f ff bd 01 90 4a be ec 0c 98 3e
       -0.49580693 -0.12460236 -0.19781496 0.2969736
000160 4e 91 3b 3e 92 be 8f be aa 8d 81 3e be 41 01 bf
       0.18317148 -0.2807508 0.25303394 -0.5049094
000170 36 37 8c 3d 24 b9 60 3c bf ef 8c 3e d3 5e b0 3e
       0.06846468 0.013716016 0.27526662 0.34447345
000180 0e b2 23 bf 12 70 73 bf e9 f6 89 bd 9e 7e 72 3d
       -0.63943565 -0.9509288 -0.067365475 0.059202783
000190 ca 4c ae 3e cc 35 2c b9 e6 13 23 3f c8 75 4f 3d
       0.3404296 -0.00016423239 0.6370224 0.050649434
0001a0 01 51 ab be 2c bb ce bd ee 38 e8 be 6a f8 8a be
       -0.3346024 -0.10094294 -0.45355934 -0.2714265
0001b0 c5 4c 10 3f 97 22 8e be 54 6d 10 be 63 66 d9 3e
       0.5636714 -0.27760765 -0.14104205 0.42460927
0001c0 32 02 53 bd aa 66 ef 3d dd c3 db be 4d 2e ac 3e
       -0.051515765 0.116895035 -0.4292287 0.33629075
0001d0 c0 18 fb be e3 d1 00 3e db 22 89 bd fb 35 25 be
       -0.4904232 0.12580065 -0.06696101 -0.16133873
0001e0 9d ae 72 3e fa 5e 0d 3d 46 34 55 3e c3 3b 40 bc
       0.23699422 0.034514405 0.20820722 -0.011732998
0001f0 32 ae 40 be c6 a9 14 bf 77 e1 bf bd 10 97 60 bf
       -0.1881645 -0.58071554 -0.09369176 -0.87730503
000200 72 fb fd 3d b8 bd 5e 3e ff 5d 7f bf b9 87 51 be
       0.12401475 0.2175206 -0.997528 -0.2046193
000210 b7 be 08 be 3b b4 da be d0 1a 53 bf 00 41 63 3e
       -0.13354002 -0.4271563 -0.8246279 0.22192764
000220 b0 1f ad 3e 85 2e b9 3d 14 b3 6b be 83 3d ca 3d
       0.33813238 0.09042076 -0.23017532 0.09875014
000230 c7 a3 b3 be d5 f7 d3 bd 7a 95 6b bf 06 c0 bb 3d
       -0.3508589 -0.103500046 -0.9202496 0.09167485
000240 01 9f de 3d 26 14 2d bf 2d 78 22 bf 0c 5f 54 3e
       0.10870171 -0.6760887 -0.63464624 0.20739383
000250 9d 4a b8 be 0d 5f cd be 45 fc 11 bf 7c fa 72 bf
       -0.35994425 -0.4011158 -0.5702556 -0.9491346
000260 e9 44 12 3d 57 4e 4d 3f 47 f8 79 3e f4 6c 56 be
       0.03571025 0.8019766 0.24411117 -0.2094
000270 27 fd 33 bc b6 7e ab be 83 1a a3 3d 84 19 ab bd
       -0.010985649 -0.3349511 0.07964041 -0.08354476
000280 4a 7c dc be 4b 8a 89 bd de f8 a7 bd 5d 9d 7f bf
       -0.43063575 -0.067158304 -0.082017645 -0.9984949
000290 8c 8d a1 be 47 70 e0 be 89 aa 59 bf 3e 1b 22 bf
       -0.31553304 -0.4383566 -0.8502584 -0.6332282
0002a0 37 0f 27 be 1e 9e 7b bf 36 db 1d bf ae 19 ab be
       -0.16314398 -0.9828814 -0.61662614 -0.3341803
0002b0 56 71 5d be 47 fb fa be 15 11 44 be 0a 22 06 3d
       -0.21625265 -0.49019834 -0.19147141 0.032747306
0002c0 a4 20 7b 3e ee 03 1f 3f 90 bb ff be e9 ab d0 be
       0.2452417 0.6211537 -0.49947786 -0.40756157
0002d0 0a a8 e0 be 27 c1 94 be 4a 7b 1b bf 67 ec 04 3d
       -0.43878204 -0.29053614 -0.60735 0.032452013
0002e0 b0 eb 6e bf 59 04 e7 3d 7d 44 35 be 75 dc 0c 3d
       -0.9332838 0.11280126 -0.17701907 0.03438993
0002f0 34 a3 6b 3e 28 36 14 be 99 a0 43 be dc b5 15 bd
       0.23011476 -0.14473784 -0.19104232 -0.036550388
000300 80 1a e1 be b7 23 57 3d 33 24 88 3e 09 8c 97 3e
       -0.4396553 0.052524295 0.26590118 0.29599026
000310 d4 af 74 3e 35 b9 29 3f 1a 21 ae be 30 2f 70 3f
       0.23895198 0.6629823 -0.3400963 0.93822
000320 28 b2 37 3e 61 ce 1d bf c3 0e 1d 3e 46 6f 91 3e
       0.17939055 -0.61643034 0.15337662 0.28405207
000330 64 c5 3d bd e1 f6 85 3f 30 15 9c be 80 9c eb 3e
       -0.046330824 1.0465966 -0.30484915 0.46017838
000340 8f cd fb 3e 05 56 92 bd c2 8e 63 be 8f 1d 9f be
       0.49180266 -0.07145313 -0.22222427 -0.3107724
000350 b0 0f 3b 3d 27 63 ec 3e 90 15 43 3c 85 d5 32 be
       0.045669258 0.46169397 0.011906996 -0.17464264
000360 06 f3 8b 3f a2 02 73 be ca 8c 78 3c 3f ab 78 bf
       1.093354 -0.23731473 0.0151702855 -0.971363
000370 eb 21 ac 3c 69 7e ba bb c6 f6 c1 be 9e 97 b3 3d
       0.021012267 -0.005691339 -0.37883586 0.08769153
000380 c2 89 8b be 2d 71 1b bf 0d 48 98 be 32 fc 4f bd
       -0.27253538 -0.6071957 -0.2974247 -0.05077762
000390 80 80 0b bf 51 73 5c be 7b 8c 67 bc a7 12 14 3f
       -0.5449295 -0.21528365 -0.014132614 0.5784096
0003a0 89 ff 2b 3f f3 23 a8 be 4f ee 89 bc d4 d5 97 3e
       0.6718679 -0.32839927 -0.016837267 0.29655325
0003b0 37 8c 99 be b7 17 50 be fe 32 a6 be 8e 1d a1 3e
       -0.29989788 -0.20321546 -0.3246078 0.3146786
0003c0 b5 cb ba be ba a4 0a 3e a1 16 fe bd b3 e3 25 bf
       -0.3648354 0.135394 -0.1240666 -0.64800566
0003d0 1f 2d 77 bd ad 4f 11 be af f5 04 be 71 d9 09 bf
       -0.060345765 -0.1419055 -0.12984346 -0.53847414
0003e0 30 45 91 3e e0 2a 94 be 79 7b 90 3e d2 73 e7 3d
       0.28373098 -0.2893896 0.28219202 0.11301388
0003f0 c5 9c 95 3e 6f 75 d4 be dd 24 21 3c 21 9e 92 be
       0.29221168 -0.41495845 0.009835449 -0.28636268

bias f4 [64]
000000 05 39 af bd ac 29 a3 bd 94 dd 1a 3d 5c 24 98 3d
       -0.085557975 -0.07966933 0.03780897 0.0742881
000010 bd 95 fe bb 1f 99 9d 3d 4c 34 c6 bd eb 7f 76 3c
       -0.007769315 0.07695221 -0.096779436 0.015045146
000020 df 2e ff 3c 18 21 62 3d 16 37 d8 bb e8 70 fd bb
       0.03115028 0.055207342 -0.0065983636 -0.0077344067
000030 ed 9e 10 3d b1 d6 a7 3d 5d d3 1e bd 20 3b ac 3d
       0.035307813 0.08195246 -0.03877579 0.08409715
000040 97 00 8d bd a1 7a 9d bc 83 76 aa bd d4 e0 7f 3d
       -0.06884878 -0.019223513 -0.083233856 0.062470272
000050 b7 f2 11 bd c3 9c 9b 3c 72 35 8d bd 39 cd 1f 3c
       -0.03563186 0.018995648 -0.068949595 0.009753519
000060 5f 55 37 bd 2c c1 9e bd 44 bd 9a 3d 68 1a 81 3d
       -0.04475915 -0.07751688 0.07555631 0.06303865
000070 f3 26 fb 3c 78 11 86 3d d7 da c5 bd da c6 32 bd
       0.03065822 0.06546301 -0.09660881 -0.04364667
000080 bd e0 c8 3d 8d 43 30 3d fd 15 70 bd 4a eb 04 3d
       0.098084904 0.04303317 -0.05861472 0.03245095
000090 64 9f 33 bc ef 84 39 bd 2e a8 e3 3c 56 1b 64 3b
       -0.010963295 -0.04529279 0.027790155 0.0034806333
0000a0 41 00 da bd ee d3 8b bd d5 b4 a8 bd 0d d9 9a 3d
       -0.1064458 -0.06827532 -0.08237616 0.075609304
0000b0 f8 20 c1 3c 8b 47 50 3d 0a b9 57 3d 0c e0 b4 bd
       0.023575291 0.05084948 0.0526667 -0.08831796
0000c0 d6 ce 85 bd 08 0f 2b bd 9b 03 24 3c 57 a9 4c bc
       -0.065335914 -0.04176238 0.010010625 -0.012491546
0000d0 f1 82 54 3c 7a d1 ad 3d 2d 92 da bb 79 0c 4a bd
       0.012970672 0.0848722 -0.0066702575 -0.0493283
0000e0 c4 9d 8b bd a8 67 30 bd 08 c7 27 bc dd 61 4b 3d
       -0.06817201 -0.043067604 -0.010240324 0.049653877
0000f0 37 fa 65 3d 5d 8f 56 3d 58 cd 94 bd 9a 8a 7f 3d
       0.056146827 0.052382816 -0.07265729 0.06238804

weight f4 [32]
000000 d4 7b 88 3f 5a 61 8f 3f ed ae 9a 3f 07 55 75 3f
       1.0662789 1.1201584 1.2084633 0.95832866
000010 1f f2 7d 3f c4 41 5c 3f 2f 59 99 3f 02 36 ae 3f
       0.9919757 0.8603785 1.1980342 1.3610232
000020 dd 4c 94 3f ba 51 7c 3f f6 1b 8c 3f 6b 96 90 3f
       1.1585957 0.98562205 1.0946033 1.1295904
000030 28 22 6e 3f 8a cc 81 3f 26 da 90 3f 55 01 9e 3f
       0.9302087 1.0140545 1.1316574 1.2344157
000040 d1 31 7f 3f 7b b0 8c 3f e6 7e 8b 3f 36 29 93 3f
       0.9968539 1.0991358 1.0898101 1.1496952
000050 ae 8b 71 3f 45 29 79 3f d2 0d 7d 3f 08 27 61 3f
       0.9435376 0.973286 0.98849213 0.8795018
000060 82 55 6e 3f 40 4c c2 3f f5 8b 8c 3f fc 16 69 3f
       0.93099225 1.517952 1.0980211 0.91050696
000070 be 26 90 3f 08 ae 82 3f b0 0e 98 3f 4a c4 94 3f
       1.1261823 1.020936 1.1879482 1.1622403

bias f4 [32]
000000 64 08 08 bf 9c 1a d9 be 11 42 a3 be 5e 11 96 bc
       -0.53137803 -0.42403114 -0.31886342 -0.018318828
000010 eb 0e 81 be fb ee 5a be 6f c8 14 bf e4 c8 35 be
       -0.25206694 -0.21380226 -0.5811834 -0.17752415
000020 da 9e 8c be ac dc f2 3c 45 73 8e bd 11 ee 40 3d
       -0.27464944 0.02964624 -0.0695558 0.047102038
000030 07 2e 42 3d 5f a7 cf 3c 4f d0 07 3e ad 02 b9 be
       0.047407176 0.025348363 0.13263057 -0.36134854
000040 74 f9 61 be ec 7e 5e 3d 7e 51 01 bf 37 cd e5 be
       -0.22067815 0.05432026 -0.5051497 -0.4488313
000050 8c 0e 6d 3d 4b f7 37 bd af cb bb be 36 ec e6 bd
       0.0578752 -0.04491357 -0.36678836 -0.112755224
000060 f3 0b ac 3a 19 ba 5f bf 50 40 2a bf 70 40 31 be
       0.001312612 -0.8739334 -0.66504383 -0.17309737
000070 be 4a 99 be 64 3e ad be a0 97 dd be 68 cf 97 3d
       -0.29939836 -0.33836663 -0.43279743 0.074126065

running_mean f4 [32]
000000 72 3e fe bd d3 00 fc be 82 7d 1f be 8b 69 f2 3e
       -0.12414254 -0.4921938 -0.15575221 0.47346148
000010 12 2c 80 3d d1 01 0e 3f 60 b3 92 3e 93 ae 14 bf
       0.06258406 0.5547152 0.28652477 -0.5807888
000020 3d ba 79 be ea ec ba be 90 26 8f be 6d da 58 be
       -0.2438745 -0.36508876 -0.27959108 -0.21177073
000030 ce 67 16 bf 95 af e1 bc e6 e1 cd be cb bf 19 be
       -0.58752143 -0.027549544 -0.4021141 -0.1501457
000040 d2 81 ec 3e fa 02 2f be f7 9b 14 bf 31 be e0 3e
       0.46192795 -0.17090979 -0.58050483 0.43895105
000050 c6 ce 4a 3d c6 1f 12 3f 32 15 eb 3e 2b bc ac bc
       0.0495136 0.5707973 0.45914608 -0.02108582
000060 df d5 16 3e a2 69 8c 3e 0f 88 4f bd ec eb 1f 3e
       0.14730023 0.2742434 -0.050666865 0.15617341
000070 45 c4 06 3e a4 ab ae be af 23 8b bd 9d e5 e5 be
       0.13160808 -0.34115326 -0.067939155 -0.44901744

running_var f4 [32]
000000 2c 8f 98 3f b2 69 fc 3e ba 52 82 3f a3 c1 15 3f
       1.1918693 0.4929939 1.0181496 0.5849859
000010 06 fa 56 3f 6e 28 37 3f 98 60 da 3e c9 5e 28 3f
       0.83975255 0.71546066 0.4265182 0.6576963
000020 b0 67 bb 3e 6b c9 7d 3f eb c4 f4 3e ee e3 11 3f
       0.36602545 0.99135464 0.47806486 0.5698842
000030 ce 5c f3 3e 41 3c 90 40 04 f4 45 3f 77 75 18 3f
       0.47531742 4.507355 0.77325463 0.5955424
000040 9c 5a 25 3f 77 17 0f 3f 8a bf 0f 3f 8a 84 09 3f
       0.64591384 0.5589518 0.5615164 0.53717864
000050 1d ea 01 3f 03 3b d1 3e 71 53 bb 3e 0c 2a 1f 3f
       0.50747854 0.40865335 0.36587098 0.62173533
000060 5a de 38 3f e6 9b d8 3f 7f 76 c8 3e aa 3a 66 3f
       0.7221428 1.6922576 0.39152905 0.89933264
000070 f8 80 0d 3f 90 89 19 3f bd de d6 3e e9 e6 22 3f
       0.55274916 0.5997553 0.4196681 0.6363359

weight f4 [64]
000000 7d 04 7f 3f b6 40 aa 3f 78 8f 71 3f c0 23 ac 3f
       0.99616224 1.3300998 0.9435954 1.344841
000010 4b ab 9a 3f 89 d6 d6 3f 8a 6a f6 3f 8e a5 89 3f
       1.2083524 1.6784221 1.9251263 1.0753648
000020 73 be de 3e 88 25 a8 3f 9e 7a 34 3f e7 91 94 3f
       0.43504676 1.3136454 0.704996 1.1607026
000030 78 71 75 3f bd 07 80 3f d3 a9 8c 3f 6c e7 63 3f
       0.95876265 1.0002362 1.0989326 0.89024997
000040 2c 42 5f 3f a1 77 58 3f c4 1a a9 3f e6 c2 a2 3f
       0.87210345 0.8455754 1.3211293 1.2715728
000050 69 32 a7 3f 2e 2c 69 3f fc 27 89 3f bb 9a 9d 3f
       1.3062259 0.9108304 1.0715327 1.2312845
000060 a0 7e ab 3f 01 48 6e 3f f0 03 4d 3f 32 67 4a 3f
       1.3398018 0.9307862 0.80084133 0.79063714
000070 0c a7 93 3f a9 44 81 3f fe 83 f4 3e c9 e0 a4 3f
       1.1535354 1.0099078 0.47756952 1.2881099
000080 87 8a 5e 3f a3 d8 54 3f 92 88 b1 3f 77 31 a1 3f
       0.86930126 0.8314306 1.3869803 1.259322
000090 ec 19 84 3f 87 ed b6 3f 99 aa 8f 3f fa 9c 6e 3f
       1.0320411 1.4291238 1.1223937 0.9320828
0000a0 a1 d1 8b 3f ae 66 b0 3f 3e 3c 8d 3f d5 ea d6 3f
       1.0923349 1.3781335 1.103401 1.6790415
0000b0 fb d4 65 3f cb 36 95 3f 8c 2d 8a 3f 2a 16 4a 3f
       0.8977811 1.1657346 1.079515 0.7894007
0000c0 51 2a 95 3f 37 cf 6e 3f bf 88 a1 3f 19 6c 50 3f
       1.1653539 0.93284935 1.2619857 0.81414944
0000d0 90 e3 93 3f 19 6d cc 3f 0e 70 85 3f 66 e8 82 3f
       1.1553822 1.5970794 1.0424821 1.0227172
0000e0 96 73 74 3f 5f 0a 61 3f 9e b1 80 3f 56 80 95 3f
       0.9548887 0.8790645 1.0054204 1.167979
0000f0 28 4f 26 3f 03 e4 92 3f 42 20 72 3f 59 d8 a4 3f
       0.6496453 1.1475834 0.9458047 1.2878524

bias f4 [64]
000000 76 d5 92 be 12 20 42 be 0a cd db be 07 c2 86 be
       -0.28678483 -0.18957546 -0.4292987 -0.26319906
000010 cd f0 62 be ee 42 f0 be 98 37 1f bf f4 2f ba bd
       -0.2216217 -0.46926063 -0.62194204 -0.090911776
000020 84 a0 e0 bd 71 b4 35 bf 3a 1d 32 bf 8b 77 53 be
       -0.10968116 -0.70978457 -0.69575846 -0.20651071
000030 1c f4 f2 be 7b 2e 95 be f9 58 16 be b8 4e cd be
       -0.47451866 -0.29137024 -0.14682378 -0.4009912
000040 70 07 4b be 28 6a c1 3e 28 d3 07 bf dd dc 43 bf
       -0.19827056 0.37776303 -0.53056574 -0.76508886
000050 0c fb cf be 58 9e 15 bf 8d 5d bb be d7 15 a1 be
       -0.4062122 -0.5844474 -0.3659481 -0.31461975
000060 6b 7d b4 be a2 7a 2d be 3d 45 0f be cd c3 e6 3c
       -0.35251936 -0.16941312 -0.13991256 0.028169537
000070 e7 10 d3 be 92 f1 43 be 4a d4 e6 be 00 97 82 be
       -0.41223833 -0.1913512 -0.4508384 -0.2550583
000080 52 ae e5 be e9 a2 da be a1 94 76 be f8 39 ab be
       -0.44859558 -0.42702416 -0.24080135 -0.33442664
000090 fd 3d 08 bf b2 26 98 be 2a b6 43 be 8f 4f 18 3d
       -0.53219587 -0.29717022 -0.19112459 0.037185248
0000a0 a8 a4 89 bd 8b 4a 80 be 7d 74 a1 be 73 37 0d bf
       -0.06720859 -0.25056872 -0.31534186 -0.55162734
0000b0 3a 52 9c be 5b eb b6 be b1 d1 84 be b7 47 9f be
       -0.30531484 -0.35726437 -0.25941232 -0.31109402
0000c0 00 d1 b9 bd 66 ef 4c be c3 c0 e0 be ca 25 de be
       -0.09073067 -0.20013198 -0.43897066 -0.43388206
0000d0 51 fa 3c be d2 05 6f be 1a 8f 86 be 2e f9 21 be
       -0.18454863 -0.23342064 -0.26281053 -0.15817711
0000e0 87 38 94 be 9c 80 ca be f9 75 64 be 52 e0 64 bd
       -0.28949377 -0.39551246 -0.22310628 -0.05587799
0000f0 b5 cf bd bd 0c 6a 9c be 18 6c a9 bd 3a 3a 5e be
       -0.092681326 -0.30549657 -0.0827257 -0.21701899

running_mean f4 [64]
000000 fd 50 b5 bf ef 4e 2a c1 65 09 44 bf ec 2b fb c0
       -1.4165341 -10.644271 -0.76576835 -7.8491116
000010 f0 76 a2 40 11 cb 40 c1 37 52 f0 c0 2f 7f 54 bf
       5.0770187 -12.049577 -7.510036 -0.83006567
000020 b0 ae d8 bd 05 da 80 c0 2d 1c b5 40 a0 a3 a1 c0
       -0.10580194 -4.0266137 5.6596894 -5.0512238
000030 ac 6e 15 c0 bf e4 c4 3f a1 e1 b2 c0 2c e9 9d bf
       -2.3348799 1.5382308 -5.5900426 -1.2336783
000040 75 4a 08 c0 54 ca a1 40 8f 99 83 3f 72 61 46 c1
       -2.1295445 5.0559483 1.0281237 -12.39879
000050 68 82 d4 bf eb 11 74 bf 83 9e b5 c0 0c a4 96 c0
       -1.6602297 -0.9533984 -5.6755996 -4.7075253
000060 be 91 77 c0 89 46 19 3f b2 61 9f 40 20 e6 9a 40
       -3.8682704 0.59873253 4.9806757 4.8405914
000070 81 bd 27 c0 45 a0 1b 3f d5 ab 90 c0 a3 36 08 be
       -2.6209414 0.60791427 -4.5209756 -0.13302092
000080 d5 b1 8c bf 3a b9 cc c0 f5 51 81 c0 bc 7f 89 c0
       -1.099177 -6.3976107 -4.0412545 -4.2968426
000090 37 01 a3 3d ed fe f4 c0 79 48 bd bf 5d dd 8d bf
       0.07959216 -7.656119 -1.4787742 -1.108318
0000a0 0f ca b9 c0 27 b9 9b c0 7c 77 9b c0 bb 72 1b c1
       -5.8059154 -4.8663516 -4.8583355 -9.71551
0000b0 af b1 6c c0 56 38 02 c1 a6 4f 25 c0 1b 04 2e bf
       -3.698345 -8.138754 -2.5829864 -0.67975014
0000c0 58 75 46 40 bb d2 cc c0 a9 d0 ca bf 0a 10 d7 3e
       3.100912 -6.400724 -1.5844928 0.42004424
0000d0 0e f1 96 be 8e 9a 0a c1 7c fa 4c c0 78 78 01 c1
       -0.29480785 -8.662733 -3.2027884 -8.091911
0000e0 83 4b 32 c0 1a 87 0b 41 45 1f 94 c0 8f 04 b0 be
       -2.7858589 8.720484 -4.628817 -0.34378478
0000f0 e7 58 15 c0 cd 61 a8 c0 f6 93 9f 3f ba a1 d2 c0
       -2.3335512 -5.2619386 1.2467029 -6.582242
