government_icfes_dataset/mlartifacts/956201576569699187/30a40c430d774fe0b1854a9c43387c5f/artifacts/model/data/model.pth (torch, 747072 bytes, 39 tensors)

weight f4 [4, 8]
0	0xbf1d2e3c	-0.61398673
1	0x3f1c2b4e	0.6100358
2	0x3f9a08a3	1.2033886
3	0x401fb577	2.4954507
4	0x3f90e0bc	1.1318583
5	0xbec8a073	-0.39184913
6	0x403343ff	2.8010252
7	0xbfeaa901	-1.8332826
8	0x3e09fa62	0.1347442
9	0x3fc19ad2	1.5125372
10	0x3e6fb9ee	0.2341077
11	0x3ec1554d	0.37760392
12	0x3ebb67e2	0.36602694
13	0x3f06818c	0.5254142
14	0x3ecf40d8	0.4047916
15	0xbff4385c	-1.90797
16	0xbfdf8073	-1.7461075
17	0xbfa5cd14	-1.295321
18	0xbf25aa06	-0.6471256
19	0x3f3d348f	0.73908323
20	0xbf9db04f	-1.231943
21	0xbe735cde	-0.23765895
22	0xbdedd82d	-0.11613498
23	0xbf4aace1	-0.7917004
24	0x3f83129e	1.0240057
25	0xbf4be906	-0.7965244
26	0x3fb425da	1.4074051
27	0xbf9f1112	-1.2427084
28	0x3e3c02c4	0.1836043
29	0x3f69d29f	0.9133701
30	0x3eddce2e	0.43321365
31	0x3f13d012	0.57739365

weight f4 [3, 8]
0	0xc040cad1	-3.012379
1	0x3ee33d28	0.44382596
2	0xbfae5b7c	-1.3621669
3	0x3f17c347	0.59282345
4	0xbf511cad	-0.8168438
5	0xbe76ee4a	-0.24114338
6	0x3fb37e63	1.4022945
7	0xbe9507fc	-0.29107654
8	0x3f77b469	0.9675966
9	0x3fb917cb	1.4460386
10	0x3f996573	1.1984085
11	0x3f0ae750	0.54259205
12	0xbf1daee7	-0.61595005
13	0x3dfd5328	0.123693764
14	0xbe906304	-0.28200543
15	0x3fbb2396	1.4620235
16	0x3ede273a	0.43389302
17	0xbf5a22d2	-0.8520938
18	0x3f67257b	0.90291566
19	0xbece39cf	-0.4027848
20	0xbe65d5e9	-0.22444881
21	0xbf739e6c	-0.9516361
22	0xbf7a19ca	-0.976956
23	0xbe105eb9	-0.14098634

weight f4 [5, 8]
0	0x3f8eb1bb	1.1147989
1	0x3ef55ad7	0.47920868
2	0xbee96e0a	-0.45591766
3	0xbf7d1b7d	-0.9887007
4	0x3ef89e19	0.4855812
5	0x3f177303	0.5915987
6	0xbf578d3a	-0.8419987
7	0x3e63f6bc	0.2226209
8	0x3f64bf60	0.89354515
9	0x4041658f	3.0218236
10	0x3e78f32e	0.24311516
11	0xbe36af6f	-0.1784036
12	0x3fa7f3b9	1.3121253
13	0x3f32d200	0.69851685
14	0xbeadd056	-0.3394801
15	0x3f9b8921	1.2151223
16	0xbef7d9f8	-0.48408484
17	0x3f0ee943	0.5582468
18	0xbfa48797	-1.2853879
19	0x3f9c50e6	1.2212188
20	0xbed0ee36	-0.4080674
21	0x3fb58441	1.4180986
22	0xbfe51e43	-1.789986
23	0xbf88c135	-1.0683962
24	0xbd1d7175	-0.03843828
25	0xbfc3a1af	-1.5283717
26	0x3eb6bc93	0.35690746
27	0xbffe1446	-1.9849937
28	0xbed5e1c2	-0.41773802
29	0xbf72fb6f	-0.9491491
30	0x3f4a5759	0.7903953
31	0xbe92d157	-0.2867534
32	0x3fcd347c	1.6031642
33	0xbfafb2f4	-1.3726487
34	0x3fe8b06b	1.8178838
35	0x3f041313	0.51591605
36	0x3f977d2c	1.1835074
37	0x3d23f515	0.04002865
38	0x3fae46e7	1.3615388
39	0xbf02c73e	-0.5108527

weight f4 [7, 8]
0	0xbecaba38	-0.395952
1	0xbfcb6c80	-1.5892487
2	0x401411af	2.3135793
3	0x3e4b7cf1	0.1987188
4	0x3f8ead1e	1.1146581
5	0x3c883e8b	0.016631385
6	0xbfd47ef7	-1.6601247
7	0xbb720219	-0.003692752
8	0x3f69a3cc	0.9126556
9	0xbe5e5f2f	-0.21715997
10	0xbe6f11c9	-0.23346628
11	0xbf3cb2af	-0.7371015
12	0xbfe8eb43	-1.8196796
13	0xbf339f2e	-0.70164764
14	0xbd1933cf	-0.037402924
15	0xbffae672	-1.9601576
16	0xbeb19d32	-0.34690243
17	0x3f385c2e	0.72015655
18	0x3f16f566	0.589682
19	0xbd23ae74	-0.039961293
20	0xbfaf683a	-1.3703682
21	0xbfaf6738	-1.3703375
22	0x3f0f682d	0.56018335
23	0x3fb7f511	1.4371663
24	0xbf880506	-1.0626533
25	0x3fc494fa	1.5357964
26	0x3e86e700	0.26348114
27	0xbf77fc0f	-0.96868986
28	0x40158a18	2.3365536
29	0xbf4c6e8b	-0.79856175
30	0xbf4d738f	-0.80254453
31	0xbf24b5b5	-0.6433976
32	0xbbaae5e2	-0.0052153924
33	0x3c45c5e1	0.012071104
34	0x3e8b9206	0.27259845
35	0xbdb566a8	-0.08857471
36	0xbe79dcfc	-0.24400705
37	0xc005bdef	-2.0897176
38	0xbca43c7e	-0.020048376
39	0x3ea6fab7	0.32613155
40	0xbf0870b2	-0.5329696
41	0x3fa9a06c	1.3252082
42	0xbfc7ab85	-1.5599219
43	0x3f1290e2	0.57252324
44	0xbf4375de	-0.76351726
45	0xbf500f34	-0.812732
46	0xbebf7c4d	-0.3739952
47	0x3fb23d08	1.3924875
48	0xbd055d2a	-0.03255955
49	0xbf81a8a7	-1.0129594
50	0xbfbbd81a	-1.4675324
51	0x3fafbdb7	1.3729771
52	0x3f507c7e	0.8143996
53	0xbeafc940	-0.3433323
54	0x3f6b6a96	0.9195951
55	0x3fa390b7	1.2778538

weight f4 [7, 8]
0	0x3ef8d2f3	0.4859844
1	0xbff5cf7b	-1.9203943
2	0xbfd5ded0	-1.6708622
3	0xbe3d83c8	-0.18507302
4	0xbfc62f2c	-1.5483146
5	0xc006bcdb	-2.1052768
6	0xbf6e0b84	-0.9298632
7	0x3ecba5f1	0.3977504
8	0xbe816bb6	-0.2527749
9	0xbf9b3fbf	-1.2128829
10	0xbeed3afc	-0.46334064
11	0x3f050d3b	0.51973313
12	0x3e287ac9	0.16453089
13	0xbfc43f53	-1.5331825
14	0x3fd8e11e	1.69437
15	0x3eaf78d7	0.3427188
16	0xbe810580	-0.2519951
17	0x3e168c91	0.1470206
18	0x3f6c1e8e	0.9223412
19	0xbfbc7c5b	-1.472545
20	0xbf869678	-1.051467
21	0x40035fd2	2.0527234
22	0x3f2dee0e	0.6794137
23	0x3fe6ea18	1.804019
24	0xbd7713dc	-0.060321674
25	0xbe8f4e7b	-0.27989563
26	0x3fae5351	1.3619176
27	0xbfd070e0	-1.6284447
28	0xbff41a74	-1.9070573
29	0x3f08ad69	0.533896
30	0x4002d4c3	2.044236
31	0x3f885bbb	1.0652994
32	0xbf195af8	-0.5990443
33	0x3ea67652	0.32512146
34	0xbf33a967	-0.7018036
35	0x3f969954	1.1765542
36	0x3ebb2c96	0.36557454
37	0xbdc2178b	-0.09477147
38	0x3f52bb53	0.82317084
39	0xbf841e70	-1.0321789
40	0xbf196ad5	-0.5992864
41	0x3f9a9776	1.2077472
42	0xbf251ab4	-0.6449387
43	0x4037fbe3	2.874749
44	0x3d8d8013	0.06909194
45	0x3ee5e138	0.4489839
46	0x402c01b0	2.687603
47	0x3fd8f5bd	1.6949993
48	0xbf88d834	-1.069098
49	0x3f9c66f8	1.2218924
50	0xbef6aaa3	-0.4817706
51	0x3e1cff32	0.15331724
52	0xbf963402	-1.1734622
53	0xbdd165e4	-0.10224512
54	0x3edf0b18	0.4356315
55	0x3f90210e	1.1260087

weight f4 [1025, 8]
0	0x3f86218b	1.0478987
1	0xbfe1e797	-1.7648801
2	0xbe75bfe2	-0.23998979
3	0x3f68b278	0.9089732
4	0xbeb8bad6	-0.36080045
5	0x3f2a204f	0.6645555
6	0xbf7bf25c	-0.98416686
7	0x3f84e3b9	1.0381995
8	0x3b3639c0	0.0027805418
9	0xbf003f19	-0.5009628
10	0x3f8b74c5	1.089501
11	0xbd3891fe	-0.045061104
12	0xbe11aa92	-0.14225224
13	0xbf54b48c	-0.8308799
14	0x3ee5f798	0.44915462
15	0xbe232b17	-0.15934406
16	0xbf1a36d6	-0.60239923
17	0xbf15d541	-0.58528525
18	0xbf0e1dcd	-0.5551422
19	0x3e591146	0.21197996
20	0xbfa97977	-1.3240193
21	0xc03f27d1	-2.9868052
22	0xbfaf5bd0	-1.3699894
23	0xbe57c6e1	-0.2107196
24	0x3e25abd1	0.16178824
25	0x3e5114f9	0.20418157
26	0x3f131947	0.57460445
27	0xbf9722e0	-1.1807518
28	0x3fa8170f	1.3132037
29	0xbe3e6a5c	-0.1859526
30	0xc0273bf2	-2.6130338
31	0x3e8b6293	0.27223644
32	0x3f4dbadd	0.80363256
33	0xbf14dcab	-0.5814921
34	0xbde0b887	-0.10972696
35	0x3f114970	0.5675268
36	0x3f9cc875	1.2248675
37	0xbe157688	-0.14595997
38	0xbf2f2184	-0.68410516
39	0x3e94308e	0.28943294
40	0x4005867f	2.086334
41	0xbf0e63fe	-0.55621326
42	0x3f7d334a	0.98906386
43	0xbfb5e933	-1.4211792
44	0xbfaa86ae	-1.3322351
45	0x3f869a09	1.0515758
46	0xbdc0a73d	-0.09406898
47	0x3f739f25	0.9516471
48	0x40250fa2	2.5790792
49	0xbe3b6a78	-0.18302333
50	0x3f0d3bbd	0.5516928
51	0x3ee415cc	0.4454788
52	0x3fa298f9	1.2702934
53	0x3f55f387	0.8357472
54	0xbe19e420	-0.15028429
55	0x3f55d28c	0.83524394
56	0xbe772527	-0.24135266
57	0x3f52770b	0.82212895
58	0x3fbc8a6a	1.4729741
59	0x3e6e1996	0.23251948
60	0xbf4a2701	-0.78965765
61	0xbefa74fd	-0.4891738
62	0x3f75ee40	0.96066666
63	0xbe61f073	-0.2206438
64	0xbfe9638d	-1.8233505
65	0x401fffb3	2.4999816
66	0xbe8a697e	-0.2703361
67	0xbef5fa9f	-0.4804277
68	0xbeb2e171	-0.34937623
69	0xbf8ada18	-1.0847807
70	0x3e65d03a	0.22442713
71	0x3f781a45	0.96915084
72	0x3faf13db	1.3677934
73	0xbf12df1b	-0.5737168
74	0x3f0ad140	0.5422554
75	0x3ded59d7	0.11589401
76	0xbeecba7d	-0.4623603
77	0xbf8a4f93	-1.0805534
78	0x3f160f0b	0.58616704
79	0xc00b7606	-2.1790786
80	0xbfcdc5cb	-1.6075987
81	0x3f8e6a40	1.1126175
82	0x3f3152b9	0.6926685
83	0xbef935ca	-0.4867385
84	0x3e8caee2	0.27477175
85	0x3da82384	0.08209899
86	0x3ec08838	0.37603927
87	0x3f0d0b13	0.5509502
88	0xbe9edad7	-0.31026337
89	0xbfd37103	-1.6518863
90	0xbf07a00e	-0.529786
91	0x3f6074d5	0.8767827
92	0xbf292e91	-0.6608668
93	0xbeddbba8	-0.43307233
94	0xbea0e1a3	-0.31422147
95	0xbded3e24	-0.11584118
96	0x3e75e7f5	0.24014266
97	0xbfdddc86	-1.7332923
98	0xbfa7eb37	-1.3118657
99	0x3e2ad91e	0.16684386
100	0x3f3123f5	0.6919549
101	0xbf82df65	-1.0224425
102	0x3feaa6d1	1.8332158
103	0xbdc0f650	-0.094219804
104	0xbffc5b4d	-1.9715363
105	0x3f0b8af6	0.5450891
106	0x3ebd2653	0.36943302
107	0xbfc9d26d	-1.5767342
108	0x3fb7bd10	1.4354572
109	0x3e25ed5b	0.16203825
110	0x3fda7072	1.7065566
111	0x3fd5c587	1.6700906
112	0x3fc9b4f5	1.5758349
113	0xbf8d495d	-1.1038014
114	0xbf149542	-0.5804025
115	0x3f0410a0	0.5158787
116	0x3f9b653c	1.2140269
117	0x3ffae775	1.9601885
118	0x3ea08fb9	0.31359652
119	0x3fde80ed	1.7383095
120	0x3d87b66b	0.0662659
121	0x3dad93fe	0.08475493
122	0xc017bed5	-2.3710225
123	0x3fb40ead	1.4066979
124	0x3f787852	0.97058594
125	0x3f83fc33	1.031134
126	0x3f487d94	0.78316617
127	0x3fafb27b	1.3726343
128	0xbf9a88bd	-1.2072979
129	0x3fdaff8f	1.710924
130	0xbfe2ee26	-1.7728927
131	0x3f382cc4	0.71943307
132	0xbff95e30	-1.9481869
133	0xbdebb9da	-0.11510058
134	0xbe2a2648	-0.16616166
135	0xbfae4c0e	-1.361696
136	0xbfe3ffed	-1.7812477
137	0x4029daef	2.6539876
138	0x3f4adef7	0.7924647
139	0x3edfd1e8	0.43714833
140	0xbe914f11	-0.28380635
141	0x3f784273	0.96976393
142	0x3e7a0a55	0.24418004
143	0x3e0f37b7	0.13986097
144	0x3ec7118d	0.38880578
145	0x3c98e92d	0.018665874
146	0x3f41617d	0.7553938
147	0x3eb55e78	0.35423636
148	0xbeda7a45	-0.4267141
149	0x3e9e9774	0.30974925
150	0xbf2ef8df	-0.683485
151	0x3e4eb548	0.20186341
152	0xbf50cc0a	-0.8156134
153	0x3eac7d73	0.3368946
154	0x3f42dfa0	0.76122475
155	0x3ffd5bec	1.9793677
156	0x3f9c2cbe	1.2201154
157	0x3f57d6d1	0.8431216
158	0xbfc7057a	-1.5548546
159	0x3f139bef	0.5765981
160	0xc033f7ae	-2.8119922
161	0x3ec9dd92	0.39426857
162	0xbfc7c7e4	-1.5607877
163	0xbfaaf0d1	-1.3354741
164	0xbf88afa2	-1.0678599
165	0x3f598243	0.8496439
166	0x3f9c1f55	1.2197062
167	0xbec2d028	-0.38049436
168	0x3e98ba32	0.29829556
169	0xbf6dd7b7	-0.9290728
170	0x3e7b3a4d	0.24533959
171	0x3f4bf602	0.79672253
172	0x3fb119a3	1.3835949
173	0x398f17cc	0.00027292816
174	0xbffa2588	-1.9542704
175	0x3f59699b	0.84926766
176	0xbec493ff	-0.38394162
177	0x3f438980	0.76381683
178	0x3f805373	1.0025467
179	0x3e76fbc3	0.24119477
180	0xbefbe663	-0.4919921
181	0x3e3729ec	0.17887086
182	0x3f2b0e93	0.66819113
183	0xbf004b8f	-0.50115293
184	0x3e4b4576	0.19850716
185	0x3f989510	1.192049
186	0xbfd34e0f	-1.6508197
187	0x3fd32f4c	1.6498809
188	0xbf4ef366	-0.80840147
189	0x3d69f718	0.057120413
190	0xbed7bde9	-0.42137077
191	0x3ee931d3	0.45545825
192	0x3edeec83	0.4353982
193	0xc013d5b6	-2.3099189
194	0xbf917dc1	-1.1366502
195	0x3edc90e8	0.43079305
196	0xbdf60a55	-0.120136894
197	0xbfac367f	-1.3454131
198	0xbf2992d7	-0.66239685
199	0x3d30c916	0.04316052
200	0x3f38ae4a	0.72140944
201	0x3f63c0f5	0.88966304
202	0x3ff810ac	1.9380088
203	0xbf351826	-0.7073997
204	0x3e4a4bd8	0.19755495
205	0xbe7178f7	-0.235813
206	0x3fa9a29d	1.3252751
207	0x3f6aa46b	0.9165713
208	0x3fcbd1b0	1.5923367
209	0xbff2056d	-1.8907906
210	0xbe8a0865	-0.2695953
211	0x3d87744b	0.06613978
212	0xbf8c408c	-1.0957198
213	0x3cd38302	0.025819305
214	0x3eee7219	0.46571425
215	0x3ffa8a46	1.9573448
216	0xbe9ff417	-0.31240913
217	0xbfe9ec20	-1.8275185
218	0xbeee0461	-0.46487716
219	0x3ec58204	0.38575757
220	0x3fb31353	1.3990272
221	0xbe6a3176	-0.2287043
222	0x3fc800c7	1.5625237
223	0x3fdff396	1.7496212
224	0x3fdf0e06	1.7426155
225	0x3f1ea93f	0.61977
226	0xbfaf4795	-1.369372
227	0x3eb7e1c3	0.3591443
228	0xbff396b5	-1.9030367
229	0x3fcb174d	1.5866486
230	0x3fbbe931	1.4680539
231	0xbe3b05b3	-0.18263893
232	0xbee361e9	-0.44410637
233	0x3f387f46	0.72069204
234	0xbfa6e6d0	-1.3039188
235	0xc0116756	-2.2719321
236	0x3f191572	0.5979835
237	0x3fd4e63e	1.6632764
238	0x3fa43330	1.2828121
239	0x3f0ccec0	0.55002975
240	0x3e878633	0.26469573
241	0xbdd82d68	-0.105555356
242	0x3fa37b3b	1.2771982
243	0x3fb0dfef	1.3818339
244	0x3f58e071	0.8471747
245	0xbf1d6014	-0.6147473
246	0x3e1c88ef	0.15286611
247	0x3eeda5eb	0.46415648
248	0xbf422d50	-0.7585039
249	0xbea79a48	-0.32734895
250	0xbc410d1d	-0.011782912
251	0x3f397f69	0.7246004
252	0xbfa40ccc	-1.2816405
253	0x3fd7c3bb	1.6856607
254	0x3d7f9d66	0.062405966
255	0xbf8fea08	-1.1243296

weight f4 [3, 8]
0	0x3ee200fc	0.44141376
1	0x3f03975c	0.5140283
2	0xbf9a1cc3	-1.2040027
3	0x3fb274c2	1.3941882
4	0x3ec49d99	0.38401487
5	0x3ebd0ef9	0.36925486
6	0x3f372ebe	0.715557
7	0xbe6620c2	-0.22473434
8	0xbef17284	-0.4715768
9	0xbf089c47	-0.5336346
10	0xbf08c29a	-0.5342194
11	0x3db1b39a	0.086768344
12	0xbf8ed419	-1.1158477
13	0x3f2dc886	0.678841
14	0x3f54faa2	0.83194935
15	0x3f61ac12	0.88153183
16	0xbf9b9802	-1.2155764
17	0x3f929fd8	1.145503
18	0x3f86414d	1.0488678
19	0xbbdb88ec	-0.006699672
20	0x3f9db5fd	1.2321163
21	0x3f0f2717	0.5591902
22	0x3f4e0d59	0.80489117
23	0x3f11e740	0.56993484

weight f4 [7, 8]
0	0xbf9fb737	-1.2477788
1	0x3f458dc2	0.7716943
2	0xbf62dde5	-0.88619834
3	0x3cdeb150	0.027184159
4	0x3f836aa9	1.0266925
5	0x3fdbb613	1.716494
6	0xbd696f54	-0.056990936
7	0xbf24771b	-0.6424424
8	0x3e4cde9a	0.20006791
9	0x3f9f2f73	1.2436355
10	0xbf03ed7a	-0.51534235
11	0x3fa82ec5	1.3139273
12	0x3efe883d	0.49713317
13	0xbecc01c5	-0.398451
14	0x3f56e83d	0.8394812
15	0x3eac4872	0.3364902
16	0xbf05f184	-0.5232165
17	0x3f978cba	1.1839821
18	0xbf318965	-0.6935027
19	0xbf7f0d8d	-0.9963005
20	0x3e9ea0bc	0.30982006
21	0xbf9b3b6b	-1.2127508
22	0xbec7f926	-0.39057273
23	0x3f11ec7e	0.57001483
24	0xbf61c93b	-0.8819768
25	0x3eba81ca	0.36427146
26	0xc02314d6	-2.5481467
27	0xbf512b35	-0.81706554
28	0xbf8b3e10	-1.0878315
29	0xc03f07c5	-2.9848492
30	0xbe5c2cd9	-0.21501483
31	0x3f6d5435	0.92706615
32	0xbf43d62e	-0.7649869
33	0xbf7e6fd6	-0.993894
34	0x3e73fc76	0.23826775
35	0x3f91bbb9	1.1385413
36	0x3ff6f905	1.9294745
37	0x3e10a880	0.14126778
38	0xbe26fefe	-0.1630821
39	0x3db1544a	0.08658655
40	0x3fbd0098	1.4765806
41	0x3dea1803	0.11430361
42	0xbd61fc2f	-0.05517214
43	0xbf1a73fa	-0.60333216
44	0x3fd6b04f	1.6772555
45	0x3f5729b9	0.8404804
46	0xbf12ac73	-0.57294387
47	0xbedecdd7	-0.43516418
48	0xbe698273	-0.22803669
49	0xbe88d712	-0.26726586
50	0xc0022fca	-2.0341668
51	0x3ef56d73	0.47935066
52	0xbfb50267	-1.4141358
53	0x3e7c772b	0.24654834
54	0x3ee9f399	0.45693663
55	0x3fe936ac	1.821981

weight f4 [7, 8]
0	0xbd4c783c	-0.049919352
1	0x3f809e36	1.0048282
2	0x3f9f2813	1.2434105
3	0xbe4112af	-0.18854783
4	0xbf801ebb	-1.0009378
5	0xbfa8e1a2	-1.3193858
6	0xbea98607	-0.33110067
7	0x3f6f5d87	0.93502086
8	0xbea67d8b	-0.32517657
9	0x3dca39e8	0.09874326
10	0xbdc44367	-0.095831685
11	0x3e190c78	0.14946163
12	0x3f139cdb	0.5766122
13	0x3e97bf56	0.29638165
14	0x3eb034b5	0.34415212
15	0xbf8526cc	-1.0402465
16	0x3ea0c831	0.31402734
17	0xbfe99576	-1.8248737
18	0x3f06b1ef	0.52615255
19	0xbf238324	-0.6387198
20	0xbf26719f	-0.6501712
21	0x3f136c11	0.5758677
22	0x3fdae4a7	1.7101029
23	0xbcb1247f	-0.021623848
24	0x3e1087fb	0.14114372
25	0xc00b5622	-2.1771321
26	0xbeaace7a	-0.33360654
27	0x4020057b	2.5003345
28	0x3fa11186	1.2583473
29	0xbeaf3475	-0.3421971
30	0xbe9c4e7f	-0.30528638
31	0xbf913b48	-1.1346216
32	0xbdad0035	-0.08447305
33	0xbfcd61c4	-1.6045461
34	0xbb6e2b18	-0.0036341604
35	0xbeefe5e2	-0.46855074
36	0x400434c6	2.065721
37	0xbf99ca45	-1.2014853
38	0x3ef10bbd	0.47079268
39	0x3f75113a	0.9572941
40	0x3f0cbc57	0.54974884
41	0xbe91df40	-0.2849064
42	0x3f402ff7	0.7507319
43	0xbdd01b06	-0.10161404
44	0xbf368789	-0.7130056
45	0x3e8a5ad7	0.2702243
46	0xbf6e4b27	-0.93083423
47	0x3f823a16	1.0173976
48	0xbe9bd3e6	-0.30435103
49	0xbf06d0a1	-0.5266209
50	0x3f057c8c	0.5214317
51	0xbeb76b66	-0.35824126
52	0xbf201974	-0.6253884
53	0xbf27f5f9	-0.656097
54	0x3ddfda6f	0.10930335
55	0x3eeae00e	0.45874065

weight f4 [3, 8]
0	0xbf10527b	-0.56375855
1	0x3f0794b0	0.52961254
2	0xbe83dc24	-0.2575389
3	0xbf288391	-0.65825754
4	0xbe810003	-0.2519532
5	0xbf1b8af5	-0.60758907
6	0x3f194828	0.59875727
7	0xbfdf8b11	-1.7464315
8	0x3f5ce22a	0.862826
9	0x3fb9162e	1.4459894
10	0xc0286f2d	-2.6317856
11	0x3f6b1692	0.91831315
12	0x3f991e51	1.1962377
13	0xbf32ebce	-0.6989106
14	0xbebe8727	-0.37212488
15	0xbedbe5f8	-0.4294889
16	0xbf978f39	-1.1840583
17	0x3e245f27	0.16051923
18	0xbec48009	-0.38378933
19	0x3eea8967	0.45807955
20	0xbec5378d	-0.38518944
21	0x3e90837a	0.2822531
22	0xbfe36ae4	-1.7766995
23	0xbe24e60c	-0.16103381

weight f4 [427, 8]
0	0x3f1dabf9	0.61590534
1	0xbf7dd98f	-0.99160093
2	0xbfe185c7	-1.7618951
3	0x3f6ed578	0.9329448
4	0x3fbc28ef	1.4699992
5	0xbebdeab2	-0.3709312
6	0x3ef9cffa	0.48791486
7	0xbf699f1e	-0.9125842
8	0xbf977b44	-1.1834493
9	0x3e9bfe8c	0.3046764
10	0x3fcb0727	1.5861558
11	0xbfb1bb1f	-1.388523
12	0x3f8788f5	1.0588671
13	0xbf37a1d4	-0.71731305
14	0x3f8edddf	1.116146
15	0xbec2f325	-0.3807613
16	0xbf921856	-1.1413677
17	0x3f823dfc	1.0175166
18	0x400cf821	2.2026446
19	0xbf16e921	-0.58949476
20	0xbf8e9ffb	-1.1142572
21	0x3eeb84f1	0.45999864
22	0xbd969940	-0.07353449
23	0xbc2ee915	-0.010675688
24	0x3f8baaa1	1.0911447
25	0x3f0601e6	0.52346647
26	0xbf476185	-0.7788318
27	0xbf75ed21	-0.96064955
28	0x3fb207dc	1.3908648
29	0xbf8b5648	-1.0885706
30	0xbf041fe4	-0.5161116
31	0xbf47d1b0	-0.7805433
32	0xbfbf96d8	-1.4967909
33	0xbf2e0030	-0.67969036
34	0xbf60984c	-0.87732387
35	0xbf18eda3	-0.59737605
36	0xbff83032	-1.9389708
37	0x3d92be0e	0.07165156
38	0x4005f81f	2.093269
39	0x3f11ca53	0.5694935
40	0xbeed02f9	-0.4629133
41	0x3ef5283c	0.4788226
42	0xbfcf45de	-1.6193197
43	0xbf824c61	-1.0179559
44	0x4058973e	3.384231
45	0x3f2fc5f6	0.6866144
46	0x4003f32e	2.0617175
47	0xbf387924	-0.72059846
48	0x3d3469ec	0.044046327
49	0xc0341fde	-2.814445
50	0x3f27fb67	0.65617985
51	0xbee3ad0e	-0.44467968
52	0x3f8c315e	1.0952566
53	0x3fa6d618	1.3034086
54	0xbf383413	-0.7195446
55	0x3f373b84	0.7157519
56	0xbf52a28b	-0.8227927
57	0x3e9eda31	0.31025842
58	0xc0077fdb	-2.1171787
59	0x3f197228	0.59939814
60	0xbf1e9469	-0.61945206
61	0xbeb99436	-0.36245888
62	0xbf26c811	-0.6514903
63	0xc007afb9	-2.1201003
64	0xbf79e3ca	-0.97613204
65	0x3f90403a	1.12696
66	0xbeba4a48	-0.36384797
67	0xbff7cbba	-1.9359047
68	0xbe77ba9b	-0.24192278
69	0x3e1b255e	0.15150973
70	0xbf0271a3	-0.50954646
71	0xbc8c3065	-0.01711292
72	0xbed40abc	-0.4141444
73	0x3d65ee35	0.056135375
74	0x3e771cbd	0.24132057
75	0xbfec958d	-1.8483139
76	0x3f1db033	0.61596984
77	0xbfbfe662	-1.4992182
78	0x3fa1adea	1.2631199
79	0xbf16964c	-0.58823085
80	0xbedfa0fa	-0.43677503
81	0xbf69ad5f	-0.9128017
82	0xbe95469f	-0.29155442
83	0xbe3c4552	-0.18385819
84	0x3f2dc3bc	0.6787679
85	0x3ed00223	0.4062663
86	0xbf8e4f37	-1.1117924
87	0x3e1f0756	0.15530142
88	0xbf718661	-0.9434567
89	0x3f391588	0.7229848
90	0xbfa2910a	-1.2700512
91	0xbee16c2b	-0.44027838
92	0xbf886669	-1.0656253
93	0xbeb077f1	-0.34466508
94	0xbe3b2279	-0.18274869
95	0x3e4f28fa	0.20230475
96	0x3fb60d3d	1.422279
97	0x3fce623e	1.6123731
98	0x3fb723fd	1.4307858
99	0xbf0c3515	-0.54768497
100	0xbebaf37a	-0.36513883
101	0x3fe83f47	1.8144311
102	0x3f74d9f8	0.95645094
103	0xbfc6b147	-1.5522851
104	0x3fc4756e	1.5348337
105	0xbf849c91	-1.036028
106	0x3ff25e79	1.8935081
107	0x3e262314	0.16224319
108	0xbed4dd6f	-0.4157519
109	0xbe53ab01	-0.20670702
110	0x3ebc2b00	0.36751556
111	0xbe899e8e	-0.2687878
112	0xbf1e957f	-0.6194686
113	0xc00232f5	-2.0343602
114	0x3f507b60	0.81438255
115	0xbf9584b7	-1.1681126
116	0x3f5a0bf4	0.8517449
117	0x3e17ee99	0.14837112
118	0x3c0d0301	0.008606673
119	0x3f0f08e8	0.55872965
120	0x3f4555de	0.7708415
121	0x3fbd60d0	1.479517
122	0x40061b38	2.0954113
123	0x40062ff5	2.096677
124	0x3e0576e5	0.13033636
125	0x3f387711	0.7205668
126	0xbf8ebe90	-1.1151905
127	0x3da1fc3b	0.07909437
128	0x3ef81c5c	0.48459136
129	0x3f88631c	1.0655246
130	0x3fcef128	1.6167345
131	0x4026d756	2.606893
132	0xbbd94b0d	-0.006631261
133	0x3ed07ca8	0.40720105
134	0x3e6cf5e1	0.2314067
135	0x3f64768d	0.89243394
136	0x3f2d8d4c	0.67793727
137	0xbe3ad1cb	-0.18244092
138	0xbd007c55	-0.031368572
139	0x3febafe9	1.8413059
140	0x3e4699fd	0.1939468
141	0x3fbad624	1.45966
142	0xbfc83ed8	-1.5644178
143	0x3e586cec	0.211353
144	0x3fc5b83c	1.5446849
145	0xbf060045	-0.5234416
146	0xbf11fe66	-0.57028806
147	0xbdedc7e1	-0.116103895
148	0x3e134bf0	0.14384437
149	0xbf517dc0	-0.81832504
150	0x3fd0bf69	1.6308414
151	0xbba75a56	-0.0051072044
152	0x3f7092bc	0.939739
153	0x3f32dc78	0.6986766
154	0xbe8a920b	-0.27064547
155	0xbf978834	-1.1838441
156	0x3fc89b33	1.5672363
157	0xbf03a023	-0.51416224
158	0x3fcd9417	1.6060818
159	0x3f381305	0.7190402
160	0xbeaed30b	-0.34145388
161	0x3f8b4c7e	1.0882719
162	0x3fe42481	1.782364
163	0x3e2ae9b3	0.16690712
164	0xbf4437d5	-0.7664769
165	0x3edad060	0.42737103
166	0xbfa61119	-1.2973968
167	0xbebb70f8	-0.36609626
168	0x401db307	2.464052
169	0x3ee777b1	0.45208505
170	0x3fb94286	1.4473426
171	0xbecadd04	-0.39621747
172	0xbe9a7910	-0.30170488
173	0xbf60be7c	-0.87790656
174	0x3fb812d3	1.4380745
175	0xbe8f70ff	-0.28015897
176	0x3fb470d2	1.409693
177	0x3f60e82f	0.87854284
178	0xbf51eb9c	-0.82000136
179	0xbfe02d3a	-1.7513802
180	0x3f15254c	0.58260036
181	0xbeee2723	-0.46514234
182	0x3dd183b2	0.10230197
183	0xbf2c7115	-0.6736005
184	0x3f4ed50d	0.8079384
185	0x3fa37233	1.2769226
186	0xbfad80bb	-1.355491
187	0x3faa966e	1.3327157
188	0x3ea6d343	0.32583055
189	0xbf523351	-0.8210955
190	0x3f99bc00	1.2010498
191	0xbe6bd05a	-0.23028699
192	0xbec87c34	-0.3915726
193	0xbd827b2f	-0.06371152
194	0xbd3bec57	-0.045879688
195	0xbf76254f	-0.9615068
196	0x3de0a1f3	0.10968389
197	0x3ed3e167	0.41382906
198	0xbf996b22	-1.1985819
199	0xbec8d291	-0.3922315
200	0xbfca0015	-1.5781275
201	0xbcf9c2f1	-0.030488463
202	0x4019d24a	2.40346
203	0xbf265cba	-0.6498524
204	0x3edbe5e1	0.4294882
205	0x3f9caf44	1.2240987
206	0xbf17719e	-0.5915774
207	0xbf330df9	-0.69943196
208	0xbf5d8491	-0.86530405
209	0x3f85ecde	1.0462911
210	0xbf75b96f	-0.95986074
211	0xbf528cbf	-0.8224601
212	0x3fbf8538	1.496253
213	0x3fd9ad42	1.7005999
214	0x4007c4de	2.1213908
215	0x3fb79063	1.4340938
216	0x3f7cd8c3	0.9876825
217	0x3ff86aab	1.9407552
218	0x3e9beaf3	0.3045269
219	0xbfb34adc	-1.400722
220	0xbfa4f5cf	-1.2887515
221	0xbfad134a	-1.3521512
222	0xbdbb3055	-0.09140078
223	0xbe8a9cb3	-0.27072677
224	0x3f9a9065	1.2075316
225	0xbd21346f	-0.039356645
226	0x3ffc1e04	1.969666
227	0xbf9ceca6	-1.2259719
228	0xbf62dfe0	-0.88622856
229	0xbe94e82d	-0.29083386
230	0xbe1a6239	-0.15076531
231	0xbe23534a	-0.15949741
232	0x3f594306	0.84867895
233	0xbf1262c5	-0.5718196
234	0x3e553b4f	0.20823406
235	0xbe4af62b	-0.19820468
236	0xbf70c677	-0.94052833
237	0xbf458bcc	-0.7716644
238	0x3ee0a5a1	0.43876365
239	0xbfd855bb	-1.6901163
240	0xbf813185	-1.0093237
241	0x3f9d8f3e	1.2309339
242	0x3ea22903	0.31671914
243	0x3f5968a4	0.84925294
244	0x3bb79371	0.005602293
245	0xbd97b92b	-0.07408365
246	0x3f9c34be	1.2203596
247	0xbefdfc4d	-0.49606553
248	0x3f041831	0.51599413
249	0x3d60329a	0.054735757
250	0xbf91c0d7	-1.1386975
251	0xbf445993	-0.7669918
252	0xbfe245c4	-1.7677541
253	0xbf67c8d9	-0.90540844
254	0x3fcd0766	1.6017883
255	0x3f2bb6b0	0.67075634

weight f4 [1030, 8]
0	0x3db0b0fe	0.086275086
1	0x3eb8eef4	0.36119807
2	0x3f401c97	0.75043625
3	0xbfb08e4d	-1.3793427
4	0x3f24e9f5	0.6441949
5	0xbf6b2fcd	-0.91869813
6	0x3fbc0319	1.4688445
7	0x3f3afc6d	0.7304142
8	0x3faeef42	1.3666766
9	0x3f56aa26	0.83853376
10	0xbe3a51ea	-0.1819531
11	0x3e55d2db	0.20881216
12	0xbf4a2ce4	-0.7897475
13	0x3f5f5588	0.87239885
14	0x3f2e6c55	0.6813405
15	0x3f48a0ba	0.7837025
16	0x4004ab18	2.0729427
17	0x3f5fa1db	0.87356347
18	0xbf584cdd	-0.84492284
19	0x3dbb9e9e	0.09161113
20	0x3f9fb9ed	1.2478615
21	0xbdcafe19	-0.099117465
22	0x3e89570d	0.26824227
23	0xbf2660d5	-0.64991504
24	0xbc601cbe	-0.013678728
25	0xbdbcd9fc	-0.09221265
26	0xbe82d722	-0.25554758
27	0x3f04e430	0.51910686
28	0xc01506d6	-2.3285422
29	0x3f8629b4	1.0481477
30	0xbf12e515	-0.573808
31	0xbf962c37	-1.1732243
32	0x3ead7094	0.33874953
33	0xbef0d7d0	-0.47039652
34	0xbd9952f5	-0.07486526
35	0xbfad256b	-1.3527044
36	0xbd434fd2	-0.047683544
37	0xbedeb5e8	-0.43498158
38	0xbff314ad	-1.8990685
39	0x3e159a8d	0.14609738
40	0xbea463f5	-0.3210751
41	0xbe8ee95a	-0.27912408
42	0xbf806a35	-1.0032412
43	0xbfee3819	-1.861087
44	0xbd35a52c	-0.044346973
45	0x3ef05c7c	0.4694556
46	0xbfcec4db	-1.6153826
47	0xbf1c9092	-0.61158097
48	0xbf35ea7c	-0.7106092
49	0xbff9d593	-1.9518303
50	0x3f4b26f2	0.793563
51	0x3f3649bb	0.71206254
52	0xbf85a3ca	-1.044061
53	0x3fc36f68	1.5268373
54	0xbf8f0a9b	-1.1175112
55	0x3ebeec30	0.37289572
56	0xbbf686e3	-0.007523404
57	0xbf20b67e	-0.6277846
58	0x3f7b5f5c	0.9819238
59	0xbfa7d2c5	-1.3111197
60	0xbed36cd6	-0.41293973
61	0x3fcc0ea4	1.5941968
62	0x3f1b67d9	0.60705334
63	0xbf8466f0	-1.0343914
64	0xbee5938b	-0.4483913
65	0x3f3c5360	0.7356472
66	0x3f619af5	0.8812707
67	0x3ebc9029	0.36828735
68	0xbf85e487	-1.0460366
69	0x3f60e458	0.87848425
70	0xbf8078f6	-1.0036914
71	0x3ed722c6	0.42018718
72	0xbe90d03d	-0.28283873
73	0xbf566f4d	-0.8376358
74	0xbfbf80c3	-1.496117
75	0xbfd27845	-1.6442953
76	0x3e933f42	0.287592
77	0xbe8448cd	-0.25836793
78	0x3fa35101	1.2759095
79	0xbe69a565	-0.22817
80	0xbe8bff8a	-0.27343398
81	0xbfd5a007	-1.6689461
82	0xbe870695	-0.2637221
83	0xbfb64341	-1.4239274
84	0x3ef18dc8	0.47178483
85	0xbe6b2d33	-0.22966461
86	0x3f838860	1.0275993
87	0x3d975b67	0.073904805
88	0x3f180b3c	0.5939214
89	0x3d6ab94c	0.05730562
90	0x3fcfd1f3	1.6235946
91	0x3f01dd54	0.50728345
92	0xbf5e4b34	-0.868335
93	0x3fa36659	1.2765609
94	0xbf0168d3	-0.50550574
95	0xbeb8ff7c	-0.3613242
96	0xbe7e3482	-0.24824718
97	0x3eb3ceb9	0.35118654
98	0xbf12045d	-0.5703791
99	0xbf5715d0	-0.8401766
100	0x3e90e98a	0.28303176
101	0x3ef032a9	0.4691365
102	0xbed596d7	-0.41716644
103	0xbf818d4d	-1.0121247
104	0x3bcdaf98	0.006277036
105	0x3f3713c2	0.71514523
106	0x3e61fb1f	0.22068451
107	0x3ebc9947	0.3683569
108	0x3f31f39b	0.6951234
109	0x4009e6b0	2.154705
110	0x3ff3c227	1.9043626
111	0xbf8a2109	-1.0791332
112	0x3f7c6830	0.9859648
113	0xbf957c64	-1.1678586
114	0xbe9b1e8e	-0.3029675
115	0xbf19e2d7	-0.60111755
116	0xbdb3df12	-0.08782782
117	0x3f01f54b	0.5076491
118	0x3f38a62d	0.72128564
119	0xbf92aeac	-1.1459556
120	0xbb750c8b	-0.003739151
121	0x3ea2d022	0.31799418
122	0xbe907e3c	-0.2822131
123	0xbf832a0e	-1.0247209
124	0x3e24a579	0.16078748
125	0x3fd8130c	1.6880813
126	0x3fa83885	1.3142248
127	0xbf0fb9c4	-0.5614283
128	0xbeff59f6	-0.49873322
129	0xc00148a7	-2.0200593
130	0xbdcbba7d	-0.09947679
131	0x3e5a5222	0.21320394
132	0xbeec662e	-0.46171707
133	0x3f599d21	0.85005385
134	0x3fb0aa63	1.3801998
135	0x3ff63299	1.9234191
136	0x3f1ed3f9	0.62042195
137	0x3f7113c6	0.94170797
138	0xbfac048a	-1.3438885
139	0x3f294729	0.66124207
140	0xbf69fd58	-0.91402197
141	0x3faf5181	1.3696748
142	0x3ec8394c	0.39106214
143	0x3f74063c	0.9532201
144	0xbf956041	-1.1669999
145	0x3eaf6cf1	0.34262803
146	0x3f9f38e4	1.2439237
147	0x3e02220b	0.12708299
148	0x3f900c03	1.1253666
149	0xbec43e33	-0.38328704
150	0xbeab94c5	-0.3351194
151	0xbec62783	-0.3870202
152	0xbd4bce55	-0.04975732
153	0xbdc0f7e6	-0.09422283
154	0xbe2971c9	-0.16547312
155	0xbce33b2d	-0.027738178
156	0x3e6e8a69	0.23294987
157	0x3edd9f49	0.43285587
158	0x3fa041c7	1.2520074
159	0xc016e675	-2.357816
160	0x3e8dc62d	0.2769026
161	0xbf512022	-0.81689656
162	0xbeb8d1c7	-0.36097547
163	0x3f05d6a9	0.5228067
164	0xbcfcd8a5	-0.030865023
165	0x3c565bae	0.013083382
166	0x3f316638	0.692966
167	0x3f110055	0.5664113
168	0xbf784974	-0.9698708
169	0x3f5d0b08	0.8634496
170	0xbf7e3320	-0.9929676
171	0xbb720153	-0.0036927059
172	0xbfe71c1f	-1.8055457
173	0xbf1aa409	-0.6040655
174	0x40237491	2.5539896
175	0x3f7b57c6	0.98180807
176	0xbe90c53e	-0.28275484
177	0x3e932180	0.28736496
178	0xbf1d3b4d	-0.6141861
179	0xbe668259	-0.22510661
180	0x3e28d42a	0.16487184
181	0x3fc5e742	1.5461199
182	0x3fa6da4a	1.3035367
183	0xbf1e7364	-0.6189482
184	0x3f81fb67	1.0154847
185	0xbf2545b0	-0.6455946
186	0xbe07fafa	-0.13279334
187	0xbfc9ad0e	-1.5755937
188	0xbf000dce	-0.50021064
189	0x3d2e6005	0.04257204
190	0x3efcb24d	0.49354783
191	0x3f61b370	0.88164425
192	0xbf13a88d	-0.57679063
193	0x3e6ff09d	0.2343163
194	0x3f2ada16	0.6673902
195	0xbe5054f3	-0.20344906
196	0xbf0f7773	-0.5604164
197	0x3fecee2c	1.8510184
198	0x3f83a820	1.0285683
199	0x3e816379	0.25271204
200	0xbfb7c334	-1.4356446
201	0xbf3fa49d	-0.74860555
202	0xbeb075b7	-0.3446481
203	0xbe9274ed	-0.28604832
204	0xbf2c54f9	-0.6731716
205	0xbed3c07b	-0.41357788
206	0xbef9bf41	-0.48778728
207	0x3fa8190f	1.3132647
208	0x3f84b68c	1.0368209
209	0x3e353768	0.17696917
210	0xbf012010	-0.5043955
211	0xbfcd0779	-1.6017905
212	0xbf94f265	-1.1636473
213	0xc01b62de	-2.4279094
214	0x3f1a95e9	0.60384995
215	0x3edaef73	0.4276081
216	0x3e5c6bfc	0.21525568
217	0x3fdf331c	1.7437472
218	0x3f278edf	0.6545238
219	0xbc706f45	-0.014674966
220	0x3d3594eb	0.044331472
221	0xbf4e6185	-0.80617553
222	0x3f927ac1	1.1443712
223	0x3f0be0fb	0.5464017
224	0x3e41c82c	0.18924016
225	0x3f1efd82	0.6210557
226	0xbecf295a	-0.40461236
227	0x3ea80d3d	0.328226
228	0xbfbc1af9	-1.4695731
229	0x3e0bed4f	0.13664745
230	0xc00caa80	-2.1979065
231	0x3fb1944a	1.3873379
232	0xbe97a4d4	-0.2961794
233	0xc01e0eca	-2.4696527
234	0x3f4f5963	0.8099577
235	0x3eb90b91	0.36141637
236	0x3ee9c06c	0.4565462
237	0xbe3f70cc	-0.18695372
238	0x3ceeba4e	0.029141571
239	0xbfe5500d	-1.7915055
240	0x3e48dddd	0.19615884
241	0xbfb7078f	-1.4299182
242	0xbff5b4d3	-1.9195808
243	0x40110c02	2.266358
244	0xbeb73477	-0.35782215
245	0x3ea44d40	0.32090187
246	0xbf40a880	-0.7525711
247	0xbf55922c	-0.83426166
248	0xbfd3fdbc	-1.6561809
249	0x3e59f1b4	0.21283609
250	0x3f1ef235	0.6208833
251	0xbdbb26ac	-0.091382354
252	0x3fd732d3	1.6812385
253	0x3e056042	0.13025
254	0xbfc2d042	-1.5219805
255	0x3ea67d2c	0.32517374

weight f4 [7, 8]
0	0xbd034f6a	-0.032058157
1	0xbe53b19f	-0.20673226
2	0x3ede0c33	0.43368682
3	0x3e8cc62d	0.27494946
4	0x3f794f82	0.97386944
5	0x3f1474c3	0.57990664
6	0xbe94e899	-0.29083708
7	0xbf33e4cf	-0.7027101
8	0x3f15f613	0.58578604
9	0x3e7dd0d9	0.247867
10	0xbe8292a1	-0.25502494
11	0xbf363dc5	-0.71188
12	0x3f0109fa	0.5040585
13	0xbe6d2cea	-0.23161665
14	0x3fb2c6ff	1.3966979
15	0xbe10ac97	-0.14128338
16	0x3f4ae464	0.79254746
17	0x3f2f0499	0.6836639
18	0xbf50c4ab	-0.8155009
19	0x3e04eefc	0.1298179
20	0x3fb17e38	1.3866644
21	0x3f85ed72	1.0463088
22	0x3f5d443e	0.86432254
23	0xbf7dfe12	-0.99215806
24	0x3f839bf0	1.0281963
25	0x3f3ce32d	0.7378414
26	0xbcb77dd3	-0.022398865
27	0x3f4b4212	0.7939769
28	0xbeb27d70	-0.34861326
29	0xc0075b2a	-2.1149392
30	0xbe995c8e	-0.29953426
31	0x3e545bdc	0.20738167
32	0x3f661d43	0.898884
33	0xbfd94bbf	-1.6976241
34	0xbf8d656a	-1.1046574
35	0x3eac157f	0.3361015
36	0xbf5eb219	-0.86990505
37	0x3f1a6839	0.6031528
38	0xbfb8abca	-1.4427426
39	0x3e21e3b7	0.15809523
40	0x3f7d7062	0.9899961
41	0x3f4142e0	0.7549267
42	0x3f043652	0.51645386
43	0xbeaf700f	-0.3426518
44	0xbd96f9fc	-0.073718995
45	0x3fc3d7ee	1.5300272
46	0xbe77a3ec	-0.24183625
47	0x3d094516	0.03351315
48	0xbf41069a	-0.754007
49	0x3fbbaab3	1.4661468
50	0xbf9ad4e3	-1.2096218
51	0xbf8583e1	-1.0430871
52	0xbf755f9e	-0.95849025
53	0xbd13abfe	-0.036052696
54	0xbe056969	-0.13028492
55	0xbf98572f	-1.1901606

weight f4 [7, 8]
0	0xbde9dcf6	-0.11419098
1	0xbfd54f47	-1.6664819
2	0x3f5a41b3	0.852565
3	0x3f6f4a36	0.9347261
4	0x4034567f	2.8177793
5	0xbfb110d3	-1.3833259
6	0xbf288677	-0.6583018
7	0x3f0bcd90	0.5461054
8	0xbf6497ad	-0.8929394
9	0x3f08df0e	0.53465354
10	0xbf5ac137	-0.8545107
11	0xbec345cf	-0.38139197
12	0xbfc9740a	-1.5738537
13	0x3ea457d3	0.32098255
14	0x3f3cf939	0.73817784
15	0x3fb12156	1.3838298
16	0xbf302433	-0.68805236
17	0x3dfe3ff3	0.12414541
18	0x3f2c414d	0.6728714
19	0x3eb62aa7	0.35579416
20	0xbe4b05eb	-0.19826476
21	0x3f480a9c	0.7814119
22	0xbf3b9920	-0.73280525
23	0x3ecad08b	0.3961223
24	0x3e00226c	0.12513131
25	0x3ee4dd2b	0.44699988
26	0xc01f4ecd	-2.4891846
27	0xc01eee69	-2.4833014
28	0xbf3550da	-0.70826495
29	0xbfe9897a	-1.824508
30	0x3e032720	0.12807894
31	0xbe65678a	-0.22402778
32	0x3e6fe76d	0.23428126
33	0xbf8c6968	-1.0969667
34	0x3f703b82	0.938408
35	0xbead337d	-0.33828345
36	0xbf06c330	-0.5264158
37	0xbfe098c3	-1.7546619
38	0x3fbc7acb	1.4724973
39	0x3f558930	0.83412457
40	0xbe0a6c2e	-0.1351783
41	0xbf038057	-0.51367706
42	0xbe05dca7	-0.13072453
43	0x3f83dc5e	1.0301626
44	0x3eadf550	0.3397622
45	0xbf1ada90	-0.6048975
46	0xbf94aa5c	-1.161449
47	0x3f94f38d	1.1636826
48	0x3f675911	0.9037028
49	0x401ddb27	2.466501
50	0xbfb05479	-1.3775779
51	0x3f07c6a8	0.530375
52	0xbf1ece1e	-0.6203326
53	0xbe233415	-0.15937836
54	0x3dfaa75b	0.12238952
55	0x3f3f188d	0.74646837

weight f4 [7, 8]
0	0x401cc60d	2.449588
1	0xbfa36419	-1.2764922
2	0xbf36526c	-0.71219516
3	0xbf881d8a	-1.0634015
4	0xbf9d91b7	-1.2310094
5	0x400e3f67	2.2226198
6	0x3f883268	1.0640383
7	0x3ec8ece6	0.3924324
8	0xbf1f0f72	-0.6213294
9	0xbeba105a	-0.363406
10	0xbd21800b	-0.039428752
11	0xbf55a89f	-0.8346042
12	0xbed12d61	-0.40854934
13	0xbe3eb480	-0.18623543
14	0x3f92d412	1.1470969
15	0x3ed118fa	0.40839368
16	0xbfa37799	-1.2770873
17	0x3ef65b36	0.48116463
18	0x3f6ece4b	0.9328353
19	0x3fd9393d	1.6970593
20	0xbe7178eb	-0.23581283
21	0xbe8ffe9c	-0.2812394
22	0x3eda512d	0.42640057
23	0xbf1a6abe	-0.60319126
24	0xbfafca72	-1.3733656
25	0xbf320e3b	-0.69552964
26	0x3f39c4c6	0.7256588
27	0xbef4441a	-0.47708207
28	0x3f360bab	0.71111554
29	0xc00e6504	-2.2249155
30	0xbf7b6612	-0.9820262
31	0x3f9c4e7b	1.221145
32	0xbf03255b	-0.51228875
33	0x3f083323	0.5320303
34	0x3d3289b5	0.04358836
35	0xbdd4dd2a	-0.10393746
36	0xbf4ed73e	-0.80797184
37	0xbf34610b	-0.70460576
38	0xbf3a330f	-0.7273416
39	0x3e842ac0	0.25813866
40	0xbe7f048e	-0.24904081
41	0xbe2d1d75	-0.16905768
42	0x3f3275fc	0.6971128
43	0xbee6f56b	-0.45109114
44	0xbf092c92	-0.53583634
45	0xbfb50e81	-1.4145051
46	0xbf7f1c3c	-0.9965246
47	0x3deb57ee	0.11491381
48	0xc00f6726	-2.2406707
49	0x3e63f177	0.2226008
50	0xbf8f6b7e	-1.1204679
51	0xbe2c55eb	-0.1682965
52	0x3e72b9a5	0.2370363
53	0x3f049333	0.5178711
54	0x3e777676	0.24166283
55	0x3ddefaee	0.10887705

weight f4 [6, 8]
0	0xbfd3059b	-1.6486086
1	0x3c38a0bc	0.011268791
2	0x3c8b68a9	0.01701768
3	0x3d1a1129	0.03761402
4	0x3db370aa	0.08761723
5	0xbca9943a	-0.020700563
6	0x3e8203e0	0.2539358
7	0xbfa46a35	-1.2844912
8	0xbf952ec9	-1.1654903
9	0x3f4506bb	0.76963395
10	0xbfe24efe	-1.7680357
11	0xbf2ed53f	-0.6829414
12	0xbf886a3d	-1.0657421
13	0xbf467617	-0.7752394
14	0x3f20f1c9	0.62868935
15	0xbf0d768f	-0.5525903
16	0x3fdf4262	1.7442133
17	0x3f3533a8	0.70781946
18	0xbea1ff90	-0.3164029
19	0xc00d9683	-2.2123115
20	0x3f990418	1.1954374
21	0x3f49c4da	0.78815997
22	0x3ec0967a	0.37614805
23	0x3cdca53a	0.026934255
24	0x3fa2b5da	1.2711747
25	0x3ffc581a	1.9714386
26	0x4031a311	2.7755778
27	0x3fba6ced	1.4564492
28	0xc0086887	-2.1313798
29	0xc01c5781	-2.4428408
30	0x3f7fbc89	0.99897057
31	0x3fc4cbbd	1.5374676
32	0x3f3a62e7	0.72807163
33	0x3fbbd13f	1.4673232
34	0x3fbb1830	1.4616756
35	0xc00a8c0f	-2.1647985
36	0xbf98d931	-1.1941282
37	0xbe20a8c5	-0.1568938
38	0x3fc3ec5d	1.5306507
39	0x3f2cee94	0.6755154
40	0xbfeeb0bc	-1.8647685
41	0xbfb6499c	-1.4241214
42	0xbebf8578	-0.37406516
43	0x3f02e7e2	0.51135075
44	0x3dfee30a	0.12445648
45	0x3f909512	1.1295493
46	0x3e6d0e6a	0.2315003
47	0xbef063dc	-0.46951187

weight f4 [32, 1, 3]
0	0x3e63fd62	0.22264627
1	0x3f45fe23	0.77340907
2	0x3f07ecda	0.5309578
3	0x3e96a1df	0.29420373
4	0xbedeeda4	-0.4354068
5	0x3db54ab7	0.08852141
6	0x3dd06054	0.10174623
7	0xbf2b3945	-0.6688426
8	0x3dc734c0	0.09726858
9	0xbe91005c	-0.28320587
10	0xbf41561b	-0.7552201
11	0x3df90d9c	0.12160799
12	0xbf1d4fde	-0.6144999
13	0x3eb02236	0.344011
14	0x3e48b0b8	0.19598663
15	0xbe4ba4a3	-0.19887023
16	0x3efb21ff	0.49049374
17	0xbe295af6	-0.16538605
18	0xbf060ec7	-0.523663
19	0x3ea47b40	0.32125282
20	0xbd56adc8	-0.052411824
21	0x3e8f4012	0.2797857
22	0xbe1213d4	-0.14265376
23	0xbef16515	-0.47147432
24	0x3d3095a6	0.043111466
25	0xbc31f0ac	-0.010860603
26	0x3fa0e7dd	1.2570759
27	0x3db978ee	0.09056269
28	0x3ea65f86	0.32494754
29	0xbeb4a999	-0.35285643
30	0xbf032902	-0.5123445
31	0x3e51c3ae	0.20484802
32	0xbea6c24e	-0.32570118
33	0xbecb104e	-0.39660877
34	0x3f0b81b6	0.544948
35	0x3e95c67a	0.29252988
36	0xbe1882c2	-0.1489363
37	0x3ec9880c	0.39361608
38	0x3e4e972a	0.20174852
39	0xbf000120	-0.50001717
40	0xbf3508fe	-0.70716846
41	0x3d960ebf	0.07327031
42	0x3d96d201	0.07364274
43	0x3eb52dc7	0.35386488
44	0x3f0a7df5	0.54098445
45	0xbd46675a	-0.048438407
46	0xbf234aff	-0.6378631
47	0xbe1368d3	-0.14395456
48	0xbef1b1a4	-0.47205842
49	0x3ef2de59	0.47435263
50	0xbd83ba15	-0.06431977
51	0x3ece51c9	0.40296772
52	0xbb355aba	-0.0027672485
53	0xbe89572a	-0.26824313
54	0xbecf17a9	-0.4044774
55	0xbe9f19c8	-0.31074357
56	0xbd1fb960	-0.038995147
57	0xbede1620	-0.43376255
58	0x3edae2a6	0.42751044
59	0x3d6f1158	0.05836615
60	0xbce839c9	-0.028347867
61	0x3ebdbe03	0.3705903
62	0x3e792835	0.24331744
63	0x3ee9e52c	0.45682657
64	0x3f09c0d9	0.5380989
65	0xb91e01de	-0.0001506875
66	0x3e863a9e	0.26216596
67	0xbeb5c853	-0.35504398
68	0xbe0365f8	-0.12831867
69	0x3ee79e1a	0.4523781
70	0xbee359bd	-0.44404402
71	0xbec10ec5	-0.3770658
72	0x3e3886ea	0.18020216
73	0xbf1182eb	-0.5684039
74	0x3dea1f21	0.114317186
75	0x3ebc68fd	0.3679885
76	0xbefebab8	-0.4975183
77	0xbee7414f	-0.45167014
78	0xbee77b2c	-0.4521116
79	0xbeb7aef0	-0.35875654
80	0x3e7802a7	0.24219762
81	0x3d4d60a6	0.050141
82	0xbf18d4a8	-0.5969949
83	0x3e3916ab	0.18075053
84	0x3dabfd29	0.08397896
85	0x3ea33dd3	0.31883106
86	0xbef29a36	-0.4738328
87	0xbe790012	-0.24316433
88	0xbe8fdd72	-0.28098637
89	0xbe39b9d6	-0.18137297
90	0xbf0e6dc0	-0.55636215
91	0xbf05c57d	-0.5225447
92	0x3e4b8656	0.19875464
93	0xbefddf2a	-0.49584323
94	0xbf23774c	-0.6385391
95	0x3e5db0f5	0.21649535

bias f4 [32]
0	0xbd94f8ee	-0.07274042
1	0xbefbb66e	-0.4916262
2	0xbe739557	-0.23787437
3	0x3e93fd58	0.28904223
4	0xbea9d679	-0.33171442
5	0xbea3d3c3	-0.319975
6	0x3ea8a78b	0.32940325
7	0x3f0cef0d	0.5505226
8	0x3c2cb5d7	0.010541401
9	0x3de15ecf	0.110044114
10	0x3f07189f	0.52771944
11	0x3e993c80	0.2992897
12	0x3e3f4fb4	0.18682748
13	0xbed32477	-0.41238758
14	0xbecad485	-0.39615265
15	0x3e27d2a7	0.16388951
16	0xbf096df6	-0.5368341
17	0x3d272880	0.04081011
18	0xbef7af9c	-0.48376167
19	0x3e7a65dd	0.2445292
20	0x3ee867fe	0.4539184
21	0xbead0873	-0.3379551
22	0x3ee47db2	0.44627148
23	0xbf14e972	-0.5816871
24	0xbe9c19cc	-0.3048843
25	0x3bff7c2d	0.0077967853
26	0x3e32bef5	0.17455657
27	0xbeeade31	-0.45872644
28	0x3d5c8aa7	0.053843167
29	0x3e59e087	0.21277057
30	0xbdc62a2d	-0.09676013
31	0x3e313b37	0.17307745

weight f4 [64, 32, 3]
0	0xbe09d4b2	-0.13460043
1	0xbd5dd8bb	-0.05416177
2	0x3e5efeef	0.21776937
3	0x3e83d38e	0.2574734
4	0xbd866ce2	-0.065637365
5	0x3eb0a691	0.3450208
6	0xbd25c649	-0.040472303
7	0xbcb528db	-0.022114208
8	0x3ec3aed0	0.3821931
9	0xbe964ce0	-0.29355526
10	0xbe334a7b	-0.17508881
11	0xbe26da98	-0.16294324
12	0xbec4c510	-0.38431597
13	0x3f0d56ad	0.5521038
14	0xbc7b6422	-0.015343698
15	0xbd42314a	-0.047410287
16	0x3e61c1d5	0.22046597
17	0xbe7206e5	-0.23635443
18	0xbc0283f2	-0.0079660285
19	0x3eca04d4	0.3945681
20	0xbe971a1f	-0.29512116
21	0x3e025a5d	0.12729783
22	0xbe3eaddb	-0.18621008
23	0xbe2be538	-0.16786659
24	0x3e1da3de	0.15394542
25	0x3e75377d	0.23946948
26	0x3ecd1a64	0.40059197
27	0xbebe9d80	-0.37229538
28	0x3eb96954	0.3621317
29	0xbe1331d1	-0.14374472
30	0xbb34bef6	-0.0027579642
31	0x3ea9de1c	0.33177269
32	0xbe9ba456	-0.30398816
33	0xbeabb426	-0.3353588
34	0x3ee641d6	0.44972104
35	0xbd26e51b	-0.040745836
36	0xbd9ef31f	-0.077612154
37	0xbc469248	-0.012119837
38	0xbe110e0d	-0.14165516
39	0xbe95572c	-0.2916807
40	0x3e215c4a	0.15757862
41	0x3d3b4b18	0.04572591
42	0xbe72e7bd	-0.23721214
43	0x3df1d3b4	0.11807957
44	0x3e6d2ff4	0.23162824
45	0x3e56ecb0	0.20988727
46	0xbd644422	-0.05572904
47	0xbdb41837	-0.08793681
48	0xbc02bac1	-0.007979096
49	0x3e999b60	0.30001354
50	0xbe3f4c74	-0.18681508
51	0x3da11b81	0.07866574
52	0x3d2e8340	0.04260564
53	0xbdd1fb9e	-0.1025307
54	0xbe116a25	-0.14200647
55	0x3e61ca9d	0.22049947
56	0x3e59bf6c	0.21264428
57	0xbe22de85	-0.15905197
58	0x3eca4bbb	0.39510903
59	0xbda2af20	-0.07943559
60	0xbdffb107	-0.12484937
61	0x3e3aa830	0.18228221
62	0xbc1e7a23	-0.009672674
63	0xbdb99f57	-0.09063595
64	0x3e26ad30	0.16277003
65	0x3de6cec3	0.112699054
66	0xbbc4c25f	-0.006004616
67	0xbea9e74a	-0.33184272
68	0x3dc5fcdb	0.09667369
69	0x3e3bb87d	0.18332095
70	0xbefeb439	-0.49746874
71	0x3dd1ea73	0.10249796
72	0xbe4217d5	-0.18954404
73	0x3ea2b471	0.3177829
74	0xbd4dc721	-0.050238732
75	0x3d83e376	0.06439869
76	0xbed62bc8	-0.41830277
77	0xbc41ae26	-0.011821305
78	0xbe068e4f	-0.13140224
79	0x3d3b191d	0.045678247
80	0x3f0c42fb	0.54789704
81	0x3e3aa9c2	0.1822882
82	0x3e28267e	0.16420934
83	0x3d86a9c6	0.065753505
84	0x3e873ab9	0.2641199
85	0x3e5ad30f	0.21369575
86	0xbe8a2361	-0.26980117
87	0xbdb26fdb	-0.08712741
88	0xbecaab36	-0.3958375
89	0xbe40145d	-0.18757768
90	0xbcdf92fa	-0.027291764
91	0x3e30e489	0.17274679
92	0x3e4d5d58	0.20055139
93	0xbefeebdd	-0.49789324
94	0x3e4ad14f	0.19806407
95	0xbc9c8308	-0.01910545
96	0x3e02cdde	0.12773845
97	0x3eec5ad9	0.4616306
98	0x3d9fc231	0.07800711
99	0xbe33fb36	-0.17576298
100	0xbe7f39fa	-0.2492446
101	0x3f2d38ea	0.6766497
102	0x3db1264b	0.08649882
103	0xbe3779de	-0.17917582
104	0x3e569f0d	0.2095911
105	0x3e9b3e2c	0.3032087
106	0xbe9a0a6b	-0.30086073
107	0x3f0594ff	0.52180475
108	0x3e0233d7	0.12715088
109	0x3dc0c086	0.09411721
110	0xbe4a8c88	-0.19780171
111	0xbd34cf78	-0.04414317
112	0xbdc2fc9f	-0.0952084
113	0x3e8341a0	0.25636005
114	0xbe604f0c	-0.21905154
115	0x3d6c4f6c	0.05769293
116	0x3e5af802	0.2138367
117	0x3d98ce41	0.07461215
118	0xbd830397	-0.06397169
119	0x3db2c831	0.0872959
120	0xbdda9088	-0.106720984
121	0xbda2da8c	-0.07951841
122	0x3ea3f6ac	0.32024133
123	0xbb242dfd	-0.0025051825
124	0xbe767324	-0.2406736
125	0x3e4f1342	0.2022219
126	0x3ca0c416	0.019624751
127	0xbe65beeb	-0.2243611
128	0x3ee424ce	0.4455933
129	0x3e46c5b2	0.19411352
130	0x3e9d996e	0.3078112
131	0x3da5dc6b	0.08098682
132	0xbc6262cf	-0.013817503
133	0xbc891ecc	-0.016738318
134	0x3e56a041	0.2095957
135	0x3e49761b	0.1967396
136	0xbd4c2c83	-0.049847137
137	0xbaa79d24	-0.001278792
138	0xbe2ac3a4	-0.16676193
139	0x3ec4ce0d	0.38438454
140	0xbddf19a8	-0.108935654
141	0x3ea7384c	0.3266014
142	0xbc9994f7	-0.01874779
143	0x3e3eb031	0.18621899
144	0x3e2b8fc4	0.16754061
145	0xbe7f428d	-0.24927731
146	0x3e6fa1a7	0.23401509
147	0x3e80498e	0.25056118
148	0xbd25357d	-0.040334214
149	0x3e4d239b	0.20033114
150	0x3b9af92f	0.004729412
151	0xbd21e4e3	-0.039524924
152	0xbe112443	-0.14173989
153	0x3d8cc267	0.06873017
154	0x3cb0e6e4	0.021594472
155	0x3d97495d	0.0738704
156	0xbe47d6aa	-0.19515482
157	0x3e8c4e7a	0.27403623
158	0x3d9b10ac	0.07571539
159	0x3ddf96ec	0.10917458
160	0x3e298eb1	0.16558339
161	0x3e22a365	0.15882643
162	0xbe4a8363	-0.19776683
163	0xbe18053b	-0.14845745
164	0xbdb7877b	-0.08961388
165	0xbe48db87	-0.19614993
166	0xbcaa1eaf	-0.020766584
167	0x3ebaa315	0.36452547
168	0x3d962517	0.07331293
169	0xbeb01855	-0.34393564
170	0x3ed6bc7a	0.4194067
171	0xbd927278	-0.071507394
172	0x3d77ef3c	0.060530886
173	0xbd98c30a	-0.07459076
174	0x3d56f69e	0.052481286
175	0xbdb7f476	-0.08982174
176	0x3d35ebae	0.044414215
177	0x3d181b24	0.03713526
178	0xbf1bb1fe	-0.6081847
179	0x3eb7f1e9	0.3592675
180	0xbdd2ff99	-0.10302658
181	0xbec3cd39	-0.3824251
182	0x3e920299	0.28517607
183	0x3ea12ff1	0.3148189
184	0x3db02b1a	0.08601971
185	0x3dfe5f7f	0.12420558
186	0x3e311db7	0.17296492
187	0xbda8ea29	-0.082477875
188	0x3df0c066	0.11755447
189	0x3d36b20a	0.044603385
190	0xbe55c78d	-0.20876904
191	0x3ef123e6	0.470977
192	0xbf2e55e3	-0.680998
193	0xbe8ac3c9	-0.27102497
194	0xbe8e3851	-0.2777734
195	0x3dfe15dc	0.12406513
196	0xbdd88f39	-0.105741926
197	0xbe84f9c1	-0.25971797
198	0x3e80f339	0.25185564
199	0x3eb50636	0.353563
200	0xbf03f8d0	-0.5155153
201	0xbd75ce64	-0.060011283
202	0x3e361341	0.17780782
203	0xbdbece1f	-0.09316658
204	0xbe502a81	-0.20328714
205	0xbeed4498	-0.46341395
206	0x3dc9a7ea	0.0984648
207	0xbe53e29b	-0.20691912
208	0x3d81e5f4	0.06342688
209	0x3b4cc6d7	0.0031246447
210	0xbe01593e	-0.126317
211	0xbe8fb9cb	-0.28071436
212	0xbd89bf6a	-0.067259625
213	0xbe8af2b4	-0.27138293
214	0x3e4b030a	0.19825378
215	0x3e299034	0.16558915
216	0x3d41aa6c	0.047281668
217	0xbeb45351	-0.35219815
218	0xbe996684	-0.29961026
219	0xbe083b8f	-0.1330397
220	0xbe2e6f28	-0.1703459
221	0x3e8f3c66	0.27975768
222	0xbc90541c	-0.017618231
223	0x3ce0ba53	0.027432596
224	0xbd8e6182	-0.06952192
225	0xbddf7833	-0.10911598
226	0xbe8db6ef	-0.2767863
227	0xbd810629	-0.06300003
228	0xbea6aaac	-0.32552087
229	0xbe6ad269	-0.22931828
230	0xbcdeb9c4	-0.02718819
231	0xbe5f9796	-0.21835169
232	0x3bd6777c	0.0065450054
233	0xbc1c7283	-0.009548786
234	0xbe1b5206	-0.15168008
235	0xbe53ddd1	-0.20690085
236	0xbe363c05	-0.17796333
237	0xbea8ea26	-0.3299114
238	0x3e5d4046	0.2160655
239	0xbd9c16a4	-0.07621506
240	0xbde7ffe8	-0.11328107
241	0xbe3a6761	-0.18203498
242	0x3debfb26	0.11522512
243	0xbe996885	-0.29962555
244	0xbd3532e7	-0.044237997
245	0x3eb1dd14	0.34738982
246	0xbece9b57	-0.4035289
247	0x3ea2cf3e	0.31798738
248	0xbd558aed	-0.052134443
249	0xbe584a28	-0.21122038
250	0xbe6416f6	-0.22274384
251	0x3db9b4f4	0.09067717
252	0xbe1bf54a	-0.15230289
253	0xbebf7628	-0.37394834
254	0xbdfa7be8	-0.122306645
255	0xbee66d13	-0.45005092

bias f4 [64]
0	0x3d7cc943	0.061715376
1	0x3d53ed14	0.051739767
2	0xbd35db7f	-0.04439878
3	0x3c92bcee	0.017912354
4	0x3d652cc8	0.05595091
5	0xbcd88f2e	-0.02643546
6	0x3d0da16f	0.034577783
7	0xbcf79c25	-0.030225823
8	0xbc8b60fe	-0.017014023
9	0xbd357224	-0.044298306
10	0x3cd3b71b	0.025844147
11	0xbdca97c4	-0.09892228
12	0x3c63ca1e	0.013903169
13	0xbdc9b9b2	-0.09849872
14	0xbd3a9653	-0.045553517
15	0xbd3c6472	-0.04599423
16	0x3d528fe3	0.051406752
17	0x3bcdde4b	0.006282603
18	0xbd8d177f	-0.06889247
19	0xbd5a06bf	-0.05322909
20	0x3d98bd2a	0.07457955
21	0xbda52b2e	-0.080648765
22	0xbb92f0d0	-0.0044842735
23	0x3db3811f	0.08764862
24	0x3d96e91b	0.0736868
25	0xbdc6f792	-0.09715189
26	0xbdba8782	-0.09107877
27	0x3b2cd194	0.0026370035
28	0xbd98cc1f	-0.07460808
29	0xbdf1d294	-0.11807743
30	0x3cdb7eae	0.026793804
31	0x3d81c4a1	0.06336332
32	0xbd44a00c	-0.048004195
33	0x3d6c01a9	0.05761877
34	0xbc8d9442	-0.017282609
35	0x3d362c93	0.044476103
36	0xbc718e22	-0.01474336
37	0xbda60dab	-0.08108076
38	0x3ce7249a	0.028215695
39	0xbcd499e7	-0.025952293
40	0x3d5fed80	0.054669857
41	0x3dc3f310	0.09567845
42	0xbd790352	-0.060794182
43	0x3dd017a1	0.10160757
44	0xbd819333	-0.06326904
45	0x3b1b4013	0.0023689314
46	0xbda4f9c5	-0.08055452
47	0x3dbfa2f0	0.0935725
48	0xbd02965f	-0.031881686
49	0xbb99a99a	-0.0046894075
50	0xbd2b830d	-0.041873027
51	0xbc11ce16	-0.008899232
52	0xbc9cc1de	-0.019135412
53	0x3da61c4c	0.08110866
54	0xbd4ebeeb	-0.050475042
55	0x3d4c8c16	0.049938284
56	0x3da013a7	0.078162484
57	0xbcf3eb50	-0.029775292
58	0x3d6a8bbe	0.057262175
59	0xbdc9bbb8	-0.09850258
60	0x3ca4407a	0.020050276
61	0x3db8bd2d	0.090204574
62	0xbdb91fa1	-0.09039236
63	0x3db3598e	0.087573156

weight f4 [32]
0	0x3f507bf9	0.8143917
1	0x3f716dd8	0.94308233
2	0x3fa0acbc	1.2552714
3	0x3f8864ad	1.0655724
4	0x3f543ca0	0.82905006
5	0x3f49f290	0.78885746
6	0x3f890736	1.0705326
7	0x3f7cabce	0.98699653
8	0x3f828539	1.0196906
9	0x3f94bc41	1.161995
10	0x3f86c408	1.0528574
11	0x3f858d14	1.0433679
12	0x3f6b5f8c	0.9194267
13	0x3f4e5ca7	0.80610126
14	0x3f524ea4	0.82151246
15	0x3f8682c3	1.0508655
16	0x3fa3fe1c	1.2811923
17	0x3f850565	1.0392271
18	0x3f810ee5	1.008267
19	0x3f9bdbc9	1.2176448
20	0x3f5474f7	0.82990974
21	0x3f69eb50	0.91374683
22	0x3f8c4e5e	1.0961416
23	0x3fa206c6	1.2658317
24	0x3f6d2a58	0.92642736
25	0x3f87cc0f	1.0609149
26	0x3f66c755	0.90147907
27	0x3f953a78	1.1658468
28	0x3f94c667	1.1623048
29	0x3f6e0c38	0.92987394
30	0x3f64fd41	0.89448935
31	0x3f70c829	0.9405542

bias f4 [32]
0	0xbe723c12	-0.23655728
1	0xbd491eb5	-0.04910155
2	0xbe06c617	-0.13161503
3	0xbe914abf	-0.2837734
4	0xbeaf6411	-0.34256032
5	0xbd9c02c6	-0.076177165
6	0xbec8f721	-0.39251044
7	0xbea6682d	-0.32501355
8	0xbe088b9f	-0.13334511
9	0xbeab20f5	-0.33423582
10	0xbd963412	-0.073341504
11	0xbec35169	-0.3814805
12	0xbec98486	-0.3935892
13	0xbe576f29	-0.21038498
14	0xbf062b73	-0.5241005
15	0xbebe9787	-0.3722498
16	0xbe8a7d15	-0.27048555
17	0xbea2cafc	-0.3179549
18	0xbe74f846	-0.23922834
19	0xbeb7a914	-0.35871184
20	0xbe77aa68	-0.24186099
21	0xbec20c53	-0.37900028
22	0xbedb9e84	-0.42894375
23	0xbd9b47ab	-0.07582029
24	0xbe1524c7	-0.1456481
25	0x3d82ab4a	0.06380327
26	0xbe43614f	-0.19080089
27	0xbd56d028	-0.052444607
28	0xbeadbd29	-0.3393338
29	0xbf317df5	-0.6933282
30	0xbd64595f	-0.055749293
31	0xbdf3a6a9	-0.11897022

running_mean f4 [32]
0	0xbe481da5	-0.19542558
1	0xbef915ac	-0.48649347
2	0xbe4a79d4	-0.19773036
3	0x3ebbc8f8	0.36676764
4	0xbea5a104	-0.32349408
5	0xbeaa210c	-0.33228338
6	0x3eb35382	0.3502465
7	0x3f12bf83	0.57323474
8	0xbdacaaf2	-0.08431043
9	0x3dcef102	0.10104562
10	0x3f13d07f	0.57740015
11	0x3e882757	0.26592514
12	0x3e1b8dc2	0.15190795
13	0xbea24d71	-0.31699708
14	0xbef16eaf	-0.47154757
15	0x3e6d6456	0.23182806
16	0xbf083fa8	-0.5322213
17	0x3cddf943	0.027096396
18	0xbed77551	-0.42081693
19	0x3e768703	0.2407494
20	0x3ed0d9e6	0.40791243
21	0xbed7b572	-0.4213062
22	0x3eed21e7	0.46314928
23	0xbf0e5d50	-0.55611134
24	0xbe8ffa20	-0.28120518
25	0x3d515589	0.051106963
26	0x3e65add6	0.22429594
27	0xbeda6609	-0.42655972
28	0x3d628aec	0.055308267
29	0x3e8a4890	0.27008486
30	0xbcabdef4	-0.020980336
31	0x3e80dc39	0.25168017

running_var f4 [32]
0	0x3f55e3f6	0.83550966
1	0x3e8abfec	0.2709955
2	0x3ee06d4a	0.4383338
3	0x3f1b9630	0.6077604
4	0x3efd68c2	0.49493986
5	0x3e96bbf5	0.29440275
6	0x3eb87c3b	0.3603228
7	0x3e930234	0.28712618
8	0x3fb888c9	1.4416744
9	0x3e632c47	0.22184859
10	0x3ec82d1b	0.39096913
11	0x3efefab0	0.49800634
12	0x3e4c3cb1	0.19945027
13	0x3f2ee076	0.6831125
14	0x3ec2ffb2	0.38085705
15	0x3ec9875b	0.3936108
16	0x3edc87c2	0.43072325
17	0x3e58b4a1	0.21162654
18	0x3e71d3a1	0.23615886
19	0x3eb47633	0.3524643
20	0x3e3631ce	0.17792436
21	0x3ee6325e	0.44960302
22	0x3e48a7af	0.19595216
23	0x3efeeb18	0.49788737
24	0x3eb324eb	0.34989104
25	0x3f086a41	0.5328713
26	0x3eb55112	0.35413414
27	0x3ebcb777	0.36858723
28	0x3e9ee4eb	0.31034026
29	0x3e1df53a	0.15425578
30	0x3f0fe630	0.56210613
31	0x3f228444	0.6348307
