government_icfes_dataset/mlartifacts/294710831823527254/12c1d10198974f9181c6d34400d022ea/artifacts/model/data/model.pth (torch, 443712 bytes, 39 tensors)

weight f4 [4, 4]
00000000: 26c9 1d40 1d3c 083f 49e6 17c0 d08c b8bf
00000010: d67d 833f 54d2 e53f e0b4 3dbf 5267 cabf
00000020: 5df9 5a3f 3cd6 08bf 2e57 b43e 13cb 573f
00000030: 4fe2 63bf d78d 2b3f b230 ef3e b553 7d3e
2.4654021 0.53216726 -2.3734305 -1.4417973 1.0272777 1.7954812 -0.7410412 -1.5812781
0.8553675 -0.53451896 0.35222763 0.8429424 -0.89017195 0.67013305 0.4671684 0.24738963

weight f4 [3, 4]
00000000: 7580 83bf c5fb bd3e f77d 7ebe 19ff aa3e
00000010: 73cb 99bf a502 d0be 02fe 1d3e 56b5 0abf
00000020: 3be3 8cbe 6564 453f 2150 503f af9f 1bbf
-1.0273577 0.37106147 -0.2485274 0.3339775 -1.2015213 -0.40627018 0.15428928 -0.54182947
-0.27517113 0.77106315 0.81372267 -0.6079053

weight f4 [5, 4]
00000000: 290c 6b3e e86e fcbe cf7e ce3e 4a70 3abf
00000010: 2095 7dbf 4c86 a4bf 9e58 f23f 0b9d c6bf
00000020: 2b8e 483f acf0 063f 6fde b7be 5a77 2c3f
00000030: bbe1 4b3f c929 173f 9563 123f 5002 8cbe
00000040: 7f70 2c3c 2b91 aa3c f25d e33e 8bb3 91bd
0.22953857 -0.49303365 0.40331122 -0.7282759 -0.9905567 -1.2853484 1.8933294 -1.5516676
0.7834193 0.52710986 -0.3591189 0.67369616 0.7964131 0.59048134 0.571832 -0.27345514
0.010524868 0.020821175 0.44407612 -0.07114323

weight f4 [7, 4]
00000000: 96f8 04bf 69bc d7bf b540 f5be 61af 493f
00000010: aa9b 62bf 044a a2be dc29 a9be 91d3 c5bf
00000020: f401 1bbe aa16 183d 9ed5 d93e 353c 4ebe
00000030: e170 18be 3429 c9bf 41de 14bf 43da 533f
00000040: 070d 003f eab5 533f b525 22bf 6292 8f3f
00000050: 0836 f2be c0c8 92bf 36ad 5ebf 248b a7bf
00000060: 60f4 6c3d d9b1 e73f 91dd d33f b61c 90bf
-0.5194181 -1.6854373 -0.4790093 0.7878323 -0.88518775 -0.31697094 -0.3303975 -1.545519
-0.15137464 0.03713099 0.4254579 -0.20140155 -0.1488681 -1.5715699 -0.5815163 0.82754916
0.5001988 0.82699454 -0.63338786 1.1216547 -0.47306848 -1.1467514 -0.8698305 -1.3089337
0.05785024 1.810115 1.6551992 -1.1258762

weight f4 [7, 4]
00000000: 8692 d1be a9a2 a7bf 061d b4bf d070 79bf
00000010: 9f42 733e c10c 4cbf 41f9 843f 9395 0cbf
00000020: 5279 9fbf 6994 86bf cd02 0f40 109d 1140
00000030: 3795 83bf b359 9bbf e4cf 5a40 e213 153f
00000040: b728 9cbe f1a0 a73f 69a0 b63f 1e76 82be
00000050: 3b41 783f 8947 c6be 363b 803f acc3 2ebf
00000060: 0c8a c1be 5212 96bf 90ec 933e a065 ca3f
-0.409321 -1.3096515 -1.4071357 -0.97437763 0.23755883 -0.7970696 1.0388566 -0.5491573
-1.2458899 -1.0514041 2.234546 2.2752113 -1.0279912 -1.2136749 3.4189386 0.58233464
-0.30499813 1.309599 1.4267703 -0.2548074 0.96974534 -0.38726452 1.001807 -0.6826732
-0.37800634 -1.1724341 0.2889142 1.5812263

weight f4 [1025, 4]
00000000: 4776 c6be 522f 983f 6fdf 78bf 4678 55bf
00000010: 4c3a a5bd 8126 ff3e 8107 09be f182 b3be
00000020: a736 843e 0d73 edbe a3a0 f0bd b159 ab3e
00000030: 0620 d8bf 39cd dabe 0376 87bf 2d0f 9ebf
00000040: c36f 44bf 819e 27bf 872a c63f 817d f7be
00000050: 2d7d 4240 5041 e03e 2fa5 443f 9956 a13f
00000060: a59c 3f3f 7e45 953f 90cb 57bf d05b 58bd
00000070: 3c8d 45bf 801c e93c 529b 72bf 48d9 873f
00000080: 4099 d33e c755 a23e 04b8 c33e ecb5 443f
00000090: 704b cfbe 0d30 12c0 a109 0bbf f502 cc3f
000000a0: 1f84 a53e 3291 163f 3504 393f 0bf6 26be
000000b0: fd9c 943f 4628 f43e 23f9 073f a1d1 1b3f
000000c0: aeaf 3b3f fa83 2abe e71e 22bf 84e1 923e
000000d0: 9e1d d93e f9a8 6ebf 0d68 c0bf 201a ad3f
000000e0: 0cb5 9fbf 38ca 8a3f ac64 2abf 9287 4c3f
000000f0: 6d87 d8bf eda6 5bbf eeab 003f da4f a03f
00000100: 4ef6 8d3f 6733 433d e8da 5c3f 753a f3be
00000110: ac04 4bbf ba84 563d 1c5a 7cbe 3289 54bf
00000120: 0a14 97be 110e 48be 752a 903d 7fc7 30be
00000130: 4f38 21bf 1757 18c0 420f ee3f b562 cdbf
00000140: c290 62be 84ad a93e bd74 cbbf 26f3 27be
00000150: 79db 55bf 7d45 953e 133c 283d 96bd 83bf
00000160: 0891 e8bf 0f31 92bf e48b 30bf 95db af3f
00000170: 0400 2e3e 3f77 8dbf e6ca d8bd 075f 3a3d
00000180: 8074 73bf 5f3d 61bf bce3 8dbf ab89 53bf
00000190: b888 2bc0 a3c5 c0bf 9a58 a63f 5114 0ebe
000001a0: 434e 493e 594c 893e 64f5 8abf c5b7 6abf
000001b0: 0ab6 7dbf 836b 263f 13e8 bebf 2562 0440
000001c0: 82fd cf3e 39b5 813f 26f2 04c0 78da 0a40
000001d0: 673f f1bf d2e3 c8be ff1f 5d3f 8913 59bf
000001e0: 9ced c7bf a18d 32bf a02c e0be eedc d83f
000001f0: 8ea5 09bf 1584 00be f5cd 8c3e bc02 263d
00000200: 36d2 963e 3488 a93d 1af6 b3bf 7727 ad3e
00000210: 5512 68bf 04c4 bf3f 9569 05bf 981a 503f
00000220: b023 c7bf 9fe3 09bf 9fb4 eabd 298b de3e
00000230: 1091 5cbf 6912 ec3f 8d9d f53e 963e d33f
00000240: 1b4b 793f 0c1d 553e faf0 7e3f acd5 5e3f
00000250: 4358 53ba 4a6f 53bf 481e 5dbf 9dd1 42bf
00000260: f89e 19bf 547b 8dbf 8b0d ee3e 019d adbe
00000270: a548 b2bf 381a 813f be9d 873f 762f c4be
00000280: c4f5 0640 017f 6fbf 4206 143c a8de f9be
00000290: 4b0b 20be 0572 9e3d bc3a e6be 23fa 6d3f
000002a0: 7fb1 183f 7763 fc3f 19ad eb3e 0fbb 1bbf
000002b0: fc5a 533f 9375 0c3f 679d 88be 7c31 7c3f
000002c0: 5205 353f 2f9e 673f 3b25 2bbf ce0b e7bf
000002d0: be59 533f cc98 42c0 39f1 13bf 320e aebf
000002e0: 4ee3 923f 0cb9 373f 70f7 313f 5891 633f
000002f0: 3cf3 60bf 2cd4 8cbe 1e2b b93f 6cd1 97bf
00000300: 2498 ce3d d27a aabe 5c17 8a3f 5b0c 1ec0
00000310: 7f1c debc 4b33 5b3f 5981 923f 6b5c 1abe
00000320: ab62 063e 54af 743e 3d57 8ebf 5db2 1d3f
00000330: ba5b 833f 6626 2240 69a2 6b3f 3149 fc3e
00000340: 0fb7 d7be 972d 063f 8e97 393e f47e d5be
00000350: 46d4 90bf 498b 9fbe d80b 743f 8cf6 783f
00000360: f8d1 1940 7001 b63f 0229 983e 9b5c e63e
00000370: d669 00c0 62fb b0bf 16d9 9e3f c51f 8bbf
00000380: dabd 6f3e 5299 b23c 2cc0 d93d a3ce aa3e
00000390: 09c0 6f3c 1ec9 843f 23a8 a8bf 1f02 bdbe
000003a0: 2b59 0a3f 886b 963e 3150 eebe ced4 fe3d
000003b0: a12c 8f3d 22a5 a73f 3416 a7bf b357 6dbf
000003c0: ac17 5d3f 2b9f f93e 7012 9dbf cf48 163e
000003d0: 162c e33f 4854 0340 9edb 7bbf 5c9b 1ebf
000003e0: 1f0e d03f cf7d aebf 1d62 09bf ba2c 7fbf
000003f0: cb5c 9abf 796e 54bf b024 873f 261e f2bf
-0.38762113 1.1889441 -0.9721593 -0.8338665 -0.0806776 0.49834064 -0.13381769 -0.35060838
0.25822946 -0.4637684 -0.11749389 0.33466867 -1.6884773 -0.42734697 -1.0582889 -1.2348381
-0.76733035 -0.6547623 1.5481728 -0.4833794 3.0388901 0.4379983 0.7681455 1.2604553
0.74848396 1.1661832 -0.84294987 -0.052821934 -0.7716863 0.028455973 -0.9476825 1.0613184
0.41327858 0.31706068 0.3822633 0.7684009 -0.40487242 -2.2841828 -0.5431157 1.5938402
0.32327363 0.588153 0.72272044 -0.16304795 1.1610409 0.47686976 0.5311453 0.60866743
0.7331494 -0.16651908 -0.63328403 0.2868768 0.4240541 -0.9322658 -1.5031754 1.3523598
-1.2477126 1.0842962 -0.66559863 0.79894364 -1.6916329 -0.85801584 0.50262344 1.2524369
1.1090791 0.047656443 0.86271524 -0.47505537 -0.79304004 0.05237267 -0.24643749 -0.83021843
-0.29507476 -0.19536616 0.07039348 -0.17263602 -0.62976545 -2.3803155 1.8598406 -1.6045748
-0.22125533 0.33140194 -1.5895001 -0.16401348 -0.83538014 0.29154578 0.041072916 -1.0292232
-1.816926 -1.1421221 -0.68963456 1.3738886 0.16992193 -1.1052016 -0.10585575 0.04550078
-0.9509964 -0.8798427 -1.1085124 -0.8263194 -2.6802197 -1.5060314 1.2995789 -0.13874938
0.1965876 0.2681606 -1.0856137 -0.9168666 -0.99105895 0.650078 -1.4914573 2.0684903
0.406231 1.013343 -2.0772796 2.1695843 -1.8847474 -0.39236313 0.8637695 -0.84795433
-1.5619388 -0.6974736 -0.43784046 1.6942422 -0.5376824 -0.12550385 0.27500883 0.04052995
0.29457253 0.08277932 -1.4059479 0.33819172 -0.9065297 1.4981694 -0.5211423 0.8129058
-1.5557766 -0.5386295 -0.11460232 0.43465546 -0.8615885 1.8443118 0.47971764 1.6503475
0.97380227 0.20811862 0.9958645 0.8704479 -0.0008062163 -0.8259169 -0.8637433 -0.76101094
-0.6000819 -1.1053262 0.46494707 -0.33908847 -1.3928419 1.0086126 1.0595014 -0.3831746
2.1087503 -0.9355317 0.009034695 -0.48802686 -0.15629308 0.07736591 -0.44966686 0.92959803
0.5964584 1.9717854 0.460305 -0.60832304 0.82560706 0.54866904 -0.26682588 0.9851301
0.70711243 0.90475744 -0.66853684 -1.8050478 0.8255881 -3.040576 -0.5778995 -1.3598082
1.1475618 0.71766734 0.69518185 0.8889365 -0.87871146 -0.27505624 1.4466283 -1.1860785
0.10087612 -0.3329683 1.0788379 -2.469504 -0.027113197 0.8562514 1.1445724 -0.15074317
0.13123576 0.23895007 -1.1120373 0.61600286 1.0262368 2.5335937 0.92044693 0.4927459
-0.4213185 0.52413315 0.1812422 -0.4169842 -1.1314781 -0.31160954 0.9533057 0.972512
2.4034405 1.4219189 0.29718786 0.44992527 -2.0064597 -1.3826716 1.2409999 -1.086907
0.23412266 0.021801624 0.10632357 0.33360776 0.014633187 1.0373876 -1.3176311 -0.3691568
0.5404231 0.29378915 -0.46545556 0.12442933 0.06990934 1.309727 -1.3053651 -0.92711943
0.86364245 0.48754248 -1.2271252 0.14676212 1.7747829 2.0520191 -0.98381984 -0.6195581
1.625431 -1.3632144 -0.53665334 -0.9967762 -1.2059568 -0.8298107 1.0558071 -1.891545

weight f4 [3, 4]
00000000: cf2c 7c3f 6425 913f 9128 6bbf 7b30 643f
00000010: a5ae 0d3f f50f 1a3f 65af 2ebd 189f 023f
00000020: 2308 f33d 3b18 aebf 21b2 c5bf d7e9 4e3c
0.9850587 1.1339536 -0.91858774 0.89136475 0.5534461 0.601806 -0.042647738 0.5102401
0.11866786 -1.3601145 -1.5444986 0.012628994

weight f4 [7, 4]
00000000: a03e 393f 3e51 aebe cb52 523e b46a 523f
00000010: a5e7 a2be cbb4 d63e 36ac d93e 530b 8d3e
00000020: 2de2 2abf 0f58 c63d fdc0 8b3c 8524 693f
00000030: 591f 313f 2dfe f03d 8512 a23f 189f c3bf
00000040: c190 10bf 3ef4 213f 1faf 1e3f 3002 823e
00000050: d89f c8bd 459d 7d3b 32ea 143e 5162 0fbe
00000060: b258 503f a636 8cbf 9b3a b73e 8ac2 5d3f
0.72361183 -0.34046358 0.20539396 0.82194066 -0.31817356 0.4193481 0.425142 0.27547702
-0.66751367 0.096847646 0.017059797 0.9107135 0.6918846 0.1176723 1.2661902 -1.5282927
-0.56470877 0.6326331 0.61985964 0.25392294 -0.09796113 0.0038698476 0.14542463 -0.14002348
0.8138534 -1.0954177 0.357869 0.8662497

weight f4 [7, 4]
00000000: 5f6a b0be 1c95 bb3f 4493 933e bdf0 4b3f
00000010: 0875 5ebe 7702 dabe 40fc cc3d b6a7 fb3e
00000020: 9930 13bf 4139 bebf 6378 85be 0575 193f
00000030: bf15 173f 6af9 39bf 8af0 dc3e 6430 1e3f
00000040: 512b 2540 1f77 2a40 c4be 7c3f 428a 3bbe
00000050: 040a 42bf 66c6 803f 04be 893f 0157 683f
00000060: d366 503f e0b6 433f 88af a53f b51e b43f
-0.34456155 1.465488 0.28823292 0.7966421 -0.21724331 -0.42580006 0.1000905 0.4915139
-0.5749603 -1.4861223 -0.2606841 0.5994418 0.59017557 -0.726462 0.43152267 0.6179259
2.5807688 2.6635206 0.98728585 -0.1831446 -0.7579653 1.0060546 1.0761113 0.9075776
0.814069 0.7645092 1.2944193 1.4071871

weight f4 [3, 4]
00000000: 1c6b 753f 28e7 c43f f08e 6cbe 2383 6e3f
00000010: 6b95 b5be 1669 dabf 3fb1 44bf e238 83be
00000020: c488 e63e 5afb 163f a776 8abf 826a 53bf
0.9586656 1.5383043 -0.23101401 0.9316885 -0.3546556 -1.706332 -0.76832956 -0.25629336
0.4502622 0.5897728 -1.081746 -0.82584393

weight f4 [427, 4]
00000000: 6894 47bf 67cf dabf 1b79 72bf bfa3 043f
00000010: beb4 843e 1469 adbf 0d7d 42bf ad7a 233f
00000020: 95b7 3c40 a448 a4bf 3860 6c3f 8820 6fbf
00000030: 301c cb3f f16c babf 02ad f6be cfdc 5cbe
00000040: f55a 03c0 0a79 9dbf 9a10 fbbe 6b47 05c0
00000050: b370 4fbe 8174 793e b5af 8f3f 5ca8 523f
00000060: ecfa a6be 20e2 653f 9a39 06bf ef2e 103f
00000070: 3771 893f 6db1 4e3f aa23 03bf 74c1 8c3e
00000080: 5005 93bf e62c 0640 86d0 473f 9023 d13e
00000090: 838f 983d 082d ca3f e326 86bf 9e37 893f
000000a0: 6df0 c73d 7ee9 893d 8ed6 423f fa10 81bf
000000b0: 93c6 f83e a3d1 38be a189 543f 429d a5bf
000000c0: ea66 1cc0 4fd0 94bf e2f7 c4be 6a30 cebe
000000d0: 235b 5c3f 2880 4fbf b10e 13bf 73f2 31bf
000000e0: f824 4e3f d1df 403f 62f9 e8bf 819a bd3e
000000f0: a141 40bf bb00 ac3e 1d1a 3dbf 36ac b9bf
00000100: 6944 26bf 6699 9e3e 573e edbf 9f23 ae3f
00000110: fd6d 8f3f 5956 21bf a297 c5bf 60ec 383e
00000120: 5d59 99bf 3fcf 723f 1e38 823e 7fb2 8fbf
00000130: 9020 52bd ce95 293f 4cfc b3bf ca66 e7bf
00000140: 77df 44bf 5b56 b2bf 5ba4 853f fab4 7fbd
00000150: a7b0 edbf b718 41bf 48f8 da3f ad86 eb3e
00000160: 402a c5bf 6db5 d83f 32b6 323e 4f2e 013f
00000170: b588 f33e 536c 85be 5a57 88bf ba65 c9be
00000180: d219 fd3d 3393 fc3e 3ade b7bf fbbb d03e
00000190: 449f 6fbf a9b2 88bf 3d39 913f 23c5 6bbf
000001a0: c804 4a3f 6d59 e23d 26b0 5ec0 d5a5 583f
000001b0: a9de a03f d9eb 82bf 2d00 84be e7a8 fe3f
000001c0: 7845 e9bf 40fb c5be 8e3e 4fbf b22d 80bf
000001d0: 2827 a33f b924 143f 918d 33bf 0fe6 0fbe
000001e0: 842b afbe 667f 433f cba4 bebe 6907 4d3f
000001f0: 7484 11bf ead3 d3be dc70 743f 759b a2bf
00000200: 3ed9 1240 d362 07c0 469c 4fbf 9085 13bf
00000210: 115b dc3f 6531 1a40 239b d43f 2dc8 6dbf
00000220: f518 c43f a9d5 0240 e915 4b3f 31d4 bbbf
00000230: 216a da3f 26f1 e73f bed2 a9bf 94d6 3cbf
00000240: d0a2 d2bf b30d d63f 82c6 aa3e fba8 35bf
00000250: 9f40 21bf 80c9 b6bd 5f50 da3e 6235 dabf
00000260: eb66 f1bf 5931 39be 98fa a5bf 5e4c 73bf
00000270: 0333 0b40 e6a4 13c0 7bf5 b3bf 3c56 dcbe
00000280: 29fe abbe 05f8 293f 7e8d f13e f16c ccbe
00000290: 6211 373f 855a 33bf 998c ecbf 6e61 91bf
000002a0: 2da6 0740 95ef f7be 63b5 2bbc fd7a 61be
000002b0: 5000 963f 0173 973f b541 0a3f 311c c73f
000002c0: b97c 1bbf d555 c03f 492e cf3e 75b9 ff3e
000002d0: a225 99be cd9f 9dbf 06f7 673f dcb6 98bf
000002e0: 12a5 e73e 2c47 9d3f 1c19 c5bf 89d9 cbbd
000002f0: 411f 493f 5f04 ff3f d654 323f d992 b53f
00000300: 190d 2e3f 8120 2fbf 825f bd3f 769d 2e3f
00000310: c21f 08bf 007c d53f c6ea 55bf b285 3ec0
00000320: 8b20 2c3d b704 8fbf c962 1a40 19b6 6e3f
00000330: 6bc2 09c0 f040 f5bf 93d6 f33e 9957 a3bd
00000340: 25f6 0c40 3b14 423f 22c9 9a3e fcce d3bf
00000350: 83a3 0ebf 7e6b 643e a82d 48bf b5c0 3a3f
00000360: c979 723d d72b dcbc 4add 263d fa9a 9d3e
00000370: b4ef 27c0 32fb e8be a46b 72be d559 a9bf
00000380: d090 ea3e 2a5b 22bf f04b b13e 117c 32bf
00000390: 62f9 653f 23e7 0c3f 640e 6d3f f5c3 903e
000003a0: 1492 ccbf 8b22 83be 5b2a a73e 69c9 8e3c
000003b0: 02bc 9bbf d0ce d83f 7f24 023f cbbf 89bf
000003c0: 7220 6e3e f2e9 5c3e 60b8 0740 e895 6a3c
000003d0: 65d0 dfbd e20b cb3f 6470 19bd 8b7f 473f
000003e0: 5da4 b33d 6493 d6bf 6d46 01c0 85e9 ef3b
000003f0: faa9 9ebe 10b6 cb3e 6736 e73f c1df 0c3f
-0.77960825 -1.7094544 -0.9471604 0.51812357 0.25919145 -1.3547692 -0.7597206 0.63859063
2.948705 -1.2834668 0.9233432 -0.93409014 1.5867977 -1.4564496 -0.4817887 -0.21568607
-2.0524266 -1.2302563 -0.49036103 -2.082484 -0.20257835 0.24360849 1.1225497 0.82288146
-0.32613313 0.89798164 -0.52431643 0.56321615 1.0737675 0.8073948 -0.51226294 0.27491343
-1.1485996 2.0964904 0.78052557 0.40847445 0.07449248 1.5794992 -1.0480617 1.0720098
0.097626545 0.06733988 0.76108634 -1.0083306 0.48589 -0.1804872 0.83022505 -1.2938616
-2.4437814 -1.1626071 -0.3847037 -0.40271312 0.86076564 -0.81054926 -0.5744429 -0.69510573
0.8052516 0.75341517 -1.8201106 0.3703194 -0.7510014 0.33594307 -0.7386797 -1.450568
-0.64948136 0.3097641 -1.853465 1.3604621 1.1205441 -0.6302238 -1.54369 0.1805892
-1.1980397 0.9484748 0.2543344 -1.1226348 -0.051300585 0.6624421 -1.406137 -1.8078244
-0.7690348 -1.3932604 1.0440782 -0.062428452 -1.8569535 -0.75428337 1.710702 0.46001187
-1.5403519 1.6930367 0.17452314 0.50461286 0.47565237 -0.26059207 -1.0651658 -0.39335424
0.123584405 0.49331054 -1.4364693 0.40768418 -0.93602395 -1.0679523 1.1345593 -0.9209768
0.78913546 0.11052213 -3.4795012 0.8462804 1.256795 -1.0228225 -0.25781384 1.9895295
-1.8224325 -0.3866825 -0.80954826 -1.0013945 1.2746325 0.57868534 -0.7013789 -0.14052604
-0.34212887 0.7636627 -0.37235102 0.8008943 -0.5684273 -0.41372615 0.9548471 -1.2703692
2.2945094 -2.1154068 -0.8109783 -0.57625675 1.7215291 2.4092648 1.6609844 -0.9288357
1.5320116 2.0442908 0.7933031 -1.4674131 1.7063638 1.8120468 -1.3267438 -0.7376492
-1.6455936 1.6722931 0.33354574 -0.7096097 -0.6298923 -0.08925152 0.42639443 -1.7047541
-1.8859533 -0.18085231 -1.29671 -0.950384 2.1749885 -2.3069396 -1.405929 -0.43034542
-0.33592346 0.6639407 0.47178262 -0.39926866 0.715109 -0.70059997 -1.8480407 -1.1357858
2.1195176 -0.48424974 -0.010480258 -0.22019573 1.1718845 1.1831971 0.5400651 1.5555478
-0.60737187 1.5026194 0.40465 0.4994618 -0.29911524 -1.2314392 0.906113 -1.1930804
0.45243126 1.2287345 -1.5398288 -0.09953601 0.78563315 1.9923209 0.696607 1.4185439
0.67988735 -0.6840897 1.4794772 0.68209016 -0.5317346 1.6678467 -0.8356136 -2.97691
0.042023223 -1.1173314 2.4122794 0.9324661 -2.1524913 -1.9160442 0.47624645 -0.07975692
2.2025235 0.7581212 0.30231577 -1.6547542 -0.5571825 0.2230663 -0.78194666 0.729503
0.059198175 -0.026876373 0.04073838 0.307823 -2.6240053 -0.45504147 -0.23673874 -1.323054
0.45813608 -0.63420355 0.34628248 -0.6972056 0.8983365 0.55040187 0.92600083 0.28274503
-1.598208 -0.25612292 0.32649502 0.017430024 -1.216675 1.6938114 0.5083694 -1.0761656
0.23254564 0.21573618 2.1206284 0.014317967 -0.1092842 1.5863001 -0.0374607 0.7792899
0.08771584 -1.676373 -2.0199234 0.007321539 -0.30989057 0.3978734 1.8063477 0.5502892

weight f4 [1030, 4]
00000000: d677 473f 4fef 803e 8e24 973f f529 e2bf
00000010: ed8d 96bf ff98 473f 4004 083e c9aa 293f
00000020: 5700 a13d 6f25 973e 692c 4a3f f958 003e
00000030: f9f9 3bbf 7c69 4ebf 62cb 8e3f 49b4 42be
00000040: fe47 f43e a1e4 893e c6e4 fd3e d7a7 ad3e
00000050: 269a 91bf 190b cebd 2d6a 4abf 46b5 5fbe
00000060: 4536 913f 8aa7 cdbf 69b8 5b3f 6ba8 f7be
00000070: 6cc8 97bf d41b 533f f440 4e3f 9680 433f
00000080: 2c7d a5bf 3263 e73f 6950 4c3f ec2e 643f
00000090: 5b8b 803f 0afc 12bf 189e c13d 23c6 873f
000000a0: 127f 9fbe 31f8 02bf 29f9 463f 0da5 1f3f
000000b0: efbc 0940 fcf2 8a3e 5ec0 9e3f ec34 9b3e
000000c0: b8ae 75be ab5e 9e3f 95cb 97be 6a8a a73f
000000d0: a263 473f 2798 013f 814a a33e 3e43 2abf
000000e0: de42 4dbf 8e61 fe3e ae88 d3be 96d0 dbbe
000000f0: b0d5 88bf cfe0 85bf 34b6 33bf ea45 0fbf
00000100: 8169 10c0 1603 033e bdd4 0c3f 1417 8dbf
00000110: cdc6 47c0 7f67 263f 90fe 95bf 532e 2cc0
00000120: 66fb dd3d 04d4 233e bedb f53d ae3f e33e
00000130: 5c60 f0bd e524 b63d b195 803f 0252 08bf
00000140: 056f 293e 3b3a c03d eef2 583f f204 ce3d
00000150: 2e97 243f 7d76 1ebf 0fe5 af3e cc92 5abf
00000160: f72c a2bf 0da9 c3bf ace3 1a40 9323 22bf
00000170: c34b 703f d943 c1bf 2b6c 8eba 2197 cdbc
00000180: e2d1 953e f4f2 d03e f2c5 4f3f afdc a0bc
00000190: f712 b3be 0350 8cbf 0c5e b23f 60f0 043f
000001a0: d9cf a83e a88b b33e fa97 be3e 2d3e bb3f
000001b0: 8ca1 043f e512 8cbf 7ff4 1f3e 43f4 a6bf
000001c0: 16ef 46bf af58 a23f 7e7e 773f 61f8 b7be
000001d0: 2569 c8bb ca35 65be 250c 863f bcca 55bf
000001e0: 1ef7 3e3d c663 5d3f f7c9 abbf 33aa 333e
000001f0: a65e d83e 34d9 e1bf 02ca 803d e86f 543f
00000200: d0a3 5f3f 48db d03e 9db5 d93f dbee 42bf
00000210: 418a 0bbe c21a 59be dd64 1ec0 fef3 a23d
00000220: fa7b 7c3f eb0f 283f f90f d8bd 3367 f5be
00000230: 73f4 1c3f 49e4 c0be e524 d5bf a4c9 a03f
00000240: 2a93 8fbe 8810 3fbf 79c9 843f a60e 093f
00000250: 5bb2 54bf 1678 1cbd 0e7d ddbf 04b4 4d3f
00000260: d210 293d ba92 183f 57fa 8cbf 7f08 f33f
00000270: bb49 55bf 3247 59bf 0d26 563f 095d c13f
00000280: ffff cebf 6286 863f 8ec8 a93e e86d 1c3f
00000290: 4bca d1be 5549 433e bec4 acbf ac04 943f
000002a0: b544 2140 4d78 04be 4ca8 b6bf 60fe 1b3f
000002b0: b911 73bf 0caf 5b3f c2c6 22bf a13b 07bf
000002c0: 0691 d93e 6bb0 2f3f 2202 8f3f ab54 3ebf
000002d0: 0c1b 7a3f 359b f43e 9768 b63e a703 2fbf
000002e0: a969 2a3f 1997 473c b412 be3f 73f7 9dbf
000002f0: 5234 e63e 90a7 6b3e a781 a9bf ba33 e73f
00000300: 5414 583d 2cca 6d3f 4ed1 b8be 0531 23bf
00000310: 4be8 393d c66c 8bbf 8a5e 863f c90b 8bbf
00000320: 7275 7f3f 9d67 4abf 4fb0 e33f 8cc9 c2bf
00000330: c85a e5bf e9e3 1fc0 5cad 04c0 fac3 30bf
00000340: 915f 6dbf 87c9 43bf f051 753f e907 8c3f
00000350: 7aa8 543e b50b 0940 d9ae e7bf 18f7 2c3e
00000360: a6e1 1840 6c0e a03e 5105 10be cea7 27bf
00000370: bccb 46bd 01b6 843f 365a b3be e9b9 0ebf
00000380: b761 0fbf fafd 68bf d2de b53f c0c5 70bf
00000390: 83cd c1be f86a 373f 7ed4 a93f 93e0 6dbe
000003a0: 4328 8ebf 4ec2 d43e 3d32 893f 4501 c6be
000003b0: 2a51 c0bf 444e 773f d6c7 85be cc2a 883f
000003c0: d97e 923e 5fb8 883d 94e2 24bf 2348 643c
000003d0: 282c 18bf e426 8a3f 98a9 d63e d5d6 c9be
000003e0: 5242 b13f 415a 553e 8ea5 3d3f 188d 93bf
000003f0: 7a3b 483e 21ac 933e 665d 55be f414 0840
0.7791723 0.25182578 1.1808031 -1.7669054 -1.1762062 0.7796783 0.13282871 0.6627622
0.07861393 0.29520747 0.78974015 0.1253394 -0.73428303 -0.80629706 1.1155818 -0.19014086
0.47711176 0.26932243 0.49588603 0.33917114 -1.1375167 -0.100607105 -0.7906826 -0.21846494
1.1344687 -1.6066754 0.8582826 -0.4837068 -1.1858039 0.8246434 0.8056786 0.7636808
-1.2928824 1.8077147 0.79810196 0.891341 1.0042528 -0.5741583 0.09453982 1.0607342
-0.31151634 -0.5115996 0.7772394 0.6236122 2.1521566 0.27138507 1.2402456 0.30313814
-0.23992431 1.237264 -0.29647508 1.3089116 0.778864 0.5062279 0.3189278 -0.66508853
-0.80180156 0.49683803 -0.41315216 -0.42932576 -1.0690212 -1.0459231 -0.70199895 -0.55966055
-2.2564394 0.12794146 0.5501211 -1.1022668 -3.1215088 0.6500167 -1.1718311 -2.6903274
0.10838966 0.15998846 0.12004803 0.4438452 -0.11737129 0.08893756 1.0045682 -0.53250134
0.16546257 0.093861066 0.8474568 0.10059537 0.6429318 -0.6189955 0.34354445 -0.85380244
-1.2669972 -1.5285965 2.420146 -0.6333553 0.93865603 -1.509883 -0.0010865977 -0.025096478
0.2926169 0.4081036 0.81161416 -0.01963648 -0.34975407 -1.0961918 1.3934951 0.51929283
0.32971075 0.35067487 0.37225324 1.462835 0.51809 -1.0943266 0.15620612 -1.3043293
-0.77708566 1.2683314 0.96677387 -0.35931686 -0.00611605 -0.223838 1.0472456 -0.83512473
0.046622388 0.8648037 -1.342101 0.17545395 0.4225971 -1.764441 0.0628853 0.82983255
0.87359333 0.40792298 1.7008549 -0.76145715 -0.13626958 -0.21201614 -2.4749062 0.07956694
0.98626673 0.6564929 -0.105499215 -0.47930297 0.613105 -0.37674168 -1.6651884 1.2561536
-0.28041965 -0.746346 1.0373985 0.53537977 -0.8308465 -0.03820046 -1.7303789 0.8035281
0.041275807 0.59598887 -1.1013898 1.8986968 -0.8331563 -0.8487426 0.8365181 1.5106517
-1.6171874 1.050976 0.33160824 0.61105204 -0.4097465 0.19070943 -1.3497541 1.1563926
2.5198185 -0.12936516 -1.427011 0.6093502 -0.9494892 0.85813975 -0.6358453 -0.5282536
0.42493457 0.6862857 1.1172526 -0.74347943 0.9769752 0.47774664 0.3562667 -0.6836495
0.66567475 0.012182021 1.4849458 -1.234114 0.44961792 0.23013139 -1.3242692 1.8062661
0.05275376 0.92886615 -0.36097187 -0.6374667 0.045387547 -1.089257 1.0497601 -1.0862972
0.9978858 -0.7906435 1.778818 -1.5217757 -1.7918329 -2.4982855 -2.073081 -0.69049037
-0.9272395 -0.7647938 0.9582815 1.0939914 0.20767394 2.1413395 -1.8100234 0.16891134
2.3887725 0.31261003 -0.14064528 -0.65490425 -0.04853414 1.0368043 -0.35029763 -0.55752426
-0.56008476 -0.9101254 1.4208624 -0.9405174 -0.37852105 0.71647596 1.3267972 -0.232302
-1.1106037 0.41554493 1.0718457 -0.38672844 -1.5024769 0.966038 -0.26129025 1.063806
0.28612402 0.06675791 -0.6440823 0.013933214 -0.5944238 1.0793118 0.41926265 -0.39421716
1.3848364 0.2083521 0.7408074 -1.1527433 0.19553939 0.2884226 -0.2083641 2.1262789

weight f4 [7, 4]
00000000: cb88 c43c 0745 dbbf 53d3 99bf 4aa0 283f
00000010: d6ca 87be e273 42bf 7570 9bbf d7f1 393e
00000020: cb11 b4be 6593 55bf 8e2b 69bd 132c 14bf
00000030: ebe1 af3e e823 993f 7e6f 6ebf df01 b5bd
00000040: 739f 9ebf 1f14 01bf c333 9b3e 6a89 bf3f
00000050: ab1a 31be b970 93bf a24d 623f 11b7 24bf
00000060: 4a64 e63e 7d1e 903f d062 8bbf 3720 3dbe
0.02399101 -1.713044 -1.2017616 0.6586958 -0.2652194 -0.75958073 -1.2143694 0.18158661
-0.35169825 -0.8342803 -0.056926303 -0.5787975 0.3435205 1.1964083 -0.93138874 -0.088382475
-1.239241 -0.5042133 0.3031293 1.496381 -0.1729533 -1.1518775 0.8839971 -0.6434184
0.4499839 1.1259304 -1.088953 -0.1846932

weight f4 [7, 4]
00000000: 62cd 35be e3ea 613f 9b0f 8a3b 9c0a b43e
00000010: 4549 2bbe 1e87 90bf 47a9 2dbf 5aff 153f
00000020: e39f 7abf 33f1 50bf 93df d23f d187 4f3e
00000030: 49d8 6abe be3b 0d40 a90c 623d 2ef4 f4bf
00000040: 0ef1 0cbe 8988 66bd b538 703f 55be 343f
00000050: 6fb4 b4be 6a90 b93f 7b2e e03e 1efb d0bc
00000060: 4ef2 5c3f e0da 63be b17c 943f 51c1 473f
-0.17754129 0.88249034 0.004213286 0.35164344 -0.16727169 -1.1291234 -0.6783642 0.5859276
-0.9790022 -0.8161804 1.647448 0.20266654 -0.22934069 2.2067714 0.055187855 -1.9137018
-0.1376383 -0.056282554 0.9383653 0.70602924 -0.3529391 1.4497197 0.43785462 -0.025510367
0.8630723 -0.22251463 1.1600553 0.7802935

weight f4 [7, 4]
00000000: c815 483e 9f8c b33f 06a9 c9be fc12 853f
00000010: 7f68 bb3f 205e ff3f 3386 123e e46b 613f
00000020: 683f 20c0 3b60 d93e 3dce 1fbd 5ade 55bf
00000030: 156a f0bf 3507 dabe feb2 983e 6040 0abf
00000040: 5850 82bf 4886 5f3f cff1 a03e 8030 75bf
00000050: c044 1a3f 1960 213f 33ee 683f 4e5a a23e
00000060: e2ad f53f 1c85 ba3f 34cf 77bd d617 bd3f
0.19539559 1.4027289 -0.39386767 1.0396419 1.4641265 1.99506 0.14309005 0.88055253
-2.50387 0.4245623 -0.039015044 -0.83542407 -1.8782374 -0.42583624 0.2982406 -0.5400448
-1.0180769 0.8731427 0.31434485 -0.9577713 0.60261154 0.6303726 0.90988463 0.31709522
1.919369 1.4571872 -0.06050034 1.4772899

weight f4 [6, 4]
00000000: fd9a 97be 7052 19bf 2bfb 3a40 73b3 2d40
00000010: b489 8a3e 3e66 a33f c144 afbf 5840 7cbf
00000020: c81f 90bf 60b4 7ebf b7eb 8bbf 31e3 3ebf
00000030: 09d1 62bf d631 343e e1e1 8dbd f2f6 963e
00000040: d5ff 3ebf 1c05 26bf a38b d3be a860 dfbe
00000050: b951 2a40 58e2 673c 0bc6 2a3f c1fc 0440
-0.29610434 -0.59891415 2.92158 2.7140777 0.27058184 1.2765577 -1.3692857 -0.9853568
-1.1259699 -0.9949398 -1.093131 -0.74565417 -0.8860021 0.17597136 -0.069278486 0.2948528
-0.7460912 -0.64851546 -0.41317472 -0.4362843 2.661238 0.014153086 0.6670844 2.0779269

weight f4 [32, 1, 3]
00000000: cb16 cf3e 0efd f43e 451f 65bc dd66 4b3e
00000010: bc02 6dbf 27cc 2c3d 0f1d b03e d11b 08bf
00000020: 0f24 0f3f 1ae3 0bbf 54f3 013f 3b7c 2d3d
00000030: 1563 e03e 4732 f5be 2d57 90bc fe7a 1a3f
00000040: 4eec 07bf afa0 02be c628 c3bd 634d abbd
00000050: 692f 673f 7fb9 d03e 412d d03e 4f95 37bd
00000060: fe77 89be e634 063f 5af6 703d 063b ac3c
00000070: 0f4b ca3e cc33 f63e 716b 7fbe b337 07be
00000080: 1d62 443f 3a97 e93d b999 4fbf ceb4 263e
00000090: 3af1 debc 5e44 f23c 76d5 2140 5ba3 d93e
000000a0: b797 18bc b24f c9be e03e a13e 7ea3 4fbf
000000b0: fb5c 4f3e 41ed 92be fe41 32be a383 373f
000000c0: e13e ad3e e1f7 143f f1fc 48bf fed9 123f
000000d0: 3c64 0f3f 6301 a2bd f1b2 a5be bf74 103f
000000e0: cd8e cc3c ba63 efbe 727e 143f 078e be3e
000000f0: 84f6 8a3b 7d4b 0c3f ad1b ee3e d714 fcbe
00000100: f0a0 1c3f 5014 583e 0a90 c53e a2f1 23bf
00000110: 964d 353d b3ea 14bf b333 ccbe 49e5 f1bd
00000120: fa7d 75bd 3ce6 ef3d 8baf 80bf b777 77bd
00000130: b6db 103f a76f ef3e 6bea 14bf 8d19 293f
00000140: 3b9b b2be 8d47 f0bd d71b f73e 0ce5 a83e
00000150: 9574 d1be 0c2b 363f 50db 4b3d bbf6 893e
00000160: e9c6 47bf cd18 c0be d434 a73e f523 3fbf
00000170: a3b7 afbe 9e40 13bf c82c 1fbf 55ea bfbe
0.40447077 0.47849315 -0.013984506 0.19863458 -0.925823 0.042186882 0.3439717 -0.53167444
0.55914396 -0.54643404 0.50761914 0.042354804 0.43825594 -0.4788992 -0.017619694 0.6034392
-0.5309495 -0.12756608 -0.09529261 -0.0836437 0.9030672 0.40766522 0.40659526 -0.044820126
-0.2684936 0.52424467 0.05882869 0.021024238 0.3951039 0.48086393 -0.2494333 -0.13204841
0.7671221 0.11405797 -0.8109394 0.16279909 -0.027214635 0.029573616 2.5286536 0.42507443
-0.009313515 -0.39318615 0.31493282 -0.81108844 0.20250313 -0.28696635 -0.17407987 0.71685237
0.33837035 0.58190733 -0.7851096 0.5736388 0.5601232 -0.07910421 -0.32363084 0.5642814
0.024970436 -0.46755773 0.5800544 0.37217733 0.0042408127 0.54802686 0.4650549 -0.4923465
0.6118307 0.21101499 0.38586456 -0.6404058 0.044263445 -0.5817062 -0.39883193 -0.11811311
-0.059934594 0.117138356 -1.0053571 -0.060416903 0.5658525 0.4676487 -0.58170193 0.6605461
-0.34884056 -0.11732397 0.48263428 0.3298725 -0.40909258 0.71159434 0.0497697 0.26946053
-0.7803789 -0.37518921 0.32657492 -0.7466424 -0.3431979 -0.57520473 -0.62177706 -0.3748347

bias f4 [32]
00000000: a955 d1bd 6d21 383e d796 35bf 84fc 333f
00000010: f556 6ebe 009b 323f ec27 863f f779 f3be
00000020: 201c a23e ff5a 8d3e 3465 09be f6f4 fcbe
00000030: 6dc2 f53e 57ec 403e 0249 9abe 2297 36bf
00000040: be87 063e 837d 03bc 2a4c 05be 14e3 503e
00000050: 70fd 03bf aed3 88be 281a d5be a633 6dbe
00000060: b748 cc3d 9721 923e 17cc 743e efe9 2ebf
00000070: e2f7 5b3e 6f8e 20bf 4f1f 07bf 70c0 803d
-0.102214165 0.17981501 -0.7093329 0.70307183 -0.23275359 0.6976776 1.0480933 -0.4755399
0.31662083 0.27608487 -0.13417512 -0.4940564 0.47999898 0.18840156 -0.30133826 -0.7132436
0.13137719 -0.00802553 -0.13017336 0.20399123 -0.5155859 -0.26724 -0.41621518 -0.23164234
0.09974807 0.28541252 0.23905979 -0.68325704 0.21481279 -0.62717336 -0.5278215 0.062867045

weight f4 [64, 32, 3]
00000000: b66f 8fbd 1b3d 623f 0195 683d 6382 93bd
00000010: 4f2b 80bd ca74 63be 9ebb 9f3e 8939 51be
00000020: 2470 8f3e 476d 4ebf e2fa cf3c 7c0c 61be
00000030: b627 d4bc 5a59 e8be 4bd3 7dbd 32df c8bc
00000040: d13e fbbe 83e6 21bd 29a4 9e3e 23fa 58be
00000050: a15c 533d 629b 8e3d 20a7 0e3f 9523 de3d
00000060: 1e3e 0bbe eeb9 32be 84c5 bebe dac0 a63e
00000070: f49d 053f d700 1fbe 6dd5 073f da2c 86bd
00000080: 248a 793d 095f 59be bb88 d8bd b9af 34bd
00000090: c2b6 fe3e 80cc 943e ef49 1f3e 6743 af3d
000000a0: b2ad 403d 16a4 b13e d9aa 8d3d 9d26 dabe
000000b0: 0795 803e 657f 013f fda3 97bd bf98 b53e
000000c0: 6eaa 1b3d 6405 d53c 94e0 0e3e feac 833e
000000d0: 370d 3c3f 34f0 573e 03e4 48bc 9234 943e
000000e0: 5962 90be 52aa 9cbe ffcd 3f3e e67a edbd
000000f0: 8bdf d1bd 7b3b 063f dd29 9fbe 16d3 36bf
00000100: 20d1 3b3e d7f3 3fbe 5fe2 743c 0f07 98be
00000110: a4e2 db3d 58e7 6f3e f04a 89be 8c63 34be
00000120: 69ac 3fbd 57d4 92bd ca54 96be e3d1 b5be
00000130: 24d6 1a3f 0139 eabd dfab e7be b03e c1bd
00000140: 2f35 3fbe 1e14 b7bc b23e 893e d833 edbd
00000150: 231e 1dbe 1962 f5bd 337d b5be e13a 00be
00000160: f0ed eebd da61 1b3d df14 f8bd 5b93 cdbe
00000170: 90e7 803e e097 663d afe6 b43d 1478 dbbe
00000180: b4d3 3cbe 0ca7 54be b971 88bd dbb5 9f3e
00000190: 365b 2cbf 74a5 ffbc d70f 74be 42c0 53be
000001a0: 75f1 313e 6a08 aebe 788b 1b3e 5ca7 a1be
000001b0: a7eb 6fbe 8b91 89be 9b04 cbbb d9ee b33c
000001c0: 5e0f 883c e9db 1abe b196 393c 7a17 b4be
000001d0: b6dd 2ebe 2655 e9bd d3f6 d3be e24b dcbe
000001e0: 5400 76be 8343 953e 09af 62be 1835 afbe
000001f0: 4205 9ebe d6e0 0b3e ede2 db3d d384 9cbe
00000200: 60be c1be 199e 853e 57fa 13bf e0d5 bdbd
00000210: 8d51 abbd 1675 0ebf 92ec dc3c 8b23 da3e
00000220: 9102 163d bd80 11bf e575 cf3e a61a 26bf
00000230: e083 fe3d a893 a93d 6c37 b5be 195f 82be
00000240: fc6e 543e 94fe b3be 3470 0ebf 4a95 c5bd
00000250: d082 7bbe 9f28 70be 91fd 12bf 481d 053d
00000260: 81eb 40be facf d0bc 1043 dd3d fded b1bd
00000270: 898b 91be 3018 bbbd d7be 09bd e7f8 9bbe
00000280: 0f91 cf3a d2a1 77be 259a 15be 48ae 24bf
00000290: 5bb7 a93d 3072 633e 7197 5a3d d05d b1be
000002a0: 8042 bbbe efc8 8ebe e2b7 00bf 894f a9be
000002b0: 7e06 bebe 0835 06be ae79 36bf 0dc8 c3bc
000002c0: b860 eabe 1952 1abe a49b f3bc 31d8 263e
000002d0: 3d97 a1be 2418 1a3e 9dd0 a3be 42ec e43e
000002e0: 2264 f2bd f40e 7b3d afc0 1fbe 490f 81be
000002f0: 2876 12be 2abf a23e 2d60 c63c ecee 5ebe
00000300: b1cf 163f 2377 973c 5658 abbe baf6 e2bd
00000310: c08c 913e 2719 11bf fc5c e33d d6d5 aa3c
00000320: 5c11 93bd 25b0 d43e a6b5 0fbd 989c e8bb
00000330: 1820 5a3e 7e6e e93c c1ad 9cbe b459 cb3d
00000340: 5866 be3e 631e 78be 4f17 45bd bee8 73bd
00000350: a07e 38be 5f9c 9b3e a57e 223e 9bb8 0abf
00000360: 31fa debc 25d6 65be fc05 3f3e a6c9 023f
00000370: 0289 ac3c a109 d6bd 42dd 59bd e261 95bd
00000380: b24f 1ebf a76d 783e 9e9c a43e 9463 b0be
00000390: 0a88 de3d 41d4 04be 3c6f a4bd 8e92 483e
000003a0: 825a aa3e 320f a2be f040 c9bd 918a 8a3e
000003b0: 0136 99be fa19 3d3c a265 a7bd 440f b2be
000003c0: aeb1 143f e867 a7be 4186 c1be 72d0 f63e
000003d0: 5f0b 513e 414d 31bf f119 c43e 0ac9 4cbe
000003e0: 38bc 8ebd 9de9 0c3e 61f6 cebe 337e a7be
000003f0: 3406 323e d8fb dfbe fae3 de3c 08d1 ec3d
-0.07003729 0.8837449 0.056782726 -0.07202604 -0.062582605 -0.2221252 0.31197828 -0.20432104
0.28015244 -0.80635494 0.025388185 -0.21977419 -0.025897842 -0.4538067 -0.061969083 -0.02452049
-0.49071363 -0.039526474 0.3098462 -0.2118917 0.05160201 0.06963231 0.5572376 0.108466305
-0.13597915 -0.17453739 -0.37260067 0.3256901 0.5219414 -0.15527664 0.53060037 -0.065515235
0.060922757 -0.2122766 -0.10572954 -0.044112895 0.49748808 0.2906227 0.15555547 0.08557778
0.04704065 0.346955 0.06917352 -0.42607585 0.251137 0.50585014 -0.07404325 0.354681
0.03800433 0.026003547 0.13952857 0.2571792 0.73457664 0.21087724 -0.0122613935 0.28946358
-0.28200033 -0.30598694 0.18730925 -0.11595707 -0.102477156 0.5243451 -0.31086627 -0.7141584
0.18341494 -0.18745361 0.014946549 -0.29692885 0.10736588 0.23428094 -0.26814985 -0.17616099
-0.046795283 -0.07169407 -0.29361564 -0.35511693 0.60483 -0.11436654 -0.45248315 -0.09435785
-0.18672632 -0.02234846 0.26805645 -0.11582154 -0.15343527 -0.11981601 -0.35447082 -0.1252246
-0.11666477 0.037935115 -0.12113356 -0.40151486 0.25176668 0.056297183 0.08833062 -0.4286505
-0.18440133 -0.20766848 -0.06662316 0.31193432 -0.67326677 -0.031206824 -0.23834167 -0.2067881
0.17377265 -0.33990794 0.15189922 -0.31572998 -0.23429738 -0.26868853 -0.0061956174 0.021964477
0.01660889 -0.15122952 0.011327432 -0.3517416 -0.17076764 -0.11393194 -0.4139925 -0.43026644
-0.24023563 0.2915307 -0.22137083 -0.34220195 -0.30863386 0.13659987 0.10736642 -0.30570087
-0.37840557 0.2609718 -0.57803863 -0.09269309 -0.08365164 -0.5564741 0.026968274 0.42605242
0.03662354 -0.56837064 0.40519634 -0.6488441 0.12427497 0.08280116 -0.35393846 -0.2546318
0.20745462 -0.35155165 -0.5563996 -0.09647615 -0.2456162 -0.23452996 -0.5741816 0.032498628
-0.18839838 -0.025489796 0.10803807 -0.08687971 -0.2842677 -0.09135473 -0.033629265 -0.30463335
0.0015836078 -0.24182823 -0.14609583 -0.6432843 0.082869254 0.22211528 0.053367082 -0.34641886
-0.36574173 -0.27887675 -0.5028058 -0.33068493 -0.37114328 -0.13106167 -0.7127942 -0.023899103
-0.45776916 -0.1507038 -0.029737301 0.16293408 -0.31560698 0.15048271 -0.31995097 0.447115
-0.11835505 0.061293557 -0.15600847 -0.25206974 -0.14302886 0.31786472 0.024215782 -0.21770829
0.5891066 0.018489426 -0.33465832 -0.110822156 0.28427696 -0.56679004 0.1110172 0.020853918
-0.071810454 0.41540638 -0.035085343 -0.0070987456 0.21301305 0.02849507 -0.30601314 0.09929219
0.37187457 -0.24230342 -0.048117932 -0.059548132 -0.18017054 0.3039274 0.15868624 -0.54187936
-0.02721891 -0.22444971 0.18654627 0.5108894 0.021061424 -0.10451055 -0.053189524 -0.0729406
-0.61840355 0.24260579 0.3215074 -0.34450972 0.10865791 -0.12971593 -0.08029029 0.19587156
0.33272177 -0.31652218 -0.09826839 0.27058843 -0.29924014 0.011541838 -0.08173682 -0.34777272
0.5808362 -0.32696462 -0.3779774 0.48205906 0.20414494 -0.69258505 0.38301042 -0.19998565
-0.06969494 0.13760991 -0.40422347 -0.3271347 0.17385179 -0.4374683 0.027208317 0.11563307

bias f4 [64]
00000000: 73a5 1abe 8e5f 8f3d 2b44 e13c c825 d6bd
00000010: b90f ce3e 2053 743d e6ae 9f3d fde6 4b3d
00000020: 15e1 153d e3f7 9fbd 9dbb f3bd 12f8 cb3c
00000030: d32d 903e a673 773e 6ece 083d 84dc eb3d
00000040: b8c2 133f 63d0 933e 82d9 803e 17ca 043e
00000050: 6f16 a73d e9d8 b93d 07fa babe 9c0e fb3d
00000060: ed3d b33d 3cde 8e3d 5468 9bbc 0813 58bc
00000070: b40c e43d ce24 c33d 6126 823e e316 e33d
00000080: 56c5 063e 9ac8 db3d 1696 e63e 7ece e4be
00000090: eb37 9ebe 5361 0a3e c780 68be 4e71 68be
000000a0: a32a 953d 9ae1 a3be a660 0f3e dd8c 233e
000000b0: 18eb 7a3b f08f 883e 9127 a03e 77a6 a6bd
000000c0: 899b 8a3e d1d9 5d3e e8c4 c93e b506 473d
000000d0: 7afc e8be 2ab3 343e 79b6 df3d f4dc 053e
000000e0: 4712 983e b73f 363e e10c 30be e76f 96be
000000f0: f4ab 7f3d d840 8b3e 8e1d 283e fa40 c13e
-0.15102176 0.070006475 0.027498325 -0.10456425 0.4024637 0.059649587 0.07797031 0.049780834
0.036591608 -0.078109525 -0.11901019 0.024898563 0.2815996 0.2416521 0.03339999 0.115166694
0.5771899 0.28869924 0.25165945 0.12967716 0.08158576 0.090745755 -0.3651888 0.12258646
0.08752046 0.069759816 -0.018970646 -0.013188131 0.111352354 0.09528504 0.25419906 0.1108835
0.13161215 0.10731621 0.4503638 -0.4468879 -0.30902037 0.13513689 -0.22705375 -0.22699472
0.07283523 -0.32008058 0.14001712 0.15971704 0.00382871 0.26672316 0.31280187 -0.081372194
0.2707179 0.21665122 0.3940804 0.04859038 -0.45505124 0.1764647 0.10923476 0.13072568
0.29701445 0.17797743 -0.17192413 -0.2938225 0.062419847 0.2719791 0.16417524 0.37744886

weight f4 [32]
00000000: 42b2 803f 092c 843f ef40 493f f1c7 a33f
00000010: bca4 563f bc53 683f ab47 443f 3a5d 7c3f
00000020: 334c 6e3f 8014 5c3f 9fbb 563f 34d1 823f
00000030: 4335 353f 752b 543f 54ca 6f3f ffc3 4d3f
00000040: ff7f 853f 3f79 8e3f c879 7d3f 8f03 723f
00000050: 7406 8c3f 0386 8d3f daf4 503f edca 723f
00000060: 9b8f a83f 9c7f 9d3f 5478 863f 6d50 4f3f
00000070: f460 7f3f fca8 813f e0b1 6f3f 2ec2 813f
1.00544 1.0325938 0.78614706 1.2795392 0.83845115 0.9075277 0.76671857 0.9857975
0.9308502 0.8596878 0.8388004 1.0220094 0.70784396 0.8287881 0.93668103 0.8037719
1.0429686 1.1130751 0.9901395 0.9453668 1.0939469 1.1056522 0.81623614 0.9484089
1.3168825 1.2304568 1.0505471 0.80982095 0.99757314 1.0129695 0.9363079 1.0137384

bias f4 [32]
00000000: 3641 f0be d082 99be ded9 8ebe 7b3d bdbe
00000010: 9793 0bbe 5729 97be 9f3b 6ebb 00de 05bf
00000020: d273 313e 8d9e b7be c33f 12be 472f c5be
00000030: 2644 85bd 231e 87be c91b 0bbe d217 ebbd
00000040: b2e7 c3be 1f6d 1abf ed69 373d a37e 0fbf
00000050: c7ad debe d6a4 3abf 29e4 4abe 6cd6 40bf
00000060: 664a 3bbf 3e77 eebe a6c0 1fbf 6367 79be
00000070: 1bf3 183e 11d1 25bf 5ea3 07bf be00 6fbf
-0.46924752 -0.29982615 -0.27900594 -0.36960968 -0.1363052 -0.29523727 -0.0036351455 -0.5229187
0.17329338 -0.35863152 -0.14282136 -0.38512632 -0.06507139 -0.2639018 -0.13584818 -0.11479153
-0.38262707 -0.60322756 0.044778753 -0.5605261 -0.43491957 -0.7290777 -0.19813599 -0.7532718
-0.731604 -0.4657535 -0.62403333 -0.24355845 0.14936487 -0.64772135 -0.52983654 -0.9336051

running_mean f4 [32]
00000000: 7974 59bc ee07 df3d e300 2ebf b4fb 333f
00000010: c17e 72be 4d2e 313f c160 8d3f 2d8f cbbe
00000020: abfa b03e a9ac b73e 7435 debd b740 0dbf
00000030: ef2a 323f ca76 463e d324 acbe 64c1 32bf
00000040: 87b5 223e 5f40 cc3d 7ac8 d0bd 4f8b 7e3e
00000050: 963e d6be 3b6d 72be 0ea4 e0be e68a afbe
00000060: d565 9b3c b941 c13e 5a3e 603e d4d8 1dbf
00000070: 4e6b 803e 939e 35bf d083 19bf fb95 babd
-0.013272398 0.10890184 -0.67970103 0.70305943 -0.23681165 0.69211274 1.1045152 -0.39757672
0.34566244 0.35873917 -0.10850039 -0.5517687 0.6959676 0.19381252 -0.33621845 -0.6982634
0.1588956 0.09973215 -0.10194488 0.2485783 -0.41844624 -0.2367448 -0.43875164 -0.3428566
0.018969456 0.37745455 0.21898785 -0.6165898 0.25081867 -0.7094509 -0.59966755 -0.09110638

running_var f4 [32]
00000000: dd2e ed3e 253b 513f e0dc 053f 412a ea3e
00000010: 3cf2 af3e a5ff 0f3f 69e4 493f 9b2b c73e
00000020: c5fe 9d3e 8867 eb3e bf74 203f 1a23 1d3f
00000030: 6dfc c840 b066 a83e 2085 243f afa4 153f
00000040: cb2d 743f 8bb6 403f 4c89 b73e 510b 2b3f
00000050: 50b1 1c3f 46c8 173f d682 e93e e6b7 1d3f
00000060: 6bdb 753f 23cb 203f 20f4 273f 8c68 c93e
00000070: 7493 133f 7214 5a3f b96d 483f 8d60 8a3f
0.46324816 0.8173087 0.52290154 0.45735362 0.34364498 0.5624946 0.7886415 0.38900456
0.30858436 0.45977426 0.6267814 0.61381686 6.2808137 0.32890844 0.6426563 0.5845441
0.95382375 0.7527854 0.35846937 0.6681414 0.6120806 0.5928997 0.45607632 0.6160873
0.9603793 0.6280996 0.6560688 0.39337575 0.5764687 0.8518745 0.78292423 1.0810715

weight f4 [64]
00000000: 58bd a53f 6b70 7d3f 2149 803f e191 693f
00000010: dbce 5c3f 626a 6f3f 279b 743f 057c 413f
00000020: 98b8 963f 441c 623f ef00 5d3f 653a 573f
00000030: b7af 603f 0afc a33f 2770 923f b077 793f
00000040: 4422 5f3f 8797 8a3f edb1 5d3f 168b 5c3f
00000050: 4bce 613f 378f b13f ac61 973f 2ae7 b73f
00000060: b485 443f 6b15 7a3f 9a3d 233f f282 993f
00000070: 0d5b 363f ba63 743f 5aaf 863f 9339 af3f
00000080: 8b34 7a3f a9f1 913f 1986 833f 0e39 853f
00000090: d43a c23f e7ee 923f 2ffe 4d3f 93ac 6e3f
000000a0: 0092 733f 5b7e 7c3f 9efd 293f 2962 493f
000000b0: 20c4 743f 7a07 8b3f 4ad5 7f3f cdeb 693f
000000c0: 2186 7b3f 84aa 6c3f d530 853f 25d0 683f
000000d0: 197b 4b3f c2a8 5b3f ccdf 813f 9f16 933f
000000e0: 5f7c 703f a194 b53f b37d 623f bdf8 513f
000000f0: 4ec5 963f 4e73 823f 0c4d 313f c48c 643f
1.2948408 0.9899966 1.0022317 0.9123822 0.86253136 0.935217 0.95549244 0.75579864
1.1775084 0.8832438 0.8632955 0.8407348 0.8776812 1.2811291 1.1440476 0.97448254
0.8716166 1.0827492 0.8659962 0.8614973 0.88205403 1.3871831 1.1826682 1.4367421
0.76766515 0.9768893 0.6376587 1.1993086 0.7123268 0.9546467 1.0522263 1.3689445
0.97736424 1.1401874 1.0275298 1.0408037 1.5174203 1.1479157 0.8046598 0.9323208
0.95144653 0.98630303 0.66402614 0.78665406 0.95611763 1.0861657 0.9993483 0.9137543
0.9825154 0.92447686 1.0405527 0.90942603 0.7948471 0.8580438 1.0146422 1.1491278
0.93939775 1.4185983 0.8847305 0.8202017 1.1778963 1.0191438 0.6925819 0.8927729

bias f4 [64]
00000000: 0e78 17bf 455e cdbe 2472 dabd 9744 abbe
00000010: 5265 cebe 5741 d8be 6e4e e3bd 2cbf c3be
00000020: 43ce 0ebe 179a 4abe fbe8 b5be 8db7 bcbe
00000030: 8b3d 8ebe 71e0 cbbe 3353 a7be 2dd3 3dbe
00000040: 82d3 8abe 91ee 1ebf b245 e1be 5958 babe
00000050: 1012 0abf 6cde 1abe 2a3c 80be 64c2 f4be
00000060: 8563 2d3d c767 13bf 9378 9fbd d75d efbd
00000070: 454c 11bf af9e debe 1212 d8be ca56 00bf
00000080: 20c0 88bd 39f4 0ebf 312f bdbe e85e 8cbe
00000090: c8a8 e0be c160 3abe bdfa d1be 8b23 d1be
000000a0: 35e8 d6be 85c7 bbbd 2dcc e6be ce7a 47be
000000b0: d0b0 d1be 0437 87be ff66 08be 8f97 b4be
000000c0: c31e dabd 37a3 00bf e76c b2be 6d3f 2bbf
000000d0: 07ab 8bbe 1415 c9be f79d 34bf f6e6 10bf
000000e0: 35a5 d8be 3a3e 1bbf 09ed 073e 72db adbe
000000f0: 0010 cbbe 507a 81be b5e2 2abe e887 b1be
-0.59167564 -0.40110984 -0.10666302 -0.33450767 -0.40311676 -0.4223735 -0.11098944 -0.3823179
-0.1394587 -0.19785343 -0.35529312 -0.36858788 -0.2778133 -0.39819673 -0.32680663 -0.18537588
-0.27114493 -0.62082773 -0.43998486 -0.3639553 -0.5393381 -0.1512391 -0.25045902 -0.47804558
0.042331237 -0.57580227 -0.077866696 -0.116878204 -0.56757003 -0.4348044 -0.42201287 -0.5013243
-0.0667727 -0.55841404 -0.36950067 -0.27416158 -0.4387877 -0.18200971 -0.4101161 -0.4084743
-0.41974035 -0.09168915 -0.4507765 -0.1948044 -0.4095521 -0.2640916 -0.1332054 -0.3527188
-0.106503986 -0.50249046 -0.3484871 -0.66893655 -0.2727892 -0.39273894 -0.70553535 -0.5660242
-0.42313543 -0.60641825 0.13274015 -0.33956486 -0.39660645 -0.2528863 -0.16688044 -0.34674

running_mean f4 [64]
00000000: 92eb 44bf 7270 c2c0 211b f5be 4e11 2fc0
00000010: 53ea 3bc0 13c2 d7bf b783 01c0 e8df 3040
00000020: 7086 62c0 6b72 0ac0 897f bd3d 72c4 a7c0
00000030: 0370 22c0 228a afc0 f885 afbf d4a0 eebf
00000040: 6b3e f53f 4456 95c0 d3dc 2e40 ed3c 92be
00000050: d86b f6bf d1f8 ba3f c34f a7bf 320b ecbf
00000060: 3000 c93e 0f1b dcbf 6d0c 8b40 f6da aac0
00000070: 20c5 b740 2eb3 f0c0 24c4 d5c0 5ca3 983f
00000080: b987 5dbf 40a2 1e3f 1830 2a3d 4ad5 d7c0
00000090: 8113 73bf b66e 5ebf cd7d 04c0 145b 1ec0
000000a0: ff81 17c0 5ac9 81c0 ee73 21bf 4902 d43f
000000b0: b69e 9a3e d041 12bf 559c 063f 35a1 0fc0
000000c0: 08c2 10bf c9a2 d9bf 9d4f 78bf 0794 9c3f
000000d0: 4047 6f3f f0c7 19c0 4ef8 4ac0 aa6c 923e
000000e0: d58e 20c0 9016 953e 12ad da3f e06f 9f3f
000000f0: 3c9d c1c0 c9ab 87be 7178 413f 1ffd 28be
-0.7692195 -6.076226 -0.4787226 -2.7354312 -2.936177 -1.6856102 -2.0236642 2.7636662
-3.5394554 -2.1632335 0.09252841 -5.24273 -2.5380867 -5.485612 -1.3712759 -1.8642831
1.9159673 -4.6667805 2.732228 -0.28562108 -1.9251661 1.4607183 -1.3071216 -1.8440917
0.39257956 -1.7195758 4.345267 -5.3392286 5.742813 -7.5218725 -6.680193 1.1924853
-0.8653522 0.61966324 0.041549772 -6.7447863 -0.94951636 -0.8688768 -2.0701783 -2.474309
-2.3673093 -4.055829 -0.6306752 1.6563197 0.30199212 -0.5713167 0.52582294 -2.2442143
-0.5654607 -1.7002803 -0.9699648 1.2232674 0.93468094 -2.4028282 -3.1714053 0.2859853
-2.5087178 0.29118776 1.7084067 1.2456017 -6.0504436 -0.2649825 0.75574404 -0.16502808

running_var f4 [64]
00000000: 0c5c b041 acd3 9f41 77d2 c241 eee8 7a41
00000010: 44df 6141 7bb6 b441 2ab0 8141 1872 8f41
00000020: e6c7 a841 5df7 ad41 4e94 8e41 2dd8 a641
00000030: 2d40 cd41 1c49 1342 3fd9 a941 a77c 9041
00000040: 33f5 bc41 0ef5 6a41 e6ba 8741 816f db41
00000050: 6991 5241 0046 ea41 3d46 c541 61c8 e441
00000060: 8c9e 7841 045f 0141 b9cf 3b41 5552 1642
00000070: 99e6 f541 8aee c441 2d18 a541 4a33 0342
00000080: 4a5c 8741 5178 a241 4020 2641 2c6b 1142
00000090: 37de b641 f48b e441 7e4c 4e41 e0dc 8b41
000000a0: a3b7 5b41 800f a141 8b41 1541 62a1 3741
000000b0: 3792 8341 6ad0 c441 d860 8d41 2839 8d41
000000c0: ac7b 4941 8e42 3f41 06be 8141 ffc6 ab41
000000d0: f4ae 8e41 269d 6741 590a 2441 bd0f d841
000000e0: bfcb 9c41 ac17 bc41 ea5e fc41 c135 5241
000000f0: d5ce 0042 638d 9741 0d6f e941 071a 7441
22.044945 19.978355 24.352766 15.681868 14.117008 22.589102 16.211018 17.93071
21.097607 21.745783 17.822414 20.855555 25.656336 36.821396 21.231077 18.060865
23.619726 14.684828 16.966259 27.429445 13.160501 29.28418 24.659296 28.597841
15.538708 8.085697 11.738214 37.580402 30.737597 24.616474 20.636805 32.800087
16.920063 20.308748 10.382874 36.35466 22.858503 28.568336 12.893675 17.48285
13.732333 20.132568 9.328502 11.4769 16.446394 24.601765 17.672287 17.652908
12.592693 11.953749 16.217785 21.472166 17.835426 14.475866 10.252526 27.007685
19.599485 23.511559 31.546345 13.1381235 32.201984 18.944036 29.179224 15.256354
