government_icfes_dataset/mlartifacts/294710831823527254/79429039e8044f13b8a9ce3725c7315a/artifacts/model/data/model.pth (torch, 702656 bytes, 39 tensors)

weight f4 [4, 8]
000000 6c 85 81 be b0 02 5f bf a3 9d 7b bf 9c 74 52 bf
       -0.25297105 -0.87113476 -0.9828741 -0.8220918
000010 71 cc cb bf b9 2e 0f bf 5c b1 6b bf e2 74 bd bf
       -1.5921766 -0.5593067 -0.92067504 -1.4801295
000020 47 ab 82 be c2 2a 76 3f 66 b6 da bd 01 74 29 3f
       -0.255213 0.96158993 -0.10679321 0.6619263
000030 23 8d c7 bf b7 c4 05 c0 36 05 ae bf 62 28 01 bf
       -1.5589947 -2.0901315 -1.359534 -0.50452244
000040 a2 f3 d3 3f 31 83 44 3f 84 ab f6 bc 97 8c 8b 3f
       1.6558726 0.7676268 -0.030111082 1.090228
000050 48 9a 0b 3f 43 40 b7 3e 32 44 8c 3e d7 36 32 3f
       0.5453229 0.35791215 0.2739578 0.6961493
000060 93 b7 7a bf 8c b6 7c 3f cd 2a a9 be db c9 ee 3f
       -0.9793636 0.98716044 -0.33040467 1.8655351
000070 92 23 93 bf 45 7e 0f c0 f1 83 31 3f 99 ae a0 3f
       -1.149523 -2.2420819 0.6934195 1.2553283

weight f4 [3, 8]
000000 51 83 8a 3f 08 37 8c bf 62 4d 81 3d e0 0c c0 be
       1.0821325 -1.0954294 0.06313588 -0.37509823
000010 d9 9a 84 3e 1f 0c 11 3e 30 1d 80 be 04 07 91 3e
       0.2589939 0.1416478 -0.25022268 0.28325665
000020 ce b5 24 bf 28 9f 4d 3f 17 dd cc 3e 9f aa c8 be
       -0.6433991 0.8032098 0.40012428 -0.39192674
000030 27 19 01 40 70 a3 f2 3e 01 a6 f1 bf fb 8a d8 3e
       2.0171602 0.47390318 -1.8878785 0.42293534
000040 ae dc 86 bf c4 d5 3d bd 17 a4 c3 3e 31 fe dc 3e
       -1.0536096 -0.04634644 0.38211128 0.43162683
000050 28 ec c9 be c4 78 47 3f f0 b5 de 3e a1 b1 a3 be
       -0.39437985 0.7791865 0.43498182 -0.31971458

weight f4 [5, 8]
000000 22 e1 9d bf 51 84 3e bf d5 14 ae be 58 c0 fb 3e
       -1.233433 -0.7442065 -0.3400027 0.49170184
000010 5c ff 44 3f 16 c8 35 3e 80 00 87 bf f6 b0 67 bf
       0.7695215 0.17752108 -1.0547028 -0.90504396
000020 47 09 73 be f9 fd 96 3f fa 10 39 40 3e 1b 15 40
       -0.23734008 1.1796256 2.8916612 2.3297877
000030 3f 21 24 be 9a 37 94 be 56 d4 2b be 33 d8 0e bf
       -0.16028307 -0.2894867 -0.16780218 -0.55798644
000040 ec af 2e 3d af 3a 93 bf dc bf 21 40 26 59 ad be
       0.04264824 -1.1502284 2.5273352 -0.33857077
000050 a1 24 08 c0 da bf 40 3f 94 21 38 3d 51 c9 bc be
       -2.1272357 0.7529274 0.044953898 -0.36872342
000060 db 0d b5 bf f8 f6 10 bf 6c ee 6b 3e e7 72 fe be
       -1.4144853 -0.56626844 0.2304017 -0.4969704
000070 e7 42 c5 3f 90 e4 eb 3e 72 31 ca 3e 98 20 75 bf
       1.5411042 0.46072817 0.3949085 -0.9575286
000080 ba ee 66 bf a2 bd 3c 3f 40 23 8f bf 64 3e 63 3f
       -0.9020802 0.73726857 -1.1182632 0.88767076
000090 47 90 97 be 37 45 86 bf 79 92 14 bf 58 6d f2 3e
       -0.29602262 -1.0489873 -0.58036 0.47349048

weight f4 [7, 8]
000000 68 0e 70 be bb d4 21 3f 0f a2 9c be ef 33 aa 3f
       -0.23442996 0.63215226 -0.3059239 1.3297099
000010 86 26 89 3e 74 f8 d3 3f 9a 1c e5 bd 07 60 81 be
       0.26787204 1.6560197 -0.11187096 -0.25268576
000020 e7 44 db bd 22 1e cf bf 18 89 6d 3e 4a f6 40 3d
       -0.107065015 -1.6181071 0.23196828 0.04710988
000030 ef d6 d2 be 2d 18 ac bf 57 f2 cc bd 45 be 1a bd
       -0.41179606 -1.3444878 -0.1000716 -0.03777911
000040 ed c7 a3 3e 79 d6 7c 3e b2 90 05 c0 d3 6a 3c bf
       0.3198847 0.2469119 -2.0869565 -0.736005
000050 59 c7 9a be be d0 5d be 1a f3 f6 be 43 17 4f bf
       -0.30230215 -0.2166166 -0.48232347 -0.8089487
000060 08 d1 4c bf a5 54 36 bf ad 47 bc be 9b 37 d7 3e
       -0.80006456 -0.7122291 -0.36773434 0.4203461
000070 74 85 47 3f 7f 6f 97 bc a1 89 64 3e 06 51 82 3f
       0.7793801 -0.018485783 0.22318126 1.0180976
000080 fa 69 02 40 4a 3c 5a bf 1d 97 39 3f 9f 62 a8 bf
       2.0377183 -0.85248244 0.72496206 -1.3155097
000090 9b af fe be 2e 20 b1 bf 15 d5 05 3f 39 82 87 bf
       -0.4974335 -1.3837945 0.5227826 -1.0586616
0000a0 d0 e0 f8 be 11 28 b4 bc ba 79 51 bf ef 21 d3 be
       -0.48609018 -0.021991761 -0.81826365 -0.41236827
0000b0 7f 85 38 3f b3 a5 60 3f ae bb fb bd 73 5f 0b 3f
       0.720787 0.87752837 -0.122916564 0.5444252
0000c0 bb 94 1b be fc 2a cd 3e b6 b5 51 3f 6a b4 96 be
       -0.15193455 0.40071857 0.81917894 -0.2943452
0000d0 24 fa b1 3f d9 7f 23 3f 6e ee 34 3f e2 cf e0 bf
       1.3904462 0.63866955 0.70676315 -1.7563441

weight f4 [7, 8]
000000 46 05 61 3f 86 98 8c 3f 9d 1b 56 3f 19 6e 98 3f
       0.8789867 1.0984046 0.83635885 1.1908599
000010 18 f0 82 3f 03 7f 5e 3e 2b 11 50 bf a2 96 ba 3e
       1.0229521 0.21728139 -0.81276196 0.3644305
000020 6f ff ae 3e 92 b9 7c bf b3 1d 58 3e 93 f4 93 3e
       0.34179255 -0.9872066 0.2110508 0.28897533
000030 da 76 e5 3e 27 46 d2 be 8a 25 58 3f 8e d0 71 bf
       0.4481724 -0.41069147 0.8443228 -0.94458854
000040 d4 60 4f c0 14 ee e4 be 15 b6 0f c0 7f 6b 26 bf
       -3.240285 -0.4471289 -2.2454884 -0.65007776
000050 35 8e b9 bf a5 a5 31 c0 46 de 80 3f fb 05 a6 3f
       -1.4496523 -2.7757351 1.0067832 1.2970575
000060 26 45 3f c0 7e 3c 1d bf f3 60 28 3f 49 0d c3 bf
       -2.9885955 -0.6142043 0.6577293 -1.5238429
000070 31 b3 e9 bf a7 ff 28 c0 33 91 f2 3f 15 d5 30 3d
       -1.825781 -2.6406038 1.8950561 0.04317196
000080 13 36 ce bf 56 58 5c 3f 7f a6 22 40 de 1a 20 be
       -1.6110252 0.8607229 2.541412 -0.15635249
000090 2e 31 03 3e 52 03 81 3f 44 aa 4a 3f ec 96 e7 3d
       0.1281173 1.0079138 0.79166055 0.11308083
0000a0 d5 10 b5 3f 01 81 55 3f e9 c1 6c 3f a8 a1 97 bf
       1.4145762 0.8339997 0.92483383 -1.1846209
0000b0 ed 18 dd be e6 26 2f bf 08 f5 c2 3e 06 bc b5 bf
       -0.4318308 -0.6841873 0.3807757 -1.4198005
0000c0 e0 9c 32 3d ff e7 c0 3f f9 fa ef be 3c 34 17 3f
       0.04360664 1.50708 -0.46871164 0.5906408
0000d0 e7 10 d1 3e 43 a8 94 3f be 94 16 3f 35 e6 5a bf
       0.40833208 1.1613849 0.5882071 -0.8550752

weight f4 [1025, 8]
000000 00 c4 ee 3d 04 49 40 bd 00 c5 53 3f d8 c4 9f bf
       0.11658478 -0.046944633 0.82722473 -1.2481947
000010 5a ca a5 bf 3d 32 37 bf c0 23 30 bd 58 29 c3 3e
       -1.2952378 -0.7156103 -0.043002844 0.3811748
000020 c8 51 0f be 34 1e 24 3f 7c d7 88 bf 08 ef a5 3e
       -0.13996041 0.64108586 -1.0690761 0.3240893
000030 6d d7 d8 3e 7c e8 f1 bf af 94 e4 3e 44 21 bd 3f
       0.42351857 -1.8899074 0.44644687 1.4775777
000040 d0 77 17 3e 44 5a 28 3f 82 6f 08 bd d2 b8 22 bf
       0.14791799 0.65762734 -0.033309467 -0.63563263
000050 da 82 af 3f a8 ed 5d be 50 6e ad 3f 4b cc 26 3f
       1.3711808 -0.2167269 1.354929 0.65155476
000060 1e dd c3 3f b0 ec e3 3f 26 fc 8b 3f 2a 6b da be
       1.5301855 1.7806606 1.0936325 -0.42659885
000070 e3 f5 49 bd 76 ab 5f 3f d5 37 43 bf 40 2d 7d bf
       -0.04930676 0.87371004 -0.7625707 -0.9889717
000080 01 55 13 3f 4a b7 b7 3d 38 1b 21 3e db 00 e1 bf
       0.5755158 0.089705065 0.1573304 -1.7578386
000090 26 a4 e2 be 14 49 bb 3e fd b1 b6 bf f1 6c f0 bf
       -0.4426586 0.36579192 -1.4273068 -1.8783246
0000a0 3c 29 0c bf ee e3 64 3e cd d7 02 3f 0e 02 ab bf
       -0.5475042 0.22352573 0.51110536 -1.3360002
0000b0 8a b5 ee bf d5 fb c7 bd f1 90 52 3f 19 56 14 3f
       -1.8649151 -0.0976483 0.82252413 0.57943875
0000c0 56 3e b3 3f 69 d3 3c 40 41 48 10 bf 19 8a a0 be
       1.4003398 2.9504035 -0.5636025 -0.3135536
0000d0 20 5f b1 bf 2f 4d 4b 3e 06 99 1b 3e b1 15 bb be
       -1.3857155 0.19853662 0.15195093 -0.36539987
0000e0 75 4f dd 3e 90 80 08 40 95 9f 7d be 3c 31 89 bf
       0.43224683 2.1328468 -0.24767907 -1.071815
0000f0 ee e4 c6 3d ef d1 10 c0 8b fe fd 3f 63 ec 9b 3f
       0.097116336 -2.2628133 1.9843305 1.2181515
000100 f8 26 b6 3e 78 50 a4 bf a3 b1 c3 3e e3 8a 14 40
       0.35576606 -1.2837057 0.38221464 2.320977
000110 ce 1a e2 3e 7b 58 e1 be 5a 06 dd 3e 7e 11 ab bf
       0.44161075 -0.44012818 0.43168908 -1.3364713
000120 e3 cd 51 bf 04 c6 c6 bf 8e 4b fa bf c6 ab 7a be
       -0.81954783 -1.552918 -1.9554307 -0.24479589
000130 96 43 e5 be aa 6d ce bf b7 da 9d 3e fd 73 f3 3f
       -0.44778126 -1.6127217 0.3083093 1.9019772
000140 a5 69 f6 bf 6e c0 10 3e c0 ab ab bf 96 73 95 be
       -1.925099 0.14135906 -1.3411789 -0.29189748
000150 4e 62 e7 3e aa 80 92 3f 51 50 8b bf bd 74 8c bf
       0.45192188 1.1445515 -1.0883886 -1.0973126
000160 4f 67 b1 be 69 36 c1 bd 4f f2 95 bf ea 00 c2 be
       -0.3464913 -0.09434206 -1.1714572 -0.37891322
000170 45 d0 78 3d 28 c6 98 3f f7 4f 7d be 5b 49 aa 3f
       0.060745496 1.1935472 -0.24737535 1.3303636
000180 5d d3 27 bf f6 24 d0 bf 9e 7f a6 3d 3c 8c 81 3e
       -0.6555689 -1.626128 0.0812981 0.25302303
000190 4b 6b e3 3e ed 70 37 3e e0 bf c7 be 4a 9d 41 3f
       0.44417796 0.17914172 -0.39013577 0.7563063
0001a0 5f 66 ce be 68 27 82 bf 0c 8b 2b 40 65 5a 17 3e
       -0.40312478 -1.0168276 2.6803617 0.14780577
0001b0 e9 ce 9a 3e cb aa d0 bf 3a 26 1e c0 d6 c1 33 bf
       0.30235985 -1.6302122 -2.4710832 -0.70217645
0001c0 df d3 fa bf e8 5e 9c 3e fc 37 61 bc 93 da e8 be
       -1.9595908 0.30541158 -0.013746258 -0.4547926
0001d0 ba 45 70 bf e2 cf b7 3e 41 f5 de 3c 59 7f d2 3f
       -0.93856394 0.3590079 0.027216556 1.6445113
0001e0 1b 8a 4c bf a7 1a 97 3e bf 3f 04 bf 04 63 6a be
       -0.7989823 0.29512522 -0.5165977 -0.22889334
0001f0 9d bc 14 bf ba 3e 12 be bf 41 c6 3d 3f b5 8f 3e
       -0.581003 -0.14281741 0.09680509 0.28067967
000200 73 8c 0a 3f 80 1b d1 bf 17 15 b1 be dc 48 22 3f
       0.5412056 -1.6336517 -0.34586403 0.63392425
000210 32 39 69 bf 3e 58 71 3e c8 a0 54 bf 33 46 75 3d
       -0.911029 0.23568818 -0.8305783 0.0598814
000220 2b 18 1d c0 b2 23 2f c0 dd 86 91 bf a8 85 b6 3c
       -2.4546 -2.7365537 -1.1369282 0.02228053
000230 97 5d c8 3f 99 01 2a bd 6a 5b 8b bf 50 25 8e bf
       1.5653561 -0.04150543 -1.0887272 -1.1105137
000240 53 69 37 bf 1e 04 34 3e 79 39 fb 3d 09 f9 b7 3f
       -0.71645087 0.17579696 0.122668214 1.4372874
000250 6e ff b5 be 46 42 88 3f da fb dc 3e c6 c5 68 3e
       -0.3554644 1.0645225 0.43160897 0.22731695
000260 27 be 4c 3f e2 cc 12 bf c5 16 44 bf fe 92 0b 3e
       0.7997765 -0.57343876 -0.76597244 0.13630292
000270 4c 32 1c bf 82 4e 13 c0 b0 4b 7d 3f 94 0e 19 c0
       -0.61014247 -2.3016667 0.98943615 -2.3915148
000280 90 64 53 3f 56 70 41 bf 5e dd 67 3f 9c 17 aa 3d
       0.8257532 -0.75562036 0.90572155 0.083052844
000290 3e b3 90 3f 8e 69 93 bf 88 94 29 3f 6c 89 26 3f
       1.13047 -1.1516588 0.66242266 0.6505344
0002a0 23 db ad bf ac f6 ee 3f f4 94 4e 3f 21 eb 6d bf
       -1.35825 1.8669028 0.80696034 -0.92936903
0002b0 1e 3c 11 bf 60 8d 09 c0 d7 8a 1d bf 1d b0 8f bf
       -0.56732357 -2.1492538 -0.6153998 -1.122562
0002c0 15 51 f4 be 92 f7 91 bd 5e f3 ac be b7 b4 2e 3e
       -0.4771811 -0.071272984 -0.33779424 0.17061125
0002d0 d8 d4 cb bf 9d c9 92 3f d7 13 0a 3f 37 56 e0 bf
       -1.592433 1.1467777 0.53936523 -1.7526311
0002e0 79 2a c2 be 61 d0 e9 bf 57 e8 8d bf a7 d3 9d 3e
       -0.3792303 -1.8266717 -1.108653 0.3082554
0002f0 46 75 e9 3e 5f 3a f1 bc 97 bc fa be ec 76 99 be
       0.45597285 -0.029446779 -0.48972008 -0.29973543
000300 b3 77 56 bf bb 03 bd 3e b6 3e 81 be a7 63 0b 40
       -0.83776397 0.3691691 -0.25243157 2.1779573
000310 f2 59 95 3f 6d 73 b4 3f dc 58 02 c0 31 3f 87 3f
       1.1668074 1.4097725 -2.0366735 1.056616
000320 e2 d6 94 3f 16 f7 10 40 df b8 1c 3f b9 3d 63 be
       1.1628077 2.265081 0.6121959 -0.22191514
000330 5c 10 7f 3d 3f 10 6c bd fc 2d f1 3e f5 38 00 40
       0.06227146 -0.05763268 0.47105396 2.0034764
000340 59 07 23 bf 06 30 ab 3e 98 9d fe bf ae be 4e 3f
       -0.63683087 0.33435076 -1.9891844 0.80759704
000350 1b 22 32 3e 2a 44 61 bf 8b 7f 30 3e 58 f0 68 bf
       0.17395823 -0.87994635 0.17236154 -0.90991735
000360 0d c6 46 3f c0 df 66 3f 52 85 42 bf d2 66 f9 bf
       0.7764595 0.90185165 -0.7598468 -1.9484503
000370 72 3f 61 bf e1 99 c6 bf bc 24 27 3f c5 3a e6 3e
       -0.87987435 -1.551571 0.6529043 0.44966713
000380 4c 42 3b bf 5d 5b b1 bf 7c 50 12 3f 8c 45 5e be
       -0.73148036 -1.3856007 0.5715406 -0.21706218
000390 17 25 4f bc a5 54 13 3e 9f 4e 8b 3e 33 20 2f bd
       -0.01264312 0.14387758 0.2720842 -0.042755317
0003a0 4f 6f cc be d9 a1 11 3f cb 29 86 3f 07 38 67 bf
       -0.39928672 0.56887585 1.0481504 -0.90319866
0003b0 47 a2 0f c0 68 0b 1d 3f bf 1e b0 3e fc 57 a8 3f
       -2.2442796 0.6134553 0.34398457 1.3151851
0003c0 37 69 de 3f 7a 82 b3 bf fb 8d 4e 3d d5 76 9e 3f
       1.7375859 -1.4024193 0.050428372 1.2380015
0003d0 1c c4 c0 3f 5c 2c 69 bf f1 b2 51 bf f1 d8 65 3f
       1.5059848 -0.9108331 -0.8191367 0.8978415
0003e0 53 62 78 3f 43 e2 15 3f 51 d8 da bf b5 a1 6d be
       0.9702503 0.58548373 -1.7097265 -0.23206218
0003f0 15 32 b5 3e 99 76 d5 be 66 43 ff bd 3e 1b 73 3f
       0.35389772 -0.41692045 -0.12464027 0.94963443

weight f4 [3, 8]
000000 6d 52 63 3f ba 46 1c 3e 40 e4 90 3d 4f 74 4d 3f
       0.88797647 0.15261355 0.07074785 0.802556
000010 64 69 ab bf f3 51 42 c0 7f 9f 8f 3f ec 8a f6 3f
       -1.3391538 -3.0362518 1.1220549 1.9261146
000020 98 35 9d bf 04 89 66 c0 5c ef 53 be b4 32 ca bd
       -1.228198 -3.6021128 -0.20696777 -0.09872952
000030 71 7f 12 be 55 91 65 3e e2 95 98 bf da 2e 01 c0
       -0.14306428 0.22418721 -1.1920741 -2.0184846
000040 68 83 48 bf ff 11 8d bf 01 97 13 bf 06 c0 a9 bf
       -0.7832551 -1.1021117 -0.5765229 -1.3261726
000050 e7 08 cd 3f 5f aa 85 bf 43 27 81 3f 01 66 c6 3f
       1.6018342 -1.0442618 1.0090107 1.5499879

weight f4 [7, 8]
000000 b2 01 75 be 34 24 a5 be 2c 2a f2 be 9e 63 c8 bf
       -0.23926428 -0.32254183 -0.472978 -1.5655401
000010 75 0f 52 3f 05 b4 28 3f 3b 5d dd 3e ef 3d 34 3f
       0.82054836 0.6589969 0.43235192 0.70407003
000020 b1 30 80 3e 63 e9 03 bf a5 78 b8 bf 48 13 f8 3e
       0.2503715 -0.51527995 -1.4411818 0.4845221
000030 8f da 9b be 1f eb a9 3b a0 42 51 3f 46 0b cb be
       -0.30440184 0.0051854993 0.81742287 -0.39657038
000040 9d c3 21 40 77 91 03 40 21 cc 86 3f f9 7b 33 bf
       2.5275643 2.0557535 1.0531045 -0.7011104
000050 e2 a6 3e bf e4 49 3e bf 13 1e c8 bf f1 42 81 bf
       -0.7447339 -0.743315 -1.5634178 -1.0098554
000060 e1 08 aa 3e 9f 16 31 3f 94 c8 9e bf 86 b7 d8 bf
       0.332099 0.6917514 -1.2404962 -1.6931007
000070 0a 04 f0 bf bd 82 e5 be 53 90 99 bf 8b 4c ef be
       -1.8751233 -0.44826308 -1.1997169 -0.46738085
000080 ba 55 89 3f 2d 98 83 3f 6c 6d 6d bf 35 9f bf bf
       1.0729287 1.0280815 -0.9274509 -1.4970461
000090 c8 e5 73 bf c7 83 9c bf ab 1a ca 3f 98 46 49 40
       -0.95272493 -1.2227715 1.5789388 3.1449337
0000a0 0c b3 8d 3f 96 d0 06 bf d5 ed c3 bd 0b b8 11 3e
       1.1070266 -0.52662027 -0.09566847 0.14230363
0000b0 ff a9 43 be e3 1b c2 bf ad 46 76 3f ad 42 11 bf
       -0.19107817 -1.516476 0.9620159 -0.56742364
0000c0 f3 30 1c bd 4a b8 c3 be 6d b8 6d bf 61 37 2b 3f
       -0.03813262 -0.3822654 -0.92859536 0.66881377
0000d0 b4 a5 af 3e 13 f8 3a bf e8 b5 09 3f 8a a2 1f 3f
       0.3430611 -0.7303478 0.5379319 0.6235739

weight f4 [7, 8]
000000 bc bc c8 bc 45 61 cd 3f de ca 8d bd 56 78 43 be
       -0.024504058 1.6045309 -0.069234595 -0.19088873
000010 bb cf ac 3c 0b e8 8c bf d7 e1 28 bf 33 b6 61 3d
       0.021095147 -1.1008314 -0.65969604 0.0551054
000020 c6 14 ab 3f 09 62 43 be 9b 1f bd 3e ea e1 f4 3e
       1.3365715 -0.19080366 0.36938176 0.4782861
000030 bc 97 fa be 99 7c 7e bf fa 89 c7 3f ac b7 86 bf
       -0.4894389 -0.9940887 1.5588982 -1.0524802
000040 e3 4a 11 3f 05 f0 2f 3f 82 0c 78 bf cc a7 0c be
       0.56754893 0.68725616 -0.96894085 -0.13735884
000050 ca 8a a7 3e f9 15 a8 3e 58 c4 ca 3e 2e b3 86 3f
       0.32723075 0.32829264 0.39602923 1.0523431
000060 34 81 e9 3e 92 e2 52 bf e8 29 ad bf 3b 57 60 3e
       0.45606387 -0.8237697 -1.3528414 0.21908276
000070 a2 03 06 c0 ba 6f 08 40 0a ea 92 bf 8c 09 33 bf
       -2.0939717 2.1318192 -1.1477673 -0.6993644
000080 37 d0 c1 3f 88 81 d1 3f ba e0 e6 3f 49 f4 39 bf
       1.5141667 1.6367655 1.8037331 -0.72638375
000090 e6 5e aa be c6 e0 63 bc 6e b2 4a bf fe 2c 9a 3e
       -0.33275527 -0.013908571 -0.7917851 0.3011245
0000a0 a2 bf 18 be aa 2e 93 bd 43 db 90 3e 0f 36 bb be
       -0.14916852 -0.07186635 0.28292283 -0.3656468
0000b0 be 6b 5c bf 40 50 b3 3f ed 89 12 3e 95 ea d7 3c
       -0.861019 1.4008865 0.14310427 0.026356975
0000c0 d2 74 00 bf 2f be 18 bf e1 a3 36 bf 18 fc 6f be
       -0.50178254 -0.596652 -0.7134381 -0.2343601
0000d0 9c 74 41 be b1 41 8f 3e de a5 a3 3f 4b e7 38 3e
       -0.18892139 0.27979806 1.2784994 0.18056981

weight f4 [3, 8]
000000 cf 26 09 40 3e 41 06 3f 4e 65 d5 be 03 5e c8 3f
       2.1429937 0.524433 -0.41678852 1.565369
000010 9b 71 22 3f fc 75 49 3c 66 62 31 c0 72 58 09 3e
       0.634546 0.012296196 -2.7716308 0.13412645
000020 34 23 7f bf 13 87 e7 be 50 e6 b5 bf cf 4b 02 bf
       -0.9966309 -0.4522024 -1.4210911 -0.50896925
000030 9e f8 d7 be 9f b3 6f bf a3 55 99 be f2 bf 46 bf
       -0.42181867 -0.93633455 -0.29948148 -0.77636635
000040 37 8e bf be 28 1a 63 3a 07 99 92 3f cf 95 f6 3e
       -0.3741319 0.00086632604 1.145295 0.4816117
000050 84 a7 0f c0 cc 30 85 be e1 60 92 3f 76 11 09 bf
       -2.2445993 -0.26013792 1.1435815 -0.5354227

weight f4 [427, 8]
000000 1f 05 06 c0 10 38 d9 bf 6a 78 49 3f ad d4 1c bf
       -2.0940626 -1.6970234 0.7869936 -0.6126202
000010 cb 53 0a 3e 8c 27 e5 bd 27 2b c3 3e 1f 23 be 3f
       0.13508527 -0.111891836 0.3811886 1.4854468
000020 b1 05 2b bf d0 9b 7a 3f 7c 84 7f 3f 81 a8 0c c0
       -0.6680556 0.97894 0.9981153 -2.1977847
000030 c8 f8 d3 bf 29 ca ef 3f 54 0c bf bf 6f 67 1e 3f
       -1.6560297 1.8733569 -1.4925637 0.6187658
000040 19 2a 89 bf cb 2e 47 3e cd 79 8f 3f 25 05 9b be
       -1.0715972 0.19451444 1.1209046 -0.30277362
000050 34 ce 86 be fc 10 8e be 38 c7 08 bf 0e 40 f4 3e
       -0.26329195 -0.27747333 -0.53428984 0.4770512
000060 6d 7e ca 3f 4b ce a3 be 77 c0 d3 3e ac ce 12 bf
       1.5819832 -0.31993327 0.41357777 -0.57346606
000070 c9 04 e1 bd c4 47 30 3e 0d d8 15 bf 45 24 0d bf
       -0.10987241 0.17214876 -0.5853279 -0.5513347
000080 be c2 3c 3f 99 61 00 3e 74 e7 51 3c 86 7e 1d 3e
       0.73734653 0.1253723 0.01281153 0.15380296
000090 c9 c8 35 3d 5f d2 ce 3f b0 2f b1 be 14 86 18 40
       0.044380937 1.615795 -0.34606695 2.3831835
0000a0 f9 18 13 bf e3 1b ff 3d fd c9 3e 3f 4a da 59 3f
       -0.5745998 0.12456491 0.7452696 0.8509871
0000b0 03 bc 2b bf 15 c4 ba bf e6 7a 8d 3f d6 e8 76 bf
       -0.6708376 -1.459109 1.1053131 -0.9644903
0000c0 bc a5 8b 3e b2 e3 52 bf f9 d2 27 3f 63 ec 12 bf
       0.27274883 -0.82378685 0.65556294 -0.5739195
0000d0 a0 35 85 3f 70 8a 6a bd 5c b7 55 3f 09 87 11 c0
       1.040699 -0.05726093 0.8348291 -2.273867
0000e0 36 b4 55 3f 77 20 06 40 47 53 60 3e 32 d5 fb 3f
       0.83478105 2.0957315 0.21906768 1.9674437
0000f0 b1 bc cc 3f c3 78 96 3f 28 f3 e6 bf dc cb 47 3f
       1.5995084 1.1755604 -1.8042955 0.7804544
000100 03 a8 27 bf 22 bf 91 bf 1a 9b 0f bf 97 9b 5e 3e
       -0.6549074 -1.1386454 -0.5609604 0.2173904
000110 cf 8a 8f bf 9a 85 ab bf fc 0c a5 3e 02 4b 97 3f
       -1.1214236 -1.3400147 0.3223647 1.1819766
000120 39 0b fd 3d d2 26 13 bf 9b b3 37 3f 5b f0 ab 3f
       0.12355656 -0.5748111 0.7175843 1.3432726
000130 b1 3e c1 bd 95 58 ce 3f 0b 70 2f 3c 20 26 88 3f
       -0.094357856 1.6120783 0.0107078655 1.0636635
000140 f5 f7 54 bf 14 56 a7 be ce 12 54 3f cd 04 b0 3f
       -0.8319085 -0.3268286 0.82841194 1.3751465
000150 e1 e4 80 be 4f 40 b3 3f a3 4b 9d be df b7 9b 3f
       -0.2517462 1.4004 -0.3072177 1.2165488
000160 14 2e c6 be 19 07 22 bf dd a2 d4 3e e1 81 45 bf
       -0.3870703 -0.6329208 0.41530505 -0.77151304
000170 8e 22 54 3f 7a 8b 68 3f 0f 48 0d bf 4d a1 e4 3f
       0.82865226 0.90837824 -0.5518808 1.7861725
000180 e4 96 66 be 82 50 7f 3f 3a c3 62 3e d9 77 86 bf
       -0.22518498 0.9973222 0.22144786 -1.0505325
000190 e6 96 0c 40 b6 8e 73 3f 64 90 a4 3f bf d9 af bf
       2.19671 0.95139635 1.2856565 -1.3738326
0001a0 91 1f 14 bf 71 40 aa bf 41 ec ad 3f c4 37 7f 3f
       -0.57860667 -1.3300916 1.3587724 0.99694467
0001b0 fa ea 95 3f b2 9c 8e 3f 35 fa f8 3e c3 d8 d8 bf
       1.1712334 1.114157 0.48628393 -1.694115
0001c0 f1 94 2f 3e b1 a5 2b 3f e6 47 2f 3f 17 1c 2e bf
       0.1714666 0.670497 0.68469083 -0.6801161
0001d0 61 57 85 3f dd d5 f5 be 24 56 08 3c f3 a4 02 3e
       1.0417291 -0.48014727 0.008321319 0.12758236
0001e0 78 e5 a1 3e a9 e8 3b c0 ba 6a d0 3f 55 7a 09 40
       0.31620383 -2.9360754 1.628257 2.1480916
0001f0 a3 38 e1 3f 8d c3 32 bf 0f 20 b7 be 8d 38 96 bf
       1.7595409 -0.69829637 -0.35766646 -1.1736008
000200 90 ec 38 3e e5 f4 bc be 17 0f 16 bd cc 9a af 3f
       0.18058991 -0.3690559 -0.036635485 1.3719115
000210 21 a0 06 3f 75 01 eb 3e 3f 1b 1c 3d b0 c5 2a 3f
       0.5258809 0.4589955 0.03811192 0.667079
000220 82 70 00 c0 4a 78 76 be 64 4a 77 3f e0 14 3f 3f
       -2.006867 -0.24069324 0.96597886 0.7464123
000230 5b de 8d be f9 52 24 bf 7d da 8e be 53 48 1c be
       -0.27708706 -0.64189106 -0.27901068 -0.15261964
000240 27 9e 11 bf 57 11 c6 bf 2d 75 18 c0 87 71 9a 3f
       -0.56881946 -1.5474042 -2.3821518 1.2065896
000250 9c f4 bd bf b1 5f 93 3f 52 2f b4 3f 69 52 4a be
       -1.4840274 1.1513578 1.4076941 -0.19758
000260 c9 e0 32 be 10 a0 8a 3f a1 ce 8a 3e 84 df ff bf
       -0.17468561 1.0830097 0.2711077 -1.9990087
000270 4d 51 a3 3f 32 a9 ec 3f fb 4d 55 be dd 0d 81 bf
       1.2759186 1.8489134 -0.20830528 -1.0082356
000280 f9 3b 9e 3f bb 65 aa bf 46 df c8 bf 71 f1 1e 40
       1.2362052 -1.3312296 -1.5693138 2.4834864
000290 16 98 49 be 24 7d 09 bf be 29 41 3d 42 52 95 3f
       -0.19686922 -0.53706574 0.04715895 1.1665728
0002a0 1e 42 11 40 47 c6 78 3f 80 38 cc bf 9f d2 16 bf
       2.2696605 0.9717755 -1.5954742 -0.5891513
0002b0 4d f9 a5 be b7 5e 8c 3f 1f 3c 45 3f 0b 9b 0c 3f
       -0.32416764 1.0966405 0.7704486 0.54924077
0002c0 ed 84 fe 3f 6a fc 92 3f 4d 48 1e 40 eb 37 e5 3e
       1.9884316 1.1483281 2.473163 0.44769225
0002d0 71 70 89 bf a3 8b 24 bf 9d 0a 08 3f 85 21 20 40
       -1.0737439 -0.6427557 0.53141195 2.5020459
0002e0 f6 ad d7 3e 86 35 e4 3e 29 4d 93 3e 25 9b 89 3f
       0.4212491 0.44572085 0.28769806 1.0750471
0002f0 53 fb d0 bd 84 94 53 3f 50 65 9f be 7d c7 2f 3f
       -0.10204186 0.8264849 -0.31131983 0.6866377
000300 f5 17 e0 3e 8c 72 e8 be 5e 48 8a be 3f 6c f0 3f
       0.43768278 -0.45399892 -0.27008337 1.8783034
000310 50 38 10 c0 90 e4 4f c0 ca 77 c7 bf df ab 4b 3f
       -2.253437 -3.2483253 -1.5583432 0.7955913
000320 57 d5 d2 bf 4c 11 9f bc 39 2a d7 bd fc 85 4a bf
       -1.6471356 -0.019417427 -0.105061 -0.79110694
000330 f0 e2 f9 3d f0 10 55 3f 16 78 f3 be 4a 03 c1 bd
       0.12201488 0.8322897 -0.47552556 -0.094244555
000340 e9 17 07 3e 44 26 6a 3e b4 ba 34 3f 8a 7a e9 3f
       0.13192715 0.2286616 0.70597386 1.8240521
000350 c8 fb 58 bf 72 10 a4 be a2 3c c3 bf 6e 06 4b bf
       -0.8475919 -0.32043797 -1.5252879 -0.79306686
000360 e2 94 1c 40 e2 36 cd bf f6 02 d4 3f 64 93 b0 3f
       2.446587 -1.6032374 1.6563404 1.379498
000370 33 21 84 bf 85 be 47 bf 7f 3f bc be 88 65 85 3f
       -1.0322632 -0.78025085 -0.36767194 1.042161
000380 5a 34 f1 3f 79 82 fe bc c1 ff 8d bf 4a c1 b7 be
       1.8844101 -0.031068074 -1.1093675 -0.35889655
000390 a8 7c 47 be 54 99 2b 3b 74 43 83 bf ce e4 5a bf
       -0.19481146 0.002618392 -1.025496 -0.8550538
0003a0 7c d6 82 bf 0a d5 ba bf 0c f0 2c bf c5 19 3d 3e
       -1.0221705 -1.4596264 -0.6755378 0.18466862
0003b0 a6 d2 7d 3d e5 f2 f9 bf ac 46 ea 3f b9 e7 bd be
       0.061968468 -1.952725 1.8302817 -0.37090853
0003c0 ff 51 1b bf ac c9 54 bf ee 0a 44 3e 08 7d c8 bf
       -0.6067199 -0.83120227 0.19144794 -1.5663157
0003d0 d9 d6 9d 3e 66 a9 d8 be 73 23 99 3f cb 4d 9d bd
       0.30827978 -0.4231674 1.1963943 -0.076808535
0003e0 37 75 9b 3f 9e 80 92 3e f3 aa be 3e f9 2b 89 3f
       1.2145146 0.28613752 0.372398 1.0716544
0003f0 82 5a bd 3f 9b 4b e6 bd ba 82 c1 bf 6e 85 81 be
       1.4793246 -0.11244889 -1.511802 -0.2529711

weight f4 [1030, 8]
000000 68 45 36 3f 37 b4 85 3f aa 6e a6 bf 66 29 8d bf
       0.71199656 1.0445622 -1.3002522 -1.1028259
000010 bf 0f 10 be 41 18 6b bf 73 67 e0 3f bb 62 03 bf
       -0.14068507 -0.91833884 1.753157 -0.51322526
000020 e0 9a cb bf af 9e c9 bf bd db c6 3f dc 8b 51 3f
       -1.5906639 -1.5751551 1.5535809 0.81854033
000030 1a eb d5 bc 9a b9 a0 bf 9e 69 a5 3f 79 2d 96 be
       -0.026113082 -1.2556641 1.2922857 -0.29331568
000040 6b 24 f1 be 71 f5 3b bd d2 cc a0 3f 7e cd 97 3f
       -0.47098097 -0.045888368 1.2562506 1.1859586
000050 a6 1d 2b 40 c7 51 4a bd a1 0a 66 be 47 51 ce bc
       2.6736846 -0.049394395 -0.22464992 -0.02518524
000060 8c a7 49 3f 04 c3 ae 3f c3 99 34 3f 8e cc 75 3e
       0.7877128 1.3653264 0.7054712 0.24003813
000070 1d 05 fd bf 7b 06 a7 be 66 ba 23 be fa 99 9f 3e
       -1.9767185 -0.32622132 -0.15989074 0.31172162
000080 45 c2 96 3f 03 84 a2 bf 66 13 3d 3d c2 f9 d7 3e
       1.1778036 -1.2696537 0.046161078 0.42182738
000090 f2 3d 96 bd 78 94 5a 3e 81 27 5d bf 48 22 32 bf
       -0.07336034 0.21345699 -0.86388403 -0.6958356
0000a0 ae f8 04 c0 4f dd 63 bf d6 cc 13 3f c5 1e 19 3f
       -2.0776782 -0.89009565 0.5773443 0.59812576
0000b0 75 1b ef 3d 63 e8 07 c0 c4 4e cb 3f 1d 59 a7 bf
       0.11675159 -2.1235588 1.5883412 -1.307407
0000c0 a7 a2 81 bf 11 d7 55 be e8 50 b1 3e 4b dc 8a 3f
       -1.0127763 -0.20882823 0.3463204 1.0848478
0000d0 a1 e1 a4 3f e7 e4 fa bd 14 6c 90 be 1e d7 4d bd
       1.2881356 -0.12250691 -0.28207457 -0.05025398
0000e0 31 1d 4c 40 44 66 81 3c b6 85 81 bf 9f 19 44 3f
       3.1892817 0.015795834 -1.011893 0.76601595
0000f0 76 bd 8c bf 32 d3 f5 3e 8b 7e 9c 3f 80 f9 30 bf
       -1.0995319 0.48012692 1.2226118 -0.69130707
000100 58 a1 21 3c 3b 20 1c bf b7 f3 88 bd 5d f8 74 be
       0.0098651275 -0.6098668 -0.0668711 -0.23922868
000110 58 f2 6d c0 0f b4 1f 3f 5d e4 6c bf 18 9a 99 be
       -3.7179165 0.6238412 -0.92535955 -0.30000377
000120 34 6f 51 40 dd 87 a8 3e b6 c2 ba 3f 5c 1d 4b bf
       3.2724123 0.32916155 1.4590671 -0.79341674
000130 70 47 ad bf 98 82 6b 3e 38 1a 22 3e 74 38 85 3f
       -1.3537426 0.22999036 0.15830314 1.0407853
000140 e0 0e 30 3f 70 1d a7 bc 18 44 7e 3e 9d 9a e2 3f
       0.687727 -0.02039978 0.24830663 1.7703434
000150 7b 92 94 be a1 55 d8 be cd e2 df 3e 5f f3 f8 bd
       -0.29018006 -0.4225283 0.43727723 -0.12155794
000160 8f cc 38 40 66 a9 7c bf aa eb 45 3e 5b d7 0f 3f
       2.8874853 -0.9869598 0.1932818 0.5618798
000170 5d d6 e8 3f 0f d8 65 be 7b 0a dc be 75 a7 68 be
       1.8190418 -0.22445701 -0.42976746 -0.2272013
000180 5f a4 37 bf 6f 20 79 bf 52 e3 3a 3f 2a 48 d7 be
       -0.71735185 -0.97315115 0.73003113 -0.42047244
000190 73 79 0c 3f 9a ba a7 bf 38 ec 22 bf 65 a5 9d 3e
       0.54872817 -1.3103821 -0.6364169 0.3079025
0001a0 4c 62 2e bf de 5d 7e 3f c4 19 06 c0 fb c3 9a bf
       -0.6811874 0.9936198 -2.0953226 -1.2091058
0001b0 88 88 c6 bf a0 00 f2 3d ae 33 29 bf e0 36 c7 3e
       -1.5510416 0.118165255 -0.6609448 0.38909054
0001c0 69 4e 4d 3d 92 0d 23 3f 02 cb a7 3e 47 f9 b5 3f
       0.050123606 0.6369258 0.3277207 1.4216698
0001d0 1e 49 0b 3f d9 42 e1 3f 2b b6 a2 3f 23 80 86 3e
       0.5440844 1.7598525 1.2711843 0.26269636
0001e0 e8 a2 60 3f 9c 8e 1e bf de 24 28 3f f8 4d 04 3f
       0.87748575 -0.61936355 0.65681255 0.5168147
0001f0 cb 03 98 3e ce 66 01 3f b9 2e 41 be a2 c8 29 3f
       0.29690394 0.5054749 -0.1886548 0.66321766
000200 63 25 1f c0 a0 ca dc bf 54 02 90 3f b3 d3 6e bf
       -2.486657 -1.7249336 1.125071 -0.9329178
000210 61 15 ad 3f e7 4f 17 40 1e fb 3f bf b9 fa ab bf
       1.3522149 2.3642519 -0.7499255 -1.343589
000220 05 60 94 be dd da 34 bf 61 87 c6 be e0 10 c3 3d
       -0.28979507 -0.7064646 -0.3877516 0.09524703
000230 4b 34 af 3d 53 3f 93 3d 80 12 9c 3d db a2 bf be
       0.08554896 0.071898125 0.07620716 -0.37428936
000240 44 24 d5 3e 65 4d 9d 3f b5 1d 84 bd 5d c6 99 3f
       0.4162923 1.2289244 -0.06450979 1.2013661
000250 b1 9a 94 3e 14 0f 1c bf 69 43 b2 bf 07 b3 21 be
       0.2902427 -0.6096051 -1.3926822 -0.1579095
000260 b4 8b 40 3e a2 dc 01 40 ea 3d 54 bf 61 d8 fe be
       0.18803293 2.0290914 -0.82906973 -0.4977446
000270 64 3d e4 3f 52 db 49 3f 2b bd 22 bf ee 49 ff 3f
       1.7831235 0.7885028 -0.635699 1.9944437
000280 37 f2 78 3f 1e ea 12 c0 ff 65 44 3f b6 48 02 3f
       0.9724459 -2.2955394 0.76718134 0.508922
000290 95 bc d1 3c 02 e1 26 bf d2 3f fc be b8 f6 22 3f
       0.025602618 -0.65187085 -0.4926744 0.6365771
0002a0 e4 bc 00 c0 4e 29 aa 3f 05 b8 89 be f5 d7 21 3f
       -2.011529 1.3293855 -0.26898208 0.6322015
0002b0 69 45 85 3f ce 16 d0 bf 2f 45 d3 bc b9 2d 99 be
       1.0411807 -1.625696 -0.025789825 -0.29917696
0002c0 21 66 4a bf 56 73 7a bd f0 f0 b9 be 7c 00 09 40
       -0.79062086 -0.06114515 -0.36316633 2.1406546
0002d0 06 45 2e bf d7 93 2a bf 0b 0f 41 3f a2 76 a6 be
       -0.6807407 -0.66631836 0.7541358 -0.32512385
0002e0 f7 3f f9 bf 60 9d 96 bf 95 ca 0f bf 02 a7 2d 3f
       -1.9472646 -1.1766777 -0.5616849 0.6783296
0002f0 bf e5 6d 3d 6b 46 af 3e 5a cf cc bf 73 61 6f 3f
       0.05808043 0.34233412 -1.6000779 0.9350807
000300 8a 65 81 be a8 b2 ad be 0f 1e a1 be d9 8d ea bf
       -0.2527278 -0.33925366 -0.31468245 -1.8324538
000310 5b df b2 bf 14 be 5b bf a4 af d5 be f2 c7 02 40
       -1.3974413 -0.8583691 -0.41735566 2.0434537
000320 6f 3f d6 be 54 33 ca 3f c3 8d 16 3f 36 44 5e bf
       -0.4184527 1.5796914 0.5881006 -0.8682283
000330 7b 7b cd bf 2f 32 60 3f 2d d0 21 bf 2e 35 ab be
       -1.6053308 0.87576574 -0.63208276 -0.3343901
000340 43 e7 c9 3f c2 79 a9 bf cb a2 f5 be b6 ab 59 3e
       1.57737 -1.3240283 -0.47975764 0.21256909
000350 ba 18 5d 3e 0c c0 f4 3f 6f da 88 bf 13 5c 8e bf
       0.21591464 1.9121108 -1.0691661 -1.1121849
000360 d5 e1 ad bf 73 2e 18 bf d3 09 fb 3e 36 16 6a bf
       -1.3584543 -0.59445876 0.49030933 -0.9144014
000370 2b 18 47 bf bd 88 01 3f 68 89 81 bf 77 dc fb bf
       -0.7777125 0.5059927 -1.0120058 -1.9676656
000380 7f 42 6d bf ff a3 0f 3d 97 9b 0d c0 50 98 a5 bf
       -0.9267959 0.03506851 -2.2126215 -1.2937107
000390 94 cd 28 3f 60 53 c7 3f 0f 92 03 3f 17 da 00 40
       0.6593869 1.5572319 0.5139474 2.0133111
0003a0 02 cc a6 be f6 78 50 3f cc 14 9a be 2e 65 ab bf
       -0.3257752 0.8143457 -0.30093992 -1.3390253
0003b0 1e 4b 7b bf ff 4a 5a 3f 8d ae 17 40 58 4b b5 bf
       -0.98161495 0.85270685 2.3700287 -1.4163618
0003c0 8a 94 44 be 2d 0a 45 3f d0 c0 84 bf a4 b2 5a bf
       -0.19197288 0.7696865 -1.0371342 -0.85428834
0003d0 f2 48 ee 3e f6 9c 3a bf b6 d6 b5 3f 65 19 fa bf
       0.46540028 -0.72895753 1.420615 -1.9539
0003e0 cc fc 93 be 19 01 b0 3d be c1 11 3d 13 f5 3b be
       -0.28903806 0.08593959 0.035585158 -0.18355207
0003f0 b4 23 e2 3e b4 0f 1d bf 30 ed 77 bf d6 75 8c be
       0.44167864 -0.61352086 -0.96846294 -0.27433652

weight f4 [7, 8]
000000 6d c5 0c 3d 23 49 78 bf 12 1c 71 3d 8d b4 ac bf
       0.034367967 -0.969866 0.05886466 -1.34926
000010 a7 03 6b 3f 99 ed a4 3d 58 98 02 c0 36 01 1f 3d
       0.9180245 0.08053131 -2.0405483 0.038819514
000020 7c ac 14 3f ee 20 5a 3f 55 65 12 40 c0 20 4a 3f
       0.5807569 0.85206497 2.2874348 0.7895622
000030 ff dc eb 3c 34 33 44 bf 11 1a 55 be 1c 4e 7a 3f
       0.028791903 -0.7664063 -0.20810725 0.97775435
000040 6b 15 07 c0 0f f5 03 bd cb 66 93 bf 4f ff 22 3e
       -2.1106822 -0.032216128 -1.1515745 0.15917705
000050 7a 18 0d be 1f 55 c5 3f bb 74 0f 40 a7 e8 ad 3e
       -0.13778868 1.5416602 2.2414997 0.33966562
000060 be dd cd bf 43 c0 3b be 2b f7 b8 3d 41 bb be be
       -1.6083295 -0.18335061 0.090315185 -0.37252238
000070 3e ec 72 be b7 7f b1 bf 8e a2 b1 be 03 35 7a 3f
       -0.23722932 -1.38671 -0.34694332 0.9773714
000080 f0 5e cf 3f 50 c8 a7 bf f7 b1 96 be 7a 6c c0 bd
       1.6200848 -1.3108006 -0.2943265 -0.0939569
000090 d9 1c f9 be 78 7a 60 bf 4f 0b 0b bf ef 56 ef 3f
       -0.48654822 -0.8768687 -0.5431413 1.8698405
0000a0 52 25 06 3f d9 34 97 bf 26 8c 9a be a9 6a db 3f
       0.52400696 -1.1813003 -0.3018505 1.7141925
0000b0 1a 72 15 bf 16 51 bb 3e 62 b0 20 3d ec de d2 bf
       -0.5837723 0.365853 0.03923071 -1.647428
0000c0 7f cd 9a bf 64 bf 29 be 1d 94 4a be 30 ac b8 be
       -1.2093962 -0.16576916 -0.19783063 -0.3606887
0000d0 93 6d 3b bf 6d 7d 81 bf fd 8c 63 bf 88 b3 e1 3f
       -0.7321407 -1.0116402 -0.88887006 1.7632914

weight f4 [7, 8]
000000 d3 29 25 3f cf 24 64 3f 46 73 9e 3e 76 0f 2b 3f
       0.64516944 0.89118665 0.30947322 0.66820467
000010 5a 17 95 be 55 3c 68 3f fe b2 a1 3e 1d 5b c2 3f
       -0.29119378 0.9071706 0.31581873 1.5184056
000020 ff 43 79 3d 6d 61 9a be 68 ee c1 be 45 93 bf be
       0.06085586 -0.30152455 -0.37877202 -0.37417045
000030 b1 9d ff be 39 4d 3d 3f 82 aa d0 3f 38 fb 23 bf
       -0.49924996 0.7394596 1.6302035 -0.64055204
000040 0f f8 21 3e b7 01 d2 3f a7 d8 9d 3e eb 6b a4 bf
       0.15817283 1.6406773 0.30829355 -1.2845434
000050 48 54 39 3f 1b a1 c0 3f 7e 32 c1 bf 03 fb aa be
       0.7239423 1.5049165 -1.5093534 -0.33394632
000060 cd 71 11 3f 5f d3 d9 3e 10 97 4f 40 44 ec 9a bf
       0.5681427 0.42544076 3.2435951 -1.2103353
000070 0b 3b 11 c0 91 79 f7 3f 23 39 04 c0 f9 8e 0f bf
       -2.2692287 1.9333974 -2.0659873 -0.56077534
000080 d0 59 a4 3e 83 d0 04 3d d4 8b ad bf 9e 6e 85 be
       0.32099771 0.032425415 -1.3558297 -0.26060957
000090 98 fd 9d bf 86 ff 6a be 6e 81 3a be 91 be 04 3f
       -1.2343016 -0.22949037 -0.18213436 0.5185328
0000a0 09 4d 83 be 8f b8 90 bf af 49 06 3f 28 3e dc 3e
       -0.2564471 -1.1306323 0.5245618 0.4301617
0000b0 27 41 27 3f 6f f9 1d bf 18 de 72 bf de b0 96 3e
       0.6533379 -0.6170873 -0.9487014 0.29431814
0000c0 56 f8 94 3d b0 02 62 3f 9f da 37 3f 72 83 26 c0
       0.07273929 0.8828535 0.71817964 -2.6017728
0000d0 84 4f 08 be ce 47 98 3e 46 94 d9 be 7b c7 09 40
       -0.13311583 0.29742283 -0.42495936 2.1528003

weight f4 [7, 8]
000000 fb 2b 9b 3f 7f 6e 56 3e ec 50 0b 3d a4 1d d2 3f
       1.2122797 0.20940588 0.03401272 1.6415296
000010 21 92 98 bd 68 8c 0e 3e 71 8f 77 3f 93 ad 80 bf
       -0.07449747 0.13920748 0.9670325 -1.0052971
000020 16 8f 66 be 1f 4b 0e 3f 08 75 1d 3e 6c d0 ff 3c
       -0.2251552 0.55583376 0.15376675 0.031227313
000030 2d d0 92 be a8 5b d3 3e 3f de a5 bd 15 50 6e bf
       -0.2867445 0.41280866 -0.08099031 -0.93090945
000040 b8 2c c6 be b8 a1 26 3e c6 58 32 3f 45 2c 7d bf
       -0.38705993 0.16272628 0.6966671 -0.98895675
000050 70 a5 81 bd a7 72 0b 3f 29 36 71 be b4 53 38 3f
       -0.06330383 0.5447182 -0.23555817 0.7200272
000060 47 9b c4 be 22 23 20 bf 53 fa ea 3e 34 ef a6 bf
       -0.38399717 -0.6255361 0.45894107 -1.3041749
000070 b0 eb cc be 71 b0 50 bf a4 b5 a8 be 9c 2f ce 3e
       -0.40023565 -0.8151923 -0.3295108 0.40270698
000080 a4 28 13 3f a1 73 f5 be fb a5 fe be 2e 14 4f 3f
       0.5748389 -0.4793978 -0.49736008 0.80890167
000090 ca 72 aa bf 7b 2a 7d 3f aa bc a5 be 8a b7 28 3f
       -1.3316281 0.98892945 -0.32370502 0.6590506
0000a0 b6 1c a3 bf a6 cb a6 3f 99 37 c6 3f c5 53 9e be
       -1.2743137 1.3030899 1.5485717 -0.30923286
0000b0 c7 a0 50 3d de 70 1f bf 6b 53 5e 3f 44 da 13 bd
       0.05093458 -0.62281597 0.86846036 -0.036096826
0000c0 c4 b8 03 c0 81 3c 8f be fc e6 6e bf 07 e2 be be
       -2.0581522 -0.27975848 -0.93321204 -0.3728182
0000d0 4e 9b ba bf 8e 05 b9 bf ec 07 30 bf 09 39 ae bf
       -1.4578645 -1.445482 -0.6876209 -1.3611156

weight f4 [6, 8]
000000 ae 9a b9 be b3 f8 26 bf 57 00 14 3f 99 e9 0f bf
       -0.36250824 -0.65223235 0.5781302 -0.56215817
000010 ac c8 c5 3e b1 c1 b9 bd 25 38 6d bf 1b ce d6 3f
       0.38629663 -0.09070147 -0.92663795 1.6781648
000020 24 2d dc bd be 65 f4 3f e4 5f 49 bf dc 59 47 bf
       -0.107507974 1.9093549 -0.7866194 -0.7787149
000030 e7 45 6f bf 02 e2 be 3e 49 1f 27 3f 81 e9 49 bf
       -0.9346604 0.37281805 0.6528211 -0.78871924
000040 a3 7a 3d 3e c7 e9 d1 be 9e f3 71 bf 37 90 0c 40
       0.18503813 -0.4099867 -0.94512355 2.1963022
000050 bd f9 8e be 3d 6e 24 c0 76 4b 3d be 9b a3 83 3f
       -0.2792491 -2.5692284 -0.18485817 1.0284303
000060 44 cd df 3f 61 0f fa 3e c1 8a 9e bd 12 04 55 40
       1.7484517 0.48839858 -0.07741309 3.3283734
000070 f9 bf 85 3f 3d 5e 75 bd 4b 58 44 be a2 e2 90 3e
       1.044921 -0.059904326 -0.19174306 0.28297907
000080 56 f0 1a 40 8b 16 81 bf 1a e0 8d bf d9 4a 07 40
       2.420919 -1.0085005 -1.1084015 2.1139433
000090 03 11 44 3e 3f 20 90 3f 00 68 0c 3f 8b cd f6 bd
       0.19147114 1.1259841 0.5484619 -0.12050923
0000a0 a7 d2 90 bf cf a2 22 3f fc 79 bc 3f 69 31 7c bf
       -1.1314286 0.63529676 1.4724727 -0.98512894
0000b0 62 29 58 3f e1 38 4a bf aa 40 e9 3f d8 a1 9e bf
       0.84438145 -0.7899304 1.8222859 -1.2393141

weight f4 [16, 1, 3]
000000 e6 38 c6 3d c9 91 4c bf 77 6c 58 3e 4d 12 14 bf
       0.09678821 -0.7990995 0.21135126 -0.57840425
000010 84 43 15 3f 58 c2 60 bd a7 c4 c6 be 54 95 07 bf
       0.58306146 -0.05487284 -0.3882191 -0.5296223
000020 45 cb ca be de 74 30 3f c9 3c b9 bc c2 9b b2 be
       -0.39608207 0.68928325 -0.022611992 -0.3488446
000030 86 b3 cb 3e d9 a4 01 bf a8 ae 87 be b3 46 3b bf
       0.39785403 -0.5064216 -0.2650044 -0.73154753
000040 97 23 e0 3c 72 8a d4 3e 34 81 1c bf da a7 2f 3f
       0.02736072 0.41511875 -0.6113465 0.68615496
000050 00 c6 eb b9 c2 ea 0a 3f c3 e5 04 3f 0b 98 cf bd
       -0.00044970214 0.5426446 0.5191309 -0.10136422
000060 61 19 8d bd 39 c1 31 bf f2 f4 0a 3f 42 b3 b2 bd
       -0.06889606 -0.6943546 0.54280007 -0.08725597
000070 61 df 58 3f ca b0 c5 3e ed f3 d2 3e cb a3 69 bf
       0.8471585 0.38611442 0.41201726 -0.91265553
000080 77 70 f1 3d 4f ab 95 be 19 c6 81 bb 20 99 32 3f
       0.11789029 -0.2923226 -0.0039603827 0.697649
000090 77 8f 43 3d 3d 00 84 bf 40 ab 61 3d 9c 11 9a 3d
       0.04774424 -1.0312573 0.055094957 0.0752289
0000a0 57 8c 60 bf dc e0 39 3e 20 da 3b 3e 92 d0 ba be
       -0.8771414 0.18152183 0.18344927 -0.36487252
0000b0 bc 40 96 be 6c 56 40 3d 63 8a 82 3d fd f7 03 40
       -0.29346263 0.04695742 0.063740514 2.062011

bias f4 [16]
000000 04 3e 4f 3f 33 2f a4 3e fd c1 c6 3e 9d 26 e6 be
       0.80954003 0.3206726 0.38819876 -0.44951335
000010 4f e6 95 3e 68 d1 46 be 58 bc 0f bf 88 89 e7 bd
       0.29277274 -0.1941582 -0.56146765 -0.11305529
000020 3d 57 46 be 78 88 fd 3e 55 94 d0 bd fc 31 c7 bd
       -0.19369216 0.4951818 -0.10184542 -0.09726331
000030 40 72 32 3e af 22 dc 3e c8 92 4f bf cb 7b c6 3e
       0.17426395 0.4299521 -0.81083345 0.38766322

weight f4 [32, 16, 3]
000000 80 a6 a5 3e 87 91 25 bf b2 bd 76 be b1 f6 45 3e
       0.32353592 -0.6467518 -0.240958 0.19332387
000010 14 0b bf bd 11 ee 1b bf fe f2 e4 3d b2 bb 89 be
       -0.09328285 -0.60910136 0.111791596 -0.26901013
000020 9d 58 71 bd 4e 5b 0e be 73 46 c9 3e d2 c8 a1 3c
       -0.0589224 -0.13902017 0.3931156 0.019749079
000030 32 f9 31 3c f3 0f 8e 3e 2a b0 16 be 94 77 33 3d
       0.010862635 0.27746543 -0.14715639 0.04381521
000040 af ab a7 3d 0d e2 e1 bb 0d 91 59 3e e7 d2 cc 3d
       0.08187043 -0.0068934024 0.21246739 0.10001164
000050 9a f8 2e bf 07 f9 84 3d 95 ae 34 3f 93 f6 83 3c
       -0.68348086 0.06492811 0.7057889 0.016108787
000060 a5 41 6d 3e 5d ae 1d bf 58 2b 9a be e0 10 ae 3e
       0.23169573 -0.6159418 -0.30111194 0.3399725
000070 08 ea 4c 3f b9 42 89 bc 9f d1 a3 3e 66 95 a2 be
       0.80044603 -0.016755449 0.31995866 -0.31754607
000080 0f 71 82 be a2 47 81 3e 04 2b 48 3e be e1 19 be
       -0.25476882 0.25249964 0.19547659 -0.1502752
000090 5c 84 45 3d c1 59 e8 be e1 9f e9 bd 47 4e 7c 3e
       0.04822193 -0.45380977 -0.114074476 0.24639235
0000a0 5a 9f 01 bf a7 c6 8f bd 9a 39 ee 3c a5 17 47 bd
       -0.50633776 -0.07020312 0.029080201 -0.048606534
0000b0 8b 6c 8e 3d 0a 35 9c 3e b1 c9 68 be 9f 80 27 bc
       0.06954297 0.30509216 -0.22733189 -0.010223537
0000c0 16 f7 28 be 6d a1 f9 bc 02 85 ca 3d 8c fb fd bd
       -0.16500506 -0.030472482 0.098886505 -0.124014944
0000d0 37 40 8b 3d ae 11 70 bf a6 d9 3d 3d 6e 4b 69 bf
       0.067993574 -0.9377698 0.046350144 -0.9113072
0000e0 7e 09 18 be fb 0a 81 3c 75 e6 89 bd 7c 54 92 3d
       -0.14847371 0.015752306 -0.06733409 0.0714502
0000f0 ca aa 5f 3d d0 35 85 bf 0b fc 3d 3e 23 9c 77 bd
       0.054606237 -1.0407047 0.18553178 -0.060451638
000100 c3 3a 95 3d 49 31 7c 3e 3a 98 01 3c 98 53 1c 3e
       0.072865985 0.24628176 0.007909829 0.15266263
000110 fe f4 4b bf 84 dc a4 bd 08 a2 ad 3e 20 1b c9 3e
       -0.79670703 -0.080498725 0.33912683 0.39278507
000120 ce e0 91 be 1e ec d1 3d f0 1f 7d 3d 17 67 b2 bd
       -0.28491825 0.10250114 0.061798036 -0.08711069
000130 43 07 3b 3f 35 6e 01 be b2 10 12 be df c9 96 be
       0.73057956 -0.12639697 -0.14264181 -0.2945089
000140 b1 dd 75 3e ae 38 1c be 48 59 78 3e 85 0e ad 3d
       0.2401035 -0.15255997 0.24252808 0.08450035
000150 f2 dd 9d bd 9b ec 0d 3d 2c 12 88 3e 5e a1 8e bc
       -0.07708348 0.034649473 0.26576364 -0.01741093
000160 19 3d d4 3d 86 05 d6 3c 7c 70 78 bd 79 e7 77 bf
       0.10363216 0.02612568 -0.06065415 -0.96837574
000170 7e 61 ed 3d e8 3b 04 be a2 85 91 3e 06 fa 30 3e
       0.11590861 -0.12913477 0.28422266 0.17282876
000180 6d 62 89 bd e4 be 3e be 92 43 0f bf cc 49 26 3e
       -0.06708226 -0.18627506 -0.5596248 0.16239089
000190 4b 8d 00 be 71 0f 39 be ab 5d 21 3d 1f b8 ce 3d
       -0.12553899 -0.18072297 0.03939597 0.10093712
0001a0 29 2c ba 3d f2 f0 0c 3e a0 39 d4 3e b0 22 e0 be
       0.09090454 0.13763788 0.41450214 -0.43776464
0001b0 74 7a c4 3c d1 1d af 3e 74 66 79 be b3 0c 31 3d
       0.023984171 0.34202436 -0.24355489 0.043225
0001c0 cf 60 1a bf 76 c7 a1 be 2b ee 1e 3e fe 05 cd bb
       -0.6030397 -0.3159749 0.15520541 -0.006256818
0001d0 3e 4f 1b be 15 d5 20 3e aa 14 b9 3e 34 93 36 bf
       -0.15166947 0.15706284 0.36148578 -0.71318364
0001e0 d3 b2 45 bd 3b d9 97 be bf 6c db be d7 b1 53 3e
       -0.048266243 -0.2965792 -0.42856404 0.2067331
0001f0 6d 85 4e be be a7 1a bf b6 b9 a3 bd 7d 1c 96 3d
       -0.20168085 -0.60412204 -0.07994406 0.073296525
000200 51 72 f8 be e8 07 88 3e 42 b6 44 bf f3 ec 28 bf
       -0.48524716 0.26568532 -0.76840603 -0.65986556
000210 f3 3e 1d 3e d1 39 f6 bb d6 d4 d4 be ba f7 98 bb
       0.15356044 -0.0075142165 -0.4156863 -0.004668203
000220 a9 9b 32 bc e6 86 e7 be 4c 64 6a 3d d2 29 53 3d
       -0.01090137 -0.45220107 0.057224557 0.051553555
000230 6c 2e 12 3e ae 3a b7 bb 84 a4 0d bf 91 5a f6 be
       0.14275521 -0.005591712 -0.55329156 -0.48115972
000240 ba df 3c 3e ec d8 52 be 8f 56 df bd b5 5c f8 be
       0.1844472 -0.20590562 -0.109051816 -0.4850823
000250 94 2b 99 3d bf 6a 86 3d a3 90 ae 3e 4a 59 28 3e
       0.07479015 0.06563329 0.34094724 0.16440311
000260 04 91 31 be f1 f3 1b 3d 6f 84 85 bd 66 43 48 bf
       -0.17340475 0.038074438 -0.065194 -0.7822784
000270 6c 53 79 3b 64 4f 14 bd 0c 41 85 bd 53 96 b5 3e
       0.0038044108 -0.036208525 -0.06506547 0.3546625
000280 10 46 f6 3d 22 eb 4f bf 46 7d 03 bf 1f 19 a6 3e
       0.12025082 -0.8121816 -0.5136303 0.3244104
000290 20 35 62 3e 11 a4 6b bd 98 96 ba be 7c 1a 27 bf
       0.22090578 -0.057529513 -0.3644302 -0.65274787
0002a0 71 9e 93 bd 7a 50 93 3d 4c 55 4f be 81 0e e0 be
       -0.07207955 0.07193084 -0.20247382 -0.43761066
0002b0 e7 38 21 bf fe b2 08 bf be ec 39 3e c0 53 56 be
       -0.6297745 -0.5339812 0.18156716 -0.20930386
0002c0 95 56 8c be 9c f6 ae bd 84 a7 e8 3d df 1e af be
       -0.27409807 -0.08543131 0.11360076 -0.3420324
0002d0 36 c1 d4 3e 9d 38 d5 bd 0b b2 0d be 56 75 e6 3d
       0.41553658 -0.10411189 -0.13837449 0.11252849
0002e0 65 f5 b5 3d 99 77 4a be 9a 11 cf 3e 29 be 8a 3b
       0.08884696 -0.19772185 0.40443116 0.0042340946
0002f0 fe 3f b2 bd 31 d8 b9 be 38 aa ab be 96 1e 06 bf
       -0.08703612 -0.36297753 -0.33528304 -0.5239042
000300 e4 cf 14 be 60 97 60 3e b0 35 66 be cd ca f4 3d
       -0.14532429 0.21932745 -0.22481418 0.11952744
000310 68 9f 6f bf d8 d3 bd 3e d5 a0 37 3e f7 98 26 3f
       -0.9360261 0.37075686 0.17932446 0.65077156
000320 58 1d a3 be 75 0d 07 be 77 9d 53 3d 0d 61 41 3d
       -0.31858325 -0.13188727 0.051663842 0.047211695
000330 28 8e 24 be 2e 8c 3b 3e 33 bd b8 3e a1 2e 88 bd
       -0.16069853 0.18315193 0.36081848 -0.06649519
000340 c8 91 d0 3d 30 6d e7 bd 20 26 88 3c a4 25 5e bf
       0.101840556 -0.11300123 0.016619742 -0.86776185
000350 ca 58 d5 3e 69 12 0e 3e d0 95 33 bd 09 5b e7 bd
       0.41669303 0.1387421 -0.043844044 -0.112966605
000360 9d 72 20 3d 17 84 4d 3e e7 2c 25 be df aa 84 3e
       0.039171804 0.2006992 -0.1613041 0.25911614
000370 6b 21 27 bf e7 d7 1c 3e a9 46 42 bd 76 32 08 3d
       -0.65285367 0.15316735 -0.047430668 0.03325125
000380 ba 25 eb 3d 31 5b f7 3d 2b 96 26 3e 7e d9 af be
       0.11481805 0.1207794 0.16268222 -0.3434562
000390 68 db 9c bc 0e 14 03 3f 40 0d b6 be 5f 22 ce bd
       -0.01914759 0.51202476 -0.35556984 -0.100651495
0003a0 83 59 cb 3e 5f ec 8d be cf 6f 25 be 5d b2 f1 3e
       0.3971673 -0.277194 -0.16155933 0.47206393
0003b0 f9 b0 b4 bd 07 54 4b bd cf 8d 2f 3e c2 15 27 be
       -0.08822817 -0.04964068 0.1714394 -0.16316894
0003c0 5c cb 07 3f c9 15 25 3d ba 24 da 3d 79 d5 e2 3d
       0.53044677 0.04030398 0.10651536 0.11075873
0003d0 f9 b8 9f be 8e c0 7b be 67 da 83 3f 1a 64 4a 3e
       -0.3119581 -0.24585173 1.0301026 0.19764748
0003e0 5c d1 45 3e 7d c3 bc 3a e9 ed 94 be d8 9d 11 be
       0.19318146 0.0014401522 -0.2908776 -0.14220369
0003f0 96 e0 a6 3e 5c d5 18 3e 20 a4 ab 3c 83 73 06 3f
       0.3259322 0.1492514 0.020952284 0.52520007

bias f4 [32]
000000 05 66 42 3e 90 de 30 be 08 e7 99 be 22 6b 52 3e
       0.1898423 -0.17272401 -0.30059075 0.2054868
000010 a9 a8 3c 3e 46 32 d1 be dd d1 a2 be bf 12 86 be
       0.18423714 -0.40858668 -0.31800738 -0.26186177
000020 c1 3a dd be fa 66 a3 be 8c 7b dc 3e 7a e8 09 3e
       -0.43208888 -0.31914502 0.4306301 0.13467589
000030 5e ce e4 3e 58 df 05 3e 25 d4 af be 13 da ad 3e
       0.44688696 0.1307348 -0.3434154 0.3395544
000040 40 69 53 bd 8d 29 8e 3e e5 f2 7b 3e ee 58 14 3f
       -0.051614046 0.27766076 0.24604376 0.57948196
000050 56 48 5d 3e 3f 35 1f 3f 0a 4a 82 3d a3 b5 d1 3d
       0.21609625 0.6219062 0.06361778 0.102397226
000060 d6 6c 19 bf 27 0e 5f 3e a1 3e ed bd e6 f0 c7 be
       -0.59931695 0.21782742 -0.11584211 -0.39050978
000070 1d c3 4d 3e 0a a6 f7 3e fb 2a 1d be 44 cc fe bc
       0.20093961 0.48368865 -0.15348427 -0.03110326

weight f4 [16]
000000 4e 50 8e 3f c6 78 96 3f c5 44 9c 3f 49 c1 54 3f
       1.1118257 1.1755607 1.2208487 0.8310743
000010 26 c7 94 3f 17 a8 61 3f 00 5f 8f 3f 6d 5a 66 3f
       1.1623275 0.8814711 1.1200867 0.8998173
000020 47 98 3c 3f 0f 7f 88 3f cb af 4c 3f c4 25 5b 3f
       0.73669857 1.0663775 0.7995574 0.856045
000030 67 c7 6d 3f 80 0e 8a 3f 4a 65 97 3f 33 24 4f 3f
       0.9288239 1.0785675 1.1827786 0.8091461

bias f4 [16]
000000 67 53 99 be 07 d4 ce be 82 13 45 bf 7c 39 a4 be
       -0.29946443 -0.4039614 -0.7698289 -0.32075107
000010 a3 88 92 be 02 16 b9 be 64 ff b4 be 1c a0 b0 be
       -0.2861987 -0.36149603 -0.35351098 -0.34497154
000020 2b da d3 be 0e fc 34 bf 1e c5 f2 bd 59 0c a1 be
       -0.41377386 -0.70697105 -0.11854003 -0.31454733
000030 55 cd 08 be ee cf 8e be 5a 18 ca be b6 43 22 be
       -0.13359578 -0.27893013 -0.39471704 -0.15846142

running_mean f4 [16]
000000 05 e7 50 3f 4d e6 a4 3e 52 c1 d7 3e 29 47 e9 be
       0.8160251 0.32206956 0.4213968 -0.45562103
000010 e7 32 9d 3e 3f df 41 be 72 98 0f bf cc 50 0c be
       0.30702898 -0.18932818 -0.5609199 -0.13702697
000020 69 61 44 be ff 2f ed 3e c1 a7 ba bd 39 fe e7 bd
       -0.19177784 0.4632568 -0.09114028 -0.11327786
000030 a0 c8 47 3e 17 ff e1 3e 96 e2 4b bf ab 21 a4 3e
       0.19510126 0.4413993 -0.7964262 0.32056937

running_var f4 [16]
000000 9d e2 25 3f e1 c7 17 3f b3 d4 41 3f ef 52 1d 3f
       0.6479891 0.59289366 0.7571518 0.6145467
000010 3a b8 f7 3e 52 6d 3a 3f 4f 67 40 3f 13 6e 2d 3f
       0.4838274 0.7282306 0.75157636 0.67746085
000020 0a f6 35 3f e1 5c 80 3f 81 2c 6a 3f 94 95 16 3f
       0.7107855 1.0028344 0.9147416 0.5882199
000030 c1 9c 8b 3f da 75 47 3f 16 6e 8d 3e 9b 6d 8f 40
       1.0907212 0.779142 0.2762305 4.4821296

weight f4 [32]
000000 dd 92 91 3f 22 6a 83 3f ad ec ad 3f 2b ea 75 3f
       1.1372944 1.0266764 1.3587853 0.96060437
000010 ee a7 a4 3f 5f 68 8e 3f 60 bc 5b 3f d1 6b 4c 3f
       1.2863748 1.1125602 0.8583431 0.79852015
000020 f7 11 9d 3f da 6d 4a 3f 02 41 78 3f 39 ca 8b 3f
       1.2271107 0.7907387 0.96974194 1.0921088
000030 af 81 9d 3f c9 02 9f 3f d8 30 81 3f 39 0b 83 3f
       1.2305201 1.2422725 1.0093031 1.02378
000040 ec ed 81 3f 4f 20 55 3f 34 e3 96 3f 36 59 6e 3f
       1.0150733 0.83252424 1.1788087 0.93104875
000050 00 0e 59 3f 66 9c 89 3f e4 d6 88 3f 0b 59 8a 3f
       0.8478699 1.0750854 1.069058 1.0808424
000060 0b 08 92 3f ef 11 70 3f 3f 9e 7f 3f 2d 32 4c 3f
       1.1408705 0.93777364 0.9985084 0.7976406
000070 10 96 8f 3f 10 ce 69 3f ba 5f 93 3f 34 e8 81 3f
       1.121767 0.9133005 1.1513588 1.0148988

bias f4 [32]
000000 2b b4 af be b0 3e ba be aa 5c db be c0 06 a9 be
       -0.34317145 -0.36375952 -0.42844135 -0.33012962
000010 6d fb 98 be 24 0f bb be 34 a6 58 be 05 4e b6 be
       -0.29879323 -0.3653499 -0.21157151 -0.356064
000020 a3 0a 37 be 4a 10 1c be 53 5c bd bd 96 f9 f0 bd
       -0.17875151 -0.15240589 -0.09246125 -0.11766355
000030 c3 b4 b5 be 02 fb 97 be 33 b7 7b be 59 83 c6 be
       -0.35489473 -0.2968369 -0.24581604 -0.38772085
000040 0b 50 9f be 14 25 27 be ee 8a 82 be ea 53 33 be
       -0.31115755 -0.16322738 -0.2549662 -0.1751248
000050 43 bc 11 bf ef 14 9b be 4a cc ac be c6 ec 86 be
       -0.5692789 -0.3028941 -0.3374961 -0.2635252
000060 b2 4c c9 be 72 fc 0d bf 49 16 b2 be 59 5c 0b be
       -0.39316326 -0.55463326 -0.34782627 -0.13609447
000070 0f 2f 88 be 4b bf 92 be af 26 95 be d0 f4 98 bd
       -0.26598403 -0.2866157 -0.29131076 -0.07468569

running_mean f4 [32]
000000 19 a3 ed be f5 df c4 bf 9e b2 2a c0 21 8d d6 bf
       -0.46413496 -1.5380846 -2.667152 -1.6761819
000010 e3 c7 73 3d 18 9e 3d 3f c4 05 16 3f bc 1b 15 bf
       0.0595168 0.74069357 0.5860255 -0.58245444
000020 24 cd 60 be 35 19 be 3e dd f7 99 3f b1 f3 93 bf
       -0.21953255 0.37128606 1.2028767 -1.1558744
000030 3d be 18 c0 08 82 1a c0 ee f9 3a 3f 4c 43 49 40
       -2.3866112 -2.4141865 0.7303761 3.1447325
000040 4c d9 4f bf fa 5d 3a bf 4d d9 e9 bf 4b 76 da 3d
       -0.81190944 -0.72799647 -1.826944 0.10667094
000050 ea ca 62 40 d7 5e d1 bf 24 c4 cf bf 30 08 05 c0
       3.543635 -1.6357068 -1.6231732 -2.0786247
000060 94 d7 18 c0 b1 4b 2d 40 de 08 96 bf 1a 1f 2c be
       -2.3881578 2.7077448 -1.1721456 -0.1680874
000070 da fa 03 c0 3d 92 3e bf 2b bf e9 bf bb 12 29 c0
       -2.0621858 -0.7444189 -1.8261465 -2.6417682
