government_icfes_dataset/mlartifacts/294710831823527254/6eb90140b8a74d139a1ecef1e653b641/artifacts/model/data/model.pth (torch, 443712 bytes, 39 tensors)

weight f4 [4, 4]
00000000: 6c95 1f40 4778 4e40 cb31 74bf b132 b3bd
00000010: bfbb 3f3f 6918 30c0 e6b8 0a40 d5b7 1240
00000020: 1661 533e 19a0 21bf 8c42 963e 76b2 9dbf
00000030: 91b0 a6be 124b 3f3f 7725 0840 ff29 cdbe
2.493495 3.2260911 -0.9538848 -0.08749903 0.7489585 -2.7514899 2.1675353 2.2924702
0.20642504 -0.63134915 0.29347646 -1.2320087 -0.32556584 0.74723923 2.1272867 -0.40071103

weight f4 [3, 4]
00000000: 30e7 973f a154 483f 90c7 f4be 50ad fa3d
00000010: f578 033d f397 7abf efe6 89bf 50a1 f3bf
00000020: 4873 e03e 819c acbe c555 97bf b50c 9cbe
1.1867428 0.78254133 -0.47808504 0.12240088 0.032097775 -0.97888106 -1.07736 -1.9033604
0.43837953 -0.33713153 -1.182305 -0.30478445

weight f4 [5, 4]
00000000: cea6 29bf cde2 f7be 2cd5 23be be9a 753e
00000010: 2bdc d83f f2ca fb3f 6287 a83f 0ae6 433f
00000020: 2ed9 94be 1914 04be 6c53 71bf fe22 9ebf
00000030: 1a15 7abe a1f9 8fbd b143 4b3d b48e 99bf
00000040: 18a0 c8bd 66b0 b13f b8ca 0fbe 2281 63bf
-0.6627015 -0.48415223 -0.15999287 0.2398481 1.694219 1.9671309 1.3166316 0.76522887
-0.29071945 -0.12898292 -0.94267917 -1.2354429 -0.24422112 -0.07030035 0.049625102 -1.1996675
-0.097961605 1.3881958 -0.14042175 -0.88868916

weight f4 [7, 4]
00000000: d022 dc3e b847 1bbf 603c 41bd 635b d53f
00000010: 1a1b 27bf faee 4fbf 46f9 113f ac4c 69be
00000020: 9a23 11bf 34d4 c7bf 22ba b2bf 9bbf d53f
00000030: c2e3 0abe c1aa 80bf a8fc 873f dcc0 2a3f
00000040: 4384 ad3e f768 ccbf 67c9 3dbf 42fa acbe
00000050: f2b5 f4be cc6c 2bbf 9379 4e3f 7f84 513f
00000060: ebf1 4abf fedd 7d3e 5031 64bf 3e68 c43e
0.4299531 -0.6065631 -0.04717672 1.6668514 -0.6527573 -0.81224024 0.57020986 -0.22783154
-0.5669495 -1.5611634 -1.3963053 1.6699098 -0.13563445 -1.005211 1.062398 0.6670053
0.3388997 -1.5969533 -0.7413544 -0.33784682 -0.47795063 -0.66962886 0.8065426 0.818428
-0.7927539 0.24791715 -0.89137745 0.3836078

weight f4 [7, 4]
00000000: 7ef1 893f 7999 473f 4f7e 4a3f 5724 b5be
00000010: fb8b 03bf bf0c dabe ef65 9a3f 5b3d 763f
00000020: 5e86 65c0 1763 b83e 71dc 06bf 2905 f9be
00000030: 17de 893f c872 29c0 72e0 6cbf 15e7 aa3f
00000040: 1d20 bdbe b39a e5be 1115 cc3d 3b5e 733e
00000050: ce50 d73e 11f9 8abf c794 f7be dc0c a5bd
00000060: 326d f13f 4fba abbe ff52 433f e8d0 353e
1.0776823 0.77968556 0.7909898 -0.35379288 -0.5138547 -0.4258785 1.2062358 0.9618737
-3.5863261 0.360131 -0.52680117 -0.4863675 1.0770901 -2.6476307 -0.92529976 1.3351771
-0.36938563 -0.4484459 0.099649556 0.23766415 0.42053837 -1.0857259 -0.48355696 -0.08059093
1.8861449 -0.3354058 0.76298517 0.17755473

weight f4 [1025, 4]
00000000: 98d6 f53e 866c 923f d1e0 a4be 8d1a aa3f
00000010: 673e ba3e ac20 e23f 98fe 753f 3fa6 d7be
00000020: 702f 72bf a42a 77bd 7bcf d83f a10b 82bf
00000030: 85e2 44be daee ecbd 4092 dbbf 48cc 863c
00000040: 37e8 6cbf 4662 babf 92eb aa3f 212b 77bf
00000050: 530b a53f 1240 923f a292 583e afa0 d5bf
00000060: 7d94 4f3d bfed 403e 5885 97bd 3a3b 00be
00000070: 3e48 333f 5965 ef3d 2dfa c43f a0ed 653f
00000080: bdb1 d13f f13b adbf c0bc babf c643 68bf
00000090: fcfe 58be 1df6 2ebf 827a db3d 3a8a 24bf
000000a0: cb05 bfbc c463 323f 7982 cc3d b191 ce3f
000000b0: 084f 30bf ce55 1040 60bd 68be 2936 1a3f
000000c0: 4709 1b40 19c7 abbf 6e6a 07c0 4477 9c3f
000000d0: e9d3 b2bd c340 16be 5911 b0bf 58ab bdbf
000000e0: 764b 1bbf b219 b6be 0990 14bf 6bb2 9abf
000000f0: 39b6 a53f 2689 d8bf 8cd7 7d3f cafa 80be
00000100: 9d72 e33e c00c f0bf 99de 023f 5f1a cabf
00000110: b902 823e e17a fbbe 7b42 f53f e49d 2a40
00000120: fc88 163f 2db8 773f dbcf 2e3d f8d2 04bf
00000130: c60c b3bf f905 49bf a554 acbd 4f3a 0a3f
00000140: 4c78 8abd 5267 19be 5ece 82be 4efe 74be
00000150: 6852 253f 8ffb 1bbf e67b 22be f6c5 83bf
00000160: 09d0 563f 7d7b b4bf 1a6a 6abe 5f91 973f
00000170: 0280 073f 6974 55bf 93ae 133e 8980 59bf
00000180: 122b 31bd eb5e 663f a0b6 c23f e4d7 3c3f
00000190: 6001 bdbf b49a 6bbf 83ec 29bf 1e3d dbbd
000001a0: dd94 babf 5bcb 353f aee7 8abf f589 423f
000001b0: 196f 393e a9b6 c5bf c61a b53e eb74 35bd
000001c0: ea7e d0bf d22d 033f 2204 aebf 6597 293f
000001d0: 082c 74bf 5e55 013f c991 a3be e797 4ebe
000001e0: c1e8 6d3f 4e96 d6bf 0d7f b8bd 504b d63e
000001f0: f8b4 363f 3007 fdbd b59b 7c3f 815b 373f
00000200: f58a 1bbf 447e ae3e ad37 1b40 a537 31bf
00000210: e433 a83f 1b89 9d3f 6766 7bbf 0e26 21bf
00000220: 7fcb c6be 498e a03f 3888 8cbf 1ad8 0b40
00000230: 7523 a2bf 4557 4fbf 9fef 3cbf 7d93 2bbe
00000240: 6457 783d e9ad 8a3e e54b 2d3f 6ba6 893f
00000250: 30ec 69bf 085e 09bf 6335 b7bf 62d1 1abf
00000260: 663e 353f 1108 7abf a63a db3e 66dd 7cbf
00000270: d069 f83d 0784 9abe 30b1 de3e bb67 c63d
00000280: a148 70bf 6670 a2bf b337 1ec0 6761 d43f
00000290: 8c59 8b3e 6d78 51bf bfb8 aebe 9ab2 1d3f
000002a0: 695e d03e aab4 173f b2c9 e83e 8f25 84bf
000002b0: 1e37 103e 2712 143a 0e27 fe3e 62bf a7bf
000002c0: 8d6a c2bf 0381 86bf 19f2 0fbf cae1 293e
000002d0: 5642 8dbe fba1 ffbe 2c2d a4bf f189 c53e
000002e0: 6b54 0640 1653 92bf 2a8f 203f 75bb 163f
000002f0: a05d 9cbf 216a bcbe 7c2c a1bf cb9b 1d3f
00000300: 3c0c 093f cdc8 903e 9a2e b43e 103e 983f
00000310: 38fe 1cbf 4d26 43bf 200f dfbf a920 8bbf
00000320: 8c17 c43e 3aa2 8ebe e6fa f43e 1e17 f4bf
00000330: eb8e 213f 45f4 9abe 7668 aa3f 3c5f eb3f
00000340: 5e1d 9cbf 5816 46bd 9be5 30bf 032b 9d3f
00000350: a660 983f 3b01 d9bf c076 21bf 8c7b da3f
00000360: 989a 233e cda8 3abf 5224 0240 db70 c3bf
00000370: 41b7 95bf b40e 1bbf 8298 35bf 8bc5 ff3d
00000380: 4130 fb3e d111 6cbf 1a2e ea3f c6a3 2740
00000390: be9f 4abf b341 93bf 018a b0be 20ac 343f
000003a0: d3c5 d03d 92a4 97bc 3c86 6bbf 2cb4 4bbf
000003b0: 0d29 2140 0cc5 913e 7e44 96bf 3be5 61bf
000003c0: 92f2 52be 906c 0fbe 71be 083f a41a 7cbf
000003d0: f3ee 2d3f b7d7 b43e 10af f33f d26f b53d
000003e0: 008f e1bf c3cb 89bf 117f 8cbf 13fe b5be
000003f0: 9429 4dbf 943c b0bf e1f1 a7be 2dc4 523e
0.48015285 1.1439369 -0.3220277 1.3289353 0.36375734 1.7666221 0.96091604 -0.42119023
-0.94603634 -0.0603434 1.6938318 -1.0159799 -0.19227035 -0.11568995 -1.7154007 0.01645483
-0.9254183 -1.4561241 1.335314 -0.96550184 1.2894081 1.1425803 0.21149686 -1.6689662
0.05067872 0.18840693 -0.0739848 -0.12522593 0.7003211 0.116892524 1.5388848 0.8981571
1.6382366 -1.3533918 -1.4588852 -0.90728414 -0.21191019 -0.6834429 0.10716726 -0.64273417
-0.023318192 0.6968348 0.09985823 1.6138211 -0.6887059 2.255237 -0.22728491 0.6023889
2.4224412 -1.3420135 -2.115871 1.2223897 -0.08731825 -0.14673142 -1.3755294 -1.4817915
-0.6066202 -0.3556648 -0.5803228 -1.2085699 1.2946235 -1.6916854 0.99157023 -0.25191337
0.4442338 -1.8753891 0.5112091 -1.5789298 0.25392702 -0.49117187 1.9160913 2.6658869
0.5880277 0.96765405 0.042678695 -0.5188441 -1.3988273 -0.7852474 -0.08414582 0.5399522
-0.06761226 -0.1498082 -0.2554807 -0.23925135 0.64578867 -0.6093072 -0.15867576 -1.0294788
0.83911186 -1.4100186 -0.22892037 1.1841239 0.529297 -0.8338075 0.14422064 -0.84961754
-0.043253966 0.89988583 1.5211983 0.7376692 -1.4766045 -0.92032933 -0.66376513 -0.107050166
-1.457668 0.7101342 -1.0851953 0.75991756 0.18108787 -1.5446368 0.3537199 -0.044300955
-1.6288731 0.5124179 -1.3595011 0.66246635 -0.95379686 0.50520885 -0.31947163 -0.20175134
0.9293328 -1.6764619 -0.09008608 0.41854334 0.71369886 -0.123548865 0.9867509 0.71624
-0.60758907 0.34080708 2.4252732 -0.6922553 1.3140836 1.2307466 -0.9820313 -0.6294869
-0.3882713 1.2543422 -1.0979071 2.1850648 -1.2667071 -0.8099254 -0.7380313 -0.16755481
0.060630217 0.27085808 0.6769393 1.0753912 -0.9137602 -0.53659105 -1.4313167 -0.6047574
0.7079834 -0.9766856 0.42818183 -0.9877533 0.12129557 -0.30178854 0.43494558 0.09687754
-0.9386082 -1.2690551 -2.4721496 1.6592225 0.27216756 -0.8182438 -0.34125325 0.6160065
0.4069703 0.59260046 0.4546638 -1.0323962 0.14083526 0.0005648457 0.4963917 -1.310528
-1.5188767 -1.0508121 -0.56228787 0.16590038 -0.27589673 -0.4992827 -1.2826285 0.38581803
2.0989025 -1.1431606 0.6271845 0.58879787 -1.2216072 -0.3679972 -1.25917 0.61565846
0.53534293 0.282782 0.35191804 1.189394 -0.6132541 -0.7623032 -1.7426491 -1.0869342
0.38299215 -0.27858144 0.4784767 -1.9069555 0.631087 -0.30264488 1.3313129 1.8388438
-1.2196462 -0.048361152 -0.6910035 1.2278751 1.1904495 -1.69535 -0.63071823 1.7068954
0.15976942 -0.7291382 2.0334668 -1.5268816 -1.169655 -0.6056931 -0.70935833 0.1248885
0.49060252 -0.92214686 1.8295319 2.619371 -0.7915 -1.1504425 -0.3448029 0.7057514
0.10193982 -0.01851109 -0.920017 -0.79571795 2.5181305 0.28470647 -1.1739652 -0.882404
-0.20600346 -0.14006257 0.5341559 -0.9847815 0.6794273 0.35320827 1.90378 0.08859219
-1.7621765 -1.0765308 -1.0976278 -0.35545406 -0.8014157 -1.3768487 -0.32801726 0.20582648

weight f4 [3, 4]
00000000: 6f9f 473f cc11 67bf 7fc1 93bf 7615 15be
00000010: fc69 4abf 132e 9a3f 363c 3f3e 049f 7b3f
00000020: 5f6c 4abf dc13 04bf 46b2 33bf 9cf2 a8be
0.7797765 -0.9026153 -1.1543425 -0.14558968 -0.7906797 1.2045311 0.18675312 0.98289514
-0.7907161 -0.51592803 -0.701939 -0.32997596

weight f4 [7, 4]
00000000: fff0 d83e 8390 b1be 1683 4bbf 88df b33f
00000010: 40e8 8c3f 38c0 f2be f8fd 723f 87a3 6f3f
00000020: 578f 7dbf 89c8 5ebf 768c 273e be58 d73e
00000030: 19ec 5bbf 2d0a 18bf 0b0d 023f cfe3 8ebe
00000040: 2e84 4fbe bc03 90be fd6d 29be 0e45 563f
00000050: 6696 433f f55b c9bf d130 133f 36c1 56be
00000060: 85bb a03e dcd6 5abd 55e2 493f dc4d 81bf
0.42371365 -0.34680566 -0.79496896 1.4052591 1.1008377 -0.47412276 0.94918776 0.936089
-0.99046844 -0.8702474 0.16362175 0.42059892 -0.8590713 -0.59390527 0.5080115 -0.2790818
-0.20265266 -0.2812785 -0.16545863 0.8369912 0.76401365 -1.5731188 0.5749636 -0.20972142
0.31393066 -0.053427562 0.7886098 -1.0101886

weight f4 [7, 4]
00000000: 2f48 b7be 8de5 763f 4465 0c3f 4840 42bf
00000010: 2c6b a83e 37f2 233f a9ee 51bf 29f7 d73e
00000020: e240 b83f afb6 0f3f 65e7 febe 99f3 4bbf
00000030: 9896 fd3e 310d 8c3f 23ee 18bf 256f 7fbf
00000040: 45c5 86be 80a1 6b3d ad0e 64bf 9f75 18bf
00000050: 28ca 473f b2b6 99bf 9132 ef3e 4902 2d3f
00000060: 1dd4 ba3e 4d3e 08c0 7e96 2fc0 091d 053f
-0.3579726 0.96444017 0.5484202 -0.75879335 0.32894266 0.64041466 -0.8200479 0.42180756
1.4394801 0.5613813 -0.49785915 -0.79668576 0.49528956 1.0941526 -0.5973837 -0.9977897
-0.2632238 0.057527065 -0.89084893 -0.59554476 0.7804284 -1.2008879 0.46718267 0.6758161
0.36489955 -2.1288025 -2.7435603 0.5199743

weight f4 [3, 4]
00000000: b21d a83f f81f 803f 19da a53f a06c e63f
00000010: a7a0 06bf 32c8 dfbf a021 55bf deba 84be
00000020: 6156 3fc0 c9f3 17c0 36ed 4ebf cfcb 863f
1.3134062 1.0009756 1.2957183 1.80019 -0.52588886 -1.748297 -0.8325443 -0.25923818
-2.9896472 -2.3742545 -0.80830705 1.0530947

weight f4 [427, 4]
00000000: e1ee 1bc0 9909 213f 1cc5 083f 4865 8abf
00000010: d1b7 abbe 792f 42be 85c6 dfbe 1ad4 293f
00000020: 7ae4 ee3f e24f 983f 6bae ddbd f03a 2d40
00000030: 8e8b 16bf dfe0 ab3f 7911 0c40 6814 bfbf
00000040: 15f0 48be bc86 93bf c57b f1bd 034b 30bd
00000050: 9065 1a3d 0df8 93bc 50d6 60bf 027e 773d
00000060: ceba 653f bdbd 36bd 3eb6 813f 26bb a2be
00000070: 472c 90be 51cb 64bf 21b0 a0be a0b8 9a3f
00000080: ee50 fe3c 6fe6 f7bf 629c 92bf 3f95 873e
00000090: 3f5a 5ebf ae1b e33e 08c2 c93e 6755 343f
000000a0: c9db c03c e2c9 533f 9587 8f3f 063f 083f
000000b0: db42 383f 38cc 8bbe 6606 543f 8639 2abf
000000c0: 8846 0240 12fc b6bf 077e 30c0 ce5f cc3f
000000d0: e9ff b53f 6c01 27bf d226 f23f 47ac c0bf
000000e0: cf7f bbbf 4380 00bf ccff b8bf 1bfc 7a3e
000000f0: 54c0 14bf 6a26 9d3f 902b b6bf 0e00 30be
00000100: 4410 a83e 2222 fabe 8d21 a63e e58d 18bf
00000110: aea0 89bd 06db 003f 2e9d 17bf b8fc 65bf
00000120: 3afe 1cbf a97b 483f dcb7 dd3e 9352 cabf
00000130: 8735 61bf 5065 e3be 2cc1 a43f 7e31 a6be
00000140: 139a 393f 56fa 5e3e 8cd1 923f cfab d6bf
00000150: 2449 bebf 8e1b 483f 3fb9 29bf 950b 4c3f
00000160: e9c7 863f 6e74 f4bf 963c 97bf 4125 f3bf
00000170: 10a2 b6be 6fed 323f 4793 eabe 8645 5cbf
00000180: 1b2d 473d e3e5 173f a893 173f 1ea0 2f3f
00000190: 27cb a33f c917 0a40 769d 523f 0c7c 973f
000001a0: 99cc f53d 04a7 9f3f 0d20 aa3e 459d 813f
000001b0: ed82 52bf b226 8abf 210d 1340 3c10 58bf
000001c0: 0750 bbbf af2c 553f 96c8 dd3f eb32 0ec0
000001d0: 1533 763f 7839 923e f5f2 d3be 0054 edbf
000001e0: 3dfc 063f 6f97 af3f 71ba 1e3d faf6 373e
000001f0: ebf9 d2bf ac49 973f e316 a4bf 5cf7 b93f
00000200: 441b 55c0 46c2 ce3f dead 6940 8d98 ccbf
00000210: 3279 373f d8c8 b6bd d760 0940 69d5 a2bf
00000220: 1240 3040 d317 f33f 60fa 18c0 310a 3f40
00000230: b254 9abf 18cd ba3f f015 5540 e66a e3bf
00000240: 02a0 2d40 9e6b ecbf 2c18 503f 4edd 16be
00000250: d769 c53f 3e7c 343f 2d54 2c3f aac8 1b3f
00000260: 8e5d 0cc0 f62f 02c0 79fb de3d 5815 953f
00000270: 9439 1840 9293 1ec0 12b5 39c0 2a1c b7bf
00000280: 73bb 42bf 6368 713f d021 9ebe 4f77 d2be
00000290: 80ce d1be 31ad cf3f cfc6 ed3d 74cc 29bf
000002a0: c680 ff3f 69f2 c2bf 30ce ea3f e1ae 6fc0
000002b0: aee7 c1bf 3de8 b7be 4309 9d3e e2ac ebbf
000002c0: d851 e3be e4d2 6cbf 0f04 293f a4c6 083f
000002d0: ab4f 2c3f ee0b fbbc e657 823f a115 4a3f
000002e0: 43ce 1cbe 6f9e 7c3e 52cd 8abf 3dc4 6cbf
000002f0: b918 2cbf cca8 c5be e93c 893e a78d 2b3f
00000300: ba1b c7be 402a bfbd 3a9f 9e3f 0e03 09c0
00000310: 0150 5fbf f68c ad3e f73d a23f 59c9 d63e
00000320: 186a fa3e 780e c53e 34aa b03b 4595 85bf
00000330: 77c2 9c3f 6d64 1640 335e c4bf 53dc c7bf
00000340: f5b3 ddbf 8957 ef3f da9c 6a3f bffc 1240
00000350: fc3e 47bf 0c82 4e3f 2cab b73f 69bc dfbd
00000360: 09a6 acbe c9a9 853e 6a80 23be aafc 04bf
00000370: 2904 9abf 531a 0d40 fa2a b0bf 8292 cebf
00000380: 6675 dabe cb1d 083e 2e5b 9d3f 5edf 5b3e
00000390: 5afc 43bf af4c 4a3f 2022 97be 76a8 36be
000003a0: 9a08 b7bf 298f 913f dceb 7ebf ee20 c7bf
000003b0: efc8 f53f 0b52 b4bf bbc1 0540 3010 c3bd
000003c0: 07ad 9dbd ffdb 513f 3162 2dbf bab5 16bf
000003d0: 389c 373d c6e4 6f3f 9af2 bd3e 4e1e 0f3e
000003e0: 8c42 3dbf f012 c83f 0d64 8ebf afdd bb3c
000003f0: 090e b9be b9d4 80bf 9472 713e 86a3 3f3e
-2.436455 0.6290527 0.53425765 -1.0812159 -0.33538678 -0.18963422 -0.43706146 0.66339266
1.8663476 1.1899378 -0.10824283 2.7067223 -0.58806694 1.3428 2.1885664 -1.4928102
-0.19622834 -1.1525493 -0.11791185 -0.043040287 0.037694514 -0.018062616 -0.87827015 0.060422905
0.89738166 -0.044614542 1.0133741 -0.31783408 -0.2815878 -0.89372736 -0.31384376 1.2087593
0.03104445 -1.9367198 -1.1453974 0.26481053 -0.86856455 0.44357055 0.39405847 0.70442814
0.023542302 0.82729924 1.1213251 0.53221166 0.71977013 -0.27304244 0.82822263 -0.66494024
2.035555 -1.4295676 -2.757692 1.5966737 1.4218723 -0.65236545 1.8918097 -1.5052575
-1.4648379 -0.5019571 -1.4453063 0.24510233 -0.5810597 1.2277348 -1.4232044 -0.17187521
0.3282491 -0.48854166 0.32447472 -0.59591514 -0.067201 0.50334203 -0.5922421 -0.89838743
-0.6132542 0.7831369 0.43304336 -1.580645 -0.879723 -0.44413233 1.2871451 -0.32459635
0.72500724 0.21775183 1.1470199 -1.6771182 -1.4866071 0.78167045 -0.6629829 0.7970517
1.0529758 -1.9098032 -1.1815364 -1.8995744 -0.3567052 0.69893545 -0.4581549 -0.86043584
0.048627 0.59335154 0.5920968 0.68603694 1.2796372 2.1577017 0.82271516 1.1834731
0.120019145 1.2472844 0.33227578 1.012612 -0.82231027 -1.0793059 2.2976763 -0.8439977
-1.4633797 0.83271307 1.7326839 -2.2218578 0.96171695 0.2855947 -0.413963 -1.854126
0.52728635 1.3718089 0.038752023 0.17965308 -1.6482519 1.1819358 -1.2819484 1.4528613
-3.3297892 1.6153038 3.651237 -1.5984055 0.71669304 -0.08925027 2.1465356 -1.2721378
2.7539105 1.8991646 -2.3902817 2.984997 -1.2057097 1.459384 3.329464 -1.7766998
2.712891 -1.8470342 0.81286883 -0.14732859 1.5422925 0.7050208 0.6731594 0.60853064
-2.1932101 -2.0341773 0.10887808 1.1647139 2.3785143 -2.477757 -2.9016767 -1.430547
-0.76067275 0.94299906 -0.30885172 -0.4110665 -0.4097786 1.6224729 0.11610185 -0.66327596
1.9961174 -1.5230228 1.8344173 -3.7450488 -1.5148828 -0.3591937 0.3067113 -1.8412135
-0.4439838 -0.92509294 0.6602182 0.534281 0.67309064 -0.030645337 1.0183074 0.78939253
-0.15313058 0.24669813 -1.0843909 -0.92486936 -0.67225224 -0.38605344 0.26804283 0.6701302
-0.3888834 -0.093342304 1.2392342 -2.1408114 -0.8723145 0.33896607 1.267516 0.4195049
0.48909068 0.384876 0.0053913835 -1.0436178 1.2246846 2.3498795 -1.5341247 -1.5614113
-1.7320544 1.8698589 0.91645586 2.2966764 -0.7783048 0.80667186 1.4349113 -0.10924608
-0.33720425 0.26106098 -0.15966955 -0.51948035 -1.203252 2.2047317 -1.3763115 -1.6138461
-0.42667693 0.13292615 1.2293451 0.21471927 -0.7655693 0.7902326 -0.29518223 -0.178377
-1.42995 1.1371814 -0.9957864 -1.5556924 1.9201945 -1.4087538 2.0899494 -0.09524572
-0.07699018 0.8197631 -0.67727953 -0.5887104 0.044826716 0.93708456 0.37099153 0.13976404
-0.7392967 1.5630779 -1.1124283 0.022932855 -0.3614352 -1.0064918 0.23578864 0.18714723

weight f4 [1030, 4]
00000000: 7171 4fbe b631 d33f dcc4 7dbf ded1 d1be
00000010: a1f9 b5be 742b 4b3f 7df3 d33d e562 913e
00000020: 97c8 17bf bd21 2a3f 877e 01bf dac5 603f
00000030: aa27 a43f c850 02c0 9251 1b3f a97a 0dbe
00000040: e16a a93f d3a9 bfbf 16b3 c1bf 2a9b 583f
00000050: b7b0 c9bf 9587 943e a21c 743e 6657 a6bf
00000060: 2887 b0be cff7 ae3f c3e1 4c3f c711 fd3c
00000070: c90f b2bf 3bdb ad3e 4e30 90bf 7405 e43d
00000080: aca7 f53e ae81 463f 20db 7fbe 8c01 2d3f
00000090: 1393 c6bf 8621 bfbf 47d7 8f3f 3d83 ebbf
000000a0: f427 98bf 791a 5f3f c7f5 41bf 2312 503e
000000b0: f42c 433f de51 10be 0174 d4be 415b f73e
000000c0: 2619 033f 520d 96bf 2bb8 38bd 496c 5bbe
000000d0: c8d5 193f 1d08 05c0 bdfa eebe f4e7 963f
000000e0: b25e 233e dd4d 123f 6641 1b3e a82b 35bf
000000f0: 6b6f a2bd 5f01 b73e 5144 87be 28f3 2d3e
00000100: d2d3 a13e f587 50bf 2dea 083f 59f0 9f3f
00000110: fdc5 90be 87f3 553e 9275 7b3f e0e3 693f
00000120: e7d5 c2be b550 f63e 671d eabf dab6 973f
00000130: 9c38 0740 598e ef3f 4825 d7bf 266c 84bf
00000140: 238f bf3f 8ccb 873e 5098 703f 3b0d 6dbd
00000150: dc9a 9e3f 3e6a 3c3f 2ceb 573d 56c2 14bf
00000160: 44d0 86bd 2091 03c0 b49d 0ec0 cf4f 96bf
00000170: 1d60 943e cd45 da3d 1808 ac3f 58fe 0640
00000180: 1212 123f f828 8a3f d3ac 88be ae50 17c0
00000190: 9c94 f93f 2a27 2ebf ba68 87bf b531 1640
000001a0: aabc e0be 80b3 d33d 840a 36bf cfd7 753f
000001b0: 21e5 943f 1142 dabf d608 413e 45d2 4e3e
000001c0: db33 52bf 79ce d5be ef21 bcbd 40eb 72be
000001d0: f400 a4bf 260c 94bf 7b0a 38bf a37e 063f
000001e0: ccfd 0240 7874 7fbf bf2b 4f3f f5fb 033f
000001f0: 9fda 43bf 7622 4e3e 654b b73e 1d5f 43bf
00000200: 3e88 cabe 5a38 2bbf 3972 9d3e c0e0 0abf
00000210: 8afb 4ebf eb28 a9bd 71a8 39be b671 973f
00000220: 5e32 1bbf d1c0 cf3f dd6f 033e cf15 1ebe
00000230: 88c6 c2bf 66a8 ce3f d689 fdbd b74b 563f
00000240: 0738 983f fb0c 9cbf c7ce 68bf c1da b2be
00000250: e70c aa3f 3430 073f 7acf 9dbe b7cd 6b3f
00000260: 8fbf 06c0 dbca 1d3f f101 923e 6c10 0f3e
00000270: bfcd c8bf 7a71 223d e606 9dbe 3952 dbbe
00000280: 6d2a 93bf 477f 533f 7ba4 70bf be0b 7b3f
00000290: 761b b73f fa06 d1bf 707d 0abc be75 8fbe
000002a0: 40c8 7f3f 17d5 a53f 73cf bf3f 526f 9abf
000002b0: e3c8 5a3e bd6f 98bf afa0 1bbf 10a9 6c3f
000002c0: 131c 5d40 5727 d2bf 1afa abbf b97b 97bf
000002d0: 2eef 4740 092c b8bf 3d30 85bf 51a4 84bf
000002e0: f843 313c 0ca8 51bf c633 54bf b26e 05bf
000002f0: 2bfc b33e cbbf 293f 370a 8d3e 77d5 a0bf
00000300: bd70 eebf 2150 d93e ff9e 28c0 d87c d8bf
00000310: d7e2 fbbe 73e6 81be 9e79 2cbf 3e6e 81bf
00000320: 30f3 253f 1257 17bf 6c24 b4be 62f4 21c0
00000330: cd99 b8be 5d52 493e cfbc 8e3f 14e7 66bf
00000340: ed41 943d 6f56 fb3e 2dc5 90bf 73d7 623e
00000350: 8835 e73e 85d7 d3bf 5cd3 253f 357d 88be
00000360: c951 233f 9f7c b03f effe 04bf 7d23 9f3e
00000370: 056c 04c0 43d2 d7bf 6436 8dbf 1948 863f
00000380: 7dcb 543f 29de f23e b16c 8c3f 92e3 1dbf
00000390: a75b d43f 8365 f03f 5f5a adbf af88 49be
000003a0: 9255 5c3f 4ca1 0a3f e62e 5f3f a4a3 42be
000003b0: 7fde 5abf a076 00be b5c2 bf3f 9d1c 303f
000003c0: 8584 efbf 74e2 a4bf 6a47 313f ee3e 463f
000003d0: f2aa 09c0 bba8 b9be ddd2 0dbf 7878 77bf
000003e0: f0d1 0d40 4ae5 3d3e 64b2 47bf c421 eebf
000003f0: b1cc 8ebe 95ec a23d a4b0 a1bf bc72 9fbf
-0.20258118 1.6499546 -0.9912851 -0.40980428 -0.35542014 0.7936318 0.10349176 0.28395763
-0.5929045 0.6645773 -0.5058369 0.878019 1.2824605 -2.0361805 0.6067134 -0.13816322
1.3235742 -1.4973701 -1.5132778 0.8461176 -1.5757054 0.2900969 0.23839048 -1.2995422
-0.34478116 1.3669375 0.80031985 0.030892266 -1.3911067 0.33956322 -1.1264741 0.111338526
0.47979486 0.77541625 -0.24985933 0.67580485 -1.5513633 -1.4932106 1.1237572 -1.8399426
-1.1887193 0.8714977 -0.7576565 0.20319419 0.7624047 -0.1409373 -0.41494754 0.4831181
0.5121025 -1.1722815 -0.04509751 -0.21428026 0.6009183 -2.0786202 -0.46675673 1.1789536
0.15954092 0.5715006 0.15161666 -0.7076974 -0.079314075 0.35743234 -0.2641931 0.16987288
0.3160692 -0.81457454 0.53482324 1.2495223 -0.28276053 0.2089368 0.98226273 0.91363335
-0.3805382 0.4810845 -1.8290223 1.1852677 2.1128302 1.8715316 -1.6808252 -1.0345504
1.4965557 0.2652248 0.9398241 -0.057873946 1.2391009 0.7359961 0.05271451 -0.58109033
-0.06582692 -2.0557327 -2.2283754 -1.1743106 0.2897958 0.10657845 1.343997 2.109274
0.57058823 1.0793753 -0.26694354 -2.3642993 1.9498477 -0.6802851 -1.0578835 2.3467839
-0.4389394 0.10336971 -0.71109796 0.9603242 1.1632425 -1.7051412 0.18851027 0.20197399
-0.82110375 -0.4175909 -0.0918616 -0.23722553 -1.2812791 -1.1566207 -0.7189099 0.5253698
2.0467405 -0.9978709 0.80926126 0.5155633 -0.76505464 0.20130333 0.3579971 -0.76317006
-0.3955707 -0.6688286 0.30751207 -0.5424919 -0.8085257 -0.082597576 -0.18130662 1.1831577
-0.6062373 1.6230718 0.12835641 -0.15438007 -1.5216837 1.6145141 -0.12379806 0.8370928
1.1892098 -1.2191461 -0.9094052 -0.3493252 1.3285187 0.5280793 -0.30822355 0.9211077
-2.1054418 0.6163766 0.28517106 0.13971108 -1.5687789 0.039659 -0.30669326 -0.42836168
-1.1497322 0.82616085 -0.9400098 0.9806479 1.4305255 -1.6330254 -0.008452758 -0.28019518
0.9991493 1.2955655 1.4985183 -1.2065222 0.21365695 -1.19091 -0.6079206 0.9244547
3.4548385 -1.6418256 -1.34357 -1.1834632 3.1239734 -1.4388438 -1.0405346 -1.0362645
0.010819428 -0.81897044 -0.828915 -0.5212203 0.35153326 0.6630828 0.27546856 -1.2565144
-1.8628155 0.42443946 -2.6347044 -1.6913099 -0.49196503 -0.2537113 -0.67373073 -1.0111768
0.648242 -0.59117234 -0.35184038 -2.530541 -0.3605484 0.19660325 1.115137 -0.9019635
0.07239137 0.4908938 -1.1310173 0.221525 0.4515803 -1.6550146 0.64775634 -0.26658025
0.6379667 1.3788031 -0.519515 0.31081763 -2.069093 -1.6861042 -1.1032224 1.0490752
0.83123 0.4743512 1.097067 -0.6167537 1.659047 1.8780979 -1.3543204 -0.19681047
0.8606807 0.5415237 0.87180936 -0.19007736 -0.8549575 -0.12545252 1.4981295 0.6879366
-1.8712317 -1.2881608 0.69249594 0.77439773 -2.1510587 -0.36261544 -0.55399877 -0.96668196
2.2159386 0.18544498 -0.7800658 -1.8604054 -0.27890542 0.07955281 -1.2632031 -1.2456889

weight f4 [7, 4]
00000000: afd6 14bf 566d 9a3f 599d 8fbd 1ebf 89bf
00000010: dd18 7a3f a739 b7be 58b0 993e 10d9 59bf
00000020: e6f9 4cbf 0ed7 203f d3db 263e db46 a5bd
00000030: 04b8 a5be 9b33 dfbf 1350 55bf 7080 d43c
00000040: 0031 8bbf c647 1bbf 9d97 78bf 9328 bf3d
00000050: 70c1 eabe d7d9 7c3f 2183 3b3f 6b40 b6bf
00000060: 2b24 b4bf 6b1f 6dbf 5517 5cbf 2da0 acbd
-0.5814008 1.2064617 -0.070124336 -1.0761449 0.9769419 -0.35786173 0.30017352 -0.85096836
-0.80068815 0.6282815 0.16294794 -0.08070155 -0.32366955 -1.7437624 -0.8332531 0.02594015
-1.0874329 -0.6065639 -0.97106344 0.09333911 -0.45850706 0.987699 0.7324696 -1.4238409
-1.4073538 -0.92626065 -0.859731 -0.084289886

weight f4 [7, 4]
00000000: f300 283f bc3e a73e 2a0d 9cbf e5a7 e0bf
00000010: 655f 2dbf 95ad 12c0 e5b2 a5be eb16 4d3e
00000020: 3db4 14bf a2d0 223e 067a 2abf 7b0f 1b3f
00000030: 5bc5 083f b37d 353f 2241 3e3f 548f 843f
00000040: 5d08 72bf 230d 05bc 0dc6 9c3e e6b4 89bf
00000050: 4dc9 963f 6fc1 04bf 5442 e93e 583c 41bf
00000060: a9f9 33be 5e91 e4be b82b 863f dbb3 d1bf
0.6562645 0.3266505 -1.2191517 -1.7551237 -0.67723686 -2.2918446 -0.32363048 0.20028274
-0.5808752 0.158999 -0.66592443 0.60570496 0.5342614 0.70894927 0.74318135 1.035624
-0.9454401 -0.008120808 0.3061985 -1.0758331 1.1780182 -0.51857656 0.45558417 -0.754827
-0.17575707 -0.44642156 1.0482092 -1.6383013

weight f4 [7, 4]
00000000: 25b7 7b3f 658a bbbf 415f 9abf 9a9e 18bd
00000010: ddec 0fbf 9db0 06bf 77a6 68bf 9e74 413e
00000020: ebe3 3dbf fe3a c33d 9287 853f 3d42 443f
00000030: 9317 333e 8ede c2bc 4753 1ebd 96d7 073f
00000040: 7114 8a3f 811e 1cbf f728 1a3d 0576 e43d
00000050: 3fa0 0d3f 7a3f 88bf c965 af3d d8a5 873e
00000060: 6f21 e4be 5437 e9be dcd0 58bf d314 73bf
0.9832633 -1.465161 -1.2060319 -0.03726063 -0.562208 -0.5261324 -0.90879005 0.18892142
-0.741759 0.09532736 1.0431998 0.7666357 0.17489462 -0.023787763 -0.03865364 0.53063333
1.0787488 -0.60984045 0.037636723 0.11155323 0.5532264 -1.0644372 0.08564336 0.26493716
-0.44556758 -0.45550025 -0.84693694 -0.9495365

weight f4 [6, 4]
00000000: 4d17 ee3f fcaa 1ac0 b106 0ac0 194f 803f
00000010: a37d bfbf ee34 c0bf 329a 7bbf 769e 17be
00000020: 15ba 073f 30b0 a9be 5f1c 97be 4a02 92bb
00000030: 98f2 593f fc84 b03f 96d2 ce3f ddef fb3c
00000040: b82c 2b3f 7c00 523f 6d7f fbbd 8fa0 163e
00000050: 6714 6dbe b7a9 1440 bf18 b53f 3231 8b3e
1.8600861 -2.416686 -2.1566584 1.0024139 -1.4960216 -1.5016153 -0.9828216 -0.14806542
0.53018314 -0.33142233 -0.29513833 -0.0044558393 0.85135794 1.3790584 1.6158016 0.030754024
0.6686511 0.8203199 -0.12280164 0.14709686 -0.23152314 2.3228586 1.4148177 0.2718597

weight f4 [32, 1, 3]
00000000: b127 0e3f 9751 f43e 422f adbe d891 45be
00000010: 5950 693f 61d8 f23e c257 5f3e 4d3a 3abf
00000020: e969 1ebf 8952 c9be 4c5a 473f af3c b9ba
00000030: 35f8 783e 5cd1 6ebf aa41 bd3e 583b 0dbf
00000040: 0b68 d0be c140 bbbe a10e a83d 7477 6c3e
00000050: a9e0 f9bf de4d 9b3e a9a3 d13e 4522 38bf
00000060: c73d 3f3f 3806 17bf 8807 54be 1901 343f
00000070: 4055 b7bd bfa1 02bf 3845 173f 0905 f7be
00000080: 62e1 cfbd 9549 0abe 4d9f c6bf 6fa6 ce3d
00000090: af24 dabe 87a5 1d3f d51d 68be d4ab 453d
000000a0: 6497 ebbd 2442 a53f 80c8 da3e e466 083f
000000b0: 0c22 2cbf 183a f13e 2c6d 32bf 6e83 183e
000000c0: f078 213f 8aa9 273f ca7a 9cbd d437 143d
000000d0: c17c 043e 4147 fdbf 5b15 06be 14bb 443f
000000e0: 0fc1 e13e fc6c b33e 58b1 1abf 75e9 0fbf
000000f0: a1c2 ebbe 74e4 613f 576b 4ebc ca43 0c3e
00000100: fb78 1d3f 7cbf 1e3f c50b c2be 1ba4 693f
00000110: addf c73d a497 233f b3db 2fbf 7f05 dabd
00000120: 8c2c 03bf 362c 0c3f da61 723d fa74 bdbe
00000130: c14a 9dbd e5ec 223f d8bf 023f 3526 80be
00000140: d431 2dbf 1236 bc3c cef5 d73e 588d 70bf
00000150: c3b7 293e b436 84bf 8c07 063f 1f0e 02bf
00000160: 6f44 073f 4490 f2bc 59f6 3a3e 5e09 08bf
00000170: 2b21 fcbe 11f1 4d3f 2353 8dbd 4b29 fabe
0.55529314 0.47718498 -0.33825117 -0.19293916 0.91138226 0.4743071 0.2181082 -0.7274521
-0.61880356 -0.39320782 0.7787216 -0.0014132465 0.24313433 -0.9328821 0.3696416 -0.55168676
-0.40704378 -0.3657284 0.08205915 0.23092443 -1.9521686 0.30332845 0.40945175 -0.7192729
0.7470364 -0.58993864 -0.20705998 0.70314175 -0.08951807 -0.51028055 0.59089994 -0.4824603
-0.1015041 -0.13504632 -1.5517365 0.100903384 -0.42606112 0.615807 -0.2266763 0.04825957
-0.11503485 1.291081 0.42731094 0.53282 -0.6723945 0.47114635 -0.69697833 0.14893886
0.6307516 0.6549307 -0.07640608 0.036186054 0.12938215 -1.978737 -0.13094084 0.7684796
0.44092605 0.35044086 -0.60426855 -0.562156 -0.46046928 0.88239217 -0.012598834 0.13697734
0.61512727 0.6201093 -0.37899604 0.9126603 0.0975946 0.6390326 -0.6869461 -0.106455795
-0.5123985 0.5475496 0.05917535 -0.3700331 -0.07680274 0.6364272 0.5107398 -0.2502915
-0.67654157 0.022975001 0.42179722 -0.93965673 0.16574006 -1.0329194 0.52355266 -0.508028
0.52838796 -0.029609807 0.18258037 -0.53139293 -0.49244055 0.80445963 -0.06900623 -0.4885963

bias f4 [32]
00000000: 912b ad3d da2a aabe d8f4 55be 0911 233f
00000010: e204 6e3f 8b1b 483f ad66 e0be f3c2 313f
00000020: 55fa 4dbf eb23 bebd c925 c63e 5a05 ffbe
00000030: 7a3d 34be 4ba8 b0be 03fa 64be 63e8 8c3f
00000040: 7c75 abbc 9aa6 2f3f e6c4 cf3d 6c13 b5be
00000050: 6868 08be 8ec5 8c3e 163e fe3e 74ee c43e
00000060: 1e37 093f 2f87 f63e 5dad 0d3f b82c 313f
00000070: d2f3 12bf f6e0 a63f 7254 80bf 9b7b 173e
0.08455575 -0.33235818 -0.20894182 0.6369787 0.929762 0.7816703 -0.43828335 0.69438094
-0.804601 -0.092841946 0.38700703 -0.4980877 -0.17601576 -0.34503397 -0.22360997 1.1008419
-0.020930044 0.6861359 0.10144977 -0.3536638 -0.13321078 0.27494472 0.49656743 0.38463175
0.5359973 0.48150012 0.55342656 0.6920886 -0.5740329 1.3037403 -1.0025771 0.14793245

weight f4 [64, 32, 3]
00000000: 0556 a83c 0392 cabc 01a5 443e 41cd 5f3e
00000010: 20ae c33e b083 843d aa34 c0be 50fe 5a3d
00000020: ddd7 a63e 3fe7 d6bd 31e2 123f 8e55 9cbc
00000030: fb3a 403f b00a b1bf 14b1 753e 18ff f83e
00000040: 0eed 81bf 30ad 873e 56c7 9ebe ee8f ed3e
00000050: 8a69 c2bf 3695 ad3d 17ca 5cbe 3b1c 06bf
00000060: a0a7 383e 4979 aebe 9974 953e 6210 583e
00000070: 0554 bdbe 282f c73c d75e d23d 0338 99be
00000080: 6eb2 153f 9bcc cfbc 714c a3bf e776 8fbe
00000090: 8c43 db3e e238 0cbe c403 b4be e06e 2dbe
000000a0: 3493 a63e 5e6e b93c 60c3 39bd 4063 b6bc
000000b0: 03f0 d2be 8a52 adbd a166 1bbf 554b 403f
000000c0: a307 e5be 9ffc c63e 7a87 063f 0403 76bd
000000d0: b6e4 d93e 31e0 f4bf 75b9 9abc 2a1f 6e3e
000000e0: f2a1 353e 0d16 fabe 27a9 1c3d 4b90 b43e
000000f0: ab88 c5bd 9c67 fb3e 0af5 e8bd 9b4b 49bf
00000100: edcb 423f 15fc e13e 14bf 28bd 6c7b 813e
00000110: cd22 81be c991 7d3e 3e92 cebe fd9b aa3e
00000120: f0c7 3bbd c607 4b3f a827 eb3d c1ba c5be
00000130: cf19 f43e 3bb1 a23e 8f0e 103e 1506 dabc
00000140: c7ec bfbe ac06 07be 06bb 9f3e 86c6 a9bf
00000150: 46cd 203f 29d7 85bf 7819 043e dfad 383e
00000160: 5f32 a63c eef2 b0bd f976 14bf d858 873d
00000170: 20cc c33d 64c2 a03d 344d 1ebe 19e2 8e3d
00000180: e2ed 703c f8ff 833e 7714 9c3e ee66 b6be
00000190: 79b4 b9bf 2be5 0f3f fd3f 50be 4c56 af3d
000001a0: 4849 f03e 9716 5abe 1682 323e d039 ddbd
000001b0: 9587 4cbe 2a03 e63e 0149 ffbe 1fec c1be
000001c0: 0b2d 8dbe d043 a23e 7a0f 6bbf 5506 8e3e
000001d0: 0a61 423f 7c66 cfbe f7a4 e63e 70f9 713e
000001e0: 72fd 63bd bc30 4a3f 58be 29bf ae82 ddbe
000001f0: bb24 823e 5e09 b73e 1f8e 823e 31d3 103f
00000200: 2fdf edbe 8642 ffbe 3bf0 5d3e 1d48 c6be
00000210: e58d 2fbf 0b97 b03e 45b2 11bf 42bb 253d
00000220: 9628 2dbe f643 813d b3cb 54bd 9b52 0b3f
00000230: d896 a93e 7dc9 5dbd 6407 513f 6c15 6fbf
00000240: 8060 c53e 2042 8fbe 67eb 0c3f cfef 4ebf
00000250: 3b55 c43e c536 ef3e d918 44be 30cf c3bf
00000260: 5d13 123f 37a1 58be 2249 ad3c 7831 1ebe
00000270: 760a 85bd d9b8 6dbe 0859 a63e 85eb be3e
00000280: 1595 e6be 96a8 0b3f 0a4a 9dbe 4895 613d
00000290: 32ff 3d3e 1fda b83e 15e1 58bd e81a 1dbe
000002a0: 927b cbbe 47b6 2abf 7877 d73e fcc9 89be
000002b0: 3160 c6bd 14c1 633f 76c8 00bf 8bd6 15be
000002c0: 1e6a 143f 0607 eebe 940e 363f 0132 fdba
000002d0: 354f 18bf 3703 4a3e df54 94be 4c22 0abe
000002e0: c729 b3be dc2f d5bd 98b0 853d a0a8 003d
000002f0: 3992 063f 6166 64be ac34 4fbd 524b 4a3e
00000300: 5b77 cfbe 178b cd3e eeff 463e b59d dbbd
00000310: 018d 3f3e a05b c8bf 0154 e43e 2ad3 f0bd
00000320: e42c 23bd b304 073d 0d91 363e ac27 8bbf
00000330: 7d7d f8be b1d5 703e 2276 b73e 69c6 443c
00000340: ede8 11bf 06c7 edbe 8461 153e 4943 37bf
00000350: 12b5 90bf c9c9 e9bd db5e cf3e 087f 0e3e
00000360: 1b7f debd d41f 7a3e 2d56 973e b5a4 1fbd
00000370: 9f21 f33e 8dae 363f 1e40 823e 8926 233d
00000380: 156e 8bbd 0b80 f8be e87c cb3e 08be d1be
00000390: c12f cdbe b869 403e 85b4 c1bf 2769 24be
000003a0: eb7a a83d cfcb 313f 7565 11bf 8e50 173f
000003b0: dc94 9f3e f656 3dbe fb1e c93d 63e4 75be
000003c0: 6cee 23be 0896 253e 4a2d 063c 2724 67bd
000003d0: 5581 4cbf 0261 4cbf 691b febd ea5c 883e
000003e0: c00b bdbf 488d b83c 7dee 883d d6ff 8a3c
000003f0: 57c2 213e c573 6c3e d949 b1bf 73f7 813e
0.02054883 -0.024727827 0.19203569 0.21855642 0.38218784 0.0647043 -0.3754018 0.053465188
0.32586566 -0.104933254 0.5737639 -0.019083764 0.7509 -1.3831387 0.23993331 0.4863212
-1.0150468 0.2649932 -0.31011456 0.46398872 -1.5188458 0.08475725 -0.21561466 -0.52386826
0.18032694 -0.34076908 0.2919052 0.211 -0.36978164 0.024314478 0.102719955 -0.29925546
0.5847539 -0.025366118 -1.2757703 -0.28020403 0.42824972 -0.13693574 -0.35159123 -0.16936827
0.32534182 0.022635635 -0.04535234 -0.022264123 -0.4119874 -0.08463009 -0.60703474 0.7511495
-0.4473239 0.3886461 0.5255047 -0.06006147 0.42557305 -1.9130918 -0.01888726 0.23254076
0.17737558 -0.48844948 0.038247254 0.35266337 -0.09645208 0.49102485 -0.113748625 -0.7863099
0.76092416 0.44137636 -0.04119785 0.25289476 -0.25221863 0.24762644 -0.4034595 0.33322135
-0.045844972 0.79308736 0.11482173 -0.38619044 0.4767594 0.3177584 0.14068054 -0.026614228
-0.37485334 -0.13186139 0.31197375 -1.326371 0.6281322 -1.0456287 0.1290034 0.18035077
0.02028769 -0.08640085 -0.5799404 0.066087425 0.09560418 0.07849577 -0.15459138 0.069767185
0.014705153 0.25781226 0.30484363 -0.35625404 -1.4508201 0.5620906 -0.2033691 0.08561382
0.4693091 -0.2129768 0.17432436 -0.108020425 -0.19973595 0.4492429 -0.49860385 -0.3787546
-0.27573428 0.31692362 -0.9182049 0.27739206 0.7592932 -0.40507877 0.45047733 0.23630309
-0.055661626 0.7898061 -0.66306067 -0.43263763 0.25418648 0.35749334 0.25499055 0.5657225
-0.46459338 -0.4985544 0.21673672 -0.38726893 -0.6857589 0.34490237 -0.5691264 0.040461786
-0.16910014 0.06311791 -0.051952075 0.5442292 0.33122897 -0.054147232 0.816519 -0.9339206
0.38550186 -0.27980137 0.55046695 -0.8083467 0.38346276 0.46721473 -0.19150104 -1.5297604
0.57060796 -0.21155249 0.021153037 -0.15448558 -0.06496136 -0.23215045 0.324898 0.37289062
-0.45035616 0.54554117 -0.3072055 0.055074006 0.1855438 0.36103913 -0.05294903 -0.15342295
-0.39742714 -0.66684383 0.42083335 -0.26911914 -0.09686316 0.8896649 -0.5030588 -0.14632623
0.5797442 -0.46489733 0.71115994 -0.001931727 -0.5949586 0.19727789 -0.28971002 -0.13489646
-0.3499281 -0.10409519 0.06527823 0.031410813 0.5256687 -0.2230468 -0.05058734 0.19755295
-0.40520748 0.4014518 0.19433567 -0.107234396 0.18706132 -1.5652962 0.4459534 -0.11759026
-0.039837733 0.032963466 0.1782877 -1.0871482 -0.4853324 0.23519017 0.35832316 0.012010195
-0.5699604 -0.46440905 0.1458798 -0.71587044 -1.1305258 -0.114154406 0.40502056 0.13915646
-0.10864087 0.24426204 0.29557934 -0.038975436 0.47486588 0.71360093 0.25439543 0.039831672
-0.06808106 -0.4853519 0.39743733 -0.40965295 -0.40075496 0.18790329 -1.5133215 -0.16055737
0.0822657 0.6945161 -0.56795436 0.5910729 0.31168258 -0.18490204 0.09820362 -0.24012904
-0.1600892 0.16170514 0.008189509 -0.056430962 -0.79884845 -0.7983552 -0.12407572 0.26633388
-1.4769211 0.022528306 0.06686113 0.016967695 0.15796791 0.23091038 -1.3850662 0.253841

bias f4 [64]
00000000: 851b f2bd bdd8 943e 2dbb 0d3d 52d9 013e
00000010: dbfd 0d3e 2275 61be 4dc1 e43a 0d6b 383d
00000020: 7f34 04bf 9cb6 da3d b578 173e 83c0 bbbd
00000030: 05a0 06bf 2047 9b3e f181 1e3f d031 d8be
00000040: e52e fc3e 44a9 89be b65d 5c3d bb3a 553e
00000050: 9b8a cb3d 89ed c2bd 1d89 74be 7041 36be
00000060: d97e a73d a98d c9bd fae8 803e f62f 22be
00000070: 8f6b d1be ac96 553d 1fb7 51be 58bf a83e
00000080: 9048 c63e 2407 0d3f 46ec 683e d4da 9a3e
00000090: cdab 8d3e 7aab 063f 1956 273d e075 b63c
000000a0: 93e5 b9be af35 2d3e c371 c4be cbe4 e9be
000000b0: 8ac5 48be d8f4 fdbd 7671 bebd 9079 213c
000000c0: 5843 9c3d fbae 063f b7c6 4ebe 9eea b9be
000000d0: bbde cc3c e067 a2be f1a6 f33e 4c6b 1a3e
000000e0: 90fb 0dbf 42e0 c1bd 5cb9 5dbe ee59 cc3d
000000f0: 4fba be3e 8f80 7fbf 5930 8abe e864 91bd
-0.11821655 0.29071608 0.034602333 0.12680557 0.1386637 -0.22017339 0.0017452628 0.045023967
-0.516426 0.10679361 0.1479214 -0.09167578 -0.5258792 0.30327702 0.61917025 -0.42225504
0.49254528 -0.26886952 0.053800307 0.20823185 0.09938546 -0.095179625 -0.2388043 -0.177984
0.08178491 -0.09841473 0.25177747 -0.15838608 -0.40902373 0.052145645 -0.20480011 0.32958484
0.38727236 0.5508902 0.22746381 0.30245078 0.27670136 0.526054 0.040853593 0.022273004
-0.36307964 0.1691501 -0.38368043 -0.45682368 -0.19606605 -0.12400216 -0.09298985 0.009855643
0.07630032 0.5261075 -0.20192991 -0.3631181 0.02500855 -0.31719875 0.47588304 0.15079993
-0.5546198 -0.09466602 -0.2165274 0.0997809 0.37251517 -0.9980554 -0.2699001 -0.070993245

weight f4 [32]
00000000: 4ec4 5b3f 5462 ad3f 95bf 543f 6039 813f
00000010: 632a 993f 6952 973f 5479 a63f c4d3 8b3f
00000020: c015 913f 8995 743f 7c87 8a3f 9892 953f
00000030: 3172 883f 0095 543f 1a83 7f3f 9a8b 943f
00000040: 6aa8 773f 018c b83f 0296 a33f 74e4 863f
00000050: ce80 6e3f 33a2 873f 1020 833f d2b4 8e3f
00000060: b69e 873f 9b64 863f d916 763f b7d6 a33f
00000070: e428 9b3f 77d5 8f3f 27f3 7b3f 6917 793f
0.8584641 1.3545632 0.8310483 1.0095634 1.196606 1.1822025 1.3005776 1.0924001
1.1334763 0.9554067 1.0822597 1.1685362 1.0659848 0.83039856 0.9980942 1.1605103
0.96741354 1.4417726 1.2780154 1.0538468 0.9316529 1.0596374 1.024416 1.1148932
1.059531 1.0499452 0.9612861 1.2799901 1.2121854 1.1237019 0.98417896 0.97301346

bias f4 [32]
00000000: 6a81 dfbe d026 febe c6b6 87be 76b4 fc3d
00000010: fc15 6abe 08c1 4fbf 9d79 47bf 7658 c8be
00000020: aa7f 8ebe 3d6a c9be 5462 9cbe 3081 1abf
00000030: ab0f 05bf 07e6 1dbe 719b afbe 3a8a 25be
00000040: 9eb4 25bf 78b3 40bf d69e fcbe aa65 b0be
00000050: 9b69 ac3d 17c1 30bf ae7c 2d3d 2fa6 71be
00000060: e18c 70be 85a5 d0be 45d2 d3be 1b14 45bf
00000070: a467 45bd 1b03 7bbe 0d4b a5be 2e8b aabe
-0.43653423 -0.49638987 -0.26506633 0.12339108 -0.22859949 -0.8115392 -0.7791994 -0.3912999
-0.27831775 -0.39338866 -0.30543768 -0.60353374 -0.5197703 -0.1541978 -0.3429828 -0.1616601
-0.64728725 -0.7527385 -0.49339932 -0.34452564 0.0841858 -0.6904463 0.042355232 -0.2359855
-0.23491241 -0.4075128 -0.4137136 -0.76983804 -0.048194543 -0.24512903 -0.32283822 -0.3330931

running_mean f4 [32]
00000000: 747c 563d c7a5 ccbe 67f3 0fbe d97d 1d3f
00000010: 30a0 713f 3292 5a3f 8838 a9be 8e86 343f
00000020: a5dd 4cbf dd70 bebd d486 c73e 1632 d6be
00000030: 0eda 30be a4d6 d8be bfb8 6abe 4749 8d3f
00000040: 0075 a5bd c4c2 4d3f 6bef 263d f451 9bbe
00000050: 5e41 1dbe 2d8c 483e 1285 ec3e 79a5 c93e
00000060: 1047 073f 65be ee3e 7d02 153f 1cac 3a3f
00000070: 7aaf 0fbf 5c17 a73f a3d0 73bf c69f 0f3e
0.05236478 -0.39970228 -0.14057694 0.61520153 0.9438505 0.85379326 -0.33050942 0.70517814
-0.800257 -0.09298871 0.38970053 -0.41835088 -0.17270681 -0.42351258 -0.22922038 1.1037987
-0.080789566 0.80375314 0.04075567 -0.30335963 -0.15356967 0.19584723 0.46195275 0.39384058
0.5284281 0.46629634 0.5820692 0.7291887 -0.5612713 1.3054004 -0.9524023 0.14025792

running_var f4 [32]
00000000: a8ca 183f ad3c 823f 0138 673f 0a73 1f3f
00000010: e1ce 573f 14e1 183f 0061 5240 2a33 273f
00000020: 3d56 483f 8cd4 2b3f 4d85 f63e 9979 0b40
00000030: a05d ef3e 3e82 b63f a9f2 493f 739a 113f
00000040: d08d 4e3f c31c 5840 9493 413f 065d 3c3f
00000050: 5d56 4e3f c2c6 453f 631e 553f 765d 393f
00000060: e0dd e93e 2376 f43e c175 323f c8d6 5a3f
00000070: 9df0 8a3f 7972 d93e 0f2f 063f 40cb 483f
0.5968423 1.0174767 0.9031983 0.6228491 0.8430005 0.5971844 3.2871704 0.65312445
0.7825659 0.67121196 0.48148575 2.1792967 0.46751118 1.4258497 0.78885895 0.56876296
0.8068514 3.3767555 0.7561581 0.7357944 0.8060053 0.77256405 0.8324949 0.72408235
0.4567709 0.4774638 0.6971093 0.8548398 1.0854679 0.42470148 0.52415556 0.78435135

weight f4 [64]
00000000: dca8 923f 58e9 8d3f 5c62 b43f ac6e 473f
00000010: 73ff 9a3f a9b2 9e3f acfe 5e3f 4db1 7b3f
00000020: 5924 db3f bc52 b13f fc8f bf3f e4aa 8f3f
00000030: 53e4 723f 2cd6 903f f757 ac3f 1d2b 733f
00000040: 6dc2 693f b690 6e3f 3a4d a73f ee3b a43f
00000050: 5cbe 553f 3d0e 8e3f 992c 9d3f 41d1 c43f
00000060: ee02 7f3f 8da0 8d3f ab0d 363f 95e0 583f
00000070: dc9b 843f 1541 e63f 0015 503f 0b7f 5a3f
00000080: 9beb 8e3f 3c11 3a3f 07df 8d3f f851 a63f
00000090: ed09 8c3f d05b 843f f9ed 903f 24d4 863f
000000a0: 5d65 973f d952 9f3f f2d5 5f3f bba5 873f
000000b0: 287b 983f 0ebc 953f f57b 543f 2ecb ac3f
000000c0: dff8 5c3f 166f 883f 0fdb 923f 266d 753f
000000d0: bbbb 973f 386b 983f 9e47 693f 1c1c 963f
000000e0: 152e a23f 7fc7 913f 9958 3d3f cb3c 903f
000000f0: 65c2 a53f 8e82 953f 144c 893f f96e 9a3f
1.1457782 1.1086836 1.4092517 0.77903247 1.2109207 1.2398273 0.8710735 0.98317415
1.7120467 1.3853374 1.4965816 1.1224027 0.94879645 1.131536 1.3464345 0.9498766
0.91312295 0.9318956 1.3070443 1.2830789 0.8349359 1.1098095 1.2279235 1.5376359
0.99613845 1.1064621 0.71114606 0.84717685 1.0360065 1.7988611 0.81282043 0.853501
1.1165651 0.7268255 1.1083688 1.2993765 1.0940529 1.0340519 1.1322623 1.053349
1.1827809 1.2447158 0.8743583 1.0597452 1.1912584 1.1698015 0.83001643 1.3499506
0.8631725 1.0658901 1.1473101 0.9586967 1.1854166 1.190772 0.91124904 1.1727328
1.2670313 1.1389006 0.73963314 1.1268553 1.294995 1.1680467 1.0726342 1.2065116

bias f4 [64]
00000000: 515e 2bbe 945a 8bbe 8782 18bf 5360 32bf
00000010: b262 b9be 385b 04bf 2b11 8bbe ccf5 52be
00000020: a984 09bf c5ed 47bf 10e2 1fbf 1a5c 9abe
00000030: 7690 9cbe b125 5bbe 5daa ecbe 3ab4 98be
00000040: 9b03 38bf a774 d0bc 2cb1 04bf 13dc 07bf
00000050: 16f5 a0be d4f4 83bd 40bc a4bd 570f bcbe
00000060: 0151 f1be 2efb d4bd 2877 3fbf fef2 773d
00000070: 2d69 f0bd 7a3e 1bbf d707 62be ed95 4ebf
00000080: c1e8 11bf c934 78bd 59a7 b2be 067f d9be
00000090: 88df 1dbf 8b44 48be f559 8ebe 1cee 92be
000000a0: 4eeb e6be 311c 83be cab3 c7bd e797 38be
000000b0: 24f8 d0be 888f 89be cae8 14bf 88ac c1be
000000c0: 6dcf ffbe 9323 e5be 1102 53be c086 683e
000000d0: 87e5 47be 119b e1be 28aa 54be 1a22 cbbe
000000e0: fa70 28be ca79 3cbf 8d9e a3be 93ee b1be
000000f0: 0de1 c3be e098 0ebe 24e6 a2be 51ce a8bd
-0.16735198 -0.27217543 -0.5957417 -0.6967823 -0.3620811 -0.5170169 -0.27161536 -0.20601577
-0.5371805 -0.7809718 -0.6245432 -0.30148393 -0.30578965 -0.21401097 -0.46223727 -0.29825002
-0.718805 -0.02544625 -0.5183284 -0.5307018 -0.31436986 -0.06443182 -0.08043718 -0.36730453
-0.47132114 -0.10399471 -0.74791193 0.06053447 -0.11738811 -0.60642207 -0.22073303 -0.8069752
-0.5699578 -0.060597215 -0.348933 -0.42479724 -0.61669207 -0.19557397 -0.27803007 -0.28697288
-0.45101398 -0.25607446 -0.09751089 -0.18026696 -0.40814316 -0.26867318 -0.5816771 -0.37826943
-0.4996294 -0.44753703 -0.20606257 0.22707653 -0.19521151 -0.4406362 -0.20768034 -0.39674455
-0.16449347 -0.73623335 -0.31956902 -0.3475233 -0.38257638 -0.13925505 -0.31816208 -0.08242477

running_mean f4 [64]
00000000: cc25 a0bf cf77 bbbf 032e b7c0 0f00 4c40
00000010: b0a8 90bf d959 20c0 263c 02c0 5c6a dcc0
00000020: 834d 26c1 6256 1bc0 48dd 96c0 8860 373f
00000030: 3a2c e4c0 cfc3 c03f fec5 89bd a835 b4c0
00000040: 75ee 4441 57ff 02c1 a0c1 04c1 3b5d 90c0
00000050: 9987 1741 76da 26bf a539 1bc1 a998 a8c0
00000060: b10e 953d 6bf0 c4c0 5b7a f940 d6dd 3541
00000070: c35c 8abf d0b3 0ac1 1225 13c0 e0cc 8241
00000080: 5761 eac0 d9d1 1c41 b708 2cc0 d466 98c0
00000090: c294 f73f 758a 4bc0 b13c 0dc1 2e08 7fbf
000000a0: ed4b 7cc0 3fae 9ac0 c785 32bf 2af0 e5c0
000000b0: 790f 64c0 d76e e7bf 4e65 2841 befa 50c0
000000c0: f7df b240 ac47 89c0 2eb1 65c0 f36c 5dbf
000000d0: 8af7 663e 8137 d4c0 2bf2 8940 9b11 b73f
000000e0: 1774 5dbf 7b9a b63f caf2 2440 375d afc0
000000f0: 11f9 62c0 fe3f 3fc0 0869 3741 51c1 4d3f
-1.2511535 -1.4645938 -5.7243667 3.1875036 -1.1301479 -2.5054839 -2.0349212 -6.8879833
-10.393924 -2.4271474 -4.714512 0.7163167 -7.1303988 1.5059756 -0.06727217 -5.63155
12.308217 -8.187339 -8.297272 -4.5113807 9.470605 -0.65177095 -9.701573 -5.2686353
0.07278193 -6.154348 7.796186 11.366659 -1.0809559 -8.6689 -2.2991376 16.350037
-7.3243823 9.801232 -2.688032 -4.7625523 1.9342272 -3.1803257 -8.827317 -0.99621856
-3.9421341 -4.8337703 -0.6973538 -7.185567 -3.5634444 -1.8080701 10.524733 -3.265304
5.5898395 -4.289999 -3.5889392 -0.8649437 0.22555366 -6.6317754 4.3108115 1.4302248
-0.86505264 1.4265894 2.5773187 -5.480129 -3.5464518 -2.9882808 11.463142 0.803731

running_var f4 [64]
00000000: 038d 1a42 1538 1c42 e5d9 5f42 5118 4942
00000010: ef08 4f42 1130 7f42 04d6 5342 2a9b 8442
00000020: e8c8 7b42 1c33 4f42 022a 5242 e08d 3b42
00000030: 1648 7f42 8e6c 7042 fdaa 7142 5f7c 9642
00000040: 6571 9842 eed9 4242 6057 a842 e305 8f42
00000050: 9310 7442 0689 7242 5a54 8542 2c35 6b42
00000060: 85f3 6b42 68a6 a742 0628 5242 f1e8 7b42
00000070: 0207 0242 5861 d742 a5f4 1b42 0a66 b342
00000080: 806d 7042 47a8 4242 6030 0742 307b 9242
00000090: cb1a 2b42 07fc 9442 fca3 8542 46d8 6942
000000a0: f32b 8b42 b835 2642 1e72 3b42 e1cb 1b42
000000b0: e5f5 2242 0079 6342 5fb5 5842 47b9 4142
000000c0: 51ff 4142 834a 4e42 ff35 1c42 eaab 6642
000000d0: 798b 8c42 191c 1d42 3130 fa41 9254 3b42
000000e0: 3bf2 4442 4a1d 8642 501e e841 c7e3 1042
000000f0: dbde 9442 875b 7242 b5d9 8c42 5232 5242
38.637707 39.054768 55.962788 50.273746 51.758724 63.79694 52.959 66.303055
62.946198 51.79991 52.541023 46.88855 63.820396 60.10601 60.41698 75.24291
76.22147 48.712822 84.170654 71.5115 61.016186 60.633812 66.66475 58.801926
58.987812 83.82501 52.539085 62.97748 32.506844 107.690125 38.98891 89.699295
60.106934 48.664333 33.79724 73.2406 42.776165 74.49224 66.82028 58.461205
69.58584 41.55246 46.861443 38.9491 40.74013 56.868164 54.17712 48.430935
48.499332 51.572765 39.05273 57.667885 70.27241 39.27744 31.273531 46.83259
49.236553 67.057205 29.014801 36.22244 74.435265 60.589382 70.42521 52.54914
