government_icfes_dataset/mlartifacts/956201576569699187/16e7ca9b004a44bcb8a7a5f35e82daf8/artifacts/model_classification_20250521_233228.pt (torch, 394351 bytes, 39 tensors)

embeddings.0.weight f4 [4, 4]
0	0xbebe48d7	-0.37164947
1	0x3f8f92c9	1.121667
2	0xbf6bd7e9	-0.9212633
3	0x3dee9ac7	0.11650615
4	0xbf10658e	-0.5640496
5	0x3c90e0da	0.017685343
6	0x3f9ad29c	1.2095523
7	0xbf89a3bd	-1.0753094
8	0x3f490df5	0.7853692
9	0xbfcce60e	-1.6007707
10	0x3fa93fd0	1.3222599
11	0x3f8283ce	1.0196474
12	0xbd89476e	-0.06703077
13	0x3eb73843	0.35785112
14	0x3f3c4e9a	0.73557436
15	0x3f8c93fb	1.098266

embeddings.1.weight f4 [3, 4]
0	0xbf24c015	-0.64355594
1	0x402580da	2.5859895
2	0xbfb0ca1c	-1.3811679
3	0x40101e0b	2.2518337
4	0x3f2c2d11	0.67256266
5	0xbf914357	-1.1348675
6	0xbf106c31	-0.56415087
7	0xbf116851	-0.567998
8	0x3ec594ae	0.38589996
9	0xbd6036c7	-0.05473974
10	0xbfcfb304	-1.6226506
11	0xbf500b48	-0.81267214

embeddings.2.weight f4 [5, 4]
0	0x3f43b8ff	0.76454157
1	0xbed1299f	-0.40852067
2	0xbd431857	-0.047630634
3	0xbec891fa	-0.3917387
4	0x3fb3c206	1.4043586
5	0x3fbd8e90	1.4809132
6	0x3f3de6ca	0.7418028
7	0x3f95f8e1	1.1716577
8	0xbf0dc628	-0.5538049
9	0x3dbe08f5	0.09279052
10	0x3fc54ea9	1.541463
11	0xbf4ad381	-0.7922898
12	0xbefa2b33	-0.48861083
13	0x3f01cd8a	0.5070425
14	0xbed10b7c	-0.40829074
15	0xbf595a6a	-0.84903586
16	0xbf14c279	-0.5810924
17	0xbf970bf9	-1.1800529
18	0x3dbe33f3	0.09287252
19	0xbe614ac3	-0.22001176

embeddings.3.weight f4 [7, 4]
0	0x3c5d89eb	0.013521652
1	0x3f50a77f	0.8150558
2	0x3fddf9e6	1.7341888
3	0x40179eec	2.3690748
4	0xbf4eeda9	-0.8083139
5	0xbfba9380	-1.4576263
6	0xbf1a8604	-0.6036074
7	0xbee68001	-0.45019534
8	0x3fec8002	1.8476565
9	0x3f15c8b8	0.585094
10	0x3f2c4d2b	0.6730525
11	0x3d1152b3	0.03547926
12	0x3f2d36f1	0.6766196
13	0xbee272fa	-0.44228345
14	0x3f2c6196	0.67336404
15	0xbe5f5e31	-0.21813275
16	0x3fae553d	1.3619763
17	0x3f2a34ef	0.6648702
18	0x3f13ebaa	0.5778147
19	0xbff80660	-1.9376945
20	0xbe876d23	-0.26450452
21	0x3f8c268e	1.0949266
22	0xbebb9180	-0.36634445
23	0xbd35441b	-0.044254404
24	0xbeae5760	-0.34051037
25	0x3e9b2aea	0.30306178
26	0xbf6a3c0d	-0.9149788
27	0x3eb90d4e	0.36142963

embeddings.4.weight f4 [7, 4]
0	0xc006d11c	-2.106513
1	0x3dc54aa5	0.09633378
2	0xbe87834c	-0.2646736
3	0x3f477940	0.7791939
4	0xbf42ca43	-0.76089877
5	0xbf61f336	-0.88261735
6	0x3ecde263	0.40211782
7	0x3f73f104	0.95289636
8	0x400b22eb	2.1740062
9	0x3fa6d174	1.303267
10	0xbe81d8ad	-0.25360623
11	0x3d9cb4ba	0.07651658
12	0x3f8ef45a	1.116832
13	0x3f71ecae	0.9450177
14	0xbf03f057	-0.51538604
15	0xbe727624	-0.2367788
16	0xbf8bfa68	-1.0935793
17	0xbea56e1f	-0.32310578
18	0xbe94dd21	-0.29074958
19	0xbf396c68	-0.7243104
20	0x3f4ddf1d	0.8041857
21	0x3eff6c7f	0.49887463
22	0x3fbb462b	1.4630789
23	0x3f020f6a	0.5080477
24	0x3e7ab0c9	0.244815
25	0xbe600832	-0.21878126
26	0x3f59d986	0.8509754
27	0x3f03baff	0.5145721

embeddings.5.weight f4 [1025, 4]
0	0x3f351de3	0.7074873
1	0x3fc5c815	1.5451685
2	0x3db5736b	0.08859905
3	0x3eb06bbb	0.34457192
4	0x3e8da320	0.27663517
5	0x3f45d30b	0.7727515
6	0x3f1398db	0.57655114
7	0xbfd85bb8	-1.690299
8	0x3fc3cf69	1.5297672
9	0x3fbc8649	1.472848
10	0xbf1b8bd7	-0.60760254
11	0x3edaa3fa	0.4270323
12	0x3ea43670	0.32072783
13	0xbecb6882	-0.3972817
14	0xbe2b762e	-0.167443
15	0x3f6a6335	0.9155763
16	0xbede13de	-0.43374532
17	0xbf9f8c04	-1.2464604
18	0x3fa9c88f	1.3264331
19	0x3f883c66	1.0643432
20	0xbd3cee37	-0.046125617
21	0x3e57f53a	0.2108964
22	0xbe959ac6	-0.29219645
23	0xbfa6d7b1	-1.3034574
24	0xbec0b3fe	-0.37637323
25	0xbfdb18a0	-1.711689
26	0xbfa503bc	-1.2891765
27	0xc0076873	-2.11575
28	0xbf2f1ba5	-0.6840156
29	0x3fcde15e	1.6084402
30	0xbf9eaa60	-1.2395744
31	0x3f96242b	1.1729788
32	0x3e59cbb2	0.2126911
33	0x3de6ed39	0.112757154
34	0xbedb068f	-0.4277844
35	0x3dad1c4e	0.08452664
36	0x3e429353	0.19001512
37	0x3e573f15	0.21020158
38	0xbd66f61a	-0.056387044
39	0xbeb65965	-0.35615078
40	0xbfb843d2	-1.4395697
41	0xc0138f84	-2.3056345
42	0xbea97b49	-0.33101872
43	0xbf93f659	-1.1559554
44	0x3d8c0f47	0.068388514
45	0xbddd4660	-0.108044386
46	0xbfee154a	-1.8600247
47	0xbdb4861d	-0.088146426
48	0xbf12e7d8	-0.57385015
49	0x3f47cb37	0.78044456
50	0x3ee98659	0.45610312
51	0xbefeb6be	-0.49748796
52	0xbcd71b94	-0.026258267
53	0x3f9edfbe	1.2412031
54	0xbf71a45c	-0.9439142
55	0x400ec345	2.2306683
56	0x3e34a668	0.17641604
57	0xbf8d5b76	-1.1043537
58	0xbf612f1b	-0.879625
59	0xbfb58d02	-1.4183657
60	0xc010803e	-2.2578273
61	0x3fd846fe	1.6896665
62	0x3e5020c4	0.20324999
63	0x3f9eb1cc	1.2398009
64	0xbe80bbda	-0.2514332
65	0x3f32e637	0.6988253
66	0xbfe5e384	-1.7960057
67	0xbf0f0bf6	-0.55877626
68	0xbf768fc3	-0.9631311
69	0xbf7e175c	-0.99254394
70	0x3f381402	0.7190553
71	0x3d08cdf7	0.03339955
72	0xbf662b2a	-0.89909613
73	0x3f07cd0b	0.53047246
74	0xbf662c65	-0.8991149
75	0x3ea6fdea	0.32615596
76	0x3f263a8f	0.64933103
77	0xbec11448	-0.37710786
78	0xbf6b7505	-0.9197543
79	0x3f861794	1.0475945
80	0xbeafde13	-0.34349117
81	0x3e8adc80	0.27121353
82	0x3e68c68f	0.22731994
83	0x3f1eabed	0.6198109
84	0x3ef7c1b5	0.48389974
85	0x3f6e0bd7	0.92986816
86	0xbfa97974	-1.324019
87	0xbff544a0	-1.9161568
88	0xbd86360f	-0.065532796
89	0x3e1268f2	0.14297846
90	0xc01174db	-2.2727573
91	0x3f966e00	1.1752319
92	0xbf132a9d	-0.574869
93	0x3f65dcee	0.89790237
94	0xbebc77ac	-0.36810052
95	0xbf0476ea	-0.5174395
96	0x3e86459b	0.2622498
97	0xbfaddec0	-1.3583603
98	0x3e771232	0.24128035
99	0x3fa6ddba	1.3036416
100	0x3e972be8	0.29525685
101	0xbc59499f	-0.013262182
102	0xbed81ba8	-0.422086
103	0x3f2e657f	0.6812362
104	0xbf3c8c7c	-0.7365186
105	0x3db9b0ed	0.09066949
106	0xbc916c6e	-0.017751899
107	0x3f38e732	0.72227776
108	0x3f2403cc	0.64068294
109	0xbf6fa70c	-0.9361427
110	0xbfaa9d37	-1.3329228
111	0x40047100	2.069397
112	0x3fa58615	1.2931544
113	0x3f8a0295	1.0782038
114	0xbf4aeff2	-0.7927238
115	0xbff28062	-1.8945429
116	0x3f8ceed5	1.1010386
117	0x3f00c3e1	0.5029889
118	0xbf26bbc8	-0.6513028
119	0x3f17a1e5	0.59231406
120	0x3ee7dd19	0.45285872
121	0xbecded57	-0.40220138
122	0xbf8f0957	-1.1174725
123	0x401b8159	2.4297698
124	0x3f4c1f16	0.79734933
125	0x3e4a560b	0.19759385
126	0x3f16f571	0.58968264
127	0xc01ab6ef	-2.4174154
128	0x3f37ca67	0.71793216
129	0x3e2230db	0.1583895
130	0xbdbf0263	-0.09326627
131	0x3f22561b	0.63412637
132	0xbe3a0cab	-0.18168895
133	0x400625fe	2.0960689
134	0xbf0e38fb	-0.55555695
135	0xbf5569af	-0.83364385
136	0x3ef1a1f8	0.47193885
137	0xbf6c8dcd	-0.9240387
138	0x3e232bb8	0.15934646
139	0x3e864b87	0.26229498
140	0x3d7fdfcf	0.0624693
141	0xbfdb3b85	-1.7127539
142	0x3d2ad678	0.04170844
143	0xc03c551f	-2.9426954
144	0x3ec1a952	0.37824494
145	0x3f5de62f	0.8667936
146	0x3f608db6	0.87716234
147	0xbf8c9b7c	-1.098495
148	0x3edccec8	0.43126512
149	0xbfbe7c88	-1.4881754
150	0xbfcc259d	-1.5948979
151	0x3f83fa36	1.0310733
152	0x3f2577a0	0.6463566
153	0xbf15772c	-0.58384967
154	0xbee44afb	-0.44588456
155	0x3fe21fd8	1.7665968
156	0x3e9c652d	0.3054594
157	0x3fc09832	1.5046446
158	0xbe499773	-0.1968668
159	0x3f6253ed	0.8840931
160	0x3f8f8332	1.1211913
161	0x3eaa0d7c	0.33213413
162	0xbe47b5ec	-0.19502991
163	0xbef93c89	-0.48678997
164	0x3dc2563c	0.09489104
165	0x3f420a31	0.757968
166	0xc010e545	-2.2639935
167	0xbfd1263f	-1.6339797
168	0xbefd7310	-0.49501848
169	0x3efd44c5	0.4946653
170	0x3f626c1c	0.8844621
171	0xbf215558	-0.6302085
172	0xbf98eb7c	-1.1946864
173	0x3f3e29fe	0.74282825
174	0xbf0cda20	-0.5502033
175	0x3f01000e	0.5039071
176	0x3ec7ed6e	0.39048332
177	0x3e0408ec	0.12894028
178	0x3d2c1c71	0.04201931
179	0x3fb6a8da	1.427028
180	0xbefcdb60	-0.4938612
181	0x3f9c6e27	1.2221116
182	0xbfd0a230	-1.6299496
183	0xbedf8ee9	-0.4366372
184	0xbfadaafd	-1.3567806
185	0xbf2a268b	-0.6646506
186	0x3fb91c81	1.4461824
187	0x3e9380ba	0.28809148
188	0x3f162630	0.5865202
189	0x3d6ea6f5	0.05826469
190	0xbfbc4394	-1.4708123
191	0x3bedc8c5	0.0072565996
192	0x3e1b1783	0.15145688
193	0x40016d74	2.0223055
194	0xbf7985e4	-0.97469926
195	0xbf8ac94d	-1.0842682
196	0x3f844a88	1.0335245
197	0xbf23d22a	-0.6399256
198	0x3ee4a40f	0.44656417
199	0xbfdb184d	-1.7116791
200	0x3e459649	0.1929561
201	0xbd73bfe2	-0.059509166
202	0xbeae8be3	-0.340911
203	0xbf8087cd	-1.0041443
204	0x3eb5eac1	0.35530666
205	0xbfeb0d09	-1.8363353
206	0xbe042722	-0.12905553
207	0xbf6fc0dd	-0.9365366
208	0xbf4d40e3	-0.80177134
209	0x3f70a2fc	0.93998694
210	0xbe89c7a4	-0.26910126
211	0x3f0a7b96	0.5409483
212	0x3fc58a0c	1.5432754
213	0x3f3b2860	0.7310848
214	0xbe1a0fbd	-0.15045066
215	0x3fdcb67a	1.7243187
216	0x3f867796	1.0505245
217	0xbe3d5f2d	-0.18493338
218	0x3f0f7efc	0.5605314
219	0x3ef2fec1	0.47459987
220	0x3f489699	0.78354794
221	0xbda21d5e	-0.079157576
222	0xc035066a	-2.8285165
223	0x3f644fc3	0.89184207
224	0x3f8f8f84	1.1215672
225	0xbf9288c5	-1.1447989
226	0x3fc8671f	1.565647
227	0xbeb02f31	-0.34411004
228	0x3e0fc2c9	0.14039148
229	0x3fa855da	1.31512
230	0x3e4e043a	0.201188
231	0x3fc15809	1.5104991
232	0xbf145e4c	-0.57956386
233	0xbe5ec6ff	-0.21755598
234	0x3de7a88d	0.113114454
235	0x3fd6d19b	1.6782717
236	0xbf36614c	-0.71242213
237	0xbe893612	-0.26799065
238	0x3f611b51	0.87932307
239	0xbf837cbf	-1.0272444
240	0xbd8b93ef	-0.068153255
241	0xbf629f3f	-0.8852424
242	0xbf4a5d28	-0.79048395
243	0xbd85e70c	-0.06538209
244	0x3f002314	0.50053525
245	0xbeb90fbd	-0.3614482
246	0xbf26d9ef	-0.6517629
247	0x3ec1b6ea	0.37834865
248	0xbf2b1f58	-0.668447
249	0x3fb91f73	1.4462723
250	0x3ec8ab3d	0.39193144
251	0xc00403a7	-2.062723
252	0xbdd2df46	-0.10296492
253	0x4003f5c4	2.0618753
254	0xbf8c8f99	-1.0981323
255	0xbf8c764f	-1.0973605

embeddings.6.weight f4 [3, 4]
0	0xbf890369	-1.0704166
1	0x3f126935	0.57191783
2	0x3f8f9852	1.121836
3	0x3f51a9f7	0.8189997
4	0xbf31d61b	-0.69467324
5	0xbf17f44f	-0.5935716
6	0xbf555fca	-0.8334929
7	0xbedde565	-0.43339077
8	0x3e77c668	0.2419678
9	0xbdd6cac3	-0.104878925
10	0x400eca05	2.2310803
11	0x3eea8e0d	0.458115

embeddings.7.weight f4 [7, 4]
0	0x3f342c39	0.7037998
1	0x4013a640	2.307022
2	0x3f9d57e3	1.2292446
3	0x3fd40cf5	1.6566454
4	0xbe2c3e1b	-0.16820566
5	0x3f0dd8ff	0.55409235
6	0x3f7fd667	0.99936527
7	0x3e77f45f	0.24214314
8	0x3c264027	0.010147131
9	0xbe9fbdf3	-0.31199607
10	0xbf6334ee	-0.8875264
11	0xbf1310a5	-0.5744727
12	0x3e845c2e	0.25851578
13	0xc0218004	-2.5234385
14	0x3eecd6ed	0.46257725
15	0xbe0cd1da	-0.13751927
16	0xbea8b91c	-0.32953727
17	0x3f8fc663	1.1232418
18	0x3f8e14e5	1.1100127
19	0x3e599896	0.21249613
20	0x3f627ab5	0.88468486
21	0xbf63202f	-0.88720983
22	0xbfa32e2e	-1.2748468
23	0xbee191fe	-0.44056696
24	0x3f8c89d9	1.0979568
25	0xbf1e2d48	-0.61787844
26	0xbfa67da7	-1.3007096
27	0x3db1b402	0.08676912

embeddings.8.weight f4 [7, 4]
0	0xbe490a2a	-0.19632784
1	0xbf3de1f1	-0.74172884
2	0xbe3c2a3b	-0.18375485
3	0xbf10f491	-0.5662318
4	0xc0125d22	-2.2869344
5	0xbf3a7656	-0.72836816
6	0x3e730aa2	0.23734525
7	0x3f1a815c	0.60353637
8	0x3fb4ab8d	1.4114853
9	0x3edc781d	0.4306039
10	0x3f4ee44a	0.8081709
11	0xbed87d48	-0.42283082
12	0x3f199242	0.59988797
13	0xbecd31b4	-0.40076983
14	0xbf15bd9b	-0.5849244
15	0xbf429ea1	-0.760233
16	0xbf3d2e86	-0.73899114
17	0x3caf822f	0.021424381
18	0x3f287999	0.65810543
19	0xbe80f647	-0.25187895
20	0x3e523858	0.20529306
21	0x3e538f6a	0.20660177
22	0xbf10a207	-0.56497234
23	0xbf88855d	-1.0665699
24	0xbea6e80a	-0.32598907
25	0x3f9adcbd	1.2098614
26	0xbf925b60	-1.1434135
27	0xbf2fed34	-0.6872132

embeddings.9.weight f4 [3, 4]
0	0xbf4cbdd4	-0.79977155
1	0x3fad7b78	1.3553305
2	0xbe9e8a13	-0.30964717
3	0xbfd2f3e7	-1.6480683
4	0x400df4f4	2.2180758
5	0x3fb6c46c	1.4278693
6	0xbe718844	-0.23587137
7	0xbe04aabf	-0.1295576
8	0x3fd5d057	1.6704205
9	0xbff06864	-1.8781857
10	0xbf34c739	-0.7061649
11	0xbfab15c6	-1.336602

embeddings.10.weight f4 [427, 4]
0	0x3edc0d9d	0.42979136
1	0x3edd471a	0.4321831
2	0x3f1c8ccf	0.61152357
3	0xbe838766	-0.25689238
4	0xbefd863b	-0.49516472
5	0x3f29b95e	0.6629847
6	0xbeb46e8d	-0.35240594
7	0x3f2127c8	0.62951326
8	0x400b6aa5	2.178384
9	0x3fb8dd83	1.44426
10	0xbe8a6bb8	-0.27035308
11	0xbec4b7a4	-0.38421357
12	0x3f6a8a69	0.9161745
13	0x3f2f6807	0.6851811
14	0x3efd4bb6	0.49471825
15	0xbf1056a2	-0.5638219
16	0xbf01b07d	-0.50659925
17	0xbfca4db3	-1.5804962
18	0x3fcb3258	1.5874739
19	0xbed49ea6	-0.4152729
20	0xbf94e711	-1.1633016
21	0x3f30d30c	0.6907203
22	0xbe80fea7	-0.25194284
23	0x3edf5d24	0.43625748
24	0xbf37b27a	-0.7175671
25	0x3f5b40b8	0.8564563
26	0x3f8467c2	1.0344164
27	0xbf3fa850	-0.748662
28	0xbf912296	-1.133868
29	0x3e8d4890	0.27594423
30	0x400a8188	2.164156
31	0x3e597b37	0.21238409
32	0x3ee33ba6	0.44381446
33	0x3f060cc7	0.52363247
34	0x3ec06f88	0.37585092
35	0xbe8cb385	-0.27480713
36	0xbe9d2592	-0.30692726
37	0x3f940373	1.1563553
38	0xbfefe8a5	-1.8742872
39	0xbe9f0a0e	-0.3106236
40	0xbee5c689	-0.44878033
41	0xbfa88dbb	-1.3168253
42	0x3ee6e824	0.45098984
43	0x403adc42	2.9196935
44	0x3f60607e	0.87647235
45	0xbdd6f380	-0.10495663
46	0x3f465966	0.7748016
47	0x3f20e90c	0.628556
48	0x3e570a39	0.20999993
49	0x3f034ff9	0.51293904
50	0x3f5dad0b	0.8659217
51	0x3fae445c	1.3614612
52	0x3f1dd58d	0.6165398
53	0xbfb01a13	-1.3757957
54	0x3f34393e	0.70399845
55	0x3e3ad731	0.18246152
56	0xbfcd109f	-1.6020697
57	0x3e91d1be	0.28480333
58	0xbeca1f1a	-0.39476854
59	0xbe2e88cb	-0.1704437
60	0xbf734e5e	-0.95041454
61	0x3ec107aa	0.3770116
62	0xbffcbc60	-1.9744987
63	0x3ffda99d	1.9817387
64	0xbf0ded27	-0.5543999
65	0x3f002602	0.50057995
66	0xbe8e7278	-0.27821708
67	0x3f31e4f8	0.69490004
68	0xbe9412c2	-0.2892056
69	0xbebba7ff	-0.36651608
70	0x3f51fc39	0.82025486
71	0x3e801559	0.25016287
72	0xbf04c456	-0.51862085
73	0xbf2cc768	-0.6749177
74	0x3d96f56a	0.07371028
75	0x3e1296a5	0.14315279
76	0x3e18652a	0.14882341
77	0xbe95d8c2	-0.29266936
78	0xbfb4c039	-1.4121162
79	0xbfa6bb57	-1.3025922
80	0xbfb58b46	-1.4183128
81	0x4007210e	2.1113925
82	0xbb0b0911	-0.002121512
83	0x3f489e02	0.783661
84	0xbf9c4c29	-1.2210742
85	0x3f0e4652	0.5557605
86	0x3d165b93	0.036708426
87	0xbe1fc5d1	-0.15602805
88	0xbf5a781f	-0.8533954
89	0x3ff6ccfd	1.9281307
90	0x3ed8e671	0.42363313
91	0xbe79da0a	-0.24399582
92	0xbf4218d4	-0.75819135
93	0x3e3b243d	0.18275543
94	0x3e9fdd73	0.3122364
95	0xbf260ef8	-0.6486659
96	0x3fb3a4a3	1.4034618
97	0xbe68a184	-0.22717863
98	0x3f8156b9	1.0104591
99	0xbebf7967	-0.3739731
100	0xbfa39573	-1.2779983
101	0x3f553392	0.83281815
102	0x3f0434de	0.5164317
103	0x3f3456a8	0.70444727
104	0xbd28d0f6	-0.041214906
105	0xbebd0508	-0.369179
106	0xbf5f8618	-0.87313986
107	0x3f29334a	0.66093886
108	0xbf6c12f0	-0.92216396
109	0xbf037906	-0.5135654
110	0xbfc40757	-1.531474
111	0x3ff266b1	1.8937589
112	0xbec2e4cb	-0.3806518
113	0x3ff42d33	1.9076294
114	0x3ed37c3d	0.41305724
115	0x3c1e582e	0.009664578
116	0x3f96fa7f	1.1795195
117	0x400ddf8c	2.2167692
118	0x3f8b864e	1.0900362
119	0x3f347d2f	0.70503515
120	0xbf105b03	-0.5638887
121	0x3faec72d	1.3654534
122	0xbf26a775	-0.6509927
123	0x3e8c0fa7	0.27355692
124	0xbf1cb6f7	-0.6121668
125	0xbee50ddb	-0.44737133
126	0xbff93651	-1.9469701
127	0x3f53dc9f	0.82758516
128	0xbf93de72	-1.155226
129	0x3f250e4d	0.64474946
130	0x3e7a523a	0.2444543
131	0x3dc68d88	0.09694964
132	0xbf17ea35	-0.59341747
133	0xbeffc65c	-0.49956024
134	0xbf17250a	-0.5904089
135	0x3ff9df7f	1.952133
136	0x3e2bca33	0.16776352
137	0x3ed702b1	0.4199424
138	0x3f091af7	0.5355677
139	0xbf738c01	-0.95135504
140	0xbf6ec349	-0.9326673
141	0x3ed43abb	0.41451058
142	0xbd9ac2f8	-0.075567186
143	0x3df5bbe5	0.11998729
144	0xbf911cbc	-1.1336894
145	0xbf80e104	-1.0068669
146	0x3ea90f11	0.33019307
147	0xbf8391a2	-1.0278819
148	0x3f559463	0.83429545
149	0xbf81f796	-1.0153682
150	0x3ef9f96b	0.48823103
151	0xbf07f9c7	-0.53115505
152	0x3f72d84f	0.9486131
153	0x3f8249b5	1.0178744
154	0x3f11473a	0.5674931
155	0x3c995d2e	0.01872119
156	0x405a19dc	3.4078283
157	0x3f61eda2	0.88253224
158	0x3ef50c99	0.47861174
159	0x3f3bd0ce	0.73365486
160	0xbf5c84a0	-0.8613987
161	0x3f343015	0.7038587
162	0xbf16620f	-0.58743376
163	0x3ebbf3f7	0.36709568
164	0x3e68a2fa	0.2271842
165	0x3dbf0a40	0.09328127
166	0x3c5360b2	0.012901472
167	0x3e5a7696	0.213343
168	0xbee0033b	-0.43752465
169	0x401935eb	2.393916
170	0x3ea50905	0.32233444
171	0xbf1b08f1	-0.6056052
172	0x3e7126c4	0.23549944
173	0x3e76694f	0.2406361
174	0x3d57e4da	0.052708484
175	0x3f91024e	1.1328828
176	0xbe1fdbdc	-0.15611213
177	0x3ddada03	0.10686114
178	0xbf7d28d4	-0.98890424
179	0xbf92acaa	-1.1458943
180	0x3f08ae90	0.5339136
181	0x3d14cdbe	0.036329024
182	0xbf28a257	-0.6587271
183	0x3fa8d079	1.3188621
184	0xbf2a7b58	-0.6659446
185	0x3f401f26	0.7504753
186	0x3ffd1c38	1.9774237
187	0xbf7efc07	-0.99603313
188	0x3f92dbe0	1.147335
189	0x3f374fa3	0.7160589
190	0x3e4f9f32	0.20275572
191	0x3ecd719a	0.40125734
192	0xbe7f0b3f	-0.24906634
193	0x3e85a830	0.2610488
194	0xbe28e2de	-0.16492793
195	0xbdc15a72	-0.09441079
196	0xbed47a6d	-0.41499653
197	0xbf4dbdef	-0.8036794
198	0xbed187a4	-0.40923798
199	0xbf03062b	-0.51181287
200	0xbf8912bb	-1.0708841
201	0xbf4fda62	-0.811926
202	0x3f590237	0.84769005
203	0xbf0f30b2	-0.5593368
204	0x3f46f4b6	0.7771715
205	0x3f9c6e5b	1.2221178
206	0x3fb0a415	1.3800074
207	0xbf8908a2	-1.070576
208	0xbeb9ba37	-0.36274883
209	0xbeebd86b	-0.4606355
210	0xbe688cc0	-0.22709942
211	0xbddb8d6c	-0.107203335
212	0xbf594b8e	-0.8488091
213	0xbf66f956	-0.90224206
214	0xbf53e79b	-0.82775277
215	0xbf55df19	-0.83543545
216	0x3ee545f9	0.44779947
217	0x401ce22d	2.4513047
218	0x3f188401	0.5957642
219	0x3f1f4803	0.62219256
220	0x3f084de8	0.53243876
221	0x3ea1e81d	0.316224
222	0xbfc7a3ca	-1.559686
223	0x3fc18bcb	1.5120786
224	0xbf9c3e3c	-1.2206492
225	0x3f2ae0d9	0.6674934
226	0x3e992d96	0.29917592
227	0xbf1430b7	-0.5788683
228	0x3f88422f	1.0645198
229	0x3ebd7c6b	0.37008986
230	0xbcf6571b	-0.030070832
231	0x3ec6da1e	0.38838285
232	0x3f0cdc49	0.5502363
233	0x3f9bacb0	1.2162075
234	0x3f9dc0e3	1.2324489
235	0x3f966093	1.1748222
236	0x3e97a326	0.2961666
237	0x3b12bde3	0.0022391013
238	0xbebc0154	-0.36719763
239	0x40619cc7	3.525194
240	0xbf8af843	-1.0857013
241	0x3fde5184	1.7368627
242	0xbe9737f8	-0.29534888
243	0x3fafbb2e	1.3728998
244	0xbbabc7bb	-0.0052423156
245	0x3ec8d96e	0.39228386
246	0xbf7fab26	-0.99870527
247	0xbe447cf5	-0.19188292
248	0xbe728536	-0.23683628
249	0xbf4d015c	-0.800802
250	0x3f891084	1.0708165
251	0x3fbf07a8	1.4924212
252	0x3f8c4ab7	1.0960301
253	0x3f5ef710	0.8709574
254	0x3f3dc648	0.7413068
255	0x3ed09c68	0.40744328

embeddings.11.weight f4 [1030, 4]
0	0xbe334697	-0.17507397
1	0x3fd3de0f	1.6552142
2	0xbfd17fc5	-1.6367117
3	0x3e75e201	0.24011995
4	0xbfda80f8	-1.7070608
5	0xbe5ee1d3	-0.21765833
6	0xbeee0b9d	-0.46493235
7	0xbfce4eca	-1.6117795
8	0xbfa90ea0	-1.3207588
9	0xbf8df17e	-1.1089323
10	0x3f7e0c13	0.99237174
11	0xc012c9e1	-2.2935717
12	0xbfac94f8	-1.3482962
13	0x3e56b175	0.20966132
14	0xbf3e0edb	-0.7424142
15	0xbe42f95f	-0.1904044
16	0xbfa9e634	-1.3273377
17	0x3f909f1b	1.1298555
18	0xbf4ae4fa	-0.7925564
19	0x3e02475b	0.12722532
20	0xbf570c21	-0.8400288
21	0x3f425781	0.7591477
22	0xbeafc030	-0.34326315
23	0x3eeb5682	0.45964438
24	0xc0061fc5	-2.095689
25	0x3f861df5	1.0477892
26	0xc02c4684	-2.691804
27	0x3fccb72a	1.5993397
28	0x3f4c3549	0.79768807
29	0xbf8c1cec	-1.0946326
30	0x3f962859	1.1731063
31	0xbf6eeba6	-0.9332832
32	0xbf1a0301	-0.60160834
33	0xbf44242f	-0.7661771
34	0x3f1ed44a	0.6204268
35	0x3fba786d	1.4568001
36	0x3f5ae805	0.85510284
37	0xbdef0bef	-0.11672198
38	0x3eabc2bb	0.33547005
39	0xbea02e6c	-0.31285417
40	0xbea9b434	-0.33145297
41	0x3f96943c	1.1763988
42	0x3f64e86f	0.89417166
43	0x3f6cc9ad	0.9249523
44	0xbf286aad	-0.65787774
45	0x3f2bd94b	0.6712844
46	0x3f77a1de	0.96731365
47	0x3fa1ea8a	1.2649701
48	0xbfb7102b	-1.4301809
49	0x3f669f1e	0.90086544
50	0xbe4e6bd1	-0.20158316
51	0x3fdb68d6	1.7141368
52	0xbfc040f9	-1.5019828
53	0xbd193d1c	-0.037411794
54	0xbf3de09f	-0.7417087
55	0x4012d896	2.2944694
56	0x3f78f3aa	0.972468
57	0x3f9d61a6	1.2295425
58	0xbebbbd79	-0.36667994
59	0x3f3626f1	0.7115317
60	0x3f14acf5	0.5807641
61	0xbf6feff9	-0.93725544
62	0x3f995e74	1.198195
63	0x3e366d90	0.17815232
64	0x3f801420	1.0006142
65	0x3f6cf3b5	0.9255937
66	0x3f829cf2	1.0204146
67	0x3f958a38	1.1682806
68	0x3fde7d8b	1.7382063
69	0xbfb9fde4	-1.4530606
70	0xbfaa11bb	-1.3286661
71	0x3f7f8f12	0.9982768
72	0x3f0dc6a1	0.5538121
73	0x3f65661f	0.8960895
74	0x3f5b15a0	0.8557987
75	0xbe211b6c	-0.15733117
76	0x3e4b641e	0.1986241
77	0x3e89acbc	0.26889598
78	0xbf1bf9ad	-0.6092785
79	0x3f686a2d	0.9078701
80	0xbfbb4cb1	-1.4632779
81	0xbd9eab92	-0.07747568
82	0xbf321bb6	-0.69573534
83	0xbf92d685	-1.1471716
84	0xbf19eaf5	-0.6012414
85	0xbf42ad6b	-0.76045865
86	0x3d016f1d	0.031600107
87	0x3f1c36ed	0.6102131
88	0xbf02a888	-0.5103841
89	0xbf934c82	-1.1507723
90	0xbeed7e96	-0.4638564
91	0xbe068840	-0.13137913
92	0x3fa8963b	1.3170847
93	0xbec8feb6	-0.3925683
94	0x3f40e8c8	0.75355196
95	0xbf9d257d	-1.2277066
96	0xbe231d74	-0.15929204
97	0x3e65dfd9	0.22448672
98	0xc011f2a8	-2.2804356
99	0xbf96bf0c	-1.1777053
100	0x3fdca4b7	1.7237767
101	0x3e2093fc	0.15681452
102	0x3f124f7d	0.5715254
103	0xbe28fdfb	-0.16503136
104	0x3f966986	1.1750953
105	0xbe58857e	-0.21144673
106	0x3e2ae285	0.16687973
107	0xbf3ab9e6	-0.7293991
108	0xbc880019	-0.016601609
109	0x3c0fb583	0.008771303
110	0x3ee0861e	0.43852323
111	0x3f82d6ab	1.0221761
112	0x3f1439a4	0.5790045
113	0xbfd780ee	-1.6836221
114	0x3f36f65c	0.71469665
115	0xc005275e	-2.0805278
116	0xbff2e808	-1.897706
117	0x3fc0f3bf	1.5074385
118	0xbf5995ee	-0.849944
119	0xbf013e04	-0.50485253
120	0x3f946ff2	1.1596663
121	0x3f61e130	0.88234234
122	0x3fb0be09	1.3807994
123	0x3dac3569	0.08408625
124	0xbd59d153	-0.053178143
125	0x3c9913d1	0.018686207
126	0x3f2e8cfa	0.68183863
127	0x3f105a00	0.5638733
128	0x3ed2634e	0.41091388
129	0xbe9efae0	-0.31050777
130	0xbf253d20	-0.64546394
131	0xbe018be9	-0.12651028
132	0xbe8d5edb	-0.2761143
133	0xbf8460b9	-1.0342017
134	0xbf643ff2	-0.8916007
135	0x3d84cae0	0.06484008
136	0x3fc8c936	1.5686405
137	0x3f5cd5b1	0.8626357
138	0xbcc2c290	-0.023774415
139	0xc0146006	-2.3183608
140	0x3f1a436b	0.6025912
141	0x3ef567d9	0.47930792
142	0x3fa4f364	1.2886777
143	0xbed4a935	-0.41535345
144	0x3de2be1e	0.11071418
145	0x3f14f1fc	0.5818174
146	0x3fd05a78	1.6277609
147	0xbe89e7cb	-0.26934657
148	0x3fbcaf63	1.4741024
149	0x3ff2427c	1.892654
150	0x3fb1c536	1.3888309
151	0xbeac28ba	-0.33624822
152	0x3f420b30	0.7579832
153	0xbf13a012	-0.5766612
154	0xbdd9b43a	-0.106300786
155	0xbf4f069a	-0.8086945
156	0xbd6db48d	-0.058033515
157	0xbfa99a20	-1.325016
158	0xbdd1e165	-0.10248069
159	0xbfb5984c	-1.4187102
160	0x3f856fb8	1.0424719
161	0xbf6ce2e3	-0.925337
162	0xc00d6ac8	-2.2096424
163	0x3fb221dc	1.3916583
164	0x3ef452fa	0.47719556
165	0x3d550157	0.05200323
166	0x3e1cadee	0.15300724
167	0x3f021d04	0.50825524
168	0xbdd7d26d	-0.105381824
169	0xbf46079d	-0.77355367
170	0x3e79a77d	0.24380298
171	0xbf42585b	-0.7591607
172	0xbfab16a4	-1.3366284
173	0xbc840690	-0.01611641
174	0x3ec43118	0.38318706
175	0x3ef1453c	0.47123134
176	0x3fa4414e	1.283243
177	0xbeb2ae71	-0.34898713
178	0xbf314d8c	-0.6925895
179	0x403047e5	2.754388
180	0xbefa6e76	-0.489124
181	0x3ec81733	0.390802
182	0xbef5a03f	-0.4797382
183	0xbd9bd9a3	-0.0760987
184	0x3f21b31b	0.6316392
185	0x3f95eb50	1.1712437
186	0xbf2847ff	-0.6573486
187	0xbe7d50df	-0.24737881
188	0xbf6ee16c	-0.93312716
189	0x3fea47a7	1.8303117
190	0x3f214a91	0.63004404
191	0x3f577dff	0.8417663
192	0xbe8e6d19	-0.2781761
193	0x3e42b63e	0.19014832
194	0xbfb6ff0f	-1.4296588
195	0x3f92a8bf	1.1457747
196	0x3f1ebbce	0.6200532
197	0xbf96e7c8	-1.1789484
198	0xbfc80321	-1.5625955
199	0xbf090e99	-0.535379
200	0x3ffa2376	1.9542072
201	0x4019d8b0	2.4038506
202	0x3e716ca6	0.23576602
203	0xbf144887	-0.5792317
204	0x3f868d51	1.0511876
205	0xbefde133	-0.49585876
206	0x3db41fce	0.08795129
207	0x3e1b0fa1	0.1514268
208	0x3f87569d	1.0573307
209	0xbe8047a6	-0.25054663
210	0xbe938bdd	-0.28817645
211	0xbe87f3c8	-0.26553178
212	0x3eb2f054	0.3494898
213	0x3db3e27e	0.08783434
214	0x3f82d959	1.0222579
215	0xbf5f9f25	-0.8735221
216	0xbfb3f521	-1.4059182
217	0xbebe06b8	-0.371145
218	0x4030c74c	2.762164
219	0x3fb61e84	1.4228063
220	0xbe853d4d	-0.2602333
221	0x3e641747	0.22274505
222	0xbeb02861	-0.34405807
223	0x3ec46f36	0.38366097
224	0x3fb8b643	1.4430622
225	0x3f25df90	0.64794254
226	0xbefc39ae	-0.49262756
227	0x3f4722d1	0.777875
228	0xbfc8da61	-1.5691644
229	0x3dd6763e	0.10471772
230	0x3f660586	0.8985218
231	0xbe9eb5bb	-0.30998024
232	0x3d98bd7a	0.07458015
233	0x3e1e0315	0.15430863
234	0xbfad01a9	-1.3516132
235	0x3fa84e1f	1.3148841
236	0xbe890e56	-0.2676875
237	0xbf1d49c8	-0.61440706
238	0xbf356a01	-0.70864874
239	0x3e5b09eb	0.21390502
240	0xbe0f86ec	-0.14016312
241	0x3f511572	0.8167335
242	0x3f8d1783	1.10228
243	0xbee6f0c4	-0.45105565
244	0xbf8202a0	-1.0157051
245	0xbf9c593b	-1.2214731
246	0x3fd353d4	1.6509957
247	0x3f66ae36	0.90109575
248	0xbfbe3c8b	-1.4862226
249	0x400d07ac	2.2035933
250	0xbea8d569	-0.3297532
251	0xbe1fe325	-0.15613993
252	0xbd3df999	-0.046380613
253	0xbf9b8c14	-1.2152123
254	0xbe8a7936	-0.27045602
255	0x4052406d	3.2851822

embeddings.12.weight f4 [7, 4]
0	0xbfc53e36	-1.540961
1	0xbcd1e0b8	-0.02561985
2	0xbebc0274	-0.36720622
3	0xbf79110a	-0.97291625
4	0x3e76bc86	0.24095353
5	0x3da26af2	0.079305544
6	0x3f945479	1.1588279
7	0xbddcada9	-0.107753105
8	0xbf76e0c3	-0.9643671
9	0x3f1df74d	0.61705476
10	0x3f2949f5	0.66128474
11	0x3dc4612b	0.09588846
12	0x3dd3f399	0.10349197
13	0xbf738c12	-0.95135605
14	0xbfb4c809	-1.4123546
15	0x3e16b7ad	0.14718504
16	0xbf4eb909	-0.8075109
17	0xbfad87f9	-1.355712
18	0xbfcf2a5c	-1.6184802
19	0xbf70b92f	-0.9403257
20	0x3fdf32c2	1.7437365
21	0xbc758f7e	-0.0149878245
22	0xbf81ad25	-1.0130965
23	0x3efd41d9	0.494643
24	0xbe44f2b9	-0.19233216
25	0xbf80df44	-1.0068135
26	0xbfab7951	-1.3396398
27	0x3e8b2d6e	0.27183098

embeddings.13.weight f4 [7, 4]
0	0x3db4cad1	0.08827747
1	0x3f8cddd6	1.1005199
2	0xbf805b3b	-1.0027841
3	0xbe9268bf	-0.2859554
4	0x3eca3aa4	0.39497864
5	0x3ef362e6	0.4753639
6	0x3f088b4c	0.5333755
7	0xbd90635d	-0.07050202
8	0xbfbd09d8	-1.4768629
9	0xbf2e62d1	-0.6811953
10	0xbf48d242	-0.7844583
11	0x3e46d024	0.19415337
12	0x3f6a92e3	0.9163038
13	0xbfd43554	-1.6578774
14	0xbd672392	-0.056430407
15	0x3f84c980	1.0373993
16	0xbf92f3ac	-1.1480613
17	0x3f774fc5	0.96606094
18	0xbe624291	-0.22095706
19	0xbf075623	-0.5286581
20	0xbd6297a3	-0.055320393
21	0x3e97c551	0.29642728
22	0x4038e662	2.8890615
23	0x3f36353f	0.71175
24	0x3faf472d	1.3693596
25	0x3fe9b712	1.8258994
26	0x3fa78776	1.3088214
27	0xbe12570a	-0.14291015

embeddings.14.weight f4 [7, 4]
0	0xbfe24c0d	-1.7679459
1	0x3e40bb0c	0.18821353
2	0x3ed28eb4	0.411245
3	0xbe0220d0	-0.1270783
4	0x3f92bd7d	1.1464077
5	0x3f7005c6	0.9375881
6	0xbed12ab1	-0.40852883
7	0xbf0fa0d7	-0.561048
8	0xbe8f3498	-0.27969813
9	0x3f87060b	1.0548719
10	0x3f2a8703	0.6661226
11	0xbee45f67	-0.44604036
12	0xbe8c2a54	-0.27376044
13	0x3f572e16	0.84054697
14	0xbe3ad9fb	-0.18247215
15	0xbf36a71e	-0.7134875
16	0x3f048e37	0.517795
17	0xbeead6b3	-0.45866928
18	0xbed49f4d	-0.41527787
19	0xbee6b3c8	-0.45059037
20	0xbe20c2f7	-0.15699373
21	0x3d4f9708	0.050681144
22	0xbeb87637	-0.3602769
23	0xbf12ab4f	-0.57292646
24	0xbe901e8e	-0.2814831
25	0x3f592383	0.8481981
26	0x3e827ce1	0.254859
27	0x3f83657b	1.0265344

embeddings.15.weight f4 [6, 4]
0	0x3ff88051	1.9414159
1	0x3fa4baae	1.286947
2	0xbf35788b	-0.7088706
3	0x3e559311	0.20856883
4	0xbf04c438	-0.51861906
5	0x3f3011ac	0.68776965
6	0xbf0f56c7	-0.55991787
7	0xbe8f5718	-0.27996135
8	0xc011318c	-2.268649
9	0x400f2ab8	2.2369823
10	0x3eafedde	0.34361166
11	0x3eaa1f3a	0.3322695
12	0xbfc02451	-1.5011083
13	0xc0412c0e	-3.018314
14	0x3fa3911e	1.2778661
15	0x3f11d24d	0.5696152
16	0xbf815290	-1.0103321
17	0xbff9b8ce	-1.9509523
18	0x4010d02d	2.262706
19	0x3f4398d8	0.76405096
20	0x3f9623d2	1.1729681
21	0x3ee3f317	0.445214
22	0xbf88c0a1	-1.0683786
23	0x3f794601	0.9737244

conv_layers.0.weight f4 [16, 1, 3]
0	0xbeb53a80	-0.35396194
1	0xbf2a19bb	-0.6644551
2	0x3ec51373	0.384914
3	0xbec8412d	-0.39112225
4	0x3cafa0b4	0.021438934
5	0xbf0ab7dc	-0.541868
6	0x3f6a739c	0.91582656
7	0xbdcf7035	-0.10128824
8	0xbcd829eb	-0.026387176
9	0x3e86fa7e	0.26362985
10	0xbf3f36c5	-0.74692947
11	0x3dff1eef	0.12457072
12	0x3efcdec0	0.49388695
13	0xbe879c9b	-0.26486668
14	0xbca4f7ba	-0.020137656
15	0x3e1a4b3e	0.15067765
16	0xbf10e3dd	-0.5659769
17	0xbec7c797	-0.39019462
18	0x3e9c579b	0.30535588
19	0xbf21db0b	-0.6322486
20	0xbee4cab9	-0.44685915
21	0x3d7af32d	0.061267067
22	0xbf0c8e95	-0.5490506
23	0x3e916cc0	0.28403282
24	0xbdf1f1ca	-0.11813696
25	0xbf6e954f	-0.93196577
26	0x3d76d3e1	0.060260657
27	0x3b42ff21	0.002975412
28	0x3dcb3952	0.09923042
29	0x3f4674b4	0.77521825
30	0x3e720554	0.23634845
31	0xbb26b6d1	-0.0025438557
32	0xbf160463	-0.58600444
33	0xbec12df8	-0.37730384
34	0x3ebcf0f2	0.36902577
35	0xbd439937	-0.04775354
36	0xbed59308	-0.41713738
37	0x3f487f3b	0.7831914
38	0x3e70613a	0.23474589
39	0x3e310f50	0.17290998
40	0xbf375784	-0.71617913
41	0x3f0b931c	0.54521346
42	0x3e227c6f	0.1586778
43	0xbf1ea941	-0.6197701
44	0x3ef07073	0.46960792
45	0xbefd0e7e	-0.4942512
46	0x3ef5aea2	0.47984797
47	0xbc020282	-0.007935168

conv_layers.0.bias f4 [16]
0	0xbece4c44	-0.4029256
1	0x3eb05b9e	0.34444898
2	0x3e8b5fc9	0.27221516
3	0xbd60bbe8	-0.0548667
4	0x3eb16408	0.3464663
5	0x3ed3a8b5	0.4133965
6	0x3ed9cbc0	0.4253826
7	0x3e42e6c8	0.19033349
8	0xbed26413	-0.41091976
9	0xbef6009b	-0.48047337
10	0xbf09004b	-0.5351607
11	0x3e857c2b	0.26071295
12	0x3dd9b834	0.10630837
13	0xbdadfc13	-0.08495345
14	0xbea4926a	-0.32142955
15	0xbdc8f98c	-0.09813222

conv_layers.1.weight f4 [32, 16, 3]
0	0x3e69e70c	0.22842044
1	0x3df62efa	0.12020679
2	0xbeb714a3	-0.35757932
3	0x3d84d9d7	0.06486862
4	0x3e4939d5	0.19650967
5	0xbe8cfbdc	-0.27535903
6	0xbd68b3d1	-0.05681211
7	0xbe9a9f52	-0.30199677
8	0x3db8ab62	0.09017064
9	0x3e297b0c	0.16550845
10	0xbe134ef8	-0.14385593
11	0xbe3f829b	-0.18702166
12	0xbe3df3f1	-0.18550088
13	0xbe74a71c	-0.23891872
14	0x3d670746	0.05640342
15	0x3e1633b5	0.14668162
16	0xbe6f1729	-0.23348679
17	0xbd984218	-0.074344814
18	0x3e4ab2ff	0.19794844
19	0xbf1cced2	-0.6125308
20	0xbde0f72d	-0.10984645
21	0x3dca1ded	0.09868989
22	0x3e67e7ee	0.22647068
23	0xbdff5cd4	-0.124688774
24	0x3eb4a0d3	0.3527895
25	0xbc48c37a	-0.0122536365
26	0xbbaeac52	-0.005330601
27	0xbeb2f2a8	-0.34950757
28	0x3d0c8449	0.034305844
29	0x3e90ebc7	0.28304884
30	0xbe31e978	-0.17374218
31	0xbf330428	-0.69928217
32	0xbbf7a51b	-0.007557524
33	0xbdcc7424	-0.099830896
34	0x3e3ecfc3	0.18633942
35	0xbd9ce6ea	-0.07661231
36	0xbe864a75	-0.2622868
37	0x3d47c6c1	0.04877353
38	0x3ea7dc22	0.32785136
39	0xbea6e217	-0.32594368
40	0x3e39a5c4	0.18129641
41	0xbed60fa7	-0.41808817
42	0xbd8ee5cb	-0.06977423
43	0x3e8f819a	0.28028566
44	0xbe9e44e9	-0.3091195
45	0xbe0a98b8	-0.1353482
46	0x3ea39d5c	0.31955993
47	0xbc0ed184	-0.008716945
48	0x3e52f01b	0.20599405
49	0x3c869309	0.016427534
50	0xbbed1def	-0.0072362344
51	0x3993b24e	0.00028170872
52	0x3e0610da	0.13092366
53	0x3d11d65d	0.035604823
54	0xbcde3004	-0.027122505
55	0x3dd40f32	0.10354461
56	0xbfa08c57	-1.2542828
57	0xbe3d7cbd	-0.18504615
58	0x3e2490ab	0.16070811
59	0xbea8451c	-0.32865226
60	0x3ceea751	0.029132517
61	0x3dd1c236	0.10242121
62	0xbf24c8e9	-0.64369065
63	0x3e6e98d6	0.2330049
64	0x3e17d6ca	0.1482803
65	0x3e10710d	0.14105625
66	0xbdfe5afe	-0.12419699
67	0x3eb40d33	0.3516632
68	0x3daf1885	0.085495986
69	0xbda50347	-0.08057266
70	0xbd473432	-0.04863376
71	0xbe6e29bc	-0.23258108
72	0xbcd39e0f	-0.025832204
73	0x3e11f13b	0.14252178
74	0xbed7a321	-0.42116645
75	0x3e300d34	0.17192537
76	0xbf783545	-0.9695628
77	0xbdc403d3	-0.09571042
78	0xbde253fe	-0.110511765
79	0x3ddf8396	0.1091377
80	0x3dc254a5	0.09488801
81	0x3d84499c	0.064593524
82	0xbdaa064c	-0.08301982
83	0xbe5e0761	-0.21682502
84	0x3c5a324a	0.013317654
85	0xbe29f0bd	-0.1659574
86	0xbf0cad20	-0.5495167
87	0x3dfdfbfc	0.12401578
88	0xbe4b76ea	-0.19869581
89	0xbcb5bf15	-0.022185842
90	0x3e09e6b9	0.1346692
91	0xbd8fba05	-0.07017902
92	0xbe7211f9	-0.23639669
93	0x3bc92a41	0.0061390703
94	0xbe9a7396	-0.3016631
95	0xbe4629e5	-0.19351919
96	0xbe8710d3	-0.26380023
97	0xbec7dc52	-0.3903528
98	0x3e8548b2	0.26032025
99	0xbe3a5eb6	-0.18200192
100	0xbe9fdff9	-0.31225565
101	0xbedf3dd4	-0.4360186
102	0x3b2a9fed	0.0026035265
103	0xbe8e10b4	-0.27747118
104	0x3ec8d461	0.39224532
105	0xbcef48cc	-0.029209517
106	0xbefc9079	-0.49328974
107	0x3d5c01ca	0.053712644
108	0xbc390927	-0.011293686
109	0xbed15513	-0.4088522
110	0x3ef4769a	0.47746736
111	0xbe571c99	-0.21007003
112	0xbeac9848	-0.3370993
113	0xbde63e51	-0.11242355
114	0xbe15c37a	-0.1462535
115	0xbead0b9c	-0.3379792
116	0x3e87e77c	0.26543796
117	0xbe02e613	-0.12783079
118	0xbe9c4eab	-0.3052877
119	0x3ec51857	0.38495132
120	0xbe31655b	-0.1732382
121	0xbee75341	-0.45180705
122	0xbe3f555d	-0.18684907
123	0xbd8f2880	-0.06990147
124	0x3eaf9498	0.34293056
125	0xbd884913	-0.06654563
126	0x3d6bff62	0.0576166
127	0x3e78a3f3	0.24281292
128	0xbe1cdb88	-0.1531812
129	0x3d26abc6	0.04069116
130	0xba446f1d	-0.0007493364
131	0xbe3050fa	-0.1721839
132	0xbcba4469	-0.022737699
133	0x3d22f88f	0.039787825
134	0xbe1dac90	-0.15397859
135	0x3d071f7a	0.032989003
136	0xbdf3c90e	-0.119035825
137	0x3e1695ba	0.14705554
138	0x3d1e663c	0.038671717
139	0xbe3d983f	-0.18515109
140	0x3bc8ad24	0.0061241556
141	0x3e751836	0.23935017
142	0x3dabc881	0.083878525
143	0xbee6411f	-0.44971558
144	0x3dd79c38	0.10527843
145	0x3d0f76cb	0.0350254
146	0xbc9f2a5a	-0.019429374
147	0xbe8fba4e	-0.28071827
148	0xbe7ad3b4	-0.24494821
149	0x3e68fddd	0.22753091
150	0xbcbae059	-0.022812055
151	0x3c1e892c	0.009676259
152	0xbc5a9b4d	-0.013342691
153	0xbe2cdd66	-0.16881332
154	0x3ec87cf6	0.39157838
155	0x3d2a2b5c	0.041545257
156	0x3eaa247e	0.33230966
157	0x3e1f0fe7	0.1553341
158	0x3e957b1b	0.29195485
159	0xbea4d980	-0.3219719
160	0x3ec1e922	0.3787318
161	0x3edacff2	0.42736775
162	0xbe9e1e26	-0.30882376
163	0x3e58a631	0.21157147
164	0x3f0267cf	0.5093965
165	0xbd9c3f38	-0.076292455
166	0x3eb54f7e	0.3541221
167	0x3e5486c9	0.20754541
168	0xbda589ca	-0.08082922
169	0x3e83e035	0.25756994
170	0x3ea66207	0.32496664
171	0x3e871dad	0.26389828
172	0x3e4026a6	0.18764743
173	0x3cc1e33b	0.023667922
174	0x3d2a62d5	0.04159816
175	0x3e383b33	0.17991333
176	0x3e25a4a0	0.1617608
177	0x3e5dc2a5	0.21656282
178	0xbe980699	-0.29692534
179	0x3e72d34a	0.23713413
180	0x3e48b697	0.19600902
181	0xbeb7dd39	-0.35910967
182	0xbded5904	-0.11589244
183	0xbd80968c	-0.062787145
184	0x3dae2d49	0.08504731
185	0x3ec7011f	0.38868043
186	0xbe535a1d	-0.20639844
187	0x3e6303ea	0.22169462
188	0x3e8c73bc	0.27432048
189	0x3e2b4002	0.16723636
190	0xbeb5861c	-0.3545388
191	0x3e11c7ed	0.14236422
192	0x3d973302	0.07382776
193	0xbe698f9f	-0.22808693
194	0x3d982899	0.074296184
195	0xbdc9a9c6	-0.09846835
196	0xbe09f5b1	-0.1347263
197	0x3e0b7431	0.13618542
198	0xbdeb200c	-0.11480722
199	0xbe8c2ea8	-0.27379346
200	0xbe3613d9	-0.17781009
201	0x3e49b7c6	0.1969901
202	0xbf253cf6	-0.64546144
203	0xbd9b361d	-0.07578681
204	0xbe68ac2e	-0.22721931
205	0xbefe2781	-0.49639514
206	0xbbd5d6bd	-0.006525843
207	0x3eaa5b76	0.33272904
208	0xbd50f4b4	-0.051014617
209	0xbe0c6e89	-0.13714041
210	0x3e8b6661	0.27226546
211	0xbea3b77a	-0.3197592
212	0xbcc467c1	-0.023975255
213	0x3c54f952	0.012998896
214	0xbf67196d	-0.9027317
215	0xbda03588	-0.0782271
216	0x3e7b88cb	0.24563901
217	0xbe903fd6	-0.28173703
218	0x3e1c7414	0.15278655
219	0xbe5cd7fe	-0.2156677
220	0xbdd5685c	-0.104202956
221	0xbcfd337e	-0.030908342
222	0x3e0a2634	0.13491136
223	0x3f08dd46	0.53462636
224	0x3d7017dc	0.058616504
225	0x3c430d55	0.011905034
226	0x3dad825a	0.08472128
227	0x3d00d2ee	0.03145116
228	0xbe42f037	-0.19036947
229	0x3d894fd0	0.06704676
230	0xbe2e35f3	-0.17012767
231	0x3dc7c777	0.09754842
232	0xbf208232	-0.6269866
233	0xbd25c466	-0.040470503
234	0xbd0dff0a	-0.034667052
235	0xbf31b1e9	-0.69412094
236	0xba8e4c26	-0.0010856434
237	0x3c553236	0.0130124595
238	0x3d55f36a	0.05223409
239	0x3e4270c4	0.18988329
240	0xbcc2fc74	-0.02380202
241	0x3e64bba2	0.22337201
242	0xbd7aeb61	-0.06125963
243	0xbd4a2a7b	-0.04935692
244	0x3e509475	0.20369132
245	0xbdf60267	-0.12012177
246	0x3caff1ed	0.021477664
247	0xbf0fde56	-0.5619863
248	0x3e906585	0.28202453
249	0xbaf0e87e	-0.0018379835
250	0xbe0acc4f	-0.135545
251	0x3e82eafe	0.2556991
252	0x3d0a268a	0.03372816
253	0xbf2643ef	-0.6494741
254	0x3e9f3fd3	0.31103382
255	0x3deb0926	0.11476354

conv_layers.1.bias f4 [32]
0	0x3c832048	0.016006604
1	0xbde5d853	-0.11222901
2	0x3d444527	0.04791751
3	0xbe0fff1f	-0.14062165
4	0xbd94f533	-0.072733305
5	0xbe08d947	-0.13364135
6	0xbd7d3b9a	-0.06182442
7	0xbd120ee9	-0.03565875
8	0x3d5f7ccd	0.05456238
9	0xbdb649c5	-0.08900789
10	0xbddb9722	-0.10722186
11	0xbc2219a8	-0.009893812
12	0xbdb77a1b	-0.08958837
13	0x3d5b128e	0.053484492
14	0xbd742bd9	-0.05961213
15	0x3e031356	0.12800345
16	0xbd14fa37	-0.036371436
17	0xbc122f29	-0.008922377
18	0xbda4fcb1	-0.080560096
19	0xbd55e237	-0.05221769
20	0x3d886ea1	0.06661726
21	0xbc2c91e9	-0.010532835
22	0xbd6dff6f	-0.05810493
23	0x3dc0fdef	0.09423434
24	0x3dcc7f17	0.09985178
25	0xbd1e9905	-0.03872015
26	0x3df1bb90	0.11803353
27	0x3d8f799e	0.070056185
28	0x3df065ad	0.11738143
29	0x3d03692b	0.032082718
30	0x3d3605b5	0.044439036
31	0x3dbb979f	0.09159779

bn_layers.0.weight f4 [16]
0	0x3f8400e6	1.0312774
1	0x3f6b894e	0.92006385
2	0x3f5b4b20	0.85661507
3	0x3f8b47b6	1.088126
4	0x3f55d89d	0.8353365
5	0x3f87bc2c	1.06043
6	0x3f95af16	1.1694057
7	0x3f817af1	1.0115644
8	0x3f8a6138	1.0810919
9	0x3f68439b	0.9072816
10	0x3f93293c	1.1496959
11	0x3f72072c	0.94542193
12	0x3f72b202	0.9480287
13	0x3f6dce7f	0.92893213
14	0x3f615f1b	0.88035744
15	0x3f84df9d	1.0380741

bn_layers.0.bias f4 [16]
0	0xbe62ae6b	-0.22136848
1	0xbec96bbf	-0.39340016
2	0xbe3d4fc7	-0.18487464
3	0xbea14dcc	-0.31504667
4	0xbed65970	-0.4186511
5	0xbedf01c5	-0.43556038
6	0xbed99880	-0.4249916
7	0x3d890eee	0.06692301
8	0xbeeb1d66	-0.45920867
9	0xbe6b41e7	-0.22974358
10	0xbeca18bb	-0.39471993
11	0xbed32e5d	-0.4124631
12	0xbeac894d	-0.33698502
13	0xbd923a41	-0.07140017
14	0xbd25ad70	-0.040448606
15	0xbed3ecbf	-0.4139156

bn_layers.0.running_mean f4 [16]
0	0xbecf9e03	-0.4055024
1	0x3eb28e98	0.34874415
2	0x3e8b1395	0.27163377
3	0xbd67af77	-0.05656382
4	0x3eb145f6	0.34623688
5	0x3ed54c8d	0.41659966
6	0x3edb5a4f	0.42842337
7	0x3e40a63a	0.1881341
8	0xbed2c5ba	-0.41166478
9	0xbef8c64c	-0.48588789
10	0xbf07f41f	-0.53106874
11	0x3e85504d	0.26037827
12	0x3dd71c5f	0.10503458
13	0xbdb54b3b	-0.0885224
14	0xbea64a1e	-0.32478422
15	0xbdc7f2a6	-0.097630784

bn_layers.0.running_var f4 [16]
0	0x3f245502	0.6419221
1	0x3ebdc764	0.37066185
2	0x3f3bf7d2	0.7342502
3	0x3f05c796	0.5225767
4	0x3e8408d4	0.25787985
5	0x3eee054c	0.46488416
6	0x3f234c68	0.6378846
7	0x3e9f45e2	0.31108004
8	0x3f4b574a	0.7943007
9	0x3f0c9685	0.54917175
10	0x3ebab312	0.36464745
11	0x3e62cb32	0.22147825
12	0x3f3bd967	0.73378605
13	0x3f274301	0.65336615
14	0x3efa50be	0.48889726
15	0x3ec2c10f	0.38037917

bn_layers.1.weight f4 [32]
0	0x3f8eb72d	1.1149651
1	0x3fa373c9	1.276971
2	0x3f87778a	1.0583355
3	0x3f72d5b5	0.9485734
4	0x3f959928	1.1687365
5	0x3f7fe88f	0.9996423
6	0x3f8a1c87	1.0789956
7	0x3f61911a	0.8811203
8	0x3f999c4f	1.2000827
9	0x3f62f3d7	0.8865332
10	0x3f8386c1	1.0275499
11	0x3fa23665	1.267285
12	0x3f65e02d	0.8979519
13	0x3f7ca2b6	0.9868578
14	0x3f7a6906	0.97816503
15	0x3f233013	0.6374523
16	0x3f5b9138	0.8576846
17	0x3f8b3cb6	1.0877903
18	0x3f53ecec	0.8278339
19	0x3f9ba839	1.2160712
20	0x3f91709e	1.1362493
21	0x3f6b0b68	0.9181428
22	0x3f507fc3	0.8144495
23	0x3f88bb6e	1.0682199
24	0x3f9c780a	1.2224133
25	0x3f5b196c	0.85585666
26	0x3f81006f	1.0078257
27	0x3f8a6f30	1.0815182
28	0x3f8ecb1c	1.1155734
29	0x3f6e95b0	0.93197155
30	0x3f974b22	1.1819804
31	0x3f42216f	0.75832266

bn_layers.1.bias f4 [32]
0	0x3d847c24	0.064689904
1	0xbe7e541f	-0.24836777
2	0xbe060100	-0.13086319
3	0xbe23c2be	-0.15992257
4	0xbe9b5074	-0.30334818
5	0xbe97f9e5	-0.29682842
6	0xbe903cbf	-0.28171346
7	0x3bd76344	0.0065731127
8	0xbe8bbe6e	-0.27293724
9	0xbf28047c	-0.6563184
10	0xbe0b41ca	-0.13599315
11	0xbec2ba84	-0.38032925
12	0xbd7046d7	-0.05866131
13	0xbe6e1292	-0.23249272
14	0xbe65898a	-0.22415748
15	0xbea3ec04	-0.32016003
16	0xbe38d7c1	-0.18051054
17	0xbe328fd7	-0.17437683
18	0xbed6881e	-0.41900724
19	0xbec43187	-0.38319036
20	0xbde7817d	-0.11303995
21	0xbeb03a58	-0.34419513
22	0xbf178b9d	-0.5919741
23	0xbe5794b5	-0.21052821
24	0xbe585118	-0.21124685
25	0xbcdc5a2b	-0.026898464
26	0xbe88036d	-0.26565114
27	0xbe9502a0	-0.29103565
28	0xbecdbff4	-0.4018551
29	0xbceba725	-0.028766224
30	0xbe5e9b00	-0.21738815
31	0xbdc30ef4	-0.095243365

bn_layers.1.running_mean f4 [32]
0	0xbf85116d	-1.0395943
1	0xbffff17d	-1.9995571
2	0xbfb5db7c	-1.4207606
3	0x3fee564f	1.8620089
4	0xc00c6024	-2.193368
5	0xbf85ea12	-1.0462058
6	0xbff978a1	-1.9489938
7	0xc0059bf8	-2.0876446
8	0x3e8cb59b	0.27482304
9	0xbfcbf210	-1.5933247
10	0xbf82483a	-1.0178292
11	0xc043194c	-3.048419
12	0xbffecaed	-1.9905678
13	0x3eee1981	0.46503833
14	0xbf6a8f21	-0.9162465
15	0x3e68f3cd	0.22749253
16	0x3df0f95a	0.1176631
17	0xbf5b749e	-0.8572482
18	0x3e4a63ed	0.19764681
19	0xc00c3de8	-2.1912785
20	0xc0129fa0	-2.2909927
21	0xbf400c54	-0.7501881
22	0xbfcb2105	-1.5869452
23	0xbf0667ac	-0.5250194
24	0x3eb7fbad	0.359342
25	0xbe28a0a3	-0.16467528
26	0xbfa9597a	-1.3230431
27	0xbf87e629	-1.0617114
28	0xbf98b5eb	-1.1930517
29	0x3e0710d6	0.13190016
30	0xbe6d7f84	-0.23193175
31	0x3f03f8f2	0.51551735

bn_layers.1.running_var f4 [32]
0	0x408adcf8	4.3394737
1	0x409ceb37	4.9037127
2	0x4063627f	3.5528867
3	0x4068c192	3.6368146
4	0x40b43bbc	5.632292
5	0x40657e5d	3.5858376
6	0x4093b73f	4.616119
7	0x405558f7	3.333555
8	0x408d0fbc	4.4081707
9	0x407059fb	3.755492
10	0x40697e4b	3.6483333
11	0x4100546b	8.02061
12	0x4083183d	4.096709
13	0x403d1240	2.954239
14	0x406e9a0b	3.728152
15	0x40592cf8	3.3933697
16	0x40603d5c	3.503745
17	0x404ba2b9	3.1818068
18	0x40766d37	3.850416
19	0x40dc47bd	6.883757
20	0x40819907	4.04993
21	0x40890558	4.2819023
22	0x409d5463	4.916551
23	0x402925c3	2.6429298
24	0x404e6e73	3.2254913
25	0x4087262e	4.2234106
26	0x4091f947	4.5616794
27	0x40a6c648	5.2117043
28	0x40969fb2	4.706994
29	0x406ba0b4	3.6816835
30	0x406a25df	3.6585615
31	0x40400de5	3.000848

final_conv.weight f4 [64, 32, 3]
0	0xbe9e8c04	-0.30966198
1	0xbe3ee74e	-0.18642923
2	0xbedbc763	-0.42925557
3	0xbe4e8693	-0.20168523
4	0x3f083a45	0.5321391
5	0x3e6bf99a	0.23044434
6	0xbeba1dd2	-0.36350876
7	0xbe119d0c	-0.14220065
8	0xbe28e6e2	-0.16494325
9	0x3e2c9193	0.16852407
10	0x3d496b1e	0.04917442
11	0x3e2b9aac	0.16758221
12	0xbe16740f	-0.1469271
13	0xbdc3a34b	-0.0955263
14	0x3ed5b9c9	0.41743305
15	0xbd71b995	-0.059014875
16	0xbde12d4c	-0.10994968
17	0xbefe7076	-0.49695176
18	0xbe83ac83	-0.25717553
19	0xbeca1621	-0.39470008
20	0xbed46337	-0.41481945
21	0xbc9c802a	-0.019104082
22	0x3d499886	0.049217723
23	0xbd8c191a	-0.06840725
24	0xbe77eb37	-0.24210821
25	0xbdc9f89f	-0.09861874
26	0xbceb926f	-0.028756348
27	0x3e201d1d	0.15636106
28	0xbd9e0b14	-0.07716957
29	0x3cfe8591	0.031069549
30	0x3e9833fa	0.29727155
31	0x3ea1b6ae	0.31584686
32	0xbd43aaee	-0.047770433
33	0x3e5f1521	0.21785404
34	0x3ce0e122	0.027451102
35	0xbda976ad	-0.08274589
36	0xbcc71569	-0.024302201
37	0x3e320e70	0.1738832
38	0xbe8462eb	-0.25856718
39	0xbd96518b	-0.07339772
40	0x3df322eb	0.118718944
41	0x3b3ee166	0.0029126047
42	0x3e2de78f	0.16982864
43	0x3dd4a51d	0.10383055
44	0x3e896dca	0.26841575
45	0x3d8beb7c	0.068320245
46	0x3e390eb9	0.18072022
47	0xbafb0b1b	-0.001915309
48	0xbea9db58	-0.33175159
49	0xbddaeac5	-0.1068931
50	0xbdd787ad	-0.10523925
51	0x3e2adcfe	0.16685864
52	0xbe57b9a3	-0.21066909
53	0xbe8dbecf	-0.27684638
54	0x3ccaf742	0.024776105
55	0x3d8ea7b6	0.06965582
56	0x3d6accda	0.057324268
57	0x3e27af08	0.16375363
58	0x3e24e03d	0.16101165
59	0x3e566c5e	0.20939776
60	0xbe386920	-0.18008852
61	0xbead2372	-0.33816105
62	0xbf50501e	-0.8137225
63	0xbf02b8f8	-0.5106349
64	0xbda210bd	-0.07913349
65	0xbe3fb6df	-0.18722104
66	0x3e173487	0.14766131
67	0xbc744bd8	-0.014910661
68	0xbe3edea4	-0.18639618
69	0xbdde66ae	-0.10859428
70	0x3cfa22e8	0.030534223
71	0xbef90fe0	-0.48644924
72	0xbe785ae0	-0.24253416
73	0x3de5bb77	0.11217397
74	0xbe19b092	-0.15008762
75	0xbd01b8ce	-0.031670384
76	0x3e86d71b	0.26335987
77	0x3e91aebc	0.28453624
78	0xbdc24068	-0.09484941
79	0xbe91fc97	-0.28513023
80	0xbaac0bbe	-0.0013126058
81	0x3e918098	0.28418422
82	0x3e008121	0.12549259
83	0xbd0b0167	-0.033936884
84	0x3e82c0da	0.2553776
85	0xbe3d7622	-0.18502095
86	0xbeae75b2	-0.3407417
87	0x3df0042e	0.11719547
88	0x3e5adc13	0.21373014
89	0xbe1e58ee	-0.15463611
90	0xbe1fefbc	-0.15618795
91	0x3e58a2de	0.21155879
92	0x3ea2b7ae	0.3178076
93	0x3eed685e	0.46368688
94	0xbd9beaaa	-0.07613118
95	0x3dfa8e26	0.12234144
96	0x3d43b240	0.047777414
97	0x3dcef969	0.10106165
98	0xbdae06ca	-0.08497389
99	0xbe186756	-0.1488317
100	0x3e11f13c	0.1425218
101	0xbe93b521	-0.28849128
102	0xbee7a920	-0.4524622
103	0x3e3cfa15	0.18454774
104	0xbe4aeab3	-0.19816093
105	0xbf0b609f	-0.5444431
106	0xbe130fdd	-0.1436152
107	0xbe6f9a8a	-0.23398796
108	0xbee37a7c	-0.44429386
109	0x3e563d41	0.20921804
110	0x3e3540df	0.17700528
111	0x3d83df27	0.06439047
112	0x3d5f30f4	0.054490045
113	0xbe318966	-0.1733757
114	0xbd4b42ef	-0.04962438
115	0x3cf1a0e9	0.029495673
116	0xbcb0f4be	-0.021601077
117	0x3c16d010	0.009204879
118	0xbee407cb	-0.44537196
119	0xbcff5456	-0.031168144
120	0xbd67598a	-0.056481875
121	0xbc000ed4	-0.007816035
122	0xbe32ac34	-0.17448503
123	0xbf099a0f	-0.537507
124	0x3e30b3d6	0.17256102
125	0x3d9dff1e	0.07714675
126	0xbeecb148	-0.46229005
127	0xbe2e6987	-0.17032443
128	0xbdfe9e32	-0.12432517
129	0xbf143067	-0.57886356
130	0x3e23f8dd	0.16012903
131	0xbdd60125	-0.10449437
132	0xbea01893	-0.3126875
133	0xbea0849c	-0.31351173
134	0xbdeedf1b	-0.11663648
135	0xbe9607ec	-0.2930292
136	0xbe370814	-0.17874175
137	0x3d9c265d	0.07624505
138	0xbe8ff98a	-0.2812007
139	0xbdeb3503	-0.114847206
140	0x3e4b5313	0.19855909
141	0xbd093faa	-0.03350798
142	0xbdf69faf	-0.12042176
143	0xbc2a4f41	-0.010394872
144	0xbe621c6d	-0.22081156
145	0xbe876ac1	-0.26448634
146	0xbad1d652	-0.0016009307
147	0xbd18ee82	-0.037336834
148	0x3ebc206a	0.3674348
149	0x3dcf0410	0.10108197
150	0x3e29731b	0.16547816
151	0xbeb1f710	-0.34758806
152	0xbda3090b	-0.07960709
153	0xbee2e753	-0.4431711
154	0x3cecff4e	0.028930333
155	0x3dfc954c	0.123331636
156	0xbdb61308	-0.08890349
157	0x3be970c7	0.00712404
158	0xbd3d0a17	-0.0461522
159	0xbd424afb	-0.04743479
160	0xbe003e5c	-0.12523788
161	0x3d392ff6	0.045211755
162	0xbee76083	-0.4519082
163	0x3dc46bdc	0.09590885
164	0xbeef6fef	-0.46765086
165	0x3d50bca3	0.050961148
166	0x3e36ebd7	0.17863403
167	0x3d9f1e03	0.07769396
168	0x3ce263d5	0.027635494
169	0xbe7b52d7	-0.2454332
170	0xbd81162d	-0.06303058
171	0xbed8ecaa	-0.4236806
172	0xbec0269e	-0.37529463
173	0xbdeec2d3	-0.116582535
174	0xbe5f34d0	-0.2179749
175	0xbe994539	-0.29935625
176	0xbe26f737	-0.16305242
177	0xbf091213	-0.53543204
178	0xbeab178d	-0.33416405
179	0xbe34e216	-0.1766437
180	0xbe9d1d52	-0.30686432
181	0xbe48c04f	-0.1960461
182	0xbd93d577	-0.072184496
183	0xbdfe26a6	-0.12409715
184	0xbec3a089	-0.38208416
185	0x3df6516e	0.1202725
186	0xbf0b8c6b	-0.54511136
187	0xbe5ed3c8	-0.21760476
188	0xbd6276a0	-0.05528891
189	0xbeb2b502	-0.34903723
190	0xbe95862a	-0.29203922
191	0x3d9ddade	0.07707761
192	0x3df9712f	0.12179791
193	0xbde1b791	-0.11021341
194	0xbf7c372f	-0.98521703
195	0xbe159f57	-0.14611565
196	0xbeaaee9c	-0.3338517
197	0x3dca900b	0.09890755
198	0x3e13ee21	0.14446308
199	0xbe350fe5	-0.17681845
200	0x3e12ff61	0.14355232
201	0xbd2f4ecf	-0.042799767
202	0xbd7c95ea	-0.061666407
203	0x3e446bc6	0.19181737
204	0xbe56e3d6	-0.2098535
205	0xbe2646fb	-0.16238014
206	0x3e482f63	0.19549327
207	0xbc594d6a	-0.013263086
208	0xbda04181	-0.07824994
209	0xbeb0f360	-0.3456068
210	0xbdeed843	-0.116623424
211	0x3e0db475	0.1383837
212	0x3d5e8a44	0.05433108
213	0xbe63f272	-0.22260454
214	0x3e889bce	0.2668137
215	0xbf15b16a	-0.5847384
216	0xbe4c3d3d	-0.19945236
217	0x3eb917b2	0.3615089
218	0x3cdc88a2	0.02692062
219	0x3dabf11d	0.08395598
220	0xbd7cda83	-0.061731827
221	0x3e6326d6	0.22182783
222	0x3d768159	0.06018195
223	0xbe71f197	-0.23627315
224	0x3e844b1d	0.25838557
225	0xbe4ccd18	-0.20000112
226	0xbe9b16fa	-0.30290967
227	0x3ea74b73	0.3267475
228	0x3dd0e956	0.10200755
229	0x3ccd6ce1	0.025076332
230	0xbed681f5	-0.41896024
231	0xbd9ae857	-0.075638466
232	0x3d8b497b	0.06801125
233	0xbe066046	-0.13122663
234	0xbe803d68	-0.2504685
235	0xbe67f044	-0.22650248
236	0xbe0dbc62	-0.13841394
237	0xbd87e6ce	-0.066358194
238	0xb8b6a345	-8.7088476e-05
239	0x3ec86413	0.3913885
240	0x3e572ad1	0.21012427
241	0xbe6a3802	-0.22872928
242	0x3dbc4d2a	0.091944054
243	0xbdd19315	-0.10233132
244	0xbe7d42d9	-0.24732532
245	0xbdb3d79e	-0.0878136
246	0x3d3e34e5	0.046437163
247	0xbe127da3	-0.14305739
248	0x3d2898f2	0.041161485
249	0xbd112497	-0.035435285
250	0xbec68516	-0.38773412
251	0x3e18e460	0.14930868
252	0x3e2688d7	0.16263138
253	0xbe665c4a	-0.22496143
254	0x3db4eeb1	0.08834589
255	0xbde69fdb	-0.11260959

final_conv.bias f4 [64]
0	0x3c9110c0	0.017708182
1	0x3d95fd27	0.073236756
2	0x3da0521e	0.078281626
3	0xbdae78d6	-0.085191414
4	0x3dc66bb4	0.096885115
5	0xbcb52b1c	-0.022115283
6	0xbc978c43	-0.0184995
7	0xbd91d4b3	-0.07120647
8	0x3d1d518e	0.038407855
9	0x3aada9cd	0.0013249457
10	0xbd76d7aa	-0.060264267
11	0xbc84ccc7	-0.016210927
12	0xbd8229d3	-0.063556336
13	0x3d5d1f2b	0.053984802
14	0xbcef4737	-0.029208763
15	0xbd742d7d	-0.059613694
16	0xbd70185a	-0.058616973
17	0xbd9ae71e	-0.07563613
18	0xbdde2e9b	-0.10848733
19	0x3d4f7b66	0.05065479
20	0x3d9d293a	0.07673879
21	0xbd48afc9	-0.048995767
22	0xbd55d4cf	-0.052204903
23	0x3d4f4424	0.050602093
24	0x3db70dec	0.08938202
25	0x3d6ddcc0	0.05807185
26	0x3cd5d17e	0.02610087
27	0x3da62c32	0.08113898
28	0x3a1b2fd1	0.0005919906
29	0x3d819e99	0.06329078
30	0xbd748cf4	-0.059704736
31	0x3d0c995f	0.034325954
32	0xbd7c2737	-0.061560836
33	0x3da14583	0.078745864
34	0x3d78f932	0.060784526
35	0x3d6bd7b1	0.057578746
36	0x3ca57634	0.020197965
37	0x3dd9d370	0.10636032
38	0xbc5e0593	-0.013551134
39	0xbb78c96d	-0.0037961856
40	0x3dd141a8	0.10217601
41	0xbd83f610	-0.06443417
42	0x3dcbe77f	0.09956264
43	0xbc649b22	-0.013953002
44	0xbd6de0db	-0.058075767
45	0xbc061092	-0.008182662
46	0x3ae4846c	0.0017434484
47	0x3d91c422	0.071174875
48	0x3da68548	0.0813089
49	0x3bd363ae	0.0064510917
50	0xbdaf90c6	-0.08572535
51	0x3d1649c1	0.03669143
52	0xbd5fe2ba	-0.054659583
53	0x3d6850fc	0.056717858
54	0x3d231244	0.03981234
55	0x3d94d229	0.07266647
56	0xbd5356fc	-0.051596627
57	0x3d321924	0.043481007
58	0x3d8e1af8	0.06938738
59	0x3d147c06	0.03625109
60	0xb99765b1	-0.0002887673
61	0xbd2fb87c	-0.042900547
62	0x3be61a39	0.007022169
63	0xbc25f157	-0.010128341
