government_icfes_dataset/best_models/classification/model_classification_20250522_100219.pt (torch, 741039 bytes, 39 tensors)

embeddings.0.weight f4 [4, 8]
0	0xbf873cac	-1.056539
1	0x3fca9c14	1.5828881
2	0xbe19f03e	-0.15033051
3	0x3fe20228	1.7656908
4	0x3edf6b92	0.43636757
5	0xbf888f5e	-1.0668752
6	0xbd9e7301	-0.07736779
7	0xbfb29566	-1.3951843
8	0x3ddb6011	0.107116826
9	0x3e1b3384	0.1515637
10	0xbede2b64	-0.4339248
11	0x3f806033	1.0029358
12	0xbeddb456	-0.43301648
13	0x3f0ea45d	0.5571955
14	0xbff881fa	-1.9414666
15	0xbef67407	-0.48135397
16	0x3f799994	0.97499967
17	0x3f1fc70d	0.624131
18	0xbf7882ab	-0.97074383
19	0xbfe91dfd	-1.8212277
20	0xbf2779ad	-0.6542004
21	0x3eac517a	0.33655912
22	0x3faa30d3	1.329615
23	0x3f6c85d3	0.923917
24	0xbff9b2ea	-1.9507725
25	0x3f5446b4	0.82920384
26	0xbec10923	-0.37702283
27	0x4000a22c	2.0098982
28	0xbf60e937	-0.8785586
29	0xbf07d2de	-0.5305613
30	0xbf098496	-0.53717935
31	0xbf89f86d	-1.0778939

embeddings.1.weight f4 [3, 8]
0	0xbe2ffcab	-0.17186229
1	0xbf4270e5	-0.75953513
2	0x3ed7b375	0.42129102
3	0xbf151f21	-0.58250624
4	0xc004b5fc	-2.0736074
5	0xbf9df037	-1.2338933
6	0x3e7f7e47	0.24950515
7	0x3f54b04a	0.83081496
8	0xbf3a36cd	-0.7273987
9	0xbeda64b4	-0.42654955
10	0xbd042341	-0.032260183
11	0x3e935eb0	0.28783178
12	0x3f621774	0.88317037
13	0x3fd54c7b	1.6663965
14	0x3fc55087	1.54152
15	0xbfcad037	-1.5844792
16	0xbe03ec7b	-0.12883179
17	0xbf41ecfe	-0.75752246
18	0x3e905979	0.28193262
19	0xbf4fcb3a	-0.81169474
20	0x3f89d5be	1.0768354
21	0x3e496ac3	0.19669633
22	0x3eb76751	0.35821012
23	0x3e4bde08	0.19908917

embeddings.2.weight f4 [5, 8]
0	0xbebd4c93	-0.36972484
1	0x3ec73df8	0.38914466
2	0xbfccac23	-1.5990032
3	0xbe2e887c	-0.17044252
4	0xbf2e8b9e	-0.6818179
5	0x3eb6ede5	0.35728374
6	0xbf26839a	-0.6504456
7	0xbe316ac8	-0.1732589
8	0x3fdd0212	1.7266257
9	0xbff917a2	-1.9460337
10	0x3fcd17a0	1.6022835
11	0x3f2a807e	0.66602314
12	0xbf164ed6	-0.58714044
13	0x3fa955d1	1.3229314
14	0xbf5f4fda	-0.8723122
15	0x3faed753	1.3659462
16	0x3ed4f67d	0.41594306
17	0xbe8108b4	-0.25201952
18	0xbf323aef	-0.69621176
19	0x3f7ff23f	0.99979013
20	0xbeb2c40b	-0.34915194
21	0xbfdcf609	-1.7262584
22	0x3d917021	0.07101465
23	0x3f2fa515	0.6861127
24	0x3cda8269	0.026673513
25	0xbdcf2e55	-0.10116259
26	0xbf85ed71	-1.0463086
27	0xbfa0b7c5	-1.2556082
28	0xbfaecb73	-1.3655838
29	0xbe9f7625	-0.31144825
30	0x3e13c95b	0.1443228
31	0x3dca74ae	0.09885536
32	0xbdeef630	-0.1166805
33	0x3d801b04	0.06255153
34	0x3f167aa1	0.58780867
35	0xbe52f8de	-0.20602748
36	0x3f278e1c	0.65451217
37	0xbec2b3fb	-0.3802794
38	0xbf8c6359	-1.0967818
39	0x3f1a4423	0.6026022

embeddings.3.weight f4 [7, 8]
0	0xbf1735cf	-0.5906648
1	0xbfc1ce73	-1.5141128
2	0xbfb19d58	-1.3876143
3	0xbd6292a2	-0.05531562
4	0xbe94f880	-0.2909584
5	0xbfa64888	-1.2990885
6	0xbe3e34fa	-0.18574896
7	0xbd430af7	-0.04761788
8	0xbd1acb86	-0.03779175
9	0xbfdbac95	-1.7162043
10	0x3f0f04a6	0.5586647
11	0x3efac9d0	0.48982096
12	0xbf2267cc	-0.6343963
13	0xbfa45175	-1.2837359
14	0x3f70990a	0.9398352
15	0x3fa86ed4	1.3158822
16	0x3f57ab8c	0.84246135
17	0x3f0f95b1	0.56087786
18	0xbf1d9f92	-0.6157161
19	0x3f3eac23	0.7448141
20	0x3f546f46	0.8298229
21	0x3f696853	0.9117481
22	0x3f9cc61d	1.2247959
23	0x3fb1b633	1.3883728
24	0xbeaea915	-0.34113374
25	0xbe7f49c9	-0.2493049
26	0xbec2ec29	-0.380708
27	0xbfbf1f07	-1.4931344
28	0xbf90b9ee	-1.1306741
29	0xbe1b77a2	-0.15182355
30	0x3e253127	0.16132031
31	0xbe40fd24	-0.18846565
32	0x3e55bdd3	0.20873193
33	0x3f0f2a04	0.55923486
34	0x3f2324f4	0.6372826
35	0x3ef52fb1	0.47887948
36	0xbd360548	-0.04443863
37	0x4014c384	2.3244333
38	0xbf17d22d	-0.5930508
39	0xbe801148	-0.25013185
40	0xbf1756c8	-0.5911679
41	0xbfddd009	-1.7329112
42	0x3f15b88a	0.5848471
43	0xbf2b4ed2	-0.66917145
44	0x3e9635db	0.29337963
45	0x3f0c9c4b	0.54925984
46	0xbf27907a	-0.6545483
47	0x3e893b9b	0.26803288
48	0xbe85ee2d	-0.26158276
49	0x3f621de3	0.88326854
50	0x3ed1e44c	0.4099449
51	0xbf834de6	-1.0258148
52	0xbc82ef78	-0.015983328
53	0xbfc6c47d	-1.5528713
54	0x3f13d2d5	0.5774358
55	0x40156276	2.3341346

embeddings.4.weight f4 [7, 8]
0	0x3f96ac4a	1.1771328
1	0xbf6049e3	-0.8761274
2	0xbf57141b	-0.84015054
3	0xbec5325d	-0.38514987
4	0xbf0ff555	-0.5623372
5	0x3f08c0ba	0.5341908
6	0x3e822ff9	0.25427225
7	0x3f85447b	1.0411524
8	0xbf9568d9	-1.1672622
9	0x3f247799	0.6424499
10	0xbfac48e1	-1.3459741
11	0xbf2b1681	-0.66831213
12	0xbe4ca4ac	-0.19984692
13	0x3f0a9473	0.54132766
14	0xbf10f9bc	-0.56631064
15	0xbf430ee4	-0.76194596
16	0xbd193f01	-0.0374136
17	0x3df8bcc7	0.121453814
18	0x3f517df1	0.81832796
19	0x403f7f31	2.9921381
20	0xbfdcd9f5	-1.7254015
21	0xbed8d806	-0.42352313
22	0x3e2c51b0	0.16828036
23	0x3e6793ec	0.22615021
24	0x3e886e3b	0.266466
25	0x3dfc85ef	0.12330233
26	0x3eabef34	0.33580935
27	0x401c6fca	2.444323
28	0x3e2b82cf	0.16749118
29	0xbf4f938a	-0.810845
30	0x3f1359be	0.5755881
31	0xbfa2e40e	-1.2725847
32	0xbfcd17bc	-1.6022868
33	0x3f1ca22f	0.6118497
34	0xbf351883	-0.70740527
35	0x3fa3d47d	1.2799221
36	0x3f2de76b	0.6793124
37	0xbf6fe4a6	-0.93708265
38	0xbf4d16db	-0.80113
39	0x3f539f88	0.826653
40	0xbe8c26f9	-0.27373484
41	0xbf589620	-0.8460407
42	0x3f80ba26	1.0056808
43	0x3e7fbb72	0.24973848
44	0xbf224936	-0.6339296
45	0x3dd58087	0.10424905
46	0x3f55f20d	0.83572465
47	0x3ea6a27f	0.3254585
48	0xbe9f1438	-0.31070113
49	0xbef417d8	-0.4767444
50	0xbe9729e1	-0.2952414
51	0x400c65b3	2.1937072
52	0x3f4aec4b	0.79266804
53	0x3f8b4cd9	1.0882827
54	0x3f870614	1.054873
55	0xbfd363a2	-1.651478

embeddings.5.weight f4 [1025, 8]
0	0x3e9aa6fe	0.3020553
1	0x3ecd9c9a	0.4015854
2	0xbed80ae3	-0.42195806
3	0x3f6d0b57	0.9259543
4	0x3f736d4b	0.9508864
5	0xbfae0842	-1.359627
6	0x3da79534	0.08182755
7	0xbeadd774	-0.3395344
8	0x3f3c7a78	0.7362437
9	0x3f68690f	0.90785307
10	0x3f06063d	0.5235327
11	0xbd9c137c	-0.07620904
12	0xc038f409	-2.8898947
13	0xbe9cebc5	-0.30648628
14	0xbe7f5885	-0.24936111
15	0xbea9cf50	-0.3316598
16	0x3e4dcfaf	0.20098756
17	0xbf1e78d4	-0.6190312
18	0x3f1a9456	0.6038259
19	0xbeeb3795	-0.45940843
20	0x3e8cd54b	0.2750648
21	0xbfafadcc	-1.3724914
22	0xbf6ea5cc	-0.93221736
23	0x3f49fbab	0.7889964
24	0xbe4610f5	-0.19342406
25	0x3f32cf3e	0.69847476
26	0x3d1703e1	0.036868934
27	0xbe37007c	-0.17871279
28	0xbe2cae73	-0.16863422
29	0xbe01bcdc	-0.126697
30	0xbd092471	-0.03348202
31	0xbecf9b21	-0.4054804
32	0xbfbba664	-1.4660153
33	0x3f2d44f9	0.6768337
34	0xbf3c54ed	-0.73567086
35	0xbf95293b	-1.1653208
36	0xbfb69295	-1.4263483
37	0x3fb1bbc8	1.3885431
38	0x3f06c091	0.52637583
39	0xbe46abfb	-0.19401543
40	0x3f38ffae	0.72265136
41	0xbefe1d90	-0.4963193
42	0xbe53d667	-0.20687257
43	0xbd291361	-0.041278247
44	0xbeacecaa	-0.3377431
45	0xbe23799a	-0.15964356
46	0x3f41d765	0.7571929
47	0x3f3dc6b7	0.7413134
48	0xbfae92ba	-1.3638527
49	0x406057df	3.5053632
50	0xbfc95551	-1.5729162
51	0xbf9d4371	-1.2286206
52	0x3eb5c118	0.3549888
53	0x3dd3dd47	0.1034494
54	0xc0099974	-2.149991
55	0x3ff216a3	1.8913158
56	0x3ebf290b	0.37336
57	0xbf9fb066	-1.2475708
58	0x3f601c9f	0.8754367
59	0x3fe97139	1.8237678
60	0xbe57c91e	-0.21072814
61	0x3eda7fb4	0.42675555
62	0x3ffebab2	1.9900725
63	0xbf4b78dc	-0.7948129
64	0x3efe363f	0.4965076
65	0x3fa5af33	1.2944092
66	0xbfb4d2be	-1.4126813
67	0x400830f2	2.1279874
68	0xbda03892	-0.0782329
69	0x3fa8be10	1.3183002
70	0xbfaf8afc	-1.371429
71	0xbe852b40	-0.2600956
72	0x3faf142a	1.3678029
73	0x3f1294a6	0.5725807
74	0x3ff09606	1.8795784
75	0x3fa66cb6	1.3001926
76	0xbf6d3950	-0.92665577
77	0xbf591587	-0.84798473
78	0x3f617335	0.88066417
79	0xbe831f92	-0.25610024
80	0x3f70a068	0.9399476
81	0x3fbd6887	1.4797524
82	0xbf675ee2	-0.90379155
83	0x3f9200f5	1.1406542
84	0x3e8dc080	0.27685928
85	0xbfb3bc11	-1.4041768
86	0x3e0d617c	0.13806719
87	0x3f9a6060	1.2060661
88	0x3fb55dae	1.4169214
89	0x3d8500e9	0.06494314
90	0xbdbb7aaf	-0.091542594
91	0xc0113a70	-2.2691917
92	0xbef7974a	-0.48357612
93	0xbf3c15c3	-0.73470706
94	0x3eaa51f2	0.33265644
95	0xbf56a0cb	-0.838391
96	0x3b74976e	0.0037321704
97	0x3e7b4955	0.24539693
98	0x3fca6505	1.5812079
99	0x3e8b7507	0.27237722
100	0x3fc030ff	1.5014952
101	0x3fa05733	1.2526611
102	0xbf29808f	-0.6621179
103	0xbf03fbf0	-0.515563
104	0xbff5615f	-1.917034
105	0x3d16e018	0.036834806
106	0x3fcf27cd	1.6184021
107	0x3e24837c	0.16065782
108	0x3d069941	0.032860998
109	0x3ebb599b	0.365918
110	0x3eb7faa7	0.3593342
111	0xbdf0f893	-0.11766162
112	0x3e34602f	0.17614816
113	0xbdfd10d5	-0.12356726
114	0xbfa853c3	-1.3150562
115	0x3e90113d	0.28138152
116	0x3f0caee4	0.5495436
117	0x400f9535	2.2434819
118	0x3ed22595	0.41044298
119	0xbd0c0a83	-0.034189712
120	0xbf055ceb	-0.52094907
121	0x3f6f0092	0.93360245
122	0xbfc65bb2	-1.5496733
123	0xc001c447	-2.0276048
124	0xbf081e33	-0.5317108
125	0xbce4507a	-0.027870405
126	0x3df3ceb9	0.119046636
127	0x40340d09	2.8132956
128	0x3ddef9c9	0.108874865
129	0xbecdd87c	-0.40204227
130	0xbeb3128a	-0.34975082
131	0x3fdb3110	1.7124348
132	0xbfb85268	-1.4400148
133	0x3f3bbbd4	0.7333348
134	0x3dde34cb	0.10849913
135	0xbf495334	-0.7864258
136	0x3fad29ac	1.3528342
137	0x40017224	2.0225916
138	0xbf3ac350	-0.72954273
139	0x3f75486e	0.95813644
140	0x3f22a6e3	0.635359
141	0x3fa3ceaf	1.279745
142	0x3f6ca33c	0.92436576
143	0xbecfb2a1	-0.4056597
144	0xbf01a733	-0.5064575
145	0x3c51bf70	0.01280199
146	0x3f86f405	1.0543219
147	0xbd6564e5	-0.056004424
148	0xbfacee14	-1.3510156
149	0x3f2fb953	0.6864216
150	0xbfabbc81	-1.3416902
151	0xbf97243f	-1.1807936
152	0x3e92adbe	0.2864818
153	0xc06dba48	-3.7144947
154	0xbf4616d4	-0.7737858
155	0xbd21bc46	-0.039486192
156	0xbd6b4e1f	-0.05744755
157	0x3f031ae1	0.5121289
158	0x3f628473	0.8848335
159	0xbe8a10a3	-0.26965818
160	0x3f2aed1e	0.6676806
161	0xbfb66b6c	-1.4251533
162	0xbf29badb	-0.66300744
163	0x3fc01978	1.5007772
164	0xbf62ea80	-0.8863907
165	0x3e96c789	0.29449108
166	0xbeb33d3c	-0.35007656
167	0x3f82aa79	1.0208274
168	0x3e254b9b	0.16142122
169	0x3ed749bb	0.4204844
170	0x3f1adcc9	0.6049314
171	0x3f112864	0.56702256
172	0x3f37377a	0.71569026
173	0xbdab1502	-0.08353616
174	0xbfc6c769	-1.5529605
175	0xbea61469	-0.32437447
176	0xbecb322b	-0.39686713
177	0xbd3f0576	-0.046636067
178	0x3ea1f68a	0.31633407
179	0x3e39c6dd	0.18142267
180	0x3d68117c	0.0566573
181	0x3d4e335e	0.050341956
182	0xbde878e2	-0.113511816
183	0x3f62d479	0.8860546
184	0xbee6fff1	-0.45117143
185	0xbf63d92e	-0.89003265
186	0xbedfc88f	-0.43707702
187	0xbf82f661	-1.0231439
188	0x3f1f9cb8	0.6234851
189	0xbedba313	-0.42897853
190	0xb990b43d	-0.00027600108
191	0x3ea0a786	0.3137781
192	0x3f9b94e1	1.2154809
193	0xbdb48205	-0.08813862
194	0x3fafb7bf	1.372795
195	0xc01dde87	-2.466707
196	0xbfc8c652	-1.5685523
197	0x3f0c7caf	0.5487775
198	0xc02d10eb	-2.7041576
199	0x3ef760c0	0.48316002
200	0xbebcfa86	-0.36909884
201	0xbe7ddce5	-0.24791296
202	0xbe97438c	-0.29543722
203	0x3e426f46	0.1898776
204	0x3fe00adc	1.7503314
205	0x40375518	2.8645687
206	0xbecc6a83	-0.39925012
207	0xbd2c272a	-0.042029537
208	0xbec09eaf	-0.37621066
209	0xbe367ed9	-0.17821826
210	0xbe1aa6b7	-0.15102659
211	0xbe266649	-0.16249956
212	0xbe22ec2e	-0.15910408
213	0xbe3ce23e	-0.1844568
214	0xbe3378f8	-0.17526615
215	0xbf4182c3	-0.7559015
216	0xbedad66f	-0.42741725
217	0xbe85ee7d	-0.26158515
218	0xbeaf42c8	-0.34230638
219	0xbea8ca3d	-0.32966796
220	0x3f8fad43	1.122475
221	0x3f6a9f62	0.9164945
222	0x3fffb8f4	1.9978318
223	0xbf63fd49	-0.8905836
224	0xbda023c8	-0.07819325
225	0x3f08cbdc	0.53436065
226	0xbd2d5b47	-0.042323377
227	0x3ccbaae6	0.024861764
228	0x3e03658b	0.12831704
229	0x3f07ab56	0.5299581
230	0xbe5589c7	-0.20853339
231	0xbf5fdac0	-0.8744316
232	0x3eb04598	0.34428096
233	0xbf7ba91c	-0.98304915
234	0x3f931052	1.1489356
235	0x4018f7cd	2.3901246
236	0x3ecbe7be	0.39825243
237	0x400f4337	2.2384775
238	0xbf40137f	-0.7502975
239	0xbe65594e	-0.22397348
240	0xbe1ecf3c	-0.15508741
241	0x3e4817fd	0.19540401
242	0x3dab24cc	0.08356628
243	0xbf22fc65	-0.63666373
244	0xbf16de45	-0.58932906
245	0x3fdeafa8	1.7397356
246	0x3ff9d50f	1.9518145
247	0xbf34bddc	-0.706022
248	0xc0155e33	-2.3338745
249	0xbf7a3db8	-0.97750425
250	0x3f80d02e	1.0063531
251	0x3df1c3e3	0.118049406
252	0xbf01e865	-0.5074523
253	0xbffd6f78	-1.9799643
254	0xc010eb65	-2.2643673
255	0xbf26c91a	-0.65150607

embeddings.6.weight f4 [3, 8]
0	0xbd08b236	-0.03337308
1	0x3eadd4ac	0.33951318
2	0xbf6e2483	-0.9302446
3	0xbf0f407f	-0.5595779
4	0x3e8a657e	0.27030557
5	0xbf9c783e	-1.2224195
6	0x3d90ebf4	0.070762545
7	0xbf40a9b2	-0.75258934
8	0xbfa20137	-1.2656621
9	0x3fa9cbbd	1.3265301
10	0x3fb2aa99	1.3958312
11	0x3d0df6e1	0.03465927
12	0x3fb2fa2f	1.39826
13	0x3f52a0ca	0.82276595
14	0x3e39bbfd	0.18138118
15	0xbf6ee5f8	-0.93319654
16	0xbfaabe1b	-1.3339266
17	0x3e5da148	0.21643555
18	0xbefef0d6	-0.49793118
19	0x3f372185	0.7153552
20	0xbfa6657a	-1.2999718
21	0x3e816719	0.2527397
22	0x3d6d49be	0.057931654
23	0x3f39919f	0.72487825

embeddings.7.weight f4 [7, 8]
0	0xbfa89067	-1.3169068
1	0xbfe1e0c4	-1.7646718
2	0xbf5094fb	-0.81477326
3	0x3f94807e	1.1601713
4	0x3ec688f7	0.3877637
5	0xbe9af70e	-0.30266613
6	0xbe6b3b02	-0.22971728
7	0xbed78e00	-0.42100525
8	0x3e8df5d8	0.27726626
9	0xbf0aa785	-0.54161865
10	0x3fa23ff2	1.2675765
11	0x3f346a38	0.70474577
12	0x3f15e6a6	0.58555067
13	0xbf1f50fc	-0.6223295
14	0x3fb42cda	1.4076188
15	0xbf54cb28	-0.8312249
16	0xbf9a0dfa	-1.2035515
17	0x3ddec559	0.10877485
18	0x3eb21ba9	0.34786728
19	0xbef668ad	-0.48126736
20	0xbf38abb4	-0.72137
21	0xbf91e4c1	-1.1397935
22	0x3f58b4a4	0.84650636
23	0xbe06e611	-0.13173701
24	0x3f8c0187	1.0937966
25	0x3e1aa3ad	0.151015
26	0xbe22bd3c	-0.158925
27	0x3d9397fc	0.07206723
28	0x3f1fd125	0.62428504
29	0xbff4df78	-1.9130697
30	0x3edca55c	0.4309491
31	0x3ee7f8ec	0.453071
32	0xbf174384	-0.59087396
33	0x3f55d00d	0.83520585
34	0xbf304346	-0.6885265
35	0x3f66f51d	0.90217763
36	0x3fa9a3a3	1.3253063
37	0x3f94360a	1.1578991
38	0xbf73222a	-0.94974005
39	0x3ec58125	0.38575092
40	0xbf296765	-0.6617339
41	0xbea1f0ff	-0.31629178
42	0xbf6b458f	-0.91903013
43	0xbfa64cee	-1.2992227
44	0xbdc62858	-0.09675664
45	0xbf92e855	-1.1477152
46	0xbf0b4b33	-0.5441162
47	0x3f97fbaf	1.1873683
48	0x3f7bce7b	0.9836194
49	0xbf3eb9af	-0.7450208
50	0xbf5611b7	-0.8362078
51	0xbf4638ae	-0.77430236
52	0xbf4de4a5	-0.8042701
53	0x3fc01830	1.5007381
54	0x3ed0fc3b	0.40817437
55	0x3f08a87a	0.53382075

embeddings.8.weight f4 [7, 8]
0	0x3efa0b3d	0.488367
1	0xbf456c8c	-0.77118754
2	0xbeef6554	-0.46756995
3	0x3f0f2b38	0.5592532
4	0x3f69d6d8	0.9134345
5	0xbf62e550	-0.88631153
6	0x3e148533	0.14503936
7	0xbf82d7a9	-1.0222064
8	0x3e6c1d69	0.23058094
9	0x3ed67855	0.4188868
10	0x3ec4aeb8	0.3841455
11	0xbec669bd	-0.38752547
12	0xbf016b94	-0.50554776
13	0xc024d4da	-2.5754914
14	0xbfc497b6	-1.5358799
15	0xbee49888	-0.44647622
16	0xbec66a21	-0.38752845
17	0x3fdc9dd9	1.7235671
18	0xbe1114d1	-0.14168097
19	0xbdd38888	-0.10328776
20	0xbf40e8b2	-0.75355065
21	0x3fcb5dfc	1.5888057
22	0x3e136d8b	0.14397256
23	0x3cc756e8	0.024333432
24	0x3f4306b6	0.76182115
25	0xbd244755	-0.04010709
26	0x3fab680b	1.3391126
27	0xbd528528	-0.05139652
28	0x3f90a98c	1.1301742
29	0xbee29485	-0.44253936
30	0x4003e739	2.0609877
31	0x3f22cb6a	0.63591635
32	0xbc07a643	-0.008279386
33	0xbfa07c8d	-1.253801
34	0xbf3a31b3	-0.72732085
35	0xbf72918f	-0.94753355
36	0x3f7503c8	0.95708895
37	0x3f1f70db	0.6228158
38	0x3e1906a9	0.14943947
39	0xbf5f0c8a	-0.8712851
40	0x3e837ad1	0.2567964
41	0x3eade9c5	0.33967414
42	0x3e6f4aee	0.23368427
43	0x3f0e429f	0.55570406
44	0xbf28a2f3	-0.6587364
45	0x3ef155dd	0.4713582
46	0xbf6b1a42	-0.9183694
47	0xbee16463	-0.440219
48	0x3b4a6cc0	0.0030887574
49	0xbf8a174f	-1.0788363
50	0x3e48463c	0.19558042
51	0xbf2ef65d	-0.6834467
52	0x3fa4abfa	1.2864983
53	0xbf8acf99	-1.0844604
54	0x3d228c95	0.03968485
55	0xbfd2886d	-1.6447884

embeddings.9.weight f4 [3, 8]
0	0xbf40d3e6	-0.7532333
1	0xbf28aaf1	-0.65885836
2	0xbf244fcd	-0.64184266
3	0xbf2b33e5	-0.6687606
4	0xbdea2574	-0.11432925
5	0x3e26af22	0.16277745
6	0xbfc8ea70	-1.5696545
7	0x3edc5c51	0.43039182
8	0x4034fc2b	2.827891
9	0x3f51a2e3	0.8188917
10	0x3f14e424	0.58160615
11	0x3ee9184f	0.45526358
12	0x401f4fc3	2.4892433
13	0x404f9de6	3.2440124
14	0x3f867742	1.0505145
15	0x3e25751a	0.16157952
16	0xbfc221d7	-1.5166577
17	0xbf77fd0f	-0.9687051
18	0xbfb4fa3f	-1.4138869
19	0x3eb21159	0.3477886
20	0x3f8dca27	1.1077317
21	0xbf7f295a	-0.9967247
22	0xbec41c41	-0.38302806
23	0x3fce0b4f	1.6097201

embeddings.10.weight f4 [427, 8]
0	0x3f54865f	0.83017534
1	0xbf64d39d	-0.89385396
2	0xc019ddc0	-2.4041595
3	0x3d93f1bf	0.07223844
4	0x3fb679c4	1.425591
5	0x3f07ba45	0.530186
6	0x3fb85764	1.440167
7	0x3fa30064	1.2734494
8	0xbeca1d00	-0.3947525
9	0xbf0f4f69	-0.55980545
10	0x3f604eb6	0.87620103
11	0xbf908dd9	-1.1293288
12	0xbeba99ff	-0.36445615
13	0xbf167fd4	-0.587888
14	0x3ed538d8	0.4164493
15	0x3fb80ed0	1.437952
16	0x3f6600b1	0.89844805
17	0x3fb9e344	1.4522481
18	0xbf39d149	-0.7258497
19	0x3f37f344	0.7185557
20	0xc001c486	-2.0276198
21	0xc0052af6	-2.0807471
22	0x3da5eeb0	0.08102167
23	0x3f9fe38f	1.249132
24	0x3fb44b2f	1.4085444
25	0x3edf9940	0.43671608
26	0x3fce0358	1.609477
27	0x3f53a8c1	0.82679373
28	0xbed231e9	-0.41053703
29	0xbf1fe6ad	-0.6246136
30	0x3f93dc26	1.1551559
31	0xbd4dd1b4	-0.050248817
32	0xbf512169	-0.81691605
33	0x3f2e94d6	0.68195856
34	0x3eb5e624	0.35527146
35	0xbe3c206b	-0.18371741
36	0x3f809a4c	1.0047088
37	0xbf511cdc	-0.8168466
38	0xbf62901b	-0.8850114
39	0x3f1d6c95	0.6149381
40	0xbf731d00	-0.94966125
41	0x3fd0f8ea	1.6325963
42	0xbf8686ba	-1.0509865
43	0xbdbb3072	-0.091400996
44	0x3f3a2a9d	0.7272127
45	0xbf5b7817	-0.8573012
46	0xbf304af8	-0.68864393
47	0x4000a689	2.0101645
48	0xbf279d0b	-0.65474004
49	0xbe376928	-0.17911208
50	0xbea1f56a	-0.3163255
51	0xbfa0da11	-1.2566549
52	0xbe5f40f2	-0.21802118
53	0x3e88e51f	0.26737306
54	0x3fb1406b	1.3847784
55	0xbe3bc40a	-0.18336502
56	0xbfb5516d	-1.4165474
57	0x3f1bd0b9	0.6086536
58	0xbf5bc8c3	-0.85853213
59	0xbf7f8dac	-0.9982555
60	0xbd0dec57	-0.03464922
61	0xbfa34f92	-1.2758658
62	0x3fb1a6a2	1.3878977
63	0x3f09fb7f	0.5389938
64	0x40246b19	2.5690367
65	0xbf99b76e	-1.2009103
66	0x4026a34d	2.603717
67	0x3fb0e66f	1.3820323
68	0x3f2f115d	0.6838587
69	0x3f086ce7	0.5329117
70	0x4016f8c4	2.3589334
71	0xbd9d2b30	-0.07674253
72	0x3d95e1ff	0.07318496
73	0x3e51a778	0.2047404
74	0x3e4f4a94	0.20243293
75	0xbf487cdf	-0.7831554
76	0xbf5083a2	-0.81450856
77	0xbf32d099	-0.69849545
78	0x3dfce53d	0.12348411
79	0xc028f029	-2.6396582
80	0x3fc99ef1	1.575163
81	0x3e635464	0.22200161
82	0xbc9b33f8	-0.018945679
83	0x3dccfee0	0.10009551
84	0xbe5a87be	-0.21340844
85	0xbcc018ed	-0.023449386
86	0xbf56acf1	-0.8385764
87	0x3dc932af	0.0982412
88	0xbf593dd4	-0.8485997
89	0x3ebd6c82	0.36996847
90	0x3d9d425e	0.07678674
91	0xbfb5424b	-1.4160856
92	0x3f3bd7f8	0.7337642
93	0x3f892efd	1.0717465
94	0xbf8006e4	-1.0002103
95	0x3f8a2222	1.0791667
96	0x4011c54c	2.277667
97	0x403111ae	2.766704
98	0x40335814	2.8022509
99	0x3ffabb53	1.9588417
100	0x3f020bb9	0.5079914
101	0xbdf9d47a	-0.1219873
102	0xbe08f42b	-0.13374393
103	0xbdca9f14	-0.09893623
104	0x3f17cb4f	0.592946
105	0xbf653157	-0.8952841
106	0x3f5cda6f	0.86270803
107	0xbe0653fe	-0.13117978
108	0x3f5e8f3c	0.8693731
109	0x3f841331	1.0318357
110	0x3f95b90c	1.1697097
111	0x3e98a292	0.2981153
112	0x3fad26ab	1.3527426
113	0x3f64dac0	0.89396286
114	0xbf9aab18	-1.2083464
115	0x3fd197f7	1.6374501
116	0x3ea34e19	0.3189552
117	0xbf0f3641	-0.5594216
118	0xbf24c950	-0.6436968
119	0x3f03a4d9	0.5142341
120	0x3f9d124b	1.2271208
121	0xbd9fb18a	-0.07797535
122	0x3dc6d159	0.09707899
123	0x3cab3f63	0.020904249
124	0x3e41e358	0.18934381
125	0x3f7f5dca	0.99752486
126	0x3e457ac5	0.19285114
127	0x3f2fd372	0.68682015
128	0xbe39ca90	-0.18143678
129	0xbe8aa1c6	-0.27076548
130	0xbfdcbdd4	-1.7245431
131	0x3ede9379	0.43471888
132	0xbfb644b6	-1.4239719
133	0xbfeaf56a	-1.8356144
134	0x3f17db2b	0.593188
135	0xbf98e58a	-1.194505
136	0xbf5df099	-0.8669525
137	0x3f526110	0.82179356
138	0x3fc5722d	1.5425469
139	0xbfa8b784	-1.3181005
140	0xbd0c9006	-0.03431704
141	0x3e1bb34f	0.1520512
142	0x3f1180d3	0.56837195
143	0x3fc04de2	1.5023768
144	0x3dc81364	0.097693235
145	0x3fa88604	1.3165898
146	0x3fb17b4a	1.386575
147	0xbe3d3c1b	-0.1847996
148	0x3d6dcd58	0.05805716
149	0xb9418cd2	-0.00018458374
150	0x3f70def6	0.9409021
151	0xbe9c52ce	-0.30531925
152	0x3f85b293	1.0445122
153	0xbe74a265	-0.23890074
154	0x3fb788a8	1.4338579
155	0xbe57fb65	-0.21091993
156	0x3fe329a8	1.7747087
157	0x3a4a433d	0.0007715708
158	0x3efe7b89	0.49703625
159	0xbe56f629	-0.2099234
160	0xbf0318e2	-0.51209843
161	0x3ff0d544	1.8815084
162	0x3fd70ced	1.680082
163	0x3fd062d0	1.6280155
164	0xbfd429eb	-1.6575292
165	0x3f896a86	1.0735633
166	0x3ef5e912	0.4802938
167	0x3e1059e6	0.14096794
168	0xbffa07dd	-1.953365
169	0x3f9f881e	1.2463415
170	0x3f8e7b47	1.1131371
171	0xbf5b0dfb	-0.8556821
172	0xbf854209	-1.0410777
173	0x3fbc4c29	1.4710742
174	0x3e5ecbc2	0.21757415
175	0x3d0affc1	0.033935312
176	0x3f9c9e4a	1.2235806
177	0x4015e6a2	2.3422017
178	0xbefc1dc8	-0.4924147
179	0x3f5ad570	0.8548193
180	0x40234f7a	2.5517259
181	0x3d21a32e	0.03946226
182	0xbd8fe9df	-0.07027029
183	0x3db62d88	0.08895403
184	0x3f73c01e	0.9521502
185	0xbf36a4db	-0.713453
186	0x3fbd0f3d	1.4770275
187	0x3eda7ff5	0.42675748
188	0xbea5088c	-0.32233083
189	0xbe638822	-0.222199
190	0x3df72287	0.120671324
191	0x3d26674b	0.04062585
192	0xbcdd2d5c	-0.026999168
193	0x3df2b606	0.118511245
194	0x3bb87525	0.005629199
195	0x3b1b998a	0.002374264
196	0x3ed45c5b	0.41476712
197	0xbed07c50	-0.40719843
198	0xbe872e37	-0.26402447
199	0xc00e2247	-2.2208421
200	0xbf984109	-1.1894847
201	0x3fa8b13c	1.3179088
202	0x4023553a	2.5520768
203	0xbefa5a57	-0.4889705
204	0x3eadaf5f	0.3392286
205	0xbef0b1d6	-0.47010678
206	0x40450496	3.078405
207	0xc0180612	-2.3753705
208	0xbf9589cc	-1.1682677
209	0xbf080bb2	-0.53142846
210	0xbf3c7d34	-0.73628545
211	0xc00d7e74	-2.210843
212	0x3c258b41	0.0101040015
213	0x3ed3bfb8	0.41357207
214	0xbf13f7c4	-0.57799935
215	0x3f91ad72	1.1381056
216	0xbfd584ad	-1.6681114
217	0x3f61557d	0.8802107
218	0x3fab08b2	1.3362029
219	0xbf7594ce	-0.9593018
220	0xbe906b27	-0.2820675
221	0xbf1a7993	-0.6034176
222	0xbe19787a	-0.14987364
223	0xbe42cd7e	-0.19023702
224	0xc01aa650	-2.416401
225	0x4031e248	2.779436
226	0xbf4d903d	-0.80298215
227	0xbf99ab25	-1.2005354
228	0x3fafb1bd	1.3726116
229	0x402ab915	2.6675465
230	0xbd24f72a	-0.040274777
231	0xbf8f3e93	-1.1190971
232	0xbfb6cfdc	-1.4282184
233	0xbea4e532	-0.32206112
234	0x3f8e1ce9	1.1102573
235	0x3f308e6b	0.6896731
236	0x3f89d907	1.0769356
237	0x3f0b33eb	0.54376096
238	0xbed174c8	-0.4090941
239	0x3eeaa252	0.45826966
240	0xbeb16e52	-0.3465448
241	0xbe500af6	-0.20316681
242	0xbdc4dd87	-0.096125655
243	0x3fb55ba4	1.4168591
244	0xbf887eab	-1.0663656
245	0xbd680ccf	-0.05665284
246	0x3fc45c70	1.534071
247	0xbf9495b5	-1.1608187
248	0x3f3dd9bf	0.7416038
249	0x3fcfd390	1.6236439
250	0xbe89fc29	-0.26950195
251	0xbfbd1b46	-1.4773948
252	0x3fb7659c	1.4327884
253	0x3f3b1265	0.7307494
254	0xbf5335a1	-0.82503706
255	0x3fb21107	1.3911446

embeddings.11.weight f4 [1030, 8]
0	0xbe1c2f32	-0.15252379
1	0xbd3fcf90	-0.046828806
2	0xbeaa83f2	-0.3330379
3	0xbfad1b09	-1.3523875
4	0xbd94d842	-0.072678104
5	0x3f82fe7c	1.0233912
6	0x3f5fe42f	0.87457556
7	0x3f009b55	0.5023702
8	0xbdef1e87	-0.116757445
9	0xbe5cd66f	-0.21566175
10	0xbe5febb9	-0.21867265
11	0xbe5e4ba8	-0.21708548
12	0xbe5937a3	-0.2121263
13	0x3f40d8b5	0.7533067
14	0x3fb4fca5	1.4139601
15	0x3fd037ae	1.6266992
16	0xbf4e088c	-0.8048179
17	0xbf082de8	-0.5319505
18	0xc006e696	-2.1078238
19	0x3f2c7cdc	0.6737802
20	0x3f16f981	0.5897446
21	0xc00b5e26	-2.1776214
22	0xbf4fdc64	-0.81195664
23	0x3f0cbd73	0.54976577
24	0x3f766da1	0.9626103
25	0x40001691	2.0013773
26	0x3efa1475	0.48843732
27	0xbd56d111	-0.052445475
28	0xbd677b57	-0.05651411
29	0xbccfbf9a	-0.025359917
30	0x3c01b231	0.007916019
31	0x3cca04a5	0.024660418
32	0xbfe908b8	-1.8205786
33	0xbfa7d9f6	-1.3113391
34	0xbf55642f	-0.83355993
35	0xbf442ae9	-0.76627976
36	0xbf683670	-0.90708065
37	0xbf154743	-0.5831186
38	0xbec740d7	-0.38916656
39	0x3d7e405f	0.062073108
40	0x3f3196c1	0.6937066
41	0xbd652051	-0.055939022
42	0xbe6352dc	-0.22199577
43	0xbeb633c5	-0.35586372
44	0xbe376177	-0.17908274
45	0x3e98fe42	0.29881483
46	0x3f01f024	0.5075705
47	0x3d900d6b	0.07033809
48	0xc021ab64	-2.5260859
49	0x3f7f4921	0.9972096
50	0x3eecb9f2	0.46235615
51	0xbe951528	-0.29117703
52	0xbec18fe5	-0.37805095
53	0xbea9cb05	-0.33162704
54	0xc0188b04	-2.3834848
55	0x3fb17f50	1.3866978
56	0x3fb644fc	1.4239802
57	0xbf0595a3	-0.5218145
58	0x3f3b3168	0.7312226
59	0xbf0af5a7	-0.54281086
60	0x3e6c160a	0.23055282
61	0xbf9297de	-1.1452596
62	0x3f676dd8	0.90401983
63	0x3f322381	0.69585425
64	0x3f7b3988	0.9813466
65	0x3eb820bf	0.35962483
66	0xbeb08ca3	-0.34482297
67	0xbf09c6a0	-0.538187
68	0x3fdc4405	1.7208258
69	0xc00f21af	-2.236431
70	0xbf4ed98a	-0.8080069
71	0xbf81e5f5	-1.0148302
72	0xbf0f701b	-0.56030434
73	0xbc89b49f	-0.01680976
74	0x3f8e91a5	1.1138197
75	0x3d64d3a3	0.055865895
76	0xbf9a0ac6	-1.2034538
77	0x3edc9f99	0.43090513
78	0xbed4c256	-0.41554517
79	0xbf853dc9	-1.040948
80	0xbe4d98ee	-0.2007787
81	0x3fc71b37	1.555518
82	0xbf052490	-0.52008915
83	0x3f21787e	0.6307448
84	0xbef199a1	-0.47187522
85	0x3e9394f7	0.2882459
86	0xbf7d099f	-0.98842806
87	0x3f8768d1	1.0578862
88	0xc0147b3d	-2.3200219
89	0x3f966c83	1.1751865
90	0xbfa4589b	-1.283954
91	0xbf74439b	-0.9541566
92	0x3f7daad8	0.9908881
93	0xbf3c7b4d	-0.7362564
94	0xbef87549	-0.4852698
95	0x3f24f461	0.6443539
96	0x3dd5b971	0.10435761
97	0x3e844168	0.2583115
98	0xbf0371f1	-0.51345736
99	0xbe4c32b1	-0.19941212
100	0xbeaec04e	-0.34131092
101	0xbf0ad867	-0.54236454
102	0xc02006c6	-2.5004134
103	0xbfa39aaf	-1.2781581
104	0xbb8192fa	-0.0039542885
105	0x3e3f468f	0.1867926
106	0x3e75c05a	0.23999158
107	0x3ecff470	0.4061618
108	0xbf4b54dd	-0.79426366
109	0x3e5b6032	0.21423414
110	0xbcd1b6b8	-0.025599822
111	0x3ea0e89e	0.31427473
112	0x3f047131	0.51735216
113	0x3fd09dca	1.6298153
114	0x3e61d5de	0.2205424
115	0x3ebe7c46	0.37204188
116	0x3f63b212	0.8894359
117	0xbe65d7fb	-0.22445671
118	0x3f8dab4c	1.1067901
119	0x3f98a63f	1.1925734
120	0x3f503cd2	0.81342804
121	0x3f719811	0.9437266
122	0x3fc46512	1.5343344
123	0xc03722cf	-2.8614995
124	0xbea731d0	-0.3265519
125	0x3ea91f36	0.33031625
126	0xbf3c52e8	-0.73564005
127	0xbf2bc21f	-0.6709308
128	0x3f1c15c1	0.60970694
129	0xbe70b7c0	-0.23507595
130	0xbf2504fb	-0.64460725
131	0xbf9cd692	-1.2252982
132	0xc01d3782	-2.456513
133	0xbfedcb32	-1.8577635
134	0x3f9a5741	1.2057878
135	0x3fe68ef0	1.8012371
136	0x3fdd027c	1.7266383
137	0x3f68b231	0.908969
138	0xbf938e6b	-1.1527838
139	0x3eb74609	0.3579562
140	0x3f390777	0.72277015
141	0x3fc9fc80	1.5780182
142	0xbfa1f8aa	-1.2654011
143	0x3f1c4894	0.61048245
144	0x401ff9de	2.4996257
145	0xbe1203ea	-0.14259306
146	0xbf945c99	-1.1590759
147	0xbebf1792	-0.3732267
148	0x3f2b8ba1	0.6700993
149	0xbee861ee	-0.45387214
150	0x3f309038	0.6897006
151	0xbf663daf	-0.8993787
152	0xbe23e974	-0.16007024
153	0xbdc91579	-0.09818549
154	0xbd5355f9	-0.05159566
155	0x3c6b953f	0.014378845
156	0x3d8d4a49	0.068989344
157	0x3e733c9c	0.2375359
158	0x3ed7d78f	0.42156646
159	0x3f5d0d82	0.86348736
160	0x3d5e36d8	0.05425152
161	0x3f3f2ab1	0.74674517
162	0x3f9cbec0	1.2245712
163	0x3e98130a	0.29702026
164	0xbe687152	-0.22699478
165	0xbf8f620a	-1.1201794
166	0x3ede4cba	0.43417913
167	0xbf6b65c8	-0.9195218
168	0xbf15b927	-0.58485645
169	0x3fba7d3d	1.456947
170	0x3f4c6672	0.7984382
171	0xbf4f636c	-0.8101108
172	0xbf0b7e98	-0.5449004
173	0xbea3a6f2	-0.31963307
174	0xbce2c8fe	-0.027683731
175	0x40107d52	2.257649
176	0xbee6a9b7	-0.45051357
177	0xbfddf465	-1.7340208
178	0x3ef6fb8c	0.4823879
179	0xbfc9e3a8	-1.57726
180	0xbf88a377	-1.0674886
181	0xbf542dcc	-0.8288238
182	0xbfc311e2	-1.5239832
183	0x3f45a45b	0.7720391
184	0xc039e567	-2.9046266
185	0x3fe01e5e	1.7509267
186	0x3efd9359	0.4952648
187	0xbc25a2b5	-0.010109593
188	0xbf013085	-0.5046466
189	0x3ec8aae2	0.39192873
190	0x401b516b	2.4268444
191	0x3f768578	0.9629741
192	0xbe65113d	-0.22369857
193	0x3ff65479	1.9244529
194	0xbf8c3510	-1.0953693
195	0x3f21890e	0.63099754
196	0x3fb740b3	1.431662
197	0xc01c4782	-2.4418645
198	0x3ee9345c	0.4554776
199	0x3dfabade	0.12242673
200	0xbdf54d8e	-0.11977683
201	0xbd84d5b3	-0.064860724
202	0xbd699e5b	-0.057035785
203	0x3c2b21d1	0.010445074
204	0x3da1d2ad	0.07901511
205	0x3ee74580	0.45170212
206	0x3eb35005	0.35021988
207	0xbe1635b1	-0.14668919
208	0x3e3a0dc3	0.18169312
209	0xbe908a2e	-0.28230423
210	0xbc59d1fc	-0.013294693
211	0xbd46c6b9	-0.04852936
212	0x3dabff26	0.08398275
213	0x3f03cc8a	0.51483977
214	0x3f5b5b72	0.8568641
215	0x3f492312	0.7856914
216	0xbfda49bb	-1.7053751
217	0xbfa92d26	-1.3216903
218	0xbd777081	-0.060410026
219	0xbfea11b4	-1.8286653
220	0xbfad0a79	-1.3518821
221	0x3e39acf8	0.18132389
222	0xc01c68ce	-2.4438968
223	0x3fd369e9	1.6516696
224	0xbd685457	-0.056721058
225	0x3ead0fc8	0.33801103
226	0x3e6a869c	0.22902912
227	0xbdc9b0da	-0.09848185
228	0xbf347d30	-0.7050352
229	0x3f3b96d5	0.73277026
230	0xbf887e7e	-1.0663602
231	0x3fcb5219	1.5884429
232	0x3de9f433	0.114235304
233	0xbeea9da3	-0.45823392
234	0xbe164829	-0.14675964
235	0x3ebf369a	0.37346345
236	0x3fa9a0e3	1.3252224
237	0xbed4e593	-0.415814
238	0x3fc1d7e4	1.514401
239	0xbc53cc0a	-0.012927065
240	0xbed2ebde	-0.41195577
241	0xbf124798	-0.57140493
242	0xbf2ba1fc	-0.67044044
243	0xbe1cf89f	-0.15329216
244	0x3e78f81f	0.243134
245	0x3f0748ea	0.52845633
246	0x3e775fdc	0.24157661
247	0x3e91020b	0.2832187
248	0x3f477181	0.7790757
249	0xc0060b4e	-2.09444
250	0xbedf2341	-0.43581584
251	0x3e089b12	0.13340405
252	0x3e56ddbf	0.20983027
253	0x3fd39491	1.6529714
254	0xbf8a9a4b	-1.0828336
255	0x3d5d4672	0.05402226

embeddings.12.weight f4 [7, 8]
0	0xbff8da3a	-1.9441597
1	0x3f7d64f8	0.9898219
2	0xbbe19fc6	-0.0068855016
3	0xbf28d423	-0.65948695
4	0x3f860f37	1.0473393
5	0xbfd5bcf2	-1.6698287
6	0x3f7bfdc0	0.98434067
7	0xbede9681	-0.434742
8	0x3ed78c9c	0.42099464
9	0x3eb2280f	0.34796187
10	0xbf86e71d	-1.053928
11	0xbfd0fbc8	-1.6326838
12	0x3e582b5c	0.2111029
13	0xbf53b7f0	-0.8270254
14	0x3ebd51e3	0.36976537
15	0xbee91114	-0.45520842
16	0xbec96ab9	-0.39339235
17	0x3f54feb2	0.83201134
18	0x3e1caf71	0.153013
19	0x3f7c11c0	0.98464584
20	0xbe6903c0	-0.22755337
21	0xbf95fecb	-1.1718382
22	0x3ecdf73c	0.40227687
23	0xbe848284	-0.25880826
24	0x3fbda178	1.4814901
25	0x3f841184	1.0317845
26	0xbdc47d17	-0.095941715
27	0xbf834bfe	-1.0257566
28	0x3f52eeb2	0.8239547
29	0x3f88e4d6	1.0694835
30	0x3ff0b77c	1.8805995
31	0xbebbf76f	-0.36712214
32	0x4031915e	2.7744975
33	0x3fd7ea00	1.6868286
34	0x3e09d2d6	0.13459334
35	0xbf893439	-1.0719062
36	0xbe3db4b1	-0.1852596
37	0x3ebc8b3e	0.36824983
38	0x3fdb6049	1.7138759
39	0xbf812a89	-1.0091106
40	0xbf7fa681	-0.9986344
41	0x3fdcf24f	1.7261447
42	0xbef13189	-0.47108105
43	0xbf98141d	-1.1881138
44	0x3e0fce8f	0.1404364
45	0x3f0479cc	0.5174835
46	0xc00ec6f9	-2.2308943
47	0x3f25c417	0.64752334
48	0xbe802de9	-0.25035027
49	0x3fa33c80	1.2752838
50	0x3fb414a5	1.40688
51	0x3ec2a36b	0.38015303
52	0xbf358feb	-0.70922726
53	0x3d226fcf	0.03965741
54	0x3faa1f9d	1.3290898
55	0x3fad6f26	1.3549545

embeddings.13.weight f4 [7, 8]
0	0xbf73a3ce	-0.9517182
1	0xbf4e8de9	-0.8068529
2	0xbf014302	-0.5049287
3	0xbe9a32f7	-0.30117008
4	0xbe795137	-0.24347387
5	0x3dc00de8	0.093776524
6	0x3f3a8efd	0.7287443
7	0x3f04df0d	0.5190285
8	0x3eeb3df1	0.45945695
9	0xbe153773	-0.14571933
10	0xbf1cf6f4	-0.6131432
11	0xbf16f1f3	-0.58962935
12	0xbedad522	-0.42740732
13	0x3ff5e806	1.9211433
14	0xbdc77270	-0.09738624
15	0x400e54a6	2.2239165
16	0xbfa2c14d	-1.2715241
17	0x3f956247	1.1670617
18	0x3efac8e8	0.48981404
19	0xbf7e3ba3	-0.9930975
20	0x3fc74930	1.556921
21	0xbfb744b7	-1.4317845
22	0xbf2a8b6b	-0.66618985
23	0x3f97ac29	1.1849414
24	0x3fdf23c5	1.7432791
25	0xbe5cf78c	-0.21578807
26	0x3ff34469	1.9005252
27	0x3f17f99b	0.5936524
28	0x3f604f26	0.8762077
29	0xbf380d0f	-0.71894926
30	0xbf85a788	-1.0441751
31	0xbf8a3196	-1.0796382
32	0xbfae1a40	-1.3601761
33	0xbfe45deb	-1.7841161
34	0x3e40afcd	0.18817063
35	0x3d6ac81e	0.057319753
36	0x3ebf1c6a	0.37326366
37	0x3eb80c59	0.3594692
38	0xbf25eda2	-0.64815724
39	0x3f5fa152	0.8735553
40	0x3f703b5f	0.93840593
41	0xbfe0d6c7	-1.7565545
42	0xbf402e73	-0.75070876
43	0x3f5a24a3	0.85212153
44	0x3f127574	0.5721047
45	0x3f200432	0.625064
46	0x3f7f1b64	0.9965117
47	0xbf4e8991	-0.8067866
48	0xbeedb0c9	-0.4642394
49	0x3f999ed2	1.2001593
50	0x3f82eaa3	1.0227855
51	0x3faac6ae	1.3341882
52	0xbefa90e4	-0.48938668
53	0xbf697a56	-0.91202295
54	0xbed04d2a	-0.40683872
55	0xbe4874a5	-0.19575746

embeddings.14.weight f4 [7, 8]
0	0x3ef825ce	0.48466343
1	0xbf92b4dc	-1.1461444
2	0xbf9de715	-1.2336146
3	0xbf865fd6	-1.0497997
4	0xbeddf79e	-0.4335298
5	0xbe809ab8	-0.2511804
6	0x3f2d1b38	0.6761966
7	0x3f16fe26	0.5898155
8	0x3fadd8c5	1.3581778
9	0x3dffdc26	0.12493162
10	0xbd2632fe	-0.040575974
11	0x3d7fcb61	0.062449817
12	0xbe86bfbc	-0.26318157
13	0x3f287d66	0.6581634
14	0x3f35a34d	0.709523
15	0xbf288a10	-0.65835667
16	0x3f0dec5b	0.55438775
17	0xbff46617	-1.9093655
18	0x3dc06685	0.09394554
19	0x40011c78	2.0173626
20	0xbda701f3	-0.08154669
21	0xbf43e25b	-0.76517266
22	0xbe50f45c	-0.20405716
23	0xbebafe1e	-0.36522
24	0x3f611a5b	0.8793084
25	0xbf8690f6	-1.0512989
26	0x3f0332a4	0.51249146
27	0x3fb6ea04	1.4290166
28	0x3f43d63b	0.76498765
29	0xbccc702f	-0.024955837
30	0x3f80bbba	1.005729
31	0x3eeb6359	0.45974234
32	0xbf86a52f	-1.051916
33	0x40093906	2.1441054
34	0x3f3f929b	0.7483308
35	0xbf96cfbe	-1.1782148
36	0xbeb469b4	-0.35236895
37	0xbd96f499	-0.07370872
38	0x3e4177a1	0.18893291
39	0x3eb7ced8	0.35899997
40	0xbf4773f8	-0.7791133
41	0xbf1bc5d1	-0.6084872
42	0xbd85999c	-0.06523439
43	0x3f004eef	0.50120443
44	0x3f6b769f	0.91977876
45	0x3f2b1c70	0.6684027
46	0xbe4491d3	-0.19196253
47	0xbdbe8be1	-0.093040235
48	0xbed9a64d	-0.4250969
49	0xbe5d307c	-0.21600527
50	0xbe6682a1	-0.22510768
51	0xbe070ada	-0.13187733
52	0xbfc4a4d6	-1.5362804
53	0x3f36b4cb	0.7136962
54	0x3e7cf856	0.24704108
55	0xc05736fa	-3.3627305

embeddings.15.weight f4 [6, 8]
0	0xbf65a06b	-0.89697903
1	0xbf127eff	-0.5722503
2	0xbecb97a5	-0.39764133
3	0xbe338bc8	-0.17533791
4	0x3c4ba0dd	0.0124284895
5	0x3f1331a6	0.5749763
6	0x3e32c002	0.17456058
7	0x3f68fa2f	0.9100675
8	0x3d6f04ed	0.058354307
9	0x3f322b4a	0.69597304
10	0x3f2638c9	0.649304
11	0xbfe9a347	-1.8252953
12	0xbf918a9e	-1.1370428
13	0xbeee17b3	-0.46502456
14	0xbe4fadde	-0.20281169
15	0xbec45021	-0.38342384
16	0x3f2a3046	0.6647991
17	0xbfa769ce	-1.3079164
18	0x3fdeb3f8	1.7398672
19	0x3f0ed9d4	0.5580113
20	0xc01c6152	-2.44344
21	0xbfa0fde3	-1.257748
22	0xbe9a71b9	-0.30164889
23	0xbe729b3e	-0.23692033
24	0xbd3bde88	-0.04586652
25	0x3f3086d1	0.68955714
26	0x40139b88	2.3063679
27	0xbf9cd519	-1.2252532
28	0x4003cec4	2.059495
29	0xc03d48af	-2.9575613
30	0x401cc471	2.4494898
31	0x3fbdab80	1.4817963
32	0x3fbbe8eb	1.4680456
33	0x3f463659	0.7742668
34	0x3fb26aac	1.3938804
35	0xbfdf1096	-1.7426937
36	0x400629d2	2.0963025
37	0x3f9c79a6	1.2224624
38	0x3e5d19ff	0.21591948
39	0x3fb90bd9	1.4456741
40	0x3f70adc9	0.94015175
41	0x3fb47b16	1.4100063
42	0x3fbf35ad	1.4938256
43	0x3f29ad42	0.66279995
44	0x3ef0d978	0.47040915
45	0xbf6a195d	-0.9144495
46	0xbf5c2ca5	-0.8600562
47	0xbe09b686	-0.13448533

conv_layers.0.weight f4 [32, 1, 3]
0	0x3ebd4963	0.36970052
1	0xbf4080cb	-0.7519652
2	0x3e0ade3a	0.13561335
3	0xbeaec453	-0.34134158
4	0x3f8342c8	1.0254755
5	0x3d804873	0.062638186
6	0xbc0e7d93	-0.008696931
7	0x3f62f7fa	0.8865963
8	0x3f23166e	0.637061
9	0x3f07d488	0.5305867
10	0xbf3e5957	-0.7435507
11	0xbece89b7	-0.40339443
12	0x3f30d741	0.6907845
13	0x3f0a9bcd	0.54143983
14	0x3d3f1fe1	0.04666126
15	0xbf0028a5	-0.5006202
16	0x3eff21ab	0.49830374
17	0xbe0e7174	-0.13910466
18	0xbf834bf2	-1.0257552
19	0xbe9a25b5	-0.30106893
20	0x3d258a71	0.04041523
21	0xbef66816	-0.48126286
22	0x3eee480e	0.46539348
23	0xbdc634ae	-0.096780166
24	0xbed787d9	-0.4209583
25	0x3f4c2cbd	0.79755765
26	0xbe4e9553	-0.2017415
27	0xbede4115	-0.4340903
28	0x3d3299f8	0.043603867
29	0xbf4dab78	-0.80339766
30	0x3f4d3580	0.8015976
31	0x3eb38616	0.35063237
32	0xbe65788b	-0.22409265
33	0xbe0c4acb	-0.13700406
34	0x3f4b38b1	0.7938338
35	0x3ee37b25	0.4442989
36	0x3f1aa524	0.60408235
37	0x3e985938	0.29755569
38	0xbf3965c8	-0.7242093
39	0x3f509235	0.81473094
40	0x3f001fc1	0.5004845
41	0xbd8581af	-0.06518876
42	0x3effb570	0.49943113
43	0xbf0df11c	-0.5544603
44	0x3c6c004b	0.014404367
45	0xbeed7ca9	-0.4638417
46	0xbe081cbc	-0.13292211
47	0x3f361094	0.71119046
48	0x3ed8030a	0.4218982
49	0x3eb33b81	0.35006335
50	0xbf525efc	-0.82176185
51	0xbedecf96	-0.4351775
52	0xbe8ab7d8	-0.27093387
53	0x3f2c1385	0.67217284
54	0x3f3164b8	0.6929431
55	0xbe148f88	-0.14507878
56	0xbf09af4f	-0.53783125
57	0xbd489de7	-0.048978712
58	0xbf01eb73	-0.5074989
59	0xbef7da75	-0.48408857
60	0x3f144c93	0.57929343
61	0xbf16230c	-0.5864723
62	0xbee136ef	-0.43987224
63	0x3e4410e5	0.1914707
64	0xbf5310cc	-0.82447505
65	0x3e9bf91f	0.30463502
66	0x3f0c77be	0.5487021
67	0x3eb5ec77	0.3553197
68	0xbe8293fa	-0.25503522
69	0xbf48feef	-0.78514
70	0x3f396f2e	0.7243527
71	0xbd32e03e	-0.043670885
72	0x3f17277a	0.5904461
73	0x3ed3ed5d	0.4139203
74	0xbdd5cd75	-0.104395784
75	0x3e54fa49	0.20798601
76	0xbf86e8ff	-1.0539855
77	0x3e9ca050	0.3059106
78	0xbe93d4e9	-0.28873375
79	0x3e267c80	0.1625843
80	0xbf871e8e	-1.05562
81	0xbd451f90	-0.048125803
82	0x3f273ec1	0.6533013
83	0x3efbd8f0	0.49188948
84	0x3f238164	0.6386931
85	0xbedb7a27	-0.42866632
86	0xbd7af06a	-0.061264433
87	0xbdd0eeb5	-0.1020178
88	0xbdade660	-0.08491206
89	0x4003573d	2.0521996
90	0x3d849860	0.06474376
91	0x3e042ce7	0.12907754
92	0xbf919c50	-1.1375828
93	0x3e18a6bb	0.14907353
94	0xbf512b02	-0.8170625
95	0x3e802ed6	0.25035733

conv_layers.0.bias f4 [32]
0	0xbee720fb	-0.4514235
1	0xbe95f149	-0.29285648
2	0xbe66ae95	-0.22527535
3	0xbf044c67	-0.5167908
4	0xbd6caeba	-0.05778382
5	0x3eb5fea6	0.35545844
6	0x3f0f4cca	0.55976546
7	0xbe5eb0fd	-0.21747203
8	0xbee24b1e	-0.44197935
9	0x3f0a15cd	0.53939515
10	0xbed66af5	-0.41878477
11	0x3eafab82	0.34310538
12	0x3c565765	0.01308236
13	0x3ded0c2c	0.11574587
14	0x3e335cf0	0.17515922
15	0xbef1f7b7	-0.47259304
16	0xbe260b0e	-0.16215155
17	0x3eaf95c1	0.3429394
18	0x3f1fbf54	0.6240132
19	0x3eb0a0d3	0.344977
20	0xbece288f	-0.4026532
21	0x3ed83877	0.4223058
22	0x3e9fda3a	0.3122118
23	0xbebb5768	-0.36590123
24	0xbcaa3e12	-0.02078155
25	0xbe6cc40c	-0.23121661
26	0x3eb84ab6	0.359945
27	0xbe521dcc	-0.20519179
28	0x3da684b7	0.08130782
29	0xbe030d0b	-0.12797944
30	0xbee70538	-0.4512117
31	0xbe8f3d60	-0.27976513

conv_layers.1.weight f4 [64, 32, 3]
0	0xbe47d032	-0.19513014
1	0xbf688d3f	-0.90840524
2	0xbf335485	-0.7005084
3	0x3dc42ea7	0.09579211
4	0xbe7978eb	-0.24362533
5	0x3dc8e830	0.09809911
6	0xbe98950b	-0.2980121
7	0xbc009217	-0.0078473305
8	0x3e563c38	0.20921409
9	0xbea93971	-0.33051637
10	0xbed8ae5f	-0.42320535
11	0x3e04b225	0.12958582
12	0xbe2cc892	-0.16873387
13	0xbeac8483	-0.33694848
14	0x3cee0dc8	0.029059306
15	0xbd3e99ba	-0.046533324
16	0xbe9d466e	-0.30717796
17	0xbef7b2ee	-0.483787
18	0xbf01cc2a	-0.50702155
19	0x3d80fd10	0.06298268
20	0xbd353e6e	-0.04424899
21	0xbe98ccf0	-0.29843855
22	0xbec75b75	-0.38936964
23	0xbedb03fd	-0.4277648
24	0x3e2c1bab	0.1680743
25	0xbf08848e	-0.5332726
26	0xbe3e7bbd	-0.1860189
27	0xbe845160	-0.25843334
28	0xbf6bc391	-0.92095286
29	0x3ce3a662	0.027789298
30	0xbf00df73	-0.50340956
31	0x3e9ffec0	0.31249046
32	0x3dcba87c	0.09944245
33	0x3cc00eb2	0.023444507
34	0xbe11e392	-0.14246967
35	0xbdac42ad	-0.08411155
36	0xbe3156b6	-0.17318234
37	0x3ed90658	0.42387652
38	0xbe33fa49	-0.17575945
39	0xbed5d85c	-0.41766632
40	0x3de72efd	0.11288259
41	0xbe2e57fb	-0.1702575
42	0xbedd1c10	-0.43185472
43	0xbea64002	-0.3247071
44	0xbefa0433	-0.4883133
45	0xbf28d5c5	-0.65951186
46	0xbebe25ca	-0.37138206
47	0xbea1ed85	-0.31626526
48	0xbf1df2ae	-0.61698425
49	0xbc91d2e7	-0.017800761
50	0xbe79c424	-0.24391228
51	0xbed9e5d1	-0.42558149
52	0xbf12582d	-0.57165796
53	0x3ebe015b	0.3711041
54	0xbed6142f	-0.41812274
55	0x3eda2494	0.42606032
56	0xbe3f3473	-0.18672352
57	0xbe888a22	-0.26667887
58	0xbe8bd679	-0.27312067
59	0x3c0fbb03	0.008772614
60	0xbef43668	-0.4769776
61	0xbe2bbefc	-0.16772074
62	0x3ec31aa3	0.3810626
63	0xbeba9532	-0.36441952
64	0xbf1f233b	-0.6216313
65	0xbe356432	-0.17714003
66	0xbe8c0a6d	-0.27351704
67	0x3d56645d	0.052341808
68	0xbe70a8b6	-0.23501858
69	0xbea19691	-0.31560186
70	0xbea4f21a	-0.3221596
71	0xbf117a6a	-0.56827414
72	0xbc4fa16b	-0.012672762
73	0x3e362f64	0.17791516
74	0xbe2e5b52	-0.17027023
75	0xbecd2e94	-0.400746
76	0xbf2681cd	-0.6504181
77	0xbf09673c	-0.5367315
78	0xbe9117a3	-0.28338346
79	0xbf26f8bf	-0.65223306
80	0x3dcc013b	0.09961172
81	0xbe015968	-0.12631762
82	0x3e417b9d	0.18894811
83	0x3d9a51d4	0.07535139
84	0xbdc9834c	-0.09839496
85	0xbd9c4727	-0.07630759
86	0xbf0129ba	-0.50454295
87	0x3c57c0c2	0.013168516
88	0xbe816813	-0.25274715
89	0x3e2d203e	0.1690683
90	0x3c649ad0	0.013952926
91	0x3d869987	0.06572252
92	0x3dbb64c2	0.091500774
93	0xbf21f248	-0.63260317
94	0xbf2b3e36	-0.668918
95	0xbf765269	-0.962195
96	0xbddb1e6a	-0.106991604
97	0xbee20285	-0.44142547
98	0x3bdb8b03	0.006699921
99	0xbed4ea6c	-0.415851
100	0xbd847bf4	-0.06468955
101	0xbd523cac	-0.051327392
102	0xbf06d34f	-0.5266618
103	0xbef7da07	-0.4840853
104	0x3e6d7f4d	0.23193093
105	0x3f1a860a	0.6036078
106	0xbf16639f	-0.5874576
107	0x3b597b25	0.0033184972
108	0xbdaa095d	-0.08302567
109	0xbdb502ef	-0.0883845
110	0xbc2c72b9	-0.010525399
111	0xbdac5878	-0.084153116
112	0x3f22f895	0.63660556
113	0xbf2d87a3	-0.6778509
114	0x3f36a24f	0.71341413
115	0x3e9b90d9	0.30383947
116	0xbf6f4857	-0.93469757
117	0x3c266131	0.010155008
118	0x3ecc3be3	0.3988944
119	0xbf43621b	-0.7632157
120	0xbe56b091	-0.20965792
121	0xbe5bd867	-0.2146927
122	0xbf07dc83	-0.5307085
123	0x3e4c50ad	0.1995265
124	0xbe9375bb	-0.2880076
125	0xbf611d16	-0.87935007
126	0xbe6a6750	-0.22890973
127	0x3c9c428f	0.019074706
128	0x3ceb4fc6	0.028724562
129	0xbce3fff4	-0.027832009
130	0xbec0c4c5	-0.37650123
131	0x3f4e73d2	0.8064548
132	0x3f103ae5	0.56339866
133	0xbf04b324	-0.51835847
134	0xbeae37b8	-0.34026885
135	0xbec1b1d0	-0.37830973
136	0xbcf75cb0	-0.030195564
137	0xbceab1bb	-0.028649202
138	0xbeae452a	-0.34037143
139	0xbdc3e082	-0.09564306
140	0x3ee4593b	0.44599327
141	0x3e0e55b9	0.13899888
142	0x3dd5b8a5	0.10435609
143	0xbea88ce0	-0.3291998
144	0x3e94f566	0.29093474
145	0xbf30573f	-0.68883127
146	0xbf34f4d2	-0.70686066
147	0x3d6ae029	0.057342682
148	0x3de66a4d	0.11250744
149	0xbd72369c	-0.05913411
150	0x3ece4760	0.4028883
151	0xbf6ae5ee	-0.91757095
152	0x3dcc54aa	0.09977086
153	0x3ee03d37	0.43796703
154	0xbf1e45cc	-0.6182525
155	0xbd83e256	-0.064396545
156	0x3dec8a54	0.115498215
157	0xbf5bafa5	-0.8581489
158	0x3e1ced44	0.15324885
159	0x3d599a65	0.053125758
160	0x3eb827ad	0.3596777
161	0xbea46670	-0.32109404
162	0x3dbdddc0	0.09270811
163	0x3e7283db	0.23683111
164	0xbefdd21e	-0.4957437
165	0x3c1951cb	0.00935788
166	0x3e3ec025	0.18627985
167	0xbf13a043	-0.57666415
168	0xbd15234c	-0.036410615
169	0x3e7e5d55	0.24840291
170	0xbe2a7938	-0.16647804
171	0xbabac973	-0.001425071
172	0x3de923dd	0.113837935
173	0xbeb60210	-0.3554845
174	0xbc9fbe40	-0.019499898
175	0xbef128f1	-0.47101548
176	0xbf59a49b	-0.85016793
177	0xbe74a7ad	-0.23892088
178	0xbce4df8c	-0.027938627
179	0x3ec3c4b4	0.3823601
180	0xbe933c6f	-0.28757045
181	0x3de30eca	0.11086805
182	0x3dd1f18b	0.10251149
183	0xbecf6d61	-0.40513137
184	0x3edcddcd	0.4313797
185	0x3e2f650c	0.1712839
186	0x3ef741cf	0.48292395
187	0xbf942c72	-1.1576064
188	0xbf982926	-1.1887558
189	0x3a8bd78e	0.0010669099
190	0xbdb27890	-0.08714402
191	0xbe65b7f0	-0.22433448
192	0x3f2a8161	0.66603667
193	0xbe4fbf04	-0.2028771
194	0x3f359353	0.70927924
195	0xbd2c2566	-0.042027853
196	0x3e8a987c	0.2706946
197	0x3ee6a2a0	0.45045948
198	0xbf761c85	-0.9613727
199	0x3ef01668	0.46892095
200	0x3e361171	0.17780091
201	0x3f553821	0.8328877
202	0xbe184cb6	-0.14873013
203	0x3e991122	0.29895884
204	0xbe5f7d5e	-0.21825168
205	0xbcac5505	-0.021036634
206	0xbf2797b2	-0.65465844
207	0x3e30aa4d	0.17252465
208	0x3f32db8a	0.6986624
209	0x3de2a39c	0.11066362
210	0x3f3297a7	0.69762653
211	0xbe512c41	-0.20427038
212	0x3eb61b50	0.35567713
213	0x3cf68d72	0.030096743
214	0x3f2a7e1b	0.6659867
215	0x3e9bb7ad	0.3041357
216	0x3d113323	0.03544916
217	0x3ee42472	0.44559056
218	0x3ec8fa47	0.39253446
219	0x3ef1092d	0.47077313
220	0x3c15c19e	0.0091404
221	0x3db84ac4	0.089986354
222	0x3d8c0d60	0.068384886
223	0x3cf93a0b	0.030423185
224	0xbf1a8a88	-0.6036763
225	0xbec61099	-0.38684538
226	0x3ecfa28e	0.40553707
227	0x3df92d87	0.12166887
228	0x3cbe9ae0	0.02326721
229	0x3c08ec85	0.008357172
230	0xbe0c7ef8	-0.1372031
231	0x3e8b427f	0.2719917
232	0x3e5f6466	0.21815643
233	0xbe57c119	-0.21069755
234	0xbd3c9af3	-0.04604621
235	0xbe8fcbe9	-0.2808526
236	0x3ec8e509	0.3923724
237	0x3e9b68a1	0.30353263
238	0xbdd38b37	-0.103292875
239	0x3e868cda	0.26279336
240	0xbe155e2a	-0.14586702
241	0x3e791af5	0.2432669
242	0xbf05d0c8	-0.522717
243	0x3d9bb712	0.07603277
244	0xbc998bf4	-0.018743493
245	0x3e910c63	0.28329763
246	0x3e94f6a5	0.29094425
247	0xbdd82c0d	-0.10555277
248	0x3f0ec0f7	0.5576319
249	0x3f1a6166	0.6030487
250	0xbef4be02	-0.47801214
251	0x3efa61ed	0.48902836
252	0x3f144640	0.57919693
253	0xbeb58d24	-0.35459244
254	0x3e665ff4	0.2249754
255	0x3f4087d1	0.7520724

conv_layers.1.bias f4 [64]
0	0xbdb5959a	-0.08866425
1	0xbd8ad3c8	-0.06778675
2	0xbcb5d88e	-0.022197988
3	0x3db8a7db	0.09016391
4	0x3d4f43ae	0.050601654
5	0xbd5ff9ff	-0.054681774
6	0xbd4324fd	-0.047642697
7	0xbc84f995	-0.016232291
8	0xbd576936	-0.05259057
9	0x3b85de61	0.0040853475
10	0xbdc34e00	-0.09536362
11	0xbd848477	-0.06470578
12	0x3d8ad8ee	0.06779657
13	0x3dd3d96e	0.10344206
14	0xbdb1e4f2	-0.08686246
15	0xbd673f8c	-0.056457087
16	0xbd8c4446	-0.068489596
17	0x3b5b761e	0.0033487151
18	0x3c2223aa	0.009896198
19	0xbdaf9ae6	-0.085744664
20	0xbd54d22b	-0.051958244
21	0x3dbc2aeb	0.091878735
22	0x3d144294	0.036196306
23	0xba8b11d0	-0.0010610167
24	0xbdcbaf26	-0.09945516
25	0x3c8eaca6	0.01741631
26	0x3daeefde	0.08541845
27	0x3db9c58a	0.09070881
28	0xbc8480f9	-0.01617478
29	0xbcc66d33	-0.024221992
30	0x3cb822fb	0.022477617
31	0x3caef27a	0.021355856
32	0xbda2c8e1	-0.07948471
33	0x3d1b1fdc	0.03787218
34	0xbd73941d	-0.059467424
35	0xbabf30f5	-0.0014586734
36	0x3d5fe95c	0.05466591
37	0x3dd4b63b	0.1038632
38	0x3d703253	0.058641743
39	0xbd361956	-0.044457756
40	0xbc7efdfd	-0.015563485
41	0x3d828988	0.06373888
42	0xbc82a1ee	-0.015946355
43	0xbcbcb5d6	-0.023035925
44	0x3d8ea7b8	0.069655836
45	0x3c01a8a8	0.007913746
46	0xbdcb827a	-0.09936996
47	0xbcd5e518	-0.026110217
48	0xbdc8ef4d	-0.09811268
49	0x3cd5137f	0.026010273
50	0x3d9da264	0.07696989
51	0x3d339f57	0.04385313
52	0x3db506c1	0.08839179
53	0xbcc3f8dd	-0.023922378
54	0xbd89ee32	-0.06734885
55	0x3d211942	0.03933073
56	0x3d71e658	0.059057564
57	0xbd8696a8	-0.06571704
58	0xbb29e253	-0.0025922253
59	0x3d3a4707	0.045477893
60	0xbc884417	-0.01663403
61	0x3c99b547	0.018763198
62	0xbc998c60	-0.018743694
63	0x3d95f1ec	0.073215336

bn_layers.0.weight f4 [32]
0	0x3fa69660	1.3014641
1	0x3f847920	1.0349464
2	0x3f719450	0.9436693
3	0x3f862718	1.048068
4	0x3f34f103	0.70680255
5	0x3f6ef8e3	0.9334852
6	0x3f693057	0.91089386
7	0x3fab52ec	1.3384681
8	0x3f83b211	1.0288717
9	0x3f9624b9	1.1729957
10	0x3f6cb802	0.92468274
11	0x3f96b955	1.1775309
12	0x3f82f601	1.0231324
13	0x3f60a39e	0.8774966
14	0x3f745109	0.9543615
15	0x3f7d7728	0.99009943
16	0x3f755448	0.9583173
17	0x3f7b179c	0.980829
18	0x3f985a3e	1.190254
19	0x3fa1ace1	1.2630883
20	0x3f531013	0.824464
21	0x3fa82a7a	1.3137963
22	0x3f3a0477	0.7266306
23	0x3f9ec72b	1.2404531
24	0x3f49a34c	0.78764796
25	0x3fbb1a5a	1.4617417
26	0x3f93a67c	1.1535182
27	0x3f7a0061	0.9765683
28	0x3f6b1794	0.9183285
29	0x3f7f3fa8	0.99706507
30	0x3fb11ca4	1.3836865
31	0x3fbc2328	1.4698229

bn_layers.0.bias f4 [32]
0	0xbd2951b3	-0.04133768
1	0x3c7eba8c	0.015547406
2	0xbe971ba7	-0.29513285
3	0xbe41a4ce	-0.18910524
4	0xbeb5d79f	-0.35516068
5	0xbf0931fd	-0.535919
6	0xbf16cc63	-0.5890562
7	0xbebcf08e	-0.3690228
8	0xbeb960d1	-0.36206678
9	0xbf12dccd	-0.57368165
10	0xbe0ed112	-0.13946941
11	0xbeb33169	-0.34998634
12	0x3d48f481	0.049061302
13	0xbe0ce850	-0.13760495
14	0xbe78d428	-0.24299681
15	0xbdd98976	-0.10621922
16	0xbe2750d7	-0.16339432
17	0xbe06f2d9	-0.13178577
18	0xbe433521	-0.19063236
19	0xbf278ff9	-0.6545406
20	0xbe5cec28	-0.21574461
21	0xbe181ab4	-0.14853936
22	0xbe78b5e7	-0.2428814
23	0xbece14f1	-0.40250352
24	0xbea2d61a	-0.31803972
25	0xbeade389	-0.33962658
26	0xbf119714	-0.5687115
27	0xbe561edb	-0.20910208
28	0xbd7df727	-0.06200328
29	0xbe14e07e	-0.14538762
30	0xbf43c18e	-0.76467216
31	0xbe86963e	-0.262865

bn_layers.0.running_mean f4 [32]
0	0xbee4b6a6	-0.446706
1	0xbe9d18b1	-0.306829
2	0xbe82de07	-0.25560018
3	0xbf010108	-0.503922
4	0xbda77efd	-0.08178518
5	0x3eb79113	0.3585287
6	0x3f15703c	0.5837438
7	0xbe5c8890	-0.2153647
8	0xbee3a7c1	-0.44463924
9	0x3f106bc8	0.5641446
10	0xbedf1577	-0.43571064
11	0x3ea45562	0.32096392
12	0x3c43a88d	0.011942041
13	0x3dbd19a1	0.09233404
14	0x3e342918	0.17593801
15	0xbef4595c	-0.47724426
16	0xbe224554	-0.15846759
17	0x3eaebffb	0.34130844
18	0x3f204303	0.6260225
19	0x3ebbbdd7	0.36668274
20	0xbec92f7e	-0.39294046
21	0x3edad26f	0.42738673
22	0x3e99ef7c	0.30065525
23	0xbeba1530	-0.3634429
24	0xbd18839b	-0.037234884
25	0xbe6358fc	-0.22201914
26	0x3ec54aaf	0.38533542
27	0xbe68d5a0	-0.22737741
28	0x3da116b0	0.078656554
29	0xbe2dabeb	-0.16960113
30	0xbedc4839	-0.43023852
31	0xbe8b6c11	-0.27230886

bn_layers.0.running_var f4 [32]
0	0x3f0e7d7f	0.5566024
1	0x3f7a0108	0.97657824
2	0x3f969a9f	1.1765937
3	0x3f5a4e7d	0.85276014
4	0x3f453057	0.77026886
5	0x3ec7825b	0.3896664
6	0x3f8944cc	1.072412
7	0x3eb11d52	0.34592682
8	0x3f265f9e	0.6498965
9	0x3f3cb4e3	0.7371351
10	0x3f421feb	0.7582995
11	0x3f4d2d7d	0.80147535
12	0x3f5661f0	0.8374319
13	0x3f640207	0.89065593
14	0x3edbf80f	0.4296269
15	0x3f2197ac	0.6312206
16	0x3f513f28	0.81736994
17	0x3f1ac482	0.604561
18	0x3f2d3b3c	0.6766851
19	0x3efe457a	0.4966238
20	0x3f3e7a67	0.7440552
21	0x3f20d3c5	0.62823135
22	0x3ee7422a	0.45167667
23	0x3f60a2d6	0.8774847
24	0x3f029ce8	0.5102067
25	0x3f7d9c4f	0.99066633
26	0x3f85b695	1.0446345
27	0x3f2806e3	0.6563551
28	0x3ef028fd	0.46906272
29	0x406bde9e	3.6854625
30	0x3f8fa58a	1.1222394
31	0x3f1986c2	0.5997125
