government_icfes_dataset/mlartifacts/956201576569699187/ba73baaf1d814f2cb98e84a7a3429e17/artifacts/model/data/model.pth (torch, 747072 bytes, 39 tensors)

weight f4 [4, 8]
000000 d4 39 31 3c 5f 50 b8 be 44 90 5e 3d f5 67 8b be
       0.01081701 -0.35998818 0.0543368 -0.2722775
000010 8b df 5a bd 57 87 c9 3e 9a 43 7b 3f c7 0d 19 3e
       -0.053435843 0.3936107 0.98150027 0.14946662
000020 f9 a6 ea 3e 99 6f 3e 3f f1 f8 b6 3c 48 df 36 3e
       0.45830515 0.74389035 0.022335501 0.17858613
000030 52 01 25 bf eb a4 1c 3f 7c 40 63 bf 6a a0 6d bd
       -0.6445514 0.61189145 -0.8877027 -0.05801431
000040 4c 0e 95 bf a8 85 0c c0 96 2c 6a 3f 0b 82 34 40
       -1.1644988 -2.1956577 0.9147428 2.8204372
000050 e6 78 69 bf 72 67 a5 be aa e4 a7 3e 95 98 8c 3f
       -0.912001 -0.32305485 0.32791644 1.0984064
000060 89 0f f3 bd f8 2d 48 c0 ec ee ba be 1d 42 3c bf
       -0.118681975 -3.1278057 -0.36510408 -0.7353838
000070 d5 50 44 bf 59 8c 38 bf 89 cd 89 3f b3 2b ba 3e
       -0.7668584 -0.72089154 1.0765849 0.36361465

weight f4 [3, 8]
000000 e2 7f ae 3e 9e 24 48 bd d8 f9 3b 3f 8d a1 b4 bf
       0.34081942 -0.048863046 0.73428106 -1.4111801
000010 a6 c0 f9 bf 94 c4 0e 40 f5 08 2f 3f ac 9e 12 40
       -1.9511917 2.2307482 0.6837304 2.2909346
000020 1b 08 2d bf 52 c4 21 3f 80 f1 19 3f bc d5 11 3f
       -0.6759049 0.63190186 0.60134125 0.5696676
000030 00 c3 3a bd 76 56 f7 be 14 1c e3 3f 29 9f d7 bf
       -0.045596123 -0.48308152 1.7742944 -1.6845447
000040 89 b9 d3 bf 4a 69 a9 3f cd 02 4a 3e 11 44 47 3f
       -1.6540996 1.3235257 0.19727631 0.77838236
000050 00 32 d6 3e 65 d2 e9 be c4 5f c6 bf 00 71 6e 3f
       0.41835022 -0.4566833 -1.5497975 0.93141174

weight f4 [5, 8]
000000 5b a5 7a 3e 62 2b 0b bf 26 ab 99 bf 3a 5f e8 3e
       0.2447714 -0.5436307 -1.2005355 0.45385152
000010 c4 43 75 bf a2 25 0a 3e 86 2d df 3f a5 35 ea bf
       -0.9580653 0.13490918 1.7435768 -1.8297621
000020 62 df 03 3f 2b ec 0d 3f cd ef 06 c0 d0 de 3d 3f
       0.5151273 0.5543849 -2.1083863 0.7416811
000030 f3 8f f0 bf 5d be 18 3f 4a 9a c9 bf b3 25 d8 3e
       -1.879393 0.5966547 -1.575021 0.42216262
000040 1a c0 1b 40 0e 61 04 3f 71 62 1e bf 5f a1 22 be
       2.4336 0.51710594 -0.6186896 -0.1588187
000050 44 10 29 3e 77 9d 53 3f fb c4 f9 3f b5 08 90 3f
       0.16510111 0.8266215 1.9513239 1.1252657
000060 20 01 38 be 5e 0b 8c 3f 69 01 c1 bf 71 77 de 3d
       -0.17969179 1.0940969 -1.5078555 0.108626254
000070 37 f5 cd 3f 76 80 8f 3f 76 51 57 3f 53 fc 50 3f
       1.6090459 1.1211078 0.84108675 0.81635016
000080 c0 a3 8c 3f be 4a 8f 3d 52 82 24 3e 0e a3 9e bf
       1.0987473 0.06996678 0.16065338 -1.239351
000090 49 35 7b bf 4e 58 8f bf a7 f5 be bf fc 19 15 3f
       -0.9812818 -1.1198823 -1.4918717 0.58242774

weight f4 [7, 8]
000000 25 d9 4f 3f 1e 02 ca 3f eb 65 ac 3f a5 99 fa be
       0.8119071 1.5781896 1.3468603 -0.48945346
000010 27 c3 08 c0 f8 f3 cb bf 01 00 a1 3d 29 50 01 3e
       -2.1369112 -1.5933828 0.07861329 0.12628235
000020 04 29 35 bf da 64 26 40 23 7d 4b 3d 5b df f8 3e
       -0.7076571 2.5999055 0.049679887 0.48607907
000030 ad 88 af 3f 66 f5 8d 3f cb a6 ab bf 43 c1 61 bf
       1.3713585 1.1090515 -1.3410276 -0.8818552
000040 29 3b d0 be 11 81 dd bf d1 dd d9 3f b5 2f 17 3e
       -0.40670136 -1.7305013 1.7020818 0.14764293
000050 bd c6 ed 3f 97 8d bf 3e 48 28 02 3f dd fc b8 3e
       1.8576275 0.37412712 0.50842714 0.3613042
000060 f8 73 93 be 75 9f 7d 3e 3f 2e 12 40 27 17 59 bf
       -0.28799415 0.2476786 2.2840726 -0.8480095
000070 90 96 a5 bf 58 83 64 be b4 77 ab bf 54 2c db 3e
       -1.2936573 -0.22315729 -1.3395905 0.42807257
000080 b7 a5 ed 3c 02 30 a3 3e 8c d9 e4 be a3 0a a7 3e
       0.029009683 0.31872565 -0.44697225 0.32625303
000090 b4 5b 43 bc 84 7b 18 3f 3a 77 57 3f 8f 71 02 3f
       -0.011923719 0.5956347 0.841663 0.50954527
0000a0 66 34 44 40 0f 1d 03 3e 6d 06 40 3f 17 87 e9 bc
       3.0656981 0.12804054 0.75009805 -0.028506799
0000b0 5a 56 55 bf d8 1f c7 bf 91 a0 a7 bf 40 e1 8e 3f
       -0.8333489 -1.5556593 -1.3095876 1.1162491
0000c0 50 f1 45 be 7f 19 6c 3f 05 02 4f bf 7b 57 fd 3d
       -0.19330335 0.92226404 -0.80862457 0.12370201
0000d0 c3 b8 f4 3e ee 16 bb 3e 86 93 12 40 eb 96 c1 bf
       0.47797212 0.3654093 2.290254 -1.5124182

weight f4 [7, 8]
000000 81 8f 73 3f 68 71 d0 bd 4e 21 31 40 a8 b1 12 be
       0.95140845 -0.101778805 2.7676578 -0.14325583
000010 07 7d 99 3f 4c c1 d6 3f 8b b4 a3 3f 7b 2c 1c 40
       1.199128 1.677774 1.2789472 2.4402149
000020 39 7d 3d bf 9b c1 ba bc 9c d9 ba 3f 24 4c 40 3f
       -0.740192 -0.022797396 1.4597659 0.7511618
000030 75 dc 7f bf 8f e5 b5 bc 4b eb 8c be 6e 68 3e 3f
       -0.99945766 -0.022204189 -0.27523264 0.743781
000040 df 31 0c c0 64 4b 69 bf f2 0f 1e bf a2 7b 03 3d
       -2.190544 -0.9113066 -0.6174308 0.032100327
000050 07 52 55 3d e7 3f dc 3d 06 4f 69 bf e9 b6 90 bf
       0.05208018 0.10754376 -0.91136205 -1.130582
000060 65 22 22 3f 6f 85 1a bf c0 3e 88 be 8d 12 52 bf
       0.6333373 -0.60359854 -0.26610374 -0.82059556
000070 a8 95 1f bf f2 b3 b8 be 8a 42 3d bf 78 67 e5 bd
       -0.6233773 -0.36074787 -0.73929656 -0.11201376
000080 25 f3 b4 3f 78 a6 68 3f 37 83 05 bf 4e a6 7f 3f
       1.4136702 0.9087901 -0.5215334 0.99863136
000090 ce 55 ca 3f 45 e2 c4 3e b8 29 19 3d c1 9d 68 3e
       1.5807436 0.3845388 0.0373933 0.22716428
0000a0 d3 78 08 3e 04 b0 0e 3f 86 ee f1 be c8 09 84 bd
       0.13327341 0.5573733 -0.4725229 -0.06447178
0000b0 c0 01 39 3f da da e8 bf 0c fd aa bf 77 43 75 be
       0.72268295 -1.8191788 -1.3358474 -0.23951517
0000c0 1d 3f a2 3f d3 dc 93 3e f0 86 09 3f 27 f4 ce bf
       1.2675511 0.28879413 0.53721523 -1.6168259
0000d0 5b e0 e1 3e d5 2e 29 3f be 45 3b 3f 00 70 dd 3e
       0.44116482 0.66087085 0.73153293 0.43249512

weight f4 [1025, 8]
000000 94 24 c0 3f 47 ec 19 3f 48 cc cf bf 96 69 ee bd
       1.5011163 0.60126156 -1.6234217 -0.11641233
000010 05 4b 88 bf c1 2a 0c 3f c6 34 9d bf 1f f1 97 bf
       -1.0647894 0.5475274 -1.228173 -1.1870459
000020 e3 2c fb 3e 82 a3 9c bf 89 cb 7f 3f 88 21 5f 3f
       0.49057683 -1.2237399 0.99919945 0.8716054
000030 53 d5 c0 be 75 55 dd bf 15 1b 72 3f 31 82 01 40
       -0.37662753 -1.7291704 0.94572574 2.0235713
000040 92 d4 a6 bf 54 6e 40 3f 69 b3 fe 3e 49 1b 14 40
       -1.3033621 0.7516835 0.49746254 2.3141654
000050 92 b1 ab 3e 35 1f ad bd aa d6 25 bf 8f ef 6f bf
       0.33533913 -0.08453218 -0.64780676 -0.9372491
000060 37 88 1c 3e cc df 8a bd 81 49 65 bf c7 e4 70 ba
       0.15286337 -0.06780967 -0.89565283 -0.0009189364
000070 71 24 97 bf 90 94 2c 40 89 79 0b bf 46 f0 95 be
       -1.1807996 2.6965675 -0.5448232 -0.29284877
000080 32 36 91 3f 7e 64 85 3f e6 e2 8d bf 82 08 84 3f
       1.1344664 1.0421293 -1.1084869 1.0315096
000090 b5 8e 73 be 5b a9 fd bf 45 0e 96 3f 88 c5 b5 bf
       -0.23784907 -1.9817308 1.1723105 -1.4200907
0000a0 3e 7f 32 bf 79 1a 4e bf 86 d0 4e 3f 28 e2 94 be
       -0.69725406 -0.80509144 0.8078693 -0.29078794
0000b0 e2 65 f8 3f a0 2f 18 bf e9 89 2f 40 cd 87 d7 3e
       1.9406092 -0.5944767 2.7427924 0.42095795
0000c0 a1 59 5e 3e 58 d6 e2 3f 40 ad 0d c0 81 c0 37 bf
       0.21713878 1.7721663 -2.2136993 -0.7177811
0000d0 94 60 c8 bf a9 cc 26 3f 93 91 9c 3f 41 8c 63 3f
       -1.5654473 0.65156037 1.2231926 0.88885885
0000e0 4c 69 95 3f 75 12 b6 3f 68 6c d0 be a1 08 5a 3f
       1.1672759 1.4224383 -0.40707707 0.85169417
0000f0 f1 ff 25 bf d6 6f 25 3f 6d d3 08 c0 09 df cd bf
       -0.6484366 0.64623773 -2.1379044 -1.608369
000100 d5 c2 a2 bf f3 a0 9d bf 43 ad 61 3c c5 76 80 be
       -1.2715708 -1.2314743 0.013774219 -0.25090614
000110 67 51 62 3f cc 5c 06 3f d0 2d 8a 3f c2 7b fa 3e
       0.8840546 0.52485347 1.0795231 0.48922545
000120 6d 6c b9 3f 67 46 b1 bc ca ce a3 3f 2e 3a da 3f
       1.4486214 -0.021640016 1.2797482 1.7049005
000130 80 3b 92 bd 12 25 9d be 5d 4a 6c 3f 90 84 9e be
       -0.07140255 -0.30692345 0.9230097 -0.30960512
000140 02 ce d4 3f cd 0b 6d bf a2 3c ff 3f 8d 55 c9 bf
       1.6625369 -0.9259613 1.9940379 -1.5729233
000150 ef e4 03 c0 29 db 11 bd 83 2a 0b bf e4 7c 02 3f
       -2.060848 -0.035609398 -0.5436174 0.5097182
000160 04 ef 69 3f bf f4 6d 3e 73 27 ea 3e 4d 87 6b 3e
       0.91380334 0.23237894 0.45733222 0.23000832
000170 7f 9e 90 3f fc 1e 50 3e 2a ef 3d bf e1 3c c4 be
       1.1298369 0.2032432 -0.7419306 -0.38327697
000180 94 1f 65 bf 5f f1 c5 bf ee 2a 6c bf 7f 6c c4 bf
       -0.8950131 -1.5464286 -0.92253006 -1.534561
000190 a6 44 0f 3f a9 72 d1 be 0e 95 8b 3f df fd b2 3e
       0.55964124 -0.4090779 1.0904863 0.34959313
0001a0 50 0d e2 3f 77 dd eb 3e d7 d1 21 bf 82 3d 6a bf
       1.7660313 0.46067402 -0.63210815 -0.91500103
0001b0 cf d7 6c be 35 ef 52 bf dc 9a 08 3f 05 0f 97 3f
       -0.231292 -0.8239625 0.53361297 1.1801459
0001c0 38 4e 26 3f d8 98 d7 bf 59 16 e0 be 1c 6a 17 3f
       0.649631 -1.6843519 -0.4376705 0.59146285
0001d0 ca d6 c0 bd 63 ff 22 c0 c6 62 22 bf 0f 03 93 bf
       -0.09415968 -2.5468376 -0.63431966 -1.1485308
0001e0 99 09 f4 be 16 9d bf 3c 30 31 5e 3e 72 c9 0b bf
       -0.47663572 0.023390334 0.21698451 -0.54604256
0001f0 75 9c 47 3e 77 43 42 be ce 86 1e 3f 53 7c 86 bf
       0.19493277 -0.18971048 0.61924446 -1.0506691
000200 3a 80 22 3f 2e da ec 3e 29 f7 ff bd e4 c8 d3 3f
       0.6347691 0.46260208 -0.12498314 1.6545682
000210 1d 49 0f bf 70 c4 de 3d 71 d4 5b 3f fb 79 b8 3e
       -0.55970937 0.10877311 0.85871035 0.36030564
000220 15 c4 ac 3f 89 eb 8d bf d1 e7 0f c0 fa 82 73 bf
       1.349734 -1.1087505 -2.248524 -0.9512173
000230 b5 50 5e bf 99 f6 74 bf e4 0e 64 bf 75 dd 4b bf
       -0.868419 -0.9568878 -0.8908522 -0.7963479
000240 85 d7 d1 be 2b 4a 10 3f be 15 a3 3f c8 5f 08 3e
       -0.4098474 0.5636317 1.274101 0.13317788
000250 39 15 6d 3f 4f 93 8a 3f a9 62 cb 3e c2 4f 24 bf
       0.9261051 1.0826205 0.3972371 -0.641842
000260 7e bd e6 3e 20 98 0b 3f a0 4a c6 3f 28 de 0b c0
       0.45066446 0.54529 1.5491524 -2.1854343
000270 ac f3 11 40 d8 d1 10 40 3c 28 e4 bf a0 ce 83 40
       2.2804976 2.2628078 -1.7824779 4.118973
000280 a1 fe 55 bf 1d d8 82 bf e4 a3 18 3d 58 08 28 3f
       -0.8359166 -1.0222203 0.037265673 0.6563773
000290 f2 f2 58 be 77 c1 93 bb 04 36 f4 be 52 f9 8e bf
       -0.21186426 -0.004509147 -0.4769746 -1.1169837
0002a0 65 29 c8 3e d8 12 03 40 8e bd a4 bf 69 97 8a bf
       0.39094082 2.0480251 -1.2870347 -1.0827457
0002b0 7c 05 9e 3e ce 72 2a bf 37 8f 48 3f 4d 2d 36 3f
       0.3086356 -0.6658143 0.7834353 0.71162874
0002c0 c9 5a 40 bf 18 41 01 bf 89 30 e3 bf 8f 08 db 3e
       -0.7513853 -0.5048995 -1.7749187 0.42779967
0002d0 b1 05 95 bf 48 6f 0b 3f 2e 67 52 3e cc 66 c0 3d
       -1.1642362 0.54466677 0.20547172 0.09394607
0002e0 c9 17 3b bf 63 f5 35 3e e3 36 6c 3f 78 49 e7 bf
       -0.7308317 0.17769389 0.9227125 -1.8069296
0002f0 93 be 21 be 8d ed 90 3f 37 fd 60 3f 3c 4c 13 bf
       -0.15795355 1.1322495 0.87886375 -0.575382
000300 ab f0 5f bf eb d2 09 bf cf 6a 2d bf 80 bd 93 3e
       -0.87476605 -0.5383746 -0.677411 0.28855515
000310 c3 ba 3f 3f 2c 13 07 3e 56 93 26 bf 02 24 9b 3d
       0.7489435 0.13190907 -0.65068567 0.07575227
000320 ca dd 26 3f 6a ac e1 3e e6 45 60 3e fb 3c 0f c0
       0.65182173 0.44076854 0.21901664 -2.238097
000330 29 0a 28 40 9a b2 f0 3f 19 b3 3d c0 e9 b6 ea 3f
       2.6256201 1.8804505 -2.9640563 1.833707
000340 4b 19 61 3f 54 30 10 3f b4 ef 2d bf b1 92 a6 3e
       0.8792922 0.5632374 -0.6794388 0.32533792
000350 0a 24 b3 3f 0f 9a 56 3f 34 ad d6 bf 94 d0 4e 3f
       1.3995373 0.83828825 -1.6771607 0.80787015
000360 65 1a 2c 3e c4 cb b5 3d bf 1b 17 40 74 01 ce bf
       0.16806944 0.08876756 2.3610685 -1.6094193
000370 7f d5 ba 3f 4a 21 08 bf b6 18 18 3f 58 83 f7 bf
       1.4596404 -0.53175795 0.59412706 -1.9336958
000380 2f 85 70 bf 1a de eb bf d9 1d a3 3e 97 97 d7 bf
       -0.9395322 -1.8427155 0.3185871 -1.6843137
000390 55 7c 97 3f 74 01 bb bf 6c e9 b0 3f 78 d7 e3 3f
       1.1834818 -1.4609818 1.3821235 1.7800131
0003a0 19 0f 88 be fc 7b ad bd 8a 69 3a 3f f9 e3 eb be
       -0.2657402 -0.08470914 0.7281729 -0.46072367
0003b0 81 cc a4 be 30 61 3f bf 9f 3e 1e 40 0e c2 00 40
       -0.32187274 -0.7475767 2.472572 2.0118442
0003c0 c2 b5 3e 3e 56 b2 b5 bf 21 a6 16 40 c1 53 4d 3f
       0.18624023 -1.4195049 2.3538897 0.80205923
0003d0 e0 e6 16 c0 08 bb 61 3f 39 b9 f5 bf 49 7e 92 3f
       -2.3578415 0.8817601 -1.919715 1.1444789
0003e0 23 b7 c7 bd be b7 77 3f 4f 64 93 be f1 12 1f 40
       -0.097517274 0.96764743 -0.28787467 2.485531
0003f0 a2 2f 32 3f 84 fe ee 3f 9d 84 31 3f 66 67 dd 3d
       0.6960393 1.8671422 0.69342977 0.10810737

weight f4 [3, 8]
000000 5c b4 5b bf 3e 36 f1 bf c5 62 61 be 51 9e 0b 3f
       -0.8582208 -1.8844678 -0.22010334 0.54538447
000010 fc 1a e9 3f b0 fb ae 3e 5e e8 32 bf 9c de 7e 3f
       1.821136 0.34176397 -0.69885814 0.99558425
000020 df 17 ea 3c d0 a4 93 bf 48 9c c9 3f 5f 17 f6 be
       0.028575836 -1.1534672 1.5750818 -0.48064706
000030 9f ee d7 bf 61 90 e1 3f 37 8b 6e bd b8 c7 a5 be
       -1.6869696 1.7622186 -0.058238234 -0.32378936
000040 74 2a 91 bf 76 b3 19 3f 0e fc 74 bd 51 f9 a7 3e
       -1.1341081 0.6003946 -0.05981069 0.328074
000050 46 cb 67 bf 5e 25 62 bc 4f e5 ee be 3a 6f 49 3f
       -0.90544546 -0.013802854 -0.46659324 0.78685343

weight f4 [7, 8]
000000 3e 19 2d bf 3d aa 56 bf 99 59 59 bf a5 00 93 3f
       -0.6761664 -0.83853513 -0.8490234 1.1484572
000010 f6 ad c5 3e 6a 51 cd be f0 f9 55 be 0d 52 5d be
       0.38609284 -0.40101177 -0.20896125 -0.21613331
000020 a0 94 0c bf b4 7d 27 3f 7a 71 7e be 7b 37 c4 3f
       -0.54914284 0.6542618 -0.24847975 1.5329431
000030 09 d4 90 3f ef 2c 48 3f 25 8d 72 bf 1d 7d 86 bf
       1.1314708 0.78193563 -0.9474662 -1.0506932
000040 7a 9f 6b bd 62 f0 20 3f 9d c5 2d 3f f1 9d 75 bf
       -0.057525136 0.62866795 0.6787966 -0.95944124
000050 65 6a b1 bf 0b 2b a5 bf 09 46 2b bd 4e 06 8a 3f
       -1.3860594 -1.2903761 -0.041814838 1.0783174
000060 4c aa 57 be 2d d4 ba bf f3 db ca 3f 03 70 97 3f
       -0.21061057 -1.4596001 1.5848373 1.1831058
000070 e4 0d 79 bf 05 d1 84 3f 72 80 01 bf 8f 22 1a bf
       -0.9728682 1.0376288 -0.50586617 -0.6020898
000080 39 b5 ed 3e 85 e1 e1 3e 16 26 a9 bf 82 76 fe 3d
       0.46427324 0.4411737 -1.3214748 0.12424947
000090 5d 69 39 bf 80 1b 83 bf 11 5e 26 3f 6d ad 27 3f
       -0.72426397 -1.0242767 0.64987284 0.65499
0000a0 c4 10 00 3f ef 96 13 3f 7b cd 1d 3f bc 72 bf 3e
       0.5002558 0.5765218 0.61641663 0.37392223
0000b0 64 6e 5e bf d5 71 89 bf f1 b0 3a 3e 3d 47 cf bd
       -0.8688719 -1.0737864 0.1823156 -0.101210095
0000c0 62 aa 70 bf 05 07 0b 3d 2f 64 81 3e 20 43 a7 3d
       -0.94009984 0.03394224 0.25271747 0.081671
0000d0 fe ea 0a bf f4 4e b1 3e 2b 2d 7e bf c0 63 8e bd
       -0.5426482 0.3463055 -0.9928767 -0.069526196

weight f4 [7, 8]
000000 e7 2e 88 bf dd c5 cf bf eb 1e 0f be b6 b3 be 3d
       -1.0639313 -1.6232258 -0.13976638 0.09311621
000010 ff 86 74 3e 46 cf ef be 70 0a 86 3f f4 9b f0 3d
       0.23879622 -0.46837825 1.0471935 0.11748496
000020 41 05 97 be 3f 10 6a 3e a7 a7 d7 bf 7c 41 55 bf
       -0.29496196 0.2285776 -1.6848038 -0.83303046
000030 ef 8a 02 3f 19 3a d3 3d ca c1 83 3d ff 4a c5 3f
       0.50993246 0.103138156 0.06433447 1.5413512
000040 d4 f5 d6 3f a7 66 d4 be 2a 21 f7 3e bb c4 8b bf
       1.6793771 -0.41484568 0.4826749 -1.0919412
000050 e3 0b aa 3f 17 ea 38 bf 2e 1c 19 3f 4f c7 33 bf
       1.3284878 -0.7223219 0.59808624 -0.70225996
000060 87 91 be 3e f8 ea f7 bf a9 85 e7 3f 22 e7 18 3e
       0.37220404 -1.9368582 1.8087665 0.1493192
000070 7c f7 20 bf 87 fa a0 3f f2 3c a3 bf f7 b3 a5 3e
       -0.6287763 1.2576455 -1.2752974 0.32363865
000080 57 35 31 bf 2a d8 04 3f a8 ff 45 bf 6f 0c c2 3e
       -0.69222015 0.5189234 -0.77343225 0.3790011
000090 61 7d 8a 3f ed d5 bc bf 0c 99 1b 3f b8 8c a5 bd
       1.0819513 -1.4752785 0.60780406 -0.080834806
0000a0 67 4d b5 bf 60 bc ea bf a0 c8 73 be bf ff 58 be
       -1.4164246 -1.8338737 -0.23807001 -0.2119131
0000b0 2e 41 96 bf 39 f2 91 3f 21 12 5d bf 9b c7 2d be
       -1.1738641 1.1402045 -0.8635579 -0.16970675
0000c0 ca 2c e5 3e 65 8d 98 3f 20 23 31 3f b1 4a b3 3b
       0.44760734 1.191815 0.6919422 0.0054715504
0000d0 9e 8c 3b bf b8 e0 7f 3f 35 e8 f5 be 2d d2 d8 3e
       -0.7326144 0.9995227 -0.48028722 0.4234785

weight f4 [3, 8]
000000 8f bb 7c 3e b1 ae c5 be fd 8b d7 3e 49 ad 52 bf
       0.24680923 -0.3860984 0.4209899 -0.8229566
000010 05 9b 80 3f 30 51 91 3f cf db d1 bf ad 83 ff 3f
       1.0047308 1.1352901 -1.6395205 1.9962059
000020 ee 1f da bf 62 0d 00 bf 67 ae 9f be 4a b6 f4 bd
       -1.7040994 -0.5002042 -0.31187746 -0.119488314
000030 f9 af 4f bf 02 67 15 bf e8 a2 0a bf 57 a3 c1 be
       -0.8112789 -0.583603 -0.54154825 -0.3781993
000040 52 dc cd bf 88 44 6e 3f 71 a4 46 bf bc c3 98 be
       -1.6082861 0.9307332 -0.7759467 -0.29836833
000050 f5 81 02 3d e2 aa db be 1c 8b 97 bf e0 26 c2 bf
       0.031862218 -0.4290381 -1.1839328 -1.5168114

weight f4 [427, 8]
000000 c6 61 59 bf 5b 74 b2 3f 90 f2 4a bf 22 38 95 bf
       -0.84914815 1.3941759 -0.7927637 -1.1657755
000010 41 33 02 bf 27 06 80 3f 53 be 15 3e 97 b1 0a 3f
       -0.5085946 1.0001878 0.14623384 0.5417723
000020 30 bb 34 bf 44 39 1c 3b 3c 24 06 bf 94 5d 72 3e
       -0.70598125 0.0023837844 -0.5239904 0.2366851
000030 bb cb 15 bd 00 2d 62 3f 88 61 4b 3f 88 c3 0b bf
       -0.036571246 0.88349915 0.79445696 -0.5459523
000040 c4 28 a7 bf cf af c9 3f 8c 0d a0 3f a2 6e 03 3f
       -1.3059316 1.5756778 1.2504134 0.5134069
000050 e4 bd ee 3f a8 7e 81 3d f5 b6 c4 3d b5 d4 f7 3d
       1.86517 0.06322986 0.09605209 0.121011175
000060 29 c7 1a c0 6f c9 04 40 18 44 de 3d bf 88 b1 3f
       -2.4184058 2.0747945 0.108528316 1.3869857
000070 cd 10 d0 be 77 41 72 bd 60 76 1c 3e e4 bb 0a bf
       -0.40637818 -0.059144463 0.15279531 -0.5419295
000080 d2 52 b8 3d b4 6f 49 3f 67 0c 04 c0 26 7e bc 3f
       0.09000172 0.7868607 -2.063257 1.4725997
000090 fe 4f 48 bf 83 84 73 3f 77 b4 48 3f e1 20 af be
       -0.7824706 0.9512407 0.7840037 -0.34204772
0000a0 f4 9a af be 4a de 8d 3e eb 6e 5b 3f 84 c5 ab 3e
       -0.34297907 0.27708656 0.8571612 0.3354913
0000b0 48 17 8e 3f fa 04 8a 3f a4 0b 83 3f f6 74 cb 3e
       1.1100855 1.0782769 1.0237927 0.39737672
0000c0 d3 39 25 bf b3 e0 15 bf 61 76 03 3f bc 81 49 3f
       -0.6454136 -0.5854599 0.51352507 0.78713584
0000d0 d3 ef 36 3c 06 76 b2 bf 01 25 19 bd 09 96 79 3a
       0.011165577 -1.3942268 -0.037388805 0.0009520953
0000e0 7e 81 8b be a9 da 9d bf 4f f7 a1 bf 9c a7 81 3f
       -0.27247232 -1.2332355 -1.2653598 1.0129275
0000f0 41 41 0d bf e4 83 1b be b0 20 54 3f f5 bb 83 3f
       -0.55177695 -0.15187031 0.8286238 1.0291735
000100 56 fb 0c 40 ca b7 e3 be 50 d5 2d 3f 8d 71 24 bf
       2.2028403 -0.44476157 0.67903614 -0.64235765
000110 c0 11 a1 bd cc c7 9f bd bd 48 57 be e6 f7 23 be
       -0.07864714 -0.0780178 -0.21023841 -0.16012534
000120 61 67 1b 3f c9 79 35 3f 17 cc 90 3e a4 39 32 c0
       0.6070462 0.70888954 0.28280708 -2.784768
000130 7d 03 59 3f ff f5 be bf 67 5b de 3f e8 ad 66 40
       0.8477095 -1.4918822 1.7371644 3.6043644
000140 95 10 12 3f 97 d6 d7 3e 8d 78 0f 3f 24 14 0b 3f
       0.5705655 0.42155907 0.5604332 0.5432761
000150 7d bf b1 3d a0 11 0f 3e c4 33 b8 3f e8 20 7b bf
       0.086791016 0.13971567 1.4390798 -0.98097086
000160 92 c9 1f 3d 8f 47 15 3f 0c a2 bf be 34 35 67 3e
       0.03901059 0.58312315 -0.3742832 0.22578889
000170 80 1b 2d bf 75 a1 01 be 2f 7a 2c bf 2c 1a a2 bf
       -0.67620087 -0.12659247 -0.6737394 -1.2664237
000180 6c db 5a 40 bf bf d7 bf 8d 45 19 3f 65 6a 62 be
       3.4196424 -1.6855391 0.5987175 -0.22110899
000190 4e 3b 36 3d 2e b1 64 be 29 a8 af 3d 0e 1b 33 bf
       0.04449015 -0.22333214 0.08576996 -0.6996316
0001a0 e0 2f c9 3f f3 7a 81 bf e5 58 6a be 14 cb fb 3f
       1.5717735 -1.0115646 -0.22885473 1.967135
0001b0 29 9e b5 bc 9c c7 70 be b8 0b 8c be 0b 48 85 3f
       -0.022170143 -0.23513645 -0.2735269 1.0412611
0001c0 19 97 01 bf af ed ab bd ee 36 5a be 31 d7 e0 be
       -0.5062118 -0.08394944 -0.21310017 -0.43914178
0001d0 0b 4b 99 be 80 42 1e 3b 99 a0 63 3f 6e 6b c2 be
       -0.29940066 0.0024148524 0.8891693 -0.37972587
0001e0 1a 40 19 3f 96 64 da be 6c 55 7a 3f 05 52 80 bd
       0.59863436 -0.42654866 0.97786593 -0.06265644
0001f0 8a 40 39 3f cf 22 52 bf 45 fa 01 bf 2e 83 bf be
       0.72364104 -0.82084364 -0.50772506 -0.3740477
000200 09 00 3f 3c 95 1f ea 3d a0 a3 8f 3f 6d 13 c7 3e
       0.011657723 0.11431805 1.1221809 0.38882008
000210 f2 98 bc be 14 61 a4 bf 37 4f 33 3f f4 35 7a be
       -0.36835438 -1.2842126 0.7004275 -0.24434644
000220 6b 3c d9 3f b3 00 09 be af 3a e3 3f f7 a8 8a 3f
       1.6971563 -0.13379173 1.7752284 1.0832814
000230 43 cd 52 3f e9 45 90 bf ad 26 46 bf 3d 2d c2 3e
       0.82344455 -1.1271335 -0.77402765 0.3792514
000240 7c 77 99 3f 1e 1e 28 3e 22 15 87 bf e3 b5 90 bf
       1.1989589 0.16417739 -1.0553324 -1.1305507
000250 47 d6 cc 3d cc a3 f9 3f 36 da 95 bf 59 49 e4 3e
       0.10001808 1.9503112 -1.1707218 0.4458721
000260 fe f8 7f bf 31 e5 cd 3f 7b 3b 73 bf 61 21 8d 3f
       -0.99989307 1.6085569 -0.95012635 1.1025811
000270 da 0d 4b bf 44 a4 89 be 4e 12 05 bf 59 55 3f 3b
       -0.7931801 -0.26883137 -0.51981056 0.0029195158
000280 67 b9 18 bf f4 fe a5 3f b4 7f dd 3e ca d6 b9 3f
       -0.596579 1.296843 0.43261492 1.4518673
000290 76 51 9c 3e 6e 0a 49 3f 15 96 32 bf 3e d2 f1 be
       0.305309 0.7853154 -0.69760257 -0.47230715
0002a0 13 a5 21 c0 7a 56 29 bd 20 0f d8 be ac 29 d8 3e
       -2.5257003 -0.041342236 -0.4219904 0.42219293
0002b0 09 23 0d bf f3 e2 87 3c 32 0c 1e bf d0 68 f4 be
       -0.55131584 0.01658771 -0.6173736 -0.47736216
0002c0 b9 33 f1 3f e3 36 98 be 71 1e 39 be a8 b2 81 3d
       1.884391 -0.29729375 -0.18078019 0.06332904
0002d0 5d 88 55 bf fc cf cb be ea 26 a7 be 78 4a b2 3e
       -0.834112 -0.39807117 -0.32646877 0.3482244
0002e0 9b 58 12 bd df fb d8 bf 9c b3 f2 bf 5f 08 28 3f
       -0.035729032 -1.6951865 -1.8961062 0.65637773
0002f0 fe 02 e9 3f a9 22 9c 3f d9 37 09 3f 34 ac e9 bf
       1.8204038 1.2198077 0.5360084 -1.8255677
000300 31 56 a3 3e a3 ea 01 3f db 95 ed 3e 3c 25 54 be
       0.31901696 0.5074865 0.46403393 -0.20717329
000310 07 4f f1 be e5 54 d2 3f 40 81 4a 3f b0 27 1f bf
       -0.47130606 1.6432158 0.7910347 -0.62169933
000320 7c a3 0d bf 0b bf 24 be 37 86 37 3f ad 15 bd bf
       -0.5532758 -0.16088502 0.7168917 -1.477224
000330 7c 79 82 bf ca c0 fd bd e5 1b d4 3f fd e3 a0 3d
       -1.0193324 -0.12390287 1.6571013 0.07855985
000340 d9 41 33 bf c8 fb 2c bf ab 7f 77 bf 95 10 62 bf
       -0.7002235 -0.6757169 -0.9667918 -0.8830655
000350 7c 21 4b 3f 21 dc 5c bf 80 05 bf 3f 05 03 90 bf
       0.7934797 -0.8627339 1.4923553 -1.1250921
000360 ff af 8d bf 1f 54 36 c0 f5 31 a8 bf 9c c9 64 bf
       -1.1069335 -2.8488843 -1.3140246 -0.8937013
000370 5b f8 5a bf 1e ca c6 be fe cd 81 3e e8 87 0c be
       -0.8553521 -0.38826078 0.25352472 -0.13723719
000380 43 77 54 3f 81 95 97 bf f1 a7 90 be 45 42 08 bf
       0.8299448 -1.18425 -0.2825313 -0.5322612
000390 32 79 d3 bc 11 00 ce be cc 60 92 bc a7 6c 13 bf
       -0.025814626 -0.40234426 -0.017868422 -0.57587665
0003a0 b6 18 dd bd 5d e2 4b 3e f8 18 66 be 88 0b a2 3f
       -0.10795729 0.1991057 -0.22470462 1.2659769
0003b0 d9 27 e2 bc 8d 0a 07 bf dc 12 2a bf 8d 0d 2f bf
       -0.027606891 -0.52750474 -0.6643503 -0.6838005
0003c0 ad ae 70 bf b4 49 96 3e b1 1c 8a 3e f2 17 ec bd
       -0.94016534 0.29353106 0.26975015 -0.11528005
0003d0 c6 55 46 bf 99 3d 1e 3e 57 05 23 c0 82 98 a4 bf
       -0.7747463 0.15453185 -2.547201 -1.2859042
0003e0 6d 72 3e 40 37 d7 75 bd b4 cc 84 bf 36 7b db bd
       2.975734 -0.060019698 -1.037497 -0.1071686
0003f0 51 be 9a be 2b 04 ba 3d ff 1f 0a bb 1a 0c 34 be
       -0.30223325 0.09082826 -0.00210762 -0.17582741

weight f4 [1030, 8]
000000 db 94 ad bf a3 2f 9d 3e a1 d5 13 bf 7c fb a9 3e
       -1.3561052 0.30700406 -0.57747847 0.3319968
000010 b9 28 f7 be b1 fa ef 3e cd 57 14 3f da fb 05 be
       -0.48273256 0.4687095 0.57946473 -0.13084355
000020 94 1c c4 be e3 e9 8b 3d 94 4a d2 3e 09 b7 1a 3f
       -0.38303053 0.0683172 0.41072524 0.6043554
000030 ca 16 e9 be 80 10 2d bf 1e 5e 3d c0 c8 bb c2 3f
       -0.455252 -0.676033 -2.9588695 1.5213556
000040 85 7f ba 3f 13 23 2d bf 43 f1 44 bf da 4e a1 3f
       1.4570166 -0.67631644 -0.76930636 1.2602189
000050 9e ee 23 40 4d 66 c3 be a7 d4 b8 be 8d 3c 1e 3f
       2.561439 -0.38163987 -0.3609974 0.61811143
000060 9e 78 47 be e7 c6 68 3d 21 ba b8 be 68 c6 8f be
       -0.19479606 0.056830313 -0.36079505 -0.2808106
000070 7d b7 97 be 95 22 7c be e2 d0 ff bd cc d5 ee be
       -0.29632178 -0.24622567 -0.12491013 -0.4664749
000080 86 20 91 bf 85 1b 58 3d 2f b9 a8 3f 0c c4 09 40
       -1.133805 0.05276062 1.3181514 2.1525908
000090 19 fd 97 3f 91 96 37 3f 23 1d eb bf 7c f6 cf be
       1.1874114 0.7171412 -1.8368267 -0.4061774
0000a0 ee 0c cf 3e a2 8d 9b be 72 4b 92 be 8f cd e1 3e
       0.40439552 -0.30381495 -0.28573185 0.4410214
0000b0 49 2b 7d 3e 22 cf 21 3f fc 80 b1 3f 82 79 dc 3f
       0.24723543 0.63206685 1.3867488 1.7224581
0000c0 b4 15 ee be b2 f7 5e 3e 77 4d 01 bd 85 06 27 3f
       -0.46500933 0.21774176 -0.031568017 0.65244323
0000d0 72 b7 8e 3e 90 87 78 bf d7 7c 2d 3f 1f 55 cd 3f
       0.27874333 -0.9708185 0.67768615 1.6041602
0000e0 97 e6 e4 bf d9 04 2d bf 85 b3 28 bf c3 29 91 3f
       -1.788287 -0.6758552 -0.65898925 1.134087
0000f0 1a 34 9a bf b3 d8 9b 3f 7f 8e b0 3f 32 89 87 3f
       -1.204715 1.2175506 1.3793486 1.0588744
000100 55 54 3b bf 67 fc 34 3f c9 ef 3c bb 68 e1 ab 3d
       -0.73175555 0.70697635 -0.0028829447 0.08392602
000110 03 00 8b 3f a3 f2 c6 bf 9e f8 49 3f 2c fa 80 be
       1.0859379 -1.5542797 0.78894985 -0.25190866
000120 ae 1a 9b be 60 7b 5f 3f 62 57 89 be 1a 08 88 bf
       -0.30293792 0.8729763 -0.2682448 -1.0627472
000130 28 0a 1a bd 07 f5 93 bd 70 f8 8a bf c4 85 9a 3f
       -0.037607342 -0.0722447 -1.0857067 1.2072072
000140 a7 f3 de 3d 11 17 31 bf 2d 1b 61 3f af 08 ec 3f
       0.10886317 -0.6917582 0.8793209 1.844015
000150 a8 f3 d8 3e c1 f2 04 40 5a 06 6c 3f 4b 09 9d bf
       0.42373395 2.0773165 0.9219719 -1.2268461
000160 b6 28 53 bf 5f c9 a3 bb c9 3e a6 3f 2a b8 10 40
       -0.82483995 -0.0049983705 1.298791 2.2612405
000170 f6 fb 29 bf 8f 18 1c c0 2e 55 81 bf 66 04 56 bf
       -0.66400087 -2.438999 -1.010412 -0.8360046
000180 3d 0d fe 3d b0 b2 1e bf fc 49 49 bf d7 ed 26 bf
       0.12404869 -0.61991405 -0.78628516 -0.65206665
000190 e1 41 4f 3f cc 83 ef bc 25 c7 3b 3f fe c5 b1 3e
       0.809599 -0.02923765 0.73350745 0.3472137
0001a0 f7 8a a7 be 27 6c 42 be 22 32 d0 3e 78 41 77 be
       -0.3272321 -0.1898657 0.40663248 -0.24146068
0001b0 aa 26 81 3e 1d bf 13 3e 39 26 31 3e fc 71 6a be
       0.2522481 0.14428373 0.17299737 -0.22895044
0001c0 2f ea bd be f8 c2 e4 3e f0 16 fb be d3 2b 22 3e
       -0.3709273 0.4468 -0.49040937 0.1583703
0001d0 4c 61 d0 3e 4e bb df 3e 49 28 fd 3d cf 96 0d 3f
       0.40699232 0.4369759 0.123611994 0.5530824
0001e0 d9 22 8b 3d a9 9a 3b 3f 8f de bc bd a4 da d7 bf
       0.06793756 0.7328287 -0.09222137 -1.6863599
0001f0 4c d2 b9 3d 02 15 1b bf c4 04 b7 bf ca c3 1c 40
       0.09073314 -0.6057893 -1.4298329 2.44945
000200 a6 55 27 bf 52 4b 5e bf 45 ae 07 3f bb f8 90 bf
       -0.65365064 -0.8683368 0.5300029 -1.1325907
000210 49 e2 5c 3e de da 94 bf c2 1d 11 3f af 50 55 bf
       0.21570696 -1.1629293 0.5668603 -0.8332624
000220 f1 36 8f 3f a5 20 dc 3c 63 25 99 3f e7 25 60 3f
       1.1188642 0.026871035 1.1964535 0.87557834
000230 f8 5d c2 bf 37 64 e2 be 87 d4 23 3f 6e 6b 6d 3f
       -1.5184927 -0.44217083 0.63996166 0.9274205
000240 ed 5a 56 bf b1 d8 1f bf dc 2b 8b 3e 00 e5 84 3e
       -0.8373249 -0.6244002 0.271819 0.25955963
000250 05 31 92 bf e8 c1 a9 3f c9 11 3a bf 9a 49 cb 3e
       -1.142121 1.32623 -0.7268339 0.3970459
000260 bc ca 2e bf 45 34 12 bf 29 a4 b1 be 3e cc 00 bf
       -0.682781 -0.57111007 -0.34695557 -0.5031165
000270 2e 50 8d be ae 35 81 3c f1 3d ca be d5 2d 01 3f
       -0.27600235 0.015772667 -0.39500383 0.5046056
000280 c5 3a a0 3f 2f 34 28 3f 22 ea ca bf 9c 65 9c 3e
       1.2517935 0.65704626 -1.5852702 0.30546272
000290 eb be 37 bf bd a3 1a bf 7c af e7 be b3 4e 47 3e
       -0.7177569 -0.60406095 -0.4525107 0.19463615
0002a0 95 cf 96 be e4 36 7b be 73 6e dc be f4 84 78 3c
       -0.29455248 -0.24532658 -0.43053016 0.015168417
0002b0 2b 87 1f be 51 b0 c9 be 17 e5 10 bf 62 2d b6 3c
       -0.15578906 -0.3939233 -0.56599563 0.022238437
0002c0 c2 04 e0 3c 73 f1 f3 be 39 58 82 be 57 9f 88 be
       0.027346019 -0.4764515 -0.25457934 -0.26684067
0002d0 54 3a 07 3f 10 24 22 3f 59 65 b1 3e 3e 62 62 bf
       0.52823377 0.63336277 0.34647635 -0.88431156
0002e0 3c 46 26 3e f8 e4 04 bf 48 7c 43 3f e3 ce 59 3e
       0.1623773 -0.5191188 0.76361513 0.21270327
0002f0 14 cf 08 40 62 c1 3b 40 79 d3 25 3f 3e b3 23 be
       2.137639 2.9336782 0.64775807 -0.15986344
000300 45 30 51 bf ce 65 b8 bf cd 35 98 bf 45 31 8d 3f
       -0.8171428 -1.4406068 -1.1891419 1.1030661
000310 6c af d5 bf 9c f2 b4 be 6b 1d 2f bf 0c 02 02 bf
       -1.669416 -0.35341346 -0.68404263 -0.50784373
000320 36 98 0f bf 43 b1 23 bf 3c 33 27 bf 5f 0c 14 bf
       -0.5609163 -0.63942355 -0.6531255 -0.57831377
000330 c8 36 a8 be 95 be f4 bd 0d 82 dd 3d 95 ec 29 bf
       -0.32854295 -0.11950413 0.10815821 -0.6637662
000340 fa 24 95 be fc 5b d4 3d 15 c3 92 3b e3 83 d8 3e
       -0.29129773 0.10369107 0.004478822 0.42288122
000350 73 9a 00 3e 50 47 b7 bd cc 62 67 bf 2d 62 ce 3f
       0.12558918 -0.08949149 -0.9038513 1.6123711
000360 b0 37 dd be 5b 77 b5 be d6 b0 51 bf 3f 6c 85 bf
       -0.4320655 -0.35442623 -0.81910455 -1.0423659
000370 28 09 15 bf e7 15 38 be 71 d6 4c 3f be d9 0d be
       -0.58217096 -0.17977105 0.8001471 -0.13852593
000380 e3 07 52 3f 76 5d a1 bf f3 76 fa 3e b9 38 16 c0
       0.82043284 -1.2606647 0.48918876 -2.347212
000390 96 60 0c 40 03 fc 3d bf 80 8a c4 3f e0 0a fa 3f
       2.1933951 -0.74212664 1.5354767 1.9534569
0003a0 2c 9f ce 3d ec 46 33 3f 7f 5f 71 3e ea 94 9f 3f
       0.100889534 0.70030093 0.23571585 1.246732
0003b0 27 16 f2 bf e4 6b 72 bf 2d 64 87 bf 14 6e 73 bf
       -1.891301 -0.9469588 -1.0577446 -0.9508984
0003c0 de f2 62 3f 57 a3 74 3e e6 8a e9 3d 2d 05 9e bd
       0.88651836 0.23890434 0.11403446 -0.07715831
0003d0 aa cb 9e 3e 0c 1b 82 bd 28 73 9c 3f eb 52 94 3f
       0.31014758 -0.06352815 1.2222643 1.1587805
0003e0 00 0b c2 3f 9e 68 a3 bf 18 4e 1c c0 10 27 bb 3f
       1.5159607 -1.2766302 -2.4422665 1.4621296
0003f0 17 6d 23 bf 64 fd 69 bf 8c eb 39 bf 4d 10 da be
       -0.6383833 -0.9140227 -0.7262504 -0.42590562

weight f4 [7, 8]
000000 ee 54 77 3f dd 51 b0 be c7 ae 65 3f 5a bc fe be
       0.9661397 -0.34437457 0.89719814 -0.49753076
000010 8d 31 78 bf eb 4a 35 bf f8 2a 85 3f 49 01 52 3f
       -0.9695061 -0.7081744 1.0403738 0.8203321
000020 81 30 03 3f a5 bd b7 3f 95 87 94 3f c7 fd dd 3e
       0.51245886 1.435475 1.1603876 0.4335768
000030 cc fd 4a 3f 16 5a 8d bf d2 8f dd 3e 28 c1 71 3e
       0.79293513 -1.1043117 0.4327379 0.2360884
000040 9c 5c 38 be 6a 59 17 3f 95 f6 5e 3f 3e db de 3e
       -0.18004078 0.5912081 0.87095004 0.43526644
000050 3b 2b cc bf 56 b7 ec 3c db a4 7b 3f 62 2b 85 bf
       -1.5950693 0.028896015 0.98298424 -1.0403864
000060 8b f5 44 3f 43 b0 b7 bf 5e c0 de 3e 02 0e 0c bf
       0.7693717 -1.4350666 0.4350614 -0.54708874
000070 40 39 d5 bf 30 7d 62 3f 7a 93 4f bf a0 e4 79 bb
       -1.6658096 0.8847227 -0.81084406 -0.0038130656
000080 d3 4f 8b bf 89 57 de bf 81 27 bb 3e 6f 84 c0 bf
       -1.0883735 -1.7370464 0.36553577 -1.5040416
000090 e8 ae b4 3f 7e 9f bd bf 55 66 17 be 3a d2 0b be
       1.4115877 -1.4814298 -0.1478513 -0.13654414
0000a0 25 0b 08 3f 27 27 59 3e 55 f9 93 3f 9e a0 e6 3f
       0.53142005 0.21206342 1.1560465 1.8017766
0000b0 81 6d 4f be 0f 11 bf be 17 89 48 bf 90 97 59 bf
       -0.20256616 -0.37317702 -0.7833418 -0.8499689
0000c0 f4 0c ef bf 5b 56 c4 3f ae d9 dc be d4 3a a3 bf
       -1.8675828 1.5338854 -0.43134826 -1.2752328
0000d0 ee 95 d6 3f 9f b4 13 c0 e1 40 26 bd 0a 30 a8 bf
       1.6764505 -2.3078992 -0.040589217 -1.313966

weight f4 [7, 8]
000000 ee 3c 4d 3f 7f 84 37 40 98 6d 75 3f 23 a4 0f 40
       0.80171096 2.867462 0.9587035 2.244393
000010 ae 32 df bd ba 7c 10 3e 50 fd 0f 3f 9a 7b ee 3e
       -0.10898338 0.1411008 0.562459 0.46578676
000020 b6 27 b0 3e 41 e9 14 3f 2c ae 84 3f 39 3d 11 3f
       0.34405297 0.5816842 1.0365653 0.56734043
000030 e1 6f 9c bc dc 51 0b bf cd bf 4e 3f bb 58 52 bf
       -0.019096317 -0.5442178 0.80761415 -0.8216664
000040 83 10 d2 3e c0 2b 39 bf dd 68 2a bf 67 5d 87 bf
       0.41028222 -0.7233238 -0.6656626 -1.0575379
000050 a7 1a 8a 3f 39 98 dd bf b2 84 ef be d8 dc 87 3f
       1.0789384 -1.731208 -0.46780926 1.0614271
000060 9e 07 3d bd 43 84 59 3e 61 8c 4b be 7f 88 0a bf
       -0.046149842 0.2124186 -0.19877769 -0.54114527
000070 24 0a be bf 80 83 d4 bf 86 43 2a c0 eb 5c 5f 3f
       -1.4846845 -1.6602631 -2.6603713 0.87251157
000080 97 02 9b bf 79 43 04 be a0 ab bd bf 6b ca 4f 3f
       -1.2110165 -0.12916364 -1.4818001 0.8116824
000090 b8 61 d4 3f 95 17 db 3d 4a e4 aa be 93 d2 91 3e
       1.6592321 0.10697857 -0.33377296 0.28480968
0000a0 cf ff 4a bf 92 2e 95 3f f5 00 87 bf 81 44 cb bf
       -0.7929658 1.1654837 -1.0547167 -1.5880281
0000b0 69 a1 e4 3e 3a 6a 9b 3f c2 b2 cf be a4 cc e2 be
       0.44654396 1.2141793 -0.4056607 -0.44296753
0000c0 4c 06 11 3e 80 bf 3d 3f 6f ad 40 40 e7 b7 ba bf
       0.14162558 0.7412033 3.0105855 -1.4587373
0000d0 3e ce 54 3f 79 ee 1a be e1 ac c0 be 65 41 bd be
       0.831272 -0.15130033 -0.37631896 -0.36963955

weight f4 [7, 8]
000000 ed 6d 79 be 30 b0 1b bd 11 93 d6 3f f3 df 26 3f
       -0.2435834 -0.038009822 1.6763631 0.6518547
000010 68 14 f9 bf 11 69 b0 be fb 93 6c be 65 23 88 bd
       -1.9459352 -0.3445516 -0.23103325 -0.06647376
000020 10 5c ad 3e b5 83 0e 3f 13 97 c5 3e 51 d1 9c 3d
       0.338593 0.5566972 0.38591823 0.076571114
000030 12 f8 52 bf c2 2e a5 3e f3 75 89 bf 82 6f a7 3d
       -0.82409775 0.32262236 -1.073912 0.08175565
000040 57 6c 69 bf d8 11 e2 bc 0c 54 72 3f 16 d7 1f be
       -0.9118094 -0.0275964 0.94659495 -0.15609393
000050 7c 9d db 3e d2 5b e7 3e c8 5b cc 3f 84 3d 06 3e
       0.4289359 0.4518724 1.596551 0.13109404
000060 4d d5 89 3e 26 14 a3 be 12 0c b4 3e 25 b6 23 be
       0.26920548 -0.3185131 0.3516546 -0.15987451
000070 39 1e d4 3d a0 bc 04 40 d7 8a 94 3e 8a b8 55 bc
       0.10357327 2.0740128 0.29012176 -0.013044486
000080 e0 d5 eb 3f 09 fe 9d 3f fd b5 cb bf fa 9d 14 3d
       1.8424644 1.234315 -1.5914913 0.03628347
000090 ba a0 20 bf bb 40 b6 be c9 05 ee 3e 10 7f e7 be
       -0.6274525 -0.3559626 0.4648879 -0.45214128
0000a0 ea 72 f4 3f 07 25 bb 3f e1 a6 35 bf 0c a3 27 3f
       1.9097569 1.4620675 -0.7095776 0.65483165
0000b0 bd d7 42 bf 73 b2 1a 3f 07 c2 de 3c a9 88 1e 3e
       -0.7611044 0.6042854 0.027192129 0.15481819
0000c0 76 d5 45 bf 79 6f 74 3f 82 e8 d7 be 94 41 47 3f
       -0.7727884 0.95482594 -0.42169577 0.7783444
0000d0 8b 1b 45 bf f8 8b 01 3f 74 67 49 3f a9 90 8b 3f
       -0.7699515 0.506042 0.7867348 1.0903522

weight f4 [6, 8]
000000 c7 33 c5 3f ff 10 a4 3f d9 c1 a8 3d aa 03 03 bf
       1.5406426 1.2817687 0.082400985 -0.51177466
000010 95 03 81 3f ea df 39 3e a9 f1 14 40 03 33 a2 3f
       1.0079218 0.18151823 2.3272498 1.2671818
000020 b0 1c 7e be 5e 18 87 3d 2e 0b ce 3f 97 06 e3 3e
       -0.24815631 0.065964445 1.6097162 0.44340965
000030 07 2c 41 3f 71 fd d8 3c 09 f5 5d 3e 1f c2 87 3e
       0.75457805 0.026488038 0.21675505 0.2651529
000040 88 ae 6d bf 04 d9 1c bf 02 f6 23 bf 4d 3a b8 be
       -0.9284444 -0.6126864 -0.64047253 -0.3598198
000050 8d d9 52 bf 5c 46 03 be 5a 35 54 bf 6a 3d 6b be
       -0.82363206 -0.12819809 -0.8289391 -0.22972646
000060 60 6b 70 c0 cc 0e 22 bf bf 3e 22 c0 8b 93 07 bf
       -3.7565536 -0.6330383 -2.5350797 -0.5295951
000070 db 0e 89 bf ec c2 26 bf fc 1c 9f 3d 8c ea 00 bf
       -1.0707659 -0.6514118 0.077692 -0.5035789
000080 08 54 83 3f 1c b9 21 c0 1e 49 e1 be ab e9 a8 bf
       1.0260019 -2.5269232 -0.44001096 -1.319631
000090 62 c6 9e bf a2 2b 67 bf 30 8c 31 bf 4b f9 e1 be
       -1.2404292 -0.90300953 -0.69354534 -0.44135508
0000a0 f1 1e b3 bf 82 10 09 3f d9 10 ec be cd bf cc be
       -1.3993818 0.53540814 -0.46106604 -0.39990082
0000b0 4f ca 31 40 b8 89 b1 3f 91 f0 ee 3f 64 83 a8 bf
       2.777973 1.3870153 1.8667165 -1.3165097

weight f4 [32, 1, 3]
000000 5f ff d8 3e d0 71 7c 3e 45 2d 06 bf 09 51 0d 3f
       0.42382333 0.24652791 -0.52412826 0.55201775
000010 9a 15 f5 be 70 e9 b2 3d e5 61 16 3e 71 86 6c bf
       -0.47868043 0.08735931 0.14685781 -0.9239264
000020 2d 87 1d 3e 98 d8 12 bf e9 bf 1c 3f ec 0f 41 be
       0.15383597 -0.57361746 0.6123033 -0.1885373
000030 54 3b 26 bf 54 fd f2 3e 60 ca 0c bf c7 cc 25 bf
       -0.6493428 0.474589 -0.549963 -0.6476559
000040 27 82 de be 96 52 3b bd 4d 5a 42 3e c4 ee 07 bf
       -0.43458673 -0.045733057 0.1897976 -0.530987
000050 93 7b 0b bf 48 6f b0 bd 68 fe f4 3e c0 33 54 bf
       -0.54485434 -0.08614975 0.47850347 -0.82891464
000060 3a b9 04 bf f8 da 13 3f 27 9c d2 bd 81 be d6 3e
       -0.51845133 0.57755995 -0.1028369 0.41942218
000070 c9 71 46 bf f5 6f 82 3d 6d ee bb 3d cf 24 15 3f
       -0.7751737 0.0636901 0.091763355 0.5825929
000080 3e d1 18 3f 9d d9 4e 3d ee 72 43 bb 94 34 17 40
       0.5969428 0.0505005 -0.0029823142 2.362584
000090 fa 7a 60 3d 6e 05 65 bf ef ec b5 3e fc 40 1d bf
       0.05480478 -0.8946141 0.35532328 -0.61427283
0000a0 51 2a 05 3f e9 72 8f be ea 55 3c bf e8 76 90 3e
       0.52017695 -0.28017357 -0.73568594 0.28215718
0000b0 93 97 49 3e 1b 1d ef 3d 24 36 81 3d ec f8 80 bf
       0.19686727 0.11675473 0.06309155 -1.0075965
0000c0 3c d1 1a 3e 6c 9e 86 bf d2 58 73 3e 49 70 f2 3e
       0.15118879 -1.0517097 0.23764351 0.47351292
0000d0 62 f1 f1 be d6 41 dc be 45 36 e6 bd 75 a2 bd bd
       -0.47254473 -0.4301898 -0.1124082 -0.09259502
0000e0 a3 1a 2f 40 a4 e8 2b bf 45 69 3c 3f c2 9f 9f 3d
       2.7360008 -0.67151856 0.7359813 0.07794143
0000f0 a8 f4 16 3f d1 12 80 3e cf bf 03 bf 32 07 e4 3d
       0.58967066 0.25014356 -0.5146455 0.11134185
000100 01 e3 15 3f 7b 41 33 3f 15 e5 12 3f 87 af bc 3d
       0.58549505 0.7002179 0.573808 0.09213167
000110 64 26 03 bf e7 e4 01 3e e7 27 25 3f 59 0b 4c 3f
       -0.51230454 0.12684976 0.6451401 0.79704815
000120 d5 54 47 3f 1f 19 f9 3e e7 1a 27 be e8 38 89 be
       0.7786382 0.48651978 -0.16318856 -0.2680123
000130 b9 70 37 3f c6 92 6d be a6 66 33 3f a2 fc ac bd
       0.71656376 -0.23200521 0.70078504 -0.084466234
000140 df cb c7 be fb 44 0e bf 65 42 e5 3e d8 87 82 bd
       -0.3902273 -0.55574006 0.44777218 -0.063735664
000150 b2 6c 2c 3e 05 e7 12 bf 70 94 04 bf 02 27 f8 3e
       0.16838339 -0.5738376 -0.51789 0.4846726
000160 72 a2 64 bf 3a 87 ff bc 13 30 ba be 60 a9 9d be
       -0.8931037 -0.03119241 -0.36364803 -0.30793285
000170 19 69 46 3f 90 6b 80 be d5 69 4c bf 62 02 42 3e
       0.77504116 -0.25082064 -0.79848987 0.18946221

bias f4 [32]
000000 97 48 bd 3d de 55 fc 3e 00 60 7e be 06 3c 09 3f
       0.09242361 0.4928426 -0.24841309 0.53607213
000010 21 b4 b3 3e 15 ea 09 3f 4d 6a df 3d ba f6 e4 3e
       0.35098365 0.53872806 0.10908947 0.44719487
000020 02 6d c9 be 9a d9 dc 3e 7a ff b5 3c 59 09 c8 be
       -0.3934098 0.43134767 0.022216547 -0.39069632
000030 a7 c3 1e 3d 5c 3f bc be 79 be a4 bd e9 44 a4 3c
       0.038760807 -0.3676709 -0.08044142 0.02005239
000040 50 2a c9 be 02 82 4f be e4 b7 80 3e 77 19 46 be
       -0.39290094 -0.20264438 0.25140297 -0.19345652
000050 6a 86 5a be c8 56 b0 3e 26 c7 f0 be 88 f1 7e be
       -0.21340337 0.3444121 -0.47026938 -0.24896824
000060 5a 4b d1 bd 4b 35 96 3e 4a 4e 97 bd 2a 7a c0 3e
       -0.1021945 0.29337534 -0.07387979 0.37593204
000070 2b 99 f5 be 69 e3 9d 3e 27 de ab bd d4 ee d0 be
       -0.4796842 0.30837563 -0.083919816 -0.4080721

weight f4 [64, 32, 3]
000000 2d 67 df be 7f 6e 16 bd 77 96 b2 3e 4b 62 8e 3e
       -0.43633404 -0.03672647 0.3488042 0.27809367
000010 c3 13 c5 3d 05 7d ea 3d 72 47 0b bd 68 ff bb 3e
       0.0962291 0.11449627 -0.034003682 0.36718297
000020 39 10 ea be f2 04 1f 3e 65 34 f7 3e 17 dc d7 3e
       -0.45715502 0.1552923 0.4828216 0.42160103
000030 b9 d4 a5 3c b0 13 0e 3e 5b 75 23 be be 0e 19 bf
       0.020243036 0.13874698 -0.15962736 -0.5978812
000040 8f 5c f9 3e 2a 68 6c 3f c0 eb 3f 3d 25 64 21 3f
       0.4870343 0.9234644 0.046855688 0.63043433
000050 37 ab 95 be 93 74 a9 3d f0 26 8b 3e dc a0 08 3f
       -0.2923219 0.08274188 0.27178144 0.5337045
000060 34 77 5e be 5c cb ef 3c 77 9d 76 3f 1c 54 ad 3e
       -0.2172516 0.029271774 0.9633402 0.33853233
000070 2e dc b1 3e ee 59 a6 be 07 26 22 3f fc 41 03 3f
       0.34738296 -0.32490486 0.63339275 0.5127256
000080 32 41 e9 3e 82 e5 a7 3e 67 db 0e 3f eb bd 4f 3f
       0.45557553 0.32792288 0.5580353 0.81149167
000090 35 7c 8d 3e cf 88 61 bd ea 4c 1f bf ce df 67 bd
       0.27633825 -0.05506211 -0.62226737 -0.05660992
0000a0 54 99 ca 3e 37 91 8b bd f3 ee 0e bf 75 2c 37 3d
       0.39570105 -0.06814807 -0.5583336 0.044720132
0000b0 12 6e b4 3f 00 49 13 be c2 4e 9a 3e ba 73 bd 3e
       1.4096091 -0.14383316 0.30138212 0.37002355
0000c0 89 0c a8 3e e6 db 15 3f 33 e1 1b bf 8c 00 4e 3e
       0.32822064 0.58538663 -0.608905 0.20117396
0000d0 ae 29 6e bd 53 92 c3 3b 5a b7 7a 3e 7c ce 8c 3e
       -0.058145218 0.005968371 0.24484006 0.27501285
0000e0 66 c7 c9 3e 41 1f b7 be 12 da 2e 3d 91 51 f1 3e
       0.3940994 -0.35766032 0.042688437 0.47132543
0000f0 bd f2 4c 3e 13 e4 ec be 3a 15 80 3e 13 4c a7 3e
       0.20014472 -0.46267757 0.25016195 0.32675228
000100 8c 14 21 3e 89 e2 99 3e 7b 81 ab bd 5f 79 32 be
       0.15730494 0.30055645 -0.08374306 -0.17429112
000110 8f 31 19 3f 08 b5 be 3e 0f 18 8e bd 10 b4 2f 3f
       0.59841245 0.3724749 -0.069381826 0.6863413
000120 67 d1 81 be b4 5d 2c 3f 36 53 59 3e 1e a5 cc 3e
       -0.25355074 0.6733048 0.21223149 0.39969724
000130 72 b0 7f 3b 97 01 e0 3e ce 66 71 3e af 1d fc 3e
       0.0039015082 0.43751213 0.23574373 0.49241397
000140 1d 6c dd 3e 07 c7 e0 bd ff 8e 61 be 91 01 18 3f
       0.43246546 -0.109754615 -0.22027205 0.5937739
000150 cc b6 7b 3e bf ae 17 3f 43 f7 7c be 64 44 d2 3e
       0.2458145 0.59251016 -0.24703698 0.41067803
000160 4b 0b f3 3e ea 38 06 bf f4 de a1 3e 96 d4 85 3e
       0.47469553 -0.52430594 0.31615412 0.26138753
000170 d2 02 1b 3f 96 52 73 bf 4c d1 8f 3e 48 ce 8b 3d
       0.6055118 -0.9504789 0.28089368 0.068264544
000180 f7 8b 63 3e 98 9c a5 be 47 47 ab bd 58 a3 85 3e
       0.22221361 -0.32346034 -0.083632044 0.26101184
000190 33 66 0e bf 57 35 78 3f 99 30 0b 3c dc 6b 36 be
       -0.55624694 0.9695639 0.008495473 -0.17814583
0001a0 23 4e a7 3e 67 e5 41 3e 64 7d c4 3e cd 26 df 3e
       0.326768 0.18935166 0.38376915 0.4358429
0001b0 50 f5 90 3e d9 c8 f3 3e c5 e3 55 bc ff a6 4d 3f
       0.2831216 0.47614172 -0.013054793 0.8033294
0001c0 f1 74 42 3d 05 aa 8e be 44 d5 10 3f 7c c3 e9 be
       0.047474805 -0.2786409 0.5657542 -0.45656955
0001d0 d0 c6 14 3f 43 f5 51 3e 5a a2 93 3e 2f 87 51 3e
       0.58115864 0.20503716 0.28834802 0.20461725
0001e0 97 40 9a be 6d 78 88 3f da 06 b3 be a4 af b3 3e
       -0.30127403 1.0661751 -0.34966165 0.3509494
0001f0 88 cc e7 3d d8 42 05 3f 3f 86 87 be dc df 7f be
       0.11318308 0.5205512 -0.2646961 -0.2498774
000200 09 73 63 be 18 17 9a be 0c bf c6 3e f9 b1 8f 3e
       -0.22211851 -0.30095744 0.38817632 0.2806547
000210 ff 2f 55 3e 55 92 31 3e 1e 96 00 3f af 37 42 3d
       0.2081909 0.17340977 0.5022906 0.047416385
000220 2e c1 26 3f 19 4c f6 3e a1 4d 70 be e2 e5 a2 3f
       0.6513852 0.48104933 -0.23467113 1.2726405
000230 cb 55 07 bf 20 e2 e3 3e 47 ca 19 3f 89 db 0c bf
       -0.52865285 0.44508457 0.60074276 -0.55022484
000240 3a 9d 84 3e 8d 2b 35 3d de 7c 0b 3f 2a 94 0c 3e
       0.25901204 0.044230986 0.5448741 0.13728395
000250 e0 6f 12 bf 0a 5f 32 3f 66 ae be be d4 51 70 3e
       -0.5720196 0.6967627 -0.3724243 0.23468715
000260 5c 93 04 3e 8c 2f 1e be 6f 62 3c 3f 0f f1 83 3e
       0.12946838 -0.15447825 0.735877 0.2576985
000270 07 4c 8d 3e 58 8a 90 be e6 5d 85 3d ca 92 0a bf
       0.27597067 -0.28230548 0.0651205 -0.5413023
000280 73 29 a4 be 83 3a a0 be 16 64 47 3e a3 a1 59 be
       -0.32062873 -0.3129464 0.19471774 -0.21253066
000290 d2 48 51 bd 51 39 e5 bd 54 49 d5 bc 73 48 37 bd
       -0.051094837 -0.11192573 -0.026035942 -0.044746827
0002a0 e9 77 ae be 10 0e 20 bf 98 09 b7 bd f1 79 90 3d
       -0.3407586 -0.6252146 -0.08937377 0.070545085
0002b0 b2 1e a5 3e 7a 30 8a 3e c7 b8 54 be 1e 62 93 be
       0.3224998 0.2699011 -0.20773612 -0.28785795
0002c0 5c 0c dc 3d bc b2 1c bd cb 26 b4 3f 6f 2b 10 bf
       0.10744545 -0.038256392 1.4074339 -0.56316274
0002d0 98 91 5d 3e 6e 3b 0c bf de f2 ee 3d f1 87 b4 3e
       0.21637571 -0.5477818 0.11667417 0.35259965
0002e0 e1 ab 27 be ca 3e 6e 3f 5a 6b d2 3e 5d 99 75 3e
       -0.1637416 0.9306456 0.41097528 0.23984285
0002f0 7d 9f 71 3e 37 18 e4 3e 1e fd 10 bb 3e 0d 91 be
       0.23595996 0.44549724 -0.0022123526 -0.28330415
000300 37 94 6b 3d 89 b9 9f 3d a6 63 f0 bf c3 32 9a 3d
       0.057514396 0.0779906 -1.878041 0.07529213
000310 55 db 36 3d 3e 89 3b 3f ad 73 5d 3d 49 ee bc 3e
       0.044642765 0.7325629 0.054065395 0.36900547
000320 1c 88 02 3e 34 5d 2f 3d 8d 02 ed be 71 4e 03 be
       0.12747234 0.042813495 -0.4629101 -0.12822892
000330 79 da f8 bd 7d 4f c2 be f9 33 1b 3d 12 c8 39 be
       -0.12151045 -0.3795127 0.03789136 -0.18142727
000340 56 20 ca be bf c1 08 bf b1 87 9d be 3f 74 0b be
       -0.39477795 -0.53420633 -0.30767587 -0.13618563
000350 56 27 d7 bd 9c 38 47 be de f7 c7 be 21 d8 bb 3e
       -0.105055496 -0.19455189 -0.39056295 0.3668833
000360 ab 91 2d bd 1d 16 25 be 48 15 ab bd f7 c3 c6 be
       -0.042375248 -0.16121717 -0.083536685 -0.38821384
000370 7f 44 48 3e 5c bc 75 3e 7c a0 23 3e f6 68 a7 bf
       0.19557379 0.23997635 0.15979189 -1.3078907
000380 02 26 00 bc 38 64 89 bd a2 5b 5c bf 85 8f 82 3e
       -0.007821562 -0.06708568 -0.8607732 0.25500122
000390 cb 5d 84 be 08 83 04 3f a1 12 b5 be 8b 4a 04 bd
       -0.25852808 0.5176244 -0.35365775 -0.032297652
0003a0 b1 66 45 be 5b b4 07 bf 8a a5 a2 bd 93 16 59 be
       -0.19277455 -0.53009576 -0.0794173 -0.21200018
0003b0 f1 9c 4e bf 3d 2d 15 be 01 43 f0 be 16 b8 35 bf
       -0.80708224 -0.14568038 -0.4692612 -0.7098402
0003c0 55 b6 2f bf 54 8d cc 3e 81 0c 53 be 24 39 06 be
       -0.6863759 0.39951575 -0.20610239 -0.13107735
0003d0 e1 95 c4 3e cf 6d 5b bf 01 27 99 3e 48 ed 04 bf
       0.383956 -0.8571443 0.2991257 -0.5192456
0003e0 e2 e8 7b 3e 35 35 dc 3d 44 94 b1 bd 8b 49 a9 be
       0.24600556 0.10752336 -0.086708575 -0.3306392
0003f0 0e e6 82 3e 3f ee 62 3e 80 c5 e9 bf 12 2f df bd
       0.25566143 0.22161196 -1.8263397 -0.1089765

bias f4 [64]
000000 60 0b 37 3d 4e 6f d0 3d 2d 77 ea bc 96 11 24 bb
       0.044688582 0.1017748 -0.02862128 -0.0025034896
000010 a4 1d 19 bd 7f de 7b bc 4d c2 52 bd 7f 0f 8d bd
       -0.037381783 -0.015372871 -0.05145483 -0.06887721
000020 75 49 9a 3d 03 95 98 bd 86 cb 31 3d fa 83 99 bd
       0.07533542 -0.07450297 0.043406986 -0.07495876
000030 e3 04 f4 bc b1 f6 f3 bc 98 4f c3 ba 62 0c 80 bd
       -0.029787486 -0.029780718 -0.001490104 -0.06252362
000040 0d 8f 8e bd a4 da 02 bd 0d 07 a9 3d f0 d5 75 3c
       -0.069608785 -0.031946793 0.08253298 0.01500462
000050 7d 1c df 3b ec 2e a3 3d b3 a4 96 bc b3 71 93 3d
       0.006808816 0.07967934 -0.018389082 0.07199421
000060 8f 1f b3 3d e7 e2 43 3d 81 0e b7 3d fc a7 87 bd
       0.08746254 0.047823813 0.08938313 -0.06623837
000070 06 ab ac bd 36 45 74 bc 15 83 81 3c a3 d2 90 3d
       -0.08431058 -0.014909079 0.015809575 0.07071426
000080 a7 9a a2 3c 15 c1 47 bd d0 cc c3 3a ec 38 f0 3b
       0.019849135 -0.04876812 0.0014938358 0.0073310044
000090 9f cd 30 bd 34 13 20 3c 8f cf a9 3d 78 67 3f bd
       -0.043164846 0.009770203 0.08291542 -0.046729535
0000a0 8d 7f 9f 3d 13 d2 ed bb 1f 12 21 bd 6d 14 d4 3b
       0.07788 -0.007257709 -0.039323922 0.0064721615
0000b0 ec 1b 16 3d 19 1f 2b bd 78 af 6f 3d 1f 22 ab 3d
       0.036647722 -0.041777704 0.05851695 0.083561175
0000c0 24 37 02 3d 5a d9 09 bd 0b 57 bf 3d d9 f9 17 bd
       0.031790867 -0.03365455 0.09342774 -0.037103508
0000d0 3d a0 75 3d 03 23 3a bd 1d 89 c5 3b 7a e6 51 bd
       0.05996727 -0.045443546 0.006028308 -0.05124519
0000e0 48 9c 34 bc d0 1e af 3d ce ee 43 3d c8 a5 da 3d
       -0.0110235885 0.08550799 0.047835164 0.106761515
0000f0 98 3d 7a bd 4e 77 0d bd ec 43 82 3d ed 93 19 bd
       -0.061093897 -0.034537606 0.06360611 -0.03749459

weight f4 [32]
000000 69 5f 88 3f e8 1c 89 3f 59 f4 93 3f eb 15 95 3f
       1.0654117 1.0711946 1.1558944 1.1647314
000010 d2 67 88 3f 98 3f 47 3f 1d f2 92 3f 18 6b af 3f
       1.0656683 0.7783141 1.1480137 1.3704557
000020 e9 78 9d 3f 71 52 96 3f 8f 31 75 3f f2 d5 96 3f
       1.2302524 1.1743909 0.95778745 1.1784041
000030 43 fb 91 3f 8a cc 8d 3f 8c 46 88 3f 37 65 b9 3f
       1.1404804 1.1078045 1.0646529 1.4484013
000040 a0 63 aa 3f 5d 74 93 3f dd 37 89 3f f3 e2 a4 3f
       1.3311653 1.1519886 1.0720173 1.288176
000050 93 9c 7f 3f 07 be 52 3f 5e f7 82 3f 19 a0 77 3f
       0.9984829 0.8232121 1.023174 0.96728665
000060 88 67 75 3f ed bb 8d 3f f8 d1 8c 3f bc 33 9b 3f
       0.958611 1.1072975 1.1001577 1.2125163
000070 76 5c 8e 3f 58 69 a7 3f 54 ec 2d 3f 14 c1 8c 3f
       1.1121967 1.3079023 0.67938733 1.0996423

bias f4 [32]
000000 bd 7f e8 3c 36 c6 32 bf cf 60 e1 3d 28 8a b3 be
       0.028381223 -0.69833696 0.11004793 -0.35066342
000010 74 b5 40 be af 76 5c bf d6 76 03 bf ed 78 05 bf
       -0.18819219 -0.86118597 -0.51353204 -0.52137643
000020 15 79 92 be 26 f4 03 be ae e3 2d bf af 81 a0 bd
       -0.28608003 -0.12886104 -0.67925537 -0.07837235
000030 32 0e ac bc df 6c ce be d3 ab bb be e7 b2 3a bf
       -0.021002863 -0.40317437 -0.3665453 -0.72929233
000040 0c 3f d2 bd 4f 9f 0a bf a9 62 8e ba bc 34 54 be
       -0.102659315 -0.54149336 -0.0010863143 -0.20723242
000050 88 b1 db bd 5f c4 e6 be f4 37 9d be f9 c9 f9 be
       -0.10727221 -0.45071694 -0.3070675 -0.48786905
000060 08 f2 51 be 68 c5 99 be eb ca e2 bd f9 99 c8 be
       -0.20502484 -0.30033422 -0.1107386 -0.39179972
000070 34 2e 10 bf a2 12 86 be 71 fa b8 bd 20 c2 6c be
       -0.563205 -0.2618609 -0.09032143 -0.23120928
