government_icfes_dataset/mlartifacts/294710831823527254/1457e237d9b64bf2ad494395a64d778c/artifacts/model/data/model.pth (torch, 746816 bytes, 39 tensors)

weight f4 [4, 8]
0.32490522 -0.99778634 0.0218981 0.6243751 -0.14588098 0.021504393 -0.5438326 -1.7373424
-0.61015284 -0.69700307 -0.2600083 1.4629738 0.71328294 -0.5162185 -0.5705471 -1.5763687
-0.7189448 0.5986575 0.8743489 -0.00044486905 -0.719931 0.12227393 -0.18710327 0.41696268
0.5226022 -1.3082112 -0.32310522 1.3152101 0.2718658 0.3691322 -2.2824736 0.8887731
00000000: fa59 a63e ed6e 7fbf a563 b33c 0cd7 1f3f
00000010: d361 15be fb29 b03c 9d38 0bbf 3c61 debf
00000020: fa32 1cbf cb6e 32bf cf1f 85be ba42 bb3f
00000030: b699 363f e526 04bf 600f 12bf 73c6 c9bf
00000040: c40c 38bf 9e41 193f 54d5 5f3f 503d e9b9
00000050: 664d 38bf c16a fa3d 0098 3fbe 227c d53e
00000060: 42c9 053f 7773 a7bf 0c6e a5be ce58 a83f
00000070: fe31 8b3e e5fe bc3e 0c14 12c0 a286 633f

weight f4 [3, 8]
0.6932776 -0.2026149 0.74582744 1.8765737 -0.068759225 0.14573897 -0.3644614 1.0912029
1.2618076 0.36429107 -1.9569472 0.5497127 -0.00088629365 -1.537296 1.1370419 0.2269753
1.330756 1.5176393 0.245083 -1.4794277 -0.8190671 0.28701624 -0.46657267 0.36000252
00000000: a47a 313f 487a 4fbe 8cee 3e3f 9133 f03f
00000010: a3d1 8cbd 993c 153e af9a babe 89ac 8b3f
00000020: e982 a13f 5c84 ba3e 3f7d fabf f9b9 0c3f
00000030: 2956 68ba 1ec6 c4bf 978a 913f 376c 683e
00000040: 3656 aa3f 0142 c23f 0af7 7a3e e35d bdbf
00000050: 62ae 51bf cbf3 923e 9de2 eebe 4052 b83e

weight f4 [5, 8]
-0.8977901 0.85932887 -0.45771274 -0.37723884 0.62724155 0.38715142 -0.19910339 0.64461964
-0.017529828 0.62337273 -0.88737255 1.1827105 0.54214424 -1.2311778 -0.6245551 -2.3356712
-1.2757199 -0.4589465 0.10932683 -0.03915843 -0.97804326 -0.07991069 -0.00058069354 1.0358742
0.05076329 1.9681294 0.69649947 -2.965448 -1.0196903 -0.21471979 0.33709723 -0.51392174
-0.6870286 -0.37231714 0.31841037 -0.024851957 -0.32792237 -0.4489295 -0.8950032 -0.003463495
00000000: 92d5 65bf fafc 5b3f 5359 eabe 7325 c1be
00000010: e792 203f b638 c63e c2e1 4bbe cb05 253f
00000020: b79a 8fbc 5b95 1f3f d92a 63bf 0f63 973f
00000030: f7c9 0a3f 3c97 9dbf d8e2 1fbf a37b 15c0
00000040: ca4a a3bf 09fb eabe bfe6 df3d 9764 20bd
00000050: 0b61 7abf 37a8 a3bd af39 18ba 8797 843f
00000060: 2bed 4f3d aaeb fb3f ca4d 323f e6c9 3dc0
00000070: 3685 82bf 81df 5bbe 0298 ac3e 6090 03bf
00000080: 1be1 2fbf 5aa0 bebe af06 a33e 5596 cbbc
00000090: 71e5 a7be 16da e5be ee1e 65bf cefb 62bb

weight f4 [7, 8]
0.03130824 1.6134397 -1.8211781 -1.7148359 -1.3090348 -1.8012711 -0.578847 0.9116844
0.94694304 -0.9761046 -0.5528603 0.8956929 -0.7665896 0.5723786 -0.47820824 -0.93590605
0.27826467 0.9330247 0.31011957 -0.28158838 1.444658 0.975432 -1.157368 0.110000506
-0.30122557 0.042897828 -0.25207597 -2.754674 -0.07856987 -0.63547105 -0.7980651 0.2390616
0.33713523 0.048573118 2.1990745 0.14151238 -1.0401491 0.35899365 -0.42058107 -1.0533307
1.0370427 -0.747298 -0.7698325 -0.61312455 -1.0662202 -0.3370085 -0.20249297 -0.11658726
2.0451794 0.7820162 -1.417591 1.3495582 0.39745876 0.15834017 0.920734 -1.1683378
00000000: 123d 003d 3185 ce3f 5d1c e9bf be7f dbbf
00000010: 748e a7bf 0d90 e6bf 512f 14bf 2664 693f
00000020: dc6a 723f fee1 79bf 4188 0dbf 214c 653f
00000030: 373f 44bf 6787 123f b6d7 f4be 8a97 6fbf
00000040: b578 8e3e b5da 6e3f fec7 9e3e 5a2c 90be
00000050: 8eea b83f e9b5 793f a224 94bf f247 e13d
00000060: 3d3a 9abe a2b5 2f3d 1a10 81be 944c 30c0
00000070: 3de9 a0bd 3bae 22bf ff4d 4cbf 90cc 743e
00000080: fd9c ac3e 9bf4 463d a3bd 0c40 9fe8 103e
00000090: 9b23 85bf 04ce b73e 6756 d7be 8ad3 86bf
000000a0: d1bd 843f ec4e 3fbf be13 45bf bbf5 1cbf
000000b0: e779 88bf 618c acbe 515a 4fbe 4dc5 eebd
000000c0: 38e4 0240 3732 483f 9f73 b5bf 53be ac3f
000000d0: b77f cb3e ed23 223e 39b5 6b3f 188c 95bf

weight f4 [7, 8]
-0.7723359 -0.83742625 1.2840301 0.89113355 -2.111019 0.9380556 -1.0456738 0.019541273
0.387854 0.24154389 0.6098414 -0.044974945 1.827304 -0.90214324 -0.46609426 0.4498068
1.5478837 0.66264415 0.19308189 0.017470876 -0.20295714 -0.45459893 0.303271 -0.98211926
1.4958761 0.39626414 0.10185228 0.14195569 -0.24974221 -0.38324305 0.48377118 -0.6154448
0.5240555 -0.11222331 0.25282478 0.59594953 -0.82790637 1.7458633 0.58653253 1.1451551
-2.1471791 1.9353827 0.1194605 -0.01916872 0.069330946 -0.22109796 -1.8892176 -0.3412362
1.1664125 -0.4208332 -0.8237073 0.7760558 0.2923703 -1.4484172 -1.6903712 0.44757697
00000000: ceb7 45bf 9161 56bf 195b a43f 5421 643f
00000010: ef1a 07c0 6924 703f a4d8 85bf 0515 a03c
00000020: cd94 c63e 4857 773e 911e 1c3f a637 38bd
00000030: 19e5 e93f dcf2 66bf e8a3 eebe 144d e63e
00000040: 0e21 c63f 0ca3 293f 42b7 453e 151f 8f3c
00000050: ffd3 4fbe 31c1 e8be 5646 9b3e 2b6c 7bbf
00000060: de78 bf3f 22e3 ca3e ee97 d03d d55c 113e
00000070: 6cbc 7fbe 6f38 c4be dbb0 f73e ca8d 1dbf
00000080: 8028 063f 56d5 e5bd 4072 813e 2690 183f
00000090: acf1 53bf 7378 df3f ff26 163f 7194 923f
000000a0: 626b 09c0 9fba f73f b5a7 f43d b807 9dbc
000000b0: 62fd 8d3d 8167 62be e2d1 f1bf 83b6 aebe
000000c0: 014d 953f 7377 d7be 7bde 52bf 98ab 463f
000000d0: 8fb1 953e bc65 b9bf 155e d8bf cf28 e53e

weight f4 [1025, 8]
-0.37364948 1.1316413 0.21017966 1.3670706 -2.3115935 -0.44340745 -0.57289624 0.041690975
-0.8688924 0.13144583 0.43646306 1.3777909 -1.0084002 0.15510775 -1.7045705 -0.16356142
2.0496233 0.30467993 -0.869406 0.46561918 -0.5910885 0.45573273 3.1692727 0.90814596
-0.4446798 -0.14471672 -0.63692015 -1.5407118 -0.014506505 -0.84860307 -0.7219408 -0.18392684
0.57831955 -0.8861138 0.98797655 0.858328 0.9605954 1.0814991 -2.1007786 0.2909637
-0.6474938 -0.62200433 0.36297217 -1.5760894 -0.9404447 0.15892951 -0.38427904 -0.20701964
0.44026065 0.5625706 -0.44419608 -0.19604246 0.16145907 0.8810225 0.9876375 -0.24291544
-1.2065855 -0.33874518 -0.7987036 1.3989387 1.3816427 -0.8666843 0.09495767 1.6826432
1.2675049 2.4881787 0.13872197 0.7642378 0.47599915 1.9599438 -0.11632851 1.2600889
0.23370995 0.52080184 2.601236 -0.2572141 -0.22228304 -1.2247257 -0.48574933 -0.9795664
-0.6391578 0.058561612 0.20985243 -0.77403885 0.6525089 1.1131889 -0.55452484 1.2269499
-0.79175735 0.78872424 0.74708307 0.72118855 -0.28022414 -1.5745724 1.4985358 -0.8863651
0.37486076 -0.7262191 0.065749384 0.21582386 -0.8733456 0.009451849 0.14632086 0.1042932
-1.0984344 1.074513 -2.4405086 0.042758167 0.75429124 2.0516717 1.1203804 -0.40209696
0.16873865 -0.21436982 0.49444944 0.4573781 -0.83248913 1.2249231 0.5294182 0.006822579
0.5319946 -2.1086383 -0.018920053 -0.4725578 0.46786886 0.02183648 1.8874094 -0.28449398
0.93896455 -0.69609773 0.980293 -0.08713636 2.4659789 0.6485994 0.7595997 -2.4298682
0.71868205 0.013968194 0.3880111 0.24902295 0.31060946 0.25360137 0.19638607 -1.0695885
0.56675327 -0.04201714 -0.34848702 -0.4644508 -0.41224155 -0.47104418 0.6287301 -1.0072715
-1.534206 -0.71568865 -0.204692 1.9571958 0.055545196 -0.37760264 -0.19976708 -0.17720841
0.87528944 1.1695013 -0.37887082 -0.4889279 0.7302578 0.3877323 -0.7304486 0.37766737
-0.4850962 -0.5829969 0.7121144 -1.2361945 -0.34582233 -0.45634234 1.580588 -1.4652481
0.16268696 -1.3731666 -0.0045467853 0.37781 -0.9452854 -0.95186335 -0.40534073 0.61006165
-1.1242789 0.06488863 -0.38275564 -1.6647071 -0.026571756 1.0344069 -0.8198117 1.4574115
-0.46582687 0.44283614 0.6475184 1.1731281 0.940916 0.91751856 1.1120541 -0.6236411
0.053927295 2.0622056 -0.82686615 -0.6463309 -0.20649996 0.48447412 -0.53662354 -0.9166413
-0.16769257 0.67449003 0.010025875 -1.2913046 0.579414 -1.0343518 -0.13865733 0.2302101
0.107484825 0.8272886 -1.304253 -0.22140117 -0.033021055 -0.96336234 -0.042010527 -1.488459
-0.88120615 2.3549397 0.2088286 -1.1321915 0.48786303 0.1419546 2.0028317 1.5914766
-0.85456043 -0.41734993 -0.094098926 -2.4996538 1.0637964 0.9110981 -0.94775057 1.039919
1.2880216 -0.6034748 -1.8839587 0.73017985 0.34637022 0.04062341 1.4279277 -1.7352657
-0.34578046 -0.60200405 -1.0022966 0.012186589 1.999929 0.7157535 -1.7746348 1.2281296
00000000: fc4e bfbe 9fd9 903f 5639 573e 2bfc ae3f
00000010: 26f1 13c0 4d06 e3be 54a9 12bf 28c4 2a3d
00000020: bb6f 5ebf bc99 063e 1678 df3e 745b b03f
00000030: 4213 81bf 91d4 1e3e 5e2f dabf a57c 27be
00000040: 072d 0340 02ff 9b3e 6491 5ebf a365 ee3e
00000050: 9351 17bf cd55 e93e 5dd5 4a40 417c 683f
00000060: 12ad e3be 9f30 14be 330d 23bf 0b36 c5bf
00000070: b1ac 6dbc 0d3e 59bf 1dd1 38bf 5157 3cbe
00000080: c00c 143f 5bd8 62bf 08ec 7c3f 62bb 5b3f
00000090: 95e9 753f 906e 8a3f 2873 06c0 32f9 943e
000000a0: 27c2 25bf ad3b 1fbf 7dd7 b93e 4cbd c9bf
000000b0: fcc0 70bf 6bbe 223e 39c0 c4be f5fc 53be
000000c0: d869 e13e a004 103f ab6d e3be 5bbf 48be
000000d0: 8755 253e b18a 613f d0d5 7c3f d3be 78be
000000e0: 6571 9abf 0270 adbe d777 4cbf 6c10 b33f
000000f0: abd9 b03f 06df 5dbf 2b79 c23d da60 d73f
00000100: 9a3d a23f 523e 1f40 220d 0e3e 17a5 433f
00000110: 29b6 f33e 70df fa3f a43d eebd 984a a13f
00000120: a951 6f3e 4553 053f a77a 2640 91b1 83be
00000130: 2a9e 63be d0c3 9cbf 23b4 f8be ddc4 7abf
00000140: d89f 23bf 4dde 6f3d 8ee3 563e 6927 46bf
00000150: d30a 273f f97c 8e3f 57f5 0dbf b20c 9d3f
00000160: 9cb0 4abf d5e9 493f d640 3f3f d09f 383f
00000170: 8a79 8fbe 978b c9bf 05d0 bf3f d3e8 62bf
00000180: c0ed bf3e 7fe9 39bf 9da7 863d ee00 5d3e
00000190: 9493 5fbf eedb 1a3c 23d5 153e ac97 d53d
000001a0: 8099 8cbf a489 893f 4b31 1cc0 3023 2f3d
000001b0: 3b19 413f 974e 0340 a068 8f3f a7df cdbe
000001c0: d3c9 2c3e c383 5bbe 7a28 fd3e 762d ea3e
000001d0: 021e 55bf 48ca 9c3f f387 073f f18f df3b
000001e0: cc30 083f eef3 06c0 3afe 9abc 19f3 f1be
000001f0: 828c ef3e 6be2 b23c a296 f13f 32a9 91be
00000200: fb5f 703f 7633 32bf 7bf4 7a3f 8c74 b2bd
00000210: 99d2 1d40 9c0a 263f 2075 423f f682 1bc0
00000220: 8cfb 373f dada 643c 64a9 c63e dfff 7e3e
00000230: 3408 9f3e 0ad8 813e 6e19 493e 47e8 88bf
00000240: be16 113f 2a1a 2cbd e46c b2be 7fcc edbe
00000250: 5311 d3be b42c f1be 75f4 203f 46ee 80bf
00000260: dd60 c4bf 5f37 37bf c89a 51be 6485 fa3f
00000270: 5c83 633d 2255 c1be be8f 4cbe 1f76 35be
00000280: f812 603f 38b2 953f 5bfb c1be c254 fabe
00000290: 2df2 3a3f d984 c63e aefe 3abf 9e5d c13e
000002a0: 875e f8be 493f 15bf 214d 363f 9f3b 9ebf
000002b0: a00f b1be b4a5 e9be b550 ca3f 408d bbbf
000002c0: 6997 263e ecc3 afbf 33fd 94bb 5070 c13e
000002d0: 39fe 71bf 51ad 73bf d288 cfbe 002d 1c3f
000002e0: 5fe8 8fbf 54e4 843d 8cf8 c3be 1f15 d5bf
000002f0: 03ad d9bc 7267 843f 2edf 51bf 768c ba3f
00000300: dc80 eebe 6bbb e23e c4c3 253f 1029 963f
00000310: dfdf 703f 7fe2 6a3f ca57 8e3f f1a6 1fbf
00000320: dee2 5c3d 2dfb 0340 80ad 53bf f175 25bf
00000330: ba74 53be fe0c f83e 2960 09bf 01a9 6abf
00000340: 9ab7 2bbe 61ab 2c3f 9143 243c 7849 a5bf
00000350: 7a54 143f a465 84bf 30fc 0dbe 32bc 6b3e
00000360: 0121 dc3d 30c9 533f c3f1 a6bf fdb6 62be
00000370: 1641 07bd ea9e 76bf 3b13 2cbd d385 bebf
00000380: ba96 61bf 55b7 1640 2ad7 553e a7eb 90bf
00000390: 2fc9 f93e 8c5c 113e 652e 0040 81b5 cb3f
000003a0: 79c4 5abf e4ae d5be f0b6 c0bd 54fa 1fc0
000003b0: 7b2a 883f ba3d 693f c89f 72bf 111c 853f
000003c0: e4dd a43f 537d 1abf 8f25 f1bf 11ed 3a3f
000003d0: 7057 b13e bc64 263d 56c6 b63f 301d debf
000003e0: 230a b1be f01c 1abf 414b 80bf 42aa 473c
000003f0: acfd ff3f 9f3b 373f 3c27 e3bf 5a33 9d3f

weight f4 [3, 8]
0.29542387 -1.122884 -0.38536513 0.17194155 1.8134228 0.7476845 0.5262281 -0.7711724
-0.26538694 1.3762463 0.66617715 -0.444483 -0.5562539 1.4740765 1.5189737 -0.39605218
-0.11399226 -0.42693147 -1.2574781 -1.0011783 0.57964414 0.33985603 -0.53794247 -1.745897
00000000: cc41 973e aaba 8fbf 944e c5be 7211 303e
00000010: 3d1e e83f 4068 3f3f e2b6 063f 8e6b 45bf
00000020: cce0 87be d728 b03f 968a 2a3f 4793 e3be
00000030: a866 0ebf 8aae bc3f bb6d c23f 5ac7 cabe
00000040: c674 e9bd c396 dabe 0bf5 a0bf 9c26 80bf
00000050: 8f63 143f 9c01 ae3e 99b6 09bf 8e79 dfbf

weight f4 [7, 8]
2.002725 1.8399695 -0.84659714 0.96050185 -0.47849637 -0.013211216 0.6894987 -0.4907517
-0.69439393 -0.56638277 -0.28081736 0.9723146 0.052755132 1.0353446 0.37605688 0.44295475
0.6636646 1.5508183 -0.013234238 -0.57554984 0.6664885 1.5278808 0.57979447 0.20951357
0.20955865 -1.7091551 1.8193638 -0.84263116 -2.5490155 -1.2089472 -0.61283594 -0.7670696
-1.4861927 0.8443255 -2.0316079 -1.997085 -0.5932519 -1.0279328 -1.943108 -1.0787531
0.5213644 -1.0326058 -0.63080966 0.25016287 -1.6334403 0.16379738 -0.14597225 0.8124307
-1.6514803 -1.4894589 -1.069915 -0.55204755 1.6927123 0.33328965 -0.6661507 0.6868441
00000000: a52c 0040 1f84 eb3f 97ba 58bf 73e3 753f
00000010: 7afd f4be db73 58bc fd82 303f cf43 fbbe
00000020: cdc3 31bf 76fe 10bf 4bc7 8fbe 9ce9 783f
00000030: c415 583d 2c86 843f 878a c03e f7ca e23e
00000040: ece5 293f 3781 c63f 6bd4 58bc 3c57 13bf
00000050: fe9e 2a3f 9991 c33f 696d 143f ba8a 563e
00000060: 8b96 563e 98c5 dabf eae0 e83f adb6 57bf
00000070: 1223 23c0 c8be 9abf d1e2 1cbf ac5e 44bf
00000080: 903b bebf b725 583f dd05 02c0 7ba0 ffbf
00000090: 5bdf 17bf 4d93 83bf c3b7 f8bf 9514 8abf
000000a0: 2378 053f 6d2c 84bf be7c 21bf 5915 803e
000000b0: 9214 d1bf 80ba 273e c079 15be 75fb 4f3f
000000c0: b563 d3bf 97a6 bebf faf2 88bf fd52 0dbf
000000d0: ccaa d83f f1a4 aa3e da88 2abf 04d5 2f3f

weight f4 [7, 8]
0.27164117 0.6067448 0.2445366 -0.06351234 0.396389 0.97089183 0.82127446 -0.2962628
0.06618823 0.43374416 -0.5925077 0.7160909 0.79931736 -0.58127755 0.43157515 -0.9128974
-1.5790855 0.35752603 -1.1124622 0.06302423 0.70323765 0.18238123 0.58103216 -0.4692959
-0.8894512 1.0150279 -0.11721733 -0.71406907 -0.2889172 0.9002374 0.30091742 -0.22225791
-1.71613 0.11031451 -0.040988006 0.6624853 0.37591553 -0.13925351 -0.15633628 -0.7597037
-0.2642005 0.5943996 0.47998297 0.30066723 1.1688561 1.0783379 0.6618016 -0.52896637
-1.4705437 -1.5174385 0.97052485 2.5952387 -2.3001246 -0.4234407 -1.1049039 0.77828705
00000000: 8d14 8b3e a153 1b3f cd67 7a3e c212 82bd
00000010: 80f3 ca3e 5e8c 783f 0b3f 523f c2af 97be
00000020: b28d 873d b713 de3e 96ae 17bf bc51 373f
00000030: 10a0 4c3f 9bce 14bf 6bf7 dc3e a5b3 69bf
00000040: 791f cabf a70d b73e 2965 8ebf d912 813d
00000050: 6207 343f 25c2 3a3e 86be 143f 8d47 f0be
00000060: 13b3 63bf 6fec 813f a40f f0bd 3bcd 36bf
00000070: f5ec 93be f575 663f d911 9a3e 9497 63be
00000080: 26aa dbbf 93ec e13d 0ae3 27bd a398 293f
00000090: 0078 c03e 7998 0ebe 9e16 20be f17b 42bf
000000a0: 4a45 87be 922a 183f 54c0 f53e 0ef1 993e
000000b0: 149d 953f fa06 8a3f d46b 293f 576a 07bf
000000c0: c73a bcbf 6d3b c2bf 5174 783f 6418 2640
000000d0: 3e35 13c0 38cd d8be 7e6d 8dbf d23d 473f

weight f4 [3, 8]
-0.52570754 -0.3634805 -0.36532256 0.04491747 -0.59810287 1.3408693 -1.7936647 -2.5336652
0.57717776 1.4759681 0.4168924 1.1156651 1.023214 0.68908864 -0.9509662 0.7748623
-1.4496294 -1.055531 0.33467025 -1.7250222 -0.32815066 -0.080044314 -0.6144604 -0.3165834
00000000: c594 06bf 1e1a babe 8f0b bbbe 62fb 373d
00000010: 451d 19bf 9ba1 ab3f ce96 e5bf 9227 22c0
00000020: ecc1 133f 86ec bc3f ec72 d53e 1dce 8e3f
00000030: adf8 823f 1d68 303f 8572 73bf 605d 463f
00000040: 758d b9bf a41b 87bf e659 ab3e 87cd dcbf
00000050: 5d03 a8be 46ee a3bd 474d 1dbf 3817 a2be

weight f4 [427, 8]
-1.3321115 0.23671111 1.512383 0.93204683 0.41626278 0.53852886 -0.36053547 0.26611534
1.2378986 0.29276788 -2.2312376 0.88335913 -2.2133229 -0.5871163 -1.8998986 0.81521237
-0.5036675 1.5061204 0.7567037 0.68400866 0.36900464 0.71770495 0.8294955 -0.7590524
-1.8254179 0.7295609 0.7280473 1.5388815 0.37840313 -1.1995693 -1.5663192 -1.0262748
-1.8997192 1.3924695 0.2672243 0.4066749 -1.0438203 -0.11996862 -0.16514318 0.27201435
-1.1149621 0.4301454 1.2412462 -0.62890863 0.42404234 0.20389289 -0.31810543 -0.11623462
-0.781385 1.4518405 -0.5299462 1.4097277 -0.51809144 1.560275 1.0558925 0.44330645
-0.5881269 -1.3842026 2.439937 -0.97657275 -0.9470173 1.28568 -0.3600316 -1.817539
0.12734622 0.02262775 -0.3545615 -1.2216458 -0.54341865 1.519554 0.8125544 0.020778863
-0.25633314 -0.6298964 2.4341464 0.7510469 1.0461663 0.34034982 0.28664398 -0.20748274
1.9710877 0.1559558 1.0047019 0.6245636 -1.5836247 0.4702796 0.30304518 0.10751769
-0.0657901 1.3608568 1.7775984 2.6025145 -0.8859573 0.9559941 -0.16302113 -0.051890254
0.33765593 0.16922063 -0.016000602 -0.13660486 -0.03488276 1.8319018 -1.7098532 -0.7585509
1.7871555 0.68430513 0.58319384 0.4844487 0.020581603 -0.44344676 -2.010472 0.650636
-1.0402609 -0.55683684 0.3864448 0.27599603 0.4070197 -2.094484 0.11589315 -0.046692684
-0.12693858 1.7985778 -0.04956249 0.39578292 1.190983 -0.38901198 1.1951108 -0.58341974
-0.62175095 2.0569537 0.7101242 -1.9185773 -0.4208665 0.35888505 -0.7651979 1.1216804
-0.9685816 -0.21139239 0.13204217 -0.8648134 0.31089523 -1.6060746 1.0217226 0.21975777
-1.0995088 0.33322328 1.151135 -0.36769176 1.049383 -0.6139649 1.159597 -0.66471684
0.4261278 -1.1564269 1.9316676 -0.55951077 0.9988176 1.0295765 -1.5457217 -0.1590343
-0.12010846 -0.033079892 -0.98764586 -0.4298543 0.50148416 0.51295567 0.1553533 -1.5361027
-1.1874532 -0.47657615 0.7576651 1.0244198 -0.53334063 -0.32197002 -0.8127886 1.2664957
-0.72353363 -0.9715287 0.1338479 0.16308114 -0.4828611 -1.1188745 -1.4157878 0.627855
0.683414 0.38253343 -1.3100811 0.4294301 -0.013538004 -0.62524855 -0.82941467 -0.79790103
-0.07749816 -0.914283 -0.14656983 -2.9062712 2.5106466 -3.580045 -0.9193087 -0.59224695
-0.92854744 -0.5447199 -0.5238336 1.5083082 0.9927581 -1.1403799 -0.104186386 -1.234478
0.016398653 -0.8976018 0.13778795 -0.4773808 -0.96374285 0.20872062 -0.7336559 0.33402097
0.32223514 0.16565228 0.09116313 -0.071161404 0.25858426 -0.8606859 -1.0718739 0.7427469
0.92454326 0.7379276 0.18640745 0.1459018 0.25091994 1.1171172 -0.53308207 -1.5975416
0.18603037 -0.16196996 2.9420524 0.8820784 0.7767028 0.15824966 0.45153615 -0.3445002
-0.7674703 0.37619781 -0.47057614 -1.2178916 -0.6892255 -0.93799263 0.3784175 1.0458256
1.1263021 1.2229203 -0.6613278 -0.6950182 1.4941299 0.1268989 -0.2285284 0.92093635
00000000: a182 aabf 6664 723e c495 c13f 9f9a 6e3f
00000010: 6520 d53e 07dd 093f 1b98 b8be 4540 883e
00000020: 7673 9e3f ace5 953e 99cc 0ec0 d323 623f
00000030: 15a7 0dc0 414d 16bf e12f f3bf c2b1 503f
00000040: 5af0 00bf 8ec8 c03f 55b7 413f 311b 2f3f
00000050: 2dee bc3e 83bb 373f d159 543f 4251 42bf
00000060: 4ba7 e9bf 81c4 3a3f 4f61 3a3f 12fa c43f
00000070: 0ebe c13e 7d8b 99bf 267d c8bf f95c 83bf
00000080: 002a f3bf 713c b23f a0d1 883e b137 d03e
00000090: e79b 85bf 1cb2 f5bd 4b1b 29be 7745 8b3e
000000a0: 14b7 8ebf 053c dc3e 28e1 9e3f 2800 21bf
000000b0: 141c d93e 4cc9 503e b7de a2be 6b0c eebd
000000c0: d908 48bf e9d5 b93f 8eaa 07bf f571 b43f
000000d0: a4a1 04bf 17b7 c73f 7c27 873f 10f9 e23e
000000e0: 7c8f 16bf 8d2d b1bf ee27 1c40 ac00 7abf
000000f0: ba6f 72bf 2a91 a43f 1056 b8be 1ea5 e8bf
00000100: 0c67 023e d55d b93c 1689 b5be e45e 9cbf
00000110: 7c1d 0bbf bf80 c23f 9103 503f 6f38 aa3c
00000120: 193e 83be e440 21bf 0ec9 1b40 9c44 403f
00000130: c7e8 853f 5542 ae3e 00c3 923e 5b76 54be
00000140: 9a4c fc3f e1b2 1f3e 129a 803f 66e3 1f3f
00000150: 37b4 cabf 7dc8 f03e bd28 9b3e 3c32 dc3d
00000160: f6bc 86bd 8e30 ae3f 5888 e33f 998f 2640
00000170: 19ce 62bf 08bc 743f 03ef 26be e08a 54bd
00000180: 3de1 ac3e 2c48 2d3e b213 83bc 25e2 0bbe
00000190: 3ae1 0ebd c27b ea3f 78dc dabf 6430 42bf
000001a0: 83c1 e43f 9f2e 2f3f 314c 153f a909 f83e
000001b0: c09a a83c 740b e3be 93ab 00c0 1590 263f
000001c0: 4527 85bf dc8c 0ebf 18dc c53e 5a4f 8d3e
000001d0: e364 d03e 070c 06c0 6359 ed3d d440 3fbd
000001e0: 30fc 01be cc37 e63f 0a02 4bbd 0fa4 ca3e
000001f0: 2272 983f 942c c7be 64f9 983f ff5a 15bf
00000200: 122b 1fbf 21a5 0340 b3ca 353f f193 f5bf
00000210: d07b d7be c8bf b73e 02e4 43bf 3993 8f3f
00000220: f7f4 77bf 3f77 58be 1036 073e 6964 5dbf
00000230: a92d 9f3e da93 cdbf cec7 823f 2e08 613e
00000240: b4bc 8cbf 3e9c aa3e 6458 933f 1842 bcbe
00000250: 2f52 863f ce2c 1dbf ad6d 943f e22a 2abf
00000260: 6c2d da3e cc05 94bf e240 f73f 193c 0fbf
00000270: 83b2 7f3f 2ac9 833f 35da c5bf e3d9 22be
00000280: 6dfb f5bd c87e 07bd 5cd6 7cbf dd15 dcbe
00000290: 4461 003f 1051 033f ef14 1f3e 039f c4bf
000002a0: 77fe 97bf ca01 f4be 57f6 413f 3020 833f
000002b0: 0389 08bf 41d9 a4be ea12 50bf 881c a23f
000002c0: 8039 39bf 1bb6 78bf 6d0f 093e befe 263e
000002d0: 9239 f7be 4837 8fbf 8938 b5bf 1bbb 203f
000002e0: 38f4 2e3f 6cdb c33e bdb0 a7bf 43de db3e
000002f0: 81ce 5dbc 4a10 20bf 8554 54bf 3e43 4cbf
00000300: 5bb7 9ebd 730e 6abf 6716 16be 5900 3ac0
00000310: 6fae 2040 751f 65c0 d157 6bbf 7f9d 17bf
00000320: 49b5 6dbf c372 0bbf f519 06bf 3e10 c13f
00000330: 6525 7e3f f8f7 91bf ac5f d5bd 6003 9ebf
00000340: 7856 863c 3bc9 65bf 4918 0d3e 426b f4be
00000350: dab7 76bf dcba 553e e0d0 3bbf cc04 ab3e
00000360: 01fc a43e c0a0 293e bcb3 ba3d 12bd 91bd
00000370: 2865 843e e955 5cbf 2a33 89bf a924 3e3f
00000380: deae 6c3f d3e8 3c3f 98e1 3e3e 4867 153e
00000390: 9478 803e b2fd 8e3f 1178 08bf 3e7c ccbf
000003a0: bf7e 3e3e 74db 25be 964a 3c40 e4cf 613f
000003b0: ffd5 463f 330c 223e bf2f e73e 5562 b0be
000003c0: ef78 44bf 009d c03e 5bef f0be dfe3 9bbf
000003d0: 1571 30bf 4920 70bf f0bf c13e 9ddd 853f
000003e0: ab2a 903f a788 9c3f c74c 29bf b6ec 31bf
000003f0: a63f bf3f c9f1 013e 5903 6abe 7cc2 6b3f

weight f4 [1030, 8]
-0.61211395 -0.29153678 1.1906656 0.09286585 -0.32451358 -0.32659122 1.0506992 -1.534178
1.0004858 -0.7793469 -1.5187995 1.2592665 0.11097712 -0.6152353 1.7966604 -0.92064387
1.7131704 0.9069561 1.1408328 -0.87372184 1.5038218 2.8075044 0.8551227 -0.56591374
1.0550002 0.65822434 0.53753865 -1.3047235 0.20789693 -2.3676682 1.4381248 0.7018182
1.846068 0.7443288 0.2601089 0.40472254 -0.037493072 -0.21787184 -1.2017026 -1.0562892
-1.2785032 0.5404277 -0.14607455 0.6796309 -1.6652544 0.07733267 0.3645357 -0.38552785
-0.9801255 0.6610308 0.9992127 -1.2732365 -1.2820748 -1.1605252 -1.3967912 -0.4607319
1.2957364 -0.2981987 0.8813517 1.4893572 0.1306694 -0.43680492 -1.542443 0.68890816
0.13342144 1.1775287 0.3705151 0.7726512 -0.13062799 -0.1170003 -0.30976054 0.26634172
-1.2835473 0.8069006 0.29420564 0.499584 1.1565746 -0.65092635 -1.2252288 -0.78205866
-1.3904624 -0.5565152 0.8484304 -0.39161325 -1.034126 0.80511636 -0.5800111 0.032600503
-3.1748555 -0.4073162 -1.5234939 0.18811965 -0.42312902 0.59590083 -0.023535391 0.27938548
-0.34434292 0.00014202377 -0.74405545 -1.1787975 0.17418553 -0.6609948 1.7153771 -0.41369516
-0.7157016 0.5714249 0.024052123 0.3672385 0.19978082 -1.1589502 -1.3112931 0.980747
0.9332311 0.56503886 0.2755689 -2.434241 -0.30814603 0.4955985 -0.4098719 0.40873262
-0.6710948 -2.6170774 -1.4714757 0.22270052 0.6413176 2.1109788 0.14185032 1.5048178
-0.058132336 -0.45703802 -0.2897681 -0.43898314 -0.46963778 -0.3519118 -0.54682606 -0.2038012
-0.18632644 0.49427325 0.7707374 -1.0219916 -0.7059042 1.1789607 0.4933379 -0.47481588
1.4400275 0.735376 0.0594743 -0.8485289 2.175048 -0.5456233 0.5858208 -2.6533132
-0.29480007 0.28184482 0.07438609 -1.2797805 -1.2585603 0.34353223 -1.6951118 1.9331447
0.8534766 0.6346593 0.070401095 -0.5927128 -0.36239037 0.64664036 0.113362074 0.6420208
1.7882054 1.3577199 -0.57187444 -0.1620134 1.3779709 -0.10811196 0.35088846 -0.9217029
2.0506535 -0.443385 -0.40786138 -0.26066387 0.09693196 0.34124494 1.3532785 0.2363633
0.11855765 0.26738346 -0.069121845 -0.96390754 1.4561169 -2.1522844 -0.74401873 -1.5217208
0.5317282 -0.6224412 -1.3720082 0.8684036 1.8516529 -0.95295167 0.15557076 1.3074796
0.6495195 0.21976736 0.39875948 0.059644174 -1.3616401 -0.38623 -0.84845144 2.0530427
0.75792265 -0.9005317 -1.1624547 -0.31862944 0.0753708 -0.92093533 0.7596365 -1.5234528
0.97956187 -1.995593 1.4227673 -0.2791113 -0.836625 -0.35254514 -1.6488575 0.040579546
-0.13848892 -0.14448027 -1.1179006 0.7514165 -1.745523 -1.1115834 -1.3578779 1.1238496
0.076932795 -1.0071874 0.4488356 -2.3753374 0.049442302 -1.6542022 2.6607473 1.754333
-0.89257354 -2.3840823 0.40427315 0.94715905 1.7364708 0.095115095 -1.429987 -0.50181174
0.8730191 0.7255382 0.5902195 3.1638727 -1.0148947 0.37197182 -0.83318895 0.51624864
00000000: 80b3 1cbf 4f44 95be bb67 983f 7330 be3d
00000010: a526 a6be f736 a7be 507d 863f f25f c4bf
00000020: eb0f 803f 4783 47bf 0668 c2bf a52f a13f
00000030: f947 e33d 1080 1dbf f8f8 e53f 51af 6bbf
00000040: 2b49 db3f 462e 683f cf06 923f 3cac 5fbf
00000050: 3c7d c03f 27ae 3340 52e9 5a3f b9df 10bf
00000060: 3f0a 873f 6481 283f 229c 093f 2e01 a7bf
00000070: efe2 543e e087 17c0 7914 b83f 5caa 333f
00000080: f54b ec3f 558c 3e3f fe2c 853e cb37 cf3e
00000090: 5692 19bd cc19 5fbe 64d1 99bf 7c34 87bf
000000a0: fea5 a3bf 7859 0a3f 9194 15be 4afc 2d3f
000000b0: 0e27 d5bf 9760 9e3d 6ca4 ba3e e863 c5be
000000c0: 81e9 7abf 5139 293f 67cc 7f3f 6af9 a2bf
000000d0: 071b a4bf 178c 94bf 0eca b2bf 0de5 ebbe
000000e0: b1da a53f 80ad 98be 44a0 613f 42a3 be3f
000000f0: 33ce 053e e5a4 dfbe c66e c5bf 495c 303f
00000100: a19f 083e 43b9 963f 28b4 bd3e 78cc 453f
00000110: 58c3 05be da9d efbd ef98 9ebe f15d 883e
00000120: 474b a4bf 0a91 4e3f 1fa2 963e 79c9 ff3e
00000130: a30a 943f 1ca3 26bf 4cd4 9cbf ff34 48bf
00000140: acfa b1bf c877 0ebf bc32 593f 8881 c8be
00000150: 3e5e 84bf 1b1c 4e3f 9c7b 14bf 1b88 053d
00000160: d530 4bc0 c08b d0be d901 c3bf 70a2 403e
00000170: 5ea4 d8be f58c 183f 4bcd c0bc 9d0b 8f3e
00000180: b74d b0be 37ec 1439 6b7a 3ebf d6e2 96bf
00000190: b15d 323e f536 29bf 7a91 db3f dacf d3be
000001a0: 3838 37bf e748 123f f508 c53c af06 bc3e
000001b0: 5893 4c3e 7b58 94bf 74d8 a7bf 3c12 7b3f
000001c0: 3ce8 6e3f 63a6 103f 5e17 8d3e 9bca 1bc0
000001d0: 51c5 9dbe 16bf fd3e bbda d1be 6745 d13e
000001e0: decc 2bbf 327e 27c0 5159 bcbf 9b0b 643e
000001f0: 642d 243f 471a 0740 3641 113e df9d c03f
00000200: 2c1c 6ebd e300 eabe 7c5c 94be 66c2 e0be
00000210: 5d74 f0be c92d b4be cbfc 0bbf 43b1 50be
00000220: 5ccc 3ebe 6211 fd3e 0c4f 453f 9fd0 82bf
00000230: 23b6 34bf 2fe8 963f c996 fc3e 111b f3be
00000240: d252 b83f 9a41 3c3f 539b 733d 3139 59bf
00000250: fd33 0b40 f8ad 0bbf 5af8 153f e2cf 29c0
00000260: 09f0 96be f74d 903e bc57 983d d9cf a3bf
00000270: 8118 a1bf 75e3 af3e 6cf9 d8bf 4971 f73f
00000280: 717d 5a3f 0879 223f 732e 903d 07bc 17bf
00000290: 3b8b b9be 398a 253f 602a e83d 7a5b 243f
000002a0: eae3 e43f c4c9 ad3f 5d66 12bf d7e6 25be
000002b0: 5a61 b03f ce69 ddbd a7a7 b33e b9f4 6bbf
000002c0: e83d 0340 5c03 e3be 35d3 d0be bc75 85be
000002d0: 4384 c63d a8b7 ae3e 3b38 ad3f 3909 723e
000002e0: 5ace f23d 7ce6 883e c18f 8dbd a5c2 76bf
000002f0: 0a62 ba3f 07bf 09c0 0378 3ebf bfc7 c2bf
00000300: 571f 083f 4e58 1fbf f79d afbf b34f 5e3f
00000310: f602 ed3f a4f4 73bf f14d 1f3e 7e5b a73f
00000320: e946 263f b20a 613e 342a cc3e 734d 743d
00000330: 394a aebf f0bf c5be 1d34 59bf 0d65 0340
00000340: 3807 423f 3f89 66bf 51cb 94bf 6623 a3be
00000350: 025c 9a3d 6bc2 6bbf 8a77 423f 8000 c3bf
00000360: 91c4 7a3f 976f ffbf 3d1d b63f ade7 8ebe
00000370: 0e2d 56bf cc80 b4be c30d d3bf bd36 263d
00000380: 0ad0 0dbe a3f2 13be 5e17 8fbf d55c 403f
00000390: 4c6d dfbf 5d48 8ebf f1ce adbf 4eda 8f3f
000003a0: f18e 9d3d 84eb 80bf c8cd e53e 8705 18c0
000003b0: 0384 4a3d e6bc d3bf af49 2a40 fc8d e03f
000003c0: b37f 64bf ce94 18c0 e4fc ce3e 0479 723f
000003d0: ad44 de3f b4cb c23d d009 b7bf bc76 00bf
000003e0: 2e7e 5f3f dfbc 393f a018 173f e47c 4a40
000003f0: 12e8 81bf 1773 be3e df4b 55bf df28 043f

weight f4 [7, 8]
0.081837595 1.0905544 0.25562784 -0.05438432 -0.5232297 0.23454382 -0.5529484 0.9210063
-0.15579543 1.1662713 -0.2666492 -0.5696151 0.82220984 -1.1603085 0.008783076 0.4006281
0.22719696 0.78132147 0.19953348 0.5841143 -1.2813745 1.0230926 -1.0918608 -0.37903288
-0.22968502 0.60853446 -1.2117281 -0.4674785 0.4011975 -0.3649221 -1.6408911 0.6855657
1.8734794 1.1108139 -1.0383574 -0.7857264 -0.8583875 0.53433174 0.62592983 -1.0889598
1.8901176 0.094930604 -1.4378334 -1.6807666 -0.34784314 -0.21966943 -1.0380465 0.27092138
-0.9401787 -0.8753604 -1.1948742 0.019486185 0.7429982 -1.7712654 0.14400938 0.9249076
00000000: 789a a73d 4997 8b3f a7e1 823e 18c2 5ebd
00000010: 62f2 05bf 412c 703e 078e 0dbf 12c7 6b3f
00000020: d688 1fbe 6148 953f 3e86 88be 4cd2 11bf
00000030: 587c 523f fd84 94bf e4e6 0f3c 201f cd3e
00000040: 52a6 683e af04 483f 8152 4c3e 8488 153f
00000050: 1404 a4bf b3f4 823f 18c2 8bbf 9910 c2be
00000060: 8d32 6bbe eac8 1b3f e819 9bbf 5859 efbe
00000070: c269 cd3e 12d7 babe b808 d2bf 3c81 2f3f
00000080: 2cce ef3f 262f 8e3f e5e8 84bf 5e25 49bf
00000090: 48bf 5bbf f7c9 083f f03c 203f 0963 8bbf
000000a0: 60ef f13f fa6a c23d ed0a b8bf 5c23 d7bf
000000b0: 7f18 b2be 06f1 60be b5de 84bf 35b6 8a3e
000000c0: 8daf 70bf 9f17 60bf a3f1 98bf 7ea1 9f3c
000000d0: 2135 3e3f d3b8 e2bf 3277 133e bfc6 6c3f

weight f4 [7, 8]
1.0725546 1.3597319 0.8541332 -0.23049061 0.19788286 -0.25605673 -0.6399365 -0.30986622
2.12091 0.4219788 0.6569647 0.32049912 0.11711465 0.8838908 0.49229947 -0.3729842
-1.58579 1.5318474 1.7429498 -1.5992541 1.3414994 -1.6651452 -0.88596684 -0.42411432
-0.7300334 0.324158 -0.5026666 1.6227446 2.2734344 0.00946089 1.7640324 -0.53105223
1.5283389 0.26961213 0.50061595 -0.5367068 1.0414685 -1.6062554 0.33823425 0.4487689
-0.36087617 1.6903512 1.0691336 -0.33509308 1.4137536 -2.666964 -0.5068854 -1.2091097
0.3271408 -0.98835486 0.73861825 -0.20538656 -0.74334216 0.24448296 -0.1179686 1.7272534
00000000: 7849 893f b20b ae3f 79a8 5a3f bb05 6cbe
00000010: cea1 4a3e de19 83be e1d2 23bf c9a6 9ebe
00000020: fdbc 0740 9b0d d83e d72e 283f 7618 a43e
00000030: ced9 ef3d ab46 623f ad0e fc3e c9f7 bebe
00000040: 2bfb cabf 9313 c43f fb18 df3f 5cb4 ccbf
00000050: 41b6 ab3f 7a23 d5bf b9ce 62bf 8325 d9be
00000060: 78e3 3abf 0af8 a53e c2ae 00bf 18b6 cf3f
00000070: f37f 1140 d901 1b3c d0cb e13f 0af3 07bf
00000080: 9ca0 c33f 9a0a 8a3e 5e28 003f 9e65 09bf
00000090: d74e 853f c799 cdbf 0a2d ad3e 0ac5 e53e
000000a0: c3c4 b8be 6e5d d83f 5fd9 883f 5291 abbe
000000b0: e1f5 b43f 8aaf 2ac0 3ec3 01bf 1bc4 9abf
000000c0: 007f a73e d304 7dbf 1616 3d3f db50 52be
000000d0: ac4b 3ebf be59 7a3e 8599 f1bd a416 dd3f

weight f4 [7, 8]
0.37794718 0.0490694 0.6178835 -0.011846228 1.9246889 0.12633353 1.0877448 1.2256587
1.305535 0.0021296465 0.28697717 1.1015937 0.52446485 -0.12200699 0.71748114 1.0603018
-0.24498782 -0.13069274 -0.4671978 0.9216796 0.45852196 -0.51392764 0.44330168 0.14825307
-0.10988478 1.3544198 1.494989 0.0050521507 -0.3097869 0.4918929 -0.6588441 0.27198553
-0.65990484 -0.6847854 0.1149915 0.44500968 1.408524 -0.4360638 0.7386288 0.63011694
-0.21595062 -0.8663655 -0.06507469 0.58536744 0.27674985 1.4150866 0.23436585 0.46624228
0.419695 -0.08749492 -1.0678751 0.92164284 -0.47540244 -1.4000562 0.88511723 -1.7950666
00000000: 4b82 c13e fffc 483d 9d2d 1e3f ae16 42bc
00000010: 355c f63f 945d 013e 393b 8b3f 62e2 9c3f
00000020: c51b a73f 8a91 0b3b acee 923e 0601 8d3f
00000030: 5443 063f cdde f9bd d8ac 373f f8b7 873f
00000040: 16de 7abe 51d4 05be 8d34 efbe 32f3 6b3f
00000050: 64c3 ea3e c390 03bf 70f8 e23e a7cf 173e
00000060: 460b e1bd a15d ad3f cd5b bf3f 838c a53b
00000070: 639c 9ebe 63d9 fb3e 02aa 28bf b041 8b3e
00000080: 86ef 28bf 194e 2fbf aa80 eb3d 4fd8 e33e
00000090: 844a b43f c143 dfbe c716 3d3f 584f 213f
000000a0: 2922 5dbe 21ca 5dbf e145 85bd a4da 153f
000000b0: 28b2 8d3e 8f21 b53f 9afd 6f3e 4fb7 ee3e
000000c0: 43e2 d63e 8930 b3bd 22b0 88bf c9f0 6b3f
000000d0: f367 f3be 0b35 b3bf 0b97 623f bec4 e5bf

weight f4 [6, 8]
0.15209085 0.1343898 -0.046902135 -0.09375122 -0.13410208 -0.2879447 0.35122547 -1.396214
-0.26278672 -0.9669917 -0.82567394 -0.9891013 -0.47221285 0.09478417 1.0808403 -0.0019989577
-0.94797534 0.26661533 1.1804073 0.71953946 -1.0434324 1.1619345 0.6113132 0.43208414
2.2344334 -0.35552984 3.021372 -0.4497647 -1.0119838 1.761452 1.3490937 1.7549151
0.8733955 -0.32201615 1.5913823 0.37756163 -1.3283082 0.8649861 0.42507377 1.0262693
-1.6218479 0.5593482 0.66710186 0.24076341 -0.29486918 0.021875326 0.2565162 0.11344056
00000000: b4bd 1b3e 7b9d 093e 741c 40bd a400 c0bd
00000010: 0e52 09be 7d6d 93be d3d3 b33e 24b7 b2bf
00000020: fb8b 86be c58c 77bf 5e5f 53bf be35 7dbf
00000030: e2c5 f1be 341e c23d fa58 8a3f f200 03bb
00000040: 83ae 72bf ce81 883e 9617 973f bd33 383f
00000050: 318f 85bf 45ba 943f 067f 1c3f 223a dd3e
00000060: f500 0f40 0208 b6be 295e 4140 8f47 e6be
00000070: af88 81bf 4277 e13f 1aaf ac3f 0fa1 e03f
00000080: d996 5f3f 4ddf a4be 6ab2 cb3f c24f c13e
00000090: 0106 aabf bb6f 5d3f 45a3 d93e cb5c 833f
000000a0: b698 cfbf 7231 0f3f 30c7 2a3f af8a 763e
000000b0: 18f9 96be e233 b33c 1756 833e 8653 e83d

weight f4 [32, 1, 3]
-0.061267402 -0.058086198 1.160341 0.13019323 -0.096670255 -0.91532946 0.240574 -0.5884444
-0.42386606 -0.298182 0.63168377 0.03791321 -0.32696447 -0.61738276 0.20777924 0.45908138
-0.5183508 -0.25411877 0.2991511 -0.32112777 -0.24922536 0.2510313 -0.75927335 0.23568389
0.46149248 -0.5278937 -0.2803056 -0.20382471 0.489704 -0.0050321603 -0.4958044 0.21742845
-0.5780795 -0.503971 -0.5300656 -0.12110079 -0.43520573 -0.60199213 0.1956128 -0.312785
-0.3891041 -0.22211632 -0.12444573 0.4731524 0.35418463 0.52422976 0.43776962 -0.18894087
-0.13814767 0.57215285 0.41077915 0.394 -0.3659571 -0.34453723 -0.3061133 -0.3836494
-0.19760317 -0.2865306 0.6703542 0.06184671 0.5123075 -0.4701263 -0.022785692 -0.39073944
0.35195148 -0.0072610886 -0.14964877 0.55157113 0.27474186 -0.5182933 0.4554963 0.019849263
0.07209836 -0.028581878 -0.8699364 0.35474953 0.3159386 -0.6685911 0.15022129 -0.65946054
0.15213215 0.3174365 0.2552018 -0.6040147 0.289994 0.4575436 -0.00090409536 -0.16307658
0.22919405 -0.4133872 0.09796617 0.31068054 -0.73317885 -0.24748635 0.5126549 0.22025707
00000000: 87f3 7abd cbeb 6dbd 0e86 943f 6051 053e
00000010: 0efb c5bd 0853 6abf 0859 763e 4ba4 16bf
00000020: f904 d9be 50ab 98be 07b6 213f e24a 1b3d
00000030: e367 a7be cc0c 1ebf 15c4 543e b70c eb3e
00000040: a3b2 04bf db1b 82be 552a 993e dc6a a4be
00000050: ef34 7fbe 2d87 803e bd5f 42bf 1e57 713e
00000060: be48 ec3e 0b24 07bf 3784 8fbe 6db7 50be
00000070: 7cba fa3e d2e4 a4bb 13da fdbe 90a5 5e3e
00000080: 05fd 13bf 3e04 01bf 61b2 07bf b103 f8bd
00000090: 49d3 debe 281c 1abf b94e 483e 5b25 a0be
000000a0: a738 c7be 7672 63be 67dd febd 0841 f23e
000000b0: b057 b53e ec33 063f 5723 e03e b779 41be
000000c0: 9576 0dbe 9c78 123f a551 d23e 5eba c93e
000000d0: bb5e bbbe 2f67 b0be e2ba 9cbe b26d c4be
000000e0: 7c58 4abe 24b4 92be 559c 2b3f fa52 7d3d
000000f0: 9626 033f 65b4 f0be 0fa9 babc 000f c8be
00000100: fc32 b43e 6dee edbb 873d 19be c433 0d3f
00000110: f7aa 8c3e dfae 04bf d036 e93e ec9a a23c
00000120: 4ea8 933d 8b24 eabc 27b4 5ebf bba1 b53e
00000130: b4c2 a13e c928 2bbf 9cd3 193e 68d2 28bf
00000140: 88c8 1b3e 0987 a23e cfa9 823e b5a0 1abf
00000150: 187a 943e 2843 ea3e d000 6dba 8cfd 26be
00000160: d8b1 6a3e 7da7 d3be 7da2 c83d 8511 9f3e
00000170: 9cb1 3bbf 106d 7dbe 5a3d 033f 128b 613e

bias f4 [32]
0.58224154 0.3842438 -0.07838101 0.049153913 0.7843684 0.6279911 0.23214881 -0.2640571
0.61193144 0.5645622 0.73410743 0.25253382 -0.05582819 0.12850554 -0.15302004 0.092662066
0.6213621 -0.10029748 0.562914 0.5156578 0.04787362 -0.22522576 1.020024 -0.4189533
0.7945333 -0.36069453 -0.1125773 -0.30685747 0.4589896 -0.24547875 -0.17121002 -0.3382028
00000000: c80d 153f 9abb c43e 3986 a0bd 9d55 493d
00000010: 5ecc 483f 06c4 203f 6bb8 6d3e 7e32 87be
00000020: 8aa7 1c3f 2687 103f 77ee 3b3f 1d4c 813e
00000030: 1aac 64bd f596 033e 49b1 1cbe 9cc5 bd3d
00000040: 9611 1f3f c468 cdbd 221b 103f 2602 043f
00000050: 2117 443d 95a1 66be 2590 823f 0c81 d6be
00000060: 8966 4b3f f4ac b8be ed8e e6bd 6c1c 9dbe
00000070: af00 eb3e c85e 7bbe ae51 2fbe eb28 adbe

weight f4 [64, 32, 3]
0.13468467 -0.09934392 0.26918697 0.29507565 -0.12286445 -0.15099205 0.09066947 -0.6845136
0.20388636 -0.096817106 -0.12408171 0.084448114 -0.2498754 0.1897546 0.15442704 0.12482879
-1.0041252 0.1440688 0.26807898 -0.71639717 -0.063889034 0.0336667 -0.42768022 0.20302895
0.1471666 -0.7417633 0.04122488 -0.24645977 -0.041993912 0.02511275 0.27130267 -0.75826806
-0.7349989 0.22824728 0.27482182 0.21463852 0.080071844 0.16169824 0.11453259 -0.061439052
-0.8359843 -0.082126655 -0.21204062 0.30146155 0.11504752 -0.18948999 0.12364782 0.3114339
-0.33501753 0.3077064 -0.09870022 0.14345543 -0.22103252 -0.19238976 0.14628994 -0.4303677
0.09917246 -0.19565591 0.070335284 0.06366962 0.21185923 -1.1058824 0.14200047 0.036581986
-0.03838992 -0.15284401 -0.36631867 0.17574923 0.08995281 -0.30243492 0.534662 -0.5758047
0.22011973 0.14885113 -0.16592622 0.24337976 0.34080136 0.22513108 0.114276685 -0.34431472
0.21545066 0.12756349 0.18123445 0.18112202 -0.19668587 0.29443872 0.12101901 0.22298431
-0.20768027 -0.38281143 0.023612086 0.26847982 0.15878424 -0.091196485 -0.02137708 0.073438756
0.10520286 0.099291794 -0.18659365 0.12656695 0.33523643 0.038040366 -0.010076649 0.076608844
0.04985295 0.123205826 -0.3935352 0.08936811 0.36451048 0.3847229 -0.442298 -0.1428642
0.24605833 -0.15654063 -0.024447808 0.40043104 -0.0012562773 0.28095832 0.114614345 -0.19627956
0.07269645 0.15739432 -0.058019422 0.0062277387 -0.61021024 0.14908783 0.2289309 -0.34856722
0.046843633 0.14342035 0.52551347 0.11445955 -0.046738986 0.6057705 -0.3547294 -0.015172832
0.28556392 -0.033010896 0.019796068 -0.24786508 -0.33753267 0.69796115 0.2283225 -0.5672838
-0.11683645 -0.4847896 -0.2783663 -0.14966762 0.3673397 0.092859544 0.24656352 0.35589936
0.29282975 0.11824383 -0.59892166 0.11391716 0.28672114 0.096032105 0.46252182 -0.01855083
-0.6548095 -0.015685635 0.040545832 -0.47643676 -0.26069352 -0.16812663 -0.1458778 -0.097680055
0.027021207 0.07713896 -0.02747249 0.13975707 0.1308777 -0.20148587 0.24840288 0.3563065
-0.36732164 0.27363867 0.17960027 -0.16466194 0.30620548 0.28628862 -0.42109233 -0.012706122
-0.3731195 0.010359261 0.21999879 -0.007923202 -0.008254009 0.087646835 -0.5189819 -0.25481364
0.27399102 -0.23587543 -0.49703807 0.30485484 0.23526073 0.11054757 0.16232029 0.18576095
0.38438514 0.005472618 -0.10845859 -0.2694533 0.4690795 0.5128442 0.094248794 0.3086019
0.24546197 0.15630253 0.09310922 -0.018301586 -0.02125138 0.17956096 -0.03620441 -0.057008777
0.049950067 0.4174325 0.0067891306 0.17114109 -0.07318732 -0.3287606 0.15860058 -0.109985106
0.18087628 0.39933413 0.7284699 0.63916045 0.4042846 0.41921926 0.20335639 0.5267555
0.43450555 0.6674921 -0.2024971 0.0026915898 0.013927544 -0.14517297 -0.115406565 0.011258854
-0.13954885 0.12417478 0.025551269 0.4224259 0.21307813 -0.08398629 0.59436125 0.71986765
0.5740387 0.04737009 -0.03006717 -0.17568728 0.22770016 0.10016782 -0.45590058 0.21204858
00000000: c7ea 093e d374 cbbd e0d2 893e 2814 973e
00000010: 5ba0 fbbd a99d 1abe eab0 b93d 493c 2fbf
00000020: 96c7 503e 0c48 c6bd 8d1e febd 22f3 ac3d
00000030: 56df 7fbe 084f 423e 1f22 1e3e 3da6 ff3d
00000040: 2d87 80bf c686 133e a641 893e ce65 37bf
00000050: 41d8 82bd 18e6 093d e7f8 dabe d2e6 4f3e
00000060: d7b2 163e 33e4 3dbf 6bdb 283d f35f 7cbe
00000070: cf01 2cbd 41b9 cd3c 2fe8 8a3e db1d 42bf
00000080: e328 3cbf a8b9 693e 72b5 8c3e 33ca 5b3e
00000090: b5fc a33d 3994 253e 1090 ea3d 84a7 7bbd
000000a0: 1103 56bf 0532 a8bd 2d21 59be 2b59 9a3e
000000b0: 099e eb3d aa09 42be 113b fd3d 4474 9f3e
000000c0: 6b87 abbe b18b 9d3e 5723 cabd fbe5 123e
000000d0: 5956 62be d201 45be 08cd 153e 2859 dcbe
000000e0: ee1a cb3d 065a 48be f20b 903d 3865 823d
000000f0: a0f1 583e 8e8d 8dbf 9268 113e fed6 153d
00000100: c03e 1dbd 2483 1cbe 1f8e bbbe 9bf7 333e
00000110: 2e39 b83d c0d8 9abe 9cdf 083f f067 13bf
00000120: 1167 613e 6e6c 183e 90e8 29be 8b38 793e
00000130: 847d ae3e c388 663e e509 ea3d 054a b0be
00000140: 199f 5c3e 01a0 023e 8695 393e 0d78 393e
00000150: 0568 49be acc0 963e d1d8 f73d 0056 643e
00000160: 23aa 54be dcff c3be 226e c13c 3076 893e
00000170: 5698 223e 39c5 babd fc1e afbc 0f67 963d
00000180: 9974 d73d 7f59 cb3d 6812 3fbe c49a 013e
00000190: 1ca4 ab3e 37d0 1b3d 8718 25bc 19e5 9c3d
000001a0: 9b32 4c3d 5653 fc3d 727d c9be a106 b73d
000001b0: 1ea1 ba3e 66fa c43e e274 e2be fe4a 12be
000001c0: b7f6 7b3e 304c 20be c546 c8bc 4c05 cd3e
000001d0: aca9 a4ba c5d9 8f3e edba ea3d 82fd 48be
000001e0: e0e1 943d fa2b 213e c6a5 6dbd 0f12 cc3b
000001f0: bd36 1cbf 7baa 183e dd6c 6a3e 6777 b2be
00000200: 1cdf 3f3d c9dc 123e 0d88 063f c569 ea3d
00000210: 6171 3fbd c713 1b3f 189f b5be 7897 78bc
00000220: 6f35 923e 6f36 07bd 5d2b a23c 58d0 7dbe
00000230: 15d1 acbe 95ad 323f 60cd 693e 8339 11bf
00000240: f347 efbd 5836 f8be 0786 8ebe 7842 19be
00000250: f313 bc3e 252d be3d 267b 7c3e 7138 b63e
00000260: c8ed 953e d229 f23d ee52 19bf 664d e93d
00000270: 1dcd 923e 7bac c43d a9cf ec3e e9f7 97bc
00000280: 98a1 27bf 297f 80bc 6313 263d 85ef f3be
00000290: 9f79 85be 6329 2cbe fd60 15be 7b0c c8bd
000002a0: 945b dd3c 08fb 9d3d fd0d e1bc 7a1c 0f3e
000002b0: ce04 063e 5052 4ebe 535d 7e3e ce6d b63e
000002c0: 9511 bcbe 5e1a 8c3e 22e9 373e 249d 28be
000002d0: f7c6 9c3e 6c94 923e 6a99 d7be 572d 50bc
000002e0: 8509 bfbe e4b9 293c 5d47 613e 51d0 01bc
000002f0: d33b 07bc 2f80 b33d ffdb 04bf ef76 82be
00000300: 8d48 8c3e 5489 71be c67b febe ef15 9c3e
00000310: 30e8 703e c466 e23d 4a37 263e 1e38 3e3e
00000320: 21ce c43e a653 b33b 8a1f debd c8f5 89be
00000330: 302b f03e c249 033f 8305 c13d 1101 9e3e
00000340: 625a 7b3e c50d 203e 0cb0 be3d 35ed 95bc
00000350: 6017 aebc d4de 373e 134b 14bd 0982 69bd
00000360: 7198 4c3d b6b9 d53e 5b77 de3b 9c3f 2f3e
00000370: 3ce3 95bd 4f53 a8be 3168 223e df3f e1bd
00000380: a237 393e 8675 cc3e 017d 3a3f 05a0 233f
00000390: 64fe ce3e e8a3 d63e a83c 503e 73d9 063f
000003a0: 8377 de3e c3e0 2a3f 665b 4fbe 6265 303b
000003b0: 5a30 643c 39a8 14be 475a ecbd 0e77 383c
000003c0: e5e5 0ebe 594f fe3d e550 d13c 3548 d83e
000003d0: 2731 5a3e 0101 acbd 0f28 183f 3f49 383f
000003e0: 33f4 123f 2407 423d 6d4f f6bc 5ee7 33be
000003f0: 3b2a 693e c924 cd3d cd6b e9be 4323 593e

bias f4 [64]
-0.13297188 0.35634533 -0.06328466 0.10038897 -0.3274815 -0.042479325 1.0915968e-05 0.16535893
0.022531964 -0.31565183 -0.072418384 0.41588625 -0.1306823 0.25683263 0.25698146 -0.24552307
0.051883742 0.1866797 0.3176002 -0.15646161 0.10673524 -0.32816455 -0.05890279 -0.094309285
0.27076823 -0.11515943 -0.13370775 0.19724144 0.15240763 0.05887488 -0.13390204 -0.24582759
-0.02166366 -0.22542264 0.14571665 -0.0038958362 0.17747255 0.30998152 0.04619274 0.09490528
0.0022289453 0.29752988 -0.20693697 0.0784577 0.20154364 -0.08986731 -0.016101982 0.43541354
0.13084233 0.26328942 0.32864583 0.011982693 0.0847561 0.07956574 0.15020406 0.009281895
0.06490214 0.17200935 0.2954711 0.0077429325 -0.07624784 -0.26377463 0.08885264 0.2750637
00000000: c829 08be e572 b63e 639b 81bd bb98 cd3d
00000010: a8ab a7be cdfe 2dbd ba23 3737 da53 293e
00000020: f494 b83c 1e9d a1be 1750 94bd 0bef d43e
00000030: 95d1 05be 917f 833e 1393 833e 666a 7bbe
00000040: 0c84 543d f728 3f3e 7e9c a23e 7937 20be
00000050: 0198 da3d 2f05 a8be 0d44 71bd 3a25 c1bd
00000060: 22a2 8a3e b5d8 ebbd afea 08be a9f9 493e
00000070: bf10 1c3e c926 713d 9e1d 09be 3aba 7bbe
00000080: fd77 b1bc 31d5 66be bf36 153e 4951 7fbb
00000090: 5dbb 353e e6b5 9e3e 9934 3d3d b35d c23d
000000a0: 7f13 123b d655 983e 49e7 53be 6eae a03d
000000b0: 7561 4e3e 5a0c b8bd 4ee8 83bc 86ee de3e
000000c0: 88fb 053e dfcd 863e 4444 a83e 0f53 443c
000000d0: 9b94 ad3d 5df3 a23d 18cf 193e 1713 183c
000000e0: 6aeb 843d 3823 303e fd47 973e 6db8 fd3b
000000f0: d427 9cbd 780d 87be 5ff8 b53d 26d5 8c3e

weight f4 [32]
0.70508975 0.8547069 1.1840931 0.9111182 1.2255265 1.0631547 1.139989 1.085404
1.1494495 0.8220331 0.7864598 1.057312 1.1324327 1.084348 0.8251593 0.8210945
1.0567242 1.0514561 1.1746736 0.8012214 1.016977 0.9843718 1.0434493 0.8626539
1.0334256 1.0157913 0.98869514 0.8354254 0.77221 0.7623 0.9341849 0.99443233
00000000: c380 343f 12ce 5a3f 5d90 973f 0b3f 693f
00000010: 0dde 9c3f 7415 883f 29eb 913f 85ee 8a3f
00000020: 2921 933f c370 523f 6e55 493f 0056 873f
00000030: 8ef3 903f eacb 8a3f a43d 533f 4033 523f
00000040: bd42 873f 1d96 863f b45b 963f d81c 4d3f
00000050: 4d2c 823f caff 7b3f bf8f 853f e3d6 5c3f
00000060: 4a47 843f 7305 823f 201b 7d3f 70de 553f
00000070: 8eaf 453f 1826 433f be26 6f3f 1e93 7e3f

bias f4 [32]
-0.10750926 -0.5583294 -0.53609425 -0.010054085 -0.54138005 -0.27255136 -0.21523227 -0.18269412
-0.24038613 0.0909398 -0.17119391 -0.857715 -0.40774474 -0.7594955 -0.30108285 -0.25928822
-0.39284122 -0.52269834 -0.8924304 0.045547836 -0.22502221 -0.28324035 -0.35140395 -0.3504022
-0.52310604 -0.33972535 -0.19276923 -0.37342286 -0.43000323 -0.24167894 -0.5563889 -0.42396933
00000000: d12d dcbd adee 0ebf 793d 09bf e4b9 24bc
00000010: e297 0abf da8b 8bbe d965 5cbe 2b14 3bbe
00000020: c827 76be a53e ba3d 754d 2fbe 3693 5bbf
00000030: ebc3 d0be 4c6e 42bf 8827 9abe 6dc1 84be
00000040: 7c22 c9be 8fcf 05bf 5276 64bf 5e90 3a3d
00000050: 396c 66be e104 91be 38eb b3be eb67 b3be
00000060: 47ea 05bf 7bf0 adbe 4c65 45be 4831 bfbe
00000070: 6229 dcbe af7a 77be 816f 0ebf 8212 d9be

running_mean f4 [32]
0.5647371 0.39915216 -0.06407354 0.039278492 0.7990793 0.6316365 0.23508887 -0.25743908
0.61813647 0.5607907 0.7468108 0.27447426 -0.038904183 0.14815956 -0.16747874 0.07175055
0.60408884 -0.09816318 0.5775732 0.5046579 0.04792492 -0.22358686 1.0059583 -0.41956922
0.8068207 -0.36250228 -0.10314087 -0.3080353 0.44127366 -0.2373556 -0.16980366 -0.34780428
00000000: 9c92 103f ac5d cc3e fd38 83bd 7ce2 203d
00000010: 7690 4c3f eeb2 213f 23bb 703e 0ecf 83be
00000020: 313e 1e3f fb8f 0f3f fe2e 3f3f e487 8c3e
00000030: fe59 1fbd 24b7 173e 8c7f 2bbe f4f1 923d
00000040: 91a5 1a3f c709 c9bd d6db 133f 4331 013f
00000050: ec4c 443d f4f3 64be 3ec3 803f c7d1 d6be
00000060: cd8b 4e3f e699 b9be 853b d3bd ceb6 9dbe
00000070: 9fee e13e 590d 73be 03e1 2dbe 6713 b2be

running_var f4 [32]
1.1895816 0.77517784 0.53355503 0.410334 0.4820153 0.46304116 0.2216234 0.56165093
0.48793656 0.23383188 0.52378744 0.5419958 0.5438231 0.2995276 0.34095684 0.46621236
0.48232248 0.35527268 0.28068686 0.45327133 0.39221552 0.22270724 0.36784586 0.38576028
0.6768921 0.57550627 0.39943305 0.45468435 0.2810851 0.20199005 0.5363714 0.32792473
00000000: 3644 983f 0e72 463f 1097 083f 4c17 d23e
00000010: b6ca f63e bb13 ed3e 3ff1 623e 5bc8 0f3f
00000020: d2d2 f93e a071 6f3e ef16 063f 3dc0 0a3f
00000030: fe37 0b3f ae5b 993e e591 ae3e 63b3 ee3e
00000040: f9f2 f63e 4de6 b53e 30b6 8f3e 2e13 e83e
00000050: 79d0 c83e 5e0d 643e 4b56 bc3e 5f82 c53e
00000060: cd48 2d3f 6154 133f 7d82 cc3e 63cc e83e
00000070: 63ea 8f3e 7bd6 4e3e a34f 093f c0e5 a73e

weight f4 [64]
0.942631 1.2869035 1.1060159 0.83731157 0.79305845 1.2700424 1.4079928 1.2577847
1.013858 0.96806604 0.90674806 1.0543457 0.83320826 0.91169846 0.89582294 1.1552649
0.9068756 1.1930258 1.0688004 0.9880284 0.95068365 0.97129947 1.6185701 1.0118284
0.68398935 0.60969454 0.91028804 0.81094 0.99576944 0.841418 0.9634594 1.065302
0.6437556 1.3014545 1.0353408 0.79488957 1.2145642 1.3944424 1.0236996 0.8295348
1.0665977 1.3825575 0.8472407 0.858725 1.1238163 0.90134805 1.0697467 0.81853426
0.89969826 0.87355655 0.95032644 0.97135186 1.1636978 1.0694114 0.8221135 0.80793244
1.0364046 0.8946788 1.1120796 0.8005301 0.9844646 1.051184 0.98835933 0.9442364
00000000: 4450 713f 41b9 a43f ee91 8d3f 0d5a 563f
00000010: e105 4b3f c090 a23f 1c39 b43f 17ff a03f
00000020: 19c6 813f 2dd3 773f a420 683f cdf4 863f
00000030: 234d 553f 1265 693f a754 653f b8df 933f
00000040: 0029 683f 12b5 983f 74ce 883f 6eef 7c3f
00000050: 0160 733f 15a7 783f 4e2d cf3f 9883 813f
00000060: ed19 2f3f f114 1c3f a308 693f c499 4f3f
00000070: bfea 7e3f 2c67 573f 46a5 763f d15b 883f
00000080: 2bcd 243f 1096 a63f 0c86 843f e27d 4b3f
00000090: d776 9b3f 177d b23f 9708 833f 655c 543f
000000a0: 4686 883f a5f7 b03f c4e4 583f 67d5 5b3f
000000b0: 36d9 8f3f bfbe 663f 76ed 883f 768b 513f
000000c0: a052 663f 67a1 5f3f 9848 733f 84aa 783f
000000d0: 0df4 943f 79e2 883f 0876 523f a9d4 4e3f
000000e0: e8a8 843f ab09 653f a058 8e3f 8aef 4c3f
000000f0: df05 7c3f 338d 863f 1e05 7d3f 7ab9 713f

bias f4 [64]
-0.42140853 -0.34108004 -0.7043105 -0.1702073 -0.7456963 -0.18130603 -0.39169854 -0.35483557
-0.32787687 -0.36193717 -0.31189516 -0.48667446 -0.31236202 -0.4626022 -0.15838368 -0.50178665
-0.16436313 -0.5108217 -0.2638251 -0.38493797 -0.14373995 -0.680636 -0.346302 -0.20503514
-0.40645623 -0.45934153 -0.28270084 -0.40429825 -0.06882414 -0.25268158 -0.49763072 -0.18634346
-0.2541533 -0.085385814 -0.3279385 -0.24900566 -0.13586408 -0.8290805 -0.5199109 -0.39681876
-0.061493713 -0.41714275 -0.2702896 -0.10057592 -0.4589653 -0.18772139 -0.223178 -0.22247753
-0.18544044 -0.16080536 -0.47567928 -0.34957775 -0.2539646 -0.31183594 -0.11202143 -0.30214408
-0.16143931 -0.16619301 -0.11332624 -0.406184 -0.35510218 -0.30180997 -0.5194668 -0.21480936
00000000: dcc2 d7be 0ba2 aebe b14d 34bf d34a 2ebe
00000010: f4e5 3ebf 4aa8 39be b68c c8be 02ad b5be
00000020: 7adf a7be d44f b9be b9b0 9fbe 652d f9be
00000030: eaed 9fbe 32da ecbe 552f 22be 1775 00bf
00000040: cf4e 28be 36c5 02bf 1514 87be 9716 c5be
00000050: 9130 13be 293e 2ebf 7f4e b1be bbf4 51be
00000060: 081b d0be d02e ebbe 2abe 90be 2e00 cfbe
00000070: acf3 8cbd 7b5f 81be 74c9 febe d2d0 3ebe
00000080: 6220 82be c2de aebd 8ee7 a7be 57fb 7ebe
00000090: f41f 0bbe 9f3e 54bf e118 05bf d42b cbbe
000000a0: d5e0 7bbd bc93 d5be 6663 8abe bffa cdbd
000000b0: 80fd eabe 093a 40be c688 64be 26d1 63be
000000c0: 19e4 3dbe 29aa 24be 3c8c f3be dbfb b2be
000000d0: a607 82be f6a8 9fbe 7e6b e5bd a1b2 9abe
000000e0: 5950 25be 802e 2abe 9617 e8bd 59f7 cfbe
000000f0: f4cf b5be d686 9abe c7fb 04bf fcf6 5bbe

running_mean f4 [64]
-2.0728784 0.3707791 3.1378908 -0.17014238 0.81558716 1.3562791 0.18748352 1.0904623
-1.2058094 -1.7485664 -2.7112484 -4.061524 -0.49914214 -2.4070024 -1.3189968 0.59877753
-4.1730623 0.9099077 -5.446961 1.8029267 1.5286986 -0.86057 2.111722 -0.9227963
0.5382925 2.268808 -4.6016607 2.7824624 -0.75067246 -1.525848 -6.332784 0.02693551
-1.2357209 -0.7698317 -2.8305957 -0.77897376 2.5599167 2.3650677 -3.6180387 -2.1069565
-5.576456 1.4431249 0.26009458 0.29584768 2.0508811 -2.3097172 -1.7183428 -0.09595247
3.3883324 -2.7798865 -2.2819562 -4.5977025 -4.544445 -1.4386207 -0.8004667 -0.27547425
-3.3870575 -3.0518467 -4.3987546 -3.5361507 -2.2172537 -4.9369984 1.7575226 -3.6683812
00000000: 0aaa 04c0 c2d6 bd3e 34d3 4840 ce39 2ebe
00000010: 52ca 503f 8e9a ad3f aefb 3f3e 4594 8b3f
00000020: f657 9abf 06d1 dfbf 1885 2dc0 01f8 81c0
00000030: 8f8f ffbe 540c 1ac0 e3d4 a8bf 7c49 193f
00000040: ba89 85c0 b6ef 683f 814d aec0 4dc6 e63f
00000050: 65ac c33f 514e 5cbf 7426 0740 613c 6cbf
00000060: 8acd 093f 2634 1140 ce40 93c0 dd13 3240
00000070: 122c 40bf fd4e c3bf 2ba6 cac0 dca7 dc3c
00000080: 1a2c 9ebf b113 45bf 7b28 35c0 d36a 47bf
00000090: add5 2340 455d 1740 f28d 67c0 60d8 06c0
000000a0: 5472 b2c0 51b8 b83f 1e2b 853e 5979 973e
000000b0: a341 0340 68d2 13c0 a8f2 dbbf bb82 c4bd
000000c0: 70da 5840 a9e9 31c0 920b 12c0 6120 93c0
000000d0: 186c 91c0 b924 b8bf 63eb 4cbf f60a 8dbe
000000e0: 8dc5 58c0 7551 43c0 99c2 8cc0 4b50 62c0
000000f0: 7ce7 0dc0 e4fb 9dc0 80f6 e03f c2c6 6ac0
