government_icfes_dataset/mlartifacts/956201576569699187/c85e2e0842934fa793a3a90a859f7810/artifacts/model/data/model.pth (torch, 702912 bytes, 39 tensors)

weight f4 [4, 8]
0	0x3df31e11	0.11870969
1	0x3ffbe704	1.9679875
2	0x3f03d8b0	0.51502514
3	0x3efcc85c	0.49371612
4	0x3fa8a880	1.3176422
5	0x3f9e00db	1.2344011
6	0x3f552b33	0.8326904
7	0x4029463f	2.6449125
8	0xbe0a7907	-0.13522731
9	0x3f981abf	1.1883162
10	0x3f506ebe	0.8141898
11	0xbf145008	-0.5793462
12	0x3eea248c	0.45731008
13	0x3f0cdeff	0.55027765
14	0x3c7d94d1	0.015477375
15	0x3f9c8e33	1.2230896
16	0x3e61cbd7	0.22050415
17	0xbfd050b5	-1.627463
18	0xbf9b0506	-1.2110908
19	0xbf257c93	-0.6464321
20	0x3f301cf4	0.6879418
21	0xbf8e1f07	-1.1103219
22	0x3f1f65c8	0.6226468
23	0xbf9b8068	-1.2148561
24	0x3f65fbea	0.89837515
25	0xbd782820	-0.06058514
26	0x3f0a75d6	0.54086053
27	0xbd19d1a4	-0.037553445
28	0x3ec048da	0.3755558
29	0xbf906a6d	-1.1282479
30	0xbf450897	-0.7696623
31	0xbee978d2	-0.4559999

weight f4 [3, 8]
0	0xbf65c02f	-0.89746374
1	0x3f4ac207	0.7920231
2	0x3f98db55	1.1941935
3	0x3f7d7e74	0.9902108
4	0x3d3c65a4	0.04599537
5	0xbfe84865	-1.8147093
6	0xbf021dc8	-0.5082669
7	0xbde98854	-0.11402956
8	0xbf895696	-1.0729549
9	0xc0020c2f	-2.0319936
10	0xbf6c28c5	-0.9224971
11	0x3f2d7065	0.67749625
12	0xbcba69ff	-0.022755621
13	0x3f7630df	0.9616832
14	0x3f91669a	1.1359437
15	0x3f400620	0.75009346
16	0x3ed1b56d	0.4095873
17	0xbe99dbf0	-0.30050611
18	0xbf9b4c32	-1.2132628
19	0xbed10521	-0.40824226
20	0xbd3bf55d	-0.045888294
21	0xbfa4c2ca	-1.2871945
22	0x3f835aa3	1.0262035
23	0xc004b03c	-2.0732565

weight f4 [5, 8]
0	0xbe915311	-0.28383687
1	0x3fa0eafb	1.257171
2	0x3e4f5662	0.20247796
3	0x3ebf66c8	0.37383103
4	0x3eac68e4	0.33673775
5	0xbfe40155	-1.7812907
6	0xbe785385	-0.2425061
7	0xbe7f7556	-0.24947104
8	0x3efc18eb	0.4923776
9	0xbdf08346	-0.117437884
10	0xbf4b72ef	-0.7947225
11	0x3f7be6b5	0.98398906
12	0x3f68f144	0.9099314
13	0xbfc3e5df	-1.5304526
14	0x3f0dcac1	0.553875
15	0xbfef755b	-1.8707689
16	0xbf63d6b8	-0.8899951
17	0xc00f40c6	-2.2383285
18	0xbe92848d	-0.28616753
19	0xbf86d631	-1.0534116
20	0x3e29a741	0.16567709
21	0x400119e9	2.0172064
22	0x3f8481fc	1.0352168
23	0xbf590ac9	-0.8478208
24	0xbf276a0d	-0.65396196
25	0x3d8b2e17	0.067959
26	0x3f83d3cf	1.0299014
27	0xbdcded2d	-0.10055003
28	0xbe863f6c	-0.26220262
29	0xbf86c34d	-1.0528351
30	0x3e8ca84a	0.27472144
31	0x3f9636e6	1.1735504
32	0x3fb57d5b	1.417888
33	0xbc8573da	-0.016290594
34	0x3ee11bb2	0.43966442
35	0x3eb0b897	0.3451583
36	0x3da5a791	0.080886014
37	0x3f3d5fe4	0.7397444
38	0x3f49f1bd	0.7888449
39	0xbfeca905	-1.8489081

weight f4 [7, 8]
0	0xbf15fce1	-0.5858899
1	0x3f3a976a	0.7288729
2	0xbefe1440	-0.49624825
3	0x3f2b36eb	0.66880673
4	0xbfd64ded	-1.6742531
5	0x3f30875d	0.6895655
6	0x3eaa4665	0.33256832
7	0xbfa12824	-1.2590375
8	0xbf4a3df7	-0.790008
9	0xbfeaa2b2	-1.8330901
10	0x3ef889ce	0.48542637
11	0x3d185699	0.03719196
12	0x3f2cc5ed	0.6748951
13	0x3f390916	0.7227949
14	0xbf9b5a3b	-1.2136911
15	0x3e5c8057	0.21533333
16	0xbe43b127	-0.19110547
17	0xbf82a37a	-1.0206139
18	0xbedc61e1	-0.43043426
19	0xbd875fb5	-0.066100515
20	0x3c810a64	0.015752025
21	0xbeec7508	-0.46183038
22	0xbfabaece	-1.3412721
23	0xbe2624e5	-0.16225012
24	0x3f807784	1.0036473
25	0xbf8b074b	-1.0861601
26	0xbd0ae4f5	-0.033909757
27	0xbe9745d6	-0.29545468
28	0x3f6aaab6	0.91666734
29	0xbfbb5459	-1.4635116
30	0x3f849217	1.0357083
31	0xbfb16ae8	-1.386075
32	0x3fe428f0	1.7824993
33	0x3ea1bc70	0.3158908
34	0xbfbb522c	-1.4634452
35	0xc0246d16	-2.569158
36	0xbf49db91	-0.78850657
37	0xbf43f4f6	-0.76545656
38	0xbe082414	-0.13295013
39	0x3feec7d8	1.8654737
40	0xbf113b9b	-0.56731576
41	0x3e8e8993	0.27839336
42	0xbfa2c8c3	-1.2717518
43	0xbf32241b	-0.6958634
44	0x3fa316fe	1.2741392
45	0xbe7905d3	-0.24318628
46	0xbb9820d2	-0.0046425844
47	0xbe53142c	-0.20613164
48	0x3f55c0bf	0.8349723
49	0x3ee176f7	0.44036075
50	0xbed63276	-0.41835374
51	0x3eb16d26	0.34653586
52	0xbfff7803	-1.99585
53	0x3ea4ec9c	0.3221177
54	0x3e926a6c	0.28596818
55	0x3eb5a09d	0.354741

weight f4 [7, 8]
0	0xbeca3e11	-0.39500478
1	0xbdca8e79	-0.09890456
2	0x3e7e9881	0.24862863
3	0x3e2db9cc	0.16965407
4	0x3f2a9e3f	0.66647714
5	0x3fdafdbf	1.7108687
6	0xbf9ebc5f	-1.2401236
7	0x401ec465	2.480737
8	0xbfcb9843	-1.5905842
9	0x3ea8dd8a	0.3298152
10	0x3ee7d9ee	0.45283455
11	0x3f130edb	0.5744454
12	0xbe89f163	-0.26941976
13	0x3fef7f30	1.871069
14	0xc00badae	-2.1824756
15	0x3ec74c32	0.3892532
16	0xbf95c43a	-1.1700509
17	0xbfbd79a5	-1.4802748
18	0xc0170064	-2.3593988
19	0x3ee69f3f	0.4504337
20	0x3d96b5b6	0.07358877
21	0xbe292d6e	-0.16521236
22	0x3e32c72e	0.17458794
23	0x3ec9fa3c	0.39448726
24	0x3ee871b4	0.4539925
25	0x3f568fb2	0.8381301
26	0xc004eadd	-2.076835
27	0x3fa61798	1.297595
28	0x3f3bca77	0.7335581
29	0x3dade469	0.084908314
30	0xbc004e98	-0.007831238
31	0x3e27c1ee	0.16382572
32	0xbfadc4fc	-1.357574
33	0x3f3ce36d	0.73784524
34	0xbd2c5c67	-0.04208031
35	0x3f8a219b	1.0791506
36	0xbfa1346b	-1.2594122
37	0xbed8eeeb	-0.4236978
38	0xc002f4cb	-2.046191
39	0xbf9943e5	-1.1973845
40	0xbfafd93d	-1.3738171
41	0x3e8e2a5b	0.2776669
42	0x3fbe69a9	1.4875995
43	0x3f38ede3	0.72237986
44	0x3ece094b	0.40241465
45	0xc00fec2b	-2.2487895
46	0xbe3ab65e	-0.1823363
47	0x3cfe30d8	0.03102915
48	0x3f16fb52	0.58977234
49	0x4023d44a	2.559832
50	0xbf00a1ba	-0.50246775
51	0x3fbe9ad1	1.4890996
52	0xbe66df2b	-0.2254607
53	0x3f1e7267	0.61893314
54	0x3f03a071	0.5141669
55	0xbe382127	-0.17981397

weight f4 [1025, 8]
0	0xbbef1d91	-0.0072972258
1	0x3f4fc25c	0.81155944
2	0x3f0a96bf	0.5413627
3	0x3d8dea6f	0.0692948
4	0x3e205cd5	0.15660413
5	0x3f7125ca	0.94198287
6	0x3f81b132	1.0132201
7	0x3f613121	0.8796559
8	0xbf0f8380	-0.5606003
9	0xbe8ea26c	-0.27858293
10	0xbf76e8b9	-0.96448857
11	0x40112521	2.2678912
12	0xbf39ecb2	-0.72626793
13	0x3f636bf3	0.8883659
14	0x3e8b5f2d	0.2722105
15	0x3f8787c5	1.0588309
16	0x3fda1dd2	1.704035
17	0xbe942b38	-0.28939223
18	0xbe8fe702	-0.28105932
19	0xbf14811b	-0.580095
20	0x3fe35e50	1.7763157
21	0xbe6106ed	-0.21975298
22	0xbedc396b	-0.43012556
23	0x3f3565e7	0.70858616
24	0x3ec224b0	0.37918615
25	0xbf55994f	-0.83437055
26	0x3f62db01	0.88615423
27	0x3f13a803	0.5767824
28	0x3e3bac92	0.18327549
29	0x3ca6a924	0.020344324
30	0xbdfd8ebb	-0.12380739
31	0x3d401960	0.0468992
32	0x3ecd0f87	0.4005091
33	0x3f1b1c1c	0.60589767
34	0x3e9f7b05	0.31148544
35	0x3f0ac5dc	0.5420816
36	0x3f22bf7b	0.63573426
37	0x3e5a3b8e	0.21311781
38	0x3e5111a0	0.2041688
39	0x3f0297da	0.5101296
40	0x3e7609fb	0.24027245
41	0x3e0489fc	0.12943262
42	0xbde3cea4	-0.11123398
43	0xbd1e089f	-0.03858244
44	0x3e5e727c	0.2172336
45	0xc062a102	-3.5410771
46	0x3f80c0b9	1.0058814
47	0xbec9948f	-0.39371154
48	0x3e44a9de	0.19205424
49	0xbe00d304	-0.12580496
50	0x3f32bf1f	0.6982288
51	0x4016f318	2.3585873
52	0x3f9c6437	1.2218083
53	0x3ff98155	1.9492594
54	0xbed839db	-0.4223164
55	0x3fd8ac3f	1.6927565
56	0x3f1b43ee	0.6065053
57	0x3f721b76	0.9457315
58	0xbf5c5d21	-0.86079603
59	0x3ee7b234	0.45253146
60	0xbe27072d	-0.16311331
61	0x3f9b43bc	1.2130046
62	0xbf4d4955	-0.8019002
63	0xbf1a235f	-0.6021022
64	0xbfa74c24	-1.3070111
65	0x3fcb5157	1.5884198
66	0x3e06b38d	0.1315443
67	0x401b5074	2.4267855
68	0x3f86b30e	1.0523393
69	0xbf87d79c	-1.0612674
70	0x3f639abb	0.88907975
71	0xbec5ed2d	-0.38657513
72	0xc003b7c7	-2.0580919
73	0xbf3119fd	-0.6918028
74	0x3fb59496	1.418597
75	0x3f93a146	1.1533592
76	0xbef60b26	-0.4805538
77	0x3dffad9b	0.124842845
78	0x3faddf59	1.3583785
79	0x3e3c0087	0.18359576
80	0xc004f893	-2.0776718
81	0xbf142dbd	-0.5788229
82	0xbf2ca0b7	-0.6743273
83	0x3f7ad704	0.9798434
84	0x3e3a0465	0.18165739
85	0xbf715db7	-0.9428362
86	0x3ec3379b	0.3812836
87	0xbfa671fc	-1.3003535
88	0x3eac8392	0.3369413
89	0xbfc44a0f	-1.5335101
90	0xbea4a61a	-0.32157975
91	0xbee1dd86	-0.4411432
92	0x3f3422a1	0.7036534
93	0xbf9fde50	-1.2489719
94	0xbf778355	-0.9668477
95	0x3f18d739	0.59703404
96	0xbf7d2b13	-0.9889385
97	0xbf07228d	-0.52787095
98	0xbe30182b	-0.1719672
99	0xbfe07c65	-1.7537962
100	0x402b7a41	2.6793368
101	0x3ee5b37a	0.44863492
102	0xbcebee6b	-0.02880021
103	0xbf156784	-0.5836108
104	0xbecaabfa	-0.39584333
105	0xbef55600	-0.47917175
106	0xc0119862	-2.2749257
107	0x3e831c9b	0.25607762
108	0x3e2e5469	0.17024387
109	0xbf0b2973	-0.5436012
110	0x3d7dae68	0.061933905
111	0x3efe5646	0.49675196
112	0xbe9fd266	-0.3121521
113	0x3fca0a2d	1.5784355
114	0x3c913743	0.017726546
115	0x4006d451	2.1067088
116	0x3f85e906	1.0461738
117	0xbef2ef17	-0.47448036
118	0x3e8f4ee3	0.27989873
119	0x3fe7ad08	1.809968
120	0xbf03a235	-0.51419383
121	0x3f56ebdc	0.8395364
122	0xc019446d	-2.3948014
123	0xbf74cf67	-0.9562897
124	0xbce44de3	-0.02786917
125	0x3f6942dc	0.91117644
126	0xba9d4770	-0.001199944
127	0x3e9724a2	0.29520136
128	0xc05e2dd0	-3.4715462
129	0xbfeb02f8	-1.8360281
130	0x3fa55bf8	1.2918692
131	0x3f8f395f	1.1189383
132	0x3f06f061	0.5271054
133	0x3f67b42f	0.90509313
134	0xbfb6ca6e	-1.4280527
135	0x3fb35bed	1.4012429
136	0xbf92c1c9	-1.1465389
137	0xbf2e624c	-0.6811874
138	0xbe194272	-0.14966753
139	0x3ed15370	0.4088397
140	0xbf9a41c3	-1.2051319
141	0x3e2c0ed3	0.1680253
142	0x3f74933f	0.9553718
143	0x3f06b519	0.52620083
144	0x3f197c74	0.59955525
145	0x3fb62551	1.4230138
146	0xbfa175e5	-1.2614104
147	0xbfaca4d5	-1.3487803
148	0xbfd37d12	-1.6522543
149	0xbfdb0172	-1.7109816
150	0x3ec52ef4	0.38512385
151	0x3f8f25ff	1.118347
152	0xbf42ec0f	-0.76141447
153	0x3f006238	0.5014987
154	0x3e222997	0.15836178
155	0xbdab7efb	-0.08373829
156	0xbdb502b7	-0.088384084
157	0xbec22ec8	-0.37926316
158	0xc00768cd	-2.1157715
159	0xc013a009	-2.3066428
160	0xbfb1828e	-1.3867967
161	0x3fdabdbd	1.7089154
162	0xbf9ae196	-1.2100093
163	0x3fecf93e	1.8513563
164	0xbf3c8a4b	-0.7364852
165	0xbfdbf867	-1.7185181
166	0x3fa44876	1.2834613
167	0x3f5fdabb	0.8744313
168	0xbec6c1b7	-0.38819668
169	0x3fdf192b	1.7429556
170	0x3ea6abb3	0.3255287
171	0x3f7bf8a4	0.9842627
172	0x3ef01c9c	0.46896827
173	0x3e559853	0.20858888
174	0x3f35e447	0.7105145
175	0x3e05b68d	0.13057919
176	0xbf6cb90e	-0.9246987
177	0xbec2186d	-0.3790926
178	0x3dd9e851	0.10640014
179	0x3ec25f0a	0.37963134
180	0xbf232369	-0.63725907
181	0x400e8670	2.2269554
182	0x3fd3965a	1.6530259
183	0x3ffde6ea	1.9836094
184	0xbfaaf690	-1.3356495
185	0xbf75539a	-0.9583069
186	0xbf42e4ab	-0.7613017
187	0xbf850ebe	-1.0395124
188	0x3c37f63e	0.011228142
189	0x3fe015eb	1.7506689
190	0x3e95fc9e	0.29294294
191	0xbe2f49f2	-0.17118052
192	0xbf165582	-0.58724225
193	0xbf1afff2	-0.6054679
194	0xbf063070	-0.5241766
195	0x3f57b38f	0.8425836
196	0xbd3c8253	-0.046022724
197	0xbde49b41	-0.11162425
198	0x3fa4d71f	1.287815
199	0x3c3ed89d	0.011648324
200	0x3ef389e0	0.47566128
201	0x3ef3c869	0.47613838
202	0x3f20568e	0.6263207
203	0x3ee92d66	0.4554245
204	0x3e5d0a59	0.21585979
205	0xbed8b94d	-0.42328873
206	0xbf4876b7	-0.78306144
207	0xbff87d2e	-1.9413202
208	0xbee297ae	-0.44256347
209	0xbfb8e46c	-1.4444709
210	0xbdacd74c	-0.08439502
211	0x3e23b9ab	0.15988795
212	0x3e9498cb	0.29022822
213	0xc004d84d	-2.075702
214	0xbf9601a6	-1.1719253
215	0x3f42fd93	0.76168174
216	0x3efd2e62	0.4944945
217	0x3f6a8616	0.9161085
218	0x3fa15642	1.2604449
219	0x3f111d17	0.5668501
220	0x3ebf0e80	0.3731575
221	0x3fa325e2	1.2745936
222	0xc010ca4c	-2.2623472
223	0x3f8e9211	1.1138326
224	0xbfc727d7	-1.5559033
225	0xc022a867	-2.5415285
226	0x3fcb11fd	1.5864865
227	0x3f24f99c	0.64443374
228	0x3e96c621	0.29448035
229	0x3de62218	0.112369716
230	0x3e690d09	0.22758879
231	0xbf483de2	-0.78219426
232	0xbe6f24b2	-0.23353842
233	0xbe9e13d6	-0.3087451
234	0x3ed188a9	0.40924576
235	0x3f4b7331	0.79472643
236	0x3f0c1e8e	0.5473412
237	0x3d782883	0.06058551
238	0x3dc0f352	0.0942141
239	0xbe6bc072	-0.23022631
240	0x3e657856	0.22409186
241	0x3ed76078	0.42065787
242	0x3f14d5e2	0.5813886
243	0x3f1f58e7	0.6224503
244	0xbf006e2b	-0.501681
245	0xbf7bad5f	-0.9831142
246	0xbf9286ad	-1.144735
247	0x3fcc6a0d	1.5969864
248	0x3ef132bf	0.4710903
249	0xbe8af599	-0.271405
250	0xbf9f8c7e	-1.246475
251	0xbf2f8735	-0.68565685
252	0xbf2e23ac	-0.6802318
253	0xbf24359f	-0.6414432
254	0x3f4f1a79	0.8089977
255	0xbf04f7a5	-0.51940376

weight f4 [3, 8]
0	0xbecfcf4b	-0.4058784
1	0xbfb55b9d	-1.4168583
2	0xbebf84b3	-0.3740593
3	0xbf8b3833	-1.0876526
4	0xbe57521c	-0.21027416
5	0xbd79d2f3	-0.060992192
6	0xbf400435	-0.7500642
7	0x3f5c592c	0.86073565
8	0xbf4674d4	-0.77522016
9	0x3fb397eb	1.4030737
10	0xbf0b5440	-0.5442543
11	0x3e283e42	0.1643
12	0xbec96fd3	-0.39343128
13	0x3f1f66d0	0.62266254
14	0x3fc4ad09	1.5365306
15	0xbe13b82a	-0.14425722
16	0x3ed828af	0.4221854
17	0x3f8a9c8b	1.0829023
18	0x3f3e2d51	0.742879
19	0x3e7dd55c	0.24788421
20	0xbe539f3c	-0.20666212
21	0xbfc54962	-1.541302
22	0xbf0297d1	-0.51012903
23	0x3eeaed4e	0.45884174

weight f4 [7, 8]
0	0xbf517105	-0.8181308
1	0x3f91e508	1.139802
2	0xbd98d18b	-0.07461842
3	0xbea628af	-0.32452914
4	0xbfc829e5	-1.5637785
5	0xbecaf31b	-0.396386
6	0x3f0547e9	0.5206285
7	0x3f4044e9	0.7510515
8	0x3e126d8d	0.14299603
9	0xbf278325	-0.65434486
10	0xbf0dea35	-0.55435497
11	0xbf6279c2	-0.8846704
12	0x4006618f	2.0997045
13	0x3f2a8095	0.6660245
14	0x3f6bf025	0.92163306
15	0xbea9a98f	-0.33137175
16	0xbf83d6ee	-1.0299966
17	0xbe470be7	-0.19438134
18	0x3fa29f81	1.2704927
19	0xbf8488b5	-1.035422
20	0xbf26d8ad	-0.6517437
21	0xbf81fafa	-1.0154717
22	0x3f2df692	0.6795436
23	0xbf2d3c6e	-0.67670333
24	0x3f932bcc	1.1497741
25	0xc0140c99	-2.313269
26	0xbfdb8fc2	-1.7153246
27	0x3e05fbb1	0.13084294
28	0x3f1d2672	0.6138679
29	0x3f18897e	0.59584796
30	0x3ef482d7	0.47756073
31	0xbe58c785	-0.2116986
32	0xbfbeffe9	-1.4921848
33	0xbea0bc8e	-0.31393856
34	0x3f480141	0.78126913
35	0xbdc6560e	-0.096843824
36	0xbe0290db	-0.1275057
37	0xbf97b4cc	-1.185205
38	0x3f72909e	0.9475192
39	0xbf5fbfb3	-0.87401885
40	0xbd1c3e37	-0.03814527
41	0xbe6c5a87	-0.23081408
42	0xbf1c7999	-0.61123043
43	0x3f5dd0b6	0.8664659
44	0xbf326f3c	-0.6970098
45	0xbfcae591	-1.5851308
46	0xbf7b4961	-0.9815884
47	0x3f8ffcd7	1.1249036
48	0xbd946e4a	-0.072475985
49	0x3cabce01	0.020972254
50	0x3f92a6ca	1.145715
51	0xc02f85c3	-2.7425392
52	0x3f9f1174	1.2427201
53	0x3ed57781	0.41692737
54	0xbe097d1a	-0.13426629
55	0x3fa8402b	1.3144583

weight f4 [7, 8]
0	0xbef3e923	-0.47638807
1	0x3eeea9cc	0.4661392
2	0xbf5c27a8	-0.8599801
3	0x3fb21d43	1.391518
4	0xbeaca03f	-0.33716008
5	0xbff37a3e	-1.902168
6	0xbf41fd7a	-0.757774
7	0x3e7eec0c	0.24894732
8	0xc006a270	-2.1036644
9	0xc00bdeca	-2.185473
10	0xbf764eae	-0.96213806
11	0xbf2f0190	-0.6836176
12	0x3eddb6e1	0.43303588
13	0x3ef854fe	0.48502344
14	0xbcc7592a	-0.024334509
15	0x3ede507f	0.4342079
16	0xbf53e5d2	-0.8277255
17	0xbe3144b8	-0.1731137
18	0x3e938123	0.2880946
19	0x3fa10889	1.258073
20	0xc0070fe8	-2.1103458
21	0xbe6c8369	-0.23097004
22	0xbfb0d08b	-1.3813642
23	0xbec6e70d	-0.38848153
24	0x3f5ad875	0.8548654
25	0xbfeceb7d	-1.8509365
26	0xbf150e35	-0.58224803
27	0xbf218e68	-0.6310792
28	0x3e21e976	0.15811715
29	0x4005d285	2.090974
30	0xbe55e679	-0.208887
31	0xbfde2359	-1.7354537
32	0xbe663e3a	-0.22484675
33	0x3f9cb0d4	1.2241464
34	0xbef3212c	-0.47486246
35	0xbeacbd02	-0.33737952
36	0xbf7b3b06	-0.9813694
37	0x3f3de6a7	0.7418007
38	0xbf8add73	-1.0848831
39	0x3e9bf804	0.30462658
40	0xbe78e0de	-0.2430453
41	0xbeea0c6c	-0.45712602
42	0x3eae277e	0.34014505
43	0x3f57035b	0.83989495
44	0xbfcd0197	-1.601611
45	0x3d119319	0.035540674
46	0x3f56a34e	0.83842933
47	0x3f1ff9ef	0.62490743
48	0xbf40b9e7	-0.75283664
49	0x3f2b4c1a	0.66912997
50	0xbe8b897b	-0.27253327
51	0x3e98f694	0.29875624
52	0xbfb050bd	-1.3774639
53	0x3fdf6ffa	1.7456048
54	0x3d2695f8	0.040670365
55	0x3f00fdc6	0.5038723

weight f4 [3, 8]
0	0x3eee9c8b	0.46603808
1	0xbd21608c	-0.039398715
2	0xbf416dbf	-0.75558084
3	0xbfd527f4	-1.6652818
4	0x3f6c0673	0.9219734
5	0xbb52b967	-0.0032153965
6	0xc0147c3c	-2.3200827
7	0xbcae975b	-0.021312406
8	0xbf30d9d6	-0.6908239
9	0x3fbbc11e	1.466831
10	0xbed4db94	-0.41573775
11	0x3fb03c8a	1.3768475
12	0x3f43a19c	0.7641847
13	0xbde13436	-0.109962866
14	0x3ea30c5d	0.3184537
15	0x3eca90b5	0.39563528
16	0xbed8cbc9	-0.42342976
17	0xbf998651	-1.1994115
18	0x3fc02a9c	1.5013003
19	0xbf90cb1d	-1.1311985
20	0x3f31f7fa	0.6951901
21	0x3f1cacdc	0.6120126
22	0x3eba8fed	0.36437932
23	0x3fffd4d0	1.998682

weight f4 [427, 8]
0	0x3f42d4f0	0.76106167
1	0x3f76d195	0.96413547
2	0xbf5cb477	-0.8621287
3	0xbe76889a	-0.24075547
4	0x3e643120	0.22284365
5	0x3f883e1a	1.0643952
6	0x3bd70485	0.006561818
7	0x3ed5fdd0	0.41795206
8	0xbf1306e1	-0.5743237
9	0x3ccfb330	0.025353998
10	0x3ec8a1d3	0.39185962
11	0xbedc9abb	-0.430868
12	0xbf8e9eb9	-1.1142188
13	0xbf0edcb3	-0.5580551
14	0x3b56cbaa	0.0032775202
15	0x3f2f2cdf	0.6842784
16	0xbf5075bb	-0.8142964
17	0xbf894669	-1.0724612
18	0xbf22e6ac	-0.6363323
19	0xbfcdc3c6	-1.607537
20	0x3f1ba90b	0.60804814
21	0x3e5d56c4	0.2161513
22	0xbfb41aad	-1.4070641
23	0x3ee20d19	0.44150618
24	0xbf80514d	-1.0024811
25	0x3ea87644	0.3290273
26	0x3f9a6f0f	1.2065142
27	0xbee07c3c	-0.43844783
28	0x3f8dc4de	1.1075704
29	0x3fe9acca	1.8255856
30	0x3f6c67c5	0.9234584
31	0x3f8c2896	1.0949886
32	0xbeab1f2b	-0.33422217
33	0xbf9a2680	-1.2042999
34	0xbf8c4796	-1.0959346
35	0x3ea45412	0.3209539
36	0x3df11c16	0.11772935
37	0x3f665916	0.89979684
38	0x3edc1b84	0.42989743
39	0xc00a0cd4	-2.157033
40	0x3f83d998	1.0300779
41	0x3f12e5f8	0.57382154
42	0x3f9b2efc	1.2123713
43	0x3f1be286	0.6089252
44	0x3d9f8f83	0.077910446
45	0xbeeb63f5	-0.459747
46	0xbf895913	-1.0730308
47	0xbf6c293d	-0.92250425
48	0x3ef1d46c	0.47232378
49	0xbecb64ff	-0.3972549
50	0x3eec5e55	0.4616572
51	0x3e4e452f	0.20143579
52	0x3f89f3c2	1.0777514
53	0xbefafd7d	-0.4902152
54	0xbf5b1b06	-0.8558811
55	0x3ee7e81a	0.45294267
56	0xbe86a2c9	-0.2629607
57	0x3fd92cf1	1.696684
58	0x3e81b9d6	0.25337094
59	0x3f04d534	0.5188782
60	0xbe75546d	-0.23957987
61	0x3fc9e348	1.5772486
62	0x3fa15f70	1.260725
63	0x3efe77e9	0.4970086
64	0x3e04ffa0	0.12988138
65	0x3f96a4e8	1.1769075
66	0xbff3bdf4	-1.9042344
67	0x3dad97d5	0.08476225
68	0xbe54c119	-0.20776786
69	0x3f76a34e	0.96342933
70	0x3fd32452	1.6495459
71	0xbe5837ec	-0.21115083
72	0x3c6a2159	0.014290177
73	0xbe20a7ac	-0.15688962
74	0xbef97953	-0.48725376
75	0x3cb26b60	0.021779716
76	0xbe93f1a4	-0.28895295
77	0xbf6fa060	-0.9360409
78	0xbf9a2130	-1.2041378
79	0xbf544d33	-0.82930297
80	0x3d79eb9e	0.061015718
81	0xbe90a984	-0.2825433
82	0xbfafdf10	-1.3739948
83	0x3ff2395b	1.8923753
84	0x401795b8	2.368513
85	0xbe766c1b	-0.24064676
86	0xbf5c190d	-0.85975724
87	0x3f745e0f	0.9545602
88	0xbeba8ddf	-0.36436364
89	0x40388184	2.882905
90	0x40209794	2.5092516
91	0xbfbf96a4	-1.4967847
92	0x3fc1866d	1.5119148
93	0x3f8079f7	1.0037221
94	0x3f460b57	0.77361053
95	0xbe3aa7ee	-0.18228123
96	0xbfa97d4a	-1.324136
97	0x3f21cae3	0.63200206
98	0xbf715ab9	-0.94279057
99	0x3e9bd12d	0.30433026
100	0x3eb59a64	0.35469353
101	0x3cc78541	0.024355533
102	0xbcfba4de	-0.030718263
103	0xbf24f91a	-0.644426
104	0x401353aa	2.3019814
105	0xbedc305e	-0.4300565
106	0x3e32578e	0.17416212
107	0xbf00cb2a	-0.50310004
108	0x3e081aeb	0.13291518
109	0x3e26cb3f	0.1628847
110	0x3eb27409	0.34854153
111	0x3e8369ee	0.25666755
112	0xbfa4f9f3	-1.2888778
113	0x3f26d6f2	0.6517173
114	0xbefa95d6	-0.4894244
115	0x3f2ff051	0.6872607
116	0x3f23c318	0.63969564
117	0x3f6daa8f	0.92838377
118	0xbf766122	-0.9624196
119	0xbefbd398	-0.4918487
120	0xbecc4946	-0.39899653
121	0x3fb53c47	1.415902
122	0x3fad6449	1.354623
123	0xbf88fc9b	-1.0702089
124	0xbfd70dd5	-1.6801096
125	0x3eb1cd8f	0.3472714
126	0xbfd36b35	-1.6517092
127	0x3f93508f	1.150896
128	0xbfeda192	-1.8564932
129	0xbf7c443e	-0.9854163
130	0xc00d090e	-2.2036777
131	0xbea1fd40	-0.31638527
132	0x3f0e5e2d	0.5561245
133	0xbec983a5	-0.3935825
134	0xbfad56e3	-1.3542141
135	0xc015a719	-2.3383238
136	0xbf1a7d93	-0.6034786
137	0xbf8383f1	-1.027464
138	0x3ff483ef	1.9102763
139	0xbf99f084	-1.2026525
140	0xbf1f335d	-0.6218775
141	0x4015cc5a	2.3405976
142	0x3e05bc10	0.13060021
143	0xbfc17bc7	-1.5115899
144	0xbf4589c2	-0.77163327
145	0x3cc85f2c	0.024459444
146	0xbf3dcd73	-0.74141616
147	0xbf61cb89	-0.88201195
148	0xbec18250	-0.37794733
149	0xbe325888	-0.17416584
150	0xbdbab2a2	-0.09116103
151	0xbec4bf4e	-0.38427204
152	0xbeea47e1	-0.45757964
153	0x3f651448	0.8948407
154	0xbf7b1a33	-0.9808685
155	0x3eb8bcb1	0.3608146
156	0xbe754cb3	-0.2395504
157	0x3f856789	1.0422221
158	0xbf79721a	-0.9743973
159	0x3efac61f	0.4897928
160	0x3ea2762b	0.3173078
161	0x3fdad89a	1.7097352
162	0x3ec54346	0.38527888
163	0x3fba3cfc	1.4549861
164	0x3fa6519f	1.2993659
165	0xbf8d0890	-1.1018238
166	0x3faae448	1.3350916
167	0xbda02a9f	-0.07820629
168	0xbfbbedea	-1.4681981
169	0x3f37012c	0.71486163
170	0xbf7800ba	-0.9687611
171	0x3eb21adf	0.34786126
172	0xbdabba7d	-0.08385179
173	0xbaccc614	-0.0015622997
174	0xbdb3402d	-0.08752475
175	0xbdf0c927	-0.11757117
176	0xbf32aa52	-0.6979114
177	0x3c75bac8	0.014998145
178	0xbef8f6b5	-0.48625723
179	0xbf42a72d	-0.7603634
180	0x3d9d2274	0.07672587
181	0x3f381136	0.7190126
182	0x3f0edfb0	0.5581007
183	0xbc805a24	-0.015667982
184	0x3ef83195	0.48475328
185	0x3fc814a0	1.5631294
186	0x3f12690c	0.5719154
187	0xbf1b2192	-0.605981
188	0xbf71b268	-0.9441285
189	0xbe5b381e	-0.21408126
190	0xbd866b12	-0.06563391
191	0xbe214fe5	-0.15753134
192	0x3ecfa3ff	0.40554807
193	0x3e546cf1	0.20744683
194	0xbdef1bf6	-0.11675255
195	0xbf2ac5e6	-0.6670822
196	0xbed09702	-0.4074021
197	0x3f50bcad	0.81537896
198	0xbe155ce4	-0.14586216
199	0x3fa0fd47	1.2577294
200	0xc0094978	-2.1451092
201	0x3f2212a0	0.6330967
202	0xbf9b8ff9	-1.2153312
203	0x3eb5168c	0.35368764
204	0x3f619427	0.8811669
205	0xbf65f408	-0.8982549
206	0xbfba78ef	-1.4568156
207	0xc014164b	-2.3138607
208	0x3f8815e7	1.0631684
209	0xbe1f9e4b	-0.15587728
210	0x3ed5936d	0.4171404
211	0xbf26a404	-0.6509402
212	0xba3f01d1	-0.00072863424
213	0xbe8f86bb	-0.2803248
214	0x3f6d42ae	0.9267987
215	0xbfc89d60	-1.5673027
216	0xbf84b24e	-1.0366914
217	0x3dfc7299	0.12326545
218	0x3f4f8d0d	0.810746
219	0xbe099294	-0.13434821
220	0x3fd40747	1.6564721
221	0x3f1876b7	0.59556144
222	0x3fcedd2a	1.6161244
223	0x3fbcb24e	1.4741914
224	0xbf552838	-0.83264494
225	0xbf8aa709	-1.0832225
226	0xbf075453	-0.52863044
227	0x3dfe832f	0.12427365
228	0x3f3448f7	0.70423836
229	0xbc4da3f7	-0.012551299
230	0x3fc6286d	1.5481087
231	0x3fe77c9c	1.8084903
232	0xbee5c37f	-0.44875714
233	0xbeaf8629	-0.34282044
234	0x3ebcbdb3	0.3686348
235	0x3c243b7e	0.01002395
236	0xbdd788de	-0.10524152
237	0xbe166966	-0.14688644
238	0x3f4a02d1	0.7891055
239	0xbf0990c6	-0.5373653
240	0x3f277e2c	0.654269
241	0xbf2dcf1f	-0.67894167
242	0xbf28002b	-0.65625256
243	0x3fac0a9c	1.3440738
244	0x3f44a6fa	0.76817286
245	0x3e554ee9	0.20830883
246	0xbe80bf6c	-0.25146043
247	0x3f54fd63	0.8319914
248	0x3fc245db	1.5177568
249	0xbf83855e	-1.0275075
250	0x3f549213	0.8303539
251	0x3fa91959	1.321086
252	0xbfbf14ee	-1.4928262
253	0x3f718183	0.94338244
254	0x3facf261	1.3511468
255	0x3cafa835	0.021442512

weight f4 [1030, 8]
0	0xbddd2631	-0.107983
1	0xbed99f18	-0.4250419
2	0xbf73988f	-0.9515466
3	0xbf6ac379	-0.9170452
4	0xbf4e0c48	-0.8048749
5	0x3e8473cd	0.258696
6	0xbfc7c998	-1.5608397
7	0x3f8a7dda	1.0819657
8	0xbf2defc4	-0.6794398
9	0xbf14f508	-0.5818639
10	0xbf6e6d82	-0.93135846
11	0xc0095fc7	-2.1464708
12	0x3fd696ed	1.6764809
13	0xbf954eda	-1.1664689
14	0xbd3a51df	-0.045488235
15	0xbe85988a	-0.2609294
16	0xbf8dc92b	-1.1077017
17	0x3f2c16dc	0.6722238
18	0xbf27420a	-0.6533514
19	0xbf26699a	-0.65004885
20	0x3fedba95	1.8572565
21	0x3f429235	0.76004344
22	0x3f5602f9	0.83598286
23	0xbfa65b4e	-1.2996614
24	0x3f0b456c	0.54402804
25	0x3d81ff4b	0.063475214
26	0x3e080360	0.13282537
27	0x3c714a15	0.014727135
28	0xbdfe2920	-0.12410188
29	0xbdfcbb09	-0.123403616
30	0xbe38b4ac	-0.18037671
31	0xbecf2836	-0.40460366
32	0xbed16aba	-0.40901738
33	0xbdca2780	-0.09870815
34	0x3cb3e273	0.021958565
35	0x3ed0cadf	0.40779778
36	0xbebababd	-0.36470595
37	0xc04b053e	-3.172195
38	0x3f920b60	1.1409721
39	0xbf22001a	-0.63281405
40	0xbf9f9f38	-1.2470465
41	0xbeb38284	-0.35060513
42	0x3ebc58d3	0.36786518
43	0x3f698233	0.91214293
44	0xbeb3fec9	-0.35155323
45	0x3e6fbc68	0.23411715
46	0xbfab6d01	-1.339264
47	0x3db02062	0.085999265
48	0x3f084203	0.53225726
49	0x3e9500c6	0.29102153
50	0xbedac43a	-0.42727834
51	0x3e2edc09	0.17076124
52	0xbf9459a2	-1.1589854
53	0xbe3e18b8	-0.18564117
54	0x3eee0f0e	0.4649586
55	0xbf3983aa	-0.7246653
56	0x3e216163	0.15759806
57	0xbf4d9a7e	-0.8031386
58	0x3f93d290	1.1548634
59	0x3f79c76d	0.97569925
60	0xbfddbe07	-1.7323617
61	0x4012bdba	2.29283
62	0x3f868460	1.0509148
63	0x3f0fae8e	0.56125724
64	0x3f6173f9	0.88067585
65	0xbdad7d77	-0.08471196
66	0xc0215930	-2.5210686
67	0xbf9bd525	-1.2174422
68	0xbf436d45	-0.7633861
69	0x3f835f89	1.026353
70	0x3bd324e1	0.0064436053
71	0x3e9def66	0.3084671
72	0x3dad5887	0.08464151
73	0xbe43ac04	-0.19108588
74	0xbf1d0030	-0.6132841
75	0xbf2c356a	-0.67269003
76	0xbf598b73	-0.8497841
77	0xbfca8101	-1.5820619
78	0xbf7213e4	-0.945616
79	0xbdc856cb	-0.097821794
80	0x3f7e8fc7	0.99438137
81	0x3fe749e2	1.8069422
82	0xbf8f0989	-1.1174785
83	0xbe354ee4	-0.17705876
84	0xbc719384	-0.014744643
85	0xbf71ebae	-0.94500244
86	0x3d22c792	0.039741106
87	0x3f6ee1c1	0.93313223
88	0x3f23ed3d	0.6403387
89	0x3ea03d6e	0.31296867
90	0xc037c877	-2.8716104
91	0x3f0d1f0f	0.55125517
92	0x3eba7927	0.36420557
93	0xbe808fd2	-0.25109726
94	0x3f8367c5	1.0266043
95	0x3f351c21	0.70746046
96	0x4013964b	2.3060482
97	0xbed0055b	-0.40629086
98	0xbf5a02e7	-0.8516068
99	0x40113cc1	2.2693331
100	0xc01db472	-2.4641385
101	0x3f931196	1.1489742
102	0x3f9cea5e	1.2259023
103	0x3ff8ecbf	1.9447249
104	0x3fd69396	1.676379
105	0xbf1903d8	-0.5977149
106	0x3f1a3c69	0.6024843
107	0x3f4e5a23	0.8060629
108	0x3f29eadd	0.66374
109	0xbed89026	-0.42297477
110	0xbf903c98	-1.1268492
111	0xbf9a8808	-1.2072763
112	0x3f0c0c53	0.54706305
113	0x3fa1c9d3	1.2639717
114	0x3e90f85b	0.2831448
115	0x3d8f5476	0.069985315
116	0x3e690f3a	0.22759715
117	0xbfa8ea9d	-1.3196598
118	0x3f30856c	0.68953586
119	0xbf0e15d3	-0.5550205
120	0xbe132736	-0.14370427
121	0x3f1712e4	0.590132
122	0xbf4dae0a	-0.8034369
123	0x3f0b304f	0.5437059
124	0xbf86bef5	-1.0527025
125	0xbf12d52f	-0.5735654
126	0xbf53342b	-0.82501477
127	0x3ed83fe0	0.42236233
128	0xbf7d7c08	-0.9901738
129	0x3e2c9e16	0.1685718
130	0x3fe078a3	1.7536815
131	0x3fb3eec5	1.4057242
132	0x3f979f2b	1.1845449
133	0xbd8602c2	-0.06543495
134	0x4008a16f	2.1348531
135	0x3eba0601	0.36332706
136	0x3e074a75	0.13211997
137	0xbf70a4c2	-0.940014
138	0x3fa3d42f	1.2799128
139	0x3ef0c64d	0.4702629
140	0xbfa5987c	-1.293716
141	0x3f314474	0.69245076
142	0x3f0717c0	0.52770615
143	0xbf515bdb	-0.81780785
144	0x3f56ed2a	0.83955634
145	0x3e33a7f9	0.17544545
146	0x3f958ccf	1.1683596
147	0x3fa933e8	1.3218966
148	0xbfb5fac9	-1.4217159
149	0x3dee7df0	0.116451144
150	0xc01ad1d4	-2.419057
151	0xbdb25836	-0.08708231
152	0x3f417ad6	0.7557806
153	0x3eae9b7c	0.34103
154	0x3ec9d43c	0.39419734
155	0x3ecb4cd3	0.3970705
156	0x3e67db5f	0.22642277
157	0xbee1112f	-0.43958423
158	0xbf85f19a	-1.0464356
159	0xbfe7d9e1	-1.8113366
160	0x40109d7f	2.2596128
161	0xbe90314f	-0.2816262
162	0xbf29247e	-0.6607131
163	0x3f1aae59	0.60422283
164	0xbeb6cfbd	-0.35705367
165	0xbf830cdb	-1.0238298
166	0x3f29f53b	0.66389817
167	0x3f4413ec	0.765929
168	0xbd21b441	-0.039478544
169	0x3f9899aa	1.1921895
170	0x3f23248c	0.6372764
171	0xbdd9e390	-0.10639107
172	0xbfba0671	-1.4533216
173	0x3f13f336	0.57792985
174	0xbe842982	-0.25812918
175	0x3eaa8cdd	0.33310595
176	0xbfde7dfd	-1.7382199
177	0xbe2b479b	-0.16726534
178	0x3f392967	0.723288
179	0x3f7c8dfa	0.9865414
180	0x3f1105a7	0.5664925
181	0x3df0e3e5	0.117622174
182	0x3d148160	0.036256194
183	0xc0255a55	-2.5836384
184	0x3f942506	1.1573799
185	0xbf0e9f5c	-0.55711913
186	0x3f682731	0.906848
187	0x3ebeea29	0.37288025
188	0xbe87f1ca	-0.26551658
189	0xc018f7ac	-2.3901167
190	0x3e5fc5f8	0.21852863
191	0xbf2dd9a3	-0.6791021
192	0xbf959276	-1.1685321
193	0x3f17c88c	0.59290385
194	0xbf4b4ba4	-0.79412293
195	0xbe2298af	-0.15878557
196	0xbcb04492	-0.021517072
197	0xbf2fcb3f	-0.68669504
198	0x3ca5f5a4	0.020258732
199	0xbfd388ed	-1.6526161
200	0x3cf33221	0.02968699
201	0x3eb4b943	0.35297593
202	0x3f0fbbcd	0.56145936
203	0xbf7ddedd	-0.9916819
204	0xc031926a	-2.7745614
205	0xc00f58f3	-2.239804
206	0x3fb04fe8	1.3774385
207	0xbe067e29	-0.13134064
208	0x3f2f1263	0.6838743
209	0x3f519440	0.81866837
210	0xc0554204	-3.3321543
211	0x3dcde66b	0.10053714
212	0x3cf3a810	0.029743224
213	0xbea553fe	-0.32290643
214	0x3db92808	0.090408385
215	0xbf9ab5a1	-1.2086679
216	0x3ff4283d	1.907478
217	0x3f888872	1.066664
218	0x3f236473	0.6382515
219	0x3ec64423	0.3872386
220	0x3fc1ad34	1.5130982
221	0xbff68ec2	-1.9262316
222	0x40063067	2.0967042
223	0x3f51707f	0.8181228
224	0xbf2ffff0	-0.68749905
225	0xbf25ac2e	-0.6471585
226	0xbec60da4	-0.38682282
227	0xbf901bae	-1.1258447
228	0xbf9e5549	-1.2369777
229	0xbf860d6e	-1.0472848
230	0x3e978810	0.29595995
231	0x3e748890	0.2388022
232	0x3f766d9b	0.96260995
233	0xbfa61580	-1.2975311
234	0x38f2222a	0.00011545823
235	0x3c01ab63	0.007914397
236	0x3e3cd631	0.18441083
237	0xbf55eb97	-0.83562607
238	0xbfe05f29	-1.752904
239	0x3e5ba377	0.21449076
240	0xbd2d41b4	-0.042298988
241	0x3dcbcbcb	0.0995098
242	0x3e430f1f	0.19048737
243	0x3dda5d28	0.106622994
244	0xbdc40fac	-0.09573302
245	0x3ebeecc0	0.3729
246	0x3fa55492	1.2916434
247	0x3f0a9af3	0.54142684
248	0xbc226e96	-0.009914061
249	0x3ea29d34	0.3176056
250	0xbf85a7e0	-1.0441856
251	0x3ec558b2	0.38544232
252	0x3fba7cc7	1.4569329
253	0x3f3b6b86	0.7321094
254	0xbc8fff82	-0.01757789
255	0xbfafd2c4	-1.3736196

weight f4 [7, 8]
0	0xbe739566	-0.2378746
1	0x3fddaef0	1.7319012
2	0x3fb1ef34	1.3901124
3	0x402aedea	2.6707711
4	0xbf0d683b	-0.5523717
5	0xbeb236e2	-0.34807497
6	0x3ca7fb99	0.020505713
7	0x3ff1948b	1.8873457
8	0xbd971825	-0.07377652
9	0x3fda01ca	1.7031796
10	0xbe062951	-0.13101698
11	0xbfad269e	-1.352741
12	0x3ef089c8	0.4698012
13	0x3e9dd934	0.30829775
14	0x3f0e71b6	0.5564226
15	0xbf0b5a68	-0.54434824
16	0xbf2ceaae	-0.6754559
17	0x3ec746d9	0.3892124
18	0x3ff65ba7	1.924672
19	0xbf8fda69	-1.1238528
20	0x3f11e4cd	0.5698975
21	0x3fb51f7c	1.4150233
22	0xbf59426d	-0.8486698
23	0xbf3b906d	-0.7326725
24	0xbfa5426c	-1.2910895
25	0xbfea6851	-1.8313085
26	0x3f0f93e0	0.56085014
27	0x3f66f8c2	0.90223324
28	0xbe7b9331	-0.24567868
29	0xbf042c82	-0.51630414
30	0x3f129549	0.5725904
31	0xbf15ed69	-0.58565384
32	0xbec1400d	-0.3774418
33	0xbf139145	-0.5764354
34	0x3f0c75fa	0.5486752
35	0xbe8f2632	-0.27958828
36	0xbf115e52	-0.56784546
37	0x3ddb85b6	0.10718863
38	0x3f5346b8	0.82529783
39	0xbf25ab3a	-0.64714396
40	0xbf6ffa26	-0.9374107
41	0xbfc345fa	-1.525573
42	0xbf01f740	-0.507679
43	0xbfbecd67	-1.4906434
44	0xbfb7cd6d	-1.4359566
45	0xbf7d3f70	-0.9892492
46	0x3f351624	0.7073691
47	0xbf8ee48f	-1.11635
48	0x3f23c02c	0.63965106
49	0x3ee7ccdb	0.4527348
50	0x3d96aa35	0.07356683
51	0x3f86b553	1.0524086
52	0xbea50bb9	-0.32235506
53	0x3f9343c6	1.1505058
54	0xbf436699	-0.76328427
55	0x3e7c74f7	0.24653994

weight f4 [7, 8]
0	0x3e18c3e5	0.14918478
1	0xbfd58788	-1.6681986
2	0xc01b98cf	-2.4312017
3	0xbfb46a37	-1.4094914
4	0x403209ec	2.7818556
5	0xbf239007	-0.63891643
6	0xbfd70304	-1.6797795
7	0xbe7aef23	-0.24505286
8	0x3fab9767	1.3405579
9	0x3fc534a8	1.5406694
10	0xbdf39dc9	-0.118953295
11	0x3e9ebe2c	0.31004465
12	0xbf140ed1	-0.5783511
13	0x3fef8576	1.8712604
14	0xc003b4fb	-2.0579212
15	0x3e035b95	0.12827905
16	0xbfe7db0c	-1.8113723
17	0x3f472b9c	0.7780092
18	0x3e7c64f6	0.24647889
19	0x3f0da76d	0.55333596
20	0x3f1606fb	0.586044
21	0xbf6237d0	-0.88366413
22	0x3e965b4d	0.29366532
23	0x3f448b41	0.76774985
24	0xbe965013	-0.29357967
25	0xbf4a142c	-0.7893703
26	0xbebe770d	-0.37200204
27	0x3ec4dcda	0.38449746
28	0x3e38b6b4	0.18038446
29	0xbe1b6f30	-0.15179133
30	0xbd671974	-0.05642076
31	0x3f35e6bc	0.710552
32	0xbf8f7d95	-1.12102
33	0x3ec24076	0.37939805
34	0x3ec49b7b	0.38399872
35	0xbee13bdc	-0.43990982
36	0xbfdf8d55	-1.7465006
37	0xbe780de7	-0.24224053
38	0xbf33a576	-0.7017435
39	0x3f8755f3	1.0573105
40	0xbf89b74d	-1.0759064
41	0xbfe72d0a	-1.806062
42	0x3ed66880	0.41876602
43	0xbedc5b74	-0.43038523
44	0xbf650c7e	-0.89472187
45	0xbf483a33	-0.78213805
46	0x400227e1	2.033684
47	0x3fb215ef	1.3912944
48	0xbdd126bc	-0.10212466
49	0xbf29dea8	-0.6635537
50	0xbf5c9c24	-0.8617575
51	0x3f7f8017	0.99804825
52	0xbf96f5b1	-1.1793729
53	0xbf45ecb1	-0.7731429
54	0xbfc40177	-1.5312947
55	0x3f0f848d	0.5606163

weight f4 [7, 8]
0	0x3fb22ee5	1.3920561
1	0x3f098c79	0.5372997
2	0x3fbaf80c	1.4606948
3	0x3fac1486	1.3443763
4	0x3e486ee0	0.19573545
5	0xbf999bac	-1.2000632
6	0x3e97e4e0	0.29666805
7	0x3f29c874	0.6632149
8	0x3f8ef9ba	1.116996
9	0xbe9595a9	-0.29215744
10	0x3ec97539	0.39347246
11	0xbfc10c01	-1.5081788
12	0x3f3ca440	0.73688126
13	0x3eda54db	0.42642865
14	0x3f671653	0.9026844
15	0x3e87102b	0.26379523
16	0x3f9d09b0	1.2268581
17	0xbf3957d3	-0.72399634
18	0x3f50e0f5	0.8159326
19	0xbf5360e3	-0.8256971
20	0x3f05eaf2	0.52311623
21	0xbf923645	-1.1422812
22	0xbf018962	-0.50600255
23	0xbeffc1fc	-0.49952686
24	0xbe377f15	-0.17919572
25	0x3f1c2aae	0.61002624
26	0x3fdacdfd	1.7094113
27	0xbf839a41	-1.028145
28	0xbdde5eb3	-0.10857906
29	0xbf5f5d54	-0.8725178
30	0x3f39e678	0.7261729
31	0xbf71898f	-0.9435052
32	0xbc6feffa	-0.014644617
33	0x3f814ed3	1.010218
34	0xbf787aad	-0.9706219
35	0x3f8f7d93	1.1210197
36	0x3f9774e9	1.1832553
37	0x3ed5d9c9	0.4176772
38	0xbf720ede	-0.94553936
39	0xbefcd1c6	-0.49378794
40	0x3de8d52e	0.11368786
41	0xbf6ad95f	-0.9173793
42	0x3f2b0802	0.66809094
43	0x3f9408cf	1.1565188
44	0x3f0992aa	0.53739417
45	0xbea03765	-0.31292263
46	0x3f80424a	1.002023
47	0xbe9eb669	-0.30998543
48	0xbe2e6fcf	-0.17034839
49	0xbfea0b9b	-1.8284792
50	0xbf2b3636	-0.66879594
51	0x3eea9689	0.45817974
52	0x3e403628	0.18770659
53	0xbeb638c8	-0.35590196
54	0x3f94920d	1.1607071
55	0x3e809b8e	0.2511868

weight f4 [6, 8]
0	0x3f1a388a	0.6024252
1	0xbda2dfe3	-0.07952859
2	0x3fc7cce8	1.5609407
3	0x3fabf090	1.3432789
4	0x3ece7a05	0.4032747
5	0xbd117c92	-0.03551919
6	0xbe5698ba	-0.20956698
7	0xbedb6b46	-0.4285528
8	0xbfa87ab6	-1.3162448
9	0xbf311d50	-0.6918535
10	0x3f00317f	0.50075525
11	0xbe6a760a	-0.22896591
12	0xbf812b81	-1.0091401
13	0x3deff93b	0.11717459
14	0xbe6c1b76	-0.2305735
15	0xbf5154ab	-0.8176982
16	0xbf93c865	-1.154553
17	0x3ffc51e3	1.971249
18	0x3ec70c52	0.38876587
19	0xbfca31f0	-1.579649
20	0x3f2bbae9	0.6708208
21	0x3f4a1e94	0.7895291
22	0xbf36b9c1	-0.7137719
23	0x3fc5334d	1.5406281
24	0x3de86e8d	0.11349211
25	0xbcea4eac	-0.028601967
26	0xbec73253	-0.38905582
27	0xc039731c	-2.8976507
28	0x3f974503	1.1817936
29	0xbfad4a99	-1.353839
30	0x401be1f8	2.435667
31	0x3fe7fdd1	1.8124334
32	0xbc268b22	-0.010165008
33	0xbec20266	-0.37892455
34	0xc00fe086	-2.2480788
35	0xbfb36751	-1.4015905
36	0xbf2958dd	-0.6615122
37	0x401923f5	2.3928196
38	0xbe76fa23	-0.24118857
39	0x3fcd10b9	1.6020728
40	0x3e998c55	0.29989877
41	0xbd1a2488	-0.037632495
42	0xbf02f20f	-0.511506
43	0xbe755904	-0.23959738
44	0x3eb265cb	0.34843287
45	0xbf07ab03	-0.5299532
46	0xbf56aae7	-0.83854526
47	0xbfe3f50b	-1.7809156

weight f4 [16, 1, 3]
0	0xbeb849f6	-0.35993928
1	0xbd9af0ed	-0.07565484
2	0xbf5633b0	-0.8367262
3	0x3d6be243	0.057588827
4	0xbf4c0b84	-0.7970507
5	0x3e72ca45	0.23709972
6	0x3dc54c54	0.09633699
7	0x3e8fa922	0.28058726
8	0x3f358195	0.7090085
9	0x3dad72ee	0.08469187
10	0xbf088ecc	-0.5334289
11	0x3e94642f	0.28982684
12	0xbeb55473	-0.35415992
13	0xbf2b4aca	-0.66910994
14	0x3db60569	0.08887751
15	0xbed86f16	-0.42272252
16	0x3f45e9c4	0.77309823
17	0x3e5f1975	0.21787055
18	0xbf04085c	-0.51575255
19	0x3ed56dd0	0.41685343
20	0xbd005a73	-0.03133626
21	0x3e9313ce	0.28726047
22	0xbedae477	-0.4275243
23	0xbe967458	-0.29385638
24	0x3b3f9eb4	0.0029238882
25	0x3e71fba3	0.23631148
26	0xbf441eaa	-0.7660929
27	0x3dd54a59	0.10414571
28	0xbf2a8bf5	-0.6661981
29	0x3eda3fd9	0.42626837
30	0x3f138591	0.5762568
31	0x3f12cd69	0.5734468
32	0xbd2b995d	-0.041894305
33	0xbe6ed461	-0.23323204
34	0xbefd1b89	-0.4943507
35	0x3de0e863	0.10981824
36	0xbe7190dc	-0.23590416
37	0x3e742216	0.23841128
38	0xbf170345	-0.58989364
39	0xbe7e3813	-0.24826078
40	0x3f3cb7e5	0.737181
41	0x3e4ad7fb	0.19808953
42	0x3ebdc478	0.37063956
43	0xbf066298	-0.5249419
44	0xbef4b061	-0.47790816
45	0xbeaf2eeb	-0.34215483
46	0xbf0da180	-0.55324554
47	0xbedbe39d	-0.42947093

bias f4 [16]
0	0x3f0c1731	0.5472289
1	0x3ef1965f	0.47185037
2	0xbe9feab3	-0.3123375
3	0x3e4fafe2	0.20281938
4	0x3f080227	0.53128284
5	0xbf044689	-0.5167013
6	0xbeb1722e	-0.34657425
7	0xbe89b73d	-0.26897612
8	0xbf038b29	-0.51384217
9	0x3e9370b7	0.28796932
10	0xbd952583	-0.072825454
11	0xbe114ba9	-0.14189018
12	0xbedd4658	-0.4321773
13	0xbf0689c2	-0.5255395
14	0x3e04c650	0.12966275
15	0x3efe966d	0.4972414

weight f4 [32, 16, 3]
0	0xbe9b90c2	-0.3038388
1	0x3efec463	0.49759206
2	0xbe16111c	-0.14654964
3	0xbf033a52	-0.51260865
4	0x3eda0a10	0.42585802
5	0x3d9d48a9	0.076798744
6	0x3e429e4b	0.19005696
7	0xbd208284	-0.03918697
8	0xbddb8a93	-0.1071979
9	0xbdcdba92	-0.10045351
10	0xbd4c2d8a	-0.049848117
11	0xbe1111e7	-0.14166985
12	0xbdd1b92c	-0.10240397
13	0xbe3a082f	-0.18167184
14	0xbd50355e	-0.050832145
15	0xbed99fbf	-0.4250469
16	0xbefa566a	-0.48894054
17	0x3defe87d	0.117142655
18	0xbe52b347	-0.20576201
19	0xbeb5de70	-0.3552127
20	0x3ea1a4cf	0.3157105
21	0xbe47933e	-0.19489762
22	0x3eebe9eb	0.46076903
23	0x3e8f2fc1	0.2796612
24	0xbe706720	-0.23476839
25	0x3d87cf9e	0.06631397
26	0x3ddf618e	0.10907279
27	0xbed14c7e	-0.4087867
28	0x3e5845c3	0.21120362
29	0xbe0dfdc5	-0.13866337
30	0x3edc52b3	0.43031844
31	0xbe184e65	-0.14873655
32	0xbd6023ff	-0.05472183
33	0xbe755c73	-0.23961048
34	0xbdddacf2	-0.10824002
35	0x3dedc41e	0.11609672
36	0xbe855644	-0.26042378
37	0x3d57ce36	0.052686892
38	0x3e89b3a6	0.26894873
39	0xbea41047	-0.3204367
40	0xbecee2e0	-0.40407467
41	0x3e821580	0.25407028
42	0xbea44c0d	-0.32089272
43	0x3f068223	0.5254232
44	0x3e6506d9	0.22365893
45	0xbed2d8b6	-0.41180962
46	0x3cf46c1d	0.029836709
47	0x3ee1c5e3	0.44096288
48	0x3d39e476	0.045383893
49	0xbe321007	-0.17388926
50	0xbedd96d5	-0.43279138
51	0x3e920458	0.2851894
52	0xbdd6dc64	-0.10491255
53	0x3c213e52	0.0098415185
54	0xbeff5acc	-0.4987396
55	0x3eefc49b	0.46829686
56	0x3e5b9881	0.21444894
57	0x3e86e803	0.26348886
58	0x3e3e2643	0.18569283
59	0x3dd1cf8d	0.10244665
60	0x3e9be28e	0.30446285
61	0x3e1a6769	0.1507851
62	0xbc52fa0d	-0.012877
63	0xbe150922	-0.14554265
64	0x3f3e25f4	0.7427666
65	0xbeb288f6	-0.34870118
66	0xbec8bf4e	-0.39208454
67	0x3eb806bf	0.35942647
68	0xbeda49eb	-0.4263452
69	0x3ea87ee5	0.32909313
70	0xbe61d7c7	-0.22054969
71	0xbd9570ba	-0.072968915
72	0xbe0d0ab9	-0.13773622
73	0x3e66c4e5	0.22536047
74	0xbef11bc1	-0.47091487
75	0x3e20f613	0.1571887
76	0xbd690e3f	-0.05689835
77	0x3d8e8466	0.06958847
78	0xbe876cc9	-0.26450184
79	0x3f2b74e5	0.6697524
80	0x3ea9b2c0	0.33144188
81	0x3e029163	0.12750773
82	0xbd889ccf	-0.06670534
83	0xbe1739b7	-0.1476811
84	0x3e75bbd5	0.23997433
85	0x3ec41690	0.38298464
86	0xbef6e4f0	-0.4822154
87	0xbd9f6a07	-0.07783895
88	0x3dc22049	0.09478814
89	0xbc9a430a	-0.018830795
90	0x3e03ab60	0.12858343
91	0xbe57d3c2	-0.21076873
92	0x3e6e8404	0.23292547
93	0x3df1f7b6	0.11814825
94	0xbe428084	-0.18994337
95	0x398ac3e6	0.00026467367
96	0x3d225f04	0.039641395
97	0x3eee15aa	0.46500903
98	0x3eff5620	0.49870396
99	0xbe68d4fb	-0.22737496
100	0x3ee9bab9	0.4565027
101	0x3dec0a62	0.11525418
102	0x3d349fad	0.04409759
103	0xbe4d518d	-0.2005064
104	0x3dee29b3	0.11629047
105	0xbebbd890	-0.36688662
106	0x3e44104a	0.19146839
107	0xbdbbc7ac	-0.09168944
108	0xbe90311d	-0.2816247
109	0x3eed0755	0.46294656
110	0x3f0a662d	0.5406216
111	0x3cb57a63	0.022153085
112	0xbdd41051	-0.103546746
113	0xbd818a3c	-0.06325194
114	0xbe9a3cd0	-0.3012452
115	0xbc9a5f1b	-0.018844178
116	0x3de3024b	0.11084422
117	0x3f090503	0.5352327
118	0x3e5ed156	0.21759543
119	0x3e42d4c9	0.19026484
120	0x3dd2b112	0.1028768
121	0x3e32d0b2	0.17462423
122	0x3efabbd0	0.48971415
123	0xbedd7cc1	-0.43259242
124	0x3e2cbd48	0.1686908
125	0xbc99f8e8	-0.018795446
126	0x3e2aba9d	0.1667275
127	0xbe1eaa99	-0.15494765
128	0x3e14e0f0	0.14538932
129	0xbe51fe78	-0.20507228
130	0x3d6da8c0	0.05802226
131	0x3ef713b8	0.48257232
132	0x3d952b5b	0.0728366
133	0xbd4fdd13	-0.050747942
134	0x3ef4b2a7	0.4779255
135	0xbdd3b239	-0.10336728
136	0xbe752e89	-0.23943533
137	0x3cf09e07	0.029372228
138	0x3d6da72f	0.058020767
139	0x3f48d7df	0.78454393
140	0x3d447f99	0.04797325
141	0x3d91e766	0.07124214
142	0x3f4ac722	0.792101
143	0x3d6789b5	0.056527812
144	0x3ea5071d	0.3223199
145	0x3c63fa58	0.013914667
146	0x3ee257ea	0.44207698
147	0xbececf58	-0.40392566
148	0x3c28405b	0.01026925
149	0x3e488fa8	0.1958605
150	0xbc2e89d4	-0.010652978
151	0xbe2eae7d	-0.1705875
152	0x3d71ba4c	0.059015557
153	0xbf056327	-0.5210442
154	0x3e3768c3	0.17911057
155	0x3c7af35b	0.0153168095
156	0xbe0e686b	-0.1390702
157	0x3e8f4705	0.2798387
158	0x3e9bdeec	0.30443513
159	0xbf138e03	-0.5763857
160	0xbeedc806	-0.46441668
161	0x3dd45f1e	0.10369705
162	0xbed453ee	-0.41470283
163	0xbee1f7d7	-0.441344
164	0x3e481438	0.19538963
165	0x3e8b807b	0.2724646
166	0x3d4741a3	0.04864658
167	0x3d324ac1	0.043528322
168	0x3e16bbef	0.14720128
169	0x3e2ca5cf	0.16860126
170	0x3db490f5	0.08816711
171	0xbf0da3fa	-0.55328333
172	0xbdd54190	-0.10412896
173	0x3e5ffee0	0.21874571
174	0x3d3cb4a3	0.046070706
175	0xbde9037e	-0.11377619
176	0xbe09b754	-0.1344884
177	0xbee92a15	-0.4553992
178	0x3d6ed5a5	0.058309216
179	0x3e2a15bc	0.16609854
180	0xbe0f7798	-0.14010465
181	0x3e4ce7a5	0.2001024
182	0x3de7dd6a	0.11321528
183	0xbf16a08b	-0.5883872
184	0xbeea6590	-0.4578061
185	0x3dede202	0.11615373
186	0x3e3c659a	0.18398133
187	0x3dd461c6	0.10370211
188	0x3e615075	0.22003348
189	0x3f10e2fd	0.56596357
190	0x3ef4ea9b	0.4783524
191	0x3f18a478	0.5962596
192	0x3e62438d	0.22096081
193	0xbe606f9d	-0.21917577
194	0x3dc7c51b	0.09754392
195	0x3e8ba131	0.27271417
196	0x3c01d78b	0.007924925
197	0x3c06385a	0.008192146
198	0x3bb452cf	0.0055030356
199	0xbeec6a94	-0.46175063
200	0xbe50cc60	-0.20390463
201	0x3e3f51ca	0.18683544
202	0xbe018ac5	-0.12650593
203	0x3c31f3f1	0.010861383
204	0xbd9eac15	-0.07747666
205	0x3e8d2b8d	0.2757229
206	0xbed064cf	-0.4070191
207	0x3cdcb11f	0.026939927
208	0xbf0f8026	-0.56054914
209	0xbe8ded88	-0.27720284
210	0x3e224851	0.15847899
211	0xbf35b69a	-0.7098175
212	0xbec16b49	-0.37777165
213	0x3e114276	0.14185509
214	0x3e032dc9	0.12810434
215	0x3e3c16ca	0.18368068
216	0x3e36a56f	0.17836545
217	0xbf2fa7a7	-0.6861519
218	0x3d4eef3f	0.05052113
219	0x3c47e590	0.012200728
220	0xbe205960	-0.15659094
221	0xbe622785	-0.22085388
222	0xbe8b27f5	-0.27178922
223	0xbe95cf32	-0.2925964
224	0xbf4ec9cb	-0.8077666
225	0xbcd08dce	-0.025458243
226	0x3e931274	0.28725016
227	0xbeb32ca2	-0.3499499
228	0x3db38cfb	0.08767124
229	0xbf1c460b	-0.6104438
230	0x3ddda36a	0.108221844
231	0x3d7075a8	0.058705956
232	0xbebc12fc	-0.36733234
233	0xbe1545ca	-0.14577404
234	0xbd8c99a6	-0.068652436
235	0x3e4df824	0.2011419
236	0x3e26c680	0.16286659
237	0xbb1d5bad	-0.0024010942
238	0x3f17f88d	0.59363633
239	0xbe5b563e	-0.21419618
240	0xbe718df0	-0.23589301
241	0x3da289ea	0.07936461
242	0x3eb947d3	0.3618761
243	0xbd74e897	-0.059792127
244	0x3e1e3cc5	0.15452869
245	0xbee729ea	-0.45149165
246	0xbd833e03	-0.06408312
247	0xbf24b276	-0.6433481
248	0xbe87f30e	-0.26552624
249	0x3e38fca2	0.18065122
250	0xbd1036ac	-0.03520839
251	0xbe6ea695	-0.23305734
252	0xbdab0586	-0.08350663
253	0xbe404e66	-0.18779907
254	0xbdd8d414	-0.10587326
255	0xbd2dff13	-0.042479586

bias f4 [32]
0	0xbb95f17f	-0.0045759077
1	0xbd7cca0d	-0.06171613
2	0x3d986c22	0.074425
3	0xbdded4b1	-0.108804114
4	0xbd52bc64	-0.051449195
5	0xbdfa1933	-0.122118376
6	0xbd338233	-0.04382534
7	0x3d813093	0.06308093
8	0xbbb9fe0e	-0.0056760376
9	0xbe161577	-0.14656626
10	0x39bd370e	0.00036089908
11	0x3ca7a1f0	0.02046296
12	0xbcafa722	-0.021442
13	0x3d82ba85	0.06383232
14	0xbcb4263f	-0.021990893
15	0x3e29a2f3	0.16566066
16	0x3ba52bc3	0.005040617
17	0x3dc983c3	0.09839585
18	0xbc66b75e	-0.014081804
19	0xbd53c0b9	-0.051697467
20	0x3d6b84a5	0.057499547
21	0xbcf92e6b	-0.030417642
22	0xbc0b0e2a	-0.008487264
23	0xbd87a166	-0.06622581
24	0x3db7d1fd	0.08975599
25	0x3da905dc	0.08253071
26	0x3b6ee514	0.003645246
27	0x3d8cb871	0.06871117
28	0xbc30b251	-0.010784701
29	0xbde39c22	-0.11113764
30	0x3e015beb	0.1263272
31	0xbd26900a	-0.04066471

weight f4 [16]
0	0x3f5da6ec	0.8658283
1	0x3f6e9dea	0.9320971
2	0x3f852bd4	1.0404
3	0x3f814090	1.0097828
4	0x3f511922	0.81678975
5	0x3f91db8b	1.1395124
6	0x3f9976d0	1.1989384
7	0x3f9906da	1.1955216
8	0x3f8c8647	1.0978478
9	0x3f67cee8	0.9055009
10	0x3f780059	0.9687553
11	0x3f4c1b0a	0.7972876
12	0x3f54b160	0.8308315
13	0x3f861a36	1.0476749
14	0x3fa5ae2c	1.2943778
15	0x3f83dd69	1.0301944

bias f4 [16]
0	0xbeccfeb0	-0.4003806
1	0x3d15b2f5	0.03654762
2	0xbf10ab60	-0.565115
3	0xbd5307b4	-0.05152102
4	0xbee5e5eb	-0.44901976
5	0x3e19bcba	0.150134
6	0xbed4a586	-0.41532534
7	0xbe328142	-0.1743212
8	0xbf051030	-0.51977825
9	0xbda182c9	-0.078862734
10	0xbeb0db52	-0.34542328
11	0xbd8b47ff	-0.068008415
12	0xbc9ff8c9	-0.01952781
13	0xbdad11ea	-0.084506825
14	0xbe87a1df	-0.26490685
15	0xbf2e0b1b	-0.67985696

running_mean f4 [16]
0	0x3f230c14	0.63690305
1	0x3f01965d	0.5062006
2	0xbec74c9d	-0.3892564
3	0x3e5a3093	0.21307592
4	0x3f189d87	0.5961537
5	0xbf0e8409	-0.5567022
6	0xbead0dc0	-0.33799553
7	0xbe7471bd	-0.23871513
8	0xbef3f281	-0.47645953
9	0x3e97d3a5	0.2965366
10	0xbe19770b	-0.14986818
11	0xbdcba929	-0.09944374
12	0xbec8135a	-0.39077264
13	0xbf12eb64	-0.5739043
14	0x3e32e3e8	0.17469752
15	0x3f17182f	0.59021276

running_var f4 [16]
0	0x3f4c07b5	0.7969926
1	0x3f2f905f	0.6857967
2	0x3f0977f8	0.5369868
3	0x3ec24b88	0.3794825
4	0x3f073885	0.52820617
5	0x3f4b3fb5	0.79394084
6	0x3ee302f2	0.44338185
7	0x3ea81aa1	0.32832816
8	0x3f211265	0.6291869
9	0x3f256a9c	0.646158
10	0x3f16f673	0.589698
11	0x3e926109	0.28589657
12	0x3eee9c2c	0.46603525
13	0x3f1cefe4	0.61303544
14	0x3f176543	0.5913889
15	0x3f08c39f	0.53423494

weight f4 [32]
0	0x3f820c06	1.0159919
1	0x3f87d6fc	1.0612483
2	0x3f8ae778	1.0851889
3	0x3f491ec3	0.78562564
4	0x3f82bedf	1.0214499
5	0x3f8551a2	1.0415537
6	0x3f870669	1.0548831
7	0x3f97e0ea	1.1865513
8	0x3f834ce6	1.0257843
9	0x3f824480	1.0177155
10	0x3f941fe5	1.1572233
11	0x3f9898f2	1.1921675
12	0x3f9149fa	1.1350701
13	0x3f88a9be	1.0676801
14	0x3f9b39ee	1.2127054
15	0x3f8a424e	1.0801485
16	0x3f836671	1.0265638
17	0x3f651ed2	0.89500153
18	0x3f95dcba	1.1707985
19	0x3f814728	1.009984
20	0x3f79b89f	0.97547334
21	0x3f808845	1.0041586
22	0x3f83b08d	1.0288254
23	0x3f41c905	0.75697356
24	0x3f8849be	1.0647504
25	0x3f92384f	1.1423434
26	0x3f83807c	1.0273585
27	0x3f824fe7	1.0180634
28	0x3f86879e	1.0510137
29	0x3f874aac	1.0569663
30	0x3fa72888	1.3059244
31	0x3f8a7b9f	1.0818976

bias f4 [32]
0	0xbe6b58ff	-0.22983168
1	0x3de27479	0.11057372
2	0x3e1d9803	0.15390019
3	0xbf0904ef	-0.53523153
4	0xbc9a9c4e	-0.01887336
5	0xbe1dfde8	-0.15428889
6	0xbe384b05	-0.17997368
7	0x3e4d99f7	0.20078264
8	0xbdf302ef	-0.11865794
9	0xbeee67d9	-0.46563604
10	0x3d913a6f	0.070912234
11	0xbdaa0c5d	-0.08303139
12	0xbddb8c6f	-0.10720145
13	0xbe47bb50	-0.19505048
14	0xbed32cc6	-0.41245097
15	0xbdd41f0e	-0.10357486
16	0xbed5ec78	-0.41781974
17	0x3d28bd55	0.041196186
18	0xbe125c9d	-0.14293142
19	0xbefea802	-0.49737555
20	0xbe7c9bb2	-0.24668768
21	0xbefc779c	-0.49310005
22	0x3daa31bb	0.083102666
23	0xbdab61c6	-0.08368258
24	0xbee527c2	-0.44756895
25	0xbda042d5	-0.07825247
26	0xbc2f8ccc	-0.010714721
27	0xbea7ee9e	-0.32799238
28	0xbeb9bc23	-0.3627635
29	0x3bb2e85d	0.005459829
30	0xbed8b766	-0.42327422
31	0xbecac41d	-0.39602748

running_mean f4 [32]
0	0xbf8141f0	-1.0098248
1	0x3f4e40f3	0.80567855
2	0x40186118	2.3809261
3	0xbf9a7716	-1.2067592
4	0xc01181b2	-2.273541
5	0xc01f6163	-2.490319
6	0xbf1903bb	-0.5977132
7	0xbe3dca41	-0.18534185
8	0xbfcd99fb	-1.6062616
9	0xc093170c	-4.5965633
10	0x400402c0	2.0626678
11	0xbfcb7766	-1.5895813
12	0xc0841f2b	-4.1288047
13	0xbcd7236c	-0.026262008
14	0xc0817f5e	-4.0467978
15	0xbf292e27	-0.6608605
16	0xbf7d199e	-0.98867214
17	0xbf7700df	-0.96485704
18	0xbf076e29	-0.52902466
19	0xc05e54d7	-3.4739282
20	0xc014518b	-2.317477
21	0xc04c7fc4	-3.1952982
22	0x3ec65e1d	0.38743678
23	0x40041127	2.063547
24	0xc0ad3797	-5.413036
25	0x3f51ecad	0.82001764
26	0x3ee6bd60	0.45066357
27	0xbfbaaff9	-1.4584953
28	0xc092f93c	-4.592924
29	0x3fd7c056	1.6855571
30	0xc03bea1b	-2.9361637
31	0xbfe7f654	-1.8122048

running_var f4 [32]
0	0x40cff697	6.4988513
1	0x409fff48	4.9999123
2	0x40d59c47	6.675327
3	0x40d6d225	6.7131524
4	0x408dcdc2	4.431367
5	0x409487e4	4.641588
6	0x408f48ae	4.477622
7	0x40e925d3	7.285867
8	0x40dfdaa8	6.9954414
9	0x40aa0c54	5.314005
10	0x40950f5c	4.658125
11	0x40882e7b	4.255674
12	0x40dceefe	6.904174
13	0x40b648be	5.6963797
14	0x40adba05	5.4289575
15	0x40bdfc3e	5.9370413
16	0x4086c240	4.211212
17	0x40aa9881	5.331116
18	0x40d19750	6.549721
19	0x409a8846	4.829135
20	0x409160c0	4.5430603
21	0x41039b12	8.225359
22	0x40a7b28f	5.2405467
23	0x4068ad4d	3.6355774
24	0x411c9b25	9.787877
25	0x40b59e79	5.675595
26	0x40c132f3	6.0374694
27	0x40d724f7	6.7232623
28	0x40fb7c8a	7.8589525
29	0x409054a8	4.510334
30	0x40df8220	6.9846344
31	0x40925f78	4.574154
