government_icfes_dataset/mlartifacts/294710831823527254/211e31cb7a8c4296a889f0fd7944fc59/artifacts/model/data/model.pth (torch, 746816 bytes, 39 tensors)

weight f4 [4, 8]
0	0xbf8a3724	-1.0798078
1	0xbd92c78b	-0.07166966
2	0xbfdefe39	-1.7421333
3	0xc02b9ba3	-2.6813743
4	0xbf0c21c9	-0.5473905
5	0x3e0200e6	0.12695655
6	0xbec67705	-0.3876268
7	0xbdae04c5	-0.084970035
8	0xbf5d5a32	-0.8646575
9	0xbfa10070	-1.2578259
10	0x3f26c09b	0.6513764
11	0x3e2b6900	0.16739273
12	0xbff5b795	-1.919665
13	0xbf36f756	-0.71471155
14	0xbf45dc97	-0.7728972
15	0xbea7a035	-0.32739416
16	0x3e9fb041	0.3118916
17	0x3f9b896a	1.215131
18	0x403b9bf7	2.9313943
19	0x3f6b9e39	0.92038304
20	0x3fab195b	1.3367113
21	0xc02f9ee6	-2.7440734
22	0x401be9f0	2.4361534
23	0xbe1794da	-0.14802876
24	0x3f14a9d0	0.58071613
25	0x3e4fbfd6	0.20288023
26	0x3f4f1852	0.80896485
27	0x3d2d4e1f	0.04231083
28	0xbfa7e55b	-1.3116869
29	0xbf1e386c	-0.6180484
30	0xbf9cdf3e	-1.2255628
31	0x3f81fd15	1.015536

weight f4 [3, 8]
0	0xbf3b0003	-0.7304689
1	0x3fe9e91b	1.8274263
2	0x3fdbec3b	1.7181467
3	0x3f6e6ae1	0.93131834
4	0x3f606621	0.87655836
5	0x3f07f438	0.53107023
6	0xbf15551f	-0.5833301
7	0xbeae0603	-0.33988962
8	0x3ebc5c48	0.36789155
9	0xbf010d32	-0.5041076
10	0x3b004ddc	0.0019577658
11	0xbf803f2e	-1.0019281
12	0xbd8caebc	-0.068692654
13	0xbf887b40	-1.0662613
14	0x3d6669ec	0.05625336
15	0xbf98ad42	-1.1927874
16	0x3e480de0	0.19536543
17	0x3e85cb81	0.26131824
18	0xbec485d2	-0.38383347
19	0xbeb7438a	-0.35793716
20	0x3dd1bbf1	0.10240925
21	0x4012b554	2.2923174
22	0x401cbb0c	2.4489164
23	0x3fcfb066	1.6225708

weight f4 [5, 8]
0	0x3f8c1bfc	1.094604
1	0xbfd2c903	-1.6467594
2	0xbdc41d73	-0.095759295
3	0xbf3ac477	-0.7295603
4	0xbe9981b1	-0.2998176
5	0xbd8e8e79	-0.06960768
6	0x3cd52883	0.026020294
7	0xbfafa7f5	-1.3723131
8	0x3fa535c6	1.2907035
9	0x3f63fbc8	0.8905606
10	0x3f7c0c0e	0.98455894
11	0xbee84cd1	-0.45371106
12	0xbdbeb085	-0.09311012
13	0xbf816b6c	-1.0110908
14	0xbf6314c0	-0.88703537
15	0xbef5ef4b	-0.4803413
16	0xbff1362b	-1.8844656
17	0xbf9bae90	-1.2162647
18	0xbf001339	-0.5002933
19	0xbebc87e1	-0.36822417
20	0xbc920b05	-0.01782752
21	0xc009cda6	-2.1531768
22	0x3f80bc08	1.0057383
23	0x3f451f5d	0.7700098
24	0xbf972b76	-1.1810138
25	0x402ec5e6	2.7308288
26	0x3ec15645	0.3776113
27	0x3f4307f1	0.7618399
28	0x3e02a051	0.12756468
29	0x3fcdfaef	1.6092204
30	0x3fb432cf	1.4078006
31	0x3fa16f1d	1.2612034
32	0xbe97c8de	-0.29645437
33	0xbf8f6f8d	-1.1205918
34	0xbea8e2f2	-0.32985646
35	0xbe35cf50	-0.17754865
36	0x3fc56335	1.54209
37	0x3f8460e9	1.0342075
38	0xbfb4d6e8	-1.4128084
39	0x3df6ea8f	0.12056457

weight f4 [7, 8]
0	0x3f3c25fd	0.73495466
1	0x3e9eb2b2	0.3099571
2	0xbed9f805	-0.42572036
3	0xbf5ed7a0	-0.8704777
4	0xbf0107e1	-0.5040265
5	0xbdccc5c1	-0.09998656
6	0x3faf5a7d	1.369949
7	0xbf2eeb34	-0.6832764
8	0x3f842de7	1.0326508
9	0xbe2edf65	-0.17077406
10	0x3f6193d5	0.881162
11	0xbf45667e	-0.77109516
12	0xbcead23d	-0.028664703
13	0xbf7bcc70	-0.9835882
14	0x3e8a259c	0.2698182
15	0x3f6ea857	0.93225616
16	0xbf271e6f	-0.6528081
17	0xbf4f388e	-0.8094567
18	0xbf2bdc74	-0.6713326
19	0xbf1811b0	-0.5940199
20	0xbeae3765	-0.34026638
21	0x3f2a9d4d	0.6664627
22	0xbf905a64	-1.1277585
23	0xbf956efe	-1.1674497
24	0x3efc1698	0.49235988
25	0xbf625eec	-0.8842609
26	0x3c16e0d8	0.00920888
27	0x3f9cd727	1.2253159
28	0xbdcfb35f	-0.10141634
29	0xbf4efcc2	-0.8085443
30	0x3f22bbc6	0.6356777
31	0xbf1bcc4c	-0.6085861
32	0xbd035cfd	-0.032071102
33	0x3f313a6d	0.69229776
34	0x3f6caff9	0.9245601
35	0xc012e64e	-2.2953067
36	0x3fa1fee5	1.2655913
37	0xbf91cef4	-1.1391282
38	0xbe7f1d67	-0.2491356
39	0xbedcba33	-0.4311081
40	0xbf642959	-0.8912559
41	0x3f83845e	1.027477
42	0x3f14606c	0.5795963
43	0x3e7cc196	0.24683222
44	0xbdcfed5f	-0.10152697
45	0x3f07a88f	0.52991575
46	0x3e17a150	0.1480763
47	0xbce1a03e	-0.02754223
48	0xbf3107d9	-0.691526
49	0x3ded0a60	0.115742445
50	0x40304d03	2.7547004
51	0x3f27f08f	0.6560144
52	0x3f3d76b6	0.74009264
53	0xbf9e9390	-1.2388783
54	0xbfbb70ff	-1.4643859
55	0xbf5b2b04	-0.8561251

weight f4 [7, 8]
0	0x3f8c26e8	1.0949373
1	0xbfaaba7a	-1.3338158
2	0xbf5c6412	-0.86090195
3	0xc0136c1a	-2.303473
4	0xbf350ddd	-0.7072428
5	0xbc96263a	-0.018328775
6	0x3e0a63c5	0.13514622
7	0xbd81d2f6	-0.06339066
8	0x3e137130	0.14398646
9	0xbf32d272	-0.69852364
10	0xbedcb4c0	-0.4310665
11	0xbe93690c	-0.28791082
12	0x3f1e5a6c	0.6185672
13	0xbe33ff36	-0.17577824
14	0xbe5f27f0	-0.21792579
15	0x3f12c0a5	0.573252
16	0xbf86f13c	-1.0542369
17	0x3f5d7a95	0.8651517
18	0x3f9ab208	1.2085581
19	0x3f641a8e	0.8910302
20	0xbd2c9740	-0.04213643
21	0x40011d9f	2.017433
22	0xbfa4fc39	-1.2889472
23	0x40141026	2.3134856
24	0xbf4e83e2	-0.8066999
25	0x3f70c623	0.9405233
26	0x3fb71f8d	1.4306504
27	0x3f740b8d	0.95330125
28	0xbedf7fed	-0.43652287
29	0x3f601654	0.8753407
30	0x3fcb46c6	1.5880973
31	0xbfdc206b	-1.7197393
32	0x3ed34f64	0.41271508
33	0xbf731634	-0.94955754
34	0x3e71aa37	0.23600088
35	0x3f720fe8	0.9455552
36	0xbdcde8df	-0.10054182
37	0xbfa99f15	-1.3251673
38	0xbf8efb4a	-1.1170437
39	0x3dbbb36e	0.09165083
40	0xbed2f61e	-0.41203398
41	0xbe8e93e1	-0.27847198
42	0x3eaddddf	0.33958337
43	0x3f928704	1.1447453
44	0x3fce2f31	1.6108152
45	0x3f257f74	0.64647603
46	0xbee28065	-0.44238582
47	0x3e14da82	0.14536479
48	0x3fa15f6c	1.2607245
49	0x4016993f	2.3531034
50	0xbfb87211	-1.440981
51	0x3f9ef78a	1.2419293
52	0x3e890740	0.26763344
53	0xbeec125e	-0.46107763
54	0x3ec6d6e2	0.38835818
55	0xbfcc4e0b	-1.5961317

weight f4 [1025, 8]
0	0x3d6f99a7	0.058496144
1	0xbf2cd4d6	-0.6751226
2	0x3e7d314d	0.24725838
3	0x400a3961	2.1597521
4	0x3de3f190	0.11130059
5	0xbf00ac19	-0.502626
6	0x3fbaa419	1.4581329
7	0xbf9972c9	-1.1988155
8	0xbe974014	-0.29541075
9	0xbd546a1f	-0.051859017
10	0xbed18147	-0.40918943
11	0xc00288cb	-2.0395992
12	0xbf6a685e	-0.915655
13	0xbfd6a253	-1.6768287
14	0xbf206cc6	-0.62665975
15	0x3ca23e5a	0.019805122
16	0x3f19ba25	0.6004966
17	0x3e86497e	0.26227945
18	0xbed6262c	-0.41825998
19	0x3ef84514	0.48490202
20	0x3f36c15c	0.71388793
21	0x3f4d0542	0.8008615
22	0xbf116036	-0.5678743
23	0x3f8cd52a	1.1002553
24	0xc00dbba8	-2.2145786
25	0x3fa57ab9	1.2928077
26	0x3f34d4cd	0.7063721
27	0x3e9446a6	0.2896015
28	0xbfa532cc	-1.2906127
29	0x3e9e1c09	0.30880764
30	0xbea3c3ee	-0.3198542
31	0xbdb43dc1	-0.08800841
32	0xbdca7138	-0.09884876
33	0xbf30674d	-0.68907624
34	0xbf591cd0	-0.8480959
35	0x402602ac	2.593913
36	0xbdc27dd1	-0.09496654
37	0x3dc8bb28	0.09801322
38	0xbf9f5881	-1.2448884
39	0x3db679ce	0.08909951
40	0x401c379b	2.440894
41	0x3f5fc1d1	0.87405115
42	0x3ef15e17	0.47142097
43	0x3eae2dd2	0.34019333
44	0xbcc6958d	-0.024241233
45	0x3fef52ce	1.8697145
46	0xbf452951	-0.7701617
47	0xbc70af83	-0.014690283
48	0xbf0e14a2	-0.55500233
49	0x3fe1859f	1.7618903
50	0xbf7b71bd	-0.98220426
51	0x3e935e83	0.28783044
52	0x3ff955e8	1.9479342
53	0x3f20905e	0.62720287
54	0x3e9322cd	0.28737488
55	0x3e62d5d3	0.2215188
56	0xbf95933f	-1.1685561
57	0x3fb42c93	1.4076103
58	0xbee85955	-0.45380655
59	0xbf8ee083	-1.1162266
60	0x3fbbac1a	1.4661896
61	0xbe1dc541	-0.15407278
62	0xbee296dd	-0.44255725
63	0xbf71ed24	-0.9450247
64	0x3ff1400e	1.8847673
65	0x3f3f6dbe	0.7477683
66	0x3f8b6515	1.0890223
67	0x3ea5be28	0.3237164
68	0xc01c1573	-2.4388092
69	0xbf25e67b	-0.6480481
70	0x3f57caf2	0.84294045
71	0xbf3548f9	-0.7081447
72	0x3f4d02cb	0.80082387
73	0x3faad1a4	1.3345227
74	0xbf06b252	-0.52615845
75	0xbe2d1ac9	-0.16904749
76	0x3e716ee7	0.23577462
77	0xbfa529d9	-1.2903396
78	0x3fd9d668	1.7018557
79	0xbe645613	-0.2229846
80	0xbfbc85a4	-1.4728284
81	0xbfed3970	-1.8533154
82	0x3f7bfe57	0.98434967
83	0x3dd52a75	0.10408489
84	0xbfdd5f27	-1.7294663
85	0xbf548e77	-0.83029884
86	0xbdc1a685	-0.09455589
87	0x3c456357	0.01204761
88	0xbfbadd16	-1.459872
89	0xbfdfd60d	-1.7487198
90	0xbf3a80b6	-0.7285265
91	0x3ece0cf8	0.4024427
92	0x3f879f28	1.0595446
93	0xbf554327	-0.8330559
94	0xbf5714d2	-0.84016144
95	0xbf471791	-0.77770334
96	0xbe9cb5b5	-0.3060738
97	0x3f8a6874	1.0813127
98	0x3f0bbe9d	0.5458773
99	0xc0005d94	-2.0057116
100	0x3f971902	1.1804507
101	0xbfac5066	-1.3462036
102	0x3db86b10	0.090047956
103	0x3f30bca1	0.69037825
104	0xbf99edd5	-1.2025706
105	0x3fb23beb	1.3924536
106	0x3f80dc1f	1.0067176
107	0xbd0708b7	-0.032967295
108	0x3d351f9e	0.044219606
109	0x3e5602d2	0.20899513
110	0x3eccf94f	0.40033957
111	0xbf2b3fbd	-0.6689413
112	0xbf511d20	-0.81685066
113	0xbf6c9468	-0.9241395
114	0xbf7acffd	-0.97973615
115	0xbdc881be	-0.09790371
116	0xbfb2f9ec	-1.398252
117	0xbe6e7910	-0.23288369
118	0x3fddb2dd	1.732021
119	0x3f1affbe	0.6054648
120	0x40068eea	2.1024728
121	0x3eb8115e	0.3595075
122	0x3faec068	1.3652468
123	0x3fa0db03	1.2566837
124	0xc009f403	-2.1555183
125	0xbfa21ffc	-1.2666011
126	0x3f6619bc	0.8988302
127	0xc021e8c8	-2.5298328
128	0xbe9cb089	-0.30603436
129	0x3f69b4e1	0.91291624
130	0x3db2b0ae	0.08725105
131	0x3edd5a73	0.4323307
132	0xbf880dc7	-1.0629205
133	0xbf7cc732	-0.9874145
134	0x3e9434c1	0.28946498
135	0x3e6669b9	0.22501267
136	0x3d61c515	0.055119593
137	0xbd9955cc	-0.074870676
138	0xbecd56a9	-0.4010518
139	0x3e29a91a	0.16568413
140	0xbeb371dc	-0.35047805
141	0xbe62763e	-0.22115418
142	0x3f13fb49	0.57805306
143	0x3ee1ea81	0.44124225
144	0xbe4e0826	-0.20120296
145	0x3e9581eb	0.29200682
146	0x3ea7a058	0.3273952
147	0xbf0a4973	-0.54018325
148	0x3ebc2e81	0.3675423
149	0x3f043b43	0.51652926
150	0xbeac2a11	-0.33625844
151	0x3e00c0f7	0.1257361
152	0x3e812f9a	0.2523163
153	0x3e756746	0.23965177
154	0x3f1c857b	0.61141175
155	0xbfdb693a	-1.7141488
156	0x3dade156	0.08490245
157	0x3ff19cf0	1.8876019
158	0x3fc46d00	1.5345764
159	0xbfecc8dc	-1.8498797
160	0x3f24e54c	0.6441238
161	0x3e5bd256	0.21466956
162	0xbf831e26	-1.0243576
163	0xbfa76359	-1.3077193
164	0xbebebd07	-0.3725359
165	0xbdac6dc5	-0.084193744
166	0xbea48b79	-0.3213766
167	0xbe07f4b6	-0.13276944
168	0xbe3e349a	-0.18574753
169	0x3f8d01aa	1.1016133
170	0x3e10829c	0.14112324
171	0xbffbcf75	-1.9672686
172	0xbfc07e43	-1.5038532
173	0x3e66effd	0.22552486
174	0x3fc10ae1	1.5081445
175	0xbf11dd50	-0.5697832
176	0xbdf8ce11	-0.12148679
177	0x3fb4d450	1.4127293
178	0xbf7ed68b	-0.99546117
179	0xbf6b7536	-0.91975725
180	0xbfaa37aa	-1.3298237
181	0x3f9aa5fe	1.2081907
182	0x3e43df8e	0.19128248
183	0x3f8bb876	1.0915668
184	0xbfd9b0ec	-1.7007117
185	0xbf332509	-0.69978386
186	0x3ea3bac9	0.31978443
187	0xbf6ca6bb	-0.9244191
188	0x3c70fc68	0.014708616
189	0xbfba4d0b	-1.4554762
190	0xbfa28b41	-1.2698747
191	0xbf4ca26e	-0.7993535
192	0x3f92c37f	1.1465911
193	0xbf08551c	-0.53254867
194	0xbf6b7d07	-0.9198765
195	0xbf21fbc4	-0.6327479
196	0xbe0c0f21	-0.13677646
197	0x3f05a204	0.5220034
198	0xbec7fbed	-0.39059392
199	0x3eb2de7b	0.34935364
200	0x401abaa6	2.417642
201	0xbec87d6b	-0.39158186
202	0x3f424e62	0.7590085
203	0xbf5e8b9a	-0.86931765
204	0xbd243636	-0.040090762
205	0xbfddb8ff	-1.7322081
206	0xbf067ad2	-0.5253116
207	0x3fdfbfce	1.7480409
208	0x3f0283ea	0.50982535
209	0x3f344b34	0.7042725
210	0xbe8cde0c	-0.27513158
211	0xbd628c2d	-0.055309463
212	0x3fd621d2	1.6729071
213	0xbf9ad69a	-1.2096741
214	0x3e060835	0.13089068
215	0x3fde3757	1.7360638
216	0xbfc440eb	-1.5332311
217	0xbf2534d8	-0.6453376
218	0x4006ee55	2.1082966
219	0x3dd46315	0.10370461
220	0x3ebd3d7a	0.36960965
221	0xbf79f40e	-0.9763802
222	0xbeff8679	-0.49907282
223	0xc015d2ba	-2.3409867
224	0xbe821193	-0.25404033
225	0xbf550493	-0.83210105
226	0x3f915cf0	1.1356487
227	0x401c4619	2.4417784
228	0x3f0f333c	0.5593755
229	0xbf4bcbe3	-0.7960798
230	0xbdaff8e2	-0.085923925
231	0x3f8ee4e3	1.1163601
232	0xbf75c004	-0.9599612
233	0x3f87aa55	1.0598856
234	0xbfdfe4f1	-1.7491742
235	0x3ed6475d	0.4185132
236	0x3d8204d4	0.06348577
237	0x3eb90a49	0.3614066
238	0x3f0fde90	0.5619898
239	0xbf4da71b	-0.8033311
240	0x401384dd	2.3049843
241	0xbf75f63f	-0.96078867
242	0x3f82ee81	1.0229036
243	0xbfbfe05e	-1.4990346
244	0xbec6b7ec	-0.38812196
245	0xc02297a5	-2.5405056
246	0x3f1e78da	0.61903155
247	0xc0039d6b	-2.056483
248	0x3f28b98b	0.65908116
249	0xbe9750ba	-0.29553777
250	0xbf3589fe	-0.70913684
251	0xbf961947	-1.1726464
252	0xbe8de9a7	-0.27717325
253	0xbefd7cc3	-0.49509248
254	0x3f8ad7b8	1.0847082
255	0x3f2a7cdc	0.6659677

weight f4 [3, 8]
0	0x4020c7e8	2.5122013
1	0xbf51478d	-0.817498
2	0xbf4b69d9	-0.79458386
3	0x3f946f12	1.1596396
4	0xbdf2a0ac	-0.11847052
5	0xbfac7ccd	-1.3475586
6	0xbeb5407f	-0.3540077
7	0x3f74f9b9	0.95693547
8	0xbf4b7162	-0.79469883
9	0x3f342769	0.70372635
10	0x3f31c285	0.6943744
11	0xbea93e3c	-0.33055294
12	0x3f9875fd	1.1911007
13	0x3f1787f6	0.59191835
14	0x3fa9f39b	1.3277467
15	0x3e0598e9	0.13046612
16	0x400dab8d	2.2135956
17	0xbef4cbca	-0.4781173
18	0xbe4c38e2	-0.19943574
19	0xbf8ac32a	-1.0840809
20	0xbe8b5bb1	-0.27218392
21	0x3f8a575f	1.0807914
22	0x3efffc8a	0.4999736
23	0xbfede01e	-1.858402

weight f4 [7, 8]
0	0xbf994a4a	-1.1975796
1	0x3e7263be	0.23670861
2	0xbfa558c6	-1.2917717
3	0xbc958e42	-0.01825631
4	0x3f13ac67	0.5768494
5	0xbeec7ec2	-0.4619046
6	0x3e20b4b2	0.1569393
7	0x3d351b4c	0.044215485
8	0xbe91dffa	-0.28491193
9	0x3ed02299	0.40651396
10	0x3fac2f27	1.345189
11	0x3f94abab	1.1614889
12	0xbec44f31	-0.38341668
13	0xbfccd54e	-1.6002595
14	0xbf041c90	-0.5160608
15	0x3e60361c	0.21895641
16	0x3f5d6f18	0.8649764
17	0x3eb59b21	0.35469916
18	0x3e5e95df	0.21736859
19	0xbffd2334	-1.9776368
20	0x3f16a46d	0.58844644
21	0x3fcec9dc	1.6155353
22	0x3fdbf920	1.7185402
23	0xbf85c1e3	-1.0449795
24	0x3ea0110c	0.31263006
25	0xbf1e5907	-0.61854595
26	0x3fdb1f34	1.7118897
27	0xbfb2c2bd	-1.396568
28	0xbeaa08ed	-0.33209935
29	0x3fa60c7a	1.2972558
30	0x3f822f94	1.017077
31	0x3f5cdaa7	0.86271137
32	0xbf5fe26d	-0.87454873
33	0x3edbc836	0.42926186
34	0xbfbd2c9d	-1.477924
35	0xbf02b84b	-0.5106246
36	0x3e842307	0.25807974
37	0xc0045baa	-2.0680947
38	0xbfbad70c	-1.4596877
39	0xbf618287	-0.88089794
40	0x3ede619e	0.4343385
41	0xbe5b6832	-0.21426466
42	0x3ed2f2df	0.4120092
43	0xbf086504	-0.5327914
44	0x3fae9174	1.3638139
45	0xbf592003	-0.8481447
46	0xbec00988	-0.37507272
47	0xbddd9591	-0.10819543
48	0xbd6d4482	-0.057926662
49	0xbd750cb7	-0.05982658
50	0xbf050963	-0.5196745
51	0x3dd5fdb6	0.10448782
52	0x3f2771ba	0.6540791
53	0x3edb7b59	0.42867544
54	0x3f925fba	1.1435463
55	0x3ff95872	1.9480116

weight f4 [7, 8]
0	0x3f908b74	1.1292558
1	0xbf666349	-0.8999525
2	0xbe7f1cf5	-0.2491339
3	0x3e4b9dff	0.1988449
4	0x3fc0c87b	1.5061182
5	0x3f808156	1.003947
6	0x3f0e5a40	0.5560646
7	0xbe4d6615	-0.20058472
8	0xbf3cae3f	-0.7370338
9	0xbfb4f2d0	-1.41366
10	0x3f0cb95b	0.5497033
11	0x3efbd5bf	0.49186513
12	0xbf2b1692	-0.66831315
13	0x3f8e61ec	1.1123633
14	0x3fa228c9	1.2668697
15	0x3f05e700	0.52305603
16	0x3d6a2aec	0.05716984
17	0x3ed66574	0.41874278
18	0x3f2100cf	0.6289186
19	0xbff8f66a	-1.94502
20	0xbef681f4	-0.4814602
21	0xbf383f20	-0.7197132
22	0xbfa8a3d8	-1.3175001
23	0xbe92d472	-0.28677708
24	0x3f194056	0.59863794
25	0xbf9a1d64	-1.2040219
26	0x3d35616b	0.04428236
27	0xbea6fad5	-0.32613245
28	0x3d4879d1	0.0489443
29	0xbf385d29	-0.7201715
30	0xbec70186	-0.3886835
31	0xbf78fb5c	-0.97258544
32	0x3d3f8fb9	0.046767924
33	0x3f58de1d	0.8471392
34	0x3f6655ab	0.8997447
35	0xbfb88c73	-1.4417862
36	0xbf1a79cb	-0.6034209
37	0xbef43dae	-0.47703308
38	0xbc912523	-0.017717903
39	0x3e0c6325	0.13709696
40	0x3f81fb52	1.0154822
41	0xbf958a99	-1.1682922
42	0x3e617d76	0.22020516
43	0x3efa5da4	0.48899567
44	0x3e422f39	0.18963327
45	0x3f0a08e4	0.53919816
46	0x3cb414f2	0.021982644
47	0x3f4af229	0.7927576
48	0xba2004e7	-0.0006104246
49	0xbeba528a	-0.36391097
50	0x3f703b15	0.9384015
51	0x3e01c2ef	0.12672018
52	0xbfb2bc50	-1.3963718
53	0x3c823ac5	0.015897164
54	0xbfb864fd	-1.4405819
55	0xbde92791	-0.113845

weight f4 [3, 8]
0	0x3f1f2a53	0.62173957
1	0xbf9a8777	-1.207259
2	0x3f6c8a54	0.9239857
3	0xbf031014	-0.5119641
4	0xbeb2f5b6	-0.34953088
5	0x3fb07f5d	1.3788868
6	0x3fcf473d	1.6193615
7	0x3fa2825a	1.269603
8	0xbe447e38	-0.19188774
9	0x3c260b11	0.010134474
10	0xbf0948df	-0.5362682
11	0x3e85976e	0.26092094
12	0xbf2c8a2a	-0.6739832
13	0xbf8dbebf	-1.1073836
14	0xbf1fa47f	-0.62360376
15	0xbfa9a48b	-1.325334
16	0x3f712317	0.9419417
17	0xbfaaeb04	-1.3352971
18	0xc00b4228	-2.1759129
19	0xbf6457a3	-0.89196223
20	0x3dc9edf9	0.09859843
21	0x3ed4ba3a	0.4154833
22	0x3f1a8bca	0.6036955
23	0xbfd485a8	-1.6603289

weight f4 [427, 8]
0	0x401304a1	2.2971575
1	0xbe8e0da0	-0.2774477
2	0x3e714a16	0.23563418
3	0xbf8d03a9	-1.1016742
4	0x3ece99f8	0.40351844
5	0x3e298040	0.1655283
6	0xbe2a7fb5	-0.16650279
7	0xbfcc7682	-1.5973666
8	0xbfa8d4e6	-1.3189971
9	0xbfcb5331	-1.5884763
10	0xc00e8bb2	-2.2272763
11	0xbf1d2304	-0.61381555
12	0xbfa1c234	-1.2637391
13	0xbf155d34	-0.5834534
14	0x3e735299	0.23761977
15	0xbf57d86d	-0.84314615
16	0xc026564b	-2.599017
17	0x3f7ab325	0.979296
18	0x3f82111f	1.0161475
19	0x40059366	2.0871215
20	0x3f9133c2	1.134392
21	0x3fb332fa	1.3999932
22	0x3f076dc1	0.52901846
23	0x40026ef2	2.0380216
24	0xbe103bbe	-0.1408529
25	0xbf6c31ee	-0.92263687
26	0x3f309536	0.6897768
27	0xbf4d6211	-0.8022776
28	0xbfb6f1a3	-1.4292492
29	0xbd90a7f1	-0.07063282
30	0x3f0ff2ca	0.5622984
31	0x3fda11d9	1.7036697
32	0x3f82823c	1.0195994
33	0xbe9479e9	-0.2899926
34	0x3ec1a009	0.3781741
35	0x3ef958ef	0.48700663
36	0x3f807232	1.003485
37	0x3e537303	0.20649342
38	0xbcfeeab0	-0.031117767
39	0x3ff6997e	1.9265592
40	0x3e8613d9	0.26187018
41	0x3f761d3e	0.9613837
42	0x402dabc7	2.7136095
43	0x3f27cb30	0.65544415
44	0xc00951f2	-2.1456265
45	0xbedffb1c	-0.4374627
46	0xbf0a0c97	-0.5392546
47	0xbfb0bd76	-1.3807819
48	0xbe07d3bd	-0.13264365
49	0x3df23454	0.11826387
50	0x3f6b4d64	0.91914964
51	0xbee87a97	-0.4540603
52	0x3f81ede7	1.0150727
53	0xc02492c0	-2.571457
54	0xbf921550	-1.1412754
55	0xbf2e081c	-0.67981124
56	0xbe896652	-0.26835877
57	0x3fd43cc1	1.6581041
58	0x3cdbdd1f	0.026838837
59	0x3eda30f0	0.4261546
60	0x3e0a2d6f	0.13493894
61	0xbe4abbc1	-0.19798185
62	0xbfe1c770	-1.7638988
63	0x3faf1e51	1.3681127
64	0xc045b6fb	-3.0892932
65	0x3cdc36ff	0.026881693
66	0x3ef6dd98	0.48215938
67	0x3e50500e	0.20343038
68	0xbfa51f3d	-1.2900158
69	0x3e87c07a	0.26514035
70	0xbfba29c9	-1.4544002
71	0xbf0cd970	-0.55019283
72	0xbf6f56bd	-0.9349173
73	0xbf29e7c9	-0.663693
74	0xbe982f35	-0.29723516
75	0xbea5c32d	-0.3237547
76	0xbf3e07d4	-0.74230695
77	0x3f0bc419	0.54596096
78	0xbf0d8cea	-0.5529314
79	0x3f800a54	1.0003152
80	0xc00dc1d1	-2.2149546
81	0xbf9de56e	-1.2335641
82	0x3ef6c7e5	0.48199382
83	0xbf384c6b	-0.71991605
84	0xbf1406be	-0.5782279
85	0xbf53d1a3	-0.82741755
86	0xbf55d54c	-0.8352859
87	0xbf1fac77	-0.62372535
88	0xbf478551	-0.779378
89	0xbef641ff	-0.48097226
90	0xbf9533b2	-1.1656401
91	0xc0289651	-2.6341746
92	0xbfa812f4	-1.3130784
93	0xbe841697	-0.25798485
94	0x3f550a8e	0.8321923
95	0xbe155494	-0.14583045
96	0xc01d83fe	-2.4611812
97	0x3f4ae83b	0.79260606
98	0x3eb6bf88	0.35693002
99	0x3f322fa6	0.69603956
100	0xbfe8734e	-1.8160188
101	0x3f0a5cd1	0.54047877
102	0x3dfbe87b	0.123002015
103	0x3e461d54	0.19347125
104	0x3fe8b725	1.8180891
105	0xbfde2864	-1.7356076
106	0x3f283cb3	0.6571762
107	0x3f27f313	0.65605277
108	0x3ecfe784	0.4060632
109	0x3c37eaf9	0.011225455
110	0x3ea3e3b2	0.32009655
111	0x3f8b5675	1.088576
112	0x3fa49f6d	1.2861153
113	0xbc9a1274	-0.018807627
114	0xbe8d73e6	-0.27627486
115	0xbd72f850	-0.05931884
116	0xbf207616	-0.62680185
117	0x3fecc3fa	1.8497307
118	0xbf98028c	-1.1875777
119	0xbf0a523f	-0.5403175
120	0xbec8b295	-0.39198747
121	0xbfdb0985	-1.711228
122	0x3f238be1	0.63885313
123	0x3fe5f837	1.7966374
124	0xbf6788c7	-0.9044308
125	0x3fa0ac0d	1.2552506
126	0xbf8a7db2	-1.0819609
127	0x3f22f819	0.63659817
128	0xbf171d7b	-0.5902936
129	0xbf906321	-1.1280252
130	0xbd71ce88	-0.059034854
131	0x3e7de291	0.2479346
132	0xbf4323c2	-0.7622644
133	0x3f168ed2	0.58811677
134	0xbe63ebd9	-0.22257937
135	0xbfc15c71	-1.5106336
136	0x3f7c37d6	0.985227
137	0x400a7aed	2.1637528
138	0x3ee4071e	0.4453668
139	0xbffd6a8a	-1.9798138
140	0xbe72da02	-0.23715976
141	0x3e839739	0.2570131
142	0x3dcd3f85	0.10021881
143	0xbe8571f4	-0.26063502
144	0xbe1d3070	-0.15350509
145	0x3f7c52d3	0.9856388
146	0xbdaca6a0	-0.08430219
147	0x3de597f4	0.112106234
148	0xbf44efc6	-0.76928365
149	0xbff1924d	-1.8872772
150	0xbfc9d0d4	-1.5766854
151	0xbb3ecf8f	-0.0029115414
152	0x3df73427	0.12070494
153	0xbf7ad798	-0.9798522
154	0x3eb9340e	0.36172527
155	0x3f885801	1.0651857
156	0xbf96e7a4	-1.1789441
157	0xbf38a25b	-0.72122735
158	0x3f48f15b	0.7849328
159	0xbe48617d	-0.19568439
160	0xbfd45974	-1.6589799
161	0x3f33d4e4	0.7024672
162	0x3f8c303f	1.0952224
163	0xbec551ac	-0.38538873
164	0xbf406dea	-0.75167716
165	0xbc391097	-0.011295459
166	0xbe318b89	-0.17338385
167	0x3f3eed06	0.7458042
168	0xc009f74d	-2.155719
169	0x3f42f10a	0.76149046
170	0x3f27c21a	0.6553055
171	0x3f12c15e	0.57326305
172	0x3f82df44	1.0224385
173	0xc0085644	-2.1302652
174	0x400c7e02	2.195191
175	0xbf378e67	-0.71701664
176	0x3f35d0cb	0.7102172
177	0xbe388477	-0.18019281
178	0x3fe41198	1.7817869
179	0xbfd0c2b4	-1.6309419
180	0xbf2d0949	-0.67592293
181	0xbedab98f	-0.42719695
182	0xbecd5fa3	-0.40112028
183	0x3f46d289	0.77665
184	0xbf6cede2	-0.9255048
185	0xbf8ccb42	-1.0999529
186	0xbe7b0763	-0.24514537
187	0xbe401bc4	-0.18760592
188	0x3ee1a9aa	0.44074756
189	0xbf12c761	-0.5733548
190	0xbf0fb8ab	-0.56141156
191	0xbff2b44e	-1.8961275
192	0x3f071aa4	0.52775025
193	0x3f018e54	0.506078
194	0x3f3502a5	0.7070716
195	0xc021be4c	-2.5272398
196	0x3ff5d64f	1.9206027
197	0xbda4423d	-0.080204464
198	0x3f8888d2	1.0666754
199	0x3ec0985b	0.37616238
200	0x4006a714	2.1039476
201	0x3d542204	0.051790252
202	0x3e9dad87	0.30796453
203	0xbd35b6d3	-0.044363808
204	0xbececdaa	-0.40391284
205	0x3ee88276	0.45412034
206	0x3e6c683f	0.23086642
207	0x3f596224	0.84915376
208	0xbeeb6e91	-0.45982793
209	0x3ed11114	0.40833342
210	0xbf7543d3	-0.95806617
211	0x3f4adf6c	0.79247165
212	0x3f969b14	1.1766076
213	0x3fd7a683	1.684769
214	0xbe2c3ff0	-0.16821265
215	0xbf9da5f2	-1.2316267
216	0xbedb47fa	-0.4282835
217	0x3e1790a9	0.14801277
218	0x3ecf002e	0.40429825
219	0x3f8d1aac	1.1023765
220	0x3eb60339	0.35549334
221	0x3e01a11a	0.12659112
222	0xc0235268	-2.5519047
223	0xbf5ae7e0	-0.85510063
224	0x3e834929	0.25641754
225	0x3f5f3919	0.871965
226	0x3fc1066d	1.5080086
227	0xbf4596ec	-0.77183414
228	0xbfa6fbf0	-1.3045635
229	0xbfaeb5e4	-1.3649259
230	0xbfca5a06	-1.5808723
231	0xbf75f20c	-0.9607246
232	0xbfd374d8	-1.6520033
233	0x3e88c3de	0.26711935
234	0xc02cc266	-2.6993651
235	0xbf8f153f	-1.1178359
236	0x40089bb0	2.1345024
237	0xbf796aef	-0.9742879
238	0xbcbc1477	-0.022958977
239	0x3fe04dfc	1.7523799
240	0x3e97377f	0.29534528
241	0x3dbe2118	0.09283656
242	0xbd50b092	-0.05094964
243	0x400d13d7	2.204336
244	0x3fdda7b4	1.7316804
245	0x3eaeb79f	0.34124467
246	0xbe87fe91	-0.26561406
247	0xbff72325	-1.93076
248	0xbf3c6531	-0.73591906
249	0xbe07deca	-0.13268581
250	0xbf5fe9bd	-0.8746603
251	0xbe75f50c	-0.24019259
252	0x3ee5fce1	0.44919494
253	0x3f926b83	1.143906
254	0xbdc09752	-0.09403862
255	0xbf806888	-1.00319

weight f4 [1030, 8]
0	0xbf890043	-1.0703205
1	0x3e1f3237	0.15546499
2	0x3e91a439	0.28445604
3	0x3e838b9d	0.25692454
4	0x40243153	2.5655105
5	0x3edc36c4	0.43010533
6	0xbef2a3f4	-0.4739071
7	0xbe6f42a1	-0.2336526
8	0xbfba110b	-1.4536451
9	0xbe6ee8f5	-0.23331054
10	0xc00e55ad	-2.2239792
11	0xbf58222d	-0.8442715
12	0xbe180390	-0.14845109
13	0xbfc978a8	-1.5739946
14	0x3dae7793	0.08518901
15	0x3e8af058	0.27136493
16	0xbf077dbb	-0.52926224
17	0x3ea44616	0.3208472
18	0xbffda06e	-1.9814584
19	0xbea84273	-0.32863197
20	0x3fa13aa9	1.2596027
21	0xbf9c6ae2	-1.2220118
22	0xc01c7b7f	-2.4450376
23	0xbfddc83d	-1.7326733
24	0x3f20de9f	0.6283969
25	0x3f604b7c	0.8761518
26	0xc0077a80	-2.1168518
27	0x3e095b07	0.1341363
28	0xbec6b839	-0.38812426
29	0x3df91d68	0.12163812
30	0x3fc9f986	1.5779274
31	0xbf963741	-1.1735612
32	0xc0073e10	-2.113163
33	0x3edaae09	0.42710903
34	0x4016ed02	2.3582158
35	0xbf46f736	-0.77720964
36	0x3e29fc01	0.16600038
37	0x3eae41c2	0.34034544
38	0x3f4218c4	0.7581904
39	0xbf5e539a	-0.86846316
40	0x3f694fce	0.911374
41	0xbe6b3992	-0.2297118
42	0x3f10a53f	0.56502146
43	0x400de8ca	2.2173333
44	0x3f47bf86	0.78026617
45	0x3f792c4d	0.9733322
46	0x3f87de50	1.0614719
47	0x3ee71c07	0.4513857
48	0xbf8b0731	-1.086157
49	0xbf7e8abe	-0.99430454
50	0x3ec6ddcd	0.38841096
51	0xbf44fb00	-0.76945496
52	0x3f614a32	0.8800384
53	0xbfb99a75	-1.4500262
54	0x3c25360f	0.010083689
55	0x3ed6d30e	0.41957897
56	0xbf92b1f5	-1.1460558
57	0x3f31bcac	0.69428515
58	0xbd889b46	-0.06670241
59	0xbe866f39	-0.2625673
60	0xbeed4d34	-0.46347964
61	0xbfb2553c	-1.3932261
62	0x3df18c84	0.11794379
63	0xbfd0ca49	-1.6311733
64	0x3f8a80c7	1.082055
65	0x3f941cc9	1.1571285
66	0x3eec49f3	0.4615017
67	0xbecbe68e	-0.39824337
68	0x3f773852	0.9657031
69	0xbf0a2218	-0.5395827
70	0x3f8ea3d1	1.1143743
71	0xbf0aa544	-0.54158425
72	0xbff299e4	-1.8953214
73	0xbe42ff23	-0.1904264
74	0x3f6adf2e	0.91746795
75	0xbf19a1e5	-0.60012656
76	0xbfb29f9c	-1.3954959
77	0xbf413b98	-0.7548156
78	0xbad5193c	-0.0016258131
79	0xbebbca00	-0.3667755
80	0xbf5a2fd4	-0.8522923
81	0xbe2c1bde	-0.16807505
82	0xbfd772bf	-1.6831893
83	0xbfaed9bc	-1.3660197
84	0xbf75f052	-0.96069825
85	0xbeb41ff3	-0.35180625
86	0xbf8fbea5	-1.1230055
87	0x3ef1cd47	0.47226927
88	0xbfc31745	-1.5241476
89	0xbf7e4dc5	-0.99337417
90	0x3da3882d	0.07984958
91	0x3d6784b3	0.056523036
92	0xbea4100b	-0.3204349
93	0x3f6f718d	0.9353264
94	0x3f94cb7b	1.1624597
95	0x3f9bc853	1.2170509
96	0x3f957964	1.167767
97	0xbe37692b	-0.17911212
98	0x3f14a65f	0.5806636
99	0x40348b36	2.8209968
100	0xbeb9fd57	-0.36326095
101	0xbea7f92b	-0.32807288
102	0xbf39b918	-0.72548056
103	0x3f8200d5	1.0156504
104	0x3ee8158b	0.45328936
105	0x3f7bd062	0.9836484
106	0x3d0193a8	0.031634957
107	0xbf69445b	-0.9111993
108	0xbe17c7f7	-0.14822374
109	0xbfbc0b77	-1.4690999
110	0x3bf9e3f4	0.007626051
111	0x3ef8adda	0.48570138
112	0xbdda4535	-0.106577314
113	0x3f429801	0.7601319
114	0x3f0e76ed	0.55650216
115	0xbf3e82c2	-0.7441827
116	0xbfb1134a	-1.3834012
117	0xbdb94ec4	-0.090482265
118	0xbfa5189d	-1.2898136
119	0xbe0a9e07	-0.13536845
120	0x3f121dbd	0.57076627
121	0xbf30eee7	-0.69114536
122	0x3f881bd7	1.0633496
123	0xbf7d38e1	-0.98914915
124	0x3f707a4c	0.9393661
125	0x3f8f9813	1.1218284
126	0x3fae3023	1.360844
127	0x3f7eac94	0.99482083
128	0xbf51eb5d	-0.8199976
129	0x3f60298c	0.87563396
130	0xbf1b9a2a	-0.6078211
131	0x3f46ce77	0.7765879
132	0x3db8e76f	0.090285175
133	0xbf74561e	-0.95443904
134	0xbb67c74f	-0.00353666
135	0xbf651031	-0.8947783
136	0x3eb03b83	0.34420404
137	0x3f6e223d	0.93020993
138	0xbe51b879	-0.20480527
139	0xc03257f9	-2.7866194
140	0xbe61738a	-0.22016731
141	0xbecf6adf	-0.40511224
142	0xbf5880e8	-0.84571695
143	0xbe452789	-0.19253363
144	0xc008da43	-2.1383216
145	0xbfc244d3	-1.5177253
146	0xbf639e53	-0.8891346
147	0xbf5ef557	-0.8709311
148	0xbf0469ba	-0.51723826
149	0xbf8d3055	-1.1030375
150	0xbf52a41d	-0.82281667
151	0xbf72b477	-0.9480662
152	0x3e23d750	0.16000104
153	0xbe83ddbb	-0.25755104
154	0x3d915fd2	0.070983544
155	0xbdeeeb96	-0.11666028
156	0x3e9a234d	0.30105057
157	0x3edf73a7	0.43642923
158	0xc018d795	-2.388158
159	0xbd719a7d	-0.058985222
160	0x3d4f79a5	0.05065312
161	0x3dc1f255	0.09470049
162	0x3eb3a6dc	0.3508824
163	0x3f47979c	0.7796571
164	0xbf0062e8	-0.5015092
165	0x3fa16e29	1.2611743
166	0xbdf8ef43	-0.121550106
167	0xbeb89235	-0.36049047
168	0x3eea27e3	0.45733556
169	0xbf3e0c13	-0.74237174
170	0x3f6bf67a	0.9217297
171	0x3fca2200	1.5791626
172	0xbf22d040	-0.63599014
173	0x3dde8596	0.10865323
174	0x3f4d4329	0.80180603
175	0xbec34329	-0.38137177
176	0xbdd4d7a4	-0.10392693
177	0x3f2921a4	0.66066957
178	0xbebf1bf8	-0.37326026
179	0xbee97ba7	-0.45602152
180	0xbe49dff1	-0.19714333
181	0xbe649edd	-0.22326227
182	0xbf02eaf1	-0.5113974
183	0x37b974d6	2.2108125e-05
184	0x3e822811	0.25421193
185	0xbe93da45	-0.28877464
186	0xbf360e7f	-0.7111587
187	0xbf274fa0	-0.65355873
188	0xbf3b3f30	-0.7314329
189	0x3f6875ee	0.90804946
190	0x3e7f87ef	0.24954198
191	0x3f68db1f	0.9095935
192	0x3fab5db3	1.338797
193	0x3ea5a9fd	0.32356253
194	0x3f79a777	0.97521156
195	0x3ecded1b	0.4021996
196	0xbff84952	-1.9397376
197	0xbab2d097	-0.0013642487
198	0xbf356111	-0.70851237
199	0xbe695606	-0.22786722
200	0x40362fe7	2.8466737
201	0xbe4310b1	-0.19049336
202	0xbf4fad12	-0.8112346
203	0xbf45c554	-0.77254224
204	0xbf029485	-0.5100787
205	0xbfa7307b	-1.306167
206	0xbf80c937	-1.0061406
207	0x3fe30d78	1.7738485
208	0x400242cf	2.0353277
209	0xbefc8fcd	-0.4932846
210	0x3cb0875c	0.02154892
211	0xbefa6113	-0.48902187
212	0x3e5ee633	0.21767502
213	0xbfe59646	-1.7936485
214	0xbf0f950f	-0.5608682
215	0x3d657b3e	0.056025736
216	0xbe78ac7c	-0.24284548
217	0x3f872e37	1.0560979
218	0x3dde1c34	0.10845223
219	0x3fc601aa	1.5469258
220	0x3e4f49ad	0.20242949
221	0x3f1b0d95	0.605676
222	0x3f0e64be	0.5562247
223	0xbfb4aa33	-1.4114441
224	0xbea7edaf	-0.32798526
225	0xbec5b2be	-0.38612932
226	0x3e5be923	0.21475653
227	0x402335f0	2.550167
228	0xbf422576	-0.7583841
229	0x3f9e6364	1.2374082
230	0xbf8dfb7d	-1.1092373
231	0xbf8b0b8d	-1.08629
232	0x3f3a5a8a	0.727944
233	0xbfb91870	-1.4460583
234	0xc00ab54d	-2.1673157
235	0xbed34e52	-0.4127069
236	0x3f9a3175	1.2046343
237	0xbf44026a	-0.76566184
238	0x3f38c56c	0.7217624
239	0x3f17b789	0.5926443
240	0xbf22d1ca	-0.6360136
241	0xbfd2efef	-1.6479472
242	0x3c9d6989	0.019215362
243	0x4001ef01	2.0302126
244	0x3f7d2fe0	0.98901176
245	0xbecb4f01	-0.39708713
246	0xbf242fea	-0.6413561
247	0xbe257965	-0.1615959
248	0x3e88d9e2	0.2672873
249	0xbb213baf	-0.0024602225
250	0xbf2ab4ae	-0.66681945
251	0xbf5941eb	-0.8486621
252	0xbf45d7ee	-0.7728261
253	0xbf8d8b2c	-1.1058097
254	0xbdb4f3aa	-0.08835538
255	0xbf2bee76	-0.6716074

weight f4 [7, 8]
0	0xbeb1aa55	-0.34700266
1	0x3ff48ae4	1.9104886
2	0x4006055e	2.0940776
3	0x3e363be9	0.17796291
4	0x401abdc8	2.4178333
5	0x3fe280a5	1.7695509
6	0x3f5c5cba	0.8607899
7	0xbefe60ac	-0.4968313
8	0x3f305921	0.68886
9	0xbe9a8821	-0.30181983
10	0x3fd1263e	1.6339796
11	0x3c210343	0.009827438
12	0x3f47187b	0.7777173
13	0xbf9e7c44	-1.2381673
14	0xbf992d1f	-1.1966895
15	0x3c7272da	0.014797891
16	0x3ed54d14	0.41660368
17	0x3f2d10d7	0.6760382
18	0xbf4ef38c	-0.80840373
19	0x3fd715f1	1.6803571
20	0xbf68e760	-0.9097805
21	0x3f2ae56d	0.66756326
22	0xbd7f57ad	-0.062339474
23	0x3d0a8654	0.03381951
24	0xbf2d2b13	-0.6764385
25	0xbe8766b1	-0.26445535
26	0x3d8b871f	0.06812882
27	0x3efa2022	0.4885264
28	0x3f113c0b	0.56732243
29	0xbff7fa2c	-1.9373221
30	0xbe8db91b	-0.27680287
31	0x3f7801cc	0.9687774
32	0xbf1bfe2c	-0.6093471
33	0xbccb23b8	-0.024797305
34	0x3eaf57f9	0.34246805
35	0x3d1eff7c	0.038817868
36	0x3d10bceb	0.035336416
37	0xbef0a59d	-0.47001353
38	0xbf772cbf	-0.9655265
39	0xbf74a7b6	-0.95568407
40	0x40103e60	2.253807
41	0xbea99094	-0.33118117
42	0x3de72e84	0.11288169
43	0xbcd8d83d	-0.026470298
44	0x3e5a63cc	0.21327132
45	0xbec47a90	-0.38374758
46	0x3ef2537a	0.47329313
47	0x3e79a852	0.24380615
48	0xbcf46964	-0.02983541
49	0xbe593356	-0.2121099
50	0x3ea84fb2	0.32873303
51	0x40121e3f	2.283096
52	0x3f6fb526	0.93635786
53	0x3f98bd01	1.193268
54	0xbddf0ae7	-0.10890751
55	0xbedbbb1c	-0.4291619

weight f4 [7, 8]
0	0x3e0d1446	0.13777265
1	0x3f078880	0.5294266
2	0x3e74650a	0.23866668
3	0x3dd7ff01	0.10546685
4	0xbef2d002	-0.47424322
5	0xbf4bd460	-0.79620934
6	0xbe5e746f	-0.21724103
7	0x3d00fc30	0.031490505
8	0x3dfd0d14	0.1235601
9	0xbe2adca7	-0.16685735
10	0x3c019518	0.007909082
11	0xbdba1272	-0.090855494
12	0xbf35bd65	-0.7099212
13	0x3eabd2f5	0.33559385
14	0xbf621ee2	-0.88328373
15	0xbf9a05bd	-1.2033001
16	0xbe948f4b	-0.29015574
17	0xbfbf72a3	-1.4956859
18	0x3fbfa7ad	1.4973046
19	0x3e91e945	0.28498283
20	0xbf811b74	-1.0086503
21	0x3fa6fbb6	1.3045566
22	0x3f0bc70a	0.54600585
23	0xbeb64b17	-0.35604164
24	0xbee09a5a	-0.4386776
25	0xbfb7d71d	-1.4362522
26	0x3f9f0130	1.2422237
27	0x3fcaa967	1.5832947
28	0x3e9b4a5a	0.30330163
29	0x3e5020f8	0.20325077
30	0xbfa8e070	-1.3193493
31	0x3fa857e7	1.3151826
32	0x4025cd84	2.5906687
33	0xbf87590b	-1.0574049
34	0x3fe3d52b	1.7799429
35	0x3fbe2102	1.4853823
36	0xbebf1e55	-0.3732783
37	0xbfef32ac	-1.8687339
38	0xbd914aa4	-0.07094315
39	0xbdb28729	-0.08717186
40	0xbfa07909	-1.2536937
41	0xbf847712	-1.0348837
42	0xbefca3db	-0.49343762
43	0x3ccdcea5	0.02512295
44	0x3f3fc227	0.7490563
45	0xc045622d	-3.0841172
46	0xbebe94f4	-0.37223017
47	0x3f84ee37	1.0385197
48	0x3faadef1	1.3349286
49	0xbfb4f8fd	-1.4138485
50	0xbf41ec54	-0.75751233
51	0x3ea9f8f2	0.33197743
52	0xbf296da9	-0.66182953
53	0xbe7381e9	-0.23780026
54	0xbfd64baa	-1.6741841
55	0xbe893b4a	-0.26803046

weight f4 [7, 8]
0	0xbfb3336b	-1.4000067
1	0x3fc1bb6b	1.513532
2	0xbf3f4e7d	-0.7472914
3	0x3fc2badc	1.5213275
4	0xbcb1a0bd	-0.021683091
5	0x3eebc879	0.46051386
6	0x3f90663c	1.12812
7	0x3ef3e53c	0.4763583
8	0xbf11ee75	-0.5700448
9	0x3f50ddf9	0.81588703
10	0xbf36b453	-0.713689
11	0x3f186f49	0.5954481
12	0x3ef457cb	0.4772323
13	0xbeda51c5	-0.4264051
14	0xbf5a6c69	-0.8532167
15	0x3f1f2ed2	0.6218082
16	0xbfd599a4	-1.6687512
17	0xbdbcff61	-0.09228397
18	0x3fb21972	1.3914015
19	0xbef060a0	-0.4694872
20	0x3ee2020a	0.4414218
21	0x3d0ecb92	0.03486211
22	0x3f8a1547	1.0787743
23	0xbdcaffce	-0.09912072
24	0xbec78f95	-0.38976732
25	0x3f194e18	0.59884787
26	0x3e216de7	0.1576458
27	0xbf0e9c45	-0.557072
28	0xbdb9e4b3	-0.09076824
29	0x3f1f8a3b	0.623203
30	0xbeb43d45	-0.35202995
31	0xbe03302f	-0.1281135
32	0xbf93b2d7	-1.1538953
33	0xbfa5e70c	-1.2961135
34	0x3f1c5d39	0.61079746
35	0xbfdcd882	-1.7253573
36	0xbf08d431	-0.5344878
37	0x3cb12e8a	0.021628637
38	0x3f0a251f	0.5396289
39	0x3f042187	0.5161366
40	0xbf8c8ed2	-1.0981085
41	0xbf44c901	-0.7686921
42	0xbfad2a75	-1.3528582
43	0x3f78b040	0.97143936
44	0x3eaed8d4	0.34149802
45	0xbd9c9134	-0.07644883
46	0x3f4267e8	0.759398
47	0xbe00ec25	-0.12590082
48	0xbec14180	-0.37745285
49	0x3f92b008	1.145997
50	0xbc079482	-0.008275153
51	0xbf62fc6e	-0.8866643
52	0xbe9376a1	-0.28801444
53	0xbf3b8859	-0.73254925
54	0x3ea177cb	0.31536707
55	0x3f8605c5	1.0470511

weight f4 [6, 8]
0	0xbf777791	-0.9666682
1	0xbf6091b1	-0.8772231
2	0x3d5b8010	0.053588927
3	0x3ee8b7c6	0.45452708
4	0xbd29ef87	-0.041488197
5	0x3fba41bb	1.4551309
6	0xbfa5d55e	-1.295574
7	0x3ef072e0	0.46962643
8	0x3fe0928c	1.7544723
9	0xbca35fc0	-0.019943118
10	0xbf974d1c	-1.1820407
11	0xbf1fcfea	-0.62426627
12	0x3ef6cd37	0.48203442
13	0xbf17919a	-0.59206545
14	0xbfb66207	-1.4248666
15	0x3d0d7711	0.03453738
16	0x3f6273b8	0.8845782
17	0x3f2c1a45	0.67227584
18	0x3fa0cc9f	1.2562445
19	0x3f703c53	0.9384205
20	0xbece260b	-0.402634
21	0xbee59e64	-0.44847405
22	0xbd3d6db7	-0.04624721
23	0xbecbcee1	-0.39806274
24	0x3fc4820d	1.5352188
25	0x3e891598	0.26774287
26	0x3fbd6972	1.4797804
27	0xc0165a82	-2.3492742
28	0x3fc5e538	1.5460577
29	0xbf8f49f0	-1.1194439
30	0xbef20578	-0.47269797
31	0xbe943e05	-0.28953567
32	0xbd9d308f	-0.076752774
33	0x3f8f5a9f	1.119953
34	0x3f557f94	0.83397794
35	0x3f8f25c0	1.1183395
36	0xbfc80675	-1.562697
37	0xbf68967d	-0.90854627
38	0xbe65d630	-0.22444987
39	0x3e1c9fb6	0.152953
40	0xbe704ce8	-0.23466837
41	0x3ecc654d	0.39921036
42	0x3e4a0900	0.19729996
43	0xbf4d4f2e	-0.80198944
44	0x3fb244b5	1.3927218
45	0x3e516770	0.20449615
46	0x3f443b88	0.7665334
47	0xbefeb9e5	-0.497512

weight f4 [32, 1, 3]
0	0x3eab4f5d	0.33458987
1	0x3e9710c4	0.2950498
2	0xbeacf317	-0.33779213
3	0xbe9e6e14	-0.30943358
4	0x3f1c81c8	0.6113553
5	0x3e361a89	0.1778356
6	0x3e596559	0.21230067
7	0xbf6b6c9f	-0.9196262
8	0x3e9e845c	0.30960357
9	0x3eae3e4c	0.34031904
10	0xbede84b5	-0.43460622
11	0xbeaacd0b	-0.3335956
12	0xbf02b328	-0.5105462
13	0x3f077521	0.529131
14	0x3d4cca6e	0.04999774
15	0x3e1ac852	0.15115479
16	0xbf693b42	-0.91106045
17	0x3e2b50ac	0.16729993
18	0x3d85db0c	0.065359205
19	0xbf203070	-0.6257391
20	0xbeca33f0	-0.3949275
21	0xbed0e627	-0.40800592
22	0xbee72379	-0.4514425
23	0xbeaf210f	-0.3420491
24	0xbd202c7a	-0.039104916
25	0x3e013ca0	0.12620783
26	0xbfb1c5a1	-1.3888437
27	0x3e9209cc	0.285231
28	0xbeca2819	-0.39483717
29	0x3c045719	0.008077406
30	0x3eedf4ac	0.46475732
31	0x3f22e8c8	0.63636446
32	0x3c7ec5ee	0.01555012
33	0xbe97ad18	-0.29624248
34	0x3f244dd8	0.6418128
35	0xbf0e50ae	-0.5559186
36	0x3e9f398b	0.3109859
37	0x3daacc30	0.08339727
38	0xbee3a52c	-0.44461954
39	0xbdcae7ec	-0.09907517
40	0x3f0e1132	0.5549499
41	0x3eb2cdc6	0.34922618
42	0xbf60eb9a	-0.878595
43	0xbe3f2dbd	-0.18669792
44	0x3c263e8c	0.010146748
45	0xbecc542e	-0.39907974
46	0x3ecad993	0.3961912
47	0x3dfb6787	0.12275606
48	0x3e4c8c3e	0.19975373
49	0xbf0e7320	-0.55644417
50	0x3e7271b1	0.23676182
51	0xbf89af13	-1.0756553
52	0xbe08cad4	-0.13358623
53	0x3e012430	0.1261146
54	0xbea56f25	-0.3231136
55	0x3f29ac7c	0.66278815
56	0xbe2f84cd	-0.17140503
57	0xbea3348e	-0.31876034
58	0x3f1d6a11	0.6148997
59	0xbddd9fc9	-0.10821492
60	0x3eed7d04	0.46384442
61	0xbebb813b	-0.36622033
62	0xbed5183a	-0.41620046
63	0x3f086562	0.532797
64	0xbf139f66	-0.576651
65	0x3e752174	0.23938543
66	0x3ec6b2aa	0.38808185
67	0xbef6e09e	-0.48218244
68	0xbee68c1b	-0.45028767
69	0x3e0fc60a	0.1404039
70	0xbf5dbe4c	-0.86618495
71	0x3ea1588c	0.31512868
72	0xbddad859	-0.10685796
73	0x3f2ec0ad	0.6826275
74	0x3ec28929	0.3799527
75	0x3e1902e1	0.14942504
76	0x3f01f6cb	0.507672
77	0x3f4a88c8	0.7911496
78	0x3e441661	0.19149162
79	0xbfac59de	-1.3464925
80	0xbde4c813	-0.11170974
81	0x3d0565c5	0.032567758
82	0xbcd4a259	-0.02595632
83	0x3fe3dc15	1.7801539
84	0x3e7ef76b	0.2489907
85	0xbf62b8d3	-0.8856327
86	0x3e9f4017	0.31103584
87	0x3f3cbb93	0.73723716
88	0xbe2ece72	-0.1707094
89	0xbe64e3df	-0.22352551
90	0xbc09bc56	-0.008406719
91	0xbcb0a23c	-0.021561734
92	0x3fd26871	1.6438123
93	0xbed5235b	-0.41628537
94	0xbf12f966	-0.574118
95	0xbec5b66c	-0.3861574

bias f4 [32]
0	0xbf7f9a29	-0.99844605
1	0x3dde4dda	0.10854693
2	0x3f1cf212	0.6130687
3	0xbe629460	-0.22126913
4	0x3e33d9a9	0.175635
5	0x3ee1f74a	0.4413398
6	0xbf33bfc0	-0.7021446
7	0x3ecb9c47	0.39767668
8	0x3f110281	0.56644446
9	0xbdf42846	-0.11921744
10	0xbe52b627	-0.20577298
11	0xbefcafae	-0.49352783
12	0x3e25e10e	0.16199133
13	0xbd885c88	-0.06658274
14	0xbcf5cf6c	-0.030006133
15	0xbf2997b0	-0.6624708
16	0x3e31b135	0.17352755
17	0xbd31b6d9	-0.043387268
18	0x3c956a13	0.018239057
19	0x3e2c53a0	0.16828775
20	0x3e1a80a9	0.15088142
21	0x3f400238	0.75003386
22	0xbf2d554d	-0.67708284
23	0xbf0a630d	-0.5405739
24	0xbe94a1f4	-0.2902981
25	0xbe8cc107	-0.27491018
26	0xbec406a5	-0.3828632
27	0x3e3e18f2	0.18564203
28	0x3eb05ad8	0.34444308
29	0x3f098fe6	0.53735197
30	0xbf3d68d7	-0.739881
31	0xbe912d0b	-0.28354678

weight f4 [64, 32, 3]
0	0x3df47f93	0.11938395
1	0x3e688d48	0.22710145
2	0xbdf5c1b1	-0.11999834
3	0xbbb1795b	-0.005416078
4	0xbf2e2553	-0.680257
5	0x3e584aea	0.21122327
6	0x3deeeab2	0.11665858
7	0x3ef0fbc9	0.47067097
8	0xbeb98ebc	-0.3624171
9	0xbd6184e4	-0.055058375
10	0x3e277fa2	0.16357282
11	0x3e630a57	0.22171913
12	0x3d8377b6	0.064193174
13	0xbf1469ee	-0.57974136
14	0x3ebb365d	0.36564913
15	0x3d812066	0.06305008
16	0x3e1e6b34	0.15470582
17	0xbf278267	-0.65433353
18	0xbde3aa49	-0.11116464
19	0x3eb2f90d	0.34955636
20	0xbe85e671	-0.26152375
21	0xbb6fb1d7	-0.0036574507
22	0xbe887072	-0.2664829
23	0x3cf4523a	0.029824365
24	0xbee35638	-0.44401717
25	0x3ea95b8a	0.3307765
26	0x3cb6f1f1	0.022332164
27	0x3e1de714	0.1542018
28	0xbcefa654	-0.029254116
29	0x3c293661	0.010327906
30	0x3e7973fb	0.2436065
31	0x3e7adb39	0.2449769
32	0xbec79c59	-0.3898647
33	0xbe0a3084	-0.1349507
34	0xbe6ec8c6	-0.23318776
35	0x3e47de53	0.19518404
36	0xbeab7818	-0.33490062
37	0x3e812dfa	0.2523039
38	0x3d926d46	0.071497485
39	0x3e528a49	0.20560564
40	0xbf253b5c	-0.645437
41	0x3dbcdf61	0.09222294
42	0xbd64e9ac	-0.05588691
43	0xbe5eae8f	-0.21746276
44	0x3eb07d77	0.34470722
45	0x3c06260a	0.00818778
46	0xbf532d06	-0.82490575
47	0x3ed78860	0.42096233
48	0xbc8f161e	-0.017466601
49	0x3eb7c224	0.35890305
50	0xbdadd6bd	-0.08488224
51	0x3d7ee09f	0.062225934
52	0xbec62d73	-0.3870655
53	0xbde4297c	-0.11140725
54	0x3e24e8fe	0.16104504
55	0xbebb0174	-0.36524546
56	0x3e0e9349	0.13923372
57	0x3e806195	0.2507445
58	0xbe478a74	-0.1948641
59	0x3eac995f	0.33710763
60	0xbdc2fa4b	-0.09520396
61	0x3e99c1ff	0.3003082
62	0xbd92de23	-0.071712755
63	0xbde58af1	-0.112081416
64	0x3e0861d2	0.13318565
65	0x3eb1fb83	0.347622
66	0xbcafc684	-0.021456964
67	0xbcac12c6	-0.021005046
68	0x3d88688f	0.06660568
69	0x3e3f997f	0.18710898
70	0x3e90705d	0.28210726
71	0xbf3a550b	-0.72786015
72	0x3e09c014	0.13452178
73	0xbeea0c8a	-0.45712692
74	0x3c91fa87	0.017819656
75	0xbd4bdaab	-0.049769085
76	0x3dc2765b	0.09495231
77	0xbe11e847	-0.14248763
78	0x3dbeff90	0.093260884
79	0x3f1ec999	0.62026364
80	0xbf4ac6f1	-0.7920981
81	0x3e0cdfd2	0.13757256
82	0x3ef900a5	0.48633304
83	0xbec1684a	-0.3777488
84	0xbbe51062	-0.0069904784
85	0x3ec0e2a3	0.3767291
86	0xbe57b32c	-0.21064442
87	0xbe762fb9	-0.24041642
88	0x3ed6bbf9	0.41940287
89	0x3e93335b	0.2875012
90	0x3e563fce	0.20922777
91	0x3eaba098	0.3352096
92	0xbef609a0	-0.48054218
93	0xbe27e3e8	-0.16395533
94	0x3d8ab092	0.06771959
95	0xbdc74ae1	-0.09731079
96	0xbdc6edb8	-0.0971331
97	0x3ea76d33	0.327005
98	0xbeae6437	-0.34060833
99	0x3e5699e8	0.20957148
100	0xbeb80c5c	-0.3594693
101	0x3de43799	0.11143417
102	0xbe090265	-0.1337982
103	0x3e5fa6bc	0.21840948
104	0xbe9696f9	-0.29412058
105	0xbf2f840c	-0.6856086
106	0xba50565e	-0.000794744
107	0x3ddc5488	0.107583106
108	0xbcf7cebf	-0.030249951
109	0xbeaa1d18	-0.33225322
110	0x3e9ebbd3	0.31002674
111	0xbe186b18	-0.14884603
112	0xbe1b0790	-0.15139604
113	0xbe198d2f	-0.14995264
114	0xbf0bb541	-0.54573447
115	0xbe4a5159	-0.19757594
116	0x3eccfcd7	0.40036651
117	0xbebb0c1b	-0.36532673
118	0xbf4fe6e6	-0.812117
119	0x3f32c20a	0.6982733
120	0xbf366548	-0.7124829
121	0x3e1bf246	0.15229139
122	0x3f111334	0.56669927
123	0xbe551ded	-0.20812197
124	0xbe5286a0	-0.20559168
125	0x3e861c86	0.26193637
126	0x3e940d48	0.28916383
127	0x3e001013	0.12506132
128	0xbece7e99	-0.4033096
129	0xbe95c945	-0.2925512
130	0x3e5dfe93	0.21679144
131	0x3ee1deb2	0.44115216
132	0xbf070cf3	-0.52754134
133	0x3e62b328	0.22138655
134	0x3df23d66	0.11828117
135	0xbbbefe2f	-0.005828641
136	0x3e51e128	0.20496047
137	0xbcab4fc5	-0.02091206
138	0xbce3f679	-0.027827488
139	0xbf715bb1	-0.94280535
140	0x3d72c2ff	0.059267994
141	0xbc6fe1e8	-0.014641263
142	0xbe96787a	-0.2938879
143	0x3e853f89	0.26025036
144	0xbd2b7bee	-0.041866235
145	0x3e503058	0.20330942
146	0x3be29bd1	0.0069155474
147	0xbdc40ceb	-0.095727764
148	0xbf1ac9ea	-0.60464346
149	0xbbc72f2f	-0.006078623
150	0xbe91ff49	-0.2851508
151	0xbd7ee7d5	-0.06223281
152	0x3ddd3653	0.10801377
153	0xbd2070fb	-0.039170247
154	0x3e3b1fd6	0.18273863
155	0xbdcb68ec	-0.09932122
156	0xbefed041	-0.4976826
157	0x3e9a47f5	0.30133024
158	0x3e59a83c	0.21255583
159	0xbeba9a07	-0.3644564
160	0xbe1b900f	-0.15191673
161	0x3ded7efb	0.11596485
162	0xbf32d5bd	-0.6985739
163	0x3e16a632	0.14711836
164	0x3ed034d7	0.40665314
165	0xbdd20421	-0.10254694
166	0xbdae5113	-0.085115574
167	0xbeaa0bb2	-0.33212048
168	0x3e9e9df7	0.30979893
169	0x3e5fcdb8	0.21855819
170	0x3d8c118b	0.068392836
171	0x3d31f117	0.04344281
172	0x3e5f3251	0.21796538
173	0xbea49bea	-0.32150203
174	0xbe6dbe37	-0.23217092
175	0xbe967fe0	-0.29394436
176	0xbd9c175a	-0.076216415
177	0xbec00206	-0.37501544
178	0x3e1a005d	0.15039201
179	0xbf312479	-0.6919628
180	0xbe46a9f9	-0.19400777
181	0xbe3624d3	-0.17787485
182	0xbdb86623	-0.09003856
183	0xbe98d6a2	-0.29851252
184	0x3e159b81	0.14610101
185	0x3e35b1f6	0.17743668
186	0x3e706447	0.23475753
187	0x3e00cffe	0.12579343
188	0xbec5b939	-0.38617876
189	0xbe4256d8	-0.18978441
190	0xbf434e4b	-0.7629134
191	0x3e8e4a14	0.27790892
192	0x3e4bacaf	0.19890092
193	0x3e69d7f4	0.22836286
194	0xbf4c7829	-0.7987085
195	0xbcb9a5b3	-0.02266202
196	0x3bce5748	0.006297026
197	0xbea1ba26	-0.31587332
198	0x3d8f0867	0.069840245
199	0x3e53cc0a	0.20683303
200	0xbe3f089d	-0.1865563
201	0xbd55e556	-0.052220665
202	0x3f0c08ed	0.5470112
203	0xbf0f3bb8	-0.559505
204	0x3d7578d0	0.05992967
205	0x3c390f2a	0.011295119
206	0xbe474f85	-0.19463928
207	0x3d65ecc9	0.05613402
208	0x3e8d2a44	0.2757131
209	0xbf111978	-0.5667949
210	0x3d53f59c	0.051747903
211	0x3e5f5bc8	0.21812356
212	0xbea455fa	-0.32096845
213	0x3ed001e1	0.40626433
214	0x3eccee3b	0.40025505
215	0xbd741a4e	-0.0595954
216	0x3e771015	0.24127229
217	0x3d9979c3	0.07493927
218	0x3e7b38c4	0.24533373
219	0xbebb6d43	-0.36606798
220	0x3ea4f94f	0.32221457
221	0xbe5f2a35	-0.21793444
222	0xbb58af1d	-0.003306336
223	0x3e569497	0.2095512
224	0xbf5e1d8b	-0.8676383
225	0x3eda94dd	0.426917
226	0x3ce5ed2a	0.02806719
227	0xbe01bc16	-0.12669405
228	0xbe081a3b	-0.13291256
229	0x3ed8dc92	0.42355782
230	0xbee2fd80	-0.4433403
231	0x3e4db141	0.20087148
232	0xbed0d5d1	-0.4078813
233	0xbdb4f7c8	-0.08836323
234	0x3e3cfa22	0.18454793
235	0x3e3643aa	0.1779925
236	0x3e6966bb	0.22793095
237	0x3e4ec476	0.20192131
238	0x3ca87d21	0.020567479
239	0xbebf09e0	-0.37312222
240	0x3e4ba7b7	0.19888197
241	0x3e64c636	0.22341236
242	0xbe952a5e	-0.29133886
243	0xbdc26b91	-0.09493173
244	0x3ee066f4	0.43828547
245	0xbdc8de1a	-0.098079875
246	0x3e2a9789	0.16659369
247	0x3d9473ad	0.07248626
248	0xbd6bfa2a	-0.057611622
249	0x3df6dbbd	0.120536305
250	0xbe61f71a	-0.22066918
251	0xbd753f7c	-0.059874997
252	0xbc8f4153	-0.017487204
253	0x3eaabeb9	0.33348635
254	0xbe347aef	-0.1762502
255	0xbd970ea0	-0.07375836

bias f4 [64]
0	0x3de069bc	0.10957667
1	0x3e4d5aba	0.2005414
2	0xbc7e17bb	-0.0155085875
3	0x3e5f849b	0.21827929
4	0xbbc439da	-0.0059883418
5	0xbefbdb9e	-0.49190992
6	0x3e8d0cd5	0.27548853
7	0xbe9ee61d	-0.31034938
8	0x3e3ebef6	0.18627533
9	0x3e2d81c4	0.16944033
10	0x3e545a5a	0.20737591
11	0x3da27b69	0.07933695
12	0xbd76829d	-0.060183156
13	0xbf044778	-0.5167155
14	0xbd73ff5f	-0.059569713
15	0x3de73bdc	0.11290714
16	0xbe9ad6ab	-0.30241904
17	0xbe7a52b7	-0.24445616
18	0xbe7a6db8	-0.24455917
19	0x3e808388	0.2510035
20	0xbcae3664	-0.02126617
21	0x3e1ae55c	0.15126556
22	0x3ed41bb2	0.4142738
23	0xbb535470	-0.0032246374
24	0x3e3c6bf1	0.18400551
25	0xbda1bd9d	-0.07897494
26	0x3e453d4b	0.19261663
27	0xbec23b4c	-0.37935865
28	0xbda10487	-0.07862192
29	0x3e4ccff2	0.200012
30	0xbea5d57b	-0.32389435
31	0x3d151ef1	0.03640646
32	0x3e7e48e6	0.24832496
33	0xbb45b705	-0.0030168903
34	0xbb9179ae	-0.004439554
35	0xbece9017	-0.40344307
36	0x3cef2445	0.0291921
37	0xbe95a5a5	-0.2922794
38	0xbee6d8bb	-0.45087227
39	0x3e939b7a	0.28829557
40	0x3e4f4a76	0.20243248
41	0x3eaf470a	0.34233886
42	0xbea2cb96	-0.3179595
43	0xbd418c75	-0.04725309
44	0x3ea5053b	0.32230553
45	0xbdb67199	-0.08908386
46	0xbeb6cf82	-0.3570519
47	0xbce02305	-0.027360449
48	0x3e026d97	0.12737118
49	0x3e225e38	0.15856254
50	0xbe6774e5	-0.22603185
51	0x3de5d2c0	0.11221838
52	0x3e1afb55	0.15134938
53	0x3ed55534	0.41666567
54	0x3da6a23d	0.08136413
55	0xbece0f01	-0.40245822
56	0xbd9b826a	-0.07593234
57	0xbdd4e4e0	-0.10395217
58	0x3d71d09f	0.059036847
59	0x3d909a8a	0.07060726
60	0xbe7afd51	-0.24510695
61	0x3e459485	0.19294937
62	0x3e0372cd	0.12836762
63	0x3ebb8ea6	0.3663227

weight f4 [32]
0	0x3f657363	0.8962919
1	0x3f935ecc	1.1513305
2	0x3f830859	1.0236923
3	0x3f5417b2	0.82848656
4	0x3f9c82b1	1.2227384
5	0x3f8677e5	1.0505339
6	0x3f6f58d5	0.9349492
7	0x3f516f8e	0.81810844
8	0x3f9cb58a	1.2242901
9	0x3f5b411f	0.8564624
10	0x3f820a48	1.0159388
11	0x3f93c545	1.1544577
12	0x3f6ae138	0.91749907
13	0x3f992640	1.1964798
14	0x3f6c2a55	0.92252094
15	0x3f900326	1.1250961
16	0x3f551e73	0.83249587
17	0x3f529524	0.8225882
18	0x3f8249b4	1.0178742
19	0x3f76ff6d	0.964835
20	0x3f767cfa	0.9628445
21	0x3f52bc0b	0.8231818
22	0x3f7a159f	0.9768924
23	0x3f90e737	1.1320561
24	0x3f95ae08	1.1693735
25	0x3f557b15	0.83390933
26	0x3f8d1894	1.1023126
27	0x3f7e5b46	0.9935802
28	0x3f832b3b	1.0247568
29	0x3f6e27cc	0.93029475
30	0x3f75cbbe	0.9601401
31	0x3f595612	0.8489696

bias f4 [32]
0	0xbe947dc3	-0.290022
1	0xbe84445f	-0.25833413
2	0x3c604125	0.013687407
3	0xbe598472	-0.2124193
4	0xbeb068f8	-0.34455085
5	0xbe9951db	-0.29945263
6	0xbf155307	-0.58329815
7	0xbf42033b	-0.7578618
8	0xbf37874f	-0.7169084
9	0xbe1eeb35	-0.15519412
10	0xbef5f673	-0.48039588
11	0xbea5ebf6	-0.32406586
12	0xbecd0ae0	-0.4004736
13	0xbeb647c2	-0.35601622
14	0xbeaa8de8	-0.3331139
15	0xbf2b3cec	-0.66889834
16	0xbe864f56	-0.26232404
17	0xbeafdb37	-0.34346935
18	0xbce198da	-0.027538706
19	0x3cbf0cb7	0.023321493
20	0xbebccd28	-0.36875272
21	0xbf019464	-0.5061705
22	0xbe5ba23f	-0.2144861
23	0xbea8b45c	-0.32950103
24	0xbf0c0ce7	-0.5470719
25	0xbe978b29	-0.29598358
26	0xbf22e605	-0.6363223
27	0xbdbd2d33	-0.09237137
28	0xbe326b7c	-0.17423815
29	0xbeb562e5	-0.35427013
30	0xbc8b4fa1	-0.017005743
31	0xbf4ca2aa	-0.79935706

running_mean f4 [32]
0	0xbf7b7008	-0.9821782
1	0x3e0cec72	0.13762072
2	0x3f17f62c	0.59360003
3	0xbe7b6107	-0.24548732
4	0x3e389455	0.18025334
5	0x3ecfe962	0.40607744
6	0xbf40e698	-0.7535186
7	0x3ea9888c	0.3311199
8	0x3efce53e	0.49393648
9	0xbe02be6c	-0.12767953
10	0xbe11a405	-0.14222725
11	0xbf01b155	-0.5066121
12	0x3e23be25	0.15990503
13	0xbcbe5365	-0.023233125
14	0xbdb450fe	-0.088045105
15	0xbf27e649	-0.6558576
16	0x3e2c0371	0.16798188
17	0xbdd99beb	-0.10625442
18	0x3cefd29d	0.029275233
19	0x3e337c3b	0.17527859
20	0x3e066fd6	0.131286
21	0x3f43192b	0.7621028
22	0xbf34b3a5	-0.70586616
23	0xbf0ff6ab	-0.5623576
24	0xbe719539	-0.2359208
25	0xbe45ba64	-0.19309384
26	0xbee87d98	-0.4540832
27	0x3e9354e8	0.28775716
28	0x3ea7c957	0.32770798
29	0x3f0d7908	0.55262804
30	0xbf25a415	-0.64703494
31	0xbeb7fdfa	-0.35935956

running_var f4 [32]
0	0x3e9b5ee3	0.3034583
1	0x3f0011eb	0.5002734
2	0x3f7c79aa	0.98623145
3	0x3ed23a67	0.41060182
4	0x3f078870	0.5294256
5	0x3f639884	0.88904595
6	0x3f197d36	0.5995668
7	0x3f158175	0.5840066
8	0x40014918	2.0200863
9	0x3e6f4346	0.23365507
10	0x3f311b5c	0.6918237
11	0x3f4ef497	0.80841964
12	0x3e917b06	0.28414172
13	0x3ef156e7	0.47136614
14	0x3f5d2c8a	0.86396086
15	0x3ea44844	0.32086384
16	0x3ecddf56	0.40209454
17	0x3f9d83e2	1.2305872
18	0x3f118f54	0.56859326
19	0x3ef91b1f	0.48653504
20	0x3f00dcff	0.50337213
21	0x3f2c09ca	0.67202437
22	0x3f146e0c	0.5798042
23	0x3f5dc022	0.86621296
24	0x3f2ad174	0.6672585
25	0x3f84ccb4	1.037497
26	0x3ff80824	1.9377484
27	0x40550801	3.3286135
28	0x3f70601b	0.93896645
29	0x3f1a0214	0.6015942
30	0x4034c27b	2.8243701
31	0x3f46dc36	0.77679765
